…
I0724 23:28:04.270141 17492 net.cpp:313] The NetState phase (0) differed from the phase (1) specified by a rule in layer accuracy
I0724 23:28:04.270200 17492 net.cpp:49] Initializing net from parameters: 
name: "LeNet"
state {
  phase: TRAIN
}
layer {
  name: "mnist"
  type: "Data"
  top: "data"
  top: "label"
  include {
    phase: TRAIN
  }
  transform_param {
    scale: 0.00390625
    mean_file: "data/person_only_lmdb/person_patch_color_mean.binaryproto"
  }
  data_param {
    source: "data/person_only_lmdb/people_patch_train_lmdb"
    batch_size: 64
    backend: LMDB
  }
}
layer {
  name: "conv1"
  type: "Convolution"
  bottom: "data"
  top: "conv1"
  param {
    lr_mult: 1
  }
  param {
    lr_mult: 2
  }
  convolution_param {
    num_output: 96
    kernel_size: 5
    stride: 1
    weight_filler {
      type: "xavier"
    }
    bias_filler {
      type: "constant"
    }
  }
}
layer {
  name: "pool1"
  type: "Pooling"
  bottom: "conv1"
  top: "pool1"
  pooling_param {
    pool: MAX
    kernel_size: 2
    stride: 2
  }
}
layer {
  name: "conv2"
  type: "Convolution"
  bottom: "pool1"
  top: "conv2"
  param {
    lr_mult: 1
  }
  param {
    lr_mult: 2
  }
  convolution_param {
    num_output: 50
    kernel_size: 5
    stride: 1
    weight_filler {
      type: "xavier"
    }
    bias_filler {
      type: "constant"
    }
  }
}
layer {
  name: "pool2"
  type: "Pooling"
  bottom: "conv2"
  top: "pool2"
  pooling_param {
    pool: MAX
    kernel_size: 2
    stride: 2
  }
}
layer {
  name: "ip1"
  type: "InnerProduct"
  bottom: "pool2"
  top: "ip1"
  param {
    lr_mult: 1
  }
  param {
    lr_mult: 2
  }
  inner_product_param {
    num_output: 500
    weight_filler {
      type: "xavier"
    }
    bias_filler {
      type: "constant"
    }
  }
}
layer {
  name: "relu1"
  type: "ReLU"
  bottom: "ip1"
  top: "ip1"
}
layer {
  name: "ip2"
  type: "InnerProduct"
  bottom: "ip1"
  top: "ip2"
  param {
    lr_mult: 1
  }
  param {
    lr_mult: 2
  }
  inner_product_param {
    num_output: 2
    weight_filler {
      type: "xavier"
    }
    bias_filler {
      type: "constant"
    }
  }
}
layer {
  name: "loss"
  type: "SoftmaxWithLoss"
  bottom: "ip2"
  bottom: "label"
  top: "loss"
}
I0724 23:28:04.270236 17492 layer_factory.hpp:77] Creating layer mnist
I0724 23:28:04.270970 17492 net.cpp:91] Creating Layer mnist
I0724 23:28:04.270982 17492 net.cpp:399] mnist -> data
I0724 23:28:04.271004 17492 net.cpp:399] mnist -> label
I0724 23:28:04.271016 17492 data_transformer.cpp:25] Loading mean file from: data/person_only_lmdb/person_patch_color_mean.binaryproto
I0724 23:28:04.272428 17499 db_lmdb.cpp:35] Opened lmdb data/person_only_lmdb/people_patch_train_lmdb
I0724 23:28:22.215001 17492 data_layer.cpp:41] output data size: 64,3,128,128
I0724 23:28:22.235332 17492 net.cpp:141] Setting up mnist
I0724 23:28:22.235410 17492 net.cpp:148] Top shape: 64 3 128 128 (3145728)
I0724 23:28:22.235424 17492 net.cpp:148] Top shape: 64 (64)
I0724 23:28:22.235427 17492 net.cpp:156] Memory required for data: 12583168
I0724 23:28:22.235442 17492 layer_factory.hpp:77] Creating layer conv1
I0724 23:28:22.235518 17492 net.cpp:91] Creating Layer conv1
I0724 23:28:22.235532 17492 net.cpp:425] conv1 <- data
I0724 23:28:22.235540 17492 net.cpp:399] conv1 -> conv1
I0724 23:28:22.366358 17492 net.cpp:141] Setting up conv1
I0724 23:28:22.366391 17492 net.cpp:148] Top shape: 64 96 124 124 (94470144)
I0724 23:28:22.366395 17492 net.cpp:156] Memory required for data: 390463744
I0724 23:28:22.366410 17492 layer_factory.hpp:77] Creating layer pool1
I0724 23:28:22.366425 17492 net.cpp:91] Creating Layer pool1
I0724 23:28:22.366428 17492 net.cpp:425] pool1 <- conv1
I0724 23:28:22.366433 17492 net.cpp:399] pool1 -> pool1
I0724 23:28:22.366475 17492 net.cpp:141] Setting up pool1
I0724 23:28:22.366485 17492 net.cpp:148] Top shape: 64 96 62 62 (23617536)
I0724 23:28:22.366499 17492 net.cpp:156] Memory required for data: 484933888
I0724 23:28:22.366503 17492 layer_factory.hpp:77] Creating layer conv2
I0724 23:28:22.366523 17492 net.cpp:91] Creating Layer conv2
I0724 23:28:22.366526 17492 net.cpp:425] conv2 <- pool1
I0724 23:28:22.366531 17492 net.cpp:399] conv2 -> conv2
I0724 23:28:22.368914 17492 net.cpp:141] Setting up conv2
I0724 23:28:22.368929 17492 net.cpp:148] Top shape: 64 50 58 58 (10764800)
I0724 23:28:22.368933 17492 net.cpp:156] Memory required for data: 527993088
I0724 23:28:22.368942 17492 layer_factory.hpp:77] Creating layer pool2
I0724 23:28:22.368947 17492 net.cpp:91] Creating Layer pool2
I0724 23:28:22.368952 17492 net.cpp:425] pool2 <- conv2
I0724 23:28:22.368955 17492 net.cpp:399] pool2 -> pool2
I0724 23:28:22.368990 17492 net.cpp:141] Setting up pool2
I0724 23:28:22.369009 17492 net.cpp:148] Top shape: 64 50 29 29 (2691200)
I0724 23:28:22.369011 17492 net.cpp:156] Memory required for data: 538757888
I0724 23:28:22.369025 17492 layer_factory.hpp:77] Creating layer ip1
I0724 23:28:22.369032 17492 net.cpp:91] Creating Layer ip1
I0724 23:28:22.369035 17492 net.cpp:425] ip1 <- pool2
I0724 23:28:22.369040 17492 net.cpp:399] ip1 -> ip1
I0724 23:28:22.516494 17492 net.cpp:141] Setting up ip1
I0724 23:28:22.516533 17492 net.cpp:148] Top shape: 64 500 (32000)
I0724 23:28:22.516537 17492 net.cpp:156] Memory required for data: 538885888
I0724 23:28:22.516567 17492 layer_factory.hpp:77] Creating layer relu1
I0724 23:28:22.516582 17492 net.cpp:91] Creating Layer relu1
I0724 23:28:22.516587 17492 net.cpp:425] relu1 <- ip1
I0724 23:28:22.516592 17492 net.cpp:386] relu1 -> ip1 (in-place)
I0724 23:28:22.517149 17492 net.cpp:141] Setting up relu1
I0724 23:28:22.517174 17492 net.cpp:148] Top shape: 64 500 (32000)
I0724 23:28:22.517176 17492 net.cpp:156] Memory required for data: 539013888
I0724 23:28:22.517179 17492 layer_factory.hpp:77] Creating layer ip2
I0724 23:28:22.517208 17492 net.cpp:91] Creating Layer ip2
I0724 23:28:22.517212 17492 net.cpp:425] ip2 <- ip1
I0724 23:28:22.517218 17492 net.cpp:399] ip2 -> ip2
I0724 23:28:22.517354 17492 net.cpp:141] Setting up ip2
I0724 23:28:22.517361 17492 net.cpp:148] Top shape: 64 2 (128)
I0724 23:28:22.517364 17492 net.cpp:156] Memory required for data: 539014400
I0724 23:28:22.517380 17492 layer_factory.hpp:77] Creating layer loss
I0724 23:28:22.517393 17492 net.cpp:91] Creating Layer loss
I0724 23:28:22.517397 17492 net.cpp:425] loss <- ip2
I0724 23:28:22.517401 17492 net.cpp:425] loss <- label
I0724 23:28:22.517405 17492 net.cpp:399] loss -> loss
I0724 23:28:22.517415 17492 layer_factory.hpp:77] Creating layer loss
…
I0724 23:28:22.518179 17492 net.cpp:313] The NetState phase (1) differed from the phase (0) specified by a rule in layer mnist
I0724 23:28:22.518257 17492 net.cpp:49] Initializing net from parameters: 
name: "LeNet"
state {
  phase: TEST
}
layer {
  name: "mnist"
  type: "Data"
  top: "data"
  top: "label"
  include {
    phase: TEST
  }
  transform_param {
    scale: 0.00390625
    mean_file: "data/person_only_lmdb/person_patch_color_mean.binaryproto"
  }
  data_param {
    source: "data/person_only_lmdb/people_patch_test_lmdb"
    batch_size: 100
    backend: LMDB
  }
}
layer {
  name: "conv1"
  type: "Convolution"
  bottom: "data"
  top: "conv1"
  param {
    lr_mult: 1
  }
  param {
    lr_mult: 2
  }
  convolution_param {
    num_output: 96
    kernel_size: 5
    stride: 1
    weight_filler {
      type: "xavier"
    }
    bias_filler {
      type: "constant"
    }
  }
}
layer {
  name: "pool1"
  type: "Pooling"
  bottom: "conv1"
  top: "pool1"
  pooling_param {
    pool: MAX
    kernel_size: 2
    stride: 2
  }
}
layer {
  name: "conv2"
  type: "Convolution"
  bottom: "pool1"
  top: "conv2"
  param {
    lr_mult: 1
  }
  param {
    lr_mult: 2
  }
  convolution_param {
    num_output: 50
    kernel_size: 5
    stride: 1
    weight_filler {
      type: "xavier"
    }
    bias_filler {
      type: "constant"
    }
  }
}
layer {
  name: "pool2"
  type: "Pooling"
  bottom: "conv2"
  top: "pool2"
  pooling_param {
    pool: MAX
    kernel_size: 2
    stride: 2
  }
}
layer {
  name: "ip1"
  type: "InnerProduct"
  bottom: "pool2"
  top: "ip1"
  param {
    lr_mult: 1
  }
  param {
    lr_mult: 2
  }
  inner_product_param {
    num_output: 500
    weight_filler {
      type: "xavier"
    }
    bias_filler {
      type: "constant"
    }
  }
}
layer {
  name: "relu1"
  type: "ReLU"
  bottom: "ip1"
  top: "ip1"
}
layer {
  name: "ip2"
  type: "InnerProduct"
  bottom: "ip1"
  top: "ip2"
  param {
    lr_mult: 1
  }
  param {
    lr_mult: 2
  }
  inner_product_param {
    num_output: 2
    weight_filler {
      type: "xavier"
    }
    bias_filler {
      type: "constant"
    }
  }
}
layer {
  name: "accuracy"
  type: "Accuracy"
  bottom: "ip2"
  bottom: "label"
  top: "accuracy"
  include {
    phase: TEST
  }
}
layer {
  name: "loss"
  type: "SoftmaxWithLoss"
  bottom: "ip2"
  bottom: "label"
  top: "loss"
}
I0724 23:28:22.518313 17492 layer_factory.hpp:77] Creating layer mnist
I0724 23:28:22.518412 17492 net.cpp:91] Creating Layer mnist
I0724 23:28:22.518420 17492 net.cpp:399] mnist -> data
I0724 23:28:22.518429 17492 net.cpp:399] mnist -> label
I0724 23:28:22.518435 17492 data_transformer.cpp:25] Loading mean file from: data/person_only_lmdb/person_patch_color_mean.binaryproto
I0724 23:28:22.519819 17501 db_lmdb.cpp:35] Opened lmdb data/person_only_lmdb/people_patch_test_lmdb
I0724 23:28:22.520040 17492 data_layer.cpp:41] output data size: 100,3,128,128
I0724 23:28:22.560004 17492 net.cpp:141] Setting up mnist
I0724 23:28:22.560055 17492 net.cpp:148] Top shape: 100 3 128 128 (4915200)
I0724 23:28:22.560060 17492 net.cpp:148] Top shape: 100 (100)
I0724 23:28:22.560063 17492 net.cpp:156] Memory required for data: 19661200
I0724 23:28:22.560070 17492 layer_factory.hpp:77] Creating layer label_mnist_1_split
I0724 23:28:22.560082 17492 net.cpp:91] Creating Layer label_mnist_1_split
I0724 23:28:22.560086 17492 net.cpp:425] label_mnist_1_split <- label
I0724 23:28:22.560093 17492 net.cpp:399] label_mnist_1_split -> label_mnist_1_split_0
I0724 23:28:22.560102 17492 net.cpp:399] label_mnist_1_split -> label_mnist_1_split_1
I0724 23:28:22.560405 17492 net.cpp:141] Setting up label_mnist_1_split
I0724 23:28:22.560431 17492 net.cpp:148] Top shape: 100 (100)
I0724 23:28:22.560434 17492 net.cpp:148] Top shape: 100 (100)
I0724 23:28:22.560437 17492 net.cpp:156] Memory required for data: 19662000
I0724 23:28:22.560441 17492 layer_factory.hpp:77] Creating layer conv1
I0724 23:28:22.560456 17492 net.cpp:91] Creating Layer conv1
I0724 23:28:22.560458 17492 net.cpp:425] conv1 <- data
I0724 23:28:22.560466 17492 net.cpp:399] conv1 -> conv1
I0724 23:28:22.562249 17492 net.cpp:141] Setting up conv1
I0724 23:28:22.562275 17492 net.cpp:148] Top shape: 100 96 124 124 (147609600)
I0724 23:28:22.562279 17492 net.cpp:156] Memory required for data: 610100400
I0724 23:28:22.562290 17492 layer_factory.hpp:77] Creating layer pool1
I0724 23:28:22.562299 17492 net.cpp:91] Creating Layer pool1
I0724 23:28:22.562301 17492 net.cpp:425] pool1 <- conv1
I0724 23:28:22.562306 17492 net.cpp:399] pool1 -> pool1
I0724 23:28:22.562356 17492 net.cpp:141] Setting up pool1
I0724 23:28:22.562364 17492 net.cpp:148] Top shape: 100 96 62 62 (36902400)
I0724 23:28:22.562367 17492 net.cpp:156] Memory required for data: 757710000
I0724 23:28:22.562371 17492 layer_factory.hpp:77] Creating layer conv2
I0724 23:28:22.562379 17492 net.cpp:91] Creating Layer conv2
I0724 23:28:22.562386 17492 net.cpp:425] conv2 <- pool1
I0724 23:28:22.562402 17492 net.cpp:399] conv2 -> conv2
I0724 23:28:22.568316 17492 net.cpp:141] Setting up conv2
I0724 23:28:22.568342 17492 net.cpp:148] Top shape: 100 50 58 58 (16820000)
I0724 23:28:22.568346 17492 net.cpp:156] Memory required for data: 824990000
I0724 23:28:22.568354 17492 layer_factory.hpp:77] Creating layer pool2
I0724 23:28:22.568361 17492 net.cpp:91] Creating Layer pool2
I0724 23:28:22.568363 17492 net.cpp:425] pool2 <- conv2
I0724 23:28:22.568369 17492 net.cpp:399] pool2 -> pool2
I0724 23:28:22.568416 17492 net.cpp:141] Setting up pool2
I0724 23:28:22.568423 17492 net.cpp:148] Top shape: 100 50 29 29 (4205000)
I0724 23:28:22.568426 17492 net.cpp:156] Memory required for data: 841810000
I0724 23:28:22.568429 17492 layer_factory.hpp:77] Creating layer ip1
I0724 23:28:22.568437 17492 net.cpp:91] Creating Layer ip1
I0724 23:28:22.568442 17492 net.cpp:425] ip1 <- pool2
I0724 23:28:22.568459 17492 net.cpp:399] ip1 -> ip1
I0724 23:28:22.715713 17492 net.cpp:141] Setting up ip1
I0724 23:28:22.715766 17492 net.cpp:148] Top shape: 100 500 (50000)
I0724 23:28:22.715770 17492 net.cpp:156] Memory required for data: 842010000
I0724 23:28:22.715785 17492 layer_factory.hpp:77] Creating layer relu1
I0724 23:28:22.715795 17492 net.cpp:91] Creating Layer relu1
I0724 23:28:22.715800 17492 net.cpp:425] relu1 <- ip1
I0724 23:28:22.715806 17492 net.cpp:386] relu1 -> ip1 (in-place)
I0724 23:28:22.716251 17492 net.cpp:141] Setting up relu1
I0724 23:28:22.716264 17492 net.cpp:148] Top shape: 100 500 (50000)
I0724 23:28:22.716277 17492 net.cpp:156] Memory required for data: 842210000
I0724 23:28:22.716280 17492 layer_factory.hpp:77] Creating layer ip2
I0724 23:28:22.716291 17492 net.cpp:91] Creating Layer ip2
I0724 23:28:22.716295 17492 net.cpp:425] ip2 <- ip1
I0724 23:28:22.716300 17492 net.cpp:399] ip2 -> ip2
I0724 23:28:22.716430 17492 net.cpp:141] Setting up ip2
I0724 23:28:22.716437 17492 net.cpp:148] Top shape: 100 2 (200)
I0724 23:28:22.716451 17492 net.cpp:156] Memory required for data: 842210800
I0724 23:28:22.716456 17492 layer_factory.hpp:77] Creating layer ip2_ip2_0_split
I0724 23:28:22.716462 17492 net.cpp:91] Creating Layer ip2_ip2_0_split
I0724 23:28:22.716466 17492 net.cpp:425] ip2_ip2_0_split <- ip2
I0724 23:28:22.716471 17492 net.cpp:399] ip2_ip2_0_split -> ip2_ip2_0_split_0
I0724 23:28:22.716476 17492 net.cpp:399] ip2_ip2_0_split -> ip2_ip2_0_split_1
I0724 23:28:22.716517 17492 net.cpp:141] Setting up ip2_ip2_0_split
I0724 23:28:22.716524 17492 net.cpp:148] Top shape: 100 2 (200)
I0724 23:28:22.716527 17492 net.cpp:148] Top shape: 100 2 (200)
I0724 23:28:22.716531 17492 net.cpp:156] Memory required for data: 842212400
I0724 23:28:22.716533 17492 layer_factory.hpp:77] Creating layer accuracy
I0724 23:28:22.716541 17492 net.cpp:91] Creating Layer accuracy
I0724 23:28:22.716543 17492 net.cpp:425] accuracy <- ip2_ip2_0_split_0
I0724 23:28:22.716547 17492 net.cpp:425] accuracy <- label_mnist_1_split_0
I0724 23:28:22.716552 17492 net.cpp:399] accuracy -> accuracy
…
