…
I0725 11:47:49.517437 19499 net.cpp:313] The NetState phase (0) differed from the phase (1) specified by a rule in layer accuracy
I0725 11:47:49.517495 19499 net.cpp:49] Initializing net from parameters: 
name: "LeNet"
state {
  phase: TRAIN
}
layer {
  name: "mnist"
  type: "Data"
  top: "data"
  top: "label"
  include {
    phase: TRAIN
  }
  transform_param {
    scale: 0.00390625
    mean_file: "data/person_only_lmdb/person_background_only_color_mean.binaryproto"
  }
  data_param {
    source: "data/person_only_lmdb/person_background_only_train_lmdb"
    batch_size: 64
    backend: LMDB
  }
}
layer {
  name: "conv1"
  type: "Convolution"
  bottom: "data"
  top: "conv1"
  param {
    lr_mult: 1
  }
  param {
    lr_mult: 2
  }
  convolution_param {
    num_output: 96
    kernel_size: 5
    stride: 1
    weight_filler {
      type: "xavier"
    }
    bias_filler {
      type: "constant"
    }
  }
}
layer {
  name: "pool1"
  type: "Pooling"
  bottom: "conv1"
  top: "pool1"
  pooling_param {
    pool: MAX
    kernel_size: 2
    stride: 2
  }
}
layer {
  name: "conv2"
  type: "Convolution"
  bottom: "pool1"
  top: "conv2"
  param {
    lr_mult: 1
  }
  param {
    lr_mult: 2
  }
  convolution_param {
    num_output: 50
    kernel_size: 5
    stride: 1
    weight_filler {
      type: "xavier"
    }
    bias_filler {
      type: "constant"
    }
  }
}
layer {
  name: "pool2"
  type: "Pooling"
  bottom: "conv2"
  top: "pool2"
  pooling_param {
    pool: MAX
    kernel_size: 2
    stride: 2
  }
}
layer {
  name: "ip1"
  type: "InnerProduct"
  bottom: "pool2"
  top: "ip1"
  param {
    lr_mult: 1
  }
  param {
    lr_mult: 2
  }
  inner_product_param {
    num_output: 500
    weight_filler {
      type: "xavier"
    }
    bias_filler {
      type: "constant"
    }
  }
}
layer {
  name: "relu1"
  type: "ReLU"
  bottom: "ip1"
  top: "ip1"
}
layer {
  name: "ip2"
  type: "InnerProduct"
  bottom: "ip1"
  top: "ip2"
  param {
    lr_mult: 1
  }
  param {
    lr_mult: 2
  }
  inner_product_param {
    num_output: 2
    weight_filler {
      type: "xavier"
    }
    bias_filler {
      type: "constant"
    }
  }
}
layer {
  name: "loss"
  type: "SoftmaxWithLoss"
  bottom: "ip2"
  bottom: "label"
  top: "loss"
}
I0725 11:47:49.517532 19499 layer_factory.hpp:77] Creating layer mnist
I0725 11:47:49.518255 19499 net.cpp:91] Creating Layer mnist
I0725 11:47:49.518280 19499 net.cpp:399] mnist -> data
I0725 11:47:49.518291 19499 net.cpp:399] mnist -> label
I0725 11:47:49.518306 19499 data_transformer.cpp:25] Loading mean file from: data/person_only_lmdb/person_background_only_color_mean.binaryproto
I0725 11:47:49.519645 19506 db_lmdb.cpp:35] Opened lmdb data/person_only_lmdb/person_background_only_train_lmdb
I0725 11:48:01.244534 19499 data_layer.cpp:41] output data size: 64,3,128,128
I0725 11:48:01.265238 19499 net.cpp:141] Setting up mnist
I0725 11:48:01.265292 19499 net.cpp:148] Top shape: 64 3 128 128 (3145728)
I0725 11:48:01.265301 19499 net.cpp:148] Top shape: 64 (64)
I0725 11:48:01.265305 19499 net.cpp:156] Memory required for data: 12583168
I0725 11:48:01.265323 19499 layer_factory.hpp:77] Creating layer conv1
I0725 11:48:01.265377 19499 net.cpp:91] Creating Layer conv1
I0725 11:48:01.265384 19499 net.cpp:425] conv1 <- data
I0725 11:48:01.265393 19499 net.cpp:399] conv1 -> conv1
I0725 11:48:01.819459 19499 net.cpp:141] Setting up conv1
I0725 11:48:01.819520 19499 net.cpp:148] Top shape: 64 96 124 124 (94470144)
I0725 11:48:01.819528 19499 net.cpp:156] Memory required for data: 390463744
I0725 11:48:01.819550 19499 layer_factory.hpp:77] Creating layer pool1
I0725 11:48:01.819568 19499 net.cpp:91] Creating Layer pool1
I0725 11:48:01.819576 19499 net.cpp:425] pool1 <- conv1
I0725 11:48:01.819584 19499 net.cpp:399] pool1 -> pool1
I0725 11:48:01.819658 19499 net.cpp:141] Setting up pool1
I0725 11:48:01.819671 19499 net.cpp:148] Top shape: 64 96 62 62 (23617536)
I0725 11:48:01.819677 19499 net.cpp:156] Memory required for data: 484933888
I0725 11:48:01.819682 19499 layer_factory.hpp:77] Creating layer conv2
I0725 11:48:01.819699 19499 net.cpp:91] Creating Layer conv2
I0725 11:48:01.819706 19499 net.cpp:425] conv2 <- pool1
I0725 11:48:01.819715 19499 net.cpp:399] conv2 -> conv2
I0725 11:48:01.823717 19499 net.cpp:141] Setting up conv2
I0725 11:48:01.823742 19499 net.cpp:148] Top shape: 64 50 58 58 (10764800)
I0725 11:48:01.823750 19499 net.cpp:156] Memory required for data: 527993088
I0725 11:48:01.823763 19499 layer_factory.hpp:77] Creating layer pool2
I0725 11:48:01.823776 19499 net.cpp:91] Creating Layer pool2
I0725 11:48:01.823781 19499 net.cpp:425] pool2 <- conv2
I0725 11:48:01.823788 19499 net.cpp:399] pool2 -> pool2
I0725 11:48:01.823853 19499 net.cpp:141] Setting up pool2
I0725 11:48:01.823865 19499 net.cpp:148] Top shape: 64 50 29 29 (2691200)
I0725 11:48:01.823870 19499 net.cpp:156] Memory required for data: 538757888
I0725 11:48:01.823875 19499 layer_factory.hpp:77] Creating layer ip1
I0725 11:48:01.823890 19499 net.cpp:91] Creating Layer ip1
I0725 11:48:01.823895 19499 net.cpp:425] ip1 <- pool2
I0725 11:48:01.823904 19499 net.cpp:399] ip1 -> ip1
I0725 11:48:02.004792 19499 net.cpp:141] Setting up ip1
I0725 11:48:02.004832 19499 net.cpp:148] Top shape: 64 500 (32000)
I0725 11:48:02.004835 19499 net.cpp:156] Memory required for data: 538885888
I0725 11:48:02.004850 19499 layer_factory.hpp:77] Creating layer relu1
I0725 11:48:02.004873 19499 net.cpp:91] Creating Layer relu1
I0725 11:48:02.004878 19499 net.cpp:425] relu1 <- ip1
I0725 11:48:02.004884 19499 net.cpp:386] relu1 -> ip1 (in-place)
I0725 11:48:02.005229 19499 net.cpp:141] Setting up relu1
I0725 11:48:02.005241 19499 net.cpp:148] Top shape: 64 500 (32000)
I0725 11:48:02.005256 19499 net.cpp:156] Memory required for data: 539013888
I0725 11:48:02.005259 19499 layer_factory.hpp:77] Creating layer ip2
I0725 11:48:02.005270 19499 net.cpp:91] Creating Layer ip2
I0725 11:48:02.005272 19499 net.cpp:425] ip2 <- ip1
I0725 11:48:02.005278 19499 net.cpp:399] ip2 -> ip2
I0725 11:48:02.005393 19499 net.cpp:141] Setting up ip2
I0725 11:48:02.005399 19499 net.cpp:148] Top shape: 64 2 (128)
I0725 11:48:02.005414 19499 net.cpp:156] Memory required for data: 539014400
I0725 11:48:02.005419 19499 layer_factory.hpp:77] Creating layer loss
I0725 11:48:02.005429 19499 net.cpp:91] Creating Layer loss
I0725 11:48:02.005431 19499 net.cpp:425] loss <- ip2
I0725 11:48:02.005434 19499 net.cpp:425] loss <- label
I0725 11:48:02.005439 19499 net.cpp:399] loss -> loss
I0725 11:48:02.005446 19499 layer_factory.hpp:77] Creating layer loss
…
I0725 11:48:02.006093 19499 net.cpp:313] The NetState phase (1) differed from the phase (0) specified by a rule in layer mnist
I0725 11:48:02.006170 19499 net.cpp:49] Initializing net from parameters: 
name: "LeNet"
state {
  phase: TEST
}
layer {
  name: "mnist"
  type: "Data"
  top: "data"
  top: "label"
  include {
    phase: TEST
  }
  transform_param {
    scale: 0.00390625
    mean_file: "data/person_only_lmdb/person_background_only_color_mean.binaryproto"
  }
  data_param {
    source: "data/person_only_lmdb/person_background_only_test_lmdb"
    batch_size: 100
    backend: LMDB
  }
}
layer {
  name: "conv1"
  type: "Convolution"
  bottom: "data"
  top: "conv1"
  param {
    lr_mult: 1
  }
  param {
    lr_mult: 2
  }
  convolution_param {
    num_output: 96
    kernel_size: 5
    stride: 1
    weight_filler {
      type: "xavier"
    }
    bias_filler {
      type: "constant"
    }
  }
}
layer {
  name: "pool1"
  type: "Pooling"
  bottom: "conv1"
  top: "pool1"
  pooling_param {
    pool: MAX
    kernel_size: 2
    stride: 2
  }
}
layer {
  name: "conv2"
  type: "Convolution"
  bottom: "pool1"
  top: "conv2"
  param {
    lr_mult: 1
  }
  param {
    lr_mult: 2
  }
  convolution_param {
    num_output: 50
    kernel_size: 5
    stride: 1
    weight_filler {
      type: "xavier"
    }
    bias_filler {
      type: "constant"
    }
  }
}
layer {
  name: "pool2"
  type: "Pooling"
  bottom: "conv2"
  top: "pool2"
  pooling_param {
    pool: MAX
    kernel_size: 2
    stride: 2
  }
}
layer {
  name: "ip1"
  type: "InnerProduct"
  bottom: "pool2"
  top: "ip1"
  param {
    lr_mult: 1
  }
  param {
    lr_mult: 2
  }
  inner_product_param {
    num_output: 500
    weight_filler {
      type: "xavier"
    }
    bias_filler {
      type: "constant"
    }
  }
}
layer {
  name: "relu1"
  type: "ReLU"
  bottom: "ip1"
  top: "ip1"
}
layer {
  name: "ip2"
  type: "InnerProduct"
  bottom: "ip1"
  top: "ip2"
  param {
    lr_mult: 1
  }
  param {
    lr_mult: 2
  }
  inner_product_param {
    num_output: 2
    weight_filler {
      type: "xavier"
    }
    bias_filler {
      type: "constant"
    }
  }
}
layer {
  name: "accuracy"
  type: "Accuracy"
  bottom: "ip2"
  bottom: "label"
  top: "accuracy"
  include {
    phase: TEST
  }
}
layer {
  name: "loss"
  type: "SoftmaxWithLoss"
  bottom: "ip2"
  bottom: "label"
  top: "loss"
}
I0725 11:48:02.006222 19499 layer_factory.hpp:77] Creating layer mnist
I0725 11:48:02.006319 19499 net.cpp:91] Creating Layer mnist
I0725 11:48:02.006328 19499 net.cpp:399] mnist -> data
I0725 11:48:02.006336 19499 net.cpp:399] mnist -> label
I0725 11:48:02.006342 19499 data_transformer.cpp:25] Loading mean file from: data/person_only_lmdb/person_background_only_color_mean.binaryproto
I0725 11:48:02.007625 19508 db_lmdb.cpp:35] Opened lmdb data/person_only_lmdb/person_background_only_test_lmdb
I0725 11:48:02.007863 19499 data_layer.cpp:41] output data size: 100,3,128,128
I0725 11:48:02.040441 19499 net.cpp:141] Setting up mnist
I0725 11:48:02.040482 19499 net.cpp:148] Top shape: 100 3 128 128 (4915200)
I0725 11:48:02.040487 19499 net.cpp:148] Top shape: 100 (100)
I0725 11:48:02.040489 19499 net.cpp:156] Memory required for data: 19661200
I0725 11:48:02.040496 19499 layer_factory.hpp:77] Creating layer label_mnist_1_split
I0725 11:48:02.040521 19499 net.cpp:91] Creating Layer label_mnist_1_split
I0725 11:48:02.040526 19499 net.cpp:425] label_mnist_1_split <- label
I0725 11:48:02.040534 19499 net.cpp:399] label_mnist_1_split -> label_mnist_1_split_0
I0725 11:48:02.040544 19499 net.cpp:399] label_mnist_1_split -> label_mnist_1_split_1
I0725 11:48:02.040617 19499 net.cpp:141] Setting up label_mnist_1_split
I0725 11:48:02.040627 19499 net.cpp:148] Top shape: 100 (100)
I0725 11:48:02.040630 19499 net.cpp:148] Top shape: 100 (100)
I0725 11:48:02.040632 19499 net.cpp:156] Memory required for data: 19662000
I0725 11:48:02.040637 19499 layer_factory.hpp:77] Creating layer conv1
I0725 11:48:02.040649 19499 net.cpp:91] Creating Layer conv1
I0725 11:48:02.040652 19499 net.cpp:425] conv1 <- data
I0725 11:48:02.040658 19499 net.cpp:399] conv1 -> conv1
I0725 11:48:02.042013 19499 net.cpp:141] Setting up conv1
I0725 11:48:02.042031 19499 net.cpp:148] Top shape: 100 96 124 124 (147609600)
I0725 11:48:02.042034 19499 net.cpp:156] Memory required for data: 610100400
I0725 11:48:02.042045 19499 layer_factory.hpp:77] Creating layer pool1
I0725 11:48:02.042053 19499 net.cpp:91] Creating Layer pool1
I0725 11:48:02.042057 19499 net.cpp:425] pool1 <- conv1
I0725 11:48:02.042062 19499 net.cpp:399] pool1 -> pool1
I0725 11:48:02.042110 19499 net.cpp:141] Setting up pool1
I0725 11:48:02.042119 19499 net.cpp:148] Top shape: 100 96 62 62 (36902400)
I0725 11:48:02.042122 19499 net.cpp:156] Memory required for data: 757710000
I0725 11:48:02.042125 19499 layer_factory.hpp:77] Creating layer conv2
I0725 11:48:02.042135 19499 net.cpp:91] Creating Layer conv2
I0725 11:48:02.042141 19499 net.cpp:425] conv2 <- pool1
I0725 11:48:02.042157 19499 net.cpp:399] conv2 -> conv2
I0725 11:48:02.046393 19499 net.cpp:141] Setting up conv2
I0725 11:48:02.046412 19499 net.cpp:148] Top shape: 100 50 58 58 (16820000)
I0725 11:48:02.046416 19499 net.cpp:156] Memory required for data: 824990000
I0725 11:48:02.046424 19499 layer_factory.hpp:77] Creating layer pool2
I0725 11:48:02.046432 19499 net.cpp:91] Creating Layer pool2
I0725 11:48:02.046435 19499 net.cpp:425] pool2 <- conv2
I0725 11:48:02.046452 19499 net.cpp:399] pool2 -> pool2
I0725 11:48:02.046489 19499 net.cpp:141] Setting up pool2
I0725 11:48:02.046497 19499 net.cpp:148] Top shape: 100 50 29 29 (4205000)
I0725 11:48:02.046500 19499 net.cpp:156] Memory required for data: 841810000
I0725 11:48:02.046504 19499 layer_factory.hpp:77] Creating layer ip1
I0725 11:48:02.046510 19499 net.cpp:91] Creating Layer ip1
I0725 11:48:02.046512 19499 net.cpp:425] ip1 <- pool2
I0725 11:48:02.046519 19499 net.cpp:399] ip1 -> ip1
I0725 11:48:02.194123 19499 net.cpp:141] Setting up ip1
I0725 11:48:02.194166 19499 net.cpp:148] Top shape: 100 500 (50000)
I0725 11:48:02.194170 19499 net.cpp:156] Memory required for data: 842010000
I0725 11:48:02.194185 19499 layer_factory.hpp:77] Creating layer relu1
I0725 11:48:02.194195 19499 net.cpp:91] Creating Layer relu1
I0725 11:48:02.194200 19499 net.cpp:425] relu1 <- ip1
I0725 11:48:02.194216 19499 net.cpp:386] relu1 -> ip1 (in-place)
I0725 11:48:02.194623 19499 net.cpp:141] Setting up relu1
I0725 11:48:02.194648 19499 net.cpp:148] Top shape: 100 500 (50000)
I0725 11:48:02.194650 19499 net.cpp:156] Memory required for data: 842210000
I0725 11:48:02.194653 19499 layer_factory.hpp:77] Creating layer ip2
I0725 11:48:02.194664 19499 net.cpp:91] Creating Layer ip2
I0725 11:48:02.194667 19499 net.cpp:425] ip2 <- ip1
I0725 11:48:02.194674 19499 net.cpp:399] ip2 -> ip2
I0725 11:48:02.194788 19499 net.cpp:141] Setting up ip2
I0725 11:48:02.194795 19499 net.cpp:148] Top shape: 100 2 (200)
I0725 11:48:02.194810 19499 net.cpp:156] Memory required for data: 842210800
I0725 11:48:02.194815 19499 layer_factory.hpp:77] Creating layer ip2_ip2_0_split
I0725 11:48:02.194820 19499 net.cpp:91] Creating Layer ip2_ip2_0_split
I0725 11:48:02.194823 19499 net.cpp:425] ip2_ip2_0_split <- ip2
I0725 11:48:02.194828 19499 net.cpp:399] ip2_ip2_0_split -> ip2_ip2_0_split_0
I0725 11:48:02.194833 19499 net.cpp:399] ip2_ip2_0_split -> ip2_ip2_0_split_1
I0725 11:48:02.194867 19499 net.cpp:141] Setting up ip2_ip2_0_split
I0725 11:48:02.194876 19499 net.cpp:148] Top shape: 100 2 (200)
I0725 11:48:02.194882 19499 net.cpp:148] Top shape: 100 2 (200)
I0725 11:48:02.194890 19499 net.cpp:156] Memory required for data: 842212400
I0725 11:48:02.194893 19499 layer_factory.hpp:77] Creating layer accuracy
I0725 11:48:02.194903 19499 net.cpp:91] Creating Layer accuracy
I0725 11:48:02.194908 19499 net.cpp:425] accuracy <- ip2_ip2_0_split_0
I0725 11:48:02.194914 19499 net.cpp:425] accuracy <- label_mnist_1_split_0
I0725 11:48:02.194921 19499 net.cpp:399] accuracy -> accuracy
…
