…
I0714 12:01:50.786171 46270 net.cpp:313] The NetState phase (0) differed from the phase (1) specified by a rule in layer accuracy
I0714 12:01:50.786298 46270 net.cpp:49] Initializing net from parameters: 
name: "LeNet"
state {
  phase: TRAIN
}
layer {
  name: "mnist"
  type: "Data"
  top: "data"
  top: "label"
  include {
    phase: TRAIN
  }
  transform_param {
    scale: 0.00390625
    mean_file: "data/person_only_lmdb/person_patch_color_mean.binaryproto"
  }
  data_param {
    source: "data/person_only_lmdb/people_patch_train_lmdb"
    batch_size: 64
    backend: LMDB
  }
}
layer {
  name: "conv1"
  type: "Convolution"
  bottom: "data"
  top: "conv1"
  param {
    lr_mult: 1
  }
  param {
    lr_mult: 2
  }
  convolution_param {
    num_output: 96
    kernel_size: 5
    stride: 1
    weight_filler {
      type: "xavier"
    }
    bias_filler {
      type: "constant"
    }
  }
}
layer {
  name: "pool1"
  type: "Pooling"
  bottom: "conv1"
  top: "pool1"
  pooling_param {
    pool: MAX
    kernel_size: 2
    stride: 2
  }
}
layer {
  name: "conv2"
  type: "Convolution"
  bottom: "pool1"
  top: "conv2"
  param {
    lr_mult: 1
  }
  param {
    lr_mult: 2
  }
  convolution_param {
    num_output: 50
    kernel_size: 5
    stride: 1
    weight_filler {
      type: "xavier"
    }
    bias_filler {
      type: "constant"
    }
  }
}
layer {
  name: "pool2"
  type: "Pooling"
  bottom: "conv2"
  top: "pool2"
  pooling_param {
    pool: MAX
    kernel_size: 2
    stride: 2
  }
}
layer {
  name: "ip1"
  type: "InnerProduct"
  bottom: "pool2"
  top: "ip1"
  param {
    lr_mult: 1
  }
  param {
    lr_mult: 2
  }
  inner_product_param {
    num_output: 500
    weight_filler {
      type: "xavier"
    }
    bias_filler {
      type: "constant"
    }
  }
}
layer {
  name: "relu1"
  type: "ReLU"
  bottom: "ip1"
  top: "ip1"
}
layer {
  name: "ip2"
  type: "InnerProduct"
  bottom: "ip1"
  top: "ip2"
  param {
    lr_mult: 1
  }
  param {
    lr_mult: 2
  }
  inner_product_param {
    num_output: 2
    weight_filler {
      type: "xavier"
    }
    bias_filler {
      type: "constant"
    }
  }
}
layer {
  name: "loss"
  type: "SoftmaxWithLoss"
  bottom: "ip2"
  bottom: "label"
  top: "loss"
}
I0714 12:01:50.786377 46270 layer_factory.hpp:77] Creating layer mnist
I0714 12:01:50.787695 46270 net.cpp:91] Creating Layer mnist
I0714 12:01:50.787724 46270 net.cpp:399] mnist -> data
I0714 12:01:50.787746 46270 net.cpp:399] mnist -> label
I0714 12:01:50.787803 46270 data_transformer.cpp:25] Loading mean file from: data/person_only_lmdb/person_patch_color_mean.binaryproto
I0714 12:01:50.789116 46276 db_lmdb.cpp:35] Opened lmdb data/person_only_lmdb/people_patch_train_lmdb
I0714 12:04:59.591213 46270 data_layer.cpp:41] output data size: 64,3,128,128
I0714 12:04:59.620635 46270 net.cpp:141] Setting up mnist
I0714 12:04:59.620683 46270 net.cpp:148] Top shape: 64 3 128 128 (3145728)
I0714 12:04:59.620693 46270 net.cpp:148] Top shape: 64 (64)
I0714 12:04:59.620698 46270 net.cpp:156] Memory required for data: 12583168
I0714 12:04:59.620710 46270 layer_factory.hpp:77] Creating layer conv1
I0714 12:04:59.620757 46270 net.cpp:91] Creating Layer conv1
I0714 12:04:59.620770 46270 net.cpp:425] conv1 <- data
I0714 12:04:59.620782 46270 net.cpp:399] conv1 -> conv1
I0714 12:05:02.318590 46270 net.cpp:141] Setting up conv1
I0714 12:05:02.318634 46270 net.cpp:148] Top shape: 64 96 124 124 (94470144)
I0714 12:05:02.318641 46270 net.cpp:156] Memory required for data: 390463744
I0714 12:05:02.318662 46270 layer_factory.hpp:77] Creating layer pool1
I0714 12:05:02.318682 46270 net.cpp:91] Creating Layer pool1
I0714 12:05:02.318689 46270 net.cpp:425] pool1 <- conv1
I0714 12:05:02.318698 46270 net.cpp:399] pool1 -> pool1
I0714 12:05:02.318770 46270 net.cpp:141] Setting up pool1
I0714 12:05:02.318783 46270 net.cpp:148] Top shape: 64 96 62 62 (23617536)
I0714 12:05:02.318788 46270 net.cpp:156] Memory required for data: 484933888
I0714 12:05:02.318792 46270 layer_factory.hpp:77] Creating layer conv2
I0714 12:05:02.318809 46270 net.cpp:91] Creating Layer conv2
I0714 12:05:02.318815 46270 net.cpp:425] conv2 <- pool1
I0714 12:05:02.318823 46270 net.cpp:399] conv2 -> conv2
I0714 12:05:02.322732 46270 net.cpp:141] Setting up conv2
I0714 12:05:02.322757 46270 net.cpp:148] Top shape: 64 50 58 58 (10764800)
I0714 12:05:02.322767 46270 net.cpp:156] Memory required for data: 527993088
I0714 12:05:02.322782 46270 layer_factory.hpp:77] Creating layer pool2
I0714 12:05:02.322793 46270 net.cpp:91] Creating Layer pool2
I0714 12:05:02.322798 46270 net.cpp:425] pool2 <- conv2
I0714 12:05:02.322808 46270 net.cpp:399] pool2 -> pool2
I0714 12:05:02.322870 46270 net.cpp:141] Setting up pool2
I0714 12:05:02.322882 46270 net.cpp:148] Top shape: 64 50 29 29 (2691200)
I0714 12:05:02.322886 46270 net.cpp:156] Memory required for data: 538757888
I0714 12:05:02.322891 46270 layer_factory.hpp:77] Creating layer ip1
I0714 12:05:02.322906 46270 net.cpp:91] Creating Layer ip1
I0714 12:05:02.322912 46270 net.cpp:425] ip1 <- pool2
I0714 12:05:02.322921 46270 net.cpp:399] ip1 -> ip1
I0714 12:05:02.512015 46270 net.cpp:141] Setting up ip1
I0714 12:05:02.512063 46270 net.cpp:148] Top shape: 64 500 (32000)
I0714 12:05:02.512066 46270 net.cpp:156] Memory required for data: 538885888
I0714 12:05:02.512081 46270 layer_factory.hpp:77] Creating layer relu1
I0714 12:05:02.512094 46270 net.cpp:91] Creating Layer relu1
I0714 12:05:02.512099 46270 net.cpp:425] relu1 <- ip1
I0714 12:05:02.512106 46270 net.cpp:386] relu1 -> ip1 (in-place)
I0714 12:05:02.512460 46270 net.cpp:141] Setting up relu1
I0714 12:05:02.512473 46270 net.cpp:148] Top shape: 64 500 (32000)
I0714 12:05:02.512487 46270 net.cpp:156] Memory required for data: 539013888
I0714 12:05:02.512490 46270 layer_factory.hpp:77] Creating layer ip2
I0714 12:05:02.512501 46270 net.cpp:91] Creating Layer ip2
I0714 12:05:02.512504 46270 net.cpp:425] ip2 <- ip1
I0714 12:05:02.512511 46270 net.cpp:399] ip2 -> ip2
I0714 12:05:02.512644 46270 net.cpp:141] Setting up ip2
I0714 12:05:02.512650 46270 net.cpp:148] Top shape: 64 2 (128)
I0714 12:05:02.512665 46270 net.cpp:156] Memory required for data: 539014400
I0714 12:05:02.512670 46270 layer_factory.hpp:77] Creating layer loss
I0714 12:05:02.512679 46270 net.cpp:91] Creating Layer loss
I0714 12:05:02.512682 46270 net.cpp:425] loss <- ip2
I0714 12:05:02.512686 46270 net.cpp:425] loss <- label
I0714 12:05:02.512691 46270 net.cpp:399] loss -> loss
I0714 12:05:02.512699 46270 layer_factory.hpp:77] Creating layer loss
…
I0714 12:05:02.513401 46270 net.cpp:313] The NetState phase (1) differed from the phase (0) specified by a rule in layer mnist
I0714 12:05:02.513530 46270 net.cpp:49] Initializing net from parameters: 
name: "LeNet"
state {
  phase: TEST
}
layer {
  name: "mnist"
  type: "Data"
  top: "data"
  top: "label"
  include {
    phase: TEST
  }
  transform_param {
    scale: 0.00390625
    mean_file: "data/person_only_lmdb/person_patch_color_mean.binaryproto"
  }
  data_param {
    source: "data/person_only_lmdb/people_patch_test_lmdb"
    batch_size: 100
    backend: LMDB
  }
}
layer {
  name: "conv1"
  type: "Convolution"
  bottom: "data"
  top: "conv1"
  param {
    lr_mult: 1
  }
  param {
    lr_mult: 2
  }
  convolution_param {
    num_output: 96
    kernel_size: 5
    stride: 1
    weight_filler {
      type: "xavier"
    }
    bias_filler {
      type: "constant"
    }
  }
}
layer {
  name: "pool1"
  type: "Pooling"
  bottom: "conv1"
  top: "pool1"
  pooling_param {
    pool: MAX
    kernel_size: 2
    stride: 2
  }
}
layer {
  name: "conv2"
  type: "Convolution"
  bottom: "pool1"
  top: "conv2"
  param {
    lr_mult: 1
  }
  param {
    lr_mult: 2
  }
  convolution_param {
    num_output: 50
    kernel_size: 5
    stride: 1
    weight_filler {
      type: "xavier"
    }
    bias_filler {
      type: "constant"
    }
  }
}
layer {
  name: "pool2"
  type: "Pooling"
  bottom: "conv2"
  top: "pool2"
  pooling_param {
    pool: MAX
    kernel_size: 2
    stride: 2
  }
}
layer {
  name: "ip1"
  type: "InnerProduct"
  bottom: "pool2"
  top: "ip1"
  param {
    lr_mult: 1
  }
  param {
    lr_mult: 2
  }
  inner_product_param {
    num_output: 500
    weight_filler {
      type: "xavier"
    }
    bias_filler {
      type: "constant"
    }
  }
}
layer {
  name: "relu1"
  type: "ReLU"
  bottom: "ip1"
  top: "ip1"
}
layer {
  name: "ip2"
  type: "InnerProduct"
  bottom: "ip1"
  top: "ip2"
  param {
    lr_mult: 1
  }
  param {
    lr_mult: 2
  }
  inner_product_param {
    num_output: 2
    weight_filler {
      type: "xavier"
    }
    bias_filler {
      type: "constant"
    }
  }
}
layer {
  name: "accuracy"
  type: "Accuracy"
  bottom: "ip2"
  bottom: "label"
  top: "accuracy"
  include {
    phase: TEST
  }
}
layer {
  name: "loss"
  type: "SoftmaxWithLoss"
  bottom: "ip2"
  bottom: "label"
  top: "loss"
}
I0714 12:05:02.513602 46270 layer_factory.hpp:77] Creating layer mnist
I0714 12:05:02.513712 46270 net.cpp:91] Creating Layer mnist
I0714 12:05:02.513721 46270 net.cpp:399] mnist -> data
I0714 12:05:02.513730 46270 net.cpp:399] mnist -> label
I0714 12:05:02.513736 46270 data_transformer.cpp:25] Loading mean file from: data/person_only_lmdb/person_patch_color_mean.binaryproto
I0714 12:05:02.515264 46280 db_lmdb.cpp:35] Opened lmdb data/person_only_lmdb/people_patch_test_lmdb
I0714 12:05:02.515476 46270 data_layer.cpp:41] output data size: 100,3,128,128
I0714 12:05:02.554564 46270 net.cpp:141] Setting up mnist
I0714 12:05:02.554612 46270 net.cpp:148] Top shape: 100 3 128 128 (4915200)
I0714 12:05:02.554618 46270 net.cpp:148] Top shape: 100 (100)
I0714 12:05:02.554621 46270 net.cpp:156] Memory required for data: 19661200
I0714 12:05:02.554631 46270 layer_factory.hpp:77] Creating layer label_mnist_1_split
I0714 12:05:02.554646 46270 net.cpp:91] Creating Layer label_mnist_1_split
I0714 12:05:02.554649 46270 net.cpp:425] label_mnist_1_split <- label
I0714 12:05:02.554656 46270 net.cpp:399] label_mnist_1_split -> label_mnist_1_split_0
I0714 12:05:02.554666 46270 net.cpp:399] label_mnist_1_split -> label_mnist_1_split_1
I0714 12:05:02.554805 46270 net.cpp:141] Setting up label_mnist_1_split
I0714 12:05:02.554814 46270 net.cpp:148] Top shape: 100 (100)
I0714 12:05:02.554829 46270 net.cpp:148] Top shape: 100 (100)
I0714 12:05:02.554832 46270 net.cpp:156] Memory required for data: 19662000
I0714 12:05:02.554836 46270 layer_factory.hpp:77] Creating layer conv1
I0714 12:05:02.554852 46270 net.cpp:91] Creating Layer conv1
I0714 12:05:02.554854 46270 net.cpp:425] conv1 <- data
I0714 12:05:02.554860 46270 net.cpp:399] conv1 -> conv1
I0714 12:05:02.556035 46270 net.cpp:141] Setting up conv1
I0714 12:05:02.556051 46270 net.cpp:148] Top shape: 100 96 124 124 (147609600)
I0714 12:05:02.556053 46270 net.cpp:156] Memory required for data: 610100400
I0714 12:05:02.556066 46270 layer_factory.hpp:77] Creating layer pool1
I0714 12:05:02.556073 46270 net.cpp:91] Creating Layer pool1
I0714 12:05:02.556077 46270 net.cpp:425] pool1 <- conv1
I0714 12:05:02.556082 46270 net.cpp:399] pool1 -> pool1
I0714 12:05:02.556149 46270 net.cpp:141] Setting up pool1
I0714 12:05:02.556156 46270 net.cpp:148] Top shape: 100 96 62 62 (36902400)
I0714 12:05:02.556159 46270 net.cpp:156] Memory required for data: 757710000
I0714 12:05:02.556162 46270 layer_factory.hpp:77] Creating layer conv2
I0714 12:05:02.556172 46270 net.cpp:91] Creating Layer conv2
I0714 12:05:02.556175 46270 net.cpp:425] conv2 <- pool1
I0714 12:05:02.556180 46270 net.cpp:399] conv2 -> conv2
I0714 12:05:02.560199 46270 net.cpp:141] Setting up conv2
I0714 12:05:02.560226 46270 net.cpp:148] Top shape: 100 50 58 58 (16820000)
I0714 12:05:02.560230 46270 net.cpp:156] Memory required for data: 824990000
I0714 12:05:02.560238 46270 layer_factory.hpp:77] Creating layer pool2
I0714 12:05:02.560246 46270 net.cpp:91] Creating Layer pool2
I0714 12:05:02.560250 46270 net.cpp:425] pool2 <- conv2
I0714 12:05:02.560255 46270 net.cpp:399] pool2 -> pool2
I0714 12:05:02.560302 46270 net.cpp:141] Setting up pool2
I0714 12:05:02.560309 46270 net.cpp:148] Top shape: 100 50 29 29 (4205000)
I0714 12:05:02.560312 46270 net.cpp:156] Memory required for data: 841810000
I0714 12:05:02.560315 46270 layer_factory.hpp:77] Creating layer ip1
I0714 12:05:02.560323 46270 net.cpp:91] Creating Layer ip1
I0714 12:05:02.560328 46270 net.cpp:425] ip1 <- pool2
I0714 12:05:02.560333 46270 net.cpp:399] ip1 -> ip1
I0714 12:05:02.734753 46270 net.cpp:141] Setting up ip1
I0714 12:05:02.734802 46270 net.cpp:148] Top shape: 100 500 (50000)
I0714 12:05:02.734805 46270 net.cpp:156] Memory required for data: 842010000
I0714 12:05:02.734819 46270 layer_factory.hpp:77] Creating layer relu1
I0714 12:05:02.734832 46270 net.cpp:91] Creating Layer relu1
I0714 12:05:02.734836 46270 net.cpp:425] relu1 <- ip1
I0714 12:05:02.734841 46270 net.cpp:386] relu1 -> ip1 (in-place)
I0714 12:05:02.735281 46270 net.cpp:141] Setting up relu1
I0714 12:05:02.735293 46270 net.cpp:148] Top shape: 100 500 (50000)
I0714 12:05:02.735308 46270 net.cpp:156] Memory required for data: 842210000
I0714 12:05:02.735311 46270 layer_factory.hpp:77] Creating layer ip2
I0714 12:05:02.735322 46270 net.cpp:91] Creating Layer ip2
I0714 12:05:02.735326 46270 net.cpp:425] ip2 <- ip1
I0714 12:05:02.735332 46270 net.cpp:399] ip2 -> ip2
I0714 12:05:02.735451 46270 net.cpp:141] Setting up ip2
I0714 12:05:02.735458 46270 net.cpp:148] Top shape: 100 2 (200)
I0714 12:05:02.735472 46270 net.cpp:156] Memory required for data: 842210800
I0714 12:05:02.735477 46270 layer_factory.hpp:77] Creating layer ip2_ip2_0_split
I0714 12:05:02.735483 46270 net.cpp:91] Creating Layer ip2_ip2_0_split
I0714 12:05:02.735486 46270 net.cpp:425] ip2_ip2_0_split <- ip2
I0714 12:05:02.735491 46270 net.cpp:399] ip2_ip2_0_split -> ip2_ip2_0_split_0
I0714 12:05:02.735496 46270 net.cpp:399] ip2_ip2_0_split -> ip2_ip2_0_split_1
I0714 12:05:02.735527 46270 net.cpp:141] Setting up ip2_ip2_0_split
I0714 12:05:02.735534 46270 net.cpp:148] Top shape: 100 2 (200)
I0714 12:05:02.735549 46270 net.cpp:148] Top shape: 100 2 (200)
I0714 12:05:02.735551 46270 net.cpp:156] Memory required for data: 842212400
I0714 12:05:02.735554 46270 layer_factory.hpp:77] Creating layer accuracy
I0714 12:05:02.735561 46270 net.cpp:91] Creating Layer accuracy
I0714 12:05:02.735564 46270 net.cpp:425] accuracy <- ip2_ip2_0_split_0
I0714 12:05:02.735569 46270 net.cpp:425] accuracy <- label_mnist_1_split_0
I0714 12:05:02.735572 46270 net.cpp:399] accuracy -> accuracy
…
