…
I0712 21:34:55.386003 35662 net.cpp:313] The NetState phase (0) differed from the phase (1) specified by a rule in layer accuracy
I0712 21:34:55.386135 35662 net.cpp:49] Initializing net from parameters: 
name: "LeNet"
state {
  phase: TRAIN
}
layer {
  name: "mnist"
  type: "Data"
  top: "data"
  top: "label"
  include {
    phase: TRAIN
  }
  transform_param {
    scale: 0.00390625
    mean_file: "data/person_only_lmdb/person_patch_color_mean.binaryproto"
  }
  data_param {
    source: "data/person_only_lmdb/people_patch_train_lmdb"
    batch_size: 64
    backend: LMDB
  }
}
layer {
  name: "conv1"
  type: "Convolution"
  bottom: "data"
  top: "conv1"
  param {
    lr_mult: 1
  }
  param {
    lr_mult: 2
  }
  convolution_param {
    num_output: 20
    kernel_size: 5
    stride: 1
    weight_filler {
      type: "xavier"
    }
    bias_filler {
      type: "constant"
    }
  }
}
layer {
  name: "pool1"
  type: "Pooling"
  bottom: "conv1"
  top: "pool1"
  pooling_param {
    pool: MAX
    kernel_size: 2
    stride: 2
  }
}
layer {
  name: "conv2"
  type: "Convolution"
  bottom: "pool1"
  top: "conv2"
  param {
    lr_mult: 1
  }
  param {
    lr_mult: 2
  }
  convolution_param {
    num_output: 50
    kernel_size: 5
    stride: 1
    weight_filler {
      type: "xavier"
    }
    bias_filler {
      type: "constant"
    }
  }
}
layer {
  name: "pool2"
  type: "Pooling"
  bottom: "conv2"
  top: "pool2"
  pooling_param {
    pool: MAX
    kernel_size: 2
    stride: 2
  }
}
layer {
  name: "ip1"
  type: "InnerProduct"
  bottom: "pool2"
  top: "ip1"
  param {
    lr_mult: 1
  }
  param {
    lr_mult: 2
  }
  inner_product_param {
    num_output: 500
    weight_filler {
      type: "xavier"
    }
    bias_filler {
      type: "constant"
    }
  }
}
layer {
  name: "relu1"
  type: "ReLU"
  bottom: "ip1"
  top: "ip1"
}
layer {
  name: "ip2"
  type: "InnerProduct"
  bottom: "ip1"
  top: "ip2"
  param {
    lr_mult: 1
  }
  param {
    lr_mult: 2
  }
  inner_product_param {
    num_output: 2
    weight_filler {
      type: "xavier"
    }
    bias_filler {
      type: "constant"
    }
  }
}
layer {
  name: "loss"
  type: "SoftmaxWithLoss"
  bottom: "ip2"
  bottom: "label"
  top: "loss"
}
I0712 21:34:55.386219 35662 layer_factory.hpp:77] Creating layer mnist
I0712 21:34:55.387547 35662 net.cpp:91] Creating Layer mnist
I0712 21:34:55.387573 35662 net.cpp:399] mnist -> data
I0712 21:34:55.387596 35662 net.cpp:399] mnist -> label
I0712 21:34:55.387673 35662 data_transformer.cpp:25] Loading mean file from: data/person_only_lmdb/person_patch_color_mean.binaryproto
I0712 21:34:55.388958 35669 db_lmdb.cpp:35] Opened lmdb data/person_only_lmdb/people_patch_train_lmdb
I0712 21:37:58.579130 35662 data_layer.cpp:41] output data size: 64,3,128,128
I0712 21:37:58.606866 35662 net.cpp:141] Setting up mnist
I0712 21:37:58.606915 35662 net.cpp:148] Top shape: 64 3 128 128 (3145728)
I0712 21:37:58.606925 35662 net.cpp:148] Top shape: 64 (64)
I0712 21:37:58.606930 35662 net.cpp:156] Memory required for data: 12583168
I0712 21:37:58.606945 35662 layer_factory.hpp:77] Creating layer conv1
I0712 21:37:58.606981 35662 net.cpp:91] Creating Layer conv1
I0712 21:37:58.606992 35662 net.cpp:425] conv1 <- data
I0712 21:37:58.607003 35662 net.cpp:399] conv1 -> conv1
I0712 21:38:01.321781 35662 net.cpp:141] Setting up conv1
I0712 21:38:01.321833 35662 net.cpp:148] Top shape: 64 20 124 124 (19681280)
I0712 21:38:01.321841 35662 net.cpp:156] Memory required for data: 91308288
I0712 21:38:01.321868 35662 layer_factory.hpp:77] Creating layer pool1
I0712 21:38:01.321907 35662 net.cpp:91] Creating Layer pool1
I0712 21:38:01.321918 35662 net.cpp:425] pool1 <- conv1
I0712 21:38:01.321928 35662 net.cpp:399] pool1 -> pool1
I0712 21:38:01.322010 35662 net.cpp:141] Setting up pool1
I0712 21:38:01.322021 35662 net.cpp:148] Top shape: 64 20 62 62 (4920320)
I0712 21:38:01.322026 35662 net.cpp:156] Memory required for data: 110989568
I0712 21:38:01.322031 35662 layer_factory.hpp:77] Creating layer conv2
I0712 21:38:01.322052 35662 net.cpp:91] Creating Layer conv2
I0712 21:38:01.322059 35662 net.cpp:425] conv2 <- pool1
I0712 21:38:01.322067 35662 net.cpp:399] conv2 -> conv2
I0712 21:38:01.323817 35662 net.cpp:141] Setting up conv2
I0712 21:38:01.323839 35662 net.cpp:148] Top shape: 64 50 58 58 (10764800)
I0712 21:38:01.323848 35662 net.cpp:156] Memory required for data: 154048768
I0712 21:38:01.323863 35662 layer_factory.hpp:77] Creating layer pool2
I0712 21:38:01.323876 35662 net.cpp:91] Creating Layer pool2
I0712 21:38:01.323881 35662 net.cpp:425] pool2 <- conv2
I0712 21:38:01.323889 35662 net.cpp:399] pool2 -> pool2
I0712 21:38:01.323951 35662 net.cpp:141] Setting up pool2
I0712 21:38:01.323961 35662 net.cpp:148] Top shape: 64 50 29 29 (2691200)
I0712 21:38:01.323966 35662 net.cpp:156] Memory required for data: 164813568
I0712 21:38:01.323972 35662 layer_factory.hpp:77] Creating layer ip1
I0712 21:38:01.323985 35662 net.cpp:91] Creating Layer ip1
I0712 21:38:01.323993 35662 net.cpp:425] ip1 <- pool2
I0712 21:38:01.324002 35662 net.cpp:399] ip1 -> ip1
I0712 21:38:01.500623 35662 net.cpp:141] Setting up ip1
I0712 21:38:01.500658 35662 net.cpp:148] Top shape: 64 500 (32000)
I0712 21:38:01.500663 35662 net.cpp:156] Memory required for data: 164941568
I0712 21:38:01.500675 35662 layer_factory.hpp:77] Creating layer relu1
I0712 21:38:01.500691 35662 net.cpp:91] Creating Layer relu1
I0712 21:38:01.500695 35662 net.cpp:425] relu1 <- ip1
I0712 21:38:01.500701 35662 net.cpp:386] relu1 -> ip1 (in-place)
I0712 21:38:01.501045 35662 net.cpp:141] Setting up relu1
I0712 21:38:01.501057 35662 net.cpp:148] Top shape: 64 500 (32000)
I0712 21:38:01.501060 35662 net.cpp:156] Memory required for data: 165069568
I0712 21:38:01.501062 35662 layer_factory.hpp:77] Creating layer ip2
I0712 21:38:01.501073 35662 net.cpp:91] Creating Layer ip2
I0712 21:38:01.501077 35662 net.cpp:425] ip2 <- ip1
I0712 21:38:01.501082 35662 net.cpp:399] ip2 -> ip2
I0712 21:38:01.501181 35662 net.cpp:141] Setting up ip2
I0712 21:38:01.501188 35662 net.cpp:148] Top shape: 64 2 (128)
I0712 21:38:01.501191 35662 net.cpp:156] Memory required for data: 165070080
I0712 21:38:01.501196 35662 layer_factory.hpp:77] Creating layer loss
I0712 21:38:01.501212 35662 net.cpp:91] Creating Layer loss
I0712 21:38:01.501215 35662 net.cpp:425] loss <- ip2
I0712 21:38:01.501219 35662 net.cpp:425] loss <- label
I0712 21:38:01.501222 35662 net.cpp:399] loss -> loss
I0712 21:38:01.501231 35662 layer_factory.hpp:77] Creating layer loss
…
I0712 21:38:01.501819 35662 net.cpp:313] The NetState phase (1) differed from the phase (0) specified by a rule in layer mnist
I0712 21:38:01.501895 35662 net.cpp:49] Initializing net from parameters: 
name: "LeNet"
state {
  phase: TEST
}
layer {
  name: "mnist"
  type: "Data"
  top: "data"
  top: "label"
  include {
    phase: TEST
  }
  transform_param {
    scale: 0.00390625
    mean_file: "data/person_only_lmdb/person_patch_color_mean.binaryproto"
  }
  data_param {
    source: "data/person_only_lmdb/people_patch_test_lmdb"
    batch_size: 100
    backend: LMDB
  }
}
layer {
  name: "conv1"
  type: "Convolution"
  bottom: "data"
  top: "conv1"
  param {
    lr_mult: 1
  }
  param {
    lr_mult: 2
  }
  convolution_param {
    num_output: 20
    kernel_size: 5
    stride: 1
    weight_filler {
      type: "xavier"
    }
    bias_filler {
      type: "constant"
    }
  }
}
layer {
  name: "pool1"
  type: "Pooling"
  bottom: "conv1"
  top: "pool1"
  pooling_param {
    pool: MAX
    kernel_size: 2
    stride: 2
  }
}
layer {
  name: "conv2"
  type: "Convolution"
  bottom: "pool1"
  top: "conv2"
  param {
    lr_mult: 1
  }
  param {
    lr_mult: 2
  }
  convolution_param {
    num_output: 50
    kernel_size: 5
    stride: 1
    weight_filler {
      type: "xavier"
    }
    bias_filler {
      type: "constant"
    }
  }
}
layer {
  name: "pool2"
  type: "Pooling"
  bottom: "conv2"
  top: "pool2"
  pooling_param {
    pool: MAX
    kernel_size: 2
    stride: 2
  }
}
layer {
  name: "ip1"
  type: "InnerProduct"
  bottom: "pool2"
  top: "ip1"
  param {
    lr_mult: 1
  }
  param {
    lr_mult: 2
  }
  inner_product_param {
    num_output: 500
    weight_filler {
      type: "xavier"
    }
    bias_filler {
      type: "constant"
    }
  }
}
layer {
  name: "relu1"
  type: "ReLU"
  bottom: "ip1"
  top: "ip1"
}
layer {
  name: "ip2"
  type: "InnerProduct"
  bottom: "ip1"
  top: "ip2"
  param {
    lr_mult: 1
  }
  param {
    lr_mult: 2
  }
  inner_product_param {
    num_output: 2
    weight_filler {
      type: "xavier"
    }
    bias_filler {
      type: "constant"
    }
  }
}
layer {
  name: "accuracy"
  type: "Accuracy"
  bottom: "ip2"
  bottom: "label"
  top: "accuracy"
  include {
    phase: TEST
  }
}
layer {
  name: "loss"
  type: "SoftmaxWithLoss"
  bottom: "ip2"
  bottom: "label"
  top: "loss"
}
I0712 21:38:01.501948 35662 layer_factory.hpp:77] Creating layer mnist
I0712 21:38:01.502054 35662 net.cpp:91] Creating Layer mnist
I0712 21:38:01.502063 35662 net.cpp:399] mnist -> data
I0712 21:38:01.502069 35662 net.cpp:399] mnist -> label
I0712 21:38:01.502076 35662 data_transformer.cpp:25] Loading mean file from: data/person_only_lmdb/person_patch_color_mean.binaryproto
I0712 21:38:01.503654 35674 db_lmdb.cpp:35] Opened lmdb data/person_only_lmdb/people_patch_test_lmdb
I0712 21:38:01.503927 35662 data_layer.cpp:41] output data size: 100,3,128,128
I0712 21:38:01.536790 35662 net.cpp:141] Setting up mnist
I0712 21:38:01.536825 35662 net.cpp:148] Top shape: 100 3 128 128 (4915200)
I0712 21:38:01.536831 35662 net.cpp:148] Top shape: 100 (100)
I0712 21:38:01.536834 35662 net.cpp:156] Memory required for data: 19661200
I0712 21:38:01.536840 35662 layer_factory.hpp:77] Creating layer label_mnist_1_split
I0712 21:38:01.536854 35662 net.cpp:91] Creating Layer label_mnist_1_split
I0712 21:38:01.536859 35662 net.cpp:425] label_mnist_1_split <- label
I0712 21:38:01.536865 35662 net.cpp:399] label_mnist_1_split -> label_mnist_1_split_0
I0712 21:38:01.536876 35662 net.cpp:399] label_mnist_1_split -> label_mnist_1_split_1
I0712 21:38:01.536928 35662 net.cpp:141] Setting up label_mnist_1_split
I0712 21:38:01.536936 35662 net.cpp:148] Top shape: 100 (100)
I0712 21:38:01.536939 35662 net.cpp:148] Top shape: 100 (100)
I0712 21:38:01.536942 35662 net.cpp:156] Memory required for data: 19662000
I0712 21:38:01.536944 35662 layer_factory.hpp:77] Creating layer conv1
I0712 21:38:01.536957 35662 net.cpp:91] Creating Layer conv1
I0712 21:38:01.536960 35662 net.cpp:425] conv1 <- data
I0712 21:38:01.536965 35662 net.cpp:399] conv1 -> conv1
I0712 21:38:01.538241 35662 net.cpp:141] Setting up conv1
I0712 21:38:01.538257 35662 net.cpp:148] Top shape: 100 20 124 124 (30752000)
I0712 21:38:01.538260 35662 net.cpp:156] Memory required for data: 142670000
I0712 21:38:01.538271 35662 layer_factory.hpp:77] Creating layer pool1
I0712 21:38:01.538280 35662 net.cpp:91] Creating Layer pool1
I0712 21:38:01.538283 35662 net.cpp:425] pool1 <- conv1
I0712 21:38:01.538290 35662 net.cpp:399] pool1 -> pool1
I0712 21:38:01.538327 35662 net.cpp:141] Setting up pool1
I0712 21:38:01.538336 35662 net.cpp:148] Top shape: 100 20 62 62 (7688000)
I0712 21:38:01.538350 35662 net.cpp:156] Memory required for data: 173422000
I0712 21:38:01.538353 35662 layer_factory.hpp:77] Creating layer conv2
I0712 21:38:01.538364 35662 net.cpp:91] Creating Layer conv2
I0712 21:38:01.538368 35662 net.cpp:425] conv2 <- pool1
I0712 21:38:01.538374 35662 net.cpp:399] conv2 -> conv2
I0712 21:38:01.542541 35662 net.cpp:141] Setting up conv2
I0712 21:38:01.542562 35662 net.cpp:148] Top shape: 100 50 58 58 (16820000)
I0712 21:38:01.542565 35662 net.cpp:156] Memory required for data: 240702000
I0712 21:38:01.542575 35662 layer_factory.hpp:77] Creating layer pool2
I0712 21:38:01.542589 35662 net.cpp:91] Creating Layer pool2
I0712 21:38:01.542601 35662 net.cpp:425] pool2 <- conv2
I0712 21:38:01.542608 35662 net.cpp:399] pool2 -> pool2
I0712 21:38:01.542644 35662 net.cpp:141] Setting up pool2
I0712 21:38:01.542652 35662 net.cpp:148] Top shape: 100 50 29 29 (4205000)
I0712 21:38:01.542655 35662 net.cpp:156] Memory required for data: 257522000
I0712 21:38:01.542657 35662 layer_factory.hpp:77] Creating layer ip1
I0712 21:38:01.542665 35662 net.cpp:91] Creating Layer ip1
I0712 21:38:01.542668 35662 net.cpp:425] ip1 <- pool2
I0712 21:38:01.542673 35662 net.cpp:399] ip1 -> ip1
I0712 21:38:01.690351 35662 net.cpp:141] Setting up ip1
I0712 21:38:01.690388 35662 net.cpp:148] Top shape: 100 500 (50000)
I0712 21:38:01.690392 35662 net.cpp:156] Memory required for data: 257722000
I0712 21:38:01.690407 35662 layer_factory.hpp:77] Creating layer relu1
I0712 21:38:01.690418 35662 net.cpp:91] Creating Layer relu1
I0712 21:38:01.690423 35662 net.cpp:425] relu1 <- ip1
I0712 21:38:01.690428 35662 net.cpp:386] relu1 -> ip1 (in-place)
I0712 21:38:01.690855 35662 net.cpp:141] Setting up relu1
I0712 21:38:01.690866 35662 net.cpp:148] Top shape: 100 500 (50000)
I0712 21:38:01.690881 35662 net.cpp:156] Memory required for data: 257922000
I0712 21:38:01.690884 35662 layer_factory.hpp:77] Creating layer ip2
I0712 21:38:01.690894 35662 net.cpp:91] Creating Layer ip2
I0712 21:38:01.690898 35662 net.cpp:425] ip2 <- ip1
I0712 21:38:01.690904 35662 net.cpp:399] ip2 -> ip2
I0712 21:38:01.691023 35662 net.cpp:141] Setting up ip2
I0712 21:38:01.691031 35662 net.cpp:148] Top shape: 100 2 (200)
I0712 21:38:01.691045 35662 net.cpp:156] Memory required for data: 257922800
I0712 21:38:01.691051 35662 layer_factory.hpp:77] Creating layer ip2_ip2_0_split
I0712 21:38:01.691056 35662 net.cpp:91] Creating Layer ip2_ip2_0_split
I0712 21:38:01.691059 35662 net.cpp:425] ip2_ip2_0_split <- ip2
I0712 21:38:01.691063 35662 net.cpp:399] ip2_ip2_0_split -> ip2_ip2_0_split_0
I0712 21:38:01.691069 35662 net.cpp:399] ip2_ip2_0_split -> ip2_ip2_0_split_1
I0712 21:38:01.691099 35662 net.cpp:141] Setting up ip2_ip2_0_split
I0712 21:38:01.691107 35662 net.cpp:148] Top shape: 100 2 (200)
I0712 21:38:01.691121 35662 net.cpp:148] Top shape: 100 2 (200)
I0712 21:38:01.691124 35662 net.cpp:156] Memory required for data: 257924400
I0712 21:38:01.691128 35662 layer_factory.hpp:77] Creating layer accuracy
I0712 21:38:01.691133 35662 net.cpp:91] Creating Layer accuracy
I0712 21:38:01.691136 35662 net.cpp:425] accuracy <- ip2_ip2_0_split_0
I0712 21:38:01.691140 35662 net.cpp:425] accuracy <- label_mnist_1_split_0
I0712 21:38:01.691146 35662 net.cpp:399] accuracy -> accuracy
…
