…
I0713 00:17:49.057724 36802 net.cpp:313] The NetState phase (0) differed from the phase (1) specified by a rule in layer accuracy
I0713 00:17:49.057845 36802 net.cpp:49] Initializing net from parameters: 
name: "LeNet"
state {
  phase: TRAIN
}
layer {
  name: "mnist"
  type: "Data"
  top: "data"
  top: "label"
  include {
    phase: TRAIN
  }
  transform_param {
    scale: 0.00390625
    mean_file: "data/person_only_lmdb/person_patch_color_mean.binaryproto"
  }
  data_param {
    source: "data/person_only_lmdb/people_patch_train_lmdb"
    batch_size: 64
    backend: LMDB
  }
}
layer {
  name: "conv1"
  type: "Convolution"
  bottom: "data"
  top: "conv1"
  param {
    lr_mult: 1
  }
  param {
    lr_mult: 2
  }
  convolution_param {
    num_output: 20
    kernel_size: 5
    stride: 1
    weight_filler {
      type: "xavier"
    }
    bias_filler {
      type: "constant"
    }
  }
}
layer {
  name: "pool1"
  type: "Pooling"
  bottom: "conv1"
  top: "pool1"
  pooling_param {
    pool: MAX
    kernel_size: 2
    stride: 2
  }
}
layer {
  name: "conv2"
  type: "Convolution"
  bottom: "pool1"
  top: "conv2"
  param {
    lr_mult: 1
  }
  param {
    lr_mult: 2
  }
  convolution_param {
    num_output: 50
    kernel_size: 5
    stride: 1
    weight_filler {
      type: "xavier"
    }
    bias_filler {
      type: "constant"
    }
  }
}
layer {
  name: "pool2"
  type: "Pooling"
  bottom: "conv2"
  top: "pool2"
  pooling_param {
    pool: MAX
    kernel_size: 2
    stride: 2
  }
}
layer {
  name: "ip1"
  type: "InnerProduct"
  bottom: "pool2"
  top: "ip1"
  param {
    lr_mult: 1
  }
  param {
    lr_mult: 2
  }
  inner_product_param {
    num_output: 500
    weight_filler {
      type: "xavier"
    }
    bias_filler {
      type: "constant"
    }
  }
}
layer {
  name: "relu1"
  type: "ReLU"
  bottom: "ip1"
  top: "ip1"
}
layer {
  name: "ip2"
  type: "InnerProduct"
  bottom: "ip1"
  top: "ip2"
  param {
    lr_mult: 1
  }
  param {
    lr_mult: 2
  }
  inner_product_param {
    num_output: 2
    weight_filler {
      type: "xavier"
    }
    bias_filler {
      type: "constant"
    }
  }
}
layer {
  name: "loss"
  type: "SoftmaxWithLoss"
  bottom: "ip2"
  bottom: "label"
  top: "loss"
}
I0713 00:17:49.057922 36802 layer_factory.hpp:77] Creating layer mnist
I0713 00:17:49.059197 36802 net.cpp:91] Creating Layer mnist
I0713 00:17:49.059227 36802 net.cpp:399] mnist -> data
I0713 00:17:49.059247 36802 net.cpp:399] mnist -> label
I0713 00:17:49.059329 36802 data_transformer.cpp:25] Loading mean file from: data/person_only_lmdb/person_patch_color_mean.binaryproto
I0713 00:17:49.060773 36808 db_lmdb.cpp:35] Opened lmdb data/person_only_lmdb/people_patch_train_lmdb
I0713 00:20:59.605522 36802 data_layer.cpp:41] output data size: 64,3,128,128
I0713 00:20:59.638281 36802 net.cpp:141] Setting up mnist
I0713 00:20:59.638321 36802 net.cpp:148] Top shape: 64 3 128 128 (3145728)
I0713 00:20:59.638326 36802 net.cpp:148] Top shape: 64 (64)
I0713 00:20:59.638329 36802 net.cpp:156] Memory required for data: 12583168
I0713 00:20:59.638336 36802 layer_factory.hpp:77] Creating layer conv1
I0713 00:20:59.638375 36802 net.cpp:91] Creating Layer conv1
I0713 00:20:59.638381 36802 net.cpp:425] conv1 <- data
I0713 00:20:59.638389 36802 net.cpp:399] conv1 -> conv1
I0713 00:21:02.331204 36802 net.cpp:141] Setting up conv1
I0713 00:21:02.331256 36802 net.cpp:148] Top shape: 64 20 124 124 (19681280)
I0713 00:21:02.331266 36802 net.cpp:156] Memory required for data: 91308288
I0713 00:21:02.331297 36802 layer_factory.hpp:77] Creating layer pool1
I0713 00:21:02.331342 36802 net.cpp:91] Creating Layer pool1
I0713 00:21:02.331351 36802 net.cpp:425] pool1 <- conv1
I0713 00:21:02.331363 36802 net.cpp:399] pool1 -> pool1
I0713 00:21:02.331462 36802 net.cpp:141] Setting up pool1
I0713 00:21:02.331478 36802 net.cpp:148] Top shape: 64 20 62 62 (4920320)
I0713 00:21:02.331485 36802 net.cpp:156] Memory required for data: 110989568
I0713 00:21:02.331492 36802 layer_factory.hpp:77] Creating layer conv2
I0713 00:21:02.331512 36802 net.cpp:91] Creating Layer conv2
I0713 00:21:02.331519 36802 net.cpp:425] conv2 <- pool1
I0713 00:21:02.331531 36802 net.cpp:399] conv2 -> conv2
I0713 00:21:02.333765 36802 net.cpp:141] Setting up conv2
I0713 00:21:02.333796 36802 net.cpp:148] Top shape: 64 50 58 58 (10764800)
I0713 00:21:02.333804 36802 net.cpp:156] Memory required for data: 154048768
I0713 00:21:02.333823 36802 layer_factory.hpp:77] Creating layer pool2
I0713 00:21:02.333839 36802 net.cpp:91] Creating Layer pool2
I0713 00:21:02.333850 36802 net.cpp:425] pool2 <- conv2
I0713 00:21:02.333861 36802 net.cpp:399] pool2 -> pool2
I0713 00:21:02.333942 36802 net.cpp:141] Setting up pool2
I0713 00:21:02.333957 36802 net.cpp:148] Top shape: 64 50 29 29 (2691200)
I0713 00:21:02.333964 36802 net.cpp:156] Memory required for data: 164813568
I0713 00:21:02.333971 36802 layer_factory.hpp:77] Creating layer ip1
I0713 00:21:02.333988 36802 net.cpp:91] Creating Layer ip1
I0713 00:21:02.333997 36802 net.cpp:425] ip1 <- pool2
I0713 00:21:02.334008 36802 net.cpp:399] ip1 -> ip1
I0713 00:21:02.542176 36802 net.cpp:141] Setting up ip1
I0713 00:21:02.542212 36802 net.cpp:148] Top shape: 64 500 (32000)
I0713 00:21:02.542215 36802 net.cpp:156] Memory required for data: 164941568
I0713 00:21:02.542229 36802 layer_factory.hpp:77] Creating layer relu1
I0713 00:21:02.542244 36802 net.cpp:91] Creating Layer relu1
I0713 00:21:02.542248 36802 net.cpp:425] relu1 <- ip1
I0713 00:21:02.542254 36802 net.cpp:386] relu1 -> ip1 (in-place)
I0713 00:21:02.542598 36802 net.cpp:141] Setting up relu1
I0713 00:21:02.542610 36802 net.cpp:148] Top shape: 64 500 (32000)
I0713 00:21:02.542625 36802 net.cpp:156] Memory required for data: 165069568
I0713 00:21:02.542630 36802 layer_factory.hpp:77] Creating layer ip2
I0713 00:21:02.542639 36802 net.cpp:91] Creating Layer ip2
I0713 00:21:02.542644 36802 net.cpp:425] ip2 <- ip1
I0713 00:21:02.542649 36802 net.cpp:399] ip2 -> ip2
I0713 00:21:02.542764 36802 net.cpp:141] Setting up ip2
I0713 00:21:02.542771 36802 net.cpp:148] Top shape: 64 2 (128)
I0713 00:21:02.542785 36802 net.cpp:156] Memory required for data: 165070080
I0713 00:21:02.542790 36802 layer_factory.hpp:77] Creating layer loss
I0713 00:21:02.542806 36802 net.cpp:91] Creating Layer loss
I0713 00:21:02.542810 36802 net.cpp:425] loss <- ip2
I0713 00:21:02.542814 36802 net.cpp:425] loss <- label
I0713 00:21:02.542819 36802 net.cpp:399] loss -> loss
I0713 00:21:02.542827 36802 layer_factory.hpp:77] Creating layer loss
…
I0713 00:21:02.543510 36802 net.cpp:313] The NetState phase (1) differed from the phase (0) specified by a rule in layer mnist
I0713 00:21:02.543642 36802 net.cpp:49] Initializing net from parameters: 
name: "LeNet"
state {
  phase: TEST
}
layer {
  name: "mnist"
  type: "Data"
  top: "data"
  top: "label"
  include {
    phase: TEST
  }
  transform_param {
    scale: 0.00390625
    mean_file: "data/person_only_lmdb/person_patch_color_mean.binaryproto"
  }
  data_param {
    source: "data/person_only_lmdb/people_patch_test_lmdb"
    batch_size: 100
    backend: LMDB
  }
}
layer {
  name: "conv1"
  type: "Convolution"
  bottom: "data"
  top: "conv1"
  param {
    lr_mult: 1
  }
  param {
    lr_mult: 2
  }
  convolution_param {
    num_output: 20
    kernel_size: 5
    stride: 1
    weight_filler {
      type: "xavier"
    }
    bias_filler {
      type: "constant"
    }
  }
}
layer {
  name: "pool1"
  type: "Pooling"
  bottom: "conv1"
  top: "pool1"
  pooling_param {
    pool: MAX
    kernel_size: 2
    stride: 2
  }
}
layer {
  name: "conv2"
  type: "Convolution"
  bottom: "pool1"
  top: "conv2"
  param {
    lr_mult: 1
  }
  param {
    lr_mult: 2
  }
  convolution_param {
    num_output: 50
    kernel_size: 5
    stride: 1
    weight_filler {
      type: "xavier"
    }
    bias_filler {
      type: "constant"
    }
  }
}
layer {
  name: "pool2"
  type: "Pooling"
  bottom: "conv2"
  top: "pool2"
  pooling_param {
    pool: MAX
    kernel_size: 2
    stride: 2
  }
}
layer {
  name: "ip1"
  type: "InnerProduct"
  bottom: "pool2"
  top: "ip1"
  param {
    lr_mult: 1
  }
  param {
    lr_mult: 2
  }
  inner_product_param {
    num_output: 500
    weight_filler {
      type: "xavier"
    }
    bias_filler {
      type: "constant"
    }
  }
}
layer {
  name: "relu1"
  type: "ReLU"
  bottom: "ip1"
  top: "ip1"
}
layer {
  name: "ip2"
  type: "InnerProduct"
  bottom: "ip1"
  top: "ip2"
  param {
    lr_mult: 1
  }
  param {
    lr_mult: 2
  }
  inner_product_param {
    num_output: 2
    weight_filler {
      type: "xavier"
    }
    bias_filler {
      type: "constant"
    }
  }
}
layer {
  name: "accuracy"
  type: "Accuracy"
  bottom: "ip2"
  bottom: "label"
  top: "accuracy"
  include {
    phase: TEST
  }
}
layer {
  name: "loss"
  type: "SoftmaxWithLoss"
  bottom: "ip2"
  bottom: "label"
  top: "loss"
}
I0713 00:21:02.543700 36802 layer_factory.hpp:77] Creating layer mnist
I0713 00:21:02.543805 36802 net.cpp:91] Creating Layer mnist
I0713 00:21:02.543813 36802 net.cpp:399] mnist -> data
I0713 00:21:02.543820 36802 net.cpp:399] mnist -> label
I0713 00:21:02.543828 36802 data_transformer.cpp:25] Loading mean file from: data/person_only_lmdb/person_patch_color_mean.binaryproto
I0713 00:21:02.545306 36824 db_lmdb.cpp:35] Opened lmdb data/person_only_lmdb/people_patch_test_lmdb
I0713 00:21:02.545578 36802 data_layer.cpp:41] output data size: 100,3,128,128
I0713 00:21:02.578680 36802 net.cpp:141] Setting up mnist
I0713 00:21:02.578717 36802 net.cpp:148] Top shape: 100 3 128 128 (4915200)
I0713 00:21:02.578723 36802 net.cpp:148] Top shape: 100 (100)
I0713 00:21:02.578727 36802 net.cpp:156] Memory required for data: 19661200
I0713 00:21:02.578733 36802 layer_factory.hpp:77] Creating layer label_mnist_1_split
I0713 00:21:02.578747 36802 net.cpp:91] Creating Layer label_mnist_1_split
I0713 00:21:02.578750 36802 net.cpp:425] label_mnist_1_split <- label
I0713 00:21:02.578758 36802 net.cpp:399] label_mnist_1_split -> label_mnist_1_split_0
I0713 00:21:02.578766 36802 net.cpp:399] label_mnist_1_split -> label_mnist_1_split_1
I0713 00:21:02.578946 36802 net.cpp:141] Setting up label_mnist_1_split
I0713 00:21:02.578961 36802 net.cpp:148] Top shape: 100 (100)
I0713 00:21:02.578966 36802 net.cpp:148] Top shape: 100 (100)
I0713 00:21:02.578969 36802 net.cpp:156] Memory required for data: 19662000
I0713 00:21:02.578972 36802 layer_factory.hpp:77] Creating layer conv1
I0713 00:21:02.578986 36802 net.cpp:91] Creating Layer conv1
I0713 00:21:02.578990 36802 net.cpp:425] conv1 <- data
I0713 00:21:02.578996 36802 net.cpp:399] conv1 -> conv1
I0713 00:21:02.580255 36802 net.cpp:141] Setting up conv1
I0713 00:21:02.580282 36802 net.cpp:148] Top shape: 100 20 124 124 (30752000)
I0713 00:21:02.580286 36802 net.cpp:156] Memory required for data: 142670000
I0713 00:21:02.580297 36802 layer_factory.hpp:77] Creating layer pool1
I0713 00:21:02.580317 36802 net.cpp:91] Creating Layer pool1
I0713 00:21:02.580322 36802 net.cpp:425] pool1 <- conv1
I0713 00:21:02.580340 36802 net.cpp:399] pool1 -> pool1
I0713 00:21:02.580389 36802 net.cpp:141] Setting up pool1
I0713 00:21:02.580396 36802 net.cpp:148] Top shape: 100 20 62 62 (7688000)
I0713 00:21:02.580399 36802 net.cpp:156] Memory required for data: 173422000
I0713 00:21:02.580412 36802 layer_factory.hpp:77] Creating layer conv2
I0713 00:21:02.580422 36802 net.cpp:91] Creating Layer conv2
I0713 00:21:02.580427 36802 net.cpp:425] conv2 <- pool1
I0713 00:21:02.580445 36802 net.cpp:399] conv2 -> conv2
I0713 00:21:02.584467 36802 net.cpp:141] Setting up conv2
I0713 00:21:02.584494 36802 net.cpp:148] Top shape: 100 50 58 58 (16820000)
I0713 00:21:02.584498 36802 net.cpp:156] Memory required for data: 240702000
I0713 00:21:02.584507 36802 layer_factory.hpp:77] Creating layer pool2
I0713 00:21:02.584517 36802 net.cpp:91] Creating Layer pool2
I0713 00:21:02.584519 36802 net.cpp:425] pool2 <- conv2
I0713 00:21:02.584525 36802 net.cpp:399] pool2 -> pool2
I0713 00:21:02.584575 36802 net.cpp:141] Setting up pool2
I0713 00:21:02.584583 36802 net.cpp:148] Top shape: 100 50 29 29 (4205000)
I0713 00:21:02.584585 36802 net.cpp:156] Memory required for data: 257522000
I0713 00:21:02.584588 36802 layer_factory.hpp:77] Creating layer ip1
I0713 00:21:02.584595 36802 net.cpp:91] Creating Layer ip1
I0713 00:21:02.584599 36802 net.cpp:425] ip1 <- pool2
I0713 00:21:02.584604 36802 net.cpp:399] ip1 -> ip1
I0713 00:21:02.744843 36802 net.cpp:141] Setting up ip1
I0713 00:21:02.744890 36802 net.cpp:148] Top shape: 100 500 (50000)
I0713 00:21:02.744894 36802 net.cpp:156] Memory required for data: 257722000
I0713 00:21:02.744920 36802 layer_factory.hpp:77] Creating layer relu1
I0713 00:21:02.744932 36802 net.cpp:91] Creating Layer relu1
I0713 00:21:02.744936 36802 net.cpp:425] relu1 <- ip1
I0713 00:21:02.744942 36802 net.cpp:386] relu1 -> ip1 (in-place)
I0713 00:21:02.745367 36802 net.cpp:141] Setting up relu1
I0713 00:21:02.745395 36802 net.cpp:148] Top shape: 100 500 (50000)
I0713 00:21:02.745399 36802 net.cpp:156] Memory required for data: 257922000
I0713 00:21:02.745403 36802 layer_factory.hpp:77] Creating layer ip2
I0713 00:21:02.745414 36802 net.cpp:91] Creating Layer ip2
I0713 00:21:02.745416 36802 net.cpp:425] ip2 <- ip1
I0713 00:21:02.745422 36802 net.cpp:399] ip2 -> ip2
I0713 00:21:02.745544 36802 net.cpp:141] Setting up ip2
I0713 00:21:02.745553 36802 net.cpp:148] Top shape: 100 2 (200)
I0713 00:21:02.745566 36802 net.cpp:156] Memory required for data: 257922800
I0713 00:21:02.745571 36802 layer_factory.hpp:77] Creating layer ip2_ip2_0_split
I0713 00:21:02.745578 36802 net.cpp:91] Creating Layer ip2_ip2_0_split
I0713 00:21:02.745580 36802 net.cpp:425] ip2_ip2_0_split <- ip2
I0713 00:21:02.745585 36802 net.cpp:399] ip2_ip2_0_split -> ip2_ip2_0_split_0
I0713 00:21:02.745590 36802 net.cpp:399] ip2_ip2_0_split -> ip2_ip2_0_split_1
I0713 00:21:02.745622 36802 net.cpp:141] Setting up ip2_ip2_0_split
I0713 00:21:02.745630 36802 net.cpp:148] Top shape: 100 2 (200)
I0713 00:21:02.745645 36802 net.cpp:148] Top shape: 100 2 (200)
I0713 00:21:02.745647 36802 net.cpp:156] Memory required for data: 257924400
I0713 00:21:02.745651 36802 layer_factory.hpp:77] Creating layer accuracy
I0713 00:21:02.745656 36802 net.cpp:91] Creating Layer accuracy
I0713 00:21:02.745659 36802 net.cpp:425] accuracy <- ip2_ip2_0_split_0
I0713 00:21:02.745663 36802 net.cpp:425] accuracy <- label_mnist_1_split_0
I0713 00:21:02.745668 36802 net.cpp:399] accuracy -> accuracy
…
