…
I0712 17:47:57.021783 33315 net.cpp:313] The NetState phase (0) differed from the phase (1) specified by a rule in layer accuracy
I0712 17:47:57.021899 33315 net.cpp:49] Initializing net from parameters: 
name: "LeNet"
state {
  phase: TRAIN
}
layer {
  name: "mnist"
  type: "Data"
  top: "data"
  top: "label"
  include {
    phase: TRAIN
  }
  transform_param {
    scale: 0.00390625
    mean_file: "data/person_only_lmdb/person_patch_color_mean.binaryproto"
  }
  data_param {
    source: "data/person_only_lmdb/people_patch_train_lmdb"
    batch_size: 64
    backend: LMDB
  }
}
layer {
  name: "conv1"
  type: "Convolution"
  bottom: "data"
  top: "conv1"
  param {
    lr_mult: 1
  }
  param {
    lr_mult: 2
  }
  convolution_param {
    num_output: 20
    kernel_size: 5
    stride: 1
    weight_filler {
      type: "xavier"
    }
    bias_filler {
      type: "constant"
    }
  }
}
layer {
  name: "pool1"
  type: "Pooling"
  bottom: "conv1"
  top: "pool1"
  pooling_param {
    pool: MAX
    kernel_size: 2
    stride: 2
  }
}
layer {
  name: "conv2"
  type: "Convolution"
  bottom: "pool1"
  top: "conv2"
  param {
    lr_mult: 1
  }
  param {
    lr_mult: 2
  }
  convolution_param {
    num_output: 50
    kernel_size: 5
    stride: 1
    weight_filler {
      type: "xavier"
    }
    bias_filler {
      type: "constant"
    }
  }
}
layer {
  name: "pool2"
  type: "Pooling"
  bottom: "conv2"
  top: "pool2"
  pooling_param {
    pool: MAX
    kernel_size: 2
    stride: 2
  }
}
layer {
  name: "ip1"
  type: "InnerProduct"
  bottom: "pool2"
  top: "ip1"
  param {
    lr_mult: 1
  }
  param {
    lr_mult: 2
  }
  inner_product_param {
    num_output: 500
    weight_filler {
      type: "xavier"
    }
    bias_filler {
      type: "constant"
    }
  }
}
layer {
  name: "relu1"
  type: "ReLU"
  bottom: "ip1"
  top: "ip1"
}
layer {
  name: "ip2"
  type: "InnerProduct"
  bottom: "ip1"
  top: "ip2"
  param {
    lr_mult: 1
  }
  param {
    lr_mult: 2
  }
  inner_product_param {
    num_output: 2
    weight_filler {
      type: "xavier"
    }
    bias_filler {
      type: "constant"
    }
  }
}
layer {
  name: "loss"
  type: "SoftmaxWithLoss"
  bottom: "ip2"
  bottom: "label"
  top: "loss"
}
I0712 17:47:57.021975 33315 layer_factory.hpp:77] Creating layer mnist
I0712 17:47:57.023208 33315 net.cpp:91] Creating Layer mnist
I0712 17:47:57.023231 33315 net.cpp:399] mnist -> data
I0712 17:47:57.023252 33315 net.cpp:399] mnist -> label
I0712 17:47:57.023296 33315 data_transformer.cpp:25] Loading mean file from: data/person_only_lmdb/person_patch_color_mean.binaryproto
I0712 17:47:57.024695 33321 db_lmdb.cpp:35] Opened lmdb data/person_only_lmdb/people_patch_train_lmdb
I0712 17:51:04.648566 33315 data_layer.cpp:41] output data size: 64,3,128,128
I0712 17:51:04.676911 33315 net.cpp:141] Setting up mnist
I0712 17:51:04.676964 33315 net.cpp:148] Top shape: 64 3 128 128 (3145728)
I0712 17:51:04.676973 33315 net.cpp:148] Top shape: 64 (64)
I0712 17:51:04.676978 33315 net.cpp:156] Memory required for data: 12583168
I0712 17:51:04.676990 33315 layer_factory.hpp:77] Creating layer conv1
I0712 17:51:04.677032 33315 net.cpp:91] Creating Layer conv1
I0712 17:51:04.677044 33315 net.cpp:425] conv1 <- data
I0712 17:51:04.677120 33315 net.cpp:399] conv1 -> conv1
I0712 17:51:07.385037 33315 net.cpp:141] Setting up conv1
I0712 17:51:07.385097 33315 net.cpp:148] Top shape: 64 20 124 124 (19681280)
I0712 17:51:07.385107 33315 net.cpp:156] Memory required for data: 91308288
I0712 17:51:07.385134 33315 layer_factory.hpp:77] Creating layer pool1
I0712 17:51:07.385161 33315 net.cpp:91] Creating Layer pool1
I0712 17:51:07.385174 33315 net.cpp:425] pool1 <- conv1
I0712 17:51:07.385187 33315 net.cpp:399] pool1 -> pool1
I0712 17:51:07.385283 33315 net.cpp:141] Setting up pool1
I0712 17:51:07.385301 33315 net.cpp:148] Top shape: 64 20 62 62 (4920320)
I0712 17:51:07.385311 33315 net.cpp:156] Memory required for data: 110989568
I0712 17:51:07.385318 33315 layer_factory.hpp:77] Creating layer conv2
I0712 17:51:07.385339 33315 net.cpp:91] Creating Layer conv2
I0712 17:51:07.385349 33315 net.cpp:425] conv2 <- pool1
I0712 17:51:07.385361 33315 net.cpp:399] conv2 -> conv2
I0712 17:51:07.387492 33315 net.cpp:141] Setting up conv2
I0712 17:51:07.387522 33315 net.cpp:148] Top shape: 64 50 58 58 (10764800)
I0712 17:51:07.387534 33315 net.cpp:156] Memory required for data: 154048768
I0712 17:51:07.387552 33315 layer_factory.hpp:77] Creating layer pool2
I0712 17:51:07.387567 33315 net.cpp:91] Creating Layer pool2
I0712 17:51:07.387575 33315 net.cpp:425] pool2 <- conv2
I0712 17:51:07.387585 33315 net.cpp:399] pool2 -> pool2
I0712 17:51:07.387663 33315 net.cpp:141] Setting up pool2
I0712 17:51:07.387679 33315 net.cpp:148] Top shape: 64 50 29 29 (2691200)
I0712 17:51:07.387686 33315 net.cpp:156] Memory required for data: 164813568
I0712 17:51:07.387692 33315 layer_factory.hpp:77] Creating layer ip1
I0712 17:51:07.387711 33315 net.cpp:91] Creating Layer ip1
I0712 17:51:07.387718 33315 net.cpp:425] ip1 <- pool2
I0712 17:51:07.387728 33315 net.cpp:399] ip1 -> ip1
I0712 17:51:07.596676 33315 net.cpp:141] Setting up ip1
I0712 17:51:07.596720 33315 net.cpp:148] Top shape: 64 500 (32000)
I0712 17:51:07.596725 33315 net.cpp:156] Memory required for data: 164941568
I0712 17:51:07.596740 33315 layer_factory.hpp:77] Creating layer relu1
I0712 17:51:07.596755 33315 net.cpp:91] Creating Layer relu1
I0712 17:51:07.596760 33315 net.cpp:425] relu1 <- ip1
I0712 17:51:07.596766 33315 net.cpp:386] relu1 -> ip1 (in-place)
I0712 17:51:07.597162 33315 net.cpp:141] Setting up relu1
I0712 17:51:07.597187 33315 net.cpp:148] Top shape: 64 500 (32000)
I0712 17:51:07.597192 33315 net.cpp:156] Memory required for data: 165069568
I0712 17:51:07.597198 33315 layer_factory.hpp:77] Creating layer ip2
I0712 17:51:07.597208 33315 net.cpp:91] Creating Layer ip2
I0712 17:51:07.597211 33315 net.cpp:425] ip2 <- ip1
I0712 17:51:07.597218 33315 net.cpp:399] ip2 -> ip2
I0712 17:51:07.597339 33315 net.cpp:141] Setting up ip2
I0712 17:51:07.597349 33315 net.cpp:148] Top shape: 64 2 (128)
I0712 17:51:07.597364 33315 net.cpp:156] Memory required for data: 165070080
I0712 17:51:07.597370 33315 layer_factory.hpp:77] Creating layer loss
I0712 17:51:07.597390 33315 net.cpp:91] Creating Layer loss
I0712 17:51:07.597394 33315 net.cpp:425] loss <- ip2
I0712 17:51:07.597399 33315 net.cpp:425] loss <- label
I0712 17:51:07.597404 33315 net.cpp:399] loss -> loss
I0712 17:51:07.597417 33315 layer_factory.hpp:77] Creating layer loss
…
I0712 17:51:07.598111 33315 net.cpp:313] The NetState phase (1) differed from the phase (0) specified by a rule in layer mnist
I0712 17:51:07.598207 33315 net.cpp:49] Initializing net from parameters: 
name: "LeNet"
state {
  phase: TEST
}
layer {
  name: "mnist"
  type: "Data"
  top: "data"
  top: "label"
  include {
    phase: TEST
  }
  transform_param {
    scale: 0.00390625
    mean_file: "data/person_only_lmdb/person_patch_color_mean.binaryproto"
  }
  data_param {
    source: "data/person_only_lmdb/people_patch_test_lmdb"
    batch_size: 100
    backend: LMDB
  }
}
layer {
  name: "conv1"
  type: "Convolution"
  bottom: "data"
  top: "conv1"
  param {
    lr_mult: 1
  }
  param {
    lr_mult: 2
  }
  convolution_param {
    num_output: 20
    kernel_size: 5
    stride: 1
    weight_filler {
      type: "xavier"
    }
    bias_filler {
      type: "constant"
    }
  }
}
layer {
  name: "pool1"
  type: "Pooling"
  bottom: "conv1"
  top: "pool1"
  pooling_param {
    pool: MAX
    kernel_size: 2
    stride: 2
  }
}
layer {
  name: "conv2"
  type: "Convolution"
  bottom: "pool1"
  top: "conv2"
  param {
    lr_mult: 1
  }
  param {
    lr_mult: 2
  }
  convolution_param {
    num_output: 50
    kernel_size: 5
    stride: 1
    weight_filler {
      type: "xavier"
    }
    bias_filler {
      type: "constant"
    }
  }
}
layer {
  name: "pool2"
  type: "Pooling"
  bottom: "conv2"
  top: "pool2"
  pooling_param {
    pool: MAX
    kernel_size: 2
    stride: 2
  }
}
layer {
  name: "ip1"
  type: "InnerProduct"
  bottom: "pool2"
  top: "ip1"
  param {
    lr_mult: 1
  }
  param {
    lr_mult: 2
  }
  inner_product_param {
    num_output: 500
    weight_filler {
      type: "xavier"
    }
    bias_filler {
      type: "constant"
    }
  }
}
layer {
  name: "relu1"
  type: "ReLU"
  bottom: "ip1"
  top: "ip1"
}
layer {
  name: "ip2"
  type: "InnerProduct"
  bottom: "ip1"
  top: "ip2"
  param {
    lr_mult: 1
  }
  param {
    lr_mult: 2
  }
  inner_product_param {
    num_output: 2
    weight_filler {
      type: "xavier"
    }
    bias_filler {
      type: "constant"
    }
  }
}
layer {
  name: "accuracy"
  type: "Accuracy"
  bottom: "ip2"
  bottom: "label"
  top: "accuracy"
  include {
    phase: TEST
  }
}
layer {
  name: "loss"
  type: "SoftmaxWithLoss"
  bottom: "ip2"
  bottom: "label"
  top: "loss"
}
I0712 17:51:07.598289 33315 layer_factory.hpp:77] Creating layer mnist
I0712 17:51:07.598400 33315 net.cpp:91] Creating Layer mnist
I0712 17:51:07.598412 33315 net.cpp:399] mnist -> data
I0712 17:51:07.598419 33315 net.cpp:399] mnist -> label
I0712 17:51:07.598429 33315 data_transformer.cpp:25] Loading mean file from: data/person_only_lmdb/person_patch_color_mean.binaryproto
I0712 17:51:07.599098 33327 db_lmdb.cpp:35] Opened lmdb data/person_only_lmdb/people_patch_test_lmdb
I0712 17:51:07.599387 33315 data_layer.cpp:41] output data size: 100,3,128,128
I0712 17:51:07.634627 33315 net.cpp:141] Setting up mnist
I0712 17:51:07.634675 33315 net.cpp:148] Top shape: 100 3 128 128 (4915200)
I0712 17:51:07.634680 33315 net.cpp:148] Top shape: 100 (100)
I0712 17:51:07.634683 33315 net.cpp:156] Memory required for data: 19661200
I0712 17:51:07.634690 33315 layer_factory.hpp:77] Creating layer label_mnist_1_split
I0712 17:51:07.634704 33315 net.cpp:91] Creating Layer label_mnist_1_split
I0712 17:51:07.634711 33315 net.cpp:425] label_mnist_1_split <- label
I0712 17:51:07.634732 33315 net.cpp:399] label_mnist_1_split -> label_mnist_1_split_0
I0712 17:51:07.634743 33315 net.cpp:399] label_mnist_1_split -> label_mnist_1_split_1
I0712 17:51:07.634955 33315 net.cpp:141] Setting up label_mnist_1_split
I0712 17:51:07.634984 33315 net.cpp:148] Top shape: 100 (100)
I0712 17:51:07.634989 33315 net.cpp:148] Top shape: 100 (100)
I0712 17:51:07.634991 33315 net.cpp:156] Memory required for data: 19662000
I0712 17:51:07.634995 33315 layer_factory.hpp:77] Creating layer conv1
I0712 17:51:07.635010 33315 net.cpp:91] Creating Layer conv1
I0712 17:51:07.635015 33315 net.cpp:425] conv1 <- data
I0712 17:51:07.635023 33315 net.cpp:399] conv1 -> conv1
I0712 17:51:07.636203 33315 net.cpp:141] Setting up conv1
I0712 17:51:07.636230 33315 net.cpp:148] Top shape: 100 20 124 124 (30752000)
I0712 17:51:07.636235 33315 net.cpp:156] Memory required for data: 142670000
I0712 17:51:07.636247 33315 layer_factory.hpp:77] Creating layer pool1
I0712 17:51:07.636270 33315 net.cpp:91] Creating Layer pool1
I0712 17:51:07.636274 33315 net.cpp:425] pool1 <- conv1
I0712 17:51:07.636281 33315 net.cpp:399] pool1 -> pool1
I0712 17:51:07.639721 33315 net.cpp:141] Setting up pool1
I0712 17:51:07.639755 33315 net.cpp:148] Top shape: 100 20 62 62 (7688000)
I0712 17:51:07.639768 33315 net.cpp:156] Memory required for data: 173422000
I0712 17:51:07.639777 33315 layer_factory.hpp:77] Creating layer conv2
I0712 17:51:07.639799 33315 net.cpp:91] Creating Layer conv2
I0712 17:51:07.639811 33315 net.cpp:425] conv2 <- pool1
I0712 17:51:07.639824 33315 net.cpp:399] conv2 -> conv2
I0712 17:51:07.641191 33315 net.cpp:141] Setting up conv2
I0712 17:51:07.641218 33315 net.cpp:148] Top shape: 100 50 58 58 (16820000)
I0712 17:51:07.641223 33315 net.cpp:156] Memory required for data: 240702000
I0712 17:51:07.641233 33315 layer_factory.hpp:77] Creating layer pool2
I0712 17:51:07.641242 33315 net.cpp:91] Creating Layer pool2
I0712 17:51:07.641245 33315 net.cpp:425] pool2 <- conv2
I0712 17:51:07.641252 33315 net.cpp:399] pool2 -> pool2
I0712 17:51:07.641294 33315 net.cpp:141] Setting up pool2
I0712 17:51:07.641302 33315 net.cpp:148] Top shape: 100 50 29 29 (4205000)
I0712 17:51:07.641305 33315 net.cpp:156] Memory required for data: 257522000
I0712 17:51:07.641309 33315 layer_factory.hpp:77] Creating layer ip1
I0712 17:51:07.641317 33315 net.cpp:91] Creating Layer ip1
I0712 17:51:07.641320 33315 net.cpp:425] ip1 <- pool2
I0712 17:51:07.641326 33315 net.cpp:399] ip1 -> ip1
I0712 17:51:07.856550 33315 net.cpp:141] Setting up ip1
I0712 17:51:07.856609 33315 net.cpp:148] Top shape: 100 500 (50000)
I0712 17:51:07.856614 33315 net.cpp:156] Memory required for data: 257722000
I0712 17:51:07.856631 33315 layer_factory.hpp:77] Creating layer relu1
I0712 17:51:07.856642 33315 net.cpp:91] Creating Layer relu1
I0712 17:51:07.856647 33315 net.cpp:425] relu1 <- ip1
I0712 17:51:07.856653 33315 net.cpp:386] relu1 -> ip1 (in-place)
I0712 17:51:07.857122 33315 net.cpp:141] Setting up relu1
I0712 17:51:07.857147 33315 net.cpp:148] Top shape: 100 500 (50000)
I0712 17:51:07.857151 33315 net.cpp:156] Memory required for data: 257922000
I0712 17:51:07.857156 33315 layer_factory.hpp:77] Creating layer ip2
I0712 17:51:07.857167 33315 net.cpp:91] Creating Layer ip2
I0712 17:51:07.857170 33315 net.cpp:425] ip2 <- ip1
I0712 17:51:07.857177 33315 net.cpp:399] ip2 -> ip2
I0712 17:51:07.857306 33315 net.cpp:141] Setting up ip2
I0712 17:51:07.857314 33315 net.cpp:148] Top shape: 100 2 (200)
I0712 17:51:07.857329 33315 net.cpp:156] Memory required for data: 257922800
I0712 17:51:07.857336 33315 layer_factory.hpp:77] Creating layer ip2_ip2_0_split
I0712 17:51:07.857342 33315 net.cpp:91] Creating Layer ip2_ip2_0_split
I0712 17:51:07.857347 33315 net.cpp:425] ip2_ip2_0_split <- ip2
I0712 17:51:07.857350 33315 net.cpp:399] ip2_ip2_0_split -> ip2_ip2_0_split_0
I0712 17:51:07.857357 33315 net.cpp:399] ip2_ip2_0_split -> ip2_ip2_0_split_1
I0712 17:51:07.857400 33315 net.cpp:141] Setting up ip2_ip2_0_split
I0712 17:51:07.857409 33315 net.cpp:148] Top shape: 100 2 (200)
I0712 17:51:07.857414 33315 net.cpp:148] Top shape: 100 2 (200)
I0712 17:51:07.857415 33315 net.cpp:156] Memory required for data: 257924400
I0712 17:51:07.857419 33315 layer_factory.hpp:77] Creating layer accuracy
I0712 17:51:07.857426 33315 net.cpp:91] Creating Layer accuracy
I0712 17:51:07.857430 33315 net.cpp:425] accuracy <- ip2_ip2_0_split_0
I0712 17:51:07.857434 33315 net.cpp:425] accuracy <- label_mnist_1_split_0
I0712 17:51:07.857440 33315 net.cpp:399] accuracy -> accuracy
…
