…
I1013 18:10:42.793607 17328 net.cpp:322] The NetState phase (0) differed from the phase (1) specified by a rule in layer accuracy
I1013 18:10:42.793787 17328 net.cpp:58] Initializing net from parameters: 
name: "AlexNet"
state {
  phase: TRAIN
  level: 0
  stage: ""
}
layer {
  name: "mnist"
  type: "Data"
  top: "data"
  top: "label"
  include {
    phase: TRAIN
  }
  transform_param {
    scale: 0.00390625
    mean_file: "data/person_only_lmdb/21class_mean.binaryproto"
  }
  data_param {
    source: "data/person_only_lmdb/pascal_plus_21cls_train_lmdb"
    batch_size: 128
    backend: LMDB
  }
}
layer {
  name: "conv1"
  type: "Convolution"
  bottom: "data"
  top: "conv1"
  param {
    lr_mult: 1
    decay_mult: 1
  }
  param {
    lr_mult: 2
    decay_mult: 0
  }
  convolution_param {
    num_output: 96
    kernel_size: 11
    stride: 4
    weight_filler {
      type: "gaussian"
      std: 0.01
    }
    bias_filler {
      type: "constant"
      value: 0
    }
  }
}
layer {
  name: "relu1"
  type: "ReLU"
  bottom: "conv1"
  top: "conv1"
}
layer {
  name: "norm1"
  type: "LRN"
  bottom: "conv1"
  top: "norm1"
  lrn_param {
    local_size: 5
    alpha: 0.0001
    beta: 0.75
  }
}
layer {
  name: "pool1"
  type: "Pooling"
  bottom: "norm1"
  top: "pool1"
  pooling_param {
    pool: MAX
    kernel_size: 3
    stride: 2
  }
}
layer {
  name: "conv2"
  type: "Convolution"
  bottom: "pool1"
  top: "conv2"
  param {
    lr_mult: 1
    decay_mult: 1
  }
  param {
    lr_mult: 2
    decay_mult: 0
  }
  convolution_param {
    num_output: 256
    pad: 2
    kernel_size: 5
    group: 2
    weight_filler {
      type: "gaussian"
      std: 0.01
    }
    bias_filler {
      type: "constant"
      value: 0.1
    }
  }
}
layer {
  name: "relu2"
  type: "ReLU"
  bottom: "conv2"
  top: "conv2"
}
layer {
  name: "norm2"
  type: "LRN"
  bottom: "conv2"
  top: "norm2"
  lrn_param {
    local_size: 5
    alpha: 0.0001
    beta: 0.75
  }
}
layer {
  name: "pool2"
  type: "Pooling"
  bottom: "norm2"
  top: "pool2"
  pooling_param {
    pool: MAX
    kernel_size: 3
    stride: 2
  }
}
layer {
  name: "conv3"
  type: "Convolution"
  bottom: "pool2"
  top: "conv3"
  param {
    lr_mult: 1
    decay_mult: 1
  }
  param {
    lr_mult: 2
    decay_mult: 0
  }
  convolution_param {
    num_output: 384
    pad: 1
    kernel_size: 3
    weight_filler {
      type: "gaussian"
      std: 0.01
    }
    bias_filler {
      type: "constant"
      value: 0
    }
  }
}
layer {
  name: "relu3"
  type: "ReLU"
  bottom: "conv3"
  top: "conv3"
}
layer {
  name: "conv4"
  type: "Convolution"
  bottom: "conv3"
  top: "conv4"
  param {
    lr_mult: 1
    decay_mult: 1
  }
  param {
    lr_mult: 2
    decay_mult: 0
  }
  convolution_param {
    num_output: 384
    pad: 1
    kernel_size: 3
    group: 2
    weight_filler {
      type: "gaussian"
      std: 0.01
    }
    bias_filler {
      type: "constant"
      value: 0.1
    }
  }
}
layer {
  name: "relu4"
  type: "ReLU"
  bottom: "conv4"
  top: "conv4"
}
layer {
  name: "conv5"
  type: "Convolution"
  bottom: "conv4"
  top: "conv5"
  param {
    lr_mult: 1
    decay_mult: 1
  }
  param {
    lr_mult: 2
    decay_mult: 0
  }
  convolution_param {
    num_output: 256
    pad: 1
    kernel_size: 3
    group: 2
    weight_filler {
      type: "gaussian"
      std: 0.01
    }
    bias_filler {
      type: "constant"
      value: 0.1
    }
  }
}
layer {
  name: "relu5"
  type: "ReLU"
  bottom: "conv5"
  top: "conv5"
}
layer {
  name: "pool5"
  type: "Pooling"
  bottom: "conv5"
  top: "pool5"
  pooling_param {
    pool: MAX
    kernel_size: 3
    stride: 2
  }
}
layer {
  name: "fc6new"
  type: "InnerProduct"
  bottom: "pool5"
  top: "fc6"
  param {
    lr_mult: 1
    decay_mult: 1
  }
  param {
    lr_mult: 2
    decay_mult: 0
  }
  inner_product_param {
    num_output: 4096
    weight_filler {
      type: "gaussian"
      std: 0.005
    }
    bias_filler {
      type: "constant"
      value: 0.1
    }
  }
}
layer {
  name: "relu6"
  type: "ReLU"
  bottom: "fc6"
  top: "fc6"
}
layer {
  name: "drop6"
  type: "Dropout"
  bottom: "fc6"
  top: "fc6"
  dropout_param {
    dropout_ratio: 0.5
  }
}
layer {
  name: "fc7new"
  type: "InnerProduct"
  bottom: "fc6"
  top: "fc7"
  param {
    lr_mult: 1
    decay_mult: 1
  }
  param {
    lr_mult: 2
    decay_mult: 0
  }
  inner_product_param {
    num_output: 4096
    weight_filler {
      type: "gaussian"
      std: 0.005
    }
    bias_filler {
      type: "constant"
      value: 0.1
    }
  }
}
layer {
  name: "relu7"
  type: "ReLU"
  bottom: "fc7"
  top: "fc7"
}
layer {
  name: "drop7"
  type: "Dropout"
  bottom: "fc7"
  top: "fc7"
  dropout_param {
    dropout_ratio: 0.5
  }
}
layer {
  name: "fc8new"
  type: "InnerProduct"
  bottom: "fc7"
  top: "fc8"
  param {
    lr_mult: 1
    decay_mult: 1
  }
  param {
    lr_mult: 2
    decay_mult: 0
  }
  inner_product_param {
    num_output: 21
    weight_filler {
      type: "gaussian"
      std: 0.01
    }
    bias_filler {
      type: "constant"
      value: 0
    }
  }
}
layer {
  name: "loss"
  type: "SoftmaxWithLoss"
  bottom: "fc8"
  bottom: "label"
  top: "loss"
}
I1013 18:10:42.793925 17328 layer_factory.hpp:77] Creating layer mnist
I1013 18:10:42.794988 17328 net.cpp:100] Creating Layer mnist
I1013 18:10:42.795017 17328 net.cpp:408] mnist -> data
I1013 18:10:42.795159 17328 net.cpp:408] mnist -> label
I1013 18:10:42.795248 17328 data_transformer.cpp:25] Loading mean file from: data/person_only_lmdb/21class_mean.binaryproto
I1013 18:10:42.797407 17334 db_lmdb.cpp:35] Opened lmdb data/person_only_lmdb/pascal_plus_21cls_train_lmdb
I1013 18:10:42.825714 17328 data_layer.cpp:41] output data size: 128,3,128,128
I1013 18:10:42.877959 17328 net.cpp:150] Setting up mnist
I1013 18:10:42.878065 17328 net.cpp:157] Top shape: 128 3 128 128 (6291456)
I1013 18:10:42.878075 17328 net.cpp:157] Top shape: 128 (128)
I1013 18:10:42.878080 17328 net.cpp:165] Memory required for data: 25166336
I1013 18:10:42.878093 17328 layer_factory.hpp:77] Creating layer conv1
I1013 18:10:42.878132 17328 net.cpp:100] Creating Layer conv1
I1013 18:10:42.878144 17328 net.cpp:434] conv1 <- data
I1013 18:10:42.878161 17328 net.cpp:408] conv1 -> conv1
I1013 18:10:43.189050 17328 net.cpp:150] Setting up conv1
I1013 18:10:43.189090 17328 net.cpp:157] Top shape: 128 96 30 30 (11059200)
I1013 18:10:43.189095 17328 net.cpp:165] Memory required for data: 69403136
I1013 18:10:43.189124 17328 layer_factory.hpp:77] Creating layer relu1
I1013 18:10:43.189142 17328 net.cpp:100] Creating Layer relu1
I1013 18:10:43.189148 17328 net.cpp:434] relu1 <- conv1
I1013 18:10:43.189155 17328 net.cpp:395] relu1 -> conv1 (in-place)
I1013 18:10:43.189354 17328 net.cpp:150] Setting up relu1
I1013 18:10:43.189368 17328 net.cpp:157] Top shape: 128 96 30 30 (11059200)
I1013 18:10:43.189371 17328 net.cpp:165] Memory required for data: 113639936
I1013 18:10:43.189376 17328 layer_factory.hpp:77] Creating layer norm1
I1013 18:10:43.189390 17328 net.cpp:100] Creating Layer norm1
I1013 18:10:43.189398 17328 net.cpp:434] norm1 <- conv1
I1013 18:10:43.189404 17328 net.cpp:408] norm1 -> norm1
I1013 18:10:43.190033 17328 net.cpp:150] Setting up norm1
I1013 18:10:43.190050 17328 net.cpp:157] Top shape: 128 96 30 30 (11059200)
I1013 18:10:43.190054 17328 net.cpp:165] Memory required for data: 157876736
I1013 18:10:43.190081 17328 layer_factory.hpp:77] Creating layer pool1
I1013 18:10:43.190094 17328 net.cpp:100] Creating Layer pool1
I1013 18:10:43.190099 17328 net.cpp:434] pool1 <- norm1
I1013 18:10:43.190104 17328 net.cpp:408] pool1 -> pool1
I1013 18:10:43.190156 17328 net.cpp:150] Setting up pool1
I1013 18:10:43.190165 17328 net.cpp:157] Top shape: 128 96 15 15 (2764800)
I1013 18:10:43.190170 17328 net.cpp:165] Memory required for data: 168935936
I1013 18:10:43.190173 17328 layer_factory.hpp:77] Creating layer conv2
I1013 18:10:43.190188 17328 net.cpp:100] Creating Layer conv2
I1013 18:10:43.190194 17328 net.cpp:434] conv2 <- pool1
I1013 18:10:43.190201 17328 net.cpp:408] conv2 -> conv2
I1013 18:10:43.204108 17328 net.cpp:150] Setting up conv2
I1013 18:10:43.204126 17328 net.cpp:157] Top shape: 128 256 15 15 (7372800)
I1013 18:10:43.204131 17328 net.cpp:165] Memory required for data: 198427136
I1013 18:10:43.204141 17328 layer_factory.hpp:77] Creating layer relu2
I1013 18:10:43.204149 17328 net.cpp:100] Creating Layer relu2
I1013 18:10:43.204154 17328 net.cpp:434] relu2 <- conv2
I1013 18:10:43.204160 17328 net.cpp:395] relu2 -> conv2 (in-place)
I1013 18:10:43.204764 17328 net.cpp:150] Setting up relu2
I1013 18:10:43.204780 17328 net.cpp:157] Top shape: 128 256 15 15 (7372800)
I1013 18:10:43.204784 17328 net.cpp:165] Memory required for data: 227918336
I1013 18:10:43.204789 17328 layer_factory.hpp:77] Creating layer norm2
I1013 18:10:43.204797 17328 net.cpp:100] Creating Layer norm2
I1013 18:10:43.204802 17328 net.cpp:434] norm2 <- conv2
I1013 18:10:43.204808 17328 net.cpp:408] norm2 -> norm2
I1013 18:10:43.205004 17328 net.cpp:150] Setting up norm2
I1013 18:10:43.205015 17328 net.cpp:157] Top shape: 128 256 15 15 (7372800)
I1013 18:10:43.205020 17328 net.cpp:165] Memory required for data: 257409536
I1013 18:10:43.205024 17328 layer_factory.hpp:77] Creating layer pool2
I1013 18:10:43.205034 17328 net.cpp:100] Creating Layer pool2
I1013 18:10:43.205040 17328 net.cpp:434] pool2 <- norm2
I1013 18:10:43.205051 17328 net.cpp:408] pool2 -> pool2
I1013 18:10:43.205087 17328 net.cpp:150] Setting up pool2
I1013 18:10:43.205096 17328 net.cpp:157] Top shape: 128 256 7 7 (1605632)
I1013 18:10:43.205099 17328 net.cpp:165] Memory required for data: 263832064
I1013 18:10:43.205108 17328 layer_factory.hpp:77] Creating layer conv3
I1013 18:10:43.205122 17328 net.cpp:100] Creating Layer conv3
I1013 18:10:43.205127 17328 net.cpp:434] conv3 <- pool2
I1013 18:10:43.205132 17328 net.cpp:408] conv3 -> conv3
I1013 18:10:43.239977 17328 net.cpp:150] Setting up conv3
I1013 18:10:43.239997 17328 net.cpp:157] Top shape: 128 384 7 7 (2408448)
I1013 18:10:43.240002 17328 net.cpp:165] Memory required for data: 273465856
I1013 18:10:43.240015 17328 layer_factory.hpp:77] Creating layer relu3
I1013 18:10:43.240022 17328 net.cpp:100] Creating Layer relu3
I1013 18:10:43.240027 17328 net.cpp:434] relu3 <- conv3
I1013 18:10:43.240033 17328 net.cpp:395] relu3 -> conv3 (in-place)
I1013 18:10:43.240217 17328 net.cpp:150] Setting up relu3
I1013 18:10:43.240228 17328 net.cpp:157] Top shape: 128 384 7 7 (2408448)
I1013 18:10:43.240233 17328 net.cpp:165] Memory required for data: 283099648
I1013 18:10:43.240237 17328 layer_factory.hpp:77] Creating layer conv4
I1013 18:10:43.240248 17328 net.cpp:100] Creating Layer conv4
I1013 18:10:43.240262 17328 net.cpp:434] conv4 <- conv3
I1013 18:10:43.240268 17328 net.cpp:408] conv4 -> conv4
I1013 18:10:43.267876 17328 net.cpp:150] Setting up conv4
I1013 18:10:43.267894 17328 net.cpp:157] Top shape: 128 384 7 7 (2408448)
I1013 18:10:43.267900 17328 net.cpp:165] Memory required for data: 292733440
I1013 18:10:43.267910 17328 layer_factory.hpp:77] Creating layer relu4
I1013 18:10:43.267917 17328 net.cpp:100] Creating Layer relu4
I1013 18:10:43.267922 17328 net.cpp:434] relu4 <- conv4
I1013 18:10:43.267928 17328 net.cpp:395] relu4 -> conv4 (in-place)
I1013 18:10:43.268115 17328 net.cpp:150] Setting up relu4
I1013 18:10:43.268127 17328 net.cpp:157] Top shape: 128 384 7 7 (2408448)
I1013 18:10:43.268147 17328 net.cpp:165] Memory required for data: 302367232
I1013 18:10:43.268152 17328 layer_factory.hpp:77] Creating layer conv5
I1013 18:10:43.268163 17328 net.cpp:100] Creating Layer conv5
I1013 18:10:43.268168 17328 net.cpp:434] conv5 <- conv4
I1013 18:10:43.268174 17328 net.cpp:408] conv5 -> conv5
I1013 18:10:43.287668 17328 net.cpp:150] Setting up conv5
I1013 18:10:43.287686 17328 net.cpp:157] Top shape: 128 256 7 7 (1605632)
I1013 18:10:43.287691 17328 net.cpp:165] Memory required for data: 308789760
I1013 18:10:43.287703 17328 layer_factory.hpp:77] Creating layer relu5
I1013 18:10:43.287713 17328 net.cpp:100] Creating Layer relu5
I1013 18:10:43.287716 17328 net.cpp:434] relu5 <- conv5
I1013 18:10:43.287724 17328 net.cpp:395] relu5 -> conv5 (in-place)
I1013 18:10:43.287911 17328 net.cpp:150] Setting up relu5
I1013 18:10:43.287924 17328 net.cpp:157] Top shape: 128 256 7 7 (1605632)
I1013 18:10:43.287927 17328 net.cpp:165] Memory required for data: 315212288
I1013 18:10:43.287932 17328 layer_factory.hpp:77] Creating layer pool5
I1013 18:10:43.287941 17328 net.cpp:100] Creating Layer pool5
I1013 18:10:43.287947 17328 net.cpp:434] pool5 <- conv5
I1013 18:10:43.287953 17328 net.cpp:408] pool5 -> pool5
I1013 18:10:43.287998 17328 net.cpp:150] Setting up pool5
I1013 18:10:43.288008 17328 net.cpp:157] Top shape: 128 256 3 3 (294912)
I1013 18:10:43.288012 17328 net.cpp:165] Memory required for data: 316391936
I1013 18:10:43.288017 17328 layer_factory.hpp:77] Creating layer fc6new
I1013 18:10:43.288028 17328 net.cpp:100] Creating Layer fc6new
I1013 18:10:43.288034 17328 net.cpp:434] fc6new <- pool5
I1013 18:10:43.288043 17328 net.cpp:408] fc6new -> fc6
I1013 18:10:43.606170 17328 net.cpp:150] Setting up fc6new
I1013 18:10:43.606215 17328 net.cpp:157] Top shape: 128 4096 (524288)
I1013 18:10:43.606220 17328 net.cpp:165] Memory required for data: 318489088
I1013 18:10:43.606251 17328 layer_factory.hpp:77] Creating layer relu6
I1013 18:10:43.606281 17328 net.cpp:100] Creating Layer relu6
I1013 18:10:43.606293 17328 net.cpp:434] relu6 <- fc6
I1013 18:10:43.606314 17328 net.cpp:395] relu6 -> fc6 (in-place)
I1013 18:10:43.607146 17328 net.cpp:150] Setting up relu6
I1013 18:10:43.607169 17328 net.cpp:157] Top shape: 128 4096 (524288)
I1013 18:10:43.607173 17328 net.cpp:165] Memory required for data: 320586240
I1013 18:10:43.607177 17328 layer_factory.hpp:77] Creating layer drop6
I1013 18:10:43.607206 17328 net.cpp:100] Creating Layer drop6
I1013 18:10:43.607210 17328 net.cpp:434] drop6 <- fc6
I1013 18:10:43.607215 17328 net.cpp:395] drop6 -> fc6 (in-place)
I1013 18:10:43.607254 17328 net.cpp:150] Setting up drop6
I1013 18:10:43.607261 17328 net.cpp:157] Top shape: 128 4096 (524288)
I1013 18:10:43.607264 17328 net.cpp:165] Memory required for data: 322683392
I1013 18:10:43.607267 17328 layer_factory.hpp:77] Creating layer fc7new
I1013 18:10:43.607282 17328 net.cpp:100] Creating Layer fc7new
I1013 18:10:43.607288 17328 net.cpp:434] fc7new <- fc6
I1013 18:10:43.607306 17328 net.cpp:408] fc7new -> fc7
I1013 18:10:44.083344 17328 net.cpp:150] Setting up fc7new
I1013 18:10:44.083438 17328 net.cpp:157] Top shape: 128 4096 (524288)
I1013 18:10:44.083443 17328 net.cpp:165] Memory required for data: 324780544
I1013 18:10:44.083461 17328 layer_factory.hpp:77] Creating layer relu7
I1013 18:10:44.083480 17328 net.cpp:100] Creating Layer relu7
I1013 18:10:44.083487 17328 net.cpp:434] relu7 <- fc7
I1013 18:10:44.083494 17328 net.cpp:395] relu7 -> fc7 (in-place)
I1013 18:10:44.083883 17328 net.cpp:150] Setting up relu7
I1013 18:10:44.083894 17328 net.cpp:157] Top shape: 128 4096 (524288)
I1013 18:10:44.083907 17328 net.cpp:165] Memory required for data: 326877696
I1013 18:10:44.083915 17328 layer_factory.hpp:77] Creating layer drop7
I1013 18:10:44.083930 17328 net.cpp:100] Creating Layer drop7
I1013 18:10:44.083933 17328 net.cpp:434] drop7 <- fc7
I1013 18:10:44.083937 17328 net.cpp:395] drop7 -> fc7 (in-place)
I1013 18:10:44.083959 17328 net.cpp:150] Setting up drop7
I1013 18:10:44.083967 17328 net.cpp:157] Top shape: 128 4096 (524288)
I1013 18:10:44.084002 17328 net.cpp:165] Memory required for data: 328974848
I1013 18:10:44.084007 17328 layer_factory.hpp:77] Creating layer fc8new
I1013 18:10:44.084014 17328 net.cpp:100] Creating Layer fc8new
I1013 18:10:44.084018 17328 net.cpp:434] fc8new <- fc7
I1013 18:10:44.084027 17328 net.cpp:408] fc8new -> fc8
I1013 18:10:44.086531 17328 net.cpp:150] Setting up fc8new
I1013 18:10:44.086541 17328 net.cpp:157] Top shape: 128 21 (2688)
I1013 18:10:44.086544 17328 net.cpp:165] Memory required for data: 328985600
I1013 18:10:44.086549 17328 layer_factory.hpp:77] Creating layer loss
I1013 18:10:44.086565 17328 net.cpp:100] Creating Layer loss
I1013 18:10:44.086568 17328 net.cpp:434] loss <- fc8
I1013 18:10:44.086572 17328 net.cpp:434] loss <- label
I1013 18:10:44.086578 17328 net.cpp:408] loss -> loss
I1013 18:10:44.086593 17328 layer_factory.hpp:77] Creating layer loss
…
I1013 18:10:44.087891 17328 net.cpp:322] The NetState phase (1) differed from the phase (0) specified by a rule in layer mnist
I1013 18:10:44.088054 17328 net.cpp:58] Initializing net from parameters: 
name: "AlexNet"
state {
  phase: TEST
}
layer {
  name: "mnist"
  type: "Data"
  top: "data"
  top: "label"
  include {
    phase: TEST
  }
  transform_param {
    scale: 0.00390625
    mean_file: "data/person_only_lmdb/21class_mean.binaryproto"
  }
  data_param {
    source: "data/person_only_lmdb/pascal_plus_21cls_test_lmdb"
    batch_size: 100
    backend: LMDB
  }
}
layer {
  name: "conv1"
  type: "Convolution"
  bottom: "data"
  top: "conv1"
  param {
    lr_mult: 1
    decay_mult: 1
  }
  param {
    lr_mult: 2
    decay_mult: 0
  }
  convolution_param {
    num_output: 96
    kernel_size: 11
    stride: 4
    weight_filler {
      type: "gaussian"
      std: 0.01
    }
    bias_filler {
      type: "constant"
      value: 0
    }
  }
}
layer {
  name: "relu1"
  type: "ReLU"
  bottom: "conv1"
  top: "conv1"
}
layer {
  name: "norm1"
  type: "LRN"
  bottom: "conv1"
  top: "norm1"
  lrn_param {
    local_size: 5
    alpha: 0.0001
    beta: 0.75
  }
}
layer {
  name: "pool1"
  type: "Pooling"
  bottom: "norm1"
  top: "pool1"
  pooling_param {
    pool: MAX
    kernel_size: 3
    stride: 2
  }
}
layer {
  name: "conv2"
  type: "Convolution"
  bottom: "pool1"
  top: "conv2"
  param {
    lr_mult: 1
    decay_mult: 1
  }
  param {
    lr_mult: 2
    decay_mult: 0
  }
  convolution_param {
    num_output: 256
    pad: 2
    kernel_size: 5
    group: 2
    weight_filler {
      type: "gaussian"
      std: 0.01
    }
    bias_filler {
      type: "constant"
      value: 0.1
    }
  }
}
layer {
  name: "relu2"
  type: "ReLU"
  bottom: "conv2"
  top: "conv2"
}
layer {
  name: "norm2"
  type: "LRN"
  bottom: "conv2"
  top: "norm2"
  lrn_param {
    local_size: 5
    alpha: 0.0001
    beta: 0.75
  }
}
layer {
  name: "pool2"
  type: "Pooling"
  bottom: "norm2"
  top: "pool2"
  pooling_param {
    pool: MAX
    kernel_size: 3
    stride: 2
  }
}
layer {
  name: "conv3"
  type: "Convolution"
  bottom: "pool2"
  top: "conv3"
  param {
    lr_mult: 1
    decay_mult: 1
  }
  param {
    lr_mult: 2
    decay_mult: 0
  }
  convolution_param {
    num_output: 384
    pad: 1
    kernel_size: 3
    weight_filler {
      type: "gaussian"
      std: 0.01
    }
    bias_filler {
      type: "constant"
      value: 0
    }
  }
}
layer {
  name: "relu3"
  type: "ReLU"
  bottom: "conv3"
  top: "conv3"
}
layer {
  name: "conv4"
  type: "Convolution"
  bottom: "conv3"
  top: "conv4"
  param {
    lr_mult: 1
    decay_mult: 1
  }
  param {
    lr_mult: 2
    decay_mult: 0
  }
  convolution_param {
    num_output: 384
    pad: 1
    kernel_size: 3
    group: 2
    weight_filler {
      type: "gaussian"
      std: 0.01
    }
    bias_filler {
      type: "constant"
      value: 0.1
    }
  }
}
layer {
  name: "relu4"
  type: "ReLU"
  bottom: "conv4"
  top: "conv4"
}
layer {
  name: "conv5"
  type: "Convolution"
  bottom: "conv4"
  top: "conv5"
  param {
    lr_mult: 1
    decay_mult: 1
  }
  param {
    lr_mult: 2
    decay_mult: 0
  }
  convolution_param {
    num_output: 256
    pad: 1
    kernel_size: 3
    group: 2
    weight_filler {
      type: "gaussian"
      std: 0.01
    }
    bias_filler {
      type: "constant"
      value: 0.1
    }
  }
}
layer {
  name: "relu5"
  type: "ReLU"
  bottom: "conv5"
  top: "conv5"
}
layer {
  name: "pool5"
  type: "Pooling"
  bottom: "conv5"
  top: "pool5"
  pooling_param {
    pool: MAX
    kernel_size: 3
    stride: 2
  }
}
layer {
  name: "fc6new"
  type: "InnerProduct"
  bottom: "pool5"
  top: "fc6"
  param {
    lr_mult: 1
    decay_mult: 1
  }
  param {
    lr_mult: 2
    decay_mult: 0
  }
  inner_product_param {
    num_output: 4096
    weight_filler {
      type: "gaussian"
      std: 0.005
    }
    bias_filler {
      type: "constant"
      value: 0.1
    }
  }
}
layer {
  name: "relu6"
  type: "ReLU"
  bottom: "fc6"
  top: "fc6"
}
layer {
  name: "drop6"
  type: "Dropout"
  bottom: "fc6"
  top: "fc6"
  dropout_param {
    dropout_ratio: 0.5
  }
}
layer {
  name: "fc7new"
  type: "InnerProduct"
  bottom: "fc6"
  top: "fc7"
  param {
    lr_mult: 1
    decay_mult: 1
  }
  param {
    lr_mult: 2
    decay_mult: 0
  }
  inner_product_param {
    num_output: 4096
    weight_filler {
      type: "gaussian"
      std: 0.005
    }
    bias_filler {
      type: "constant"
      value: 0.1
    }
  }
}
layer {
  name: "relu7"
  type: "ReLU"
  bottom: "fc7"
  top: "fc7"
}
layer {
  name: "drop7"
  type: "Dropout"
  bottom: "fc7"
  top: "fc7"
  dropout_param {
    dropout_ratio: 0.5
  }
}
layer {
  name: "fc8new"
  type: "InnerProduct"
  bottom: "fc7"
  top: "fc8"
  param {
    lr_mult: 1
    decay_mult: 1
  }
  param {
    lr_mult: 2
    decay_mult: 0
  }
  inner_product_param {
    num_output: 21
    weight_filler {
      type: "gaussian"
      std: 0.01
    }
    bias_filler {
      type: "constant"
      value: 0
    }
  }
}
layer {
  name: "accuracy"
  type: "Accuracy"
  bottom: "fc8"
  bottom: "label"
  top: "accuracy"
  include {
    phase: TEST
  }
}
layer {
  name: "loss"
  type: "SoftmaxWithLoss"
  bottom: "fc8"
  bottom: "label"
  top: "loss"
}
I1013 18:10:44.088189 17328 layer_factory.hpp:77] Creating layer mnist
I1013 18:10:44.088330 17328 net.cpp:100] Creating Layer mnist
I1013 18:10:44.088342 17328 net.cpp:408] mnist -> data
I1013 18:10:44.088351 17328 net.cpp:408] mnist -> label
I1013 18:10:44.088371 17328 data_transformer.cpp:25] Loading mean file from: data/person_only_lmdb/21class_mean.binaryproto
I1013 18:10:44.090410 17336 db_lmdb.cpp:35] Opened lmdb data/person_only_lmdb/pascal_plus_21cls_test_lmdb
I1013 18:10:44.090709 17328 data_layer.cpp:41] output data size: 100,3,128,128
I1013 18:10:44.140944 17328 net.cpp:150] Setting up mnist
I1013 18:10:44.140981 17328 net.cpp:157] Top shape: 100 3 128 128 (4915200)
I1013 18:10:44.140988 17328 net.cpp:157] Top shape: 100 (100)
I1013 18:10:44.140992 17328 net.cpp:165] Memory required for data: 19661200
I1013 18:10:44.141000 17328 layer_factory.hpp:77] Creating layer label_mnist_1_split
I1013 18:10:44.141022 17328 net.cpp:100] Creating Layer label_mnist_1_split
I1013 18:10:44.141028 17328 net.cpp:434] label_mnist_1_split <- label
I1013 18:10:44.141037 17328 net.cpp:408] label_mnist_1_split -> label_mnist_1_split_0
I1013 18:10:44.141052 17328 net.cpp:408] label_mnist_1_split -> label_mnist_1_split_1
I1013 18:10:44.141335 17328 net.cpp:150] Setting up label_mnist_1_split
I1013 18:10:44.141381 17328 net.cpp:157] Top shape: 100 (100)
I1013 18:10:44.141391 17328 net.cpp:157] Top shape: 100 (100)
I1013 18:10:44.141399 17328 net.cpp:165] Memory required for data: 19662000
I1013 18:10:44.141410 17328 layer_factory.hpp:77] Creating layer conv1
I1013 18:10:44.141448 17328 net.cpp:100] Creating Layer conv1
I1013 18:10:44.141458 17328 net.cpp:434] conv1 <- data
I1013 18:10:44.141472 17328 net.cpp:408] conv1 -> conv1
I1013 18:10:44.148535 17328 net.cpp:150] Setting up conv1
I1013 18:10:44.148579 17328 net.cpp:157] Top shape: 100 96 30 30 (8640000)
I1013 18:10:44.148589 17328 net.cpp:165] Memory required for data: 54222000
I1013 18:10:44.148617 17328 layer_factory.hpp:77] Creating layer relu1
I1013 18:10:44.148635 17328 net.cpp:100] Creating Layer relu1
I1013 18:10:44.148648 17328 net.cpp:434] relu1 <- conv1
I1013 18:10:44.148661 17328 net.cpp:395] relu1 -> conv1 (in-place)
I1013 18:10:44.149024 17328 net.cpp:150] Setting up relu1
I1013 18:10:44.149044 17328 net.cpp:157] Top shape: 100 96 30 30 (8640000)
I1013 18:10:44.149052 17328 net.cpp:165] Memory required for data: 88782000
I1013 18:10:44.149060 17328 layer_factory.hpp:77] Creating layer norm1
I1013 18:10:44.149080 17328 net.cpp:100] Creating Layer norm1
I1013 18:10:44.149088 17328 net.cpp:434] norm1 <- conv1
I1013 18:10:44.149099 17328 net.cpp:408] norm1 -> norm1
I1013 18:10:44.150254 17328 net.cpp:150] Setting up norm1
I1013 18:10:44.150292 17328 net.cpp:157] Top shape: 100 96 30 30 (8640000)
I1013 18:10:44.150305 17328 net.cpp:165] Memory required for data: 123342000
I1013 18:10:44.150315 17328 layer_factory.hpp:77] Creating layer pool1
I1013 18:10:44.150329 17328 net.cpp:100] Creating Layer pool1
I1013 18:10:44.150337 17328 net.cpp:434] pool1 <- norm1
I1013 18:10:44.150349 17328 net.cpp:408] pool1 -> pool1
I1013 18:10:44.150427 17328 net.cpp:150] Setting up pool1
I1013 18:10:44.150442 17328 net.cpp:157] Top shape: 100 96 15 15 (2160000)
I1013 18:10:44.150449 17328 net.cpp:165] Memory required for data: 131982000
I1013 18:10:44.150456 17328 layer_factory.hpp:77] Creating layer conv2
I1013 18:10:44.150475 17328 net.cpp:100] Creating Layer conv2
I1013 18:10:44.150486 17328 net.cpp:434] conv2 <- pool1
I1013 18:10:44.150499 17328 net.cpp:408] conv2 -> conv2
I1013 18:10:44.169304 17328 net.cpp:150] Setting up conv2
I1013 18:10:44.169338 17328 net.cpp:157] Top shape: 100 256 15 15 (5760000)
I1013 18:10:44.169345 17328 net.cpp:165] Memory required for data: 155022000
I1013 18:10:44.169389 17328 layer_factory.hpp:77] Creating layer relu2
I1013 18:10:44.169414 17328 net.cpp:100] Creating Layer relu2
I1013 18:10:44.169420 17328 net.cpp:434] relu2 <- conv2
I1013 18:10:44.169436 17328 net.cpp:395] relu2 -> conv2 (in-place)
I1013 18:10:44.170224 17328 net.cpp:150] Setting up relu2
I1013 18:10:44.170240 17328 net.cpp:157] Top shape: 100 256 15 15 (5760000)
I1013 18:10:44.170250 17328 net.cpp:165] Memory required for data: 178062000
I1013 18:10:44.170255 17328 layer_factory.hpp:77] Creating layer norm2
I1013 18:10:44.170270 17328 net.cpp:100] Creating Layer norm2
I1013 18:10:44.170275 17328 net.cpp:434] norm2 <- conv2
I1013 18:10:44.170282 17328 net.cpp:408] norm2 -> norm2
I1013 18:10:44.170558 17328 net.cpp:150] Setting up norm2
I1013 18:10:44.170574 17328 net.cpp:157] Top shape: 100 256 15 15 (5760000)
I1013 18:10:44.170578 17328 net.cpp:165] Memory required for data: 201102000
I1013 18:10:44.170583 17328 layer_factory.hpp:77] Creating layer pool2
I1013 18:10:44.170591 17328 net.cpp:100] Creating Layer pool2
I1013 18:10:44.170595 17328 net.cpp:434] pool2 <- norm2
I1013 18:10:44.170603 17328 net.cpp:408] pool2 -> pool2
I1013 18:10:44.170647 17328 net.cpp:150] Setting up pool2
I1013 18:10:44.170657 17328 net.cpp:157] Top shape: 100 256 7 7 (1254400)
I1013 18:10:44.170660 17328 net.cpp:165] Memory required for data: 206119600
I1013 18:10:44.170665 17328 layer_factory.hpp:77] Creating layer conv3
I1013 18:10:44.170680 17328 net.cpp:100] Creating Layer conv3
I1013 18:10:44.170682 17328 net.cpp:434] conv3 <- pool2
I1013 18:10:44.170691 17328 net.cpp:408] conv3 -> conv3
I1013 18:10:44.207329 17328 net.cpp:150] Setting up conv3
I1013 18:10:44.207366 17328 net.cpp:157] Top shape: 100 384 7 7 (1881600)
I1013 18:10:44.207371 17328 net.cpp:165] Memory required for data: 213646000
I1013 18:10:44.207386 17328 layer_factory.hpp:77] Creating layer relu3
I1013 18:10:44.207399 17328 net.cpp:100] Creating Layer relu3
I1013 18:10:44.207406 17328 net.cpp:434] relu3 <- conv3
I1013 18:10:44.207415 17328 net.cpp:395] relu3 -> conv3 (in-place)
I1013 18:10:44.207630 17328 net.cpp:150] Setting up relu3
I1013 18:10:44.207643 17328 net.cpp:157] Top shape: 100 384 7 7 (1881600)
I1013 18:10:44.207648 17328 net.cpp:165] Memory required for data: 221172400
I1013 18:10:44.207651 17328 layer_factory.hpp:77] Creating layer conv4
I1013 18:10:44.207667 17328 net.cpp:100] Creating Layer conv4
I1013 18:10:44.207676 17328 net.cpp:434] conv4 <- conv3
I1013 18:10:44.207687 17328 net.cpp:408] conv4 -> conv4
I1013 18:10:44.236476 17328 net.cpp:150] Setting up conv4
I1013 18:10:44.236516 17328 net.cpp:157] Top shape: 100 384 7 7 (1881600)
I1013 18:10:44.236521 17328 net.cpp:165] Memory required for data: 228698800
I1013 18:10:44.236533 17328 layer_factory.hpp:77] Creating layer relu4
I1013 18:10:44.236547 17328 net.cpp:100] Creating Layer relu4
I1013 18:10:44.236552 17328 net.cpp:434] relu4 <- conv4
I1013 18:10:44.236562 17328 net.cpp:395] relu4 -> conv4 (in-place)
I1013 18:10:44.237221 17328 net.cpp:150] Setting up relu4
I1013 18:10:44.237236 17328 net.cpp:157] Top shape: 100 384 7 7 (1881600)
I1013 18:10:44.237241 17328 net.cpp:165] Memory required for data: 236225200
I1013 18:10:44.237246 17328 layer_factory.hpp:77] Creating layer conv5
I1013 18:10:44.237262 17328 net.cpp:100] Creating Layer conv5
I1013 18:10:44.237269 17328 net.cpp:434] conv5 <- conv4
I1013 18:10:44.237277 17328 net.cpp:408] conv5 -> conv5
I1013 18:10:44.257282 17328 net.cpp:150] Setting up conv5
I1013 18:10:44.257313 17328 net.cpp:157] Top shape: 100 256 7 7 (1254400)
I1013 18:10:44.257318 17328 net.cpp:165] Memory required for data: 241242800
I1013 18:10:44.257333 17328 layer_factory.hpp:77] Creating layer relu5
I1013 18:10:44.257344 17328 net.cpp:100] Creating Layer relu5
I1013 18:10:44.257349 17328 net.cpp:434] relu5 <- conv5
I1013 18:10:44.257359 17328 net.cpp:395] relu5 -> conv5 (in-place)
I1013 18:10:44.257575 17328 net.cpp:150] Setting up relu5
I1013 18:10:44.257586 17328 net.cpp:157] Top shape: 100 256 7 7 (1254400)
I1013 18:10:44.257591 17328 net.cpp:165] Memory required for data: 246260400
I1013 18:10:44.257613 17328 layer_factory.hpp:77] Creating layer pool5
I1013 18:10:44.257627 17328 net.cpp:100] Creating Layer pool5
I1013 18:10:44.257634 17328 net.cpp:434] pool5 <- conv5
I1013 18:10:44.257642 17328 net.cpp:408] pool5 -> pool5
I1013 18:10:44.257699 17328 net.cpp:150] Setting up pool5
I1013 18:10:44.257709 17328 net.cpp:157] Top shape: 100 256 3 3 (230400)
I1013 18:10:44.257714 17328 net.cpp:165] Memory required for data: 247182000
I1013 18:10:44.257716 17328 layer_factory.hpp:77] Creating layer fc6new
I1013 18:10:44.257728 17328 net.cpp:100] Creating Layer fc6new
I1013 18:10:44.257735 17328 net.cpp:434] fc6new <- pool5
I1013 18:10:44.257740 17328 net.cpp:408] fc6new -> fc6
I1013 18:10:44.598999 17328 net.cpp:150] Setting up fc6new
I1013 18:10:44.599046 17328 net.cpp:157] Top shape: 100 4096 (409600)
I1013 18:10:44.599051 17328 net.cpp:165] Memory required for data: 248820400
I1013 18:10:44.599078 17328 layer_factory.hpp:77] Creating layer relu6
I1013 18:10:44.599103 17328 net.cpp:100] Creating Layer relu6
I1013 18:10:44.599107 17328 net.cpp:434] relu6 <- fc6
I1013 18:10:44.599118 17328 net.cpp:395] relu6 -> fc6 (in-place)
I1013 18:10:44.599648 17328 net.cpp:150] Setting up relu6
I1013 18:10:44.599660 17328 net.cpp:157] Top shape: 100 4096 (409600)
I1013 18:10:44.599663 17328 net.cpp:165] Memory required for data: 250458800
I1013 18:10:44.599668 17328 layer_factory.hpp:77] Creating layer drop6
I1013 18:10:44.599676 17328 net.cpp:100] Creating Layer drop6
I1013 18:10:44.599679 17328 net.cpp:434] drop6 <- fc6
I1013 18:10:44.599685 17328 net.cpp:395] drop6 -> fc6 (in-place)
I1013 18:10:44.599717 17328 net.cpp:150] Setting up drop6
I1013 18:10:44.599723 17328 net.cpp:157] Top shape: 100 4096 (409600)
I1013 18:10:44.599726 17328 net.cpp:165] Memory required for data: 252097200
I1013 18:10:44.599730 17328 layer_factory.hpp:77] Creating layer fc7new
I1013 18:10:44.599738 17328 net.cpp:100] Creating Layer fc7new
I1013 18:10:44.599741 17328 net.cpp:434] fc7new <- fc6
I1013 18:10:44.599748 17328 net.cpp:408] fc7new -> fc7
I1013 18:10:45.072517 17328 net.cpp:150] Setting up fc7new
I1013 18:10:45.072566 17328 net.cpp:157] Top shape: 100 4096 (409600)
I1013 18:10:45.072569 17328 net.cpp:165] Memory required for data: 253735600
I1013 18:10:45.072580 17328 layer_factory.hpp:77] Creating layer relu7
I1013 18:10:45.072592 17328 net.cpp:100] Creating Layer relu7
I1013 18:10:45.072597 17328 net.cpp:434] relu7 <- fc7
I1013 18:10:45.072603 17328 net.cpp:395] relu7 -> fc7 (in-place)
I1013 18:10:45.073540 17328 net.cpp:150] Setting up relu7
I1013 18:10:45.073554 17328 net.cpp:157] Top shape: 100 4096 (409600)
I1013 18:10:45.073570 17328 net.cpp:165] Memory required for data: 255374000
I1013 18:10:45.073572 17328 layer_factory.hpp:77] Creating layer drop7
I1013 18:10:45.073581 17328 net.cpp:100] Creating Layer drop7
I1013 18:10:45.073585 17328 net.cpp:434] drop7 <- fc7
I1013 18:10:45.073590 17328 net.cpp:395] drop7 -> fc7 (in-place)
I1013 18:10:45.073632 17328 net.cpp:150] Setting up drop7
I1013 18:10:45.073638 17328 net.cpp:157] Top shape: 100 4096 (409600)
I1013 18:10:45.073642 17328 net.cpp:165] Memory required for data: 257012400
I1013 18:10:45.073645 17328 layer_factory.hpp:77] Creating layer fc8new
I1013 18:10:45.073655 17328 net.cpp:100] Creating Layer fc8new
I1013 18:10:45.073658 17328 net.cpp:434] fc8new <- fc7
I1013 18:10:45.073664 17328 net.cpp:408] fc8new -> fc8
I1013 18:10:45.076310 17328 net.cpp:150] Setting up fc8new
I1013 18:10:45.076321 17328 net.cpp:157] Top shape: 100 21 (2100)
I1013 18:10:45.076336 17328 net.cpp:165] Memory required for data: 257020800
I1013 18:10:45.076342 17328 layer_factory.hpp:77] Creating layer fc8_fc8new_0_split
I1013 18:10:45.076350 17328 net.cpp:100] Creating Layer fc8_fc8new_0_split
I1013 18:10:45.076354 17328 net.cpp:434] fc8_fc8new_0_split <- fc8
I1013 18:10:45.076359 17328 net.cpp:408] fc8_fc8new_0_split -> fc8_fc8new_0_split_0
I1013 18:10:45.076364 17328 net.cpp:408] fc8_fc8new_0_split -> fc8_fc8new_0_split_1
I1013 18:10:45.076417 17328 net.cpp:150] Setting up fc8_fc8new_0_split
I1013 18:10:45.076447 17328 net.cpp:157] Top shape: 100 21 (2100)
I1013 18:10:45.076450 17328 net.cpp:157] Top shape: 100 21 (2100)
I1013 18:10:45.076453 17328 net.cpp:165] Memory required for data: 257037600
I1013 18:10:45.076457 17328 layer_factory.hpp:77] Creating layer accuracy
I1013 18:10:45.076467 17328 net.cpp:100] Creating Layer accuracy
I1013 18:10:45.076472 17328 net.cpp:434] accuracy <- fc8_fc8new_0_split_0
I1013 18:10:45.076475 17328 net.cpp:434] accuracy <- label_mnist_1_split_0
I1013 18:10:45.076483 17328 net.cpp:408] accuracy -> accuracy
…
