…
I0815 18:00:36.650457 21515 net.cpp:322] The NetState phase (0) differed from the phase (1) specified by a rule in layer accuracy
I0815 18:00:36.650595 21515 net.cpp:58] Initializing net from parameters: 
name: "AlexNet"
state {
  phase: TRAIN
}
layer {
  name: "mnist"
  type: "Data"
  top: "data"
  top: "label"
  include {
    phase: TRAIN
  }
  transform_param {
    scale: 0.00390625
    mirror: true
    mean_file: "data/person_only_lmdb/person_vs_background_vs_random_color_mean.binaryproto"
  }
  data_param {
    source: "data/person_only_lmdb/person_vs_background_vs_random_train_lmdb"
    batch_size: 128
    backend: LMDB
  }
}
layer {
  name: "conv1"
  type: "Convolution"
  bottom: "data"
  top: "conv1"
  param {
    lr_mult: 1
    decay_mult: 1
  }
  param {
    lr_mult: 2
    decay_mult: 0
  }
  convolution_param {
    num_output: 96
    kernel_size: 11
    stride: 4
    weight_filler {
      type: "gaussian"
      std: 0.01
    }
    bias_filler {
      type: "constant"
      value: 0
    }
  }
}
layer {
  name: "relu1"
  type: "ReLU"
  bottom: "conv1"
  top: "conv1"
}
layer {
  name: "norm1"
  type: "LRN"
  bottom: "conv1"
  top: "norm1"
  lrn_param {
    local_size: 5
    alpha: 0.0001
    beta: 0.75
  }
}
layer {
  name: "pool1"
  type: "Pooling"
  bottom: "norm1"
  top: "pool1"
  pooling_param {
    pool: MAX
    kernel_size: 3
    stride: 2
  }
}
layer {
  name: "conv2"
  type: "Convolution"
  bottom: "pool1"
  top: "conv2"
  param {
    lr_mult: 1
    decay_mult: 1
  }
  param {
    lr_mult: 2
    decay_mult: 0
  }
  convolution_param {
    num_output: 256
    pad: 2
    kernel_size: 5
    group: 2
    weight_filler {
      type: "gaussian"
      std: 0.01
    }
    bias_filler {
      type: "constant"
      value: 0.1
    }
  }
}
layer {
  name: "relu2"
  type: "ReLU"
  bottom: "conv2"
  top: "conv2"
}
layer {
  name: "norm2"
  type: "LRN"
  bottom: "conv2"
  top: "norm2"
  lrn_param {
    local_size: 5
    alpha: 0.0001
    beta: 0.75
  }
}
layer {
  name: "pool2"
  type: "Pooling"
  bottom: "norm2"
  top: "pool2"
  pooling_param {
    pool: MAX
    kernel_size: 3
    stride: 2
  }
}
layer {
  name: "conv3"
  type: "Convolution"
  bottom: "pool2"
  top: "conv3"
  param {
    lr_mult: 1
    decay_mult: 1
  }
  param {
    lr_mult: 2
    decay_mult: 0
  }
  convolution_param {
    num_output: 384
    pad: 1
    kernel_size: 3
    weight_filler {
      type: "gaussian"
      std: 0.01
    }
    bias_filler {
      type: "constant"
      value: 0
    }
  }
}
layer {
  name: "relu3"
  type: "ReLU"
  bottom: "conv3"
  top: "conv3"
}
layer {
  name: "conv4"
  type: "Convolution"
  bottom: "conv3"
  top: "conv4"
  param {
    lr_mult: 1
    decay_mult: 1
  }
  param {
    lr_mult: 2
    decay_mult: 0
  }
  convolution_param {
    num_output: 384
    pad: 1
    kernel_size: 3
    group: 2
    weight_filler {
      type: "gaussian"
      std: 0.01
    }
    bias_filler {
      type: "constant"
      value: 0.1
    }
  }
}
layer {
  name: "relu4"
  type: "ReLU"
  bottom: "conv4"
  top: "conv4"
}
layer {
  name: "conv5"
  type: "Convolution"
  bottom: "conv4"
  top: "conv5"
  param {
    lr_mult: 1
    decay_mult: 1
  }
  param {
    lr_mult: 2
    decay_mult: 0
  }
  convolution_param {
    num_output: 256
    pad: 1
    kernel_size: 3
    group: 2
    weight_filler {
      type: "gaussian"
      std: 0.01
    }
    bias_filler {
      type: "constant"
      value: 0.1
    }
  }
}
layer {
  name: "relu5"
  type: "ReLU"
  bottom: "conv5"
  top: "conv5"
}
layer {
  name: "pool5"
  type: "Pooling"
  bottom: "conv5"
  top: "pool5"
  pooling_param {
    pool: MAX
    kernel_size: 3
    stride: 2
  }
}
layer {
  name: "fc6"
  type: "InnerProduct"
  bottom: "pool5"
  top: "fc6"
  param {
    lr_mult: 1
    decay_mult: 1
  }
  param {
    lr_mult: 2
    decay_mult: 0
  }
  inner_product_param {
    num_output: 4096
    weight_filler {
      type: "gaussian"
      std: 0.005
    }
    bias_filler {
      type: "constant"
      value: 0.1
    }
  }
}
layer {
  name: "relu6"
  type: "ReLU"
  bottom: "fc6"
  top: "fc6"
}
layer {
  name: "drop6"
  type: "Dropout"
  bottom: "fc6"
  top: "fc6"
  dropout_param {
    dropout_ratio: 0.5
  }
}
layer {
  name: "fc7"
  type: "InnerProduct"
  bottom: "fc6"
  top: "fc7"
  param {
    lr_mult: 1
    decay_mult: 1
  }
  param {
    lr_mult: 2
    decay_mult: 0
  }
  inner_product_param {
    num_output: 4096
    weight_filler {
      type: "gaussian"
      std: 0.005
    }
    bias_filler {
      type: "constant"
      value: 0.1
    }
  }
}
layer {
  name: "relu7"
  type: "ReLU"
  bottom: "fc7"
  top: "fc7"
}
layer {
  name: "drop7"
  type: "Dropout"
  bottom: "fc7"
  top: "fc7"
  dropout_param {
    dropout_ratio: 0.5
  }
}
layer {
  name: "fc8"
  type: "InnerProduct"
  bottom: "fc7"
  top: "fc8"
  param {
    lr_mult: 1
    decay_mult: 1
  }
  param {
    lr_mult: 2
    decay_mult: 0
  }
  inner_product_param {
    num_output: 3
    weight_filler {
      type: "gaussian"
      std: 0.01
    }
    bias_filler {
      type: "constant"
      value: 0
    }
  }
}
layer {
  name: "loss"
  type: "SoftmaxWithLoss"
  bottom: "fc8"
  bottom: "label"
  top: "loss"
}
I0815 18:00:36.650671 21515 layer_factory.hpp:77] Creating layer mnist
I0815 18:00:36.651208 21515 net.cpp:100] Creating Layer mnist
I0815 18:00:36.651221 21515 net.cpp:408] mnist -> data
I0815 18:00:36.651237 21515 net.cpp:408] mnist -> label
I0815 18:00:36.651253 21515 data_transformer.cpp:25] Loading mean file from: data/person_only_lmdb/person_vs_background_vs_random_color_mean.binaryproto
I0815 18:00:36.652849 21525 db_lmdb.cpp:35] Opened lmdb data/person_only_lmdb/person_vs_background_vs_random_train_lmdb
I0815 18:00:36.686296 21515 data_layer.cpp:41] output data size: 128,3,128,128
I0815 18:00:36.753098 21515 net.cpp:150] Setting up mnist
I0815 18:00:36.753139 21515 net.cpp:157] Top shape: 128 3 128 128 (6291456)
I0815 18:00:36.753147 21515 net.cpp:157] Top shape: 128 (128)
I0815 18:00:36.753151 21515 net.cpp:165] Memory required for data: 25166336
I0815 18:00:36.753162 21515 layer_factory.hpp:77] Creating layer conv1
I0815 18:00:36.753190 21515 net.cpp:100] Creating Layer conv1
I0815 18:00:36.753196 21515 net.cpp:434] conv1 <- data
I0815 18:00:36.753208 21515 net.cpp:408] conv1 -> conv1
I0815 18:00:37.065842 21515 net.cpp:150] Setting up conv1
I0815 18:00:37.065883 21515 net.cpp:157] Top shape: 128 96 30 30 (11059200)
I0815 18:00:37.065887 21515 net.cpp:165] Memory required for data: 69403136
I0815 18:00:37.065907 21515 layer_factory.hpp:77] Creating layer relu1
I0815 18:00:37.065922 21515 net.cpp:100] Creating Layer relu1
I0815 18:00:37.065927 21515 net.cpp:434] relu1 <- conv1
I0815 18:00:37.065934 21515 net.cpp:395] relu1 -> conv1 (in-place)
I0815 18:00:37.066118 21515 net.cpp:150] Setting up relu1
I0815 18:00:37.066131 21515 net.cpp:157] Top shape: 128 96 30 30 (11059200)
I0815 18:00:37.066135 21515 net.cpp:165] Memory required for data: 113639936
I0815 18:00:37.066139 21515 layer_factory.hpp:77] Creating layer norm1
I0815 18:00:37.066148 21515 net.cpp:100] Creating Layer norm1
I0815 18:00:37.066153 21515 net.cpp:434] norm1 <- conv1
I0815 18:00:37.066157 21515 net.cpp:408] norm1 -> norm1
I0815 18:00:37.066639 21515 net.cpp:150] Setting up norm1
I0815 18:00:37.066655 21515 net.cpp:157] Top shape: 128 96 30 30 (11059200)
I0815 18:00:37.066659 21515 net.cpp:165] Memory required for data: 157876736
I0815 18:00:37.066663 21515 layer_factory.hpp:77] Creating layer pool1
I0815 18:00:37.066673 21515 net.cpp:100] Creating Layer pool1
I0815 18:00:37.066678 21515 net.cpp:434] pool1 <- norm1
I0815 18:00:37.066684 21515 net.cpp:408] pool1 -> pool1
I0815 18:00:37.066725 21515 net.cpp:150] Setting up pool1
I0815 18:00:37.066733 21515 net.cpp:157] Top shape: 128 96 15 15 (2764800)
I0815 18:00:37.066736 21515 net.cpp:165] Memory required for data: 168935936
I0815 18:00:37.066740 21515 layer_factory.hpp:77] Creating layer conv2
I0815 18:00:37.066752 21515 net.cpp:100] Creating Layer conv2
I0815 18:00:37.066759 21515 net.cpp:434] conv2 <- pool1
I0815 18:00:37.066766 21515 net.cpp:408] conv2 -> conv2
I0815 18:00:37.073016 21515 net.cpp:150] Setting up conv2
I0815 18:00:37.073035 21515 net.cpp:157] Top shape: 128 256 15 15 (7372800)
I0815 18:00:37.073038 21515 net.cpp:165] Memory required for data: 198427136
I0815 18:00:37.073048 21515 layer_factory.hpp:77] Creating layer relu2
I0815 18:00:37.073055 21515 net.cpp:100] Creating Layer relu2
I0815 18:00:37.073060 21515 net.cpp:434] relu2 <- conv2
I0815 18:00:37.073066 21515 net.cpp:395] relu2 -> conv2 (in-place)
I0815 18:00:37.073536 21515 net.cpp:150] Setting up relu2
I0815 18:00:37.073552 21515 net.cpp:157] Top shape: 128 256 15 15 (7372800)
I0815 18:00:37.073556 21515 net.cpp:165] Memory required for data: 227918336
I0815 18:00:37.073560 21515 layer_factory.hpp:77] Creating layer norm2
I0815 18:00:37.073568 21515 net.cpp:100] Creating Layer norm2
I0815 18:00:37.073571 21515 net.cpp:434] norm2 <- conv2
I0815 18:00:37.073578 21515 net.cpp:408] norm2 -> norm2
I0815 18:00:37.073776 21515 net.cpp:150] Setting up norm2
I0815 18:00:37.073788 21515 net.cpp:157] Top shape: 128 256 15 15 (7372800)
I0815 18:00:37.073792 21515 net.cpp:165] Memory required for data: 257409536
I0815 18:00:37.073796 21515 layer_factory.hpp:77] Creating layer pool2
I0815 18:00:37.073804 21515 net.cpp:100] Creating Layer pool2
I0815 18:00:37.073808 21515 net.cpp:434] pool2 <- norm2
I0815 18:00:37.073813 21515 net.cpp:408] pool2 -> pool2
I0815 18:00:37.073851 21515 net.cpp:150] Setting up pool2
I0815 18:00:37.073859 21515 net.cpp:157] Top shape: 128 256 7 7 (1605632)
I0815 18:00:37.073863 21515 net.cpp:165] Memory required for data: 263832064
I0815 18:00:37.073866 21515 layer_factory.hpp:77] Creating layer conv3
I0815 18:00:37.073875 21515 net.cpp:100] Creating Layer conv3
I0815 18:00:37.073879 21515 net.cpp:434] conv3 <- pool2
I0815 18:00:37.073885 21515 net.cpp:408] conv3 -> conv3
I0815 18:00:37.087268 21515 net.cpp:150] Setting up conv3
I0815 18:00:37.087286 21515 net.cpp:157] Top shape: 128 384 7 7 (2408448)
I0815 18:00:37.087291 21515 net.cpp:165] Memory required for data: 273465856
I0815 18:00:37.087301 21515 layer_factory.hpp:77] Creating layer relu3
I0815 18:00:37.087309 21515 net.cpp:100] Creating Layer relu3
I0815 18:00:37.087313 21515 net.cpp:434] relu3 <- conv3
I0815 18:00:37.087321 21515 net.cpp:395] relu3 -> conv3 (in-place)
I0815 18:00:37.087508 21515 net.cpp:150] Setting up relu3
I0815 18:00:37.087520 21515 net.cpp:157] Top shape: 128 384 7 7 (2408448)
I0815 18:00:37.087524 21515 net.cpp:165] Memory required for data: 283099648
I0815 18:00:37.087527 21515 layer_factory.hpp:77] Creating layer conv4
I0815 18:00:37.087539 21515 net.cpp:100] Creating Layer conv4
I0815 18:00:37.087545 21515 net.cpp:434] conv4 <- conv3
I0815 18:00:37.087553 21515 net.cpp:408] conv4 -> conv4
I0815 18:00:37.098768 21515 net.cpp:150] Setting up conv4
I0815 18:00:37.098786 21515 net.cpp:157] Top shape: 128 384 7 7 (2408448)
I0815 18:00:37.098790 21515 net.cpp:165] Memory required for data: 292733440
I0815 18:00:37.098798 21515 layer_factory.hpp:77] Creating layer relu4
I0815 18:00:37.098806 21515 net.cpp:100] Creating Layer relu4
I0815 18:00:37.098812 21515 net.cpp:434] relu4 <- conv4
I0815 18:00:37.098819 21515 net.cpp:395] relu4 -> conv4 (in-place)
I0815 18:00:37.099005 21515 net.cpp:150] Setting up relu4
I0815 18:00:37.099019 21515 net.cpp:157] Top shape: 128 384 7 7 (2408448)
I0815 18:00:37.099021 21515 net.cpp:165] Memory required for data: 302367232
I0815 18:00:37.099025 21515 layer_factory.hpp:77] Creating layer conv5
I0815 18:00:37.099036 21515 net.cpp:100] Creating Layer conv5
I0815 18:00:37.099040 21515 net.cpp:434] conv5 <- conv4
I0815 18:00:37.099048 21515 net.cpp:408] conv5 -> conv5
I0815 18:00:37.107486 21515 net.cpp:150] Setting up conv5
I0815 18:00:37.107504 21515 net.cpp:157] Top shape: 128 256 7 7 (1605632)
I0815 18:00:37.107508 21515 net.cpp:165] Memory required for data: 308789760
I0815 18:00:37.107519 21515 layer_factory.hpp:77] Creating layer relu5
I0815 18:00:37.107527 21515 net.cpp:100] Creating Layer relu5
I0815 18:00:37.107532 21515 net.cpp:434] relu5 <- conv5
I0815 18:00:37.107538 21515 net.cpp:395] relu5 -> conv5 (in-place)
I0815 18:00:37.107728 21515 net.cpp:150] Setting up relu5
I0815 18:00:37.107740 21515 net.cpp:157] Top shape: 128 256 7 7 (1605632)
I0815 18:00:37.107744 21515 net.cpp:165] Memory required for data: 315212288
I0815 18:00:37.107748 21515 layer_factory.hpp:77] Creating layer pool5
I0815 18:00:37.107754 21515 net.cpp:100] Creating Layer pool5
I0815 18:00:37.107758 21515 net.cpp:434] pool5 <- conv5
I0815 18:00:37.107765 21515 net.cpp:408] pool5 -> pool5
I0815 18:00:37.107811 21515 net.cpp:150] Setting up pool5
I0815 18:00:37.107820 21515 net.cpp:157] Top shape: 128 256 3 3 (294912)
I0815 18:00:37.107825 21515 net.cpp:165] Memory required for data: 316391936
I0815 18:00:37.107827 21515 layer_factory.hpp:77] Creating layer fc6
I0815 18:00:37.107838 21515 net.cpp:100] Creating Layer fc6
I0815 18:00:37.107844 21515 net.cpp:434] fc6 <- pool5
I0815 18:00:37.107851 21515 net.cpp:408] fc6 -> fc6
I0815 18:00:37.239579 21515 net.cpp:150] Setting up fc6
I0815 18:00:37.239616 21515 net.cpp:157] Top shape: 128 4096 (524288)
I0815 18:00:37.239621 21515 net.cpp:165] Memory required for data: 318489088
I0815 18:00:37.239634 21515 layer_factory.hpp:77] Creating layer relu6
I0815 18:00:37.239646 21515 net.cpp:100] Creating Layer relu6
I0815 18:00:37.239651 21515 net.cpp:434] relu6 <- fc6
I0815 18:00:37.239660 21515 net.cpp:395] relu6 -> fc6 (in-place)
I0815 18:00:37.240250 21515 net.cpp:150] Setting up relu6
I0815 18:00:37.240267 21515 net.cpp:157] Top shape: 128 4096 (524288)
I0815 18:00:37.240270 21515 net.cpp:165] Memory required for data: 320586240
I0815 18:00:37.240274 21515 layer_factory.hpp:77] Creating layer drop6
I0815 18:00:37.240283 21515 net.cpp:100] Creating Layer drop6
I0815 18:00:37.240288 21515 net.cpp:434] drop6 <- fc6
I0815 18:00:37.240296 21515 net.cpp:395] drop6 -> fc6 (in-place)
I0815 18:00:37.240324 21515 net.cpp:150] Setting up drop6
I0815 18:00:37.240332 21515 net.cpp:157] Top shape: 128 4096 (524288)
I0815 18:00:37.240335 21515 net.cpp:165] Memory required for data: 322683392
I0815 18:00:37.240339 21515 layer_factory.hpp:77] Creating layer fc7
I0815 18:00:37.240350 21515 net.cpp:100] Creating Layer fc7
I0815 18:00:37.240352 21515 net.cpp:434] fc7 <- fc6
I0815 18:00:37.240360 21515 net.cpp:408] fc7 -> fc7
I0815 18:00:37.473629 21515 net.cpp:150] Setting up fc7
I0815 18:00:37.473681 21515 net.cpp:157] Top shape: 128 4096 (524288)
I0815 18:00:37.473685 21515 net.cpp:165] Memory required for data: 324780544
I0815 18:00:37.473701 21515 layer_factory.hpp:77] Creating layer relu7
I0815 18:00:37.473718 21515 net.cpp:100] Creating Layer relu7
I0815 18:00:37.473729 21515 net.cpp:434] relu7 <- fc7
I0815 18:00:37.473738 21515 net.cpp:395] relu7 -> fc7 (in-place)
I0815 18:00:37.474149 21515 net.cpp:150] Setting up relu7
I0815 18:00:37.474162 21515 net.cpp:157] Top shape: 128 4096 (524288)
I0815 18:00:37.474166 21515 net.cpp:165] Memory required for data: 326877696
I0815 18:00:37.474169 21515 layer_factory.hpp:77] Creating layer drop7
I0815 18:00:37.474180 21515 net.cpp:100] Creating Layer drop7
I0815 18:00:37.474184 21515 net.cpp:434] drop7 <- fc7
I0815 18:00:37.474192 21515 net.cpp:395] drop7 -> fc7 (in-place)
I0815 18:00:37.474218 21515 net.cpp:150] Setting up drop7
I0815 18:00:37.474226 21515 net.cpp:157] Top shape: 128 4096 (524288)
I0815 18:00:37.474231 21515 net.cpp:165] Memory required for data: 328974848
I0815 18:00:37.474234 21515 layer_factory.hpp:77] Creating layer fc8
I0815 18:00:37.474246 21515 net.cpp:100] Creating Layer fc8
I0815 18:00:37.474249 21515 net.cpp:434] fc8 <- fc7
I0815 18:00:37.474256 21515 net.cpp:408] fc8 -> fc8
I0815 18:00:37.476027 21515 net.cpp:150] Setting up fc8
I0815 18:00:37.476042 21515 net.cpp:157] Top shape: 128 3 (384)
I0815 18:00:37.476045 21515 net.cpp:165] Memory required for data: 328976384
I0815 18:00:37.476054 21515 layer_factory.hpp:77] Creating layer loss
I0815 18:00:37.476064 21515 net.cpp:100] Creating Layer loss
I0815 18:00:37.476069 21515 net.cpp:434] loss <- fc8
I0815 18:00:37.476075 21515 net.cpp:434] loss <- label
I0815 18:00:37.476083 21515 net.cpp:408] loss -> loss
I0815 18:00:37.476094 21515 layer_factory.hpp:77] Creating layer loss
…
I0815 18:00:37.476972 21515 net.cpp:322] The NetState phase (1) differed from the phase (0) specified by a rule in layer mnist
I0815 18:00:37.477145 21515 net.cpp:58] Initializing net from parameters: 
name: "AlexNet"
state {
  phase: TEST
}
layer {
  name: "mnist"
  type: "Data"
  top: "data"
  top: "label"
  include {
    phase: TEST
  }
  transform_param {
    scale: 0.00390625
    mirror: false
    mean_file: "data/person_only_lmdb/person_vs_background_vs_random_color_mean.binaryproto"
  }
  data_param {
    source: "data/person_only_lmdb/person_vs_background_vs_random_test_lmdb"
    batch_size: 100
    backend: LMDB
  }
}
layer {
  name: "conv1"
  type: "Convolution"
  bottom: "data"
  top: "conv1"
  param {
    lr_mult: 1
    decay_mult: 1
  }
  param {
    lr_mult: 2
    decay_mult: 0
  }
  convolution_param {
    num_output: 96
    kernel_size: 11
    stride: 4
    weight_filler {
      type: "gaussian"
      std: 0.01
    }
    bias_filler {
      type: "constant"
      value: 0
    }
  }
}
layer {
  name: "relu1"
  type: "ReLU"
  bottom: "conv1"
  top: "conv1"
}
layer {
  name: "norm1"
  type: "LRN"
  bottom: "conv1"
  top: "norm1"
  lrn_param {
    local_size: 5
    alpha: 0.0001
    beta: 0.75
  }
}
layer {
  name: "pool1"
  type: "Pooling"
  bottom: "norm1"
  top: "pool1"
  pooling_param {
    pool: MAX
    kernel_size: 3
    stride: 2
  }
}
layer {
  name: "conv2"
  type: "Convolution"
  bottom: "pool1"
  top: "conv2"
  param {
    lr_mult: 1
    decay_mult: 1
  }
  param {
    lr_mult: 2
    decay_mult: 0
  }
  convolution_param {
    num_output: 256
    pad: 2
    kernel_size: 5
    group: 2
    weight_filler {
      type: "gaussian"
      std: 0.01
    }
    bias_filler {
      type: "constant"
      value: 0.1
    }
  }
}
layer {
  name: "relu2"
  type: "ReLU"
  bottom: "conv2"
  top: "conv2"
}
layer {
  name: "norm2"
  type: "LRN"
  bottom: "conv2"
  top: "norm2"
  lrn_param {
    local_size: 5
    alpha: 0.0001
    beta: 0.75
  }
}
layer {
  name: "pool2"
  type: "Pooling"
  bottom: "norm2"
  top: "pool2"
  pooling_param {
    pool: MAX
    kernel_size: 3
    stride: 2
  }
}
layer {
  name: "conv3"
  type: "Convolution"
  bottom: "pool2"
  top: "conv3"
  param {
    lr_mult: 1
    decay_mult: 1
  }
  param {
    lr_mult: 2
    decay_mult: 0
  }
  convolution_param {
    num_output: 384
    pad: 1
    kernel_size: 3
    weight_filler {
      type: "gaussian"
      std: 0.01
    }
    bias_filler {
      type: "constant"
      value: 0
    }
  }
}
layer {
  name: "relu3"
  type: "ReLU"
  bottom: "conv3"
  top: "conv3"
}
layer {
  name: "conv4"
  type: "Convolution"
  bottom: "conv3"
  top: "conv4"
  param {
    lr_mult: 1
    decay_mult: 1
  }
  param {
    lr_mult: 2
    decay_mult: 0
  }
  convolution_param {
    num_output: 384
    pad: 1
    kernel_size: 3
    group: 2
    weight_filler {
      type: "gaussian"
      std: 0.01
    }
    bias_filler {
      type: "constant"
      value: 0.1
    }
  }
}
layer {
  name: "relu4"
  type: "ReLU"
  bottom: "conv4"
  top: "conv4"
}
layer {
  name: "conv5"
  type: "Convolution"
  bottom: "conv4"
  top: "conv5"
  param {
    lr_mult: 1
    decay_mult: 1
  }
  param {
    lr_mult: 2
    decay_mult: 0
  }
  convolution_param {
    num_output: 256
    pad: 1
    kernel_size: 3
    group: 2
    weight_filler {
      type: "gaussian"
      std: 0.01
    }
    bias_filler {
      type: "constant"
      value: 0.1
    }
  }
}
layer {
  name: "relu5"
  type: "ReLU"
  bottom: "conv5"
  top: "conv5"
}
layer {
  name: "pool5"
  type: "Pooling"
  bottom: "conv5"
  top: "pool5"
  pooling_param {
    pool: MAX
    kernel_size: 3
    stride: 2
  }
}
layer {
  name: "fc6"
  type: "InnerProduct"
  bottom: "pool5"
  top: "fc6"
  param {
    lr_mult: 1
    decay_mult: 1
  }
  param {
    lr_mult: 2
    decay_mult: 0
  }
  inner_product_param {
    num_output: 4096
    weight_filler {
      type: "gaussian"
      std: 0.005
    }
    bias_filler {
      type: "constant"
      value: 0.1
    }
  }
}
layer {
  name: "relu6"
  type: "ReLU"
  bottom: "fc6"
  top: "fc6"
}
layer {
  name: "drop6"
  type: "Dropout"
  bottom: "fc6"
  top: "fc6"
  dropout_param {
    dropout_ratio: 0.5
  }
}
layer {
  name: "fc7"
  type: "InnerProduct"
  bottom: "fc6"
  top: "fc7"
  param {
    lr_mult: 1
    decay_mult: 1
  }
  param {
    lr_mult: 2
    decay_mult: 0
  }
  inner_product_param {
    num_output: 4096
    weight_filler {
      type: "gaussian"
      std: 0.005
    }
    bias_filler {
      type: "constant"
      value: 0.1
    }
  }
}
layer {
  name: "relu7"
  type: "ReLU"
  bottom: "fc7"
  top: "fc7"
}
layer {
  name: "drop7"
  type: "Dropout"
  bottom: "fc7"
  top: "fc7"
  dropout_param {
    dropout_ratio: 0.5
  }
}
layer {
  name: "fc8"
  type: "InnerProduct"
  bottom: "fc7"
  top: "fc8"
  param {
    lr_mult: 1
    decay_mult: 1
  }
  param {
    lr_mult: 2
    decay_mult: 0
  }
  inner_product_param {
    num_output: 3
    weight_filler {
      type: "gaussian"
      std: 0.01
    }
    bias_filler {
      type: "constant"
      value: 0
    }
  }
}
layer {
  name: "accuracy"
  type: "Accuracy"
  bottom: "fc8"
  bottom: "label"
  top: "accuracy"
  include {
    phase: TEST
  }
}
layer {
  name: "loss"
  type: "SoftmaxWithLoss"
  bottom: "fc8"
  bottom: "label"
  top: "loss"
}
I0815 18:00:37.477246 21515 layer_factory.hpp:77] Creating layer mnist
I0815 18:00:37.477399 21515 net.cpp:100] Creating Layer mnist
I0815 18:00:37.477411 21515 net.cpp:408] mnist -> data
I0815 18:00:37.477421 21515 net.cpp:408] mnist -> label
I0815 18:00:37.477429 21515 data_transformer.cpp:25] Loading mean file from: data/person_only_lmdb/person_vs_background_vs_random_color_mean.binaryproto
I0815 18:00:37.478950 21527 db_lmdb.cpp:35] Opened lmdb data/person_only_lmdb/person_vs_background_vs_random_test_lmdb
I0815 18:00:37.479306 21515 data_layer.cpp:41] output data size: 100,3,128,128
I0815 18:00:37.535085 21515 net.cpp:150] Setting up mnist
I0815 18:00:37.535125 21515 net.cpp:157] Top shape: 100 3 128 128 (4915200)
I0815 18:00:37.535135 21515 net.cpp:157] Top shape: 100 (100)
I0815 18:00:37.535138 21515 net.cpp:165] Memory required for data: 19661200
I0815 18:00:37.535147 21515 layer_factory.hpp:77] Creating layer label_mnist_1_split
I0815 18:00:37.535166 21515 net.cpp:100] Creating Layer label_mnist_1_split
I0815 18:00:37.535173 21515 net.cpp:434] label_mnist_1_split <- label
I0815 18:00:37.535187 21515 net.cpp:408] label_mnist_1_split -> label_mnist_1_split_0
I0815 18:00:37.535207 21515 net.cpp:408] label_mnist_1_split -> label_mnist_1_split_1
I0815 18:00:37.535306 21515 net.cpp:150] Setting up label_mnist_1_split
I0815 18:00:37.535318 21515 net.cpp:157] Top shape: 100 (100)
I0815 18:00:37.535325 21515 net.cpp:157] Top shape: 100 (100)
I0815 18:00:37.535329 21515 net.cpp:165] Memory required for data: 19662000
I0815 18:00:37.535334 21515 layer_factory.hpp:77] Creating layer conv1
I0815 18:00:37.535358 21515 net.cpp:100] Creating Layer conv1
I0815 18:00:37.535367 21515 net.cpp:434] conv1 <- data
I0815 18:00:37.535377 21515 net.cpp:408] conv1 -> conv1
I0815 18:00:37.540462 21515 net.cpp:150] Setting up conv1
I0815 18:00:37.540493 21515 net.cpp:157] Top shape: 100 96 30 30 (8640000)
I0815 18:00:37.540501 21515 net.cpp:165] Memory required for data: 54222000
I0815 18:00:37.540524 21515 layer_factory.hpp:77] Creating layer relu1
I0815 18:00:37.540537 21515 net.cpp:100] Creating Layer relu1
I0815 18:00:37.540545 21515 net.cpp:434] relu1 <- conv1
I0815 18:00:37.540556 21515 net.cpp:395] relu1 -> conv1 (in-place)
I0815 18:00:37.540899 21515 net.cpp:150] Setting up relu1
I0815 18:00:37.540917 21515 net.cpp:157] Top shape: 100 96 30 30 (8640000)
I0815 18:00:37.540925 21515 net.cpp:165] Memory required for data: 88782000
I0815 18:00:37.540930 21515 layer_factory.hpp:77] Creating layer norm1
I0815 18:00:37.540946 21515 net.cpp:100] Creating Layer norm1
I0815 18:00:37.540954 21515 net.cpp:434] norm1 <- conv1
I0815 18:00:37.540964 21515 net.cpp:408] norm1 -> norm1
I0815 18:00:37.541877 21515 net.cpp:150] Setting up norm1
I0815 18:00:37.541909 21515 net.cpp:157] Top shape: 100 96 30 30 (8640000)
I0815 18:00:37.541916 21515 net.cpp:165] Memory required for data: 123342000
I0815 18:00:37.541924 21515 layer_factory.hpp:77] Creating layer pool1
I0815 18:00:37.541937 21515 net.cpp:100] Creating Layer pool1
I0815 18:00:37.541945 21515 net.cpp:434] pool1 <- norm1
I0815 18:00:37.541956 21515 net.cpp:408] pool1 -> pool1
I0815 18:00:37.542038 21515 net.cpp:150] Setting up pool1
I0815 18:00:37.542052 21515 net.cpp:157] Top shape: 100 96 15 15 (2160000)
I0815 18:00:37.542059 21515 net.cpp:165] Memory required for data: 131982000
I0815 18:00:37.542067 21515 layer_factory.hpp:77] Creating layer conv2
I0815 18:00:37.542085 21515 net.cpp:100] Creating Layer conv2
I0815 18:00:37.542094 21515 net.cpp:434] conv2 <- pool1
I0815 18:00:37.542105 21515 net.cpp:408] conv2 -> conv2
I0815 18:00:37.553661 21515 net.cpp:150] Setting up conv2
I0815 18:00:37.553691 21515 net.cpp:157] Top shape: 100 256 15 15 (5760000)
I0815 18:00:37.553699 21515 net.cpp:165] Memory required for data: 155022000
I0815 18:00:37.553719 21515 layer_factory.hpp:77] Creating layer relu2
I0815 18:00:37.553731 21515 net.cpp:100] Creating Layer relu2
I0815 18:00:37.553740 21515 net.cpp:434] relu2 <- conv2
I0815 18:00:37.553750 21515 net.cpp:395] relu2 -> conv2 (in-place)
I0815 18:00:37.554568 21515 net.cpp:150] Setting up relu2
I0815 18:00:37.554595 21515 net.cpp:157] Top shape: 100 256 15 15 (5760000)
I0815 18:00:37.554602 21515 net.cpp:165] Memory required for data: 178062000
I0815 18:00:37.554610 21515 layer_factory.hpp:77] Creating layer norm2
I0815 18:00:37.554626 21515 net.cpp:100] Creating Layer norm2
I0815 18:00:37.554635 21515 net.cpp:434] norm2 <- conv2
I0815 18:00:37.554646 21515 net.cpp:408] norm2 -> norm2
I0815 18:00:37.555093 21515 net.cpp:150] Setting up norm2
I0815 18:00:37.555112 21515 net.cpp:157] Top shape: 100 256 15 15 (5760000)
I0815 18:00:37.555119 21515 net.cpp:165] Memory required for data: 201102000
I0815 18:00:37.555125 21515 layer_factory.hpp:77] Creating layer pool2
I0815 18:00:37.555137 21515 net.cpp:100] Creating Layer pool2
I0815 18:00:37.555145 21515 net.cpp:434] pool2 <- norm2
I0815 18:00:37.555156 21515 net.cpp:408] pool2 -> pool2
I0815 18:00:37.555227 21515 net.cpp:150] Setting up pool2
I0815 18:00:37.555239 21515 net.cpp:157] Top shape: 100 256 7 7 (1254400)
I0815 18:00:37.555246 21515 net.cpp:165] Memory required for data: 206119600
I0815 18:00:37.555253 21515 layer_factory.hpp:77] Creating layer conv3
I0815 18:00:37.555270 21515 net.cpp:100] Creating Layer conv3
I0815 18:00:37.555279 21515 net.cpp:434] conv3 <- pool2
I0815 18:00:37.555290 21515 net.cpp:408] conv3 -> conv3
I0815 18:00:37.578814 21515 net.cpp:150] Setting up conv3
I0815 18:00:37.578853 21515 net.cpp:157] Top shape: 100 384 7 7 (1881600)
I0815 18:00:37.578860 21515 net.cpp:165] Memory required for data: 213646000
I0815 18:00:37.578883 21515 layer_factory.hpp:77] Creating layer relu3
I0815 18:00:37.578899 21515 net.cpp:100] Creating Layer relu3
I0815 18:00:37.578909 21515 net.cpp:434] relu3 <- conv3
I0815 18:00:37.578922 21515 net.cpp:395] relu3 -> conv3 (in-place)
I0815 18:00:37.579251 21515 net.cpp:150] Setting up relu3
I0815 18:00:37.579275 21515 net.cpp:157] Top shape: 100 384 7 7 (1881600)
I0815 18:00:37.579282 21515 net.cpp:165] Memory required for data: 221172400
I0815 18:00:37.579288 21515 layer_factory.hpp:77] Creating layer conv4
I0815 18:00:37.579306 21515 net.cpp:100] Creating Layer conv4
I0815 18:00:37.579313 21515 net.cpp:434] conv4 <- conv3
I0815 18:00:37.579325 21515 net.cpp:408] conv4 -> conv4
I0815 18:00:37.597986 21515 net.cpp:150] Setting up conv4
I0815 18:00:37.598024 21515 net.cpp:157] Top shape: 100 384 7 7 (1881600)
I0815 18:00:37.598032 21515 net.cpp:165] Memory required for data: 228698800
I0815 18:00:37.598047 21515 layer_factory.hpp:77] Creating layer relu4
I0815 18:00:37.598062 21515 net.cpp:100] Creating Layer relu4
I0815 18:00:37.598068 21515 net.cpp:434] relu4 <- conv4
I0815 18:00:37.598080 21515 net.cpp:395] relu4 -> conv4 (in-place)
I0815 18:00:37.598852 21515 net.cpp:150] Setting up relu4
I0815 18:00:37.598876 21515 net.cpp:157] Top shape: 100 384 7 7 (1881600)
I0815 18:00:37.598882 21515 net.cpp:165] Memory required for data: 236225200
I0815 18:00:37.598888 21515 layer_factory.hpp:77] Creating layer conv5
I0815 18:00:37.598907 21515 net.cpp:100] Creating Layer conv5
I0815 18:00:37.598914 21515 net.cpp:434] conv5 <- conv4
I0815 18:00:37.598927 21515 net.cpp:408] conv5 -> conv5
I0815 18:00:37.611835 21515 net.cpp:150] Setting up conv5
I0815 18:00:37.611874 21515 net.cpp:157] Top shape: 100 256 7 7 (1254400)
I0815 18:00:37.611881 21515 net.cpp:165] Memory required for data: 241242800
I0815 18:00:37.611902 21515 layer_factory.hpp:77] Creating layer relu5
I0815 18:00:37.611923 21515 net.cpp:100] Creating Layer relu5
I0815 18:00:37.611930 21515 net.cpp:434] relu5 <- conv5
I0815 18:00:37.611940 21515 net.cpp:395] relu5 -> conv5 (in-place)
I0815 18:00:37.612238 21515 net.cpp:150] Setting up relu5
I0815 18:00:37.612256 21515 net.cpp:157] Top shape: 100 256 7 7 (1254400)
I0815 18:00:37.612260 21515 net.cpp:165] Memory required for data: 246260400
I0815 18:00:37.612267 21515 layer_factory.hpp:77] Creating layer pool5
I0815 18:00:37.612282 21515 net.cpp:100] Creating Layer pool5
I0815 18:00:37.612288 21515 net.cpp:434] pool5 <- conv5
I0815 18:00:37.612298 21515 net.cpp:408] pool5 -> pool5
I0815 18:00:37.612380 21515 net.cpp:150] Setting up pool5
I0815 18:00:37.612392 21515 net.cpp:157] Top shape: 100 256 3 3 (230400)
I0815 18:00:37.612397 21515 net.cpp:165] Memory required for data: 247182000
I0815 18:00:37.612402 21515 layer_factory.hpp:77] Creating layer fc6
I0815 18:00:37.612416 21515 net.cpp:100] Creating Layer fc6
I0815 18:00:37.612422 21515 net.cpp:434] fc6 <- pool5
I0815 18:00:37.612432 21515 net.cpp:408] fc6 -> fc6
I0815 18:00:37.755357 21515 net.cpp:150] Setting up fc6
I0815 18:00:37.755403 21515 net.cpp:157] Top shape: 100 4096 (409600)
I0815 18:00:37.755406 21515 net.cpp:165] Memory required for data: 248820400
I0815 18:00:37.755419 21515 layer_factory.hpp:77] Creating layer relu6
I0815 18:00:37.755431 21515 net.cpp:100] Creating Layer relu6
I0815 18:00:37.755436 21515 net.cpp:434] relu6 <- fc6
I0815 18:00:37.755445 21515 net.cpp:395] relu6 -> fc6 (in-place)
I0815 18:00:37.755712 21515 net.cpp:150] Setting up relu6
I0815 18:00:37.755723 21515 net.cpp:157] Top shape: 100 4096 (409600)
I0815 18:00:37.755728 21515 net.cpp:165] Memory required for data: 250458800
I0815 18:00:37.755731 21515 layer_factory.hpp:77] Creating layer drop6
I0815 18:00:37.755739 21515 net.cpp:100] Creating Layer drop6
I0815 18:00:37.755743 21515 net.cpp:434] drop6 <- fc6
I0815 18:00:37.755749 21515 net.cpp:395] drop6 -> fc6 (in-place)
I0815 18:00:37.755785 21515 net.cpp:150] Setting up drop6
I0815 18:00:37.755794 21515 net.cpp:157] Top shape: 100 4096 (409600)
I0815 18:00:37.755797 21515 net.cpp:165] Memory required for data: 252097200
I0815 18:00:37.755800 21515 layer_factory.hpp:77] Creating layer fc7
I0815 18:00:37.755810 21515 net.cpp:100] Creating Layer fc7
I0815 18:00:37.755813 21515 net.cpp:434] fc7 <- fc6
I0815 18:00:37.755821 21515 net.cpp:408] fc7 -> fc7
I0815 18:00:37.986984 21515 net.cpp:150] Setting up fc7
I0815 18:00:37.987031 21515 net.cpp:157] Top shape: 100 4096 (409600)
I0815 18:00:37.987036 21515 net.cpp:165] Memory required for data: 253735600
I0815 18:00:37.987048 21515 layer_factory.hpp:77] Creating layer relu7
I0815 18:00:37.987061 21515 net.cpp:100] Creating Layer relu7
I0815 18:00:37.987066 21515 net.cpp:434] relu7 <- fc7
I0815 18:00:37.987076 21515 net.cpp:395] relu7 -> fc7 (in-place)
I0815 18:00:37.987813 21515 net.cpp:150] Setting up relu7
I0815 18:00:37.987829 21515 net.cpp:157] Top shape: 100 4096 (409600)
I0815 18:00:37.987833 21515 net.cpp:165] Memory required for data: 255374000
I0815 18:00:37.987838 21515 layer_factory.hpp:77] Creating layer drop7
I0815 18:00:37.987846 21515 net.cpp:100] Creating Layer drop7
I0815 18:00:37.987850 21515 net.cpp:434] drop7 <- fc7
I0815 18:00:37.987859 21515 net.cpp:395] drop7 -> fc7 (in-place)
I0815 18:00:37.987897 21515 net.cpp:150] Setting up drop7
I0815 18:00:37.987906 21515 net.cpp:157] Top shape: 100 4096 (409600)
I0815 18:00:37.987910 21515 net.cpp:165] Memory required for data: 257012400
I0815 18:00:37.987924 21515 layer_factory.hpp:77] Creating layer fc8
I0815 18:00:37.987936 21515 net.cpp:100] Creating Layer fc8
I0815 18:00:37.987938 21515 net.cpp:434] fc8 <- fc7
I0815 18:00:37.987946 21515 net.cpp:408] fc8 -> fc8
I0815 18:00:37.988235 21515 net.cpp:150] Setting up fc8
I0815 18:00:37.988246 21515 net.cpp:157] Top shape: 100 3 (300)
I0815 18:00:37.988250 21515 net.cpp:165] Memory required for data: 257013600
I0815 18:00:37.988256 21515 layer_factory.hpp:77] Creating layer fc8_fc8_0_split
I0815 18:00:37.988263 21515 net.cpp:100] Creating Layer fc8_fc8_0_split
I0815 18:00:37.988267 21515 net.cpp:434] fc8_fc8_0_split <- fc8
I0815 18:00:37.988273 21515 net.cpp:408] fc8_fc8_0_split -> fc8_fc8_0_split_0
I0815 18:00:37.988281 21515 net.cpp:408] fc8_fc8_0_split -> fc8_fc8_0_split_1
I0815 18:00:37.988322 21515 net.cpp:150] Setting up fc8_fc8_0_split
I0815 18:00:37.988329 21515 net.cpp:157] Top shape: 100 3 (300)
I0815 18:00:37.988333 21515 net.cpp:157] Top shape: 100 3 (300)
I0815 18:00:37.988337 21515 net.cpp:165] Memory required for data: 257016000
I0815 18:00:37.988340 21515 layer_factory.hpp:77] Creating layer accuracy
I0815 18:00:37.988349 21515 net.cpp:100] Creating Layer accuracy
I0815 18:00:37.988353 21515 net.cpp:434] accuracy <- fc8_fc8_0_split_0
I0815 18:00:37.988358 21515 net.cpp:434] accuracy <- label_mnist_1_split_0
I0815 18:00:37.988364 21515 net.cpp:408] accuracy -> accuracy
…
