…
I0815 13:10:08.770571 19228 net.cpp:322] The NetState phase (0) differed from the phase (1) specified by a rule in layer accuracy
I0815 13:10:08.770711 19228 net.cpp:58] Initializing net from parameters: 
name: "AlexNet"
state {
  phase: TRAIN
}
layer {
  name: "mnist"
  type: "Data"
  top: "data"
  top: "label"
  include {
    phase: TRAIN
  }
  transform_param {
    scale: 0.00390625
    mirror: true
    mean_file: "data/person_only_lmdb/person_background_only_color_mean.binaryproto"
  }
  data_param {
    source: "data/person_only_lmdb/person_background_only_train_lmdb"
    batch_size: 128
    backend: LMDB
  }
}
layer {
  name: "conv1"
  type: "Convolution"
  bottom: "data"
  top: "conv1"
  param {
    lr_mult: 1
    decay_mult: 1
  }
  param {
    lr_mult: 2
    decay_mult: 0
  }
  convolution_param {
    num_output: 96
    kernel_size: 11
    stride: 4
    weight_filler {
      type: "gaussian"
      std: 0.01
    }
    bias_filler {
      type: "constant"
      value: 0
    }
  }
}
layer {
  name: "relu1"
  type: "ReLU"
  bottom: "conv1"
  top: "conv1"
}
layer {
  name: "norm1"
  type: "LRN"
  bottom: "conv1"
  top: "norm1"
  lrn_param {
    local_size: 5
    alpha: 0.0001
    beta: 0.75
  }
}
layer {
  name: "pool1"
  type: "Pooling"
  bottom: "norm1"
  top: "pool1"
  pooling_param {
    pool: MAX
    kernel_size: 3
    stride: 2
  }
}
layer {
  name: "conv2"
  type: "Convolution"
  bottom: "pool1"
  top: "conv2"
  param {
    lr_mult: 1
    decay_mult: 1
  }
  param {
    lr_mult: 2
    decay_mult: 0
  }
  convolution_param {
    num_output: 256
    pad: 2
    kernel_size: 5
    group: 2
    weight_filler {
      type: "gaussian"
      std: 0.01
    }
    bias_filler {
      type: "constant"
      value: 0.1
    }
  }
}
layer {
  name: "relu2"
  type: "ReLU"
  bottom: "conv2"
  top: "conv2"
}
layer {
  name: "norm2"
  type: "LRN"
  bottom: "conv2"
  top: "norm2"
  lrn_param {
    local_size: 5
    alpha: 0.0001
    beta: 0.75
  }
}
layer {
  name: "pool2"
  type: "Pooling"
  bottom: "norm2"
  top: "pool2"
  pooling_param {
    pool: MAX
    kernel_size: 3
    stride: 2
  }
}
layer {
  name: "conv3"
  type: "Convolution"
  bottom: "pool2"
  top: "conv3"
  param {
    lr_mult: 1
    decay_mult: 1
  }
  param {
    lr_mult: 2
    decay_mult: 0
  }
  convolution_param {
    num_output: 384
    pad: 1
    kernel_size: 3
    weight_filler {
      type: "gaussian"
      std: 0.01
    }
    bias_filler {
      type: "constant"
      value: 0
    }
  }
}
layer {
  name: "relu3"
  type: "ReLU"
  bottom: "conv3"
  top: "conv3"
}
layer {
  name: "conv4"
  type: "Convolution"
  bottom: "conv3"
  top: "conv4"
  param {
    lr_mult: 1
    decay_mult: 1
  }
  param {
    lr_mult: 2
    decay_mult: 0
  }
  convolution_param {
    num_output: 384
    pad: 1
    kernel_size: 3
    group: 2
    weight_filler {
      type: "gaussian"
      std: 0.01
    }
    bias_filler {
      type: "constant"
      value: 0.1
    }
  }
}
layer {
  name: "relu4"
  type: "ReLU"
  bottom: "conv4"
  top: "conv4"
}
layer {
  name: "conv5"
  type: "Convolution"
  bottom: "conv4"
  top: "conv5"
  param {
    lr_mult: 1
    decay_mult: 1
  }
  param {
    lr_mult: 2
    decay_mult: 0
  }
  convolution_param {
    num_output: 256
    pad: 1
    kernel_size: 3
    group: 2
    weight_filler {
      type: "gaussian"
      std: 0.01
    }
    bias_filler {
      type: "constant"
      value: 0.1
    }
  }
}
layer {
  name: "relu5"
  type: "ReLU"
  bottom: "conv5"
  top: "conv5"
}
layer {
  name: "pool5"
  type: "Pooling"
  bottom: "conv5"
  top: "pool5"
  pooling_param {
    pool: MAX
    kernel_size: 3
    stride: 2
  }
}
layer {
  name: "fc6"
  type: "InnerProduct"
  bottom: "pool5"
  top: "fc6"
  param {
    lr_mult: 1
    decay_mult: 1
  }
  param {
    lr_mult: 2
    decay_mult: 0
  }
  inner_product_param {
    num_output: 4096
    weight_filler {
      type: "gaussian"
      std: 0.005
    }
    bias_filler {
      type: "constant"
      value: 0.1
    }
  }
}
layer {
  name: "relu6"
  type: "ReLU"
  bottom: "fc6"
  top: "fc6"
}
layer {
  name: "drop6"
  type: "Dropout"
  bottom: "fc6"
  top: "fc6"
  dropout_param {
    dropout_ratio: 0.5
  }
}
layer {
  name: "fc7"
  type: "InnerProduct"
  bottom: "fc6"
  top: "fc7"
  param {
    lr_mult: 1
    decay_mult: 1
  }
  param {
    lr_mult: 2
    decay_mult: 0
  }
  inner_product_param {
    num_output: 4096
    weight_filler {
      type: "gaussian"
      std: 0.005
    }
    bias_filler {
      type: "constant"
      value: 0.1
    }
  }
}
layer {
  name: "relu7"
  type: "ReLU"
  bottom: "fc7"
  top: "fc7"
}
layer {
  name: "drop7"
  type: "Dropout"
  bottom: "fc7"
  top: "fc7"
  dropout_param {
    dropout_ratio: 0.5
  }
}
layer {
  name: "fc8"
  type: "InnerProduct"
  bottom: "fc7"
  top: "fc8"
  param {
    lr_mult: 1
    decay_mult: 1
  }
  param {
    lr_mult: 2
    decay_mult: 0
  }
  inner_product_param {
    num_output: 2
    weight_filler {
      type: "gaussian"
      std: 0.01
    }
    bias_filler {
      type: "constant"
      value: 0
    }
  }
}
layer {
  name: "loss"
  type: "SoftmaxWithLoss"
  bottom: "fc8"
  bottom: "label"
  top: "loss"
}
I0815 13:10:08.770792 19228 layer_factory.hpp:77] Creating layer mnist
I0815 13:10:08.771780 19228 net.cpp:100] Creating Layer mnist
I0815 13:10:08.771795 19228 net.cpp:408] mnist -> data
I0815 13:10:08.771806 19228 net.cpp:408] mnist -> label
I0815 13:10:08.771816 19228 data_transformer.cpp:25] Loading mean file from: data/person_only_lmdb/person_background_only_color_mean.binaryproto
I0815 13:10:08.773306 19237 db_lmdb.cpp:35] Opened lmdb data/person_only_lmdb/person_background_only_train_lmdb
I0815 13:10:08.806936 19228 data_layer.cpp:41] output data size: 128,3,128,128
I0815 13:10:08.880391 19228 net.cpp:150] Setting up mnist
I0815 13:10:08.880436 19228 net.cpp:157] Top shape: 128 3 128 128 (6291456)
I0815 13:10:08.880442 19228 net.cpp:157] Top shape: 128 (128)
I0815 13:10:08.880445 19228 net.cpp:165] Memory required for data: 25166336
I0815 13:10:08.880452 19228 layer_factory.hpp:77] Creating layer conv1
I0815 13:10:08.880480 19228 net.cpp:100] Creating Layer conv1
I0815 13:10:08.880484 19228 net.cpp:434] conv1 <- data
I0815 13:10:08.880496 19228 net.cpp:408] conv1 -> conv1
I0815 13:10:09.202240 19228 net.cpp:150] Setting up conv1
I0815 13:10:09.202276 19228 net.cpp:157] Top shape: 128 96 30 30 (11059200)
I0815 13:10:09.202280 19228 net.cpp:165] Memory required for data: 69403136
I0815 13:10:09.202298 19228 layer_factory.hpp:77] Creating layer relu1
I0815 13:10:09.202322 19228 net.cpp:100] Creating Layer relu1
I0815 13:10:09.202327 19228 net.cpp:434] relu1 <- conv1
I0815 13:10:09.202332 19228 net.cpp:395] relu1 -> conv1 (in-place)
I0815 13:10:09.202517 19228 net.cpp:150] Setting up relu1
I0815 13:10:09.202527 19228 net.cpp:157] Top shape: 128 96 30 30 (11059200)
I0815 13:10:09.202530 19228 net.cpp:165] Memory required for data: 113639936
I0815 13:10:09.202533 19228 layer_factory.hpp:77] Creating layer norm1
I0815 13:10:09.202543 19228 net.cpp:100] Creating Layer norm1
I0815 13:10:09.202544 19228 net.cpp:434] norm1 <- conv1
I0815 13:10:09.202550 19228 net.cpp:408] norm1 -> norm1
I0815 13:10:09.203032 19228 net.cpp:150] Setting up norm1
I0815 13:10:09.203047 19228 net.cpp:157] Top shape: 128 96 30 30 (11059200)
I0815 13:10:09.203050 19228 net.cpp:165] Memory required for data: 157876736
I0815 13:10:09.203053 19228 layer_factory.hpp:77] Creating layer pool1
I0815 13:10:09.203063 19228 net.cpp:100] Creating Layer pool1
I0815 13:10:09.203065 19228 net.cpp:434] pool1 <- norm1
I0815 13:10:09.203070 19228 net.cpp:408] pool1 -> pool1
I0815 13:10:09.203109 19228 net.cpp:150] Setting up pool1
I0815 13:10:09.203115 19228 net.cpp:157] Top shape: 128 96 15 15 (2764800)
I0815 13:10:09.203119 19228 net.cpp:165] Memory required for data: 168935936
I0815 13:10:09.203120 19228 layer_factory.hpp:77] Creating layer conv2
I0815 13:10:09.203133 19228 net.cpp:100] Creating Layer conv2
I0815 13:10:09.203138 19228 net.cpp:434] conv2 <- pool1
I0815 13:10:09.203145 19228 net.cpp:408] conv2 -> conv2
I0815 13:10:09.209424 19228 net.cpp:150] Setting up conv2
I0815 13:10:09.209441 19228 net.cpp:157] Top shape: 128 256 15 15 (7372800)
I0815 13:10:09.209445 19228 net.cpp:165] Memory required for data: 198427136
I0815 13:10:09.209455 19228 layer_factory.hpp:77] Creating layer relu2
I0815 13:10:09.209460 19228 net.cpp:100] Creating Layer relu2
I0815 13:10:09.209465 19228 net.cpp:434] relu2 <- conv2
I0815 13:10:09.209470 19228 net.cpp:395] relu2 -> conv2 (in-place)
I0815 13:10:09.209923 19228 net.cpp:150] Setting up relu2
I0815 13:10:09.209939 19228 net.cpp:157] Top shape: 128 256 15 15 (7372800)
I0815 13:10:09.209941 19228 net.cpp:165] Memory required for data: 227918336
I0815 13:10:09.209944 19228 layer_factory.hpp:77] Creating layer norm2
I0815 13:10:09.209951 19228 net.cpp:100] Creating Layer norm2
I0815 13:10:09.209954 19228 net.cpp:434] norm2 <- conv2
I0815 13:10:09.209959 19228 net.cpp:408] norm2 -> norm2
I0815 13:10:09.210155 19228 net.cpp:150] Setting up norm2
I0815 13:10:09.210165 19228 net.cpp:157] Top shape: 128 256 15 15 (7372800)
I0815 13:10:09.210168 19228 net.cpp:165] Memory required for data: 257409536
I0815 13:10:09.210171 19228 layer_factory.hpp:77] Creating layer pool2
I0815 13:10:09.210178 19228 net.cpp:100] Creating Layer pool2
I0815 13:10:09.210181 19228 net.cpp:434] pool2 <- norm2
I0815 13:10:09.210186 19228 net.cpp:408] pool2 -> pool2
I0815 13:10:09.210222 19228 net.cpp:150] Setting up pool2
I0815 13:10:09.210227 19228 net.cpp:157] Top shape: 128 256 7 7 (1605632)
I0815 13:10:09.210230 19228 net.cpp:165] Memory required for data: 263832064
I0815 13:10:09.210232 19228 layer_factory.hpp:77] Creating layer conv3
I0815 13:10:09.210242 19228 net.cpp:100] Creating Layer conv3
I0815 13:10:09.210244 19228 net.cpp:434] conv3 <- pool2
I0815 13:10:09.210248 19228 net.cpp:408] conv3 -> conv3
I0815 13:10:09.223589 19228 net.cpp:150] Setting up conv3
I0815 13:10:09.223605 19228 net.cpp:157] Top shape: 128 384 7 7 (2408448)
I0815 13:10:09.223608 19228 net.cpp:165] Memory required for data: 273465856
I0815 13:10:09.223618 19228 layer_factory.hpp:77] Creating layer relu3
I0815 13:10:09.223624 19228 net.cpp:100] Creating Layer relu3
I0815 13:10:09.223628 19228 net.cpp:434] relu3 <- conv3
I0815 13:10:09.223635 19228 net.cpp:395] relu3 -> conv3 (in-place)
I0815 13:10:09.223832 19228 net.cpp:150] Setting up relu3
I0815 13:10:09.223844 19228 net.cpp:157] Top shape: 128 384 7 7 (2408448)
I0815 13:10:09.223846 19228 net.cpp:165] Memory required for data: 283099648
I0815 13:10:09.223850 19228 layer_factory.hpp:77] Creating layer conv4
I0815 13:10:09.223860 19228 net.cpp:100] Creating Layer conv4
I0815 13:10:09.223865 19228 net.cpp:434] conv4 <- conv3
I0815 13:10:09.223872 19228 net.cpp:408] conv4 -> conv4
I0815 13:10:09.235147 19228 net.cpp:150] Setting up conv4
I0815 13:10:09.235163 19228 net.cpp:157] Top shape: 128 384 7 7 (2408448)
I0815 13:10:09.235167 19228 net.cpp:165] Memory required for data: 292733440
I0815 13:10:09.235173 19228 layer_factory.hpp:77] Creating layer relu4
I0815 13:10:09.235179 19228 net.cpp:100] Creating Layer relu4
I0815 13:10:09.235183 19228 net.cpp:434] relu4 <- conv4
I0815 13:10:09.235189 19228 net.cpp:395] relu4 -> conv4 (in-place)
I0815 13:10:09.235385 19228 net.cpp:150] Setting up relu4
I0815 13:10:09.235396 19228 net.cpp:157] Top shape: 128 384 7 7 (2408448)
I0815 13:10:09.235399 19228 net.cpp:165] Memory required for data: 302367232
I0815 13:10:09.235402 19228 layer_factory.hpp:77] Creating layer conv5
I0815 13:10:09.235414 19228 net.cpp:100] Creating Layer conv5
I0815 13:10:09.235419 19228 net.cpp:434] conv5 <- conv4
I0815 13:10:09.235424 19228 net.cpp:408] conv5 -> conv5
I0815 13:10:09.243866 19228 net.cpp:150] Setting up conv5
I0815 13:10:09.243885 19228 net.cpp:157] Top shape: 128 256 7 7 (1605632)
I0815 13:10:09.243888 19228 net.cpp:165] Memory required for data: 308789760
I0815 13:10:09.243897 19228 layer_factory.hpp:77] Creating layer relu5
I0815 13:10:09.243904 19228 net.cpp:100] Creating Layer relu5
I0815 13:10:09.243909 19228 net.cpp:434] relu5 <- conv5
I0815 13:10:09.243921 19228 net.cpp:395] relu5 -> conv5 (in-place)
I0815 13:10:09.244122 19228 net.cpp:150] Setting up relu5
I0815 13:10:09.244133 19228 net.cpp:157] Top shape: 128 256 7 7 (1605632)
I0815 13:10:09.244137 19228 net.cpp:165] Memory required for data: 315212288
I0815 13:10:09.244138 19228 layer_factory.hpp:77] Creating layer pool5
I0815 13:10:09.244146 19228 net.cpp:100] Creating Layer pool5
I0815 13:10:09.244150 19228 net.cpp:434] pool5 <- conv5
I0815 13:10:09.244155 19228 net.cpp:408] pool5 -> pool5
I0815 13:10:09.244202 19228 net.cpp:150] Setting up pool5
I0815 13:10:09.244210 19228 net.cpp:157] Top shape: 128 256 3 3 (294912)
I0815 13:10:09.244212 19228 net.cpp:165] Memory required for data: 316391936
I0815 13:10:09.244215 19228 layer_factory.hpp:77] Creating layer fc6
I0815 13:10:09.244226 19228 net.cpp:100] Creating Layer fc6
I0815 13:10:09.244230 19228 net.cpp:434] fc6 <- pool5
I0815 13:10:09.244237 19228 net.cpp:408] fc6 -> fc6
I0815 13:10:09.375892 19228 net.cpp:150] Setting up fc6
I0815 13:10:09.375933 19228 net.cpp:157] Top shape: 128 4096 (524288)
I0815 13:10:09.375937 19228 net.cpp:165] Memory required for data: 318489088
I0815 13:10:09.375949 19228 layer_factory.hpp:77] Creating layer relu6
I0815 13:10:09.375962 19228 net.cpp:100] Creating Layer relu6
I0815 13:10:09.375965 19228 net.cpp:434] relu6 <- fc6
I0815 13:10:09.375974 19228 net.cpp:395] relu6 -> fc6 (in-place)
I0815 13:10:09.376560 19228 net.cpp:150] Setting up relu6
I0815 13:10:09.376577 19228 net.cpp:157] Top shape: 128 4096 (524288)
I0815 13:10:09.376580 19228 net.cpp:165] Memory required for data: 320586240
I0815 13:10:09.376583 19228 layer_factory.hpp:77] Creating layer drop6
I0815 13:10:09.376591 19228 net.cpp:100] Creating Layer drop6
I0815 13:10:09.376595 19228 net.cpp:434] drop6 <- fc6
I0815 13:10:09.376600 19228 net.cpp:395] drop6 -> fc6 (in-place)
I0815 13:10:09.376627 19228 net.cpp:150] Setting up drop6
I0815 13:10:09.376633 19228 net.cpp:157] Top shape: 128 4096 (524288)
I0815 13:10:09.376636 19228 net.cpp:165] Memory required for data: 322683392
I0815 13:10:09.376638 19228 layer_factory.hpp:77] Creating layer fc7
I0815 13:10:09.376647 19228 net.cpp:100] Creating Layer fc7
I0815 13:10:09.376649 19228 net.cpp:434] fc7 <- fc6
I0815 13:10:09.376662 19228 net.cpp:408] fc7 -> fc7
I0815 13:10:09.610034 19228 net.cpp:150] Setting up fc7
I0815 13:10:09.610077 19228 net.cpp:157] Top shape: 128 4096 (524288)
I0815 13:10:09.610081 19228 net.cpp:165] Memory required for data: 324780544
I0815 13:10:09.610097 19228 layer_factory.hpp:77] Creating layer relu7
I0815 13:10:09.610116 19228 net.cpp:100] Creating Layer relu7
I0815 13:10:09.610124 19228 net.cpp:434] relu7 <- fc7
I0815 13:10:09.610131 19228 net.cpp:395] relu7 -> fc7 (in-place)
I0815 13:10:09.610527 19228 net.cpp:150] Setting up relu7
I0815 13:10:09.610538 19228 net.cpp:157] Top shape: 128 4096 (524288)
I0815 13:10:09.610540 19228 net.cpp:165] Memory required for data: 326877696
I0815 13:10:09.610543 19228 layer_factory.hpp:77] Creating layer drop7
I0815 13:10:09.610554 19228 net.cpp:100] Creating Layer drop7
I0815 13:10:09.610558 19228 net.cpp:434] drop7 <- fc7
I0815 13:10:09.610564 19228 net.cpp:395] drop7 -> fc7 (in-place)
I0815 13:10:09.610589 19228 net.cpp:150] Setting up drop7
I0815 13:10:09.610594 19228 net.cpp:157] Top shape: 128 4096 (524288)
I0815 13:10:09.610596 19228 net.cpp:165] Memory required for data: 328974848
I0815 13:10:09.610599 19228 layer_factory.hpp:77] Creating layer fc8
I0815 13:10:09.610610 19228 net.cpp:100] Creating Layer fc8
I0815 13:10:09.610613 19228 net.cpp:434] fc8 <- fc7
I0815 13:10:09.610620 19228 net.cpp:408] fc8 -> fc8
I0815 13:10:09.612257 19228 net.cpp:150] Setting up fc8
I0815 13:10:09.612270 19228 net.cpp:157] Top shape: 128 2 (256)
I0815 13:10:09.612273 19228 net.cpp:165] Memory required for data: 328975872
I0815 13:10:09.612280 19228 layer_factory.hpp:77] Creating layer loss
I0815 13:10:09.612288 19228 net.cpp:100] Creating Layer loss
I0815 13:10:09.612292 19228 net.cpp:434] loss <- fc8
I0815 13:10:09.612295 19228 net.cpp:434] loss <- label
I0815 13:10:09.612303 19228 net.cpp:408] loss -> loss
I0815 13:10:09.612313 19228 layer_factory.hpp:77] Creating layer loss
…
I0815 13:10:09.613170 19228 net.cpp:322] The NetState phase (1) differed from the phase (0) specified by a rule in layer mnist
I0815 13:10:09.613340 19228 net.cpp:58] Initializing net from parameters: 
name: "AlexNet"
state {
  phase: TEST
}
layer {
  name: "mnist"
  type: "Data"
  top: "data"
  top: "label"
  include {
    phase: TEST
  }
  transform_param {
    scale: 0.00390625
    mirror: false
    mean_file: "data/person_only_lmdb/person_background_only_color_mean.binaryproto"
  }
  data_param {
    source: "data/person_only_lmdb/person_background_only_test_lmdb"
    batch_size: 100
    backend: LMDB
  }
}
layer {
  name: "conv1"
  type: "Convolution"
  bottom: "data"
  top: "conv1"
  param {
    lr_mult: 1
    decay_mult: 1
  }
  param {
    lr_mult: 2
    decay_mult: 0
  }
  convolution_param {
    num_output: 96
    kernel_size: 11
    stride: 4
    weight_filler {
      type: "gaussian"
      std: 0.01
    }
    bias_filler {
      type: "constant"
      value: 0
    }
  }
}
layer {
  name: "relu1"
  type: "ReLU"
  bottom: "conv1"
  top: "conv1"
}
layer {
  name: "norm1"
  type: "LRN"
  bottom: "conv1"
  top: "norm1"
  lrn_param {
    local_size: 5
    alpha: 0.0001
    beta: 0.75
  }
}
layer {
  name: "pool1"
  type: "Pooling"
  bottom: "norm1"
  top: "pool1"
  pooling_param {
    pool: MAX
    kernel_size: 3
    stride: 2
  }
}
layer {
  name: "conv2"
  type: "Convolution"
  bottom: "pool1"
  top: "conv2"
  param {
    lr_mult: 1
    decay_mult: 1
  }
  param {
    lr_mult: 2
    decay_mult: 0
  }
  convolution_param {
    num_output: 256
    pad: 2
    kernel_size: 5
    group: 2
    weight_filler {
      type: "gaussian"
      std: 0.01
    }
    bias_filler {
      type: "constant"
      value: 0.1
    }
  }
}
layer {
  name: "relu2"
  type: "ReLU"
  bottom: "conv2"
  top: "conv2"
}
layer {
  name: "norm2"
  type: "LRN"
  bottom: "conv2"
  top: "norm2"
  lrn_param {
    local_size: 5
    alpha: 0.0001
    beta: 0.75
  }
}
layer {
  name: "pool2"
  type: "Pooling"
  bottom: "norm2"
  top: "pool2"
  pooling_param {
    pool: MAX
    kernel_size: 3
    stride: 2
  }
}
layer {
  name: "conv3"
  type: "Convolution"
  bottom: "pool2"
  top: "conv3"
  param {
    lr_mult: 1
    decay_mult: 1
  }
  param {
    lr_mult: 2
    decay_mult: 0
  }
  convolution_param {
    num_output: 384
    pad: 1
    kernel_size: 3
    weight_filler {
      type: "gaussian"
      std: 0.01
    }
    bias_filler {
      type: "constant"
      value: 0
    }
  }
}
layer {
  name: "relu3"
  type: "ReLU"
  bottom: "conv3"
  top: "conv3"
}
layer {
  name: "conv4"
  type: "Convolution"
  bottom: "conv3"
  top: "conv4"
  param {
    lr_mult: 1
    decay_mult: 1
  }
  param {
    lr_mult: 2
    decay_mult: 0
  }
  convolution_param {
    num_output: 384
    pad: 1
    kernel_size: 3
    group: 2
    weight_filler {
      type: "gaussian"
      std: 0.01
    }
    bias_filler {
      type: "constant"
      value: 0.1
    }
  }
}
layer {
  name: "relu4"
  type: "ReLU"
  bottom: "conv4"
  top: "conv4"
}
layer {
  name: "conv5"
  type: "Convolution"
  bottom: "conv4"
  top: "conv5"
  param {
    lr_mult: 1
    decay_mult: 1
  }
  param {
    lr_mult: 2
    decay_mult: 0
  }
  convolution_param {
    num_output: 256
    pad: 1
    kernel_size: 3
    group: 2
    weight_filler {
      type: "gaussian"
      std: 0.01
    }
    bias_filler {
      type: "constant"
      value: 0.1
    }
  }
}
layer {
  name: "relu5"
  type: "ReLU"
  bottom: "conv5"
  top: "conv5"
}
layer {
  name: "pool5"
  type: "Pooling"
  bottom: "conv5"
  top: "pool5"
  pooling_param {
    pool: MAX
    kernel_size: 3
    stride: 2
  }
}
layer {
  name: "fc6"
  type: "InnerProduct"
  bottom: "pool5"
  top: "fc6"
  param {
    lr_mult: 1
    decay_mult: 1
  }
  param {
    lr_mult: 2
    decay_mult: 0
  }
  inner_product_param {
    num_output: 4096
    weight_filler {
      type: "gaussian"
      std: 0.005
    }
    bias_filler {
      type: "constant"
      value: 0.1
    }
  }
}
layer {
  name: "relu6"
  type: "ReLU"
  bottom: "fc6"
  top: "fc6"
}
layer {
  name: "drop6"
  type: "Dropout"
  bottom: "fc6"
  top: "fc6"
  dropout_param {
    dropout_ratio: 0.5
  }
}
layer {
  name: "fc7"
  type: "InnerProduct"
  bottom: "fc6"
  top: "fc7"
  param {
    lr_mult: 1
    decay_mult: 1
  }
  param {
    lr_mult: 2
    decay_mult: 0
  }
  inner_product_param {
    num_output: 4096
    weight_filler {
      type: "gaussian"
      std: 0.005
    }
    bias_filler {
      type: "constant"
      value: 0.1
    }
  }
}
layer {
  name: "relu7"
  type: "ReLU"
  bottom: "fc7"
  top: "fc7"
}
layer {
  name: "drop7"
  type: "Dropout"
  bottom: "fc7"
  top: "fc7"
  dropout_param {
    dropout_ratio: 0.5
  }
}
layer {
  name: "fc8"
  type: "InnerProduct"
  bottom: "fc7"
  top: "fc8"
  param {
    lr_mult: 1
    decay_mult: 1
  }
  param {
    lr_mult: 2
    decay_mult: 0
  }
  inner_product_param {
    num_output: 2
    weight_filler {
      type: "gaussian"
      std: 0.01
    }
    bias_filler {
      type: "constant"
      value: 0
    }
  }
}
layer {
  name: "accuracy"
  type: "Accuracy"
  bottom: "fc8"
  bottom: "label"
  top: "accuracy"
  include {
    phase: TEST
  }
}
layer {
  name: "loss"
  type: "SoftmaxWithLoss"
  bottom: "fc8"
  bottom: "label"
  top: "loss"
}
I0815 13:10:09.613457 19228 layer_factory.hpp:77] Creating layer mnist
I0815 13:10:09.613601 19228 net.cpp:100] Creating Layer mnist
I0815 13:10:09.613610 19228 net.cpp:408] mnist -> data
I0815 13:10:09.613620 19228 net.cpp:408] mnist -> label
I0815 13:10:09.613627 19228 data_transformer.cpp:25] Loading mean file from: data/person_only_lmdb/person_background_only_color_mean.binaryproto
I0815 13:10:09.615280 19239 db_lmdb.cpp:35] Opened lmdb data/person_only_lmdb/person_background_only_test_lmdb
I0815 13:10:09.615633 19228 data_layer.cpp:41] output data size: 100,3,128,128
I0815 13:10:09.676908 19228 net.cpp:150] Setting up mnist
I0815 13:10:09.676951 19228 net.cpp:157] Top shape: 100 3 128 128 (4915200)
I0815 13:10:09.676959 19228 net.cpp:157] Top shape: 100 (100)
I0815 13:10:09.676962 19228 net.cpp:165] Memory required for data: 19661200
I0815 13:10:09.676970 19228 layer_factory.hpp:77] Creating layer label_mnist_1_split
I0815 13:10:09.676990 19228 net.cpp:100] Creating Layer label_mnist_1_split
I0815 13:10:09.676995 19228 net.cpp:434] label_mnist_1_split <- label
I0815 13:10:09.677007 19228 net.cpp:408] label_mnist_1_split -> label_mnist_1_split_0
I0815 13:10:09.677024 19228 net.cpp:408] label_mnist_1_split -> label_mnist_1_split_1
I0815 13:10:09.677289 19228 net.cpp:150] Setting up label_mnist_1_split
I0815 13:10:09.677320 19228 net.cpp:157] Top shape: 100 (100)
I0815 13:10:09.677327 19228 net.cpp:157] Top shape: 100 (100)
I0815 13:10:09.677332 19228 net.cpp:165] Memory required for data: 19662000
I0815 13:10:09.677338 19228 layer_factory.hpp:77] Creating layer conv1
I0815 13:10:09.677362 19228 net.cpp:100] Creating Layer conv1
I0815 13:10:09.677369 19228 net.cpp:434] conv1 <- data
I0815 13:10:09.677388 19228 net.cpp:408] conv1 -> conv1
I0815 13:10:09.684963 19228 net.cpp:150] Setting up conv1
I0815 13:10:09.684998 19228 net.cpp:157] Top shape: 100 96 30 30 (8640000)
I0815 13:10:09.685005 19228 net.cpp:165] Memory required for data: 54222000
I0815 13:10:09.685026 19228 layer_factory.hpp:77] Creating layer relu1
I0815 13:10:09.685044 19228 net.cpp:100] Creating Layer relu1
I0815 13:10:09.685051 19228 net.cpp:434] relu1 <- conv1
I0815 13:10:09.685063 19228 net.cpp:395] relu1 -> conv1 (in-place)
I0815 13:10:09.685420 19228 net.cpp:150] Setting up relu1
I0815 13:10:09.685443 19228 net.cpp:157] Top shape: 100 96 30 30 (8640000)
I0815 13:10:09.685448 19228 net.cpp:165] Memory required for data: 88782000
I0815 13:10:09.685453 19228 layer_factory.hpp:77] Creating layer norm1
I0815 13:10:09.685469 19228 net.cpp:100] Creating Layer norm1
I0815 13:10:09.685475 19228 net.cpp:434] norm1 <- conv1
I0815 13:10:09.685487 19228 net.cpp:408] norm1 -> norm1
I0815 13:10:09.686424 19228 net.cpp:150] Setting up norm1
I0815 13:10:09.686452 19228 net.cpp:157] Top shape: 100 96 30 30 (8640000)
I0815 13:10:09.686458 19228 net.cpp:165] Memory required for data: 123342000
I0815 13:10:09.686465 19228 layer_factory.hpp:77] Creating layer pool1
I0815 13:10:09.686477 19228 net.cpp:100] Creating Layer pool1
I0815 13:10:09.686483 19228 net.cpp:434] pool1 <- norm1
I0815 13:10:09.686496 19228 net.cpp:408] pool1 -> pool1
I0815 13:10:09.686573 19228 net.cpp:150] Setting up pool1
I0815 13:10:09.686586 19228 net.cpp:157] Top shape: 100 96 15 15 (2160000)
I0815 13:10:09.686591 19228 net.cpp:165] Memory required for data: 131982000
I0815 13:10:09.686596 19228 layer_factory.hpp:77] Creating layer conv2
I0815 13:10:09.686615 19228 net.cpp:100] Creating Layer conv2
I0815 13:10:09.686622 19228 net.cpp:434] conv2 <- pool1
I0815 13:10:09.686635 19228 net.cpp:408] conv2 -> conv2
I0815 13:10:09.698724 19228 net.cpp:150] Setting up conv2
I0815 13:10:09.698757 19228 net.cpp:157] Top shape: 100 256 15 15 (5760000)
I0815 13:10:09.698763 19228 net.cpp:165] Memory required for data: 155022000
I0815 13:10:09.698786 19228 layer_factory.hpp:77] Creating layer relu2
I0815 13:10:09.698798 19228 net.cpp:100] Creating Layer relu2
I0815 13:10:09.698804 19228 net.cpp:434] relu2 <- conv2
I0815 13:10:09.698814 19228 net.cpp:395] relu2 -> conv2 (in-place)
I0815 13:10:09.699661 19228 net.cpp:150] Setting up relu2
I0815 13:10:09.699687 19228 net.cpp:157] Top shape: 100 256 15 15 (5760000)
I0815 13:10:09.699692 19228 net.cpp:165] Memory required for data: 178062000
I0815 13:10:09.699697 19228 layer_factory.hpp:77] Creating layer norm2
I0815 13:10:09.699719 19228 net.cpp:100] Creating Layer norm2
I0815 13:10:09.699725 19228 net.cpp:434] norm2 <- conv2
I0815 13:10:09.699735 19228 net.cpp:408] norm2 -> norm2
I0815 13:10:09.700232 19228 net.cpp:150] Setting up norm2
I0815 13:10:09.700253 19228 net.cpp:157] Top shape: 100 256 15 15 (5760000)
I0815 13:10:09.700258 19228 net.cpp:165] Memory required for data: 201102000
I0815 13:10:09.700263 19228 layer_factory.hpp:77] Creating layer pool2
I0815 13:10:09.700274 19228 net.cpp:100] Creating Layer pool2
I0815 13:10:09.700280 19228 net.cpp:434] pool2 <- norm2
I0815 13:10:09.700291 19228 net.cpp:408] pool2 -> pool2
I0815 13:10:09.700364 19228 net.cpp:150] Setting up pool2
I0815 13:10:09.700376 19228 net.cpp:157] Top shape: 100 256 7 7 (1254400)
I0815 13:10:09.700381 19228 net.cpp:165] Memory required for data: 206119600
I0815 13:10:09.700387 19228 layer_factory.hpp:77] Creating layer conv3
I0815 13:10:09.700409 19228 net.cpp:100] Creating Layer conv3
I0815 13:10:09.700417 19228 net.cpp:434] conv3 <- pool2
I0815 13:10:09.700426 19228 net.cpp:408] conv3 -> conv3
I0815 13:10:09.724474 19228 net.cpp:150] Setting up conv3
I0815 13:10:09.724516 19228 net.cpp:157] Top shape: 100 384 7 7 (1881600)
I0815 13:10:09.724522 19228 net.cpp:165] Memory required for data: 213646000
I0815 13:10:09.724545 19228 layer_factory.hpp:77] Creating layer relu3
I0815 13:10:09.724561 19228 net.cpp:100] Creating Layer relu3
I0815 13:10:09.724567 19228 net.cpp:434] relu3 <- conv3
I0815 13:10:09.724581 19228 net.cpp:395] relu3 -> conv3 (in-place)
I0815 13:10:09.724925 19228 net.cpp:150] Setting up relu3
I0815 13:10:09.724941 19228 net.cpp:157] Top shape: 100 384 7 7 (1881600)
I0815 13:10:09.724946 19228 net.cpp:165] Memory required for data: 221172400
I0815 13:10:09.724951 19228 layer_factory.hpp:77] Creating layer conv4
I0815 13:10:09.724973 19228 net.cpp:100] Creating Layer conv4
I0815 13:10:09.724978 19228 net.cpp:434] conv4 <- conv3
I0815 13:10:09.724988 19228 net.cpp:408] conv4 -> conv4
I0815 13:10:09.745056 19228 net.cpp:150] Setting up conv4
I0815 13:10:09.745103 19228 net.cpp:157] Top shape: 100 384 7 7 (1881600)
I0815 13:10:09.745110 19228 net.cpp:165] Memory required for data: 228698800
I0815 13:10:09.745122 19228 layer_factory.hpp:77] Creating layer relu4
I0815 13:10:09.745136 19228 net.cpp:100] Creating Layer relu4
I0815 13:10:09.745141 19228 net.cpp:434] relu4 <- conv4
I0815 13:10:09.745152 19228 net.cpp:395] relu4 -> conv4 (in-place)
I0815 13:10:09.745913 19228 net.cpp:150] Setting up relu4
I0815 13:10:09.745935 19228 net.cpp:157] Top shape: 100 384 7 7 (1881600)
I0815 13:10:09.745940 19228 net.cpp:165] Memory required for data: 236225200
I0815 13:10:09.745944 19228 layer_factory.hpp:77] Creating layer conv5
I0815 13:10:09.745965 19228 net.cpp:100] Creating Layer conv5
I0815 13:10:09.745970 19228 net.cpp:434] conv5 <- conv4
I0815 13:10:09.745980 19228 net.cpp:408] conv5 -> conv5
I0815 13:10:09.758640 19228 net.cpp:150] Setting up conv5
I0815 13:10:09.758677 19228 net.cpp:157] Top shape: 100 256 7 7 (1254400)
I0815 13:10:09.758682 19228 net.cpp:165] Memory required for data: 241242800
I0815 13:10:09.758702 19228 layer_factory.hpp:77] Creating layer relu5
I0815 13:10:09.758719 19228 net.cpp:100] Creating Layer relu5
I0815 13:10:09.758728 19228 net.cpp:434] relu5 <- conv5
I0815 13:10:09.758738 19228 net.cpp:395] relu5 -> conv5 (in-place)
I0815 13:10:09.759035 19228 net.cpp:150] Setting up relu5
I0815 13:10:09.759055 19228 net.cpp:157] Top shape: 100 256 7 7 (1254400)
I0815 13:10:09.759059 19228 net.cpp:165] Memory required for data: 246260400
I0815 13:10:09.759063 19228 layer_factory.hpp:77] Creating layer pool5
I0815 13:10:09.759083 19228 net.cpp:100] Creating Layer pool5
I0815 13:10:09.759088 19228 net.cpp:434] pool5 <- conv5
I0815 13:10:09.759095 19228 net.cpp:408] pool5 -> pool5
I0815 13:10:09.759176 19228 net.cpp:150] Setting up pool5
I0815 13:10:09.759186 19228 net.cpp:157] Top shape: 100 256 3 3 (230400)
I0815 13:10:09.759191 19228 net.cpp:165] Memory required for data: 247182000
I0815 13:10:09.759194 19228 layer_factory.hpp:77] Creating layer fc6
I0815 13:10:09.759205 19228 net.cpp:100] Creating Layer fc6
I0815 13:10:09.759212 19228 net.cpp:434] fc6 <- pool5
I0815 13:10:09.759222 19228 net.cpp:408] fc6 -> fc6
I0815 13:10:09.900769 19228 net.cpp:150] Setting up fc6
I0815 13:10:09.900810 19228 net.cpp:157] Top shape: 100 4096 (409600)
I0815 13:10:09.900813 19228 net.cpp:165] Memory required for data: 248820400
I0815 13:10:09.900825 19228 layer_factory.hpp:77] Creating layer relu6
I0815 13:10:09.900836 19228 net.cpp:100] Creating Layer relu6
I0815 13:10:09.900840 19228 net.cpp:434] relu6 <- fc6
I0815 13:10:09.900847 19228 net.cpp:395] relu6 -> fc6 (in-place)
I0815 13:10:09.901136 19228 net.cpp:150] Setting up relu6
I0815 13:10:09.901147 19228 net.cpp:157] Top shape: 100 4096 (409600)
I0815 13:10:09.901149 19228 net.cpp:165] Memory required for data: 250458800
I0815 13:10:09.901152 19228 layer_factory.hpp:77] Creating layer drop6
I0815 13:10:09.901160 19228 net.cpp:100] Creating Layer drop6
I0815 13:10:09.901163 19228 net.cpp:434] drop6 <- fc6
I0815 13:10:09.901170 19228 net.cpp:395] drop6 -> fc6 (in-place)
I0815 13:10:09.901206 19228 net.cpp:150] Setting up drop6
I0815 13:10:09.901214 19228 net.cpp:157] Top shape: 100 4096 (409600)
I0815 13:10:09.901217 19228 net.cpp:165] Memory required for data: 252097200
I0815 13:10:09.901219 19228 layer_factory.hpp:77] Creating layer fc7
I0815 13:10:09.901232 19228 net.cpp:100] Creating Layer fc7
I0815 13:10:09.901237 19228 net.cpp:434] fc7 <- fc6
I0815 13:10:09.901243 19228 net.cpp:408] fc7 -> fc7
I0815 13:10:10.133005 19228 net.cpp:150] Setting up fc7
I0815 13:10:10.133046 19228 net.cpp:157] Top shape: 100 4096 (409600)
I0815 13:10:10.133050 19228 net.cpp:165] Memory required for data: 253735600
I0815 13:10:10.133062 19228 layer_factory.hpp:77] Creating layer relu7
I0815 13:10:10.133074 19228 net.cpp:100] Creating Layer relu7
I0815 13:10:10.133079 19228 net.cpp:434] relu7 <- fc7
I0815 13:10:10.133087 19228 net.cpp:395] relu7 -> fc7 (in-place)
I0815 13:10:10.133837 19228 net.cpp:150] Setting up relu7
I0815 13:10:10.133852 19228 net.cpp:157] Top shape: 100 4096 (409600)
I0815 13:10:10.133855 19228 net.cpp:165] Memory required for data: 255374000
I0815 13:10:10.133858 19228 layer_factory.hpp:77] Creating layer drop7
I0815 13:10:10.133867 19228 net.cpp:100] Creating Layer drop7
I0815 13:10:10.133870 19228 net.cpp:434] drop7 <- fc7
I0815 13:10:10.133880 19228 net.cpp:395] drop7 -> fc7 (in-place)
I0815 13:10:10.133918 19228 net.cpp:150] Setting up drop7
I0815 13:10:10.133929 19228 net.cpp:157] Top shape: 100 4096 (409600)
I0815 13:10:10.133932 19228 net.cpp:165] Memory required for data: 257012400
I0815 13:10:10.133935 19228 layer_factory.hpp:77] Creating layer fc8
I0815 13:10:10.133944 19228 net.cpp:100] Creating Layer fc8
I0815 13:10:10.133947 19228 net.cpp:434] fc8 <- fc7
I0815 13:10:10.133955 19228 net.cpp:408] fc8 -> fc8
I0815 13:10:10.134187 19228 net.cpp:150] Setting up fc8
I0815 13:10:10.134196 19228 net.cpp:157] Top shape: 100 2 (200)
I0815 13:10:10.134198 19228 net.cpp:165] Memory required for data: 257013200
I0815 13:10:10.134204 19228 layer_factory.hpp:77] Creating layer fc8_fc8_0_split
I0815 13:10:10.134209 19228 net.cpp:100] Creating Layer fc8_fc8_0_split
I0815 13:10:10.134212 19228 net.cpp:434] fc8_fc8_0_split <- fc8
I0815 13:10:10.134219 19228 net.cpp:408] fc8_fc8_0_split -> fc8_fc8_0_split_0
I0815 13:10:10.134225 19228 net.cpp:408] fc8_fc8_0_split -> fc8_fc8_0_split_1
I0815 13:10:10.134265 19228 net.cpp:150] Setting up fc8_fc8_0_split
I0815 13:10:10.134274 19228 net.cpp:157] Top shape: 100 2 (200)
I0815 13:10:10.134277 19228 net.cpp:157] Top shape: 100 2 (200)
I0815 13:10:10.134279 19228 net.cpp:165] Memory required for data: 257014800
I0815 13:10:10.134282 19228 layer_factory.hpp:77] Creating layer accuracy
I0815 13:10:10.134292 19228 net.cpp:100] Creating Layer accuracy
I0815 13:10:10.134295 19228 net.cpp:434] accuracy <- fc8_fc8_0_split_0
I0815 13:10:10.134299 19228 net.cpp:434] accuracy <- label_mnist_1_split_0
I0815 13:10:10.134305 19228 net.cpp:408] accuracy -> accuracy
…
