…
I0815 12:22:40.169456 18371 net.cpp:322] The NetState phase (0) differed from the phase (1) specified by a rule in layer accuracy
I0815 12:22:40.169598 18371 net.cpp:58] Initializing net from parameters: 
name: "AlexNet"
state {
  phase: TRAIN
}
layer {
  name: "mnist"
  type: "Data"
  top: "data"
  top: "label"
  include {
    phase: TRAIN
  }
  transform_param {
    scale: 0.00390625
    mirror: true
    mean_file: "data/person_only_lmdb/person_background_only_color_mean.binaryproto"
  }
  data_param {
    source: "data/person_only_lmdb/person_background_only_train_lmdb"
    batch_size: 128
    backend: LMDB
  }
}
layer {
  name: "conv1"
  type: "Convolution"
  bottom: "data"
  top: "conv1"
  param {
    lr_mult: 1
    decay_mult: 1
  }
  param {
    lr_mult: 2
    decay_mult: 0
  }
  convolution_param {
    num_output: 96
    kernel_size: 11
    stride: 4
    weight_filler {
      type: "gaussian"
      std: 0.01
    }
    bias_filler {
      type: "constant"
      value: 0
    }
  }
}
layer {
  name: "relu1"
  type: "ReLU"
  bottom: "conv1"
  top: "conv1"
}
layer {
  name: "norm1"
  type: "LRN"
  bottom: "conv1"
  top: "norm1"
  lrn_param {
    local_size: 5
    alpha: 0.0001
    beta: 0.75
  }
}
layer {
  name: "pool1"
  type: "Pooling"
  bottom: "norm1"
  top: "pool1"
  pooling_param {
    pool: MAX
    kernel_size: 3
    stride: 2
  }
}
layer {
  name: "conv2"
  type: "Convolution"
  bottom: "pool1"
  top: "conv2"
  param {
    lr_mult: 1
    decay_mult: 1
  }
  param {
    lr_mult: 2
    decay_mult: 0
  }
  convolution_param {
    num_output: 256
    pad: 2
    kernel_size: 5
    group: 2
    weight_filler {
      type: "gaussian"
      std: 0.01
    }
    bias_filler {
      type: "constant"
      value: 0.1
    }
  }
}
layer {
  name: "relu2"
  type: "ReLU"
  bottom: "conv2"
  top: "conv2"
}
layer {
  name: "norm2"
  type: "LRN"
  bottom: "conv2"
  top: "norm2"
  lrn_param {
    local_size: 5
    alpha: 0.0001
    beta: 0.75
  }
}
layer {
  name: "pool2"
  type: "Pooling"
  bottom: "norm2"
  top: "pool2"
  pooling_param {
    pool: MAX
    kernel_size: 3
    stride: 2
  }
}
layer {
  name: "conv3"
  type: "Convolution"
  bottom: "pool2"
  top: "conv3"
  param {
    lr_mult: 1
    decay_mult: 1
  }
  param {
    lr_mult: 2
    decay_mult: 0
  }
  convolution_param {
    num_output: 384
    pad: 1
    kernel_size: 3
    weight_filler {
      type: "gaussian"
      std: 0.01
    }
    bias_filler {
      type: "constant"
      value: 0
    }
  }
}
layer {
  name: "relu3"
  type: "ReLU"
  bottom: "conv3"
  top: "conv3"
}
layer {
  name: "conv4"
  type: "Convolution"
  bottom: "conv3"
  top: "conv4"
  param {
    lr_mult: 1
    decay_mult: 1
  }
  param {
    lr_mult: 2
    decay_mult: 0
  }
  convolution_param {
    num_output: 384
    pad: 1
    kernel_size: 3
    group: 2
    weight_filler {
      type: "gaussian"
      std: 0.01
    }
    bias_filler {
      type: "constant"
      value: 0.1
    }
  }
}
layer {
  name: "relu4"
  type: "ReLU"
  bottom: "conv4"
  top: "conv4"
}
layer {
  name: "conv5"
  type: "Convolution"
  bottom: "conv4"
  top: "conv5"
  param {
    lr_mult: 1
    decay_mult: 1
  }
  param {
    lr_mult: 2
    decay_mult: 0
  }
  convolution_param {
    num_output: 256
    pad: 1
    kernel_size: 3
    group: 2
    weight_filler {
      type: "gaussian"
      std: 0.01
    }
    bias_filler {
      type: "constant"
      value: 0.1
    }
  }
}
layer {
  name: "relu5"
  type: "ReLU"
  bottom: "conv5"
  top: "conv5"
}
layer {
  name: "pool5"
  type: "Pooling"
  bottom: "conv5"
  top: "pool5"
  pooling_param {
    pool: MAX
    kernel_size: 3
    stride: 2
  }
}
layer {
  name: "fc6"
  type: "InnerProduct"
  bottom: "pool5"
  top: "fc6"
  param {
    lr_mult: 1
    decay_mult: 1
  }
  param {
    lr_mult: 2
    decay_mult: 0
  }
  inner_product_param {
    num_output: 4096
    weight_filler {
      type: "gaussian"
      std: 0.005
    }
    bias_filler {
      type: "constant"
      value: 0.1
    }
  }
}
layer {
  name: "relu6"
  type: "ReLU"
  bottom: "fc6"
  top: "fc6"
}
layer {
  name: "drop6"
  type: "Dropout"
  bottom: "fc6"
  top: "fc6"
  dropout_param {
    dropout_ratio: 0.5
  }
}
layer {
  name: "fc7"
  type: "InnerProduct"
  bottom: "fc6"
  top: "fc7"
  param {
    lr_mult: 1
    decay_mult: 1
  }
  param {
    lr_mult: 2
    decay_mult: 0
  }
  inner_product_param {
    num_output: 4096
    weight_filler {
      type: "gaussian"
      std: 0.005
    }
    bias_filler {
      type: "constant"
      value: 0.1
    }
  }
}
layer {
  name: "relu7"
  type: "ReLU"
  bottom: "fc7"
  top: "fc7"
}
layer {
  name: "drop7"
  type: "Dropout"
  bottom: "fc7"
  top: "fc7"
  dropout_param {
    dropout_ratio: 0.5
  }
}
layer {
  name: "fc8"
  type: "InnerProduct"
  bottom: "fc7"
  top: "fc8"
  param {
    lr_mult: 1
    decay_mult: 1
  }
  param {
    lr_mult: 2
    decay_mult: 0
  }
  inner_product_param {
    num_output: 2
    weight_filler {
      type: "gaussian"
      std: 0.01
    }
    bias_filler {
      type: "constant"
      value: 0
    }
  }
}
layer {
  name: "loss"
  type: "SoftmaxWithLoss"
  bottom: "fc8"
  bottom: "label"
  top: "loss"
}
I0815 12:22:40.169674 18371 layer_factory.hpp:77] Creating layer mnist
I0815 12:22:40.170200 18371 net.cpp:100] Creating Layer mnist
I0815 12:22:40.170214 18371 net.cpp:408] mnist -> data
I0815 12:22:40.170235 18371 net.cpp:408] mnist -> label
I0815 12:22:40.170245 18371 data_transformer.cpp:25] Loading mean file from: data/person_only_lmdb/person_background_only_color_mean.binaryproto
I0815 12:22:40.171736 18381 db_lmdb.cpp:35] Opened lmdb data/person_only_lmdb/person_background_only_train_lmdb
I0815 12:22:40.204820 18371 data_layer.cpp:41] output data size: 128,3,128,128
I0815 12:22:40.279433 18371 net.cpp:150] Setting up mnist
I0815 12:22:40.279475 18371 net.cpp:157] Top shape: 128 3 128 128 (6291456)
I0815 12:22:40.279482 18371 net.cpp:157] Top shape: 128 (128)
I0815 12:22:40.279485 18371 net.cpp:165] Memory required for data: 25166336
I0815 12:22:40.279494 18371 layer_factory.hpp:77] Creating layer conv1
I0815 12:22:40.279520 18371 net.cpp:100] Creating Layer conv1
I0815 12:22:40.279525 18371 net.cpp:434] conv1 <- data
I0815 12:22:40.279538 18371 net.cpp:408] conv1 -> conv1
I0815 12:22:40.569017 18371 net.cpp:150] Setting up conv1
I0815 12:22:40.569056 18371 net.cpp:157] Top shape: 128 96 30 30 (11059200)
I0815 12:22:40.569061 18371 net.cpp:165] Memory required for data: 69403136
I0815 12:22:40.569077 18371 layer_factory.hpp:77] Creating layer relu1
I0815 12:22:40.569094 18371 net.cpp:100] Creating Layer relu1
I0815 12:22:40.569099 18371 net.cpp:434] relu1 <- conv1
I0815 12:22:40.569105 18371 net.cpp:395] relu1 -> conv1 (in-place)
I0815 12:22:40.569291 18371 net.cpp:150] Setting up relu1
I0815 12:22:40.569303 18371 net.cpp:157] Top shape: 128 96 30 30 (11059200)
I0815 12:22:40.569305 18371 net.cpp:165] Memory required for data: 113639936
I0815 12:22:40.569309 18371 layer_factory.hpp:77] Creating layer norm1
I0815 12:22:40.569319 18371 net.cpp:100] Creating Layer norm1
I0815 12:22:40.569324 18371 net.cpp:434] norm1 <- conv1
I0815 12:22:40.569329 18371 net.cpp:408] norm1 -> norm1
I0815 12:22:40.569813 18371 net.cpp:150] Setting up norm1
I0815 12:22:40.569828 18371 net.cpp:157] Top shape: 128 96 30 30 (11059200)
I0815 12:22:40.569830 18371 net.cpp:165] Memory required for data: 157876736
I0815 12:22:40.569833 18371 layer_factory.hpp:77] Creating layer pool1
I0815 12:22:40.569842 18371 net.cpp:100] Creating Layer pool1
I0815 12:22:40.569846 18371 net.cpp:434] pool1 <- norm1
I0815 12:22:40.569851 18371 net.cpp:408] pool1 -> pool1
I0815 12:22:40.569891 18371 net.cpp:150] Setting up pool1
I0815 12:22:40.569897 18371 net.cpp:157] Top shape: 128 96 15 15 (2764800)
I0815 12:22:40.569900 18371 net.cpp:165] Memory required for data: 168935936
I0815 12:22:40.569902 18371 layer_factory.hpp:77] Creating layer conv2
I0815 12:22:40.569914 18371 net.cpp:100] Creating Layer conv2
I0815 12:22:40.569921 18371 net.cpp:434] conv2 <- pool1
I0815 12:22:40.569926 18371 net.cpp:408] conv2 -> conv2
I0815 12:22:40.576161 18371 net.cpp:150] Setting up conv2
I0815 12:22:40.576177 18371 net.cpp:157] Top shape: 128 256 15 15 (7372800)
I0815 12:22:40.576181 18371 net.cpp:165] Memory required for data: 198427136
I0815 12:22:40.576190 18371 layer_factory.hpp:77] Creating layer relu2
I0815 12:22:40.576197 18371 net.cpp:100] Creating Layer relu2
I0815 12:22:40.576200 18371 net.cpp:434] relu2 <- conv2
I0815 12:22:40.576205 18371 net.cpp:395] relu2 -> conv2 (in-place)
I0815 12:22:40.576664 18371 net.cpp:150] Setting up relu2
I0815 12:22:40.576679 18371 net.cpp:157] Top shape: 128 256 15 15 (7372800)
I0815 12:22:40.576683 18371 net.cpp:165] Memory required for data: 227918336
I0815 12:22:40.576686 18371 layer_factory.hpp:77] Creating layer norm2
I0815 12:22:40.576694 18371 net.cpp:100] Creating Layer norm2
I0815 12:22:40.576697 18371 net.cpp:434] norm2 <- conv2
I0815 12:22:40.576702 18371 net.cpp:408] norm2 -> norm2
I0815 12:22:40.576897 18371 net.cpp:150] Setting up norm2
I0815 12:22:40.576908 18371 net.cpp:157] Top shape: 128 256 15 15 (7372800)
I0815 12:22:40.576911 18371 net.cpp:165] Memory required for data: 257409536
I0815 12:22:40.576915 18371 layer_factory.hpp:77] Creating layer pool2
I0815 12:22:40.576922 18371 net.cpp:100] Creating Layer pool2
I0815 12:22:40.576925 18371 net.cpp:434] pool2 <- norm2
I0815 12:22:40.576930 18371 net.cpp:408] pool2 -> pool2
I0815 12:22:40.576966 18371 net.cpp:150] Setting up pool2
I0815 12:22:40.576973 18371 net.cpp:157] Top shape: 128 256 7 7 (1605632)
I0815 12:22:40.576975 18371 net.cpp:165] Memory required for data: 263832064
I0815 12:22:40.576979 18371 layer_factory.hpp:77] Creating layer conv3
I0815 12:22:40.576989 18371 net.cpp:100] Creating Layer conv3
I0815 12:22:40.576992 18371 net.cpp:434] conv3 <- pool2
I0815 12:22:40.576997 18371 net.cpp:408] conv3 -> conv3
I0815 12:22:40.590350 18371 net.cpp:150] Setting up conv3
I0815 12:22:40.590366 18371 net.cpp:157] Top shape: 128 384 7 7 (2408448)
I0815 12:22:40.590370 18371 net.cpp:165] Memory required for data: 273465856
I0815 12:22:40.590381 18371 layer_factory.hpp:77] Creating layer relu3
I0815 12:22:40.590389 18371 net.cpp:100] Creating Layer relu3
I0815 12:22:40.590392 18371 net.cpp:434] relu3 <- conv3
I0815 12:22:40.590396 18371 net.cpp:395] relu3 -> conv3 (in-place)
I0815 12:22:40.590575 18371 net.cpp:150] Setting up relu3
I0815 12:22:40.590586 18371 net.cpp:157] Top shape: 128 384 7 7 (2408448)
I0815 12:22:40.590590 18371 net.cpp:165] Memory required for data: 283099648
I0815 12:22:40.590593 18371 layer_factory.hpp:77] Creating layer conv4
I0815 12:22:40.590605 18371 net.cpp:100] Creating Layer conv4
I0815 12:22:40.590608 18371 net.cpp:434] conv4 <- conv3
I0815 12:22:40.590613 18371 net.cpp:408] conv4 -> conv4
I0815 12:22:40.601814 18371 net.cpp:150] Setting up conv4
I0815 12:22:40.601830 18371 net.cpp:157] Top shape: 128 384 7 7 (2408448)
I0815 12:22:40.601835 18371 net.cpp:165] Memory required for data: 292733440
I0815 12:22:40.601841 18371 layer_factory.hpp:77] Creating layer relu4
I0815 12:22:40.601850 18371 net.cpp:100] Creating Layer relu4
I0815 12:22:40.601855 18371 net.cpp:434] relu4 <- conv4
I0815 12:22:40.601860 18371 net.cpp:395] relu4 -> conv4 (in-place)
I0815 12:22:40.602056 18371 net.cpp:150] Setting up relu4
I0815 12:22:40.602066 18371 net.cpp:157] Top shape: 128 384 7 7 (2408448)
I0815 12:22:40.602069 18371 net.cpp:165] Memory required for data: 302367232
I0815 12:22:40.602072 18371 layer_factory.hpp:77] Creating layer conv5
I0815 12:22:40.602083 18371 net.cpp:100] Creating Layer conv5
I0815 12:22:40.602087 18371 net.cpp:434] conv5 <- conv4
I0815 12:22:40.602094 18371 net.cpp:408] conv5 -> conv5
I0815 12:22:40.610615 18371 net.cpp:150] Setting up conv5
I0815 12:22:40.610631 18371 net.cpp:157] Top shape: 128 256 7 7 (1605632)
I0815 12:22:40.610635 18371 net.cpp:165] Memory required for data: 308789760
I0815 12:22:40.610644 18371 layer_factory.hpp:77] Creating layer relu5
I0815 12:22:40.610654 18371 net.cpp:100] Creating Layer relu5
I0815 12:22:40.610658 18371 net.cpp:434] relu5 <- conv5
I0815 12:22:40.610663 18371 net.cpp:395] relu5 -> conv5 (in-place)
I0815 12:22:40.610862 18371 net.cpp:150] Setting up relu5
I0815 12:22:40.610873 18371 net.cpp:157] Top shape: 128 256 7 7 (1605632)
I0815 12:22:40.610877 18371 net.cpp:165] Memory required for data: 315212288
I0815 12:22:40.610879 18371 layer_factory.hpp:77] Creating layer pool5
I0815 12:22:40.610887 18371 net.cpp:100] Creating Layer pool5
I0815 12:22:40.610889 18371 net.cpp:434] pool5 <- conv5
I0815 12:22:40.610899 18371 net.cpp:408] pool5 -> pool5
I0815 12:22:40.610949 18371 net.cpp:150] Setting up pool5
I0815 12:22:40.610956 18371 net.cpp:157] Top shape: 128 256 3 3 (294912)
I0815 12:22:40.610960 18371 net.cpp:165] Memory required for data: 316391936
I0815 12:22:40.610962 18371 layer_factory.hpp:77] Creating layer fc6
I0815 12:22:40.610976 18371 net.cpp:100] Creating Layer fc6
I0815 12:22:40.610980 18371 net.cpp:434] fc6 <- pool5
I0815 12:22:40.610986 18371 net.cpp:408] fc6 -> fc6
I0815 12:22:40.743082 18371 net.cpp:150] Setting up fc6
I0815 12:22:40.743121 18371 net.cpp:157] Top shape: 128 4096 (524288)
I0815 12:22:40.743125 18371 net.cpp:165] Memory required for data: 318489088
I0815 12:22:40.743139 18371 layer_factory.hpp:77] Creating layer relu6
I0815 12:22:40.743149 18371 net.cpp:100] Creating Layer relu6
I0815 12:22:40.743154 18371 net.cpp:434] relu6 <- fc6
I0815 12:22:40.743160 18371 net.cpp:395] relu6 -> fc6 (in-place)
I0815 12:22:40.743752 18371 net.cpp:150] Setting up relu6
I0815 12:22:40.743767 18371 net.cpp:157] Top shape: 128 4096 (524288)
I0815 12:22:40.743769 18371 net.cpp:165] Memory required for data: 320586240
I0815 12:22:40.743772 18371 layer_factory.hpp:77] Creating layer drop6
I0815 12:22:40.743780 18371 net.cpp:100] Creating Layer drop6
I0815 12:22:40.743783 18371 net.cpp:434] drop6 <- fc6
I0815 12:22:40.743791 18371 net.cpp:395] drop6 -> fc6 (in-place)
I0815 12:22:40.743818 18371 net.cpp:150] Setting up drop6
I0815 12:22:40.743823 18371 net.cpp:157] Top shape: 128 4096 (524288)
I0815 12:22:40.743825 18371 net.cpp:165] Memory required for data: 322683392
I0815 12:22:40.743829 18371 layer_factory.hpp:77] Creating layer fc7
I0815 12:22:40.743839 18371 net.cpp:100] Creating Layer fc7
I0815 12:22:40.743842 18371 net.cpp:434] fc7 <- fc6
I0815 12:22:40.743847 18371 net.cpp:408] fc7 -> fc7
I0815 12:22:40.978312 18371 net.cpp:150] Setting up fc7
I0815 12:22:40.978359 18371 net.cpp:157] Top shape: 128 4096 (524288)
I0815 12:22:40.978363 18371 net.cpp:165] Memory required for data: 324780544
I0815 12:22:40.978390 18371 layer_factory.hpp:77] Creating layer relu7
I0815 12:22:40.978409 18371 net.cpp:100] Creating Layer relu7
I0815 12:22:40.978415 18371 net.cpp:434] relu7 <- fc7
I0815 12:22:40.978427 18371 net.cpp:395] relu7 -> fc7 (in-place)
I0815 12:22:40.979480 18371 net.cpp:150] Setting up relu7
I0815 12:22:40.979491 18371 net.cpp:157] Top shape: 128 4096 (524288)
I0815 12:22:40.979495 18371 net.cpp:165] Memory required for data: 326877696
I0815 12:22:40.979497 18371 layer_factory.hpp:77] Creating layer drop7
I0815 12:22:40.979509 18371 net.cpp:100] Creating Layer drop7
I0815 12:22:40.979512 18371 net.cpp:434] drop7 <- fc7
I0815 12:22:40.979517 18371 net.cpp:395] drop7 -> fc7 (in-place)
I0815 12:22:40.979544 18371 net.cpp:150] Setting up drop7
I0815 12:22:40.979550 18371 net.cpp:157] Top shape: 128 4096 (524288)
I0815 12:22:40.979552 18371 net.cpp:165] Memory required for data: 328974848
I0815 12:22:40.979555 18371 layer_factory.hpp:77] Creating layer fc8
I0815 12:22:40.979571 18371 net.cpp:100] Creating Layer fc8
I0815 12:22:40.979575 18371 net.cpp:434] fc8 <- fc7
I0815 12:22:40.979583 18371 net.cpp:408] fc8 -> fc8
I0815 12:22:40.981312 18371 net.cpp:150] Setting up fc8
I0815 12:22:40.981328 18371 net.cpp:157] Top shape: 128 2 (256)
I0815 12:22:40.981333 18371 net.cpp:165] Memory required for data: 328975872
I0815 12:22:40.981338 18371 layer_factory.hpp:77] Creating layer loss
I0815 12:22:40.981348 18371 net.cpp:100] Creating Layer loss
I0815 12:22:40.981350 18371 net.cpp:434] loss <- fc8
I0815 12:22:40.981355 18371 net.cpp:434] loss <- label
I0815 12:22:40.981359 18371 net.cpp:408] loss -> loss
I0815 12:22:40.981369 18371 layer_factory.hpp:77] Creating layer loss
…
I0815 12:22:40.982404 18371 net.cpp:322] The NetState phase (1) differed from the phase (0) specified by a rule in layer mnist
I0815 12:22:40.982569 18371 net.cpp:58] Initializing net from parameters: 
name: "AlexNet"
state {
  phase: TEST
}
layer {
  name: "mnist"
  type: "Data"
  top: "data"
  top: "label"
  include {
    phase: TEST
  }
  transform_param {
    scale: 0.00390625
    mirror: false
    mean_file: "data/person_only_lmdb/person_background_only_color_mean.binaryproto"
  }
  data_param {
    source: "data/person_only_lmdb/person_background_only_test_lmdb"
    batch_size: 100
    backend: LMDB
  }
}
layer {
  name: "conv1"
  type: "Convolution"
  bottom: "data"
  top: "conv1"
  param {
    lr_mult: 1
    decay_mult: 1
  }
  param {
    lr_mult: 2
    decay_mult: 0
  }
  convolution_param {
    num_output: 96
    kernel_size: 11
    stride: 4
    weight_filler {
      type: "gaussian"
      std: 0.01
    }
    bias_filler {
      type: "constant"
      value: 0
    }
  }
}
layer {
  name: "relu1"
  type: "ReLU"
  bottom: "conv1"
  top: "conv1"
}
layer {
  name: "norm1"
  type: "LRN"
  bottom: "conv1"
  top: "norm1"
  lrn_param {
    local_size: 5
    alpha: 0.0001
    beta: 0.75
  }
}
layer {
  name: "pool1"
  type: "Pooling"
  bottom: "norm1"
  top: "pool1"
  pooling_param {
    pool: MAX
    kernel_size: 3
    stride: 2
  }
}
layer {
  name: "conv2"
  type: "Convolution"
  bottom: "pool1"
  top: "conv2"
  param {
    lr_mult: 1
    decay_mult: 1
  }
  param {
    lr_mult: 2
    decay_mult: 0
  }
  convolution_param {
    num_output: 256
    pad: 2
    kernel_size: 5
    group: 2
    weight_filler {
      type: "gaussian"
      std: 0.01
    }
    bias_filler {
      type: "constant"
      value: 0.1
    }
  }
}
layer {
  name: "relu2"
  type: "ReLU"
  bottom: "conv2"
  top: "conv2"
}
layer {
  name: "norm2"
  type: "LRN"
  bottom: "conv2"
  top: "norm2"
  lrn_param {
    local_size: 5
    alpha: 0.0001
    beta: 0.75
  }
}
layer {
  name: "pool2"
  type: "Pooling"
  bottom: "norm2"
  top: "pool2"
  pooling_param {
    pool: MAX
    kernel_size: 3
    stride: 2
  }
}
layer {
  name: "conv3"
  type: "Convolution"
  bottom: "pool2"
  top: "conv3"
  param {
    lr_mult: 1
    decay_mult: 1
  }
  param {
    lr_mult: 2
    decay_mult: 0
  }
  convolution_param {
    num_output: 384
    pad: 1
    kernel_size: 3
    weight_filler {
      type: "gaussian"
      std: 0.01
    }
    bias_filler {
      type: "constant"
      value: 0
    }
  }
}
layer {
  name: "relu3"
  type: "ReLU"
  bottom: "conv3"
  top: "conv3"
}
layer {
  name: "conv4"
  type: "Convolution"
  bottom: "conv3"
  top: "conv4"
  param {
    lr_mult: 1
    decay_mult: 1
  }
  param {
    lr_mult: 2
    decay_mult: 0
  }
  convolution_param {
    num_output: 384
    pad: 1
    kernel_size: 3
    group: 2
    weight_filler {
      type: "gaussian"
      std: 0.01
    }
    bias_filler {
      type: "constant"
      value: 0.1
    }
  }
}
layer {
  name: "relu4"
  type: "ReLU"
  bottom: "conv4"
  top: "conv4"
}
layer {
  name: "conv5"
  type: "Convolution"
  bottom: "conv4"
  top: "conv5"
  param {
    lr_mult: 1
    decay_mult: 1
  }
  param {
    lr_mult: 2
    decay_mult: 0
  }
  convolution_param {
    num_output: 256
    pad: 1
    kernel_size: 3
    group: 2
    weight_filler {
      type: "gaussian"
      std: 0.01
    }
    bias_filler {
      type: "constant"
      value: 0.1
    }
  }
}
layer {
  name: "relu5"
  type: "ReLU"
  bottom: "conv5"
  top: "conv5"
}
layer {
  name: "pool5"
  type: "Pooling"
  bottom: "conv5"
  top: "pool5"
  pooling_param {
    pool: MAX
    kernel_size: 3
    stride: 2
  }
}
layer {
  name: "fc6"
  type: "InnerProduct"
  bottom: "pool5"
  top: "fc6"
  param {
    lr_mult: 1
    decay_mult: 1
  }
  param {
    lr_mult: 2
    decay_mult: 0
  }
  inner_product_param {
    num_output: 4096
    weight_filler {
      type: "gaussian"
      std: 0.005
    }
    bias_filler {
      type: "constant"
      value: 0.1
    }
  }
}
layer {
  name: "relu6"
  type: "ReLU"
  bottom: "fc6"
  top: "fc6"
}
layer {
  name: "drop6"
  type: "Dropout"
  bottom: "fc6"
  top: "fc6"
  dropout_param {
    dropout_ratio: 0.5
  }
}
layer {
  name: "fc7"
  type: "InnerProduct"
  bottom: "fc6"
  top: "fc7"
  param {
    lr_mult: 1
    decay_mult: 1
  }
  param {
    lr_mult: 2
    decay_mult: 0
  }
  inner_product_param {
    num_output: 4096
    weight_filler {
      type: "gaussian"
      std: 0.005
    }
    bias_filler {
      type: "constant"
      value: 0.1
    }
  }
}
layer {
  name: "relu7"
  type: "ReLU"
  bottom: "fc7"
  top: "fc7"
}
layer {
  name: "drop7"
  type: "Dropout"
  bottom: "fc7"
  top: "fc7"
  dropout_param {
    dropout_ratio: 0.5
  }
}
layer {
  name: "fc8"
  type: "InnerProduct"
  bottom: "fc7"
  top: "fc8"
  param {
    lr_mult: 1
    decay_mult: 1
  }
  param {
    lr_mult: 2
    decay_mult: 0
  }
  inner_product_param {
    num_output: 2
    weight_filler {
      type: "gaussian"
      std: 0.01
    }
    bias_filler {
      type: "constant"
      value: 0
    }
  }
}
layer {
  name: "accuracy"
  type: "Accuracy"
  bottom: "fc8"
  bottom: "label"
  top: "accuracy"
  include {
    phase: TEST
  }
}
layer {
  name: "loss"
  type: "SoftmaxWithLoss"
  bottom: "fc8"
  bottom: "label"
  top: "loss"
}
I0815 12:22:40.982677 18371 layer_factory.hpp:77] Creating layer mnist
I0815 12:22:40.982825 18371 net.cpp:100] Creating Layer mnist
I0815 12:22:40.982834 18371 net.cpp:408] mnist -> data
I0815 12:22:40.982846 18371 net.cpp:408] mnist -> label
I0815 12:22:40.982853 18371 data_transformer.cpp:25] Loading mean file from: data/person_only_lmdb/person_background_only_color_mean.binaryproto
I0815 12:22:40.984062 18383 db_lmdb.cpp:35] Opened lmdb data/person_only_lmdb/person_background_only_test_lmdb
I0815 12:22:40.984311 18371 data_layer.cpp:41] output data size: 100,3,128,128
I0815 12:22:41.028375 18371 net.cpp:150] Setting up mnist
I0815 12:22:41.028415 18371 net.cpp:157] Top shape: 100 3 128 128 (4915200)
I0815 12:22:41.028420 18371 net.cpp:157] Top shape: 100 (100)
I0815 12:22:41.028424 18371 net.cpp:165] Memory required for data: 19661200
I0815 12:22:41.028429 18371 layer_factory.hpp:77] Creating layer label_mnist_1_split
I0815 12:22:41.028446 18371 net.cpp:100] Creating Layer label_mnist_1_split
I0815 12:22:41.028451 18371 net.cpp:434] label_mnist_1_split <- label
I0815 12:22:41.028460 18371 net.cpp:408] label_mnist_1_split -> label_mnist_1_split_0
I0815 12:22:41.028470 18371 net.cpp:408] label_mnist_1_split -> label_mnist_1_split_1
I0815 12:22:41.028538 18371 net.cpp:150] Setting up label_mnist_1_split
I0815 12:22:41.028547 18371 net.cpp:157] Top shape: 100 (100)
I0815 12:22:41.028549 18371 net.cpp:157] Top shape: 100 (100)
I0815 12:22:41.028553 18371 net.cpp:165] Memory required for data: 19662000
I0815 12:22:41.028555 18371 layer_factory.hpp:77] Creating layer conv1
I0815 12:22:41.028570 18371 net.cpp:100] Creating Layer conv1
I0815 12:22:41.028575 18371 net.cpp:434] conv1 <- data
I0815 12:22:41.028583 18371 net.cpp:408] conv1 -> conv1
I0815 12:22:41.035959 18371 net.cpp:150] Setting up conv1
I0815 12:22:41.036005 18371 net.cpp:157] Top shape: 100 96 30 30 (8640000)
I0815 12:22:41.036013 18371 net.cpp:165] Memory required for data: 54222000
I0815 12:22:41.036039 18371 layer_factory.hpp:77] Creating layer relu1
I0815 12:22:41.036057 18371 net.cpp:100] Creating Layer relu1
I0815 12:22:41.036064 18371 net.cpp:434] relu1 <- conv1
I0815 12:22:41.036077 18371 net.cpp:395] relu1 -> conv1 (in-place)
I0815 12:22:41.036439 18371 net.cpp:150] Setting up relu1
I0815 12:22:41.036458 18371 net.cpp:157] Top shape: 100 96 30 30 (8640000)
I0815 12:22:41.036463 18371 net.cpp:165] Memory required for data: 88782000
I0815 12:22:41.036468 18371 layer_factory.hpp:77] Creating layer norm1
I0815 12:22:41.036489 18371 net.cpp:100] Creating Layer norm1
I0815 12:22:41.036494 18371 net.cpp:434] norm1 <- conv1
I0815 12:22:41.036506 18371 net.cpp:408] norm1 -> norm1
I0815 12:22:41.037428 18371 net.cpp:150] Setting up norm1
I0815 12:22:41.037456 18371 net.cpp:157] Top shape: 100 96 30 30 (8640000)
I0815 12:22:41.037462 18371 net.cpp:165] Memory required for data: 123342000
I0815 12:22:41.037468 18371 layer_factory.hpp:77] Creating layer pool1
I0815 12:22:41.037482 18371 net.cpp:100] Creating Layer pool1
I0815 12:22:41.037489 18371 net.cpp:434] pool1 <- norm1
I0815 12:22:41.037502 18371 net.cpp:408] pool1 -> pool1
I0815 12:22:41.037585 18371 net.cpp:150] Setting up pool1
I0815 12:22:41.037600 18371 net.cpp:157] Top shape: 100 96 15 15 (2160000)
I0815 12:22:41.037605 18371 net.cpp:165] Memory required for data: 131982000
I0815 12:22:41.037611 18371 layer_factory.hpp:77] Creating layer conv2
I0815 12:22:41.037631 18371 net.cpp:100] Creating Layer conv2
I0815 12:22:41.037638 18371 net.cpp:434] conv2 <- pool1
I0815 12:22:41.037649 18371 net.cpp:408] conv2 -> conv2
I0815 12:22:41.049767 18371 net.cpp:150] Setting up conv2
I0815 12:22:41.049800 18371 net.cpp:157] Top shape: 100 256 15 15 (5760000)
I0815 12:22:41.049806 18371 net.cpp:165] Memory required for data: 155022000
I0815 12:22:41.049828 18371 layer_factory.hpp:77] Creating layer relu2
I0815 12:22:41.049840 18371 net.cpp:100] Creating Layer relu2
I0815 12:22:41.049846 18371 net.cpp:434] relu2 <- conv2
I0815 12:22:41.049860 18371 net.cpp:395] relu2 -> conv2 (in-place)
I0815 12:22:41.050705 18371 net.cpp:150] Setting up relu2
I0815 12:22:41.050730 18371 net.cpp:157] Top shape: 100 256 15 15 (5760000)
I0815 12:22:41.050736 18371 net.cpp:165] Memory required for data: 178062000
I0815 12:22:41.050742 18371 layer_factory.hpp:77] Creating layer norm2
I0815 12:22:41.050762 18371 net.cpp:100] Creating Layer norm2
I0815 12:22:41.050768 18371 net.cpp:434] norm2 <- conv2
I0815 12:22:41.050779 18371 net.cpp:408] norm2 -> norm2
I0815 12:22:41.051211 18371 net.cpp:150] Setting up norm2
I0815 12:22:41.051230 18371 net.cpp:157] Top shape: 100 256 15 15 (5760000)
I0815 12:22:41.051235 18371 net.cpp:165] Memory required for data: 201102000
I0815 12:22:41.051240 18371 layer_factory.hpp:77] Creating layer pool2
I0815 12:22:41.051251 18371 net.cpp:100] Creating Layer pool2
I0815 12:22:41.051257 18371 net.cpp:434] pool2 <- norm2
I0815 12:22:41.051268 18371 net.cpp:408] pool2 -> pool2
I0815 12:22:41.051340 18371 net.cpp:150] Setting up pool2
I0815 12:22:41.051352 18371 net.cpp:157] Top shape: 100 256 7 7 (1254400)
I0815 12:22:41.051357 18371 net.cpp:165] Memory required for data: 206119600
I0815 12:22:41.051362 18371 layer_factory.hpp:77] Creating layer conv3
I0815 12:22:41.051385 18371 net.cpp:100] Creating Layer conv3
I0815 12:22:41.051393 18371 net.cpp:434] conv3 <- pool2
I0815 12:22:41.051403 18371 net.cpp:408] conv3 -> conv3
I0815 12:22:41.074702 18371 net.cpp:150] Setting up conv3
I0815 12:22:41.074743 18371 net.cpp:157] Top shape: 100 384 7 7 (1881600)
I0815 12:22:41.074749 18371 net.cpp:165] Memory required for data: 213646000
I0815 12:22:41.074774 18371 layer_factory.hpp:77] Creating layer relu3
I0815 12:22:41.074790 18371 net.cpp:100] Creating Layer relu3
I0815 12:22:41.074796 18371 net.cpp:434] relu3 <- conv3
I0815 12:22:41.074808 18371 net.cpp:395] relu3 -> conv3 (in-place)
I0815 12:22:41.075145 18371 net.cpp:150] Setting up relu3
I0815 12:22:41.075161 18371 net.cpp:157] Top shape: 100 384 7 7 (1881600)
I0815 12:22:41.075165 18371 net.cpp:165] Memory required for data: 221172400
I0815 12:22:41.075170 18371 layer_factory.hpp:77] Creating layer conv4
I0815 12:22:41.075191 18371 net.cpp:100] Creating Layer conv4
I0815 12:22:41.075196 18371 net.cpp:434] conv4 <- conv3
I0815 12:22:41.075207 18371 net.cpp:408] conv4 -> conv4
I0815 12:22:41.097514 18371 net.cpp:150] Setting up conv4
I0815 12:22:41.097554 18371 net.cpp:157] Top shape: 100 384 7 7 (1881600)
I0815 12:22:41.097560 18371 net.cpp:165] Memory required for data: 228698800
I0815 12:22:41.097575 18371 layer_factory.hpp:77] Creating layer relu4
I0815 12:22:41.097591 18371 net.cpp:100] Creating Layer relu4
I0815 12:22:41.097599 18371 net.cpp:434] relu4 <- conv4
I0815 12:22:41.097610 18371 net.cpp:395] relu4 -> conv4 (in-place)
I0815 12:22:41.098328 18371 net.cpp:150] Setting up relu4
I0815 12:22:41.098350 18371 net.cpp:157] Top shape: 100 384 7 7 (1881600)
I0815 12:22:41.098353 18371 net.cpp:165] Memory required for data: 236225200
I0815 12:22:41.098358 18371 layer_factory.hpp:77] Creating layer conv5
I0815 12:22:41.098382 18371 net.cpp:100] Creating Layer conv5
I0815 12:22:41.098387 18371 net.cpp:434] conv5 <- conv4
I0815 12:22:41.098397 18371 net.cpp:408] conv5 -> conv5
I0815 12:22:41.110499 18371 net.cpp:150] Setting up conv5
I0815 12:22:41.110530 18371 net.cpp:157] Top shape: 100 256 7 7 (1254400)
I0815 12:22:41.110537 18371 net.cpp:165] Memory required for data: 241242800
I0815 12:22:41.110558 18371 layer_factory.hpp:77] Creating layer relu5
I0815 12:22:41.110574 18371 net.cpp:100] Creating Layer relu5
I0815 12:22:41.110579 18371 net.cpp:434] relu5 <- conv5
I0815 12:22:41.110589 18371 net.cpp:395] relu5 -> conv5 (in-place)
I0815 12:22:41.110867 18371 net.cpp:150] Setting up relu5
I0815 12:22:41.110882 18371 net.cpp:157] Top shape: 100 256 7 7 (1254400)
I0815 12:22:41.110887 18371 net.cpp:165] Memory required for data: 246260400
I0815 12:22:41.110890 18371 layer_factory.hpp:77] Creating layer pool5
I0815 12:22:41.110910 18371 net.cpp:100] Creating Layer pool5
I0815 12:22:41.110914 18371 net.cpp:434] pool5 <- conv5
I0815 12:22:41.110923 18371 net.cpp:408] pool5 -> pool5
I0815 12:22:41.110996 18371 net.cpp:150] Setting up pool5
I0815 12:22:41.111008 18371 net.cpp:157] Top shape: 100 256 3 3 (230400)
I0815 12:22:41.111012 18371 net.cpp:165] Memory required for data: 247182000
I0815 12:22:41.111016 18371 layer_factory.hpp:77] Creating layer fc6
I0815 12:22:41.111029 18371 net.cpp:100] Creating Layer fc6
I0815 12:22:41.111035 18371 net.cpp:434] fc6 <- pool5
I0815 12:22:41.111045 18371 net.cpp:408] fc6 -> fc6
I0815 12:22:41.251288 18371 net.cpp:150] Setting up fc6
I0815 12:22:41.251328 18371 net.cpp:157] Top shape: 100 4096 (409600)
I0815 12:22:41.251332 18371 net.cpp:165] Memory required for data: 248820400
I0815 12:22:41.251345 18371 layer_factory.hpp:77] Creating layer relu6
I0815 12:22:41.251363 18371 net.cpp:100] Creating Layer relu6
I0815 12:22:41.251366 18371 net.cpp:434] relu6 <- fc6
I0815 12:22:41.251374 18371 net.cpp:395] relu6 -> fc6 (in-place)
I0815 12:22:41.251674 18371 net.cpp:150] Setting up relu6
I0815 12:22:41.251685 18371 net.cpp:157] Top shape: 100 4096 (409600)
I0815 12:22:41.251688 18371 net.cpp:165] Memory required for data: 250458800
I0815 12:22:41.251690 18371 layer_factory.hpp:77] Creating layer drop6
I0815 12:22:41.251701 18371 net.cpp:100] Creating Layer drop6
I0815 12:22:41.251704 18371 net.cpp:434] drop6 <- fc6
I0815 12:22:41.251709 18371 net.cpp:395] drop6 -> fc6 (in-place)
I0815 12:22:41.251746 18371 net.cpp:150] Setting up drop6
I0815 12:22:41.251754 18371 net.cpp:157] Top shape: 100 4096 (409600)
I0815 12:22:41.251756 18371 net.cpp:165] Memory required for data: 252097200
I0815 12:22:41.251759 18371 layer_factory.hpp:77] Creating layer fc7
I0815 12:22:41.251773 18371 net.cpp:100] Creating Layer fc7
I0815 12:22:41.251778 18371 net.cpp:434] fc7 <- fc6
I0815 12:22:41.251783 18371 net.cpp:408] fc7 -> fc7
I0815 12:22:41.483902 18371 net.cpp:150] Setting up fc7
I0815 12:22:41.483948 18371 net.cpp:157] Top shape: 100 4096 (409600)
I0815 12:22:41.483952 18371 net.cpp:165] Memory required for data: 253735600
I0815 12:22:41.483965 18371 layer_factory.hpp:77] Creating layer relu7
I0815 12:22:41.483979 18371 net.cpp:100] Creating Layer relu7
I0815 12:22:41.483984 18371 net.cpp:434] relu7 <- fc7
I0815 12:22:41.483991 18371 net.cpp:395] relu7 -> fc7 (in-place)
I0815 12:22:41.484767 18371 net.cpp:150] Setting up relu7
I0815 12:22:41.484783 18371 net.cpp:157] Top shape: 100 4096 (409600)
I0815 12:22:41.484786 18371 net.cpp:165] Memory required for data: 255374000
I0815 12:22:41.484789 18371 layer_factory.hpp:77] Creating layer drop7
I0815 12:22:41.484798 18371 net.cpp:100] Creating Layer drop7
I0815 12:22:41.484802 18371 net.cpp:434] drop7 <- fc7
I0815 12:22:41.484807 18371 net.cpp:395] drop7 -> fc7 (in-place)
I0815 12:22:41.484850 18371 net.cpp:150] Setting up drop7
I0815 12:22:41.484858 18371 net.cpp:157] Top shape: 100 4096 (409600)
I0815 12:22:41.484860 18371 net.cpp:165] Memory required for data: 257012400
I0815 12:22:41.484863 18371 layer_factory.hpp:77] Creating layer fc8
I0815 12:22:41.484875 18371 net.cpp:100] Creating Layer fc8
I0815 12:22:41.484882 18371 net.cpp:434] fc8 <- fc7
I0815 12:22:41.484889 18371 net.cpp:408] fc8 -> fc8
I0815 12:22:41.485127 18371 net.cpp:150] Setting up fc8
I0815 12:22:41.485136 18371 net.cpp:157] Top shape: 100 2 (200)
I0815 12:22:41.485138 18371 net.cpp:165] Memory required for data: 257013200
I0815 12:22:41.485144 18371 layer_factory.hpp:77] Creating layer fc8_fc8_0_split
I0815 12:22:41.485153 18371 net.cpp:100] Creating Layer fc8_fc8_0_split
I0815 12:22:41.485155 18371 net.cpp:434] fc8_fc8_0_split <- fc8
I0815 12:22:41.485162 18371 net.cpp:408] fc8_fc8_0_split -> fc8_fc8_0_split_0
I0815 12:22:41.485169 18371 net.cpp:408] fc8_fc8_0_split -> fc8_fc8_0_split_1
I0815 12:22:41.485211 18371 net.cpp:150] Setting up fc8_fc8_0_split
I0815 12:22:41.485218 18371 net.cpp:157] Top shape: 100 2 (200)
I0815 12:22:41.485221 18371 net.cpp:157] Top shape: 100 2 (200)
I0815 12:22:41.485224 18371 net.cpp:165] Memory required for data: 257014800
I0815 12:22:41.485226 18371 layer_factory.hpp:77] Creating layer accuracy
I0815 12:22:41.485256 18371 net.cpp:100] Creating Layer accuracy
I0815 12:22:41.485261 18371 net.cpp:434] accuracy <- fc8_fc8_0_split_0
I0815 12:22:41.485266 18371 net.cpp:434] accuracy <- label_mnist_1_split_0
I0815 12:22:41.485271 18371 net.cpp:408] accuracy -> accuracy
…
