…
I0815 12:28:44.616295 18431 net.cpp:322] The NetState phase (0) differed from the phase (1) specified by a rule in layer accuracy
I0815 12:28:44.616433 18431 net.cpp:58] Initializing net from parameters: 
name: "AlexNet"
state {
  phase: TRAIN
}
layer {
  name: "mnist"
  type: "Data"
  top: "data"
  top: "label"
  include {
    phase: TRAIN
  }
  transform_param {
    scale: 0.00390625
    mirror: true
    mean_file: "data/person_only_lmdb/person_background_only_color_mean.binaryproto"
  }
  data_param {
    source: "data/person_only_lmdb/person_background_only_train_lmdb"
    batch_size: 128
    backend: LMDB
  }
}
layer {
  name: "conv1"
  type: "Convolution"
  bottom: "data"
  top: "conv1"
  param {
    lr_mult: 1
    decay_mult: 1
  }
  param {
    lr_mult: 2
    decay_mult: 0
  }
  convolution_param {
    num_output: 96
    kernel_size: 11
    stride: 4
    weight_filler {
      type: "gaussian"
      std: 0.01
    }
    bias_filler {
      type: "constant"
      value: 0
    }
  }
}
layer {
  name: "relu1"
  type: "ReLU"
  bottom: "conv1"
  top: "conv1"
}
layer {
  name: "norm1"
  type: "LRN"
  bottom: "conv1"
  top: "norm1"
  lrn_param {
    local_size: 5
    alpha: 0.0001
    beta: 0.75
  }
}
layer {
  name: "pool1"
  type: "Pooling"
  bottom: "norm1"
  top: "pool1"
  pooling_param {
    pool: MAX
    kernel_size: 3
    stride: 2
  }
}
layer {
  name: "conv2"
  type: "Convolution"
  bottom: "pool1"
  top: "conv2"
  param {
    lr_mult: 1
    decay_mult: 1
  }
  param {
    lr_mult: 2
    decay_mult: 0
  }
  convolution_param {
    num_output: 256
    pad: 2
    kernel_size: 5
    group: 2
    weight_filler {
      type: "gaussian"
      std: 0.01
    }
    bias_filler {
      type: "constant"
      value: 0.1
    }
  }
}
layer {
  name: "relu2"
  type: "ReLU"
  bottom: "conv2"
  top: "conv2"
}
layer {
  name: "norm2"
  type: "LRN"
  bottom: "conv2"
  top: "norm2"
  lrn_param {
    local_size: 5
    alpha: 0.0001
    beta: 0.75
  }
}
layer {
  name: "pool2"
  type: "Pooling"
  bottom: "norm2"
  top: "pool2"
  pooling_param {
    pool: MAX
    kernel_size: 3
    stride: 2
  }
}
layer {
  name: "conv3"
  type: "Convolution"
  bottom: "pool2"
  top: "conv3"
  param {
    lr_mult: 1
    decay_mult: 1
  }
  param {
    lr_mult: 2
    decay_mult: 0
  }
  convolution_param {
    num_output: 384
    pad: 1
    kernel_size: 3
    weight_filler {
      type: "gaussian"
      std: 0.01
    }
    bias_filler {
      type: "constant"
      value: 0
    }
  }
}
layer {
  name: "relu3"
  type: "ReLU"
  bottom: "conv3"
  top: "conv3"
}
layer {
  name: "conv4"
  type: "Convolution"
  bottom: "conv3"
  top: "conv4"
  param {
    lr_mult: 1
    decay_mult: 1
  }
  param {
    lr_mult: 2
    decay_mult: 0
  }
  convolution_param {
    num_output: 384
    pad: 1
    kernel_size: 3
    group: 2
    weight_filler {
      type: "gaussian"
      std: 0.01
    }
    bias_filler {
      type: "constant"
      value: 0.1
    }
  }
}
layer {
  name: "relu4"
  type: "ReLU"
  bottom: "conv4"
  top: "conv4"
}
layer {
  name: "conv5"
  type: "Convolution"
  bottom: "conv4"
  top: "conv5"
  param {
    lr_mult: 1
    decay_mult: 1
  }
  param {
    lr_mult: 2
    decay_mult: 0
  }
  convolution_param {
    num_output: 256
    pad: 1
    kernel_size: 3
    group: 2
    weight_filler {
      type: "gaussian"
      std: 0.01
    }
    bias_filler {
      type: "constant"
      value: 0.1
    }
  }
}
layer {
  name: "relu5"
  type: "ReLU"
  bottom: "conv5"
  top: "conv5"
}
layer {
  name: "pool5"
  type: "Pooling"
  bottom: "conv5"
  top: "pool5"
  pooling_param {
    pool: MAX
    kernel_size: 3
    stride: 2
  }
}
layer {
  name: "fc6"
  type: "InnerProduct"
  bottom: "pool5"
  top: "fc6"
  param {
    lr_mult: 1
    decay_mult: 1
  }
  param {
    lr_mult: 2
    decay_mult: 0
  }
  inner_product_param {
    num_output: 4096
    weight_filler {
      type: "gaussian"
      std: 0.005
    }
    bias_filler {
      type: "constant"
      value: 0.1
    }
  }
}
layer {
  name: "relu6"
  type: "ReLU"
  bottom: "fc6"
  top: "fc6"
}
layer {
  name: "drop6"
  type: "Dropout"
  bottom: "fc6"
  top: "fc6"
  dropout_param {
    dropout_ratio: 0.5
  }
}
layer {
  name: "fc7"
  type: "InnerProduct"
  bottom: "fc6"
  top: "fc7"
  param {
    lr_mult: 1
    decay_mult: 1
  }
  param {
    lr_mult: 2
    decay_mult: 0
  }
  inner_product_param {
    num_output: 4096
    weight_filler {
      type: "gaussian"
      std: 0.005
    }
    bias_filler {
      type: "constant"
      value: 0.1
    }
  }
}
layer {
  name: "relu7"
  type: "ReLU"
  bottom: "fc7"
  top: "fc7"
}
layer {
  name: "drop7"
  type: "Dropout"
  bottom: "fc7"
  top: "fc7"
  dropout_param {
    dropout_ratio: 0.5
  }
}
layer {
  name: "fc8"
  type: "InnerProduct"
  bottom: "fc7"
  top: "fc8"
  param {
    lr_mult: 1
    decay_mult: 1
  }
  param {
    lr_mult: 2
    decay_mult: 0
  }
  inner_product_param {
    num_output: 2
    weight_filler {
      type: "gaussian"
      std: 0.01
    }
    bias_filler {
      type: "constant"
      value: 0
    }
  }
}
layer {
  name: "loss"
  type: "SoftmaxWithLoss"
  bottom: "fc8"
  bottom: "label"
  top: "loss"
}
I0815 12:28:44.616511 18431 layer_factory.hpp:77] Creating layer mnist
I0815 12:28:44.617033 18431 net.cpp:100] Creating Layer mnist
I0815 12:28:44.617046 18431 net.cpp:408] mnist -> data
I0815 12:28:44.617059 18431 net.cpp:408] mnist -> label
I0815 12:28:44.617085 18431 data_transformer.cpp:25] Loading mean file from: data/person_only_lmdb/person_background_only_color_mean.binaryproto
I0815 12:28:44.618681 18442 db_lmdb.cpp:35] Opened lmdb data/person_only_lmdb/person_background_only_train_lmdb
I0815 12:28:44.651851 18431 data_layer.cpp:41] output data size: 128,3,128,128
I0815 12:28:44.725038 18431 net.cpp:150] Setting up mnist
I0815 12:28:44.725080 18431 net.cpp:157] Top shape: 128 3 128 128 (6291456)
I0815 12:28:44.725085 18431 net.cpp:157] Top shape: 128 (128)
I0815 12:28:44.725088 18431 net.cpp:165] Memory required for data: 25166336
I0815 12:28:44.725095 18431 layer_factory.hpp:77] Creating layer conv1
I0815 12:28:44.725122 18431 net.cpp:100] Creating Layer conv1
I0815 12:28:44.725128 18431 net.cpp:434] conv1 <- data
I0815 12:28:44.725139 18431 net.cpp:408] conv1 -> conv1
I0815 12:28:45.014618 18431 net.cpp:150] Setting up conv1
I0815 12:28:45.014657 18431 net.cpp:157] Top shape: 128 96 30 30 (11059200)
I0815 12:28:45.014662 18431 net.cpp:165] Memory required for data: 69403136
I0815 12:28:45.014680 18431 layer_factory.hpp:77] Creating layer relu1
I0815 12:28:45.014704 18431 net.cpp:100] Creating Layer relu1
I0815 12:28:45.014709 18431 net.cpp:434] relu1 <- conv1
I0815 12:28:45.014715 18431 net.cpp:395] relu1 -> conv1 (in-place)
I0815 12:28:45.014901 18431 net.cpp:150] Setting up relu1
I0815 12:28:45.014912 18431 net.cpp:157] Top shape: 128 96 30 30 (11059200)
I0815 12:28:45.014915 18431 net.cpp:165] Memory required for data: 113639936
I0815 12:28:45.014919 18431 layer_factory.hpp:77] Creating layer norm1
I0815 12:28:45.014927 18431 net.cpp:100] Creating Layer norm1
I0815 12:28:45.014930 18431 net.cpp:434] norm1 <- conv1
I0815 12:28:45.014935 18431 net.cpp:408] norm1 -> norm1
I0815 12:28:45.015419 18431 net.cpp:150] Setting up norm1
I0815 12:28:45.015434 18431 net.cpp:157] Top shape: 128 96 30 30 (11059200)
I0815 12:28:45.015437 18431 net.cpp:165] Memory required for data: 157876736
I0815 12:28:45.015441 18431 layer_factory.hpp:77] Creating layer pool1
I0815 12:28:45.015450 18431 net.cpp:100] Creating Layer pool1
I0815 12:28:45.015453 18431 net.cpp:434] pool1 <- norm1
I0815 12:28:45.015458 18431 net.cpp:408] pool1 -> pool1
I0815 12:28:45.015497 18431 net.cpp:150] Setting up pool1
I0815 12:28:45.015503 18431 net.cpp:157] Top shape: 128 96 15 15 (2764800)
I0815 12:28:45.015506 18431 net.cpp:165] Memory required for data: 168935936
I0815 12:28:45.015509 18431 layer_factory.hpp:77] Creating layer conv2
I0815 12:28:45.015522 18431 net.cpp:100] Creating Layer conv2
I0815 12:28:45.015525 18431 net.cpp:434] conv2 <- pool1
I0815 12:28:45.015530 18431 net.cpp:408] conv2 -> conv2
I0815 12:28:45.021773 18431 net.cpp:150] Setting up conv2
I0815 12:28:45.021792 18431 net.cpp:157] Top shape: 128 256 15 15 (7372800)
I0815 12:28:45.021796 18431 net.cpp:165] Memory required for data: 198427136
I0815 12:28:45.021806 18431 layer_factory.hpp:77] Creating layer relu2
I0815 12:28:45.021812 18431 net.cpp:100] Creating Layer relu2
I0815 12:28:45.021816 18431 net.cpp:434] relu2 <- conv2
I0815 12:28:45.021821 18431 net.cpp:395] relu2 -> conv2 (in-place)
I0815 12:28:45.022279 18431 net.cpp:150] Setting up relu2
I0815 12:28:45.022292 18431 net.cpp:157] Top shape: 128 256 15 15 (7372800)
I0815 12:28:45.022295 18431 net.cpp:165] Memory required for data: 227918336
I0815 12:28:45.022299 18431 layer_factory.hpp:77] Creating layer norm2
I0815 12:28:45.022305 18431 net.cpp:100] Creating Layer norm2
I0815 12:28:45.022308 18431 net.cpp:434] norm2 <- conv2
I0815 12:28:45.022315 18431 net.cpp:408] norm2 -> norm2
I0815 12:28:45.022510 18431 net.cpp:150] Setting up norm2
I0815 12:28:45.022521 18431 net.cpp:157] Top shape: 128 256 15 15 (7372800)
I0815 12:28:45.022523 18431 net.cpp:165] Memory required for data: 257409536
I0815 12:28:45.022526 18431 layer_factory.hpp:77] Creating layer pool2
I0815 12:28:45.022536 18431 net.cpp:100] Creating Layer pool2
I0815 12:28:45.022538 18431 net.cpp:434] pool2 <- norm2
I0815 12:28:45.022543 18431 net.cpp:408] pool2 -> pool2
I0815 12:28:45.022578 18431 net.cpp:150] Setting up pool2
I0815 12:28:45.022585 18431 net.cpp:157] Top shape: 128 256 7 7 (1605632)
I0815 12:28:45.022588 18431 net.cpp:165] Memory required for data: 263832064
I0815 12:28:45.022591 18431 layer_factory.hpp:77] Creating layer conv3
I0815 12:28:45.022600 18431 net.cpp:100] Creating Layer conv3
I0815 12:28:45.022605 18431 net.cpp:434] conv3 <- pool2
I0815 12:28:45.022610 18431 net.cpp:408] conv3 -> conv3
I0815 12:28:45.035980 18431 net.cpp:150] Setting up conv3
I0815 12:28:45.035996 18431 net.cpp:157] Top shape: 128 384 7 7 (2408448)
I0815 12:28:45.036000 18431 net.cpp:165] Memory required for data: 273465856
I0815 12:28:45.036010 18431 layer_factory.hpp:77] Creating layer relu3
I0815 12:28:45.036020 18431 net.cpp:100] Creating Layer relu3
I0815 12:28:45.036022 18431 net.cpp:434] relu3 <- conv3
I0815 12:28:45.036027 18431 net.cpp:395] relu3 -> conv3 (in-place)
I0815 12:28:45.036226 18431 net.cpp:150] Setting up relu3
I0815 12:28:45.036238 18431 net.cpp:157] Top shape: 128 384 7 7 (2408448)
I0815 12:28:45.036240 18431 net.cpp:165] Memory required for data: 283099648
I0815 12:28:45.036243 18431 layer_factory.hpp:77] Creating layer conv4
I0815 12:28:45.036257 18431 net.cpp:100] Creating Layer conv4
I0815 12:28:45.036260 18431 net.cpp:434] conv4 <- conv3
I0815 12:28:45.036268 18431 net.cpp:408] conv4 -> conv4
I0815 12:28:45.047533 18431 net.cpp:150] Setting up conv4
I0815 12:28:45.047551 18431 net.cpp:157] Top shape: 128 384 7 7 (2408448)
I0815 12:28:45.047554 18431 net.cpp:165] Memory required for data: 292733440
I0815 12:28:45.047562 18431 layer_factory.hpp:77] Creating layer relu4
I0815 12:28:45.047569 18431 net.cpp:100] Creating Layer relu4
I0815 12:28:45.047572 18431 net.cpp:434] relu4 <- conv4
I0815 12:28:45.047577 18431 net.cpp:395] relu4 -> conv4 (in-place)
I0815 12:28:45.047778 18431 net.cpp:150] Setting up relu4
I0815 12:28:45.047790 18431 net.cpp:157] Top shape: 128 384 7 7 (2408448)
I0815 12:28:45.047792 18431 net.cpp:165] Memory required for data: 302367232
I0815 12:28:45.047796 18431 layer_factory.hpp:77] Creating layer conv5
I0815 12:28:45.047806 18431 net.cpp:100] Creating Layer conv5
I0815 12:28:45.047811 18431 net.cpp:434] conv5 <- conv4
I0815 12:28:45.047817 18431 net.cpp:408] conv5 -> conv5
I0815 12:28:45.056316 18431 net.cpp:150] Setting up conv5
I0815 12:28:45.056334 18431 net.cpp:157] Top shape: 128 256 7 7 (1605632)
I0815 12:28:45.056336 18431 net.cpp:165] Memory required for data: 308789760
I0815 12:28:45.056349 18431 layer_factory.hpp:77] Creating layer relu5
I0815 12:28:45.056355 18431 net.cpp:100] Creating Layer relu5
I0815 12:28:45.056358 18431 net.cpp:434] relu5 <- conv5
I0815 12:28:45.056365 18431 net.cpp:395] relu5 -> conv5 (in-place)
I0815 12:28:45.056565 18431 net.cpp:150] Setting up relu5
I0815 12:28:45.056576 18431 net.cpp:157] Top shape: 128 256 7 7 (1605632)
I0815 12:28:45.056578 18431 net.cpp:165] Memory required for data: 315212288
I0815 12:28:45.056582 18431 layer_factory.hpp:77] Creating layer pool5
I0815 12:28:45.056589 18431 net.cpp:100] Creating Layer pool5
I0815 12:28:45.056592 18431 net.cpp:434] pool5 <- conv5
I0815 12:28:45.056599 18431 net.cpp:408] pool5 -> pool5
I0815 12:28:45.056649 18431 net.cpp:150] Setting up pool5
I0815 12:28:45.056658 18431 net.cpp:157] Top shape: 128 256 3 3 (294912)
I0815 12:28:45.056661 18431 net.cpp:165] Memory required for data: 316391936
I0815 12:28:45.056664 18431 layer_factory.hpp:77] Creating layer fc6
I0815 12:28:45.056677 18431 net.cpp:100] Creating Layer fc6
I0815 12:28:45.056682 18431 net.cpp:434] fc6 <- pool5
I0815 12:28:45.056687 18431 net.cpp:408] fc6 -> fc6
I0815 12:28:45.189576 18431 net.cpp:150] Setting up fc6
I0815 12:28:45.189615 18431 net.cpp:157] Top shape: 128 4096 (524288)
I0815 12:28:45.189618 18431 net.cpp:165] Memory required for data: 318489088
I0815 12:28:45.189631 18431 layer_factory.hpp:77] Creating layer relu6
I0815 12:28:45.189646 18431 net.cpp:100] Creating Layer relu6
I0815 12:28:45.189651 18431 net.cpp:434] relu6 <- fc6
I0815 12:28:45.189659 18431 net.cpp:395] relu6 -> fc6 (in-place)
I0815 12:28:45.190248 18431 net.cpp:150] Setting up relu6
I0815 12:28:45.190261 18431 net.cpp:157] Top shape: 128 4096 (524288)
I0815 12:28:45.190264 18431 net.cpp:165] Memory required for data: 320586240
I0815 12:28:45.190268 18431 layer_factory.hpp:77] Creating layer drop6
I0815 12:28:45.190276 18431 net.cpp:100] Creating Layer drop6
I0815 12:28:45.190279 18431 net.cpp:434] drop6 <- fc6
I0815 12:28:45.190286 18431 net.cpp:395] drop6 -> fc6 (in-place)
I0815 12:28:45.190312 18431 net.cpp:150] Setting up drop6
I0815 12:28:45.190317 18431 net.cpp:157] Top shape: 128 4096 (524288)
I0815 12:28:45.190320 18431 net.cpp:165] Memory required for data: 322683392
I0815 12:28:45.190323 18431 layer_factory.hpp:77] Creating layer fc7
I0815 12:28:45.190340 18431 net.cpp:100] Creating Layer fc7
I0815 12:28:45.190343 18431 net.cpp:434] fc7 <- fc6
I0815 12:28:45.190349 18431 net.cpp:408] fc7 -> fc7
I0815 12:28:45.423939 18431 net.cpp:150] Setting up fc7
I0815 12:28:45.423985 18431 net.cpp:157] Top shape: 128 4096 (524288)
I0815 12:28:45.423988 18431 net.cpp:165] Memory required for data: 324780544
I0815 12:28:45.424000 18431 layer_factory.hpp:77] Creating layer relu7
I0815 12:28:45.424012 18431 net.cpp:100] Creating Layer relu7
I0815 12:28:45.424016 18431 net.cpp:434] relu7 <- fc7
I0815 12:28:45.424026 18431 net.cpp:395] relu7 -> fc7 (in-place)
I0815 12:28:45.424294 18431 net.cpp:150] Setting up relu7
I0815 12:28:45.424306 18431 net.cpp:157] Top shape: 128 4096 (524288)
I0815 12:28:45.424309 18431 net.cpp:165] Memory required for data: 326877696
I0815 12:28:45.424312 18431 layer_factory.hpp:77] Creating layer drop7
I0815 12:28:45.424319 18431 net.cpp:100] Creating Layer drop7
I0815 12:28:45.424322 18431 net.cpp:434] drop7 <- fc7
I0815 12:28:45.424327 18431 net.cpp:395] drop7 -> fc7 (in-place)
I0815 12:28:45.424355 18431 net.cpp:150] Setting up drop7
I0815 12:28:45.424362 18431 net.cpp:157] Top shape: 128 4096 (524288)
I0815 12:28:45.424365 18431 net.cpp:165] Memory required for data: 328974848
I0815 12:28:45.424367 18431 layer_factory.hpp:77] Creating layer fc8
I0815 12:28:45.424376 18431 net.cpp:100] Creating Layer fc8
I0815 12:28:45.424379 18431 net.cpp:434] fc8 <- fc7
I0815 12:28:45.424386 18431 net.cpp:408] fc8 -> fc8
I0815 12:28:45.425959 18431 net.cpp:150] Setting up fc8
I0815 12:28:45.425973 18431 net.cpp:157] Top shape: 128 2 (256)
I0815 12:28:45.425976 18431 net.cpp:165] Memory required for data: 328975872
I0815 12:28:45.425982 18431 layer_factory.hpp:77] Creating layer loss
I0815 12:28:45.425992 18431 net.cpp:100] Creating Layer loss
I0815 12:28:45.425994 18431 net.cpp:434] loss <- fc8
I0815 12:28:45.425999 18431 net.cpp:434] loss <- label
I0815 12:28:45.426003 18431 net.cpp:408] loss -> loss
I0815 12:28:45.426015 18431 layer_factory.hpp:77] Creating layer loss
…
I0815 12:28:45.426849 18431 net.cpp:322] The NetState phase (1) differed from the phase (0) specified by a rule in layer mnist
I0815 12:28:45.427022 18431 net.cpp:58] Initializing net from parameters: 
name: "AlexNet"
state {
  phase: TEST
}
layer {
  name: "mnist"
  type: "Data"
  top: "data"
  top: "label"
  include {
    phase: TEST
  }
  transform_param {
    scale: 0.00390625
    mirror: false
    mean_file: "data/person_only_lmdb/person_background_only_color_mean.binaryproto"
  }
  data_param {
    source: "data/person_only_lmdb/person_background_only_test_lmdb"
    batch_size: 100
    backend: LMDB
  }
}
layer {
  name: "conv1"
  type: "Convolution"
  bottom: "data"
  top: "conv1"
  param {
    lr_mult: 1
    decay_mult: 1
  }
  param {
    lr_mult: 2
    decay_mult: 0
  }
  convolution_param {
    num_output: 96
    kernel_size: 11
    stride: 4
    weight_filler {
      type: "gaussian"
      std: 0.01
    }
    bias_filler {
      type: "constant"
      value: 0
    }
  }
}
layer {
  name: "relu1"
  type: "ReLU"
  bottom: "conv1"
  top: "conv1"
}
layer {
  name: "norm1"
  type: "LRN"
  bottom: "conv1"
  top: "norm1"
  lrn_param {
    local_size: 5
    alpha: 0.0001
    beta: 0.75
  }
}
layer {
  name: "pool1"
  type: "Pooling"
  bottom: "norm1"
  top: "pool1"
  pooling_param {
    pool: MAX
    kernel_size: 3
    stride: 2
  }
}
layer {
  name: "conv2"
  type: "Convolution"
  bottom: "pool1"
  top: "conv2"
  param {
    lr_mult: 1
    decay_mult: 1
  }
  param {
    lr_mult: 2
    decay_mult: 0
  }
  convolution_param {
    num_output: 256
    pad: 2
    kernel_size: 5
    group: 2
    weight_filler {
      type: "gaussian"
      std: 0.01
    }
    bias_filler {
      type: "constant"
      value: 0.1
    }
  }
}
layer {
  name: "relu2"
  type: "ReLU"
  bottom: "conv2"
  top: "conv2"
}
layer {
  name: "norm2"
  type: "LRN"
  bottom: "conv2"
  top: "norm2"
  lrn_param {
    local_size: 5
    alpha: 0.0001
    beta: 0.75
  }
}
layer {
  name: "pool2"
  type: "Pooling"
  bottom: "norm2"
  top: "pool2"
  pooling_param {
    pool: MAX
    kernel_size: 3
    stride: 2
  }
}
layer {
  name: "conv3"
  type: "Convolution"
  bottom: "pool2"
  top: "conv3"
  param {
    lr_mult: 1
    decay_mult: 1
  }
  param {
    lr_mult: 2
    decay_mult: 0
  }
  convolution_param {
    num_output: 384
    pad: 1
    kernel_size: 3
    weight_filler {
      type: "gaussian"
      std: 0.01
    }
    bias_filler {
      type: "constant"
      value: 0
    }
  }
}
layer {
  name: "relu3"
  type: "ReLU"
  bottom: "conv3"
  top: "conv3"
}
layer {
  name: "conv4"
  type: "Convolution"
  bottom: "conv3"
  top: "conv4"
  param {
    lr_mult: 1
    decay_mult: 1
  }
  param {
    lr_mult: 2
    decay_mult: 0
  }
  convolution_param {
    num_output: 384
    pad: 1
    kernel_size: 3
    group: 2
    weight_filler {
      type: "gaussian"
      std: 0.01
    }
    bias_filler {
      type: "constant"
      value: 0.1
    }
  }
}
layer {
  name: "relu4"
  type: "ReLU"
  bottom: "conv4"
  top: "conv4"
}
layer {
  name: "conv5"
  type: "Convolution"
  bottom: "conv4"
  top: "conv5"
  param {
    lr_mult: 1
    decay_mult: 1
  }
  param {
    lr_mult: 2
    decay_mult: 0
  }
  convolution_param {
    num_output: 256
    pad: 1
    kernel_size: 3
    group: 2
    weight_filler {
      type: "gaussian"
      std: 0.01
    }
    bias_filler {
      type: "constant"
      value: 0.1
    }
  }
}
layer {
  name: "relu5"
  type: "ReLU"
  bottom: "conv5"
  top: "conv5"
}
layer {
  name: "pool5"
  type: "Pooling"
  bottom: "conv5"
  top: "pool5"
  pooling_param {
    pool: MAX
    kernel_size: 3
    stride: 2
  }
}
layer {
  name: "fc6"
  type: "InnerProduct"
  bottom: "pool5"
  top: "fc6"
  param {
    lr_mult: 1
    decay_mult: 1
  }
  param {
    lr_mult: 2
    decay_mult: 0
  }
  inner_product_param {
    num_output: 4096
    weight_filler {
      type: "gaussian"
      std: 0.005
    }
    bias_filler {
      type: "constant"
      value: 0.1
    }
  }
}
layer {
  name: "relu6"
  type: "ReLU"
  bottom: "fc6"
  top: "fc6"
}
layer {
  name: "drop6"
  type: "Dropout"
  bottom: "fc6"
  top: "fc6"
  dropout_param {
    dropout_ratio: 0.5
  }
}
layer {
  name: "fc7"
  type: "InnerProduct"
  bottom: "fc6"
  top: "fc7"
  param {
    lr_mult: 1
    decay_mult: 1
  }
  param {
    lr_mult: 2
    decay_mult: 0
  }
  inner_product_param {
    num_output: 4096
    weight_filler {
      type: "gaussian"
      std: 0.005
    }
    bias_filler {
      type: "constant"
      value: 0.1
    }
  }
}
layer {
  name: "relu7"
  type: "ReLU"
  bottom: "fc7"
  top: "fc7"
}
layer {
  name: "drop7"
  type: "Dropout"
  bottom: "fc7"
  top: "fc7"
  dropout_param {
    dropout_ratio: 0.5
  }
}
layer {
  name: "fc8"
  type: "InnerProduct"
  bottom: "fc7"
  top: "fc8"
  param {
    lr_mult: 1
    decay_mult: 1
  }
  param {
    lr_mult: 2
    decay_mult: 0
  }
  inner_product_param {
    num_output: 2
    weight_filler {
      type: "gaussian"
      std: 0.01
    }
    bias_filler {
      type: "constant"
      value: 0
    }
  }
}
layer {
  name: "accuracy"
  type: "Accuracy"
  bottom: "fc8"
  bottom: "label"
  top: "accuracy"
  include {
    phase: TEST
  }
}
layer {
  name: "loss"
  type: "SoftmaxWithLoss"
  bottom: "fc8"
  bottom: "label"
  top: "loss"
}
I0815 12:28:45.427140 18431 layer_factory.hpp:77] Creating layer mnist
I0815 12:28:45.427270 18431 net.cpp:100] Creating Layer mnist
I0815 12:28:45.427278 18431 net.cpp:408] mnist -> data
I0815 12:28:45.427289 18431 net.cpp:408] mnist -> label
I0815 12:28:45.427296 18431 data_transformer.cpp:25] Loading mean file from: data/person_only_lmdb/person_background_only_color_mean.binaryproto
I0815 12:28:45.428892 18445 db_lmdb.cpp:35] Opened lmdb data/person_only_lmdb/person_background_only_test_lmdb
I0815 12:28:45.429239 18431 data_layer.cpp:41] output data size: 100,3,128,128
I0815 12:28:45.485679 18431 net.cpp:150] Setting up mnist
I0815 12:28:45.485720 18431 net.cpp:157] Top shape: 100 3 128 128 (4915200)
I0815 12:28:45.485728 18431 net.cpp:157] Top shape: 100 (100)
I0815 12:28:45.485733 18431 net.cpp:165] Memory required for data: 19661200
I0815 12:28:45.485744 18431 layer_factory.hpp:77] Creating layer label_mnist_1_split
I0815 12:28:45.485764 18431 net.cpp:100] Creating Layer label_mnist_1_split
I0815 12:28:45.485770 18431 net.cpp:434] label_mnist_1_split <- label
I0815 12:28:45.485781 18431 net.cpp:408] label_mnist_1_split -> label_mnist_1_split_0
I0815 12:28:45.485796 18431 net.cpp:408] label_mnist_1_split -> label_mnist_1_split_1
I0815 12:28:45.485913 18431 net.cpp:150] Setting up label_mnist_1_split
I0815 12:28:45.485924 18431 net.cpp:157] Top shape: 100 (100)
I0815 12:28:45.485930 18431 net.cpp:157] Top shape: 100 (100)
I0815 12:28:45.485934 18431 net.cpp:165] Memory required for data: 19662000
I0815 12:28:45.485939 18431 layer_factory.hpp:77] Creating layer conv1
I0815 12:28:45.485957 18431 net.cpp:100] Creating Layer conv1
I0815 12:28:45.485965 18431 net.cpp:434] conv1 <- data
I0815 12:28:45.485975 18431 net.cpp:408] conv1 -> conv1
I0815 12:28:45.490511 18431 net.cpp:150] Setting up conv1
I0815 12:28:45.490541 18431 net.cpp:157] Top shape: 100 96 30 30 (8640000)
I0815 12:28:45.490548 18431 net.cpp:165] Memory required for data: 54222000
I0815 12:28:45.490566 18431 layer_factory.hpp:77] Creating layer relu1
I0815 12:28:45.490577 18431 net.cpp:100] Creating Layer relu1
I0815 12:28:45.490583 18431 net.cpp:434] relu1 <- conv1
I0815 12:28:45.490592 18431 net.cpp:395] relu1 -> conv1 (in-place)
I0815 12:28:45.490943 18431 net.cpp:150] Setting up relu1
I0815 12:28:45.490962 18431 net.cpp:157] Top shape: 100 96 30 30 (8640000)
I0815 12:28:45.490967 18431 net.cpp:165] Memory required for data: 88782000
I0815 12:28:45.490972 18431 layer_factory.hpp:77] Creating layer norm1
I0815 12:28:45.490985 18431 net.cpp:100] Creating Layer norm1
I0815 12:28:45.490990 18431 net.cpp:434] norm1 <- conv1
I0815 12:28:45.490999 18431 net.cpp:408] norm1 -> norm1
I0815 12:28:45.491868 18431 net.cpp:150] Setting up norm1
I0815 12:28:45.491890 18431 net.cpp:157] Top shape: 100 96 30 30 (8640000)
I0815 12:28:45.491896 18431 net.cpp:165] Memory required for data: 123342000
I0815 12:28:45.491901 18431 layer_factory.hpp:77] Creating layer pool1
I0815 12:28:45.491925 18431 net.cpp:100] Creating Layer pool1
I0815 12:28:45.491932 18431 net.cpp:434] pool1 <- norm1
I0815 12:28:45.491942 18431 net.cpp:408] pool1 -> pool1
I0815 12:28:45.492012 18431 net.cpp:150] Setting up pool1
I0815 12:28:45.492023 18431 net.cpp:157] Top shape: 100 96 15 15 (2160000)
I0815 12:28:45.492028 18431 net.cpp:165] Memory required for data: 131982000
I0815 12:28:45.492034 18431 layer_factory.hpp:77] Creating layer conv2
I0815 12:28:45.492050 18431 net.cpp:100] Creating Layer conv2
I0815 12:28:45.492058 18431 net.cpp:434] conv2 <- pool1
I0815 12:28:45.492068 18431 net.cpp:408] conv2 -> conv2
I0815 12:28:45.504171 18431 net.cpp:150] Setting up conv2
I0815 12:28:45.504201 18431 net.cpp:157] Top shape: 100 256 15 15 (5760000)
I0815 12:28:45.504207 18431 net.cpp:165] Memory required for data: 155022000
I0815 12:28:45.504226 18431 layer_factory.hpp:77] Creating layer relu2
I0815 12:28:45.504252 18431 net.cpp:100] Creating Layer relu2
I0815 12:28:45.504258 18431 net.cpp:434] relu2 <- conv2
I0815 12:28:45.504271 18431 net.cpp:395] relu2 -> conv2 (in-place)
I0815 12:28:45.505121 18431 net.cpp:150] Setting up relu2
I0815 12:28:45.505146 18431 net.cpp:157] Top shape: 100 256 15 15 (5760000)
I0815 12:28:45.505151 18431 net.cpp:165] Memory required for data: 178062000
I0815 12:28:45.505157 18431 layer_factory.hpp:77] Creating layer norm2
I0815 12:28:45.505175 18431 net.cpp:100] Creating Layer norm2
I0815 12:28:45.505183 18431 net.cpp:434] norm2 <- conv2
I0815 12:28:45.505195 18431 net.cpp:408] norm2 -> norm2
I0815 12:28:45.505599 18431 net.cpp:150] Setting up norm2
I0815 12:28:45.505614 18431 net.cpp:157] Top shape: 100 256 15 15 (5760000)
I0815 12:28:45.505620 18431 net.cpp:165] Memory required for data: 201102000
I0815 12:28:45.505626 18431 layer_factory.hpp:77] Creating layer pool2
I0815 12:28:45.505638 18431 net.cpp:100] Creating Layer pool2
I0815 12:28:45.505645 18431 net.cpp:434] pool2 <- norm2
I0815 12:28:45.505656 18431 net.cpp:408] pool2 -> pool2
I0815 12:28:45.505724 18431 net.cpp:150] Setting up pool2
I0815 12:28:45.505739 18431 net.cpp:157] Top shape: 100 256 7 7 (1254400)
I0815 12:28:45.505744 18431 net.cpp:165] Memory required for data: 206119600
I0815 12:28:45.505749 18431 layer_factory.hpp:77] Creating layer conv3
I0815 12:28:45.505774 18431 net.cpp:100] Creating Layer conv3
I0815 12:28:45.505782 18431 net.cpp:434] conv3 <- pool2
I0815 12:28:45.505794 18431 net.cpp:408] conv3 -> conv3
I0815 12:28:45.528689 18431 net.cpp:150] Setting up conv3
I0815 12:28:45.528724 18431 net.cpp:157] Top shape: 100 384 7 7 (1881600)
I0815 12:28:45.528730 18431 net.cpp:165] Memory required for data: 213646000
I0815 12:28:45.528753 18431 layer_factory.hpp:77] Creating layer relu3
I0815 12:28:45.528767 18431 net.cpp:100] Creating Layer relu3
I0815 12:28:45.528774 18431 net.cpp:434] relu3 <- conv3
I0815 12:28:45.528784 18431 net.cpp:395] relu3 -> conv3 (in-place)
I0815 12:28:45.529115 18431 net.cpp:150] Setting up relu3
I0815 12:28:45.529130 18431 net.cpp:157] Top shape: 100 384 7 7 (1881600)
I0815 12:28:45.529135 18431 net.cpp:165] Memory required for data: 221172400
I0815 12:28:45.529139 18431 layer_factory.hpp:77] Creating layer conv4
I0815 12:28:45.529156 18431 net.cpp:100] Creating Layer conv4
I0815 12:28:45.529161 18431 net.cpp:434] conv4 <- conv3
I0815 12:28:45.529173 18431 net.cpp:408] conv4 -> conv4
I0815 12:28:45.546546 18431 net.cpp:150] Setting up conv4
I0815 12:28:45.546587 18431 net.cpp:157] Top shape: 100 384 7 7 (1881600)
I0815 12:28:45.546592 18431 net.cpp:165] Memory required for data: 228698800
I0815 12:28:45.546608 18431 layer_factory.hpp:77] Creating layer relu4
I0815 12:28:45.546623 18431 net.cpp:100] Creating Layer relu4
I0815 12:28:45.546629 18431 net.cpp:434] relu4 <- conv4
I0815 12:28:45.546638 18431 net.cpp:395] relu4 -> conv4 (in-place)
I0815 12:28:45.547391 18431 net.cpp:150] Setting up relu4
I0815 12:28:45.547411 18431 net.cpp:157] Top shape: 100 384 7 7 (1881600)
I0815 12:28:45.547416 18431 net.cpp:165] Memory required for data: 236225200
I0815 12:28:45.547420 18431 layer_factory.hpp:77] Creating layer conv5
I0815 12:28:45.547440 18431 net.cpp:100] Creating Layer conv5
I0815 12:28:45.547446 18431 net.cpp:434] conv5 <- conv4
I0815 12:28:45.547458 18431 net.cpp:408] conv5 -> conv5
I0815 12:28:45.559564 18431 net.cpp:150] Setting up conv5
I0815 12:28:45.559599 18431 net.cpp:157] Top shape: 100 256 7 7 (1254400)
I0815 12:28:45.559607 18431 net.cpp:165] Memory required for data: 241242800
I0815 12:28:45.559626 18431 layer_factory.hpp:77] Creating layer relu5
I0815 12:28:45.559638 18431 net.cpp:100] Creating Layer relu5
I0815 12:28:45.559643 18431 net.cpp:434] relu5 <- conv5
I0815 12:28:45.559651 18431 net.cpp:395] relu5 -> conv5 (in-place)
I0815 12:28:45.559947 18431 net.cpp:150] Setting up relu5
I0815 12:28:45.559962 18431 net.cpp:157] Top shape: 100 256 7 7 (1254400)
I0815 12:28:45.559965 18431 net.cpp:165] Memory required for data: 246260400
I0815 12:28:45.559970 18431 layer_factory.hpp:77] Creating layer pool5
I0815 12:28:45.559988 18431 net.cpp:100] Creating Layer pool5
I0815 12:28:45.559993 18431 net.cpp:434] pool5 <- conv5
I0815 12:28:45.559999 18431 net.cpp:408] pool5 -> pool5
I0815 12:28:45.560076 18431 net.cpp:150] Setting up pool5
I0815 12:28:45.560087 18431 net.cpp:157] Top shape: 100 256 3 3 (230400)
I0815 12:28:45.560091 18431 net.cpp:165] Memory required for data: 247182000
I0815 12:28:45.560096 18431 layer_factory.hpp:77] Creating layer fc6
I0815 12:28:45.560108 18431 net.cpp:100] Creating Layer fc6
I0815 12:28:45.560113 18431 net.cpp:434] fc6 <- pool5
I0815 12:28:45.560122 18431 net.cpp:408] fc6 -> fc6
I0815 12:28:45.698619 18431 net.cpp:150] Setting up fc6
I0815 12:28:45.698662 18431 net.cpp:157] Top shape: 100 4096 (409600)
I0815 12:28:45.698667 18431 net.cpp:165] Memory required for data: 248820400
I0815 12:28:45.698678 18431 layer_factory.hpp:77] Creating layer relu6
I0815 12:28:45.698690 18431 net.cpp:100] Creating Layer relu6
I0815 12:28:45.698694 18431 net.cpp:434] relu6 <- fc6
I0815 12:28:45.698704 18431 net.cpp:395] relu6 -> fc6 (in-place)
I0815 12:28:45.698982 18431 net.cpp:150] Setting up relu6
I0815 12:28:45.698992 18431 net.cpp:157] Top shape: 100 4096 (409600)
I0815 12:28:45.698994 18431 net.cpp:165] Memory required for data: 250458800
I0815 12:28:45.698997 18431 layer_factory.hpp:77] Creating layer drop6
I0815 12:28:45.699005 18431 net.cpp:100] Creating Layer drop6
I0815 12:28:45.699009 18431 net.cpp:434] drop6 <- fc6
I0815 12:28:45.699013 18431 net.cpp:395] drop6 -> fc6 (in-place)
I0815 12:28:45.699053 18431 net.cpp:150] Setting up drop6
I0815 12:28:45.699059 18431 net.cpp:157] Top shape: 100 4096 (409600)
I0815 12:28:45.699062 18431 net.cpp:165] Memory required for data: 252097200
I0815 12:28:45.699065 18431 layer_factory.hpp:77] Creating layer fc7
I0815 12:28:45.699074 18431 net.cpp:100] Creating Layer fc7
I0815 12:28:45.699076 18431 net.cpp:434] fc7 <- fc6
I0815 12:28:45.699084 18431 net.cpp:408] fc7 -> fc7
I0815 12:28:45.930560 18431 net.cpp:150] Setting up fc7
I0815 12:28:45.930608 18431 net.cpp:157] Top shape: 100 4096 (409600)
I0815 12:28:45.930611 18431 net.cpp:165] Memory required for data: 253735600
I0815 12:28:45.930624 18431 layer_factory.hpp:77] Creating layer relu7
I0815 12:28:45.930639 18431 net.cpp:100] Creating Layer relu7
I0815 12:28:45.930644 18431 net.cpp:434] relu7 <- fc7
I0815 12:28:45.930651 18431 net.cpp:395] relu7 -> fc7 (in-place)
I0815 12:28:45.931411 18431 net.cpp:150] Setting up relu7
I0815 12:28:45.931426 18431 net.cpp:157] Top shape: 100 4096 (409600)
I0815 12:28:45.931428 18431 net.cpp:165] Memory required for data: 255374000
I0815 12:28:45.931433 18431 layer_factory.hpp:77] Creating layer drop7
I0815 12:28:45.931447 18431 net.cpp:100] Creating Layer drop7
I0815 12:28:45.931452 18431 net.cpp:434] drop7 <- fc7
I0815 12:28:45.931457 18431 net.cpp:395] drop7 -> fc7 (in-place)
I0815 12:28:45.931496 18431 net.cpp:150] Setting up drop7
I0815 12:28:45.931504 18431 net.cpp:157] Top shape: 100 4096 (409600)
I0815 12:28:45.931507 18431 net.cpp:165] Memory required for data: 257012400
I0815 12:28:45.931510 18431 layer_factory.hpp:77] Creating layer fc8
I0815 12:28:45.931521 18431 net.cpp:100] Creating Layer fc8
I0815 12:28:45.931524 18431 net.cpp:434] fc8 <- fc7
I0815 12:28:45.931529 18431 net.cpp:408] fc8 -> fc8
I0815 12:28:45.931768 18431 net.cpp:150] Setting up fc8
I0815 12:28:45.931779 18431 net.cpp:157] Top shape: 100 2 (200)
I0815 12:28:45.931782 18431 net.cpp:165] Memory required for data: 257013200
I0815 12:28:45.931788 18431 layer_factory.hpp:77] Creating layer fc8_fc8_0_split
I0815 12:28:45.931794 18431 net.cpp:100] Creating Layer fc8_fc8_0_split
I0815 12:28:45.931797 18431 net.cpp:434] fc8_fc8_0_split <- fc8
I0815 12:28:45.931802 18431 net.cpp:408] fc8_fc8_0_split -> fc8_fc8_0_split_0
I0815 12:28:45.931808 18431 net.cpp:408] fc8_fc8_0_split -> fc8_fc8_0_split_1
I0815 12:28:45.931852 18431 net.cpp:150] Setting up fc8_fc8_0_split
I0815 12:28:45.931859 18431 net.cpp:157] Top shape: 100 2 (200)
I0815 12:28:45.931862 18431 net.cpp:157] Top shape: 100 2 (200)
I0815 12:28:45.931864 18431 net.cpp:165] Memory required for data: 257014800
I0815 12:28:45.931867 18431 layer_factory.hpp:77] Creating layer accuracy
I0815 12:28:45.931874 18431 net.cpp:100] Creating Layer accuracy
I0815 12:28:45.931877 18431 net.cpp:434] accuracy <- fc8_fc8_0_split_0
I0815 12:28:45.931881 18431 net.cpp:434] accuracy <- label_mnist_1_split_0
I0815 12:28:45.931888 18431 net.cpp:408] accuracy -> accuracy
…
