…
I0815 10:51:18.871305 17551 net.cpp:322] The NetState phase (0) differed from the phase (1) specified by a rule in layer accuracy
I0815 10:51:18.871443 17551 net.cpp:58] Initializing net from parameters: 
name: "AlexNet"
state {
  phase: TRAIN
}
layer {
  name: "mnist"
  type: "Data"
  top: "data"
  top: "label"
  include {
    phase: TRAIN
  }
  transform_param {
    scale: 0.00390625
    mirror: true
    mean_file: "data/person_only_lmdb/person_background_only_color_mean.binaryproto"
  }
  data_param {
    source: "data/person_only_lmdb/person_background_only_train_lmdb"
    batch_size: 128
    backend: LMDB
  }
}
layer {
  name: "conv1"
  type: "Convolution"
  bottom: "data"
  top: "conv1"
  param {
    lr_mult: 1
    decay_mult: 1
  }
  param {
    lr_mult: 2
    decay_mult: 0
  }
  convolution_param {
    num_output: 96
    kernel_size: 11
    stride: 4
    weight_filler {
      type: "gaussian"
      std: 0.01
    }
    bias_filler {
      type: "constant"
      value: 0
    }
  }
}
layer {
  name: "relu1"
  type: "ReLU"
  bottom: "conv1"
  top: "conv1"
}
layer {
  name: "norm1"
  type: "LRN"
  bottom: "conv1"
  top: "norm1"
  lrn_param {
    local_size: 5
    alpha: 0.0001
    beta: 0.75
  }
}
layer {
  name: "pool1"
  type: "Pooling"
  bottom: "norm1"
  top: "pool1"
  pooling_param {
    pool: MAX
    kernel_size: 3
    stride: 2
  }
}
layer {
  name: "conv2"
  type: "Convolution"
  bottom: "pool1"
  top: "conv2"
  param {
    lr_mult: 1
    decay_mult: 1
  }
  param {
    lr_mult: 2
    decay_mult: 0
  }
  convolution_param {
    num_output: 256
    pad: 2
    kernel_size: 5
    group: 2
    weight_filler {
      type: "gaussian"
      std: 0.01
    }
    bias_filler {
      type: "constant"
      value: 0.1
    }
  }
}
layer {
  name: "relu2"
  type: "ReLU"
  bottom: "conv2"
  top: "conv2"
}
layer {
  name: "norm2"
  type: "LRN"
  bottom: "conv2"
  top: "norm2"
  lrn_param {
    local_size: 5
    alpha: 0.0001
    beta: 0.75
  }
}
layer {
  name: "pool2"
  type: "Pooling"
  bottom: "norm2"
  top: "pool2"
  pooling_param {
    pool: MAX
    kernel_size: 3
    stride: 2
  }
}
layer {
  name: "conv3"
  type: "Convolution"
  bottom: "pool2"
  top: "conv3"
  param {
    lr_mult: 1
    decay_mult: 1
  }
  param {
    lr_mult: 2
    decay_mult: 0
  }
  convolution_param {
    num_output: 384
    pad: 1
    kernel_size: 3
    weight_filler {
      type: "gaussian"
      std: 0.01
    }
    bias_filler {
      type: "constant"
      value: 0
    }
  }
}
layer {
  name: "relu3"
  type: "ReLU"
  bottom: "conv3"
  top: "conv3"
}
layer {
  name: "conv4"
  type: "Convolution"
  bottom: "conv3"
  top: "conv4"
  param {
    lr_mult: 1
    decay_mult: 1
  }
  param {
    lr_mult: 2
    decay_mult: 0
  }
  convolution_param {
    num_output: 384
    pad: 1
    kernel_size: 3
    group: 2
    weight_filler {
      type: "gaussian"
      std: 0.01
    }
    bias_filler {
      type: "constant"
      value: 0.1
    }
  }
}
layer {
  name: "relu4"
  type: "ReLU"
  bottom: "conv4"
  top: "conv4"
}
layer {
  name: "conv5"
  type: "Convolution"
  bottom: "conv4"
  top: "conv5"
  param {
    lr_mult: 1
    decay_mult: 1
  }
  param {
    lr_mult: 2
    decay_mult: 0
  }
  convolution_param {
    num_output: 256
    pad: 1
    kernel_size: 3
    group: 2
    weight_filler {
      type: "gaussian"
      std: 0.01
    }
    bias_filler {
      type: "constant"
      value: 0.1
    }
  }
}
layer {
  name: "relu5"
  type: "ReLU"
  bottom: "conv5"
  top: "conv5"
}
layer {
  name: "pool5"
  type: "Pooling"
  bottom: "conv5"
  top: "pool5"
  pooling_param {
    pool: MAX
    kernel_size: 3
    stride: 2
  }
}
layer {
  name: "fc6"
  type: "InnerProduct"
  bottom: "pool5"
  top: "fc6"
  param {
    lr_mult: 1
    decay_mult: 1
  }
  param {
    lr_mult: 2
    decay_mult: 0
  }
  inner_product_param {
    num_output: 4096
    weight_filler {
      type: "gaussian"
      std: 0.005
    }
    bias_filler {
      type: "constant"
      value: 0.1
    }
  }
}
layer {
  name: "relu6"
  type: "ReLU"
  bottom: "fc6"
  top: "fc6"
}
layer {
  name: "drop6"
  type: "Dropout"
  bottom: "fc6"
  top: "fc6"
  dropout_param {
    dropout_ratio: 0.5
  }
}
layer {
  name: "fc7"
  type: "InnerProduct"
  bottom: "fc6"
  top: "fc7"
  param {
    lr_mult: 1
    decay_mult: 1
  }
  param {
    lr_mult: 2
    decay_mult: 0
  }
  inner_product_param {
    num_output: 4096
    weight_filler {
      type: "gaussian"
      std: 0.005
    }
    bias_filler {
      type: "constant"
      value: 0.1
    }
  }
}
layer {
  name: "relu7"
  type: "ReLU"
  bottom: "fc7"
  top: "fc7"
}
layer {
  name: "drop7"
  type: "Dropout"
  bottom: "fc7"
  top: "fc7"
  dropout_param {
    dropout_ratio: 0.5
  }
}
layer {
  name: "fc8"
  type: "InnerProduct"
  bottom: "fc7"
  top: "fc8"
  param {
    lr_mult: 1
    decay_mult: 1
  }
  param {
    lr_mult: 2
    decay_mult: 0
  }
  inner_product_param {
    num_output: 2
    weight_filler {
      type: "gaussian"
      std: 0.01
    }
    bias_filler {
      type: "constant"
      value: 0
    }
  }
}
layer {
  name: "loss"
  type: "SoftmaxWithLoss"
  bottom: "fc8"
  bottom: "label"
  top: "loss"
}
I0815 10:51:18.871522 17551 layer_factory.hpp:77] Creating layer mnist
I0815 10:51:18.872501 17551 net.cpp:100] Creating Layer mnist
I0815 10:51:18.872515 17551 net.cpp:408] mnist -> data
I0815 10:51:18.872529 17551 net.cpp:408] mnist -> label
I0815 10:51:18.872537 17551 data_transformer.cpp:25] Loading mean file from: data/person_only_lmdb/person_background_only_color_mean.binaryproto
I0815 10:51:18.874092 17562 db_lmdb.cpp:35] Opened lmdb data/person_only_lmdb/person_background_only_train_lmdb
I0815 10:51:18.908128 17551 data_layer.cpp:41] output data size: 128,3,128,128
I0815 10:51:18.980187 17551 net.cpp:150] Setting up mnist
I0815 10:51:18.980228 17551 net.cpp:157] Top shape: 128 3 128 128 (6291456)
I0815 10:51:18.980235 17551 net.cpp:157] Top shape: 128 (128)
I0815 10:51:18.980238 17551 net.cpp:165] Memory required for data: 25166336
I0815 10:51:18.980247 17551 layer_factory.hpp:77] Creating layer conv1
I0815 10:51:18.980273 17551 net.cpp:100] Creating Layer conv1
I0815 10:51:18.980278 17551 net.cpp:434] conv1 <- data
I0815 10:51:18.980288 17551 net.cpp:408] conv1 -> conv1
I0815 10:51:19.269789 17551 net.cpp:150] Setting up conv1
I0815 10:51:19.269830 17551 net.cpp:157] Top shape: 128 96 30 30 (11059200)
I0815 10:51:19.269835 17551 net.cpp:165] Memory required for data: 69403136
I0815 10:51:19.269853 17551 layer_factory.hpp:77] Creating layer relu1
I0815 10:51:19.269870 17551 net.cpp:100] Creating Layer relu1
I0815 10:51:19.269875 17551 net.cpp:434] relu1 <- conv1
I0815 10:51:19.269881 17551 net.cpp:395] relu1 -> conv1 (in-place)
I0815 10:51:19.270066 17551 net.cpp:150] Setting up relu1
I0815 10:51:19.270078 17551 net.cpp:157] Top shape: 128 96 30 30 (11059200)
I0815 10:51:19.270081 17551 net.cpp:165] Memory required for data: 113639936
I0815 10:51:19.270084 17551 layer_factory.hpp:77] Creating layer norm1
I0815 10:51:19.270094 17551 net.cpp:100] Creating Layer norm1
I0815 10:51:19.270097 17551 net.cpp:434] norm1 <- conv1
I0815 10:51:19.270102 17551 net.cpp:408] norm1 -> norm1
I0815 10:51:19.270594 17551 net.cpp:150] Setting up norm1
I0815 10:51:19.270609 17551 net.cpp:157] Top shape: 128 96 30 30 (11059200)
I0815 10:51:19.270613 17551 net.cpp:165] Memory required for data: 157876736
I0815 10:51:19.270617 17551 layer_factory.hpp:77] Creating layer pool1
I0815 10:51:19.270625 17551 net.cpp:100] Creating Layer pool1
I0815 10:51:19.270629 17551 net.cpp:434] pool1 <- norm1
I0815 10:51:19.270634 17551 net.cpp:408] pool1 -> pool1
I0815 10:51:19.270675 17551 net.cpp:150] Setting up pool1
I0815 10:51:19.270681 17551 net.cpp:157] Top shape: 128 96 15 15 (2764800)
I0815 10:51:19.270684 17551 net.cpp:165] Memory required for data: 168935936
I0815 10:51:19.270687 17551 layer_factory.hpp:77] Creating layer conv2
I0815 10:51:19.270700 17551 net.cpp:100] Creating Layer conv2
I0815 10:51:19.270719 17551 net.cpp:434] conv2 <- pool1
I0815 10:51:19.270723 17551 net.cpp:408] conv2 -> conv2
I0815 10:51:19.276955 17551 net.cpp:150] Setting up conv2
I0815 10:51:19.276973 17551 net.cpp:157] Top shape: 128 256 15 15 (7372800)
I0815 10:51:19.276976 17551 net.cpp:165] Memory required for data: 198427136
I0815 10:51:19.276985 17551 layer_factory.hpp:77] Creating layer relu2
I0815 10:51:19.276993 17551 net.cpp:100] Creating Layer relu2
I0815 10:51:19.276995 17551 net.cpp:434] relu2 <- conv2
I0815 10:51:19.277001 17551 net.cpp:395] relu2 -> conv2 (in-place)
I0815 10:51:19.277459 17551 net.cpp:150] Setting up relu2
I0815 10:51:19.277474 17551 net.cpp:157] Top shape: 128 256 15 15 (7372800)
I0815 10:51:19.277477 17551 net.cpp:165] Memory required for data: 227918336
I0815 10:51:19.277480 17551 layer_factory.hpp:77] Creating layer norm2
I0815 10:51:19.277488 17551 net.cpp:100] Creating Layer norm2
I0815 10:51:19.277492 17551 net.cpp:434] norm2 <- conv2
I0815 10:51:19.277496 17551 net.cpp:408] norm2 -> norm2
I0815 10:51:19.277696 17551 net.cpp:150] Setting up norm2
I0815 10:51:19.277709 17551 net.cpp:157] Top shape: 128 256 15 15 (7372800)
I0815 10:51:19.277711 17551 net.cpp:165] Memory required for data: 257409536
I0815 10:51:19.277714 17551 layer_factory.hpp:77] Creating layer pool2
I0815 10:51:19.277722 17551 net.cpp:100] Creating Layer pool2
I0815 10:51:19.277725 17551 net.cpp:434] pool2 <- norm2
I0815 10:51:19.277730 17551 net.cpp:408] pool2 -> pool2
I0815 10:51:19.277766 17551 net.cpp:150] Setting up pool2
I0815 10:51:19.277775 17551 net.cpp:157] Top shape: 128 256 7 7 (1605632)
I0815 10:51:19.277777 17551 net.cpp:165] Memory required for data: 263832064
I0815 10:51:19.277779 17551 layer_factory.hpp:77] Creating layer conv3
I0815 10:51:19.277789 17551 net.cpp:100] Creating Layer conv3
I0815 10:51:19.277792 17551 net.cpp:434] conv3 <- pool2
I0815 10:51:19.277798 17551 net.cpp:408] conv3 -> conv3
I0815 10:51:19.291111 17551 net.cpp:150] Setting up conv3
I0815 10:51:19.291128 17551 net.cpp:157] Top shape: 128 384 7 7 (2408448)
I0815 10:51:19.291131 17551 net.cpp:165] Memory required for data: 273465856
I0815 10:51:19.291142 17551 layer_factory.hpp:77] Creating layer relu3
I0815 10:51:19.291148 17551 net.cpp:100] Creating Layer relu3
I0815 10:51:19.291152 17551 net.cpp:434] relu3 <- conv3
I0815 10:51:19.291157 17551 net.cpp:395] relu3 -> conv3 (in-place)
I0815 10:51:19.291342 17551 net.cpp:150] Setting up relu3
I0815 10:51:19.291352 17551 net.cpp:157] Top shape: 128 384 7 7 (2408448)
I0815 10:51:19.291355 17551 net.cpp:165] Memory required for data: 283099648
I0815 10:51:19.291358 17551 layer_factory.hpp:77] Creating layer conv4
I0815 10:51:19.291370 17551 net.cpp:100] Creating Layer conv4
I0815 10:51:19.291373 17551 net.cpp:434] conv4 <- conv3
I0815 10:51:19.291379 17551 net.cpp:408] conv4 -> conv4
I0815 10:51:19.302636 17551 net.cpp:150] Setting up conv4
I0815 10:51:19.302654 17551 net.cpp:157] Top shape: 128 384 7 7 (2408448)
I0815 10:51:19.302659 17551 net.cpp:165] Memory required for data: 292733440
I0815 10:51:19.302665 17551 layer_factory.hpp:77] Creating layer relu4
I0815 10:51:19.302671 17551 net.cpp:100] Creating Layer relu4
I0815 10:51:19.302675 17551 net.cpp:434] relu4 <- conv4
I0815 10:51:19.302680 17551 net.cpp:395] relu4 -> conv4 (in-place)
I0815 10:51:19.302884 17551 net.cpp:150] Setting up relu4
I0815 10:51:19.302897 17551 net.cpp:157] Top shape: 128 384 7 7 (2408448)
I0815 10:51:19.302901 17551 net.cpp:165] Memory required for data: 302367232
I0815 10:51:19.302903 17551 layer_factory.hpp:77] Creating layer conv5
I0815 10:51:19.302916 17551 net.cpp:100] Creating Layer conv5
I0815 10:51:19.302918 17551 net.cpp:434] conv5 <- conv4
I0815 10:51:19.302927 17551 net.cpp:408] conv5 -> conv5
I0815 10:51:19.311440 17551 net.cpp:150] Setting up conv5
I0815 10:51:19.311457 17551 net.cpp:157] Top shape: 128 256 7 7 (1605632)
I0815 10:51:19.311462 17551 net.cpp:165] Memory required for data: 308789760
I0815 10:51:19.311472 17551 layer_factory.hpp:77] Creating layer relu5
I0815 10:51:19.311480 17551 net.cpp:100] Creating Layer relu5
I0815 10:51:19.311485 17551 net.cpp:434] relu5 <- conv5
I0815 10:51:19.311489 17551 net.cpp:395] relu5 -> conv5 (in-place)
I0815 10:51:19.311691 17551 net.cpp:150] Setting up relu5
I0815 10:51:19.311702 17551 net.cpp:157] Top shape: 128 256 7 7 (1605632)
I0815 10:51:19.311705 17551 net.cpp:165] Memory required for data: 315212288
I0815 10:51:19.311709 17551 layer_factory.hpp:77] Creating layer pool5
I0815 10:51:19.311719 17551 net.cpp:100] Creating Layer pool5
I0815 10:51:19.311723 17551 net.cpp:434] pool5 <- conv5
I0815 10:51:19.311728 17551 net.cpp:408] pool5 -> pool5
I0815 10:51:19.311777 17551 net.cpp:150] Setting up pool5
I0815 10:51:19.311784 17551 net.cpp:157] Top shape: 128 256 3 3 (294912)
I0815 10:51:19.311787 17551 net.cpp:165] Memory required for data: 316391936
I0815 10:51:19.311790 17551 layer_factory.hpp:77] Creating layer fc6
I0815 10:51:19.311802 17551 net.cpp:100] Creating Layer fc6
I0815 10:51:19.311805 17551 net.cpp:434] fc6 <- pool5
I0815 10:51:19.311811 17551 net.cpp:408] fc6 -> fc6
I0815 10:51:19.443399 17551 net.cpp:150] Setting up fc6
I0815 10:51:19.443434 17551 net.cpp:157] Top shape: 128 4096 (524288)
I0815 10:51:19.443439 17551 net.cpp:165] Memory required for data: 318489088
I0815 10:51:19.443450 17551 layer_factory.hpp:77] Creating layer relu6
I0815 10:51:19.443461 17551 net.cpp:100] Creating Layer relu6
I0815 10:51:19.443465 17551 net.cpp:434] relu6 <- fc6
I0815 10:51:19.443475 17551 net.cpp:395] relu6 -> fc6 (in-place)
I0815 10:51:19.444068 17551 net.cpp:150] Setting up relu6
I0815 10:51:19.444084 17551 net.cpp:157] Top shape: 128 4096 (524288)
I0815 10:51:19.444087 17551 net.cpp:165] Memory required for data: 320586240
I0815 10:51:19.444090 17551 layer_factory.hpp:77] Creating layer drop6
I0815 10:51:19.444102 17551 net.cpp:100] Creating Layer drop6
I0815 10:51:19.444104 17551 net.cpp:434] drop6 <- fc6
I0815 10:51:19.444109 17551 net.cpp:395] drop6 -> fc6 (in-place)
I0815 10:51:19.444139 17551 net.cpp:150] Setting up drop6
I0815 10:51:19.444145 17551 net.cpp:157] Top shape: 128 4096 (524288)
I0815 10:51:19.444149 17551 net.cpp:165] Memory required for data: 322683392
I0815 10:51:19.444151 17551 layer_factory.hpp:77] Creating layer fc7
I0815 10:51:19.444161 17551 net.cpp:100] Creating Layer fc7
I0815 10:51:19.444164 17551 net.cpp:434] fc7 <- fc6
I0815 10:51:19.444171 17551 net.cpp:408] fc7 -> fc7
I0815 10:51:19.677310 17551 net.cpp:150] Setting up fc7
I0815 10:51:19.677363 17551 net.cpp:157] Top shape: 128 4096 (524288)
I0815 10:51:19.677367 17551 net.cpp:165] Memory required for data: 324780544
I0815 10:51:19.677381 17551 layer_factory.hpp:77] Creating layer relu7
I0815 10:51:19.677399 17551 net.cpp:100] Creating Layer relu7
I0815 10:51:19.677404 17551 net.cpp:434] relu7 <- fc7
I0815 10:51:19.677414 17551 net.cpp:395] relu7 -> fc7 (in-place)
I0815 10:51:19.677775 17551 net.cpp:150] Setting up relu7
I0815 10:51:19.677789 17551 net.cpp:157] Top shape: 128 4096 (524288)
I0815 10:51:19.677793 17551 net.cpp:165] Memory required for data: 326877696
I0815 10:51:19.677795 17551 layer_factory.hpp:77] Creating layer drop7
I0815 10:51:19.677806 17551 net.cpp:100] Creating Layer drop7
I0815 10:51:19.677809 17551 net.cpp:434] drop7 <- fc7
I0815 10:51:19.677814 17551 net.cpp:395] drop7 -> fc7 (in-place)
I0815 10:51:19.677844 17551 net.cpp:150] Setting up drop7
I0815 10:51:19.677852 17551 net.cpp:157] Top shape: 128 4096 (524288)
I0815 10:51:19.677855 17551 net.cpp:165] Memory required for data: 328974848
I0815 10:51:19.677858 17551 layer_factory.hpp:77] Creating layer fc8
I0815 10:51:19.677870 17551 net.cpp:100] Creating Layer fc8
I0815 10:51:19.677872 17551 net.cpp:434] fc8 <- fc7
I0815 10:51:19.677878 17551 net.cpp:408] fc8 -> fc8
I0815 10:51:19.679492 17551 net.cpp:150] Setting up fc8
I0815 10:51:19.679507 17551 net.cpp:157] Top shape: 128 2 (256)
I0815 10:51:19.679509 17551 net.cpp:165] Memory required for data: 328975872
I0815 10:51:19.679517 17551 layer_factory.hpp:77] Creating layer loss
I0815 10:51:19.679527 17551 net.cpp:100] Creating Layer loss
I0815 10:51:19.679530 17551 net.cpp:434] loss <- fc8
I0815 10:51:19.679534 17551 net.cpp:434] loss <- label
I0815 10:51:19.679543 17551 net.cpp:408] loss -> loss
I0815 10:51:19.679551 17551 layer_factory.hpp:77] Creating layer loss
…
I0815 10:51:19.680452 17551 net.cpp:322] The NetState phase (1) differed from the phase (0) specified by a rule in layer mnist
I0815 10:51:19.680629 17551 net.cpp:58] Initializing net from parameters: 
name: "AlexNet"
state {
  phase: TEST
}
layer {
  name: "mnist"
  type: "Data"
  top: "data"
  top: "label"
  include {
    phase: TEST
  }
  transform_param {
    scale: 0.00390625
    mirror: false
    mean_file: "data/person_only_lmdb/person_background_only_color_mean.binaryproto"
  }
  data_param {
    source: "data/person_only_lmdb/person_background_only_test_lmdb"
    batch_size: 100
    backend: LMDB
  }
}
layer {
  name: "conv1"
  type: "Convolution"
  bottom: "data"
  top: "conv1"
  param {
    lr_mult: 1
    decay_mult: 1
  }
  param {
    lr_mult: 2
    decay_mult: 0
  }
  convolution_param {
    num_output: 96
    kernel_size: 11
    stride: 4
    weight_filler {
      type: "gaussian"
      std: 0.01
    }
    bias_filler {
      type: "constant"
      value: 0
    }
  }
}
layer {
  name: "relu1"
  type: "ReLU"
  bottom: "conv1"
  top: "conv1"
}
layer {
  name: "norm1"
  type: "LRN"
  bottom: "conv1"
  top: "norm1"
  lrn_param {
    local_size: 5
    alpha: 0.0001
    beta: 0.75
  }
}
layer {
  name: "pool1"
  type: "Pooling"
  bottom: "norm1"
  top: "pool1"
  pooling_param {
    pool: MAX
    kernel_size: 3
    stride: 2
  }
}
layer {
  name: "conv2"
  type: "Convolution"
  bottom: "pool1"
  top: "conv2"
  param {
    lr_mult: 1
    decay_mult: 1
  }
  param {
    lr_mult: 2
    decay_mult: 0
  }
  convolution_param {
    num_output: 256
    pad: 2
    kernel_size: 5
    group: 2
    weight_filler {
      type: "gaussian"
      std: 0.01
    }
    bias_filler {
      type: "constant"
      value: 0.1
    }
  }
}
layer {
  name: "relu2"
  type: "ReLU"
  bottom: "conv2"
  top: "conv2"
}
layer {
  name: "norm2"
  type: "LRN"
  bottom: "conv2"
  top: "norm2"
  lrn_param {
    local_size: 5
    alpha: 0.0001
    beta: 0.75
  }
}
layer {
  name: "pool2"
  type: "Pooling"
  bottom: "norm2"
  top: "pool2"
  pooling_param {
    pool: MAX
    kernel_size: 3
    stride: 2
  }
}
layer {
  name: "conv3"
  type: "Convolution"
  bottom: "pool2"
  top: "conv3"
  param {
    lr_mult: 1
    decay_mult: 1
  }
  param {
    lr_mult: 2
    decay_mult: 0
  }
  convolution_param {
    num_output: 384
    pad: 1
    kernel_size: 3
    weight_filler {
      type: "gaussian"
      std: 0.01
    }
    bias_filler {
      type: "constant"
      value: 0
    }
  }
}
layer {
  name: "relu3"
  type: "ReLU"
  bottom: "conv3"
  top: "conv3"
}
layer {
  name: "conv4"
  type: "Convolution"
  bottom: "conv3"
  top: "conv4"
  param {
    lr_mult: 1
    decay_mult: 1
  }
  param {
    lr_mult: 2
    decay_mult: 0
  }
  convolution_param {
    num_output: 384
    pad: 1
    kernel_size: 3
    group: 2
    weight_filler {
      type: "gaussian"
      std: 0.01
    }
    bias_filler {
      type: "constant"
      value: 0.1
    }
  }
}
layer {
  name: "relu4"
  type: "ReLU"
  bottom: "conv4"
  top: "conv4"
}
layer {
  name: "conv5"
  type: "Convolution"
  bottom: "conv4"
  top: "conv5"
  param {
    lr_mult: 1
    decay_mult: 1
  }
  param {
    lr_mult: 2
    decay_mult: 0
  }
  convolution_param {
    num_output: 256
    pad: 1
    kernel_size: 3
    group: 2
    weight_filler {
      type: "gaussian"
      std: 0.01
    }
    bias_filler {
      type: "constant"
      value: 0.1
    }
  }
}
layer {
  name: "relu5"
  type: "ReLU"
  bottom: "conv5"
  top: "conv5"
}
layer {
  name: "pool5"
  type: "Pooling"
  bottom: "conv5"
  top: "pool5"
  pooling_param {
    pool: MAX
    kernel_size: 3
    stride: 2
  }
}
layer {
  name: "fc6"
  type: "InnerProduct"
  bottom: "pool5"
  top: "fc6"
  param {
    lr_mult: 1
    decay_mult: 1
  }
  param {
    lr_mult: 2
    decay_mult: 0
  }
  inner_product_param {
    num_output: 4096
    weight_filler {
      type: "gaussian"
      std: 0.005
    }
    bias_filler {
      type: "constant"
      value: 0.1
    }
  }
}
layer {
  name: "relu6"
  type: "ReLU"
  bottom: "fc6"
  top: "fc6"
}
layer {
  name: "drop6"
  type: "Dropout"
  bottom: "fc6"
  top: "fc6"
  dropout_param {
    dropout_ratio: 0.5
  }
}
layer {
  name: "fc7"
  type: "InnerProduct"
  bottom: "fc6"
  top: "fc7"
  param {
    lr_mult: 1
    decay_mult: 1
  }
  param {
    lr_mult: 2
    decay_mult: 0
  }
  inner_product_param {
    num_output: 4096
    weight_filler {
      type: "gaussian"
      std: 0.005
    }
    bias_filler {
      type: "constant"
      value: 0.1
    }
  }
}
layer {
  name: "relu7"
  type: "ReLU"
  bottom: "fc7"
  top: "fc7"
}
layer {
  name: "drop7"
  type: "Dropout"
  bottom: "fc7"
  top: "fc7"
  dropout_param {
    dropout_ratio: 0.5
  }
}
layer {
  name: "fc8"
  type: "InnerProduct"
  bottom: "fc7"
  top: "fc8"
  param {
    lr_mult: 1
    decay_mult: 1
  }
  param {
    lr_mult: 2
    decay_mult: 0
  }
  inner_product_param {
    num_output: 2
    weight_filler {
      type: "gaussian"
      std: 0.01
    }
    bias_filler {
      type: "constant"
      value: 0
    }
  }
}
layer {
  name: "accuracy"
  type: "Accuracy"
  bottom: "fc8"
  bottom: "label"
  top: "accuracy"
  include {
    phase: TEST
  }
}
layer {
  name: "loss"
  type: "SoftmaxWithLoss"
  bottom: "fc8"
  bottom: "label"
  top: "loss"
}
I0815 10:51:19.680740 17551 layer_factory.hpp:77] Creating layer mnist
I0815 10:51:19.680889 17551 net.cpp:100] Creating Layer mnist
I0815 10:51:19.680899 17551 net.cpp:408] mnist -> data
I0815 10:51:19.680907 17551 net.cpp:408] mnist -> label
I0815 10:51:19.680915 17551 data_transformer.cpp:25] Loading mean file from: data/person_only_lmdb/person_background_only_color_mean.binaryproto
I0815 10:51:19.682436 17565 db_lmdb.cpp:35] Opened lmdb data/person_only_lmdb/person_background_only_test_lmdb
I0815 10:51:19.682806 17551 data_layer.cpp:41] output data size: 100,3,128,128
I0815 10:51:19.738941 17551 net.cpp:150] Setting up mnist
I0815 10:51:19.738982 17551 net.cpp:157] Top shape: 100 3 128 128 (4915200)
I0815 10:51:19.738991 17551 net.cpp:157] Top shape: 100 (100)
I0815 10:51:19.738996 17551 net.cpp:165] Memory required for data: 19661200
I0815 10:51:19.739006 17551 layer_factory.hpp:77] Creating layer label_mnist_1_split
I0815 10:51:19.739025 17551 net.cpp:100] Creating Layer label_mnist_1_split
I0815 10:51:19.739032 17551 net.cpp:434] label_mnist_1_split <- label
I0815 10:51:19.739042 17551 net.cpp:408] label_mnist_1_split -> label_mnist_1_split_0
I0815 10:51:19.739058 17551 net.cpp:408] label_mnist_1_split -> label_mnist_1_split_1
I0815 10:51:19.739269 17551 net.cpp:150] Setting up label_mnist_1_split
I0815 10:51:19.739303 17551 net.cpp:157] Top shape: 100 (100)
I0815 10:51:19.739315 17551 net.cpp:157] Top shape: 100 (100)
I0815 10:51:19.739320 17551 net.cpp:165] Memory required for data: 19662000
I0815 10:51:19.739327 17551 layer_factory.hpp:77] Creating layer conv1
I0815 10:51:19.739351 17551 net.cpp:100] Creating Layer conv1
I0815 10:51:19.739362 17551 net.cpp:434] conv1 <- data
I0815 10:51:19.739375 17551 net.cpp:408] conv1 -> conv1
I0815 10:51:19.744300 17551 net.cpp:150] Setting up conv1
I0815 10:51:19.744336 17551 net.cpp:157] Top shape: 100 96 30 30 (8640000)
I0815 10:51:19.744343 17551 net.cpp:165] Memory required for data: 54222000
I0815 10:51:19.744364 17551 layer_factory.hpp:77] Creating layer relu1
I0815 10:51:19.744380 17551 net.cpp:100] Creating Layer relu1
I0815 10:51:19.744390 17551 net.cpp:434] relu1 <- conv1
I0815 10:51:19.744400 17551 net.cpp:395] relu1 -> conv1 (in-place)
I0815 10:51:19.744751 17551 net.cpp:150] Setting up relu1
I0815 10:51:19.744771 17551 net.cpp:157] Top shape: 100 96 30 30 (8640000)
I0815 10:51:19.744777 17551 net.cpp:165] Memory required for data: 88782000
I0815 10:51:19.744783 17551 layer_factory.hpp:77] Creating layer norm1
I0815 10:51:19.744799 17551 net.cpp:100] Creating Layer norm1
I0815 10:51:19.744807 17551 net.cpp:434] norm1 <- conv1
I0815 10:51:19.744817 17551 net.cpp:408] norm1 -> norm1
I0815 10:51:19.745744 17551 net.cpp:150] Setting up norm1
I0815 10:51:19.745774 17551 net.cpp:157] Top shape: 100 96 30 30 (8640000)
I0815 10:51:19.745780 17551 net.cpp:165] Memory required for data: 123342000
I0815 10:51:19.745786 17551 layer_factory.hpp:77] Creating layer pool1
I0815 10:51:19.745800 17551 net.cpp:100] Creating Layer pool1
I0815 10:51:19.745807 17551 net.cpp:434] pool1 <- norm1
I0815 10:51:19.745818 17551 net.cpp:408] pool1 -> pool1
I0815 10:51:19.745903 17551 net.cpp:150] Setting up pool1
I0815 10:51:19.745918 17551 net.cpp:157] Top shape: 100 96 15 15 (2160000)
I0815 10:51:19.745928 17551 net.cpp:165] Memory required for data: 131982000
I0815 10:51:19.745934 17551 layer_factory.hpp:77] Creating layer conv2
I0815 10:51:19.745951 17551 net.cpp:100] Creating Layer conv2
I0815 10:51:19.745959 17551 net.cpp:434] conv2 <- pool1
I0815 10:51:19.745972 17551 net.cpp:408] conv2 -> conv2
I0815 10:51:19.757625 17551 net.cpp:150] Setting up conv2
I0815 10:51:19.757658 17551 net.cpp:157] Top shape: 100 256 15 15 (5760000)
I0815 10:51:19.757664 17551 net.cpp:165] Memory required for data: 155022000
I0815 10:51:19.757683 17551 layer_factory.hpp:77] Creating layer relu2
I0815 10:51:19.757699 17551 net.cpp:100] Creating Layer relu2
I0815 10:51:19.757706 17551 net.cpp:434] relu2 <- conv2
I0815 10:51:19.757717 17551 net.cpp:395] relu2 -> conv2 (in-place)
I0815 10:51:19.758574 17551 net.cpp:150] Setting up relu2
I0815 10:51:19.758602 17551 net.cpp:157] Top shape: 100 256 15 15 (5760000)
I0815 10:51:19.758610 17551 net.cpp:165] Memory required for data: 178062000
I0815 10:51:19.758615 17551 layer_factory.hpp:77] Creating layer norm2
I0815 10:51:19.758635 17551 net.cpp:100] Creating Layer norm2
I0815 10:51:19.758642 17551 net.cpp:434] norm2 <- conv2
I0815 10:51:19.758654 17551 net.cpp:408] norm2 -> norm2
I0815 10:51:19.759081 17551 net.cpp:150] Setting up norm2
I0815 10:51:19.759102 17551 net.cpp:157] Top shape: 100 256 15 15 (5760000)
I0815 10:51:19.759109 17551 net.cpp:165] Memory required for data: 201102000
I0815 10:51:19.759114 17551 layer_factory.hpp:77] Creating layer pool2
I0815 10:51:19.759130 17551 net.cpp:100] Creating Layer pool2
I0815 10:51:19.759136 17551 net.cpp:434] pool2 <- norm2
I0815 10:51:19.759148 17551 net.cpp:408] pool2 -> pool2
I0815 10:51:19.759224 17551 net.cpp:150] Setting up pool2
I0815 10:51:19.759238 17551 net.cpp:157] Top shape: 100 256 7 7 (1254400)
I0815 10:51:19.759243 17551 net.cpp:165] Memory required for data: 206119600
I0815 10:51:19.759249 17551 layer_factory.hpp:77] Creating layer conv3
I0815 10:51:19.759268 17551 net.cpp:100] Creating Layer conv3
I0815 10:51:19.759276 17551 net.cpp:434] conv3 <- pool2
I0815 10:51:19.759296 17551 net.cpp:408] conv3 -> conv3
I0815 10:51:19.782392 17551 net.cpp:150] Setting up conv3
I0815 10:51:19.782431 17551 net.cpp:157] Top shape: 100 384 7 7 (1881600)
I0815 10:51:19.782445 17551 net.cpp:165] Memory required for data: 213646000
I0815 10:51:19.782475 17551 layer_factory.hpp:77] Creating layer relu3
I0815 10:51:19.782492 17551 net.cpp:100] Creating Layer relu3
I0815 10:51:19.782498 17551 net.cpp:434] relu3 <- conv3
I0815 10:51:19.782510 17551 net.cpp:395] relu3 -> conv3 (in-place)
I0815 10:51:19.782872 17551 net.cpp:150] Setting up relu3
I0815 10:51:19.782894 17551 net.cpp:157] Top shape: 100 384 7 7 (1881600)
I0815 10:51:19.782899 17551 net.cpp:165] Memory required for data: 221172400
I0815 10:51:19.782905 17551 layer_factory.hpp:77] Creating layer conv4
I0815 10:51:19.782925 17551 net.cpp:100] Creating Layer conv4
I0815 10:51:19.782932 17551 net.cpp:434] conv4 <- conv3
I0815 10:51:19.782945 17551 net.cpp:408] conv4 -> conv4
I0815 10:51:19.801259 17551 net.cpp:150] Setting up conv4
I0815 10:51:19.801301 17551 net.cpp:157] Top shape: 100 384 7 7 (1881600)
I0815 10:51:19.801308 17551 net.cpp:165] Memory required for data: 228698800
I0815 10:51:19.801323 17551 layer_factory.hpp:77] Creating layer relu4
I0815 10:51:19.801337 17551 net.cpp:100] Creating Layer relu4
I0815 10:51:19.801343 17551 net.cpp:434] relu4 <- conv4
I0815 10:51:19.801354 17551 net.cpp:395] relu4 -> conv4 (in-place)
I0815 10:51:19.802115 17551 net.cpp:150] Setting up relu4
I0815 10:51:19.802136 17551 net.cpp:157] Top shape: 100 384 7 7 (1881600)
I0815 10:51:19.802141 17551 net.cpp:165] Memory required for data: 236225200
I0815 10:51:19.802146 17551 layer_factory.hpp:77] Creating layer conv5
I0815 10:51:19.802167 17551 net.cpp:100] Creating Layer conv5
I0815 10:51:19.802173 17551 net.cpp:434] conv5 <- conv4
I0815 10:51:19.802186 17551 net.cpp:408] conv5 -> conv5
I0815 10:51:19.815726 17551 net.cpp:150] Setting up conv5
I0815 10:51:19.815759 17551 net.cpp:157] Top shape: 100 256 7 7 (1254400)
I0815 10:51:19.815764 17551 net.cpp:165] Memory required for data: 241242800
I0815 10:51:19.815784 17551 layer_factory.hpp:77] Creating layer relu5
I0815 10:51:19.815796 17551 net.cpp:100] Creating Layer relu5
I0815 10:51:19.815803 17551 net.cpp:434] relu5 <- conv5
I0815 10:51:19.815812 17551 net.cpp:395] relu5 -> conv5 (in-place)
I0815 10:51:19.816128 17551 net.cpp:150] Setting up relu5
I0815 10:51:19.816146 17551 net.cpp:157] Top shape: 100 256 7 7 (1254400)
I0815 10:51:19.816150 17551 net.cpp:165] Memory required for data: 246260400
I0815 10:51:19.816155 17551 layer_factory.hpp:77] Creating layer pool5
I0815 10:51:19.816172 17551 net.cpp:100] Creating Layer pool5
I0815 10:51:19.816177 17551 net.cpp:434] pool5 <- conv5
I0815 10:51:19.816186 17551 net.cpp:408] pool5 -> pool5
I0815 10:51:19.816265 17551 net.cpp:150] Setting up pool5
I0815 10:51:19.816278 17551 net.cpp:157] Top shape: 100 256 3 3 (230400)
I0815 10:51:19.816282 17551 net.cpp:165] Memory required for data: 247182000
I0815 10:51:19.816287 17551 layer_factory.hpp:77] Creating layer fc6
I0815 10:51:19.816301 17551 net.cpp:100] Creating Layer fc6
I0815 10:51:19.816308 17551 net.cpp:434] fc6 <- pool5
I0815 10:51:19.816319 17551 net.cpp:408] fc6 -> fc6
I0815 10:51:19.956921 17551 net.cpp:150] Setting up fc6
I0815 10:51:19.956966 17551 net.cpp:157] Top shape: 100 4096 (409600)
I0815 10:51:19.956970 17551 net.cpp:165] Memory required for data: 248820400
I0815 10:51:19.956984 17551 layer_factory.hpp:77] Creating layer relu6
I0815 10:51:19.956995 17551 net.cpp:100] Creating Layer relu6
I0815 10:51:19.957000 17551 net.cpp:434] relu6 <- fc6
I0815 10:51:19.957010 17551 net.cpp:395] relu6 -> fc6 (in-place)
I0815 10:51:19.957295 17551 net.cpp:150] Setting up relu6
I0815 10:51:19.957309 17551 net.cpp:157] Top shape: 100 4096 (409600)
I0815 10:51:19.957311 17551 net.cpp:165] Memory required for data: 250458800
I0815 10:51:19.957314 17551 layer_factory.hpp:77] Creating layer drop6
I0815 10:51:19.957325 17551 net.cpp:100] Creating Layer drop6
I0815 10:51:19.957329 17551 net.cpp:434] drop6 <- fc6
I0815 10:51:19.957334 17551 net.cpp:395] drop6 -> fc6 (in-place)
I0815 10:51:19.957376 17551 net.cpp:150] Setting up drop6
I0815 10:51:19.957384 17551 net.cpp:157] Top shape: 100 4096 (409600)
I0815 10:51:19.957387 17551 net.cpp:165] Memory required for data: 252097200
I0815 10:51:19.957391 17551 layer_factory.hpp:77] Creating layer fc7
I0815 10:51:19.957402 17551 net.cpp:100] Creating Layer fc7
I0815 10:51:19.957406 17551 net.cpp:434] fc7 <- fc6
I0815 10:51:19.957412 17551 net.cpp:408] fc7 -> fc7
I0815 10:51:20.189440 17551 net.cpp:150] Setting up fc7
I0815 10:51:20.189489 17551 net.cpp:157] Top shape: 100 4096 (409600)
I0815 10:51:20.189494 17551 net.cpp:165] Memory required for data: 253735600
I0815 10:51:20.189507 17551 layer_factory.hpp:77] Creating layer relu7
I0815 10:51:20.189522 17551 net.cpp:100] Creating Layer relu7
I0815 10:51:20.189527 17551 net.cpp:434] relu7 <- fc7
I0815 10:51:20.189535 17551 net.cpp:395] relu7 -> fc7 (in-place)
I0815 10:51:20.190315 17551 net.cpp:150] Setting up relu7
I0815 10:51:20.190335 17551 net.cpp:157] Top shape: 100 4096 (409600)
I0815 10:51:20.190340 17551 net.cpp:165] Memory required for data: 255374000
I0815 10:51:20.190343 17551 layer_factory.hpp:77] Creating layer drop7
I0815 10:51:20.190352 17551 net.cpp:100] Creating Layer drop7
I0815 10:51:20.190356 17551 net.cpp:434] drop7 <- fc7
I0815 10:51:20.190362 17551 net.cpp:395] drop7 -> fc7 (in-place)
I0815 10:51:20.190403 17551 net.cpp:150] Setting up drop7
I0815 10:51:20.190412 17551 net.cpp:157] Top shape: 100 4096 (409600)
I0815 10:51:20.190415 17551 net.cpp:165] Memory required for data: 257012400
I0815 10:51:20.190419 17551 layer_factory.hpp:77] Creating layer fc8
I0815 10:51:20.190431 17551 net.cpp:100] Creating Layer fc8
I0815 10:51:20.190434 17551 net.cpp:434] fc8 <- fc7
I0815 10:51:20.190440 17551 net.cpp:408] fc8 -> fc8
I0815 10:51:20.190675 17551 net.cpp:150] Setting up fc8
I0815 10:51:20.190687 17551 net.cpp:157] Top shape: 100 2 (200)
I0815 10:51:20.190690 17551 net.cpp:165] Memory required for data: 257013200
I0815 10:51:20.190697 17551 layer_factory.hpp:77] Creating layer fc8_fc8_0_split
I0815 10:51:20.190704 17551 net.cpp:100] Creating Layer fc8_fc8_0_split
I0815 10:51:20.190707 17551 net.cpp:434] fc8_fc8_0_split <- fc8
I0815 10:51:20.190713 17551 net.cpp:408] fc8_fc8_0_split -> fc8_fc8_0_split_0
I0815 10:51:20.190721 17551 net.cpp:408] fc8_fc8_0_split -> fc8_fc8_0_split_1
I0815 10:51:20.190767 17551 net.cpp:150] Setting up fc8_fc8_0_split
I0815 10:51:20.190774 17551 net.cpp:157] Top shape: 100 2 (200)
I0815 10:51:20.190778 17551 net.cpp:157] Top shape: 100 2 (200)
I0815 10:51:20.190780 17551 net.cpp:165] Memory required for data: 257014800
I0815 10:51:20.190784 17551 layer_factory.hpp:77] Creating layer accuracy
I0815 10:51:20.190798 17551 net.cpp:100] Creating Layer accuracy
I0815 10:51:20.190803 17551 net.cpp:434] accuracy <- fc8_fc8_0_split_0
I0815 10:51:20.190806 17551 net.cpp:434] accuracy <- label_mnist_1_split_0
I0815 10:51:20.190812 17551 net.cpp:408] accuracy -> accuracy
…
