…
I0725 16:44:53.052103 20892 net.cpp:313] The NetState phase (0) differed from the phase (1) specified by a rule in layer accuracy
I0725 16:44:53.052160 20892 net.cpp:49] Initializing net from parameters: 
name: "LeNet"
state {
  phase: TRAIN
}
layer {
  name: "mnist"
  type: "Data"
  top: "data"
  top: "label"
  include {
    phase: TRAIN
  }
  transform_param {
    scale: 0.00390625
    mean_file: "data/person_only_lmdb/person_background_and_random_color_mean.binaryproto"
  }
  data_param {
    source: "data/person_only_lmdb/person_background_and_random_train_lmdb"
    batch_size: 64
    backend: LMDB
  }
}
layer {
  name: "conv1"
  type: "Convolution"
  bottom: "data"
  top: "conv1"
  param {
    lr_mult: 1
  }
  param {
    lr_mult: 2
  }
  convolution_param {
    num_output: 96
    kernel_size: 5
    stride: 1
    weight_filler {
      type: "xavier"
    }
    bias_filler {
      type: "constant"
    }
  }
}
layer {
  name: "pool1"
  type: "Pooling"
  bottom: "conv1"
  top: "pool1"
  pooling_param {
    pool: MAX
    kernel_size: 2
    stride: 2
  }
}
layer {
  name: "conv2"
  type: "Convolution"
  bottom: "pool1"
  top: "conv2"
  param {
    lr_mult: 1
  }
  param {
    lr_mult: 2
  }
  convolution_param {
    num_output: 50
    kernel_size: 5
    stride: 1
    weight_filler {
      type: "xavier"
    }
    bias_filler {
      type: "constant"
    }
  }
}
layer {
  name: "pool2"
  type: "Pooling"
  bottom: "conv2"
  top: "pool2"
  pooling_param {
    pool: MAX
    kernel_size: 2
    stride: 2
  }
}
layer {
  name: "ip1"
  type: "InnerProduct"
  bottom: "pool2"
  top: "ip1"
  param {
    lr_mult: 1
  }
  param {
    lr_mult: 2
  }
  inner_product_param {
    num_output: 500
    weight_filler {
      type: "xavier"
    }
    bias_filler {
      type: "constant"
    }
  }
}
layer {
  name: "relu1"
  type: "ReLU"
  bottom: "ip1"
  top: "ip1"
}
layer {
  name: "ip2"
  type: "InnerProduct"
  bottom: "ip1"
  top: "ip2"
  param {
    lr_mult: 1
  }
  param {
    lr_mult: 2
  }
  inner_product_param {
    num_output: 2
    weight_filler {
      type: "xavier"
    }
    bias_filler {
      type: "constant"
    }
  }
}
layer {
  name: "loss"
  type: "SoftmaxWithLoss"
  bottom: "ip2"
  bottom: "label"
  top: "loss"
}
I0725 16:44:53.052201 20892 layer_factory.hpp:77] Creating layer mnist
I0725 16:44:53.052932 20892 net.cpp:91] Creating Layer mnist
I0725 16:44:53.052943 20892 net.cpp:399] mnist -> data
I0725 16:44:53.052965 20892 net.cpp:399] mnist -> label
I0725 16:44:53.052978 20892 data_transformer.cpp:25] Loading mean file from: data/person_only_lmdb/person_background_and_random_color_mean.binaryproto
I0725 16:44:53.054255 20899 db_lmdb.cpp:35] Opened lmdb data/person_only_lmdb/person_background_and_random_train_lmdb
I0725 16:45:12.102217 20892 data_layer.cpp:41] output data size: 64,3,128,128
I0725 16:45:12.122400 20892 net.cpp:141] Setting up mnist
I0725 16:45:12.122450 20892 net.cpp:148] Top shape: 64 3 128 128 (3145728)
I0725 16:45:12.122457 20892 net.cpp:148] Top shape: 64 (64)
I0725 16:45:12.122460 20892 net.cpp:156] Memory required for data: 12583168
I0725 16:45:12.122468 20892 layer_factory.hpp:77] Creating layer conv1
I0725 16:45:12.122536 20892 net.cpp:91] Creating Layer conv1
I0725 16:45:12.122541 20892 net.cpp:425] conv1 <- data
I0725 16:45:12.122550 20892 net.cpp:399] conv1 -> conv1
I0725 16:45:12.249830 20892 net.cpp:141] Setting up conv1
I0725 16:45:12.249864 20892 net.cpp:148] Top shape: 64 96 124 124 (94470144)
I0725 16:45:12.249867 20892 net.cpp:156] Memory required for data: 390463744
I0725 16:45:12.249882 20892 layer_factory.hpp:77] Creating layer pool1
I0725 16:45:12.249897 20892 net.cpp:91] Creating Layer pool1
I0725 16:45:12.249900 20892 net.cpp:425] pool1 <- conv1
I0725 16:45:12.249904 20892 net.cpp:399] pool1 -> pool1
I0725 16:45:12.249959 20892 net.cpp:141] Setting up pool1
I0725 16:45:12.249965 20892 net.cpp:148] Top shape: 64 96 62 62 (23617536)
I0725 16:45:12.249969 20892 net.cpp:156] Memory required for data: 484933888
I0725 16:45:12.249971 20892 layer_factory.hpp:77] Creating layer conv2
I0725 16:45:12.249982 20892 net.cpp:91] Creating Layer conv2
I0725 16:45:12.249985 20892 net.cpp:425] conv2 <- pool1
I0725 16:45:12.249990 20892 net.cpp:399] conv2 -> conv2
I0725 16:45:12.252318 20892 net.cpp:141] Setting up conv2
I0725 16:45:12.252333 20892 net.cpp:148] Top shape: 64 50 58 58 (10764800)
I0725 16:45:12.252336 20892 net.cpp:156] Memory required for data: 527993088
I0725 16:45:12.252344 20892 layer_factory.hpp:77] Creating layer pool2
I0725 16:45:12.252351 20892 net.cpp:91] Creating Layer pool2
I0725 16:45:12.252353 20892 net.cpp:425] pool2 <- conv2
I0725 16:45:12.252357 20892 net.cpp:399] pool2 -> pool2
I0725 16:45:12.252404 20892 net.cpp:141] Setting up pool2
I0725 16:45:12.252410 20892 net.cpp:148] Top shape: 64 50 29 29 (2691200)
I0725 16:45:12.252413 20892 net.cpp:156] Memory required for data: 538757888
I0725 16:45:12.252415 20892 layer_factory.hpp:77] Creating layer ip1
I0725 16:45:12.252424 20892 net.cpp:91] Creating Layer ip1
I0725 16:45:12.252427 20892 net.cpp:425] ip1 <- pool2
I0725 16:45:12.252431 20892 net.cpp:399] ip1 -> ip1
I0725 16:45:12.400054 20892 net.cpp:141] Setting up ip1
I0725 16:45:12.400101 20892 net.cpp:148] Top shape: 64 500 (32000)
I0725 16:45:12.400115 20892 net.cpp:156] Memory required for data: 538885888
I0725 16:45:12.400131 20892 layer_factory.hpp:77] Creating layer relu1
I0725 16:45:12.400163 20892 net.cpp:91] Creating Layer relu1
I0725 16:45:12.400168 20892 net.cpp:425] relu1 <- ip1
I0725 16:45:12.400174 20892 net.cpp:386] relu1 -> ip1 (in-place)
I0725 16:45:12.400514 20892 net.cpp:141] Setting up relu1
I0725 16:45:12.400527 20892 net.cpp:148] Top shape: 64 500 (32000)
I0725 16:45:12.400540 20892 net.cpp:156] Memory required for data: 539013888
I0725 16:45:12.400544 20892 layer_factory.hpp:77] Creating layer ip2
I0725 16:45:12.400554 20892 net.cpp:91] Creating Layer ip2
I0725 16:45:12.400557 20892 net.cpp:425] ip2 <- ip1
I0725 16:45:12.400563 20892 net.cpp:399] ip2 -> ip2
I0725 16:45:12.400671 20892 net.cpp:141] Setting up ip2
I0725 16:45:12.400679 20892 net.cpp:148] Top shape: 64 2 (128)
I0725 16:45:12.400682 20892 net.cpp:156] Memory required for data: 539014400
I0725 16:45:12.400687 20892 layer_factory.hpp:77] Creating layer loss
I0725 16:45:12.400699 20892 net.cpp:91] Creating Layer loss
I0725 16:45:12.400702 20892 net.cpp:425] loss <- ip2
I0725 16:45:12.400705 20892 net.cpp:425] loss <- label
I0725 16:45:12.400710 20892 net.cpp:399] loss -> loss
I0725 16:45:12.400719 20892 layer_factory.hpp:77] Creating layer loss
…
I0725 16:45:12.401437 20892 net.cpp:313] The NetState phase (1) differed from the phase (0) specified by a rule in layer mnist
I0725 16:45:12.401516 20892 net.cpp:49] Initializing net from parameters: 
name: "LeNet"
state {
  phase: TEST
}
layer {
  name: "mnist"
  type: "Data"
  top: "data"
  top: "label"
  include {
    phase: TEST
  }
  transform_param {
    scale: 0.00390625
    mean_file: "data/person_only_lmdb/person_background_and_random_color_mean.binaryproto"
  }
  data_param {
    source: "data/person_only_lmdb/person_background_and_random_test_lmdb"
    batch_size: 100
    backend: LMDB
  }
}
layer {
  name: "conv1"
  type: "Convolution"
  bottom: "data"
  top: "conv1"
  param {
    lr_mult: 1
  }
  param {
    lr_mult: 2
  }
  convolution_param {
    num_output: 96
    kernel_size: 5
    stride: 1
    weight_filler {
      type: "xavier"
    }
    bias_filler {
      type: "constant"
    }
  }
}
layer {
  name: "pool1"
  type: "Pooling"
  bottom: "conv1"
  top: "pool1"
  pooling_param {
    pool: MAX
    kernel_size: 2
    stride: 2
  }
}
layer {
  name: "conv2"
  type: "Convolution"
  bottom: "pool1"
  top: "conv2"
  param {
    lr_mult: 1
  }
  param {
    lr_mult: 2
  }
  convolution_param {
    num_output: 50
    kernel_size: 5
    stride: 1
    weight_filler {
      type: "xavier"
    }
    bias_filler {
      type: "constant"
    }
  }
}
layer {
  name: "pool2"
  type: "Pooling"
  bottom: "conv2"
  top: "pool2"
  pooling_param {
    pool: MAX
    kernel_size: 2
    stride: 2
  }
}
layer {
  name: "ip1"
  type: "InnerProduct"
  bottom: "pool2"
  top: "ip1"
  param {
    lr_mult: 1
  }
  param {
    lr_mult: 2
  }
  inner_product_param {
    num_output: 500
    weight_filler {
      type: "xavier"
    }
    bias_filler {
      type: "constant"
    }
  }
}
layer {
  name: "relu1"
  type: "ReLU"
  bottom: "ip1"
  top: "ip1"
}
layer {
  name: "ip2"
  type: "InnerProduct"
  bottom: "ip1"
  top: "ip2"
  param {
    lr_mult: 1
  }
  param {
    lr_mult: 2
  }
  inner_product_param {
    num_output: 2
    weight_filler {
      type: "xavier"
    }
    bias_filler {
      type: "constant"
    }
  }
}
layer {
  name: "accuracy"
  type: "Accuracy"
  bottom: "ip2"
  bottom: "label"
  top: "accuracy"
  include {
    phase: TEST
  }
}
layer {
  name: "loss"
  type: "SoftmaxWithLoss"
  bottom: "ip2"
  bottom: "label"
  top: "loss"
}
I0725 16:45:12.401569 20892 layer_factory.hpp:77] Creating layer mnist
I0725 16:45:12.401667 20892 net.cpp:91] Creating Layer mnist
I0725 16:45:12.401676 20892 net.cpp:399] mnist -> data
I0725 16:45:12.401682 20892 net.cpp:399] mnist -> label
I0725 16:45:12.401690 20892 data_transformer.cpp:25] Loading mean file from: data/person_only_lmdb/person_background_and_random_color_mean.binaryproto
I0725 16:45:12.402812 20902 db_lmdb.cpp:35] Opened lmdb data/person_only_lmdb/person_background_and_random_test_lmdb
I0725 16:45:12.402993 20892 data_layer.cpp:41] output data size: 100,3,128,128
I0725 16:45:12.435677 20892 net.cpp:141] Setting up mnist
I0725 16:45:12.435715 20892 net.cpp:148] Top shape: 100 3 128 128 (4915200)
I0725 16:45:12.435721 20892 net.cpp:148] Top shape: 100 (100)
I0725 16:45:12.435724 20892 net.cpp:156] Memory required for data: 19661200
I0725 16:45:12.435730 20892 layer_factory.hpp:77] Creating layer label_mnist_1_split
I0725 16:45:12.435744 20892 net.cpp:91] Creating Layer label_mnist_1_split
I0725 16:45:12.435748 20892 net.cpp:425] label_mnist_1_split <- label
I0725 16:45:12.435755 20892 net.cpp:399] label_mnist_1_split -> label_mnist_1_split_0
I0725 16:45:12.435765 20892 net.cpp:399] label_mnist_1_split -> label_mnist_1_split_1
I0725 16:45:12.436051 20892 net.cpp:141] Setting up label_mnist_1_split
I0725 16:45:12.436076 20892 net.cpp:148] Top shape: 100 (100)
I0725 16:45:12.436080 20892 net.cpp:148] Top shape: 100 (100)
I0725 16:45:12.436084 20892 net.cpp:156] Memory required for data: 19662000
I0725 16:45:12.436086 20892 layer_factory.hpp:77] Creating layer conv1
I0725 16:45:12.436100 20892 net.cpp:91] Creating Layer conv1
I0725 16:45:12.436103 20892 net.cpp:425] conv1 <- data
I0725 16:45:12.436110 20892 net.cpp:399] conv1 -> conv1
I0725 16:45:12.437273 20892 net.cpp:141] Setting up conv1
I0725 16:45:12.437288 20892 net.cpp:148] Top shape: 100 96 124 124 (147609600)
I0725 16:45:12.437290 20892 net.cpp:156] Memory required for data: 610100400
I0725 16:45:12.437300 20892 layer_factory.hpp:77] Creating layer pool1
I0725 16:45:12.437309 20892 net.cpp:91] Creating Layer pool1
I0725 16:45:12.437312 20892 net.cpp:425] pool1 <- conv1
I0725 16:45:12.437317 20892 net.cpp:399] pool1 -> pool1
I0725 16:45:12.440433 20892 net.cpp:141] Setting up pool1
I0725 16:45:12.440469 20892 net.cpp:148] Top shape: 100 96 62 62 (36902400)
I0725 16:45:12.440477 20892 net.cpp:156] Memory required for data: 757710000
I0725 16:45:12.440485 20892 layer_factory.hpp:77] Creating layer conv2
I0725 16:45:12.440508 20892 net.cpp:91] Creating Layer conv2
I0725 16:45:12.440517 20892 net.cpp:425] conv2 <- pool1
I0725 16:45:12.440531 20892 net.cpp:399] conv2 -> conv2
I0725 16:45:12.442195 20892 net.cpp:141] Setting up conv2
I0725 16:45:12.442209 20892 net.cpp:148] Top shape: 100 50 58 58 (16820000)
I0725 16:45:12.442211 20892 net.cpp:156] Memory required for data: 824990000
I0725 16:45:12.442219 20892 layer_factory.hpp:77] Creating layer pool2
I0725 16:45:12.442225 20892 net.cpp:91] Creating Layer pool2
I0725 16:45:12.442229 20892 net.cpp:425] pool2 <- conv2
I0725 16:45:12.442234 20892 net.cpp:399] pool2 -> pool2
I0725 16:45:12.442268 20892 net.cpp:141] Setting up pool2
I0725 16:45:12.442286 20892 net.cpp:148] Top shape: 100 50 29 29 (4205000)
I0725 16:45:12.442291 20892 net.cpp:156] Memory required for data: 841810000
I0725 16:45:12.442293 20892 layer_factory.hpp:77] Creating layer ip1
I0725 16:45:12.442315 20892 net.cpp:91] Creating Layer ip1
I0725 16:45:12.442318 20892 net.cpp:425] ip1 <- pool2
I0725 16:45:12.442323 20892 net.cpp:399] ip1 -> ip1
I0725 16:45:12.589807 20892 net.cpp:141] Setting up ip1
I0725 16:45:12.589844 20892 net.cpp:148] Top shape: 100 500 (50000)
I0725 16:45:12.589848 20892 net.cpp:156] Memory required for data: 842010000
I0725 16:45:12.589862 20892 layer_factory.hpp:77] Creating layer relu1
I0725 16:45:12.589874 20892 net.cpp:91] Creating Layer relu1
I0725 16:45:12.589879 20892 net.cpp:425] relu1 <- ip1
I0725 16:45:12.589885 20892 net.cpp:386] relu1 -> ip1 (in-place)
I0725 16:45:12.590318 20892 net.cpp:141] Setting up relu1
I0725 16:45:12.590330 20892 net.cpp:148] Top shape: 100 500 (50000)
I0725 16:45:12.590344 20892 net.cpp:156] Memory required for data: 842210000
I0725 16:45:12.590348 20892 layer_factory.hpp:77] Creating layer ip2
I0725 16:45:12.590356 20892 net.cpp:91] Creating Layer ip2
I0725 16:45:12.590359 20892 net.cpp:425] ip2 <- ip1
I0725 16:45:12.590365 20892 net.cpp:399] ip2 -> ip2
I0725 16:45:12.590483 20892 net.cpp:141] Setting up ip2
I0725 16:45:12.590490 20892 net.cpp:148] Top shape: 100 2 (200)
I0725 16:45:12.590503 20892 net.cpp:156] Memory required for data: 842210800
I0725 16:45:12.590508 20892 layer_factory.hpp:77] Creating layer ip2_ip2_0_split
I0725 16:45:12.590514 20892 net.cpp:91] Creating Layer ip2_ip2_0_split
I0725 16:45:12.590517 20892 net.cpp:425] ip2_ip2_0_split <- ip2
I0725 16:45:12.590523 20892 net.cpp:399] ip2_ip2_0_split -> ip2_ip2_0_split_0
I0725 16:45:12.590528 20892 net.cpp:399] ip2_ip2_0_split -> ip2_ip2_0_split_1
I0725 16:45:12.590559 20892 net.cpp:141] Setting up ip2_ip2_0_split
I0725 16:45:12.590566 20892 net.cpp:148] Top shape: 100 2 (200)
I0725 16:45:12.590580 20892 net.cpp:148] Top shape: 100 2 (200)
I0725 16:45:12.590584 20892 net.cpp:156] Memory required for data: 842212400
I0725 16:45:12.590586 20892 layer_factory.hpp:77] Creating layer accuracy
I0725 16:45:12.590592 20892 net.cpp:91] Creating Layer accuracy
I0725 16:45:12.590595 20892 net.cpp:425] accuracy <- ip2_ip2_0_split_0
I0725 16:45:12.590600 20892 net.cpp:425] accuracy <- label_mnist_1_split_0
I0725 16:45:12.590605 20892 net.cpp:399] accuracy -> accuracy
…
