…
I0824 13:39:07.401057 13719 net.cpp:322] The NetState phase (0) differed from the phase (1) specified by a rule in layer accuracy
I0824 13:39:07.401197 13719 net.cpp:58] Initializing net from parameters: 
name: "AlexNet"
state {
  phase: TRAIN
}
layer {
  name: "mnist"
  type: "Data"
  top: "data"
  top: "label"
  include {
    phase: TRAIN
  }
  transform_param {
    scale: 0.00390625
    mean_file: "data/person_only_lmdb/person_vs_background_vs_random_256_color_mean.binaryproto"
  }
  data_param {
    source: "data/person_only_lmdb/person_vs_background_vs_random_256_train_lmdb"
    batch_size: 128
    backend: LMDB
  }
}
layer {
  name: "conv1"
  type: "Convolution"
  bottom: "data"
  top: "conv1"
  param {
    lr_mult: 1
    decay_mult: 1
  }
  param {
    lr_mult: 2
    decay_mult: 0
  }
  convolution_param {
    num_output: 96
    kernel_size: 11
    stride: 4
    weight_filler {
      type: "gaussian"
      std: 0.01
    }
    bias_filler {
      type: "constant"
      value: 0
    }
  }
}
layer {
  name: "relu1"
  type: "ReLU"
  bottom: "conv1"
  top: "conv1"
}
layer {
  name: "norm1"
  type: "LRN"
  bottom: "conv1"
  top: "norm1"
  lrn_param {
    local_size: 5
    alpha: 0.0001
    beta: 0.75
  }
}
layer {
  name: "pool1"
  type: "Pooling"
  bottom: "norm1"
  top: "pool1"
  pooling_param {
    pool: MAX
    kernel_size: 3
    stride: 2
  }
}
layer {
  name: "conv2"
  type: "Convolution"
  bottom: "pool1"
  top: "conv2"
  param {
    lr_mult: 1
    decay_mult: 1
  }
  param {
    lr_mult: 2
    decay_mult: 0
  }
  convolution_param {
    num_output: 256
    pad: 2
    kernel_size: 5
    group: 2
    weight_filler {
      type: "gaussian"
      std: 0.01
    }
    bias_filler {
      type: "constant"
      value: 0.1
    }
  }
}
layer {
  name: "relu2"
  type: "ReLU"
  bottom: "conv2"
  top: "conv2"
}
layer {
  name: "norm2"
  type: "LRN"
  bottom: "conv2"
  top: "norm2"
  lrn_param {
    local_size: 5
    alpha: 0.0001
    beta: 0.75
  }
}
layer {
  name: "pool2"
  type: "Pooling"
  bottom: "norm2"
  top: "pool2"
  pooling_param {
    pool: MAX
    kernel_size: 3
    stride: 2
  }
}
layer {
  name: "conv3"
  type: "Convolution"
  bottom: "pool2"
  top: "conv3"
  param {
    lr_mult: 1
    decay_mult: 1
  }
  param {
    lr_mult: 2
    decay_mult: 0
  }
  convolution_param {
    num_output: 384
    pad: 1
    kernel_size: 3
    weight_filler {
      type: "gaussian"
      std: 0.01
    }
    bias_filler {
      type: "constant"
      value: 0
    }
  }
}
layer {
  name: "relu3"
  type: "ReLU"
  bottom: "conv3"
  top: "conv3"
}
layer {
  name: "conv4"
  type: "Convolution"
  bottom: "conv3"
  top: "conv4"
  param {
    lr_mult: 1
    decay_mult: 1
  }
  param {
    lr_mult: 2
    decay_mult: 0
  }
  convolution_param {
    num_output: 384
    pad: 1
    kernel_size: 3
    group: 2
    weight_filler {
      type: "gaussian"
      std: 0.01
    }
    bias_filler {
      type: "constant"
      value: 0.1
    }
  }
}
layer {
  name: "relu4"
  type: "ReLU"
  bottom: "conv4"
  top: "conv4"
}
layer {
  name: "conv5"
  type: "Convolution"
  bottom: "conv4"
  top: "conv5"
  param {
    lr_mult: 1
    decay_mult: 1
  }
  param {
    lr_mult: 2
    decay_mult: 0
  }
  convolution_param {
    num_output: 256
    pad: 1
    kernel_size: 3
    group: 2
    weight_filler {
      type: "gaussian"
      std: 0.01
    }
    bias_filler {
      type: "constant"
      value: 0.1
    }
  }
}
layer {
  name: "relu5"
  type: "ReLU"
  bottom: "conv5"
  top: "conv5"
}
layer {
  name: "pool5"
  type: "Pooling"
  bottom: "conv5"
  top: "pool5"
  pooling_param {
    pool: MAX
    kernel_size: 3
    stride: 2
  }
}
layer {
  name: "fc6"
  type: "InnerProduct"
  bottom: "pool5"
  top: "fc6"
  param {
    lr_mult: 1
    decay_mult: 1
  }
  param {
    lr_mult: 2
    decay_mult: 0
  }
  inner_product_param {
    num_output: 4096
    weight_filler {
      type: "gaussian"
      std: 0.005
    }
    bias_filler {
      type: "constant"
      value: 0.1
    }
  }
}
layer {
  name: "relu6"
  type: "ReLU"
  bottom: "fc6"
  top: "fc6"
}
layer {
  name: "drop6"
  type: "Dropout"
  bottom: "fc6"
  top: "fc6"
  dropout_param {
    dropout_ratio: 0.5
  }
}
layer {
  name: "fc7"
  type: "InnerProduct"
  bottom: "fc6"
  top: "fc7"
  param {
    lr_mult: 1
    decay_mult: 1
  }
  param {
    lr_mult: 2
    decay_mult: 0
  }
  inner_product_param {
    num_output: 4096
    weight_filler {
      type: "gaussian"
      std: 0.005
    }
    bias_filler {
      type: "constant"
      value: 0.1
    }
  }
}
layer {
  name: "relu7"
  type: "ReLU"
  bottom: "fc7"
  top: "fc7"
}
layer {
  name: "drop7"
  type: "Dropout"
  bottom: "fc7"
  top: "fc7"
  dropout_param {
    dropout_ratio: 0.5
  }
}
layer {
  name: "fc8"
  type: "InnerProduct"
  bottom: "fc7"
  top: "fc8"
  param {
    lr_mult: 1
    decay_mult: 1
  }
  param {
    lr_mult: 2
    decay_mult: 0
  }
  inner_product_param {
    num_output: 3
    weight_filler {
      type: "gaussian"
      std: 0.01
    }
    bias_filler {
      type: "constant"
      value: 0
    }
  }
}
layer {
  name: "loss"
  type: "SoftmaxWithLoss"
  bottom: "fc8"
  bottom: "label"
  top: "loss"
}
I0824 13:39:07.401273 13719 layer_factory.hpp:77] Creating layer mnist
I0824 13:39:07.401804 13719 net.cpp:100] Creating Layer mnist
I0824 13:39:07.401818 13719 net.cpp:408] mnist -> data
I0824 13:39:07.401829 13719 net.cpp:408] mnist -> label
I0824 13:39:07.401841 13719 data_transformer.cpp:25] Loading mean file from: data/person_only_lmdb/person_vs_background_vs_random_256_color_mean.binaryproto
I0824 13:39:07.403414 13729 db_lmdb.cpp:35] Opened lmdb data/person_only_lmdb/person_vs_background_vs_random_256_train_lmdb
I0824 13:39:07.438657 13719 data_layer.cpp:41] output data size: 128,3,256,256
I0824 13:39:07.663000 13719 net.cpp:150] Setting up mnist
I0824 13:39:07.663038 13719 net.cpp:157] Top shape: 128 3 256 256 (25165824)
I0824 13:39:07.663043 13719 net.cpp:157] Top shape: 128 (128)
I0824 13:39:07.663046 13719 net.cpp:165] Memory required for data: 100663808
I0824 13:39:07.663053 13719 layer_factory.hpp:77] Creating layer conv1
I0824 13:39:07.663077 13719 net.cpp:100] Creating Layer conv1
I0824 13:39:07.663082 13719 net.cpp:434] conv1 <- data
I0824 13:39:07.663091 13719 net.cpp:408] conv1 -> conv1
I0824 13:39:08.027694 13719 net.cpp:150] Setting up conv1
I0824 13:39:08.027732 13719 net.cpp:157] Top shape: 128 96 62 62 (47235072)
I0824 13:39:08.027736 13719 net.cpp:165] Memory required for data: 289604096
I0824 13:39:08.027757 13719 layer_factory.hpp:77] Creating layer relu1
I0824 13:39:08.027775 13719 net.cpp:100] Creating Layer relu1
I0824 13:39:08.027779 13719 net.cpp:434] relu1 <- conv1
I0824 13:39:08.027786 13719 net.cpp:395] relu1 -> conv1 (in-place)
I0824 13:39:08.027976 13719 net.cpp:150] Setting up relu1
I0824 13:39:08.027987 13719 net.cpp:157] Top shape: 128 96 62 62 (47235072)
I0824 13:39:08.027990 13719 net.cpp:165] Memory required for data: 478544384
I0824 13:39:08.027993 13719 layer_factory.hpp:77] Creating layer norm1
I0824 13:39:08.028002 13719 net.cpp:100] Creating Layer norm1
I0824 13:39:08.028007 13719 net.cpp:434] norm1 <- conv1
I0824 13:39:08.028012 13719 net.cpp:408] norm1 -> norm1
I0824 13:39:08.028496 13719 net.cpp:150] Setting up norm1
I0824 13:39:08.028512 13719 net.cpp:157] Top shape: 128 96 62 62 (47235072)
I0824 13:39:08.028514 13719 net.cpp:165] Memory required for data: 667484672
I0824 13:39:08.028518 13719 layer_factory.hpp:77] Creating layer pool1
I0824 13:39:08.028528 13719 net.cpp:100] Creating Layer pool1
I0824 13:39:08.028532 13719 net.cpp:434] pool1 <- norm1
I0824 13:39:08.028537 13719 net.cpp:408] pool1 -> pool1
I0824 13:39:08.028579 13719 net.cpp:150] Setting up pool1
I0824 13:39:08.028585 13719 net.cpp:157] Top shape: 128 96 31 31 (11808768)
I0824 13:39:08.028589 13719 net.cpp:165] Memory required for data: 714719744
I0824 13:39:08.028591 13719 layer_factory.hpp:77] Creating layer conv2
I0824 13:39:08.028606 13719 net.cpp:100] Creating Layer conv2
I0824 13:39:08.028611 13719 net.cpp:434] conv2 <- pool1
I0824 13:39:08.028616 13719 net.cpp:408] conv2 -> conv2
I0824 13:39:08.035028 13719 net.cpp:150] Setting up conv2
I0824 13:39:08.035045 13719 net.cpp:157] Top shape: 128 256 31 31 (31490048)
I0824 13:39:08.035048 13719 net.cpp:165] Memory required for data: 840679936
I0824 13:39:08.035059 13719 layer_factory.hpp:77] Creating layer relu2
I0824 13:39:08.035066 13719 net.cpp:100] Creating Layer relu2
I0824 13:39:08.035069 13719 net.cpp:434] relu2 <- conv2
I0824 13:39:08.035074 13719 net.cpp:395] relu2 -> conv2 (in-place)
I0824 13:39:08.035539 13719 net.cpp:150] Setting up relu2
I0824 13:39:08.035554 13719 net.cpp:157] Top shape: 128 256 31 31 (31490048)
I0824 13:39:08.035558 13719 net.cpp:165] Memory required for data: 966640128
I0824 13:39:08.035562 13719 layer_factory.hpp:77] Creating layer norm2
I0824 13:39:08.035568 13719 net.cpp:100] Creating Layer norm2
I0824 13:39:08.035572 13719 net.cpp:434] norm2 <- conv2
I0824 13:39:08.035578 13719 net.cpp:408] norm2 -> norm2
I0824 13:39:08.035774 13719 net.cpp:150] Setting up norm2
I0824 13:39:08.035785 13719 net.cpp:157] Top shape: 128 256 31 31 (31490048)
I0824 13:39:08.035789 13719 net.cpp:165] Memory required for data: 1092600320
I0824 13:39:08.035792 13719 layer_factory.hpp:77] Creating layer pool2
I0824 13:39:08.035800 13719 net.cpp:100] Creating Layer pool2
I0824 13:39:08.035804 13719 net.cpp:434] pool2 <- norm2
I0824 13:39:08.035809 13719 net.cpp:408] pool2 -> pool2
I0824 13:39:08.035845 13719 net.cpp:150] Setting up pool2
I0824 13:39:08.035853 13719 net.cpp:157] Top shape: 128 256 15 15 (7372800)
I0824 13:39:08.035856 13719 net.cpp:165] Memory required for data: 1122091520
I0824 13:39:08.035859 13719 layer_factory.hpp:77] Creating layer conv3
I0824 13:39:08.035869 13719 net.cpp:100] Creating Layer conv3
I0824 13:39:08.035872 13719 net.cpp:434] conv3 <- pool2
I0824 13:39:08.035877 13719 net.cpp:408] conv3 -> conv3
I0824 13:39:08.049152 13719 net.cpp:150] Setting up conv3
I0824 13:39:08.049170 13719 net.cpp:157] Top shape: 128 384 15 15 (11059200)
I0824 13:39:08.049172 13719 net.cpp:165] Memory required for data: 1166328320
I0824 13:39:08.049183 13719 layer_factory.hpp:77] Creating layer relu3
I0824 13:39:08.049190 13719 net.cpp:100] Creating Layer relu3
I0824 13:39:08.049196 13719 net.cpp:434] relu3 <- conv3
I0824 13:39:08.049201 13719 net.cpp:395] relu3 -> conv3 (in-place)
I0824 13:39:08.049381 13719 net.cpp:150] Setting up relu3
I0824 13:39:08.049392 13719 net.cpp:157] Top shape: 128 384 15 15 (11059200)
I0824 13:39:08.049396 13719 net.cpp:165] Memory required for data: 1210565120
I0824 13:39:08.049398 13719 layer_factory.hpp:77] Creating layer conv4
I0824 13:39:08.049409 13719 net.cpp:100] Creating Layer conv4
I0824 13:39:08.049413 13719 net.cpp:434] conv4 <- conv3
I0824 13:39:08.049419 13719 net.cpp:408] conv4 -> conv4
I0824 13:39:08.060659 13719 net.cpp:150] Setting up conv4
I0824 13:39:08.060675 13719 net.cpp:157] Top shape: 128 384 15 15 (11059200)
I0824 13:39:08.060681 13719 net.cpp:165] Memory required for data: 1254801920
I0824 13:39:08.060689 13719 layer_factory.hpp:77] Creating layer relu4
I0824 13:39:08.060695 13719 net.cpp:100] Creating Layer relu4
I0824 13:39:08.060699 13719 net.cpp:434] relu4 <- conv4
I0824 13:39:08.060704 13719 net.cpp:395] relu4 -> conv4 (in-place)
I0824 13:39:08.060901 13719 net.cpp:150] Setting up relu4
I0824 13:39:08.060914 13719 net.cpp:157] Top shape: 128 384 15 15 (11059200)
I0824 13:39:08.060917 13719 net.cpp:165] Memory required for data: 1299038720
I0824 13:39:08.060920 13719 layer_factory.hpp:77] Creating layer conv5
I0824 13:39:08.060933 13719 net.cpp:100] Creating Layer conv5
I0824 13:39:08.060936 13719 net.cpp:434] conv5 <- conv4
I0824 13:39:08.060945 13719 net.cpp:408] conv5 -> conv5
I0824 13:39:08.069460 13719 net.cpp:150] Setting up conv5
I0824 13:39:08.069478 13719 net.cpp:157] Top shape: 128 256 15 15 (7372800)
I0824 13:39:08.069480 13719 net.cpp:165] Memory required for data: 1328529920
I0824 13:39:08.069494 13719 layer_factory.hpp:77] Creating layer relu5
I0824 13:39:08.069500 13719 net.cpp:100] Creating Layer relu5
I0824 13:39:08.069504 13719 net.cpp:434] relu5 <- conv5
I0824 13:39:08.069509 13719 net.cpp:395] relu5 -> conv5 (in-place)
I0824 13:39:08.069710 13719 net.cpp:150] Setting up relu5
I0824 13:39:08.069721 13719 net.cpp:157] Top shape: 128 256 15 15 (7372800)
I0824 13:39:08.069725 13719 net.cpp:165] Memory required for data: 1358021120
I0824 13:39:08.069727 13719 layer_factory.hpp:77] Creating layer pool5
I0824 13:39:08.069735 13719 net.cpp:100] Creating Layer pool5
I0824 13:39:08.069737 13719 net.cpp:434] pool5 <- conv5
I0824 13:39:08.069744 13719 net.cpp:408] pool5 -> pool5
I0824 13:39:08.069793 13719 net.cpp:150] Setting up pool5
I0824 13:39:08.069802 13719 net.cpp:157] Top shape: 128 256 7 7 (1605632)
I0824 13:39:08.069805 13719 net.cpp:165] Memory required for data: 1364443648
I0824 13:39:08.069808 13719 layer_factory.hpp:77] Creating layer fc6
I0824 13:39:08.069821 13719 net.cpp:100] Creating Layer fc6
I0824 13:39:08.069825 13719 net.cpp:434] fc6 <- pool5
I0824 13:39:08.069833 13719 net.cpp:408] fc6 -> fc6
I0824 13:39:08.771828 13719 net.cpp:150] Setting up fc6
I0824 13:39:08.771884 13719 net.cpp:157] Top shape: 128 4096 (524288)
I0824 13:39:08.771888 13719 net.cpp:165] Memory required for data: 1366540800
I0824 13:39:08.771900 13719 layer_factory.hpp:77] Creating layer relu6
I0824 13:39:08.771913 13719 net.cpp:100] Creating Layer relu6
I0824 13:39:08.771917 13719 net.cpp:434] relu6 <- fc6
I0824 13:39:08.771925 13719 net.cpp:395] relu6 -> fc6 (in-place)
I0824 13:39:08.772677 13719 net.cpp:150] Setting up relu6
I0824 13:39:08.772702 13719 net.cpp:157] Top shape: 128 4096 (524288)
I0824 13:39:08.772706 13719 net.cpp:165] Memory required for data: 1368637952
I0824 13:39:08.772708 13719 layer_factory.hpp:77] Creating layer drop6
I0824 13:39:08.772717 13719 net.cpp:100] Creating Layer drop6
I0824 13:39:08.772721 13719 net.cpp:434] drop6 <- fc6
I0824 13:39:08.772727 13719 net.cpp:395] drop6 -> fc6 (in-place)
I0824 13:39:08.772763 13719 net.cpp:150] Setting up drop6
I0824 13:39:08.772770 13719 net.cpp:157] Top shape: 128 4096 (524288)
I0824 13:39:08.772773 13719 net.cpp:165] Memory required for data: 1370735104
I0824 13:39:08.772776 13719 layer_factory.hpp:77] Creating layer fc7
I0824 13:39:08.772786 13719 net.cpp:100] Creating Layer fc7
I0824 13:39:08.772789 13719 net.cpp:434] fc7 <- fc6
I0824 13:39:08.772795 13719 net.cpp:408] fc7 -> fc7
I0824 13:39:08.953603 13719 net.cpp:150] Setting up fc7
I0824 13:39:08.953652 13719 net.cpp:157] Top shape: 128 4096 (524288)
I0824 13:39:08.953656 13719 net.cpp:165] Memory required for data: 1372832256
I0824 13:39:08.953678 13719 layer_factory.hpp:77] Creating layer relu7
I0824 13:39:08.953693 13719 net.cpp:100] Creating Layer relu7
I0824 13:39:08.953709 13719 net.cpp:434] relu7 <- fc7
I0824 13:39:08.953717 13719 net.cpp:395] relu7 -> fc7 (in-place)
I0824 13:39:08.955068 13719 net.cpp:150] Setting up relu7
I0824 13:39:08.955078 13719 net.cpp:157] Top shape: 128 4096 (524288)
I0824 13:39:08.955080 13719 net.cpp:165] Memory required for data: 1374929408
I0824 13:39:08.955083 13719 layer_factory.hpp:77] Creating layer drop7
I0824 13:39:08.955094 13719 net.cpp:100] Creating Layer drop7
I0824 13:39:08.955097 13719 net.cpp:434] drop7 <- fc7
I0824 13:39:08.955101 13719 net.cpp:395] drop7 -> fc7 (in-place)
I0824 13:39:08.955133 13719 net.cpp:150] Setting up drop7
I0824 13:39:08.955138 13719 net.cpp:157] Top shape: 128 4096 (524288)
I0824 13:39:08.955140 13719 net.cpp:165] Memory required for data: 1377026560
I0824 13:39:08.955143 13719 layer_factory.hpp:77] Creating layer fc8
I0824 13:39:08.955152 13719 net.cpp:100] Creating Layer fc8
I0824 13:39:08.955153 13719 net.cpp:434] fc8 <- fc7
I0824 13:39:08.955169 13719 net.cpp:408] fc8 -> fc8
I0824 13:39:08.956612 13719 net.cpp:150] Setting up fc8
I0824 13:39:08.956624 13719 net.cpp:157] Top shape: 128 3 (384)
I0824 13:39:08.956627 13719 net.cpp:165] Memory required for data: 1377028096
I0824 13:39:08.956632 13719 layer_factory.hpp:77] Creating layer loss
I0824 13:39:08.956642 13719 net.cpp:100] Creating Layer loss
I0824 13:39:08.956645 13719 net.cpp:434] loss <- fc8
I0824 13:39:08.956648 13719 net.cpp:434] loss <- label
I0824 13:39:08.956652 13719 net.cpp:408] loss -> loss
I0824 13:39:08.956660 13719 layer_factory.hpp:77] Creating layer loss
…
I0824 13:39:08.957610 13719 net.cpp:322] The NetState phase (1) differed from the phase (0) specified by a rule in layer mnist
I0824 13:39:08.957773 13719 net.cpp:58] Initializing net from parameters: 
name: "AlexNet"
state {
  phase: TEST
}
layer {
  name: "mnist"
  type: "Data"
  top: "data"
  top: "label"
  include {
    phase: TEST
  }
  transform_param {
    scale: 0.00390625
    mean_file: "data/person_only_lmdb/person_vs_background_vs_random_256_color_mean.binaryproto"
  }
  data_param {
    source: "data/person_only_lmdb/person_vs_background_vs_random_256_test_lmdb"
    batch_size: 100
    backend: LMDB
  }
}
layer {
  name: "conv1"
  type: "Convolution"
  bottom: "data"
  top: "conv1"
  param {
    lr_mult: 1
    decay_mult: 1
  }
  param {
    lr_mult: 2
    decay_mult: 0
  }
  convolution_param {
    num_output: 96
    kernel_size: 11
    stride: 4
    weight_filler {
      type: "gaussian"
      std: 0.01
    }
    bias_filler {
      type: "constant"
      value: 0
    }
  }
}
layer {
  name: "relu1"
  type: "ReLU"
  bottom: "conv1"
  top: "conv1"
}
layer {
  name: "norm1"
  type: "LRN"
  bottom: "conv1"
  top: "norm1"
  lrn_param {
    local_size: 5
    alpha: 0.0001
    beta: 0.75
  }
}
layer {
  name: "pool1"
  type: "Pooling"
  bottom: "norm1"
  top: "pool1"
  pooling_param {
    pool: MAX
    kernel_size: 3
    stride: 2
  }
}
layer {
  name: "conv2"
  type: "Convolution"
  bottom: "pool1"
  top: "conv2"
  param {
    lr_mult: 1
    decay_mult: 1
  }
  param {
    lr_mult: 2
    decay_mult: 0
  }
  convolution_param {
    num_output: 256
    pad: 2
    kernel_size: 5
    group: 2
    weight_filler {
      type: "gaussian"
      std: 0.01
    }
    bias_filler {
      type: "constant"
      value: 0.1
    }
  }
}
layer {
  name: "relu2"
  type: "ReLU"
  bottom: "conv2"
  top: "conv2"
}
layer {
  name: "norm2"
  type: "LRN"
  bottom: "conv2"
  top: "norm2"
  lrn_param {
    local_size: 5
    alpha: 0.0001
    beta: 0.75
  }
}
layer {
  name: "pool2"
  type: "Pooling"
  bottom: "norm2"
  top: "pool2"
  pooling_param {
    pool: MAX
    kernel_size: 3
    stride: 2
  }
}
layer {
  name: "conv3"
  type: "Convolution"
  bottom: "pool2"
  top: "conv3"
  param {
    lr_mult: 1
    decay_mult: 1
  }
  param {
    lr_mult: 2
    decay_mult: 0
  }
  convolution_param {
    num_output: 384
    pad: 1
    kernel_size: 3
    weight_filler {
      type: "gaussian"
      std: 0.01
    }
    bias_filler {
      type: "constant"
      value: 0
    }
  }
}
layer {
  name: "relu3"
  type: "ReLU"
  bottom: "conv3"
  top: "conv3"
}
layer {
  name: "conv4"
  type: "Convolution"
  bottom: "conv3"
  top: "conv4"
  param {
    lr_mult: 1
    decay_mult: 1
  }
  param {
    lr_mult: 2
    decay_mult: 0
  }
  convolution_param {
    num_output: 384
    pad: 1
    kernel_size: 3
    group: 2
    weight_filler {
      type: "gaussian"
      std: 0.01
    }
    bias_filler {
      type: "constant"
      value: 0.1
    }
  }
}
layer {
  name: "relu4"
  type: "ReLU"
  bottom: "conv4"
  top: "conv4"
}
layer {
  name: "conv5"
  type: "Convolution"
  bottom: "conv4"
  top: "conv5"
  param {
    lr_mult: 1
    decay_mult: 1
  }
  param {
    lr_mult: 2
    decay_mult: 0
  }
  convolution_param {
    num_output: 256
    pad: 1
    kernel_size: 3
    group: 2
    weight_filler {
      type: "gaussian"
      std: 0.01
    }
    bias_filler {
      type: "constant"
      value: 0.1
    }
  }
}
layer {
  name: "relu5"
  type: "ReLU"
  bottom: "conv5"
  top: "conv5"
}
layer {
  name: "pool5"
  type: "Pooling"
  bottom: "conv5"
  top: "pool5"
  pooling_param {
    pool: MAX
    kernel_size: 3
    stride: 2
  }
}
layer {
  name: "fc6"
  type: "InnerProduct"
  bottom: "pool5"
  top: "fc6"
  param {
    lr_mult: 1
    decay_mult: 1
  }
  param {
    lr_mult: 2
    decay_mult: 0
  }
  inner_product_param {
    num_output: 4096
    weight_filler {
      type: "gaussian"
      std: 0.005
    }
    bias_filler {
      type: "constant"
      value: 0.1
    }
  }
}
layer {
  name: "relu6"
  type: "ReLU"
  bottom: "fc6"
  top: "fc6"
}
layer {
  name: "drop6"
  type: "Dropout"
  bottom: "fc6"
  top: "fc6"
  dropout_param {
    dropout_ratio: 0.5
  }
}
layer {
  name: "fc7"
  type: "InnerProduct"
  bottom: "fc6"
  top: "fc7"
  param {
    lr_mult: 1
    decay_mult: 1
  }
  param {
    lr_mult: 2
    decay_mult: 0
  }
  inner_product_param {
    num_output: 4096
    weight_filler {
      type: "gaussian"
      std: 0.005
    }
    bias_filler {
      type: "constant"
      value: 0.1
    }
  }
}
layer {
  name: "relu7"
  type: "ReLU"
  bottom: "fc7"
  top: "fc7"
}
layer {
  name: "drop7"
  type: "Dropout"
  bottom: "fc7"
  top: "fc7"
  dropout_param {
    dropout_ratio: 0.5
  }
}
layer {
  name: "fc8"
  type: "InnerProduct"
  bottom: "fc7"
  top: "fc8"
  param {
    lr_mult: 1
    decay_mult: 1
  }
  param {
    lr_mult: 2
    decay_mult: 0
  }
  inner_product_param {
    num_output: 3
    weight_filler {
      type: "gaussian"
      std: 0.01
    }
    bias_filler {
      type: "constant"
      value: 0
    }
  }
}
layer {
  name: "accuracy"
  type: "Accuracy"
  bottom: "fc8"
  bottom: "label"
  top: "accuracy"
  include {
    phase: TEST
  }
}
layer {
  name: "loss"
  type: "SoftmaxWithLoss"
  bottom: "fc8"
  bottom: "label"
  top: "loss"
}
I0824 13:39:08.957878 13719 layer_factory.hpp:77] Creating layer mnist
I0824 13:39:08.958009 13719 net.cpp:100] Creating Layer mnist
I0824 13:39:08.958017 13719 net.cpp:408] mnist -> data
I0824 13:39:08.958026 13719 net.cpp:408] mnist -> label
I0824 13:39:08.958034 13719 data_transformer.cpp:25] Loading mean file from: data/person_only_lmdb/person_vs_background_vs_random_256_color_mean.binaryproto
I0824 13:39:08.959656 13732 db_lmdb.cpp:35] Opened lmdb data/person_only_lmdb/person_vs_background_vs_random_256_test_lmdb
I0824 13:39:08.963995 13719 data_layer.cpp:41] output data size: 100,3,256,256
I0824 13:39:09.162781 13719 net.cpp:150] Setting up mnist
I0824 13:39:09.162818 13719 net.cpp:157] Top shape: 100 3 256 256 (19660800)
I0824 13:39:09.162824 13719 net.cpp:157] Top shape: 100 (100)
I0824 13:39:09.162827 13719 net.cpp:165] Memory required for data: 78643600
I0824 13:39:09.162834 13719 layer_factory.hpp:77] Creating layer label_mnist_1_split
I0824 13:39:09.162852 13719 net.cpp:100] Creating Layer label_mnist_1_split
I0824 13:39:09.162856 13719 net.cpp:434] label_mnist_1_split <- label
I0824 13:39:09.162864 13719 net.cpp:408] label_mnist_1_split -> label_mnist_1_split_0
I0824 13:39:09.162875 13719 net.cpp:408] label_mnist_1_split -> label_mnist_1_split_1
I0824 13:39:09.163163 13719 net.cpp:150] Setting up label_mnist_1_split
I0824 13:39:09.163194 13719 net.cpp:157] Top shape: 100 (100)
I0824 13:39:09.163203 13719 net.cpp:157] Top shape: 100 (100)
I0824 13:39:09.163208 13719 net.cpp:165] Memory required for data: 78644400
I0824 13:39:09.163214 13719 layer_factory.hpp:77] Creating layer conv1
I0824 13:39:09.163239 13719 net.cpp:100] Creating Layer conv1
I0824 13:39:09.163249 13719 net.cpp:434] conv1 <- data
I0824 13:39:09.163262 13719 net.cpp:408] conv1 -> conv1
I0824 13:39:09.181699 13719 net.cpp:150] Setting up conv1
I0824 13:39:09.181732 13719 net.cpp:157] Top shape: 100 96 62 62 (36902400)
I0824 13:39:09.181740 13719 net.cpp:165] Memory required for data: 226254000
I0824 13:39:09.181761 13719 layer_factory.hpp:77] Creating layer relu1
I0824 13:39:09.181777 13719 net.cpp:100] Creating Layer relu1
I0824 13:39:09.181788 13719 net.cpp:434] relu1 <- conv1
I0824 13:39:09.181798 13719 net.cpp:395] relu1 -> conv1 (in-place)
I0824 13:39:09.182154 13719 net.cpp:150] Setting up relu1
I0824 13:39:09.182180 13719 net.cpp:157] Top shape: 100 96 62 62 (36902400)
I0824 13:39:09.182186 13719 net.cpp:165] Memory required for data: 373863600
I0824 13:39:09.182191 13719 layer_factory.hpp:77] Creating layer norm1
I0824 13:39:09.182209 13719 net.cpp:100] Creating Layer norm1
I0824 13:39:09.182214 13719 net.cpp:434] norm1 <- conv1
I0824 13:39:09.182224 13719 net.cpp:408] norm1 -> norm1
I0824 13:39:09.183221 13719 net.cpp:150] Setting up norm1
I0824 13:39:09.183253 13719 net.cpp:157] Top shape: 100 96 62 62 (36902400)
I0824 13:39:09.183259 13719 net.cpp:165] Memory required for data: 521473200
I0824 13:39:09.183265 13719 layer_factory.hpp:77] Creating layer pool1
I0824 13:39:09.183279 13719 net.cpp:100] Creating Layer pool1
I0824 13:39:09.183286 13719 net.cpp:434] pool1 <- norm1
I0824 13:39:09.183297 13719 net.cpp:408] pool1 -> pool1
I0824 13:39:09.183380 13719 net.cpp:150] Setting up pool1
I0824 13:39:09.183394 13719 net.cpp:157] Top shape: 100 96 31 31 (9225600)
I0824 13:39:09.183400 13719 net.cpp:165] Memory required for data: 558375600
I0824 13:39:09.183406 13719 layer_factory.hpp:77] Creating layer conv2
I0824 13:39:09.183425 13719 net.cpp:100] Creating Layer conv2
I0824 13:39:09.183432 13719 net.cpp:434] conv2 <- pool1
I0824 13:39:09.183445 13719 net.cpp:408] conv2 -> conv2
I0824 13:39:09.193868 13719 net.cpp:150] Setting up conv2
I0824 13:39:09.193902 13719 net.cpp:157] Top shape: 100 256 31 31 (24601600)
I0824 13:39:09.193907 13719 net.cpp:165] Memory required for data: 656782000
I0824 13:39:09.193927 13719 layer_factory.hpp:77] Creating layer relu2
I0824 13:39:09.193941 13719 net.cpp:100] Creating Layer relu2
I0824 13:39:09.193948 13719 net.cpp:434] relu2 <- conv2
I0824 13:39:09.193958 13719 net.cpp:395] relu2 -> conv2 (in-place)
I0824 13:39:09.194895 13719 net.cpp:150] Setting up relu2
I0824 13:39:09.194923 13719 net.cpp:157] Top shape: 100 256 31 31 (24601600)
I0824 13:39:09.194929 13719 net.cpp:165] Memory required for data: 755188400
I0824 13:39:09.194936 13719 layer_factory.hpp:77] Creating layer norm2
I0824 13:39:09.194967 13719 net.cpp:100] Creating Layer norm2
I0824 13:39:09.194973 13719 net.cpp:434] norm2 <- conv2
I0824 13:39:09.194991 13719 net.cpp:408] norm2 -> norm2
I0824 13:39:09.195389 13719 net.cpp:150] Setting up norm2
I0824 13:39:09.195408 13719 net.cpp:157] Top shape: 100 256 31 31 (24601600)
I0824 13:39:09.195415 13719 net.cpp:165] Memory required for data: 853594800
I0824 13:39:09.195420 13719 layer_factory.hpp:77] Creating layer pool2
I0824 13:39:09.195432 13719 net.cpp:100] Creating Layer pool2
I0824 13:39:09.195437 13719 net.cpp:434] pool2 <- norm2
I0824 13:39:09.195448 13719 net.cpp:408] pool2 -> pool2
I0824 13:39:09.195523 13719 net.cpp:150] Setting up pool2
I0824 13:39:09.195538 13719 net.cpp:157] Top shape: 100 256 15 15 (5760000)
I0824 13:39:09.195543 13719 net.cpp:165] Memory required for data: 876634800
I0824 13:39:09.195547 13719 layer_factory.hpp:77] Creating layer conv3
I0824 13:39:09.195564 13719 net.cpp:100] Creating Layer conv3
I0824 13:39:09.195572 13719 net.cpp:434] conv3 <- pool2
I0824 13:39:09.195585 13719 net.cpp:408] conv3 -> conv3
I0824 13:39:09.219652 13719 net.cpp:150] Setting up conv3
I0824 13:39:09.219696 13719 net.cpp:157] Top shape: 100 384 15 15 (8640000)
I0824 13:39:09.219703 13719 net.cpp:165] Memory required for data: 911194800
I0824 13:39:09.219730 13719 layer_factory.hpp:77] Creating layer relu3
I0824 13:39:09.219753 13719 net.cpp:100] Creating Layer relu3
I0824 13:39:09.219760 13719 net.cpp:434] relu3 <- conv3
I0824 13:39:09.219772 13719 net.cpp:395] relu3 -> conv3 (in-place)
I0824 13:39:09.220124 13719 net.cpp:150] Setting up relu3
I0824 13:39:09.220142 13719 net.cpp:157] Top shape: 100 384 15 15 (8640000)
I0824 13:39:09.220147 13719 net.cpp:165] Memory required for data: 945754800
I0824 13:39:09.220152 13719 layer_factory.hpp:77] Creating layer conv4
I0824 13:39:09.220175 13719 net.cpp:100] Creating Layer conv4
I0824 13:39:09.220181 13719 net.cpp:434] conv4 <- conv3
I0824 13:39:09.220193 13719 net.cpp:408] conv4 -> conv4
I0824 13:39:09.239320 13719 net.cpp:150] Setting up conv4
I0824 13:39:09.239365 13719 net.cpp:157] Top shape: 100 384 15 15 (8640000)
I0824 13:39:09.239372 13719 net.cpp:165] Memory required for data: 980314800
I0824 13:39:09.239389 13719 layer_factory.hpp:77] Creating layer relu4
I0824 13:39:09.239408 13719 net.cpp:100] Creating Layer relu4
I0824 13:39:09.239415 13719 net.cpp:434] relu4 <- conv4
I0824 13:39:09.239429 13719 net.cpp:395] relu4 -> conv4 (in-place)
I0824 13:39:09.239795 13719 net.cpp:150] Setting up relu4
I0824 13:39:09.239814 13719 net.cpp:157] Top shape: 100 384 15 15 (8640000)
I0824 13:39:09.239819 13719 net.cpp:165] Memory required for data: 1014874800
I0824 13:39:09.239823 13719 layer_factory.hpp:77] Creating layer conv5
I0824 13:39:09.239842 13719 net.cpp:100] Creating Layer conv5
I0824 13:39:09.239847 13719 net.cpp:434] conv5 <- conv4
I0824 13:39:09.239858 13719 net.cpp:408] conv5 -> conv5
I0824 13:39:09.252817 13719 net.cpp:150] Setting up conv5
I0824 13:39:09.252849 13719 net.cpp:157] Top shape: 100 256 15 15 (5760000)
I0824 13:39:09.252854 13719 net.cpp:165] Memory required for data: 1037914800
I0824 13:39:09.252876 13719 layer_factory.hpp:77] Creating layer relu5
I0824 13:39:09.252892 13719 net.cpp:100] Creating Layer relu5
I0824 13:39:09.252897 13719 net.cpp:434] relu5 <- conv5
I0824 13:39:09.252907 13719 net.cpp:395] relu5 -> conv5 (in-place)
I0824 13:39:09.253214 13719 net.cpp:150] Setting up relu5
I0824 13:39:09.253229 13719 net.cpp:157] Top shape: 100 256 15 15 (5760000)
I0824 13:39:09.253233 13719 net.cpp:165] Memory required for data: 1060954800
I0824 13:39:09.253238 13719 layer_factory.hpp:77] Creating layer pool5
I0824 13:39:09.253262 13719 net.cpp:100] Creating Layer pool5
I0824 13:39:09.253267 13719 net.cpp:434] pool5 <- conv5
I0824 13:39:09.253274 13719 net.cpp:408] pool5 -> pool5
I0824 13:39:09.253365 13719 net.cpp:150] Setting up pool5
I0824 13:39:09.253376 13719 net.cpp:157] Top shape: 100 256 7 7 (1254400)
I0824 13:39:09.253381 13719 net.cpp:165] Memory required for data: 1065972400
I0824 13:39:09.253386 13719 layer_factory.hpp:77] Creating layer fc6
I0824 13:39:09.253401 13719 net.cpp:100] Creating Layer fc6
I0824 13:39:09.253407 13719 net.cpp:434] fc6 <- pool5
I0824 13:39:09.253417 13719 net.cpp:408] fc6 -> fc6
I0824 13:39:09.970830 13719 net.cpp:150] Setting up fc6
I0824 13:39:09.970875 13719 net.cpp:157] Top shape: 100 4096 (409600)
I0824 13:39:09.970880 13719 net.cpp:165] Memory required for data: 1067610800
I0824 13:39:09.970892 13719 layer_factory.hpp:77] Creating layer relu6
I0824 13:39:09.970908 13719 net.cpp:100] Creating Layer relu6
I0824 13:39:09.970913 13719 net.cpp:434] relu6 <- fc6
I0824 13:39:09.970922 13719 net.cpp:395] relu6 -> fc6 (in-place)
I0824 13:39:09.971218 13719 net.cpp:150] Setting up relu6
I0824 13:39:09.971230 13719 net.cpp:157] Top shape: 100 4096 (409600)
I0824 13:39:09.971231 13719 net.cpp:165] Memory required for data: 1069249200
I0824 13:39:09.971235 13719 layer_factory.hpp:77] Creating layer drop6
I0824 13:39:09.971243 13719 net.cpp:100] Creating Layer drop6
I0824 13:39:09.971246 13719 net.cpp:434] drop6 <- fc6
I0824 13:39:09.971253 13719 net.cpp:395] drop6 -> fc6 (in-place)
I0824 13:39:09.971289 13719 net.cpp:150] Setting up drop6
I0824 13:39:09.971299 13719 net.cpp:157] Top shape: 100 4096 (409600)
I0824 13:39:09.971302 13719 net.cpp:165] Memory required for data: 1070887600
I0824 13:39:09.971304 13719 layer_factory.hpp:77] Creating layer fc7
I0824 13:39:09.971314 13719 net.cpp:100] Creating Layer fc7
I0824 13:39:09.971319 13719 net.cpp:434] fc7 <- fc6
I0824 13:39:09.971325 13719 net.cpp:408] fc7 -> fc7
I0824 13:39:10.152891 13719 net.cpp:150] Setting up fc7
I0824 13:39:10.152933 13719 net.cpp:157] Top shape: 100 4096 (409600)
I0824 13:39:10.152935 13719 net.cpp:165] Memory required for data: 1072526000
I0824 13:39:10.152946 13719 layer_factory.hpp:77] Creating layer relu7
I0824 13:39:10.152958 13719 net.cpp:100] Creating Layer relu7
I0824 13:39:10.152962 13719 net.cpp:434] relu7 <- fc7
I0824 13:39:10.152969 13719 net.cpp:395] relu7 -> fc7 (in-place)
I0824 13:39:10.153686 13719 net.cpp:150] Setting up relu7
I0824 13:39:10.153698 13719 net.cpp:157] Top shape: 100 4096 (409600)
I0824 13:39:10.153712 13719 net.cpp:165] Memory required for data: 1074164400
I0824 13:39:10.153714 13719 layer_factory.hpp:77] Creating layer drop7
I0824 13:39:10.153723 13719 net.cpp:100] Creating Layer drop7
I0824 13:39:10.153725 13719 net.cpp:434] drop7 <- fc7
I0824 13:39:10.153730 13719 net.cpp:395] drop7 -> fc7 (in-place)
I0824 13:39:10.153774 13719 net.cpp:150] Setting up drop7
I0824 13:39:10.153780 13719 net.cpp:157] Top shape: 100 4096 (409600)
I0824 13:39:10.153782 13719 net.cpp:165] Memory required for data: 1075802800
I0824 13:39:10.153785 13719 layer_factory.hpp:77] Creating layer fc8
I0824 13:39:10.153795 13719 net.cpp:100] Creating Layer fc8
I0824 13:39:10.153796 13719 net.cpp:434] fc8 <- fc7
I0824 13:39:10.153802 13719 net.cpp:408] fc8 -> fc8
I0824 13:39:10.154069 13719 net.cpp:150] Setting up fc8
I0824 13:39:10.154078 13719 net.cpp:157] Top shape: 100 3 (300)
I0824 13:39:10.154080 13719 net.cpp:165] Memory required for data: 1075804000
I0824 13:39:10.154096 13719 layer_factory.hpp:77] Creating layer fc8_fc8_0_split
I0824 13:39:10.154114 13719 net.cpp:100] Creating Layer fc8_fc8_0_split
I0824 13:39:10.154116 13719 net.cpp:434] fc8_fc8_0_split <- fc8
I0824 13:39:10.154122 13719 net.cpp:408] fc8_fc8_0_split -> fc8_fc8_0_split_0
I0824 13:39:10.154129 13719 net.cpp:408] fc8_fc8_0_split -> fc8_fc8_0_split_1
I0824 13:39:10.154168 13719 net.cpp:150] Setting up fc8_fc8_0_split
I0824 13:39:10.154175 13719 net.cpp:157] Top shape: 100 3 (300)
I0824 13:39:10.154177 13719 net.cpp:157] Top shape: 100 3 (300)
I0824 13:39:10.154180 13719 net.cpp:165] Memory required for data: 1075806400
I0824 13:39:10.154182 13719 layer_factory.hpp:77] Creating layer accuracy
I0824 13:39:10.154189 13719 net.cpp:100] Creating Layer accuracy
I0824 13:39:10.154192 13719 net.cpp:434] accuracy <- fc8_fc8_0_split_0
I0824 13:39:10.154196 13719 net.cpp:434] accuracy <- label_mnist_1_split_0
I0824 13:39:10.154201 13719 net.cpp:408] accuracy -> accuracy
…
