…
I0830 17:42:01.139910 13230 net.cpp:322] The NetState phase (0) differed from the phase (1) specified by a rule in layer accuracy
I0830 17:42:01.140082 13230 net.cpp:58] Initializing net from parameters: 
name: "AlexNet"
state {
  phase: TRAIN
  level: 0
  stage: ""
}
layer {
  name: "mnist"
  type: "Data"
  top: "data"
  top: "label"
  include {
    phase: TRAIN
  }
  transform_param {
    scale: 0.00390625
    mean_file: "data/person_only_lmdb/person_vs_background_vs_random_color_mean.binaryproto"
  }
  data_param {
    source: "data/person_only_lmdb/person_vs_background_vs_random_train_lmdb"
    batch_size: 128
    backend: LMDB
  }
}
layer {
  name: "conv1"
  type: "Convolution"
  bottom: "data"
  top: "conv1"
  param {
    lr_mult: 1
    decay_mult: 1
  }
  param {
    lr_mult: 2
    decay_mult: 0
  }
  convolution_param {
    num_output: 96
    kernel_size: 11
    stride: 4
    weight_filler {
      type: "gaussian"
      std: 0.01
    }
    bias_filler {
      type: "constant"
      value: 0
    }
  }
}
layer {
  name: "relu1"
  type: "ReLU"
  bottom: "conv1"
  top: "conv1"
}
layer {
  name: "norm1"
  type: "LRN"
  bottom: "conv1"
  top: "norm1"
  lrn_param {
    local_size: 5
    alpha: 0.0001
    beta: 0.75
  }
}
layer {
  name: "pool1"
  type: "Pooling"
  bottom: "norm1"
  top: "pool1"
  pooling_param {
    pool: MAX
    kernel_size: 3
    stride: 2
  }
}
layer {
  name: "conv2"
  type: "Convolution"
  bottom: "pool1"
  top: "conv2"
  param {
    lr_mult: 1
    decay_mult: 1
  }
  param {
    lr_mult: 2
    decay_mult: 0
  }
  convolution_param {
    num_output: 256
    pad: 2
    kernel_size: 5
    group: 2
    weight_filler {
      type: "gaussian"
      std: 0.01
    }
    bias_filler {
      type: "constant"
      value: 0.1
    }
  }
}
layer {
  name: "relu2"
  type: "ReLU"
  bottom: "conv2"
  top: "conv2"
}
layer {
  name: "norm2"
  type: "LRN"
  bottom: "conv2"
  top: "norm2"
  lrn_param {
    local_size: 5
    alpha: 0.0001
    beta: 0.75
  }
}
layer {
  name: "pool2"
  type: "Pooling"
  bottom: "norm2"
  top: "pool2"
  pooling_param {
    pool: MAX
    kernel_size: 3
    stride: 2
  }
}
layer {
  name: "conv3"
  type: "Convolution"
  bottom: "pool2"
  top: "conv3"
  param {
    lr_mult: 1
    decay_mult: 1
  }
  param {
    lr_mult: 2
    decay_mult: 0
  }
  convolution_param {
    num_output: 384
    pad: 1
    kernel_size: 3
    weight_filler {
      type: "gaussian"
      std: 0.01
    }
    bias_filler {
      type: "constant"
      value: 0
    }
  }
}
layer {
  name: "relu3"
  type: "ReLU"
  bottom: "conv3"
  top: "conv3"
}
layer {
  name: "conv4"
  type: "Convolution"
  bottom: "conv3"
  top: "conv4"
  param {
    lr_mult: 1
    decay_mult: 1
  }
  param {
    lr_mult: 2
    decay_mult: 0
  }
  convolution_param {
    num_output: 384
    pad: 1
    kernel_size: 3
    group: 2
    weight_filler {
      type: "gaussian"
      std: 0.01
    }
    bias_filler {
      type: "constant"
      value: 0.1
    }
  }
}
layer {
  name: "relu4"
  type: "ReLU"
  bottom: "conv4"
  top: "conv4"
}
layer {
  name: "conv5"
  type: "Convolution"
  bottom: "conv4"
  top: "conv5"
  param {
    lr_mult: 1
    decay_mult: 1
  }
  param {
    lr_mult: 2
    decay_mult: 0
  }
  convolution_param {
    num_output: 256
    pad: 1
    kernel_size: 3
    group: 2
    weight_filler {
      type: "gaussian"
      std: 0.01
    }
    bias_filler {
      type: "constant"
      value: 0.1
    }
  }
}
layer {
  name: "relu5"
  type: "ReLU"
  bottom: "conv5"
  top: "conv5"
}
layer {
  name: "pool5"
  type: "Pooling"
  bottom: "conv5"
  top: "pool5"
  pooling_param {
    pool: MAX
    kernel_size: 3
    stride: 2
  }
}
layer {
  name: "fc6new"
  type: "InnerProduct"
  bottom: "pool5"
  top: "fc6"
  param {
    lr_mult: 1
    decay_mult: 1
  }
  param {
    lr_mult: 2
    decay_mult: 0
  }
  inner_product_param {
    num_output: 4096
    weight_filler {
      type: "gaussian"
      std: 0.005
    }
    bias_filler {
      type: "constant"
      value: 0.1
    }
  }
}
layer {
  name: "relu6"
  type: "ReLU"
  bottom: "fc6"
  top: "fc6"
}
layer {
  name: "drop6"
  type: "Dropout"
  bottom: "fc6"
  top: "fc6"
  dropout_param {
    dropout_ratio: 0.5
  }
}
layer {
  name: "fc7new"
  type: "InnerProduct"
  bottom: "fc6"
  top: "fc7"
  param {
    lr_mult: 1
    decay_mult: 1
  }
  param {
    lr_mult: 2
    decay_mult: 0
  }
  inner_product_param {
    num_output: 4096
    weight_filler {
      type: "gaussian"
      std: 0.005
    }
    bias_filler {
      type: "constant"
      value: 0.1
    }
  }
}
layer {
  name: "relu7"
  type: "ReLU"
  bottom: "fc7"
  top: "fc7"
}
layer {
  name: "drop7"
  type: "Dropout"
  bottom: "fc7"
  top: "fc7"
  dropout_param {
    dropout_ratio: 0.5
  }
}
layer {
  name: "fc8new"
  type: "InnerProduct"
  bottom: "fc7"
  top: "fc8"
  param {
    lr_mult: 1
    decay_mult: 1
  }
  param {
    lr_mult: 2
    decay_mult: 0
  }
  inner_product_param {
    num_output: 3
    weight_filler {
      type: "gaussian"
      std: 0.01
    }
    bias_filler {
      type: "constant"
      value: 0
    }
  }
}
layer {
  name: "loss"
  type: "SoftmaxWithLoss"
  bottom: "fc8"
  bottom: "label"
  top: "loss"
}
I0830 17:42:01.140202 13230 layer_factory.hpp:77] Creating layer mnist
I0830 17:42:01.140772 13230 net.cpp:100] Creating Layer mnist
I0830 17:42:01.140786 13230 net.cpp:408] mnist -> data
I0830 17:42:01.140811 13230 net.cpp:408] mnist -> label
I0830 17:42:01.140826 13230 data_transformer.cpp:25] Loading mean file from: data/person_only_lmdb/person_vs_background_vs_random_color_mean.binaryproto
I0830 17:42:01.142441 13243 db_lmdb.cpp:35] Opened lmdb data/person_only_lmdb/person_vs_background_vs_random_train_lmdb
I0830 17:42:01.176441 13230 data_layer.cpp:41] output data size: 128,3,128,128
I0830 17:42:01.245695 13230 net.cpp:150] Setting up mnist
I0830 17:42:01.245744 13230 net.cpp:157] Top shape: 128 3 128 128 (6291456)
I0830 17:42:01.245753 13230 net.cpp:157] Top shape: 128 (128)
I0830 17:42:01.245755 13230 net.cpp:165] Memory required for data: 25166336
I0830 17:42:01.245770 13230 layer_factory.hpp:77] Creating layer conv1
I0830 17:42:01.245806 13230 net.cpp:100] Creating Layer conv1
I0830 17:42:01.245815 13230 net.cpp:434] conv1 <- data
I0830 17:42:01.245834 13230 net.cpp:408] conv1 -> conv1
I0830 17:42:01.559382 13230 net.cpp:150] Setting up conv1
I0830 17:42:01.559419 13230 net.cpp:157] Top shape: 128 96 30 30 (11059200)
I0830 17:42:01.559423 13230 net.cpp:165] Memory required for data: 69403136
I0830 17:42:01.559450 13230 layer_factory.hpp:77] Creating layer relu1
I0830 17:42:01.559464 13230 net.cpp:100] Creating Layer relu1
I0830 17:42:01.559470 13230 net.cpp:434] relu1 <- conv1
I0830 17:42:01.559476 13230 net.cpp:395] relu1 -> conv1 (in-place)
I0830 17:42:01.559672 13230 net.cpp:150] Setting up relu1
I0830 17:42:01.559684 13230 net.cpp:157] Top shape: 128 96 30 30 (11059200)
I0830 17:42:01.559689 13230 net.cpp:165] Memory required for data: 113639936
I0830 17:42:01.559691 13230 layer_factory.hpp:77] Creating layer norm1
I0830 17:42:01.559701 13230 net.cpp:100] Creating Layer norm1
I0830 17:42:01.559705 13230 net.cpp:434] norm1 <- conv1
I0830 17:42:01.559710 13230 net.cpp:408] norm1 -> norm1
I0830 17:42:01.560201 13230 net.cpp:150] Setting up norm1
I0830 17:42:01.560235 13230 net.cpp:157] Top shape: 128 96 30 30 (11059200)
I0830 17:42:01.560238 13230 net.cpp:165] Memory required for data: 157876736
I0830 17:42:01.560242 13230 layer_factory.hpp:77] Creating layer pool1
I0830 17:42:01.560251 13230 net.cpp:100] Creating Layer pool1
I0830 17:42:01.560255 13230 net.cpp:434] pool1 <- norm1
I0830 17:42:01.560261 13230 net.cpp:408] pool1 -> pool1
I0830 17:42:01.560310 13230 net.cpp:150] Setting up pool1
I0830 17:42:01.560319 13230 net.cpp:157] Top shape: 128 96 15 15 (2764800)
I0830 17:42:01.560322 13230 net.cpp:165] Memory required for data: 168935936
I0830 17:42:01.560325 13230 layer_factory.hpp:77] Creating layer conv2
I0830 17:42:01.560338 13230 net.cpp:100] Creating Layer conv2
I0830 17:42:01.560341 13230 net.cpp:434] conv2 <- pool1
I0830 17:42:01.560346 13230 net.cpp:408] conv2 -> conv2
I0830 17:42:01.566700 13230 net.cpp:150] Setting up conv2
I0830 17:42:01.566717 13230 net.cpp:157] Top shape: 128 256 15 15 (7372800)
I0830 17:42:01.566721 13230 net.cpp:165] Memory required for data: 198427136
I0830 17:42:01.566730 13230 layer_factory.hpp:77] Creating layer relu2
I0830 17:42:01.566738 13230 net.cpp:100] Creating Layer relu2
I0830 17:42:01.566742 13230 net.cpp:434] relu2 <- conv2
I0830 17:42:01.566748 13230 net.cpp:395] relu2 -> conv2 (in-place)
I0830 17:42:01.567222 13230 net.cpp:150] Setting up relu2
I0830 17:42:01.567239 13230 net.cpp:157] Top shape: 128 256 15 15 (7372800)
I0830 17:42:01.567242 13230 net.cpp:165] Memory required for data: 227918336
I0830 17:42:01.567245 13230 layer_factory.hpp:77] Creating layer norm2
I0830 17:42:01.567252 13230 net.cpp:100] Creating Layer norm2
I0830 17:42:01.567255 13230 net.cpp:434] norm2 <- conv2
I0830 17:42:01.567262 13230 net.cpp:408] norm2 -> norm2
I0830 17:42:01.567477 13230 net.cpp:150] Setting up norm2
I0830 17:42:01.567488 13230 net.cpp:157] Top shape: 128 256 15 15 (7372800)
I0830 17:42:01.567492 13230 net.cpp:165] Memory required for data: 257409536
I0830 17:42:01.567494 13230 layer_factory.hpp:77] Creating layer pool2
I0830 17:42:01.567503 13230 net.cpp:100] Creating Layer pool2
I0830 17:42:01.567507 13230 net.cpp:434] pool2 <- norm2
I0830 17:42:01.567512 13230 net.cpp:408] pool2 -> pool2
I0830 17:42:01.567553 13230 net.cpp:150] Setting up pool2
I0830 17:42:01.567559 13230 net.cpp:157] Top shape: 128 256 7 7 (1605632)
I0830 17:42:01.567562 13230 net.cpp:165] Memory required for data: 263832064
I0830 17:42:01.567565 13230 layer_factory.hpp:77] Creating layer conv3
I0830 17:42:01.567576 13230 net.cpp:100] Creating Layer conv3
I0830 17:42:01.567579 13230 net.cpp:434] conv3 <- pool2
I0830 17:42:01.567586 13230 net.cpp:408] conv3 -> conv3
I0830 17:42:01.581027 13230 net.cpp:150] Setting up conv3
I0830 17:42:01.581045 13230 net.cpp:157] Top shape: 128 384 7 7 (2408448)
I0830 17:42:01.581048 13230 net.cpp:165] Memory required for data: 273465856
I0830 17:42:01.581058 13230 layer_factory.hpp:77] Creating layer relu3
I0830 17:42:01.581065 13230 net.cpp:100] Creating Layer relu3
I0830 17:42:01.581068 13230 net.cpp:434] relu3 <- conv3
I0830 17:42:01.581076 13230 net.cpp:395] relu3 -> conv3 (in-place)
I0830 17:42:01.581276 13230 net.cpp:150] Setting up relu3
I0830 17:42:01.581290 13230 net.cpp:157] Top shape: 128 384 7 7 (2408448)
I0830 17:42:01.581293 13230 net.cpp:165] Memory required for data: 283099648
I0830 17:42:01.581296 13230 layer_factory.hpp:77] Creating layer conv4
I0830 17:42:01.581315 13230 net.cpp:100] Creating Layer conv4
I0830 17:42:01.581318 13230 net.cpp:434] conv4 <- conv3
I0830 17:42:01.581324 13230 net.cpp:408] conv4 -> conv4
I0830 17:42:01.592609 13230 net.cpp:150] Setting up conv4
I0830 17:42:01.592628 13230 net.cpp:157] Top shape: 128 384 7 7 (2408448)
I0830 17:42:01.592630 13230 net.cpp:165] Memory required for data: 292733440
I0830 17:42:01.592638 13230 layer_factory.hpp:77] Creating layer relu4
I0830 17:42:01.592645 13230 net.cpp:100] Creating Layer relu4
I0830 17:42:01.592649 13230 net.cpp:434] relu4 <- conv4
I0830 17:42:01.592654 13230 net.cpp:395] relu4 -> conv4 (in-place)
I0830 17:42:01.592852 13230 net.cpp:150] Setting up relu4
I0830 17:42:01.592877 13230 net.cpp:157] Top shape: 128 384 7 7 (2408448)
I0830 17:42:01.592881 13230 net.cpp:165] Memory required for data: 302367232
I0830 17:42:01.592885 13230 layer_factory.hpp:77] Creating layer conv5
I0830 17:42:01.592897 13230 net.cpp:100] Creating Layer conv5
I0830 17:42:01.592902 13230 net.cpp:434] conv5 <- conv4
I0830 17:42:01.592908 13230 net.cpp:408] conv5 -> conv5
I0830 17:42:01.601470 13230 net.cpp:150] Setting up conv5
I0830 17:42:01.601488 13230 net.cpp:157] Top shape: 128 256 7 7 (1605632)
I0830 17:42:01.601491 13230 net.cpp:165] Memory required for data: 308789760
I0830 17:42:01.601505 13230 layer_factory.hpp:77] Creating layer relu5
I0830 17:42:01.601511 13230 net.cpp:100] Creating Layer relu5
I0830 17:42:01.601514 13230 net.cpp:434] relu5 <- conv5
I0830 17:42:01.601519 13230 net.cpp:395] relu5 -> conv5 (in-place)
I0830 17:42:01.601742 13230 net.cpp:150] Setting up relu5
I0830 17:42:01.601755 13230 net.cpp:157] Top shape: 128 256 7 7 (1605632)
I0830 17:42:01.601759 13230 net.cpp:165] Memory required for data: 315212288
I0830 17:42:01.601763 13230 layer_factory.hpp:77] Creating layer pool5
I0830 17:42:01.601770 13230 net.cpp:100] Creating Layer pool5
I0830 17:42:01.601774 13230 net.cpp:434] pool5 <- conv5
I0830 17:42:01.601781 13230 net.cpp:408] pool5 -> pool5
I0830 17:42:01.601830 13230 net.cpp:150] Setting up pool5
I0830 17:42:01.601837 13230 net.cpp:157] Top shape: 128 256 3 3 (294912)
I0830 17:42:01.601840 13230 net.cpp:165] Memory required for data: 316391936
I0830 17:42:01.601843 13230 layer_factory.hpp:77] Creating layer fc6new
I0830 17:42:01.601856 13230 net.cpp:100] Creating Layer fc6new
I0830 17:42:01.601861 13230 net.cpp:434] fc6new <- pool5
I0830 17:42:01.601866 13230 net.cpp:408] fc6new -> fc6
I0830 17:42:01.733785 13230 net.cpp:150] Setting up fc6new
I0830 17:42:01.733816 13230 net.cpp:157] Top shape: 128 4096 (524288)
I0830 17:42:01.733820 13230 net.cpp:165] Memory required for data: 318489088
I0830 17:42:01.733829 13230 layer_factory.hpp:77] Creating layer relu6
I0830 17:42:01.733841 13230 net.cpp:100] Creating Layer relu6
I0830 17:42:01.733846 13230 net.cpp:434] relu6 <- fc6
I0830 17:42:01.733852 13230 net.cpp:395] relu6 -> fc6 (in-place)
I0830 17:42:01.734410 13230 net.cpp:150] Setting up relu6
I0830 17:42:01.734426 13230 net.cpp:157] Top shape: 128 4096 (524288)
I0830 17:42:01.734431 13230 net.cpp:165] Memory required for data: 320586240
I0830 17:42:01.734433 13230 layer_factory.hpp:77] Creating layer drop6
I0830 17:42:01.734441 13230 net.cpp:100] Creating Layer drop6
I0830 17:42:01.734444 13230 net.cpp:434] drop6 <- fc6
I0830 17:42:01.734452 13230 net.cpp:395] drop6 -> fc6 (in-place)
I0830 17:42:01.734483 13230 net.cpp:150] Setting up drop6
I0830 17:42:01.734488 13230 net.cpp:157] Top shape: 128 4096 (524288)
I0830 17:42:01.734491 13230 net.cpp:165] Memory required for data: 322683392
I0830 17:42:01.734494 13230 layer_factory.hpp:77] Creating layer fc7new
I0830 17:42:01.734504 13230 net.cpp:100] Creating Layer fc7new
I0830 17:42:01.734508 13230 net.cpp:434] fc7new <- fc6
I0830 17:42:01.734513 13230 net.cpp:408] fc7new -> fc7
I0830 17:42:01.965996 13230 net.cpp:150] Setting up fc7new
I0830 17:42:01.966025 13230 net.cpp:157] Top shape: 128 4096 (524288)
I0830 17:42:01.966028 13230 net.cpp:165] Memory required for data: 324780544
I0830 17:42:01.966038 13230 layer_factory.hpp:77] Creating layer relu7
I0830 17:42:01.966047 13230 net.cpp:100] Creating Layer relu7
I0830 17:42:01.966050 13230 net.cpp:434] relu7 <- fc7
I0830 17:42:01.966056 13230 net.cpp:395] relu7 -> fc7 (in-place)
I0830 17:42:01.966290 13230 net.cpp:150] Setting up relu7
I0830 17:42:01.966302 13230 net.cpp:157] Top shape: 128 4096 (524288)
I0830 17:42:01.966305 13230 net.cpp:165] Memory required for data: 326877696
I0830 17:42:01.966308 13230 layer_factory.hpp:77] Creating layer drop7
I0830 17:42:01.966317 13230 net.cpp:100] Creating Layer drop7
I0830 17:42:01.966320 13230 net.cpp:434] drop7 <- fc7
I0830 17:42:01.966325 13230 net.cpp:395] drop7 -> fc7 (in-place)
I0830 17:42:01.966349 13230 net.cpp:150] Setting up drop7
I0830 17:42:01.966373 13230 net.cpp:157] Top shape: 128 4096 (524288)
I0830 17:42:01.966377 13230 net.cpp:165] Memory required for data: 328974848
I0830 17:42:01.966379 13230 layer_factory.hpp:77] Creating layer fc8new
I0830 17:42:01.966389 13230 net.cpp:100] Creating Layer fc8new
I0830 17:42:01.966392 13230 net.cpp:434] fc8new <- fc7
I0830 17:42:01.966399 13230 net.cpp:408] fc8new -> fc8
I0830 17:42:01.967921 13230 net.cpp:150] Setting up fc8new
I0830 17:42:01.967936 13230 net.cpp:157] Top shape: 128 3 (384)
I0830 17:42:01.967938 13230 net.cpp:165] Memory required for data: 328976384
I0830 17:42:01.967946 13230 layer_factory.hpp:77] Creating layer loss
I0830 17:42:01.967953 13230 net.cpp:100] Creating Layer loss
I0830 17:42:01.967957 13230 net.cpp:434] loss <- fc8
I0830 17:42:01.967962 13230 net.cpp:434] loss <- label
I0830 17:42:01.967967 13230 net.cpp:408] loss -> loss
I0830 17:42:01.967978 13230 layer_factory.hpp:77] Creating layer loss
…
I0830 17:42:01.968807 13230 net.cpp:322] The NetState phase (1) differed from the phase (0) specified by a rule in layer mnist
I0830 17:42:01.968978 13230 net.cpp:58] Initializing net from parameters: 
name: "AlexNet"
state {
  phase: TEST
}
layer {
  name: "mnist"
  type: "Data"
  top: "data"
  top: "label"
  include {
    phase: TEST
  }
  transform_param {
    scale: 0.00390625
    mean_file: "data/person_only_lmdb/person_vs_background_vs_random_color_mean.binaryproto"
  }
  data_param {
    source: "data/person_only_lmdb/person_vs_background_vs_random_test_lmdb"
    batch_size: 100
    backend: LMDB
  }
}
layer {
  name: "conv1"
  type: "Convolution"
  bottom: "data"
  top: "conv1"
  param {
    lr_mult: 1
    decay_mult: 1
  }
  param {
    lr_mult: 2
    decay_mult: 0
  }
  convolution_param {
    num_output: 96
    kernel_size: 11
    stride: 4
    weight_filler {
      type: "gaussian"
      std: 0.01
    }
    bias_filler {
      type: "constant"
      value: 0
    }
  }
}
layer {
  name: "relu1"
  type: "ReLU"
  bottom: "conv1"
  top: "conv1"
}
layer {
  name: "norm1"
  type: "LRN"
  bottom: "conv1"
  top: "norm1"
  lrn_param {
    local_size: 5
    alpha: 0.0001
    beta: 0.75
  }
}
layer {
  name: "pool1"
  type: "Pooling"
  bottom: "norm1"
  top: "pool1"
  pooling_param {
    pool: MAX
    kernel_size: 3
    stride: 2
  }
}
layer {
  name: "conv2"
  type: "Convolution"
  bottom: "pool1"
  top: "conv2"
  param {
    lr_mult: 1
    decay_mult: 1
  }
  param {
    lr_mult: 2
    decay_mult: 0
  }
  convolution_param {
    num_output: 256
    pad: 2
    kernel_size: 5
    group: 2
    weight_filler {
      type: "gaussian"
      std: 0.01
    }
    bias_filler {
      type: "constant"
      value: 0.1
    }
  }
}
layer {
  name: "relu2"
  type: "ReLU"
  bottom: "conv2"
  top: "conv2"
}
layer {
  name: "norm2"
  type: "LRN"
  bottom: "conv2"
  top: "norm2"
  lrn_param {
    local_size: 5
    alpha: 0.0001
    beta: 0.75
  }
}
layer {
  name: "pool2"
  type: "Pooling"
  bottom: "norm2"
  top: "pool2"
  pooling_param {
    pool: MAX
    kernel_size: 3
    stride: 2
  }
}
layer {
  name: "conv3"
  type: "Convolution"
  bottom: "pool2"
  top: "conv3"
  param {
    lr_mult: 1
    decay_mult: 1
  }
  param {
    lr_mult: 2
    decay_mult: 0
  }
  convolution_param {
    num_output: 384
    pad: 1
    kernel_size: 3
    weight_filler {
      type: "gaussian"
      std: 0.01
    }
    bias_filler {
      type: "constant"
      value: 0
    }
  }
}
layer {
  name: "relu3"
  type: "ReLU"
  bottom: "conv3"
  top: "conv3"
}
layer {
  name: "conv4"
  type: "Convolution"
  bottom: "conv3"
  top: "conv4"
  param {
    lr_mult: 1
    decay_mult: 1
  }
  param {
    lr_mult: 2
    decay_mult: 0
  }
  convolution_param {
    num_output: 384
    pad: 1
    kernel_size: 3
    group: 2
    weight_filler {
      type: "gaussian"
      std: 0.01
    }
    bias_filler {
      type: "constant"
      value: 0.1
    }
  }
}
layer {
  name: "relu4"
  type: "ReLU"
  bottom: "conv4"
  top: "conv4"
}
layer {
  name: "conv5"
  type: "Convolution"
  bottom: "conv4"
  top: "conv5"
  param {
    lr_mult: 1
    decay_mult: 1
  }
  param {
    lr_mult: 2
    decay_mult: 0
  }
  convolution_param {
    num_output: 256
    pad: 1
    kernel_size: 3
    group: 2
    weight_filler {
      type: "gaussian"
      std: 0.01
    }
    bias_filler {
      type: "constant"
      value: 0.1
    }
  }
}
layer {
  name: "relu5"
  type: "ReLU"
  bottom: "conv5"
  top: "conv5"
}
layer {
  name: "pool5"
  type: "Pooling"
  bottom: "conv5"
  top: "pool5"
  pooling_param {
    pool: MAX
    kernel_size: 3
    stride: 2
  }
}
layer {
  name: "fc6new"
  type: "InnerProduct"
  bottom: "pool5"
  top: "fc6"
  param {
    lr_mult: 1
    decay_mult: 1
  }
  param {
    lr_mult: 2
    decay_mult: 0
  }
  inner_product_param {
    num_output: 4096
    weight_filler {
      type: "gaussian"
      std: 0.005
    }
    bias_filler {
      type: "constant"
      value: 0.1
    }
  }
}
layer {
  name: "relu6"
  type: "ReLU"
  bottom: "fc6"
  top: "fc6"
}
layer {
  name: "drop6"
  type: "Dropout"
  bottom: "fc6"
  top: "fc6"
  dropout_param {
    dropout_ratio: 0.5
  }
}
layer {
  name: "fc7new"
  type: "InnerProduct"
  bottom: "fc6"
  top: "fc7"
  param {
    lr_mult: 1
    decay_mult: 1
  }
  param {
    lr_mult: 2
    decay_mult: 0
  }
  inner_product_param {
    num_output: 4096
    weight_filler {
      type: "gaussian"
      std: 0.005
    }
    bias_filler {
      type: "constant"
      value: 0.1
    }
  }
}
layer {
  name: "relu7"
  type: "ReLU"
  bottom: "fc7"
  top: "fc7"
}
layer {
  name: "drop7"
  type: "Dropout"
  bottom: "fc7"
  top: "fc7"
  dropout_param {
    dropout_ratio: 0.5
  }
}
layer {
  name: "fc8new"
  type: "InnerProduct"
  bottom: "fc7"
  top: "fc8"
  param {
    lr_mult: 1
    decay_mult: 1
  }
  param {
    lr_mult: 2
    decay_mult: 0
  }
  inner_product_param {
    num_output: 3
    weight_filler {
      type: "gaussian"
      std: 0.01
    }
    bias_filler {
      type: "constant"
      value: 0
    }
  }
}
layer {
  name: "accuracy"
  type: "Accuracy"
  bottom: "fc8"
  bottom: "label"
  top: "accuracy"
  include {
    phase: TEST
  }
}
layer {
  name: "loss"
  type: "SoftmaxWithLoss"
  bottom: "fc8"
  bottom: "label"
  top: "loss"
}
I0830 17:42:01.969115 13230 layer_factory.hpp:77] Creating layer mnist
I0830 17:42:01.969246 13230 net.cpp:100] Creating Layer mnist
I0830 17:42:01.969259 13230 net.cpp:408] mnist -> data
I0830 17:42:01.969267 13230 net.cpp:408] mnist -> label
I0830 17:42:01.969275 13230 data_transformer.cpp:25] Loading mean file from: data/person_only_lmdb/person_vs_background_vs_random_color_mean.binaryproto
I0830 17:42:01.970834 13245 db_lmdb.cpp:35] Opened lmdb data/person_only_lmdb/person_vs_background_vs_random_test_lmdb
I0830 17:42:01.971168 13230 data_layer.cpp:41] output data size: 100,3,128,128
I0830 17:42:02.027880 13230 net.cpp:150] Setting up mnist
I0830 17:42:02.027922 13230 net.cpp:157] Top shape: 100 3 128 128 (4915200)
I0830 17:42:02.027931 13230 net.cpp:157] Top shape: 100 (100)
I0830 17:42:02.027935 13230 net.cpp:165] Memory required for data: 19661200
I0830 17:42:02.027943 13230 layer_factory.hpp:77] Creating layer label_mnist_1_split
I0830 17:42:02.027963 13230 net.cpp:100] Creating Layer label_mnist_1_split
I0830 17:42:02.027971 13230 net.cpp:434] label_mnist_1_split <- label
I0830 17:42:02.027982 13230 net.cpp:408] label_mnist_1_split -> label_mnist_1_split_0
I0830 17:42:02.027997 13230 net.cpp:408] label_mnist_1_split -> label_mnist_1_split_1
I0830 17:42:02.028254 13230 net.cpp:150] Setting up label_mnist_1_split
I0830 17:42:02.028290 13230 net.cpp:157] Top shape: 100 (100)
I0830 17:42:02.028297 13230 net.cpp:157] Top shape: 100 (100)
I0830 17:42:02.028302 13230 net.cpp:165] Memory required for data: 19662000
I0830 17:42:02.028309 13230 layer_factory.hpp:77] Creating layer conv1
I0830 17:42:02.028332 13230 net.cpp:100] Creating Layer conv1
I0830 17:42:02.028340 13230 net.cpp:434] conv1 <- data
I0830 17:42:02.028354 13230 net.cpp:408] conv1 -> conv1
I0830 17:42:02.033211 13230 net.cpp:150] Setting up conv1
I0830 17:42:02.033246 13230 net.cpp:157] Top shape: 100 96 30 30 (8640000)
I0830 17:42:02.033253 13230 net.cpp:165] Memory required for data: 54222000
I0830 17:42:02.033274 13230 layer_factory.hpp:77] Creating layer relu1
I0830 17:42:02.033289 13230 net.cpp:100] Creating Layer relu1
I0830 17:42:02.033298 13230 net.cpp:434] relu1 <- conv1
I0830 17:42:02.033310 13230 net.cpp:395] relu1 -> conv1 (in-place)
I0830 17:42:02.033695 13230 net.cpp:150] Setting up relu1
I0830 17:42:02.033716 13230 net.cpp:157] Top shape: 100 96 30 30 (8640000)
I0830 17:42:02.033722 13230 net.cpp:165] Memory required for data: 88782000
I0830 17:42:02.033727 13230 layer_factory.hpp:77] Creating layer norm1
I0830 17:42:02.033742 13230 net.cpp:100] Creating Layer norm1
I0830 17:42:02.033748 13230 net.cpp:434] norm1 <- conv1
I0830 17:42:02.033763 13230 net.cpp:408] norm1 -> norm1
I0830 17:42:02.034636 13230 net.cpp:150] Setting up norm1
I0830 17:42:02.034662 13230 net.cpp:157] Top shape: 100 96 30 30 (8640000)
I0830 17:42:02.034670 13230 net.cpp:165] Memory required for data: 123342000
I0830 17:42:02.034677 13230 layer_factory.hpp:77] Creating layer pool1
I0830 17:42:02.034689 13230 net.cpp:100] Creating Layer pool1
I0830 17:42:02.034696 13230 net.cpp:434] pool1 <- norm1
I0830 17:42:02.034709 13230 net.cpp:408] pool1 -> pool1
I0830 17:42:02.034786 13230 net.cpp:150] Setting up pool1
I0830 17:42:02.034798 13230 net.cpp:157] Top shape: 100 96 15 15 (2160000)
I0830 17:42:02.034803 13230 net.cpp:165] Memory required for data: 131982000
I0830 17:42:02.034808 13230 layer_factory.hpp:77] Creating layer conv2
I0830 17:42:02.034824 13230 net.cpp:100] Creating Layer conv2
I0830 17:42:02.034832 13230 net.cpp:434] conv2 <- pool1
I0830 17:42:02.034844 13230 net.cpp:408] conv2 -> conv2
I0830 17:42:02.046066 13230 net.cpp:150] Setting up conv2
I0830 17:42:02.046097 13230 net.cpp:157] Top shape: 100 256 15 15 (5760000)
I0830 17:42:02.046106 13230 net.cpp:165] Memory required for data: 155022000
I0830 17:42:02.046123 13230 layer_factory.hpp:77] Creating layer relu2
I0830 17:42:02.046136 13230 net.cpp:100] Creating Layer relu2
I0830 17:42:02.046144 13230 net.cpp:434] relu2 <- conv2
I0830 17:42:02.046154 13230 net.cpp:395] relu2 -> conv2 (in-place)
I0830 17:42:02.046967 13230 net.cpp:150] Setting up relu2
I0830 17:42:02.046993 13230 net.cpp:157] Top shape: 100 256 15 15 (5760000)
I0830 17:42:02.046999 13230 net.cpp:165] Memory required for data: 178062000
I0830 17:42:02.047005 13230 layer_factory.hpp:77] Creating layer norm2
I0830 17:42:02.047022 13230 net.cpp:100] Creating Layer norm2
I0830 17:42:02.047030 13230 net.cpp:434] norm2 <- conv2
I0830 17:42:02.047044 13230 net.cpp:408] norm2 -> norm2
I0830 17:42:02.047423 13230 net.cpp:150] Setting up norm2
I0830 17:42:02.047441 13230 net.cpp:157] Top shape: 100 256 15 15 (5760000)
I0830 17:42:02.047448 13230 net.cpp:165] Memory required for data: 201102000
I0830 17:42:02.047454 13230 layer_factory.hpp:77] Creating layer pool2
I0830 17:42:02.047464 13230 net.cpp:100] Creating Layer pool2
I0830 17:42:02.047471 13230 net.cpp:434] pool2 <- norm2
I0830 17:42:02.047482 13230 net.cpp:408] pool2 -> pool2
I0830 17:42:02.047549 13230 net.cpp:150] Setting up pool2
I0830 17:42:02.047561 13230 net.cpp:157] Top shape: 100 256 7 7 (1254400)
I0830 17:42:02.047566 13230 net.cpp:165] Memory required for data: 206119600
I0830 17:42:02.047570 13230 layer_factory.hpp:77] Creating layer conv3
I0830 17:42:02.047590 13230 net.cpp:100] Creating Layer conv3
I0830 17:42:02.047597 13230 net.cpp:434] conv3 <- pool2
I0830 17:42:02.047606 13230 net.cpp:408] conv3 -> conv3
I0830 17:42:02.069068 13230 net.cpp:150] Setting up conv3
I0830 17:42:02.069106 13230 net.cpp:157] Top shape: 100 384 7 7 (1881600)
I0830 17:42:02.069113 13230 net.cpp:165] Memory required for data: 213646000
I0830 17:42:02.069131 13230 layer_factory.hpp:77] Creating layer relu3
I0830 17:42:02.069146 13230 net.cpp:100] Creating Layer relu3
I0830 17:42:02.069154 13230 net.cpp:434] relu3 <- conv3
I0830 17:42:02.069169 13230 net.cpp:395] relu3 -> conv3 (in-place)
I0830 17:42:02.069505 13230 net.cpp:150] Setting up relu3
I0830 17:42:02.069521 13230 net.cpp:157] Top shape: 100 384 7 7 (1881600)
I0830 17:42:02.069528 13230 net.cpp:165] Memory required for data: 221172400
I0830 17:42:02.069545 13230 layer_factory.hpp:77] Creating layer conv4
I0830 17:42:02.069566 13230 net.cpp:100] Creating Layer conv4
I0830 17:42:02.069574 13230 net.cpp:434] conv4 <- conv3
I0830 17:42:02.069586 13230 net.cpp:408] conv4 -> conv4
I0830 17:42:02.087705 13230 net.cpp:150] Setting up conv4
I0830 17:42:02.087743 13230 net.cpp:157] Top shape: 100 384 7 7 (1881600)
I0830 17:42:02.087748 13230 net.cpp:165] Memory required for data: 228698800
I0830 17:42:02.087759 13230 layer_factory.hpp:77] Creating layer relu4
I0830 17:42:02.087774 13230 net.cpp:100] Creating Layer relu4
I0830 17:42:02.087782 13230 net.cpp:434] relu4 <- conv4
I0830 17:42:02.087792 13230 net.cpp:395] relu4 -> conv4 (in-place)
I0830 17:42:02.088507 13230 net.cpp:150] Setting up relu4
I0830 17:42:02.088527 13230 net.cpp:157] Top shape: 100 384 7 7 (1881600)
I0830 17:42:02.088532 13230 net.cpp:165] Memory required for data: 236225200
I0830 17:42:02.088537 13230 layer_factory.hpp:77] Creating layer conv5
I0830 17:42:02.088557 13230 net.cpp:100] Creating Layer conv5
I0830 17:42:02.088563 13230 net.cpp:434] conv5 <- conv4
I0830 17:42:02.088572 13230 net.cpp:408] conv5 -> conv5
I0830 17:42:02.100572 13230 net.cpp:150] Setting up conv5
I0830 17:42:02.100602 13230 net.cpp:157] Top shape: 100 256 7 7 (1254400)
I0830 17:42:02.100607 13230 net.cpp:165] Memory required for data: 241242800
I0830 17:42:02.100625 13230 layer_factory.hpp:77] Creating layer relu5
I0830 17:42:02.100638 13230 net.cpp:100] Creating Layer relu5
I0830 17:42:02.100644 13230 net.cpp:434] relu5 <- conv5
I0830 17:42:02.100651 13230 net.cpp:395] relu5 -> conv5 (in-place)
I0830 17:42:02.100961 13230 net.cpp:150] Setting up relu5
I0830 17:42:02.100976 13230 net.cpp:157] Top shape: 100 256 7 7 (1254400)
I0830 17:42:02.100980 13230 net.cpp:165] Memory required for data: 246260400
I0830 17:42:02.100986 13230 layer_factory.hpp:77] Creating layer pool5
I0830 17:42:02.101003 13230 net.cpp:100] Creating Layer pool5
I0830 17:42:02.101007 13230 net.cpp:434] pool5 <- conv5
I0830 17:42:02.101016 13230 net.cpp:408] pool5 -> pool5
I0830 17:42:02.101099 13230 net.cpp:150] Setting up pool5
I0830 17:42:02.101109 13230 net.cpp:157] Top shape: 100 256 3 3 (230400)
I0830 17:42:02.101114 13230 net.cpp:165] Memory required for data: 247182000
I0830 17:42:02.101117 13230 layer_factory.hpp:77] Creating layer fc6new
I0830 17:42:02.101127 13230 net.cpp:100] Creating Layer fc6new
I0830 17:42:02.101133 13230 net.cpp:434] fc6new <- pool5
I0830 17:42:02.101142 13230 net.cpp:408] fc6new -> fc6
I0830 17:42:02.230598 13230 net.cpp:150] Setting up fc6new
I0830 17:42:02.230641 13230 net.cpp:157] Top shape: 100 4096 (409600)
I0830 17:42:02.230644 13230 net.cpp:165] Memory required for data: 248820400
I0830 17:42:02.230654 13230 layer_factory.hpp:77] Creating layer relu6
I0830 17:42:02.230660 13230 net.cpp:100] Creating Layer relu6
I0830 17:42:02.230664 13230 net.cpp:434] relu6 <- fc6
I0830 17:42:02.230679 13230 net.cpp:395] relu6 -> fc6 (in-place)
I0830 17:42:02.230922 13230 net.cpp:150] Setting up relu6
I0830 17:42:02.230932 13230 net.cpp:157] Top shape: 100 4096 (409600)
I0830 17:42:02.230936 13230 net.cpp:165] Memory required for data: 250458800
I0830 17:42:02.230938 13230 layer_factory.hpp:77] Creating layer drop6
I0830 17:42:02.230944 13230 net.cpp:100] Creating Layer drop6
I0830 17:42:02.230947 13230 net.cpp:434] drop6 <- fc6
I0830 17:42:02.230953 13230 net.cpp:395] drop6 -> fc6 (in-place)
I0830 17:42:02.230993 13230 net.cpp:150] Setting up drop6
I0830 17:42:02.230998 13230 net.cpp:157] Top shape: 100 4096 (409600)
I0830 17:42:02.231000 13230 net.cpp:165] Memory required for data: 252097200
I0830 17:42:02.231003 13230 layer_factory.hpp:77] Creating layer fc7new
I0830 17:42:02.231014 13230 net.cpp:100] Creating Layer fc7new
I0830 17:42:02.231016 13230 net.cpp:434] fc7new <- fc6
I0830 17:42:02.231022 13230 net.cpp:408] fc7new -> fc7
I0830 17:42:02.408635 13230 net.cpp:150] Setting up fc7new
I0830 17:42:02.408685 13230 net.cpp:157] Top shape: 100 4096 (409600)
I0830 17:42:02.408689 13230 net.cpp:165] Memory required for data: 253735600
I0830 17:42:02.408697 13230 layer_factory.hpp:77] Creating layer relu7
I0830 17:42:02.408706 13230 net.cpp:100] Creating Layer relu7
I0830 17:42:02.408710 13230 net.cpp:434] relu7 <- fc7
I0830 17:42:02.408716 13230 net.cpp:395] relu7 -> fc7 (in-place)
I0830 17:42:02.409456 13230 net.cpp:150] Setting up relu7
I0830 17:42:02.409481 13230 net.cpp:157] Top shape: 100 4096 (409600)
I0830 17:42:02.409484 13230 net.cpp:165] Memory required for data: 255374000
I0830 17:42:02.409487 13230 layer_factory.hpp:77] Creating layer drop7
I0830 17:42:02.409494 13230 net.cpp:100] Creating Layer drop7
I0830 17:42:02.409497 13230 net.cpp:434] drop7 <- fc7
I0830 17:42:02.409505 13230 net.cpp:395] drop7 -> fc7 (in-place)
I0830 17:42:02.409559 13230 net.cpp:150] Setting up drop7
I0830 17:42:02.409569 13230 net.cpp:157] Top shape: 100 4096 (409600)
I0830 17:42:02.409571 13230 net.cpp:165] Memory required for data: 257012400
I0830 17:42:02.409574 13230 layer_factory.hpp:77] Creating layer fc8new
I0830 17:42:02.409582 13230 net.cpp:100] Creating Layer fc8new
I0830 17:42:02.409584 13230 net.cpp:434] fc8new <- fc7
I0830 17:42:02.409591 13230 net.cpp:408] fc8new -> fc8
I0830 17:42:02.409886 13230 net.cpp:150] Setting up fc8new
I0830 17:42:02.409894 13230 net.cpp:157] Top shape: 100 3 (300)
I0830 17:42:02.409896 13230 net.cpp:165] Memory required for data: 257013600
I0830 17:42:02.409912 13230 layer_factory.hpp:77] Creating layer fc8_fc8new_0_split
I0830 17:42:02.409919 13230 net.cpp:100] Creating Layer fc8_fc8new_0_split
I0830 17:42:02.409920 13230 net.cpp:434] fc8_fc8new_0_split <- fc8
I0830 17:42:02.409956 13230 net.cpp:408] fc8_fc8new_0_split -> fc8_fc8new_0_split_0
I0830 17:42:02.409963 13230 net.cpp:408] fc8_fc8new_0_split -> fc8_fc8new_0_split_1
I0830 17:42:02.410014 13230 net.cpp:150] Setting up fc8_fc8new_0_split
I0830 17:42:02.410022 13230 net.cpp:157] Top shape: 100 3 (300)
I0830 17:42:02.410025 13230 net.cpp:157] Top shape: 100 3 (300)
I0830 17:42:02.410028 13230 net.cpp:165] Memory required for data: 257016000
I0830 17:42:02.410032 13230 layer_factory.hpp:77] Creating layer accuracy
I0830 17:42:02.410037 13230 net.cpp:100] Creating Layer accuracy
I0830 17:42:02.410040 13230 net.cpp:434] accuracy <- fc8_fc8new_0_split_0
I0830 17:42:02.410044 13230 net.cpp:434] accuracy <- label_mnist_1_split_0
I0830 17:42:02.410051 13230 net.cpp:408] accuracy -> accuracy
…
