…
I0903 23:31:00.573480 20522 net.cpp:322] The NetState phase (0) differed from the phase (1) specified by a rule in layer accuracy
I0903 23:31:00.573649 20522 net.cpp:58] Initializing net from parameters: 
name: "AlexNet"
state {
  phase: TRAIN
  level: 0
  stage: ""
}
layer {
  name: "mnist"
  type: "Data"
  top: "data"
  top: "label"
  include {
    phase: TRAIN
  }
  transform_param {
    scale: 0.00390625
    mean_file: "data/person_only_lmdb/person_vs_background_vs_random_color_mean.binaryproto"
  }
  data_param {
    source: "data/person_only_lmdb/person_vs_background_vs_random_train_lmdb"
    batch_size: 128
    backend: LMDB
  }
}
layer {
  name: "conv1"
  type: "Convolution"
  bottom: "data"
  top: "conv1"
  param {
    lr_mult: 1
    decay_mult: 1
  }
  param {
    lr_mult: 2
    decay_mult: 0
  }
  convolution_param {
    num_output: 96
    kernel_size: 11
    stride: 4
    weight_filler {
      type: "gaussian"
      std: 0.01
    }
    bias_filler {
      type: "constant"
      value: 0
    }
  }
}
layer {
  name: "relu1"
  type: "ReLU"
  bottom: "conv1"
  top: "conv1"
}
layer {
  name: "norm1"
  type: "LRN"
  bottom: "conv1"
  top: "norm1"
  lrn_param {
    local_size: 5
    alpha: 0.0001
    beta: 0.75
  }
}
layer {
  name: "pool1"
  type: "Pooling"
  bottom: "norm1"
  top: "pool1"
  pooling_param {
    pool: MAX
    kernel_size: 3
    stride: 2
  }
}
layer {
  name: "conv2"
  type: "Convolution"
  bottom: "pool1"
  top: "conv2"
  param {
    lr_mult: 1
    decay_mult: 1
  }
  param {
    lr_mult: 2
    decay_mult: 0
  }
  convolution_param {
    num_output: 256
    pad: 2
    kernel_size: 5
    group: 2
    weight_filler {
      type: "gaussian"
      std: 0.01
    }
    bias_filler {
      type: "constant"
      value: 0.1
    }
  }
}
layer {
  name: "relu2"
  type: "ReLU"
  bottom: "conv2"
  top: "conv2"
}
layer {
  name: "norm2"
  type: "LRN"
  bottom: "conv2"
  top: "norm2"
  lrn_param {
    local_size: 5
    alpha: 0.0001
    beta: 0.75
  }
}
layer {
  name: "pool2"
  type: "Pooling"
  bottom: "norm2"
  top: "pool2"
  pooling_param {
    pool: MAX
    kernel_size: 3
    stride: 2
  }
}
layer {
  name: "conv3"
  type: "Convolution"
  bottom: "pool2"
  top: "conv3"
  param {
    lr_mult: 1
    decay_mult: 1
  }
  param {
    lr_mult: 2
    decay_mult: 0
  }
  convolution_param {
    num_output: 384
    pad: 1
    kernel_size: 3
    weight_filler {
      type: "gaussian"
      std: 0.01
    }
    bias_filler {
      type: "constant"
      value: 0
    }
  }
}
layer {
  name: "relu3"
  type: "ReLU"
  bottom: "conv3"
  top: "conv3"
}
layer {
  name: "conv4"
  type: "Convolution"
  bottom: "conv3"
  top: "conv4"
  param {
    lr_mult: 1
    decay_mult: 1
  }
  param {
    lr_mult: 2
    decay_mult: 0
  }
  convolution_param {
    num_output: 384
    pad: 1
    kernel_size: 3
    group: 2
    weight_filler {
      type: "gaussian"
      std: 0.01
    }
    bias_filler {
      type: "constant"
      value: 0.1
    }
  }
}
layer {
  name: "relu4"
  type: "ReLU"
  bottom: "conv4"
  top: "conv4"
}
layer {
  name: "conv5"
  type: "Convolution"
  bottom: "conv4"
  top: "conv5"
  param {
    lr_mult: 1
    decay_mult: 1
  }
  param {
    lr_mult: 2
    decay_mult: 0
  }
  convolution_param {
    num_output: 256
    pad: 1
    kernel_size: 3
    group: 2
    weight_filler {
      type: "gaussian"
      std: 0.01
    }
    bias_filler {
      type: "constant"
      value: 0.1
    }
  }
}
layer {
  name: "relu5"
  type: "ReLU"
  bottom: "conv5"
  top: "conv5"
}
layer {
  name: "pool5"
  type: "Pooling"
  bottom: "conv5"
  top: "pool5"
  pooling_param {
    pool: MAX
    kernel_size: 3
    stride: 2
  }
}
layer {
  name: "fc6new"
  type: "InnerProduct"
  bottom: "pool5"
  top: "fc6"
  param {
    lr_mult: 1
    decay_mult: 1
  }
  param {
    lr_mult: 2
    decay_mult: 0
  }
  inner_product_param {
    num_output: 4096
    weight_filler {
      type: "gaussian"
      std: 0.005
    }
    bias_filler {
      type: "constant"
      value: 0.1
    }
  }
}
layer {
  name: "relu6"
  type: "ReLU"
  bottom: "fc6"
  top: "fc6"
}
layer {
  name: "drop6"
  type: "Dropout"
  bottom: "fc6"
  top: "fc6"
  dropout_param {
    dropout_ratio: 0.5
  }
}
layer {
  name: "fc7new"
  type: "InnerProduct"
  bottom: "fc6"
  top: "fc7"
  param {
    lr_mult: 1
    decay_mult: 1
  }
  param {
    lr_mult: 2
    decay_mult: 0
  }
  inner_product_param {
    num_output: 4096
    weight_filler {
      type: "gaussian"
      std: 0.005
    }
    bias_filler {
      type: "constant"
      value: 0.1
    }
  }
}
layer {
  name: "relu7"
  type: "ReLU"
  bottom: "fc7"
  top: "fc7"
}
layer {
  name: "drop7"
  type: "Dropout"
  bottom: "fc7"
  top: "fc7"
  dropout_param {
    dropout_ratio: 0.5
  }
}
layer {
  name: "fc8new"
  type: "InnerProduct"
  bottom: "fc7"
  top: "fc8"
  param {
    lr_mult: 1
    decay_mult: 1
  }
  param {
    lr_mult: 2
    decay_mult: 0
  }
  inner_product_param {
    num_output: 3
    weight_filler {
      type: "gaussian"
      std: 0.01
    }
    bias_filler {
      type: "constant"
      value: 0
    }
  }
}
layer {
  name: "loss"
  type: "SoftmaxWithLoss"
  bottom: "fc8"
  bottom: "label"
  top: "loss"
}
I0903 23:31:00.573792 20522 layer_factory.hpp:77] Creating layer mnist
I0903 23:31:00.574491 20522 net.cpp:100] Creating Layer mnist
I0903 23:31:00.574509 20522 net.cpp:408] mnist -> data
I0903 23:31:00.574661 20522 net.cpp:408] mnist -> label
I0903 23:31:00.574687 20522 data_transformer.cpp:25] Loading mean file from: data/person_only_lmdb/person_vs_background_vs_random_color_mean.binaryproto
I0903 23:31:00.574882 20525 db_lmdb.cpp:35] Opened lmdb data/person_only_lmdb/person_vs_background_vs_random_train_lmdb
I0903 23:31:00.575681 20522 data_layer.cpp:41] output data size: 128,3,128,128
I0903 23:31:00.603621 20522 net.cpp:150] Setting up mnist
I0903 23:31:00.603785 20522 net.cpp:157] Top shape: 128 3 128 128 (6291456)
I0903 23:31:00.603795 20522 net.cpp:157] Top shape: 128 (128)
I0903 23:31:00.603798 20522 net.cpp:165] Memory required for data: 25166336
I0903 23:31:00.603813 20522 layer_factory.hpp:77] Creating layer conv1
I0903 23:31:00.603857 20522 net.cpp:100] Creating Layer conv1
I0903 23:31:00.603873 20522 net.cpp:434] conv1 <- data
I0903 23:31:00.603906 20522 net.cpp:408] conv1 -> conv1
I0903 23:31:00.605315 20522 net.cpp:150] Setting up conv1
I0903 23:31:00.605329 20522 net.cpp:157] Top shape: 128 96 30 30 (11059200)
I0903 23:31:00.605334 20522 net.cpp:165] Memory required for data: 69403136
I0903 23:31:00.605366 20522 layer_factory.hpp:77] Creating layer relu1
I0903 23:31:00.605376 20522 net.cpp:100] Creating Layer relu1
I0903 23:31:00.605381 20522 net.cpp:434] relu1 <- conv1
I0903 23:31:00.605388 20522 net.cpp:395] relu1 -> conv1 (in-place)
I0903 23:31:00.605397 20522 net.cpp:150] Setting up relu1
I0903 23:31:00.605402 20522 net.cpp:157] Top shape: 128 96 30 30 (11059200)
I0903 23:31:00.605406 20522 net.cpp:165] Memory required for data: 113639936
I0903 23:31:00.605410 20522 layer_factory.hpp:77] Creating layer norm1
I0903 23:31:00.605420 20522 net.cpp:100] Creating Layer norm1
I0903 23:31:00.605424 20522 net.cpp:434] norm1 <- conv1
I0903 23:31:00.605429 20522 net.cpp:408] norm1 -> norm1
I0903 23:31:00.605443 20522 net.cpp:150] Setting up norm1
I0903 23:31:00.605448 20522 net.cpp:157] Top shape: 128 96 30 30 (11059200)
I0903 23:31:00.605482 20522 net.cpp:165] Memory required for data: 157876736
I0903 23:31:00.605486 20522 layer_factory.hpp:77] Creating layer pool1
I0903 23:31:00.605497 20522 net.cpp:100] Creating Layer pool1
I0903 23:31:00.605502 20522 net.cpp:434] pool1 <- norm1
I0903 23:31:00.605507 20522 net.cpp:408] pool1 -> pool1
I0903 23:31:00.605528 20522 net.cpp:150] Setting up pool1
I0903 23:31:00.605536 20522 net.cpp:157] Top shape: 128 96 15 15 (2764800)
I0903 23:31:00.605540 20522 net.cpp:165] Memory required for data: 168935936
I0903 23:31:00.605543 20522 layer_factory.hpp:77] Creating layer conv2
I0903 23:31:00.605553 20522 net.cpp:100] Creating Layer conv2
I0903 23:31:00.605556 20522 net.cpp:434] conv2 <- pool1
I0903 23:31:00.605564 20522 net.cpp:408] conv2 -> conv2
I0903 23:31:00.617126 20522 net.cpp:150] Setting up conv2
I0903 23:31:00.617151 20522 net.cpp:157] Top shape: 128 256 15 15 (7372800)
I0903 23:31:00.617156 20522 net.cpp:165] Memory required for data: 198427136
I0903 23:31:00.617168 20522 layer_factory.hpp:77] Creating layer relu2
I0903 23:31:00.617177 20522 net.cpp:100] Creating Layer relu2
I0903 23:31:00.617182 20522 net.cpp:434] relu2 <- conv2
I0903 23:31:00.617192 20522 net.cpp:395] relu2 -> conv2 (in-place)
I0903 23:31:00.617200 20522 net.cpp:150] Setting up relu2
I0903 23:31:00.617205 20522 net.cpp:157] Top shape: 128 256 15 15 (7372800)
I0903 23:31:00.617209 20522 net.cpp:165] Memory required for data: 227918336
I0903 23:31:00.617213 20522 layer_factory.hpp:77] Creating layer norm2
I0903 23:31:00.617220 20522 net.cpp:100] Creating Layer norm2
I0903 23:31:00.617223 20522 net.cpp:434] norm2 <- conv2
I0903 23:31:00.617229 20522 net.cpp:408] norm2 -> norm2
I0903 23:31:00.617240 20522 net.cpp:150] Setting up norm2
I0903 23:31:00.617245 20522 net.cpp:157] Top shape: 128 256 15 15 (7372800)
I0903 23:31:00.617249 20522 net.cpp:165] Memory required for data: 257409536
I0903 23:31:00.617252 20522 layer_factory.hpp:77] Creating layer pool2
I0903 23:31:00.617260 20522 net.cpp:100] Creating Layer pool2
I0903 23:31:00.617264 20522 net.cpp:434] pool2 <- norm2
I0903 23:31:00.617271 20522 net.cpp:408] pool2 -> pool2
I0903 23:31:00.617280 20522 net.cpp:150] Setting up pool2
I0903 23:31:00.617285 20522 net.cpp:157] Top shape: 128 256 7 7 (1605632)
I0903 23:31:00.617288 20522 net.cpp:165] Memory required for data: 263832064
I0903 23:31:00.617291 20522 layer_factory.hpp:77] Creating layer conv3
I0903 23:31:00.617305 20522 net.cpp:100] Creating Layer conv3
I0903 23:31:00.617310 20522 net.cpp:434] conv3 <- pool2
I0903 23:31:00.617317 20522 net.cpp:408] conv3 -> conv3
I0903 23:31:00.649916 20522 net.cpp:150] Setting up conv3
I0903 23:31:00.649951 20522 net.cpp:157] Top shape: 128 384 7 7 (2408448)
I0903 23:31:00.649956 20522 net.cpp:165] Memory required for data: 273465856
I0903 23:31:00.649971 20522 layer_factory.hpp:77] Creating layer relu3
I0903 23:31:00.649983 20522 net.cpp:100] Creating Layer relu3
I0903 23:31:00.649988 20522 net.cpp:434] relu3 <- conv3
I0903 23:31:00.649996 20522 net.cpp:395] relu3 -> conv3 (in-place)
I0903 23:31:00.650007 20522 net.cpp:150] Setting up relu3
I0903 23:31:00.650012 20522 net.cpp:157] Top shape: 128 384 7 7 (2408448)
I0903 23:31:00.650015 20522 net.cpp:165] Memory required for data: 283099648
I0903 23:31:00.650019 20522 layer_factory.hpp:77] Creating layer conv4
I0903 23:31:00.650032 20522 net.cpp:100] Creating Layer conv4
I0903 23:31:00.650035 20522 net.cpp:434] conv4 <- conv3
I0903 23:31:00.650044 20522 net.cpp:408] conv4 -> conv4
I0903 23:31:00.672674 20522 net.cpp:150] Setting up conv4
I0903 23:31:00.672714 20522 net.cpp:157] Top shape: 128 384 7 7 (2408448)
I0903 23:31:00.672719 20522 net.cpp:165] Memory required for data: 292733440
I0903 23:31:00.672726 20522 layer_factory.hpp:77] Creating layer relu4
I0903 23:31:00.672735 20522 net.cpp:100] Creating Layer relu4
I0903 23:31:00.672740 20522 net.cpp:434] relu4 <- conv4
I0903 23:31:00.672747 20522 net.cpp:395] relu4 -> conv4 (in-place)
I0903 23:31:00.672756 20522 net.cpp:150] Setting up relu4
I0903 23:31:00.672760 20522 net.cpp:157] Top shape: 128 384 7 7 (2408448)
I0903 23:31:00.672788 20522 net.cpp:165] Memory required for data: 302367232
I0903 23:31:00.672792 20522 layer_factory.hpp:77] Creating layer conv5
I0903 23:31:00.672806 20522 net.cpp:100] Creating Layer conv5
I0903 23:31:00.672808 20522 net.cpp:434] conv5 <- conv4
I0903 23:31:00.672814 20522 net.cpp:408] conv5 -> conv5
I0903 23:31:00.686126 20522 net.cpp:150] Setting up conv5
I0903 23:31:00.686157 20522 net.cpp:157] Top shape: 128 256 7 7 (1605632)
I0903 23:31:00.686161 20522 net.cpp:165] Memory required for data: 308789760
I0903 23:31:00.686172 20522 layer_factory.hpp:77] Creating layer relu5
I0903 23:31:00.686180 20522 net.cpp:100] Creating Layer relu5
I0903 23:31:00.686184 20522 net.cpp:434] relu5 <- conv5
I0903 23:31:00.686192 20522 net.cpp:395] relu5 -> conv5 (in-place)
I0903 23:31:00.686199 20522 net.cpp:150] Setting up relu5
I0903 23:31:00.686203 20522 net.cpp:157] Top shape: 128 256 7 7 (1605632)
I0903 23:31:00.686206 20522 net.cpp:165] Memory required for data: 315212288
I0903 23:31:00.686209 20522 layer_factory.hpp:77] Creating layer pool5
I0903 23:31:00.686215 20522 net.cpp:100] Creating Layer pool5
I0903 23:31:00.686218 20522 net.cpp:434] pool5 <- conv5
I0903 23:31:00.686223 20522 net.cpp:408] pool5 -> pool5
I0903 23:31:00.686233 20522 net.cpp:150] Setting up pool5
I0903 23:31:00.686238 20522 net.cpp:157] Top shape: 128 256 3 3 (294912)
I0903 23:31:00.686239 20522 net.cpp:165] Memory required for data: 316391936
I0903 23:31:00.686242 20522 layer_factory.hpp:77] Creating layer fc6new
I0903 23:31:00.686259 20522 net.cpp:100] Creating Layer fc6new
I0903 23:31:00.686261 20522 net.cpp:434] fc6new <- pool5
I0903 23:31:00.686269 20522 net.cpp:408] fc6new -> fc6
I0903 23:31:00.943583 20522 net.cpp:150] Setting up fc6new
I0903 23:31:00.943624 20522 net.cpp:157] Top shape: 128 4096 (524288)
I0903 23:31:00.943626 20522 net.cpp:165] Memory required for data: 318489088
I0903 23:31:00.943635 20522 layer_factory.hpp:77] Creating layer relu6
I0903 23:31:00.943645 20522 net.cpp:100] Creating Layer relu6
I0903 23:31:00.943650 20522 net.cpp:434] relu6 <- fc6
I0903 23:31:00.943655 20522 net.cpp:395] relu6 -> fc6 (in-place)
I0903 23:31:00.943665 20522 net.cpp:150] Setting up relu6
I0903 23:31:00.943668 20522 net.cpp:157] Top shape: 128 4096 (524288)
I0903 23:31:00.943671 20522 net.cpp:165] Memory required for data: 320586240
I0903 23:31:00.943675 20522 layer_factory.hpp:77] Creating layer drop6
I0903 23:31:00.943686 20522 net.cpp:100] Creating Layer drop6
I0903 23:31:00.943691 20522 net.cpp:434] drop6 <- fc6
I0903 23:31:00.943694 20522 net.cpp:395] drop6 -> fc6 (in-place)
I0903 23:31:00.943718 20522 net.cpp:150] Setting up drop6
I0903 23:31:00.943722 20522 net.cpp:157] Top shape: 128 4096 (524288)
I0903 23:31:00.943724 20522 net.cpp:165] Memory required for data: 322683392
I0903 23:31:00.943727 20522 layer_factory.hpp:77] Creating layer fc7new
I0903 23:31:00.943733 20522 net.cpp:100] Creating Layer fc7new
I0903 23:31:00.943737 20522 net.cpp:434] fc7new <- fc6
I0903 23:31:00.943740 20522 net.cpp:408] fc7new -> fc7
I0903 23:31:01.398222 20522 net.cpp:150] Setting up fc7new
I0903 23:31:01.398258 20522 net.cpp:157] Top shape: 128 4096 (524288)
I0903 23:31:01.398262 20522 net.cpp:165] Memory required for data: 324780544
I0903 23:31:01.398270 20522 layer_factory.hpp:77] Creating layer relu7
I0903 23:31:01.398282 20522 net.cpp:100] Creating Layer relu7
I0903 23:31:01.398285 20522 net.cpp:434] relu7 <- fc7
I0903 23:31:01.398291 20522 net.cpp:395] relu7 -> fc7 (in-place)
I0903 23:31:01.398300 20522 net.cpp:150] Setting up relu7
I0903 23:31:01.398303 20522 net.cpp:157] Top shape: 128 4096 (524288)
I0903 23:31:01.398306 20522 net.cpp:165] Memory required for data: 326877696
I0903 23:31:01.398309 20522 layer_factory.hpp:77] Creating layer drop7
I0903 23:31:01.398314 20522 net.cpp:100] Creating Layer drop7
I0903 23:31:01.398318 20522 net.cpp:434] drop7 <- fc7
I0903 23:31:01.398327 20522 net.cpp:395] drop7 -> fc7 (in-place)
I0903 23:31:01.398334 20522 net.cpp:150] Setting up drop7
I0903 23:31:01.398337 20522 net.cpp:157] Top shape: 128 4096 (524288)
I0903 23:31:01.398360 20522 net.cpp:165] Memory required for data: 328974848
I0903 23:31:01.398362 20522 layer_factory.hpp:77] Creating layer fc8new
I0903 23:31:01.398370 20522 net.cpp:100] Creating Layer fc8new
I0903 23:31:01.398371 20522 net.cpp:434] fc8new <- fc7
I0903 23:31:01.398376 20522 net.cpp:408] fc8new -> fc8
I0903 23:31:01.398730 20522 net.cpp:150] Setting up fc8new
I0903 23:31:01.398737 20522 net.cpp:157] Top shape: 128 3 (384)
I0903 23:31:01.398739 20522 net.cpp:165] Memory required for data: 328976384
I0903 23:31:01.398744 20522 layer_factory.hpp:77] Creating layer loss
I0903 23:31:01.398754 20522 net.cpp:100] Creating Layer loss
I0903 23:31:01.398757 20522 net.cpp:434] loss <- fc8
I0903 23:31:01.398761 20522 net.cpp:434] loss <- label
I0903 23:31:01.398768 20522 net.cpp:408] loss -> loss
I0903 23:31:01.398783 20522 layer_factory.hpp:77] Creating layer loss
…
I0903 23:31:01.399503 20522 net.cpp:322] The NetState phase (1) differed from the phase (0) specified by a rule in layer mnist
I0903 23:31:01.399652 20522 net.cpp:58] Initializing net from parameters: 
name: "AlexNet"
state {
  phase: TEST
}
layer {
  name: "mnist"
  type: "Data"
  top: "data"
  top: "label"
  include {
    phase: TEST
  }
  transform_param {
    scale: 0.00390625
    mean_file: "data/person_only_lmdb/person_vs_background_vs_random_color_mean.binaryproto"
  }
  data_param {
    source: "data/person_only_lmdb/person_vs_background_vs_random_test_lmdb"
    batch_size: 100
    backend: LMDB
  }
}
layer {
  name: "conv1"
  type: "Convolution"
  bottom: "data"
  top: "conv1"
  param {
    lr_mult: 1
    decay_mult: 1
  }
  param {
    lr_mult: 2
    decay_mult: 0
  }
  convolution_param {
    num_output: 96
    kernel_size: 11
    stride: 4
    weight_filler {
      type: "gaussian"
      std: 0.01
    }
    bias_filler {
      type: "constant"
      value: 0
    }
  }
}
layer {
  name: "relu1"
  type: "ReLU"
  bottom: "conv1"
  top: "conv1"
}
layer {
  name: "norm1"
  type: "LRN"
  bottom: "conv1"
  top: "norm1"
  lrn_param {
    local_size: 5
    alpha: 0.0001
    beta: 0.75
  }
}
layer {
  name: "pool1"
  type: "Pooling"
  bottom: "norm1"
  top: "pool1"
  pooling_param {
    pool: MAX
    kernel_size: 3
    stride: 2
  }
}
layer {
  name: "conv2"
  type: "Convolution"
  bottom: "pool1"
  top: "conv2"
  param {
    lr_mult: 1
    decay_mult: 1
  }
  param {
    lr_mult: 2
    decay_mult: 0
  }
  convolution_param {
    num_output: 256
    pad: 2
    kernel_size: 5
    group: 2
    weight_filler {
      type: "gaussian"
      std: 0.01
    }
    bias_filler {
      type: "constant"
      value: 0.1
    }
  }
}
layer {
  name: "relu2"
  type: "ReLU"
  bottom: "conv2"
  top: "conv2"
}
layer {
  name: "norm2"
  type: "LRN"
  bottom: "conv2"
  top: "norm2"
  lrn_param {
    local_size: 5
    alpha: 0.0001
    beta: 0.75
  }
}
layer {
  name: "pool2"
  type: "Pooling"
  bottom: "norm2"
  top: "pool2"
  pooling_param {
    pool: MAX
    kernel_size: 3
    stride: 2
  }
}
layer {
  name: "conv3"
  type: "Convolution"
  bottom: "pool2"
  top: "conv3"
  param {
    lr_mult: 1
    decay_mult: 1
  }
  param {
    lr_mult: 2
    decay_mult: 0
  }
  convolution_param {
    num_output: 384
    pad: 1
    kernel_size: 3
    weight_filler {
      type: "gaussian"
      std: 0.01
    }
    bias_filler {
      type: "constant"
      value: 0
    }
  }
}
layer {
  name: "relu3"
  type: "ReLU"
  bottom: "conv3"
  top: "conv3"
}
layer {
  name: "conv4"
  type: "Convolution"
  bottom: "conv3"
  top: "conv4"
  param {
    lr_mult: 1
    decay_mult: 1
  }
  param {
    lr_mult: 2
    decay_mult: 0
  }
  convolution_param {
    num_output: 384
    pad: 1
    kernel_size: 3
    group: 2
    weight_filler {
      type: "gaussian"
      std: 0.01
    }
    bias_filler {
      type: "constant"
      value: 0.1
    }
  }
}
layer {
  name: "relu4"
  type: "ReLU"
  bottom: "conv4"
  top: "conv4"
}
layer {
  name: "conv5"
  type: "Convolution"
  bottom: "conv4"
  top: "conv5"
  param {
    lr_mult: 1
    decay_mult: 1
  }
  param {
    lr_mult: 2
    decay_mult: 0
  }
  convolution_param {
    num_output: 256
    pad: 1
    kernel_size: 3
    group: 2
    weight_filler {
      type: "gaussian"
      std: 0.01
    }
    bias_filler {
      type: "constant"
      value: 0.1
    }
  }
}
layer {
  name: "relu5"
  type: "ReLU"
  bottom: "conv5"
  top: "conv5"
}
layer {
  name: "pool5"
  type: "Pooling"
  bottom: "conv5"
  top: "pool5"
  pooling_param {
    pool: MAX
    kernel_size: 3
    stride: 2
  }
}
layer {
  name: "fc6new"
  type: "InnerProduct"
  bottom: "pool5"
  top: "fc6"
  param {
    lr_mult: 1
    decay_mult: 1
  }
  param {
    lr_mult: 2
    decay_mult: 0
  }
  inner_product_param {
    num_output: 4096
    weight_filler {
      type: "gaussian"
      std: 0.005
    }
    bias_filler {
      type: "constant"
      value: 0.1
    }
  }
}
layer {
  name: "relu6"
  type: "ReLU"
  bottom: "fc6"
  top: "fc6"
}
layer {
  name: "drop6"
  type: "Dropout"
  bottom: "fc6"
  top: "fc6"
  dropout_param {
    dropout_ratio: 0.5
  }
}
layer {
  name: "fc7new"
  type: "InnerProduct"
  bottom: "fc6"
  top: "fc7"
  param {
    lr_mult: 1
    decay_mult: 1
  }
  param {
    lr_mult: 2
    decay_mult: 0
  }
  inner_product_param {
    num_output: 4096
    weight_filler {
      type: "gaussian"
      std: 0.005
    }
    bias_filler {
      type: "constant"
      value: 0.1
    }
  }
}
layer {
  name: "relu7"
  type: "ReLU"
  bottom: "fc7"
  top: "fc7"
}
layer {
  name: "drop7"
  type: "Dropout"
  bottom: "fc7"
  top: "fc7"
  dropout_param {
    dropout_ratio: 0.5
  }
}
layer {
  name: "fc8new"
  type: "InnerProduct"
  bottom: "fc7"
  top: "fc8"
  param {
    lr_mult: 1
    decay_mult: 1
  }
  param {
    lr_mult: 2
    decay_mult: 0
  }
  inner_product_param {
    num_output: 3
    weight_filler {
      type: "gaussian"
      std: 0.01
    }
    bias_filler {
      type: "constant"
      value: 0
    }
  }
}
layer {
  name: "accuracy"
  type: "Accuracy"
  bottom: "fc8"
  bottom: "label"
  top: "accuracy"
  include {
    phase: TEST
  }
}
layer {
  name: "loss"
  type: "SoftmaxWithLoss"
  bottom: "fc8"
  bottom: "label"
  top: "loss"
}
I0903 23:31:01.399767 20522 layer_factory.hpp:77] Creating layer mnist
I0903 23:31:01.399868 20522 net.cpp:100] Creating Layer mnist
I0903 23:31:01.399874 20522 net.cpp:408] mnist -> data
I0903 23:31:01.399883 20522 net.cpp:408] mnist -> label
I0903 23:31:01.399891 20522 data_transformer.cpp:25] Loading mean file from: data/person_only_lmdb/person_vs_background_vs_random_color_mean.binaryproto
I0903 23:31:01.400106 20527 db_lmdb.cpp:35] Opened lmdb data/person_only_lmdb/person_vs_background_vs_random_test_lmdb
I0903 23:31:01.401052 20522 data_layer.cpp:41] output data size: 100,3,128,128
I0903 23:31:01.419685 20522 net.cpp:150] Setting up mnist
I0903 23:31:01.419719 20522 net.cpp:157] Top shape: 100 3 128 128 (4915200)
I0903 23:31:01.419725 20522 net.cpp:157] Top shape: 100 (100)
I0903 23:31:01.419729 20522 net.cpp:165] Memory required for data: 19661200
I0903 23:31:01.419736 20522 layer_factory.hpp:77] Creating layer label_mnist_1_split
I0903 23:31:01.419751 20522 net.cpp:100] Creating Layer label_mnist_1_split
I0903 23:31:01.419756 20522 net.cpp:434] label_mnist_1_split <- label
I0903 23:31:01.419764 20522 net.cpp:408] label_mnist_1_split -> label_mnist_1_split_0
I0903 23:31:01.419780 20522 net.cpp:408] label_mnist_1_split -> label_mnist_1_split_1
I0903 23:31:01.419823 20522 net.cpp:150] Setting up label_mnist_1_split
I0903 23:31:01.419831 20522 net.cpp:157] Top shape: 100 (100)
I0903 23:31:01.419836 20522 net.cpp:157] Top shape: 100 (100)
I0903 23:31:01.419839 20522 net.cpp:165] Memory required for data: 19662000
I0903 23:31:01.419843 20522 layer_factory.hpp:77] Creating layer conv1
I0903 23:31:01.419872 20522 net.cpp:100] Creating Layer conv1
I0903 23:31:01.419878 20522 net.cpp:434] conv1 <- data
I0903 23:31:01.419884 20522 net.cpp:408] conv1 -> conv1
I0903 23:31:01.421146 20522 net.cpp:150] Setting up conv1
I0903 23:31:01.421156 20522 net.cpp:157] Top shape: 100 96 30 30 (8640000)
I0903 23:31:01.421160 20522 net.cpp:165] Memory required for data: 54222000
I0903 23:31:01.421170 20522 layer_factory.hpp:77] Creating layer relu1
I0903 23:31:01.421178 20522 net.cpp:100] Creating Layer relu1
I0903 23:31:01.421185 20522 net.cpp:434] relu1 <- conv1
I0903 23:31:01.421190 20522 net.cpp:395] relu1 -> conv1 (in-place)
I0903 23:31:01.421196 20522 net.cpp:150] Setting up relu1
I0903 23:31:01.421201 20522 net.cpp:157] Top shape: 100 96 30 30 (8640000)
I0903 23:31:01.421205 20522 net.cpp:165] Memory required for data: 88782000
I0903 23:31:01.421208 20522 layer_factory.hpp:77] Creating layer norm1
I0903 23:31:01.421216 20522 net.cpp:100] Creating Layer norm1
I0903 23:31:01.421221 20522 net.cpp:434] norm1 <- conv1
I0903 23:31:01.421226 20522 net.cpp:408] norm1 -> norm1
I0903 23:31:01.421234 20522 net.cpp:150] Setting up norm1
I0903 23:31:01.421243 20522 net.cpp:157] Top shape: 100 96 30 30 (8640000)
I0903 23:31:01.421247 20522 net.cpp:165] Memory required for data: 123342000
I0903 23:31:01.421250 20522 layer_factory.hpp:77] Creating layer pool1
I0903 23:31:01.421257 20522 net.cpp:100] Creating Layer pool1
I0903 23:31:01.421262 20522 net.cpp:434] pool1 <- norm1
I0903 23:31:01.421267 20522 net.cpp:408] pool1 -> pool1
I0903 23:31:01.421274 20522 net.cpp:150] Setting up pool1
I0903 23:31:01.421293 20522 net.cpp:157] Top shape: 100 96 15 15 (2160000)
I0903 23:31:01.421295 20522 net.cpp:165] Memory required for data: 131982000
I0903 23:31:01.421298 20522 layer_factory.hpp:77] Creating layer conv2
I0903 23:31:01.421308 20522 net.cpp:100] Creating Layer conv2
I0903 23:31:01.421313 20522 net.cpp:434] conv2 <- pool1
I0903 23:31:01.421319 20522 net.cpp:408] conv2 -> conv2
I0903 23:31:01.432754 20522 net.cpp:150] Setting up conv2
I0903 23:31:01.432790 20522 net.cpp:157] Top shape: 100 256 15 15 (5760000)
I0903 23:31:01.432821 20522 net.cpp:165] Memory required for data: 155022000
I0903 23:31:01.432834 20522 layer_factory.hpp:77] Creating layer relu2
I0903 23:31:01.432844 20522 net.cpp:100] Creating Layer relu2
I0903 23:31:01.432848 20522 net.cpp:434] relu2 <- conv2
I0903 23:31:01.432855 20522 net.cpp:395] relu2 -> conv2 (in-place)
I0903 23:31:01.432863 20522 net.cpp:150] Setting up relu2
I0903 23:31:01.432868 20522 net.cpp:157] Top shape: 100 256 15 15 (5760000)
I0903 23:31:01.432873 20522 net.cpp:165] Memory required for data: 178062000
I0903 23:31:01.432875 20522 layer_factory.hpp:77] Creating layer norm2
I0903 23:31:01.432886 20522 net.cpp:100] Creating Layer norm2
I0903 23:31:01.432895 20522 net.cpp:434] norm2 <- conv2
I0903 23:31:01.432901 20522 net.cpp:408] norm2 -> norm2
I0903 23:31:01.432910 20522 net.cpp:150] Setting up norm2
I0903 23:31:01.432916 20522 net.cpp:157] Top shape: 100 256 15 15 (5760000)
I0903 23:31:01.432919 20522 net.cpp:165] Memory required for data: 201102000
I0903 23:31:01.432924 20522 layer_factory.hpp:77] Creating layer pool2
I0903 23:31:01.432947 20522 net.cpp:100] Creating Layer pool2
I0903 23:31:01.432952 20522 net.cpp:434] pool2 <- norm2
I0903 23:31:01.432957 20522 net.cpp:408] pool2 -> pool2
I0903 23:31:01.432966 20522 net.cpp:150] Setting up pool2
I0903 23:31:01.432976 20522 net.cpp:157] Top shape: 100 256 7 7 (1254400)
I0903 23:31:01.432981 20522 net.cpp:165] Memory required for data: 206119600
I0903 23:31:01.432983 20522 layer_factory.hpp:77] Creating layer conv3
I0903 23:31:01.432994 20522 net.cpp:100] Creating Layer conv3
I0903 23:31:01.432999 20522 net.cpp:434] conv3 <- pool2
I0903 23:31:01.433007 20522 net.cpp:408] conv3 -> conv3
I0903 23:31:01.465252 20522 net.cpp:150] Setting up conv3
I0903 23:31:01.465286 20522 net.cpp:157] Top shape: 100 384 7 7 (1881600)
I0903 23:31:01.465291 20522 net.cpp:165] Memory required for data: 213646000
I0903 23:31:01.465304 20522 layer_factory.hpp:77] Creating layer relu3
I0903 23:31:01.465315 20522 net.cpp:100] Creating Layer relu3
I0903 23:31:01.465320 20522 net.cpp:434] relu3 <- conv3
I0903 23:31:01.465327 20522 net.cpp:395] relu3 -> conv3 (in-place)
I0903 23:31:01.465337 20522 net.cpp:150] Setting up relu3
I0903 23:31:01.465342 20522 net.cpp:157] Top shape: 100 384 7 7 (1881600)
I0903 23:31:01.465344 20522 net.cpp:165] Memory required for data: 221172400
I0903 23:31:01.465348 20522 layer_factory.hpp:77] Creating layer conv4
I0903 23:31:01.465360 20522 net.cpp:100] Creating Layer conv4
I0903 23:31:01.465369 20522 net.cpp:434] conv4 <- conv3
I0903 23:31:01.465376 20522 net.cpp:408] conv4 -> conv4
I0903 23:31:01.489826 20522 net.cpp:150] Setting up conv4
I0903 23:31:01.489848 20522 net.cpp:157] Top shape: 100 384 7 7 (1881600)
I0903 23:31:01.489859 20522 net.cpp:165] Memory required for data: 228698800
I0903 23:31:01.489867 20522 layer_factory.hpp:77] Creating layer relu4
I0903 23:31:01.489876 20522 net.cpp:100] Creating Layer relu4
I0903 23:31:01.489881 20522 net.cpp:434] relu4 <- conv4
I0903 23:31:01.489887 20522 net.cpp:395] relu4 -> conv4 (in-place)
I0903 23:31:01.489894 20522 net.cpp:150] Setting up relu4
I0903 23:31:01.489904 20522 net.cpp:157] Top shape: 100 384 7 7 (1881600)
I0903 23:31:01.489908 20522 net.cpp:165] Memory required for data: 236225200
I0903 23:31:01.489912 20522 layer_factory.hpp:77] Creating layer conv5
I0903 23:31:01.489923 20522 net.cpp:100] Creating Layer conv5
I0903 23:31:01.489928 20522 net.cpp:434] conv5 <- conv4
I0903 23:31:01.489934 20522 net.cpp:408] conv5 -> conv5
I0903 23:31:01.506280 20522 net.cpp:150] Setting up conv5
I0903 23:31:01.506294 20522 net.cpp:157] Top shape: 100 256 7 7 (1254400)
I0903 23:31:01.506299 20522 net.cpp:165] Memory required for data: 241242800
I0903 23:31:01.506309 20522 layer_factory.hpp:77] Creating layer relu5
I0903 23:31:01.506316 20522 net.cpp:100] Creating Layer relu5
I0903 23:31:01.506322 20522 net.cpp:434] relu5 <- conv5
I0903 23:31:01.506328 20522 net.cpp:395] relu5 -> conv5 (in-place)
I0903 23:31:01.506335 20522 net.cpp:150] Setting up relu5
I0903 23:31:01.506362 20522 net.cpp:157] Top shape: 100 256 7 7 (1254400)
I0903 23:31:01.506367 20522 net.cpp:165] Memory required for data: 246260400
I0903 23:31:01.506371 20522 layer_factory.hpp:77] Creating layer pool5
I0903 23:31:01.506383 20522 net.cpp:100] Creating Layer pool5
I0903 23:31:01.506391 20522 net.cpp:434] pool5 <- conv5
I0903 23:31:01.506397 20522 net.cpp:408] pool5 -> pool5
I0903 23:31:01.506407 20522 net.cpp:150] Setting up pool5
I0903 23:31:01.506412 20522 net.cpp:157] Top shape: 100 256 3 3 (230400)
I0903 23:31:01.506415 20522 net.cpp:165] Memory required for data: 247182000
I0903 23:31:01.506418 20522 layer_factory.hpp:77] Creating layer fc6new
I0903 23:31:01.506428 20522 net.cpp:100] Creating Layer fc6new
I0903 23:31:01.506433 20522 net.cpp:434] fc6new <- pool5
I0903 23:31:01.506438 20522 net.cpp:408] fc6new -> fc6
I0903 23:31:01.764634 20522 net.cpp:150] Setting up fc6new
I0903 23:31:01.764669 20522 net.cpp:157] Top shape: 100 4096 (409600)
I0903 23:31:01.764672 20522 net.cpp:165] Memory required for data: 248820400
I0903 23:31:01.764681 20522 layer_factory.hpp:77] Creating layer relu6
I0903 23:31:01.764691 20522 net.cpp:100] Creating Layer relu6
I0903 23:31:01.764696 20522 net.cpp:434] relu6 <- fc6
I0903 23:31:01.764703 20522 net.cpp:395] relu6 -> fc6 (in-place)
I0903 23:31:01.764710 20522 net.cpp:150] Setting up relu6
I0903 23:31:01.764714 20522 net.cpp:157] Top shape: 100 4096 (409600)
I0903 23:31:01.764716 20522 net.cpp:165] Memory required for data: 250458800
I0903 23:31:01.764719 20522 layer_factory.hpp:77] Creating layer drop6
I0903 23:31:01.764729 20522 net.cpp:100] Creating Layer drop6
I0903 23:31:01.764731 20522 net.cpp:434] drop6 <- fc6
I0903 23:31:01.764736 20522 net.cpp:395] drop6 -> fc6 (in-place)
I0903 23:31:01.764742 20522 net.cpp:150] Setting up drop6
I0903 23:31:01.764745 20522 net.cpp:157] Top shape: 100 4096 (409600)
I0903 23:31:01.764749 20522 net.cpp:165] Memory required for data: 252097200
I0903 23:31:01.764751 20522 layer_factory.hpp:77] Creating layer fc7new
I0903 23:31:01.764760 20522 net.cpp:100] Creating Layer fc7new
I0903 23:31:01.764763 20522 net.cpp:434] fc7new <- fc6
I0903 23:31:01.764768 20522 net.cpp:408] fc7new -> fc7
I0903 23:31:02.220007 20522 net.cpp:150] Setting up fc7new
I0903 23:31:02.220072 20522 net.cpp:157] Top shape: 100 4096 (409600)
I0903 23:31:02.220075 20522 net.cpp:165] Memory required for data: 253735600
I0903 23:31:02.220108 20522 layer_factory.hpp:77] Creating layer relu7
I0903 23:31:02.220144 20522 net.cpp:100] Creating Layer relu7
I0903 23:31:02.220168 20522 net.cpp:434] relu7 <- fc7
I0903 23:31:02.220188 20522 net.cpp:395] relu7 -> fc7 (in-place)
I0903 23:31:02.220197 20522 net.cpp:150] Setting up relu7
I0903 23:31:02.220201 20522 net.cpp:157] Top shape: 100 4096 (409600)
I0903 23:31:02.220206 20522 net.cpp:165] Memory required for data: 255374000
I0903 23:31:02.220208 20522 layer_factory.hpp:77] Creating layer drop7
I0903 23:31:02.220233 20522 net.cpp:100] Creating Layer drop7
I0903 23:31:02.220239 20522 net.cpp:434] drop7 <- fc7
I0903 23:31:02.220254 20522 net.cpp:395] drop7 -> fc7 (in-place)
I0903 23:31:02.220262 20522 net.cpp:150] Setting up drop7
I0903 23:31:02.220265 20522 net.cpp:157] Top shape: 100 4096 (409600)
I0903 23:31:02.220268 20522 net.cpp:165] Memory required for data: 257012400
I0903 23:31:02.220271 20522 layer_factory.hpp:77] Creating layer fc8new
I0903 23:31:02.220284 20522 net.cpp:100] Creating Layer fc8new
I0903 23:31:02.220288 20522 net.cpp:434] fc8new <- fc7
I0903 23:31:02.220294 20522 net.cpp:408] fc8new -> fc8
I0903 23:31:02.220728 20522 net.cpp:150] Setting up fc8new
I0903 23:31:02.220746 20522 net.cpp:157] Top shape: 100 3 (300)
I0903 23:31:02.220751 20522 net.cpp:165] Memory required for data: 257013600
I0903 23:31:02.220764 20522 layer_factory.hpp:77] Creating layer fc8_fc8new_0_split
I0903 23:31:02.220780 20522 net.cpp:100] Creating Layer fc8_fc8new_0_split
I0903 23:31:02.220785 20522 net.cpp:434] fc8_fc8new_0_split <- fc8
I0903 23:31:02.220801 20522 net.cpp:408] fc8_fc8new_0_split -> fc8_fc8new_0_split_0
I0903 23:31:02.220837 20522 net.cpp:408] fc8_fc8new_0_split -> fc8_fc8new_0_split_1
I0903 23:31:02.220845 20522 net.cpp:150] Setting up fc8_fc8new_0_split
I0903 23:31:02.220849 20522 net.cpp:157] Top shape: 100 3 (300)
I0903 23:31:02.220852 20522 net.cpp:157] Top shape: 100 3 (300)
I0903 23:31:02.220855 20522 net.cpp:165] Memory required for data: 257016000
I0903 23:31:02.220859 20522 layer_factory.hpp:77] Creating layer accuracy
I0903 23:31:02.220873 20522 net.cpp:100] Creating Layer accuracy
I0903 23:31:02.220877 20522 net.cpp:434] accuracy <- fc8_fc8new_0_split_0
I0903 23:31:02.220881 20522 net.cpp:434] accuracy <- label_mnist_1_split_0
I0903 23:31:02.220898 20522 net.cpp:408] accuracy -> accuracy
…
