…
I0806 13:18:42.030413 11858 net.cpp:313] The NetState phase (0) differed from the phase (1) specified by a rule in layer accuracy
I0806 13:18:42.030542 11858 net.cpp:49] Initializing net from parameters: 
name: "AlexNet"
state {
  phase: TRAIN
}
layer {
  name: "mnist"
  type: "Data"
  top: "data"
  top: "label"
  include {
    phase: TRAIN
  }
  transform_param {
    scale: 0.00390625
    mean_file: "data/person_only_lmdb/person_background_only_color_mean.binaryproto"
  }
  data_param {
    source: "data/person_only_lmdb/person_background_only_train_lmdb"
    batch_size: 64
    backend: LMDB
  }
}
layer {
  name: "conv1"
  type: "Convolution"
  bottom: "data"
  top: "conv1"
  param {
    lr_mult: 1
    decay_mult: 1
  }
  param {
    lr_mult: 2
    decay_mult: 0
  }
  convolution_param {
    num_output: 96
    kernel_size: 11
    stride: 4
    weight_filler {
      type: "gaussian"
      std: 0.01
    }
    bias_filler {
      type: "constant"
      value: 0
    }
  }
}
layer {
  name: "relu1"
  type: "ReLU"
  bottom: "conv1"
  top: "conv1"
}
layer {
  name: "norm1"
  type: "LRN"
  bottom: "conv1"
  top: "norm1"
  lrn_param {
    local_size: 5
    alpha: 0.0001
    beta: 0.75
  }
}
layer {
  name: "pool1"
  type: "Pooling"
  bottom: "norm1"
  top: "pool1"
  pooling_param {
    pool: MAX
    kernel_size: 3
    stride: 2
  }
}
layer {
  name: "conv2"
  type: "Convolution"
  bottom: "pool1"
  top: "conv2"
  param {
    lr_mult: 1
    decay_mult: 1
  }
  param {
    lr_mult: 2
    decay_mult: 0
  }
  convolution_param {
    num_output: 256
    pad: 2
    kernel_size: 5
    group: 2
    weight_filler {
      type: "gaussian"
      std: 0.01
    }
    bias_filler {
      type: "constant"
      value: 0.1
    }
  }
}
layer {
  name: "relu2"
  type: "ReLU"
  bottom: "conv2"
  top: "conv2"
}
layer {
  name: "norm2"
  type: "LRN"
  bottom: "conv2"
  top: "norm2"
  lrn_param {
    local_size: 5
    alpha: 0.0001
    beta: 0.75
  }
}
layer {
  name: "pool2"
  type: "Pooling"
  bottom: "norm2"
  top: "pool2"
  pooling_param {
    pool: MAX
    kernel_size: 3
    stride: 2
  }
}
layer {
  name: "conv3"
  type: "Convolution"
  bottom: "pool2"
  top: "conv3"
  param {
    lr_mult: 1
    decay_mult: 1
  }
  param {
    lr_mult: 2
    decay_mult: 0
  }
  convolution_param {
    num_output: 384
    pad: 1
    kernel_size: 3
    weight_filler {
      type: "gaussian"
      std: 0.01
    }
    bias_filler {
      type: "constant"
      value: 0
    }
  }
}
layer {
  name: "relu3"
  type: "ReLU"
  bottom: "conv3"
  top: "conv3"
}
layer {
  name: "conv4"
  type: "Convolution"
  bottom: "conv3"
  top: "conv4"
  param {
    lr_mult: 1
    decay_mult: 1
  }
  param {
    lr_mult: 2
    decay_mult: 0
  }
  convolution_param {
    num_output: 384
    pad: 1
    kernel_size: 3
    group: 2
    weight_filler {
      type: "gaussian"
      std: 0.01
    }
    bias_filler {
      type: "constant"
      value: 0.1
    }
  }
}
layer {
  name: "relu4"
  type: "ReLU"
  bottom: "conv4"
  top: "conv4"
}
layer {
  name: "conv5"
  type: "Convolution"
  bottom: "conv4"
  top: "conv5"
  param {
    lr_mult: 1
    decay_mult: 1
  }
  param {
    lr_mult: 2
    decay_mult: 0
  }
  convolution_param {
    num_output: 256
    pad: 1
    kernel_size: 3
    group: 2
    weight_filler {
      type: "gaussian"
      std: 0.01
    }
    bias_filler {
      type: "constant"
      value: 0.1
    }
  }
}
layer {
  name: "relu5"
  type: "ReLU"
  bottom: "conv5"
  top: "conv5"
}
layer {
  name: "pool5"
  type: "Pooling"
  bottom: "conv5"
  top: "pool5"
  pooling_param {
    pool: MAX
    kernel_size: 3
    stride: 2
  }
}
layer {
  name: "fc6"
  type: "InnerProduct"
  bottom: "pool5"
  top: "fc6"
  param {
    lr_mult: 1
    decay_mult: 1
  }
  param {
    lr_mult: 2
    decay_mult: 0
  }
  inner_product_param {
    num_output: 4096
    weight_filler {
      type: "gaussian"
      std: 0.005
    }
    bias_filler {
      type: "constant"
      value: 0.1
    }
  }
}
layer {
  name: "relu6"
  type: "ReLU"
  bottom: "fc6"
  top: "fc6"
}
layer {
  name: "drop6"
  type: "Dropout"
  bottom: "fc6"
  top: "fc6"
  dropout_param {
    dropout_ratio: 0.5
  }
}
layer {
  name: "fc7"
  type: "InnerProduct"
  bottom: "fc6"
  top: "fc7"
  param {
    lr_mult: 1
    decay_mult: 1
  }
  param {
    lr_mult: 2
    decay_mult: 0
  }
  inner_product_param {
    num_output: 4096
    weight_filler {
      type: "gaussian"
      std: 0.005
    }
    bias_filler {
      type: "constant"
      value: 0.1
    }
  }
}
layer {
  name: "relu7"
  type: "ReLU"
  bottom: "fc7"
  top: "fc7"
}
layer {
  name: "drop7"
  type: "Dropout"
  bottom: "fc7"
  top: "fc7"
  dropout_param {
    dropout_ratio: 0.5
  }
}
layer {
  name: "fc8"
  type: "InnerProduct"
  bottom: "fc7"
  top: "fc8"
  param {
    lr_mult: 1
    decay_mult: 1
  }
  param {
    lr_mult: 2
    decay_mult: 0
  }
  inner_product_param {
    num_output: 2
    weight_filler {
      type: "gaussian"
      std: 0.01
    }
    bias_filler {
      type: "constant"
      value: 0
    }
  }
}
layer {
  name: "loss"
  type: "SoftmaxWithLoss"
  bottom: "fc8"
  bottom: "label"
  top: "loss"
}
I0806 13:18:42.030619 11858 layer_factory.hpp:77] Creating layer mnist
I0806 13:18:42.031345 11858 net.cpp:91] Creating Layer mnist
I0806 13:18:42.031357 11858 net.cpp:399] mnist -> data
I0806 13:18:42.031366 11858 net.cpp:399] mnist -> label
I0806 13:18:42.031378 11858 data_transformer.cpp:25] Loading mean file from: data/person_only_lmdb/person_background_only_color_mean.binaryproto
I0806 13:18:42.032763 11865 db_lmdb.cpp:35] Opened lmdb data/person_only_lmdb/person_background_only_train_lmdb
I0806 13:18:51.996405 11858 data_layer.cpp:41] output data size: 64,3,128,128
I0806 13:18:52.017001 11858 net.cpp:141] Setting up mnist
I0806 13:18:52.017051 11858 net.cpp:148] Top shape: 64 3 128 128 (3145728)
I0806 13:18:52.017057 11858 net.cpp:148] Top shape: 64 (64)
I0806 13:18:52.017060 11858 net.cpp:156] Memory required for data: 12583168
I0806 13:18:52.017068 11858 layer_factory.hpp:77] Creating layer conv1
I0806 13:18:52.017127 11858 net.cpp:91] Creating Layer conv1
I0806 13:18:52.017132 11858 net.cpp:425] conv1 <- data
I0806 13:18:52.017140 11858 net.cpp:399] conv1 -> conv1
I0806 13:18:52.165498 11858 net.cpp:141] Setting up conv1
I0806 13:18:52.165545 11858 net.cpp:148] Top shape: 64 96 30 30 (5529600)
I0806 13:18:52.165549 11858 net.cpp:156] Memory required for data: 34701568
I0806 13:18:52.165565 11858 layer_factory.hpp:77] Creating layer relu1
I0806 13:18:52.165576 11858 net.cpp:91] Creating Layer relu1
I0806 13:18:52.165580 11858 net.cpp:425] relu1 <- conv1
I0806 13:18:52.165586 11858 net.cpp:386] relu1 -> conv1 (in-place)
I0806 13:18:52.165766 11858 net.cpp:141] Setting up relu1
I0806 13:18:52.165776 11858 net.cpp:148] Top shape: 64 96 30 30 (5529600)
I0806 13:18:52.165789 11858 net.cpp:156] Memory required for data: 56819968
I0806 13:18:52.165792 11858 layer_factory.hpp:77] Creating layer norm1
I0806 13:18:52.165798 11858 net.cpp:91] Creating Layer norm1
I0806 13:18:52.165802 11858 net.cpp:425] norm1 <- conv1
I0806 13:18:52.165807 11858 net.cpp:399] norm1 -> norm1
I0806 13:18:52.166100 11858 net.cpp:141] Setting up norm1
I0806 13:18:52.166112 11858 net.cpp:148] Top shape: 64 96 30 30 (5529600)
I0806 13:18:52.166126 11858 net.cpp:156] Memory required for data: 78938368
I0806 13:18:52.166129 11858 layer_factory.hpp:77] Creating layer pool1
I0806 13:18:52.166136 11858 net.cpp:91] Creating Layer pool1
I0806 13:18:52.166141 11858 net.cpp:425] pool1 <- norm1
I0806 13:18:52.166144 11858 net.cpp:399] pool1 -> pool1
I0806 13:18:52.166182 11858 net.cpp:141] Setting up pool1
I0806 13:18:52.166188 11858 net.cpp:148] Top shape: 64 96 15 15 (1382400)
I0806 13:18:52.166190 11858 net.cpp:156] Memory required for data: 84467968
I0806 13:18:52.166194 11858 layer_factory.hpp:77] Creating layer conv2
I0806 13:18:52.166205 11858 net.cpp:91] Creating Layer conv2
I0806 13:18:52.166208 11858 net.cpp:425] conv2 <- pool1
I0806 13:18:52.166213 11858 net.cpp:399] conv2 -> conv2
I0806 13:18:52.175549 11858 net.cpp:141] Setting up conv2
I0806 13:18:52.175562 11858 net.cpp:148] Top shape: 64 256 15 15 (3686400)
I0806 13:18:52.175565 11858 net.cpp:156] Memory required for data: 99213568
I0806 13:18:52.175573 11858 layer_factory.hpp:77] Creating layer relu2
I0806 13:18:52.175580 11858 net.cpp:91] Creating Layer relu2
I0806 13:18:52.175583 11858 net.cpp:425] relu2 <- conv2
I0806 13:18:52.175587 11858 net.cpp:386] relu2 -> conv2 (in-place)
I0806 13:18:52.175874 11858 net.cpp:141] Setting up relu2
I0806 13:18:52.175885 11858 net.cpp:148] Top shape: 64 256 15 15 (3686400)
I0806 13:18:52.175900 11858 net.cpp:156] Memory required for data: 113959168
I0806 13:18:52.175904 11858 layer_factory.hpp:77] Creating layer norm2
I0806 13:18:52.175909 11858 net.cpp:91] Creating Layer norm2
I0806 13:18:52.175914 11858 net.cpp:425] norm2 <- conv2
I0806 13:18:52.175918 11858 net.cpp:399] norm2 -> norm2
I0806 13:18:52.176086 11858 net.cpp:141] Setting up norm2
I0806 13:18:52.176095 11858 net.cpp:148] Top shape: 64 256 15 15 (3686400)
I0806 13:18:52.176110 11858 net.cpp:156] Memory required for data: 128704768
I0806 13:18:52.176112 11858 layer_factory.hpp:77] Creating layer pool2
I0806 13:18:52.176120 11858 net.cpp:91] Creating Layer pool2
I0806 13:18:52.176122 11858 net.cpp:425] pool2 <- norm2
I0806 13:18:52.176127 11858 net.cpp:399] pool2 -> pool2
I0806 13:18:52.176156 11858 net.cpp:141] Setting up pool2
I0806 13:18:52.176161 11858 net.cpp:148] Top shape: 64 256 7 7 (802816)
I0806 13:18:52.176162 11858 net.cpp:156] Memory required for data: 131916032
I0806 13:18:52.176165 11858 layer_factory.hpp:77] Creating layer conv3
I0806 13:18:52.176172 11858 net.cpp:91] Creating Layer conv3
I0806 13:18:52.176175 11858 net.cpp:425] conv3 <- pool2
I0806 13:18:52.176179 11858 net.cpp:399] conv3 -> conv3
I0806 13:18:52.200209 11858 net.cpp:141] Setting up conv3
I0806 13:18:52.200223 11858 net.cpp:148] Top shape: 64 384 7 7 (1204224)
I0806 13:18:52.200227 11858 net.cpp:156] Memory required for data: 136732928
I0806 13:18:52.200234 11858 layer_factory.hpp:77] Creating layer relu3
I0806 13:18:52.200240 11858 net.cpp:91] Creating Layer relu3
I0806 13:18:52.200242 11858 net.cpp:425] relu3 <- conv3
I0806 13:18:52.200247 11858 net.cpp:386] relu3 -> conv3 (in-place)
I0806 13:18:52.200508 11858 net.cpp:141] Setting up relu3
I0806 13:18:52.200520 11858 net.cpp:148] Top shape: 64 384 7 7 (1204224)
I0806 13:18:52.200533 11858 net.cpp:156] Memory required for data: 141549824
I0806 13:18:52.200536 11858 layer_factory.hpp:77] Creating layer conv4
I0806 13:18:52.200547 11858 net.cpp:91] Creating Layer conv4
I0806 13:18:52.200551 11858 net.cpp:425] conv4 <- conv3
I0806 13:18:52.200556 11858 net.cpp:399] conv4 -> conv4
I0806 13:18:52.219310 11858 net.cpp:141] Setting up conv4
I0806 13:18:52.219323 11858 net.cpp:148] Top shape: 64 384 7 7 (1204224)
I0806 13:18:52.219327 11858 net.cpp:156] Memory required for data: 146366720
I0806 13:18:52.219332 11858 layer_factory.hpp:77] Creating layer relu4
I0806 13:18:52.219337 11858 net.cpp:91] Creating Layer relu4
I0806 13:18:52.219341 11858 net.cpp:425] relu4 <- conv4
I0806 13:18:52.219344 11858 net.cpp:386] relu4 -> conv4 (in-place)
I0806 13:18:52.219630 11858 net.cpp:141] Setting up relu4
I0806 13:18:52.219653 11858 net.cpp:148] Top shape: 64 384 7 7 (1204224)
I0806 13:18:52.219656 11858 net.cpp:156] Memory required for data: 151183616
I0806 13:18:52.219661 11858 layer_factory.hpp:77] Creating layer conv5
I0806 13:18:52.219671 11858 net.cpp:91] Creating Layer conv5
I0806 13:18:52.219674 11858 net.cpp:425] conv5 <- conv4
I0806 13:18:52.219681 11858 net.cpp:399] conv5 -> conv5
I0806 13:18:52.232949 11858 net.cpp:141] Setting up conv5
I0806 13:18:52.232962 11858 net.cpp:148] Top shape: 64 256 7 7 (802816)
I0806 13:18:52.232965 11858 net.cpp:156] Memory required for data: 154394880
I0806 13:18:52.232974 11858 layer_factory.hpp:77] Creating layer relu5
I0806 13:18:52.232978 11858 net.cpp:91] Creating Layer relu5
I0806 13:18:52.232981 11858 net.cpp:425] relu5 <- conv5
I0806 13:18:52.232986 11858 net.cpp:386] relu5 -> conv5 (in-place)
I0806 13:18:52.233252 11858 net.cpp:141] Setting up relu5
I0806 13:18:52.233263 11858 net.cpp:148] Top shape: 64 256 7 7 (802816)
I0806 13:18:52.233276 11858 net.cpp:156] Memory required for data: 157606144
I0806 13:18:52.233279 11858 layer_factory.hpp:77] Creating layer pool5
I0806 13:18:52.233284 11858 net.cpp:91] Creating Layer pool5
I0806 13:18:52.233288 11858 net.cpp:425] pool5 <- conv5
I0806 13:18:52.233295 11858 net.cpp:399] pool5 -> pool5
I0806 13:18:52.233338 11858 net.cpp:141] Setting up pool5
I0806 13:18:52.233345 11858 net.cpp:148] Top shape: 64 256 3 3 (147456)
I0806 13:18:52.233346 11858 net.cpp:156] Memory required for data: 158195968
I0806 13:18:52.233348 11858 layer_factory.hpp:77] Creating layer fc6
I0806 13:18:52.233360 11858 net.cpp:91] Creating Layer fc6
I0806 13:18:52.233364 11858 net.cpp:425] fc6 <- pool5
I0806 13:18:52.233368 11858 net.cpp:399] fc6 -> fc6
I0806 13:18:52.551844 11858 net.cpp:141] Setting up fc6
I0806 13:18:52.551874 11858 net.cpp:148] Top shape: 64 4096 (262144)
I0806 13:18:52.551877 11858 net.cpp:156] Memory required for data: 159244544
I0806 13:18:52.551887 11858 layer_factory.hpp:77] Creating layer relu6
I0806 13:18:52.551895 11858 net.cpp:91] Creating Layer relu6
I0806 13:18:52.551899 11858 net.cpp:425] relu6 <- fc6
I0806 13:18:52.551906 11858 net.cpp:386] relu6 -> fc6 (in-place)
I0806 13:18:52.552139 11858 net.cpp:141] Setting up relu6
I0806 13:18:52.552147 11858 net.cpp:148] Top shape: 64 4096 (262144)
I0806 13:18:52.552161 11858 net.cpp:156] Memory required for data: 160293120
I0806 13:18:52.552165 11858 layer_factory.hpp:77] Creating layer drop6
I0806 13:18:52.552170 11858 net.cpp:91] Creating Layer drop6
I0806 13:18:52.552173 11858 net.cpp:425] drop6 <- fc6
I0806 13:18:52.552178 11858 net.cpp:386] drop6 -> fc6 (in-place)
I0806 13:18:52.552204 11858 net.cpp:141] Setting up drop6
I0806 13:18:52.552209 11858 net.cpp:148] Top shape: 64 4096 (262144)
I0806 13:18:52.552211 11858 net.cpp:156] Memory required for data: 161341696
I0806 13:18:52.552213 11858 layer_factory.hpp:77] Creating layer fc7
I0806 13:18:52.552220 11858 net.cpp:91] Creating Layer fc7
I0806 13:18:52.552223 11858 net.cpp:425] fc7 <- fc6
I0806 13:18:52.552228 11858 net.cpp:399] fc7 -> fc7
I0806 13:18:53.116704 11858 net.cpp:141] Setting up fc7
I0806 13:18:53.116739 11858 net.cpp:148] Top shape: 64 4096 (262144)
I0806 13:18:53.116742 11858 net.cpp:156] Memory required for data: 162390272
I0806 13:18:53.116751 11858 layer_factory.hpp:77] Creating layer relu7
I0806 13:18:53.116763 11858 net.cpp:91] Creating Layer relu7
I0806 13:18:53.116767 11858 net.cpp:425] relu7 <- fc7
I0806 13:18:53.116773 11858 net.cpp:386] relu7 -> fc7 (in-place)
I0806 13:18:53.117200 11858 net.cpp:141] Setting up relu7
I0806 13:18:53.117224 11858 net.cpp:148] Top shape: 64 4096 (262144)
I0806 13:18:53.117228 11858 net.cpp:156] Memory required for data: 163438848
I0806 13:18:53.117230 11858 layer_factory.hpp:77] Creating layer drop7
I0806 13:18:53.117239 11858 net.cpp:91] Creating Layer drop7
I0806 13:18:53.117243 11858 net.cpp:425] drop7 <- fc7
I0806 13:18:53.117246 11858 net.cpp:386] drop7 -> fc7 (in-place)
I0806 13:18:53.117272 11858 net.cpp:141] Setting up drop7
I0806 13:18:53.117276 11858 net.cpp:148] Top shape: 64 4096 (262144)
I0806 13:18:53.117280 11858 net.cpp:156] Memory required for data: 164487424
I0806 13:18:53.117281 11858 layer_factory.hpp:77] Creating layer fc8
I0806 13:18:53.117292 11858 net.cpp:91] Creating Layer fc8
I0806 13:18:53.117295 11858 net.cpp:425] fc8 <- fc7
I0806 13:18:53.117301 11858 net.cpp:399] fc8 -> fc8
I0806 13:18:53.118247 11858 net.cpp:141] Setting up fc8
I0806 13:18:53.118259 11858 net.cpp:148] Top shape: 64 2 (128)
I0806 13:18:53.118273 11858 net.cpp:156] Memory required for data: 164487936
I0806 13:18:53.118279 11858 layer_factory.hpp:77] Creating layer loss
I0806 13:18:53.118295 11858 net.cpp:91] Creating Layer loss
I0806 13:18:53.118299 11858 net.cpp:425] loss <- fc8
I0806 13:18:53.118301 11858 net.cpp:425] loss <- label
I0806 13:18:53.118307 11858 net.cpp:399] loss -> loss
I0806 13:18:53.118331 11858 layer_factory.hpp:77] Creating layer loss
…
I0806 13:18:53.119384 11858 net.cpp:313] The NetState phase (1) differed from the phase (0) specified by a rule in layer mnist
I0806 13:18:53.119560 11858 net.cpp:49] Initializing net from parameters: 
name: "AlexNet"
state {
  phase: TEST
}
layer {
  name: "mnist"
  type: "Data"
  top: "data"
  top: "label"
  include {
    phase: TEST
  }
  transform_param {
    scale: 0.00390625
    mean_file: "data/person_only_lmdb/person_background_only_color_mean.binaryproto"
  }
  data_param {
    source: "data/person_only_lmdb/person_background_only_test_lmdb"
    batch_size: 100
    backend: LMDB
  }
}
layer {
  name: "conv1"
  type: "Convolution"
  bottom: "data"
  top: "conv1"
  param {
    lr_mult: 1
    decay_mult: 1
  }
  param {
    lr_mult: 2
    decay_mult: 0
  }
  convolution_param {
    num_output: 96
    kernel_size: 11
    stride: 4
    weight_filler {
      type: "gaussian"
      std: 0.01
    }
    bias_filler {
      type: "constant"
      value: 0
    }
  }
}
layer {
  name: "relu1"
  type: "ReLU"
  bottom: "conv1"
  top: "conv1"
}
layer {
  name: "norm1"
  type: "LRN"
  bottom: "conv1"
  top: "norm1"
  lrn_param {
    local_size: 5
    alpha: 0.0001
    beta: 0.75
  }
}
layer {
  name: "pool1"
  type: "Pooling"
  bottom: "norm1"
  top: "pool1"
  pooling_param {
    pool: MAX
    kernel_size: 3
    stride: 2
  }
}
layer {
  name: "conv2"
  type: "Convolution"
  bottom: "pool1"
  top: "conv2"
  param {
    lr_mult: 1
    decay_mult: 1
  }
  param {
    lr_mult: 2
    decay_mult: 0
  }
  convolution_param {
    num_output: 256
    pad: 2
    kernel_size: 5
    group: 2
    weight_filler {
      type: "gaussian"
      std: 0.01
    }
    bias_filler {
      type: "constant"
      value: 0.1
    }
  }
}
layer {
  name: "relu2"
  type: "ReLU"
  bottom: "conv2"
  top: "conv2"
}
layer {
  name: "norm2"
  type: "LRN"
  bottom: "conv2"
  top: "norm2"
  lrn_param {
    local_size: 5
    alpha: 0.0001
    beta: 0.75
  }
}
layer {
  name: "pool2"
  type: "Pooling"
  bottom: "norm2"
  top: "pool2"
  pooling_param {
    pool: MAX
    kernel_size: 3
    stride: 2
  }
}
layer {
  name: "conv3"
  type: "Convolution"
  bottom: "pool2"
  top: "conv3"
  param {
    lr_mult: 1
    decay_mult: 1
  }
  param {
    lr_mult: 2
    decay_mult: 0
  }
  convolution_param {
    num_output: 384
    pad: 1
    kernel_size: 3
    weight_filler {
      type: "gaussian"
      std: 0.01
    }
    bias_filler {
      type: "constant"
      value: 0
    }
  }
}
layer {
  name: "relu3"
  type: "ReLU"
  bottom: "conv3"
  top: "conv3"
}
layer {
  name: "conv4"
  type: "Convolution"
  bottom: "conv3"
  top: "conv4"
  param {
    lr_mult: 1
    decay_mult: 1
  }
  param {
    lr_mult: 2
    decay_mult: 0
  }
  convolution_param {
    num_output: 384
    pad: 1
    kernel_size: 3
    group: 2
    weight_filler {
      type: "gaussian"
      std: 0.01
    }
    bias_filler {
      type: "constant"
      value: 0.1
    }
  }
}
layer {
  name: "relu4"
  type: "ReLU"
  bottom: "conv4"
  top: "conv4"
}
layer {
  name: "conv5"
  type: "Convolution"
  bottom: "conv4"
  top: "conv5"
  param {
    lr_mult: 1
    decay_mult: 1
  }
  param {
    lr_mult: 2
    decay_mult: 0
  }
  convolution_param {
    num_output: 256
    pad: 1
    kernel_size: 3
    group: 2
    weight_filler {
      type: "gaussian"
      std: 0.01
    }
    bias_filler {
      type: "constant"
      value: 0.1
    }
  }
}
layer {
  name: "relu5"
  type: "ReLU"
  bottom: "conv5"
  top: "conv5"
}
layer {
  name: "pool5"
  type: "Pooling"
  bottom: "conv5"
  top: "pool5"
  pooling_param {
    pool: MAX
    kernel_size: 3
    stride: 2
  }
}
layer {
  name: "fc6"
  type: "InnerProduct"
  bottom: "pool5"
  top: "fc6"
  param {
    lr_mult: 1
    decay_mult: 1
  }
  param {
    lr_mult: 2
    decay_mult: 0
  }
  inner_product_param {
    num_output: 4096
    weight_filler {
      type: "gaussian"
      std: 0.005
    }
    bias_filler {
      type: "constant"
      value: 0.1
    }
  }
}
layer {
  name: "relu6"
  type: "ReLU"
  bottom: "fc6"
  top: "fc6"
}
layer {
  name: "drop6"
  type: "Dropout"
  bottom: "fc6"
  top: "fc6"
  dropout_param {
    dropout_ratio: 0.5
  }
}
layer {
  name: "fc7"
  type: "InnerProduct"
  bottom: "fc6"
  top: "fc7"
  param {
    lr_mult: 1
    decay_mult: 1
  }
  param {
    lr_mult: 2
    decay_mult: 0
  }
  inner_product_param {
    num_output: 4096
    weight_filler {
      type: "gaussian"
      std: 0.005
    }
    bias_filler {
      type: "constant"
      value: 0.1
    }
  }
}
layer {
  name: "relu7"
  type: "ReLU"
  bottom: "fc7"
  top: "fc7"
}
layer {
  name: "drop7"
  type: "Dropout"
  bottom: "fc7"
  top: "fc7"
  dropout_param {
    dropout_ratio: 0.5
  }
}
layer {
  name: "fc8"
  type: "InnerProduct"
  bottom: "fc7"
  top: "fc8"
  param {
    lr_mult: 1
    decay_mult: 1
  }
  param {
    lr_mult: 2
    decay_mult: 0
  }
  inner_product_param {
    num_output: 2
    weight_filler {
      type: "gaussian"
      std: 0.01
    }
    bias_filler {
      type: "constant"
      value: 0
    }
  }
}
layer {
  name: "accuracy"
  type: "Accuracy"
  bottom: "fc8"
  bottom: "label"
  top: "accuracy"
  include {
    phase: TEST
  }
}
layer {
  name: "loss"
  type: "SoftmaxWithLoss"
  bottom: "fc8"
  bottom: "label"
  top: "loss"
}
I0806 13:18:53.119701 11858 layer_factory.hpp:77] Creating layer mnist
I0806 13:18:53.119812 11858 net.cpp:91] Creating Layer mnist
I0806 13:18:53.119818 11858 net.cpp:399] mnist -> data
I0806 13:18:53.119825 11858 net.cpp:399] mnist -> label
I0806 13:18:53.119832 11858 data_transformer.cpp:25] Loading mean file from: data/person_only_lmdb/person_background_only_color_mean.binaryproto
I0806 13:18:53.120970 11867 db_lmdb.cpp:35] Opened lmdb data/person_only_lmdb/person_background_only_test_lmdb
I0806 13:18:53.121147 11858 data_layer.cpp:41] output data size: 100,3,128,128
I0806 13:18:53.162873 11858 net.cpp:141] Setting up mnist
I0806 13:18:53.162902 11858 net.cpp:148] Top shape: 100 3 128 128 (4915200)
I0806 13:18:53.162906 11858 net.cpp:148] Top shape: 100 (100)
I0806 13:18:53.162909 11858 net.cpp:156] Memory required for data: 19661200
I0806 13:18:53.162914 11858 layer_factory.hpp:77] Creating layer label_mnist_1_split
I0806 13:18:53.162925 11858 net.cpp:91] Creating Layer label_mnist_1_split
I0806 13:18:53.162930 11858 net.cpp:425] label_mnist_1_split <- label
I0806 13:18:53.162935 11858 net.cpp:399] label_mnist_1_split -> label_mnist_1_split_0
I0806 13:18:53.162941 11858 net.cpp:399] label_mnist_1_split -> label_mnist_1_split_1
I0806 13:18:53.163184 11858 net.cpp:141] Setting up label_mnist_1_split
I0806 13:18:53.163208 11858 net.cpp:148] Top shape: 100 (100)
I0806 13:18:53.163213 11858 net.cpp:148] Top shape: 100 (100)
I0806 13:18:53.163215 11858 net.cpp:156] Memory required for data: 19662000
I0806 13:18:53.163218 11858 layer_factory.hpp:77] Creating layer conv1
I0806 13:18:53.163230 11858 net.cpp:91] Creating Layer conv1
I0806 13:18:53.163234 11858 net.cpp:425] conv1 <- data
I0806 13:18:53.163241 11858 net.cpp:399] conv1 -> conv1
I0806 13:18:53.168623 11858 net.cpp:141] Setting up conv1
I0806 13:18:53.168640 11858 net.cpp:148] Top shape: 100 96 30 30 (8640000)
I0806 13:18:53.168643 11858 net.cpp:156] Memory required for data: 54222000
I0806 13:18:53.168653 11858 layer_factory.hpp:77] Creating layer relu1
I0806 13:18:53.168659 11858 net.cpp:91] Creating Layer relu1
I0806 13:18:53.168661 11858 net.cpp:425] relu1 <- conv1
I0806 13:18:53.168666 11858 net.cpp:386] relu1 -> conv1 (in-place)
I0806 13:18:53.168934 11858 net.cpp:141] Setting up relu1
I0806 13:18:53.168946 11858 net.cpp:148] Top shape: 100 96 30 30 (8640000)
I0806 13:18:53.168961 11858 net.cpp:156] Memory required for data: 88782000
I0806 13:18:53.168963 11858 layer_factory.hpp:77] Creating layer norm1
I0806 13:18:53.168970 11858 net.cpp:91] Creating Layer norm1
I0806 13:18:53.168973 11858 net.cpp:425] norm1 <- conv1
I0806 13:18:53.168977 11858 net.cpp:399] norm1 -> norm1
I0806 13:18:53.169157 11858 net.cpp:141] Setting up norm1
I0806 13:18:53.169165 11858 net.cpp:148] Top shape: 100 96 30 30 (8640000)
I0806 13:18:53.169178 11858 net.cpp:156] Memory required for data: 123342000
I0806 13:18:53.169181 11858 layer_factory.hpp:77] Creating layer pool1
I0806 13:18:53.169188 11858 net.cpp:91] Creating Layer pool1
I0806 13:18:53.169191 11858 net.cpp:425] pool1 <- norm1
I0806 13:18:53.169195 11858 net.cpp:399] pool1 -> pool1
I0806 13:18:53.169227 11858 net.cpp:141] Setting up pool1
I0806 13:18:53.169232 11858 net.cpp:148] Top shape: 100 96 15 15 (2160000)
I0806 13:18:53.169234 11858 net.cpp:156] Memory required for data: 131982000
I0806 13:18:53.169237 11858 layer_factory.hpp:77] Creating layer conv2
I0806 13:18:53.169245 11858 net.cpp:91] Creating Layer conv2
I0806 13:18:53.169247 11858 net.cpp:425] conv2 <- pool1
I0806 13:18:53.169252 11858 net.cpp:399] conv2 -> conv2
I0806 13:18:53.178957 11858 net.cpp:141] Setting up conv2
I0806 13:18:53.178972 11858 net.cpp:148] Top shape: 100 256 15 15 (5760000)
I0806 13:18:53.178977 11858 net.cpp:156] Memory required for data: 155022000
I0806 13:18:53.178983 11858 layer_factory.hpp:77] Creating layer relu2
I0806 13:18:53.178988 11858 net.cpp:91] Creating Layer relu2
I0806 13:18:53.178992 11858 net.cpp:425] relu2 <- conv2
I0806 13:18:53.178995 11858 net.cpp:386] relu2 -> conv2 (in-place)
I0806 13:18:53.179276 11858 net.cpp:141] Setting up relu2
I0806 13:18:53.179287 11858 net.cpp:148] Top shape: 100 256 15 15 (5760000)
I0806 13:18:53.179302 11858 net.cpp:156] Memory required for data: 178062000
I0806 13:18:53.179306 11858 layer_factory.hpp:77] Creating layer norm2
I0806 13:18:53.179313 11858 net.cpp:91] Creating Layer norm2
I0806 13:18:53.179317 11858 net.cpp:425] norm2 <- conv2
I0806 13:18:53.179322 11858 net.cpp:399] norm2 -> norm2
I0806 13:18:53.179528 11858 net.cpp:141] Setting up norm2
I0806 13:18:53.179538 11858 net.cpp:148] Top shape: 100 256 15 15 (5760000)
I0806 13:18:53.179551 11858 net.cpp:156] Memory required for data: 201102000
I0806 13:18:53.179554 11858 layer_factory.hpp:77] Creating layer pool2
I0806 13:18:53.179570 11858 net.cpp:91] Creating Layer pool2
I0806 13:18:53.179574 11858 net.cpp:425] pool2 <- norm2
I0806 13:18:53.179577 11858 net.cpp:399] pool2 -> pool2
I0806 13:18:53.179628 11858 net.cpp:141] Setting up pool2
I0806 13:18:53.179636 11858 net.cpp:148] Top shape: 100 256 7 7 (1254400)
I0806 13:18:53.179637 11858 net.cpp:156] Memory required for data: 206119600
I0806 13:18:53.179641 11858 layer_factory.hpp:77] Creating layer conv3
I0806 13:18:53.179648 11858 net.cpp:91] Creating Layer conv3
I0806 13:18:53.179653 11858 net.cpp:425] conv3 <- pool2
I0806 13:18:53.179657 11858 net.cpp:399] conv3 -> conv3
I0806 13:18:53.204007 11858 net.cpp:141] Setting up conv3
I0806 13:18:53.204021 11858 net.cpp:148] Top shape: 100 384 7 7 (1881600)
I0806 13:18:53.204025 11858 net.cpp:156] Memory required for data: 213646000
I0806 13:18:53.204031 11858 layer_factory.hpp:77] Creating layer relu3
I0806 13:18:53.204036 11858 net.cpp:91] Creating Layer relu3
I0806 13:18:53.204041 11858 net.cpp:425] relu3 <- conv3
I0806 13:18:53.204046 11858 net.cpp:386] relu3 -> conv3 (in-place)
I0806 13:18:53.204224 11858 net.cpp:141] Setting up relu3
I0806 13:18:53.204232 11858 net.cpp:148] Top shape: 100 384 7 7 (1881600)
I0806 13:18:53.204246 11858 net.cpp:156] Memory required for data: 221172400
I0806 13:18:53.204248 11858 layer_factory.hpp:77] Creating layer conv4
I0806 13:18:53.204259 11858 net.cpp:91] Creating Layer conv4
I0806 13:18:53.204262 11858 net.cpp:425] conv4 <- conv3
I0806 13:18:53.204267 11858 net.cpp:399] conv4 -> conv4
I0806 13:18:53.223456 11858 net.cpp:141] Setting up conv4
I0806 13:18:53.223470 11858 net.cpp:148] Top shape: 100 384 7 7 (1881600)
I0806 13:18:53.223474 11858 net.cpp:156] Memory required for data: 228698800
I0806 13:18:53.223479 11858 layer_factory.hpp:77] Creating layer relu4
I0806 13:18:53.223486 11858 net.cpp:91] Creating Layer relu4
I0806 13:18:53.223489 11858 net.cpp:425] relu4 <- conv4
I0806 13:18:53.223493 11858 net.cpp:386] relu4 -> conv4 (in-place)
I0806 13:18:53.223820 11858 net.cpp:141] Setting up relu4
I0806 13:18:53.223832 11858 net.cpp:148] Top shape: 100 384 7 7 (1881600)
I0806 13:18:53.223846 11858 net.cpp:156] Memory required for data: 236225200
I0806 13:18:53.223850 11858 layer_factory.hpp:77] Creating layer conv5
I0806 13:18:53.223860 11858 net.cpp:91] Creating Layer conv5
I0806 13:18:53.223863 11858 net.cpp:425] conv5 <- conv4
I0806 13:18:53.223870 11858 net.cpp:399] conv5 -> conv5
I0806 13:18:53.236963 11858 net.cpp:141] Setting up conv5
I0806 13:18:53.236977 11858 net.cpp:148] Top shape: 100 256 7 7 (1254400)
I0806 13:18:53.236980 11858 net.cpp:156] Memory required for data: 241242800
I0806 13:18:53.236989 11858 layer_factory.hpp:77] Creating layer relu5
I0806 13:18:53.236995 11858 net.cpp:91] Creating Layer relu5
I0806 13:18:53.236999 11858 net.cpp:425] relu5 <- conv5
I0806 13:18:53.237001 11858 net.cpp:386] relu5 -> conv5 (in-place)
I0806 13:18:53.237278 11858 net.cpp:141] Setting up relu5
I0806 13:18:53.237301 11858 net.cpp:148] Top shape: 100 256 7 7 (1254400)
I0806 13:18:53.237304 11858 net.cpp:156] Memory required for data: 246260400
I0806 13:18:53.237308 11858 layer_factory.hpp:77] Creating layer pool5
I0806 13:18:53.237314 11858 net.cpp:91] Creating Layer pool5
I0806 13:18:53.237318 11858 net.cpp:425] pool5 <- conv5
I0806 13:18:53.237323 11858 net.cpp:399] pool5 -> pool5
I0806 13:18:53.237366 11858 net.cpp:141] Setting up pool5
I0806 13:18:53.237371 11858 net.cpp:148] Top shape: 100 256 3 3 (230400)
I0806 13:18:53.237375 11858 net.cpp:156] Memory required for data: 247182000
I0806 13:18:53.237376 11858 layer_factory.hpp:77] Creating layer fc6
I0806 13:18:53.237385 11858 net.cpp:91] Creating Layer fc6
I0806 13:18:53.237387 11858 net.cpp:425] fc6 <- pool5
I0806 13:18:53.237392 11858 net.cpp:399] fc6 -> fc6
I0806 13:18:53.494165 11858 net.cpp:141] Setting up fc6
I0806 13:18:53.494201 11858 net.cpp:148] Top shape: 100 4096 (409600)
I0806 13:18:53.494204 11858 net.cpp:156] Memory required for data: 248820400
I0806 13:18:53.494213 11858 layer_factory.hpp:77] Creating layer relu6
I0806 13:18:53.494223 11858 net.cpp:91] Creating Layer relu6
I0806 13:18:53.494227 11858 net.cpp:425] relu6 <- fc6
I0806 13:18:53.494232 11858 net.cpp:386] relu6 -> fc6 (in-place)
I0806 13:18:53.494500 11858 net.cpp:141] Setting up relu6
I0806 13:18:53.494509 11858 net.cpp:148] Top shape: 100 4096 (409600)
I0806 13:18:53.494524 11858 net.cpp:156] Memory required for data: 250458800
I0806 13:18:53.494526 11858 layer_factory.hpp:77] Creating layer drop6
I0806 13:18:53.494531 11858 net.cpp:91] Creating Layer drop6
I0806 13:18:53.494534 11858 net.cpp:425] drop6 <- fc6
I0806 13:18:53.494539 11858 net.cpp:386] drop6 -> fc6 (in-place)
I0806 13:18:53.494566 11858 net.cpp:141] Setting up drop6
I0806 13:18:53.494571 11858 net.cpp:148] Top shape: 100 4096 (409600)
I0806 13:18:53.494573 11858 net.cpp:156] Memory required for data: 252097200
I0806 13:18:53.494575 11858 layer_factory.hpp:77] Creating layer fc7
I0806 13:18:53.494586 11858 net.cpp:91] Creating Layer fc7
I0806 13:18:53.494590 11858 net.cpp:425] fc7 <- fc6
I0806 13:18:53.494595 11858 net.cpp:399] fc7 -> fc7
I0806 13:18:53.945982 11858 net.cpp:141] Setting up fc7
I0806 13:18:53.946020 11858 net.cpp:148] Top shape: 100 4096 (409600)
I0806 13:18:53.946023 11858 net.cpp:156] Memory required for data: 253735600
I0806 13:18:53.946033 11858 layer_factory.hpp:77] Creating layer relu7
I0806 13:18:53.946043 11858 net.cpp:91] Creating Layer relu7
I0806 13:18:53.946046 11858 net.cpp:425] relu7 <- fc7
I0806 13:18:53.946053 11858 net.cpp:386] relu7 -> fc7 (in-place)
I0806 13:18:53.946485 11858 net.cpp:141] Setting up relu7
I0806 13:18:53.946496 11858 net.cpp:148] Top shape: 100 4096 (409600)
I0806 13:18:53.946511 11858 net.cpp:156] Memory required for data: 255374000
I0806 13:18:53.946513 11858 layer_factory.hpp:77] Creating layer drop7
I0806 13:18:53.946521 11858 net.cpp:91] Creating Layer drop7
I0806 13:18:53.946523 11858 net.cpp:425] drop7 <- fc7
I0806 13:18:53.946527 11858 net.cpp:386] drop7 -> fc7 (in-place)
I0806 13:18:53.946558 11858 net.cpp:141] Setting up drop7
I0806 13:18:53.946563 11858 net.cpp:148] Top shape: 100 4096 (409600)
I0806 13:18:53.946565 11858 net.cpp:156] Memory required for data: 257012400
I0806 13:18:53.946568 11858 layer_factory.hpp:77] Creating layer fc8
I0806 13:18:53.946576 11858 net.cpp:91] Creating Layer fc8
I0806 13:18:53.946579 11858 net.cpp:425] fc8 <- fc7
I0806 13:18:53.946594 11858 net.cpp:399] fc8 -> fc8
I0806 13:18:53.946981 11858 net.cpp:141] Setting up fc8
I0806 13:18:53.946990 11858 net.cpp:148] Top shape: 100 2 (200)
I0806 13:18:53.947003 11858 net.cpp:156] Memory required for data: 257013200
I0806 13:18:53.947008 11858 layer_factory.hpp:77] Creating layer fc8_fc8_0_split
I0806 13:18:53.947023 11858 net.cpp:91] Creating Layer fc8_fc8_0_split
I0806 13:18:53.947026 11858 net.cpp:425] fc8_fc8_0_split <- fc8
I0806 13:18:53.947043 11858 net.cpp:399] fc8_fc8_0_split -> fc8_fc8_0_split_0
I0806 13:18:53.947048 11858 net.cpp:399] fc8_fc8_0_split -> fc8_fc8_0_split_1
I0806 13:18:53.947084 11858 net.cpp:141] Setting up fc8_fc8_0_split
I0806 13:18:53.947089 11858 net.cpp:148] Top shape: 100 2 (200)
I0806 13:18:53.947093 11858 net.cpp:148] Top shape: 100 2 (200)
I0806 13:18:53.947094 11858 net.cpp:156] Memory required for data: 257014800
I0806 13:18:53.947098 11858 layer_factory.hpp:77] Creating layer accuracy
I0806 13:18:53.947103 11858 net.cpp:91] Creating Layer accuracy
I0806 13:18:53.947105 11858 net.cpp:425] accuracy <- fc8_fc8_0_split_0
I0806 13:18:53.947109 11858 net.cpp:425] accuracy <- label_mnist_1_split_0
I0806 13:18:53.947125 11858 net.cpp:399] accuracy -> accuracy
…
