…
I0811 14:10:49.136026  8128 net.cpp:313] The NetState phase (0) differed from the phase (1) specified by a rule in layer accuracy
I0811 14:10:49.136140  8128 net.cpp:49] Initializing net from parameters: 
name: "AlexNet"
state {
  phase: TRAIN
}
layer {
  name: "mnist"
  type: "Data"
  top: "data"
  top: "label"
  include {
    phase: TRAIN
  }
  transform_param {
    scale: 0.00390625
    mean_file: "data/person_only_lmdb/person_background_only_color_mean.binaryproto"
  }
  data_param {
    source: "data/person_only_lmdb/person_background_only_train_lmdb"
    batch_size: 128
    backend: LMDB
  }
}
layer {
  name: "conv1"
  type: "Convolution"
  bottom: "data"
  top: "conv1"
  param {
    lr_mult: 1
    decay_mult: 1
  }
  param {
    lr_mult: 2
    decay_mult: 0
  }
  convolution_param {
    num_output: 96
    kernel_size: 11
    stride: 4
    weight_filler {
      type: "gaussian"
      std: 0.01
    }
    bias_filler {
      type: "constant"
      value: 0
    }
  }
}
layer {
  name: "relu1"
  type: "ReLU"
  bottom: "conv1"
  top: "conv1"
}
layer {
  name: "norm1"
  type: "LRN"
  bottom: "conv1"
  top: "norm1"
  lrn_param {
    local_size: 5
    alpha: 0.0001
    beta: 0.75
  }
}
layer {
  name: "pool1"
  type: "Pooling"
  bottom: "norm1"
  top: "pool1"
  pooling_param {
    pool: MAX
    kernel_size: 3
    stride: 2
  }
}
layer {
  name: "conv2"
  type: "Convolution"
  bottom: "pool1"
  top: "conv2"
  param {
    lr_mult: 1
    decay_mult: 1
  }
  param {
    lr_mult: 2
    decay_mult: 0
  }
  convolution_param {
    num_output: 256
    pad: 2
    kernel_size: 5
    group: 2
    weight_filler {
      type: "gaussian"
      std: 0.01
    }
    bias_filler {
      type: "constant"
      value: 0.1
    }
  }
}
layer {
  name: "relu2"
  type: "ReLU"
  bottom: "conv2"
  top: "conv2"
}
layer {
  name: "norm2"
  type: "LRN"
  bottom: "conv2"
  top: "norm2"
  lrn_param {
    local_size: 5
    alpha: 0.0001
    beta: 0.75
  }
}
layer {
  name: "pool2"
  type: "Pooling"
  bottom: "norm2"
  top: "pool2"
  pooling_param {
    pool: MAX
    kernel_size: 3
    stride: 2
  }
}
layer {
  name: "conv3"
  type: "Convolution"
  bottom: "pool2"
  top: "conv3"
  param {
    lr_mult: 1
    decay_mult: 1
  }
  param {
    lr_mult: 2
    decay_mult: 0
  }
  convolution_param {
    num_output: 384
    pad: 1
    kernel_size: 3
    weight_filler {
      type: "gaussian"
      std: 0.01
    }
    bias_filler {
      type: "constant"
      value: 0
    }
  }
}
layer {
  name: "relu3"
  type: "ReLU"
  bottom: "conv3"
  top: "conv3"
}
layer {
  name: "conv4"
  type: "Convolution"
  bottom: "conv3"
  top: "conv4"
  param {
    lr_mult: 1
    decay_mult: 1
  }
  param {
    lr_mult: 2
    decay_mult: 0
  }
  convolution_param {
    num_output: 384
    pad: 1
    kernel_size: 3
    group: 2
    weight_filler {
      type: "gaussian"
      std: 0.01
    }
    bias_filler {
      type: "constant"
      value: 0.1
    }
  }
}
layer {
  name: "relu4"
  type: "ReLU"
  bottom: "conv4"
  top: "conv4"
}
layer {
  name: "conv5"
  type: "Convolution"
  bottom: "conv4"
  top: "conv5"
  param {
    lr_mult: 1
    decay_mult: 1
  }
  param {
    lr_mult: 2
    decay_mult: 0
  }
  convolution_param {
    num_output: 256
    pad: 1
    kernel_size: 3
    group: 2
    weight_filler {
      type: "gaussian"
      std: 0.01
    }
    bias_filler {
      type: "constant"
      value: 0.1
    }
  }
}
layer {
  name: "relu5"
  type: "ReLU"
  bottom: "conv5"
  top: "conv5"
}
layer {
  name: "pool5"
  type: "Pooling"
  bottom: "conv5"
  top: "pool5"
  pooling_param {
    pool: MAX
    kernel_size: 3
    stride: 2
  }
}
layer {
  name: "fc6"
  type: "InnerProduct"
  bottom: "pool5"
  top: "fc6"
  param {
    lr_mult: 1
    decay_mult: 1
  }
  param {
    lr_mult: 2
    decay_mult: 0
  }
  inner_product_param {
    num_output: 4096
    weight_filler {
      type: "gaussian"
      std: 0.005
    }
    bias_filler {
      type: "constant"
      value: 0.1
    }
  }
}
layer {
  name: "relu6"
  type: "ReLU"
  bottom: "fc6"
  top: "fc6"
}
layer {
  name: "drop6"
  type: "Dropout"
  bottom: "fc6"
  top: "fc6"
  dropout_param {
    dropout_ratio: 0.5
  }
}
layer {
  name: "fc7"
  type: "InnerProduct"
  bottom: "fc6"
  top: "fc7"
  param {
    lr_mult: 1
    decay_mult: 1
  }
  param {
    lr_mult: 2
    decay_mult: 0
  }
  inner_product_param {
    num_output: 4096
    weight_filler {
      type: "gaussian"
      std: 0.005
    }
    bias_filler {
      type: "constant"
      value: 0.1
    }
  }
}
layer {
  name: "relu7"
  type: "ReLU"
  bottom: "fc7"
  top: "fc7"
}
layer {
  name: "drop7"
  type: "Dropout"
  bottom: "fc7"
  top: "fc7"
  dropout_param {
    dropout_ratio: 0.5
  }
}
layer {
  name: "fc8"
  type: "InnerProduct"
  bottom: "fc7"
  top: "fc8"
  param {
    lr_mult: 1
    decay_mult: 1
  }
  param {
    lr_mult: 2
    decay_mult: 0
  }
  inner_product_param {
    num_output: 2
    weight_filler {
      type: "gaussian"
      std: 0.01
    }
    bias_filler {
      type: "constant"
      value: 0
    }
  }
}
layer {
  name: "loss"
  type: "SoftmaxWithLoss"
  bottom: "fc8"
  bottom: "label"
  top: "loss"
}
I0811 14:10:49.136205  8128 layer_factory.hpp:77] Creating layer mnist
I0811 14:10:49.136895  8128 net.cpp:91] Creating Layer mnist
I0811 14:10:49.136906  8128 net.cpp:399] mnist -> data
I0811 14:10:49.136920  8128 net.cpp:399] mnist -> label
I0811 14:10:49.136931  8128 data_transformer.cpp:25] Loading mean file from: data/person_only_lmdb/person_background_only_color_mean.binaryproto
I0811 14:10:49.138293  8135 db_lmdb.cpp:35] Opened lmdb data/person_only_lmdb/person_background_only_train_lmdb
I0811 14:11:04.685214  8128 data_layer.cpp:41] output data size: 128,3,128,128
I0811 14:11:04.729019  8128 net.cpp:141] Setting up mnist
I0811 14:11:04.729087  8128 net.cpp:148] Top shape: 128 3 128 128 (6291456)
I0811 14:11:04.729109  8128 net.cpp:148] Top shape: 128 (128)
I0811 14:11:04.729122  8128 net.cpp:156] Memory required for data: 25166336
I0811 14:11:04.729141  8128 layer_factory.hpp:77] Creating layer conv1
I0811 14:11:04.729212  8128 net.cpp:91] Creating Layer conv1
I0811 14:11:04.729228  8128 net.cpp:425] conv1 <- data
I0811 14:11:04.729249  8128 net.cpp:399] conv1 -> conv1
I0811 14:11:04.904878  8128 net.cpp:141] Setting up conv1
I0811 14:11:04.904927  8128 net.cpp:148] Top shape: 128 96 30 30 (11059200)
I0811 14:11:04.904932  8128 net.cpp:156] Memory required for data: 69403136
I0811 14:11:04.904953  8128 layer_factory.hpp:77] Creating layer relu1
I0811 14:11:04.904970  8128 net.cpp:91] Creating Layer relu1
I0811 14:11:04.904974  8128 net.cpp:425] relu1 <- conv1
I0811 14:11:04.904979  8128 net.cpp:386] relu1 -> conv1 (in-place)
I0811 14:11:04.905165  8128 net.cpp:141] Setting up relu1
I0811 14:11:04.905175  8128 net.cpp:148] Top shape: 128 96 30 30 (11059200)
I0811 14:11:04.905189  8128 net.cpp:156] Memory required for data: 113639936
I0811 14:11:04.905192  8128 layer_factory.hpp:77] Creating layer norm1
I0811 14:11:04.905215  8128 net.cpp:91] Creating Layer norm1
I0811 14:11:04.905218  8128 net.cpp:425] norm1 <- conv1
I0811 14:11:04.905223  8128 net.cpp:399] norm1 -> norm1
I0811 14:11:04.905529  8128 net.cpp:141] Setting up norm1
I0811 14:11:04.905541  8128 net.cpp:148] Top shape: 128 96 30 30 (11059200)
I0811 14:11:04.905556  8128 net.cpp:156] Memory required for data: 157876736
I0811 14:11:04.905560  8128 layer_factory.hpp:77] Creating layer pool1
I0811 14:11:04.905566  8128 net.cpp:91] Creating Layer pool1
I0811 14:11:04.905570  8128 net.cpp:425] pool1 <- norm1
I0811 14:11:04.905573  8128 net.cpp:399] pool1 -> pool1
I0811 14:11:04.905603  8128 net.cpp:141] Setting up pool1
I0811 14:11:04.905609  8128 net.cpp:148] Top shape: 128 96 15 15 (2764800)
I0811 14:11:04.905612  8128 net.cpp:156] Memory required for data: 168935936
I0811 14:11:04.905614  8128 layer_factory.hpp:77] Creating layer conv2
I0811 14:11:04.905652  8128 net.cpp:91] Creating Layer conv2
I0811 14:11:04.905658  8128 net.cpp:425] conv2 <- pool1
I0811 14:11:04.905663  8128 net.cpp:399] conv2 -> conv2
I0811 14:11:04.915050  8128 net.cpp:141] Setting up conv2
I0811 14:11:04.915076  8128 net.cpp:148] Top shape: 128 256 15 15 (7372800)
I0811 14:11:04.915079  8128 net.cpp:156] Memory required for data: 198427136
I0811 14:11:04.915086  8128 layer_factory.hpp:77] Creating layer relu2
I0811 14:11:04.915092  8128 net.cpp:91] Creating Layer relu2
I0811 14:11:04.915096  8128 net.cpp:425] relu2 <- conv2
I0811 14:11:04.915099  8128 net.cpp:386] relu2 -> conv2 (in-place)
I0811 14:11:04.915380  8128 net.cpp:141] Setting up relu2
I0811 14:11:04.915390  8128 net.cpp:148] Top shape: 128 256 15 15 (7372800)
I0811 14:11:04.915405  8128 net.cpp:156] Memory required for data: 227918336
I0811 14:11:04.915408  8128 layer_factory.hpp:77] Creating layer norm2
I0811 14:11:04.915421  8128 net.cpp:91] Creating Layer norm2
I0811 14:11:04.915426  8128 net.cpp:425] norm2 <- conv2
I0811 14:11:04.915429  8128 net.cpp:399] norm2 -> norm2
I0811 14:11:04.915627  8128 net.cpp:141] Setting up norm2
I0811 14:11:04.915635  8128 net.cpp:148] Top shape: 128 256 15 15 (7372800)
I0811 14:11:04.915649  8128 net.cpp:156] Memory required for data: 257409536
I0811 14:11:04.915652  8128 layer_factory.hpp:77] Creating layer pool2
I0811 14:11:04.915658  8128 net.cpp:91] Creating Layer pool2
I0811 14:11:04.915662  8128 net.cpp:425] pool2 <- norm2
I0811 14:11:04.915668  8128 net.cpp:399] pool2 -> pool2
I0811 14:11:04.915696  8128 net.cpp:141] Setting up pool2
I0811 14:11:04.915704  8128 net.cpp:148] Top shape: 128 256 7 7 (1605632)
I0811 14:11:04.915717  8128 net.cpp:156] Memory required for data: 263832064
I0811 14:11:04.915726  8128 layer_factory.hpp:77] Creating layer conv3
I0811 14:11:04.915737  8128 net.cpp:91] Creating Layer conv3
I0811 14:11:04.915742  8128 net.cpp:425] conv3 <- pool2
I0811 14:11:04.915748  8128 net.cpp:399] conv3 -> conv3
I0811 14:11:04.939882  8128 net.cpp:141] Setting up conv3
I0811 14:11:04.939896  8128 net.cpp:148] Top shape: 128 384 7 7 (2408448)
I0811 14:11:04.939899  8128 net.cpp:156] Memory required for data: 273465856
I0811 14:11:04.939908  8128 layer_factory.hpp:77] Creating layer relu3
I0811 14:11:04.939913  8128 net.cpp:91] Creating Layer relu3
I0811 14:11:04.939915  8128 net.cpp:425] relu3 <- conv3
I0811 14:11:04.939919  8128 net.cpp:386] relu3 -> conv3 (in-place)
I0811 14:11:04.940184  8128 net.cpp:141] Setting up relu3
I0811 14:11:04.940196  8128 net.cpp:148] Top shape: 128 384 7 7 (2408448)
I0811 14:11:04.940198  8128 net.cpp:156] Memory required for data: 283099648
I0811 14:11:04.940201  8128 layer_factory.hpp:77] Creating layer conv4
I0811 14:11:04.940208  8128 net.cpp:91] Creating Layer conv4
I0811 14:11:04.940212  8128 net.cpp:425] conv4 <- conv3
I0811 14:11:04.940215  8128 net.cpp:399] conv4 -> conv4
I0811 14:11:04.958922  8128 net.cpp:141] Setting up conv4
I0811 14:11:04.958935  8128 net.cpp:148] Top shape: 128 384 7 7 (2408448)
I0811 14:11:04.958938  8128 net.cpp:156] Memory required for data: 292733440
I0811 14:11:04.958945  8128 layer_factory.hpp:77] Creating layer relu4
I0811 14:11:04.958950  8128 net.cpp:91] Creating Layer relu4
I0811 14:11:04.958952  8128 net.cpp:425] relu4 <- conv4
I0811 14:11:04.958956  8128 net.cpp:386] relu4 -> conv4 (in-place)
I0811 14:11:04.959219  8128 net.cpp:141] Setting up relu4
I0811 14:11:04.959231  8128 net.cpp:148] Top shape: 128 384 7 7 (2408448)
I0811 14:11:04.959233  8128 net.cpp:156] Memory required for data: 302367232
I0811 14:11:04.959236  8128 layer_factory.hpp:77] Creating layer conv5
I0811 14:11:04.959244  8128 net.cpp:91] Creating Layer conv5
I0811 14:11:04.959247  8128 net.cpp:425] conv5 <- conv4
I0811 14:11:04.959252  8128 net.cpp:399] conv5 -> conv5
I0811 14:11:04.972295  8128 net.cpp:141] Setting up conv5
I0811 14:11:04.972307  8128 net.cpp:148] Top shape: 128 256 7 7 (1605632)
I0811 14:11:04.972311  8128 net.cpp:156] Memory required for data: 308789760
I0811 14:11:04.972326  8128 layer_factory.hpp:77] Creating layer relu5
I0811 14:11:04.972332  8128 net.cpp:91] Creating Layer relu5
I0811 14:11:04.972334  8128 net.cpp:425] relu5 <- conv5
I0811 14:11:04.972338  8128 net.cpp:386] relu5 -> conv5 (in-place)
I0811 14:11:04.972612  8128 net.cpp:141] Setting up relu5
I0811 14:11:04.972625  8128 net.cpp:148] Top shape: 128 256 7 7 (1605632)
I0811 14:11:04.972627  8128 net.cpp:156] Memory required for data: 315212288
I0811 14:11:04.972630  8128 layer_factory.hpp:77] Creating layer pool5
I0811 14:11:04.972635  8128 net.cpp:91] Creating Layer pool5
I0811 14:11:04.972638  8128 net.cpp:425] pool5 <- conv5
I0811 14:11:04.972643  8128 net.cpp:399] pool5 -> pool5
I0811 14:11:04.972679  8128 net.cpp:141] Setting up pool5
I0811 14:11:04.972698  8128 net.cpp:148] Top shape: 128 256 3 3 (294912)
I0811 14:11:04.972712  8128 net.cpp:156] Memory required for data: 316391936
I0811 14:11:04.972715  8128 layer_factory.hpp:77] Creating layer fc6
I0811 14:11:04.972728  8128 net.cpp:91] Creating Layer fc6
I0811 14:11:04.972731  8128 net.cpp:425] fc6 <- pool5
I0811 14:11:04.972736  8128 net.cpp:399] fc6 -> fc6
I0811 14:11:05.222167  8128 net.cpp:141] Setting up fc6
I0811 14:11:05.222203  8128 net.cpp:148] Top shape: 128 4096 (524288)
I0811 14:11:05.222208  8128 net.cpp:156] Memory required for data: 318489088
I0811 14:11:05.222216  8128 layer_factory.hpp:77] Creating layer relu6
I0811 14:11:05.222226  8128 net.cpp:91] Creating Layer relu6
I0811 14:11:05.222230  8128 net.cpp:425] relu6 <- fc6
I0811 14:11:05.222236  8128 net.cpp:386] relu6 -> fc6 (in-place)
I0811 14:11:05.222476  8128 net.cpp:141] Setting up relu6
I0811 14:11:05.222486  8128 net.cpp:148] Top shape: 128 4096 (524288)
I0811 14:11:05.222488  8128 net.cpp:156] Memory required for data: 320586240
I0811 14:11:05.222502  8128 layer_factory.hpp:77] Creating layer drop6
I0811 14:11:05.222509  8128 net.cpp:91] Creating Layer drop6
I0811 14:11:05.222512  8128 net.cpp:425] drop6 <- fc6
I0811 14:11:05.222517  8128 net.cpp:386] drop6 -> fc6 (in-place)
I0811 14:11:05.222537  8128 net.cpp:141] Setting up drop6
I0811 14:11:05.222542  8128 net.cpp:148] Top shape: 128 4096 (524288)
I0811 14:11:05.222544  8128 net.cpp:156] Memory required for data: 322683392
I0811 14:11:05.222546  8128 layer_factory.hpp:77] Creating layer fc7
I0811 14:11:05.222553  8128 net.cpp:91] Creating Layer fc7
I0811 14:11:05.222556  8128 net.cpp:425] fc7 <- fc6
I0811 14:11:05.222560  8128 net.cpp:399] fc7 -> fc7
I0811 14:11:05.710505  8128 net.cpp:141] Setting up fc7
I0811 14:11:05.710547  8128 net.cpp:148] Top shape: 128 4096 (524288)
I0811 14:11:05.710551  8128 net.cpp:156] Memory required for data: 324780544
I0811 14:11:05.710561  8128 layer_factory.hpp:77] Creating layer relu7
I0811 14:11:05.710571  8128 net.cpp:91] Creating Layer relu7
I0811 14:11:05.710574  8128 net.cpp:425] relu7 <- fc7
I0811 14:11:05.710580  8128 net.cpp:386] relu7 -> fc7 (in-place)
I0811 14:11:05.711041  8128 net.cpp:141] Setting up relu7
I0811 14:11:05.711053  8128 net.cpp:148] Top shape: 128 4096 (524288)
I0811 14:11:05.711056  8128 net.cpp:156] Memory required for data: 326877696
I0811 14:11:05.711060  8128 layer_factory.hpp:77] Creating layer drop7
I0811 14:11:05.711066  8128 net.cpp:91] Creating Layer drop7
I0811 14:11:05.711069  8128 net.cpp:425] drop7 <- fc7
I0811 14:11:05.711076  8128 net.cpp:386] drop7 -> fc7 (in-place)
I0811 14:11:05.711112  8128 net.cpp:141] Setting up drop7
I0811 14:11:05.711117  8128 net.cpp:148] Top shape: 128 4096 (524288)
I0811 14:11:05.711120  8128 net.cpp:156] Memory required for data: 328974848
I0811 14:11:05.711123  8128 layer_factory.hpp:77] Creating layer fc8
I0811 14:11:05.711133  8128 net.cpp:91] Creating Layer fc8
I0811 14:11:05.711135  8128 net.cpp:425] fc8 <- fc7
I0811 14:11:05.711139  8128 net.cpp:399] fc8 -> fc8
I0811 14:11:05.711952  8128 net.cpp:141] Setting up fc8
I0811 14:11:05.711964  8128 net.cpp:148] Top shape: 128 2 (256)
I0811 14:11:05.711978  8128 net.cpp:156] Memory required for data: 328975872
I0811 14:11:05.711984  8128 layer_factory.hpp:77] Creating layer loss
I0811 14:11:05.711989  8128 net.cpp:91] Creating Layer loss
I0811 14:11:05.711992  8128 net.cpp:425] loss <- fc8
I0811 14:11:05.711997  8128 net.cpp:425] loss <- label
I0811 14:11:05.712002  8128 net.cpp:399] loss -> loss
I0811 14:11:05.712010  8128 layer_factory.hpp:77] Creating layer loss
…
I0811 14:11:05.713179  8128 net.cpp:313] The NetState phase (1) differed from the phase (0) specified by a rule in layer mnist
I0811 14:11:05.713363  8128 net.cpp:49] Initializing net from parameters: 
name: "AlexNet"
state {
  phase: TEST
}
layer {
  name: "mnist"
  type: "Data"
  top: "data"
  top: "label"
  include {
    phase: TEST
  }
  transform_param {
    scale: 0.00390625
    mean_file: "data/person_only_lmdb/person_background_only_color_mean.binaryproto"
  }
  data_param {
    source: "data/person_only_lmdb/person_background_only_test_lmdb"
    batch_size: 100
    backend: LMDB
  }
}
layer {
  name: "conv1"
  type: "Convolution"
  bottom: "data"
  top: "conv1"
  param {
    lr_mult: 1
    decay_mult: 1
  }
  param {
    lr_mult: 2
    decay_mult: 0
  }
  convolution_param {
    num_output: 96
    kernel_size: 11
    stride: 4
    weight_filler {
      type: "gaussian"
      std: 0.01
    }
    bias_filler {
      type: "constant"
      value: 0
    }
  }
}
layer {
  name: "relu1"
  type: "ReLU"
  bottom: "conv1"
  top: "conv1"
}
layer {
  name: "norm1"
  type: "LRN"
  bottom: "conv1"
  top: "norm1"
  lrn_param {
    local_size: 5
    alpha: 0.0001
    beta: 0.75
  }
}
layer {
  name: "pool1"
  type: "Pooling"
  bottom: "norm1"
  top: "pool1"
  pooling_param {
    pool: MAX
    kernel_size: 3
    stride: 2
  }
}
layer {
  name: "conv2"
  type: "Convolution"
  bottom: "pool1"
  top: "conv2"
  param {
    lr_mult: 1
    decay_mult: 1
  }
  param {
    lr_mult: 2
    decay_mult: 0
  }
  convolution_param {
    num_output: 256
    pad: 2
    kernel_size: 5
    group: 2
    weight_filler {
      type: "gaussian"
      std: 0.01
    }
    bias_filler {
      type: "constant"
      value: 0.1
    }
  }
}
layer {
  name: "relu2"
  type: "ReLU"
  bottom: "conv2"
  top: "conv2"
}
layer {
  name: "norm2"
  type: "LRN"
  bottom: "conv2"
  top: "norm2"
  lrn_param {
    local_size: 5
    alpha: 0.0001
    beta: 0.75
  }
}
layer {
  name: "pool2"
  type: "Pooling"
  bottom: "norm2"
  top: "pool2"
  pooling_param {
    pool: MAX
    kernel_size: 3
    stride: 2
  }
}
layer {
  name: "conv3"
  type: "Convolution"
  bottom: "pool2"
  top: "conv3"
  param {
    lr_mult: 1
    decay_mult: 1
  }
  param {
    lr_mult: 2
    decay_mult: 0
  }
  convolution_param {
    num_output: 384
    pad: 1
    kernel_size: 3
    weight_filler {
      type: "gaussian"
      std: 0.01
    }
    bias_filler {
      type: "constant"
      value: 0
    }
  }
}
layer {
  name: "relu3"
  type: "ReLU"
  bottom: "conv3"
  top: "conv3"
}
layer {
  name: "conv4"
  type: "Convolution"
  bottom: "conv3"
  top: "conv4"
  param {
    lr_mult: 1
    decay_mult: 1
  }
  param {
    lr_mult: 2
    decay_mult: 0
  }
  convolution_param {
    num_output: 384
    pad: 1
    kernel_size: 3
    group: 2
    weight_filler {
      type: "gaussian"
      std: 0.01
    }
    bias_filler {
      type: "constant"
      value: 0.1
    }
  }
}
layer {
  name: "relu4"
  type: "ReLU"
  bottom: "conv4"
  top: "conv4"
}
layer {
  name: "conv5"
  type: "Convolution"
  bottom: "conv4"
  top: "conv5"
  param {
    lr_mult: 1
    decay_mult: 1
  }
  param {
    lr_mult: 2
    decay_mult: 0
  }
  convolution_param {
    num_output: 256
    pad: 1
    kernel_size: 3
    group: 2
    weight_filler {
      type: "gaussian"
      std: 0.01
    }
    bias_filler {
      type: "constant"
      value: 0.1
    }
  }
}
layer {
  name: "relu5"
  type: "ReLU"
  bottom: "conv5"
  top: "conv5"
}
layer {
  name: "pool5"
  type: "Pooling"
  bottom: "conv5"
  top: "pool5"
  pooling_param {
    pool: MAX
    kernel_size: 3
    stride: 2
  }
}
layer {
  name: "fc6"
  type: "InnerProduct"
  bottom: "pool5"
  top: "fc6"
  param {
    lr_mult: 1
    decay_mult: 1
  }
  param {
    lr_mult: 2
    decay_mult: 0
  }
  inner_product_param {
    num_output: 4096
    weight_filler {
      type: "gaussian"
      std: 0.005
    }
    bias_filler {
      type: "constant"
      value: 0.1
    }
  }
}
layer {
  name: "relu6"
  type: "ReLU"
  bottom: "fc6"
  top: "fc6"
}
layer {
  name: "drop6"
  type: "Dropout"
  bottom: "fc6"
  top: "fc6"
  dropout_param {
    dropout_ratio: 0.5
  }
}
layer {
  name: "fc7"
  type: "InnerProduct"
  bottom: "fc6"
  top: "fc7"
  param {
    lr_mult: 1
    decay_mult: 1
  }
  param {
    lr_mult: 2
    decay_mult: 0
  }
  inner_product_param {
    num_output: 4096
    weight_filler {
      type: "gaussian"
      std: 0.005
    }
    bias_filler {
      type: "constant"
      value: 0.1
    }
  }
}
layer {
  name: "relu7"
  type: "ReLU"
  bottom: "fc7"
  top: "fc7"
}
layer {
  name: "drop7"
  type: "Dropout"
  bottom: "fc7"
  top: "fc7"
  dropout_param {
    dropout_ratio: 0.5
  }
}
layer {
  name: "fc8"
  type: "InnerProduct"
  bottom: "fc7"
  top: "fc8"
  param {
    lr_mult: 1
    decay_mult: 1
  }
  param {
    lr_mult: 2
    decay_mult: 0
  }
  inner_product_param {
    num_output: 2
    weight_filler {
      type: "gaussian"
      std: 0.01
    }
    bias_filler {
      type: "constant"
      value: 0
    }
  }
}
layer {
  name: "accuracy"
  type: "Accuracy"
  bottom: "fc8"
  bottom: "label"
  top: "accuracy"
  include {
    phase: TEST
  }
}
layer {
  name: "loss"
  type: "SoftmaxWithLoss"
  bottom: "fc8"
  bottom: "label"
  top: "loss"
}
I0811 14:11:05.713464  8128 layer_factory.hpp:77] Creating layer mnist
I0811 14:11:05.713569  8128 net.cpp:91] Creating Layer mnist
I0811 14:11:05.713577  8128 net.cpp:399] mnist -> data
I0811 14:11:05.713584  8128 net.cpp:399] mnist -> label
I0811 14:11:05.713593  8128 data_transformer.cpp:25] Loading mean file from: data/person_only_lmdb/person_background_only_color_mean.binaryproto
I0811 14:11:05.714998  8137 db_lmdb.cpp:35] Opened lmdb data/person_only_lmdb/person_background_only_test_lmdb
I0811 14:11:05.715255  8128 data_layer.cpp:41] output data size: 100,3,128,128
I0811 14:11:05.749781  8128 net.cpp:141] Setting up mnist
I0811 14:11:05.749830  8128 net.cpp:148] Top shape: 100 3 128 128 (4915200)
I0811 14:11:05.749835  8128 net.cpp:148] Top shape: 100 (100)
I0811 14:11:05.749838  8128 net.cpp:156] Memory required for data: 19661200
I0811 14:11:05.749847  8128 layer_factory.hpp:77] Creating layer label_mnist_1_split
I0811 14:11:05.749861  8128 net.cpp:91] Creating Layer label_mnist_1_split
I0811 14:11:05.749863  8128 net.cpp:425] label_mnist_1_split <- label
I0811 14:11:05.749871  8128 net.cpp:399] label_mnist_1_split -> label_mnist_1_split_0
I0811 14:11:05.749878  8128 net.cpp:399] label_mnist_1_split -> label_mnist_1_split_1
I0811 14:11:05.750176  8128 net.cpp:141] Setting up label_mnist_1_split
I0811 14:11:05.750202  8128 net.cpp:148] Top shape: 100 (100)
I0811 14:11:05.750206  8128 net.cpp:148] Top shape: 100 (100)
I0811 14:11:05.750210  8128 net.cpp:156] Memory required for data: 19662000
I0811 14:11:05.750212  8128 layer_factory.hpp:77] Creating layer conv1
I0811 14:11:05.750226  8128 net.cpp:91] Creating Layer conv1
I0811 14:11:05.750229  8128 net.cpp:425] conv1 <- data
I0811 14:11:05.750236  8128 net.cpp:399] conv1 -> conv1
I0811 14:11:05.755882  8128 net.cpp:141] Setting up conv1
I0811 14:11:05.755897  8128 net.cpp:148] Top shape: 100 96 30 30 (8640000)
I0811 14:11:05.755911  8128 net.cpp:156] Memory required for data: 54222000
I0811 14:11:05.755921  8128 layer_factory.hpp:77] Creating layer relu1
I0811 14:11:05.755930  8128 net.cpp:91] Creating Layer relu1
I0811 14:11:05.755935  8128 net.cpp:425] relu1 <- conv1
I0811 14:11:05.755939  8128 net.cpp:386] relu1 -> conv1 (in-place)
I0811 14:11:05.756233  8128 net.cpp:141] Setting up relu1
I0811 14:11:05.756255  8128 net.cpp:148] Top shape: 100 96 30 30 (8640000)
I0811 14:11:05.756259  8128 net.cpp:156] Memory required for data: 88782000
I0811 14:11:05.756263  8128 layer_factory.hpp:77] Creating layer norm1
I0811 14:11:05.756270  8128 net.cpp:91] Creating Layer norm1
I0811 14:11:05.756275  8128 net.cpp:425] norm1 <- conv1
I0811 14:11:05.756280  8128 net.cpp:399] norm1 -> norm1
I0811 14:11:05.756511  8128 net.cpp:141] Setting up norm1
I0811 14:11:05.756533  8128 net.cpp:148] Top shape: 100 96 30 30 (8640000)
I0811 14:11:05.756536  8128 net.cpp:156] Memory required for data: 123342000
I0811 14:11:05.756539  8128 layer_factory.hpp:77] Creating layer pool1
I0811 14:11:05.756546  8128 net.cpp:91] Creating Layer pool1
I0811 14:11:05.756549  8128 net.cpp:425] pool1 <- norm1
I0811 14:11:05.756554  8128 net.cpp:399] pool1 -> pool1
I0811 14:11:05.756590  8128 net.cpp:141] Setting up pool1
I0811 14:11:05.756608  8128 net.cpp:148] Top shape: 100 96 15 15 (2160000)
I0811 14:11:05.756610  8128 net.cpp:156] Memory required for data: 131982000
I0811 14:11:05.756624  8128 layer_factory.hpp:77] Creating layer conv2
I0811 14:11:05.756633  8128 net.cpp:91] Creating Layer conv2
I0811 14:11:05.756639  8128 net.cpp:425] conv2 <- pool1
I0811 14:11:05.756645  8128 net.cpp:399] conv2 -> conv2
I0811 14:11:05.766309  8128 net.cpp:141] Setting up conv2
I0811 14:11:05.766324  8128 net.cpp:148] Top shape: 100 256 15 15 (5760000)
I0811 14:11:05.766326  8128 net.cpp:156] Memory required for data: 155022000
I0811 14:11:05.766335  8128 layer_factory.hpp:77] Creating layer relu2
I0811 14:11:05.766340  8128 net.cpp:91] Creating Layer relu2
I0811 14:11:05.766342  8128 net.cpp:425] relu2 <- conv2
I0811 14:11:05.766348  8128 net.cpp:386] relu2 -> conv2 (in-place)
I0811 14:11:05.766629  8128 net.cpp:141] Setting up relu2
I0811 14:11:05.766641  8128 net.cpp:148] Top shape: 100 256 15 15 (5760000)
I0811 14:11:05.766644  8128 net.cpp:156] Memory required for data: 178062000
I0811 14:11:05.766647  8128 layer_factory.hpp:77] Creating layer norm2
I0811 14:11:05.766655  8128 net.cpp:91] Creating Layer norm2
I0811 14:11:05.766659  8128 net.cpp:425] norm2 <- conv2
I0811 14:11:05.766662  8128 net.cpp:399] norm2 -> norm2
I0811 14:11:05.766865  8128 net.cpp:141] Setting up norm2
I0811 14:11:05.766875  8128 net.cpp:148] Top shape: 100 256 15 15 (5760000)
I0811 14:11:05.766878  8128 net.cpp:156] Memory required for data: 201102000
I0811 14:11:05.766881  8128 layer_factory.hpp:77] Creating layer pool2
I0811 14:11:05.766886  8128 net.cpp:91] Creating Layer pool2
I0811 14:11:05.766891  8128 net.cpp:425] pool2 <- norm2
I0811 14:11:05.766896  8128 net.cpp:399] pool2 -> pool2
I0811 14:11:05.766940  8128 net.cpp:141] Setting up pool2
I0811 14:11:05.766947  8128 net.cpp:148] Top shape: 100 256 7 7 (1254400)
I0811 14:11:05.766950  8128 net.cpp:156] Memory required for data: 206119600
I0811 14:11:05.766952  8128 layer_factory.hpp:77] Creating layer conv3
I0811 14:11:05.766962  8128 net.cpp:91] Creating Layer conv3
I0811 14:11:05.766966  8128 net.cpp:425] conv3 <- pool2
I0811 14:11:05.766983  8128 net.cpp:399] conv3 -> conv3
I0811 14:11:05.791157  8128 net.cpp:141] Setting up conv3
I0811 14:11:05.791180  8128 net.cpp:148] Top shape: 100 384 7 7 (1881600)
I0811 14:11:05.791184  8128 net.cpp:156] Memory required for data: 213646000
I0811 14:11:05.791193  8128 layer_factory.hpp:77] Creating layer relu3
I0811 14:11:05.791199  8128 net.cpp:91] Creating Layer relu3
I0811 14:11:05.791203  8128 net.cpp:425] relu3 <- conv3
I0811 14:11:05.791206  8128 net.cpp:386] relu3 -> conv3 (in-place)
I0811 14:11:05.791399  8128 net.cpp:141] Setting up relu3
I0811 14:11:05.791409  8128 net.cpp:148] Top shape: 100 384 7 7 (1881600)
I0811 14:11:05.791422  8128 net.cpp:156] Memory required for data: 221172400
I0811 14:11:05.791425  8128 layer_factory.hpp:77] Creating layer conv4
I0811 14:11:05.791435  8128 net.cpp:91] Creating Layer conv4
I0811 14:11:05.791437  8128 net.cpp:425] conv4 <- conv3
I0811 14:11:05.791443  8128 net.cpp:399] conv4 -> conv4
I0811 14:11:05.810416  8128 net.cpp:141] Setting up conv4
I0811 14:11:05.810441  8128 net.cpp:148] Top shape: 100 384 7 7 (1881600)
I0811 14:11:05.810444  8128 net.cpp:156] Memory required for data: 228698800
I0811 14:11:05.810451  8128 layer_factory.hpp:77] Creating layer relu4
I0811 14:11:05.810461  8128 net.cpp:91] Creating Layer relu4
I0811 14:11:05.810463  8128 net.cpp:425] relu4 <- conv4
I0811 14:11:05.810469  8128 net.cpp:386] relu4 -> conv4 (in-place)
I0811 14:11:05.810868  8128 net.cpp:141] Setting up relu4
I0811 14:11:05.810892  8128 net.cpp:148] Top shape: 100 384 7 7 (1881600)
I0811 14:11:05.810895  8128 net.cpp:156] Memory required for data: 236225200
I0811 14:11:05.810899  8128 layer_factory.hpp:77] Creating layer conv5
I0811 14:11:05.810909  8128 net.cpp:91] Creating Layer conv5
I0811 14:11:05.810911  8128 net.cpp:425] conv5 <- conv4
I0811 14:11:05.810916  8128 net.cpp:399] conv5 -> conv5
I0811 14:11:05.824021  8128 net.cpp:141] Setting up conv5
I0811 14:11:05.824046  8128 net.cpp:148] Top shape: 100 256 7 7 (1254400)
I0811 14:11:05.824049  8128 net.cpp:156] Memory required for data: 241242800
I0811 14:11:05.824060  8128 layer_factory.hpp:77] Creating layer relu5
I0811 14:11:05.824065  8128 net.cpp:91] Creating Layer relu5
I0811 14:11:05.824069  8128 net.cpp:425] relu5 <- conv5
I0811 14:11:05.824076  8128 net.cpp:386] relu5 -> conv5 (in-place)
I0811 14:11:05.824370  8128 net.cpp:141] Setting up relu5
I0811 14:11:05.824393  8128 net.cpp:148] Top shape: 100 256 7 7 (1254400)
I0811 14:11:05.824395  8128 net.cpp:156] Memory required for data: 246260400
I0811 14:11:05.824398  8128 layer_factory.hpp:77] Creating layer pool5
I0811 14:11:05.824407  8128 net.cpp:91] Creating Layer pool5
I0811 14:11:05.824411  8128 net.cpp:425] pool5 <- conv5
I0811 14:11:05.824416  8128 net.cpp:399] pool5 -> pool5
I0811 14:11:05.824471  8128 net.cpp:141] Setting up pool5
I0811 14:11:05.824477  8128 net.cpp:148] Top shape: 100 256 3 3 (230400)
I0811 14:11:05.824479  8128 net.cpp:156] Memory required for data: 247182000
I0811 14:11:05.824482  8128 layer_factory.hpp:77] Creating layer fc6
I0811 14:11:05.824494  8128 net.cpp:91] Creating Layer fc6
I0811 14:11:05.824497  8128 net.cpp:425] fc6 <- pool5
I0811 14:11:05.824503  8128 net.cpp:399] fc6 -> fc6
I0811 14:11:06.073606  8128 net.cpp:141] Setting up fc6
I0811 14:11:06.073652  8128 net.cpp:148] Top shape: 100 4096 (409600)
I0811 14:11:06.073655  8128 net.cpp:156] Memory required for data: 248820400
I0811 14:11:06.073665  8128 layer_factory.hpp:77] Creating layer relu6
I0811 14:11:06.073675  8128 net.cpp:91] Creating Layer relu6
I0811 14:11:06.073679  8128 net.cpp:425] relu6 <- fc6
I0811 14:11:06.073686  8128 net.cpp:386] relu6 -> fc6 (in-place)
I0811 14:11:06.073954  8128 net.cpp:141] Setting up relu6
I0811 14:11:06.073963  8128 net.cpp:148] Top shape: 100 4096 (409600)
I0811 14:11:06.073977  8128 net.cpp:156] Memory required for data: 250458800
I0811 14:11:06.073979  8128 layer_factory.hpp:77] Creating layer drop6
I0811 14:11:06.073987  8128 net.cpp:91] Creating Layer drop6
I0811 14:11:06.073990  8128 net.cpp:425] drop6 <- fc6
I0811 14:11:06.073995  8128 net.cpp:386] drop6 -> fc6 (in-place)
I0811 14:11:06.074035  8128 net.cpp:141] Setting up drop6
I0811 14:11:06.074040  8128 net.cpp:148] Top shape: 100 4096 (409600)
I0811 14:11:06.074043  8128 net.cpp:156] Memory required for data: 252097200
I0811 14:11:06.074045  8128 layer_factory.hpp:77] Creating layer fc7
I0811 14:11:06.074053  8128 net.cpp:91] Creating Layer fc7
I0811 14:11:06.074055  8128 net.cpp:425] fc7 <- fc6
I0811 14:11:06.074064  8128 net.cpp:399] fc7 -> fc7
I0811 14:11:06.532007  8128 net.cpp:141] Setting up fc7
I0811 14:11:06.532042  8128 net.cpp:148] Top shape: 100 4096 (409600)
I0811 14:11:06.532045  8128 net.cpp:156] Memory required for data: 253735600
I0811 14:11:06.532055  8128 layer_factory.hpp:77] Creating layer relu7
I0811 14:11:06.532065  8128 net.cpp:91] Creating Layer relu7
I0811 14:11:06.532069  8128 net.cpp:425] relu7 <- fc7
I0811 14:11:06.532076  8128 net.cpp:386] relu7 -> fc7 (in-place)
I0811 14:11:06.532543  8128 net.cpp:141] Setting up relu7
I0811 14:11:06.532555  8128 net.cpp:148] Top shape: 100 4096 (409600)
I0811 14:11:06.532558  8128 net.cpp:156] Memory required for data: 255374000
I0811 14:11:06.532562  8128 layer_factory.hpp:77] Creating layer drop7
I0811 14:11:06.532567  8128 net.cpp:91] Creating Layer drop7
I0811 14:11:06.532570  8128 net.cpp:425] drop7 <- fc7
I0811 14:11:06.532577  8128 net.cpp:386] drop7 -> fc7 (in-place)
I0811 14:11:06.532615  8128 net.cpp:141] Setting up drop7
I0811 14:11:06.532621  8128 net.cpp:148] Top shape: 100 4096 (409600)
I0811 14:11:06.532624  8128 net.cpp:156] Memory required for data: 257012400
I0811 14:11:06.532626  8128 layer_factory.hpp:77] Creating layer fc8
I0811 14:11:06.532636  8128 net.cpp:91] Creating Layer fc8
I0811 14:11:06.532642  8128 net.cpp:425] fc8 <- fc7
I0811 14:11:06.532660  8128 net.cpp:399] fc8 -> fc8
I0811 14:11:06.532994  8128 net.cpp:141] Setting up fc8
I0811 14:11:06.533000  8128 net.cpp:148] Top shape: 100 2 (200)
I0811 14:11:06.533015  8128 net.cpp:156] Memory required for data: 257013200
I0811 14:11:06.533020  8128 layer_factory.hpp:77] Creating layer fc8_fc8_0_split
I0811 14:11:06.533025  8128 net.cpp:91] Creating Layer fc8_fc8_0_split
I0811 14:11:06.533027  8128 net.cpp:425] fc8_fc8_0_split <- fc8
I0811 14:11:06.533031  8128 net.cpp:399] fc8_fc8_0_split -> fc8_fc8_0_split_0
I0811 14:11:06.533036  8128 net.cpp:399] fc8_fc8_0_split -> fc8_fc8_0_split_1
I0811 14:11:06.533071  8128 net.cpp:141] Setting up fc8_fc8_0_split
I0811 14:11:06.533088  8128 net.cpp:148] Top shape: 100 2 (200)
I0811 14:11:06.533092  8128 net.cpp:148] Top shape: 100 2 (200)
I0811 14:11:06.533094  8128 net.cpp:156] Memory required for data: 257014800
I0811 14:11:06.533097  8128 layer_factory.hpp:77] Creating layer accuracy
I0811 14:11:06.533104  8128 net.cpp:91] Creating Layer accuracy
I0811 14:11:06.533107  8128 net.cpp:425] accuracy <- fc8_fc8_0_split_0
I0811 14:11:06.533112  8128 net.cpp:425] accuracy <- label_mnist_1_split_0
I0811 14:11:06.533115  8128 net.cpp:399] accuracy -> accuracy
…
