…
I0822 11:41:32.353880 32059 net.cpp:322] The NetState phase (0) differed from the phase (1) specified by a rule in layer accuracy
I0822 11:41:32.354054 32059 net.cpp:58] Initializing net from parameters: 
name: "AlexNet"
state {
  phase: TRAIN
}
layer {
  name: "mnist"
  type: "Data"
  top: "data"
  top: "label"
  include {
    phase: TRAIN
  }
  transform_param {
    scale: 0.00390625
    mean_file: "data/person_only_lmdb/person_background_only_color_mean.binaryproto"
  }
  data_param {
    source: "data/person_only_lmdb/person_background_only_train_lmdb"
    batch_size: 64
    backend: LMDB
  }
}
layer {
  name: "conv1"
  type: "Convolution"
  bottom: "data"
  top: "conv1"
  param {
    lr_mult: 1
    decay_mult: 1
  }
  param {
    lr_mult: 2
    decay_mult: 0
  }
  convolution_param {
    num_output: 96
    kernel_size: 11
    stride: 4
    weight_filler {
      type: "gaussian"
      std: 0.01
    }
    bias_filler {
      type: "constant"
      value: 0
    }
  }
}
layer {
  name: "relu1"
  type: "ReLU"
  bottom: "conv1"
  top: "conv1"
}
layer {
  name: "norm1"
  type: "LRN"
  bottom: "conv1"
  top: "norm1"
  lrn_param {
    local_size: 5
    alpha: 0.0001
    beta: 0.75
  }
}
layer {
  name: "pool1"
  type: "Pooling"
  bottom: "norm1"
  top: "pool1"
  pooling_param {
    pool: MAX
    kernel_size: 3
    stride: 2
  }
}
layer {
  name: "conv2"
  type: "Convolution"
  bottom: "pool1"
  top: "conv2"
  param {
    lr_mult: 1
    decay_mult: 1
  }
  param {
    lr_mult: 2
    decay_mult: 0
  }
  convolution_param {
    num_output: 256
    pad: 2
    kernel_size: 5
    group: 2
    weight_filler {
      type: "gaussian"
      std: 0.01
    }
    bias_filler {
      type: "constant"
      value: 0.1
    }
  }
}
layer {
  name: "relu2"
  type: "ReLU"
  bottom: "conv2"
  top: "conv2"
}
layer {
  name: "norm2"
  type: "LRN"
  bottom: "conv2"
  top: "norm2"
  lrn_param {
    local_size: 5
    alpha: 0.0001
    beta: 0.75
  }
}
layer {
  name: "pool2"
  type: "Pooling"
  bottom: "norm2"
  top: "pool2"
  pooling_param {
    pool: MAX
    kernel_size: 3
    stride: 2
  }
}
layer {
  name: "conv3"
  type: "Convolution"
  bottom: "pool2"
  top: "conv3"
  param {
    lr_mult: 1
    decay_mult: 1
  }
  param {
    lr_mult: 2
    decay_mult: 0
  }
  convolution_param {
    num_output: 384
    pad: 1
    kernel_size: 3
    weight_filler {
      type: "gaussian"
      std: 0.01
    }
    bias_filler {
      type: "constant"
      value: 0
    }
  }
}
layer {
  name: "relu3"
  type: "ReLU"
  bottom: "conv3"
  top: "conv3"
}
layer {
  name: "conv4"
  type: "Convolution"
  bottom: "conv3"
  top: "conv4"
  param {
    lr_mult: 1
    decay_mult: 1
  }
  param {
    lr_mult: 2
    decay_mult: 0
  }
  convolution_param {
    num_output: 384
    pad: 1
    kernel_size: 3
    group: 2
    weight_filler {
      type: "gaussian"
      std: 0.01
    }
    bias_filler {
      type: "constant"
      value: 0.1
    }
  }
}
layer {
  name: "relu4"
  type: "ReLU"
  bottom: "conv4"
  top: "conv4"
}
layer {
  name: "conv5"
  type: "Convolution"
  bottom: "conv4"
  top: "conv5"
  param {
    lr_mult: 1
    decay_mult: 1
  }
  param {
    lr_mult: 2
    decay_mult: 0
  }
  convolution_param {
    num_output: 256
    pad: 1
    kernel_size: 3
    group: 2
    weight_filler {
      type: "gaussian"
      std: 0.01
    }
    bias_filler {
      type: "constant"
      value: 0.1
    }
  }
}
layer {
  name: "relu5"
  type: "ReLU"
  bottom: "conv5"
  top: "conv5"
}
layer {
  name: "pool5"
  type: "Pooling"
  bottom: "conv5"
  top: "pool5"
  pooling_param {
    pool: MAX
    kernel_size: 3
    stride: 2
  }
}
layer {
  name: "fc6"
  type: "InnerProduct"
  bottom: "pool5"
  top: "fc6"
  param {
    lr_mult: 1
    decay_mult: 1
  }
  param {
    lr_mult: 2
    decay_mult: 0
  }
  inner_product_param {
    num_output: 4096
    weight_filler {
      type: "gaussian"
      std: 0.005
    }
    bias_filler {
      type: "constant"
      value: 0.1
    }
  }
}
layer {
  name: "relu6"
  type: "ReLU"
  bottom: "fc6"
  top: "fc6"
}
layer {
  name: "drop6"
  type: "Dropout"
  bottom: "fc6"
  top: "fc6"
  dropout_param {
    dropout_ratio: 0.5
  }
}
layer {
  name: "fc7"
  type: "InnerProduct"
  bottom: "fc6"
  top: "fc7"
  param {
    lr_mult: 1
    decay_mult: 1
  }
  param {
    lr_mult: 2
    decay_mult: 0
  }
  inner_product_param {
    num_output: 4096
    weight_filler {
      type: "gaussian"
      std: 0.005
    }
    bias_filler {
      type: "constant"
      value: 0.1
    }
  }
}
layer {
  name: "relu7"
  type: "ReLU"
  bottom: "fc7"
  top: "fc7"
}
layer {
  name: "drop7"
  type: "Dropout"
  bottom: "fc7"
  top: "fc7"
  dropout_param {
    dropout_ratio: 0.5
  }
}
layer {
  name: "fc8"
  type: "InnerProduct"
  bottom: "fc7"
  top: "fc8"
  param {
    lr_mult: 1
    decay_mult: 1
  }
  param {
    lr_mult: 2
    decay_mult: 0
  }
  inner_product_param {
    num_output: 2
    weight_filler {
      type: "gaussian"
      std: 0.01
    }
    bias_filler {
      type: "constant"
      value: 0
    }
  }
}
layer {
  name: "loss"
  type: "SoftmaxWithLoss"
  bottom: "fc8"
  bottom: "label"
  top: "loss"
}
I0822 11:41:32.354149 32059 layer_factory.hpp:77] Creating layer mnist
I0822 11:41:32.354732 32059 net.cpp:100] Creating Layer mnist
I0822 11:41:32.354745 32059 net.cpp:408] mnist -> data
I0822 11:41:32.354778 32059 net.cpp:408] mnist -> label
I0822 11:41:32.354794 32059 data_transformer.cpp:25] Loading mean file from: data/person_only_lmdb/person_background_only_color_mean.binaryproto
I0822 11:41:32.356217 32066 db_lmdb.cpp:35] Opened lmdb data/person_only_lmdb/person_background_only_train_lmdb
I0822 11:41:32.379992 32059 data_layer.cpp:41] output data size: 64,3,128,128
I0822 11:41:32.410271 32059 net.cpp:150] Setting up mnist
I0822 11:41:32.410310 32059 net.cpp:157] Top shape: 64 3 128 128 (3145728)
I0822 11:41:32.410315 32059 net.cpp:157] Top shape: 64 (64)
I0822 11:41:32.410317 32059 net.cpp:165] Memory required for data: 12583168
I0822 11:41:32.410326 32059 layer_factory.hpp:77] Creating layer conv1
I0822 11:41:32.410349 32059 net.cpp:100] Creating Layer conv1
I0822 11:41:32.410354 32059 net.cpp:434] conv1 <- data
I0822 11:41:32.410363 32059 net.cpp:408] conv1 -> conv1
I0822 11:41:32.693642 32059 net.cpp:150] Setting up conv1
I0822 11:41:32.693677 32059 net.cpp:157] Top shape: 64 96 30 30 (5529600)
I0822 11:41:32.693681 32059 net.cpp:165] Memory required for data: 34701568
I0822 11:41:32.693699 32059 layer_factory.hpp:77] Creating layer relu1
I0822 11:41:32.693713 32059 net.cpp:100] Creating Layer relu1
I0822 11:41:32.693717 32059 net.cpp:434] relu1 <- conv1
I0822 11:41:32.693725 32059 net.cpp:395] relu1 -> conv1 (in-place)
I0822 11:41:32.693922 32059 net.cpp:150] Setting up relu1
I0822 11:41:32.693933 32059 net.cpp:157] Top shape: 64 96 30 30 (5529600)
I0822 11:41:32.693936 32059 net.cpp:165] Memory required for data: 56819968
I0822 11:41:32.693939 32059 layer_factory.hpp:77] Creating layer norm1
I0822 11:41:32.693948 32059 net.cpp:100] Creating Layer norm1
I0822 11:41:32.693951 32059 net.cpp:434] norm1 <- conv1
I0822 11:41:32.693956 32059 net.cpp:408] norm1 -> norm1
I0822 11:41:32.694447 32059 net.cpp:150] Setting up norm1
I0822 11:41:32.694461 32059 net.cpp:157] Top shape: 64 96 30 30 (5529600)
I0822 11:41:32.694464 32059 net.cpp:165] Memory required for data: 78938368
I0822 11:41:32.694468 32059 layer_factory.hpp:77] Creating layer pool1
I0822 11:41:32.694476 32059 net.cpp:100] Creating Layer pool1
I0822 11:41:32.694480 32059 net.cpp:434] pool1 <- norm1
I0822 11:41:32.694485 32059 net.cpp:408] pool1 -> pool1
I0822 11:41:32.694525 32059 net.cpp:150] Setting up pool1
I0822 11:41:32.694535 32059 net.cpp:157] Top shape: 64 96 15 15 (1382400)
I0822 11:41:32.694538 32059 net.cpp:165] Memory required for data: 84467968
I0822 11:41:32.694540 32059 layer_factory.hpp:77] Creating layer conv2
I0822 11:41:32.694553 32059 net.cpp:100] Creating Layer conv2
I0822 11:41:32.694558 32059 net.cpp:434] conv2 <- pool1
I0822 11:41:32.694563 32059 net.cpp:408] conv2 -> conv2
I0822 11:41:32.700711 32059 net.cpp:150] Setting up conv2
I0822 11:41:32.700727 32059 net.cpp:157] Top shape: 64 256 15 15 (3686400)
I0822 11:41:32.700731 32059 net.cpp:165] Memory required for data: 99213568
I0822 11:41:32.700739 32059 layer_factory.hpp:77] Creating layer relu2
I0822 11:41:32.700747 32059 net.cpp:100] Creating Layer relu2
I0822 11:41:32.700750 32059 net.cpp:434] relu2 <- conv2
I0822 11:41:32.700755 32059 net.cpp:395] relu2 -> conv2 (in-place)
I0822 11:41:32.701215 32059 net.cpp:150] Setting up relu2
I0822 11:41:32.701230 32059 net.cpp:157] Top shape: 64 256 15 15 (3686400)
I0822 11:41:32.701232 32059 net.cpp:165] Memory required for data: 113959168
I0822 11:41:32.701236 32059 layer_factory.hpp:77] Creating layer norm2
I0822 11:41:32.701243 32059 net.cpp:100] Creating Layer norm2
I0822 11:41:32.701246 32059 net.cpp:434] norm2 <- conv2
I0822 11:41:32.701251 32059 net.cpp:408] norm2 -> norm2
I0822 11:41:32.701448 32059 net.cpp:150] Setting up norm2
I0822 11:41:32.701459 32059 net.cpp:157] Top shape: 64 256 15 15 (3686400)
I0822 11:41:32.701462 32059 net.cpp:165] Memory required for data: 128704768
I0822 11:41:32.701465 32059 layer_factory.hpp:77] Creating layer pool2
I0822 11:41:32.701473 32059 net.cpp:100] Creating Layer pool2
I0822 11:41:32.701477 32059 net.cpp:434] pool2 <- norm2
I0822 11:41:32.701481 32059 net.cpp:408] pool2 -> pool2
I0822 11:41:32.701517 32059 net.cpp:150] Setting up pool2
I0822 11:41:32.701524 32059 net.cpp:157] Top shape: 64 256 7 7 (802816)
I0822 11:41:32.701527 32059 net.cpp:165] Memory required for data: 131916032
I0822 11:41:32.701530 32059 layer_factory.hpp:77] Creating layer conv3
I0822 11:41:32.701539 32059 net.cpp:100] Creating Layer conv3
I0822 11:41:32.701542 32059 net.cpp:434] conv3 <- pool2
I0822 11:41:32.701548 32059 net.cpp:408] conv3 -> conv3
I0822 11:41:32.715009 32059 net.cpp:150] Setting up conv3
I0822 11:41:32.715025 32059 net.cpp:157] Top shape: 64 384 7 7 (1204224)
I0822 11:41:32.715029 32059 net.cpp:165] Memory required for data: 136732928
I0822 11:41:32.715039 32059 layer_factory.hpp:77] Creating layer relu3
I0822 11:41:32.715046 32059 net.cpp:100] Creating Layer relu3
I0822 11:41:32.715049 32059 net.cpp:434] relu3 <- conv3
I0822 11:41:32.715055 32059 net.cpp:395] relu3 -> conv3 (in-place)
I0822 11:41:32.715239 32059 net.cpp:150] Setting up relu3
I0822 11:41:32.715250 32059 net.cpp:157] Top shape: 64 384 7 7 (1204224)
I0822 11:41:32.715252 32059 net.cpp:165] Memory required for data: 141549824
I0822 11:41:32.715255 32059 layer_factory.hpp:77] Creating layer conv4
I0822 11:41:32.715265 32059 net.cpp:100] Creating Layer conv4
I0822 11:41:32.715270 32059 net.cpp:434] conv4 <- conv3
I0822 11:41:32.715276 32059 net.cpp:408] conv4 -> conv4
I0822 11:41:32.726794 32059 net.cpp:150] Setting up conv4
I0822 11:41:32.726811 32059 net.cpp:157] Top shape: 64 384 7 7 (1204224)
I0822 11:41:32.726814 32059 net.cpp:165] Memory required for data: 146366720
I0822 11:41:32.726822 32059 layer_factory.hpp:77] Creating layer relu4
I0822 11:41:32.726829 32059 net.cpp:100] Creating Layer relu4
I0822 11:41:32.726832 32059 net.cpp:434] relu4 <- conv4
I0822 11:41:32.726838 32059 net.cpp:395] relu4 -> conv4 (in-place)
I0822 11:41:32.727028 32059 net.cpp:150] Setting up relu4
I0822 11:41:32.727041 32059 net.cpp:157] Top shape: 64 384 7 7 (1204224)
I0822 11:41:32.727043 32059 net.cpp:165] Memory required for data: 151183616
I0822 11:41:32.727046 32059 layer_factory.hpp:77] Creating layer conv5
I0822 11:41:32.727056 32059 net.cpp:100] Creating Layer conv5
I0822 11:41:32.727059 32059 net.cpp:434] conv5 <- conv4
I0822 11:41:32.727066 32059 net.cpp:408] conv5 -> conv5
I0822 11:41:32.735345 32059 net.cpp:150] Setting up conv5
I0822 11:41:32.735361 32059 net.cpp:157] Top shape: 64 256 7 7 (802816)
I0822 11:41:32.735364 32059 net.cpp:165] Memory required for data: 154394880
I0822 11:41:32.735375 32059 layer_factory.hpp:77] Creating layer relu5
I0822 11:41:32.735383 32059 net.cpp:100] Creating Layer relu5
I0822 11:41:32.735386 32059 net.cpp:434] relu5 <- conv5
I0822 11:41:32.735393 32059 net.cpp:395] relu5 -> conv5 (in-place)
I0822 11:41:32.735579 32059 net.cpp:150] Setting up relu5
I0822 11:41:32.735589 32059 net.cpp:157] Top shape: 64 256 7 7 (802816)
I0822 11:41:32.735592 32059 net.cpp:165] Memory required for data: 157606144
I0822 11:41:32.735595 32059 layer_factory.hpp:77] Creating layer pool5
I0822 11:41:32.735602 32059 net.cpp:100] Creating Layer pool5
I0822 11:41:32.735605 32059 net.cpp:434] pool5 <- conv5
I0822 11:41:32.735611 32059 net.cpp:408] pool5 -> pool5
I0822 11:41:32.735657 32059 net.cpp:150] Setting up pool5
I0822 11:41:32.735666 32059 net.cpp:157] Top shape: 64 256 3 3 (147456)
I0822 11:41:32.735668 32059 net.cpp:165] Memory required for data: 158195968
I0822 11:41:32.735671 32059 layer_factory.hpp:77] Creating layer fc6
I0822 11:41:32.735682 32059 net.cpp:100] Creating Layer fc6
I0822 11:41:32.735684 32059 net.cpp:434] fc6 <- pool5
I0822 11:41:32.735692 32059 net.cpp:408] fc6 -> fc6
I0822 11:41:32.865658 32059 net.cpp:150] Setting up fc6
I0822 11:41:32.865700 32059 net.cpp:157] Top shape: 64 4096 (262144)
I0822 11:41:32.865703 32059 net.cpp:165] Memory required for data: 159244544
I0822 11:41:32.865715 32059 layer_factory.hpp:77] Creating layer relu6
I0822 11:41:32.865725 32059 net.cpp:100] Creating Layer relu6
I0822 11:41:32.865727 32059 net.cpp:434] relu6 <- fc6
I0822 11:41:32.865734 32059 net.cpp:395] relu6 -> fc6 (in-place)
I0822 11:41:32.866262 32059 net.cpp:150] Setting up relu6
I0822 11:41:32.866287 32059 net.cpp:157] Top shape: 64 4096 (262144)
I0822 11:41:32.866291 32059 net.cpp:165] Memory required for data: 160293120
I0822 11:41:32.866293 32059 layer_factory.hpp:77] Creating layer drop6
I0822 11:41:32.866300 32059 net.cpp:100] Creating Layer drop6
I0822 11:41:32.866303 32059 net.cpp:434] drop6 <- fc6
I0822 11:41:32.866309 32059 net.cpp:395] drop6 -> fc6 (in-place)
I0822 11:41:32.866336 32059 net.cpp:150] Setting up drop6
I0822 11:41:32.866343 32059 net.cpp:157] Top shape: 64 4096 (262144)
I0822 11:41:32.866345 32059 net.cpp:165] Memory required for data: 161341696
I0822 11:41:32.866348 32059 layer_factory.hpp:77] Creating layer fc7
I0822 11:41:32.866356 32059 net.cpp:100] Creating Layer fc7
I0822 11:41:32.866361 32059 net.cpp:434] fc7 <- fc6
I0822 11:41:32.866367 32059 net.cpp:408] fc7 -> fc7
I0822 11:41:33.060843 32059 net.cpp:150] Setting up fc7
I0822 11:41:33.060881 32059 net.cpp:157] Top shape: 64 4096 (262144)
I0822 11:41:33.060885 32059 net.cpp:165] Memory required for data: 162390272
I0822 11:41:33.060897 32059 layer_factory.hpp:77] Creating layer relu7
I0822 11:41:33.060910 32059 net.cpp:100] Creating Layer relu7
I0822 11:41:33.060914 32059 net.cpp:434] relu7 <- fc7
I0822 11:41:33.060933 32059 net.cpp:395] relu7 -> fc7 (in-place)
I0822 11:41:33.061339 32059 net.cpp:150] Setting up relu7
I0822 11:41:33.061349 32059 net.cpp:157] Top shape: 64 4096 (262144)
I0822 11:41:33.061364 32059 net.cpp:165] Memory required for data: 163438848
I0822 11:41:33.061367 32059 layer_factory.hpp:77] Creating layer drop7
I0822 11:41:33.061377 32059 net.cpp:100] Creating Layer drop7
I0822 11:41:33.061379 32059 net.cpp:434] drop7 <- fc7
I0822 11:41:33.061384 32059 net.cpp:395] drop7 -> fc7 (in-place)
I0822 11:41:33.061421 32059 net.cpp:150] Setting up drop7
I0822 11:41:33.061429 32059 net.cpp:157] Top shape: 64 4096 (262144)
I0822 11:41:33.061431 32059 net.cpp:165] Memory required for data: 164487424
I0822 11:41:33.061434 32059 layer_factory.hpp:77] Creating layer fc8
I0822 11:41:33.061444 32059 net.cpp:100] Creating Layer fc8
I0822 11:41:33.061447 32059 net.cpp:434] fc8 <- fc7
I0822 11:41:33.061453 32059 net.cpp:408] fc8 -> fc8
I0822 11:41:33.062806 32059 net.cpp:150] Setting up fc8
I0822 11:41:33.062818 32059 net.cpp:157] Top shape: 64 2 (128)
I0822 11:41:33.062819 32059 net.cpp:165] Memory required for data: 164487936
I0822 11:41:33.062837 32059 layer_factory.hpp:77] Creating layer loss
I0822 11:41:33.062845 32059 net.cpp:100] Creating Layer loss
I0822 11:41:33.062850 32059 net.cpp:434] loss <- fc8
I0822 11:41:33.062854 32059 net.cpp:434] loss <- label
I0822 11:41:33.062858 32059 net.cpp:408] loss -> loss
I0822 11:41:33.062878 32059 layer_factory.hpp:77] Creating layer loss
…
I0822 11:41:33.063652 32059 net.cpp:322] The NetState phase (1) differed from the phase (0) specified by a rule in layer mnist
I0822 11:41:33.063799 32059 net.cpp:58] Initializing net from parameters: 
name: "AlexNet"
state {
  phase: TEST
}
layer {
  name: "mnist"
  type: "Data"
  top: "data"
  top: "label"
  include {
    phase: TEST
  }
  transform_param {
    scale: 0.00390625
    mean_file: "data/person_only_lmdb/person_background_only_color_mean.binaryproto"
  }
  data_param {
    source: "data/person_only_lmdb/person_background_only_test_lmdb"
    batch_size: 100
    backend: LMDB
  }
}
layer {
  name: "conv1"
  type: "Convolution"
  bottom: "data"
  top: "conv1"
  param {
    lr_mult: 1
    decay_mult: 1
  }
  param {
    lr_mult: 2
    decay_mult: 0
  }
  convolution_param {
    num_output: 96
    kernel_size: 11
    stride: 4
    weight_filler {
      type: "gaussian"
      std: 0.01
    }
    bias_filler {
      type: "constant"
      value: 0
    }
  }
}
layer {
  name: "relu1"
  type: "ReLU"
  bottom: "conv1"
  top: "conv1"
}
layer {
  name: "norm1"
  type: "LRN"
  bottom: "conv1"
  top: "norm1"
  lrn_param {
    local_size: 5
    alpha: 0.0001
    beta: 0.75
  }
}
layer {
  name: "pool1"
  type: "Pooling"
  bottom: "norm1"
  top: "pool1"
  pooling_param {
    pool: MAX
    kernel_size: 3
    stride: 2
  }
}
layer {
  name: "conv2"
  type: "Convolution"
  bottom: "pool1"
  top: "conv2"
  param {
    lr_mult: 1
    decay_mult: 1
  }
  param {
    lr_mult: 2
    decay_mult: 0
  }
  convolution_param {
    num_output: 256
    pad: 2
    kernel_size: 5
    group: 2
    weight_filler {
      type: "gaussian"
      std: 0.01
    }
    bias_filler {
      type: "constant"
      value: 0.1
    }
  }
}
layer {
  name: "relu2"
  type: "ReLU"
  bottom: "conv2"
  top: "conv2"
}
layer {
  name: "norm2"
  type: "LRN"
  bottom: "conv2"
  top: "norm2"
  lrn_param {
    local_size: 5
    alpha: 0.0001
    beta: 0.75
  }
}
layer {
  name: "pool2"
  type: "Pooling"
  bottom: "norm2"
  top: "pool2"
  pooling_param {
    pool: MAX
    kernel_size: 3
    stride: 2
  }
}
layer {
  name: "conv3"
  type: "Convolution"
  bottom: "pool2"
  top: "conv3"
  param {
    lr_mult: 1
    decay_mult: 1
  }
  param {
    lr_mult: 2
    decay_mult: 0
  }
  convolution_param {
    num_output: 384
    pad: 1
    kernel_size: 3
    weight_filler {
      type: "gaussian"
      std: 0.01
    }
    bias_filler {
      type: "constant"
      value: 0
    }
  }
}
layer {
  name: "relu3"
  type: "ReLU"
  bottom: "conv3"
  top: "conv3"
}
layer {
  name: "conv4"
  type: "Convolution"
  bottom: "conv3"
  top: "conv4"
  param {
    lr_mult: 1
    decay_mult: 1
  }
  param {
    lr_mult: 2
    decay_mult: 0
  }
  convolution_param {
    num_output: 384
    pad: 1
    kernel_size: 3
    group: 2
    weight_filler {
      type: "gaussian"
      std: 0.01
    }
    bias_filler {
      type: "constant"
      value: 0.1
    }
  }
}
layer {
  name: "relu4"
  type: "ReLU"
  bottom: "conv4"
  top: "conv4"
}
layer {
  name: "conv5"
  type: "Convolution"
  bottom: "conv4"
  top: "conv5"
  param {
    lr_mult: 1
    decay_mult: 1
  }
  param {
    lr_mult: 2
    decay_mult: 0
  }
  convolution_param {
    num_output: 256
    pad: 1
    kernel_size: 3
    group: 2
    weight_filler {
      type: "gaussian"
      std: 0.01
    }
    bias_filler {
      type: "constant"
      value: 0.1
    }
  }
}
layer {
  name: "relu5"
  type: "ReLU"
  bottom: "conv5"
  top: "conv5"
}
layer {
  name: "pool5"
  type: "Pooling"
  bottom: "conv5"
  top: "pool5"
  pooling_param {
    pool: MAX
    kernel_size: 3
    stride: 2
  }
}
layer {
  name: "fc6"
  type: "InnerProduct"
  bottom: "pool5"
  top: "fc6"
  param {
    lr_mult: 1
    decay_mult: 1
  }
  param {
    lr_mult: 2
    decay_mult: 0
  }
  inner_product_param {
    num_output: 4096
    weight_filler {
      type: "gaussian"
      std: 0.005
    }
    bias_filler {
      type: "constant"
      value: 0.1
    }
  }
}
layer {
  name: "relu6"
  type: "ReLU"
  bottom: "fc6"
  top: "fc6"
}
layer {
  name: "drop6"
  type: "Dropout"
  bottom: "fc6"
  top: "fc6"
  dropout_param {
    dropout_ratio: 0.5
  }
}
layer {
  name: "fc7"
  type: "InnerProduct"
  bottom: "fc6"
  top: "fc7"
  param {
    lr_mult: 1
    decay_mult: 1
  }
  param {
    lr_mult: 2
    decay_mult: 0
  }
  inner_product_param {
    num_output: 4096
    weight_filler {
      type: "gaussian"
      std: 0.005
    }
    bias_filler {
      type: "constant"
      value: 0.1
    }
  }
}
layer {
  name: "relu7"
  type: "ReLU"
  bottom: "fc7"
  top: "fc7"
}
layer {
  name: "drop7"
  type: "Dropout"
  bottom: "fc7"
  top: "fc7"
  dropout_param {
    dropout_ratio: 0.5
  }
}
layer {
  name: "fc8"
  type: "InnerProduct"
  bottom: "fc7"
  top: "fc8"
  param {
    lr_mult: 1
    decay_mult: 1
  }
  param {
    lr_mult: 2
    decay_mult: 0
  }
  inner_product_param {
    num_output: 2
    weight_filler {
      type: "gaussian"
      std: 0.01
    }
    bias_filler {
      type: "constant"
      value: 0
    }
  }
}
layer {
  name: "accuracy"
  type: "Accuracy"
  bottom: "fc8"
  bottom: "label"
  top: "accuracy"
  include {
    phase: TEST
  }
}
layer {
  name: "loss"
  type: "SoftmaxWithLoss"
  bottom: "fc8"
  bottom: "label"
  top: "loss"
}
I0822 11:41:33.063908 32059 layer_factory.hpp:77] Creating layer mnist
I0822 11:41:33.064046 32059 net.cpp:100] Creating Layer mnist
I0822 11:41:33.064059 32059 net.cpp:408] mnist -> data
I0822 11:41:33.064066 32059 net.cpp:408] mnist -> label
I0822 11:41:33.064074 32059 data_transformer.cpp:25] Loading mean file from: data/person_only_lmdb/person_background_only_color_mean.binaryproto
I0822 11:41:33.065783 32068 db_lmdb.cpp:35] Opened lmdb data/person_only_lmdb/person_background_only_test_lmdb
I0822 11:41:33.066156 32059 data_layer.cpp:41] output data size: 100,3,128,128
I0822 11:41:33.117956 32059 net.cpp:150] Setting up mnist
I0822 11:41:33.118003 32059 net.cpp:157] Top shape: 100 3 128 128 (4915200)
I0822 11:41:33.118011 32059 net.cpp:157] Top shape: 100 (100)
I0822 11:41:33.118016 32059 net.cpp:165] Memory required for data: 19661200
I0822 11:41:33.118026 32059 layer_factory.hpp:77] Creating layer label_mnist_1_split
I0822 11:41:33.118046 32059 net.cpp:100] Creating Layer label_mnist_1_split
I0822 11:41:33.118052 32059 net.cpp:434] label_mnist_1_split <- label
I0822 11:41:33.118062 32059 net.cpp:408] label_mnist_1_split -> label_mnist_1_split_0
I0822 11:41:33.118077 32059 net.cpp:408] label_mnist_1_split -> label_mnist_1_split_1
I0822 11:41:33.118317 32059 net.cpp:150] Setting up label_mnist_1_split
I0822 11:41:33.118346 32059 net.cpp:157] Top shape: 100 (100)
I0822 11:41:33.118356 32059 net.cpp:157] Top shape: 100 (100)
I0822 11:41:33.118361 32059 net.cpp:165] Memory required for data: 19662000
I0822 11:41:33.118367 32059 layer_factory.hpp:77] Creating layer conv1
I0822 11:41:33.118392 32059 net.cpp:100] Creating Layer conv1
I0822 11:41:33.118401 32059 net.cpp:434] conv1 <- data
I0822 11:41:33.118412 32059 net.cpp:408] conv1 -> conv1
I0822 11:41:33.123010 32059 net.cpp:150] Setting up conv1
I0822 11:41:33.123040 32059 net.cpp:157] Top shape: 100 96 30 30 (8640000)
I0822 11:41:33.123047 32059 net.cpp:165] Memory required for data: 54222000
I0822 11:41:33.123066 32059 layer_factory.hpp:77] Creating layer relu1
I0822 11:41:33.123078 32059 net.cpp:100] Creating Layer relu1
I0822 11:41:33.123085 32059 net.cpp:434] relu1 <- conv1
I0822 11:41:33.123093 32059 net.cpp:395] relu1 -> conv1 (in-place)
I0822 11:41:33.123441 32059 net.cpp:150] Setting up relu1
I0822 11:41:33.123459 32059 net.cpp:157] Top shape: 100 96 30 30 (8640000)
I0822 11:41:33.123464 32059 net.cpp:165] Memory required for data: 88782000
I0822 11:41:33.123471 32059 layer_factory.hpp:77] Creating layer norm1
I0822 11:41:33.123486 32059 net.cpp:100] Creating Layer norm1
I0822 11:41:33.123492 32059 net.cpp:434] norm1 <- conv1
I0822 11:41:33.123502 32059 net.cpp:408] norm1 -> norm1
I0822 11:41:33.127826 32059 net.cpp:150] Setting up norm1
I0822 11:41:33.127871 32059 net.cpp:157] Top shape: 100 96 30 30 (8640000)
I0822 11:41:33.127878 32059 net.cpp:165] Memory required for data: 123342000
I0822 11:41:33.127884 32059 layer_factory.hpp:77] Creating layer pool1
I0822 11:41:33.127897 32059 net.cpp:100] Creating Layer pool1
I0822 11:41:33.127902 32059 net.cpp:434] pool1 <- norm1
I0822 11:41:33.127915 32059 net.cpp:408] pool1 -> pool1
I0822 11:41:33.127987 32059 net.cpp:150] Setting up pool1
I0822 11:41:33.128001 32059 net.cpp:157] Top shape: 100 96 15 15 (2160000)
I0822 11:41:33.128006 32059 net.cpp:165] Memory required for data: 131982000
I0822 11:41:33.128011 32059 layer_factory.hpp:77] Creating layer conv2
I0822 11:41:33.128027 32059 net.cpp:100] Creating Layer conv2
I0822 11:41:33.128036 32059 net.cpp:434] conv2 <- pool1
I0822 11:41:33.128044 32059 net.cpp:408] conv2 -> conv2
I0822 11:41:33.139598 32059 net.cpp:150] Setting up conv2
I0822 11:41:33.139632 32059 net.cpp:157] Top shape: 100 256 15 15 (5760000)
I0822 11:41:33.139639 32059 net.cpp:165] Memory required for data: 155022000
I0822 11:41:33.139657 32059 layer_factory.hpp:77] Creating layer relu2
I0822 11:41:33.139668 32059 net.cpp:100] Creating Layer relu2
I0822 11:41:33.139674 32059 net.cpp:434] relu2 <- conv2
I0822 11:41:33.139683 32059 net.cpp:395] relu2 -> conv2 (in-place)
I0822 11:41:33.140508 32059 net.cpp:150] Setting up relu2
I0822 11:41:33.140535 32059 net.cpp:157] Top shape: 100 256 15 15 (5760000)
I0822 11:41:33.140545 32059 net.cpp:165] Memory required for data: 178062000
I0822 11:41:33.140552 32059 layer_factory.hpp:77] Creating layer norm2
I0822 11:41:33.140573 32059 net.cpp:100] Creating Layer norm2
I0822 11:41:33.140580 32059 net.cpp:434] norm2 <- conv2
I0822 11:41:33.140593 32059 net.cpp:408] norm2 -> norm2
I0822 11:41:33.140988 32059 net.cpp:150] Setting up norm2
I0822 11:41:33.141006 32059 net.cpp:157] Top shape: 100 256 15 15 (5760000)
I0822 11:41:33.141011 32059 net.cpp:165] Memory required for data: 201102000
I0822 11:41:33.141016 32059 layer_factory.hpp:77] Creating layer pool2
I0822 11:41:33.141026 32059 net.cpp:100] Creating Layer pool2
I0822 11:41:33.141032 32059 net.cpp:434] pool2 <- norm2
I0822 11:41:33.141042 32059 net.cpp:408] pool2 -> pool2
I0822 11:41:33.141108 32059 net.cpp:150] Setting up pool2
I0822 11:41:33.141119 32059 net.cpp:157] Top shape: 100 256 7 7 (1254400)
I0822 11:41:33.141127 32059 net.cpp:165] Memory required for data: 206119600
I0822 11:41:33.141132 32059 layer_factory.hpp:77] Creating layer conv3
I0822 11:41:33.141149 32059 net.cpp:100] Creating Layer conv3
I0822 11:41:33.141155 32059 net.cpp:434] conv3 <- pool2
I0822 11:41:33.141165 32059 net.cpp:408] conv3 -> conv3
I0822 11:41:33.169983 32059 net.cpp:150] Setting up conv3
I0822 11:41:33.170023 32059 net.cpp:157] Top shape: 100 384 7 7 (1881600)
I0822 11:41:33.170034 32059 net.cpp:165] Memory required for data: 213646000
I0822 11:41:33.170056 32059 layer_factory.hpp:77] Creating layer relu3
I0822 11:41:33.170070 32059 net.cpp:100] Creating Layer relu3
I0822 11:41:33.170079 32059 net.cpp:434] relu3 <- conv3
I0822 11:41:33.170090 32059 net.cpp:395] relu3 -> conv3 (in-place)
I0822 11:41:33.170397 32059 net.cpp:150] Setting up relu3
I0822 11:41:33.170411 32059 net.cpp:157] Top shape: 100 384 7 7 (1881600)
I0822 11:41:33.170416 32059 net.cpp:165] Memory required for data: 221172400
I0822 11:41:33.170421 32059 layer_factory.hpp:77] Creating layer conv4
I0822 11:41:33.170439 32059 net.cpp:100] Creating Layer conv4
I0822 11:41:33.170444 32059 net.cpp:434] conv4 <- conv3
I0822 11:41:33.170454 32059 net.cpp:408] conv4 -> conv4
I0822 11:41:33.188671 32059 net.cpp:150] Setting up conv4
I0822 11:41:33.188704 32059 net.cpp:157] Top shape: 100 384 7 7 (1881600)
I0822 11:41:33.188709 32059 net.cpp:165] Memory required for data: 228698800
I0822 11:41:33.188722 32059 layer_factory.hpp:77] Creating layer relu4
I0822 11:41:33.188735 32059 net.cpp:100] Creating Layer relu4
I0822 11:41:33.188740 32059 net.cpp:434] relu4 <- conv4
I0822 11:41:33.188750 32059 net.cpp:395] relu4 -> conv4 (in-place)
I0822 11:41:33.189462 32059 net.cpp:150] Setting up relu4
I0822 11:41:33.189483 32059 net.cpp:157] Top shape: 100 384 7 7 (1881600)
I0822 11:41:33.189489 32059 net.cpp:165] Memory required for data: 236225200
I0822 11:41:33.189493 32059 layer_factory.hpp:77] Creating layer conv5
I0822 11:41:33.189510 32059 net.cpp:100] Creating Layer conv5
I0822 11:41:33.189515 32059 net.cpp:434] conv5 <- conv4
I0822 11:41:33.189527 32059 net.cpp:408] conv5 -> conv5
I0822 11:41:33.201272 32059 net.cpp:150] Setting up conv5
I0822 11:41:33.201295 32059 net.cpp:157] Top shape: 100 256 7 7 (1254400)
I0822 11:41:33.201300 32059 net.cpp:165] Memory required for data: 241242800
I0822 11:41:33.201316 32059 layer_factory.hpp:77] Creating layer relu5
I0822 11:41:33.201328 32059 net.cpp:100] Creating Layer relu5
I0822 11:41:33.201333 32059 net.cpp:434] relu5 <- conv5
I0822 11:41:33.201340 32059 net.cpp:395] relu5 -> conv5 (in-place)
I0822 11:41:33.201598 32059 net.cpp:150] Setting up relu5
I0822 11:41:33.201614 32059 net.cpp:157] Top shape: 100 256 7 7 (1254400)
I0822 11:41:33.201617 32059 net.cpp:165] Memory required for data: 246260400
I0822 11:41:33.201622 32059 layer_factory.hpp:77] Creating layer pool5
I0822 11:41:33.201635 32059 net.cpp:100] Creating Layer pool5
I0822 11:41:33.201640 32059 net.cpp:434] pool5 <- conv5
I0822 11:41:33.201648 32059 net.cpp:408] pool5 -> pool5
I0822 11:41:33.201716 32059 net.cpp:150] Setting up pool5
I0822 11:41:33.201728 32059 net.cpp:157] Top shape: 100 256 3 3 (230400)
I0822 11:41:33.201731 32059 net.cpp:165] Memory required for data: 247182000
I0822 11:41:33.201735 32059 layer_factory.hpp:77] Creating layer fc6
I0822 11:41:33.201746 32059 net.cpp:100] Creating Layer fc6
I0822 11:41:33.201752 32059 net.cpp:434] fc6 <- pool5
I0822 11:41:33.201761 32059 net.cpp:408] fc6 -> fc6
I0822 11:41:33.330765 32059 net.cpp:150] Setting up fc6
I0822 11:41:33.330811 32059 net.cpp:157] Top shape: 100 4096 (409600)
I0822 11:41:33.330816 32059 net.cpp:165] Memory required for data: 248820400
I0822 11:41:33.330826 32059 layer_factory.hpp:77] Creating layer relu6
I0822 11:41:33.330834 32059 net.cpp:100] Creating Layer relu6
I0822 11:41:33.330838 32059 net.cpp:434] relu6 <- fc6
I0822 11:41:33.330845 32059 net.cpp:395] relu6 -> fc6 (in-place)
I0822 11:41:33.331112 32059 net.cpp:150] Setting up relu6
I0822 11:41:33.331123 32059 net.cpp:157] Top shape: 100 4096 (409600)
I0822 11:41:33.331125 32059 net.cpp:165] Memory required for data: 250458800
I0822 11:41:33.331128 32059 layer_factory.hpp:77] Creating layer drop6
I0822 11:41:33.331136 32059 net.cpp:100] Creating Layer drop6
I0822 11:41:33.331140 32059 net.cpp:434] drop6 <- fc6
I0822 11:41:33.331145 32059 net.cpp:395] drop6 -> fc6 (in-place)
I0822 11:41:33.331187 32059 net.cpp:150] Setting up drop6
I0822 11:41:33.331194 32059 net.cpp:157] Top shape: 100 4096 (409600)
I0822 11:41:33.331197 32059 net.cpp:165] Memory required for data: 252097200
I0822 11:41:33.331199 32059 layer_factory.hpp:77] Creating layer fc7
I0822 11:41:33.331207 32059 net.cpp:100] Creating Layer fc7
I0822 11:41:33.331209 32059 net.cpp:434] fc7 <- fc6
I0822 11:41:33.331215 32059 net.cpp:408] fc7 -> fc7
I0822 11:41:33.521790 32059 net.cpp:150] Setting up fc7
I0822 11:41:33.521839 32059 net.cpp:157] Top shape: 100 4096 (409600)
I0822 11:41:33.521842 32059 net.cpp:165] Memory required for data: 253735600
I0822 11:41:33.521853 32059 layer_factory.hpp:77] Creating layer relu7
I0822 11:41:33.521863 32059 net.cpp:100] Creating Layer relu7
I0822 11:41:33.521867 32059 net.cpp:434] relu7 <- fc7
I0822 11:41:33.521875 32059 net.cpp:395] relu7 -> fc7 (in-place)
I0822 11:41:33.522611 32059 net.cpp:150] Setting up relu7
I0822 11:41:33.522636 32059 net.cpp:157] Top shape: 100 4096 (409600)
I0822 11:41:33.522640 32059 net.cpp:165] Memory required for data: 255374000
I0822 11:41:33.522644 32059 layer_factory.hpp:77] Creating layer drop7
I0822 11:41:33.522651 32059 net.cpp:100] Creating Layer drop7
I0822 11:41:33.522655 32059 net.cpp:434] drop7 <- fc7
I0822 11:41:33.522661 32059 net.cpp:395] drop7 -> fc7 (in-place)
I0822 11:41:33.522694 32059 net.cpp:150] Setting up drop7
I0822 11:41:33.522702 32059 net.cpp:157] Top shape: 100 4096 (409600)
I0822 11:41:33.522704 32059 net.cpp:165] Memory required for data: 257012400
I0822 11:41:33.522707 32059 layer_factory.hpp:77] Creating layer fc8
I0822 11:41:33.522716 32059 net.cpp:100] Creating Layer fc8
I0822 11:41:33.522719 32059 net.cpp:434] fc8 <- fc7
I0822 11:41:33.522725 32059 net.cpp:408] fc8 -> fc8
I0822 11:41:33.522927 32059 net.cpp:150] Setting up fc8
I0822 11:41:33.522935 32059 net.cpp:157] Top shape: 100 2 (200)
I0822 11:41:33.522949 32059 net.cpp:165] Memory required for data: 257013200
I0822 11:41:33.522955 32059 layer_factory.hpp:77] Creating layer fc8_fc8_0_split
I0822 11:41:33.522974 32059 net.cpp:100] Creating Layer fc8_fc8_0_split
I0822 11:41:33.522991 32059 net.cpp:434] fc8_fc8_0_split <- fc8
I0822 11:41:33.522997 32059 net.cpp:408] fc8_fc8_0_split -> fc8_fc8_0_split_0
I0822 11:41:33.523005 32059 net.cpp:408] fc8_fc8_0_split -> fc8_fc8_0_split_1
I0822 11:41:33.523041 32059 net.cpp:150] Setting up fc8_fc8_0_split
I0822 11:41:33.523047 32059 net.cpp:157] Top shape: 100 2 (200)
I0822 11:41:33.523051 32059 net.cpp:157] Top shape: 100 2 (200)
I0822 11:41:33.523053 32059 net.cpp:165] Memory required for data: 257014800
I0822 11:41:33.523056 32059 layer_factory.hpp:77] Creating layer accuracy
I0822 11:41:33.523063 32059 net.cpp:100] Creating Layer accuracy
I0822 11:41:33.523066 32059 net.cpp:434] accuracy <- fc8_fc8_0_split_0
I0822 11:41:33.523071 32059 net.cpp:434] accuracy <- label_mnist_1_split_0
I0822 11:41:33.523075 32059 net.cpp:408] accuracy -> accuracy
…
