…
I0806 12:43:33.400393 11765 net.cpp:313] The NetState phase (0) differed from the phase (1) specified by a rule in layer accuracy
I0806 12:43:33.400530 11765 net.cpp:49] Initializing net from parameters: 
name: "AlexNet"
state {
  phase: TRAIN
}
layer {
  name: "mnist"
  type: "Data"
  top: "data"
  top: "label"
  include {
    phase: TRAIN
  }
  transform_param {
    scale: 0.00390625
    mean_file: "data/person_only_lmdb/person_background_only_color_mean.binaryproto"
  }
  data_param {
    source: "data/person_only_lmdb/person_background_only_train_lmdb"
    batch_size: 64
    backend: LMDB
  }
}
layer {
  name: "conv1"
  type: "Convolution"
  bottom: "data"
  top: "conv1"
  param {
    lr_mult: 1
    decay_mult: 1
  }
  param {
    lr_mult: 2
    decay_mult: 0
  }
  convolution_param {
    num_output: 96
    kernel_size: 11
    stride: 4
    weight_filler {
      type: "gaussian"
      std: 0.01
    }
    bias_filler {
      type: "constant"
      value: 0
    }
  }
}
layer {
  name: "relu1"
  type: "ReLU"
  bottom: "conv1"
  top: "conv1"
}
layer {
  name: "norm1"
  type: "LRN"
  bottom: "conv1"
  top: "norm1"
  lrn_param {
    local_size: 5
    alpha: 0.0001
    beta: 0.75
  }
}
layer {
  name: "pool1"
  type: "Pooling"
  bottom: "norm1"
  top: "pool1"
  pooling_param {
    pool: MAX
    kernel_size: 3
    stride: 2
  }
}
layer {
  name: "conv2"
  type: "Convolution"
  bottom: "pool1"
  top: "conv2"
  param {
    lr_mult: 1
    decay_mult: 1
  }
  param {
    lr_mult: 2
    decay_mult: 0
  }
  convolution_param {
    num_output: 256
    pad: 2
    kernel_size: 5
    group: 2
    weight_filler {
      type: "gaussian"
      std: 0.01
    }
    bias_filler {
      type: "constant"
      value: 0.1
    }
  }
}
layer {
  name: "relu2"
  type: "ReLU"
  bottom: "conv2"
  top: "conv2"
}
layer {
  name: "norm2"
  type: "LRN"
  bottom: "conv2"
  top: "norm2"
  lrn_param {
    local_size: 5
    alpha: 0.0001
    beta: 0.75
  }
}
layer {
  name: "pool2"
  type: "Pooling"
  bottom: "norm2"
  top: "pool2"
  pooling_param {
    pool: MAX
    kernel_size: 3
    stride: 2
  }
}
layer {
  name: "conv3"
  type: "Convolution"
  bottom: "pool2"
  top: "conv3"
  param {
    lr_mult: 1
    decay_mult: 1
  }
  param {
    lr_mult: 2
    decay_mult: 0
  }
  convolution_param {
    num_output: 384
    pad: 1
    kernel_size: 3
    weight_filler {
      type: "gaussian"
      std: 0.01
    }
    bias_filler {
      type: "constant"
      value: 0
    }
  }
}
layer {
  name: "relu3"
  type: "ReLU"
  bottom: "conv3"
  top: "conv3"
}
layer {
  name: "conv4"
  type: "Convolution"
  bottom: "conv3"
  top: "conv4"
  param {
    lr_mult: 1
    decay_mult: 1
  }
  param {
    lr_mult: 2
    decay_mult: 0
  }
  convolution_param {
    num_output: 384
    pad: 1
    kernel_size: 3
    group: 2
    weight_filler {
      type: "gaussian"
      std: 0.01
    }
    bias_filler {
      type: "constant"
      value: 0.1
    }
  }
}
layer {
  name: "relu4"
  type: "ReLU"
  bottom: "conv4"
  top: "conv4"
}
layer {
  name: "conv5"
  type: "Convolution"
  bottom: "conv4"
  top: "conv5"
  param {
    lr_mult: 1
    decay_mult: 1
  }
  param {
    lr_mult: 2
    decay_mult: 0
  }
  convolution_param {
    num_output: 256
    pad: 1
    kernel_size: 3
    group: 2
    weight_filler {
      type: "gaussian"
      std: 0.01
    }
    bias_filler {
      type: "constant"
      value: 0.1
    }
  }
}
layer {
  name: "relu5"
  type: "ReLU"
  bottom: "conv5"
  top: "conv5"
}
layer {
  name: "pool5"
  type: "Pooling"
  bottom: "conv5"
  top: "pool5"
  pooling_param {
    pool: MAX
    kernel_size: 3
    stride: 2
  }
}
layer {
  name: "fc6"
  type: "InnerProduct"
  bottom: "pool5"
  top: "fc6"
  param {
    lr_mult: 1
    decay_mult: 1
  }
  param {
    lr_mult: 2
    decay_mult: 0
  }
  inner_product_param {
    num_output: 4096
    weight_filler {
      type: "gaussian"
      std: 0.005
    }
    bias_filler {
      type: "constant"
      value: 0.1
    }
  }
}
layer {
  name: "relu6"
  type: "ReLU"
  bottom: "fc6"
  top: "fc6"
}
layer {
  name: "drop6"
  type: "Dropout"
  bottom: "fc6"
  top: "fc6"
  dropout_param {
    dropout_ratio: 0.5
  }
}
layer {
  name: "fc7"
  type: "InnerProduct"
  bottom: "fc6"
  top: "fc7"
  param {
    lr_mult: 1
    decay_mult: 1
  }
  param {
    lr_mult: 2
    decay_mult: 0
  }
  inner_product_param {
    num_output: 4096
    weight_filler {
      type: "gaussian"
      std: 0.005
    }
    bias_filler {
      type: "constant"
      value: 0.1
    }
  }
}
layer {
  name: "relu7"
  type: "ReLU"
  bottom: "fc7"
  top: "fc7"
}
layer {
  name: "drop7"
  type: "Dropout"
  bottom: "fc7"
  top: "fc7"
  dropout_param {
    dropout_ratio: 0.5
  }
}
layer {
  name: "fc8"
  type: "InnerProduct"
  bottom: "fc7"
  top: "fc8"
  param {
    lr_mult: 1
    decay_mult: 1
  }
  param {
    lr_mult: 2
    decay_mult: 0
  }
  inner_product_param {
    num_output: 2
    weight_filler {
      type: "gaussian"
      std: 0.01
    }
    bias_filler {
      type: "constant"
      value: 0
    }
  }
}
layer {
  name: "loss"
  type: "SoftmaxWithLoss"
  bottom: "fc8"
  bottom: "label"
  top: "loss"
}
I0806 12:43:33.400631 11765 layer_factory.hpp:77] Creating layer mnist
I0806 12:43:33.401384 11765 net.cpp:91] Creating Layer mnist
I0806 12:43:33.401397 11765 net.cpp:399] mnist -> data
I0806 12:43:33.401410 11765 net.cpp:399] mnist -> label
I0806 12:43:33.401423 11765 data_transformer.cpp:25] Loading mean file from: data/person_only_lmdb/person_background_only_color_mean.binaryproto
I0806 12:43:33.402799 11772 db_lmdb.cpp:35] Opened lmdb data/person_only_lmdb/person_background_only_train_lmdb
I0806 12:43:38.817652 11765 data_layer.cpp:41] output data size: 64,3,128,128
I0806 12:43:38.842468 11765 net.cpp:141] Setting up mnist
I0806 12:43:38.842502 11765 net.cpp:148] Top shape: 64 3 128 128 (3145728)
I0806 12:43:38.842507 11765 net.cpp:148] Top shape: 64 (64)
I0806 12:43:38.842510 11765 net.cpp:156] Memory required for data: 12583168
I0806 12:43:38.842516 11765 layer_factory.hpp:77] Creating layer conv1
I0806 12:43:38.842582 11765 net.cpp:91] Creating Layer conv1
I0806 12:43:38.842589 11765 net.cpp:425] conv1 <- data
I0806 12:43:38.842597 11765 net.cpp:399] conv1 -> conv1
I0806 12:43:38.974138 11765 net.cpp:141] Setting up conv1
I0806 12:43:38.974169 11765 net.cpp:148] Top shape: 64 96 30 30 (5529600)
I0806 12:43:38.974174 11765 net.cpp:156] Memory required for data: 34701568
I0806 12:43:38.974189 11765 layer_factory.hpp:77] Creating layer relu1
I0806 12:43:38.974203 11765 net.cpp:91] Creating Layer relu1
I0806 12:43:38.974207 11765 net.cpp:425] relu1 <- conv1
I0806 12:43:38.974211 11765 net.cpp:386] relu1 -> conv1 (in-place)
I0806 12:43:38.974385 11765 net.cpp:141] Setting up relu1
I0806 12:43:38.974395 11765 net.cpp:148] Top shape: 64 96 30 30 (5529600)
I0806 12:43:38.974397 11765 net.cpp:156] Memory required for data: 56819968
I0806 12:43:38.974411 11765 layer_factory.hpp:77] Creating layer norm1
I0806 12:43:38.974419 11765 net.cpp:91] Creating Layer norm1
I0806 12:43:38.974422 11765 net.cpp:425] norm1 <- conv1
I0806 12:43:38.974426 11765 net.cpp:399] norm1 -> norm1
I0806 12:43:38.974721 11765 net.cpp:141] Setting up norm1
I0806 12:43:38.974733 11765 net.cpp:148] Top shape: 64 96 30 30 (5529600)
I0806 12:43:38.974736 11765 net.cpp:156] Memory required for data: 78938368
I0806 12:43:38.974740 11765 layer_factory.hpp:77] Creating layer pool1
I0806 12:43:38.974748 11765 net.cpp:91] Creating Layer pool1
I0806 12:43:38.974751 11765 net.cpp:425] pool1 <- norm1
I0806 12:43:38.974756 11765 net.cpp:399] pool1 -> pool1
I0806 12:43:38.974798 11765 net.cpp:141] Setting up pool1
I0806 12:43:38.974803 11765 net.cpp:148] Top shape: 64 96 15 15 (1382400)
I0806 12:43:38.974807 11765 net.cpp:156] Memory required for data: 84467968
I0806 12:43:38.974809 11765 layer_factory.hpp:77] Creating layer conv2
I0806 12:43:38.974820 11765 net.cpp:91] Creating Layer conv2
I0806 12:43:38.974822 11765 net.cpp:425] conv2 <- pool1
I0806 12:43:38.974828 11765 net.cpp:399] conv2 -> conv2
I0806 12:43:38.984287 11765 net.cpp:141] Setting up conv2
I0806 12:43:38.984302 11765 net.cpp:148] Top shape: 64 256 15 15 (3686400)
I0806 12:43:38.984304 11765 net.cpp:156] Memory required for data: 99213568
I0806 12:43:38.984313 11765 layer_factory.hpp:77] Creating layer relu2
I0806 12:43:38.984319 11765 net.cpp:91] Creating Layer relu2
I0806 12:43:38.984323 11765 net.cpp:425] relu2 <- conv2
I0806 12:43:38.984326 11765 net.cpp:386] relu2 -> conv2 (in-place)
I0806 12:43:38.984612 11765 net.cpp:141] Setting up relu2
I0806 12:43:38.984625 11765 net.cpp:148] Top shape: 64 256 15 15 (3686400)
I0806 12:43:38.984628 11765 net.cpp:156] Memory required for data: 113959168
I0806 12:43:38.984632 11765 layer_factory.hpp:77] Creating layer norm2
I0806 12:43:38.984637 11765 net.cpp:91] Creating Layer norm2
I0806 12:43:38.984639 11765 net.cpp:425] norm2 <- conv2
I0806 12:43:38.984645 11765 net.cpp:399] norm2 -> norm2
I0806 12:43:38.984838 11765 net.cpp:141] Setting up norm2
I0806 12:43:38.984848 11765 net.cpp:148] Top shape: 64 256 15 15 (3686400)
I0806 12:43:38.984849 11765 net.cpp:156] Memory required for data: 128704768
I0806 12:43:38.984853 11765 layer_factory.hpp:77] Creating layer pool2
I0806 12:43:38.984859 11765 net.cpp:91] Creating Layer pool2
I0806 12:43:38.984863 11765 net.cpp:425] pool2 <- norm2
I0806 12:43:38.984866 11765 net.cpp:399] pool2 -> pool2
I0806 12:43:38.984907 11765 net.cpp:141] Setting up pool2
I0806 12:43:38.984912 11765 net.cpp:148] Top shape: 64 256 7 7 (802816)
I0806 12:43:38.984915 11765 net.cpp:156] Memory required for data: 131916032
I0806 12:43:38.984917 11765 layer_factory.hpp:77] Creating layer conv3
I0806 12:43:38.984927 11765 net.cpp:91] Creating Layer conv3
I0806 12:43:38.984930 11765 net.cpp:425] conv3 <- pool2
I0806 12:43:38.984935 11765 net.cpp:399] conv3 -> conv3
I0806 12:43:39.009259 11765 net.cpp:141] Setting up conv3
I0806 12:43:39.009275 11765 net.cpp:148] Top shape: 64 384 7 7 (1204224)
I0806 12:43:39.009279 11765 net.cpp:156] Memory required for data: 136732928
I0806 12:43:39.009287 11765 layer_factory.hpp:77] Creating layer relu3
I0806 12:43:39.009292 11765 net.cpp:91] Creating Layer relu3
I0806 12:43:39.009295 11765 net.cpp:425] relu3 <- conv3
I0806 12:43:39.009299 11765 net.cpp:386] relu3 -> conv3 (in-place)
I0806 12:43:39.009583 11765 net.cpp:141] Setting up relu3
I0806 12:43:39.009596 11765 net.cpp:148] Top shape: 64 384 7 7 (1204224)
I0806 12:43:39.009599 11765 net.cpp:156] Memory required for data: 141549824
I0806 12:43:39.009603 11765 layer_factory.hpp:77] Creating layer conv4
I0806 12:43:39.009611 11765 net.cpp:91] Creating Layer conv4
I0806 12:43:39.009614 11765 net.cpp:425] conv4 <- conv3
I0806 12:43:39.009618 11765 net.cpp:399] conv4 -> conv4
I0806 12:43:39.028499 11765 net.cpp:141] Setting up conv4
I0806 12:43:39.028512 11765 net.cpp:148] Top shape: 64 384 7 7 (1204224)
I0806 12:43:39.028515 11765 net.cpp:156] Memory required for data: 146366720
I0806 12:43:39.028522 11765 layer_factory.hpp:77] Creating layer relu4
I0806 12:43:39.028527 11765 net.cpp:91] Creating Layer relu4
I0806 12:43:39.028529 11765 net.cpp:425] relu4 <- conv4
I0806 12:43:39.028533 11765 net.cpp:386] relu4 -> conv4 (in-place)
I0806 12:43:39.028815 11765 net.cpp:141] Setting up relu4
I0806 12:43:39.028826 11765 net.cpp:148] Top shape: 64 384 7 7 (1204224)
I0806 12:43:39.028830 11765 net.cpp:156] Memory required for data: 151183616
I0806 12:43:39.028833 11765 layer_factory.hpp:77] Creating layer conv5
I0806 12:43:39.028843 11765 net.cpp:91] Creating Layer conv5
I0806 12:43:39.028846 11765 net.cpp:425] conv5 <- conv4
I0806 12:43:39.028852 11765 net.cpp:399] conv5 -> conv5
I0806 12:43:39.042033 11765 net.cpp:141] Setting up conv5
I0806 12:43:39.042047 11765 net.cpp:148] Top shape: 64 256 7 7 (802816)
I0806 12:43:39.042049 11765 net.cpp:156] Memory required for data: 154394880
I0806 12:43:39.042057 11765 layer_factory.hpp:77] Creating layer relu5
I0806 12:43:39.042063 11765 net.cpp:91] Creating Layer relu5
I0806 12:43:39.042065 11765 net.cpp:425] relu5 <- conv5
I0806 12:43:39.042070 11765 net.cpp:386] relu5 -> conv5 (in-place)
I0806 12:43:39.042351 11765 net.cpp:141] Setting up relu5
I0806 12:43:39.042362 11765 net.cpp:148] Top shape: 64 256 7 7 (802816)
I0806 12:43:39.042364 11765 net.cpp:156] Memory required for data: 157606144
I0806 12:43:39.042367 11765 layer_factory.hpp:77] Creating layer pool5
I0806 12:43:39.042373 11765 net.cpp:91] Creating Layer pool5
I0806 12:43:39.042376 11765 net.cpp:425] pool5 <- conv5
I0806 12:43:39.042382 11765 net.cpp:399] pool5 -> pool5
I0806 12:43:39.042430 11765 net.cpp:141] Setting up pool5
I0806 12:43:39.042436 11765 net.cpp:148] Top shape: 64 256 3 3 (147456)
I0806 12:43:39.042438 11765 net.cpp:156] Memory required for data: 158195968
I0806 12:43:39.042441 11765 layer_factory.hpp:77] Creating layer fc6
I0806 12:43:39.042453 11765 net.cpp:91] Creating Layer fc6
I0806 12:43:39.042455 11765 net.cpp:425] fc6 <- pool5
I0806 12:43:39.042459 11765 net.cpp:399] fc6 -> fc6
I0806 12:43:39.373457 11765 net.cpp:141] Setting up fc6
I0806 12:43:39.373491 11765 net.cpp:148] Top shape: 64 4096 (262144)
I0806 12:43:39.373494 11765 net.cpp:156] Memory required for data: 159244544
I0806 12:43:39.373505 11765 layer_factory.hpp:77] Creating layer relu6
I0806 12:43:39.373515 11765 net.cpp:91] Creating Layer relu6
I0806 12:43:39.373519 11765 net.cpp:425] relu6 <- fc6
I0806 12:43:39.373527 11765 net.cpp:386] relu6 -> fc6 (in-place)
I0806 12:43:39.373759 11765 net.cpp:141] Setting up relu6
I0806 12:43:39.373770 11765 net.cpp:148] Top shape: 64 4096 (262144)
I0806 12:43:39.373785 11765 net.cpp:156] Memory required for data: 160293120
I0806 12:43:39.373787 11765 layer_factory.hpp:77] Creating layer drop6
I0806 12:43:39.373795 11765 net.cpp:91] Creating Layer drop6
I0806 12:43:39.373798 11765 net.cpp:425] drop6 <- fc6
I0806 12:43:39.373802 11765 net.cpp:386] drop6 -> fc6 (in-place)
I0806 12:43:39.373848 11765 net.cpp:141] Setting up drop6
I0806 12:43:39.373853 11765 net.cpp:148] Top shape: 64 4096 (262144)
I0806 12:43:39.373867 11765 net.cpp:156] Memory required for data: 161341696
I0806 12:43:39.373869 11765 layer_factory.hpp:77] Creating layer fc7
I0806 12:43:39.373877 11765 net.cpp:91] Creating Layer fc7
I0806 12:43:39.373879 11765 net.cpp:425] fc7 <- fc6
I0806 12:43:39.373885 11765 net.cpp:399] fc7 -> fc7
I0806 12:43:39.824944 11765 net.cpp:141] Setting up fc7
I0806 12:43:39.824978 11765 net.cpp:148] Top shape: 64 4096 (262144)
I0806 12:43:39.824982 11765 net.cpp:156] Memory required for data: 162390272
I0806 12:43:39.824991 11765 layer_factory.hpp:77] Creating layer relu7
I0806 12:43:39.825001 11765 net.cpp:91] Creating Layer relu7
I0806 12:43:39.825006 11765 net.cpp:425] relu7 <- fc7
I0806 12:43:39.825011 11765 net.cpp:386] relu7 -> fc7 (in-place)
I0806 12:43:39.825425 11765 net.cpp:141] Setting up relu7
I0806 12:43:39.825436 11765 net.cpp:148] Top shape: 64 4096 (262144)
I0806 12:43:39.825439 11765 net.cpp:156] Memory required for data: 163438848
I0806 12:43:39.825443 11765 layer_factory.hpp:77] Creating layer drop7
I0806 12:43:39.825450 11765 net.cpp:91] Creating Layer drop7
I0806 12:43:39.825453 11765 net.cpp:425] drop7 <- fc7
I0806 12:43:39.825458 11765 net.cpp:386] drop7 -> fc7 (in-place)
I0806 12:43:39.825481 11765 net.cpp:141] Setting up drop7
I0806 12:43:39.825500 11765 net.cpp:148] Top shape: 64 4096 (262144)
I0806 12:43:39.825502 11765 net.cpp:156] Memory required for data: 164487424
I0806 12:43:39.825505 11765 layer_factory.hpp:77] Creating layer fc8
I0806 12:43:39.825512 11765 net.cpp:91] Creating Layer fc8
I0806 12:43:39.825515 11765 net.cpp:425] fc8 <- fc7
I0806 12:43:39.825520 11765 net.cpp:399] fc8 -> fc8
I0806 12:43:39.826350 11765 net.cpp:141] Setting up fc8
I0806 12:43:39.826361 11765 net.cpp:148] Top shape: 64 2 (128)
I0806 12:43:39.826364 11765 net.cpp:156] Memory required for data: 164487936
I0806 12:43:39.826370 11765 layer_factory.hpp:77] Creating layer loss
I0806 12:43:39.826376 11765 net.cpp:91] Creating Layer loss
I0806 12:43:39.826380 11765 net.cpp:425] loss <- fc8
I0806 12:43:39.826382 11765 net.cpp:425] loss <- label
I0806 12:43:39.826386 11765 net.cpp:399] loss -> loss
I0806 12:43:39.826400 11765 layer_factory.hpp:77] Creating layer loss
…
I0806 12:43:39.827343 11765 net.cpp:313] The NetState phase (1) differed from the phase (0) specified by a rule in layer mnist
I0806 12:43:39.827510 11765 net.cpp:49] Initializing net from parameters: 
name: "AlexNet"
state {
  phase: TEST
}
layer {
  name: "mnist"
  type: "Data"
  top: "data"
  top: "label"
  include {
    phase: TEST
  }
  transform_param {
    scale: 0.00390625
    mean_file: "data/person_only_lmdb/person_background_only_color_mean.binaryproto"
  }
  data_param {
    source: "data/person_only_lmdb/person_background_only_test_lmdb"
    batch_size: 100
    backend: LMDB
  }
}
layer {
  name: "conv1"
  type: "Convolution"
  bottom: "data"
  top: "conv1"
  param {
    lr_mult: 1
    decay_mult: 1
  }
  param {
    lr_mult: 2
    decay_mult: 0
  }
  convolution_param {
    num_output: 96
    kernel_size: 11
    stride: 4
    weight_filler {
      type: "gaussian"
      std: 0.01
    }
    bias_filler {
      type: "constant"
      value: 0
    }
  }
}
layer {
  name: "relu1"
  type: "ReLU"
  bottom: "conv1"
  top: "conv1"
}
layer {
  name: "norm1"
  type: "LRN"
  bottom: "conv1"
  top: "norm1"
  lrn_param {
    local_size: 5
    alpha: 0.0001
    beta: 0.75
  }
}
layer {
  name: "pool1"
  type: "Pooling"
  bottom: "norm1"
  top: "pool1"
  pooling_param {
    pool: MAX
    kernel_size: 3
    stride: 2
  }
}
layer {
  name: "conv2"
  type: "Convolution"
  bottom: "pool1"
  top: "conv2"
  param {
    lr_mult: 1
    decay_mult: 1
  }
  param {
    lr_mult: 2
    decay_mult: 0
  }
  convolution_param {
    num_output: 256
    pad: 2
    kernel_size: 5
    group: 2
    weight_filler {
      type: "gaussian"
      std: 0.01
    }
    bias_filler {
      type: "constant"
      value: 0.1
    }
  }
}
layer {
  name: "relu2"
  type: "ReLU"
  bottom: "conv2"
  top: "conv2"
}
layer {
  name: "norm2"
  type: "LRN"
  bottom: "conv2"
  top: "norm2"
  lrn_param {
    local_size: 5
    alpha: 0.0001
    beta: 0.75
  }
}
layer {
  name: "pool2"
  type: "Pooling"
  bottom: "norm2"
  top: "pool2"
  pooling_param {
    pool: MAX
    kernel_size: 3
    stride: 2
  }
}
layer {
  name: "conv3"
  type: "Convolution"
  bottom: "pool2"
  top: "conv3"
  param {
    lr_mult: 1
    decay_mult: 1
  }
  param {
    lr_mult: 2
    decay_mult: 0
  }
  convolution_param {
    num_output: 384
    pad: 1
    kernel_size: 3
    weight_filler {
      type: "gaussian"
      std: 0.01
    }
    bias_filler {
      type: "constant"
      value: 0
    }
  }
}
layer {
  name: "relu3"
  type: "ReLU"
  bottom: "conv3"
  top: "conv3"
}
layer {
  name: "conv4"
  type: "Convolution"
  bottom: "conv3"
  top: "conv4"
  param {
    lr_mult: 1
    decay_mult: 1
  }
  param {
    lr_mult: 2
    decay_mult: 0
  }
  convolution_param {
    num_output: 384
    pad: 1
    kernel_size: 3
    group: 2
    weight_filler {
      type: "gaussian"
      std: 0.01
    }
    bias_filler {
      type: "constant"
      value: 0.1
    }
  }
}
layer {
  name: "relu4"
  type: "ReLU"
  bottom: "conv4"
  top: "conv4"
}
layer {
  name: "conv5"
  type: "Convolution"
  bottom: "conv4"
  top: "conv5"
  param {
    lr_mult: 1
    decay_mult: 1
  }
  param {
    lr_mult: 2
    decay_mult: 0
  }
  convolution_param {
    num_output: 256
    pad: 1
    kernel_size: 3
    group: 2
    weight_filler {
      type: "gaussian"
      std: 0.01
    }
    bias_filler {
      type: "constant"
      value: 0.1
    }
  }
}
layer {
  name: "relu5"
  type: "ReLU"
  bottom: "conv5"
  top: "conv5"
}
layer {
  name: "pool5"
  type: "Pooling"
  bottom: "conv5"
  top: "pool5"
  pooling_param {
    pool: MAX
    kernel_size: 3
    stride: 2
  }
}
layer {
  name: "fc6"
  type: "InnerProduct"
  bottom: "pool5"
  top: "fc6"
  param {
    lr_mult: 1
    decay_mult: 1
  }
  param {
    lr_mult: 2
    decay_mult: 0
  }
  inner_product_param {
    num_output: 4096
    weight_filler {
      type: "gaussian"
      std: 0.005
    }
    bias_filler {
      type: "constant"
      value: 0.1
    }
  }
}
layer {
  name: "relu6"
  type: "ReLU"
  bottom: "fc6"
  top: "fc6"
}
layer {
  name: "drop6"
  type: "Dropout"
  bottom: "fc6"
  top: "fc6"
  dropout_param {
    dropout_ratio: 0.5
  }
}
layer {
  name: "fc7"
  type: "InnerProduct"
  bottom: "fc6"
  top: "fc7"
  param {
    lr_mult: 1
    decay_mult: 1
  }
  param {
    lr_mult: 2
    decay_mult: 0
  }
  inner_product_param {
    num_output: 4096
    weight_filler {
      type: "gaussian"
      std: 0.005
    }
    bias_filler {
      type: "constant"
      value: 0.1
    }
  }
}
layer {
  name: "relu7"
  type: "ReLU"
  bottom: "fc7"
  top: "fc7"
}
layer {
  name: "drop7"
  type: "Dropout"
  bottom: "fc7"
  top: "fc7"
  dropout_param {
    dropout_ratio: 0.5
  }
}
layer {
  name: "fc8"
  type: "InnerProduct"
  bottom: "fc7"
  top: "fc8"
  param {
    lr_mult: 1
    decay_mult: 1
  }
  param {
    lr_mult: 2
    decay_mult: 0
  }
  inner_product_param {
    num_output: 2
    weight_filler {
      type: "gaussian"
      std: 0.01
    }
    bias_filler {
      type: "constant"
      value: 0
    }
  }
}
layer {
  name: "accuracy"
  type: "Accuracy"
  bottom: "fc8"
  bottom: "label"
  top: "accuracy"
  include {
    phase: TEST
  }
}
layer {
  name: "loss"
  type: "SoftmaxWithLoss"
  bottom: "fc8"
  bottom: "label"
  top: "loss"
}
I0806 12:43:39.827630 11765 layer_factory.hpp:77] Creating layer mnist
I0806 12:43:39.827746 11765 net.cpp:91] Creating Layer mnist
I0806 12:43:39.827754 11765 net.cpp:399] mnist -> data
I0806 12:43:39.827760 11765 net.cpp:399] mnist -> label
I0806 12:43:39.827766 11765 data_transformer.cpp:25] Loading mean file from: data/person_only_lmdb/person_background_only_color_mean.binaryproto
I0806 12:43:39.829223 11774 db_lmdb.cpp:35] Opened lmdb data/person_only_lmdb/person_background_only_test_lmdb
I0806 12:43:39.829468 11765 data_layer.cpp:41] output data size: 100,3,128,128
I0806 12:43:39.873720 11765 net.cpp:141] Setting up mnist
I0806 12:43:39.873744 11765 net.cpp:148] Top shape: 100 3 128 128 (4915200)
I0806 12:43:39.873749 11765 net.cpp:148] Top shape: 100 (100)
I0806 12:43:39.873751 11765 net.cpp:156] Memory required for data: 19661200
I0806 12:43:39.873757 11765 layer_factory.hpp:77] Creating layer label_mnist_1_split
I0806 12:43:39.873766 11765 net.cpp:91] Creating Layer label_mnist_1_split
I0806 12:43:39.873771 11765 net.cpp:425] label_mnist_1_split <- label
I0806 12:43:39.873777 11765 net.cpp:399] label_mnist_1_split -> label_mnist_1_split_0
I0806 12:43:39.873785 11765 net.cpp:399] label_mnist_1_split -> label_mnist_1_split_1
I0806 12:43:39.873847 11765 net.cpp:141] Setting up label_mnist_1_split
I0806 12:43:39.873854 11765 net.cpp:148] Top shape: 100 (100)
I0806 12:43:39.873857 11765 net.cpp:148] Top shape: 100 (100)
I0806 12:43:39.873860 11765 net.cpp:156] Memory required for data: 19662000
I0806 12:43:39.873863 11765 layer_factory.hpp:77] Creating layer conv1
I0806 12:43:39.873875 11765 net.cpp:91] Creating Layer conv1
I0806 12:43:39.873881 11765 net.cpp:425] conv1 <- data
I0806 12:43:39.873898 11765 net.cpp:399] conv1 -> conv1
I0806 12:43:39.879295 11765 net.cpp:141] Setting up conv1
I0806 12:43:39.879312 11765 net.cpp:148] Top shape: 100 96 30 30 (8640000)
I0806 12:43:39.879315 11765 net.cpp:156] Memory required for data: 54222000
I0806 12:43:39.879324 11765 layer_factory.hpp:77] Creating layer relu1
I0806 12:43:39.879331 11765 net.cpp:91] Creating Layer relu1
I0806 12:43:39.879334 11765 net.cpp:425] relu1 <- conv1
I0806 12:43:39.879340 11765 net.cpp:386] relu1 -> conv1 (in-place)
I0806 12:43:39.879633 11765 net.cpp:141] Setting up relu1
I0806 12:43:39.879657 11765 net.cpp:148] Top shape: 100 96 30 30 (8640000)
I0806 12:43:39.879659 11765 net.cpp:156] Memory required for data: 88782000
I0806 12:43:39.879662 11765 layer_factory.hpp:77] Creating layer norm1
I0806 12:43:39.879670 11765 net.cpp:91] Creating Layer norm1
I0806 12:43:39.879673 11765 net.cpp:425] norm1 <- conv1
I0806 12:43:39.879679 11765 net.cpp:399] norm1 -> norm1
I0806 12:43:39.879897 11765 net.cpp:141] Setting up norm1
I0806 12:43:39.879906 11765 net.cpp:148] Top shape: 100 96 30 30 (8640000)
I0806 12:43:39.879909 11765 net.cpp:156] Memory required for data: 123342000
I0806 12:43:39.879912 11765 layer_factory.hpp:77] Creating layer pool1
I0806 12:43:39.879919 11765 net.cpp:91] Creating Layer pool1
I0806 12:43:39.879921 11765 net.cpp:425] pool1 <- norm1
I0806 12:43:39.879925 11765 net.cpp:399] pool1 -> pool1
I0806 12:43:39.879971 11765 net.cpp:141] Setting up pool1
I0806 12:43:39.879976 11765 net.cpp:148] Top shape: 100 96 15 15 (2160000)
I0806 12:43:39.879977 11765 net.cpp:156] Memory required for data: 131982000
I0806 12:43:39.879981 11765 layer_factory.hpp:77] Creating layer conv2
I0806 12:43:39.879990 11765 net.cpp:91] Creating Layer conv2
I0806 12:43:39.879993 11765 net.cpp:425] conv2 <- pool1
I0806 12:43:39.879998 11765 net.cpp:399] conv2 -> conv2
I0806 12:43:39.889674 11765 net.cpp:141] Setting up conv2
I0806 12:43:39.889693 11765 net.cpp:148] Top shape: 100 256 15 15 (5760000)
I0806 12:43:39.889705 11765 net.cpp:156] Memory required for data: 155022000
I0806 12:43:39.889714 11765 layer_factory.hpp:77] Creating layer relu2
I0806 12:43:39.889720 11765 net.cpp:91] Creating Layer relu2
I0806 12:43:39.889724 11765 net.cpp:425] relu2 <- conv2
I0806 12:43:39.889727 11765 net.cpp:386] relu2 -> conv2 (in-place)
I0806 12:43:39.890012 11765 net.cpp:141] Setting up relu2
I0806 12:43:39.890022 11765 net.cpp:148] Top shape: 100 256 15 15 (5760000)
I0806 12:43:39.890025 11765 net.cpp:156] Memory required for data: 178062000
I0806 12:43:39.890028 11765 layer_factory.hpp:77] Creating layer norm2
I0806 12:43:39.890036 11765 net.cpp:91] Creating Layer norm2
I0806 12:43:39.890038 11765 net.cpp:425] norm2 <- conv2
I0806 12:43:39.890043 11765 net.cpp:399] norm2 -> norm2
I0806 12:43:39.890245 11765 net.cpp:141] Setting up norm2
I0806 12:43:39.890255 11765 net.cpp:148] Top shape: 100 256 15 15 (5760000)
I0806 12:43:39.890257 11765 net.cpp:156] Memory required for data: 201102000
I0806 12:43:39.890260 11765 layer_factory.hpp:77] Creating layer pool2
I0806 12:43:39.890265 11765 net.cpp:91] Creating Layer pool2
I0806 12:43:39.890267 11765 net.cpp:425] pool2 <- norm2
I0806 12:43:39.890271 11765 net.cpp:399] pool2 -> pool2
I0806 12:43:39.890316 11765 net.cpp:141] Setting up pool2
I0806 12:43:39.890321 11765 net.cpp:148] Top shape: 100 256 7 7 (1254400)
I0806 12:43:39.890322 11765 net.cpp:156] Memory required for data: 206119600
I0806 12:43:39.890326 11765 layer_factory.hpp:77] Creating layer conv3
I0806 12:43:39.890336 11765 net.cpp:91] Creating Layer conv3
I0806 12:43:39.890338 11765 net.cpp:425] conv3 <- pool2
I0806 12:43:39.890343 11765 net.cpp:399] conv3 -> conv3
I0806 12:43:39.914595 11765 net.cpp:141] Setting up conv3
I0806 12:43:39.914609 11765 net.cpp:148] Top shape: 100 384 7 7 (1881600)
I0806 12:43:39.914613 11765 net.cpp:156] Memory required for data: 213646000
I0806 12:43:39.914620 11765 layer_factory.hpp:77] Creating layer relu3
I0806 12:43:39.914628 11765 net.cpp:91] Creating Layer relu3
I0806 12:43:39.914631 11765 net.cpp:425] relu3 <- conv3
I0806 12:43:39.914634 11765 net.cpp:386] relu3 -> conv3 (in-place)
I0806 12:43:39.914813 11765 net.cpp:141] Setting up relu3
I0806 12:43:39.914821 11765 net.cpp:148] Top shape: 100 384 7 7 (1881600)
I0806 12:43:39.914824 11765 net.cpp:156] Memory required for data: 221172400
I0806 12:43:39.914827 11765 layer_factory.hpp:77] Creating layer conv4
I0806 12:43:39.914841 11765 net.cpp:91] Creating Layer conv4
I0806 12:43:39.914844 11765 net.cpp:425] conv4 <- conv3
I0806 12:43:39.914849 11765 net.cpp:399] conv4 -> conv4
I0806 12:43:39.934062 11765 net.cpp:141] Setting up conv4
I0806 12:43:39.934075 11765 net.cpp:148] Top shape: 100 384 7 7 (1881600)
I0806 12:43:39.934078 11765 net.cpp:156] Memory required for data: 228698800
I0806 12:43:39.934084 11765 layer_factory.hpp:77] Creating layer relu4
I0806 12:43:39.934090 11765 net.cpp:91] Creating Layer relu4
I0806 12:43:39.934094 11765 net.cpp:425] relu4 <- conv4
I0806 12:43:39.934098 11765 net.cpp:386] relu4 -> conv4 (in-place)
I0806 12:43:39.934396 11765 net.cpp:141] Setting up relu4
I0806 12:43:39.934418 11765 net.cpp:148] Top shape: 100 384 7 7 (1881600)
I0806 12:43:39.934422 11765 net.cpp:156] Memory required for data: 236225200
I0806 12:43:39.934425 11765 layer_factory.hpp:77] Creating layer conv5
I0806 12:43:39.934437 11765 net.cpp:91] Creating Layer conv5
I0806 12:43:39.934439 11765 net.cpp:425] conv5 <- conv4
I0806 12:43:39.934455 11765 net.cpp:399] conv5 -> conv5
I0806 12:43:39.947607 11765 net.cpp:141] Setting up conv5
I0806 12:43:39.947619 11765 net.cpp:148] Top shape: 100 256 7 7 (1254400)
I0806 12:43:39.947623 11765 net.cpp:156] Memory required for data: 241242800
I0806 12:43:39.947633 11765 layer_factory.hpp:77] Creating layer relu5
I0806 12:43:39.947638 11765 net.cpp:91] Creating Layer relu5
I0806 12:43:39.947640 11765 net.cpp:425] relu5 <- conv5
I0806 12:43:39.947644 11765 net.cpp:386] relu5 -> conv5 (in-place)
I0806 12:43:39.947923 11765 net.cpp:141] Setting up relu5
I0806 12:43:39.947937 11765 net.cpp:148] Top shape: 100 256 7 7 (1254400)
I0806 12:43:39.947939 11765 net.cpp:156] Memory required for data: 246260400
I0806 12:43:39.947942 11765 layer_factory.hpp:77] Creating layer pool5
I0806 12:43:39.947960 11765 net.cpp:91] Creating Layer pool5
I0806 12:43:39.947963 11765 net.cpp:425] pool5 <- conv5
I0806 12:43:39.947968 11765 net.cpp:399] pool5 -> pool5
I0806 12:43:39.948024 11765 net.cpp:141] Setting up pool5
I0806 12:43:39.948029 11765 net.cpp:148] Top shape: 100 256 3 3 (230400)
I0806 12:43:39.948031 11765 net.cpp:156] Memory required for data: 247182000
I0806 12:43:39.948034 11765 layer_factory.hpp:77] Creating layer fc6
I0806 12:43:39.948042 11765 net.cpp:91] Creating Layer fc6
I0806 12:43:39.948045 11765 net.cpp:425] fc6 <- pool5
I0806 12:43:39.948050 11765 net.cpp:399] fc6 -> fc6
I0806 12:43:40.206621 11765 net.cpp:141] Setting up fc6
I0806 12:43:40.206653 11765 net.cpp:148] Top shape: 100 4096 (409600)
I0806 12:43:40.206657 11765 net.cpp:156] Memory required for data: 248820400
I0806 12:43:40.206667 11765 layer_factory.hpp:77] Creating layer relu6
I0806 12:43:40.206676 11765 net.cpp:91] Creating Layer relu6
I0806 12:43:40.206681 11765 net.cpp:425] relu6 <- fc6
I0806 12:43:40.206686 11765 net.cpp:386] relu6 -> fc6 (in-place)
I0806 12:43:40.206959 11765 net.cpp:141] Setting up relu6
I0806 12:43:40.206969 11765 net.cpp:148] Top shape: 100 4096 (409600)
I0806 12:43:40.206982 11765 net.cpp:156] Memory required for data: 250458800
I0806 12:43:40.206985 11765 layer_factory.hpp:77] Creating layer drop6
I0806 12:43:40.207002 11765 net.cpp:91] Creating Layer drop6
I0806 12:43:40.207006 11765 net.cpp:425] drop6 <- fc6
I0806 12:43:40.207022 11765 net.cpp:386] drop6 -> fc6 (in-place)
I0806 12:43:40.207061 11765 net.cpp:141] Setting up drop6
I0806 12:43:40.207065 11765 net.cpp:148] Top shape: 100 4096 (409600)
I0806 12:43:40.207067 11765 net.cpp:156] Memory required for data: 252097200
I0806 12:43:40.207070 11765 layer_factory.hpp:77] Creating layer fc7
I0806 12:43:40.207082 11765 net.cpp:91] Creating Layer fc7
I0806 12:43:40.207083 11765 net.cpp:425] fc7 <- fc6
I0806 12:43:40.207100 11765 net.cpp:399] fc7 -> fc7
I0806 12:43:40.660338 11765 net.cpp:141] Setting up fc7
I0806 12:43:40.660372 11765 net.cpp:148] Top shape: 100 4096 (409600)
I0806 12:43:40.660374 11765 net.cpp:156] Memory required for data: 253735600
I0806 12:43:40.660384 11765 layer_factory.hpp:77] Creating layer relu7
I0806 12:43:40.660393 11765 net.cpp:91] Creating Layer relu7
I0806 12:43:40.660398 11765 net.cpp:425] relu7 <- fc7
I0806 12:43:40.660403 11765 net.cpp:386] relu7 -> fc7 (in-place)
I0806 12:43:40.660845 11765 net.cpp:141] Setting up relu7
I0806 12:43:40.660856 11765 net.cpp:148] Top shape: 100 4096 (409600)
I0806 12:43:40.660859 11765 net.cpp:156] Memory required for data: 255374000
I0806 12:43:40.660862 11765 layer_factory.hpp:77] Creating layer drop7
I0806 12:43:40.660868 11765 net.cpp:91] Creating Layer drop7
I0806 12:43:40.660871 11765 net.cpp:425] drop7 <- fc7
I0806 12:43:40.660876 11765 net.cpp:386] drop7 -> fc7 (in-place)
I0806 12:43:40.660917 11765 net.cpp:141] Setting up drop7
I0806 12:43:40.660922 11765 net.cpp:148] Top shape: 100 4096 (409600)
I0806 12:43:40.660923 11765 net.cpp:156] Memory required for data: 257012400
I0806 12:43:40.660926 11765 layer_factory.hpp:77] Creating layer fc8
I0806 12:43:40.660934 11765 net.cpp:91] Creating Layer fc8
I0806 12:43:40.660938 11765 net.cpp:425] fc8 <- fc7
I0806 12:43:40.660941 11765 net.cpp:399] fc8 -> fc8
I0806 12:43:40.661278 11765 net.cpp:141] Setting up fc8
I0806 12:43:40.661286 11765 net.cpp:148] Top shape: 100 2 (200)
I0806 12:43:40.661288 11765 net.cpp:156] Memory required for data: 257013200
I0806 12:43:40.661293 11765 layer_factory.hpp:77] Creating layer fc8_fc8_0_split
I0806 12:43:40.661300 11765 net.cpp:91] Creating Layer fc8_fc8_0_split
I0806 12:43:40.661303 11765 net.cpp:425] fc8_fc8_0_split <- fc8
I0806 12:43:40.661306 11765 net.cpp:399] fc8_fc8_0_split -> fc8_fc8_0_split_0
I0806 12:43:40.661311 11765 net.cpp:399] fc8_fc8_0_split -> fc8_fc8_0_split_1
I0806 12:43:40.661356 11765 net.cpp:141] Setting up fc8_fc8_0_split
I0806 12:43:40.661361 11765 net.cpp:148] Top shape: 100 2 (200)
I0806 12:43:40.661365 11765 net.cpp:148] Top shape: 100 2 (200)
I0806 12:43:40.661366 11765 net.cpp:156] Memory required for data: 257014800
I0806 12:43:40.661370 11765 layer_factory.hpp:77] Creating layer accuracy
I0806 12:43:40.661375 11765 net.cpp:91] Creating Layer accuracy
I0806 12:43:40.661377 11765 net.cpp:425] accuracy <- fc8_fc8_0_split_0
I0806 12:43:40.661381 11765 net.cpp:425] accuracy <- label_mnist_1_split_0
I0806 12:43:40.661387 11765 net.cpp:399] accuracy -> accuracy
…
