…
I0811 19:41:51.571471  9584 net.cpp:313] The NetState phase (0) differed from the phase (1) specified by a rule in layer accuracy
I0811 19:41:51.571611  9584 net.cpp:49] Initializing net from parameters: 
name: "AlexNet"
state {
  phase: TRAIN
}
layer {
  name: "mnist"
  type: "Data"
  top: "data"
  top: "label"
  include {
    phase: TRAIN
  }
  transform_param {
    scale: 0.00390625
    mean_file: "data/person_only_lmdb/person_background_only_color_mean.binaryproto"
  }
  data_param {
    source: "data/person_only_lmdb/person_background_only_train_lmdb"
    batch_size: 128
    backend: LMDB
  }
}
layer {
  name: "conv1"
  type: "Convolution"
  bottom: "data"
  top: "conv1"
  param {
    lr_mult: 1
    decay_mult: 1
  }
  param {
    lr_mult: 2
    decay_mult: 0
  }
  convolution_param {
    num_output: 96
    kernel_size: 11
    stride: 4
    weight_filler {
      type: "gaussian"
      std: 0.01
    }
    bias_filler {
      type: "constant"
      value: 0
    }
  }
}
layer {
  name: "relu1"
  type: "ReLU"
  bottom: "conv1"
  top: "conv1"
}
layer {
  name: "norm1"
  type: "LRN"
  bottom: "conv1"
  top: "norm1"
  lrn_param {
    local_size: 5
    alpha: 0.0001
    beta: 0.75
  }
}
layer {
  name: "pool1"
  type: "Pooling"
  bottom: "norm1"
  top: "pool1"
  pooling_param {
    pool: MAX
    kernel_size: 3
    stride: 2
  }
}
layer {
  name: "conv2"
  type: "Convolution"
  bottom: "pool1"
  top: "conv2"
  param {
    lr_mult: 1
    decay_mult: 1
  }
  param {
    lr_mult: 2
    decay_mult: 0
  }
  convolution_param {
    num_output: 256
    pad: 2
    kernel_size: 5
    group: 2
    weight_filler {
      type: "gaussian"
      std: 0.01
    }
    bias_filler {
      type: "constant"
      value: 0.1
    }
  }
}
layer {
  name: "relu2"
  type: "ReLU"
  bottom: "conv2"
  top: "conv2"
}
layer {
  name: "norm2"
  type: "LRN"
  bottom: "conv2"
  top: "norm2"
  lrn_param {
    local_size: 5
    alpha: 0.0001
    beta: 0.75
  }
}
layer {
  name: "pool2"
  type: "Pooling"
  bottom: "norm2"
  top: "pool2"
  pooling_param {
    pool: MAX
    kernel_size: 3
    stride: 2
  }
}
layer {
  name: "conv3"
  type: "Convolution"
  bottom: "pool2"
  top: "conv3"
  param {
    lr_mult: 1
    decay_mult: 1
  }
  param {
    lr_mult: 2
    decay_mult: 0
  }
  convolution_param {
    num_output: 384
    pad: 1
    kernel_size: 3
    weight_filler {
      type: "gaussian"
      std: 0.01
    }
    bias_filler {
      type: "constant"
      value: 0
    }
  }
}
layer {
  name: "relu3"
  type: "ReLU"
  bottom: "conv3"
  top: "conv3"
}
layer {
  name: "conv4"
  type: "Convolution"
  bottom: "conv3"
  top: "conv4"
  param {
    lr_mult: 1
    decay_mult: 1
  }
  param {
    lr_mult: 2
    decay_mult: 0
  }
  convolution_param {
    num_output: 384
    pad: 1
    kernel_size: 3
    group: 2
    weight_filler {
      type: "gaussian"
      std: 0.01
    }
    bias_filler {
      type: "constant"
      value: 0.1
    }
  }
}
layer {
  name: "relu4"
  type: "ReLU"
  bottom: "conv4"
  top: "conv4"
}
layer {
  name: "conv5"
  type: "Convolution"
  bottom: "conv4"
  top: "conv5"
  param {
    lr_mult: 1
    decay_mult: 1
  }
  param {
    lr_mult: 2
    decay_mult: 0
  }
  convolution_param {
    num_output: 256
    pad: 1
    kernel_size: 3
    group: 2
    weight_filler {
      type: "gaussian"
      std: 0.01
    }
    bias_filler {
      type: "constant"
      value: 0.1
    }
  }
}
layer {
  name: "relu5"
  type: "ReLU"
  bottom: "conv5"
  top: "conv5"
}
layer {
  name: "pool5"
  type: "Pooling"
  bottom: "conv5"
  top: "pool5"
  pooling_param {
    pool: MAX
    kernel_size: 3
    stride: 2
  }
}
layer {
  name: "fc6"
  type: "InnerProduct"
  bottom: "pool5"
  top: "fc6"
  param {
    lr_mult: 1
    decay_mult: 1
  }
  param {
    lr_mult: 2
    decay_mult: 0
  }
  inner_product_param {
    num_output: 4096
    weight_filler {
      type: "gaussian"
      std: 0.005
    }
    bias_filler {
      type: "constant"
      value: 0.1
    }
  }
}
layer {
  name: "relu6"
  type: "ReLU"
  bottom: "fc6"
  top: "fc6"
}
layer {
  name: "drop6"
  type: "Dropout"
  bottom: "fc6"
  top: "fc6"
  dropout_param {
    dropout_ratio: 0.5
  }
}
layer {
  name: "fc7"
  type: "InnerProduct"
  bottom: "fc6"
  top: "fc7"
  param {
    lr_mult: 1
    decay_mult: 1
  }
  param {
    lr_mult: 2
    decay_mult: 0
  }
  inner_product_param {
    num_output: 4096
    weight_filler {
      type: "gaussian"
      std: 0.005
    }
    bias_filler {
      type: "constant"
      value: 0.1
    }
  }
}
layer {
  name: "relu7"
  type: "ReLU"
  bottom: "fc7"
  top: "fc7"
}
layer {
  name: "drop7"
  type: "Dropout"
  bottom: "fc7"
  top: "fc7"
  dropout_param {
    dropout_ratio: 0.5
  }
}
layer {
  name: "fc8"
  type: "InnerProduct"
  bottom: "fc7"
  top: "fc8"
  param {
    lr_mult: 1
    decay_mult: 1
  }
  param {
    lr_mult: 2
    decay_mult: 0
  }
  inner_product_param {
    num_output: 2
    weight_filler {
      type: "gaussian"
      std: 0.01
    }
    bias_filler {
      type: "constant"
      value: 0
    }
  }
}
layer {
  name: "loss"
  type: "SoftmaxWithLoss"
  bottom: "fc8"
  bottom: "label"
  top: "loss"
}
I0811 19:41:51.571702  9584 layer_factory.hpp:77] Creating layer mnist
I0811 19:41:51.572463  9584 net.cpp:91] Creating Layer mnist
I0811 19:41:51.572477  9584 net.cpp:399] mnist -> data
I0811 19:41:51.572504  9584 net.cpp:399] mnist -> label
I0811 19:41:51.572518  9584 data_transformer.cpp:25] Loading mean file from: data/person_only_lmdb/person_background_only_color_mean.binaryproto
I0811 19:41:51.573887  9591 db_lmdb.cpp:35] Opened lmdb data/person_only_lmdb/person_background_only_train_lmdb
I0811 19:42:06.217582  9584 data_layer.cpp:41] output data size: 128,3,128,128
I0811 19:42:06.264044  9584 net.cpp:141] Setting up mnist
I0811 19:42:06.264086  9584 net.cpp:148] Top shape: 128 3 128 128 (6291456)
I0811 19:42:06.264093  9584 net.cpp:148] Top shape: 128 (128)
I0811 19:42:06.264096  9584 net.cpp:156] Memory required for data: 25166336
I0811 19:42:06.264106  9584 layer_factory.hpp:77] Creating layer conv1
I0811 19:42:06.264134  9584 net.cpp:91] Creating Layer conv1
I0811 19:42:06.264153  9584 net.cpp:425] conv1 <- data
I0811 19:42:06.264160  9584 net.cpp:399] conv1 -> conv1
I0811 19:42:06.815863  9584 net.cpp:141] Setting up conv1
I0811 19:42:06.815915  9584 net.cpp:148] Top shape: 128 96 30 30 (11059200)
I0811 19:42:06.815923  9584 net.cpp:156] Memory required for data: 69403136
I0811 19:42:06.815955  9584 layer_factory.hpp:77] Creating layer relu1
I0811 19:42:06.815979  9584 net.cpp:91] Creating Layer relu1
I0811 19:42:06.815991  9584 net.cpp:425] relu1 <- conv1
I0811 19:42:06.816002  9584 net.cpp:386] relu1 -> conv1 (in-place)
I0811 19:42:06.816342  9584 net.cpp:141] Setting up relu1
I0811 19:42:06.816364  9584 net.cpp:148] Top shape: 128 96 30 30 (11059200)
I0811 19:42:06.816370  9584 net.cpp:156] Memory required for data: 113639936
I0811 19:42:06.816376  9584 layer_factory.hpp:77] Creating layer norm1
I0811 19:42:06.816398  9584 net.cpp:91] Creating Layer norm1
I0811 19:42:06.816404  9584 net.cpp:425] norm1 <- conv1
I0811 19:42:06.816414  9584 net.cpp:399] norm1 -> norm1
I0811 19:42:06.816962  9584 net.cpp:141] Setting up norm1
I0811 19:42:06.816987  9584 net.cpp:148] Top shape: 128 96 30 30 (11059200)
I0811 19:42:06.816992  9584 net.cpp:156] Memory required for data: 157876736
I0811 19:42:06.816999  9584 layer_factory.hpp:77] Creating layer pool1
I0811 19:42:06.817023  9584 net.cpp:91] Creating Layer pool1
I0811 19:42:06.817030  9584 net.cpp:425] pool1 <- norm1
I0811 19:42:06.817039  9584 net.cpp:399] pool1 -> pool1
I0811 19:42:06.817100  9584 net.cpp:141] Setting up pool1
I0811 19:42:06.817112  9584 net.cpp:148] Top shape: 128 96 15 15 (2764800)
I0811 19:42:06.817117  9584 net.cpp:156] Memory required for data: 168935936
I0811 19:42:06.817123  9584 layer_factory.hpp:77] Creating layer conv2
I0811 19:42:06.817142  9584 net.cpp:91] Creating Layer conv2
I0811 19:42:06.817147  9584 net.cpp:425] conv2 <- pool1
I0811 19:42:06.817157  9584 net.cpp:399] conv2 -> conv2
I0811 19:42:06.837291  9584 net.cpp:141] Setting up conv2
I0811 19:42:06.837317  9584 net.cpp:148] Top shape: 128 256 15 15 (7372800)
I0811 19:42:06.837324  9584 net.cpp:156] Memory required for data: 198427136
I0811 19:42:06.837343  9584 layer_factory.hpp:77] Creating layer relu2
I0811 19:42:06.837358  9584 net.cpp:91] Creating Layer relu2
I0811 19:42:06.837364  9584 net.cpp:425] relu2 <- conv2
I0811 19:42:06.837373  9584 net.cpp:386] relu2 -> conv2 (in-place)
I0811 19:42:06.837785  9584 net.cpp:141] Setting up relu2
I0811 19:42:06.837805  9584 net.cpp:148] Top shape: 128 256 15 15 (7372800)
I0811 19:42:06.837811  9584 net.cpp:156] Memory required for data: 227918336
I0811 19:42:06.837817  9584 layer_factory.hpp:77] Creating layer norm2
I0811 19:42:06.837841  9584 net.cpp:91] Creating Layer norm2
I0811 19:42:06.837846  9584 net.cpp:425] norm2 <- conv2
I0811 19:42:06.837855  9584 net.cpp:399] norm2 -> norm2
I0811 19:42:06.838170  9584 net.cpp:141] Setting up norm2
I0811 19:42:06.838186  9584 net.cpp:148] Top shape: 128 256 15 15 (7372800)
I0811 19:42:06.838192  9584 net.cpp:156] Memory required for data: 257409536
I0811 19:42:06.838198  9584 layer_factory.hpp:77] Creating layer pool2
I0811 19:42:06.838212  9584 net.cpp:91] Creating Layer pool2
I0811 19:42:06.838222  9584 net.cpp:425] pool2 <- norm2
I0811 19:42:06.838230  9584 net.cpp:399] pool2 -> pool2
I0811 19:42:06.838289  9584 net.cpp:141] Setting up pool2
I0811 19:42:06.838301  9584 net.cpp:148] Top shape: 128 256 7 7 (1605632)
I0811 19:42:06.838306  9584 net.cpp:156] Memory required for data: 263832064
I0811 19:42:06.838311  9584 layer_factory.hpp:77] Creating layer conv3
I0811 19:42:06.838326  9584 net.cpp:91] Creating Layer conv3
I0811 19:42:06.838331  9584 net.cpp:425] conv3 <- pool2
I0811 19:42:06.838343  9584 net.cpp:399] conv3 -> conv3
I0811 19:42:06.882628  9584 net.cpp:141] Setting up conv3
I0811 19:42:06.882649  9584 net.cpp:148] Top shape: 128 384 7 7 (2408448)
I0811 19:42:06.882654  9584 net.cpp:156] Memory required for data: 273465856
I0811 19:42:06.882666  9584 layer_factory.hpp:77] Creating layer relu3
I0811 19:42:06.882676  9584 net.cpp:91] Creating Layer relu3
I0811 19:42:06.882684  9584 net.cpp:425] relu3 <- conv3
I0811 19:42:06.882690  9584 net.cpp:386] relu3 -> conv3 (in-place)
I0811 19:42:06.883055  9584 net.cpp:141] Setting up relu3
I0811 19:42:06.883072  9584 net.cpp:148] Top shape: 128 384 7 7 (2408448)
I0811 19:42:06.883077  9584 net.cpp:156] Memory required for data: 283099648
I0811 19:42:06.883083  9584 layer_factory.hpp:77] Creating layer conv4
I0811 19:42:06.883098  9584 net.cpp:91] Creating Layer conv4
I0811 19:42:06.883110  9584 net.cpp:425] conv4 <- conv3
I0811 19:42:06.883116  9584 net.cpp:399] conv4 -> conv4
I0811 19:42:06.912647  9584 net.cpp:141] Setting up conv4
I0811 19:42:06.912667  9584 net.cpp:148] Top shape: 128 384 7 7 (2408448)
I0811 19:42:06.912670  9584 net.cpp:156] Memory required for data: 292733440
I0811 19:42:06.912678  9584 layer_factory.hpp:77] Creating layer relu4
I0811 19:42:06.912686  9584 net.cpp:91] Creating Layer relu4
I0811 19:42:06.912690  9584 net.cpp:425] relu4 <- conv4
I0811 19:42:06.912704  9584 net.cpp:386] relu4 -> conv4 (in-place)
I0811 19:42:06.913028  9584 net.cpp:141] Setting up relu4
I0811 19:42:06.913043  9584 net.cpp:148] Top shape: 128 384 7 7 (2408448)
I0811 19:42:06.913048  9584 net.cpp:156] Memory required for data: 302367232
I0811 19:42:06.913051  9584 layer_factory.hpp:77] Creating layer conv5
I0811 19:42:06.913064  9584 net.cpp:91] Creating Layer conv5
I0811 19:42:06.913069  9584 net.cpp:425] conv5 <- conv4
I0811 19:42:06.913082  9584 net.cpp:399] conv5 -> conv5
I0811 19:42:06.931787  9584 net.cpp:141] Setting up conv5
I0811 19:42:06.931804  9584 net.cpp:148] Top shape: 128 256 7 7 (1605632)
I0811 19:42:06.931809  9584 net.cpp:156] Memory required for data: 308789760
I0811 19:42:06.931819  9584 layer_factory.hpp:77] Creating layer relu5
I0811 19:42:06.931826  9584 net.cpp:91] Creating Layer relu5
I0811 19:42:06.931830  9584 net.cpp:425] relu5 <- conv5
I0811 19:42:06.931838  9584 net.cpp:386] relu5 -> conv5 (in-place)
I0811 19:42:06.932152  9584 net.cpp:141] Setting up relu5
I0811 19:42:06.932166  9584 net.cpp:148] Top shape: 128 256 7 7 (1605632)
I0811 19:42:06.932170  9584 net.cpp:156] Memory required for data: 315212288
I0811 19:42:06.932174  9584 layer_factory.hpp:77] Creating layer pool5
I0811 19:42:06.932183  9584 net.cpp:91] Creating Layer pool5
I0811 19:42:06.932186  9584 net.cpp:425] pool5 <- conv5
I0811 19:42:06.932193  9584 net.cpp:399] pool5 -> pool5
I0811 19:42:06.932248  9584 net.cpp:141] Setting up pool5
I0811 19:42:06.932256  9584 net.cpp:148] Top shape: 128 256 3 3 (294912)
I0811 19:42:06.932260  9584 net.cpp:156] Memory required for data: 316391936
I0811 19:42:06.932263  9584 layer_factory.hpp:77] Creating layer fc6
I0811 19:42:06.932276  9584 net.cpp:91] Creating Layer fc6
I0811 19:42:06.932281  9584 net.cpp:425] fc6 <- pool5
I0811 19:42:06.932288  9584 net.cpp:399] fc6 -> fc6
I0811 19:42:07.200011  9584 net.cpp:141] Setting up fc6
I0811 19:42:07.200047  9584 net.cpp:148] Top shape: 128 4096 (524288)
I0811 19:42:07.200052  9584 net.cpp:156] Memory required for data: 318489088
I0811 19:42:07.200060  9584 layer_factory.hpp:77] Creating layer relu6
I0811 19:42:07.200072  9584 net.cpp:91] Creating Layer relu6
I0811 19:42:07.200075  9584 net.cpp:425] relu6 <- fc6
I0811 19:42:07.200093  9584 net.cpp:386] relu6 -> fc6 (in-place)
I0811 19:42:07.200315  9584 net.cpp:141] Setting up relu6
I0811 19:42:07.200325  9584 net.cpp:148] Top shape: 128 4096 (524288)
I0811 19:42:07.200327  9584 net.cpp:156] Memory required for data: 320586240
I0811 19:42:07.200330  9584 layer_factory.hpp:77] Creating layer drop6
I0811 19:42:07.200341  9584 net.cpp:91] Creating Layer drop6
I0811 19:42:07.200345  9584 net.cpp:425] drop6 <- fc6
I0811 19:42:07.200347  9584 net.cpp:386] drop6 -> fc6 (in-place)
I0811 19:42:07.200378  9584 net.cpp:141] Setting up drop6
I0811 19:42:07.200383  9584 net.cpp:148] Top shape: 128 4096 (524288)
I0811 19:42:07.200386  9584 net.cpp:156] Memory required for data: 322683392
I0811 19:42:07.200388  9584 layer_factory.hpp:77] Creating layer fc7
I0811 19:42:07.200397  9584 net.cpp:91] Creating Layer fc7
I0811 19:42:07.200404  9584 net.cpp:425] fc7 <- fc6
I0811 19:42:07.200412  9584 net.cpp:399] fc7 -> fc7
I0811 19:42:07.728000  9584 net.cpp:141] Setting up fc7
I0811 19:42:07.728040  9584 net.cpp:148] Top shape: 128 4096 (524288)
I0811 19:42:07.728044  9584 net.cpp:156] Memory required for data: 324780544
I0811 19:42:07.728055  9584 layer_factory.hpp:77] Creating layer relu7
I0811 19:42:07.728067  9584 net.cpp:91] Creating Layer relu7
I0811 19:42:07.728082  9584 net.cpp:425] relu7 <- fc7
I0811 19:42:07.728091  9584 net.cpp:386] relu7 -> fc7 (in-place)
I0811 19:42:07.728495  9584 net.cpp:141] Setting up relu7
I0811 19:42:07.728507  9584 net.cpp:148] Top shape: 128 4096 (524288)
I0811 19:42:07.728510  9584 net.cpp:156] Memory required for data: 326877696
I0811 19:42:07.728513  9584 layer_factory.hpp:77] Creating layer drop7
I0811 19:42:07.728520  9584 net.cpp:91] Creating Layer drop7
I0811 19:42:07.728523  9584 net.cpp:425] drop7 <- fc7
I0811 19:42:07.728528  9584 net.cpp:386] drop7 -> fc7 (in-place)
I0811 19:42:07.728560  9584 net.cpp:141] Setting up drop7
I0811 19:42:07.728565  9584 net.cpp:148] Top shape: 128 4096 (524288)
I0811 19:42:07.728569  9584 net.cpp:156] Memory required for data: 328974848
I0811 19:42:07.728571  9584 layer_factory.hpp:77] Creating layer fc8
I0811 19:42:07.728581  9584 net.cpp:91] Creating Layer fc8
I0811 19:42:07.728584  9584 net.cpp:425] fc8 <- fc7
I0811 19:42:07.728588  9584 net.cpp:399] fc8 -> fc8
I0811 19:42:07.729354  9584 net.cpp:141] Setting up fc8
I0811 19:42:07.729367  9584 net.cpp:148] Top shape: 128 2 (256)
I0811 19:42:07.729368  9584 net.cpp:156] Memory required for data: 328975872
I0811 19:42:07.729374  9584 layer_factory.hpp:77] Creating layer loss
I0811 19:42:07.729380  9584 net.cpp:91] Creating Layer loss
I0811 19:42:07.729382  9584 net.cpp:425] loss <- fc8
I0811 19:42:07.729387  9584 net.cpp:425] loss <- label
I0811 19:42:07.729392  9584 net.cpp:399] loss -> loss
I0811 19:42:07.729410  9584 layer_factory.hpp:77] Creating layer loss
…
I0811 19:42:07.730360  9584 net.cpp:313] The NetState phase (1) differed from the phase (0) specified by a rule in layer mnist
I0811 19:42:07.730543  9584 net.cpp:49] Initializing net from parameters: 
name: "AlexNet"
state {
  phase: TEST
}
layer {
  name: "mnist"
  type: "Data"
  top: "data"
  top: "label"
  include {
    phase: TEST
  }
  transform_param {
    scale: 0.00390625
    mean_file: "data/person_only_lmdb/person_background_only_color_mean.binaryproto"
  }
  data_param {
    source: "data/person_only_lmdb/person_background_only_test_lmdb"
    batch_size: 100
    backend: LMDB
  }
}
layer {
  name: "conv1"
  type: "Convolution"
  bottom: "data"
  top: "conv1"
  param {
    lr_mult: 1
    decay_mult: 1
  }
  param {
    lr_mult: 2
    decay_mult: 0
  }
  convolution_param {
    num_output: 96
    kernel_size: 11
    stride: 4
    weight_filler {
      type: "gaussian"
      std: 0.01
    }
    bias_filler {
      type: "constant"
      value: 0
    }
  }
}
layer {
  name: "relu1"
  type: "ReLU"
  bottom: "conv1"
  top: "conv1"
}
layer {
  name: "norm1"
  type: "LRN"
  bottom: "conv1"
  top: "norm1"
  lrn_param {
    local_size: 5
    alpha: 0.0001
    beta: 0.75
  }
}
layer {
  name: "pool1"
  type: "Pooling"
  bottom: "norm1"
  top: "pool1"
  pooling_param {
    pool: MAX
    kernel_size: 3
    stride: 2
  }
}
layer {
  name: "conv2"
  type: "Convolution"
  bottom: "pool1"
  top: "conv2"
  param {
    lr_mult: 1
    decay_mult: 1
  }
  param {
    lr_mult: 2
    decay_mult: 0
  }
  convolution_param {
    num_output: 256
    pad: 2
    kernel_size: 5
    group: 2
    weight_filler {
      type: "gaussian"
      std: 0.01
    }
    bias_filler {
      type: "constant"
      value: 0.1
    }
  }
}
layer {
  name: "relu2"
  type: "ReLU"
  bottom: "conv2"
  top: "conv2"
}
layer {
  name: "norm2"
  type: "LRN"
  bottom: "conv2"
  top: "norm2"
  lrn_param {
    local_size: 5
    alpha: 0.0001
    beta: 0.75
  }
}
layer {
  name: "pool2"
  type: "Pooling"
  bottom: "norm2"
  top: "pool2"
  pooling_param {
    pool: MAX
    kernel_size: 3
    stride: 2
  }
}
layer {
  name: "conv3"
  type: "Convolution"
  bottom: "pool2"
  top: "conv3"
  param {
    lr_mult: 1
    decay_mult: 1
  }
  param {
    lr_mult: 2
    decay_mult: 0
  }
  convolution_param {
    num_output: 384
    pad: 1
    kernel_size: 3
    weight_filler {
      type: "gaussian"
      std: 0.01
    }
    bias_filler {
      type: "constant"
      value: 0
    }
  }
}
layer {
  name: "relu3"
  type: "ReLU"
  bottom: "conv3"
  top: "conv3"
}
layer {
  name: "conv4"
  type: "Convolution"
  bottom: "conv3"
  top: "conv4"
  param {
    lr_mult: 1
    decay_mult: 1
  }
  param {
    lr_mult: 2
    decay_mult: 0
  }
  convolution_param {
    num_output: 384
    pad: 1
    kernel_size: 3
    group: 2
    weight_filler {
      type: "gaussian"
      std: 0.01
    }
    bias_filler {
      type: "constant"
      value: 0.1
    }
  }
}
layer {
  name: "relu4"
  type: "ReLU"
  bottom: "conv4"
  top: "conv4"
}
layer {
  name: "conv5"
  type: "Convolution"
  bottom: "conv4"
  top: "conv5"
  param {
    lr_mult: 1
    decay_mult: 1
  }
  param {
    lr_mult: 2
    decay_mult: 0
  }
  convolution_param {
    num_output: 256
    pad: 1
    kernel_size: 3
    group: 2
    weight_filler {
      type: "gaussian"
      std: 0.01
    }
    bias_filler {
      type: "constant"
      value: 0.1
    }
  }
}
layer {
  name: "relu5"
  type: "ReLU"
  bottom: "conv5"
  top: "conv5"
}
layer {
  name: "pool5"
  type: "Pooling"
  bottom: "conv5"
  top: "pool5"
  pooling_param {
    pool: MAX
    kernel_size: 3
    stride: 2
  }
}
layer {
  name: "fc6"
  type: "InnerProduct"
  bottom: "pool5"
  top: "fc6"
  param {
    lr_mult: 1
    decay_mult: 1
  }
  param {
    lr_mult: 2
    decay_mult: 0
  }
  inner_product_param {
    num_output: 4096
    weight_filler {
      type: "gaussian"
      std: 0.005
    }
    bias_filler {
      type: "constant"
      value: 0.1
    }
  }
}
layer {
  name: "relu6"
  type: "ReLU"
  bottom: "fc6"
  top: "fc6"
}
layer {
  name: "drop6"
  type: "Dropout"
  bottom: "fc6"
  top: "fc6"
  dropout_param {
    dropout_ratio: 0.5
  }
}
layer {
  name: "fc7"
  type: "InnerProduct"
  bottom: "fc6"
  top: "fc7"
  param {
    lr_mult: 1
    decay_mult: 1
  }
  param {
    lr_mult: 2
    decay_mult: 0
  }
  inner_product_param {
    num_output: 4096
    weight_filler {
      type: "gaussian"
      std: 0.005
    }
    bias_filler {
      type: "constant"
      value: 0.1
    }
  }
}
layer {
  name: "relu7"
  type: "ReLU"
  bottom: "fc7"
  top: "fc7"
}
layer {
  name: "drop7"
  type: "Dropout"
  bottom: "fc7"
  top: "fc7"
  dropout_param {
    dropout_ratio: 0.5
  }
}
layer {
  name: "fc8"
  type: "InnerProduct"
  bottom: "fc7"
  top: "fc8"
  param {
    lr_mult: 1
    decay_mult: 1
  }
  param {
    lr_mult: 2
    decay_mult: 0
  }
  inner_product_param {
    num_output: 2
    weight_filler {
      type: "gaussian"
      std: 0.01
    }
    bias_filler {
      type: "constant"
      value: 0
    }
  }
}
layer {
  name: "accuracy"
  type: "Accuracy"
  bottom: "fc8"
  bottom: "label"
  top: "accuracy"
  include {
    phase: TEST
  }
}
layer {
  name: "loss"
  type: "SoftmaxWithLoss"
  bottom: "fc8"
  bottom: "label"
  top: "loss"
}
I0811 19:42:07.730643  9584 layer_factory.hpp:77] Creating layer mnist
I0811 19:42:07.730746  9584 net.cpp:91] Creating Layer mnist
I0811 19:42:07.730753  9584 net.cpp:399] mnist -> data
I0811 19:42:07.730762  9584 net.cpp:399] mnist -> label
I0811 19:42:07.730768  9584 data_transformer.cpp:25] Loading mean file from: data/person_only_lmdb/person_background_only_color_mean.binaryproto
I0811 19:42:07.732225  9593 db_lmdb.cpp:35] Opened lmdb data/person_only_lmdb/person_background_only_test_lmdb
I0811 19:42:07.732600  9584 data_layer.cpp:41] output data size: 100,3,128,128
I0811 19:42:07.766197  9584 net.cpp:141] Setting up mnist
I0811 19:42:07.766237  9584 net.cpp:148] Top shape: 100 3 128 128 (4915200)
I0811 19:42:07.766242  9584 net.cpp:148] Top shape: 100 (100)
I0811 19:42:07.766244  9584 net.cpp:156] Memory required for data: 19661200
I0811 19:42:07.766252  9584 layer_factory.hpp:77] Creating layer label_mnist_1_split
I0811 19:42:07.766265  9584 net.cpp:91] Creating Layer label_mnist_1_split
I0811 19:42:07.766269  9584 net.cpp:425] label_mnist_1_split <- label
I0811 19:42:07.766275  9584 net.cpp:399] label_mnist_1_split -> label_mnist_1_split_0
I0811 19:42:07.766295  9584 net.cpp:399] label_mnist_1_split -> label_mnist_1_split_1
I0811 19:42:07.766548  9584 net.cpp:141] Setting up label_mnist_1_split
I0811 19:42:07.766562  9584 net.cpp:148] Top shape: 100 (100)
I0811 19:42:07.766566  9584 net.cpp:148] Top shape: 100 (100)
I0811 19:42:07.766569  9584 net.cpp:156] Memory required for data: 19662000
I0811 19:42:07.766572  9584 layer_factory.hpp:77] Creating layer conv1
I0811 19:42:07.766585  9584 net.cpp:91] Creating Layer conv1
I0811 19:42:07.766588  9584 net.cpp:425] conv1 <- data
I0811 19:42:07.766594  9584 net.cpp:399] conv1 -> conv1
I0811 19:42:07.771680  9584 net.cpp:141] Setting up conv1
I0811 19:42:07.771699  9584 net.cpp:148] Top shape: 100 96 30 30 (8640000)
I0811 19:42:07.771703  9584 net.cpp:156] Memory required for data: 54222000
I0811 19:42:07.771714  9584 layer_factory.hpp:77] Creating layer relu1
I0811 19:42:07.771721  9584 net.cpp:91] Creating Layer relu1
I0811 19:42:07.771724  9584 net.cpp:425] relu1 <- conv1
I0811 19:42:07.771740  9584 net.cpp:386] relu1 -> conv1 (in-place)
I0811 19:42:07.771997  9584 net.cpp:141] Setting up relu1
I0811 19:42:07.772008  9584 net.cpp:148] Top shape: 100 96 30 30 (8640000)
I0811 19:42:07.772011  9584 net.cpp:156] Memory required for data: 88782000
I0811 19:42:07.772014  9584 layer_factory.hpp:77] Creating layer norm1
I0811 19:42:07.772022  9584 net.cpp:91] Creating Layer norm1
I0811 19:42:07.772025  9584 net.cpp:425] norm1 <- conv1
I0811 19:42:07.772030  9584 net.cpp:399] norm1 -> norm1
I0811 19:42:07.772223  9584 net.cpp:141] Setting up norm1
I0811 19:42:07.772233  9584 net.cpp:148] Top shape: 100 96 30 30 (8640000)
I0811 19:42:07.772235  9584 net.cpp:156] Memory required for data: 123342000
I0811 19:42:07.772238  9584 layer_factory.hpp:77] Creating layer pool1
I0811 19:42:07.772244  9584 net.cpp:91] Creating Layer pool1
I0811 19:42:07.772248  9584 net.cpp:425] pool1 <- norm1
I0811 19:42:07.772251  9584 net.cpp:399] pool1 -> pool1
I0811 19:42:07.772294  9584 net.cpp:141] Setting up pool1
I0811 19:42:07.772300  9584 net.cpp:148] Top shape: 100 96 15 15 (2160000)
I0811 19:42:07.772302  9584 net.cpp:156] Memory required for data: 131982000
I0811 19:42:07.772305  9584 layer_factory.hpp:77] Creating layer conv2
I0811 19:42:07.772313  9584 net.cpp:91] Creating Layer conv2
I0811 19:42:07.772316  9584 net.cpp:425] conv2 <- pool1
I0811 19:42:07.772322  9584 net.cpp:399] conv2 -> conv2
I0811 19:42:07.781886  9584 net.cpp:141] Setting up conv2
I0811 19:42:07.781899  9584 net.cpp:148] Top shape: 100 256 15 15 (5760000)
I0811 19:42:07.781903  9584 net.cpp:156] Memory required for data: 155022000
I0811 19:42:07.781913  9584 layer_factory.hpp:77] Creating layer relu2
I0811 19:42:07.781919  9584 net.cpp:91] Creating Layer relu2
I0811 19:42:07.781922  9584 net.cpp:425] relu2 <- conv2
I0811 19:42:07.781939  9584 net.cpp:386] relu2 -> conv2 (in-place)
I0811 19:42:07.782198  9584 net.cpp:141] Setting up relu2
I0811 19:42:07.782209  9584 net.cpp:148] Top shape: 100 256 15 15 (5760000)
I0811 19:42:07.782212  9584 net.cpp:156] Memory required for data: 178062000
I0811 19:42:07.782215  9584 layer_factory.hpp:77] Creating layer norm2
I0811 19:42:07.782222  9584 net.cpp:91] Creating Layer norm2
I0811 19:42:07.782225  9584 net.cpp:425] norm2 <- conv2
I0811 19:42:07.782229  9584 net.cpp:399] norm2 -> norm2
I0811 19:42:07.782428  9584 net.cpp:141] Setting up norm2
I0811 19:42:07.782438  9584 net.cpp:148] Top shape: 100 256 15 15 (5760000)
I0811 19:42:07.782440  9584 net.cpp:156] Memory required for data: 201102000
I0811 19:42:07.782444  9584 layer_factory.hpp:77] Creating layer pool2
I0811 19:42:07.782449  9584 net.cpp:91] Creating Layer pool2
I0811 19:42:07.782452  9584 net.cpp:425] pool2 <- norm2
I0811 19:42:07.782456  9584 net.cpp:399] pool2 -> pool2
I0811 19:42:07.782500  9584 net.cpp:141] Setting up pool2
I0811 19:42:07.782506  9584 net.cpp:148] Top shape: 100 256 7 7 (1254400)
I0811 19:42:07.782510  9584 net.cpp:156] Memory required for data: 206119600
I0811 19:42:07.782512  9584 layer_factory.hpp:77] Creating layer conv3
I0811 19:42:07.782521  9584 net.cpp:91] Creating Layer conv3
I0811 19:42:07.782526  9584 net.cpp:425] conv3 <- pool2
I0811 19:42:07.782531  9584 net.cpp:399] conv3 -> conv3
I0811 19:42:07.806586  9584 net.cpp:141] Setting up conv3
I0811 19:42:07.806599  9584 net.cpp:148] Top shape: 100 384 7 7 (1881600)
I0811 19:42:07.806603  9584 net.cpp:156] Memory required for data: 213646000
I0811 19:42:07.806610  9584 layer_factory.hpp:77] Creating layer relu3
I0811 19:42:07.806617  9584 net.cpp:91] Creating Layer relu3
I0811 19:42:07.806620  9584 net.cpp:425] relu3 <- conv3
I0811 19:42:07.806624  9584 net.cpp:386] relu3 -> conv3 (in-place)
I0811 19:42:07.806805  9584 net.cpp:141] Setting up relu3
I0811 19:42:07.806814  9584 net.cpp:148] Top shape: 100 384 7 7 (1881600)
I0811 19:42:07.806816  9584 net.cpp:156] Memory required for data: 221172400
I0811 19:42:07.806819  9584 layer_factory.hpp:77] Creating layer conv4
I0811 19:42:07.806828  9584 net.cpp:91] Creating Layer conv4
I0811 19:42:07.806830  9584 net.cpp:425] conv4 <- conv3
I0811 19:42:07.806836  9584 net.cpp:399] conv4 -> conv4
I0811 19:42:07.825721  9584 net.cpp:141] Setting up conv4
I0811 19:42:07.825734  9584 net.cpp:148] Top shape: 100 384 7 7 (1881600)
I0811 19:42:07.825737  9584 net.cpp:156] Memory required for data: 228698800
I0811 19:42:07.825743  9584 layer_factory.hpp:77] Creating layer relu4
I0811 19:42:07.825750  9584 net.cpp:91] Creating Layer relu4
I0811 19:42:07.825753  9584 net.cpp:425] relu4 <- conv4
I0811 19:42:07.825758  9584 net.cpp:386] relu4 -> conv4 (in-place)
I0811 19:42:07.826125  9584 net.cpp:141] Setting up relu4
I0811 19:42:07.826138  9584 net.cpp:148] Top shape: 100 384 7 7 (1881600)
I0811 19:42:07.826140  9584 net.cpp:156] Memory required for data: 236225200
I0811 19:42:07.826143  9584 layer_factory.hpp:77] Creating layer conv5
I0811 19:42:07.826153  9584 net.cpp:91] Creating Layer conv5
I0811 19:42:07.826155  9584 net.cpp:425] conv5 <- conv4
I0811 19:42:07.826160  9584 net.cpp:399] conv5 -> conv5
I0811 19:42:07.839207  9584 net.cpp:141] Setting up conv5
I0811 19:42:07.839221  9584 net.cpp:148] Top shape: 100 256 7 7 (1254400)
I0811 19:42:07.839224  9584 net.cpp:156] Memory required for data: 241242800
I0811 19:42:07.839234  9584 layer_factory.hpp:77] Creating layer relu5
I0811 19:42:07.839241  9584 net.cpp:91] Creating Layer relu5
I0811 19:42:07.839242  9584 net.cpp:425] relu5 <- conv5
I0811 19:42:07.839247  9584 net.cpp:386] relu5 -> conv5 (in-place)
I0811 19:42:07.839521  9584 net.cpp:141] Setting up relu5
I0811 19:42:07.839534  9584 net.cpp:148] Top shape: 100 256 7 7 (1254400)
I0811 19:42:07.839536  9584 net.cpp:156] Memory required for data: 246260400
I0811 19:42:07.839540  9584 layer_factory.hpp:77] Creating layer pool5
I0811 19:42:07.839548  9584 net.cpp:91] Creating Layer pool5
I0811 19:42:07.839551  9584 net.cpp:425] pool5 <- conv5
I0811 19:42:07.839555  9584 net.cpp:399] pool5 -> pool5
I0811 19:42:07.839609  9584 net.cpp:141] Setting up pool5
I0811 19:42:07.839617  9584 net.cpp:148] Top shape: 100 256 3 3 (230400)
I0811 19:42:07.839618  9584 net.cpp:156] Memory required for data: 247182000
I0811 19:42:07.839622  9584 layer_factory.hpp:77] Creating layer fc6
I0811 19:42:07.839628  9584 net.cpp:91] Creating Layer fc6
I0811 19:42:07.839632  9584 net.cpp:425] fc6 <- pool5
I0811 19:42:07.839637  9584 net.cpp:399] fc6 -> fc6
I0811 19:42:08.089493  9584 net.cpp:141] Setting up fc6
I0811 19:42:08.089529  9584 net.cpp:148] Top shape: 100 4096 (409600)
I0811 19:42:08.089532  9584 net.cpp:156] Memory required for data: 248820400
I0811 19:42:08.089543  9584 layer_factory.hpp:77] Creating layer relu6
I0811 19:42:08.089553  9584 net.cpp:91] Creating Layer relu6
I0811 19:42:08.089557  9584 net.cpp:425] relu6 <- fc6
I0811 19:42:08.089576  9584 net.cpp:386] relu6 -> fc6 (in-place)
I0811 19:42:08.089818  9584 net.cpp:141] Setting up relu6
I0811 19:42:08.089825  9584 net.cpp:148] Top shape: 100 4096 (409600)
I0811 19:42:08.089828  9584 net.cpp:156] Memory required for data: 250458800
I0811 19:42:08.089831  9584 layer_factory.hpp:77] Creating layer drop6
I0811 19:42:08.089839  9584 net.cpp:91] Creating Layer drop6
I0811 19:42:08.089841  9584 net.cpp:425] drop6 <- fc6
I0811 19:42:08.089845  9584 net.cpp:386] drop6 -> fc6 (in-place)
I0811 19:42:08.089884  9584 net.cpp:141] Setting up drop6
I0811 19:42:08.089889  9584 net.cpp:148] Top shape: 100 4096 (409600)
I0811 19:42:08.089890  9584 net.cpp:156] Memory required for data: 252097200
I0811 19:42:08.089893  9584 layer_factory.hpp:77] Creating layer fc7
I0811 19:42:08.089900  9584 net.cpp:91] Creating Layer fc7
I0811 19:42:08.089903  9584 net.cpp:425] fc7 <- fc6
I0811 19:42:08.089911  9584 net.cpp:399] fc7 -> fc7
I0811 19:42:08.537806  9584 net.cpp:141] Setting up fc7
I0811 19:42:08.537849  9584 net.cpp:148] Top shape: 100 4096 (409600)
I0811 19:42:08.537853  9584 net.cpp:156] Memory required for data: 253735600
I0811 19:42:08.537863  9584 layer_factory.hpp:77] Creating layer relu7
I0811 19:42:08.537876  9584 net.cpp:91] Creating Layer relu7
I0811 19:42:08.537894  9584 net.cpp:425] relu7 <- fc7
I0811 19:42:08.537902  9584 net.cpp:386] relu7 -> fc7 (in-place)
I0811 19:42:08.538409  9584 net.cpp:141] Setting up relu7
I0811 19:42:08.538420  9584 net.cpp:148] Top shape: 100 4096 (409600)
I0811 19:42:08.538424  9584 net.cpp:156] Memory required for data: 255374000
I0811 19:42:08.538426  9584 layer_factory.hpp:77] Creating layer drop7
I0811 19:42:08.538434  9584 net.cpp:91] Creating Layer drop7
I0811 19:42:08.538437  9584 net.cpp:425] drop7 <- fc7
I0811 19:42:08.538444  9584 net.cpp:386] drop7 -> fc7 (in-place)
I0811 19:42:08.538481  9584 net.cpp:141] Setting up drop7
I0811 19:42:08.538487  9584 net.cpp:148] Top shape: 100 4096 (409600)
I0811 19:42:08.538491  9584 net.cpp:156] Memory required for data: 257012400
I0811 19:42:08.538493  9584 layer_factory.hpp:77] Creating layer fc8
I0811 19:42:08.538507  9584 net.cpp:91] Creating Layer fc8
I0811 19:42:08.538511  9584 net.cpp:425] fc8 <- fc7
I0811 19:42:08.538517  9584 net.cpp:399] fc8 -> fc8
I0811 19:42:08.538836  9584 net.cpp:141] Setting up fc8
I0811 19:42:08.538846  9584 net.cpp:148] Top shape: 100 2 (200)
I0811 19:42:08.538847  9584 net.cpp:156] Memory required for data: 257013200
I0811 19:42:08.538852  9584 layer_factory.hpp:77] Creating layer fc8_fc8_0_split
I0811 19:42:08.538857  9584 net.cpp:91] Creating Layer fc8_fc8_0_split
I0811 19:42:08.538861  9584 net.cpp:425] fc8_fc8_0_split <- fc8
I0811 19:42:08.538864  9584 net.cpp:399] fc8_fc8_0_split -> fc8_fc8_0_split_0
I0811 19:42:08.538868  9584 net.cpp:399] fc8_fc8_0_split -> fc8_fc8_0_split_1
I0811 19:42:08.538918  9584 net.cpp:141] Setting up fc8_fc8_0_split
I0811 19:42:08.538923  9584 net.cpp:148] Top shape: 100 2 (200)
I0811 19:42:08.538926  9584 net.cpp:148] Top shape: 100 2 (200)
I0811 19:42:08.538929  9584 net.cpp:156] Memory required for data: 257014800
I0811 19:42:08.538933  9584 layer_factory.hpp:77] Creating layer accuracy
I0811 19:42:08.538939  9584 net.cpp:91] Creating Layer accuracy
I0811 19:42:08.538941  9584 net.cpp:425] accuracy <- fc8_fc8_0_split_0
I0811 19:42:08.538945  9584 net.cpp:425] accuracy <- label_mnist_1_split_0
I0811 19:42:08.538949  9584 net.cpp:399] accuracy -> accuracy
…
