…
I0811 21:46:49.376471 10353 net.cpp:313] The NetState phase (0) differed from the phase (1) specified by a rule in layer accuracy
I0811 21:46:49.376591 10353 net.cpp:49] Initializing net from parameters: 
name: "AlexNet"
state {
  phase: TRAIN
}
layer {
  name: "mnist"
  type: "Data"
  top: "data"
  top: "label"
  include {
    phase: TRAIN
  }
  transform_param {
    scale: 0.00390625
    mean_file: "data/person_only_lmdb/person_background_only_color_mean.binaryproto"
  }
  data_param {
    source: "data/person_only_lmdb/person_background_only_train_lmdb"
    batch_size: 128
    backend: LMDB
  }
}
layer {
  name: "conv1"
  type: "Convolution"
  bottom: "data"
  top: "conv1"
  param {
    lr_mult: 1
    decay_mult: 1
  }
  param {
    lr_mult: 2
    decay_mult: 0
  }
  convolution_param {
    num_output: 96
    kernel_size: 11
    stride: 4
    weight_filler {
      type: "gaussian"
      std: 0.01
    }
    bias_filler {
      type: "constant"
      value: 0
    }
  }
}
layer {
  name: "relu1"
  type: "ReLU"
  bottom: "conv1"
  top: "conv1"
}
layer {
  name: "norm1"
  type: "LRN"
  bottom: "conv1"
  top: "norm1"
  lrn_param {
    local_size: 5
    alpha: 0.0001
    beta: 0.75
  }
}
layer {
  name: "pool1"
  type: "Pooling"
  bottom: "norm1"
  top: "pool1"
  pooling_param {
    pool: MAX
    kernel_size: 3
    stride: 2
  }
}
layer {
  name: "conv2"
  type: "Convolution"
  bottom: "pool1"
  top: "conv2"
  param {
    lr_mult: 1
    decay_mult: 1
  }
  param {
    lr_mult: 2
    decay_mult: 0
  }
  convolution_param {
    num_output: 256
    pad: 2
    kernel_size: 5
    group: 2
    weight_filler {
      type: "gaussian"
      std: 0.01
    }
    bias_filler {
      type: "constant"
      value: 0.1
    }
  }
}
layer {
  name: "relu2"
  type: "ReLU"
  bottom: "conv2"
  top: "conv2"
}
layer {
  name: "norm2"
  type: "LRN"
  bottom: "conv2"
  top: "norm2"
  lrn_param {
    local_size: 5
    alpha: 0.0001
    beta: 0.75
  }
}
layer {
  name: "pool2"
  type: "Pooling"
  bottom: "norm2"
  top: "pool2"
  pooling_param {
    pool: MAX
    kernel_size: 3
    stride: 2
  }
}
layer {
  name: "conv3"
  type: "Convolution"
  bottom: "pool2"
  top: "conv3"
  param {
    lr_mult: 1
    decay_mult: 1
  }
  param {
    lr_mult: 2
    decay_mult: 0
  }
  convolution_param {
    num_output: 384
    pad: 1
    kernel_size: 3
    weight_filler {
      type: "gaussian"
      std: 0.01
    }
    bias_filler {
      type: "constant"
      value: 0
    }
  }
}
layer {
  name: "relu3"
  type: "ReLU"
  bottom: "conv3"
  top: "conv3"
}
layer {
  name: "conv4"
  type: "Convolution"
  bottom: "conv3"
  top: "conv4"
  param {
    lr_mult: 1
    decay_mult: 1
  }
  param {
    lr_mult: 2
    decay_mult: 0
  }
  convolution_param {
    num_output: 384
    pad: 1
    kernel_size: 3
    group: 2
    weight_filler {
      type: "gaussian"
      std: 0.01
    }
    bias_filler {
      type: "constant"
      value: 0.1
    }
  }
}
layer {
  name: "relu4"
  type: "ReLU"
  bottom: "conv4"
  top: "conv4"
}
layer {
  name: "conv5"
  type: "Convolution"
  bottom: "conv4"
  top: "conv5"
  param {
    lr_mult: 1
    decay_mult: 1
  }
  param {
    lr_mult: 2
    decay_mult: 0
  }
  convolution_param {
    num_output: 256
    pad: 1
    kernel_size: 3
    group: 2
    weight_filler {
      type: "gaussian"
      std: 0.01
    }
    bias_filler {
      type: "constant"
      value: 0.1
    }
  }
}
layer {
  name: "relu5"
  type: "ReLU"
  bottom: "conv5"
  top: "conv5"
}
layer {
  name: "pool5"
  type: "Pooling"
  bottom: "conv5"
  top: "pool5"
  pooling_param {
    pool: MAX
    kernel_size: 3
    stride: 2
  }
}
layer {
  name: "fc6"
  type: "InnerProduct"
  bottom: "pool5"
  top: "fc6"
  param {
    lr_mult: 1
    decay_mult: 1
  }
  param {
    lr_mult: 2
    decay_mult: 0
  }
  inner_product_param {
    num_output: 4096
    weight_filler {
      type: "gaussian"
      std: 0.005
    }
    bias_filler {
      type: "constant"
      value: 0.1
    }
  }
}
layer {
  name: "relu6"
  type: "ReLU"
  bottom: "fc6"
  top: "fc6"
}
layer {
  name: "drop6"
  type: "Dropout"
  bottom: "fc6"
  top: "fc6"
  dropout_param {
    dropout_ratio: 0.5
  }
}
layer {
  name: "fc7"
  type: "InnerProduct"
  bottom: "fc6"
  top: "fc7"
  param {
    lr_mult: 1
    decay_mult: 1
  }
  param {
    lr_mult: 2
    decay_mult: 0
  }
  inner_product_param {
    num_output: 4096
    weight_filler {
      type: "gaussian"
      std: 0.005
    }
    bias_filler {
      type: "constant"
      value: 0.1
    }
  }
}
layer {
  name: "relu7"
  type: "ReLU"
  bottom: "fc7"
  top: "fc7"
}
layer {
  name: "drop7"
  type: "Dropout"
  bottom: "fc7"
  top: "fc7"
  dropout_param {
    dropout_ratio: 0.5
  }
}
layer {
  name: "fc8"
  type: "InnerProduct"
  bottom: "fc7"
  top: "fc8"
  param {
    lr_mult: 1
    decay_mult: 1
  }
  param {
    lr_mult: 2
    decay_mult: 0
  }
  inner_product_param {
    num_output: 2
    weight_filler {
      type: "gaussian"
      std: 0.01
    }
    bias_filler {
      type: "constant"
      value: 0
    }
  }
}
layer {
  name: "loss"
  type: "SoftmaxWithLoss"
  bottom: "fc8"
  bottom: "label"
  top: "loss"
}
I0811 21:46:49.376657 10353 layer_factory.hpp:77] Creating layer mnist
I0811 21:46:49.377384 10353 net.cpp:91] Creating Layer mnist
I0811 21:46:49.377396 10353 net.cpp:399] mnist -> data
I0811 21:46:49.377406 10353 net.cpp:399] mnist -> label
I0811 21:46:49.377419 10353 data_transformer.cpp:25] Loading mean file from: data/person_only_lmdb/person_background_only_color_mean.binaryproto
I0811 21:46:49.378834 10360 db_lmdb.cpp:35] Opened lmdb data/person_only_lmdb/person_background_only_train_lmdb
I0811 21:46:57.709981 10353 data_layer.cpp:41] output data size: 128,3,128,128
I0811 21:46:57.755026 10353 net.cpp:141] Setting up mnist
I0811 21:46:57.755079 10353 net.cpp:148] Top shape: 128 3 128 128 (6291456)
I0811 21:46:57.755085 10353 net.cpp:148] Top shape: 128 (128)
I0811 21:46:57.755089 10353 net.cpp:156] Memory required for data: 25166336
I0811 21:46:57.755096 10353 layer_factory.hpp:77] Creating layer conv1
I0811 21:46:57.755138 10353 net.cpp:91] Creating Layer conv1
I0811 21:46:57.755157 10353 net.cpp:425] conv1 <- data
I0811 21:46:57.755177 10353 net.cpp:399] conv1 -> conv1
I0811 21:46:57.903587 10353 net.cpp:141] Setting up conv1
I0811 21:46:57.903633 10353 net.cpp:148] Top shape: 128 96 30 30 (11059200)
I0811 21:46:57.903637 10353 net.cpp:156] Memory required for data: 69403136
I0811 21:46:57.903656 10353 layer_factory.hpp:77] Creating layer relu1
I0811 21:46:57.903668 10353 net.cpp:91] Creating Layer relu1
I0811 21:46:57.903672 10353 net.cpp:425] relu1 <- conv1
I0811 21:46:57.903677 10353 net.cpp:386] relu1 -> conv1 (in-place)
I0811 21:46:57.903867 10353 net.cpp:141] Setting up relu1
I0811 21:46:57.903887 10353 net.cpp:148] Top shape: 128 96 30 30 (11059200)
I0811 21:46:57.903889 10353 net.cpp:156] Memory required for data: 113639936
I0811 21:46:57.903892 10353 layer_factory.hpp:77] Creating layer norm1
I0811 21:46:57.903913 10353 net.cpp:91] Creating Layer norm1
I0811 21:46:57.903915 10353 net.cpp:425] norm1 <- conv1
I0811 21:46:57.903919 10353 net.cpp:399] norm1 -> norm1
I0811 21:46:57.904223 10353 net.cpp:141] Setting up norm1
I0811 21:46:57.904237 10353 net.cpp:148] Top shape: 128 96 30 30 (11059200)
I0811 21:46:57.904250 10353 net.cpp:156] Memory required for data: 157876736
I0811 21:46:57.904253 10353 layer_factory.hpp:77] Creating layer pool1
I0811 21:46:57.904261 10353 net.cpp:91] Creating Layer pool1
I0811 21:46:57.904266 10353 net.cpp:425] pool1 <- norm1
I0811 21:46:57.904270 10353 net.cpp:399] pool1 -> pool1
I0811 21:46:57.904302 10353 net.cpp:141] Setting up pool1
I0811 21:46:57.904309 10353 net.cpp:148] Top shape: 128 96 15 15 (2764800)
I0811 21:46:57.904310 10353 net.cpp:156] Memory required for data: 168935936
I0811 21:46:57.904314 10353 layer_factory.hpp:77] Creating layer conv2
I0811 21:46:57.904327 10353 net.cpp:91] Creating Layer conv2
I0811 21:46:57.904333 10353 net.cpp:425] conv2 <- pool1
I0811 21:46:57.904348 10353 net.cpp:399] conv2 -> conv2
I0811 21:46:57.915125 10353 net.cpp:141] Setting up conv2
I0811 21:46:57.915151 10353 net.cpp:148] Top shape: 128 256 15 15 (7372800)
I0811 21:46:57.915154 10353 net.cpp:156] Memory required for data: 198427136
I0811 21:46:57.915163 10353 layer_factory.hpp:77] Creating layer relu2
I0811 21:46:57.915169 10353 net.cpp:91] Creating Layer relu2
I0811 21:46:57.915172 10353 net.cpp:425] relu2 <- conv2
I0811 21:46:57.915180 10353 net.cpp:386] relu2 -> conv2 (in-place)
I0811 21:46:57.915473 10353 net.cpp:141] Setting up relu2
I0811 21:46:57.915499 10353 net.cpp:148] Top shape: 128 256 15 15 (7372800)
I0811 21:46:57.915503 10353 net.cpp:156] Memory required for data: 227918336
I0811 21:46:57.915506 10353 layer_factory.hpp:77] Creating layer norm2
I0811 21:46:57.915514 10353 net.cpp:91] Creating Layer norm2
I0811 21:46:57.915518 10353 net.cpp:425] norm2 <- conv2
I0811 21:46:57.915521 10353 net.cpp:399] norm2 -> norm2
I0811 21:46:57.915735 10353 net.cpp:141] Setting up norm2
I0811 21:46:57.915755 10353 net.cpp:148] Top shape: 128 256 15 15 (7372800)
I0811 21:46:57.915757 10353 net.cpp:156] Memory required for data: 257409536
I0811 21:46:57.915760 10353 layer_factory.hpp:77] Creating layer pool2
I0811 21:46:57.915777 10353 net.cpp:91] Creating Layer pool2
I0811 21:46:57.915781 10353 net.cpp:425] pool2 <- norm2
I0811 21:46:57.915797 10353 net.cpp:399] pool2 -> pool2
I0811 21:46:57.915832 10353 net.cpp:141] Setting up pool2
I0811 21:46:57.915838 10353 net.cpp:148] Top shape: 128 256 7 7 (1605632)
I0811 21:46:57.915841 10353 net.cpp:156] Memory required for data: 263832064
I0811 21:46:57.915855 10353 layer_factory.hpp:77] Creating layer conv3
I0811 21:46:57.915877 10353 net.cpp:91] Creating Layer conv3
I0811 21:46:57.915881 10353 net.cpp:425] conv3 <- pool2
I0811 21:46:57.915896 10353 net.cpp:399] conv3 -> conv3
I0811 21:46:57.943087 10353 net.cpp:141] Setting up conv3
I0811 21:46:57.943112 10353 net.cpp:148] Top shape: 128 384 7 7 (2408448)
I0811 21:46:57.943115 10353 net.cpp:156] Memory required for data: 273465856
I0811 21:46:57.943123 10353 layer_factory.hpp:77] Creating layer relu3
I0811 21:46:57.943128 10353 net.cpp:91] Creating Layer relu3
I0811 21:46:57.943131 10353 net.cpp:425] relu3 <- conv3
I0811 21:46:57.943138 10353 net.cpp:386] relu3 -> conv3 (in-place)
I0811 21:46:57.943450 10353 net.cpp:141] Setting up relu3
I0811 21:46:57.943461 10353 net.cpp:148] Top shape: 128 384 7 7 (2408448)
I0811 21:46:57.943475 10353 net.cpp:156] Memory required for data: 283099648
I0811 21:46:57.943478 10353 layer_factory.hpp:77] Creating layer conv4
I0811 21:46:57.943487 10353 net.cpp:91] Creating Layer conv4
I0811 21:46:57.943492 10353 net.cpp:425] conv4 <- conv3
I0811 21:46:57.943498 10353 net.cpp:399] conv4 -> conv4
I0811 21:46:57.964159 10353 net.cpp:141] Setting up conv4
I0811 21:46:57.964171 10353 net.cpp:148] Top shape: 128 384 7 7 (2408448)
I0811 21:46:57.964186 10353 net.cpp:156] Memory required for data: 292733440
I0811 21:46:57.964193 10353 layer_factory.hpp:77] Creating layer relu4
I0811 21:46:57.964202 10353 net.cpp:91] Creating Layer relu4
I0811 21:46:57.964205 10353 net.cpp:425] relu4 <- conv4
I0811 21:46:57.964210 10353 net.cpp:386] relu4 -> conv4 (in-place)
I0811 21:46:57.964522 10353 net.cpp:141] Setting up relu4
I0811 21:46:57.964534 10353 net.cpp:148] Top shape: 128 384 7 7 (2408448)
I0811 21:46:57.964548 10353 net.cpp:156] Memory required for data: 302367232
I0811 21:46:57.964551 10353 layer_factory.hpp:77] Creating layer conv5
I0811 21:46:57.964563 10353 net.cpp:91] Creating Layer conv5
I0811 21:46:57.964566 10353 net.cpp:425] conv5 <- conv4
I0811 21:46:57.964571 10353 net.cpp:399] conv5 -> conv5
I0811 21:46:57.978616 10353 net.cpp:141] Setting up conv5
I0811 21:46:57.978641 10353 net.cpp:148] Top shape: 128 256 7 7 (1605632)
I0811 21:46:57.978644 10353 net.cpp:156] Memory required for data: 308789760
I0811 21:46:57.978652 10353 layer_factory.hpp:77] Creating layer relu5
I0811 21:46:57.978659 10353 net.cpp:91] Creating Layer relu5
I0811 21:46:57.978662 10353 net.cpp:425] relu5 <- conv5
I0811 21:46:57.978667 10353 net.cpp:386] relu5 -> conv5 (in-place)
I0811 21:46:57.978976 10353 net.cpp:141] Setting up relu5
I0811 21:46:57.978986 10353 net.cpp:148] Top shape: 128 256 7 7 (1605632)
I0811 21:46:57.979001 10353 net.cpp:156] Memory required for data: 315212288
I0811 21:46:57.979003 10353 layer_factory.hpp:77] Creating layer pool5
I0811 21:46:57.979010 10353 net.cpp:91] Creating Layer pool5
I0811 21:46:57.979013 10353 net.cpp:425] pool5 <- conv5
I0811 21:46:57.979018 10353 net.cpp:399] pool5 -> pool5
I0811 21:46:57.979068 10353 net.cpp:141] Setting up pool5
I0811 21:46:57.979075 10353 net.cpp:148] Top shape: 128 256 3 3 (294912)
I0811 21:46:57.979079 10353 net.cpp:156] Memory required for data: 316391936
I0811 21:46:57.979082 10353 layer_factory.hpp:77] Creating layer fc6
I0811 21:46:57.979092 10353 net.cpp:91] Creating Layer fc6
I0811 21:46:57.979099 10353 net.cpp:425] fc6 <- pool5
I0811 21:46:57.979113 10353 net.cpp:399] fc6 -> fc6
I0811 21:46:58.249513 10353 net.cpp:141] Setting up fc6
I0811 21:46:58.249562 10353 net.cpp:148] Top shape: 128 4096 (524288)
I0811 21:46:58.249565 10353 net.cpp:156] Memory required for data: 318489088
I0811 21:46:58.249577 10353 layer_factory.hpp:77] Creating layer relu6
I0811 21:46:58.249588 10353 net.cpp:91] Creating Layer relu6
I0811 21:46:58.249593 10353 net.cpp:425] relu6 <- fc6
I0811 21:46:58.249598 10353 net.cpp:386] relu6 -> fc6 (in-place)
I0811 21:46:58.249852 10353 net.cpp:141] Setting up relu6
I0811 21:46:58.249862 10353 net.cpp:148] Top shape: 128 4096 (524288)
I0811 21:46:58.249876 10353 net.cpp:156] Memory required for data: 320586240
I0811 21:46:58.249881 10353 layer_factory.hpp:77] Creating layer drop6
I0811 21:46:58.249888 10353 net.cpp:91] Creating Layer drop6
I0811 21:46:58.249891 10353 net.cpp:425] drop6 <- fc6
I0811 21:46:58.249897 10353 net.cpp:386] drop6 -> fc6 (in-place)
I0811 21:46:58.249917 10353 net.cpp:141] Setting up drop6
I0811 21:46:58.249922 10353 net.cpp:148] Top shape: 128 4096 (524288)
I0811 21:46:58.249924 10353 net.cpp:156] Memory required for data: 322683392
I0811 21:46:58.249927 10353 layer_factory.hpp:77] Creating layer fc7
I0811 21:46:58.249933 10353 net.cpp:91] Creating Layer fc7
I0811 21:46:58.249936 10353 net.cpp:425] fc7 <- fc6
I0811 21:46:58.249943 10353 net.cpp:399] fc7 -> fc7
I0811 21:46:58.713408 10353 net.cpp:141] Setting up fc7
I0811 21:46:58.713467 10353 net.cpp:148] Top shape: 128 4096 (524288)
I0811 21:46:58.713482 10353 net.cpp:156] Memory required for data: 324780544
I0811 21:46:58.713493 10353 layer_factory.hpp:77] Creating layer relu7
I0811 21:46:58.713505 10353 net.cpp:91] Creating Layer relu7
I0811 21:46:58.713508 10353 net.cpp:425] relu7 <- fc7
I0811 21:46:58.713515 10353 net.cpp:386] relu7 -> fc7 (in-place)
I0811 21:46:58.713987 10353 net.cpp:141] Setting up relu7
I0811 21:46:58.713999 10353 net.cpp:148] Top shape: 128 4096 (524288)
I0811 21:46:58.714015 10353 net.cpp:156] Memory required for data: 326877696
I0811 21:46:58.714017 10353 layer_factory.hpp:77] Creating layer drop7
I0811 21:46:58.714035 10353 net.cpp:91] Creating Layer drop7
I0811 21:46:58.714038 10353 net.cpp:425] drop7 <- fc7
I0811 21:46:58.714042 10353 net.cpp:386] drop7 -> fc7 (in-place)
I0811 21:46:58.714063 10353 net.cpp:141] Setting up drop7
I0811 21:46:58.714072 10353 net.cpp:148] Top shape: 128 4096 (524288)
I0811 21:46:58.714087 10353 net.cpp:156] Memory required for data: 328974848
I0811 21:46:58.714089 10353 layer_factory.hpp:77] Creating layer fc8
I0811 21:46:58.714109 10353 net.cpp:91] Creating Layer fc8
I0811 21:46:58.714113 10353 net.cpp:425] fc8 <- fc7
I0811 21:46:58.714131 10353 net.cpp:399] fc8 -> fc8
I0811 21:46:58.714995 10353 net.cpp:141] Setting up fc8
I0811 21:46:58.715006 10353 net.cpp:148] Top shape: 128 2 (256)
I0811 21:46:58.715020 10353 net.cpp:156] Memory required for data: 328975872
I0811 21:46:58.715026 10353 layer_factory.hpp:77] Creating layer loss
I0811 21:46:58.715031 10353 net.cpp:91] Creating Layer loss
I0811 21:46:58.715034 10353 net.cpp:425] loss <- fc8
I0811 21:46:58.715039 10353 net.cpp:425] loss <- label
I0811 21:46:58.715044 10353 net.cpp:399] loss -> loss
I0811 21:46:58.715051 10353 layer_factory.hpp:77] Creating layer loss
…
I0811 21:46:58.716063 10353 net.cpp:313] The NetState phase (1) differed from the phase (0) specified by a rule in layer mnist
I0811 21:46:58.716243 10353 net.cpp:49] Initializing net from parameters: 
name: "AlexNet"
state {
  phase: TEST
}
layer {
  name: "mnist"
  type: "Data"
  top: "data"
  top: "label"
  include {
    phase: TEST
  }
  transform_param {
    scale: 0.00390625
    mean_file: "data/person_only_lmdb/person_background_only_color_mean.binaryproto"
  }
  data_param {
    source: "data/person_only_lmdb/person_background_only_test_lmdb"
    batch_size: 100
    backend: LMDB
  }
}
layer {
  name: "conv1"
  type: "Convolution"
  bottom: "data"
  top: "conv1"
  param {
    lr_mult: 1
    decay_mult: 1
  }
  param {
    lr_mult: 2
    decay_mult: 0
  }
  convolution_param {
    num_output: 96
    kernel_size: 11
    stride: 4
    weight_filler {
      type: "gaussian"
      std: 0.01
    }
    bias_filler {
      type: "constant"
      value: 0
    }
  }
}
layer {
  name: "relu1"
  type: "ReLU"
  bottom: "conv1"
  top: "conv1"
}
layer {
  name: "norm1"
  type: "LRN"
  bottom: "conv1"
  top: "norm1"
  lrn_param {
    local_size: 5
    alpha: 0.0001
    beta: 0.75
  }
}
layer {
  name: "pool1"
  type: "Pooling"
  bottom: "norm1"
  top: "pool1"
  pooling_param {
    pool: MAX
    kernel_size: 3
    stride: 2
  }
}
layer {
  name: "conv2"
  type: "Convolution"
  bottom: "pool1"
  top: "conv2"
  param {
    lr_mult: 1
    decay_mult: 1
  }
  param {
    lr_mult: 2
    decay_mult: 0
  }
  convolution_param {
    num_output: 256
    pad: 2
    kernel_size: 5
    group: 2
    weight_filler {
      type: "gaussian"
      std: 0.01
    }
    bias_filler {
      type: "constant"
      value: 0.1
    }
  }
}
layer {
  name: "relu2"
  type: "ReLU"
  bottom: "conv2"
  top: "conv2"
}
layer {
  name: "norm2"
  type: "LRN"
  bottom: "conv2"
  top: "norm2"
  lrn_param {
    local_size: 5
    alpha: 0.0001
    beta: 0.75
  }
}
layer {
  name: "pool2"
  type: "Pooling"
  bottom: "norm2"
  top: "pool2"
  pooling_param {
    pool: MAX
    kernel_size: 3
    stride: 2
  }
}
layer {
  name: "conv3"
  type: "Convolution"
  bottom: "pool2"
  top: "conv3"
  param {
    lr_mult: 1
    decay_mult: 1
  }
  param {
    lr_mult: 2
    decay_mult: 0
  }
  convolution_param {
    num_output: 384
    pad: 1
    kernel_size: 3
    weight_filler {
      type: "gaussian"
      std: 0.01
    }
    bias_filler {
      type: "constant"
      value: 0
    }
  }
}
layer {
  name: "relu3"
  type: "ReLU"
  bottom: "conv3"
  top: "conv3"
}
layer {
  name: "conv4"
  type: "Convolution"
  bottom: "conv3"
  top: "conv4"
  param {
    lr_mult: 1
    decay_mult: 1
  }
  param {
    lr_mult: 2
    decay_mult: 0
  }
  convolution_param {
    num_output: 384
    pad: 1
    kernel_size: 3
    group: 2
    weight_filler {
      type: "gaussian"
      std: 0.01
    }
    bias_filler {
      type: "constant"
      value: 0.1
    }
  }
}
layer {
  name: "relu4"
  type: "ReLU"
  bottom: "conv4"
  top: "conv4"
}
layer {
  name: "conv5"
  type: "Convolution"
  bottom: "conv4"
  top: "conv5"
  param {
    lr_mult: 1
    decay_mult: 1
  }
  param {
    lr_mult: 2
    decay_mult: 0
  }
  convolution_param {
    num_output: 256
    pad: 1
    kernel_size: 3
    group: 2
    weight_filler {
      type: "gaussian"
      std: 0.01
    }
    bias_filler {
      type: "constant"
      value: 0.1
    }
  }
}
layer {
  name: "relu5"
  type: "ReLU"
  bottom: "conv5"
  top: "conv5"
}
layer {
  name: "pool5"
  type: "Pooling"
  bottom: "conv5"
  top: "pool5"
  pooling_param {
    pool: MAX
    kernel_size: 3
    stride: 2
  }
}
layer {
  name: "fc6"
  type: "InnerProduct"
  bottom: "pool5"
  top: "fc6"
  param {
    lr_mult: 1
    decay_mult: 1
  }
  param {
    lr_mult: 2
    decay_mult: 0
  }
  inner_product_param {
    num_output: 4096
    weight_filler {
      type: "gaussian"
      std: 0.005
    }
    bias_filler {
      type: "constant"
      value: 0.1
    }
  }
}
layer {
  name: "relu6"
  type: "ReLU"
  bottom: "fc6"
  top: "fc6"
}
layer {
  name: "drop6"
  type: "Dropout"
  bottom: "fc6"
  top: "fc6"
  dropout_param {
    dropout_ratio: 0.5
  }
}
layer {
  name: "fc7"
  type: "InnerProduct"
  bottom: "fc6"
  top: "fc7"
  param {
    lr_mult: 1
    decay_mult: 1
  }
  param {
    lr_mult: 2
    decay_mult: 0
  }
  inner_product_param {
    num_output: 4096
    weight_filler {
      type: "gaussian"
      std: 0.005
    }
    bias_filler {
      type: "constant"
      value: 0.1
    }
  }
}
layer {
  name: "relu7"
  type: "ReLU"
  bottom: "fc7"
  top: "fc7"
}
layer {
  name: "drop7"
  type: "Dropout"
  bottom: "fc7"
  top: "fc7"
  dropout_param {
    dropout_ratio: 0.5
  }
}
layer {
  name: "fc8"
  type: "InnerProduct"
  bottom: "fc7"
  top: "fc8"
  param {
    lr_mult: 1
    decay_mult: 1
  }
  param {
    lr_mult: 2
    decay_mult: 0
  }
  inner_product_param {
    num_output: 2
    weight_filler {
      type: "gaussian"
      std: 0.01
    }
    bias_filler {
      type: "constant"
      value: 0
    }
  }
}
layer {
  name: "accuracy"
  type: "Accuracy"
  bottom: "fc8"
  bottom: "label"
  top: "accuracy"
  include {
    phase: TEST
  }
}
layer {
  name: "loss"
  type: "SoftmaxWithLoss"
  bottom: "fc8"
  bottom: "label"
  top: "loss"
}
I0811 21:46:58.716341 10353 layer_factory.hpp:77] Creating layer mnist
I0811 21:46:58.716440 10353 net.cpp:91] Creating Layer mnist
I0811 21:46:58.716447 10353 net.cpp:399] mnist -> data
I0811 21:46:58.716454 10353 net.cpp:399] mnist -> label
I0811 21:46:58.716460 10353 data_transformer.cpp:25] Loading mean file from: data/person_only_lmdb/person_background_only_color_mean.binaryproto
I0811 21:46:58.717990 10362 db_lmdb.cpp:35] Opened lmdb data/person_only_lmdb/person_background_only_test_lmdb
I0811 21:46:58.718242 10353 data_layer.cpp:41] output data size: 100,3,128,128
I0811 21:46:58.752663 10353 net.cpp:141] Setting up mnist
I0811 21:46:58.752712 10353 net.cpp:148] Top shape: 100 3 128 128 (4915200)
I0811 21:46:58.752718 10353 net.cpp:148] Top shape: 100 (100)
I0811 21:46:58.752722 10353 net.cpp:156] Memory required for data: 19661200
I0811 21:46:58.752729 10353 layer_factory.hpp:77] Creating layer label_mnist_1_split
I0811 21:46:58.752754 10353 net.cpp:91] Creating Layer label_mnist_1_split
I0811 21:46:58.752759 10353 net.cpp:425] label_mnist_1_split <- label
I0811 21:46:58.752766 10353 net.cpp:399] label_mnist_1_split -> label_mnist_1_split_0
I0811 21:46:58.752777 10353 net.cpp:399] label_mnist_1_split -> label_mnist_1_split_1
I0811 21:46:58.753000 10353 net.cpp:141] Setting up label_mnist_1_split
I0811 21:46:58.753013 10353 net.cpp:148] Top shape: 100 (100)
I0811 21:46:58.753028 10353 net.cpp:148] Top shape: 100 (100)
I0811 21:46:58.753031 10353 net.cpp:156] Memory required for data: 19662000
I0811 21:46:58.753034 10353 layer_factory.hpp:77] Creating layer conv1
I0811 21:46:58.753049 10353 net.cpp:91] Creating Layer conv1
I0811 21:46:58.753053 10353 net.cpp:425] conv1 <- data
I0811 21:46:58.753059 10353 net.cpp:399] conv1 -> conv1
I0811 21:46:58.758361 10353 net.cpp:141] Setting up conv1
I0811 21:46:58.758391 10353 net.cpp:148] Top shape: 100 96 30 30 (8640000)
I0811 21:46:58.758395 10353 net.cpp:156] Memory required for data: 54222000
I0811 21:46:58.758406 10353 layer_factory.hpp:77] Creating layer relu1
I0811 21:46:58.758414 10353 net.cpp:91] Creating Layer relu1
I0811 21:46:58.758417 10353 net.cpp:425] relu1 <- conv1
I0811 21:46:58.758421 10353 net.cpp:386] relu1 -> conv1 (in-place)
I0811 21:46:58.758710 10353 net.cpp:141] Setting up relu1
I0811 21:46:58.758723 10353 net.cpp:148] Top shape: 100 96 30 30 (8640000)
I0811 21:46:58.758738 10353 net.cpp:156] Memory required for data: 88782000
I0811 21:46:58.758740 10353 layer_factory.hpp:77] Creating layer norm1
I0811 21:46:58.758749 10353 net.cpp:91] Creating Layer norm1
I0811 21:46:58.758752 10353 net.cpp:425] norm1 <- conv1
I0811 21:46:58.758757 10353 net.cpp:399] norm1 -> norm1
I0811 21:46:58.758968 10353 net.cpp:141] Setting up norm1
I0811 21:46:58.758977 10353 net.cpp:148] Top shape: 100 96 30 30 (8640000)
I0811 21:46:58.758991 10353 net.cpp:156] Memory required for data: 123342000
I0811 21:46:58.758996 10353 layer_factory.hpp:77] Creating layer pool1
I0811 21:46:58.759002 10353 net.cpp:91] Creating Layer pool1
I0811 21:46:58.759006 10353 net.cpp:425] pool1 <- norm1
I0811 21:46:58.759011 10353 net.cpp:399] pool1 -> pool1
I0811 21:46:58.759044 10353 net.cpp:141] Setting up pool1
I0811 21:46:58.759063 10353 net.cpp:148] Top shape: 100 96 15 15 (2160000)
I0811 21:46:58.759066 10353 net.cpp:156] Memory required for data: 131982000
I0811 21:46:58.759080 10353 layer_factory.hpp:77] Creating layer conv2
I0811 21:46:58.759089 10353 net.cpp:91] Creating Layer conv2
I0811 21:46:58.759093 10353 net.cpp:425] conv2 <- pool1
I0811 21:46:58.759099 10353 net.cpp:399] conv2 -> conv2
I0811 21:46:58.769238 10353 net.cpp:141] Setting up conv2
I0811 21:46:58.769253 10353 net.cpp:148] Top shape: 100 256 15 15 (5760000)
I0811 21:46:58.769256 10353 net.cpp:156] Memory required for data: 155022000
I0811 21:46:58.769275 10353 layer_factory.hpp:77] Creating layer relu2
I0811 21:46:58.769282 10353 net.cpp:91] Creating Layer relu2
I0811 21:46:58.769285 10353 net.cpp:425] relu2 <- conv2
I0811 21:46:58.769289 10353 net.cpp:386] relu2 -> conv2 (in-place)
I0811 21:46:58.769580 10353 net.cpp:141] Setting up relu2
I0811 21:46:58.769603 10353 net.cpp:148] Top shape: 100 256 15 15 (5760000)
I0811 21:46:58.769606 10353 net.cpp:156] Memory required for data: 178062000
I0811 21:46:58.769609 10353 layer_factory.hpp:77] Creating layer norm2
I0811 21:46:58.769618 10353 net.cpp:91] Creating Layer norm2
I0811 21:46:58.769621 10353 net.cpp:425] norm2 <- conv2
I0811 21:46:58.769626 10353 net.cpp:399] norm2 -> norm2
I0811 21:46:58.769840 10353 net.cpp:141] Setting up norm2
I0811 21:46:58.769850 10353 net.cpp:148] Top shape: 100 256 15 15 (5760000)
I0811 21:46:58.769865 10353 net.cpp:156] Memory required for data: 201102000
I0811 21:46:58.769867 10353 layer_factory.hpp:77] Creating layer pool2
I0811 21:46:58.769875 10353 net.cpp:91] Creating Layer pool2
I0811 21:46:58.769876 10353 net.cpp:425] pool2 <- norm2
I0811 21:46:58.769881 10353 net.cpp:399] pool2 -> pool2
I0811 21:46:58.769917 10353 net.cpp:141] Setting up pool2
I0811 21:46:58.769935 10353 net.cpp:148] Top shape: 100 256 7 7 (1254400)
I0811 21:46:58.769938 10353 net.cpp:156] Memory required for data: 206119600
I0811 21:46:58.769953 10353 layer_factory.hpp:77] Creating layer conv3
I0811 21:46:58.769961 10353 net.cpp:91] Creating Layer conv3
I0811 21:46:58.769964 10353 net.cpp:425] conv3 <- pool2
I0811 21:46:58.769970 10353 net.cpp:399] conv3 -> conv3
I0811 21:46:58.795311 10353 net.cpp:141] Setting up conv3
I0811 21:46:58.795336 10353 net.cpp:148] Top shape: 100 384 7 7 (1881600)
I0811 21:46:58.795341 10353 net.cpp:156] Memory required for data: 213646000
I0811 21:46:58.795348 10353 layer_factory.hpp:77] Creating layer relu3
I0811 21:46:58.795353 10353 net.cpp:91] Creating Layer relu3
I0811 21:46:58.795356 10353 net.cpp:425] relu3 <- conv3
I0811 21:46:58.795361 10353 net.cpp:386] relu3 -> conv3 (in-place)
I0811 21:46:58.795552 10353 net.cpp:141] Setting up relu3
I0811 21:46:58.795572 10353 net.cpp:148] Top shape: 100 384 7 7 (1881600)
I0811 21:46:58.795575 10353 net.cpp:156] Memory required for data: 221172400
I0811 21:46:58.795589 10353 layer_factory.hpp:77] Creating layer conv4
I0811 21:46:58.795598 10353 net.cpp:91] Creating Layer conv4
I0811 21:46:58.795601 10353 net.cpp:425] conv4 <- conv3
I0811 21:46:58.795609 10353 net.cpp:399] conv4 -> conv4
I0811 21:46:58.814916 10353 net.cpp:141] Setting up conv4
I0811 21:46:58.814930 10353 net.cpp:148] Top shape: 100 384 7 7 (1881600)
I0811 21:46:58.814945 10353 net.cpp:156] Memory required for data: 228698800
I0811 21:46:58.814951 10353 layer_factory.hpp:77] Creating layer relu4
I0811 21:46:58.814957 10353 net.cpp:91] Creating Layer relu4
I0811 21:46:58.814961 10353 net.cpp:425] relu4 <- conv4
I0811 21:46:58.814967 10353 net.cpp:386] relu4 -> conv4 (in-place)
I0811 21:46:58.815385 10353 net.cpp:141] Setting up relu4
I0811 21:46:58.815409 10353 net.cpp:148] Top shape: 100 384 7 7 (1881600)
I0811 21:46:58.815412 10353 net.cpp:156] Memory required for data: 236225200
I0811 21:46:58.815415 10353 layer_factory.hpp:77] Creating layer conv5
I0811 21:46:58.815425 10353 net.cpp:91] Creating Layer conv5
I0811 21:46:58.815440 10353 net.cpp:425] conv5 <- conv4
I0811 21:46:58.815448 10353 net.cpp:399] conv5 -> conv5
I0811 21:46:58.829566 10353 net.cpp:141] Setting up conv5
I0811 21:46:58.829591 10353 net.cpp:148] Top shape: 100 256 7 7 (1254400)
I0811 21:46:58.829594 10353 net.cpp:156] Memory required for data: 241242800
I0811 21:46:58.829613 10353 layer_factory.hpp:77] Creating layer relu5
I0811 21:46:58.829622 10353 net.cpp:91] Creating Layer relu5
I0811 21:46:58.829625 10353 net.cpp:425] relu5 <- conv5
I0811 21:46:58.829629 10353 net.cpp:386] relu5 -> conv5 (in-place)
I0811 21:46:58.829941 10353 net.cpp:141] Setting up relu5
I0811 21:46:58.829953 10353 net.cpp:148] Top shape: 100 256 7 7 (1254400)
I0811 21:46:58.829967 10353 net.cpp:156] Memory required for data: 246260400
I0811 21:46:58.829970 10353 layer_factory.hpp:77] Creating layer pool5
I0811 21:46:58.829979 10353 net.cpp:91] Creating Layer pool5
I0811 21:46:58.829983 10353 net.cpp:425] pool5 <- conv5
I0811 21:46:58.829988 10353 net.cpp:399] pool5 -> pool5
I0811 21:46:58.830055 10353 net.cpp:141] Setting up pool5
I0811 21:46:58.830061 10353 net.cpp:148] Top shape: 100 256 3 3 (230400)
I0811 21:46:58.830065 10353 net.cpp:156] Memory required for data: 247182000
I0811 21:46:58.830067 10353 layer_factory.hpp:77] Creating layer fc6
I0811 21:46:58.830075 10353 net.cpp:91] Creating Layer fc6
I0811 21:46:58.830078 10353 net.cpp:425] fc6 <- pool5
I0811 21:46:58.830082 10353 net.cpp:399] fc6 -> fc6
I0811 21:46:59.093513 10353 net.cpp:141] Setting up fc6
I0811 21:46:59.093556 10353 net.cpp:148] Top shape: 100 4096 (409600)
I0811 21:46:59.093560 10353 net.cpp:156] Memory required for data: 248820400
I0811 21:46:59.093570 10353 layer_factory.hpp:77] Creating layer relu6
I0811 21:46:59.093590 10353 net.cpp:91] Creating Layer relu6
I0811 21:46:59.093595 10353 net.cpp:425] relu6 <- fc6
I0811 21:46:59.093612 10353 net.cpp:386] relu6 -> fc6 (in-place)
I0811 21:46:59.093871 10353 net.cpp:141] Setting up relu6
I0811 21:46:59.093881 10353 net.cpp:148] Top shape: 100 4096 (409600)
I0811 21:46:59.093895 10353 net.cpp:156] Memory required for data: 250458800
I0811 21:46:59.093899 10353 layer_factory.hpp:77] Creating layer drop6
I0811 21:46:59.093904 10353 net.cpp:91] Creating Layer drop6
I0811 21:46:59.093907 10353 net.cpp:425] drop6 <- fc6
I0811 21:46:59.093915 10353 net.cpp:386] drop6 -> fc6 (in-place)
I0811 21:46:59.093953 10353 net.cpp:141] Setting up drop6
I0811 21:46:59.093958 10353 net.cpp:148] Top shape: 100 4096 (409600)
I0811 21:46:59.093962 10353 net.cpp:156] Memory required for data: 252097200
I0811 21:46:59.093966 10353 layer_factory.hpp:77] Creating layer fc7
I0811 21:46:59.093972 10353 net.cpp:91] Creating Layer fc7
I0811 21:46:59.093976 10353 net.cpp:425] fc7 <- fc6
I0811 21:46:59.093981 10353 net.cpp:399] fc7 -> fc7
I0811 21:46:59.567443 10353 net.cpp:141] Setting up fc7
I0811 21:46:59.567492 10353 net.cpp:148] Top shape: 100 4096 (409600)
I0811 21:46:59.567495 10353 net.cpp:156] Memory required for data: 253735600
I0811 21:46:59.567507 10353 layer_factory.hpp:77] Creating layer relu7
I0811 21:46:59.567518 10353 net.cpp:91] Creating Layer relu7
I0811 21:46:59.567523 10353 net.cpp:425] relu7 <- fc7
I0811 21:46:59.567528 10353 net.cpp:386] relu7 -> fc7 (in-place)
I0811 21:46:59.567986 10353 net.cpp:141] Setting up relu7
I0811 21:46:59.567996 10353 net.cpp:148] Top shape: 100 4096 (409600)
I0811 21:46:59.568011 10353 net.cpp:156] Memory required for data: 255374000
I0811 21:46:59.568014 10353 layer_factory.hpp:77] Creating layer drop7
I0811 21:46:59.568022 10353 net.cpp:91] Creating Layer drop7
I0811 21:46:59.568025 10353 net.cpp:425] drop7 <- fc7
I0811 21:46:59.568029 10353 net.cpp:386] drop7 -> fc7 (in-place)
I0811 21:46:59.568060 10353 net.cpp:141] Setting up drop7
I0811 21:46:59.568079 10353 net.cpp:148] Top shape: 100 4096 (409600)
I0811 21:46:59.568081 10353 net.cpp:156] Memory required for data: 257012400
I0811 21:46:59.568084 10353 layer_factory.hpp:77] Creating layer fc8
I0811 21:46:59.568104 10353 net.cpp:91] Creating Layer fc8
I0811 21:46:59.568107 10353 net.cpp:425] fc8 <- fc7
I0811 21:46:59.568112 10353 net.cpp:399] fc8 -> fc8
I0811 21:46:59.568485 10353 net.cpp:141] Setting up fc8
I0811 21:46:59.568498 10353 net.cpp:148] Top shape: 100 2 (200)
I0811 21:46:59.568512 10353 net.cpp:156] Memory required for data: 257013200
I0811 21:46:59.568517 10353 layer_factory.hpp:77] Creating layer fc8_fc8_0_split
I0811 21:46:59.568522 10353 net.cpp:91] Creating Layer fc8_fc8_0_split
I0811 21:46:59.568526 10353 net.cpp:425] fc8_fc8_0_split <- fc8
I0811 21:46:59.568531 10353 net.cpp:399] fc8_fc8_0_split -> fc8_fc8_0_split_0
I0811 21:46:59.568537 10353 net.cpp:399] fc8_fc8_0_split -> fc8_fc8_0_split_1
I0811 21:46:59.568583 10353 net.cpp:141] Setting up fc8_fc8_0_split
I0811 21:46:59.568590 10353 net.cpp:148] Top shape: 100 2 (200)
I0811 21:46:59.568594 10353 net.cpp:148] Top shape: 100 2 (200)
I0811 21:46:59.568596 10353 net.cpp:156] Memory required for data: 257014800
I0811 21:46:59.568599 10353 layer_factory.hpp:77] Creating layer accuracy
I0811 21:46:59.568605 10353 net.cpp:91] Creating Layer accuracy
I0811 21:46:59.568608 10353 net.cpp:425] accuracy <- fc8_fc8_0_split_0
I0811 21:46:59.568613 10353 net.cpp:425] accuracy <- label_mnist_1_split_0
I0811 21:46:59.568617 10353 net.cpp:399] accuracy -> accuracy
…
