…
I0806 12:46:12.000273 11799 net.cpp:313] The NetState phase (0) differed from the phase (1) specified by a rule in layer accuracy
I0806 12:46:12.000387 11799 net.cpp:49] Initializing net from parameters: 
name: "AlexNet"
state {
  phase: TRAIN
}
layer {
  name: "mnist"
  type: "Data"
  top: "data"
  top: "label"
  include {
    phase: TRAIN
  }
  transform_param {
    scale: 0.00390625
    mean_file: "data/person_only_lmdb/person_background_only_color_mean.binaryproto"
  }
  data_param {
    source: "data/person_only_lmdb/person_background_only_train_lmdb"
    batch_size: 64
    backend: LMDB
  }
}
layer {
  name: "conv1"
  type: "Convolution"
  bottom: "data"
  top: "conv1"
  param {
    lr_mult: 1
    decay_mult: 1
  }
  param {
    lr_mult: 2
    decay_mult: 0
  }
  convolution_param {
    num_output: 96
    kernel_size: 11
    stride: 4
    weight_filler {
      type: "gaussian"
      std: 0.01
    }
    bias_filler {
      type: "constant"
      value: 0
    }
  }
}
layer {
  name: "relu1"
  type: "ReLU"
  bottom: "conv1"
  top: "conv1"
}
layer {
  name: "norm1"
  type: "LRN"
  bottom: "conv1"
  top: "norm1"
  lrn_param {
    local_size: 5
    alpha: 0.0001
    beta: 0.75
  }
}
layer {
  name: "pool1"
  type: "Pooling"
  bottom: "norm1"
  top: "pool1"
  pooling_param {
    pool: MAX
    kernel_size: 3
    stride: 2
  }
}
layer {
  name: "conv2"
  type: "Convolution"
  bottom: "pool1"
  top: "conv2"
  param {
    lr_mult: 1
    decay_mult: 1
  }
  param {
    lr_mult: 2
    decay_mult: 0
  }
  convolution_param {
    num_output: 256
    pad: 2
    kernel_size: 5
    group: 2
    weight_filler {
      type: "gaussian"
      std: 0.01
    }
    bias_filler {
      type: "constant"
      value: 0.1
    }
  }
}
layer {
  name: "relu2"
  type: "ReLU"
  bottom: "conv2"
  top: "conv2"
}
layer {
  name: "norm2"
  type: "LRN"
  bottom: "conv2"
  top: "norm2"
  lrn_param {
    local_size: 5
    alpha: 0.0001
    beta: 0.75
  }
}
layer {
  name: "pool2"
  type: "Pooling"
  bottom: "norm2"
  top: "pool2"
  pooling_param {
    pool: MAX
    kernel_size: 3
    stride: 2
  }
}
layer {
  name: "conv3"
  type: "Convolution"
  bottom: "pool2"
  top: "conv3"
  param {
    lr_mult: 1
    decay_mult: 1
  }
  param {
    lr_mult: 2
    decay_mult: 0
  }
  convolution_param {
    num_output: 384
    pad: 1
    kernel_size: 3
    weight_filler {
      type: "gaussian"
      std: 0.01
    }
    bias_filler {
      type: "constant"
      value: 0
    }
  }
}
layer {
  name: "relu3"
  type: "ReLU"
  bottom: "conv3"
  top: "conv3"
}
layer {
  name: "conv4"
  type: "Convolution"
  bottom: "conv3"
  top: "conv4"
  param {
    lr_mult: 1
    decay_mult: 1
  }
  param {
    lr_mult: 2
    decay_mult: 0
  }
  convolution_param {
    num_output: 384
    pad: 1
    kernel_size: 3
    group: 2
    weight_filler {
      type: "gaussian"
      std: 0.01
    }
    bias_filler {
      type: "constant"
      value: 0.1
    }
  }
}
layer {
  name: "relu4"
  type: "ReLU"
  bottom: "conv4"
  top: "conv4"
}
layer {
  name: "conv5"
  type: "Convolution"
  bottom: "conv4"
  top: "conv5"
  param {
    lr_mult: 1
    decay_mult: 1
  }
  param {
    lr_mult: 2
    decay_mult: 0
  }
  convolution_param {
    num_output: 256
    pad: 1
    kernel_size: 3
    group: 2
    weight_filler {
      type: "gaussian"
      std: 0.01
    }
    bias_filler {
      type: "constant"
      value: 0.1
    }
  }
}
layer {
  name: "relu5"
  type: "ReLU"
  bottom: "conv5"
  top: "conv5"
}
layer {
  name: "pool5"
  type: "Pooling"
  bottom: "conv5"
  top: "pool5"
  pooling_param {
    pool: MAX
    kernel_size: 3
    stride: 2
  }
}
layer {
  name: "fc6"
  type: "InnerProduct"
  bottom: "pool5"
  top: "fc6"
  param {
    lr_mult: 1
    decay_mult: 1
  }
  param {
    lr_mult: 2
    decay_mult: 0
  }
  inner_product_param {
    num_output: 4096
    weight_filler {
      type: "gaussian"
      std: 0.005
    }
    bias_filler {
      type: "constant"
      value: 0.1
    }
  }
}
layer {
  name: "relu6"
  type: "ReLU"
  bottom: "fc6"
  top: "fc6"
}
layer {
  name: "drop6"
  type: "Dropout"
  bottom: "fc6"
  top: "fc6"
  dropout_param {
    dropout_ratio: 0.5
  }
}
layer {
  name: "fc7"
  type: "InnerProduct"
  bottom: "fc6"
  top: "fc7"
  param {
    lr_mult: 1
    decay_mult: 1
  }
  param {
    lr_mult: 2
    decay_mult: 0
  }
  inner_product_param {
    num_output: 4096
    weight_filler {
      type: "gaussian"
      std: 0.005
    }
    bias_filler {
      type: "constant"
      value: 0.1
    }
  }
}
layer {
  name: "relu7"
  type: "ReLU"
  bottom: "fc7"
  top: "fc7"
}
layer {
  name: "drop7"
  type: "Dropout"
  bottom: "fc7"
  top: "fc7"
  dropout_param {
    dropout_ratio: 0.5
  }
}
layer {
  name: "fc8"
  type: "InnerProduct"
  bottom: "fc7"
  top: "fc8"
  param {
    lr_mult: 1
    decay_mult: 1
  }
  param {
    lr_mult: 2
    decay_mult: 0
  }
  inner_product_param {
    num_output: 2
    weight_filler {
      type: "gaussian"
      std: 0.01
    }
    bias_filler {
      type: "constant"
      value: 0
    }
  }
}
layer {
  name: "loss"
  type: "SoftmaxWithLoss"
  bottom: "fc8"
  bottom: "label"
  top: "loss"
}
I0806 12:46:12.000453 11799 layer_factory.hpp:77] Creating layer mnist
I0806 12:46:12.001154 11799 net.cpp:91] Creating Layer mnist
I0806 12:46:12.001166 11799 net.cpp:399] mnist -> data
I0806 12:46:12.001175 11799 net.cpp:399] mnist -> label
I0806 12:46:12.001186 11799 data_transformer.cpp:25] Loading mean file from: data/person_only_lmdb/person_background_only_color_mean.binaryproto
I0806 12:46:12.002544 11806 db_lmdb.cpp:35] Opened lmdb data/person_only_lmdb/person_background_only_train_lmdb
I0806 12:46:24.782145 11799 data_layer.cpp:41] output data size: 64,3,128,128
I0806 12:46:24.805656 11799 net.cpp:141] Setting up mnist
I0806 12:46:24.805693 11799 net.cpp:148] Top shape: 64 3 128 128 (3145728)
I0806 12:46:24.805698 11799 net.cpp:148] Top shape: 64 (64)
I0806 12:46:24.805701 11799 net.cpp:156] Memory required for data: 12583168
I0806 12:46:24.805707 11799 layer_factory.hpp:77] Creating layer conv1
I0806 12:46:24.805757 11799 net.cpp:91] Creating Layer conv1
I0806 12:46:24.805764 11799 net.cpp:425] conv1 <- data
I0806 12:46:24.805773 11799 net.cpp:399] conv1 -> conv1
I0806 12:46:24.937885 11799 net.cpp:141] Setting up conv1
I0806 12:46:24.937916 11799 net.cpp:148] Top shape: 64 96 30 30 (5529600)
I0806 12:46:24.937919 11799 net.cpp:156] Memory required for data: 34701568
I0806 12:46:24.937937 11799 layer_factory.hpp:77] Creating layer relu1
I0806 12:46:24.937949 11799 net.cpp:91] Creating Layer relu1
I0806 12:46:24.937953 11799 net.cpp:425] relu1 <- conv1
I0806 12:46:24.937958 11799 net.cpp:386] relu1 -> conv1 (in-place)
I0806 12:46:24.938135 11799 net.cpp:141] Setting up relu1
I0806 12:46:24.938154 11799 net.cpp:148] Top shape: 64 96 30 30 (5529600)
I0806 12:46:24.938158 11799 net.cpp:156] Memory required for data: 56819968
I0806 12:46:24.938161 11799 layer_factory.hpp:77] Creating layer norm1
I0806 12:46:24.938169 11799 net.cpp:91] Creating Layer norm1
I0806 12:46:24.938172 11799 net.cpp:425] norm1 <- conv1
I0806 12:46:24.938176 11799 net.cpp:399] norm1 -> norm1
I0806 12:46:24.938473 11799 net.cpp:141] Setting up norm1
I0806 12:46:24.938485 11799 net.cpp:148] Top shape: 64 96 30 30 (5529600)
I0806 12:46:24.938488 11799 net.cpp:156] Memory required for data: 78938368
I0806 12:46:24.938491 11799 layer_factory.hpp:77] Creating layer pool1
I0806 12:46:24.938500 11799 net.cpp:91] Creating Layer pool1
I0806 12:46:24.938503 11799 net.cpp:425] pool1 <- norm1
I0806 12:46:24.938508 11799 net.cpp:399] pool1 -> pool1
I0806 12:46:24.938550 11799 net.cpp:141] Setting up pool1
I0806 12:46:24.938556 11799 net.cpp:148] Top shape: 64 96 15 15 (1382400)
I0806 12:46:24.938558 11799 net.cpp:156] Memory required for data: 84467968
I0806 12:46:24.938561 11799 layer_factory.hpp:77] Creating layer conv2
I0806 12:46:24.938572 11799 net.cpp:91] Creating Layer conv2
I0806 12:46:24.938575 11799 net.cpp:425] conv2 <- pool1
I0806 12:46:24.938580 11799 net.cpp:399] conv2 -> conv2
I0806 12:46:24.948029 11799 net.cpp:141] Setting up conv2
I0806 12:46:24.948042 11799 net.cpp:148] Top shape: 64 256 15 15 (3686400)
I0806 12:46:24.948045 11799 net.cpp:156] Memory required for data: 99213568
I0806 12:46:24.948053 11799 layer_factory.hpp:77] Creating layer relu2
I0806 12:46:24.948060 11799 net.cpp:91] Creating Layer relu2
I0806 12:46:24.948063 11799 net.cpp:425] relu2 <- conv2
I0806 12:46:24.948066 11799 net.cpp:386] relu2 -> conv2 (in-place)
I0806 12:46:24.948350 11799 net.cpp:141] Setting up relu2
I0806 12:46:24.948362 11799 net.cpp:148] Top shape: 64 256 15 15 (3686400)
I0806 12:46:24.948365 11799 net.cpp:156] Memory required for data: 113959168
I0806 12:46:24.948369 11799 layer_factory.hpp:77] Creating layer norm2
I0806 12:46:24.948374 11799 net.cpp:91] Creating Layer norm2
I0806 12:46:24.948377 11799 net.cpp:425] norm2 <- conv2
I0806 12:46:24.948382 11799 net.cpp:399] norm2 -> norm2
I0806 12:46:24.948585 11799 net.cpp:141] Setting up norm2
I0806 12:46:24.948596 11799 net.cpp:148] Top shape: 64 256 15 15 (3686400)
I0806 12:46:24.948598 11799 net.cpp:156] Memory required for data: 128704768
I0806 12:46:24.948601 11799 layer_factory.hpp:77] Creating layer pool2
I0806 12:46:24.948609 11799 net.cpp:91] Creating Layer pool2
I0806 12:46:24.948612 11799 net.cpp:425] pool2 <- norm2
I0806 12:46:24.948616 11799 net.cpp:399] pool2 -> pool2
I0806 12:46:24.948660 11799 net.cpp:141] Setting up pool2
I0806 12:46:24.948667 11799 net.cpp:148] Top shape: 64 256 7 7 (802816)
I0806 12:46:24.948669 11799 net.cpp:156] Memory required for data: 131916032
I0806 12:46:24.948671 11799 layer_factory.hpp:77] Creating layer conv3
I0806 12:46:24.948681 11799 net.cpp:91] Creating Layer conv3
I0806 12:46:24.948683 11799 net.cpp:425] conv3 <- pool2
I0806 12:46:24.948690 11799 net.cpp:399] conv3 -> conv3
I0806 12:46:24.972962 11799 net.cpp:141] Setting up conv3
I0806 12:46:24.972978 11799 net.cpp:148] Top shape: 64 384 7 7 (1204224)
I0806 12:46:24.972981 11799 net.cpp:156] Memory required for data: 136732928
I0806 12:46:24.972990 11799 layer_factory.hpp:77] Creating layer relu3
I0806 12:46:24.972995 11799 net.cpp:91] Creating Layer relu3
I0806 12:46:24.972998 11799 net.cpp:425] relu3 <- conv3
I0806 12:46:24.973003 11799 net.cpp:386] relu3 -> conv3 (in-place)
I0806 12:46:24.973291 11799 net.cpp:141] Setting up relu3
I0806 12:46:24.973302 11799 net.cpp:148] Top shape: 64 384 7 7 (1204224)
I0806 12:46:24.973305 11799 net.cpp:156] Memory required for data: 141549824
I0806 12:46:24.973309 11799 layer_factory.hpp:77] Creating layer conv4
I0806 12:46:24.973318 11799 net.cpp:91] Creating Layer conv4
I0806 12:46:24.973321 11799 net.cpp:425] conv4 <- conv3
I0806 12:46:24.973328 11799 net.cpp:399] conv4 -> conv4
I0806 12:46:24.992246 11799 net.cpp:141] Setting up conv4
I0806 12:46:24.992260 11799 net.cpp:148] Top shape: 64 384 7 7 (1204224)
I0806 12:46:24.992264 11799 net.cpp:156] Memory required for data: 146366720
I0806 12:46:24.992269 11799 layer_factory.hpp:77] Creating layer relu4
I0806 12:46:24.992274 11799 net.cpp:91] Creating Layer relu4
I0806 12:46:24.992277 11799 net.cpp:425] relu4 <- conv4
I0806 12:46:24.992281 11799 net.cpp:386] relu4 -> conv4 (in-place)
I0806 12:46:24.992561 11799 net.cpp:141] Setting up relu4
I0806 12:46:24.992573 11799 net.cpp:148] Top shape: 64 384 7 7 (1204224)
I0806 12:46:24.992576 11799 net.cpp:156] Memory required for data: 151183616
I0806 12:46:24.992578 11799 layer_factory.hpp:77] Creating layer conv5
I0806 12:46:24.992588 11799 net.cpp:91] Creating Layer conv5
I0806 12:46:24.992591 11799 net.cpp:425] conv5 <- conv4
I0806 12:46:24.992597 11799 net.cpp:399] conv5 -> conv5
I0806 12:46:25.005836 11799 net.cpp:141] Setting up conv5
I0806 12:46:25.005849 11799 net.cpp:148] Top shape: 64 256 7 7 (802816)
I0806 12:46:25.005852 11799 net.cpp:156] Memory required for data: 154394880
I0806 12:46:25.005861 11799 layer_factory.hpp:77] Creating layer relu5
I0806 12:46:25.005867 11799 net.cpp:91] Creating Layer relu5
I0806 12:46:25.005869 11799 net.cpp:425] relu5 <- conv5
I0806 12:46:25.005874 11799 net.cpp:386] relu5 -> conv5 (in-place)
I0806 12:46:25.006153 11799 net.cpp:141] Setting up relu5
I0806 12:46:25.006165 11799 net.cpp:148] Top shape: 64 256 7 7 (802816)
I0806 12:46:25.006168 11799 net.cpp:156] Memory required for data: 157606144
I0806 12:46:25.006171 11799 layer_factory.hpp:77] Creating layer pool5
I0806 12:46:25.006177 11799 net.cpp:91] Creating Layer pool5
I0806 12:46:25.006181 11799 net.cpp:425] pool5 <- conv5
I0806 12:46:25.006186 11799 net.cpp:399] pool5 -> pool5
I0806 12:46:25.006237 11799 net.cpp:141] Setting up pool5
I0806 12:46:25.006242 11799 net.cpp:148] Top shape: 64 256 3 3 (147456)
I0806 12:46:25.006244 11799 net.cpp:156] Memory required for data: 158195968
I0806 12:46:25.006247 11799 layer_factory.hpp:77] Creating layer fc6
I0806 12:46:25.006258 11799 net.cpp:91] Creating Layer fc6
I0806 12:46:25.006261 11799 net.cpp:425] fc6 <- pool5
I0806 12:46:25.006266 11799 net.cpp:399] fc6 -> fc6
I0806 12:46:25.259464 11799 net.cpp:141] Setting up fc6
I0806 12:46:25.259495 11799 net.cpp:148] Top shape: 64 4096 (262144)
I0806 12:46:25.259500 11799 net.cpp:156] Memory required for data: 159244544
I0806 12:46:25.259510 11799 layer_factory.hpp:77] Creating layer relu6
I0806 12:46:25.259519 11799 net.cpp:91] Creating Layer relu6
I0806 12:46:25.259523 11799 net.cpp:425] relu6 <- fc6
I0806 12:46:25.259531 11799 net.cpp:386] relu6 -> fc6 (in-place)
I0806 12:46:25.259781 11799 net.cpp:141] Setting up relu6
I0806 12:46:25.259791 11799 net.cpp:148] Top shape: 64 4096 (262144)
I0806 12:46:25.259794 11799 net.cpp:156] Memory required for data: 160293120
I0806 12:46:25.259798 11799 layer_factory.hpp:77] Creating layer drop6
I0806 12:46:25.259804 11799 net.cpp:91] Creating Layer drop6
I0806 12:46:25.259807 11799 net.cpp:425] drop6 <- fc6
I0806 12:46:25.259811 11799 net.cpp:386] drop6 -> fc6 (in-place)
I0806 12:46:25.259850 11799 net.cpp:141] Setting up drop6
I0806 12:46:25.259855 11799 net.cpp:148] Top shape: 64 4096 (262144)
I0806 12:46:25.259857 11799 net.cpp:156] Memory required for data: 161341696
I0806 12:46:25.259860 11799 layer_factory.hpp:77] Creating layer fc7
I0806 12:46:25.259866 11799 net.cpp:91] Creating Layer fc7
I0806 12:46:25.259870 11799 net.cpp:425] fc7 <- fc6
I0806 12:46:25.259876 11799 net.cpp:399] fc7 -> fc7
I0806 12:46:25.711797 11799 net.cpp:141] Setting up fc7
I0806 12:46:25.711833 11799 net.cpp:148] Top shape: 64 4096 (262144)
I0806 12:46:25.711836 11799 net.cpp:156] Memory required for data: 162390272
I0806 12:46:25.711845 11799 layer_factory.hpp:77] Creating layer relu7
I0806 12:46:25.711855 11799 net.cpp:91] Creating Layer relu7
I0806 12:46:25.711859 11799 net.cpp:425] relu7 <- fc7
I0806 12:46:25.711864 11799 net.cpp:386] relu7 -> fc7 (in-place)
I0806 12:46:25.712278 11799 net.cpp:141] Setting up relu7
I0806 12:46:25.712291 11799 net.cpp:148] Top shape: 64 4096 (262144)
I0806 12:46:25.712294 11799 net.cpp:156] Memory required for data: 163438848
I0806 12:46:25.712296 11799 layer_factory.hpp:77] Creating layer drop7
I0806 12:46:25.712306 11799 net.cpp:91] Creating Layer drop7
I0806 12:46:25.712309 11799 net.cpp:425] drop7 <- fc7
I0806 12:46:25.712313 11799 net.cpp:386] drop7 -> fc7 (in-place)
I0806 12:46:25.712353 11799 net.cpp:141] Setting up drop7
I0806 12:46:25.712358 11799 net.cpp:148] Top shape: 64 4096 (262144)
I0806 12:46:25.712362 11799 net.cpp:156] Memory required for data: 164487424
I0806 12:46:25.712364 11799 layer_factory.hpp:77] Creating layer fc8
I0806 12:46:25.712370 11799 net.cpp:91] Creating Layer fc8
I0806 12:46:25.712375 11799 net.cpp:425] fc8 <- fc7
I0806 12:46:25.712379 11799 net.cpp:399] fc8 -> fc8
I0806 12:46:25.713191 11799 net.cpp:141] Setting up fc8
I0806 12:46:25.713201 11799 net.cpp:148] Top shape: 64 2 (128)
I0806 12:46:25.713204 11799 net.cpp:156] Memory required for data: 164487936
I0806 12:46:25.713210 11799 layer_factory.hpp:77] Creating layer loss
I0806 12:46:25.713217 11799 net.cpp:91] Creating Layer loss
I0806 12:46:25.713220 11799 net.cpp:425] loss <- fc8
I0806 12:46:25.713224 11799 net.cpp:425] loss <- label
I0806 12:46:25.713229 11799 net.cpp:399] loss -> loss
I0806 12:46:25.713237 11799 layer_factory.hpp:77] Creating layer loss
…
I0806 12:46:25.714166 11799 net.cpp:313] The NetState phase (1) differed from the phase (0) specified by a rule in layer mnist
I0806 12:46:25.714331 11799 net.cpp:49] Initializing net from parameters: 
name: "AlexNet"
state {
  phase: TEST
}
layer {
  name: "mnist"
  type: "Data"
  top: "data"
  top: "label"
  include {
    phase: TEST
  }
  transform_param {
    scale: 0.00390625
    mean_file: "data/person_only_lmdb/person_background_only_color_mean.binaryproto"
  }
  data_param {
    source: "data/person_only_lmdb/person_background_only_test_lmdb"
    batch_size: 100
    backend: LMDB
  }
}
layer {
  name: "conv1"
  type: "Convolution"
  bottom: "data"
  top: "conv1"
  param {
    lr_mult: 1
    decay_mult: 1
  }
  param {
    lr_mult: 2
    decay_mult: 0
  }
  convolution_param {
    num_output: 96
    kernel_size: 11
    stride: 4
    weight_filler {
      type: "gaussian"
      std: 0.01
    }
    bias_filler {
      type: "constant"
      value: 0
    }
  }
}
layer {
  name: "relu1"
  type: "ReLU"
  bottom: "conv1"
  top: "conv1"
}
layer {
  name: "norm1"
  type: "LRN"
  bottom: "conv1"
  top: "norm1"
  lrn_param {
    local_size: 5
    alpha: 0.0001
    beta: 0.75
  }
}
layer {
  name: "pool1"
  type: "Pooling"
  bottom: "norm1"
  top: "pool1"
  pooling_param {
    pool: MAX
    kernel_size: 3
    stride: 2
  }
}
layer {
  name: "conv2"
  type: "Convolution"
  bottom: "pool1"
  top: "conv2"
  param {
    lr_mult: 1
    decay_mult: 1
  }
  param {
    lr_mult: 2
    decay_mult: 0
  }
  convolution_param {
    num_output: 256
    pad: 2
    kernel_size: 5
    group: 2
    weight_filler {
      type: "gaussian"
      std: 0.01
    }
    bias_filler {
      type: "constant"
      value: 0.1
    }
  }
}
layer {
  name: "relu2"
  type: "ReLU"
  bottom: "conv2"
  top: "conv2"
}
layer {
  name: "norm2"
  type: "LRN"
  bottom: "conv2"
  top: "norm2"
  lrn_param {
    local_size: 5
    alpha: 0.0001
    beta: 0.75
  }
}
layer {
  name: "pool2"
  type: "Pooling"
  bottom: "norm2"
  top: "pool2"
  pooling_param {
    pool: MAX
    kernel_size: 3
    stride: 2
  }
}
layer {
  name: "conv3"
  type: "Convolution"
  bottom: "pool2"
  top: "conv3"
  param {
    lr_mult: 1
    decay_mult: 1
  }
  param {
    lr_mult: 2
    decay_mult: 0
  }
  convolution_param {
    num_output: 384
    pad: 1
    kernel_size: 3
    weight_filler {
      type: "gaussian"
      std: 0.01
    }
    bias_filler {
      type: "constant"
      value: 0
    }
  }
}
layer {
  name: "relu3"
  type: "ReLU"
  bottom: "conv3"
  top: "conv3"
}
layer {
  name: "conv4"
  type: "Convolution"
  bottom: "conv3"
  top: "conv4"
  param {
    lr_mult: 1
    decay_mult: 1
  }
  param {
    lr_mult: 2
    decay_mult: 0
  }
  convolution_param {
    num_output: 384
    pad: 1
    kernel_size: 3
    group: 2
    weight_filler {
      type: "gaussian"
      std: 0.01
    }
    bias_filler {
      type: "constant"
      value: 0.1
    }
  }
}
layer {
  name: "relu4"
  type: "ReLU"
  bottom: "conv4"
  top: "conv4"
}
layer {
  name: "conv5"
  type: "Convolution"
  bottom: "conv4"
  top: "conv5"
  param {
    lr_mult: 1
    decay_mult: 1
  }
  param {
    lr_mult: 2
    decay_mult: 0
  }
  convolution_param {
    num_output: 256
    pad: 1
    kernel_size: 3
    group: 2
    weight_filler {
      type: "gaussian"
      std: 0.01
    }
    bias_filler {
      type: "constant"
      value: 0.1
    }
  }
}
layer {
  name: "relu5"
  type: "ReLU"
  bottom: "conv5"
  top: "conv5"
}
layer {
  name: "pool5"
  type: "Pooling"
  bottom: "conv5"
  top: "pool5"
  pooling_param {
    pool: MAX
    kernel_size: 3
    stride: 2
  }
}
layer {
  name: "fc6"
  type: "InnerProduct"
  bottom: "pool5"
  top: "fc6"
  param {
    lr_mult: 1
    decay_mult: 1
  }
  param {
    lr_mult: 2
    decay_mult: 0
  }
  inner_product_param {
    num_output: 4096
    weight_filler {
      type: "gaussian"
      std: 0.005
    }
    bias_filler {
      type: "constant"
      value: 0.1
    }
  }
}
layer {
  name: "relu6"
  type: "ReLU"
  bottom: "fc6"
  top: "fc6"
}
layer {
  name: "drop6"
  type: "Dropout"
  bottom: "fc6"
  top: "fc6"
  dropout_param {
    dropout_ratio: 0.5
  }
}
layer {
  name: "fc7"
  type: "InnerProduct"
  bottom: "fc6"
  top: "fc7"
  param {
    lr_mult: 1
    decay_mult: 1
  }
  param {
    lr_mult: 2
    decay_mult: 0
  }
  inner_product_param {
    num_output: 4096
    weight_filler {
      type: "gaussian"
      std: 0.005
    }
    bias_filler {
      type: "constant"
      value: 0.1
    }
  }
}
layer {
  name: "relu7"
  type: "ReLU"
  bottom: "fc7"
  top: "fc7"
}
layer {
  name: "drop7"
  type: "Dropout"
  bottom: "fc7"
  top: "fc7"
  dropout_param {
    dropout_ratio: 0.5
  }
}
layer {
  name: "fc8"
  type: "InnerProduct"
  bottom: "fc7"
  top: "fc8"
  param {
    lr_mult: 1
    decay_mult: 1
  }
  param {
    lr_mult: 2
    decay_mult: 0
  }
  inner_product_param {
    num_output: 2
    weight_filler {
      type: "gaussian"
      std: 0.01
    }
    bias_filler {
      type: "constant"
      value: 0
    }
  }
}
layer {
  name: "accuracy"
  type: "Accuracy"
  bottom: "fc8"
  bottom: "label"
  top: "accuracy"
  include {
    phase: TEST
  }
}
layer {
  name: "loss"
  type: "SoftmaxWithLoss"
  bottom: "fc8"
  bottom: "label"
  top: "loss"
}
I0806 12:46:25.714429 11799 layer_factory.hpp:77] Creating layer mnist
I0806 12:46:25.714529 11799 net.cpp:91] Creating Layer mnist
I0806 12:46:25.714536 11799 net.cpp:399] mnist -> data
I0806 12:46:25.714545 11799 net.cpp:399] mnist -> label
I0806 12:46:25.714551 11799 data_transformer.cpp:25] Loading mean file from: data/person_only_lmdb/person_background_only_color_mean.binaryproto
I0806 12:46:25.716006 11808 db_lmdb.cpp:35] Opened lmdb data/person_only_lmdb/person_background_only_test_lmdb
I0806 12:46:25.716220 11799 data_layer.cpp:41] output data size: 100,3,128,128
I0806 12:46:25.759989 11799 net.cpp:141] Setting up mnist
I0806 12:46:25.760015 11799 net.cpp:148] Top shape: 100 3 128 128 (4915200)
I0806 12:46:25.760020 11799 net.cpp:148] Top shape: 100 (100)
I0806 12:46:25.760022 11799 net.cpp:156] Memory required for data: 19661200
I0806 12:46:25.760027 11799 layer_factory.hpp:77] Creating layer label_mnist_1_split
I0806 12:46:25.760036 11799 net.cpp:91] Creating Layer label_mnist_1_split
I0806 12:46:25.760040 11799 net.cpp:425] label_mnist_1_split <- label
I0806 12:46:25.760047 11799 net.cpp:399] label_mnist_1_split -> label_mnist_1_split_0
I0806 12:46:25.760054 11799 net.cpp:399] label_mnist_1_split -> label_mnist_1_split_1
I0806 12:46:25.760121 11799 net.cpp:141] Setting up label_mnist_1_split
I0806 12:46:25.760128 11799 net.cpp:148] Top shape: 100 (100)
I0806 12:46:25.760130 11799 net.cpp:148] Top shape: 100 (100)
I0806 12:46:25.760133 11799 net.cpp:156] Memory required for data: 19662000
I0806 12:46:25.760135 11799 layer_factory.hpp:77] Creating layer conv1
I0806 12:46:25.760146 11799 net.cpp:91] Creating Layer conv1
I0806 12:46:25.760150 11799 net.cpp:425] conv1 <- data
I0806 12:46:25.760156 11799 net.cpp:399] conv1 -> conv1
I0806 12:46:25.765554 11799 net.cpp:141] Setting up conv1
I0806 12:46:25.765570 11799 net.cpp:148] Top shape: 100 96 30 30 (8640000)
I0806 12:46:25.765574 11799 net.cpp:156] Memory required for data: 54222000
I0806 12:46:25.765584 11799 layer_factory.hpp:77] Creating layer relu1
I0806 12:46:25.765590 11799 net.cpp:91] Creating Layer relu1
I0806 12:46:25.765594 11799 net.cpp:425] relu1 <- conv1
I0806 12:46:25.765599 11799 net.cpp:386] relu1 -> conv1 (in-place)
I0806 12:46:25.765882 11799 net.cpp:141] Setting up relu1
I0806 12:46:25.765892 11799 net.cpp:148] Top shape: 100 96 30 30 (8640000)
I0806 12:46:25.765895 11799 net.cpp:156] Memory required for data: 88782000
I0806 12:46:25.765898 11799 layer_factory.hpp:77] Creating layer norm1
I0806 12:46:25.765905 11799 net.cpp:91] Creating Layer norm1
I0806 12:46:25.765909 11799 net.cpp:425] norm1 <- conv1
I0806 12:46:25.765914 11799 net.cpp:399] norm1 -> norm1
I0806 12:46:25.766114 11799 net.cpp:141] Setting up norm1
I0806 12:46:25.766124 11799 net.cpp:148] Top shape: 100 96 30 30 (8640000)
I0806 12:46:25.766126 11799 net.cpp:156] Memory required for data: 123342000
I0806 12:46:25.766129 11799 layer_factory.hpp:77] Creating layer pool1
I0806 12:46:25.766135 11799 net.cpp:91] Creating Layer pool1
I0806 12:46:25.766139 11799 net.cpp:425] pool1 <- norm1
I0806 12:46:25.766144 11799 net.cpp:399] pool1 -> pool1
I0806 12:46:25.766190 11799 net.cpp:141] Setting up pool1
I0806 12:46:25.766194 11799 net.cpp:148] Top shape: 100 96 15 15 (2160000)
I0806 12:46:25.766197 11799 net.cpp:156] Memory required for data: 131982000
I0806 12:46:25.766199 11799 layer_factory.hpp:77] Creating layer conv2
I0806 12:46:25.766209 11799 net.cpp:91] Creating Layer conv2
I0806 12:46:25.766212 11799 net.cpp:425] conv2 <- pool1
I0806 12:46:25.766217 11799 net.cpp:399] conv2 -> conv2
I0806 12:46:25.775912 11799 net.cpp:141] Setting up conv2
I0806 12:46:25.775924 11799 net.cpp:148] Top shape: 100 256 15 15 (5760000)
I0806 12:46:25.775928 11799 net.cpp:156] Memory required for data: 155022000
I0806 12:46:25.775936 11799 layer_factory.hpp:77] Creating layer relu2
I0806 12:46:25.775941 11799 net.cpp:91] Creating Layer relu2
I0806 12:46:25.775944 11799 net.cpp:425] relu2 <- conv2
I0806 12:46:25.775949 11799 net.cpp:386] relu2 -> conv2 (in-place)
I0806 12:46:25.776228 11799 net.cpp:141] Setting up relu2
I0806 12:46:25.776240 11799 net.cpp:148] Top shape: 100 256 15 15 (5760000)
I0806 12:46:25.776242 11799 net.cpp:156] Memory required for data: 178062000
I0806 12:46:25.776245 11799 layer_factory.hpp:77] Creating layer norm2
I0806 12:46:25.776253 11799 net.cpp:91] Creating Layer norm2
I0806 12:46:25.776257 11799 net.cpp:425] norm2 <- conv2
I0806 12:46:25.776260 11799 net.cpp:399] norm2 -> norm2
I0806 12:46:25.776464 11799 net.cpp:141] Setting up norm2
I0806 12:46:25.776474 11799 net.cpp:148] Top shape: 100 256 15 15 (5760000)
I0806 12:46:25.776476 11799 net.cpp:156] Memory required for data: 201102000
I0806 12:46:25.776479 11799 layer_factory.hpp:77] Creating layer pool2
I0806 12:46:25.776484 11799 net.cpp:91] Creating Layer pool2
I0806 12:46:25.776486 11799 net.cpp:425] pool2 <- norm2
I0806 12:46:25.776492 11799 net.cpp:399] pool2 -> pool2
I0806 12:46:25.776536 11799 net.cpp:141] Setting up pool2
I0806 12:46:25.776541 11799 net.cpp:148] Top shape: 100 256 7 7 (1254400)
I0806 12:46:25.776545 11799 net.cpp:156] Memory required for data: 206119600
I0806 12:46:25.776546 11799 layer_factory.hpp:77] Creating layer conv3
I0806 12:46:25.776556 11799 net.cpp:91] Creating Layer conv3
I0806 12:46:25.776559 11799 net.cpp:425] conv3 <- pool2
I0806 12:46:25.776564 11799 net.cpp:399] conv3 -> conv3
I0806 12:46:25.800828 11799 net.cpp:141] Setting up conv3
I0806 12:46:25.800842 11799 net.cpp:148] Top shape: 100 384 7 7 (1881600)
I0806 12:46:25.800845 11799 net.cpp:156] Memory required for data: 213646000
I0806 12:46:25.800853 11799 layer_factory.hpp:77] Creating layer relu3
I0806 12:46:25.800859 11799 net.cpp:91] Creating Layer relu3
I0806 12:46:25.800863 11799 net.cpp:425] relu3 <- conv3
I0806 12:46:25.800866 11799 net.cpp:386] relu3 -> conv3 (in-place)
I0806 12:46:25.801048 11799 net.cpp:141] Setting up relu3
I0806 12:46:25.801057 11799 net.cpp:148] Top shape: 100 384 7 7 (1881600)
I0806 12:46:25.801060 11799 net.cpp:156] Memory required for data: 221172400
I0806 12:46:25.801064 11799 layer_factory.hpp:77] Creating layer conv4
I0806 12:46:25.801074 11799 net.cpp:91] Creating Layer conv4
I0806 12:46:25.801076 11799 net.cpp:425] conv4 <- conv3
I0806 12:46:25.801080 11799 net.cpp:399] conv4 -> conv4
I0806 12:46:25.820341 11799 net.cpp:141] Setting up conv4
I0806 12:46:25.820355 11799 net.cpp:148] Top shape: 100 384 7 7 (1881600)
I0806 12:46:25.820358 11799 net.cpp:156] Memory required for data: 228698800
I0806 12:46:25.820364 11799 layer_factory.hpp:77] Creating layer relu4
I0806 12:46:25.820371 11799 net.cpp:91] Creating Layer relu4
I0806 12:46:25.820374 11799 net.cpp:425] relu4 <- conv4
I0806 12:46:25.820379 11799 net.cpp:386] relu4 -> conv4 (in-place)
I0806 12:46:25.820688 11799 net.cpp:141] Setting up relu4
I0806 12:46:25.820700 11799 net.cpp:148] Top shape: 100 384 7 7 (1881600)
I0806 12:46:25.820703 11799 net.cpp:156] Memory required for data: 236225200
I0806 12:46:25.820706 11799 layer_factory.hpp:77] Creating layer conv5
I0806 12:46:25.820718 11799 net.cpp:91] Creating Layer conv5
I0806 12:46:25.820720 11799 net.cpp:425] conv5 <- conv4
I0806 12:46:25.820725 11799 net.cpp:399] conv5 -> conv5
I0806 12:46:25.833904 11799 net.cpp:141] Setting up conv5
I0806 12:46:25.833919 11799 net.cpp:148] Top shape: 100 256 7 7 (1254400)
I0806 12:46:25.833921 11799 net.cpp:156] Memory required for data: 241242800
I0806 12:46:25.833931 11799 layer_factory.hpp:77] Creating layer relu5
I0806 12:46:25.833936 11799 net.cpp:91] Creating Layer relu5
I0806 12:46:25.833940 11799 net.cpp:425] relu5 <- conv5
I0806 12:46:25.833943 11799 net.cpp:386] relu5 -> conv5 (in-place)
I0806 12:46:25.834231 11799 net.cpp:141] Setting up relu5
I0806 12:46:25.834244 11799 net.cpp:148] Top shape: 100 256 7 7 (1254400)
I0806 12:46:25.834247 11799 net.cpp:156] Memory required for data: 246260400
I0806 12:46:25.834250 11799 layer_factory.hpp:77] Creating layer pool5
I0806 12:46:25.834257 11799 net.cpp:91] Creating Layer pool5
I0806 12:46:25.834260 11799 net.cpp:425] pool5 <- conv5
I0806 12:46:25.834266 11799 net.cpp:399] pool5 -> pool5
I0806 12:46:25.834321 11799 net.cpp:141] Setting up pool5
I0806 12:46:25.834326 11799 net.cpp:148] Top shape: 100 256 3 3 (230400)
I0806 12:46:25.834328 11799 net.cpp:156] Memory required for data: 247182000
I0806 12:46:25.834331 11799 layer_factory.hpp:77] Creating layer fc6
I0806 12:46:25.834339 11799 net.cpp:91] Creating Layer fc6
I0806 12:46:25.834342 11799 net.cpp:425] fc6 <- pool5
I0806 12:46:25.834348 11799 net.cpp:399] fc6 -> fc6
I0806 12:46:26.092819 11799 net.cpp:141] Setting up fc6
I0806 12:46:26.092854 11799 net.cpp:148] Top shape: 100 4096 (409600)
I0806 12:46:26.092856 11799 net.cpp:156] Memory required for data: 248820400
I0806 12:46:26.092867 11799 layer_factory.hpp:77] Creating layer relu6
I0806 12:46:26.092877 11799 net.cpp:91] Creating Layer relu6
I0806 12:46:26.092881 11799 net.cpp:425] relu6 <- fc6
I0806 12:46:26.092887 11799 net.cpp:386] relu6 -> fc6 (in-place)
I0806 12:46:26.093180 11799 net.cpp:141] Setting up relu6
I0806 12:46:26.093191 11799 net.cpp:148] Top shape: 100 4096 (409600)
I0806 12:46:26.093194 11799 net.cpp:156] Memory required for data: 250458800
I0806 12:46:26.093196 11799 layer_factory.hpp:77] Creating layer drop6
I0806 12:46:26.093204 11799 net.cpp:91] Creating Layer drop6
I0806 12:46:26.093207 11799 net.cpp:425] drop6 <- fc6
I0806 12:46:26.093211 11799 net.cpp:386] drop6 -> fc6 (in-place)
I0806 12:46:26.093250 11799 net.cpp:141] Setting up drop6
I0806 12:46:26.093255 11799 net.cpp:148] Top shape: 100 4096 (409600)
I0806 12:46:26.093257 11799 net.cpp:156] Memory required for data: 252097200
I0806 12:46:26.093260 11799 layer_factory.hpp:77] Creating layer fc7
I0806 12:46:26.093271 11799 net.cpp:91] Creating Layer fc7
I0806 12:46:26.093273 11799 net.cpp:425] fc7 <- fc6
I0806 12:46:26.093279 11799 net.cpp:399] fc7 -> fc7
I0806 12:46:26.546569 11799 net.cpp:141] Setting up fc7
I0806 12:46:26.546604 11799 net.cpp:148] Top shape: 100 4096 (409600)
I0806 12:46:26.546608 11799 net.cpp:156] Memory required for data: 253735600
I0806 12:46:26.546618 11799 layer_factory.hpp:77] Creating layer relu7
I0806 12:46:26.546627 11799 net.cpp:91] Creating Layer relu7
I0806 12:46:26.546632 11799 net.cpp:425] relu7 <- fc7
I0806 12:46:26.546638 11799 net.cpp:386] relu7 -> fc7 (in-place)
I0806 12:46:26.547104 11799 net.cpp:141] Setting up relu7
I0806 12:46:26.547116 11799 net.cpp:148] Top shape: 100 4096 (409600)
I0806 12:46:26.547119 11799 net.cpp:156] Memory required for data: 255374000
I0806 12:46:26.547122 11799 layer_factory.hpp:77] Creating layer drop7
I0806 12:46:26.547129 11799 net.cpp:91] Creating Layer drop7
I0806 12:46:26.547132 11799 net.cpp:425] drop7 <- fc7
I0806 12:46:26.547138 11799 net.cpp:386] drop7 -> fc7 (in-place)
I0806 12:46:26.547176 11799 net.cpp:141] Setting up drop7
I0806 12:46:26.547183 11799 net.cpp:148] Top shape: 100 4096 (409600)
I0806 12:46:26.547184 11799 net.cpp:156] Memory required for data: 257012400
I0806 12:46:26.547188 11799 layer_factory.hpp:77] Creating layer fc8
I0806 12:46:26.547196 11799 net.cpp:91] Creating Layer fc8
I0806 12:46:26.547199 11799 net.cpp:425] fc8 <- fc7
I0806 12:46:26.547204 11799 net.cpp:399] fc8 -> fc8
I0806 12:46:26.547540 11799 net.cpp:141] Setting up fc8
I0806 12:46:26.547549 11799 net.cpp:148] Top shape: 100 2 (200)
I0806 12:46:26.547551 11799 net.cpp:156] Memory required for data: 257013200
I0806 12:46:26.547557 11799 layer_factory.hpp:77] Creating layer fc8_fc8_0_split
I0806 12:46:26.547564 11799 net.cpp:91] Creating Layer fc8_fc8_0_split
I0806 12:46:26.547566 11799 net.cpp:425] fc8_fc8_0_split <- fc8
I0806 12:46:26.547570 11799 net.cpp:399] fc8_fc8_0_split -> fc8_fc8_0_split_0
I0806 12:46:26.547575 11799 net.cpp:399] fc8_fc8_0_split -> fc8_fc8_0_split_1
I0806 12:46:26.547628 11799 net.cpp:141] Setting up fc8_fc8_0_split
I0806 12:46:26.547634 11799 net.cpp:148] Top shape: 100 2 (200)
I0806 12:46:26.547638 11799 net.cpp:148] Top shape: 100 2 (200)
I0806 12:46:26.547641 11799 net.cpp:156] Memory required for data: 257014800
I0806 12:46:26.547643 11799 layer_factory.hpp:77] Creating layer accuracy
I0806 12:46:26.547649 11799 net.cpp:91] Creating Layer accuracy
I0806 12:46:26.547653 11799 net.cpp:425] accuracy <- fc8_fc8_0_split_0
I0806 12:46:26.547657 11799 net.cpp:425] accuracy <- label_mnist_1_split_0
I0806 12:46:26.547662 11799 net.cpp:399] accuracy -> accuracy
…
