…
I0822 10:40:50.102398 30913 net.cpp:322] The NetState phase (0) differed from the phase (1) specified by a rule in layer accuracy
I0822 10:40:50.102540 30913 net.cpp:58] Initializing net from parameters: 
name: "AlexNet"
state {
  phase: TRAIN
}
layer {
  name: "mnist"
  type: "Data"
  top: "data"
  top: "label"
  include {
    phase: TRAIN
  }
  transform_param {
    scale: 0.00390625
    mean_file: "data/person_only_lmdb/person_background_only_color_mean.binaryproto"
  }
  data_param {
    source: "data/person_only_lmdb/person_background_only_train_lmdb"
    batch_size: 64
    backend: LMDB
  }
}
layer {
  name: "conv1"
  type: "Convolution"
  bottom: "data"
  top: "conv1"
  param {
    lr_mult: 1
    decay_mult: 1
  }
  param {
    lr_mult: 2
    decay_mult: 0
  }
  convolution_param {
    num_output: 96
    kernel_size: 11
    stride: 4
    weight_filler {
      type: "gaussian"
      std: 0.01
    }
    bias_filler {
      type: "constant"
      value: 0
    }
  }
}
layer {
  name: "relu1"
  type: "ReLU"
  bottom: "conv1"
  top: "conv1"
}
layer {
  name: "norm1"
  type: "LRN"
  bottom: "conv1"
  top: "norm1"
  lrn_param {
    local_size: 5
    alpha: 0.0001
    beta: 0.75
  }
}
layer {
  name: "pool1"
  type: "Pooling"
  bottom: "norm1"
  top: "pool1"
  pooling_param {
    pool: MAX
    kernel_size: 3
    stride: 2
  }
}
layer {
  name: "conv2"
  type: "Convolution"
  bottom: "pool1"
  top: "conv2"
  param {
    lr_mult: 1
    decay_mult: 1
  }
  param {
    lr_mult: 2
    decay_mult: 0
  }
  convolution_param {
    num_output: 256
    pad: 2
    kernel_size: 5
    group: 2
    weight_filler {
      type: "gaussian"
      std: 0.01
    }
    bias_filler {
      type: "constant"
      value: 0.1
    }
  }
}
layer {
  name: "relu2"
  type: "ReLU"
  bottom: "conv2"
  top: "conv2"
}
layer {
  name: "norm2"
  type: "LRN"
  bottom: "conv2"
  top: "norm2"
  lrn_param {
    local_size: 5
    alpha: 0.0001
    beta: 0.75
  }
}
layer {
  name: "pool2"
  type: "Pooling"
  bottom: "norm2"
  top: "pool2"
  pooling_param {
    pool: MAX
    kernel_size: 3
    stride: 2
  }
}
layer {
  name: "conv3"
  type: "Convolution"
  bottom: "pool2"
  top: "conv3"
  param {
    lr_mult: 1
    decay_mult: 1
  }
  param {
    lr_mult: 2
    decay_mult: 0
  }
  convolution_param {
    num_output: 384
    pad: 1
    kernel_size: 3
    weight_filler {
      type: "gaussian"
      std: 0.01
    }
    bias_filler {
      type: "constant"
      value: 0
    }
  }
}
layer {
  name: "relu3"
  type: "ReLU"
  bottom: "conv3"
  top: "conv3"
}
layer {
  name: "conv4"
  type: "Convolution"
  bottom: "conv3"
  top: "conv4"
  param {
    lr_mult: 1
    decay_mult: 1
  }
  param {
    lr_mult: 2
    decay_mult: 0
  }
  convolution_param {
    num_output: 384
    pad: 1
    kernel_size: 3
    group: 2
    weight_filler {
      type: "gaussian"
      std: 0.01
    }
    bias_filler {
      type: "constant"
      value: 0.1
    }
  }
}
layer {
  name: "relu4"
  type: "ReLU"
  bottom: "conv4"
  top: "conv4"
}
layer {
  name: "conv5"
  type: "Convolution"
  bottom: "conv4"
  top: "conv5"
  param {
    lr_mult: 1
    decay_mult: 1
  }
  param {
    lr_mult: 2
    decay_mult: 0
  }
  convolution_param {
    num_output: 256
    pad: 1
    kernel_size: 3
    group: 2
    weight_filler {
      type: "gaussian"
      std: 0.01
    }
    bias_filler {
      type: "constant"
      value: 0.1
    }
  }
}
layer {
  name: "relu5"
  type: "ReLU"
  bottom: "conv5"
  top: "conv5"
}
layer {
  name: "pool5"
  type: "Pooling"
  bottom: "conv5"
  top: "pool5"
  pooling_param {
    pool: MAX
    kernel_size: 3
    stride: 2
  }
}
layer {
  name: "fc6"
  type: "InnerProduct"
  bottom: "pool5"
  top: "fc6"
  param {
    lr_mult: 1
    decay_mult: 1
  }
  param {
    lr_mult: 2
    decay_mult: 0
  }
  inner_product_param {
    num_output: 4096
    weight_filler {
      type: "gaussian"
      std: 0.005
    }
    bias_filler {
      type: "constant"
      value: 0.1
    }
  }
}
layer {
  name: "relu6"
  type: "ReLU"
  bottom: "fc6"
  top: "fc6"
}
layer {
  name: "drop6"
  type: "Dropout"
  bottom: "fc6"
  top: "fc6"
  dropout_param {
    dropout_ratio: 0.5
  }
}
layer {
  name: "fc7"
  type: "InnerProduct"
  bottom: "fc6"
  top: "fc7"
  param {
    lr_mult: 1
    decay_mult: 1
  }
  param {
    lr_mult: 2
    decay_mult: 0
  }
  inner_product_param {
    num_output: 4096
    weight_filler {
      type: "gaussian"
      std: 0.005
    }
    bias_filler {
      type: "constant"
      value: 0.1
    }
  }
}
layer {
  name: "relu7"
  type: "ReLU"
  bottom: "fc7"
  top: "fc7"
}
layer {
  name: "drop7"
  type: "Dropout"
  bottom: "fc7"
  top: "fc7"
  dropout_param {
    dropout_ratio: 0.5
  }
}
layer {
  name: "fc8"
  type: "InnerProduct"
  bottom: "fc7"
  top: "fc8"
  param {
    lr_mult: 1
    decay_mult: 1
  }
  param {
    lr_mult: 2
    decay_mult: 0
  }
  inner_product_param {
    num_output: 2
    weight_filler {
      type: "gaussian"
      std: 0.01
    }
    bias_filler {
      type: "constant"
      value: 0
    }
  }
}
layer {
  name: "loss"
  type: "SoftmaxWithLoss"
  bottom: "fc8"
  bottom: "label"
  top: "loss"
}
I0822 10:40:50.102614 30913 layer_factory.hpp:77] Creating layer mnist
I0822 10:40:50.103104 30913 net.cpp:100] Creating Layer mnist
I0822 10:40:50.103116 30913 net.cpp:408] mnist -> data
I0822 10:40:50.103129 30913 net.cpp:408] mnist -> label
I0822 10:40:50.103144 30913 data_transformer.cpp:25] Loading mean file from: data/person_only_lmdb/person_background_only_color_mean.binaryproto
I0822 10:40:50.104677 30922 db_lmdb.cpp:35] Opened lmdb data/person_only_lmdb/person_background_only_train_lmdb
I0822 10:40:50.138622 30913 data_layer.cpp:41] output data size: 64,3,128,128
I0822 10:40:50.169445 30913 net.cpp:150] Setting up mnist
I0822 10:40:50.169492 30913 net.cpp:157] Top shape: 64 3 128 128 (3145728)
I0822 10:40:50.169502 30913 net.cpp:157] Top shape: 64 (64)
I0822 10:40:50.169505 30913 net.cpp:165] Memory required for data: 12583168
I0822 10:40:50.169515 30913 layer_factory.hpp:77] Creating layer conv1
I0822 10:40:50.169545 30913 net.cpp:100] Creating Layer conv1
I0822 10:40:50.169551 30913 net.cpp:434] conv1 <- data
I0822 10:40:50.169564 30913 net.cpp:408] conv1 -> conv1
I0822 10:40:50.476761 30913 net.cpp:150] Setting up conv1
I0822 10:40:50.476797 30913 net.cpp:157] Top shape: 64 96 30 30 (5529600)
I0822 10:40:50.476801 30913 net.cpp:165] Memory required for data: 34701568
I0822 10:40:50.476819 30913 layer_factory.hpp:77] Creating layer relu1
I0822 10:40:50.476833 30913 net.cpp:100] Creating Layer relu1
I0822 10:40:50.476837 30913 net.cpp:434] relu1 <- conv1
I0822 10:40:50.476843 30913 net.cpp:395] relu1 -> conv1 (in-place)
I0822 10:40:50.477031 30913 net.cpp:150] Setting up relu1
I0822 10:40:50.477043 30913 net.cpp:157] Top shape: 64 96 30 30 (5529600)
I0822 10:40:50.477046 30913 net.cpp:165] Memory required for data: 56819968
I0822 10:40:50.477049 30913 layer_factory.hpp:77] Creating layer norm1
I0822 10:40:50.477059 30913 net.cpp:100] Creating Layer norm1
I0822 10:40:50.477062 30913 net.cpp:434] norm1 <- conv1
I0822 10:40:50.477067 30913 net.cpp:408] norm1 -> norm1
I0822 10:40:50.477555 30913 net.cpp:150] Setting up norm1
I0822 10:40:50.477571 30913 net.cpp:157] Top shape: 64 96 30 30 (5529600)
I0822 10:40:50.477573 30913 net.cpp:165] Memory required for data: 78938368
I0822 10:40:50.477577 30913 layer_factory.hpp:77] Creating layer pool1
I0822 10:40:50.477586 30913 net.cpp:100] Creating Layer pool1
I0822 10:40:50.477589 30913 net.cpp:434] pool1 <- norm1
I0822 10:40:50.477594 30913 net.cpp:408] pool1 -> pool1
I0822 10:40:50.477634 30913 net.cpp:150] Setting up pool1
I0822 10:40:50.477643 30913 net.cpp:157] Top shape: 64 96 15 15 (1382400)
I0822 10:40:50.477646 30913 net.cpp:165] Memory required for data: 84467968
I0822 10:40:50.477648 30913 layer_factory.hpp:77] Creating layer conv2
I0822 10:40:50.477660 30913 net.cpp:100] Creating Layer conv2
I0822 10:40:50.477664 30913 net.cpp:434] conv2 <- pool1
I0822 10:40:50.477669 30913 net.cpp:408] conv2 -> conv2
I0822 10:40:50.483901 30913 net.cpp:150] Setting up conv2
I0822 10:40:50.483917 30913 net.cpp:157] Top shape: 64 256 15 15 (3686400)
I0822 10:40:50.483922 30913 net.cpp:165] Memory required for data: 99213568
I0822 10:40:50.483930 30913 layer_factory.hpp:77] Creating layer relu2
I0822 10:40:50.483937 30913 net.cpp:100] Creating Layer relu2
I0822 10:40:50.483940 30913 net.cpp:434] relu2 <- conv2
I0822 10:40:50.483945 30913 net.cpp:395] relu2 -> conv2 (in-place)
I0822 10:40:50.484418 30913 net.cpp:150] Setting up relu2
I0822 10:40:50.484434 30913 net.cpp:157] Top shape: 64 256 15 15 (3686400)
I0822 10:40:50.484438 30913 net.cpp:165] Memory required for data: 113959168
I0822 10:40:50.484441 30913 layer_factory.hpp:77] Creating layer norm2
I0822 10:40:50.484448 30913 net.cpp:100] Creating Layer norm2
I0822 10:40:50.484452 30913 net.cpp:434] norm2 <- conv2
I0822 10:40:50.484457 30913 net.cpp:408] norm2 -> norm2
I0822 10:40:50.484663 30913 net.cpp:150] Setting up norm2
I0822 10:40:50.484675 30913 net.cpp:157] Top shape: 64 256 15 15 (3686400)
I0822 10:40:50.484678 30913 net.cpp:165] Memory required for data: 128704768
I0822 10:40:50.484683 30913 layer_factory.hpp:77] Creating layer pool2
I0822 10:40:50.484690 30913 net.cpp:100] Creating Layer pool2
I0822 10:40:50.484694 30913 net.cpp:434] pool2 <- norm2
I0822 10:40:50.484699 30913 net.cpp:408] pool2 -> pool2
I0822 10:40:50.484736 30913 net.cpp:150] Setting up pool2
I0822 10:40:50.484745 30913 net.cpp:157] Top shape: 64 256 7 7 (802816)
I0822 10:40:50.484747 30913 net.cpp:165] Memory required for data: 131916032
I0822 10:40:50.484750 30913 layer_factory.hpp:77] Creating layer conv3
I0822 10:40:50.484760 30913 net.cpp:100] Creating Layer conv3
I0822 10:40:50.484763 30913 net.cpp:434] conv3 <- pool2
I0822 10:40:50.484768 30913 net.cpp:408] conv3 -> conv3
I0822 10:40:50.498072 30913 net.cpp:150] Setting up conv3
I0822 10:40:50.498090 30913 net.cpp:157] Top shape: 64 384 7 7 (1204224)
I0822 10:40:50.498095 30913 net.cpp:165] Memory required for data: 136732928
I0822 10:40:50.498105 30913 layer_factory.hpp:77] Creating layer relu3
I0822 10:40:50.498112 30913 net.cpp:100] Creating Layer relu3
I0822 10:40:50.498116 30913 net.cpp:434] relu3 <- conv3
I0822 10:40:50.498121 30913 net.cpp:395] relu3 -> conv3 (in-place)
I0822 10:40:50.498316 30913 net.cpp:150] Setting up relu3
I0822 10:40:50.498327 30913 net.cpp:157] Top shape: 64 384 7 7 (1204224)
I0822 10:40:50.498330 30913 net.cpp:165] Memory required for data: 141549824
I0822 10:40:50.498333 30913 layer_factory.hpp:77] Creating layer conv4
I0822 10:40:50.498344 30913 net.cpp:100] Creating Layer conv4
I0822 10:40:50.498348 30913 net.cpp:434] conv4 <- conv3
I0822 10:40:50.498354 30913 net.cpp:408] conv4 -> conv4
I0822 10:40:50.509551 30913 net.cpp:150] Setting up conv4
I0822 10:40:50.509567 30913 net.cpp:157] Top shape: 64 384 7 7 (1204224)
I0822 10:40:50.509570 30913 net.cpp:165] Memory required for data: 146366720
I0822 10:40:50.509578 30913 layer_factory.hpp:77] Creating layer relu4
I0822 10:40:50.509584 30913 net.cpp:100] Creating Layer relu4
I0822 10:40:50.509588 30913 net.cpp:434] relu4 <- conv4
I0822 10:40:50.509595 30913 net.cpp:395] relu4 -> conv4 (in-place)
I0822 10:40:50.509791 30913 net.cpp:150] Setting up relu4
I0822 10:40:50.509804 30913 net.cpp:157] Top shape: 64 384 7 7 (1204224)
I0822 10:40:50.509807 30913 net.cpp:165] Memory required for data: 151183616
I0822 10:40:50.509810 30913 layer_factory.hpp:77] Creating layer conv5
I0822 10:40:50.509821 30913 net.cpp:100] Creating Layer conv5
I0822 10:40:50.509824 30913 net.cpp:434] conv5 <- conv4
I0822 10:40:50.509831 30913 net.cpp:408] conv5 -> conv5
I0822 10:40:50.518234 30913 net.cpp:150] Setting up conv5
I0822 10:40:50.518250 30913 net.cpp:157] Top shape: 64 256 7 7 (802816)
I0822 10:40:50.518254 30913 net.cpp:165] Memory required for data: 154394880
I0822 10:40:50.518265 30913 layer_factory.hpp:77] Creating layer relu5
I0822 10:40:50.518272 30913 net.cpp:100] Creating Layer relu5
I0822 10:40:50.518276 30913 net.cpp:434] relu5 <- conv5
I0822 10:40:50.518282 30913 net.cpp:395] relu5 -> conv5 (in-place)
I0822 10:40:50.518481 30913 net.cpp:150] Setting up relu5
I0822 10:40:50.518493 30913 net.cpp:157] Top shape: 64 256 7 7 (802816)
I0822 10:40:50.518496 30913 net.cpp:165] Memory required for data: 157606144
I0822 10:40:50.518499 30913 layer_factory.hpp:77] Creating layer pool5
I0822 10:40:50.518507 30913 net.cpp:100] Creating Layer pool5
I0822 10:40:50.518510 30913 net.cpp:434] pool5 <- conv5
I0822 10:40:50.518517 30913 net.cpp:408] pool5 -> pool5
I0822 10:40:50.518563 30913 net.cpp:150] Setting up pool5
I0822 10:40:50.518571 30913 net.cpp:157] Top shape: 64 256 3 3 (147456)
I0822 10:40:50.518574 30913 net.cpp:165] Memory required for data: 158195968
I0822 10:40:50.518578 30913 layer_factory.hpp:77] Creating layer fc6
I0822 10:40:50.518589 30913 net.cpp:100] Creating Layer fc6
I0822 10:40:50.518591 30913 net.cpp:434] fc6 <- pool5
I0822 10:40:50.518599 30913 net.cpp:408] fc6 -> fc6
I0822 10:40:50.649837 30913 net.cpp:150] Setting up fc6
I0822 10:40:50.649873 30913 net.cpp:157] Top shape: 64 4096 (262144)
I0822 10:40:50.649878 30913 net.cpp:165] Memory required for data: 159244544
I0822 10:40:50.649889 30913 layer_factory.hpp:77] Creating layer relu6
I0822 10:40:50.649901 30913 net.cpp:100] Creating Layer relu6
I0822 10:40:50.649905 30913 net.cpp:434] relu6 <- fc6
I0822 10:40:50.649914 30913 net.cpp:395] relu6 -> fc6 (in-place)
I0822 10:40:50.650497 30913 net.cpp:150] Setting up relu6
I0822 10:40:50.650513 30913 net.cpp:157] Top shape: 64 4096 (262144)
I0822 10:40:50.650516 30913 net.cpp:165] Memory required for data: 160293120
I0822 10:40:50.650519 30913 layer_factory.hpp:77] Creating layer drop6
I0822 10:40:50.650528 30913 net.cpp:100] Creating Layer drop6
I0822 10:40:50.650532 30913 net.cpp:434] drop6 <- fc6
I0822 10:40:50.650537 30913 net.cpp:395] drop6 -> fc6 (in-place)
I0822 10:40:50.650569 30913 net.cpp:150] Setting up drop6
I0822 10:40:50.650575 30913 net.cpp:157] Top shape: 64 4096 (262144)
I0822 10:40:50.650578 30913 net.cpp:165] Memory required for data: 161341696
I0822 10:40:50.650581 30913 layer_factory.hpp:77] Creating layer fc7
I0822 10:40:50.650590 30913 net.cpp:100] Creating Layer fc7
I0822 10:40:50.650593 30913 net.cpp:434] fc7 <- fc6
I0822 10:40:50.650599 30913 net.cpp:408] fc7 -> fc7
I0822 10:40:50.881160 30913 net.cpp:150] Setting up fc7
I0822 10:40:50.881202 30913 net.cpp:157] Top shape: 64 4096 (262144)
I0822 10:40:50.881206 30913 net.cpp:165] Memory required for data: 162390272
I0822 10:40:50.881219 30913 layer_factory.hpp:77] Creating layer relu7
I0822 10:40:50.881230 30913 net.cpp:100] Creating Layer relu7
I0822 10:40:50.881235 30913 net.cpp:434] relu7 <- fc7
I0822 10:40:50.881243 30913 net.cpp:395] relu7 -> fc7 (in-place)
I0822 10:40:50.881511 30913 net.cpp:150] Setting up relu7
I0822 10:40:50.881522 30913 net.cpp:157] Top shape: 64 4096 (262144)
I0822 10:40:50.881525 30913 net.cpp:165] Memory required for data: 163438848
I0822 10:40:50.881530 30913 layer_factory.hpp:77] Creating layer drop7
I0822 10:40:50.881537 30913 net.cpp:100] Creating Layer drop7
I0822 10:40:50.881541 30913 net.cpp:434] drop7 <- fc7
I0822 10:40:50.881546 30913 net.cpp:395] drop7 -> fc7 (in-place)
I0822 10:40:50.881577 30913 net.cpp:150] Setting up drop7
I0822 10:40:50.881582 30913 net.cpp:157] Top shape: 64 4096 (262144)
I0822 10:40:50.881584 30913 net.cpp:165] Memory required for data: 164487424
I0822 10:40:50.881587 30913 layer_factory.hpp:77] Creating layer fc8
I0822 10:40:50.881597 30913 net.cpp:100] Creating Layer fc8
I0822 10:40:50.881600 30913 net.cpp:434] fc8 <- fc7
I0822 10:40:50.881606 30913 net.cpp:408] fc8 -> fc8
I0822 10:40:50.883182 30913 net.cpp:150] Setting up fc8
I0822 10:40:50.883195 30913 net.cpp:157] Top shape: 64 2 (128)
I0822 10:40:50.883198 30913 net.cpp:165] Memory required for data: 164487936
I0822 10:40:50.883206 30913 layer_factory.hpp:77] Creating layer loss
I0822 10:40:50.883214 30913 net.cpp:100] Creating Layer loss
I0822 10:40:50.883218 30913 net.cpp:434] loss <- fc8
I0822 10:40:50.883221 30913 net.cpp:434] loss <- label
I0822 10:40:50.883227 30913 net.cpp:408] loss -> loss
I0822 10:40:50.883237 30913 layer_factory.hpp:77] Creating layer loss
…
I0822 10:40:50.884069 30913 net.cpp:322] The NetState phase (1) differed from the phase (0) specified by a rule in layer mnist
I0822 10:40:50.884266 30913 net.cpp:58] Initializing net from parameters: 
name: "AlexNet"
state {
  phase: TEST
}
layer {
  name: "mnist"
  type: "Data"
  top: "data"
  top: "label"
  include {
    phase: TEST
  }
  transform_param {
    scale: 0.00390625
    mean_file: "data/person_only_lmdb/person_background_only_color_mean.binaryproto"
  }
  data_param {
    source: "data/person_only_lmdb/person_background_only_test_lmdb"
    batch_size: 100
    backend: LMDB
  }
}
layer {
  name: "conv1"
  type: "Convolution"
  bottom: "data"
  top: "conv1"
  param {
    lr_mult: 1
    decay_mult: 1
  }
  param {
    lr_mult: 2
    decay_mult: 0
  }
  convolution_param {
    num_output: 96
    kernel_size: 11
    stride: 4
    weight_filler {
      type: "gaussian"
      std: 0.01
    }
    bias_filler {
      type: "constant"
      value: 0
    }
  }
}
layer {
  name: "relu1"
  type: "ReLU"
  bottom: "conv1"
  top: "conv1"
}
layer {
  name: "norm1"
  type: "LRN"
  bottom: "conv1"
  top: "norm1"
  lrn_param {
    local_size: 5
    alpha: 0.0001
    beta: 0.75
  }
}
layer {
  name: "pool1"
  type: "Pooling"
  bottom: "norm1"
  top: "pool1"
  pooling_param {
    pool: MAX
    kernel_size: 3
    stride: 2
  }
}
layer {
  name: "conv2"
  type: "Convolution"
  bottom: "pool1"
  top: "conv2"
  param {
    lr_mult: 1
    decay_mult: 1
  }
  param {
    lr_mult: 2
    decay_mult: 0
  }
  convolution_param {
    num_output: 256
    pad: 2
    kernel_size: 5
    group: 2
    weight_filler {
      type: "gaussian"
      std: 0.01
    }
    bias_filler {
      type: "constant"
      value: 0.1
    }
  }
}
layer {
  name: "relu2"
  type: "ReLU"
  bottom: "conv2"
  top: "conv2"
}
layer {
  name: "norm2"
  type: "LRN"
  bottom: "conv2"
  top: "norm2"
  lrn_param {
    local_size: 5
    alpha: 0.0001
    beta: 0.75
  }
}
layer {
  name: "pool2"
  type: "Pooling"
  bottom: "norm2"
  top: "pool2"
  pooling_param {
    pool: MAX
    kernel_size: 3
    stride: 2
  }
}
layer {
  name: "conv3"
  type: "Convolution"
  bottom: "pool2"
  top: "conv3"
  param {
    lr_mult: 1
    decay_mult: 1
  }
  param {
    lr_mult: 2
    decay_mult: 0
  }
  convolution_param {
    num_output: 384
    pad: 1
    kernel_size: 3
    weight_filler {
      type: "gaussian"
      std: 0.01
    }
    bias_filler {
      type: "constant"
      value: 0
    }
  }
}
layer {
  name: "relu3"
  type: "ReLU"
  bottom: "conv3"
  top: "conv3"
}
layer {
  name: "conv4"
  type: "Convolution"
  bottom: "conv3"
  top: "conv4"
  param {
    lr_mult: 1
    decay_mult: 1
  }
  param {
    lr_mult: 2
    decay_mult: 0
  }
  convolution_param {
    num_output: 384
    pad: 1
    kernel_size: 3
    group: 2
    weight_filler {
      type: "gaussian"
      std: 0.01
    }
    bias_filler {
      type: "constant"
      value: 0.1
    }
  }
}
layer {
  name: "relu4"
  type: "ReLU"
  bottom: "conv4"
  top: "conv4"
}
layer {
  name: "conv5"
  type: "Convolution"
  bottom: "conv4"
  top: "conv5"
  param {
    lr_mult: 1
    decay_mult: 1
  }
  param {
    lr_mult: 2
    decay_mult: 0
  }
  convolution_param {
    num_output: 256
    pad: 1
    kernel_size: 3
    group: 2
    weight_filler {
      type: "gaussian"
      std: 0.01
    }
    bias_filler {
      type: "constant"
      value: 0.1
    }
  }
}
layer {
  name: "relu5"
  type: "ReLU"
  bottom: "conv5"
  top: "conv5"
}
layer {
  name: "pool5"
  type: "Pooling"
  bottom: "conv5"
  top: "pool5"
  pooling_param {
    pool: MAX
    kernel_size: 3
    stride: 2
  }
}
layer {
  name: "fc6"
  type: "InnerProduct"
  bottom: "pool5"
  top: "fc6"
  param {
    lr_mult: 1
    decay_mult: 1
  }
  param {
    lr_mult: 2
    decay_mult: 0
  }
  inner_product_param {
    num_output: 4096
    weight_filler {
      type: "gaussian"
      std: 0.005
    }
    bias_filler {
      type: "constant"
      value: 0.1
    }
  }
}
layer {
  name: "relu6"
  type: "ReLU"
  bottom: "fc6"
  top: "fc6"
}
layer {
  name: "drop6"
  type: "Dropout"
  bottom: "fc6"
  top: "fc6"
  dropout_param {
    dropout_ratio: 0.5
  }
}
layer {
  name: "fc7"
  type: "InnerProduct"
  bottom: "fc6"
  top: "fc7"
  param {
    lr_mult: 1
    decay_mult: 1
  }
  param {
    lr_mult: 2
    decay_mult: 0
  }
  inner_product_param {
    num_output: 4096
    weight_filler {
      type: "gaussian"
      std: 0.005
    }
    bias_filler {
      type: "constant"
      value: 0.1
    }
  }
}
layer {
  name: "relu7"
  type: "ReLU"
  bottom: "fc7"
  top: "fc7"
}
layer {
  name: "drop7"
  type: "Dropout"
  bottom: "fc7"
  top: "fc7"
  dropout_param {
    dropout_ratio: 0.5
  }
}
layer {
  name: "fc8"
  type: "InnerProduct"
  bottom: "fc7"
  top: "fc8"
  param {
    lr_mult: 1
    decay_mult: 1
  }
  param {
    lr_mult: 2
    decay_mult: 0
  }
  inner_product_param {
    num_output: 2
    weight_filler {
      type: "gaussian"
      std: 0.01
    }
    bias_filler {
      type: "constant"
      value: 0
    }
  }
}
layer {
  name: "accuracy"
  type: "Accuracy"
  bottom: "fc8"
  bottom: "label"
  top: "accuracy"
  include {
    phase: TEST
  }
}
layer {
  name: "loss"
  type: "SoftmaxWithLoss"
  bottom: "fc8"
  bottom: "label"
  top: "loss"
}
I0822 10:40:50.884369 30913 layer_factory.hpp:77] Creating layer mnist
I0822 10:40:50.884503 30913 net.cpp:100] Creating Layer mnist
I0822 10:40:50.884513 30913 net.cpp:408] mnist -> data
I0822 10:40:50.884522 30913 net.cpp:408] mnist -> label
I0822 10:40:50.884531 30913 data_transformer.cpp:25] Loading mean file from: data/person_only_lmdb/person_background_only_color_mean.binaryproto
I0822 10:40:50.886013 30924 db_lmdb.cpp:35] Opened lmdb data/person_only_lmdb/person_background_only_test_lmdb
I0822 10:40:50.886376 30913 data_layer.cpp:41] output data size: 100,3,128,128
I0822 10:40:50.942216 30913 net.cpp:150] Setting up mnist
I0822 10:40:50.942258 30913 net.cpp:157] Top shape: 100 3 128 128 (4915200)
I0822 10:40:50.942267 30913 net.cpp:157] Top shape: 100 (100)
I0822 10:40:50.942272 30913 net.cpp:165] Memory required for data: 19661200
I0822 10:40:50.942281 30913 layer_factory.hpp:77] Creating layer label_mnist_1_split
I0822 10:40:50.942301 30913 net.cpp:100] Creating Layer label_mnist_1_split
I0822 10:40:50.942308 30913 net.cpp:434] label_mnist_1_split <- label
I0822 10:40:50.942320 30913 net.cpp:408] label_mnist_1_split -> label_mnist_1_split_0
I0822 10:40:50.942337 30913 net.cpp:408] label_mnist_1_split -> label_mnist_1_split_1
I0822 10:40:50.942633 30913 net.cpp:150] Setting up label_mnist_1_split
I0822 10:40:50.942664 30913 net.cpp:157] Top shape: 100 (100)
I0822 10:40:50.942673 30913 net.cpp:157] Top shape: 100 (100)
I0822 10:40:50.942678 30913 net.cpp:165] Memory required for data: 19662000
I0822 10:40:50.942685 30913 layer_factory.hpp:77] Creating layer conv1
I0822 10:40:50.942708 30913 net.cpp:100] Creating Layer conv1
I0822 10:40:50.942715 30913 net.cpp:434] conv1 <- data
I0822 10:40:50.942729 30913 net.cpp:408] conv1 -> conv1
I0822 10:40:50.947612 30913 net.cpp:150] Setting up conv1
I0822 10:40:50.947644 30913 net.cpp:157] Top shape: 100 96 30 30 (8640000)
I0822 10:40:50.947651 30913 net.cpp:165] Memory required for data: 54222000
I0822 10:40:50.947672 30913 layer_factory.hpp:77] Creating layer relu1
I0822 10:40:50.947685 30913 net.cpp:100] Creating Layer relu1
I0822 10:40:50.947691 30913 net.cpp:434] relu1 <- conv1
I0822 10:40:50.947700 30913 net.cpp:395] relu1 -> conv1 (in-place)
I0822 10:40:50.948057 30913 net.cpp:150] Setting up relu1
I0822 10:40:50.948083 30913 net.cpp:157] Top shape: 100 96 30 30 (8640000)
I0822 10:40:50.948089 30913 net.cpp:165] Memory required for data: 88782000
I0822 10:40:50.948096 30913 layer_factory.hpp:77] Creating layer norm1
I0822 10:40:50.948110 30913 net.cpp:100] Creating Layer norm1
I0822 10:40:50.948117 30913 net.cpp:434] norm1 <- conv1
I0822 10:40:50.948127 30913 net.cpp:408] norm1 -> norm1
I0822 10:40:50.949101 30913 net.cpp:150] Setting up norm1
I0822 10:40:50.949129 30913 net.cpp:157] Top shape: 100 96 30 30 (8640000)
I0822 10:40:50.949136 30913 net.cpp:165] Memory required for data: 123342000
I0822 10:40:50.949143 30913 layer_factory.hpp:77] Creating layer pool1
I0822 10:40:50.949156 30913 net.cpp:100] Creating Layer pool1
I0822 10:40:50.949162 30913 net.cpp:434] pool1 <- norm1
I0822 10:40:50.949172 30913 net.cpp:408] pool1 -> pool1
I0822 10:40:50.949247 30913 net.cpp:150] Setting up pool1
I0822 10:40:50.949261 30913 net.cpp:157] Top shape: 100 96 15 15 (2160000)
I0822 10:40:50.949267 30913 net.cpp:165] Memory required for data: 131982000
I0822 10:40:50.949272 30913 layer_factory.hpp:77] Creating layer conv2
I0822 10:40:50.949291 30913 net.cpp:100] Creating Layer conv2
I0822 10:40:50.949300 30913 net.cpp:434] conv2 <- pool1
I0822 10:40:50.949311 30913 net.cpp:408] conv2 -> conv2
I0822 10:40:50.961397 30913 net.cpp:150] Setting up conv2
I0822 10:40:50.961436 30913 net.cpp:157] Top shape: 100 256 15 15 (5760000)
I0822 10:40:50.961442 30913 net.cpp:165] Memory required for data: 155022000
I0822 10:40:50.961463 30913 layer_factory.hpp:77] Creating layer relu2
I0822 10:40:50.961478 30913 net.cpp:100] Creating Layer relu2
I0822 10:40:50.961488 30913 net.cpp:434] relu2 <- conv2
I0822 10:40:50.961499 30913 net.cpp:395] relu2 -> conv2 (in-place)
I0822 10:40:50.962391 30913 net.cpp:150] Setting up relu2
I0822 10:40:50.962419 30913 net.cpp:157] Top shape: 100 256 15 15 (5760000)
I0822 10:40:50.962426 30913 net.cpp:165] Memory required for data: 178062000
I0822 10:40:50.962432 30913 layer_factory.hpp:77] Creating layer norm2
I0822 10:40:50.962450 30913 net.cpp:100] Creating Layer norm2
I0822 10:40:50.962460 30913 net.cpp:434] norm2 <- conv2
I0822 10:40:50.962471 30913 net.cpp:408] norm2 -> norm2
I0822 10:40:50.962899 30913 net.cpp:150] Setting up norm2
I0822 10:40:50.962923 30913 net.cpp:157] Top shape: 100 256 15 15 (5760000)
I0822 10:40:50.962929 30913 net.cpp:165] Memory required for data: 201102000
I0822 10:40:50.962935 30913 layer_factory.hpp:77] Creating layer pool2
I0822 10:40:50.962947 30913 net.cpp:100] Creating Layer pool2
I0822 10:40:50.962956 30913 net.cpp:434] pool2 <- norm2
I0822 10:40:50.962972 30913 net.cpp:408] pool2 -> pool2
I0822 10:40:50.963047 30913 net.cpp:150] Setting up pool2
I0822 10:40:50.963062 30913 net.cpp:157] Top shape: 100 256 7 7 (1254400)
I0822 10:40:50.963068 30913 net.cpp:165] Memory required for data: 206119600
I0822 10:40:50.963073 30913 layer_factory.hpp:77] Creating layer conv3
I0822 10:40:50.963091 30913 net.cpp:100] Creating Layer conv3
I0822 10:40:50.963099 30913 net.cpp:434] conv3 <- pool2
I0822 10:40:50.963110 30913 net.cpp:408] conv3 -> conv3
I0822 10:40:50.986671 30913 net.cpp:150] Setting up conv3
I0822 10:40:50.986711 30913 net.cpp:157] Top shape: 100 384 7 7 (1881600)
I0822 10:40:50.986716 30913 net.cpp:165] Memory required for data: 213646000
I0822 10:40:50.986739 30913 layer_factory.hpp:77] Creating layer relu3
I0822 10:40:50.986754 30913 net.cpp:100] Creating Layer relu3
I0822 10:40:50.986760 30913 net.cpp:434] relu3 <- conv3
I0822 10:40:50.986771 30913 net.cpp:395] relu3 -> conv3 (in-place)
I0822 10:40:50.987119 30913 net.cpp:150] Setting up relu3
I0822 10:40:50.987138 30913 net.cpp:157] Top shape: 100 384 7 7 (1881600)
I0822 10:40:50.987143 30913 net.cpp:165] Memory required for data: 221172400
I0822 10:40:50.987149 30913 layer_factory.hpp:77] Creating layer conv4
I0822 10:40:50.987167 30913 net.cpp:100] Creating Layer conv4
I0822 10:40:50.987174 30913 net.cpp:434] conv4 <- conv3
I0822 10:40:50.987185 30913 net.cpp:408] conv4 -> conv4
I0822 10:40:51.005022 30913 net.cpp:150] Setting up conv4
I0822 10:40:51.005054 30913 net.cpp:157] Top shape: 100 384 7 7 (1881600)
I0822 10:40:51.005059 30913 net.cpp:165] Memory required for data: 228698800
I0822 10:40:51.005074 30913 layer_factory.hpp:77] Creating layer relu4
I0822 10:40:51.005085 30913 net.cpp:100] Creating Layer relu4
I0822 10:40:51.005091 30913 net.cpp:434] relu4 <- conv4
I0822 10:40:51.005103 30913 net.cpp:395] relu4 -> conv4 (in-place)
I0822 10:40:51.005862 30913 net.cpp:150] Setting up relu4
I0822 10:40:51.005883 30913 net.cpp:157] Top shape: 100 384 7 7 (1881600)
I0822 10:40:51.005888 30913 net.cpp:165] Memory required for data: 236225200
I0822 10:40:51.005893 30913 layer_factory.hpp:77] Creating layer conv5
I0822 10:40:51.005913 30913 net.cpp:100] Creating Layer conv5
I0822 10:40:51.005919 30913 net.cpp:434] conv5 <- conv4
I0822 10:40:51.005931 30913 net.cpp:408] conv5 -> conv5
I0822 10:40:51.019156 30913 net.cpp:150] Setting up conv5
I0822 10:40:51.019184 30913 net.cpp:157] Top shape: 100 256 7 7 (1254400)
I0822 10:40:51.019189 30913 net.cpp:165] Memory required for data: 241242800
I0822 10:40:51.019209 30913 layer_factory.hpp:77] Creating layer relu5
I0822 10:40:51.019225 30913 net.cpp:100] Creating Layer relu5
I0822 10:40:51.019230 30913 net.cpp:434] relu5 <- conv5
I0822 10:40:51.019238 30913 net.cpp:395] relu5 -> conv5 (in-place)
I0822 10:40:51.019531 30913 net.cpp:150] Setting up relu5
I0822 10:40:51.019546 30913 net.cpp:157] Top shape: 100 256 7 7 (1254400)
I0822 10:40:51.019551 30913 net.cpp:165] Memory required for data: 246260400
I0822 10:40:51.019556 30913 layer_factory.hpp:77] Creating layer pool5
I0822 10:40:51.019572 30913 net.cpp:100] Creating Layer pool5
I0822 10:40:51.019575 30913 net.cpp:434] pool5 <- conv5
I0822 10:40:51.019583 30913 net.cpp:408] pool5 -> pool5
I0822 10:40:51.019659 30913 net.cpp:150] Setting up pool5
I0822 10:40:51.019671 30913 net.cpp:157] Top shape: 100 256 3 3 (230400)
I0822 10:40:51.019675 30913 net.cpp:165] Memory required for data: 247182000
I0822 10:40:51.019680 30913 layer_factory.hpp:77] Creating layer fc6
I0822 10:40:51.019690 30913 net.cpp:100] Creating Layer fc6
I0822 10:40:51.019696 30913 net.cpp:434] fc6 <- pool5
I0822 10:40:51.019709 30913 net.cpp:408] fc6 -> fc6
I0822 10:40:51.158911 30913 net.cpp:150] Setting up fc6
I0822 10:40:51.158956 30913 net.cpp:157] Top shape: 100 4096 (409600)
I0822 10:40:51.158959 30913 net.cpp:165] Memory required for data: 248820400
I0822 10:40:51.158972 30913 layer_factory.hpp:77] Creating layer relu6
I0822 10:40:51.158983 30913 net.cpp:100] Creating Layer relu6
I0822 10:40:51.158987 30913 net.cpp:434] relu6 <- fc6
I0822 10:40:51.158994 30913 net.cpp:395] relu6 -> fc6 (in-place)
I0822 10:40:51.159271 30913 net.cpp:150] Setting up relu6
I0822 10:40:51.159282 30913 net.cpp:157] Top shape: 100 4096 (409600)
I0822 10:40:51.159286 30913 net.cpp:165] Memory required for data: 250458800
I0822 10:40:51.159288 30913 layer_factory.hpp:77] Creating layer drop6
I0822 10:40:51.159296 30913 net.cpp:100] Creating Layer drop6
I0822 10:40:51.159299 30913 net.cpp:434] drop6 <- fc6
I0822 10:40:51.159307 30913 net.cpp:395] drop6 -> fc6 (in-place)
I0822 10:40:51.159343 30913 net.cpp:150] Setting up drop6
I0822 10:40:51.159350 30913 net.cpp:157] Top shape: 100 4096 (409600)
I0822 10:40:51.159353 30913 net.cpp:165] Memory required for data: 252097200
I0822 10:40:51.159355 30913 layer_factory.hpp:77] Creating layer fc7
I0822 10:40:51.159366 30913 net.cpp:100] Creating Layer fc7
I0822 10:40:51.159370 30913 net.cpp:434] fc7 <- fc6
I0822 10:40:51.159379 30913 net.cpp:408] fc7 -> fc7
I0822 10:40:51.390120 30913 net.cpp:150] Setting up fc7
I0822 10:40:51.390161 30913 net.cpp:157] Top shape: 100 4096 (409600)
I0822 10:40:51.390164 30913 net.cpp:165] Memory required for data: 253735600
I0822 10:40:51.390177 30913 layer_factory.hpp:77] Creating layer relu7
I0822 10:40:51.390188 30913 net.cpp:100] Creating Layer relu7
I0822 10:40:51.390192 30913 net.cpp:434] relu7 <- fc7
I0822 10:40:51.390202 30913 net.cpp:395] relu7 -> fc7 (in-place)
I0822 10:40:51.390962 30913 net.cpp:150] Setting up relu7
I0822 10:40:51.390980 30913 net.cpp:157] Top shape: 100 4096 (409600)
I0822 10:40:51.390983 30913 net.cpp:165] Memory required for data: 255374000
I0822 10:40:51.390986 30913 layer_factory.hpp:77] Creating layer drop7
I0822 10:40:51.390995 30913 net.cpp:100] Creating Layer drop7
I0822 10:40:51.390997 30913 net.cpp:434] drop7 <- fc7
I0822 10:40:51.391007 30913 net.cpp:395] drop7 -> fc7 (in-place)
I0822 10:40:51.391047 30913 net.cpp:150] Setting up drop7
I0822 10:40:51.391057 30913 net.cpp:157] Top shape: 100 4096 (409600)
I0822 10:40:51.391058 30913 net.cpp:165] Memory required for data: 257012400
I0822 10:40:51.391062 30913 layer_factory.hpp:77] Creating layer fc8
I0822 10:40:51.391070 30913 net.cpp:100] Creating Layer fc8
I0822 10:40:51.391073 30913 net.cpp:434] fc8 <- fc7
I0822 10:40:51.391080 30913 net.cpp:408] fc8 -> fc8
I0822 10:40:51.391314 30913 net.cpp:150] Setting up fc8
I0822 10:40:51.391322 30913 net.cpp:157] Top shape: 100 2 (200)
I0822 10:40:51.391325 30913 net.cpp:165] Memory required for data: 257013200
I0822 10:40:51.391331 30913 layer_factory.hpp:77] Creating layer fc8_fc8_0_split
I0822 10:40:51.391337 30913 net.cpp:100] Creating Layer fc8_fc8_0_split
I0822 10:40:51.391340 30913 net.cpp:434] fc8_fc8_0_split <- fc8
I0822 10:40:51.391347 30913 net.cpp:408] fc8_fc8_0_split -> fc8_fc8_0_split_0
I0822 10:40:51.391353 30913 net.cpp:408] fc8_fc8_0_split -> fc8_fc8_0_split_1
I0822 10:40:51.391397 30913 net.cpp:150] Setting up fc8_fc8_0_split
I0822 10:40:51.391402 30913 net.cpp:157] Top shape: 100 2 (200)
I0822 10:40:51.391407 30913 net.cpp:157] Top shape: 100 2 (200)
I0822 10:40:51.391408 30913 net.cpp:165] Memory required for data: 257014800
I0822 10:40:51.391412 30913 layer_factory.hpp:77] Creating layer accuracy
I0822 10:40:51.391418 30913 net.cpp:100] Creating Layer accuracy
I0822 10:40:51.391422 30913 net.cpp:434] accuracy <- fc8_fc8_0_split_0
I0822 10:40:51.391425 30913 net.cpp:434] accuracy <- label_mnist_1_split_0
I0822 10:40:51.391433 30913 net.cpp:408] accuracy -> accuracy
…
