…
I0811 19:51:05.481617  9619 net.cpp:313] The NetState phase (0) differed from the phase (1) specified by a rule in layer accuracy
I0811 19:51:05.481734  9619 net.cpp:49] Initializing net from parameters: 
name: "AlexNet"
state {
  phase: TRAIN
}
layer {
  name: "mnist"
  type: "Data"
  top: "data"
  top: "label"
  include {
    phase: TRAIN
  }
  transform_param {
    scale: 0.00390625
    mean_file: "data/person_only_lmdb/person_background_only_color_mean.binaryproto"
  }
  data_param {
    source: "data/person_only_lmdb/person_background_only_train_lmdb"
    batch_size: 128
    backend: LMDB
  }
}
layer {
  name: "conv1"
  type: "Convolution"
  bottom: "data"
  top: "conv1"
  param {
    lr_mult: 1
    decay_mult: 1
  }
  param {
    lr_mult: 2
    decay_mult: 0
  }
  convolution_param {
    num_output: 96
    kernel_size: 11
    stride: 4
    weight_filler {
      type: "gaussian"
      std: 0.01
    }
    bias_filler {
      type: "constant"
      value: 0
    }
  }
}
layer {
  name: "relu1"
  type: "ReLU"
  bottom: "conv1"
  top: "conv1"
}
layer {
  name: "norm1"
  type: "LRN"
  bottom: "conv1"
  top: "norm1"
  lrn_param {
    local_size: 5
    alpha: 0.0001
    beta: 0.75
  }
}
layer {
  name: "pool1"
  type: "Pooling"
  bottom: "norm1"
  top: "pool1"
  pooling_param {
    pool: MAX
    kernel_size: 3
    stride: 2
  }
}
layer {
  name: "conv2"
  type: "Convolution"
  bottom: "pool1"
  top: "conv2"
  param {
    lr_mult: 1
    decay_mult: 1
  }
  param {
    lr_mult: 2
    decay_mult: 0
  }
  convolution_param {
    num_output: 256
    pad: 2
    kernel_size: 5
    group: 2
    weight_filler {
      type: "gaussian"
      std: 0.01
    }
    bias_filler {
      type: "constant"
      value: 0.1
    }
  }
}
layer {
  name: "relu2"
  type: "ReLU"
  bottom: "conv2"
  top: "conv2"
}
layer {
  name: "norm2"
  type: "LRN"
  bottom: "conv2"
  top: "norm2"
  lrn_param {
    local_size: 5
    alpha: 0.0001
    beta: 0.75
  }
}
layer {
  name: "pool2"
  type: "Pooling"
  bottom: "norm2"
  top: "pool2"
  pooling_param {
    pool: MAX
    kernel_size: 3
    stride: 2
  }
}
layer {
  name: "conv3"
  type: "Convolution"
  bottom: "pool2"
  top: "conv3"
  param {
    lr_mult: 1
    decay_mult: 1
  }
  param {
    lr_mult: 2
    decay_mult: 0
  }
  convolution_param {
    num_output: 384
    pad: 1
    kernel_size: 3
    weight_filler {
      type: "gaussian"
      std: 0.01
    }
    bias_filler {
      type: "constant"
      value: 0
    }
  }
}
layer {
  name: "relu3"
  type: "ReLU"
  bottom: "conv3"
  top: "conv3"
}
layer {
  name: "conv4"
  type: "Convolution"
  bottom: "conv3"
  top: "conv4"
  param {
    lr_mult: 1
    decay_mult: 1
  }
  param {
    lr_mult: 2
    decay_mult: 0
  }
  convolution_param {
    num_output: 384
    pad: 1
    kernel_size: 3
    group: 2
    weight_filler {
      type: "gaussian"
      std: 0.01
    }
    bias_filler {
      type: "constant"
      value: 0.1
    }
  }
}
layer {
  name: "relu4"
  type: "ReLU"
  bottom: "conv4"
  top: "conv4"
}
layer {
  name: "conv5"
  type: "Convolution"
  bottom: "conv4"
  top: "conv5"
  param {
    lr_mult: 1
    decay_mult: 1
  }
  param {
    lr_mult: 2
    decay_mult: 0
  }
  convolution_param {
    num_output: 256
    pad: 1
    kernel_size: 3
    group: 2
    weight_filler {
      type: "gaussian"
      std: 0.01
    }
    bias_filler {
      type: "constant"
      value: 0.1
    }
  }
}
layer {
  name: "relu5"
  type: "ReLU"
  bottom: "conv5"
  top: "conv5"
}
layer {
  name: "pool5"
  type: "Pooling"
  bottom: "conv5"
  top: "pool5"
  pooling_param {
    pool: MAX
    kernel_size: 3
    stride: 2
  }
}
layer {
  name: "fc6"
  type: "InnerProduct"
  bottom: "pool5"
  top: "fc6"
  param {
    lr_mult: 1
    decay_mult: 1
  }
  param {
    lr_mult: 2
    decay_mult: 0
  }
  inner_product_param {
    num_output: 4096
    weight_filler {
      type: "gaussian"
      std: 0.005
    }
    bias_filler {
      type: "constant"
      value: 0.1
    }
  }
}
layer {
  name: "relu6"
  type: "ReLU"
  bottom: "fc6"
  top: "fc6"
}
layer {
  name: "drop6"
  type: "Dropout"
  bottom: "fc6"
  top: "fc6"
  dropout_param {
    dropout_ratio: 0.5
  }
}
layer {
  name: "fc7"
  type: "InnerProduct"
  bottom: "fc6"
  top: "fc7"
  param {
    lr_mult: 1
    decay_mult: 1
  }
  param {
    lr_mult: 2
    decay_mult: 0
  }
  inner_product_param {
    num_output: 4096
    weight_filler {
      type: "gaussian"
      std: 0.005
    }
    bias_filler {
      type: "constant"
      value: 0.1
    }
  }
}
layer {
  name: "relu7"
  type: "ReLU"
  bottom: "fc7"
  top: "fc7"
}
layer {
  name: "drop7"
  type: "Dropout"
  bottom: "fc7"
  top: "fc7"
  dropout_param {
    dropout_ratio: 0.5
  }
}
layer {
  name: "fc8"
  type: "InnerProduct"
  bottom: "fc7"
  top: "fc8"
  param {
    lr_mult: 1
    decay_mult: 1
  }
  param {
    lr_mult: 2
    decay_mult: 0
  }
  inner_product_param {
    num_output: 2
    weight_filler {
      type: "gaussian"
      std: 0.01
    }
    bias_filler {
      type: "constant"
      value: 0
    }
  }
}
layer {
  name: "loss"
  type: "SoftmaxWithLoss"
  bottom: "fc8"
  bottom: "label"
  top: "loss"
}
I0811 19:51:05.481802  9619 layer_factory.hpp:77] Creating layer mnist
I0811 19:51:05.482501  9619 net.cpp:91] Creating Layer mnist
I0811 19:51:05.482513  9619 net.cpp:399] mnist -> data
I0811 19:51:05.482525  9619 net.cpp:399] mnist -> label
I0811 19:51:05.482538  9619 data_transformer.cpp:25] Loading mean file from: data/person_only_lmdb/person_background_only_color_mean.binaryproto
I0811 19:51:05.483889  9626 db_lmdb.cpp:35] Opened lmdb data/person_only_lmdb/person_background_only_train_lmdb
I0811 19:51:14.173506  9619 data_layer.cpp:41] output data size: 128,3,128,128
I0811 19:51:14.217928  9619 net.cpp:141] Setting up mnist
I0811 19:51:14.218015  9619 net.cpp:148] Top shape: 128 3 128 128 (6291456)
I0811 19:51:14.218022  9619 net.cpp:148] Top shape: 128 (128)
I0811 19:51:14.218025  9619 net.cpp:156] Memory required for data: 25166336
I0811 19:51:14.218047  9619 layer_factory.hpp:77] Creating layer conv1
I0811 19:51:14.218119  9619 net.cpp:91] Creating Layer conv1
I0811 19:51:14.218125  9619 net.cpp:425] conv1 <- data
I0811 19:51:14.218147  9619 net.cpp:399] conv1 -> conv1
I0811 19:51:14.347307  9619 net.cpp:141] Setting up conv1
I0811 19:51:14.347357  9619 net.cpp:148] Top shape: 128 96 30 30 (11059200)
I0811 19:51:14.347362  9619 net.cpp:156] Memory required for data: 69403136
I0811 19:51:14.347380  9619 layer_factory.hpp:77] Creating layer relu1
I0811 19:51:14.347403  9619 net.cpp:91] Creating Layer relu1
I0811 19:51:14.347407  9619 net.cpp:425] relu1 <- conv1
I0811 19:51:14.347414  9619 net.cpp:386] relu1 -> conv1 (in-place)
I0811 19:51:14.347609  9619 net.cpp:141] Setting up relu1
I0811 19:51:14.347643  9619 net.cpp:148] Top shape: 128 96 30 30 (11059200)
I0811 19:51:14.347648  9619 net.cpp:156] Memory required for data: 113639936
I0811 19:51:14.347651  9619 layer_factory.hpp:77] Creating layer norm1
I0811 19:51:14.347661  9619 net.cpp:91] Creating Layer norm1
I0811 19:51:14.347664  9619 net.cpp:425] norm1 <- conv1
I0811 19:51:14.347669  9619 net.cpp:399] norm1 -> norm1
I0811 19:51:14.347985  9619 net.cpp:141] Setting up norm1
I0811 19:51:14.347998  9619 net.cpp:148] Top shape: 128 96 30 30 (11059200)
I0811 19:51:14.348012  9619 net.cpp:156] Memory required for data: 157876736
I0811 19:51:14.348016  9619 layer_factory.hpp:77] Creating layer pool1
I0811 19:51:14.348027  9619 net.cpp:91] Creating Layer pool1
I0811 19:51:14.348031  9619 net.cpp:425] pool1 <- norm1
I0811 19:51:14.348036  9619 net.cpp:399] pool1 -> pool1
I0811 19:51:14.348068  9619 net.cpp:141] Setting up pool1
I0811 19:51:14.348078  9619 net.cpp:148] Top shape: 128 96 15 15 (2764800)
I0811 19:51:14.348093  9619 net.cpp:156] Memory required for data: 168935936
I0811 19:51:14.348094  9619 layer_factory.hpp:77] Creating layer conv2
I0811 19:51:14.348119  9619 net.cpp:91] Creating Layer conv2
I0811 19:51:14.348121  9619 net.cpp:425] conv2 <- pool1
I0811 19:51:14.348126  9619 net.cpp:399] conv2 -> conv2
I0811 19:51:14.358425  9619 net.cpp:141] Setting up conv2
I0811 19:51:14.358440  9619 net.cpp:148] Top shape: 128 256 15 15 (7372800)
I0811 19:51:14.358455  9619 net.cpp:156] Memory required for data: 198427136
I0811 19:51:14.358465  9619 layer_factory.hpp:77] Creating layer relu2
I0811 19:51:14.358474  9619 net.cpp:91] Creating Layer relu2
I0811 19:51:14.358476  9619 net.cpp:425] relu2 <- conv2
I0811 19:51:14.358481  9619 net.cpp:386] relu2 -> conv2 (in-place)
I0811 19:51:14.358785  9619 net.cpp:141] Setting up relu2
I0811 19:51:14.358808  9619 net.cpp:148] Top shape: 128 256 15 15 (7372800)
I0811 19:51:14.358813  9619 net.cpp:156] Memory required for data: 227918336
I0811 19:51:14.358815  9619 layer_factory.hpp:77] Creating layer norm2
I0811 19:51:14.358824  9619 net.cpp:91] Creating Layer norm2
I0811 19:51:14.358827  9619 net.cpp:425] norm2 <- conv2
I0811 19:51:14.358834  9619 net.cpp:399] norm2 -> norm2
I0811 19:51:14.359056  9619 net.cpp:141] Setting up norm2
I0811 19:51:14.359066  9619 net.cpp:148] Top shape: 128 256 15 15 (7372800)
I0811 19:51:14.359081  9619 net.cpp:156] Memory required for data: 257409536
I0811 19:51:14.359084  9619 layer_factory.hpp:77] Creating layer pool2
I0811 19:51:14.359092  9619 net.cpp:91] Creating Layer pool2
I0811 19:51:14.359096  9619 net.cpp:425] pool2 <- norm2
I0811 19:51:14.359100  9619 net.cpp:399] pool2 -> pool2
I0811 19:51:14.359133  9619 net.cpp:141] Setting up pool2
I0811 19:51:14.359153  9619 net.cpp:148] Top shape: 128 256 7 7 (1605632)
I0811 19:51:14.359155  9619 net.cpp:156] Memory required for data: 263832064
I0811 19:51:14.359169  9619 layer_factory.hpp:77] Creating layer conv3
I0811 19:51:14.359180  9619 net.cpp:91] Creating Layer conv3
I0811 19:51:14.359184  9619 net.cpp:425] conv3 <- pool2
I0811 19:51:14.359190  9619 net.cpp:399] conv3 -> conv3
I0811 19:51:14.385630  9619 net.cpp:141] Setting up conv3
I0811 19:51:14.385658  9619 net.cpp:148] Top shape: 128 384 7 7 (2408448)
I0811 19:51:14.385660  9619 net.cpp:156] Memory required for data: 273465856
I0811 19:51:14.385669  9619 layer_factory.hpp:77] Creating layer relu3
I0811 19:51:14.385676  9619 net.cpp:91] Creating Layer relu3
I0811 19:51:14.385680  9619 net.cpp:425] relu3 <- conv3
I0811 19:51:14.385684  9619 net.cpp:386] relu3 -> conv3 (in-place)
I0811 19:51:14.385989  9619 net.cpp:141] Setting up relu3
I0811 19:51:14.386003  9619 net.cpp:148] Top shape: 128 384 7 7 (2408448)
I0811 19:51:14.386016  9619 net.cpp:156] Memory required for data: 283099648
I0811 19:51:14.386020  9619 layer_factory.hpp:77] Creating layer conv4
I0811 19:51:14.386034  9619 net.cpp:91] Creating Layer conv4
I0811 19:51:14.386037  9619 net.cpp:425] conv4 <- conv3
I0811 19:51:14.386044  9619 net.cpp:399] conv4 -> conv4
I0811 19:51:14.406543  9619 net.cpp:141] Setting up conv4
I0811 19:51:14.406558  9619 net.cpp:148] Top shape: 128 384 7 7 (2408448)
I0811 19:51:14.406574  9619 net.cpp:156] Memory required for data: 292733440
I0811 19:51:14.406579  9619 layer_factory.hpp:77] Creating layer relu4
I0811 19:51:14.406585  9619 net.cpp:91] Creating Layer relu4
I0811 19:51:14.406589  9619 net.cpp:425] relu4 <- conv4
I0811 19:51:14.406597  9619 net.cpp:386] relu4 -> conv4 (in-place)
I0811 19:51:14.406894  9619 net.cpp:141] Setting up relu4
I0811 19:51:14.406918  9619 net.cpp:148] Top shape: 128 384 7 7 (2408448)
I0811 19:51:14.406920  9619 net.cpp:156] Memory required for data: 302367232
I0811 19:51:14.406924  9619 layer_factory.hpp:77] Creating layer conv5
I0811 19:51:14.406935  9619 net.cpp:91] Creating Layer conv5
I0811 19:51:14.406939  9619 net.cpp:425] conv5 <- conv4
I0811 19:51:14.406945  9619 net.cpp:399] conv5 -> conv5
I0811 19:51:14.421281  9619 net.cpp:141] Setting up conv5
I0811 19:51:14.421306  9619 net.cpp:148] Top shape: 128 256 7 7 (1605632)
I0811 19:51:14.421310  9619 net.cpp:156] Memory required for data: 308789760
I0811 19:51:14.421319  9619 layer_factory.hpp:77] Creating layer relu5
I0811 19:51:14.421325  9619 net.cpp:91] Creating Layer relu5
I0811 19:51:14.421330  9619 net.cpp:425] relu5 <- conv5
I0811 19:51:14.421334  9619 net.cpp:386] relu5 -> conv5 (in-place)
I0811 19:51:14.421638  9619 net.cpp:141] Setting up relu5
I0811 19:51:14.421649  9619 net.cpp:148] Top shape: 128 256 7 7 (1605632)
I0811 19:51:14.421664  9619 net.cpp:156] Memory required for data: 315212288
I0811 19:51:14.421667  9619 layer_factory.hpp:77] Creating layer pool5
I0811 19:51:14.421676  9619 net.cpp:91] Creating Layer pool5
I0811 19:51:14.421680  9619 net.cpp:425] pool5 <- conv5
I0811 19:51:14.421685  9619 net.cpp:399] pool5 -> pool5
I0811 19:51:14.421738  9619 net.cpp:141] Setting up pool5
I0811 19:51:14.421746  9619 net.cpp:148] Top shape: 128 256 3 3 (294912)
I0811 19:51:14.421748  9619 net.cpp:156] Memory required for data: 316391936
I0811 19:51:14.421751  9619 layer_factory.hpp:77] Creating layer fc6
I0811 19:51:14.421761  9619 net.cpp:91] Creating Layer fc6
I0811 19:51:14.421764  9619 net.cpp:425] fc6 <- pool5
I0811 19:51:14.421772  9619 net.cpp:399] fc6 -> fc6
I0811 19:51:14.694161  9619 net.cpp:141] Setting up fc6
I0811 19:51:14.694211  9619 net.cpp:148] Top shape: 128 4096 (524288)
I0811 19:51:14.694214  9619 net.cpp:156] Memory required for data: 318489088
I0811 19:51:14.694226  9619 layer_factory.hpp:77] Creating layer relu6
I0811 19:51:14.694236  9619 net.cpp:91] Creating Layer relu6
I0811 19:51:14.694241  9619 net.cpp:425] relu6 <- fc6
I0811 19:51:14.694248  9619 net.cpp:386] relu6 -> fc6 (in-place)
I0811 19:51:14.694509  9619 net.cpp:141] Setting up relu6
I0811 19:51:14.694519  9619 net.cpp:148] Top shape: 128 4096 (524288)
I0811 19:51:14.694533  9619 net.cpp:156] Memory required for data: 320586240
I0811 19:51:14.694536  9619 layer_factory.hpp:77] Creating layer drop6
I0811 19:51:14.694546  9619 net.cpp:91] Creating Layer drop6
I0811 19:51:14.694550  9619 net.cpp:425] drop6 <- fc6
I0811 19:51:14.694555  9619 net.cpp:386] drop6 -> fc6 (in-place)
I0811 19:51:14.694574  9619 net.cpp:141] Setting up drop6
I0811 19:51:14.694579  9619 net.cpp:148] Top shape: 128 4096 (524288)
I0811 19:51:14.694581  9619 net.cpp:156] Memory required for data: 322683392
I0811 19:51:14.694586  9619 layer_factory.hpp:77] Creating layer fc7
I0811 19:51:14.694594  9619 net.cpp:91] Creating Layer fc7
I0811 19:51:14.694602  9619 net.cpp:425] fc7 <- fc6
I0811 19:51:14.694619  9619 net.cpp:399] fc7 -> fc7
I0811 19:51:15.188253  9619 net.cpp:141] Setting up fc7
I0811 19:51:15.188293  9619 net.cpp:148] Top shape: 128 4096 (524288)
I0811 19:51:15.188297  9619 net.cpp:156] Memory required for data: 324780544
I0811 19:51:15.188308  9619 layer_factory.hpp:77] Creating layer relu7
I0811 19:51:15.188318  9619 net.cpp:91] Creating Layer relu7
I0811 19:51:15.188323  9619 net.cpp:425] relu7 <- fc7
I0811 19:51:15.188330  9619 net.cpp:386] relu7 -> fc7 (in-place)
I0811 19:51:15.188840  9619 net.cpp:141] Setting up relu7
I0811 19:51:15.188853  9619 net.cpp:148] Top shape: 128 4096 (524288)
I0811 19:51:15.188856  9619 net.cpp:156] Memory required for data: 326877696
I0811 19:51:15.188859  9619 layer_factory.hpp:77] Creating layer drop7
I0811 19:51:15.188868  9619 net.cpp:91] Creating Layer drop7
I0811 19:51:15.188870  9619 net.cpp:425] drop7 <- fc7
I0811 19:51:15.188875  9619 net.cpp:386] drop7 -> fc7 (in-place)
I0811 19:51:15.188908  9619 net.cpp:141] Setting up drop7
I0811 19:51:15.188915  9619 net.cpp:148] Top shape: 128 4096 (524288)
I0811 19:51:15.188917  9619 net.cpp:156] Memory required for data: 328974848
I0811 19:51:15.188920  9619 layer_factory.hpp:77] Creating layer fc8
I0811 19:51:15.188930  9619 net.cpp:91] Creating Layer fc8
I0811 19:51:15.188932  9619 net.cpp:425] fc8 <- fc7
I0811 19:51:15.188936  9619 net.cpp:399] fc8 -> fc8
I0811 19:51:15.189788  9619 net.cpp:141] Setting up fc8
I0811 19:51:15.189800  9619 net.cpp:148] Top shape: 128 2 (256)
I0811 19:51:15.189803  9619 net.cpp:156] Memory required for data: 328975872
I0811 19:51:15.189810  9619 layer_factory.hpp:77] Creating layer loss
I0811 19:51:15.189815  9619 net.cpp:91] Creating Layer loss
I0811 19:51:15.189818  9619 net.cpp:425] loss <- fc8
I0811 19:51:15.189822  9619 net.cpp:425] loss <- label
I0811 19:51:15.189827  9619 net.cpp:399] loss -> loss
I0811 19:51:15.189836  9619 layer_factory.hpp:77] Creating layer loss
…
I0811 19:51:15.190883  9619 net.cpp:313] The NetState phase (1) differed from the phase (0) specified by a rule in layer mnist
I0811 19:51:15.191050  9619 net.cpp:49] Initializing net from parameters: 
name: "AlexNet"
state {
  phase: TEST
}
layer {
  name: "mnist"
  type: "Data"
  top: "data"
  top: "label"
  include {
    phase: TEST
  }
  transform_param {
    scale: 0.00390625
    mean_file: "data/person_only_lmdb/person_background_only_color_mean.binaryproto"
  }
  data_param {
    source: "data/person_only_lmdb/person_background_only_test_lmdb"
    batch_size: 100
    backend: LMDB
  }
}
layer {
  name: "conv1"
  type: "Convolution"
  bottom: "data"
  top: "conv1"
  param {
    lr_mult: 1
    decay_mult: 1
  }
  param {
    lr_mult: 2
    decay_mult: 0
  }
  convolution_param {
    num_output: 96
    kernel_size: 11
    stride: 4
    weight_filler {
      type: "gaussian"
      std: 0.01
    }
    bias_filler {
      type: "constant"
      value: 0
    }
  }
}
layer {
  name: "relu1"
  type: "ReLU"
  bottom: "conv1"
  top: "conv1"
}
layer {
  name: "norm1"
  type: "LRN"
  bottom: "conv1"
  top: "norm1"
  lrn_param {
    local_size: 5
    alpha: 0.0001
    beta: 0.75
  }
}
layer {
  name: "pool1"
  type: "Pooling"
  bottom: "norm1"
  top: "pool1"
  pooling_param {
    pool: MAX
    kernel_size: 3
    stride: 2
  }
}
layer {
  name: "conv2"
  type: "Convolution"
  bottom: "pool1"
  top: "conv2"
  param {
    lr_mult: 1
    decay_mult: 1
  }
  param {
    lr_mult: 2
    decay_mult: 0
  }
  convolution_param {
    num_output: 256
    pad: 2
    kernel_size: 5
    group: 2
    weight_filler {
      type: "gaussian"
      std: 0.01
    }
    bias_filler {
      type: "constant"
      value: 0.1
    }
  }
}
layer {
  name: "relu2"
  type: "ReLU"
  bottom: "conv2"
  top: "conv2"
}
layer {
  name: "norm2"
  type: "LRN"
  bottom: "conv2"
  top: "norm2"
  lrn_param {
    local_size: 5
    alpha: 0.0001
    beta: 0.75
  }
}
layer {
  name: "pool2"
  type: "Pooling"
  bottom: "norm2"
  top: "pool2"
  pooling_param {
    pool: MAX
    kernel_size: 3
    stride: 2
  }
}
layer {
  name: "conv3"
  type: "Convolution"
  bottom: "pool2"
  top: "conv3"
  param {
    lr_mult: 1
    decay_mult: 1
  }
  param {
    lr_mult: 2
    decay_mult: 0
  }
  convolution_param {
    num_output: 384
    pad: 1
    kernel_size: 3
    weight_filler {
      type: "gaussian"
      std: 0.01
    }
    bias_filler {
      type: "constant"
      value: 0
    }
  }
}
layer {
  name: "relu3"
  type: "ReLU"
  bottom: "conv3"
  top: "conv3"
}
layer {
  name: "conv4"
  type: "Convolution"
  bottom: "conv3"
  top: "conv4"
  param {
    lr_mult: 1
    decay_mult: 1
  }
  param {
    lr_mult: 2
    decay_mult: 0
  }
  convolution_param {
    num_output: 384
    pad: 1
    kernel_size: 3
    group: 2
    weight_filler {
      type: "gaussian"
      std: 0.01
    }
    bias_filler {
      type: "constant"
      value: 0.1
    }
  }
}
layer {
  name: "relu4"
  type: "ReLU"
  bottom: "conv4"
  top: "conv4"
}
layer {
  name: "conv5"
  type: "Convolution"
  bottom: "conv4"
  top: "conv5"
  param {
    lr_mult: 1
    decay_mult: 1
  }
  param {
    lr_mult: 2
    decay_mult: 0
  }
  convolution_param {
    num_output: 256
    pad: 1
    kernel_size: 3
    group: 2
    weight_filler {
      type: "gaussian"
      std: 0.01
    }
    bias_filler {
      type: "constant"
      value: 0.1
    }
  }
}
layer {
  name: "relu5"
  type: "ReLU"
  bottom: "conv5"
  top: "conv5"
}
layer {
  name: "pool5"
  type: "Pooling"
  bottom: "conv5"
  top: "pool5"
  pooling_param {
    pool: MAX
    kernel_size: 3
    stride: 2
  }
}
layer {
  name: "fc6"
  type: "InnerProduct"
  bottom: "pool5"
  top: "fc6"
  param {
    lr_mult: 1
    decay_mult: 1
  }
  param {
    lr_mult: 2
    decay_mult: 0
  }
  inner_product_param {
    num_output: 4096
    weight_filler {
      type: "gaussian"
      std: 0.005
    }
    bias_filler {
      type: "constant"
      value: 0.1
    }
  }
}
layer {
  name: "relu6"
  type: "ReLU"
  bottom: "fc6"
  top: "fc6"
}
layer {
  name: "drop6"
  type: "Dropout"
  bottom: "fc6"
  top: "fc6"
  dropout_param {
    dropout_ratio: 0.5
  }
}
layer {
  name: "fc7"
  type: "InnerProduct"
  bottom: "fc6"
  top: "fc7"
  param {
    lr_mult: 1
    decay_mult: 1
  }
  param {
    lr_mult: 2
    decay_mult: 0
  }
  inner_product_param {
    num_output: 4096
    weight_filler {
      type: "gaussian"
      std: 0.005
    }
    bias_filler {
      type: "constant"
      value: 0.1
    }
  }
}
layer {
  name: "relu7"
  type: "ReLU"
  bottom: "fc7"
  top: "fc7"
}
layer {
  name: "drop7"
  type: "Dropout"
  bottom: "fc7"
  top: "fc7"
  dropout_param {
    dropout_ratio: 0.5
  }
}
layer {
  name: "fc8"
  type: "InnerProduct"
  bottom: "fc7"
  top: "fc8"
  param {
    lr_mult: 1
    decay_mult: 1
  }
  param {
    lr_mult: 2
    decay_mult: 0
  }
  inner_product_param {
    num_output: 2
    weight_filler {
      type: "gaussian"
      std: 0.01
    }
    bias_filler {
      type: "constant"
      value: 0
    }
  }
}
layer {
  name: "accuracy"
  type: "Accuracy"
  bottom: "fc8"
  bottom: "label"
  top: "accuracy"
  include {
    phase: TEST
  }
}
layer {
  name: "loss"
  type: "SoftmaxWithLoss"
  bottom: "fc8"
  bottom: "label"
  top: "loss"
}
I0811 19:51:15.191139  9619 layer_factory.hpp:77] Creating layer mnist
I0811 19:51:15.191242  9619 net.cpp:91] Creating Layer mnist
I0811 19:51:15.191252  9619 net.cpp:399] mnist -> data
I0811 19:51:15.191272  9619 net.cpp:399] mnist -> label
I0811 19:51:15.191278  9619 data_transformer.cpp:25] Loading mean file from: data/person_only_lmdb/person_background_only_color_mean.binaryproto
I0811 19:51:15.195641  9629 db_lmdb.cpp:35] Opened lmdb data/person_only_lmdb/person_background_only_test_lmdb
I0811 19:51:15.196517  9619 data_layer.cpp:41] output data size: 100,3,128,128
I0811 19:51:15.231117  9619 net.cpp:141] Setting up mnist
I0811 19:51:15.231169  9619 net.cpp:148] Top shape: 100 3 128 128 (4915200)
I0811 19:51:15.231175  9619 net.cpp:148] Top shape: 100 (100)
I0811 19:51:15.231178  9619 net.cpp:156] Memory required for data: 19661200
I0811 19:51:15.231185  9619 layer_factory.hpp:77] Creating layer label_mnist_1_split
I0811 19:51:15.231199  9619 net.cpp:91] Creating Layer label_mnist_1_split
I0811 19:51:15.231204  9619 net.cpp:425] label_mnist_1_split <- label
I0811 19:51:15.231210  9619 net.cpp:399] label_mnist_1_split -> label_mnist_1_split_0
I0811 19:51:15.231220  9619 net.cpp:399] label_mnist_1_split -> label_mnist_1_split_1
I0811 19:51:15.231400  9619 net.cpp:141] Setting up label_mnist_1_split
I0811 19:51:15.231408  9619 net.cpp:148] Top shape: 100 (100)
I0811 19:51:15.231422  9619 net.cpp:148] Top shape: 100 (100)
I0811 19:51:15.231426  9619 net.cpp:156] Memory required for data: 19662000
I0811 19:51:15.231428  9619 layer_factory.hpp:77] Creating layer conv1
I0811 19:51:15.231443  9619 net.cpp:91] Creating Layer conv1
I0811 19:51:15.231451  9619 net.cpp:425] conv1 <- data
I0811 19:51:15.231457  9619 net.cpp:399] conv1 -> conv1
I0811 19:51:15.236222  9619 net.cpp:141] Setting up conv1
I0811 19:51:15.236240  9619 net.cpp:148] Top shape: 100 96 30 30 (8640000)
I0811 19:51:15.236244  9619 net.cpp:156] Memory required for data: 54222000
I0811 19:51:15.236255  9619 layer_factory.hpp:77] Creating layer relu1
I0811 19:51:15.236276  9619 net.cpp:91] Creating Layer relu1
I0811 19:51:15.236279  9619 net.cpp:425] relu1 <- conv1
I0811 19:51:15.236284  9619 net.cpp:386] relu1 -> conv1 (in-place)
I0811 19:51:15.236606  9619 net.cpp:141] Setting up relu1
I0811 19:51:15.236620  9619 net.cpp:148] Top shape: 100 96 30 30 (8640000)
I0811 19:51:15.236624  9619 net.cpp:156] Memory required for data: 88782000
I0811 19:51:15.236626  9619 layer_factory.hpp:77] Creating layer norm1
I0811 19:51:15.236636  9619 net.cpp:91] Creating Layer norm1
I0811 19:51:15.236639  9619 net.cpp:425] norm1 <- conv1
I0811 19:51:15.236644  9619 net.cpp:399] norm1 -> norm1
I0811 19:51:15.236834  9619 net.cpp:141] Setting up norm1
I0811 19:51:15.236843  9619 net.cpp:148] Top shape: 100 96 30 30 (8640000)
I0811 19:51:15.236858  9619 net.cpp:156] Memory required for data: 123342000
I0811 19:51:15.236862  9619 layer_factory.hpp:77] Creating layer pool1
I0811 19:51:15.236871  9619 net.cpp:91] Creating Layer pool1
I0811 19:51:15.236873  9619 net.cpp:425] pool1 <- norm1
I0811 19:51:15.236877  9619 net.cpp:399] pool1 -> pool1
I0811 19:51:15.236912  9619 net.cpp:141] Setting up pool1
I0811 19:51:15.236919  9619 net.cpp:148] Top shape: 100 96 15 15 (2160000)
I0811 19:51:15.236922  9619 net.cpp:156] Memory required for data: 131982000
I0811 19:51:15.236924  9619 layer_factory.hpp:77] Creating layer conv2
I0811 19:51:15.236934  9619 net.cpp:91] Creating Layer conv2
I0811 19:51:15.236937  9619 net.cpp:425] conv2 <- pool1
I0811 19:51:15.236943  9619 net.cpp:399] conv2 -> conv2
I0811 19:51:15.247087  9619 net.cpp:141] Setting up conv2
I0811 19:51:15.247102  9619 net.cpp:148] Top shape: 100 256 15 15 (5760000)
I0811 19:51:15.247104  9619 net.cpp:156] Memory required for data: 155022000
I0811 19:51:15.247112  9619 layer_factory.hpp:77] Creating layer relu2
I0811 19:51:15.247120  9619 net.cpp:91] Creating Layer relu2
I0811 19:51:15.247135  9619 net.cpp:425] relu2 <- conv2
I0811 19:51:15.247141  9619 net.cpp:386] relu2 -> conv2 (in-place)
I0811 19:51:15.247421  9619 net.cpp:141] Setting up relu2
I0811 19:51:15.247432  9619 net.cpp:148] Top shape: 100 256 15 15 (5760000)
I0811 19:51:15.247447  9619 net.cpp:156] Memory required for data: 178062000
I0811 19:51:15.247450  9619 layer_factory.hpp:77] Creating layer norm2
I0811 19:51:15.247459  9619 net.cpp:91] Creating Layer norm2
I0811 19:51:15.247463  9619 net.cpp:425] norm2 <- conv2
I0811 19:51:15.247467  9619 net.cpp:399] norm2 -> norm2
I0811 19:51:15.247668  9619 net.cpp:141] Setting up norm2
I0811 19:51:15.247678  9619 net.cpp:148] Top shape: 100 256 15 15 (5760000)
I0811 19:51:15.247694  9619 net.cpp:156] Memory required for data: 201102000
I0811 19:51:15.247696  9619 layer_factory.hpp:77] Creating layer pool2
I0811 19:51:15.247704  9619 net.cpp:91] Creating Layer pool2
I0811 19:51:15.247706  9619 net.cpp:425] pool2 <- norm2
I0811 19:51:15.247710  9619 net.cpp:399] pool2 -> pool2
I0811 19:51:15.247747  9619 net.cpp:141] Setting up pool2
I0811 19:51:15.247755  9619 net.cpp:148] Top shape: 100 256 7 7 (1254400)
I0811 19:51:15.247757  9619 net.cpp:156] Memory required for data: 206119600
I0811 19:51:15.247759  9619 layer_factory.hpp:77] Creating layer conv3
I0811 19:51:15.247768  9619 net.cpp:91] Creating Layer conv3
I0811 19:51:15.247776  9619 net.cpp:425] conv3 <- pool2
I0811 19:51:15.247781  9619 net.cpp:399] conv3 -> conv3
I0811 19:51:15.273416  9619 net.cpp:141] Setting up conv3
I0811 19:51:15.273442  9619 net.cpp:148] Top shape: 100 384 7 7 (1881600)
I0811 19:51:15.273445  9619 net.cpp:156] Memory required for data: 213646000
I0811 19:51:15.273453  9619 layer_factory.hpp:77] Creating layer relu3
I0811 19:51:15.273460  9619 net.cpp:91] Creating Layer relu3
I0811 19:51:15.273464  9619 net.cpp:425] relu3 <- conv3
I0811 19:51:15.273468  9619 net.cpp:386] relu3 -> conv3 (in-place)
I0811 19:51:15.273643  9619 net.cpp:141] Setting up relu3
I0811 19:51:15.273653  9619 net.cpp:148] Top shape: 100 384 7 7 (1881600)
I0811 19:51:15.273668  9619 net.cpp:156] Memory required for data: 221172400
I0811 19:51:15.273669  9619 layer_factory.hpp:77] Creating layer conv4
I0811 19:51:15.273679  9619 net.cpp:91] Creating Layer conv4
I0811 19:51:15.273684  9619 net.cpp:425] conv4 <- conv3
I0811 19:51:15.273689  9619 net.cpp:399] conv4 -> conv4
I0811 19:51:15.293768  9619 net.cpp:141] Setting up conv4
I0811 19:51:15.293797  9619 net.cpp:148] Top shape: 100 384 7 7 (1881600)
I0811 19:51:15.293800  9619 net.cpp:156] Memory required for data: 228698800
I0811 19:51:15.293807  9619 layer_factory.hpp:77] Creating layer relu4
I0811 19:51:15.293812  9619 net.cpp:91] Creating Layer relu4
I0811 19:51:15.293815  9619 net.cpp:425] relu4 <- conv4
I0811 19:51:15.293822  9619 net.cpp:386] relu4 -> conv4 (in-place)
I0811 19:51:15.294199  9619 net.cpp:141] Setting up relu4
I0811 19:51:15.294222  9619 net.cpp:148] Top shape: 100 384 7 7 (1881600)
I0811 19:51:15.294226  9619 net.cpp:156] Memory required for data: 236225200
I0811 19:51:15.294229  9619 layer_factory.hpp:77] Creating layer conv5
I0811 19:51:15.294239  9619 net.cpp:91] Creating Layer conv5
I0811 19:51:15.294242  9619 net.cpp:425] conv5 <- conv4
I0811 19:51:15.294247  9619 net.cpp:399] conv5 -> conv5
I0811 19:51:15.308096  9619 net.cpp:141] Setting up conv5
I0811 19:51:15.308121  9619 net.cpp:148] Top shape: 100 256 7 7 (1254400)
I0811 19:51:15.308125  9619 net.cpp:156] Memory required for data: 241242800
I0811 19:51:15.308135  9619 layer_factory.hpp:77] Creating layer relu5
I0811 19:51:15.308141  9619 net.cpp:91] Creating Layer relu5
I0811 19:51:15.308145  9619 net.cpp:425] relu5 <- conv5
I0811 19:51:15.308152  9619 net.cpp:386] relu5 -> conv5 (in-place)
I0811 19:51:15.308430  9619 net.cpp:141] Setting up relu5
I0811 19:51:15.308442  9619 net.cpp:148] Top shape: 100 256 7 7 (1254400)
I0811 19:51:15.308456  9619 net.cpp:156] Memory required for data: 246260400
I0811 19:51:15.308466  9619 layer_factory.hpp:77] Creating layer pool5
I0811 19:51:15.308475  9619 net.cpp:91] Creating Layer pool5
I0811 19:51:15.308480  9619 net.cpp:425] pool5 <- conv5
I0811 19:51:15.308485  9619 net.cpp:399] pool5 -> pool5
I0811 19:51:15.308533  9619 net.cpp:141] Setting up pool5
I0811 19:51:15.308542  9619 net.cpp:148] Top shape: 100 256 3 3 (230400)
I0811 19:51:15.308557  9619 net.cpp:156] Memory required for data: 247182000
I0811 19:51:15.308559  9619 layer_factory.hpp:77] Creating layer fc6
I0811 19:51:15.308567  9619 net.cpp:91] Creating Layer fc6
I0811 19:51:15.308569  9619 net.cpp:425] fc6 <- pool5
I0811 19:51:15.308578  9619 net.cpp:399] fc6 -> fc6
I0811 19:51:15.572130  9619 net.cpp:141] Setting up fc6
I0811 19:51:15.572176  9619 net.cpp:148] Top shape: 100 4096 (409600)
I0811 19:51:15.572180  9619 net.cpp:156] Memory required for data: 248820400
I0811 19:51:15.572190  9619 layer_factory.hpp:77] Creating layer relu6
I0811 19:51:15.572202  9619 net.cpp:91] Creating Layer relu6
I0811 19:51:15.572207  9619 net.cpp:425] relu6 <- fc6
I0811 19:51:15.572212  9619 net.cpp:386] relu6 -> fc6 (in-place)
I0811 19:51:15.572460  9619 net.cpp:141] Setting up relu6
I0811 19:51:15.572470  9619 net.cpp:148] Top shape: 100 4096 (409600)
I0811 19:51:15.572484  9619 net.cpp:156] Memory required for data: 250458800
I0811 19:51:15.572494  9619 layer_factory.hpp:77] Creating layer drop6
I0811 19:51:15.572502  9619 net.cpp:91] Creating Layer drop6
I0811 19:51:15.572505  9619 net.cpp:425] drop6 <- fc6
I0811 19:51:15.572510  9619 net.cpp:386] drop6 -> fc6 (in-place)
I0811 19:51:15.572538  9619 net.cpp:141] Setting up drop6
I0811 19:51:15.572546  9619 net.cpp:148] Top shape: 100 4096 (409600)
I0811 19:51:15.572548  9619 net.cpp:156] Memory required for data: 252097200
I0811 19:51:15.572562  9619 layer_factory.hpp:77] Creating layer fc7
I0811 19:51:15.572569  9619 net.cpp:91] Creating Layer fc7
I0811 19:51:15.572572  9619 net.cpp:425] fc7 <- fc6
I0811 19:51:15.572579  9619 net.cpp:399] fc7 -> fc7
I0811 19:51:16.026404  9619 net.cpp:141] Setting up fc7
I0811 19:51:16.026443  9619 net.cpp:148] Top shape: 100 4096 (409600)
I0811 19:51:16.026446  9619 net.cpp:156] Memory required for data: 253735600
I0811 19:51:16.026458  9619 layer_factory.hpp:77] Creating layer relu7
I0811 19:51:16.026470  9619 net.cpp:91] Creating Layer relu7
I0811 19:51:16.026474  9619 net.cpp:425] relu7 <- fc7
I0811 19:51:16.026479  9619 net.cpp:386] relu7 -> fc7 (in-place)
I0811 19:51:16.026921  9619 net.cpp:141] Setting up relu7
I0811 19:51:16.026932  9619 net.cpp:148] Top shape: 100 4096 (409600)
I0811 19:51:16.026935  9619 net.cpp:156] Memory required for data: 255374000
I0811 19:51:16.026938  9619 layer_factory.hpp:77] Creating layer drop7
I0811 19:51:16.026947  9619 net.cpp:91] Creating Layer drop7
I0811 19:51:16.026952  9619 net.cpp:425] drop7 <- fc7
I0811 19:51:16.026968  9619 net.cpp:386] drop7 -> fc7 (in-place)
I0811 19:51:16.026996  9619 net.cpp:141] Setting up drop7
I0811 19:51:16.027000  9619 net.cpp:148] Top shape: 100 4096 (409600)
I0811 19:51:16.027004  9619 net.cpp:156] Memory required for data: 257012400
I0811 19:51:16.027005  9619 layer_factory.hpp:77] Creating layer fc8
I0811 19:51:16.027016  9619 net.cpp:91] Creating Layer fc8
I0811 19:51:16.027019  9619 net.cpp:425] fc8 <- fc7
I0811 19:51:16.027025  9619 net.cpp:399] fc8 -> fc8
I0811 19:51:16.027362  9619 net.cpp:141] Setting up fc8
I0811 19:51:16.027371  9619 net.cpp:148] Top shape: 100 2 (200)
I0811 19:51:16.027385  9619 net.cpp:156] Memory required for data: 257013200
I0811 19:51:16.027390  9619 layer_factory.hpp:77] Creating layer fc8_fc8_0_split
I0811 19:51:16.027396  9619 net.cpp:91] Creating Layer fc8_fc8_0_split
I0811 19:51:16.027400  9619 net.cpp:425] fc8_fc8_0_split <- fc8
I0811 19:51:16.027403  9619 net.cpp:399] fc8_fc8_0_split -> fc8_fc8_0_split_0
I0811 19:51:16.027408  9619 net.cpp:399] fc8_fc8_0_split -> fc8_fc8_0_split_1
I0811 19:51:16.027443  9619 net.cpp:141] Setting up fc8_fc8_0_split
I0811 19:51:16.027462  9619 net.cpp:148] Top shape: 100 2 (200)
I0811 19:51:16.027477  9619 net.cpp:148] Top shape: 100 2 (200)
I0811 19:51:16.027480  9619 net.cpp:156] Memory required for data: 257014800
I0811 19:51:16.027482  9619 layer_factory.hpp:77] Creating layer accuracy
I0811 19:51:16.027489  9619 net.cpp:91] Creating Layer accuracy
I0811 19:51:16.027493  9619 net.cpp:425] accuracy <- fc8_fc8_0_split_0
I0811 19:51:16.027498  9619 net.cpp:425] accuracy <- label_mnist_1_split_0
I0811 19:51:16.027501  9619 net.cpp:399] accuracy -> accuracy
…
