…
I0805 19:02:47.341203 10603 net.cpp:313] The NetState phase (0) differed from the phase (1) specified by a rule in layer accuracy
I0805 19:02:47.341336 10603 net.cpp:49] Initializing net from parameters: 
name: "AlexNet"
state {
  phase: TRAIN
}
layer {
  name: "mnist"
  type: "Data"
  top: "data"
  top: "label"
  include {
    phase: TRAIN
  }
  transform_param {
    scale: 0.00390625
    mean_file: "data/person_only_lmdb/person_background_only_color_mean.binaryproto"
  }
  data_param {
    source: "data/person_only_lmdb/person_background_only_train_lmdb"
    batch_size: 64
    backend: LMDB
  }
}
layer {
  name: "conv1"
  type: "Convolution"
  bottom: "data"
  top: "conv1"
  param {
    lr_mult: 1
    decay_mult: 1
  }
  param {
    lr_mult: 2
    decay_mult: 0
  }
  convolution_param {
    num_output: 96
    kernel_size: 11
    stride: 4
    weight_filler {
      type: "gaussian"
      std: 0.01
    }
    bias_filler {
      type: "constant"
      value: 0
    }
  }
}
layer {
  name: "relu1"
  type: "ReLU"
  bottom: "conv1"
  top: "conv1"
}
layer {
  name: "norm1"
  type: "LRN"
  bottom: "conv1"
  top: "norm1"
  lrn_param {
    local_size: 5
    alpha: 0.0001
    beta: 0.75
  }
}
layer {
  name: "pool1"
  type: "Pooling"
  bottom: "norm1"
  top: "pool1"
  pooling_param {
    pool: MAX
    kernel_size: 3
    stride: 2
  }
}
layer {
  name: "conv2"
  type: "Convolution"
  bottom: "pool1"
  top: "conv2"
  param {
    lr_mult: 1
    decay_mult: 1
  }
  param {
    lr_mult: 2
    decay_mult: 0
  }
  convolution_param {
    num_output: 256
    pad: 2
    kernel_size: 5
    group: 2
    weight_filler {
      type: "gaussian"
      std: 0.01
    }
    bias_filler {
      type: "constant"
      value: 0.1
    }
  }
}
layer {
  name: "relu2"
  type: "ReLU"
  bottom: "conv2"
  top: "conv2"
}
layer {
  name: "norm2"
  type: "LRN"
  bottom: "conv2"
  top: "norm2"
  lrn_param {
    local_size: 5
    alpha: 0.0001
    beta: 0.75
  }
}
layer {
  name: "pool2"
  type: "Pooling"
  bottom: "norm2"
  top: "pool2"
  pooling_param {
    pool: MAX
    kernel_size: 3
    stride: 2
  }
}
layer {
  name: "conv3"
  type: "Convolution"
  bottom: "pool2"
  top: "conv3"
  param {
    lr_mult: 1
    decay_mult: 1
  }
  param {
    lr_mult: 2
    decay_mult: 0
  }
  convolution_param {
    num_output: 384
    pad: 1
    kernel_size: 3
    weight_filler {
      type: "gaussian"
      std: 0.01
    }
    bias_filler {
      type: "constant"
      value: 0
    }
  }
}
layer {
  name: "relu3"
  type: "ReLU"
  bottom: "conv3"
  top: "conv3"
}
layer {
  name: "conv4"
  type: "Convolution"
  bottom: "conv3"
  top: "conv4"
  param {
    lr_mult: 1
    decay_mult: 1
  }
  param {
    lr_mult: 2
    decay_mult: 0
  }
  convolution_param {
    num_output: 384
    pad: 1
    kernel_size: 3
    group: 2
    weight_filler {
      type: "gaussian"
      std: 0.01
    }
    bias_filler {
      type: "constant"
      value: 0.1
    }
  }
}
layer {
  name: "relu4"
  type: "ReLU"
  bottom: "conv4"
  top: "conv4"
}
layer {
  name: "conv5"
  type: "Convolution"
  bottom: "conv4"
  top: "conv5"
  param {
    lr_mult: 1
    decay_mult: 1
  }
  param {
    lr_mult: 2
    decay_mult: 0
  }
  convolution_param {
    num_output: 256
    pad: 1
    kernel_size: 3
    group: 2
    weight_filler {
      type: "gaussian"
      std: 0.01
    }
    bias_filler {
      type: "constant"
      value: 0.1
    }
  }
}
layer {
  name: "relu5"
  type: "ReLU"
  bottom: "conv5"
  top: "conv5"
}
layer {
  name: "pool5"
  type: "Pooling"
  bottom: "conv5"
  top: "pool5"
  pooling_param {
    pool: MAX
    kernel_size: 3
    stride: 2
  }
}
layer {
  name: "fc6"
  type: "InnerProduct"
  bottom: "pool5"
  top: "fc6"
  param {
    lr_mult: 1
    decay_mult: 1
  }
  param {
    lr_mult: 2
    decay_mult: 0
  }
  inner_product_param {
    num_output: 4096
    weight_filler {
      type: "gaussian"
      std: 0.005
    }
    bias_filler {
      type: "constant"
      value: 0.1
    }
  }
}
layer {
  name: "relu6"
  type: "ReLU"
  bottom: "fc6"
  top: "fc6"
}
layer {
  name: "drop6"
  type: "Dropout"
  bottom: "fc6"
  top: "fc6"
  dropout_param {
    dropout_ratio: 0.5
  }
}
layer {
  name: "fc7"
  type: "InnerProduct"
  bottom: "fc6"
  top: "fc7"
  param {
    lr_mult: 1
    decay_mult: 1
  }
  param {
    lr_mult: 2
    decay_mult: 0
  }
  inner_product_param {
    num_output: 4096
    weight_filler {
      type: "gaussian"
      std: 0.005
    }
    bias_filler {
      type: "constant"
      value: 0.1
    }
  }
}
layer {
  name: "relu7"
  type: "ReLU"
  bottom: "fc7"
  top: "fc7"
}
layer {
  name: "drop7"
  type: "Dropout"
  bottom: "fc7"
  top: "fc7"
  dropout_param {
    dropout_ratio: 0.5
  }
}
layer {
  name: "fc8"
  type: "InnerProduct"
  bottom: "fc7"
  top: "fc8"
  param {
    lr_mult: 1
    decay_mult: 1
  }
  param {
    lr_mult: 2
    decay_mult: 0
  }
  inner_product_param {
    num_output: 2
    weight_filler {
      type: "gaussian"
      std: 0.01
    }
    bias_filler {
      type: "constant"
      value: 0
    }
  }
}
layer {
  name: "loss"
  type: "SoftmaxWithLoss"
  bottom: "fc8"
  bottom: "label"
  top: "loss"
}
I0805 19:02:47.341413 10603 layer_factory.hpp:77] Creating layer mnist
I0805 19:02:47.342463 10603 net.cpp:91] Creating Layer mnist
I0805 19:02:47.342474 10603 net.cpp:399] mnist -> data
I0805 19:02:47.342484 10603 net.cpp:399] mnist -> label
I0805 19:02:47.343822 10610 db_lmdb.cpp:35] Opened lmdb data/person_only_lmdb/person_background_only_train_lmdb
I0805 19:02:47.344068 10603 data_transformer.cpp:25] Loading mean file from: data/person_only_lmdb/person_background_only_color_mean.binaryproto
I0805 19:02:55.609310 10603 data_layer.cpp:41] output data size: 64,3,128,128
I0805 19:02:55.630662 10603 net.cpp:141] Setting up mnist
I0805 19:02:55.630708 10603 net.cpp:148] Top shape: 64 3 128 128 (3145728)
I0805 19:02:55.630715 10603 net.cpp:148] Top shape: 64 (64)
I0805 19:02:55.630718 10603 net.cpp:156] Memory required for data: 12583168
I0805 19:02:55.630761 10603 layer_factory.hpp:77] Creating layer conv1
I0805 19:02:55.630836 10603 net.cpp:91] Creating Layer conv1
I0805 19:02:55.630851 10603 net.cpp:425] conv1 <- data
I0805 19:02:55.630867 10603 net.cpp:399] conv1 -> conv1
I0805 19:02:56.124269 10603 net.cpp:141] Setting up conv1
I0805 19:02:56.124320 10603 net.cpp:148] Top shape: 64 96 30 30 (5529600)
I0805 19:02:56.124330 10603 net.cpp:156] Memory required for data: 34701568
I0805 19:02:56.124368 10603 layer_factory.hpp:77] Creating layer relu1
I0805 19:02:56.124397 10603 net.cpp:91] Creating Layer relu1
I0805 19:02:56.124406 10603 net.cpp:425] relu1 <- conv1
I0805 19:02:56.124416 10603 net.cpp:386] relu1 -> conv1 (in-place)
I0805 19:02:56.124788 10603 net.cpp:141] Setting up relu1
I0805 19:02:56.124832 10603 net.cpp:148] Top shape: 64 96 30 30 (5529600)
I0805 19:02:56.124840 10603 net.cpp:156] Memory required for data: 56819968
I0805 19:02:56.124847 10603 layer_factory.hpp:77] Creating layer norm1
I0805 19:02:56.124872 10603 net.cpp:91] Creating Layer norm1
I0805 19:02:56.124881 10603 net.cpp:425] norm1 <- conv1
I0805 19:02:56.124889 10603 net.cpp:399] norm1 -> norm1
I0805 19:02:56.127465 10603 net.cpp:141] Setting up norm1
I0805 19:02:56.127492 10603 net.cpp:148] Top shape: 64 96 30 30 (5529600)
I0805 19:02:56.127499 10603 net.cpp:156] Memory required for data: 78938368
I0805 19:02:56.127507 10603 layer_factory.hpp:77] Creating layer pool1
I0805 19:02:56.127526 10603 net.cpp:91] Creating Layer pool1
I0805 19:02:56.127532 10603 net.cpp:425] pool1 <- norm1
I0805 19:02:56.127542 10603 net.cpp:399] pool1 -> pool1
I0805 19:02:56.127609 10603 net.cpp:141] Setting up pool1
I0805 19:02:56.127625 10603 net.cpp:148] Top shape: 64 96 15 15 (1382400)
I0805 19:02:56.127631 10603 net.cpp:156] Memory required for data: 84467968
I0805 19:02:56.127637 10603 layer_factory.hpp:77] Creating layer conv2
I0805 19:02:56.127673 10603 net.cpp:91] Creating Layer conv2
I0805 19:02:56.127683 10603 net.cpp:425] conv2 <- pool1
I0805 19:02:56.127694 10603 net.cpp:399] conv2 -> conv2
I0805 19:02:56.148953 10603 net.cpp:141] Setting up conv2
I0805 19:02:56.148980 10603 net.cpp:148] Top shape: 64 256 15 15 (3686400)
I0805 19:02:56.148988 10603 net.cpp:156] Memory required for data: 99213568
I0805 19:02:56.149004 10603 layer_factory.hpp:77] Creating layer relu2
I0805 19:02:56.149015 10603 net.cpp:91] Creating Layer relu2
I0805 19:02:56.149021 10603 net.cpp:425] relu2 <- conv2
I0805 19:02:56.149030 10603 net.cpp:386] relu2 -> conv2 (in-place)
I0805 19:02:56.149489 10603 net.cpp:141] Setting up relu2
I0805 19:02:56.149510 10603 net.cpp:148] Top shape: 64 256 15 15 (3686400)
I0805 19:02:56.149518 10603 net.cpp:156] Memory required for data: 113959168
I0805 19:02:56.149523 10603 layer_factory.hpp:77] Creating layer norm2
I0805 19:02:56.149544 10603 net.cpp:91] Creating Layer norm2
I0805 19:02:56.149551 10603 net.cpp:425] norm2 <- conv2
I0805 19:02:56.149560 10603 net.cpp:399] norm2 -> norm2
I0805 19:02:56.149883 10603 net.cpp:141] Setting up norm2
I0805 19:02:56.149900 10603 net.cpp:148] Top shape: 64 256 15 15 (3686400)
I0805 19:02:56.149905 10603 net.cpp:156] Memory required for data: 128704768
I0805 19:02:56.149911 10603 layer_factory.hpp:77] Creating layer pool2
I0805 19:02:56.149924 10603 net.cpp:91] Creating Layer pool2
I0805 19:02:56.149930 10603 net.cpp:425] pool2 <- norm2
I0805 19:02:56.149937 10603 net.cpp:399] pool2 -> pool2
I0805 19:02:56.149992 10603 net.cpp:141] Setting up pool2
I0805 19:02:56.150010 10603 net.cpp:148] Top shape: 64 256 7 7 (802816)
I0805 19:02:56.150015 10603 net.cpp:156] Memory required for data: 131916032
I0805 19:02:56.150020 10603 layer_factory.hpp:77] Creating layer conv3
I0805 19:02:56.150046 10603 net.cpp:91] Creating Layer conv3
I0805 19:02:56.150058 10603 net.cpp:425] conv3 <- pool2
I0805 19:02:56.150066 10603 net.cpp:399] conv3 -> conv3
I0805 19:02:56.196022 10603 net.cpp:141] Setting up conv3
I0805 19:02:56.196045 10603 net.cpp:148] Top shape: 64 384 7 7 (1204224)
I0805 19:02:56.196051 10603 net.cpp:156] Memory required for data: 136732928
I0805 19:02:56.196064 10603 layer_factory.hpp:77] Creating layer relu3
I0805 19:02:56.196074 10603 net.cpp:91] Creating Layer relu3
I0805 19:02:56.196079 10603 net.cpp:425] relu3 <- conv3
I0805 19:02:56.196085 10603 net.cpp:386] relu3 -> conv3 (in-place)
I0805 19:02:56.196471 10603 net.cpp:141] Setting up relu3
I0805 19:02:56.196490 10603 net.cpp:148] Top shape: 64 384 7 7 (1204224)
I0805 19:02:56.196494 10603 net.cpp:156] Memory required for data: 141549824
I0805 19:02:56.196499 10603 layer_factory.hpp:77] Creating layer conv4
I0805 19:02:56.196511 10603 net.cpp:91] Creating Layer conv4
I0805 19:02:56.196517 10603 net.cpp:425] conv4 <- conv3
I0805 19:02:56.196526 10603 net.cpp:399] conv4 -> conv4
I0805 19:02:56.226702 10603 net.cpp:141] Setting up conv4
I0805 19:02:56.226722 10603 net.cpp:148] Top shape: 64 384 7 7 (1204224)
I0805 19:02:56.226727 10603 net.cpp:156] Memory required for data: 146366720
I0805 19:02:56.226734 10603 layer_factory.hpp:77] Creating layer relu4
I0805 19:02:56.226742 10603 net.cpp:91] Creating Layer relu4
I0805 19:02:56.226747 10603 net.cpp:425] relu4 <- conv4
I0805 19:02:56.226754 10603 net.cpp:386] relu4 -> conv4 (in-place)
I0805 19:02:56.227092 10603 net.cpp:141] Setting up relu4
I0805 19:02:56.227107 10603 net.cpp:148] Top shape: 64 384 7 7 (1204224)
I0805 19:02:56.227111 10603 net.cpp:156] Memory required for data: 151183616
I0805 19:02:56.227115 10603 layer_factory.hpp:77] Creating layer conv5
I0805 19:02:56.227128 10603 net.cpp:91] Creating Layer conv5
I0805 19:02:56.227133 10603 net.cpp:425] conv5 <- conv4
I0805 19:02:56.227140 10603 net.cpp:399] conv5 -> conv5
I0805 19:02:56.246368 10603 net.cpp:141] Setting up conv5
I0805 19:02:56.246387 10603 net.cpp:148] Top shape: 64 256 7 7 (802816)
I0805 19:02:56.246392 10603 net.cpp:156] Memory required for data: 154394880
I0805 19:02:56.246402 10603 layer_factory.hpp:77] Creating layer relu5
I0805 19:02:56.246423 10603 net.cpp:91] Creating Layer relu5
I0805 19:02:56.246428 10603 net.cpp:425] relu5 <- conv5
I0805 19:02:56.246433 10603 net.cpp:386] relu5 -> conv5 (in-place)
I0805 19:02:56.246747 10603 net.cpp:141] Setting up relu5
I0805 19:02:56.246762 10603 net.cpp:148] Top shape: 64 256 7 7 (802816)
I0805 19:02:56.246765 10603 net.cpp:156] Memory required for data: 157606144
I0805 19:02:56.246769 10603 layer_factory.hpp:77] Creating layer pool5
I0805 19:02:56.246776 10603 net.cpp:91] Creating Layer pool5
I0805 19:02:56.246780 10603 net.cpp:425] pool5 <- conv5
I0805 19:02:56.246788 10603 net.cpp:399] pool5 -> pool5
I0805 19:02:56.246835 10603 net.cpp:141] Setting up pool5
I0805 19:02:56.246842 10603 net.cpp:148] Top shape: 64 256 3 3 (147456)
I0805 19:02:56.246846 10603 net.cpp:156] Memory required for data: 158195968
I0805 19:02:56.246850 10603 layer_factory.hpp:77] Creating layer fc6
I0805 19:02:56.246861 10603 net.cpp:91] Creating Layer fc6
I0805 19:02:56.246865 10603 net.cpp:425] fc6 <- pool5
I0805 19:02:56.246871 10603 net.cpp:399] fc6 -> fc6
I0805 19:02:56.503689 10603 net.cpp:141] Setting up fc6
I0805 19:02:56.503721 10603 net.cpp:148] Top shape: 64 4096 (262144)
I0805 19:02:56.503726 10603 net.cpp:156] Memory required for data: 159244544
I0805 19:02:56.503734 10603 layer_factory.hpp:77] Creating layer relu6
I0805 19:02:56.503744 10603 net.cpp:91] Creating Layer relu6
I0805 19:02:56.503748 10603 net.cpp:425] relu6 <- fc6
I0805 19:02:56.503754 10603 net.cpp:386] relu6 -> fc6 (in-place)
I0805 19:02:56.504000 10603 net.cpp:141] Setting up relu6
I0805 19:02:56.504009 10603 net.cpp:148] Top shape: 64 4096 (262144)
I0805 19:02:56.504024 10603 net.cpp:156] Memory required for data: 160293120
I0805 19:02:56.504026 10603 layer_factory.hpp:77] Creating layer drop6
I0805 19:02:56.504042 10603 net.cpp:91] Creating Layer drop6
I0805 19:02:56.504045 10603 net.cpp:425] drop6 <- fc6
I0805 19:02:56.504050 10603 net.cpp:386] drop6 -> fc6 (in-place)
I0805 19:02:56.504073 10603 net.cpp:141] Setting up drop6
I0805 19:02:56.504079 10603 net.cpp:148] Top shape: 64 4096 (262144)
I0805 19:02:56.504081 10603 net.cpp:156] Memory required for data: 161341696
I0805 19:02:56.504096 10603 layer_factory.hpp:77] Creating layer fc7
I0805 19:02:56.504102 10603 net.cpp:91] Creating Layer fc7
I0805 19:02:56.504106 10603 net.cpp:425] fc7 <- fc6
I0805 19:02:56.504112 10603 net.cpp:399] fc7 -> fc7
I0805 19:02:56.954829 10603 net.cpp:141] Setting up fc7
I0805 19:02:56.954856 10603 net.cpp:148] Top shape: 64 4096 (262144)
I0805 19:02:56.954860 10603 net.cpp:156] Memory required for data: 162390272
I0805 19:02:56.954869 10603 layer_factory.hpp:77] Creating layer relu7
I0805 19:02:56.954876 10603 net.cpp:91] Creating Layer relu7
I0805 19:02:56.954880 10603 net.cpp:425] relu7 <- fc7
I0805 19:02:56.954885 10603 net.cpp:386] relu7 -> fc7 (in-place)
I0805 19:02:56.955266 10603 net.cpp:141] Setting up relu7
I0805 19:02:56.955278 10603 net.cpp:148] Top shape: 64 4096 (262144)
I0805 19:02:56.955292 10603 net.cpp:156] Memory required for data: 163438848
I0805 19:02:56.955296 10603 layer_factory.hpp:77] Creating layer drop7
I0805 19:02:56.955302 10603 net.cpp:91] Creating Layer drop7
I0805 19:02:56.955307 10603 net.cpp:425] drop7 <- fc7
I0805 19:02:56.955312 10603 net.cpp:386] drop7 -> fc7 (in-place)
I0805 19:02:56.955348 10603 net.cpp:141] Setting up drop7
I0805 19:02:56.955353 10603 net.cpp:148] Top shape: 64 4096 (262144)
I0805 19:02:56.955355 10603 net.cpp:156] Memory required for data: 164487424
I0805 19:02:56.955358 10603 layer_factory.hpp:77] Creating layer fc8
I0805 19:02:56.955394 10603 net.cpp:91] Creating Layer fc8
I0805 19:02:56.955396 10603 net.cpp:425] fc8 <- fc7
I0805 19:02:56.955401 10603 net.cpp:399] fc8 -> fc8
I0805 19:02:56.956215 10603 net.cpp:141] Setting up fc8
I0805 19:02:56.956228 10603 net.cpp:148] Top shape: 64 2 (128)
I0805 19:02:56.956241 10603 net.cpp:156] Memory required for data: 164487936
I0805 19:02:56.956248 10603 layer_factory.hpp:77] Creating layer loss
I0805 19:02:56.956256 10603 net.cpp:91] Creating Layer loss
I0805 19:02:56.956260 10603 net.cpp:425] loss <- fc8
I0805 19:02:56.956264 10603 net.cpp:425] loss <- label
I0805 19:02:56.956269 10603 net.cpp:399] loss -> loss
I0805 19:02:56.956287 10603 layer_factory.hpp:77] Creating layer loss
…
I0805 19:02:56.957479 10603 net.cpp:313] The NetState phase (1) differed from the phase (0) specified by a rule in layer mnist
I0805 19:02:56.957628 10603 net.cpp:49] Initializing net from parameters: 
name: "AlexNet"
state {
  phase: TEST
}
layer {
  name: "mnist"
  type: "Data"
  top: "data"
  top: "label"
  include {
    phase: TEST
  }
  transform_param {
    scale: 0.00390625
    mean_file: "data/person_only_lmdb/person_background_only_color_mean.binaryproto"
  }
  data_param {
    source: "data/person_only_lmdb/person_background_only_test_lmdb"
    batch_size: 100
    backend: LMDB
  }
}
layer {
  name: "conv1"
  type: "Convolution"
  bottom: "data"
  top: "conv1"
  param {
    lr_mult: 1
    decay_mult: 1
  }
  param {
    lr_mult: 2
    decay_mult: 0
  }
  convolution_param {
    num_output: 96
    kernel_size: 11
    stride: 4
    weight_filler {
      type: "gaussian"
      std: 0.01
    }
    bias_filler {
      type: "constant"
      value: 0
    }
  }
}
layer {
  name: "relu1"
  type: "ReLU"
  bottom: "conv1"
  top: "conv1"
}
layer {
  name: "norm1"
  type: "LRN"
  bottom: "conv1"
  top: "norm1"
  lrn_param {
    local_size: 5
    alpha: 0.0001
    beta: 0.75
  }
}
layer {
  name: "pool1"
  type: "Pooling"
  bottom: "norm1"
  top: "pool1"
  pooling_param {
    pool: MAX
    kernel_size: 3
    stride: 2
  }
}
layer {
  name: "conv2"
  type: "Convolution"
  bottom: "pool1"
  top: "conv2"
  param {
    lr_mult: 1
    decay_mult: 1
  }
  param {
    lr_mult: 2
    decay_mult: 0
  }
  convolution_param {
    num_output: 256
    pad: 2
    kernel_size: 5
    group: 2
    weight_filler {
      type: "gaussian"
      std: 0.01
    }
    bias_filler {
      type: "constant"
      value: 0.1
    }
  }
}
layer {
  name: "relu2"
  type: "ReLU"
  bottom: "conv2"
  top: "conv2"
}
layer {
  name: "norm2"
  type: "LRN"
  bottom: "conv2"
  top: "norm2"
  lrn_param {
    local_size: 5
    alpha: 0.0001
    beta: 0.75
  }
}
layer {
  name: "pool2"
  type: "Pooling"
  bottom: "norm2"
  top: "pool2"
  pooling_param {
    pool: MAX
    kernel_size: 3
    stride: 2
  }
}
layer {
  name: "conv3"
  type: "Convolution"
  bottom: "pool2"
  top: "conv3"
  param {
    lr_mult: 1
    decay_mult: 1
  }
  param {
    lr_mult: 2
    decay_mult: 0
  }
  convolution_param {
    num_output: 384
    pad: 1
    kernel_size: 3
    weight_filler {
      type: "gaussian"
      std: 0.01
    }
    bias_filler {
      type: "constant"
      value: 0
    }
  }
}
layer {
  name: "relu3"
  type: "ReLU"
  bottom: "conv3"
  top: "conv3"
}
layer {
  name: "conv4"
  type: "Convolution"
  bottom: "conv3"
  top: "conv4"
  param {
    lr_mult: 1
    decay_mult: 1
  }
  param {
    lr_mult: 2
    decay_mult: 0
  }
  convolution_param {
    num_output: 384
    pad: 1
    kernel_size: 3
    group: 2
    weight_filler {
      type: "gaussian"
      std: 0.01
    }
    bias_filler {
      type: "constant"
      value: 0.1
    }
  }
}
layer {
  name: "relu4"
  type: "ReLU"
  bottom: "conv4"
  top: "conv4"
}
layer {
  name: "conv5"
  type: "Convolution"
  bottom: "conv4"
  top: "conv5"
  param {
    lr_mult: 1
    decay_mult: 1
  }
  param {
    lr_mult: 2
    decay_mult: 0
  }
  convolution_param {
    num_output: 256
    pad: 1
    kernel_size: 3
    group: 2
    weight_filler {
      type: "gaussian"
      std: 0.01
    }
    bias_filler {
      type: "constant"
      value: 0.1
    }
  }
}
layer {
  name: "relu5"
  type: "ReLU"
  bottom: "conv5"
  top: "conv5"
}
layer {
  name: "pool5"
  type: "Pooling"
  bottom: "conv5"
  top: "pool5"
  pooling_param {
    pool: MAX
    kernel_size: 3
    stride: 2
  }
}
layer {
  name: "fc6"
  type: "InnerProduct"
  bottom: "pool5"
  top: "fc6"
  param {
    lr_mult: 1
    decay_mult: 1
  }
  param {
    lr_mult: 2
    decay_mult: 0
  }
  inner_product_param {
    num_output: 4096
    weight_filler {
      type: "gaussian"
      std: 0.005
    }
    bias_filler {
      type: "constant"
      value: 0.1
    }
  }
}
layer {
  name: "relu6"
  type: "ReLU"
  bottom: "fc6"
  top: "fc6"
}
layer {
  name: "drop6"
  type: "Dropout"
  bottom: "fc6"
  top: "fc6"
  dropout_param {
    dropout_ratio: 0.5
  }
}
layer {
  name: "fc7"
  type: "InnerProduct"
  bottom: "fc6"
  top: "fc7"
  param {
    lr_mult: 1
    decay_mult: 1
  }
  param {
    lr_mult: 2
    decay_mult: 0
  }
  inner_product_param {
    num_output: 4096
    weight_filler {
      type: "gaussian"
      std: 0.005
    }
    bias_filler {
      type: "constant"
      value: 0.1
    }
  }
}
layer {
  name: "relu7"
  type: "ReLU"
  bottom: "fc7"
  top: "fc7"
}
layer {
  name: "drop7"
  type: "Dropout"
  bottom: "fc7"
  top: "fc7"
  dropout_param {
    dropout_ratio: 0.5
  }
}
layer {
  name: "fc8"
  type: "InnerProduct"
  bottom: "fc7"
  top: "fc8"
  param {
    lr_mult: 1
    decay_mult: 1
  }
  param {
    lr_mult: 2
    decay_mult: 0
  }
  inner_product_param {
    num_output: 2
    weight_filler {
      type: "gaussian"
      std: 0.01
    }
    bias_filler {
      type: "constant"
      value: 0
    }
  }
}
layer {
  name: "accuracy"
  type: "Accuracy"
  bottom: "fc8"
  bottom: "label"
  top: "accuracy"
  include {
    phase: TEST
  }
}
layer {
  name: "loss"
  type: "SoftmaxWithLoss"
  bottom: "fc8"
  bottom: "label"
  top: "loss"
}
I0805 19:02:56.957720 10603 layer_factory.hpp:77] Creating layer mnist
I0805 19:02:56.957816 10603 net.cpp:91] Creating Layer mnist
I0805 19:02:56.957823 10603 net.cpp:399] mnist -> data
I0805 19:02:56.957830 10603 net.cpp:399] mnist -> label
I0805 19:02:56.957837 10603 data_transformer.cpp:25] Loading mean file from: data/person_only_lmdb/person_background_only_color_mean.binaryproto
I0805 19:02:56.959233 10612 db_lmdb.cpp:35] Opened lmdb data/person_only_lmdb/person_background_only_test_lmdb
I0805 19:02:56.959578 10603 data_layer.cpp:41] output data size: 100,3,128,128
I0805 19:02:57.001528 10603 net.cpp:141] Setting up mnist
I0805 19:02:57.001554 10603 net.cpp:148] Top shape: 100 3 128 128 (4915200)
I0805 19:02:57.001559 10603 net.cpp:148] Top shape: 100 (100)
I0805 19:02:57.001561 10603 net.cpp:156] Memory required for data: 19661200
I0805 19:02:57.001566 10603 layer_factory.hpp:77] Creating layer label_mnist_1_split
I0805 19:02:57.001576 10603 net.cpp:91] Creating Layer label_mnist_1_split
I0805 19:02:57.001579 10603 net.cpp:425] label_mnist_1_split <- label
I0805 19:02:57.001585 10603 net.cpp:399] label_mnist_1_split -> label_mnist_1_split_0
I0805 19:02:57.001593 10603 net.cpp:399] label_mnist_1_split -> label_mnist_1_split_1
I0805 19:02:57.001669 10603 net.cpp:141] Setting up label_mnist_1_split
I0805 19:02:57.001675 10603 net.cpp:148] Top shape: 100 (100)
I0805 19:02:57.001678 10603 net.cpp:148] Top shape: 100 (100)
I0805 19:02:57.001682 10603 net.cpp:156] Memory required for data: 19662000
I0805 19:02:57.001684 10603 layer_factory.hpp:77] Creating layer conv1
I0805 19:02:57.001695 10603 net.cpp:91] Creating Layer conv1
I0805 19:02:57.001698 10603 net.cpp:425] conv1 <- data
I0805 19:02:57.001703 10603 net.cpp:399] conv1 -> conv1
I0805 19:02:57.006948 10603 net.cpp:141] Setting up conv1
I0805 19:02:57.006965 10603 net.cpp:148] Top shape: 100 96 30 30 (8640000)
I0805 19:02:57.006969 10603 net.cpp:156] Memory required for data: 54222000
I0805 19:02:57.006978 10603 layer_factory.hpp:77] Creating layer relu1
I0805 19:02:57.006984 10603 net.cpp:91] Creating Layer relu1
I0805 19:02:57.006989 10603 net.cpp:425] relu1 <- conv1
I0805 19:02:57.006992 10603 net.cpp:386] relu1 -> conv1 (in-place)
I0805 19:02:57.007261 10603 net.cpp:141] Setting up relu1
I0805 19:02:57.007272 10603 net.cpp:148] Top shape: 100 96 30 30 (8640000)
I0805 19:02:57.007287 10603 net.cpp:156] Memory required for data: 88782000
I0805 19:02:57.007290 10603 layer_factory.hpp:77] Creating layer norm1
I0805 19:02:57.007297 10603 net.cpp:91] Creating Layer norm1
I0805 19:02:57.007300 10603 net.cpp:425] norm1 <- conv1
I0805 19:02:57.007305 10603 net.cpp:399] norm1 -> norm1
I0805 19:02:57.007503 10603 net.cpp:141] Setting up norm1
I0805 19:02:57.007522 10603 net.cpp:148] Top shape: 100 96 30 30 (8640000)
I0805 19:02:57.007525 10603 net.cpp:156] Memory required for data: 123342000
I0805 19:02:57.007529 10603 layer_factory.hpp:77] Creating layer pool1
I0805 19:02:57.007545 10603 net.cpp:91] Creating Layer pool1
I0805 19:02:57.007549 10603 net.cpp:425] pool1 <- norm1
I0805 19:02:57.007553 10603 net.cpp:399] pool1 -> pool1
I0805 19:02:57.007587 10603 net.cpp:141] Setting up pool1
I0805 19:02:57.007593 10603 net.cpp:148] Top shape: 100 96 15 15 (2160000)
I0805 19:02:57.007596 10603 net.cpp:156] Memory required for data: 131982000
I0805 19:02:57.007598 10603 layer_factory.hpp:77] Creating layer conv2
I0805 19:02:57.007617 10603 net.cpp:91] Creating Layer conv2
I0805 19:02:57.007621 10603 net.cpp:425] conv2 <- pool1
I0805 19:02:57.007625 10603 net.cpp:399] conv2 -> conv2
I0805 19:02:57.017305 10603 net.cpp:141] Setting up conv2
I0805 19:02:57.017319 10603 net.cpp:148] Top shape: 100 256 15 15 (5760000)
I0805 19:02:57.017323 10603 net.cpp:156] Memory required for data: 155022000
I0805 19:02:57.017330 10603 layer_factory.hpp:77] Creating layer relu2
I0805 19:02:57.017336 10603 net.cpp:91] Creating Layer relu2
I0805 19:02:57.017339 10603 net.cpp:425] relu2 <- conv2
I0805 19:02:57.017344 10603 net.cpp:386] relu2 -> conv2 (in-place)
I0805 19:02:57.017621 10603 net.cpp:141] Setting up relu2
I0805 19:02:57.017632 10603 net.cpp:148] Top shape: 100 256 15 15 (5760000)
I0805 19:02:57.017647 10603 net.cpp:156] Memory required for data: 178062000
I0805 19:02:57.017649 10603 layer_factory.hpp:77] Creating layer norm2
I0805 19:02:57.017657 10603 net.cpp:91] Creating Layer norm2
I0805 19:02:57.017659 10603 net.cpp:425] norm2 <- conv2
I0805 19:02:57.017664 10603 net.cpp:399] norm2 -> norm2
I0805 19:02:57.017854 10603 net.cpp:141] Setting up norm2
I0805 19:02:57.017864 10603 net.cpp:148] Top shape: 100 256 15 15 (5760000)
I0805 19:02:57.017879 10603 net.cpp:156] Memory required for data: 201102000
I0805 19:02:57.017881 10603 layer_factory.hpp:77] Creating layer pool2
I0805 19:02:57.017886 10603 net.cpp:91] Creating Layer pool2
I0805 19:02:57.017889 10603 net.cpp:425] pool2 <- norm2
I0805 19:02:57.017894 10603 net.cpp:399] pool2 -> pool2
I0805 19:02:57.017926 10603 net.cpp:141] Setting up pool2
I0805 19:02:57.017931 10603 net.cpp:148] Top shape: 100 256 7 7 (1254400)
I0805 19:02:57.017935 10603 net.cpp:156] Memory required for data: 206119600
I0805 19:02:57.017937 10603 layer_factory.hpp:77] Creating layer conv3
I0805 19:02:57.017945 10603 net.cpp:91] Creating Layer conv3
I0805 19:02:57.017948 10603 net.cpp:425] conv3 <- pool2
I0805 19:02:57.017953 10603 net.cpp:399] conv3 -> conv3
I0805 19:02:57.042268 10603 net.cpp:141] Setting up conv3
I0805 19:02:57.042282 10603 net.cpp:148] Top shape: 100 384 7 7 (1881600)
I0805 19:02:57.042286 10603 net.cpp:156] Memory required for data: 213646000
I0805 19:02:57.042294 10603 layer_factory.hpp:77] Creating layer relu3
I0805 19:02:57.042300 10603 net.cpp:91] Creating Layer relu3
I0805 19:02:57.042304 10603 net.cpp:425] relu3 <- conv3
I0805 19:02:57.042307 10603 net.cpp:386] relu3 -> conv3 (in-place)
I0805 19:02:57.042482 10603 net.cpp:141] Setting up relu3
I0805 19:02:57.042491 10603 net.cpp:148] Top shape: 100 384 7 7 (1881600)
I0805 19:02:57.042505 10603 net.cpp:156] Memory required for data: 221172400
I0805 19:02:57.042508 10603 layer_factory.hpp:77] Creating layer conv4
I0805 19:02:57.042516 10603 net.cpp:91] Creating Layer conv4
I0805 19:02:57.042520 10603 net.cpp:425] conv4 <- conv3
I0805 19:02:57.042526 10603 net.cpp:399] conv4 -> conv4
I0805 19:02:57.061660 10603 net.cpp:141] Setting up conv4
I0805 19:02:57.061673 10603 net.cpp:148] Top shape: 100 384 7 7 (1881600)
I0805 19:02:57.061676 10603 net.cpp:156] Memory required for data: 228698800
I0805 19:02:57.061682 10603 layer_factory.hpp:77] Creating layer relu4
I0805 19:02:57.061688 10603 net.cpp:91] Creating Layer relu4
I0805 19:02:57.061691 10603 net.cpp:425] relu4 <- conv4
I0805 19:02:57.061697 10603 net.cpp:386] relu4 -> conv4 (in-place)
I0805 19:02:57.061985 10603 net.cpp:141] Setting up relu4
I0805 19:02:57.061996 10603 net.cpp:148] Top shape: 100 384 7 7 (1881600)
I0805 19:02:57.062011 10603 net.cpp:156] Memory required for data: 236225200
I0805 19:02:57.062014 10603 layer_factory.hpp:77] Creating layer conv5
I0805 19:02:57.062022 10603 net.cpp:91] Creating Layer conv5
I0805 19:02:57.062026 10603 net.cpp:425] conv5 <- conv4
I0805 19:02:57.062032 10603 net.cpp:399] conv5 -> conv5
I0805 19:02:57.075042 10603 net.cpp:141] Setting up conv5
I0805 19:02:57.075057 10603 net.cpp:148] Top shape: 100 256 7 7 (1254400)
I0805 19:02:57.075059 10603 net.cpp:156] Memory required for data: 241242800
I0805 19:02:57.075068 10603 layer_factory.hpp:77] Creating layer relu5
I0805 19:02:57.075074 10603 net.cpp:91] Creating Layer relu5
I0805 19:02:57.075078 10603 net.cpp:425] relu5 <- conv5
I0805 19:02:57.075081 10603 net.cpp:386] relu5 -> conv5 (in-place)
I0805 19:02:57.075356 10603 net.cpp:141] Setting up relu5
I0805 19:02:57.075366 10603 net.cpp:148] Top shape: 100 256 7 7 (1254400)
I0805 19:02:57.075381 10603 net.cpp:156] Memory required for data: 246260400
I0805 19:02:57.075384 10603 layer_factory.hpp:77] Creating layer pool5
I0805 19:02:57.075392 10603 net.cpp:91] Creating Layer pool5
I0805 19:02:57.075395 10603 net.cpp:425] pool5 <- conv5
I0805 19:02:57.075400 10603 net.cpp:399] pool5 -> pool5
I0805 19:02:57.075443 10603 net.cpp:141] Setting up pool5
I0805 19:02:57.075448 10603 net.cpp:148] Top shape: 100 256 3 3 (230400)
I0805 19:02:57.075451 10603 net.cpp:156] Memory required for data: 247182000
I0805 19:02:57.075453 10603 layer_factory.hpp:77] Creating layer fc6
I0805 19:02:57.075460 10603 net.cpp:91] Creating Layer fc6
I0805 19:02:57.075464 10603 net.cpp:425] fc6 <- pool5
I0805 19:02:57.075469 10603 net.cpp:399] fc6 -> fc6
I0805 19:02:57.331724 10603 net.cpp:141] Setting up fc6
I0805 19:02:57.331753 10603 net.cpp:148] Top shape: 100 4096 (409600)
I0805 19:02:57.331755 10603 net.cpp:156] Memory required for data: 248820400
I0805 19:02:57.331763 10603 layer_factory.hpp:77] Creating layer relu6
I0805 19:02:57.331770 10603 net.cpp:91] Creating Layer relu6
I0805 19:02:57.331773 10603 net.cpp:425] relu6 <- fc6
I0805 19:02:57.331779 10603 net.cpp:386] relu6 -> fc6 (in-place)
I0805 19:02:57.332002 10603 net.cpp:141] Setting up relu6
I0805 19:02:57.332011 10603 net.cpp:148] Top shape: 100 4096 (409600)
I0805 19:02:57.332026 10603 net.cpp:156] Memory required for data: 250458800
I0805 19:02:57.332029 10603 layer_factory.hpp:77] Creating layer drop6
I0805 19:02:57.332036 10603 net.cpp:91] Creating Layer drop6
I0805 19:02:57.332038 10603 net.cpp:425] drop6 <- fc6
I0805 19:02:57.332046 10603 net.cpp:386] drop6 -> fc6 (in-place)
I0805 19:02:57.332072 10603 net.cpp:141] Setting up drop6
I0805 19:02:57.332077 10603 net.cpp:148] Top shape: 100 4096 (409600)
I0805 19:02:57.332079 10603 net.cpp:156] Memory required for data: 252097200
I0805 19:02:57.332082 10603 layer_factory.hpp:77] Creating layer fc7
I0805 19:02:57.332088 10603 net.cpp:91] Creating Layer fc7
I0805 19:02:57.332092 10603 net.cpp:425] fc7 <- fc6
I0805 19:02:57.332096 10603 net.cpp:399] fc7 -> fc7
I0805 19:02:57.784643 10603 net.cpp:141] Setting up fc7
I0805 19:02:57.784679 10603 net.cpp:148] Top shape: 100 4096 (409600)
I0805 19:02:57.784683 10603 net.cpp:156] Memory required for data: 253735600
I0805 19:02:57.784692 10603 layer_factory.hpp:77] Creating layer relu7
I0805 19:02:57.784703 10603 net.cpp:91] Creating Layer relu7
I0805 19:02:57.784709 10603 net.cpp:425] relu7 <- fc7
I0805 19:02:57.784715 10603 net.cpp:386] relu7 -> fc7 (in-place)
I0805 19:02:57.785229 10603 net.cpp:141] Setting up relu7
I0805 19:02:57.785254 10603 net.cpp:148] Top shape: 100 4096 (409600)
I0805 19:02:57.785256 10603 net.cpp:156] Memory required for data: 255374000
I0805 19:02:57.785260 10603 layer_factory.hpp:77] Creating layer drop7
I0805 19:02:57.785269 10603 net.cpp:91] Creating Layer drop7
I0805 19:02:57.785272 10603 net.cpp:425] drop7 <- fc7
I0805 19:02:57.785277 10603 net.cpp:386] drop7 -> fc7 (in-place)
I0805 19:02:57.785307 10603 net.cpp:141] Setting up drop7
I0805 19:02:57.785312 10603 net.cpp:148] Top shape: 100 4096 (409600)
I0805 19:02:57.785315 10603 net.cpp:156] Memory required for data: 257012400
I0805 19:02:57.785317 10603 layer_factory.hpp:77] Creating layer fc8
I0805 19:02:57.785328 10603 net.cpp:91] Creating Layer fc8
I0805 19:02:57.785342 10603 net.cpp:425] fc8 <- fc7
I0805 19:02:57.785347 10603 net.cpp:399] fc8 -> fc8
I0805 19:02:57.785742 10603 net.cpp:141] Setting up fc8
I0805 19:02:57.785750 10603 net.cpp:148] Top shape: 100 2 (200)
I0805 19:02:57.785764 10603 net.cpp:156] Memory required for data: 257013200
I0805 19:02:57.785770 10603 layer_factory.hpp:77] Creating layer fc8_fc8_0_split
I0805 19:02:57.785778 10603 net.cpp:91] Creating Layer fc8_fc8_0_split
I0805 19:02:57.785781 10603 net.cpp:425] fc8_fc8_0_split <- fc8
I0805 19:02:57.785785 10603 net.cpp:399] fc8_fc8_0_split -> fc8_fc8_0_split_0
I0805 19:02:57.785791 10603 net.cpp:399] fc8_fc8_0_split -> fc8_fc8_0_split_1
I0805 19:02:57.785825 10603 net.cpp:141] Setting up fc8_fc8_0_split
I0805 19:02:57.785830 10603 net.cpp:148] Top shape: 100 2 (200)
I0805 19:02:57.785833 10603 net.cpp:148] Top shape: 100 2 (200)
I0805 19:02:57.785835 10603 net.cpp:156] Memory required for data: 257014800
I0805 19:02:57.785838 10603 layer_factory.hpp:77] Creating layer accuracy
I0805 19:02:57.785845 10603 net.cpp:91] Creating Layer accuracy
I0805 19:02:57.785847 10603 net.cpp:425] accuracy <- fc8_fc8_0_split_0
I0805 19:02:57.785851 10603 net.cpp:425] accuracy <- label_mnist_1_split_0
I0805 19:02:57.785856 10603 net.cpp:399] accuracy -> accuracy
…
