…
I0827 08:51:15.922859 10163 net.cpp:322] The NetState phase (0) differed from the phase (1) specified by a rule in layer accuracy
I0827 08:51:15.923099 10163 net.cpp:58] Initializing net from parameters: 
name: "CaffeNet"
state {
  phase: TRAIN
}
layer {
  name: "data"
  type: "Data"
  top: "data"
  top: "label"
  include {
    phase: TRAIN
  }
  transform_param {
    scale: 0.00390625
    mean_file: "data/person_only_lmdb/person_vs_background_vs_random_color_mean.binaryproto"
  }
  data_param {
    source: "data/person_only_lmdb/person_vs_background_vs_random_train_lmdb"
    batch_size: 128
    backend: LMDB
  }
}
layer {
  name: "conv1"
  type: "Convolution"
  bottom: "data"
  top: "conv1"
  param {
    lr_mult: 1
    decay_mult: 1
  }
  param {
    lr_mult: 2
    decay_mult: 0
  }
  convolution_param {
    num_output: 96
    kernel_size: 11
    stride: 4
    weight_filler {
      type: "gaussian"
      std: 0.01
    }
    bias_filler {
      type: "constant"
      value: 0
    }
  }
}
layer {
  name: "relu1"
  type: "ReLU"
  bottom: "conv1"
  top: "conv1"
}
layer {
  name: "pool1"
  type: "Pooling"
  bottom: "conv1"
  top: "pool1"
  pooling_param {
    pool: MAX
    kernel_size: 3
    stride: 2
  }
}
layer {
  name: "norm1"
  type: "LRN"
  bottom: "pool1"
  top: "norm1"
  lrn_param {
    local_size: 5
    alpha: 0.0001
    beta: 0.75
  }
}
layer {
  name: "conv2"
  type: "Convolution"
  bottom: "norm1"
  top: "conv2"
  param {
    lr_mult: 1
    decay_mult: 1
  }
  param {
    lr_mult: 2
    decay_mult: 0
  }
  convolution_param {
    num_output: 256
    pad: 2
    kernel_size: 5
    group: 2
    weight_filler {
      type: "gaussian"
      std: 0.01
    }
    bias_filler {
      type: "constant"
      value: 1
    }
  }
}
layer {
  name: "relu2"
  type: "ReLU"
  bottom: "conv2"
  top: "conv2"
}
layer {
  name: "pool2"
  type: "Pooling"
  bottom: "conv2"
  top: "pool2"
  pooling_param {
    pool: MAX
    kernel_size: 3
    stride: 2
  }
}
layer {
  name: "norm2"
  type: "LRN"
  bottom: "pool2"
  top: "norm2"
  lrn_param {
    local_size: 5
    alpha: 0.0001
    beta: 0.75
  }
}
layer {
  name: "conv3"
  type: "Convolution"
  bottom: "norm2"
  top: "conv3"
  param {
    lr_mult: 1
    decay_mult: 1
  }
  param {
    lr_mult: 2
    decay_mult: 0
  }
  convolution_param {
    num_output: 384
    pad: 1
    kernel_size: 3
    weight_filler {
      type: "gaussian"
      std: 0.01
    }
    bias_filler {
      type: "constant"
      value: 0
    }
  }
}
layer {
  name: "relu3"
  type: "ReLU"
  bottom: "conv3"
  top: "conv3"
}
layer {
  name: "conv4"
  type: "Convolution"
  bottom: "conv3"
  top: "conv4"
  param {
    lr_mult: 1
    decay_mult: 1
  }
  param {
    lr_mult: 2
    decay_mult: 0
  }
  convolution_param {
    num_output: 384
    pad: 1
    kernel_size: 3
    group: 2
    weight_filler {
      type: "gaussian"
      std: 0.01
    }
    bias_filler {
      type: "constant"
      value: 1
    }
  }
}
layer {
  name: "relu4"
  type: "ReLU"
  bottom: "conv4"
  top: "conv4"
}
layer {
  name: "conv5"
  type: "Convolution"
  bottom: "conv4"
  top: "conv5"
  param {
    lr_mult: 1
    decay_mult: 1
  }
  param {
    lr_mult: 2
    decay_mult: 0
  }
  convolution_param {
    num_output: 256
    pad: 1
    kernel_size: 3
    group: 2
    weight_filler {
      type: "gaussian"
      std: 0.01
    }
    bias_filler {
      type: "constant"
      value: 1
    }
  }
}
layer {
  name: "relu5"
  type: "ReLU"
  bottom: "conv5"
  top: "conv5"
}
layer {
  name: "pool5"
  type: "Pooling"
  bottom: "conv5"
  top: "pool5"
  pooling_param {
    pool: MAX
    kernel_size: 3
    stride: 2
  }
}
layer {
  name: "fc6n"
  type: "InnerProduct"
  bottom: "pool5"
  top: "fc6"
  param {
    lr_mult: 1
    decay_mult: 1
  }
  param {
    lr_mult: 2
    decay_mult: 0
  }
  inner_product_param {
    num_output: 4096
    weight_filler {
      type: "gaussian"
      std: 0.005
    }
    bias_filler {
      type: "constant"
      value: 1
    }
  }
}
layer {
  name: "relu6"
  type: "ReLU"
  bottom: "fc6"
  top: "fc6"
}
layer {
  name: "drop6"
  type: "Dropout"
  bottom: "fc6"
  top: "fc6"
  dropout_param {
    dropout_ratio: 0.5
  }
}
layer {
  name: "fc7n"
  type: "InnerProduct"
  bottom: "fc6"
  top: "fc7"
  param {
    lr_mult: 1
    decay_mult: 1
  }
  param {
    lr_mult: 2
    decay_mult: 0
  }
  inner_product_param {
    num_output: 4096
    weight_filler {
      type: "gaussian"
      std: 0.005
    }
    bias_filler {
      type: "constant"
      value: 1
    }
  }
}
layer {
  name: "relu7"
  type: "ReLU"
  bottom: "fc7"
  top: "fc7"
}
layer {
  name: "drop7"
  type: "Dropout"
  bottom: "fc7"
  top: "fc7"
  dropout_param {
    dropout_ratio: 0.5
  }
}
layer {
  name: "fc8n"
  type: "InnerProduct"
  bottom: "fc7"
  top: "fc8"
  param {
    lr_mult: 1
    decay_mult: 1
  }
  param {
    lr_mult: 2
    decay_mult: 0
  }
  inner_product_param {
    num_output: 3
    weight_filler {
      type: "gaussian"
      std: 0.01
    }
    bias_filler {
      type: "constant"
      value: 0
    }
  }
}
layer {
  name: "loss"
  type: "SoftmaxWithLoss"
  bottom: "fc8"
  bottom: "label"
  top: "loss"
}
I0827 08:51:15.923226 10163 layer_factory.hpp:77] Creating layer data
I0827 08:51:15.924289 10163 net.cpp:100] Creating Layer data
I0827 08:51:15.924311 10163 net.cpp:408] data -> data
I0827 08:51:15.924330 10163 net.cpp:408] data -> label
I0827 08:51:15.924345 10163 data_transformer.cpp:25] Loading mean file from: data/person_only_lmdb/person_vs_background_vs_random_color_mean.binaryproto
I0827 08:51:15.926486 10285 db_lmdb.cpp:35] Opened lmdb data/person_only_lmdb/person_vs_background_vs_random_train_lmdb
I0827 08:51:16.003720 10163 data_layer.cpp:41] output data size: 128,3,128,128
I0827 08:51:16.066998 10163 net.cpp:150] Setting up data
I0827 08:51:16.067036 10163 net.cpp:157] Top shape: 128 3 128 128 (6291456)
I0827 08:51:16.067042 10163 net.cpp:157] Top shape: 128 (128)
I0827 08:51:16.067045 10163 net.cpp:165] Memory required for data: 25166336
I0827 08:51:16.067054 10163 layer_factory.hpp:77] Creating layer conv1
I0827 08:51:16.067077 10163 net.cpp:100] Creating Layer conv1
I0827 08:51:16.067082 10163 net.cpp:434] conv1 <- data
I0827 08:51:16.067091 10163 net.cpp:408] conv1 -> conv1
I0827 08:51:16.569103 10163 net.cpp:150] Setting up conv1
I0827 08:51:16.569149 10163 net.cpp:157] Top shape: 128 96 30 30 (11059200)
I0827 08:51:16.569154 10163 net.cpp:165] Memory required for data: 69403136
I0827 08:51:16.569177 10163 layer_factory.hpp:77] Creating layer relu1
I0827 08:51:16.569195 10163 net.cpp:100] Creating Layer relu1
I0827 08:51:16.569201 10163 net.cpp:434] relu1 <- conv1
I0827 08:51:16.569210 10163 net.cpp:395] relu1 -> conv1 (in-place)
I0827 08:51:16.569476 10163 net.cpp:150] Setting up relu1
I0827 08:51:16.569494 10163 net.cpp:157] Top shape: 128 96 30 30 (11059200)
I0827 08:51:16.569499 10163 net.cpp:165] Memory required for data: 113639936
I0827 08:51:16.569502 10163 layer_factory.hpp:77] Creating layer pool1
I0827 08:51:16.569512 10163 net.cpp:100] Creating Layer pool1
I0827 08:51:16.569519 10163 net.cpp:434] pool1 <- conv1
I0827 08:51:16.569525 10163 net.cpp:408] pool1 -> pool1
I0827 08:51:16.569584 10163 net.cpp:150] Setting up pool1
I0827 08:51:16.569594 10163 net.cpp:157] Top shape: 128 96 15 15 (2764800)
I0827 08:51:16.569598 10163 net.cpp:165] Memory required for data: 124699136
I0827 08:51:16.569602 10163 layer_factory.hpp:77] Creating layer norm1
I0827 08:51:16.569614 10163 net.cpp:100] Creating Layer norm1
I0827 08:51:16.569618 10163 net.cpp:434] norm1 <- pool1
I0827 08:51:16.569623 10163 net.cpp:408] norm1 -> norm1
I0827 08:51:16.570263 10163 net.cpp:150] Setting up norm1
I0827 08:51:16.570283 10163 net.cpp:157] Top shape: 128 96 15 15 (2764800)
I0827 08:51:16.570287 10163 net.cpp:165] Memory required for data: 135758336
I0827 08:51:16.570292 10163 layer_factory.hpp:77] Creating layer conv2
I0827 08:51:16.570312 10163 net.cpp:100] Creating Layer conv2
I0827 08:51:16.570315 10163 net.cpp:434] conv2 <- norm1
I0827 08:51:16.570323 10163 net.cpp:408] conv2 -> conv2
I0827 08:51:16.578805 10163 net.cpp:150] Setting up conv2
I0827 08:51:16.578827 10163 net.cpp:157] Top shape: 128 256 15 15 (7372800)
I0827 08:51:16.578832 10163 net.cpp:165] Memory required for data: 165249536
I0827 08:51:16.578847 10163 layer_factory.hpp:77] Creating layer relu2
I0827 08:51:16.578856 10163 net.cpp:100] Creating Layer relu2
I0827 08:51:16.578860 10163 net.cpp:434] relu2 <- conv2
I0827 08:51:16.578867 10163 net.cpp:395] relu2 -> conv2 (in-place)
I0827 08:51:16.579494 10163 net.cpp:150] Setting up relu2
I0827 08:51:16.579514 10163 net.cpp:157] Top shape: 128 256 15 15 (7372800)
I0827 08:51:16.579519 10163 net.cpp:165] Memory required for data: 194740736
I0827 08:51:16.579524 10163 layer_factory.hpp:77] Creating layer pool2
I0827 08:51:16.579533 10163 net.cpp:100] Creating Layer pool2
I0827 08:51:16.579537 10163 net.cpp:434] pool2 <- conv2
I0827 08:51:16.579546 10163 net.cpp:408] pool2 -> pool2
I0827 08:51:16.579612 10163 net.cpp:150] Setting up pool2
I0827 08:51:16.579622 10163 net.cpp:157] Top shape: 128 256 7 7 (1605632)
I0827 08:51:16.579627 10163 net.cpp:165] Memory required for data: 201163264
I0827 08:51:16.579632 10163 layer_factory.hpp:77] Creating layer norm2
I0827 08:51:16.579648 10163 net.cpp:100] Creating Layer norm2
I0827 08:51:16.579653 10163 net.cpp:434] norm2 <- pool2
I0827 08:51:16.579660 10163 net.cpp:408] norm2 -> norm2
I0827 08:51:16.579939 10163 net.cpp:150] Setting up norm2
I0827 08:51:16.579953 10163 net.cpp:157] Top shape: 128 256 7 7 (1605632)
I0827 08:51:16.579957 10163 net.cpp:165] Memory required for data: 207585792
I0827 08:51:16.579962 10163 layer_factory.hpp:77] Creating layer conv3
I0827 08:51:16.579977 10163 net.cpp:100] Creating Layer conv3
I0827 08:51:16.579983 10163 net.cpp:434] conv3 <- norm2
I0827 08:51:16.579991 10163 net.cpp:408] conv3 -> conv3
I0827 08:51:16.596684 10163 net.cpp:150] Setting up conv3
I0827 08:51:16.596704 10163 net.cpp:157] Top shape: 128 384 7 7 (2408448)
I0827 08:51:16.596709 10163 net.cpp:165] Memory required for data: 217219584
I0827 08:51:16.596720 10163 layer_factory.hpp:77] Creating layer relu3
I0827 08:51:16.596731 10163 net.cpp:100] Creating Layer relu3
I0827 08:51:16.596735 10163 net.cpp:434] relu3 <- conv3
I0827 08:51:16.596741 10163 net.cpp:395] relu3 -> conv3 (in-place)
I0827 08:51:16.596979 10163 net.cpp:150] Setting up relu3
I0827 08:51:16.596993 10163 net.cpp:157] Top shape: 128 384 7 7 (2408448)
I0827 08:51:16.596997 10163 net.cpp:165] Memory required for data: 226853376
I0827 08:51:16.597002 10163 layer_factory.hpp:77] Creating layer conv4
I0827 08:51:16.597015 10163 net.cpp:100] Creating Layer conv4
I0827 08:51:16.597020 10163 net.cpp:434] conv4 <- conv3
I0827 08:51:16.597030 10163 net.cpp:408] conv4 -> conv4
I0827 08:51:16.610311 10163 net.cpp:150] Setting up conv4
I0827 08:51:16.610330 10163 net.cpp:157] Top shape: 128 384 7 7 (2408448)
I0827 08:51:16.610334 10163 net.cpp:165] Memory required for data: 236487168
I0827 08:51:16.610342 10163 layer_factory.hpp:77] Creating layer relu4
I0827 08:51:16.610352 10163 net.cpp:100] Creating Layer relu4
I0827 08:51:16.610357 10163 net.cpp:434] relu4 <- conv4
I0827 08:51:16.610361 10163 net.cpp:395] relu4 -> conv4 (in-place)
I0827 08:51:16.610594 10163 net.cpp:150] Setting up relu4
I0827 08:51:16.610606 10163 net.cpp:157] Top shape: 128 384 7 7 (2408448)
I0827 08:51:16.610610 10163 net.cpp:165] Memory required for data: 246120960
I0827 08:51:16.610615 10163 layer_factory.hpp:77] Creating layer conv5
I0827 08:51:16.610628 10163 net.cpp:100] Creating Layer conv5
I0827 08:51:16.610632 10163 net.cpp:434] conv5 <- conv4
I0827 08:51:16.610640 10163 net.cpp:408] conv5 -> conv5
I0827 08:51:16.620198 10163 net.cpp:150] Setting up conv5
I0827 08:51:16.620216 10163 net.cpp:157] Top shape: 128 256 7 7 (1605632)
I0827 08:51:16.620220 10163 net.cpp:165] Memory required for data: 252543488
I0827 08:51:16.620234 10163 layer_factory.hpp:77] Creating layer relu5
I0827 08:51:16.620242 10163 net.cpp:100] Creating Layer relu5
I0827 08:51:16.620245 10163 net.cpp:434] relu5 <- conv5
I0827 08:51:16.620251 10163 net.cpp:395] relu5 -> conv5 (in-place)
I0827 08:51:16.620476 10163 net.cpp:150] Setting up relu5
I0827 08:51:16.620488 10163 net.cpp:157] Top shape: 128 256 7 7 (1605632)
I0827 08:51:16.620492 10163 net.cpp:165] Memory required for data: 258966016
I0827 08:51:16.620496 10163 layer_factory.hpp:77] Creating layer pool5
I0827 08:51:16.620502 10163 net.cpp:100] Creating Layer pool5
I0827 08:51:16.620506 10163 net.cpp:434] pool5 <- conv5
I0827 08:51:16.620513 10163 net.cpp:408] pool5 -> pool5
I0827 08:51:16.620565 10163 net.cpp:150] Setting up pool5
I0827 08:51:16.620575 10163 net.cpp:157] Top shape: 128 256 3 3 (294912)
I0827 08:51:16.620579 10163 net.cpp:165] Memory required for data: 260145664
I0827 08:51:16.620584 10163 layer_factory.hpp:77] Creating layer fc6n
I0827 08:51:16.620596 10163 net.cpp:100] Creating Layer fc6n
I0827 08:51:16.620604 10163 net.cpp:434] fc6n <- pool5
I0827 08:51:16.620609 10163 net.cpp:408] fc6n -> fc6
I0827 08:51:16.753095 10163 net.cpp:150] Setting up fc6n
I0827 08:51:16.753132 10163 net.cpp:157] Top shape: 128 4096 (524288)
I0827 08:51:16.753135 10163 net.cpp:165] Memory required for data: 262242816
I0827 08:51:16.753149 10163 layer_factory.hpp:77] Creating layer relu6
I0827 08:51:16.753161 10163 net.cpp:100] Creating Layer relu6
I0827 08:51:16.753165 10163 net.cpp:434] relu6 <- fc6
I0827 08:51:16.753173 10163 net.cpp:395] relu6 -> fc6 (in-place)
I0827 08:51:16.753777 10163 net.cpp:150] Setting up relu6
I0827 08:51:16.753793 10163 net.cpp:157] Top shape: 128 4096 (524288)
I0827 08:51:16.753795 10163 net.cpp:165] Memory required for data: 264339968
I0827 08:51:16.753798 10163 layer_factory.hpp:77] Creating layer drop6
I0827 08:51:16.753808 10163 net.cpp:100] Creating Layer drop6
I0827 08:51:16.753810 10163 net.cpp:434] drop6 <- fc6
I0827 08:51:16.753818 10163 net.cpp:395] drop6 -> fc6 (in-place)
I0827 08:51:16.753844 10163 net.cpp:150] Setting up drop6
I0827 08:51:16.753850 10163 net.cpp:157] Top shape: 128 4096 (524288)
I0827 08:51:16.753854 10163 net.cpp:165] Memory required for data: 266437120
I0827 08:51:16.753855 10163 layer_factory.hpp:77] Creating layer fc7n
I0827 08:51:16.753867 10163 net.cpp:100] Creating Layer fc7n
I0827 08:51:16.753875 10163 net.cpp:434] fc7n <- fc6
I0827 08:51:16.753880 10163 net.cpp:408] fc7n -> fc7
I0827 08:51:16.984123 10163 net.cpp:150] Setting up fc7n
I0827 08:51:16.984165 10163 net.cpp:157] Top shape: 128 4096 (524288)
I0827 08:51:16.984169 10163 net.cpp:165] Memory required for data: 268534272
I0827 08:51:16.984181 10163 layer_factory.hpp:77] Creating layer relu7
I0827 08:51:16.984194 10163 net.cpp:100] Creating Layer relu7
I0827 08:51:16.984199 10163 net.cpp:434] relu7 <- fc7
I0827 08:51:16.984208 10163 net.cpp:395] relu7 -> fc7 (in-place)
I0827 08:51:16.984480 10163 net.cpp:150] Setting up relu7
I0827 08:51:16.984493 10163 net.cpp:157] Top shape: 128 4096 (524288)
I0827 08:51:16.984495 10163 net.cpp:165] Memory required for data: 270631424
I0827 08:51:16.984498 10163 layer_factory.hpp:77] Creating layer drop7
I0827 08:51:16.984508 10163 net.cpp:100] Creating Layer drop7
I0827 08:51:16.984510 10163 net.cpp:434] drop7 <- fc7
I0827 08:51:16.984515 10163 net.cpp:395] drop7 -> fc7 (in-place)
I0827 08:51:16.984540 10163 net.cpp:150] Setting up drop7
I0827 08:51:16.984545 10163 net.cpp:157] Top shape: 128 4096 (524288)
I0827 08:51:16.984549 10163 net.cpp:165] Memory required for data: 272728576
I0827 08:51:16.984551 10163 layer_factory.hpp:77] Creating layer fc8n
I0827 08:51:16.984563 10163 net.cpp:100] Creating Layer fc8n
I0827 08:51:16.984566 10163 net.cpp:434] fc8n <- fc7
I0827 08:51:16.984573 10163 net.cpp:408] fc8n -> fc8
I0827 08:51:16.986187 10163 net.cpp:150] Setting up fc8n
I0827 08:51:16.986202 10163 net.cpp:157] Top shape: 128 3 (384)
I0827 08:51:16.986205 10163 net.cpp:165] Memory required for data: 272730112
I0827 08:51:16.986212 10163 layer_factory.hpp:77] Creating layer loss
I0827 08:51:16.986220 10163 net.cpp:100] Creating Layer loss
I0827 08:51:16.986224 10163 net.cpp:434] loss <- fc8
I0827 08:51:16.986229 10163 net.cpp:434] loss <- label
I0827 08:51:16.986234 10163 net.cpp:408] loss -> loss
I0827 08:51:16.986248 10163 layer_factory.hpp:77] Creating layer loss
…
I0827 08:51:16.987084 10163 net.cpp:322] The NetState phase (1) differed from the phase (0) specified by a rule in layer data
I0827 08:51:16.987257 10163 net.cpp:58] Initializing net from parameters: 
name: "CaffeNet"
state {
  phase: TEST
}
layer {
  name: "data"
  type: "Data"
  top: "data"
  top: "label"
  include {
    phase: TEST
  }
  transform_param {
    scale: 0.00390625
    mean_file: "data/person_only_lmdb/person_vs_background_vs_random_color_mean.binaryproto"
  }
  data_param {
    source: "data/person_only_lmdb/person_vs_background_vs_random_test_lmdb"
    batch_size: 100
    backend: LMDB
  }
}
layer {
  name: "conv1"
  type: "Convolution"
  bottom: "data"
  top: "conv1"
  param {
    lr_mult: 1
    decay_mult: 1
  }
  param {
    lr_mult: 2
    decay_mult: 0
  }
  convolution_param {
    num_output: 96
    kernel_size: 11
    stride: 4
    weight_filler {
      type: "gaussian"
      std: 0.01
    }
    bias_filler {
      type: "constant"
      value: 0
    }
  }
}
layer {
  name: "relu1"
  type: "ReLU"
  bottom: "conv1"
  top: "conv1"
}
layer {
  name: "pool1"
  type: "Pooling"
  bottom: "conv1"
  top: "pool1"
  pooling_param {
    pool: MAX
    kernel_size: 3
    stride: 2
  }
}
layer {
  name: "norm1"
  type: "LRN"
  bottom: "pool1"
  top: "norm1"
  lrn_param {
    local_size: 5
    alpha: 0.0001
    beta: 0.75
  }
}
layer {
  name: "conv2"
  type: "Convolution"
  bottom: "norm1"
  top: "conv2"
  param {
    lr_mult: 1
    decay_mult: 1
  }
  param {
    lr_mult: 2
    decay_mult: 0
  }
  convolution_param {
    num_output: 256
    pad: 2
    kernel_size: 5
    group: 2
    weight_filler {
      type: "gaussian"
      std: 0.01
    }
    bias_filler {
      type: "constant"
      value: 1
    }
  }
}
layer {
  name: "relu2"
  type: "ReLU"
  bottom: "conv2"
  top: "conv2"
}
layer {
  name: "pool2"
  type: "Pooling"
  bottom: "conv2"
  top: "pool2"
  pooling_param {
    pool: MAX
    kernel_size: 3
    stride: 2
  }
}
layer {
  name: "norm2"
  type: "LRN"
  bottom: "pool2"
  top: "norm2"
  lrn_param {
    local_size: 5
    alpha: 0.0001
    beta: 0.75
  }
}
layer {
  name: "conv3"
  type: "Convolution"
  bottom: "norm2"
  top: "conv3"
  param {
    lr_mult: 1
    decay_mult: 1
  }
  param {
    lr_mult: 2
    decay_mult: 0
  }
  convolution_param {
    num_output: 384
    pad: 1
    kernel_size: 3
    weight_filler {
      type: "gaussian"
      std: 0.01
    }
    bias_filler {
      type: "constant"
      value: 0
    }
  }
}
layer {
  name: "relu3"
  type: "ReLU"
  bottom: "conv3"
  top: "conv3"
}
layer {
  name: "conv4"
  type: "Convolution"
  bottom: "conv3"
  top: "conv4"
  param {
    lr_mult: 1
    decay_mult: 1
  }
  param {
    lr_mult: 2
    decay_mult: 0
  }
  convolution_param {
    num_output: 384
    pad: 1
    kernel_size: 3
    group: 2
    weight_filler {
      type: "gaussian"
      std: 0.01
    }
    bias_filler {
      type: "constant"
      value: 1
    }
  }
}
layer {
  name: "relu4"
  type: "ReLU"
  bottom: "conv4"
  top: "conv4"
}
layer {
  name: "conv5"
  type: "Convolution"
  bottom: "conv4"
  top: "conv5"
  param {
    lr_mult: 1
    decay_mult: 1
  }
  param {
    lr_mult: 2
    decay_mult: 0
  }
  convolution_param {
    num_output: 256
    pad: 1
    kernel_size: 3
    group: 2
    weight_filler {
      type: "gaussian"
      std: 0.01
    }
    bias_filler {
      type: "constant"
      value: 1
    }
  }
}
layer {
  name: "relu5"
  type: "ReLU"
  bottom: "conv5"
  top: "conv5"
}
layer {
  name: "pool5"
  type: "Pooling"
  bottom: "conv5"
  top: "pool5"
  pooling_param {
    pool: MAX
    kernel_size: 3
    stride: 2
  }
}
layer {
  name: "fc6n"
  type: "InnerProduct"
  bottom: "pool5"
  top: "fc6"
  param {
    lr_mult: 1
    decay_mult: 1
  }
  param {
    lr_mult: 2
    decay_mult: 0
  }
  inner_product_param {
    num_output: 4096
    weight_filler {
      type: "gaussian"
      std: 0.005
    }
    bias_filler {
      type: "constant"
      value: 1
    }
  }
}
layer {
  name: "relu6"
  type: "ReLU"
  bottom: "fc6"
  top: "fc6"
}
layer {
  name: "drop6"
  type: "Dropout"
  bottom: "fc6"
  top: "fc6"
  dropout_param {
    dropout_ratio: 0.5
  }
}
layer {
  name: "fc7n"
  type: "InnerProduct"
  bottom: "fc6"
  top: "fc7"
  param {
    lr_mult: 1
    decay_mult: 1
  }
  param {
    lr_mult: 2
    decay_mult: 0
  }
  inner_product_param {
    num_output: 4096
    weight_filler {
      type: "gaussian"
      std: 0.005
    }
    bias_filler {
      type: "constant"
      value: 1
    }
  }
}
layer {
  name: "relu7"
  type: "ReLU"
  bottom: "fc7"
  top: "fc7"
}
layer {
  name: "drop7"
  type: "Dropout"
  bottom: "fc7"
  top: "fc7"
  dropout_param {
    dropout_ratio: 0.5
  }
}
layer {
  name: "fc8n"
  type: "InnerProduct"
  bottom: "fc7"
  top: "fc8"
  param {
    lr_mult: 1
    decay_mult: 1
  }
  param {
    lr_mult: 2
    decay_mult: 0
  }
  inner_product_param {
    num_output: 3
    weight_filler {
      type: "gaussian"
      std: 0.01
    }
    bias_filler {
      type: "constant"
      value: 0
    }
  }
}
layer {
  name: "accuracy"
  type: "Accuracy"
  bottom: "fc8"
  bottom: "label"
  top: "accuracy"
  include {
    phase: TEST
  }
}
layer {
  name: "loss"
  type: "SoftmaxWithLoss"
  bottom: "fc8"
  bottom: "label"
  top: "loss"
}
I0827 08:51:16.987368 10163 layer_factory.hpp:77] Creating layer data
I0827 08:51:16.987512 10163 net.cpp:100] Creating Layer data
I0827 08:51:16.987520 10163 net.cpp:408] data -> data
I0827 08:51:16.987529 10163 net.cpp:408] data -> label
I0827 08:51:16.987540 10163 data_transformer.cpp:25] Loading mean file from: data/person_only_lmdb/person_vs_background_vs_random_color_mean.binaryproto
I0827 08:51:16.991461 10288 db_lmdb.cpp:35] Opened lmdb data/person_only_lmdb/person_vs_background_vs_random_test_lmdb
I0827 08:51:16.992957 10163 data_layer.cpp:41] output data size: 100,3,128,128
I0827 08:51:17.048506 10163 net.cpp:150] Setting up data
I0827 08:51:17.048548 10163 net.cpp:157] Top shape: 100 3 128 128 (4915200)
I0827 08:51:17.048557 10163 net.cpp:157] Top shape: 100 (100)
I0827 08:51:17.048562 10163 net.cpp:165] Memory required for data: 19661200
I0827 08:51:17.048569 10163 layer_factory.hpp:77] Creating layer label_data_1_split
I0827 08:51:17.048589 10163 net.cpp:100] Creating Layer label_data_1_split
I0827 08:51:17.048595 10163 net.cpp:434] label_data_1_split <- label
I0827 08:51:17.048607 10163 net.cpp:408] label_data_1_split -> label_data_1_split_0
I0827 08:51:17.048627 10163 net.cpp:408] label_data_1_split -> label_data_1_split_1
I0827 08:51:17.048734 10163 net.cpp:150] Setting up label_data_1_split
I0827 08:51:17.048745 10163 net.cpp:157] Top shape: 100 (100)
I0827 08:51:17.048751 10163 net.cpp:157] Top shape: 100 (100)
I0827 08:51:17.048755 10163 net.cpp:165] Memory required for data: 19662000
I0827 08:51:17.048761 10163 layer_factory.hpp:77] Creating layer conv1
I0827 08:51:17.048784 10163 net.cpp:100] Creating Layer conv1
I0827 08:51:17.048790 10163 net.cpp:434] conv1 <- data
I0827 08:51:17.048802 10163 net.cpp:408] conv1 -> conv1
I0827 08:51:17.053238 10163 net.cpp:150] Setting up conv1
I0827 08:51:17.053266 10163 net.cpp:157] Top shape: 100 96 30 30 (8640000)
I0827 08:51:17.053272 10163 net.cpp:165] Memory required for data: 54222000
I0827 08:51:17.053303 10163 layer_factory.hpp:77] Creating layer relu1
I0827 08:51:17.053316 10163 net.cpp:100] Creating Layer relu1
I0827 08:51:17.053321 10163 net.cpp:434] relu1 <- conv1
I0827 08:51:17.053328 10163 net.cpp:395] relu1 -> conv1 (in-place)
I0827 08:51:17.053618 10163 net.cpp:150] Setting up relu1
I0827 08:51:17.053633 10163 net.cpp:157] Top shape: 100 96 30 30 (8640000)
I0827 08:51:17.053637 10163 net.cpp:165] Memory required for data: 88782000
I0827 08:51:17.053642 10163 layer_factory.hpp:77] Creating layer pool1
I0827 08:51:17.053653 10163 net.cpp:100] Creating Layer pool1
I0827 08:51:17.053658 10163 net.cpp:434] pool1 <- conv1
I0827 08:51:17.053666 10163 net.cpp:408] pool1 -> pool1
I0827 08:51:17.053735 10163 net.cpp:150] Setting up pool1
I0827 08:51:17.053746 10163 net.cpp:157] Top shape: 100 96 15 15 (2160000)
I0827 08:51:17.053750 10163 net.cpp:165] Memory required for data: 97422000
I0827 08:51:17.053755 10163 layer_factory.hpp:77] Creating layer norm1
I0827 08:51:17.053764 10163 net.cpp:100] Creating Layer norm1
I0827 08:51:17.053771 10163 net.cpp:434] norm1 <- pool1
I0827 08:51:17.053779 10163 net.cpp:408] norm1 -> norm1
I0827 08:51:17.054574 10163 net.cpp:150] Setting up norm1
I0827 08:51:17.054594 10163 net.cpp:157] Top shape: 100 96 15 15 (2160000)
I0827 08:51:17.054600 10163 net.cpp:165] Memory required for data: 106062000
I0827 08:51:17.054605 10163 layer_factory.hpp:77] Creating layer conv2
I0827 08:51:17.054620 10163 net.cpp:100] Creating Layer conv2
I0827 08:51:17.054625 10163 net.cpp:434] conv2 <- norm1
I0827 08:51:17.054635 10163 net.cpp:408] conv2 -> conv2
I0827 08:51:17.063812 10163 net.cpp:150] Setting up conv2
I0827 08:51:17.063837 10163 net.cpp:157] Top shape: 100 256 15 15 (5760000)
I0827 08:51:17.063843 10163 net.cpp:165] Memory required for data: 129102000
I0827 08:51:17.063855 10163 layer_factory.hpp:77] Creating layer relu2
I0827 08:51:17.063868 10163 net.cpp:100] Creating Layer relu2
I0827 08:51:17.063872 10163 net.cpp:434] relu2 <- conv2
I0827 08:51:17.063880 10163 net.cpp:395] relu2 -> conv2 (in-place)
I0827 08:51:17.064563 10163 net.cpp:150] Setting up relu2
I0827 08:51:17.064584 10163 net.cpp:157] Top shape: 100 256 15 15 (5760000)
I0827 08:51:17.064589 10163 net.cpp:165] Memory required for data: 152142000
I0827 08:51:17.064594 10163 layer_factory.hpp:77] Creating layer pool2
I0827 08:51:17.064607 10163 net.cpp:100] Creating Layer pool2
I0827 08:51:17.064612 10163 net.cpp:434] pool2 <- conv2
I0827 08:51:17.064620 10163 net.cpp:408] pool2 -> pool2
I0827 08:51:17.064697 10163 net.cpp:150] Setting up pool2
I0827 08:51:17.064708 10163 net.cpp:157] Top shape: 100 256 7 7 (1254400)
I0827 08:51:17.064713 10163 net.cpp:165] Memory required for data: 157159600
I0827 08:51:17.064716 10163 layer_factory.hpp:77] Creating layer norm2
I0827 08:51:17.064724 10163 net.cpp:100] Creating Layer norm2
I0827 08:51:17.064728 10163 net.cpp:434] norm2 <- pool2
I0827 08:51:17.064736 10163 net.cpp:408] norm2 -> norm2
I0827 08:51:17.065066 10163 net.cpp:150] Setting up norm2
I0827 08:51:17.065083 10163 net.cpp:157] Top shape: 100 256 7 7 (1254400)
I0827 08:51:17.065086 10163 net.cpp:165] Memory required for data: 162177200
I0827 08:51:17.065090 10163 layer_factory.hpp:77] Creating layer conv3
I0827 08:51:17.065110 10163 net.cpp:100] Creating Layer conv3
I0827 08:51:17.065115 10163 net.cpp:434] conv3 <- norm2
I0827 08:51:17.065124 10163 net.cpp:408] conv3 -> conv3
I0827 08:51:17.083277 10163 net.cpp:150] Setting up conv3
I0827 08:51:17.083299 10163 net.cpp:157] Top shape: 100 384 7 7 (1881600)
I0827 08:51:17.083304 10163 net.cpp:165] Memory required for data: 169703600
I0827 08:51:17.083318 10163 layer_factory.hpp:77] Creating layer relu3
I0827 08:51:17.083331 10163 net.cpp:100] Creating Layer relu3
I0827 08:51:17.083335 10163 net.cpp:434] relu3 <- conv3
I0827 08:51:17.083343 10163 net.cpp:395] relu3 -> conv3 (in-place)
I0827 08:51:17.083622 10163 net.cpp:150] Setting up relu3
I0827 08:51:17.083636 10163 net.cpp:157] Top shape: 100 384 7 7 (1881600)
I0827 08:51:17.083641 10163 net.cpp:165] Memory required for data: 177230000
I0827 08:51:17.083644 10163 layer_factory.hpp:77] Creating layer conv4
I0827 08:51:17.083660 10163 net.cpp:100] Creating Layer conv4
I0827 08:51:17.083664 10163 net.cpp:434] conv4 <- conv3
I0827 08:51:17.083673 10163 net.cpp:408] conv4 -> conv4
I0827 08:51:17.097934 10163 net.cpp:150] Setting up conv4
I0827 08:51:17.097954 10163 net.cpp:157] Top shape: 100 384 7 7 (1881600)
I0827 08:51:17.097957 10163 net.cpp:165] Memory required for data: 184756400
I0827 08:51:17.097966 10163 layer_factory.hpp:77] Creating layer relu4
I0827 08:51:17.097975 10163 net.cpp:100] Creating Layer relu4
I0827 08:51:17.097980 10163 net.cpp:434] relu4 <- conv4
I0827 08:51:17.097985 10163 net.cpp:395] relu4 -> conv4 (in-place)
I0827 08:51:17.098598 10163 net.cpp:150] Setting up relu4
I0827 08:51:17.098615 10163 net.cpp:157] Top shape: 100 384 7 7 (1881600)
I0827 08:51:17.098619 10163 net.cpp:165] Memory required for data: 192282800
I0827 08:51:17.098623 10163 layer_factory.hpp:77] Creating layer conv5
I0827 08:51:17.098637 10163 net.cpp:100] Creating Layer conv5
I0827 08:51:17.098641 10163 net.cpp:434] conv5 <- conv4
I0827 08:51:17.098651 10163 net.cpp:408] conv5 -> conv5
I0827 08:51:17.108927 10163 net.cpp:150] Setting up conv5
I0827 08:51:17.108947 10163 net.cpp:157] Top shape: 100 256 7 7 (1254400)
I0827 08:51:17.108952 10163 net.cpp:165] Memory required for data: 197300400
I0827 08:51:17.108965 10163 layer_factory.hpp:77] Creating layer relu5
I0827 08:51:17.108973 10163 net.cpp:100] Creating Layer relu5
I0827 08:51:17.108978 10163 net.cpp:434] relu5 <- conv5
I0827 08:51:17.108983 10163 net.cpp:395] relu5 -> conv5 (in-place)
I0827 08:51:17.109233 10163 net.cpp:150] Setting up relu5
I0827 08:51:17.109247 10163 net.cpp:157] Top shape: 100 256 7 7 (1254400)
I0827 08:51:17.109251 10163 net.cpp:165] Memory required for data: 202318000
I0827 08:51:17.109254 10163 layer_factory.hpp:77] Creating layer pool5
I0827 08:51:17.109266 10163 net.cpp:100] Creating Layer pool5
I0827 08:51:17.109269 10163 net.cpp:434] pool5 <- conv5
I0827 08:51:17.109290 10163 net.cpp:408] pool5 -> pool5
I0827 08:51:17.109356 10163 net.cpp:150] Setting up pool5
I0827 08:51:17.109366 10163 net.cpp:157] Top shape: 100 256 3 3 (230400)
I0827 08:51:17.109369 10163 net.cpp:165] Memory required for data: 203239600
I0827 08:51:17.109372 10163 layer_factory.hpp:77] Creating layer fc6n
I0827 08:51:17.109382 10163 net.cpp:100] Creating Layer fc6n
I0827 08:51:17.109385 10163 net.cpp:434] fc6n <- pool5
I0827 08:51:17.109393 10163 net.cpp:408] fc6n -> fc6
I0827 08:51:17.241811 10163 net.cpp:150] Setting up fc6n
I0827 08:51:17.241854 10163 net.cpp:157] Top shape: 100 4096 (409600)
I0827 08:51:17.241858 10163 net.cpp:165] Memory required for data: 204878000
I0827 08:51:17.241871 10163 layer_factory.hpp:77] Creating layer relu6
I0827 08:51:17.241883 10163 net.cpp:100] Creating Layer relu6
I0827 08:51:17.241888 10163 net.cpp:434] relu6 <- fc6
I0827 08:51:17.241896 10163 net.cpp:395] relu6 -> fc6 (in-place)
I0827 08:51:17.242192 10163 net.cpp:150] Setting up relu6
I0827 08:51:17.242202 10163 net.cpp:157] Top shape: 100 4096 (409600)
I0827 08:51:17.242205 10163 net.cpp:165] Memory required for data: 206516400
I0827 08:51:17.242208 10163 layer_factory.hpp:77] Creating layer drop6
I0827 08:51:17.242216 10163 net.cpp:100] Creating Layer drop6
I0827 08:51:17.242219 10163 net.cpp:434] drop6 <- fc6
I0827 08:51:17.242225 10163 net.cpp:395] drop6 -> fc6 (in-place)
I0827 08:51:17.242262 10163 net.cpp:150] Setting up drop6
I0827 08:51:17.242270 10163 net.cpp:157] Top shape: 100 4096 (409600)
I0827 08:51:17.242272 10163 net.cpp:165] Memory required for data: 208154800
I0827 08:51:17.242275 10163 layer_factory.hpp:77] Creating layer fc7n
I0827 08:51:17.242286 10163 net.cpp:100] Creating Layer fc7n
I0827 08:51:17.242291 10163 net.cpp:434] fc7n <- fc6
I0827 08:51:17.242300 10163 net.cpp:408] fc7n -> fc7
I0827 08:51:17.473191 10163 net.cpp:150] Setting up fc7n
I0827 08:51:17.473235 10163 net.cpp:157] Top shape: 100 4096 (409600)
I0827 08:51:17.473239 10163 net.cpp:165] Memory required for data: 209793200
I0827 08:51:17.473251 10163 layer_factory.hpp:77] Creating layer relu7
I0827 08:51:17.473263 10163 net.cpp:100] Creating Layer relu7
I0827 08:51:17.473268 10163 net.cpp:434] relu7 <- fc7
I0827 08:51:17.473284 10163 net.cpp:395] relu7 -> fc7 (in-place)
I0827 08:51:17.474058 10163 net.cpp:150] Setting up relu7
I0827 08:51:17.474073 10163 net.cpp:157] Top shape: 100 4096 (409600)
I0827 08:51:17.474076 10163 net.cpp:165] Memory required for data: 211431600
I0827 08:51:17.474079 10163 layer_factory.hpp:77] Creating layer drop7
I0827 08:51:17.474092 10163 net.cpp:100] Creating Layer drop7
I0827 08:51:17.474095 10163 net.cpp:434] drop7 <- fc7
I0827 08:51:17.474102 10163 net.cpp:395] drop7 -> fc7 (in-place)
I0827 08:51:17.474143 10163 net.cpp:150] Setting up drop7
I0827 08:51:17.474151 10163 net.cpp:157] Top shape: 100 4096 (409600)
I0827 08:51:17.474154 10163 net.cpp:165] Memory required for data: 213070000
I0827 08:51:17.474158 10163 layer_factory.hpp:77] Creating layer fc8n
I0827 08:51:17.474166 10163 net.cpp:100] Creating Layer fc8n
I0827 08:51:17.474169 10163 net.cpp:434] fc8n <- fc7
I0827 08:51:17.474176 10163 net.cpp:408] fc8n -> fc8
I0827 08:51:17.474470 10163 net.cpp:150] Setting up fc8n
I0827 08:51:17.474479 10163 net.cpp:157] Top shape: 100 3 (300)
I0827 08:51:17.474481 10163 net.cpp:165] Memory required for data: 213071200
I0827 08:51:17.474488 10163 layer_factory.hpp:77] Creating layer fc8_fc8n_0_split
I0827 08:51:17.474496 10163 net.cpp:100] Creating Layer fc8_fc8n_0_split
I0827 08:51:17.474499 10163 net.cpp:434] fc8_fc8n_0_split <- fc8
I0827 08:51:17.474505 10163 net.cpp:408] fc8_fc8n_0_split -> fc8_fc8n_0_split_0
I0827 08:51:17.474511 10163 net.cpp:408] fc8_fc8n_0_split -> fc8_fc8n_0_split_1
I0827 08:51:17.474555 10163 net.cpp:150] Setting up fc8_fc8n_0_split
I0827 08:51:17.474562 10163 net.cpp:157] Top shape: 100 3 (300)
I0827 08:51:17.474565 10163 net.cpp:157] Top shape: 100 3 (300)
I0827 08:51:17.474567 10163 net.cpp:165] Memory required for data: 213073600
I0827 08:51:17.474570 10163 layer_factory.hpp:77] Creating layer accuracy
I0827 08:51:17.474578 10163 net.cpp:100] Creating Layer accuracy
I0827 08:51:17.474581 10163 net.cpp:434] accuracy <- fc8_fc8n_0_split_0
I0827 08:51:17.474586 10163 net.cpp:434] accuracy <- label_data_1_split_0
I0827 08:51:17.474591 10163 net.cpp:408] accuracy -> accuracy
…
