…
I0830 11:28:10.116461 10291 net.cpp:322] The NetState phase (0) differed from the phase (1) specified by a rule in layer accuracy
I0830 11:28:10.116611 10291 net.cpp:58] Initializing net from parameters: 
name: "CaffeNet"
state {
  phase: TRAIN
}
layer {
  name: "data"
  type: "Data"
  top: "data"
  top: "label"
  include {
    phase: TRAIN
  }
  transform_param {
    scale: 0.00390625
    mean_file: "data/person_only_lmdb/person_vs_background_vs_random_color_mean.binaryproto"
  }
  data_param {
    source: "data/person_only_lmdb/person_vs_background_vs_random_train_lmdb"
    batch_size: 128
    backend: LMDB
  }
}
layer {
  name: "conv1"
  type: "Convolution"
  bottom: "data"
  top: "conv1"
  param {
    lr_mult: 1
    decay_mult: 1
  }
  param {
    lr_mult: 2
    decay_mult: 0
  }
  convolution_param {
    num_output: 96
    kernel_size: 11
    stride: 4
    weight_filler {
      type: "gaussian"
      std: 0.01
    }
    bias_filler {
      type: "constant"
      value: 0
    }
  }
}
layer {
  name: "relu1"
  type: "ReLU"
  bottom: "conv1"
  top: "conv1"
}
layer {
  name: "pool1"
  type: "Pooling"
  bottom: "conv1"
  top: "pool1"
  pooling_param {
    pool: MAX
    kernel_size: 3
    stride: 2
  }
}
layer {
  name: "norm1"
  type: "LRN"
  bottom: "pool1"
  top: "norm1"
  lrn_param {
    local_size: 5
    alpha: 0.0001
    beta: 0.75
  }
}
layer {
  name: "conv2"
  type: "Convolution"
  bottom: "norm1"
  top: "conv2"
  param {
    lr_mult: 1
    decay_mult: 1
  }
  param {
    lr_mult: 2
    decay_mult: 0
  }
  convolution_param {
    num_output: 256
    pad: 2
    kernel_size: 5
    group: 2
    weight_filler {
      type: "gaussian"
      std: 0.01
    }
    bias_filler {
      type: "constant"
      value: 1
    }
  }
}
layer {
  name: "relu2"
  type: "ReLU"
  bottom: "conv2"
  top: "conv2"
}
layer {
  name: "pool2"
  type: "Pooling"
  bottom: "conv2"
  top: "pool2"
  pooling_param {
    pool: MAX
    kernel_size: 3
    stride: 2
  }
}
layer {
  name: "norm2"
  type: "LRN"
  bottom: "pool2"
  top: "norm2"
  lrn_param {
    local_size: 5
    alpha: 0.0001
    beta: 0.75
  }
}
layer {
  name: "conv3"
  type: "Convolution"
  bottom: "norm2"
  top: "conv3"
  param {
    lr_mult: 1
    decay_mult: 1
  }
  param {
    lr_mult: 2
    decay_mult: 0
  }
  convolution_param {
    num_output: 384
    pad: 1
    kernel_size: 3
    weight_filler {
      type: "gaussian"
      std: 0.01
    }
    bias_filler {
      type: "constant"
      value: 0
    }
  }
}
layer {
  name: "relu3"
  type: "ReLU"
  bottom: "conv3"
  top: "conv3"
}
layer {
  name: "conv4"
  type: "Convolution"
  bottom: "conv3"
  top: "conv4"
  param {
    lr_mult: 1
    decay_mult: 1
  }
  param {
    lr_mult: 2
    decay_mult: 0
  }
  convolution_param {
    num_output: 384
    pad: 1
    kernel_size: 3
    group: 2
    weight_filler {
      type: "gaussian"
      std: 0.01
    }
    bias_filler {
      type: "constant"
      value: 1
    }
  }
}
layer {
  name: "relu4"
  type: "ReLU"
  bottom: "conv4"
  top: "conv4"
}
layer {
  name: "conv5"
  type: "Convolution"
  bottom: "conv4"
  top: "conv5"
  param {
    lr_mult: 1
    decay_mult: 1
  }
  param {
    lr_mult: 2
    decay_mult: 0
  }
  convolution_param {
    num_output: 256
    pad: 1
    kernel_size: 3
    group: 2
    weight_filler {
      type: "gaussian"
      std: 0.01
    }
    bias_filler {
      type: "constant"
      value: 1
    }
  }
}
layer {
  name: "relu5"
  type: "ReLU"
  bottom: "conv5"
  top: "conv5"
}
layer {
  name: "pool5"
  type: "Pooling"
  bottom: "conv5"
  top: "pool5"
  pooling_param {
    pool: MAX
    kernel_size: 3
    stride: 2
  }
}
layer {
  name: "fc6n"
  type: "InnerProduct"
  bottom: "pool5"
  top: "fc6"
  param {
    lr_mult: 1
    decay_mult: 1
  }
  param {
    lr_mult: 2
    decay_mult: 0
  }
  inner_product_param {
    num_output: 4096
    weight_filler {
      type: "gaussian"
      std: 0.005
    }
    bias_filler {
      type: "constant"
      value: 1
    }
  }
}
layer {
  name: "relu6"
  type: "ReLU"
  bottom: "fc6"
  top: "fc6"
}
layer {
  name: "drop6"
  type: "Dropout"
  bottom: "fc6"
  top: "fc6"
  dropout_param {
    dropout_ratio: 0.5
  }
}
layer {
  name: "fc7n"
  type: "InnerProduct"
  bottom: "fc6"
  top: "fc7"
  param {
    lr_mult: 1
    decay_mult: 1
  }
  param {
    lr_mult: 2
    decay_mult: 0
  }
  inner_product_param {
    num_output: 4096
    weight_filler {
      type: "gaussian"
      std: 0.005
    }
    bias_filler {
      type: "constant"
      value: 1
    }
  }
}
layer {
  name: "relu7"
  type: "ReLU"
  bottom: "fc7"
  top: "fc7"
}
layer {
  name: "drop7"
  type: "Dropout"
  bottom: "fc7"
  top: "fc7"
  dropout_param {
    dropout_ratio: 0.5
  }
}
layer {
  name: "fc8n"
  type: "InnerProduct"
  bottom: "fc7"
  top: "fc8"
  param {
    lr_mult: 1
    decay_mult: 1
  }
  param {
    lr_mult: 2
    decay_mult: 0
  }
  inner_product_param {
    num_output: 3
    weight_filler {
      type: "gaussian"
      std: 0.01
    }
    bias_filler {
      type: "constant"
      value: 0
    }
  }
}
layer {
  name: "loss"
  type: "SoftmaxWithLoss"
  bottom: "fc8"
  bottom: "label"
  top: "loss"
}
I0830 11:28:10.116719 10291 layer_factory.hpp:77] Creating layer data
I0830 11:28:10.117494 10291 net.cpp:100] Creating Layer data
I0830 11:28:10.117512 10291 net.cpp:408] data -> data
I0830 11:28:10.117530 10291 net.cpp:408] data -> label
I0830 11:28:10.117553 10291 data_transformer.cpp:25] Loading mean file from: data/person_only_lmdb/person_vs_background_vs_random_color_mean.binaryproto
I0830 11:28:10.119643 10303 db_lmdb.cpp:35] Opened lmdb data/person_only_lmdb/person_vs_background_vs_random_train_lmdb
I0830 11:28:10.204752 10291 data_layer.cpp:41] output data size: 128,3,128,128
I0830 11:28:10.284802 10291 net.cpp:150] Setting up data
I0830 11:28:10.284843 10291 net.cpp:157] Top shape: 128 3 128 128 (6291456)
I0830 11:28:10.284850 10291 net.cpp:157] Top shape: 128 (128)
I0830 11:28:10.284853 10291 net.cpp:165] Memory required for data: 25166336
I0830 11:28:10.284862 10291 layer_factory.hpp:77] Creating layer conv1
I0830 11:28:10.284890 10291 net.cpp:100] Creating Layer conv1
I0830 11:28:10.284898 10291 net.cpp:434] conv1 <- data
I0830 11:28:10.284915 10291 net.cpp:408] conv1 -> conv1
I0830 11:28:10.778550 10291 net.cpp:150] Setting up conv1
I0830 11:28:10.778586 10291 net.cpp:157] Top shape: 128 96 30 30 (11059200)
I0830 11:28:10.778591 10291 net.cpp:165] Memory required for data: 69403136
I0830 11:28:10.778612 10291 layer_factory.hpp:77] Creating layer relu1
I0830 11:28:10.778628 10291 net.cpp:100] Creating Layer relu1
I0830 11:28:10.778632 10291 net.cpp:434] relu1 <- conv1
I0830 11:28:10.778641 10291 net.cpp:395] relu1 -> conv1 (in-place)
I0830 11:28:10.778872 10291 net.cpp:150] Setting up relu1
I0830 11:28:10.778888 10291 net.cpp:157] Top shape: 128 96 30 30 (11059200)
I0830 11:28:10.778892 10291 net.cpp:165] Memory required for data: 113639936
I0830 11:28:10.778895 10291 layer_factory.hpp:77] Creating layer pool1
I0830 11:28:10.778904 10291 net.cpp:100] Creating Layer pool1
I0830 11:28:10.778908 10291 net.cpp:434] pool1 <- conv1
I0830 11:28:10.778914 10291 net.cpp:408] pool1 -> pool1
I0830 11:28:10.778971 10291 net.cpp:150] Setting up pool1
I0830 11:28:10.778981 10291 net.cpp:157] Top shape: 128 96 15 15 (2764800)
I0830 11:28:10.778985 10291 net.cpp:165] Memory required for data: 124699136
I0830 11:28:10.778987 10291 layer_factory.hpp:77] Creating layer norm1
I0830 11:28:10.779000 10291 net.cpp:100] Creating Layer norm1
I0830 11:28:10.779003 10291 net.cpp:434] norm1 <- pool1
I0830 11:28:10.779011 10291 net.cpp:408] norm1 -> norm1
I0830 11:28:10.779590 10291 net.cpp:150] Setting up norm1
I0830 11:28:10.779608 10291 net.cpp:157] Top shape: 128 96 15 15 (2764800)
I0830 11:28:10.779611 10291 net.cpp:165] Memory required for data: 135758336
I0830 11:28:10.779615 10291 layer_factory.hpp:77] Creating layer conv2
I0830 11:28:10.779633 10291 net.cpp:100] Creating Layer conv2
I0830 11:28:10.779638 10291 net.cpp:434] conv2 <- norm1
I0830 11:28:10.779646 10291 net.cpp:408] conv2 -> conv2
I0830 11:28:10.787062 10291 net.cpp:150] Setting up conv2
I0830 11:28:10.787081 10291 net.cpp:157] Top shape: 128 256 15 15 (7372800)
I0830 11:28:10.787084 10291 net.cpp:165] Memory required for data: 165249536
I0830 11:28:10.787096 10291 layer_factory.hpp:77] Creating layer relu2
I0830 11:28:10.787106 10291 net.cpp:100] Creating Layer relu2
I0830 11:28:10.787109 10291 net.cpp:434] relu2 <- conv2
I0830 11:28:10.787114 10291 net.cpp:395] relu2 -> conv2 (in-place)
I0830 11:28:10.787664 10291 net.cpp:150] Setting up relu2
I0830 11:28:10.787683 10291 net.cpp:157] Top shape: 128 256 15 15 (7372800)
I0830 11:28:10.787685 10291 net.cpp:165] Memory required for data: 194740736
I0830 11:28:10.787689 10291 layer_factory.hpp:77] Creating layer pool2
I0830 11:28:10.787698 10291 net.cpp:100] Creating Layer pool2
I0830 11:28:10.787701 10291 net.cpp:434] pool2 <- conv2
I0830 11:28:10.787709 10291 net.cpp:408] pool2 -> pool2
I0830 11:28:10.787767 10291 net.cpp:150] Setting up pool2
I0830 11:28:10.787780 10291 net.cpp:157] Top shape: 128 256 7 7 (1605632)
I0830 11:28:10.787782 10291 net.cpp:165] Memory required for data: 201163264
I0830 11:28:10.787786 10291 layer_factory.hpp:77] Creating layer norm2
I0830 11:28:10.787796 10291 net.cpp:100] Creating Layer norm2
I0830 11:28:10.787801 10291 net.cpp:434] norm2 <- pool2
I0830 11:28:10.787806 10291 net.cpp:408] norm2 -> norm2
I0830 11:28:10.788044 10291 net.cpp:150] Setting up norm2
I0830 11:28:10.788059 10291 net.cpp:157] Top shape: 128 256 7 7 (1605632)
I0830 11:28:10.788063 10291 net.cpp:165] Memory required for data: 207585792
I0830 11:28:10.788065 10291 layer_factory.hpp:77] Creating layer conv3
I0830 11:28:10.788079 10291 net.cpp:100] Creating Layer conv3
I0830 11:28:10.788082 10291 net.cpp:434] conv3 <- norm2
I0830 11:28:10.788089 10291 net.cpp:408] conv3 -> conv3
I0830 11:28:10.802739 10291 net.cpp:150] Setting up conv3
I0830 11:28:10.802757 10291 net.cpp:157] Top shape: 128 384 7 7 (2408448)
I0830 11:28:10.802760 10291 net.cpp:165] Memory required for data: 217219584
I0830 11:28:10.802773 10291 layer_factory.hpp:77] Creating layer relu3
I0830 11:28:10.802780 10291 net.cpp:100] Creating Layer relu3
I0830 11:28:10.802783 10291 net.cpp:434] relu3 <- conv3
I0830 11:28:10.802788 10291 net.cpp:395] relu3 -> conv3 (in-place)
I0830 11:28:10.802996 10291 net.cpp:150] Setting up relu3
I0830 11:28:10.803009 10291 net.cpp:157] Top shape: 128 384 7 7 (2408448)
I0830 11:28:10.803015 10291 net.cpp:165] Memory required for data: 226853376
I0830 11:28:10.803019 10291 layer_factory.hpp:77] Creating layer conv4
I0830 11:28:10.803030 10291 net.cpp:100] Creating Layer conv4
I0830 11:28:10.803033 10291 net.cpp:434] conv4 <- conv3
I0830 11:28:10.803041 10291 net.cpp:408] conv4 -> conv4
I0830 11:28:10.814770 10291 net.cpp:150] Setting up conv4
I0830 11:28:10.814788 10291 net.cpp:157] Top shape: 128 384 7 7 (2408448)
I0830 11:28:10.814792 10291 net.cpp:165] Memory required for data: 236487168
I0830 11:28:10.814800 10291 layer_factory.hpp:77] Creating layer relu4
I0830 11:28:10.814805 10291 net.cpp:100] Creating Layer relu4
I0830 11:28:10.814808 10291 net.cpp:434] relu4 <- conv4
I0830 11:28:10.814813 10291 net.cpp:395] relu4 -> conv4 (in-place)
I0830 11:28:10.815017 10291 net.cpp:150] Setting up relu4
I0830 11:28:10.815029 10291 net.cpp:157] Top shape: 128 384 7 7 (2408448)
I0830 11:28:10.815032 10291 net.cpp:165] Memory required for data: 246120960
I0830 11:28:10.815035 10291 layer_factory.hpp:77] Creating layer conv5
I0830 11:28:10.815047 10291 net.cpp:100] Creating Layer conv5
I0830 11:28:10.815050 10291 net.cpp:434] conv5 <- conv4
I0830 11:28:10.815058 10291 net.cpp:408] conv5 -> conv5
I0830 11:28:10.823559 10291 net.cpp:150] Setting up conv5
I0830 11:28:10.823575 10291 net.cpp:157] Top shape: 128 256 7 7 (1605632)
I0830 11:28:10.823578 10291 net.cpp:165] Memory required for data: 252543488
I0830 11:28:10.823590 10291 layer_factory.hpp:77] Creating layer relu5
I0830 11:28:10.823598 10291 net.cpp:100] Creating Layer relu5
I0830 11:28:10.823602 10291 net.cpp:434] relu5 <- conv5
I0830 11:28:10.823607 10291 net.cpp:395] relu5 -> conv5 (in-place)
I0830 11:28:10.823812 10291 net.cpp:150] Setting up relu5
I0830 11:28:10.823825 10291 net.cpp:157] Top shape: 128 256 7 7 (1605632)
I0830 11:28:10.823828 10291 net.cpp:165] Memory required for data: 258966016
I0830 11:28:10.823832 10291 layer_factory.hpp:77] Creating layer pool5
I0830 11:28:10.823838 10291 net.cpp:100] Creating Layer pool5
I0830 11:28:10.823842 10291 net.cpp:434] pool5 <- conv5
I0830 11:28:10.823848 10291 net.cpp:408] pool5 -> pool5
I0830 11:28:10.823902 10291 net.cpp:150] Setting up pool5
I0830 11:28:10.823910 10291 net.cpp:157] Top shape: 128 256 3 3 (294912)
I0830 11:28:10.823914 10291 net.cpp:165] Memory required for data: 260145664
I0830 11:28:10.823916 10291 layer_factory.hpp:77] Creating layer fc6n
I0830 11:28:10.823930 10291 net.cpp:100] Creating Layer fc6n
I0830 11:28:10.823935 10291 net.cpp:434] fc6n <- pool5
I0830 11:28:10.823940 10291 net.cpp:408] fc6n -> fc6
I0830 11:28:10.954915 10291 net.cpp:150] Setting up fc6n
I0830 11:28:10.954951 10291 net.cpp:157] Top shape: 128 4096 (524288)
I0830 11:28:10.954954 10291 net.cpp:165] Memory required for data: 262242816
I0830 11:28:10.954968 10291 layer_factory.hpp:77] Creating layer relu6
I0830 11:28:10.954982 10291 net.cpp:100] Creating Layer relu6
I0830 11:28:10.954987 10291 net.cpp:434] relu6 <- fc6
I0830 11:28:10.954994 10291 net.cpp:395] relu6 -> fc6 (in-place)
I0830 11:28:10.955582 10291 net.cpp:150] Setting up relu6
I0830 11:28:10.955597 10291 net.cpp:157] Top shape: 128 4096 (524288)
I0830 11:28:10.955600 10291 net.cpp:165] Memory required for data: 264339968
I0830 11:28:10.955605 10291 layer_factory.hpp:77] Creating layer drop6
I0830 11:28:10.955613 10291 net.cpp:100] Creating Layer drop6
I0830 11:28:10.955616 10291 net.cpp:434] drop6 <- fc6
I0830 11:28:10.955626 10291 net.cpp:395] drop6 -> fc6 (in-place)
I0830 11:28:10.955652 10291 net.cpp:150] Setting up drop6
I0830 11:28:10.955660 10291 net.cpp:157] Top shape: 128 4096 (524288)
I0830 11:28:10.955662 10291 net.cpp:165] Memory required for data: 266437120
I0830 11:28:10.955665 10291 layer_factory.hpp:77] Creating layer fc7n
I0830 11:28:10.955675 10291 net.cpp:100] Creating Layer fc7n
I0830 11:28:10.955677 10291 net.cpp:434] fc7n <- fc6
I0830 11:28:10.955684 10291 net.cpp:408] fc7n -> fc7
I0830 11:28:11.185569 10291 net.cpp:150] Setting up fc7n
I0830 11:28:11.185611 10291 net.cpp:157] Top shape: 128 4096 (524288)
I0830 11:28:11.185616 10291 net.cpp:165] Memory required for data: 268534272
I0830 11:28:11.185631 10291 layer_factory.hpp:77] Creating layer relu7
I0830 11:28:11.185642 10291 net.cpp:100] Creating Layer relu7
I0830 11:28:11.185647 10291 net.cpp:434] relu7 <- fc7
I0830 11:28:11.185657 10291 net.cpp:395] relu7 -> fc7 (in-place)
I0830 11:28:11.185947 10291 net.cpp:150] Setting up relu7
I0830 11:28:11.185959 10291 net.cpp:157] Top shape: 128 4096 (524288)
I0830 11:28:11.185961 10291 net.cpp:165] Memory required for data: 270631424
I0830 11:28:11.185964 10291 layer_factory.hpp:77] Creating layer drop7
I0830 11:28:11.185976 10291 net.cpp:100] Creating Layer drop7
I0830 11:28:11.185978 10291 net.cpp:434] drop7 <- fc7
I0830 11:28:11.185983 10291 net.cpp:395] drop7 -> fc7 (in-place)
I0830 11:28:11.186013 10291 net.cpp:150] Setting up drop7
I0830 11:28:11.186020 10291 net.cpp:157] Top shape: 128 4096 (524288)
I0830 11:28:11.186023 10291 net.cpp:165] Memory required for data: 272728576
I0830 11:28:11.186027 10291 layer_factory.hpp:77] Creating layer fc8n
I0830 11:28:11.186035 10291 net.cpp:100] Creating Layer fc8n
I0830 11:28:11.186038 10291 net.cpp:434] fc8n <- fc7
I0830 11:28:11.186045 10291 net.cpp:408] fc8n -> fc8
I0830 11:28:11.187644 10291 net.cpp:150] Setting up fc8n
I0830 11:28:11.187660 10291 net.cpp:157] Top shape: 128 3 (384)
I0830 11:28:11.187664 10291 net.cpp:165] Memory required for data: 272730112
I0830 11:28:11.187670 10291 layer_factory.hpp:77] Creating layer loss
I0830 11:28:11.187677 10291 net.cpp:100] Creating Layer loss
I0830 11:28:11.187680 10291 net.cpp:434] loss <- fc8
I0830 11:28:11.187685 10291 net.cpp:434] loss <- label
I0830 11:28:11.187690 10291 net.cpp:408] loss -> loss
I0830 11:28:11.187705 10291 layer_factory.hpp:77] Creating layer loss
…
I0830 11:28:11.188562 10291 net.cpp:322] The NetState phase (1) differed from the phase (0) specified by a rule in layer data
I0830 11:28:11.188735 10291 net.cpp:58] Initializing net from parameters: 
name: "CaffeNet"
state {
  phase: TEST
}
layer {
  name: "data"
  type: "Data"
  top: "data"
  top: "label"
  include {
    phase: TEST
  }
  transform_param {
    scale: 0.00390625
    mean_file: "data/person_only_lmdb/person_vs_background_vs_random_color_mean.binaryproto"
  }
  data_param {
    source: "data/person_only_lmdb/person_vs_background_vs_random_test_lmdb"
    batch_size: 100
    backend: LMDB
  }
}
layer {
  name: "conv1"
  type: "Convolution"
  bottom: "data"
  top: "conv1"
  param {
    lr_mult: 1
    decay_mult: 1
  }
  param {
    lr_mult: 2
    decay_mult: 0
  }
  convolution_param {
    num_output: 96
    kernel_size: 11
    stride: 4
    weight_filler {
      type: "gaussian"
      std: 0.01
    }
    bias_filler {
      type: "constant"
      value: 0
    }
  }
}
layer {
  name: "relu1"
  type: "ReLU"
  bottom: "conv1"
  top: "conv1"
}
layer {
  name: "pool1"
  type: "Pooling"
  bottom: "conv1"
  top: "pool1"
  pooling_param {
    pool: MAX
    kernel_size: 3
    stride: 2
  }
}
layer {
  name: "norm1"
  type: "LRN"
  bottom: "pool1"
  top: "norm1"
  lrn_param {
    local_size: 5
    alpha: 0.0001
    beta: 0.75
  }
}
layer {
  name: "conv2"
  type: "Convolution"
  bottom: "norm1"
  top: "conv2"
  param {
    lr_mult: 1
    decay_mult: 1
  }
  param {
    lr_mult: 2
    decay_mult: 0
  }
  convolution_param {
    num_output: 256
    pad: 2
    kernel_size: 5
    group: 2
    weight_filler {
      type: "gaussian"
      std: 0.01
    }
    bias_filler {
      type: "constant"
      value: 1
    }
  }
}
layer {
  name: "relu2"
  type: "ReLU"
  bottom: "conv2"
  top: "conv2"
}
layer {
  name: "pool2"
  type: "Pooling"
  bottom: "conv2"
  top: "pool2"
  pooling_param {
    pool: MAX
    kernel_size: 3
    stride: 2
  }
}
layer {
  name: "norm2"
  type: "LRN"
  bottom: "pool2"
  top: "norm2"
  lrn_param {
    local_size: 5
    alpha: 0.0001
    beta: 0.75
  }
}
layer {
  name: "conv3"
  type: "Convolution"
  bottom: "norm2"
  top: "conv3"
  param {
    lr_mult: 1
    decay_mult: 1
  }
  param {
    lr_mult: 2
    decay_mult: 0
  }
  convolution_param {
    num_output: 384
    pad: 1
    kernel_size: 3
    weight_filler {
      type: "gaussian"
      std: 0.01
    }
    bias_filler {
      type: "constant"
      value: 0
    }
  }
}
layer {
  name: "relu3"
  type: "ReLU"
  bottom: "conv3"
  top: "conv3"
}
layer {
  name: "conv4"
  type: "Convolution"
  bottom: "conv3"
  top: "conv4"
  param {
    lr_mult: 1
    decay_mult: 1
  }
  param {
    lr_mult: 2
    decay_mult: 0
  }
  convolution_param {
    num_output: 384
    pad: 1
    kernel_size: 3
    group: 2
    weight_filler {
      type: "gaussian"
      std: 0.01
    }
    bias_filler {
      type: "constant"
      value: 1
    }
  }
}
layer {
  name: "relu4"
  type: "ReLU"
  bottom: "conv4"
  top: "conv4"
}
layer {
  name: "conv5"
  type: "Convolution"
  bottom: "conv4"
  top: "conv5"
  param {
    lr_mult: 1
    decay_mult: 1
  }
  param {
    lr_mult: 2
    decay_mult: 0
  }
  convolution_param {
    num_output: 256
    pad: 1
    kernel_size: 3
    group: 2
    weight_filler {
      type: "gaussian"
      std: 0.01
    }
    bias_filler {
      type: "constant"
      value: 1
    }
  }
}
layer {
  name: "relu5"
  type: "ReLU"
  bottom: "conv5"
  top: "conv5"
}
layer {
  name: "pool5"
  type: "Pooling"
  bottom: "conv5"
  top: "pool5"
  pooling_param {
    pool: MAX
    kernel_size: 3
    stride: 2
  }
}
layer {
  name: "fc6n"
  type: "InnerProduct"
  bottom: "pool5"
  top: "fc6"
  param {
    lr_mult: 1
    decay_mult: 1
  }
  param {
    lr_mult: 2
    decay_mult: 0
  }
  inner_product_param {
    num_output: 4096
    weight_filler {
      type: "gaussian"
      std: 0.005
    }
    bias_filler {
      type: "constant"
      value: 1
    }
  }
}
layer {
  name: "relu6"
  type: "ReLU"
  bottom: "fc6"
  top: "fc6"
}
layer {
  name: "drop6"
  type: "Dropout"
  bottom: "fc6"
  top: "fc6"
  dropout_param {
    dropout_ratio: 0.5
  }
}
layer {
  name: "fc7n"
  type: "InnerProduct"
  bottom: "fc6"
  top: "fc7"
  param {
    lr_mult: 1
    decay_mult: 1
  }
  param {
    lr_mult: 2
    decay_mult: 0
  }
  inner_product_param {
    num_output: 4096
    weight_filler {
      type: "gaussian"
      std: 0.005
    }
    bias_filler {
      type: "constant"
      value: 1
    }
  }
}
layer {
  name: "relu7"
  type: "ReLU"
  bottom: "fc7"
  top: "fc7"
}
layer {
  name: "drop7"
  type: "Dropout"
  bottom: "fc7"
  top: "fc7"
  dropout_param {
    dropout_ratio: 0.5
  }
}
layer {
  name: "fc8n"
  type: "InnerProduct"
  bottom: "fc7"
  top: "fc8"
  param {
    lr_mult: 1
    decay_mult: 1
  }
  param {
    lr_mult: 2
    decay_mult: 0
  }
  inner_product_param {
    num_output: 3
    weight_filler {
      type: "gaussian"
      std: 0.01
    }
    bias_filler {
      type: "constant"
      value: 0
    }
  }
}
layer {
  name: "accuracy"
  type: "Accuracy"
  bottom: "fc8"
  bottom: "label"
  top: "accuracy"
  include {
    phase: TEST
  }
}
layer {
  name: "loss"
  type: "SoftmaxWithLoss"
  bottom: "fc8"
  bottom: "label"
  top: "loss"
}
I0830 11:28:11.188845 10291 layer_factory.hpp:77] Creating layer data
I0830 11:28:11.188984 10291 net.cpp:100] Creating Layer data
I0830 11:28:11.188995 10291 net.cpp:408] data -> data
I0830 11:28:11.189003 10291 net.cpp:408] data -> label
I0830 11:28:11.189012 10291 data_transformer.cpp:25] Loading mean file from: data/person_only_lmdb/person_vs_background_vs_random_color_mean.binaryproto
I0830 11:28:11.192924 10306 db_lmdb.cpp:35] Opened lmdb data/person_only_lmdb/person_vs_background_vs_random_test_lmdb
I0830 11:28:11.194507 10291 data_layer.cpp:41] output data size: 100,3,128,128
I0830 11:28:11.254478 10291 net.cpp:150] Setting up data
I0830 11:28:11.254518 10291 net.cpp:157] Top shape: 100 3 128 128 (4915200)
I0830 11:28:11.254525 10291 net.cpp:157] Top shape: 100 (100)
I0830 11:28:11.254528 10291 net.cpp:165] Memory required for data: 19661200
I0830 11:28:11.254536 10291 layer_factory.hpp:77] Creating layer label_data_1_split
I0830 11:28:11.254554 10291 net.cpp:100] Creating Layer label_data_1_split
I0830 11:28:11.254560 10291 net.cpp:434] label_data_1_split <- label
I0830 11:28:11.254570 10291 net.cpp:408] label_data_1_split -> label_data_1_split_0
I0830 11:28:11.254585 10291 net.cpp:408] label_data_1_split -> label_data_1_split_1
I0830 11:28:11.254683 10291 net.cpp:150] Setting up label_data_1_split
I0830 11:28:11.254694 10291 net.cpp:157] Top shape: 100 (100)
I0830 11:28:11.254700 10291 net.cpp:157] Top shape: 100 (100)
I0830 11:28:11.254703 10291 net.cpp:165] Memory required for data: 19662000
I0830 11:28:11.254708 10291 layer_factory.hpp:77] Creating layer conv1
I0830 11:28:11.254725 10291 net.cpp:100] Creating Layer conv1
I0830 11:28:11.254732 10291 net.cpp:434] conv1 <- data
I0830 11:28:11.254741 10291 net.cpp:408] conv1 -> conv1
I0830 11:28:11.262691 10291 net.cpp:150] Setting up conv1
I0830 11:28:11.262727 10291 net.cpp:157] Top shape: 100 96 30 30 (8640000)
I0830 11:28:11.262733 10291 net.cpp:165] Memory required for data: 54222000
I0830 11:28:11.262754 10291 layer_factory.hpp:77] Creating layer relu1
I0830 11:28:11.262769 10291 net.cpp:100] Creating Layer relu1
I0830 11:28:11.262776 10291 net.cpp:434] relu1 <- conv1
I0830 11:28:11.262787 10291 net.cpp:395] relu1 -> conv1 (in-place)
I0830 11:28:11.263154 10291 net.cpp:150] Setting up relu1
I0830 11:28:11.263173 10291 net.cpp:157] Top shape: 100 96 30 30 (8640000)
I0830 11:28:11.263180 10291 net.cpp:165] Memory required for data: 88782000
I0830 11:28:11.263185 10291 layer_factory.hpp:77] Creating layer pool1
I0830 11:28:11.263200 10291 net.cpp:100] Creating Layer pool1
I0830 11:28:11.263206 10291 net.cpp:434] pool1 <- conv1
I0830 11:28:11.263217 10291 net.cpp:408] pool1 -> pool1
I0830 11:28:11.263309 10291 net.cpp:150] Setting up pool1
I0830 11:28:11.263324 10291 net.cpp:157] Top shape: 100 96 15 15 (2160000)
I0830 11:28:11.263331 10291 net.cpp:165] Memory required for data: 97422000
I0830 11:28:11.263337 10291 layer_factory.hpp:77] Creating layer norm1
I0830 11:28:11.263350 10291 net.cpp:100] Creating Layer norm1
I0830 11:28:11.263358 10291 net.cpp:434] norm1 <- pool1
I0830 11:28:11.263368 10291 net.cpp:408] norm1 -> norm1
I0830 11:28:11.264345 10291 net.cpp:150] Setting up norm1
I0830 11:28:11.264374 10291 net.cpp:157] Top shape: 100 96 15 15 (2160000)
I0830 11:28:11.264379 10291 net.cpp:165] Memory required for data: 106062000
I0830 11:28:11.264385 10291 layer_factory.hpp:77] Creating layer conv2
I0830 11:28:11.264405 10291 net.cpp:100] Creating Layer conv2
I0830 11:28:11.264412 10291 net.cpp:434] conv2 <- norm1
I0830 11:28:11.264425 10291 net.cpp:408] conv2 -> conv2
I0830 11:28:11.276150 10291 net.cpp:150] Setting up conv2
I0830 11:28:11.276185 10291 net.cpp:157] Top shape: 100 256 15 15 (5760000)
I0830 11:28:11.276190 10291 net.cpp:165] Memory required for data: 129102000
I0830 11:28:11.276208 10291 layer_factory.hpp:77] Creating layer relu2
I0830 11:28:11.276221 10291 net.cpp:100] Creating Layer relu2
I0830 11:28:11.276226 10291 net.cpp:434] relu2 <- conv2
I0830 11:28:11.276235 10291 net.cpp:395] relu2 -> conv2 (in-place)
I0830 11:28:11.277084 10291 net.cpp:150] Setting up relu2
I0830 11:28:11.277109 10291 net.cpp:157] Top shape: 100 256 15 15 (5760000)
I0830 11:28:11.277115 10291 net.cpp:165] Memory required for data: 152142000
I0830 11:28:11.277120 10291 layer_factory.hpp:77] Creating layer pool2
I0830 11:28:11.277139 10291 net.cpp:100] Creating Layer pool2
I0830 11:28:11.277146 10291 net.cpp:434] pool2 <- conv2
I0830 11:28:11.277155 10291 net.cpp:408] pool2 -> pool2
I0830 11:28:11.277261 10291 net.cpp:150] Setting up pool2
I0830 11:28:11.277276 10291 net.cpp:157] Top shape: 100 256 7 7 (1254400)
I0830 11:28:11.277284 10291 net.cpp:165] Memory required for data: 157159600
I0830 11:28:11.277289 10291 layer_factory.hpp:77] Creating layer norm2
I0830 11:28:11.277303 10291 net.cpp:100] Creating Layer norm2
I0830 11:28:11.277312 10291 net.cpp:434] norm2 <- pool2
I0830 11:28:11.277319 10291 net.cpp:408] norm2 -> norm2
I0830 11:28:11.277735 10291 net.cpp:150] Setting up norm2
I0830 11:28:11.277756 10291 net.cpp:157] Top shape: 100 256 7 7 (1254400)
I0830 11:28:11.277766 10291 net.cpp:165] Memory required for data: 162177200
I0830 11:28:11.277771 10291 layer_factory.hpp:77] Creating layer conv3
I0830 11:28:11.277792 10291 net.cpp:100] Creating Layer conv3
I0830 11:28:11.277801 10291 net.cpp:434] conv3 <- norm2
I0830 11:28:11.277814 10291 net.cpp:408] conv3 -> conv3
I0830 11:28:11.300401 10291 net.cpp:150] Setting up conv3
I0830 11:28:11.300442 10291 net.cpp:157] Top shape: 100 384 7 7 (1881600)
I0830 11:28:11.300447 10291 net.cpp:165] Memory required for data: 169703600
I0830 11:28:11.300469 10291 layer_factory.hpp:77] Creating layer relu3
I0830 11:28:11.300487 10291 net.cpp:100] Creating Layer relu3
I0830 11:28:11.300493 10291 net.cpp:434] relu3 <- conv3
I0830 11:28:11.300504 10291 net.cpp:395] relu3 -> conv3 (in-place)
I0830 11:28:11.300842 10291 net.cpp:150] Setting up relu3
I0830 11:28:11.300859 10291 net.cpp:157] Top shape: 100 384 7 7 (1881600)
I0830 11:28:11.300863 10291 net.cpp:165] Memory required for data: 177230000
I0830 11:28:11.300868 10291 layer_factory.hpp:77] Creating layer conv4
I0830 11:28:11.300899 10291 net.cpp:100] Creating Layer conv4
I0830 11:28:11.300904 10291 net.cpp:434] conv4 <- conv3
I0830 11:28:11.300914 10291 net.cpp:408] conv4 -> conv4
I0830 11:28:11.322821 10291 net.cpp:150] Setting up conv4
I0830 11:28:11.322860 10291 net.cpp:157] Top shape: 100 384 7 7 (1881600)
I0830 11:28:11.322865 10291 net.cpp:165] Memory required for data: 184756400
I0830 11:28:11.322880 10291 layer_factory.hpp:77] Creating layer relu4
I0830 11:28:11.322895 10291 net.cpp:100] Creating Layer relu4
I0830 11:28:11.322901 10291 net.cpp:434] relu4 <- conv4
I0830 11:28:11.322913 10291 net.cpp:395] relu4 -> conv4 (in-place)
I0830 11:28:11.323648 10291 net.cpp:150] Setting up relu4
I0830 11:28:11.323668 10291 net.cpp:157] Top shape: 100 384 7 7 (1881600)
I0830 11:28:11.323673 10291 net.cpp:165] Memory required for data: 192282800
I0830 11:28:11.323678 10291 layer_factory.hpp:77] Creating layer conv5
I0830 11:28:11.323700 10291 net.cpp:100] Creating Layer conv5
I0830 11:28:11.323705 10291 net.cpp:434] conv5 <- conv4
I0830 11:28:11.323714 10291 net.cpp:408] conv5 -> conv5
I0830 11:28:11.335875 10291 net.cpp:150] Setting up conv5
I0830 11:28:11.335908 10291 net.cpp:157] Top shape: 100 256 7 7 (1254400)
I0830 11:28:11.335913 10291 net.cpp:165] Memory required for data: 197300400
I0830 11:28:11.335935 10291 layer_factory.hpp:77] Creating layer relu5
I0830 11:28:11.335952 10291 net.cpp:100] Creating Layer relu5
I0830 11:28:11.335958 10291 net.cpp:434] relu5 <- conv5
I0830 11:28:11.335966 10291 net.cpp:395] relu5 -> conv5 (in-place)
I0830 11:28:11.336273 10291 net.cpp:150] Setting up relu5
I0830 11:28:11.336289 10291 net.cpp:157] Top shape: 100 256 7 7 (1254400)
I0830 11:28:11.336293 10291 net.cpp:165] Memory required for data: 202318000
I0830 11:28:11.336297 10291 layer_factory.hpp:77] Creating layer pool5
I0830 11:28:11.336321 10291 net.cpp:100] Creating Layer pool5
I0830 11:28:11.336326 10291 net.cpp:434] pool5 <- conv5
I0830 11:28:11.336334 10291 net.cpp:408] pool5 -> pool5
I0830 11:28:11.336416 10291 net.cpp:150] Setting up pool5
I0830 11:28:11.336431 10291 net.cpp:157] Top shape: 100 256 3 3 (230400)
I0830 11:28:11.336434 10291 net.cpp:165] Memory required for data: 203239600
I0830 11:28:11.336438 10291 layer_factory.hpp:77] Creating layer fc6n
I0830 11:28:11.336453 10291 net.cpp:100] Creating Layer fc6n
I0830 11:28:11.336459 10291 net.cpp:434] fc6n <- pool5
I0830 11:28:11.336469 10291 net.cpp:408] fc6n -> fc6
I0830 11:28:11.508882 10291 net.cpp:150] Setting up fc6n
I0830 11:28:11.508931 10291 net.cpp:157] Top shape: 100 4096 (409600)
I0830 11:28:11.508935 10291 net.cpp:165] Memory required for data: 204878000
I0830 11:28:11.508949 10291 layer_factory.hpp:77] Creating layer relu6
I0830 11:28:11.508961 10291 net.cpp:100] Creating Layer relu6
I0830 11:28:11.508966 10291 net.cpp:434] relu6 <- fc6
I0830 11:28:11.508973 10291 net.cpp:395] relu6 -> fc6 (in-place)
I0830 11:28:11.509279 10291 net.cpp:150] Setting up relu6
I0830 11:28:11.509291 10291 net.cpp:157] Top shape: 100 4096 (409600)
I0830 11:28:11.509294 10291 net.cpp:165] Memory required for data: 206516400
I0830 11:28:11.509297 10291 layer_factory.hpp:77] Creating layer drop6
I0830 11:28:11.509306 10291 net.cpp:100] Creating Layer drop6
I0830 11:28:11.509310 10291 net.cpp:434] drop6 <- fc6
I0830 11:28:11.509316 10291 net.cpp:395] drop6 -> fc6 (in-place)
I0830 11:28:11.509352 10291 net.cpp:150] Setting up drop6
I0830 11:28:11.509361 10291 net.cpp:157] Top shape: 100 4096 (409600)
I0830 11:28:11.509363 10291 net.cpp:165] Memory required for data: 208154800
I0830 11:28:11.509366 10291 layer_factory.hpp:77] Creating layer fc7n
I0830 11:28:11.509377 10291 net.cpp:100] Creating Layer fc7n
I0830 11:28:11.509382 10291 net.cpp:434] fc7n <- fc6
I0830 11:28:11.509388 10291 net.cpp:408] fc7n -> fc7
I0830 11:28:11.740530 10291 net.cpp:150] Setting up fc7n
I0830 11:28:11.740576 10291 net.cpp:157] Top shape: 100 4096 (409600)
I0830 11:28:11.740578 10291 net.cpp:165] Memory required for data: 209793200
I0830 11:28:11.740591 10291 layer_factory.hpp:77] Creating layer relu7
I0830 11:28:11.740602 10291 net.cpp:100] Creating Layer relu7
I0830 11:28:11.740605 10291 net.cpp:434] relu7 <- fc7
I0830 11:28:11.740612 10291 net.cpp:395] relu7 -> fc7 (in-place)
I0830 11:28:11.741406 10291 net.cpp:150] Setting up relu7
I0830 11:28:11.741421 10291 net.cpp:157] Top shape: 100 4096 (409600)
I0830 11:28:11.741425 10291 net.cpp:165] Memory required for data: 211431600
I0830 11:28:11.741427 10291 layer_factory.hpp:77] Creating layer drop7
I0830 11:28:11.741436 10291 net.cpp:100] Creating Layer drop7
I0830 11:28:11.741439 10291 net.cpp:434] drop7 <- fc7
I0830 11:28:11.741448 10291 net.cpp:395] drop7 -> fc7 (in-place)
I0830 11:28:11.741485 10291 net.cpp:150] Setting up drop7
I0830 11:28:11.741495 10291 net.cpp:157] Top shape: 100 4096 (409600)
I0830 11:28:11.741498 10291 net.cpp:165] Memory required for data: 213070000
I0830 11:28:11.741502 10291 layer_factory.hpp:77] Creating layer fc8n
I0830 11:28:11.741510 10291 net.cpp:100] Creating Layer fc8n
I0830 11:28:11.741513 10291 net.cpp:434] fc8n <- fc7
I0830 11:28:11.741520 10291 net.cpp:408] fc8n -> fc8
I0830 11:28:11.741830 10291 net.cpp:150] Setting up fc8n
I0830 11:28:11.741842 10291 net.cpp:157] Top shape: 100 3 (300)
I0830 11:28:11.741844 10291 net.cpp:165] Memory required for data: 213071200
I0830 11:28:11.741850 10291 layer_factory.hpp:77] Creating layer fc8_fc8n_0_split
I0830 11:28:11.741858 10291 net.cpp:100] Creating Layer fc8_fc8n_0_split
I0830 11:28:11.741860 10291 net.cpp:434] fc8_fc8n_0_split <- fc8
I0830 11:28:11.741868 10291 net.cpp:408] fc8_fc8n_0_split -> fc8_fc8n_0_split_0
I0830 11:28:11.741874 10291 net.cpp:408] fc8_fc8n_0_split -> fc8_fc8n_0_split_1
I0830 11:28:11.741916 10291 net.cpp:150] Setting up fc8_fc8n_0_split
I0830 11:28:11.741925 10291 net.cpp:157] Top shape: 100 3 (300)
I0830 11:28:11.741930 10291 net.cpp:157] Top shape: 100 3 (300)
I0830 11:28:11.741931 10291 net.cpp:165] Memory required for data: 213073600
I0830 11:28:11.741935 10291 layer_factory.hpp:77] Creating layer accuracy
I0830 11:28:11.741941 10291 net.cpp:100] Creating Layer accuracy
I0830 11:28:11.741945 10291 net.cpp:434] accuracy <- fc8_fc8n_0_split_0
I0830 11:28:11.741948 10291 net.cpp:434] accuracy <- label_data_1_split_0
I0830 11:28:11.741955 10291 net.cpp:408] accuracy -> accuracy
…
