…
I0905 01:36:29.778735 26584 net.cpp:322] The NetState phase (0) differed from the phase (1) specified by a rule in layer accuracy
I0905 01:36:29.779052 26584 net.cpp:58] Initializing net from parameters: 
name: "CaffeNet"
state {
  phase: TRAIN
}
layer {
  name: "data"
  type: "Data"
  top: "data"
  top: "label"
  include {
    phase: TRAIN
  }
  transform_param {
    scale: 0.00390625
    mean_file: "data/person_only_lmdb/person_vs_background_vs_random_color_mean.binaryproto"
  }
  data_param {
    source: "data/person_only_lmdb/person_vs_background_vs_random_train_lmdb"
    batch_size: 128
    backend: LMDB
  }
}
layer {
  name: "conv1"
  type: "Convolution"
  bottom: "data"
  top: "conv1"
  param {
    lr_mult: 1
    decay_mult: 1
  }
  param {
    lr_mult: 2
    decay_mult: 0
  }
  convolution_param {
    num_output: 96
    kernel_size: 11
    stride: 4
    weight_filler {
      type: "gaussian"
      std: 0.01
    }
    bias_filler {
      type: "constant"
      value: 0
    }
  }
}
layer {
  name: "relu1"
  type: "ReLU"
  bottom: "conv1"
  top: "conv1"
}
layer {
  name: "pool1"
  type: "Pooling"
  bottom: "conv1"
  top: "pool1"
  pooling_param {
    pool: MAX
    kernel_size: 3
    stride: 2
  }
}
layer {
  name: "norm1"
  type: "LRN"
  bottom: "pool1"
  top: "norm1"
  lrn_param {
    local_size: 5
    alpha: 0.0001
    beta: 0.75
  }
}
layer {
  name: "conv2"
  type: "Convolution"
  bottom: "norm1"
  top: "conv2"
  param {
    lr_mult: 1
    decay_mult: 1
  }
  param {
    lr_mult: 2
    decay_mult: 0
  }
  convolution_param {
    num_output: 256
    pad: 2
    kernel_size: 5
    group: 2
    weight_filler {
      type: "gaussian"
      std: 0.01
    }
    bias_filler {
      type: "constant"
      value: 0.1
    }
  }
}
layer {
  name: "relu2"
  type: "ReLU"
  bottom: "conv2"
  top: "conv2"
}
layer {
  name: "pool2"
  type: "Pooling"
  bottom: "conv2"
  top: "pool2"
  pooling_param {
    pool: MAX
    kernel_size: 3
    stride: 2
  }
}
layer {
  name: "norm2"
  type: "LRN"
  bottom: "pool2"
  top: "norm2"
  lrn_param {
    local_size: 5
    alpha: 0.0001
    beta: 0.75
  }
}
layer {
  name: "conv3"
  type: "Convolution"
  bottom: "norm2"
  top: "conv3"
  param {
    lr_mult: 1
    decay_mult: 1
  }
  param {
    lr_mult: 2
    decay_mult: 0
  }
  convolution_param {
    num_output: 384
    pad: 1
    kernel_size: 3
    weight_filler {
      type: "gaussian"
      std: 0.01
    }
    bias_filler {
      type: "constant"
      value: 0
    }
  }
}
layer {
  name: "relu3"
  type: "ReLU"
  bottom: "conv3"
  top: "conv3"
}
layer {
  name: "conv4"
  type: "Convolution"
  bottom: "conv3"
  top: "conv4"
  param {
    lr_mult: 1
    decay_mult: 1
  }
  param {
    lr_mult: 2
    decay_mult: 0
  }
  convolution_param {
    num_output: 384
    pad: 1
    kernel_size: 3
    group: 2
    weight_filler {
      type: "gaussian"
      std: 0.01
    }
    bias_filler {
      type: "constant"
      value: 0.1
    }
  }
}
layer {
  name: "relu4"
  type: "ReLU"
  bottom: "conv4"
  top: "conv4"
}
layer {
  name: "conv5"
  type: "Convolution"
  bottom: "conv4"
  top: "conv5"
  param {
    lr_mult: 1
    decay_mult: 1
  }
  param {
    lr_mult: 2
    decay_mult: 0
  }
  convolution_param {
    num_output: 256
    pad: 1
    kernel_size: 3
    group: 2
    weight_filler {
      type: "gaussian"
      std: 0.01
    }
    bias_filler {
      type: "constant"
      value: 0.1
    }
  }
}
layer {
  name: "relu5"
  type: "ReLU"
  bottom: "conv5"
  top: "conv5"
}
layer {
  name: "pool5"
  type: "Pooling"
  bottom: "conv5"
  top: "pool5"
  pooling_param {
    pool: MAX
    kernel_size: 3
    stride: 2
  }
}
layer {
  name: "fc6n"
  type: "InnerProduct"
  bottom: "pool5"
  top: "fc6"
  param {
    lr_mult: 1
    decay_mult: 1
  }
  param {
    lr_mult: 2
    decay_mult: 0
  }
  inner_product_param {
    num_output: 4096
    weight_filler {
      type: "gaussian"
      std: 1
    }
    bias_filler {
      type: "constant"
      value: 0.1
    }
  }
}
layer {
  name: "relu6"
  type: "ReLU"
  bottom: "fc6"
  top: "fc6"
}
layer {
  name: "drop6"
  type: "Dropout"
  bottom: "fc6"
  top: "fc6"
  dropout_param {
    dropout_ratio: 0.5
  }
}
layer {
  name: "fc7n"
  type: "InnerProduct"
  bottom: "fc6"
  top: "fc7"
  param {
    lr_mult: 1
    decay_mult: 1
  }
  param {
    lr_mult: 2
    decay_mult: 0
  }
  inner_product_param {
    num_output: 4096
    weight_filler {
      type: "gaussian"
      std: 1
    }
    bias_filler {
      type: "constant"
      value: 0.1
    }
  }
}
layer {
  name: "relu7"
  type: "ReLU"
  bottom: "fc7"
  top: "fc7"
}
layer {
  name: "drop7"
  type: "Dropout"
  bottom: "fc7"
  top: "fc7"
  dropout_param {
    dropout_ratio: 0.5
  }
}
layer {
  name: "fc8n"
  type: "InnerProduct"
  bottom: "fc7"
  top: "fc8"
  param {
    lr_mult: 1
    decay_mult: 1
  }
  param {
    lr_mult: 2
    decay_mult: 0
  }
  inner_product_param {
    num_output: 3
    weight_filler {
      type: "gaussian"
      std: 1
    }
    bias_filler {
      type: "constant"
      value: 0
    }
  }
}
layer {
  name: "loss"
  type: "SoftmaxWithLoss"
  bottom: "fc8"
  bottom: "label"
  top: "loss"
}
I0905 01:36:29.779234 26584 layer_factory.hpp:77] Creating layer data
I0905 01:36:29.781644 26584 net.cpp:100] Creating Layer data
I0905 01:36:29.781679 26584 net.cpp:408] data -> data
I0905 01:36:29.781718 26584 net.cpp:408] data -> label
I0905 01:36:29.781749 26584 data_transformer.cpp:25] Loading mean file from: data/person_only_lmdb/person_vs_background_vs_random_color_mean.binaryproto
I0905 01:36:29.782810 26627 db_lmdb.cpp:35] Opened lmdb data/person_only_lmdb/person_vs_background_vs_random_train_lmdb
I0905 01:36:29.801931 26584 data_layer.cpp:41] output data size: 128,3,128,128
I0905 01:36:29.848628 26584 net.cpp:150] Setting up data
I0905 01:36:29.848666 26584 net.cpp:157] Top shape: 128 3 128 128 (6291456)
I0905 01:36:29.848672 26584 net.cpp:157] Top shape: 128 (128)
I0905 01:36:29.848675 26584 net.cpp:165] Memory required for data: 25166336
I0905 01:36:29.848683 26584 layer_factory.hpp:77] Creating layer conv1
I0905 01:36:29.848711 26584 net.cpp:100] Creating Layer conv1
I0905 01:36:29.848716 26584 net.cpp:434] conv1 <- data
I0905 01:36:29.848726 26584 net.cpp:408] conv1 -> conv1
I0905 01:36:30.089193 26584 net.cpp:150] Setting up conv1
I0905 01:36:30.089226 26584 net.cpp:157] Top shape: 128 96 30 30 (11059200)
I0905 01:36:30.089229 26584 net.cpp:165] Memory required for data: 69403136
I0905 01:36:30.089251 26584 layer_factory.hpp:77] Creating layer relu1
I0905 01:36:30.089277 26584 net.cpp:100] Creating Layer relu1
I0905 01:36:30.089282 26584 net.cpp:434] relu1 <- conv1
I0905 01:36:30.089287 26584 net.cpp:395] relu1 -> conv1 (in-place)
I0905 01:36:30.089443 26584 net.cpp:150] Setting up relu1
I0905 01:36:30.089454 26584 net.cpp:157] Top shape: 128 96 30 30 (11059200)
I0905 01:36:30.089457 26584 net.cpp:165] Memory required for data: 113639936
I0905 01:36:30.089460 26584 layer_factory.hpp:77] Creating layer pool1
I0905 01:36:30.089470 26584 net.cpp:100] Creating Layer pool1
I0905 01:36:30.089474 26584 net.cpp:434] pool1 <- conv1
I0905 01:36:30.089478 26584 net.cpp:408] pool1 -> pool1
I0905 01:36:30.089517 26584 net.cpp:150] Setting up pool1
I0905 01:36:30.089522 26584 net.cpp:157] Top shape: 128 96 15 15 (2764800)
I0905 01:36:30.089525 26584 net.cpp:165] Memory required for data: 124699136
I0905 01:36:30.089529 26584 layer_factory.hpp:77] Creating layer norm1
I0905 01:36:30.089537 26584 net.cpp:100] Creating Layer norm1
I0905 01:36:30.089540 26584 net.cpp:434] norm1 <- pool1
I0905 01:36:30.089545 26584 net.cpp:408] norm1 -> norm1
I0905 01:36:30.089974 26584 net.cpp:150] Setting up norm1
I0905 01:36:30.089987 26584 net.cpp:157] Top shape: 128 96 15 15 (2764800)
I0905 01:36:30.090003 26584 net.cpp:165] Memory required for data: 135758336
I0905 01:36:30.090006 26584 layer_factory.hpp:77] Creating layer conv2
I0905 01:36:30.090019 26584 net.cpp:100] Creating Layer conv2
I0905 01:36:30.090023 26584 net.cpp:434] conv2 <- norm1
I0905 01:36:30.090028 26584 net.cpp:408] conv2 -> conv2
I0905 01:36:30.100345 26584 net.cpp:150] Setting up conv2
I0905 01:36:30.100370 26584 net.cpp:157] Top shape: 128 256 15 15 (7372800)
I0905 01:36:30.100374 26584 net.cpp:165] Memory required for data: 165249536
I0905 01:36:30.100383 26584 layer_factory.hpp:77] Creating layer relu2
I0905 01:36:30.100389 26584 net.cpp:100] Creating Layer relu2
I0905 01:36:30.100394 26584 net.cpp:434] relu2 <- conv2
I0905 01:36:30.100397 26584 net.cpp:395] relu2 -> conv2 (in-place)
I0905 01:36:30.100821 26584 net.cpp:150] Setting up relu2
I0905 01:36:30.100836 26584 net.cpp:157] Top shape: 128 256 15 15 (7372800)
I0905 01:36:30.100850 26584 net.cpp:165] Memory required for data: 194740736
I0905 01:36:30.100854 26584 layer_factory.hpp:77] Creating layer pool2
I0905 01:36:30.100860 26584 net.cpp:100] Creating Layer pool2
I0905 01:36:30.100865 26584 net.cpp:434] pool2 <- conv2
I0905 01:36:30.100870 26584 net.cpp:408] pool2 -> pool2
I0905 01:36:30.100930 26584 net.cpp:150] Setting up pool2
I0905 01:36:30.100935 26584 net.cpp:157] Top shape: 128 256 7 7 (1605632)
I0905 01:36:30.100939 26584 net.cpp:165] Memory required for data: 201163264
I0905 01:36:30.100942 26584 layer_factory.hpp:77] Creating layer norm2
I0905 01:36:30.100949 26584 net.cpp:100] Creating Layer norm2
I0905 01:36:30.100952 26584 net.cpp:434] norm2 <- pool2
I0905 01:36:30.100956 26584 net.cpp:408] norm2 -> norm2
I0905 01:36:30.101128 26584 net.cpp:150] Setting up norm2
I0905 01:36:30.101137 26584 net.cpp:157] Top shape: 128 256 7 7 (1605632)
I0905 01:36:30.101140 26584 net.cpp:165] Memory required for data: 207585792
I0905 01:36:30.101145 26584 layer_factory.hpp:77] Creating layer conv3
I0905 01:36:30.101152 26584 net.cpp:100] Creating Layer conv3
I0905 01:36:30.101155 26584 net.cpp:434] conv3 <- norm2
I0905 01:36:30.101161 26584 net.cpp:408] conv3 -> conv3
I0905 01:36:30.127204 26584 net.cpp:150] Setting up conv3
I0905 01:36:30.127219 26584 net.cpp:157] Top shape: 128 384 7 7 (2408448)
I0905 01:36:30.127223 26584 net.cpp:165] Memory required for data: 217219584
I0905 01:36:30.127231 26584 layer_factory.hpp:77] Creating layer relu3
I0905 01:36:30.127238 26584 net.cpp:100] Creating Layer relu3
I0905 01:36:30.127240 26584 net.cpp:434] relu3 <- conv3
I0905 01:36:30.127256 26584 net.cpp:395] relu3 -> conv3 (in-place)
I0905 01:36:30.127409 26584 net.cpp:150] Setting up relu3
I0905 01:36:30.127419 26584 net.cpp:157] Top shape: 128 384 7 7 (2408448)
I0905 01:36:30.127423 26584 net.cpp:165] Memory required for data: 226853376
I0905 01:36:30.127425 26584 layer_factory.hpp:77] Creating layer conv4
I0905 01:36:30.127434 26584 net.cpp:100] Creating Layer conv4
I0905 01:36:30.127441 26584 net.cpp:434] conv4 <- conv3
I0905 01:36:30.127447 26584 net.cpp:408] conv4 -> conv4
I0905 01:36:30.147734 26584 net.cpp:150] Setting up conv4
I0905 01:36:30.147748 26584 net.cpp:157] Top shape: 128 384 7 7 (2408448)
I0905 01:36:30.147752 26584 net.cpp:165] Memory required for data: 236487168
I0905 01:36:30.147758 26584 layer_factory.hpp:77] Creating layer relu4
I0905 01:36:30.147764 26584 net.cpp:100] Creating Layer relu4
I0905 01:36:30.147768 26584 net.cpp:434] relu4 <- conv4
I0905 01:36:30.147773 26584 net.cpp:395] relu4 -> conv4 (in-place)
I0905 01:36:30.147965 26584 net.cpp:150] Setting up relu4
I0905 01:36:30.147976 26584 net.cpp:157] Top shape: 128 384 7 7 (2408448)
I0905 01:36:30.147980 26584 net.cpp:165] Memory required for data: 246120960
I0905 01:36:30.147984 26584 layer_factory.hpp:77] Creating layer conv5
I0905 01:36:30.148005 26584 net.cpp:100] Creating Layer conv5
I0905 01:36:30.148008 26584 net.cpp:434] conv5 <- conv4
I0905 01:36:30.148015 26584 net.cpp:408] conv5 -> conv5
I0905 01:36:30.162364 26584 net.cpp:150] Setting up conv5
I0905 01:36:30.162377 26584 net.cpp:157] Top shape: 128 256 7 7 (1605632)
I0905 01:36:30.162380 26584 net.cpp:165] Memory required for data: 252543488
I0905 01:36:30.162390 26584 layer_factory.hpp:77] Creating layer relu5
I0905 01:36:30.162396 26584 net.cpp:100] Creating Layer relu5
I0905 01:36:30.162401 26584 net.cpp:434] relu5 <- conv5
I0905 01:36:30.162416 26584 net.cpp:395] relu5 -> conv5 (in-place)
I0905 01:36:30.162577 26584 net.cpp:150] Setting up relu5
I0905 01:36:30.162587 26584 net.cpp:157] Top shape: 128 256 7 7 (1605632)
I0905 01:36:30.162590 26584 net.cpp:165] Memory required for data: 258966016
I0905 01:36:30.162593 26584 layer_factory.hpp:77] Creating layer pool5
I0905 01:36:30.162600 26584 net.cpp:100] Creating Layer pool5
I0905 01:36:30.162603 26584 net.cpp:434] pool5 <- conv5
I0905 01:36:30.162608 26584 net.cpp:408] pool5 -> pool5
I0905 01:36:30.162647 26584 net.cpp:150] Setting up pool5
I0905 01:36:30.162654 26584 net.cpp:157] Top shape: 128 256 3 3 (294912)
I0905 01:36:30.162657 26584 net.cpp:165] Memory required for data: 260145664
I0905 01:36:30.162659 26584 layer_factory.hpp:77] Creating layer fc6n
I0905 01:36:30.162669 26584 net.cpp:100] Creating Layer fc6n
I0905 01:36:30.162674 26584 net.cpp:434] fc6n <- pool5
I0905 01:36:30.162678 26584 net.cpp:408] fc6n -> fc6
I0905 01:36:30.427557 26584 net.cpp:150] Setting up fc6n
I0905 01:36:30.427590 26584 net.cpp:157] Top shape: 128 4096 (524288)
I0905 01:36:30.427593 26584 net.cpp:165] Memory required for data: 262242816
I0905 01:36:30.427605 26584 layer_factory.hpp:77] Creating layer relu6
I0905 01:36:30.427619 26584 net.cpp:100] Creating Layer relu6
I0905 01:36:30.427628 26584 net.cpp:434] relu6 <- fc6
I0905 01:36:30.427646 26584 net.cpp:395] relu6 -> fc6 (in-place)
I0905 01:36:30.428177 26584 net.cpp:150] Setting up relu6
I0905 01:36:30.428191 26584 net.cpp:157] Top shape: 128 4096 (524288)
I0905 01:36:30.428194 26584 net.cpp:165] Memory required for data: 264339968
I0905 01:36:30.428198 26584 layer_factory.hpp:77] Creating layer drop6
I0905 01:36:30.428220 26584 net.cpp:100] Creating Layer drop6
I0905 01:36:30.428223 26584 net.cpp:434] drop6 <- fc6
I0905 01:36:30.428241 26584 net.cpp:395] drop6 -> fc6 (in-place)
I0905 01:36:30.428266 26584 net.cpp:150] Setting up drop6
I0905 01:36:30.428277 26584 net.cpp:157] Top shape: 128 4096 (524288)
I0905 01:36:30.428278 26584 net.cpp:165] Memory required for data: 266437120
I0905 01:36:30.428282 26584 layer_factory.hpp:77] Creating layer fc7n
I0905 01:36:30.428292 26584 net.cpp:100] Creating Layer fc7n
I0905 01:36:30.428297 26584 net.cpp:434] fc7n <- fc6
I0905 01:36:30.428302 26584 net.cpp:408] fc7n -> fc7
I0905 01:36:30.896548 26584 net.cpp:150] Setting up fc7n
I0905 01:36:30.896587 26584 net.cpp:157] Top shape: 128 4096 (524288)
I0905 01:36:30.896590 26584 net.cpp:165] Memory required for data: 268534272
I0905 01:36:30.896603 26584 layer_factory.hpp:77] Creating layer relu7
I0905 01:36:30.896615 26584 net.cpp:100] Creating Layer relu7
I0905 01:36:30.896631 26584 net.cpp:434] relu7 <- fc7
I0905 01:36:30.896639 26584 net.cpp:395] relu7 -> fc7 (in-place)
I0905 01:36:30.896872 26584 net.cpp:150] Setting up relu7
I0905 01:36:30.896883 26584 net.cpp:157] Top shape: 128 4096 (524288)
I0905 01:36:30.896886 26584 net.cpp:165] Memory required for data: 270631424
I0905 01:36:30.896889 26584 layer_factory.hpp:77] Creating layer drop7
I0905 01:36:30.896898 26584 net.cpp:100] Creating Layer drop7
I0905 01:36:30.896900 26584 net.cpp:434] drop7 <- fc7
I0905 01:36:30.896905 26584 net.cpp:395] drop7 -> fc7 (in-place)
I0905 01:36:30.896926 26584 net.cpp:150] Setting up drop7
I0905 01:36:30.896932 26584 net.cpp:157] Top shape: 128 4096 (524288)
I0905 01:36:30.896935 26584 net.cpp:165] Memory required for data: 272728576
I0905 01:36:30.896937 26584 layer_factory.hpp:77] Creating layer fc8n
I0905 01:36:30.896946 26584 net.cpp:100] Creating Layer fc8n
I0905 01:36:30.896951 26584 net.cpp:434] fc8n <- fc7
I0905 01:36:30.896965 26584 net.cpp:408] fc8n -> fc8
I0905 01:36:30.898538 26584 net.cpp:150] Setting up fc8n
I0905 01:36:30.898551 26584 net.cpp:157] Top shape: 128 3 (384)
I0905 01:36:30.898555 26584 net.cpp:165] Memory required for data: 272730112
I0905 01:36:30.898561 26584 layer_factory.hpp:77] Creating layer loss
I0905 01:36:30.898569 26584 net.cpp:100] Creating Layer loss
I0905 01:36:30.898573 26584 net.cpp:434] loss <- fc8
I0905 01:36:30.898576 26584 net.cpp:434] loss <- label
I0905 01:36:30.898596 26584 net.cpp:408] loss -> loss
I0905 01:36:30.898614 26584 layer_factory.hpp:77] Creating layer loss
…
I0905 01:36:30.899597 26584 net.cpp:322] The NetState phase (1) differed from the phase (0) specified by a rule in layer data
I0905 01:36:30.899763 26584 net.cpp:58] Initializing net from parameters: 
name: "CaffeNet"
state {
  phase: TEST
}
layer {
  name: "data"
  type: "Data"
  top: "data"
  top: "label"
  include {
    phase: TEST
  }
  transform_param {
    scale: 0.00390625
    mean_file: "data/person_only_lmdb/person_vs_background_vs_random_color_mean.binaryproto"
  }
  data_param {
    source: "data/person_only_lmdb/person_vs_background_vs_random_test_lmdb"
    batch_size: 100
    backend: LMDB
  }
}
layer {
  name: "conv1"
  type: "Convolution"
  bottom: "data"
  top: "conv1"
  param {
    lr_mult: 1
    decay_mult: 1
  }
  param {
    lr_mult: 2
    decay_mult: 0
  }
  convolution_param {
    num_output: 96
    kernel_size: 11
    stride: 4
    weight_filler {
      type: "gaussian"
      std: 0.01
    }
    bias_filler {
      type: "constant"
      value: 0
    }
  }
}
layer {
  name: "relu1"
  type: "ReLU"
  bottom: "conv1"
  top: "conv1"
}
layer {
  name: "pool1"
  type: "Pooling"
  bottom: "conv1"
  top: "pool1"
  pooling_param {
    pool: MAX
    kernel_size: 3
    stride: 2
  }
}
layer {
  name: "norm1"
  type: "LRN"
  bottom: "pool1"
  top: "norm1"
  lrn_param {
    local_size: 5
    alpha: 0.0001
    beta: 0.75
  }
}
layer {
  name: "conv2"
  type: "Convolution"
  bottom: "norm1"
  top: "conv2"
  param {
    lr_mult: 1
    decay_mult: 1
  }
  param {
    lr_mult: 2
    decay_mult: 0
  }
  convolution_param {
    num_output: 256
    pad: 2
    kernel_size: 5
    group: 2
    weight_filler {
      type: "gaussian"
      std: 0.01
    }
    bias_filler {
      type: "constant"
      value: 0.1
    }
  }
}
layer {
  name: "relu2"
  type: "ReLU"
  bottom: "conv2"
  top: "conv2"
}
layer {
  name: "pool2"
  type: "Pooling"
  bottom: "conv2"
  top: "pool2"
  pooling_param {
    pool: MAX
    kernel_size: 3
    stride: 2
  }
}
layer {
  name: "norm2"
  type: "LRN"
  bottom: "pool2"
  top: "norm2"
  lrn_param {
    local_size: 5
    alpha: 0.0001
    beta: 0.75
  }
}
layer {
  name: "conv3"
  type: "Convolution"
  bottom: "norm2"
  top: "conv3"
  param {
    lr_mult: 1
    decay_mult: 1
  }
  param {
    lr_mult: 2
    decay_mult: 0
  }
  convolution_param {
    num_output: 384
    pad: 1
    kernel_size: 3
    weight_filler {
      type: "gaussian"
      std: 0.01
    }
    bias_filler {
      type: "constant"
      value: 0
    }
  }
}
layer {
  name: "relu3"
  type: "ReLU"
  bottom: "conv3"
  top: "conv3"
}
layer {
  name: "conv4"
  type: "Convolution"
  bottom: "conv3"
  top: "conv4"
  param {
    lr_mult: 1
    decay_mult: 1
  }
  param {
    lr_mult: 2
    decay_mult: 0
  }
  convolution_param {
    num_output: 384
    pad: 1
    kernel_size: 3
    group: 2
    weight_filler {
      type: "gaussian"
      std: 0.01
    }
    bias_filler {
      type: "constant"
      value: 0.1
    }
  }
}
layer {
  name: "relu4"
  type: "ReLU"
  bottom: "conv4"
  top: "conv4"
}
layer {
  name: "conv5"
  type: "Convolution"
  bottom: "conv4"
  top: "conv5"
  param {
    lr_mult: 1
    decay_mult: 1
  }
  param {
    lr_mult: 2
    decay_mult: 0
  }
  convolution_param {
    num_output: 256
    pad: 1
    kernel_size: 3
    group: 2
    weight_filler {
      type: "gaussian"
      std: 0.01
    }
    bias_filler {
      type: "constant"
      value: 0.1
    }
  }
}
layer {
  name: "relu5"
  type: "ReLU"
  bottom: "conv5"
  top: "conv5"
}
layer {
  name: "pool5"
  type: "Pooling"
  bottom: "conv5"
  top: "pool5"
  pooling_param {
    pool: MAX
    kernel_size: 3
    stride: 2
  }
}
layer {
  name: "fc6n"
  type: "InnerProduct"
  bottom: "pool5"
  top: "fc6"
  param {
    lr_mult: 1
    decay_mult: 1
  }
  param {
    lr_mult: 2
    decay_mult: 0
  }
  inner_product_param {
    num_output: 4096
    weight_filler {
      type: "gaussian"
      std: 1
    }
    bias_filler {
      type: "constant"
      value: 0.1
    }
  }
}
layer {
  name: "relu6"
  type: "ReLU"
  bottom: "fc6"
  top: "fc6"
}
layer {
  name: "drop6"
  type: "Dropout"
  bottom: "fc6"
  top: "fc6"
  dropout_param {
    dropout_ratio: 0.5
  }
}
layer {
  name: "fc7n"
  type: "InnerProduct"
  bottom: "fc6"
  top: "fc7"
  param {
    lr_mult: 1
    decay_mult: 1
  }
  param {
    lr_mult: 2
    decay_mult: 0
  }
  inner_product_param {
    num_output: 4096
    weight_filler {
      type: "gaussian"
      std: 1
    }
    bias_filler {
      type: "constant"
      value: 0.1
    }
  }
}
layer {
  name: "relu7"
  type: "ReLU"
  bottom: "fc7"
  top: "fc7"
}
layer {
  name: "drop7"
  type: "Dropout"
  bottom: "fc7"
  top: "fc7"
  dropout_param {
    dropout_ratio: 0.5
  }
}
layer {
  name: "fc8n"
  type: "InnerProduct"
  bottom: "fc7"
  top: "fc8"
  param {
    lr_mult: 1
    decay_mult: 1
  }
  param {
    lr_mult: 2
    decay_mult: 0
  }
  inner_product_param {
    num_output: 3
    weight_filler {
      type: "gaussian"
      std: 1
    }
    bias_filler {
      type: "constant"
      value: 0
    }
  }
}
layer {
  name: "accuracy"
  type: "Accuracy"
  bottom: "fc8"
  bottom: "label"
  top: "accuracy"
  include {
    phase: TEST
  }
}
layer {
  name: "loss"
  type: "SoftmaxWithLoss"
  bottom: "fc8"
  bottom: "label"
  top: "loss"
}
I0905 01:36:30.899896 26584 layer_factory.hpp:77] Creating layer data
I0905 01:36:30.900003 26584 net.cpp:100] Creating Layer data
I0905 01:36:30.900027 26584 net.cpp:408] data -> data
I0905 01:36:30.900035 26584 net.cpp:408] data -> label
I0905 01:36:30.900043 26584 data_transformer.cpp:25] Loading mean file from: data/person_only_lmdb/person_vs_background_vs_random_color_mean.binaryproto
I0905 01:36:30.901521 26629 db_lmdb.cpp:35] Opened lmdb data/person_only_lmdb/person_vs_background_vs_random_test_lmdb
I0905 01:36:30.901904 26584 data_layer.cpp:41] output data size: 100,3,128,128
I0905 01:36:30.944169 26584 net.cpp:150] Setting up data
I0905 01:36:30.944206 26584 net.cpp:157] Top shape: 100 3 128 128 (4915200)
I0905 01:36:30.944213 26584 net.cpp:157] Top shape: 100 (100)
I0905 01:36:30.944217 26584 net.cpp:165] Memory required for data: 19661200
I0905 01:36:30.944224 26584 layer_factory.hpp:77] Creating layer label_data_1_split
I0905 01:36:30.944241 26584 net.cpp:100] Creating Layer label_data_1_split
I0905 01:36:30.944245 26584 net.cpp:434] label_data_1_split <- label
I0905 01:36:30.944253 26584 net.cpp:408] label_data_1_split -> label_data_1_split_0
I0905 01:36:30.944265 26584 net.cpp:408] label_data_1_split -> label_data_1_split_1
I0905 01:36:30.944543 26584 net.cpp:150] Setting up label_data_1_split
I0905 01:36:30.944579 26584 net.cpp:157] Top shape: 100 (100)
I0905 01:36:30.944589 26584 net.cpp:157] Top shape: 100 (100)
I0905 01:36:30.944597 26584 net.cpp:165] Memory required for data: 19662000
I0905 01:36:30.944605 26584 layer_factory.hpp:77] Creating layer conv1
I0905 01:36:30.944635 26584 net.cpp:100] Creating Layer conv1
I0905 01:36:30.944643 26584 net.cpp:434] conv1 <- data
I0905 01:36:30.944656 26584 net.cpp:408] conv1 -> conv1
I0905 01:36:30.949440 26584 net.cpp:150] Setting up conv1
I0905 01:36:30.949473 26584 net.cpp:157] Top shape: 100 96 30 30 (8640000)
I0905 01:36:30.949482 26584 net.cpp:165] Memory required for data: 54222000
I0905 01:36:30.949506 26584 layer_factory.hpp:77] Creating layer relu1
I0905 01:36:30.949519 26584 net.cpp:100] Creating Layer relu1
I0905 01:36:30.949530 26584 net.cpp:434] relu1 <- conv1
I0905 01:36:30.949542 26584 net.cpp:395] relu1 -> conv1 (in-place)
I0905 01:36:30.949879 26584 net.cpp:150] Setting up relu1
I0905 01:36:30.949898 26584 net.cpp:157] Top shape: 100 96 30 30 (8640000)
I0905 01:36:30.949905 26584 net.cpp:165] Memory required for data: 88782000
I0905 01:36:30.949913 26584 layer_factory.hpp:77] Creating layer pool1
I0905 01:36:30.949928 26584 net.cpp:100] Creating Layer pool1
I0905 01:36:30.949936 26584 net.cpp:434] pool1 <- conv1
I0905 01:36:30.949946 26584 net.cpp:408] pool1 -> pool1
I0905 01:36:30.950031 26584 net.cpp:150] Setting up pool1
I0905 01:36:30.950044 26584 net.cpp:157] Top shape: 100 96 15 15 (2160000)
I0905 01:36:30.950050 26584 net.cpp:165] Memory required for data: 97422000
I0905 01:36:30.950057 26584 layer_factory.hpp:77] Creating layer norm1
I0905 01:36:30.950069 26584 net.cpp:100] Creating Layer norm1
I0905 01:36:30.950076 26584 net.cpp:434] norm1 <- pool1
I0905 01:36:30.950085 26584 net.cpp:408] norm1 -> norm1
I0905 01:36:30.951045 26584 net.cpp:150] Setting up norm1
I0905 01:36:30.951074 26584 net.cpp:157] Top shape: 100 96 15 15 (2160000)
I0905 01:36:30.951082 26584 net.cpp:165] Memory required for data: 106062000
I0905 01:36:30.951091 26584 layer_factory.hpp:77] Creating layer conv2
I0905 01:36:30.951110 26584 net.cpp:100] Creating Layer conv2
I0905 01:36:30.951118 26584 net.cpp:434] conv2 <- norm1
I0905 01:36:30.951131 26584 net.cpp:408] conv2 -> conv2
I0905 01:36:30.969938 26584 net.cpp:150] Setting up conv2
I0905 01:36:30.969969 26584 net.cpp:157] Top shape: 100 256 15 15 (5760000)
I0905 01:36:30.969974 26584 net.cpp:165] Memory required for data: 129102000
I0905 01:36:30.969987 26584 layer_factory.hpp:77] Creating layer relu2
I0905 01:36:30.969995 26584 net.cpp:100] Creating Layer relu2
I0905 01:36:30.970010 26584 net.cpp:434] relu2 <- conv2
I0905 01:36:30.970017 26584 net.cpp:395] relu2 -> conv2 (in-place)
I0905 01:36:30.970494 26584 net.cpp:150] Setting up relu2
I0905 01:36:30.970509 26584 net.cpp:157] Top shape: 100 256 15 15 (5760000)
I0905 01:36:30.970523 26584 net.cpp:165] Memory required for data: 152142000
I0905 01:36:30.970528 26584 layer_factory.hpp:77] Creating layer pool2
I0905 01:36:30.970540 26584 net.cpp:100] Creating Layer pool2
I0905 01:36:30.970543 26584 net.cpp:434] pool2 <- conv2
I0905 01:36:30.970548 26584 net.cpp:408] pool2 -> pool2
I0905 01:36:30.970600 26584 net.cpp:150] Setting up pool2
I0905 01:36:30.970609 26584 net.cpp:157] Top shape: 100 256 7 7 (1254400)
I0905 01:36:30.970613 26584 net.cpp:165] Memory required for data: 157159600
I0905 01:36:30.970615 26584 layer_factory.hpp:77] Creating layer norm2
I0905 01:36:30.970624 26584 net.cpp:100] Creating Layer norm2
I0905 01:36:30.970631 26584 net.cpp:434] norm2 <- pool2
I0905 01:36:30.970636 26584 net.cpp:408] norm2 -> norm2
I0905 01:36:30.970842 26584 net.cpp:150] Setting up norm2
I0905 01:36:30.970854 26584 net.cpp:157] Top shape: 100 256 7 7 (1254400)
I0905 01:36:30.970861 26584 net.cpp:165] Memory required for data: 162177200
I0905 01:36:30.970865 26584 layer_factory.hpp:77] Creating layer conv3
I0905 01:36:30.970876 26584 net.cpp:100] Creating Layer conv3
I0905 01:36:30.970881 26584 net.cpp:434] conv3 <- norm2
I0905 01:36:30.970890 26584 net.cpp:408] conv3 -> conv3
I0905 01:36:30.999243 26584 net.cpp:150] Setting up conv3
I0905 01:36:30.999284 26584 net.cpp:157] Top shape: 100 384 7 7 (1881600)
I0905 01:36:30.999289 26584 net.cpp:165] Memory required for data: 169703600
I0905 01:36:30.999305 26584 layer_factory.hpp:77] Creating layer relu3
I0905 01:36:30.999330 26584 net.cpp:100] Creating Layer relu3
I0905 01:36:30.999336 26584 net.cpp:434] relu3 <- conv3
I0905 01:36:30.999344 26584 net.cpp:395] relu3 -> conv3 (in-place)
I0905 01:36:30.999531 26584 net.cpp:150] Setting up relu3
I0905 01:36:30.999542 26584 net.cpp:157] Top shape: 100 384 7 7 (1881600)
I0905 01:36:30.999546 26584 net.cpp:165] Memory required for data: 177230000
I0905 01:36:30.999549 26584 layer_factory.hpp:77] Creating layer conv4
I0905 01:36:30.999562 26584 net.cpp:100] Creating Layer conv4
I0905 01:36:30.999565 26584 net.cpp:434] conv4 <- conv3
I0905 01:36:30.999572 26584 net.cpp:408] conv4 -> conv4
I0905 01:36:31.022156 26584 net.cpp:150] Setting up conv4
I0905 01:36:31.022195 26584 net.cpp:157] Top shape: 100 384 7 7 (1881600)
I0905 01:36:31.022202 26584 net.cpp:165] Memory required for data: 184756400
I0905 01:36:31.022212 26584 layer_factory.hpp:77] Creating layer relu4
I0905 01:36:31.022235 26584 net.cpp:100] Creating Layer relu4
I0905 01:36:31.022240 26584 net.cpp:434] relu4 <- conv4
I0905 01:36:31.022248 26584 net.cpp:395] relu4 -> conv4 (in-place)
I0905 01:36:31.023777 26584 net.cpp:150] Setting up relu4
I0905 01:36:31.023790 26584 net.cpp:157] Top shape: 100 384 7 7 (1881600)
I0905 01:36:31.023805 26584 net.cpp:165] Memory required for data: 192282800
I0905 01:36:31.023809 26584 layer_factory.hpp:77] Creating layer conv5
I0905 01:36:31.023835 26584 net.cpp:100] Creating Layer conv5
I0905 01:36:31.023839 26584 net.cpp:434] conv5 <- conv4
I0905 01:36:31.023845 26584 net.cpp:408] conv5 -> conv5
I0905 01:36:31.038560 26584 net.cpp:150] Setting up conv5
I0905 01:36:31.038575 26584 net.cpp:157] Top shape: 100 256 7 7 (1254400)
I0905 01:36:31.038579 26584 net.cpp:165] Memory required for data: 197300400
I0905 01:36:31.038590 26584 layer_factory.hpp:77] Creating layer relu5
I0905 01:36:31.038596 26584 net.cpp:100] Creating Layer relu5
I0905 01:36:31.038599 26584 net.cpp:434] relu5 <- conv5
I0905 01:36:31.038616 26584 net.cpp:395] relu5 -> conv5 (in-place)
I0905 01:36:31.038785 26584 net.cpp:150] Setting up relu5
I0905 01:36:31.038796 26584 net.cpp:157] Top shape: 100 256 7 7 (1254400)
I0905 01:36:31.038800 26584 net.cpp:165] Memory required for data: 202318000
I0905 01:36:31.038802 26584 layer_factory.hpp:77] Creating layer pool5
I0905 01:36:31.038813 26584 net.cpp:100] Creating Layer pool5
I0905 01:36:31.038817 26584 net.cpp:434] pool5 <- conv5
I0905 01:36:31.038821 26584 net.cpp:408] pool5 -> pool5
I0905 01:36:31.038866 26584 net.cpp:150] Setting up pool5
I0905 01:36:31.038873 26584 net.cpp:157] Top shape: 100 256 3 3 (230400)
I0905 01:36:31.038877 26584 net.cpp:165] Memory required for data: 203239600
I0905 01:36:31.038879 26584 layer_factory.hpp:77] Creating layer fc6n
I0905 01:36:31.038887 26584 net.cpp:100] Creating Layer fc6n
I0905 01:36:31.038889 26584 net.cpp:434] fc6n <- pool5
I0905 01:36:31.038895 26584 net.cpp:408] fc6n -> fc6
I0905 01:36:31.302531 26584 net.cpp:150] Setting up fc6n
I0905 01:36:31.302569 26584 net.cpp:157] Top shape: 100 4096 (409600)
I0905 01:36:31.302573 26584 net.cpp:165] Memory required for data: 204878000
I0905 01:36:31.302585 26584 layer_factory.hpp:77] Creating layer relu6
I0905 01:36:31.302597 26584 net.cpp:100] Creating Layer relu6
I0905 01:36:31.302614 26584 net.cpp:434] relu6 <- fc6
I0905 01:36:31.302620 26584 net.cpp:395] relu6 -> fc6 (in-place)
I0905 01:36:31.302852 26584 net.cpp:150] Setting up relu6
I0905 01:36:31.302862 26584 net.cpp:157] Top shape: 100 4096 (409600)
I0905 01:36:31.302865 26584 net.cpp:165] Memory required for data: 206516400
I0905 01:36:31.302870 26584 layer_factory.hpp:77] Creating layer drop6
I0905 01:36:31.302878 26584 net.cpp:100] Creating Layer drop6
I0905 01:36:31.302886 26584 net.cpp:434] drop6 <- fc6
I0905 01:36:31.302891 26584 net.cpp:395] drop6 -> fc6 (in-place)
I0905 01:36:31.302919 26584 net.cpp:150] Setting up drop6
I0905 01:36:31.302925 26584 net.cpp:157] Top shape: 100 4096 (409600)
I0905 01:36:31.302928 26584 net.cpp:165] Memory required for data: 208154800
I0905 01:36:31.302932 26584 layer_factory.hpp:77] Creating layer fc7n
I0905 01:36:31.302940 26584 net.cpp:100] Creating Layer fc7n
I0905 01:36:31.302945 26584 net.cpp:434] fc7n <- fc6
I0905 01:36:31.302963 26584 net.cpp:408] fc7n -> fc7
I0905 01:36:31.771514 26584 net.cpp:150] Setting up fc7n
I0905 01:36:31.771555 26584 net.cpp:157] Top shape: 100 4096 (409600)
I0905 01:36:31.771559 26584 net.cpp:165] Memory required for data: 209793200
I0905 01:36:31.771570 26584 layer_factory.hpp:77] Creating layer relu7
I0905 01:36:31.771582 26584 net.cpp:100] Creating Layer relu7
I0905 01:36:31.771597 26584 net.cpp:434] relu7 <- fc7
I0905 01:36:31.771605 26584 net.cpp:395] relu7 -> fc7 (in-place)
I0905 01:36:31.772341 26584 net.cpp:150] Setting up relu7
I0905 01:36:31.772367 26584 net.cpp:157] Top shape: 100 4096 (409600)
I0905 01:36:31.772369 26584 net.cpp:165] Memory required for data: 211431600
I0905 01:36:31.772373 26584 layer_factory.hpp:77] Creating layer drop7
I0905 01:36:31.772394 26584 net.cpp:100] Creating Layer drop7
I0905 01:36:31.772408 26584 net.cpp:434] drop7 <- fc7
I0905 01:36:31.772413 26584 net.cpp:395] drop7 -> fc7 (in-place)
I0905 01:36:31.772456 26584 net.cpp:150] Setting up drop7
I0905 01:36:31.772464 26584 net.cpp:157] Top shape: 100 4096 (409600)
I0905 01:36:31.772466 26584 net.cpp:165] Memory required for data: 213070000
I0905 01:36:31.772469 26584 layer_factory.hpp:77] Creating layer fc8n
I0905 01:36:31.772477 26584 net.cpp:100] Creating Layer fc8n
I0905 01:36:31.772480 26584 net.cpp:434] fc8n <- fc7
I0905 01:36:31.772485 26584 net.cpp:408] fc8n -> fc8
I0905 01:36:31.772967 26584 net.cpp:150] Setting up fc8n
I0905 01:36:31.772976 26584 net.cpp:157] Top shape: 100 3 (300)
I0905 01:36:31.772990 26584 net.cpp:165] Memory required for data: 213071200
I0905 01:36:31.772996 26584 layer_factory.hpp:77] Creating layer fc8_fc8n_0_split
I0905 01:36:31.773007 26584 net.cpp:100] Creating Layer fc8_fc8n_0_split
I0905 01:36:31.773010 26584 net.cpp:434] fc8_fc8n_0_split <- fc8
I0905 01:36:31.773015 26584 net.cpp:408] fc8_fc8n_0_split -> fc8_fc8n_0_split_0
I0905 01:36:31.773020 26584 net.cpp:408] fc8_fc8n_0_split -> fc8_fc8n_0_split_1
I0905 01:36:31.773058 26584 net.cpp:150] Setting up fc8_fc8n_0_split
I0905 01:36:31.773063 26584 net.cpp:157] Top shape: 100 3 (300)
I0905 01:36:31.773066 26584 net.cpp:157] Top shape: 100 3 (300)
I0905 01:36:31.773069 26584 net.cpp:165] Memory required for data: 213073600
I0905 01:36:31.773072 26584 layer_factory.hpp:77] Creating layer accuracy
I0905 01:36:31.773082 26584 net.cpp:100] Creating Layer accuracy
I0905 01:36:31.773085 26584 net.cpp:434] accuracy <- fc8_fc8n_0_split_0
I0905 01:36:31.773090 26584 net.cpp:434] accuracy <- label_data_1_split_0
I0905 01:36:31.773097 26584 net.cpp:408] accuracy -> accuracy
…
