…
I0825 11:41:38.965462 23055 net.cpp:322] The NetState phase (0) differed from the phase (1) specified by a rule in layer accuracy
I0825 11:41:38.965602 23055 net.cpp:58] Initializing net from parameters: 
name: "CaffeNet"
state {
  phase: TRAIN
}
layer {
  name: "data"
  type: "Data"
  top: "data"
  top: "label"
  include {
    phase: TRAIN
  }
  transform_param {
    scale: 0.00390625
    mean_file: "data/person_only_lmdb/person_vs_background_vs_random_color_mean.binaryproto"
  }
  data_param {
    source: "data/person_only_lmdb/person_vs_background_vs_random_train_lmdb"
    batch_size: 128
    backend: LMDB
  }
}
layer {
  name: "conv1"
  type: "Convolution"
  bottom: "data"
  top: "conv1"
  param {
    lr_mult: 1
    decay_mult: 1
  }
  param {
    lr_mult: 2
    decay_mult: 0
  }
  convolution_param {
    num_output: 96
    kernel_size: 11
    stride: 4
    weight_filler {
      type: "gaussian"
      std: 0.01
    }
    bias_filler {
      type: "constant"
      value: 0
    }
  }
}
layer {
  name: "relu1"
  type: "ReLU"
  bottom: "conv1"
  top: "conv1"
}
layer {
  name: "pool1"
  type: "Pooling"
  bottom: "conv1"
  top: "pool1"
  pooling_param {
    pool: MAX
    kernel_size: 3
    stride: 2
  }
}
layer {
  name: "norm1"
  type: "LRN"
  bottom: "pool1"
  top: "norm1"
  lrn_param {
    local_size: 5
    alpha: 0.0001
    beta: 0.75
  }
}
layer {
  name: "conv2"
  type: "Convolution"
  bottom: "norm1"
  top: "conv2"
  param {
    lr_mult: 1
    decay_mult: 1
  }
  param {
    lr_mult: 2
    decay_mult: 0
  }
  convolution_param {
    num_output: 256
    pad: 2
    kernel_size: 5
    group: 2
    weight_filler {
      type: "gaussian"
      std: 0.01
    }
    bias_filler {
      type: "constant"
      value: 1
    }
  }
}
layer {
  name: "relu2"
  type: "ReLU"
  bottom: "conv2"
  top: "conv2"
}
layer {
  name: "pool2"
  type: "Pooling"
  bottom: "conv2"
  top: "pool2"
  pooling_param {
    pool: MAX
    kernel_size: 3
    stride: 2
  }
}
layer {
  name: "norm2"
  type: "LRN"
  bottom: "pool2"
  top: "norm2"
  lrn_param {
    local_size: 5
    alpha: 0.0001
    beta: 0.75
  }
}
layer {
  name: "conv3"
  type: "Convolution"
  bottom: "norm2"
  top: "conv3"
  param {
    lr_mult: 1
    decay_mult: 1
  }
  param {
    lr_mult: 2
    decay_mult: 0
  }
  convolution_param {
    num_output: 384
    pad: 1
    kernel_size: 3
    weight_filler {
      type: "gaussian"
      std: 0.01
    }
    bias_filler {
      type: "constant"
      value: 0
    }
  }
}
layer {
  name: "relu3"
  type: "ReLU"
  bottom: "conv3"
  top: "conv3"
}
layer {
  name: "conv4"
  type: "Convolution"
  bottom: "conv3"
  top: "conv4"
  param {
    lr_mult: 1
    decay_mult: 1
  }
  param {
    lr_mult: 2
    decay_mult: 0
  }
  convolution_param {
    num_output: 384
    pad: 1
    kernel_size: 3
    group: 2
    weight_filler {
      type: "gaussian"
      std: 0.01
    }
    bias_filler {
      type: "constant"
      value: 1
    }
  }
}
layer {
  name: "relu4"
  type: "ReLU"
  bottom: "conv4"
  top: "conv4"
}
layer {
  name: "conv5"
  type: "Convolution"
  bottom: "conv4"
  top: "conv5"
  param {
    lr_mult: 1
    decay_mult: 1
  }
  param {
    lr_mult: 2
    decay_mult: 0
  }
  convolution_param {
    num_output: 256
    pad: 1
    kernel_size: 3
    group: 2
    weight_filler {
      type: "gaussian"
      std: 0.01
    }
    bias_filler {
      type: "constant"
      value: 1
    }
  }
}
layer {
  name: "relu5"
  type: "ReLU"
  bottom: "conv5"
  top: "conv5"
}
layer {
  name: "pool5"
  type: "Pooling"
  bottom: "conv5"
  top: "pool5"
  pooling_param {
    pool: MAX
    kernel_size: 3
    stride: 2
  }
}
layer {
  name: "fc6n"
  type: "InnerProduct"
  bottom: "pool5"
  top: "fc6"
  param {
    lr_mult: 1
    decay_mult: 1
  }
  param {
    lr_mult: 2
    decay_mult: 0
  }
  inner_product_param {
    num_output: 4096
    weight_filler {
      type: "gaussian"
      std: 0.005
    }
    bias_filler {
      type: "constant"
      value: 1
    }
  }
}
layer {
  name: "relu6"
  type: "ReLU"
  bottom: "fc6"
  top: "fc6"
}
layer {
  name: "drop6"
  type: "Dropout"
  bottom: "fc6"
  top: "fc6"
  dropout_param {
    dropout_ratio: 0.5
  }
}
layer {
  name: "fc7n"
  type: "InnerProduct"
  bottom: "fc6"
  top: "fc7"
  param {
    lr_mult: 1
    decay_mult: 1
  }
  param {
    lr_mult: 2
    decay_mult: 0
  }
  inner_product_param {
    num_output: 4096
    weight_filler {
      type: "gaussian"
      std: 0.005
    }
    bias_filler {
      type: "constant"
      value: 1
    }
  }
}
layer {
  name: "relu7"
  type: "ReLU"
  bottom: "fc7"
  top: "fc7"
}
layer {
  name: "drop7"
  type: "Dropout"
  bottom: "fc7"
  top: "fc7"
  dropout_param {
    dropout_ratio: 0.5
  }
}
layer {
  name: "fc8n"
  type: "InnerProduct"
  bottom: "fc7"
  top: "fc8"
  param {
    lr_mult: 1
    decay_mult: 1
  }
  param {
    lr_mult: 2
    decay_mult: 0
  }
  inner_product_param {
    num_output: 3
    weight_filler {
      type: "gaussian"
      std: 0.01
    }
    bias_filler {
      type: "constant"
      value: 0
    }
  }
}
layer {
  name: "loss"
  type: "SoftmaxWithLoss"
  bottom: "fc8"
  bottom: "label"
  top: "loss"
}
I0825 11:41:38.965689 23055 layer_factory.hpp:77] Creating layer data
I0825 11:41:38.966220 23055 net.cpp:100] Creating Layer data
I0825 11:41:38.966233 23055 net.cpp:408] data -> data
I0825 11:41:38.966248 23055 net.cpp:408] data -> label
I0825 11:41:38.966259 23055 data_transformer.cpp:25] Loading mean file from: data/person_only_lmdb/person_vs_background_vs_random_color_mean.binaryproto
I0825 11:41:38.967818 23068 db_lmdb.cpp:35] Opened lmdb data/person_only_lmdb/person_vs_background_vs_random_train_lmdb
I0825 11:41:39.008303 23055 data_layer.cpp:41] output data size: 128,3,128,128
I0825 11:41:39.086750 23055 net.cpp:150] Setting up data
I0825 11:41:39.086793 23055 net.cpp:157] Top shape: 128 3 128 128 (6291456)
I0825 11:41:39.086801 23055 net.cpp:157] Top shape: 128 (128)
I0825 11:41:39.086803 23055 net.cpp:165] Memory required for data: 25166336
I0825 11:41:39.086812 23055 layer_factory.hpp:77] Creating layer conv1
I0825 11:41:39.086839 23055 net.cpp:100] Creating Layer conv1
I0825 11:41:39.086844 23055 net.cpp:434] conv1 <- data
I0825 11:41:39.086855 23055 net.cpp:408] conv1 -> conv1
I0825 11:41:39.412377 23055 net.cpp:150] Setting up conv1
I0825 11:41:39.412411 23055 net.cpp:157] Top shape: 128 96 30 30 (11059200)
I0825 11:41:39.412415 23055 net.cpp:165] Memory required for data: 69403136
I0825 11:41:39.412432 23055 layer_factory.hpp:77] Creating layer relu1
I0825 11:41:39.412446 23055 net.cpp:100] Creating Layer relu1
I0825 11:41:39.412451 23055 net.cpp:434] relu1 <- conv1
I0825 11:41:39.412457 23055 net.cpp:395] relu1 -> conv1 (in-place)
I0825 11:41:39.412648 23055 net.cpp:150] Setting up relu1
I0825 11:41:39.412659 23055 net.cpp:157] Top shape: 128 96 30 30 (11059200)
I0825 11:41:39.412662 23055 net.cpp:165] Memory required for data: 113639936
I0825 11:41:39.412665 23055 layer_factory.hpp:77] Creating layer pool1
I0825 11:41:39.412673 23055 net.cpp:100] Creating Layer pool1
I0825 11:41:39.412677 23055 net.cpp:434] pool1 <- conv1
I0825 11:41:39.412680 23055 net.cpp:408] pool1 -> pool1
I0825 11:41:39.412747 23055 net.cpp:150] Setting up pool1
I0825 11:41:39.412755 23055 net.cpp:157] Top shape: 128 96 15 15 (2764800)
I0825 11:41:39.412758 23055 net.cpp:165] Memory required for data: 124699136
I0825 11:41:39.412761 23055 layer_factory.hpp:77] Creating layer norm1
I0825 11:41:39.412770 23055 net.cpp:100] Creating Layer norm1
I0825 11:41:39.412773 23055 net.cpp:434] norm1 <- pool1
I0825 11:41:39.412777 23055 net.cpp:408] norm1 -> norm1
I0825 11:41:39.413362 23055 net.cpp:150] Setting up norm1
I0825 11:41:39.413378 23055 net.cpp:157] Top shape: 128 96 15 15 (2764800)
I0825 11:41:39.413380 23055 net.cpp:165] Memory required for data: 135758336
I0825 11:41:39.413383 23055 layer_factory.hpp:77] Creating layer conv2
I0825 11:41:39.413398 23055 net.cpp:100] Creating Layer conv2
I0825 11:41:39.413400 23055 net.cpp:434] conv2 <- norm1
I0825 11:41:39.413406 23055 net.cpp:408] conv2 -> conv2
I0825 11:41:39.420116 23055 net.cpp:150] Setting up conv2
I0825 11:41:39.420133 23055 net.cpp:157] Top shape: 128 256 15 15 (7372800)
I0825 11:41:39.420136 23055 net.cpp:165] Memory required for data: 165249536
I0825 11:41:39.420145 23055 layer_factory.hpp:77] Creating layer relu2
I0825 11:41:39.420152 23055 net.cpp:100] Creating Layer relu2
I0825 11:41:39.420156 23055 net.cpp:434] relu2 <- conv2
I0825 11:41:39.420161 23055 net.cpp:395] relu2 -> conv2 (in-place)
I0825 11:41:39.420696 23055 net.cpp:150] Setting up relu2
I0825 11:41:39.420712 23055 net.cpp:157] Top shape: 128 256 15 15 (7372800)
I0825 11:41:39.420716 23055 net.cpp:165] Memory required for data: 194740736
I0825 11:41:39.420718 23055 layer_factory.hpp:77] Creating layer pool2
I0825 11:41:39.420725 23055 net.cpp:100] Creating Layer pool2
I0825 11:41:39.420728 23055 net.cpp:434] pool2 <- conv2
I0825 11:41:39.420733 23055 net.cpp:408] pool2 -> pool2
I0825 11:41:39.420804 23055 net.cpp:150] Setting up pool2
I0825 11:41:39.420814 23055 net.cpp:157] Top shape: 128 256 7 7 (1605632)
I0825 11:41:39.420816 23055 net.cpp:165] Memory required for data: 201163264
I0825 11:41:39.420819 23055 layer_factory.hpp:77] Creating layer norm2
I0825 11:41:39.420826 23055 net.cpp:100] Creating Layer norm2
I0825 11:41:39.420830 23055 net.cpp:434] norm2 <- pool2
I0825 11:41:39.420835 23055 net.cpp:408] norm2 -> norm2
I0825 11:41:39.421056 23055 net.cpp:150] Setting up norm2
I0825 11:41:39.421067 23055 net.cpp:157] Top shape: 128 256 7 7 (1605632)
I0825 11:41:39.421071 23055 net.cpp:165] Memory required for data: 207585792
I0825 11:41:39.421073 23055 layer_factory.hpp:77] Creating layer conv3
I0825 11:41:39.421084 23055 net.cpp:100] Creating Layer conv3
I0825 11:41:39.421087 23055 net.cpp:434] conv3 <- norm2
I0825 11:41:39.421093 23055 net.cpp:408] conv3 -> conv3
I0825 11:41:39.435029 23055 net.cpp:150] Setting up conv3
I0825 11:41:39.435046 23055 net.cpp:157] Top shape: 128 384 7 7 (2408448)
I0825 11:41:39.435050 23055 net.cpp:165] Memory required for data: 217219584
I0825 11:41:39.435060 23055 layer_factory.hpp:77] Creating layer relu3
I0825 11:41:39.435066 23055 net.cpp:100] Creating Layer relu3
I0825 11:41:39.435070 23055 net.cpp:434] relu3 <- conv3
I0825 11:41:39.435075 23055 net.cpp:395] relu3 -> conv3 (in-place)
I0825 11:41:39.435268 23055 net.cpp:150] Setting up relu3
I0825 11:41:39.435279 23055 net.cpp:157] Top shape: 128 384 7 7 (2408448)
I0825 11:41:39.435282 23055 net.cpp:165] Memory required for data: 226853376
I0825 11:41:39.435286 23055 layer_factory.hpp:77] Creating layer conv4
I0825 11:41:39.435297 23055 net.cpp:100] Creating Layer conv4
I0825 11:41:39.435300 23055 net.cpp:434] conv4 <- conv3
I0825 11:41:39.435307 23055 net.cpp:408] conv4 -> conv4
I0825 11:41:39.447181 23055 net.cpp:150] Setting up conv4
I0825 11:41:39.447198 23055 net.cpp:157] Top shape: 128 384 7 7 (2408448)
I0825 11:41:39.447201 23055 net.cpp:165] Memory required for data: 236487168
I0825 11:41:39.447208 23055 layer_factory.hpp:77] Creating layer relu4
I0825 11:41:39.447216 23055 net.cpp:100] Creating Layer relu4
I0825 11:41:39.447219 23055 net.cpp:434] relu4 <- conv4
I0825 11:41:39.447224 23055 net.cpp:395] relu4 -> conv4 (in-place)
I0825 11:41:39.447418 23055 net.cpp:150] Setting up relu4
I0825 11:41:39.447430 23055 net.cpp:157] Top shape: 128 384 7 7 (2408448)
I0825 11:41:39.447434 23055 net.cpp:165] Memory required for data: 246120960
I0825 11:41:39.447438 23055 layer_factory.hpp:77] Creating layer conv5
I0825 11:41:39.447448 23055 net.cpp:100] Creating Layer conv5
I0825 11:41:39.447451 23055 net.cpp:434] conv5 <- conv4
I0825 11:41:39.447458 23055 net.cpp:408] conv5 -> conv5
I0825 11:41:39.456548 23055 net.cpp:150] Setting up conv5
I0825 11:41:39.456565 23055 net.cpp:157] Top shape: 128 256 7 7 (1605632)
I0825 11:41:39.456568 23055 net.cpp:165] Memory required for data: 252543488
I0825 11:41:39.456579 23055 layer_factory.hpp:77] Creating layer relu5
I0825 11:41:39.456586 23055 net.cpp:100] Creating Layer relu5
I0825 11:41:39.456589 23055 net.cpp:434] relu5 <- conv5
I0825 11:41:39.456594 23055 net.cpp:395] relu5 -> conv5 (in-place)
I0825 11:41:39.456794 23055 net.cpp:150] Setting up relu5
I0825 11:41:39.456805 23055 net.cpp:157] Top shape: 128 256 7 7 (1605632)
I0825 11:41:39.456809 23055 net.cpp:165] Memory required for data: 258966016
I0825 11:41:39.456811 23055 layer_factory.hpp:77] Creating layer pool5
I0825 11:41:39.456818 23055 net.cpp:100] Creating Layer pool5
I0825 11:41:39.456821 23055 net.cpp:434] pool5 <- conv5
I0825 11:41:39.456826 23055 net.cpp:408] pool5 -> pool5
I0825 11:41:39.456899 23055 net.cpp:150] Setting up pool5
I0825 11:41:39.456907 23055 net.cpp:157] Top shape: 128 256 3 3 (294912)
I0825 11:41:39.456910 23055 net.cpp:165] Memory required for data: 260145664
I0825 11:41:39.456913 23055 layer_factory.hpp:77] Creating layer fc6n
I0825 11:41:39.456924 23055 net.cpp:100] Creating Layer fc6n
I0825 11:41:39.456929 23055 net.cpp:434] fc6n <- pool5
I0825 11:41:39.456935 23055 net.cpp:408] fc6n -> fc6
I0825 11:41:39.589962 23055 net.cpp:150] Setting up fc6n
I0825 11:41:39.589998 23055 net.cpp:157] Top shape: 128 4096 (524288)
I0825 11:41:39.590001 23055 net.cpp:165] Memory required for data: 262242816
I0825 11:41:39.590013 23055 layer_factory.hpp:77] Creating layer relu6
I0825 11:41:39.590025 23055 net.cpp:100] Creating Layer relu6
I0825 11:41:39.590030 23055 net.cpp:434] relu6 <- fc6
I0825 11:41:39.590037 23055 net.cpp:395] relu6 -> fc6 (in-place)
I0825 11:41:39.590689 23055 net.cpp:150] Setting up relu6
I0825 11:41:39.590714 23055 net.cpp:157] Top shape: 128 4096 (524288)
I0825 11:41:39.590718 23055 net.cpp:165] Memory required for data: 264339968
I0825 11:41:39.590721 23055 layer_factory.hpp:77] Creating layer drop6
I0825 11:41:39.590730 23055 net.cpp:100] Creating Layer drop6
I0825 11:41:39.590734 23055 net.cpp:434] drop6 <- fc6
I0825 11:41:39.590740 23055 net.cpp:395] drop6 -> fc6 (in-place)
I0825 11:41:39.590778 23055 net.cpp:150] Setting up drop6
I0825 11:41:39.590786 23055 net.cpp:157] Top shape: 128 4096 (524288)
I0825 11:41:39.590790 23055 net.cpp:165] Memory required for data: 266437120
I0825 11:41:39.590792 23055 layer_factory.hpp:77] Creating layer fc7n
I0825 11:41:39.590802 23055 net.cpp:100] Creating Layer fc7n
I0825 11:41:39.590806 23055 net.cpp:434] fc7n <- fc6
I0825 11:41:39.590812 23055 net.cpp:408] fc7n -> fc7
I0825 11:41:39.825597 23055 net.cpp:150] Setting up fc7n
I0825 11:41:39.825642 23055 net.cpp:157] Top shape: 128 4096 (524288)
I0825 11:41:39.825645 23055 net.cpp:165] Memory required for data: 268534272
I0825 11:41:39.825659 23055 layer_factory.hpp:77] Creating layer relu7
I0825 11:41:39.825670 23055 net.cpp:100] Creating Layer relu7
I0825 11:41:39.825675 23055 net.cpp:434] relu7 <- fc7
I0825 11:41:39.825682 23055 net.cpp:395] relu7 -> fc7 (in-place)
I0825 11:41:39.825954 23055 net.cpp:150] Setting up relu7
I0825 11:41:39.825965 23055 net.cpp:157] Top shape: 128 4096 (524288)
I0825 11:41:39.825968 23055 net.cpp:165] Memory required for data: 270631424
I0825 11:41:39.825971 23055 layer_factory.hpp:77] Creating layer drop7
I0825 11:41:39.825979 23055 net.cpp:100] Creating Layer drop7
I0825 11:41:39.825983 23055 net.cpp:434] drop7 <- fc7
I0825 11:41:39.825989 23055 net.cpp:395] drop7 -> fc7 (in-place)
I0825 11:41:39.826022 23055 net.cpp:150] Setting up drop7
I0825 11:41:39.826030 23055 net.cpp:157] Top shape: 128 4096 (524288)
I0825 11:41:39.826032 23055 net.cpp:165] Memory required for data: 272728576
I0825 11:41:39.826035 23055 layer_factory.hpp:77] Creating layer fc8n
I0825 11:41:39.826045 23055 net.cpp:100] Creating Layer fc8n
I0825 11:41:39.826047 23055 net.cpp:434] fc8n <- fc7
I0825 11:41:39.826064 23055 net.cpp:408] fc8n -> fc8
I0825 11:41:39.828140 23055 net.cpp:150] Setting up fc8n
I0825 11:41:39.828156 23055 net.cpp:157] Top shape: 128 3 (384)
I0825 11:41:39.828161 23055 net.cpp:165] Memory required for data: 272730112
I0825 11:41:39.828167 23055 layer_factory.hpp:77] Creating layer loss
I0825 11:41:39.828173 23055 net.cpp:100] Creating Layer loss
I0825 11:41:39.828176 23055 net.cpp:434] loss <- fc8
I0825 11:41:39.828181 23055 net.cpp:434] loss <- label
I0825 11:41:39.828186 23055 net.cpp:408] loss -> loss
I0825 11:41:39.828196 23055 layer_factory.hpp:77] Creating layer loss
…
I0825 11:41:39.829085 23055 net.cpp:322] The NetState phase (1) differed from the phase (0) specified by a rule in layer data
I0825 11:41:39.829253 23055 net.cpp:58] Initializing net from parameters: 
name: "CaffeNet"
state {
  phase: TEST
}
layer {
  name: "data"
  type: "Data"
  top: "data"
  top: "label"
  include {
    phase: TEST
  }
  transform_param {
    scale: 0.00390625
    mean_file: "data/person_only_lmdb/person_vs_background_vs_random_color_mean.binaryproto"
  }
  data_param {
    source: "data/person_only_lmdb/person_vs_background_vs_random_test_lmdb"
    batch_size: 100
    backend: LMDB
  }
}
layer {
  name: "conv1"
  type: "Convolution"
  bottom: "data"
  top: "conv1"
  param {
    lr_mult: 1
    decay_mult: 1
  }
  param {
    lr_mult: 2
    decay_mult: 0
  }
  convolution_param {
    num_output: 96
    kernel_size: 11
    stride: 4
    weight_filler {
      type: "gaussian"
      std: 0.01
    }
    bias_filler {
      type: "constant"
      value: 0
    }
  }
}
layer {
  name: "relu1"
  type: "ReLU"
  bottom: "conv1"
  top: "conv1"
}
layer {
  name: "pool1"
  type: "Pooling"
  bottom: "conv1"
  top: "pool1"
  pooling_param {
    pool: MAX
    kernel_size: 3
    stride: 2
  }
}
layer {
  name: "norm1"
  type: "LRN"
  bottom: "pool1"
  top: "norm1"
  lrn_param {
    local_size: 5
    alpha: 0.0001
    beta: 0.75
  }
}
layer {
  name: "conv2"
  type: "Convolution"
  bottom: "norm1"
  top: "conv2"
  param {
    lr_mult: 1
    decay_mult: 1
  }
  param {
    lr_mult: 2
    decay_mult: 0
  }
  convolution_param {
    num_output: 256
    pad: 2
    kernel_size: 5
    group: 2
    weight_filler {
      type: "gaussian"
      std: 0.01
    }
    bias_filler {
      type: "constant"
      value: 1
    }
  }
}
layer {
  name: "relu2"
  type: "ReLU"
  bottom: "conv2"
  top: "conv2"
}
layer {
  name: "pool2"
  type: "Pooling"
  bottom: "conv2"
  top: "pool2"
  pooling_param {
    pool: MAX
    kernel_size: 3
    stride: 2
  }
}
layer {
  name: "norm2"
  type: "LRN"
  bottom: "pool2"
  top: "norm2"
  lrn_param {
    local_size: 5
    alpha: 0.0001
    beta: 0.75
  }
}
layer {
  name: "conv3"
  type: "Convolution"
  bottom: "norm2"
  top: "conv3"
  param {
    lr_mult: 1
    decay_mult: 1
  }
  param {
    lr_mult: 2
    decay_mult: 0
  }
  convolution_param {
    num_output: 384
    pad: 1
    kernel_size: 3
    weight_filler {
      type: "gaussian"
      std: 0.01
    }
    bias_filler {
      type: "constant"
      value: 0
    }
  }
}
layer {
  name: "relu3"
  type: "ReLU"
  bottom: "conv3"
  top: "conv3"
}
layer {
  name: "conv4"
  type: "Convolution"
  bottom: "conv3"
  top: "conv4"
  param {
    lr_mult: 1
    decay_mult: 1
  }
  param {
    lr_mult: 2
    decay_mult: 0
  }
  convolution_param {
    num_output: 384
    pad: 1
    kernel_size: 3
    group: 2
    weight_filler {
      type: "gaussian"
      std: 0.01
    }
    bias_filler {
      type: "constant"
      value: 1
    }
  }
}
layer {
  name: "relu4"
  type: "ReLU"
  bottom: "conv4"
  top: "conv4"
}
layer {
  name: "conv5"
  type: "Convolution"
  bottom: "conv4"
  top: "conv5"
  param {
    lr_mult: 1
    decay_mult: 1
  }
  param {
    lr_mult: 2
    decay_mult: 0
  }
  convolution_param {
    num_output: 256
    pad: 1
    kernel_size: 3
    group: 2
    weight_filler {
      type: "gaussian"
      std: 0.01
    }
    bias_filler {
      type: "constant"
      value: 1
    }
  }
}
layer {
  name: "relu5"
  type: "ReLU"
  bottom: "conv5"
  top: "conv5"
}
layer {
  name: "pool5"
  type: "Pooling"
  bottom: "conv5"
  top: "pool5"
  pooling_param {
    pool: MAX
    kernel_size: 3
    stride: 2
  }
}
layer {
  name: "fc6n"
  type: "InnerProduct"
  bottom: "pool5"
  top: "fc6"
  param {
    lr_mult: 1
    decay_mult: 1
  }
  param {
    lr_mult: 2
    decay_mult: 0
  }
  inner_product_param {
    num_output: 4096
    weight_filler {
      type: "gaussian"
      std: 0.005
    }
    bias_filler {
      type: "constant"
      value: 1
    }
  }
}
layer {
  name: "relu6"
  type: "ReLU"
  bottom: "fc6"
  top: "fc6"
}
layer {
  name: "drop6"
  type: "Dropout"
  bottom: "fc6"
  top: "fc6"
  dropout_param {
    dropout_ratio: 0.5
  }
}
layer {
  name: "fc7n"
  type: "InnerProduct"
  bottom: "fc6"
  top: "fc7"
  param {
    lr_mult: 1
    decay_mult: 1
  }
  param {
    lr_mult: 2
    decay_mult: 0
  }
  inner_product_param {
    num_output: 4096
    weight_filler {
      type: "gaussian"
      std: 0.005
    }
    bias_filler {
      type: "constant"
      value: 1
    }
  }
}
layer {
  name: "relu7"
  type: "ReLU"
  bottom: "fc7"
  top: "fc7"
}
layer {
  name: "drop7"
  type: "Dropout"
  bottom: "fc7"
  top: "fc7"
  dropout_param {
    dropout_ratio: 0.5
  }
}
layer {
  name: "fc8n"
  type: "InnerProduct"
  bottom: "fc7"
  top: "fc8"
  param {
    lr_mult: 1
    decay_mult: 1
  }
  param {
    lr_mult: 2
    decay_mult: 0
  }
  inner_product_param {
    num_output: 3
    weight_filler {
      type: "gaussian"
      std: 0.01
    }
    bias_filler {
      type: "constant"
      value: 0
    }
  }
}
layer {
  name: "accuracy"
  type: "Accuracy"
  bottom: "fc8"
  bottom: "label"
  top: "accuracy"
  include {
    phase: TEST
  }
}
layer {
  name: "loss"
  type: "SoftmaxWithLoss"
  bottom: "fc8"
  bottom: "label"
  top: "loss"
}
I0825 11:41:39.829366 23055 layer_factory.hpp:77] Creating layer data
I0825 11:41:39.829502 23055 net.cpp:100] Creating Layer data
I0825 11:41:39.829511 23055 net.cpp:408] data -> data
I0825 11:41:39.829520 23055 net.cpp:408] data -> label
I0825 11:41:39.829527 23055 data_transformer.cpp:25] Loading mean file from: data/person_only_lmdb/person_vs_background_vs_random_color_mean.binaryproto
I0825 11:41:39.833223 23070 db_lmdb.cpp:35] Opened lmdb data/person_only_lmdb/person_vs_background_vs_random_test_lmdb
I0825 11:41:39.834924 23055 data_layer.cpp:41] output data size: 100,3,128,128
I0825 11:41:39.900662 23055 net.cpp:150] Setting up data
I0825 11:41:39.900703 23055 net.cpp:157] Top shape: 100 3 128 128 (4915200)
I0825 11:41:39.900712 23055 net.cpp:157] Top shape: 100 (100)
I0825 11:41:39.900714 23055 net.cpp:165] Memory required for data: 19661200
I0825 11:41:39.900722 23055 layer_factory.hpp:77] Creating layer label_data_1_split
I0825 11:41:39.900743 23055 net.cpp:100] Creating Layer label_data_1_split
I0825 11:41:39.900748 23055 net.cpp:434] label_data_1_split <- label
I0825 11:41:39.900759 23055 net.cpp:408] label_data_1_split -> label_data_1_split_0
I0825 11:41:39.900775 23055 net.cpp:408] label_data_1_split -> label_data_1_split_1
I0825 11:41:39.901162 23055 net.cpp:150] Setting up label_data_1_split
I0825 11:41:39.901196 23055 net.cpp:157] Top shape: 100 (100)
I0825 11:41:39.901203 23055 net.cpp:157] Top shape: 100 (100)
I0825 11:41:39.901208 23055 net.cpp:165] Memory required for data: 19662000
I0825 11:41:39.901214 23055 layer_factory.hpp:77] Creating layer conv1
I0825 11:41:39.901238 23055 net.cpp:100] Creating Layer conv1
I0825 11:41:39.901247 23055 net.cpp:434] conv1 <- data
I0825 11:41:39.901260 23055 net.cpp:408] conv1 -> conv1
I0825 11:41:39.909567 23055 net.cpp:150] Setting up conv1
I0825 11:41:39.909606 23055 net.cpp:157] Top shape: 100 96 30 30 (8640000)
I0825 11:41:39.909615 23055 net.cpp:165] Memory required for data: 54222000
I0825 11:41:39.909636 23055 layer_factory.hpp:77] Creating layer relu1
I0825 11:41:39.909651 23055 net.cpp:100] Creating Layer relu1
I0825 11:41:39.909657 23055 net.cpp:434] relu1 <- conv1
I0825 11:41:39.909669 23055 net.cpp:395] relu1 -> conv1 (in-place)
I0825 11:41:39.910054 23055 net.cpp:150] Setting up relu1
I0825 11:41:39.910075 23055 net.cpp:157] Top shape: 100 96 30 30 (8640000)
I0825 11:41:39.910084 23055 net.cpp:165] Memory required for data: 88782000
I0825 11:41:39.910092 23055 layer_factory.hpp:77] Creating layer pool1
I0825 11:41:39.910110 23055 net.cpp:100] Creating Layer pool1
I0825 11:41:39.910127 23055 net.cpp:434] pool1 <- conv1
I0825 11:41:39.910140 23055 net.cpp:408] pool1 -> pool1
I0825 11:41:39.910285 23055 net.cpp:150] Setting up pool1
I0825 11:41:39.910312 23055 net.cpp:157] Top shape: 100 96 15 15 (2160000)
I0825 11:41:39.910317 23055 net.cpp:165] Memory required for data: 97422000
I0825 11:41:39.910325 23055 layer_factory.hpp:77] Creating layer norm1
I0825 11:41:39.910341 23055 net.cpp:100] Creating Layer norm1
I0825 11:41:39.910349 23055 net.cpp:434] norm1 <- pool1
I0825 11:41:39.910362 23055 net.cpp:408] norm1 -> norm1
I0825 11:41:39.911574 23055 net.cpp:150] Setting up norm1
I0825 11:41:39.911605 23055 net.cpp:157] Top shape: 100 96 15 15 (2160000)
I0825 11:41:39.911612 23055 net.cpp:165] Memory required for data: 106062000
I0825 11:41:39.911617 23055 layer_factory.hpp:77] Creating layer conv2
I0825 11:41:39.911646 23055 net.cpp:100] Creating Layer conv2
I0825 11:41:39.911653 23055 net.cpp:434] conv2 <- norm1
I0825 11:41:39.911669 23055 net.cpp:408] conv2 -> conv2
I0825 11:41:39.925359 23055 net.cpp:150] Setting up conv2
I0825 11:41:39.925400 23055 net.cpp:157] Top shape: 100 256 15 15 (5760000)
I0825 11:41:39.925406 23055 net.cpp:165] Memory required for data: 129102000
I0825 11:41:39.925426 23055 layer_factory.hpp:77] Creating layer relu2
I0825 11:41:39.925439 23055 net.cpp:100] Creating Layer relu2
I0825 11:41:39.925446 23055 net.cpp:434] relu2 <- conv2
I0825 11:41:39.925460 23055 net.cpp:395] relu2 -> conv2 (in-place)
I0825 11:41:39.926492 23055 net.cpp:150] Setting up relu2
I0825 11:41:39.926520 23055 net.cpp:157] Top shape: 100 256 15 15 (5760000)
I0825 11:41:39.926525 23055 net.cpp:165] Memory required for data: 152142000
I0825 11:41:39.926532 23055 layer_factory.hpp:77] Creating layer pool2
I0825 11:41:39.926551 23055 net.cpp:100] Creating Layer pool2
I0825 11:41:39.926558 23055 net.cpp:434] pool2 <- conv2
I0825 11:41:39.926568 23055 net.cpp:408] pool2 -> pool2
I0825 11:41:39.926738 23055 net.cpp:150] Setting up pool2
I0825 11:41:39.926766 23055 net.cpp:157] Top shape: 100 256 7 7 (1254400)
I0825 11:41:39.926775 23055 net.cpp:165] Memory required for data: 157159600
I0825 11:41:39.926780 23055 layer_factory.hpp:77] Creating layer norm2
I0825 11:41:39.926792 23055 net.cpp:100] Creating Layer norm2
I0825 11:41:39.926798 23055 net.cpp:434] norm2 <- pool2
I0825 11:41:39.926811 23055 net.cpp:408] norm2 -> norm2
I0825 11:41:39.927276 23055 net.cpp:150] Setting up norm2
I0825 11:41:39.927304 23055 net.cpp:157] Top shape: 100 256 7 7 (1254400)
I0825 11:41:39.927309 23055 net.cpp:165] Memory required for data: 162177200
I0825 11:41:39.927314 23055 layer_factory.hpp:77] Creating layer conv3
I0825 11:41:39.927335 23055 net.cpp:100] Creating Layer conv3
I0825 11:41:39.927345 23055 net.cpp:434] conv3 <- norm2
I0825 11:41:39.927356 23055 net.cpp:408] conv3 -> conv3
I0825 11:41:39.951807 23055 net.cpp:150] Setting up conv3
I0825 11:41:39.951849 23055 net.cpp:157] Top shape: 100 384 7 7 (1881600)
I0825 11:41:39.951855 23055 net.cpp:165] Memory required for data: 169703600
I0825 11:41:39.951879 23055 layer_factory.hpp:77] Creating layer relu3
I0825 11:41:39.951895 23055 net.cpp:100] Creating Layer relu3
I0825 11:41:39.951905 23055 net.cpp:434] relu3 <- conv3
I0825 11:41:39.951921 23055 net.cpp:395] relu3 -> conv3 (in-place)
I0825 11:41:39.952263 23055 net.cpp:150] Setting up relu3
I0825 11:41:39.952280 23055 net.cpp:157] Top shape: 100 384 7 7 (1881600)
I0825 11:41:39.952285 23055 net.cpp:165] Memory required for data: 177230000
I0825 11:41:39.952289 23055 layer_factory.hpp:77] Creating layer conv4
I0825 11:41:39.952309 23055 net.cpp:100] Creating Layer conv4
I0825 11:41:39.952316 23055 net.cpp:434] conv4 <- conv3
I0825 11:41:39.952328 23055 net.cpp:408] conv4 -> conv4
I0825 11:41:39.970880 23055 net.cpp:150] Setting up conv4
I0825 11:41:39.970919 23055 net.cpp:157] Top shape: 100 384 7 7 (1881600)
I0825 11:41:39.970924 23055 net.cpp:165] Memory required for data: 184756400
I0825 11:41:39.970938 23055 layer_factory.hpp:77] Creating layer relu4
I0825 11:41:39.970950 23055 net.cpp:100] Creating Layer relu4
I0825 11:41:39.970957 23055 net.cpp:434] relu4 <- conv4
I0825 11:41:39.970968 23055 net.cpp:395] relu4 -> conv4 (in-place)
I0825 11:41:39.971815 23055 net.cpp:150] Setting up relu4
I0825 11:41:39.971837 23055 net.cpp:157] Top shape: 100 384 7 7 (1881600)
I0825 11:41:39.971842 23055 net.cpp:165] Memory required for data: 192282800
I0825 11:41:39.971845 23055 layer_factory.hpp:77] Creating layer conv5
I0825 11:41:39.971864 23055 net.cpp:100] Creating Layer conv5
I0825 11:41:39.971873 23055 net.cpp:434] conv5 <- conv4
I0825 11:41:39.971886 23055 net.cpp:408] conv5 -> conv5
I0825 11:41:39.986361 23055 net.cpp:150] Setting up conv5
I0825 11:41:39.986390 23055 net.cpp:157] Top shape: 100 256 7 7 (1254400)
I0825 11:41:39.986395 23055 net.cpp:165] Memory required for data: 197300400
I0825 11:41:39.986415 23055 layer_factory.hpp:77] Creating layer relu5
I0825 11:41:39.986428 23055 net.cpp:100] Creating Layer relu5
I0825 11:41:39.986433 23055 net.cpp:434] relu5 <- conv5
I0825 11:41:39.986443 23055 net.cpp:395] relu5 -> conv5 (in-place)
I0825 11:41:39.986760 23055 net.cpp:150] Setting up relu5
I0825 11:41:39.986776 23055 net.cpp:157] Top shape: 100 256 7 7 (1254400)
I0825 11:41:39.986780 23055 net.cpp:165] Memory required for data: 202318000
I0825 11:41:39.986783 23055 layer_factory.hpp:77] Creating layer pool5
I0825 11:41:39.986800 23055 net.cpp:100] Creating Layer pool5
I0825 11:41:39.986805 23055 net.cpp:434] pool5 <- conv5
I0825 11:41:39.986812 23055 net.cpp:408] pool5 -> pool5
I0825 11:41:39.986928 23055 net.cpp:150] Setting up pool5
I0825 11:41:39.986940 23055 net.cpp:157] Top shape: 100 256 3 3 (230400)
I0825 11:41:39.986944 23055 net.cpp:165] Memory required for data: 203239600
I0825 11:41:39.986948 23055 layer_factory.hpp:77] Creating layer fc6n
I0825 11:41:39.986963 23055 net.cpp:100] Creating Layer fc6n
I0825 11:41:39.986968 23055 net.cpp:434] fc6n <- pool5
I0825 11:41:39.986979 23055 net.cpp:408] fc6n -> fc6
I0825 11:41:40.129369 23055 net.cpp:150] Setting up fc6n
I0825 11:41:40.129411 23055 net.cpp:157] Top shape: 100 4096 (409600)
I0825 11:41:40.129415 23055 net.cpp:165] Memory required for data: 204878000
I0825 11:41:40.129427 23055 layer_factory.hpp:77] Creating layer relu6
I0825 11:41:40.129439 23055 net.cpp:100] Creating Layer relu6
I0825 11:41:40.129446 23055 net.cpp:434] relu6 <- fc6
I0825 11:41:40.129454 23055 net.cpp:395] relu6 -> fc6 (in-place)
I0825 11:41:40.129770 23055 net.cpp:150] Setting up relu6
I0825 11:41:40.129781 23055 net.cpp:157] Top shape: 100 4096 (409600)
I0825 11:41:40.129784 23055 net.cpp:165] Memory required for data: 206516400
I0825 11:41:40.129787 23055 layer_factory.hpp:77] Creating layer drop6
I0825 11:41:40.129799 23055 net.cpp:100] Creating Layer drop6
I0825 11:41:40.129802 23055 net.cpp:434] drop6 <- fc6
I0825 11:41:40.129807 23055 net.cpp:395] drop6 -> fc6 (in-place)
I0825 11:41:40.129863 23055 net.cpp:150] Setting up drop6
I0825 11:41:40.129873 23055 net.cpp:157] Top shape: 100 4096 (409600)
I0825 11:41:40.129875 23055 net.cpp:165] Memory required for data: 208154800
I0825 11:41:40.129878 23055 layer_factory.hpp:77] Creating layer fc7n
I0825 11:41:40.129889 23055 net.cpp:100] Creating Layer fc7n
I0825 11:41:40.129894 23055 net.cpp:434] fc7n <- fc6
I0825 11:41:40.129900 23055 net.cpp:408] fc7n -> fc7
I0825 11:41:40.369277 23055 net.cpp:150] Setting up fc7n
I0825 11:41:40.369326 23055 net.cpp:157] Top shape: 100 4096 (409600)
I0825 11:41:40.369330 23055 net.cpp:165] Memory required for data: 209793200
I0825 11:41:40.369344 23055 layer_factory.hpp:77] Creating layer relu7
I0825 11:41:40.369356 23055 net.cpp:100] Creating Layer relu7
I0825 11:41:40.369362 23055 net.cpp:434] relu7 <- fc7
I0825 11:41:40.369371 23055 net.cpp:395] relu7 -> fc7 (in-place)
I0825 11:41:40.370254 23055 net.cpp:150] Setting up relu7
I0825 11:41:40.370268 23055 net.cpp:157] Top shape: 100 4096 (409600)
I0825 11:41:40.370271 23055 net.cpp:165] Memory required for data: 211431600
I0825 11:41:40.370275 23055 layer_factory.hpp:77] Creating layer drop7
I0825 11:41:40.370283 23055 net.cpp:100] Creating Layer drop7
I0825 11:41:40.370286 23055 net.cpp:434] drop7 <- fc7
I0825 11:41:40.370295 23055 net.cpp:395] drop7 -> fc7 (in-place)
I0825 11:41:40.370352 23055 net.cpp:150] Setting up drop7
I0825 11:41:40.370360 23055 net.cpp:157] Top shape: 100 4096 (409600)
I0825 11:41:40.370363 23055 net.cpp:165] Memory required for data: 213070000
I0825 11:41:40.370367 23055 layer_factory.hpp:77] Creating layer fc8n
I0825 11:41:40.370378 23055 net.cpp:100] Creating Layer fc8n
I0825 11:41:40.370381 23055 net.cpp:434] fc8n <- fc7
I0825 11:41:40.370386 23055 net.cpp:408] fc8n -> fc8
I0825 11:41:40.370774 23055 net.cpp:150] Setting up fc8n
I0825 11:41:40.370787 23055 net.cpp:157] Top shape: 100 3 (300)
I0825 11:41:40.370790 23055 net.cpp:165] Memory required for data: 213071200
I0825 11:41:40.370796 23055 layer_factory.hpp:77] Creating layer fc8_fc8n_0_split
I0825 11:41:40.370803 23055 net.cpp:100] Creating Layer fc8_fc8n_0_split
I0825 11:41:40.370807 23055 net.cpp:434] fc8_fc8n_0_split <- fc8
I0825 11:41:40.370812 23055 net.cpp:408] fc8_fc8n_0_split -> fc8_fc8n_0_split_0
I0825 11:41:40.370820 23055 net.cpp:408] fc8_fc8n_0_split -> fc8_fc8n_0_split_1
I0825 11:41:40.370889 23055 net.cpp:150] Setting up fc8_fc8n_0_split
I0825 11:41:40.370899 23055 net.cpp:157] Top shape: 100 3 (300)
I0825 11:41:40.370903 23055 net.cpp:157] Top shape: 100 3 (300)
I0825 11:41:40.370905 23055 net.cpp:165] Memory required for data: 213073600
I0825 11:41:40.370908 23055 layer_factory.hpp:77] Creating layer accuracy
I0825 11:41:40.370918 23055 net.cpp:100] Creating Layer accuracy
I0825 11:41:40.370920 23055 net.cpp:434] accuracy <- fc8_fc8n_0_split_0
I0825 11:41:40.370925 23055 net.cpp:434] accuracy <- label_data_1_split_0
I0825 11:41:40.370931 23055 net.cpp:408] accuracy -> accuracy
…
