…
I0830 13:41:18.029367 11576 net.cpp:322] The NetState phase (0) differed from the phase (1) specified by a rule in layer accuracy
I0830 13:41:18.029510 11576 net.cpp:58] Initializing net from parameters: 
name: "CaffeNet"
state {
  phase: TRAIN
}
layer {
  name: "data"
  type: "Data"
  top: "data"
  top: "label"
  include {
    phase: TRAIN
  }
  transform_param {
    scale: 0.00390625
    mean_file: "data/person_only_lmdb/person_vs_background_vs_random_color_mean.binaryproto"
  }
  data_param {
    source: "data/person_only_lmdb/person_vs_background_vs_random_train_lmdb"
    batch_size: 128
    backend: LMDB
  }
}
layer {
  name: "conv1"
  type: "Convolution"
  bottom: "data"
  top: "conv1"
  param {
    lr_mult: 1
    decay_mult: 1
  }
  param {
    lr_mult: 2
    decay_mult: 0
  }
  convolution_param {
    num_output: 96
    kernel_size: 11
    stride: 4
    weight_filler {
      type: "gaussian"
      std: 0.01
    }
    bias_filler {
      type: "constant"
      value: 0
    }
  }
}
layer {
  name: "relu1"
  type: "ReLU"
  bottom: "conv1"
  top: "conv1"
}
layer {
  name: "pool1"
  type: "Pooling"
  bottom: "conv1"
  top: "pool1"
  pooling_param {
    pool: MAX
    kernel_size: 3
    stride: 2
  }
}
layer {
  name: "norm1"
  type: "LRN"
  bottom: "pool1"
  top: "norm1"
  lrn_param {
    local_size: 5
    alpha: 0.0001
    beta: 0.75
  }
}
layer {
  name: "conv2"
  type: "Convolution"
  bottom: "norm1"
  top: "conv2"
  param {
    lr_mult: 1
    decay_mult: 1
  }
  param {
    lr_mult: 2
    decay_mult: 0
  }
  convolution_param {
    num_output: 256
    pad: 2
    kernel_size: 5
    group: 2
    weight_filler {
      type: "gaussian"
      std: 0.01
    }
    bias_filler {
      type: "constant"
      value: 0.1
    }
  }
}
layer {
  name: "relu2"
  type: "ReLU"
  bottom: "conv2"
  top: "conv2"
}
layer {
  name: "pool2"
  type: "Pooling"
  bottom: "conv2"
  top: "pool2"
  pooling_param {
    pool: MAX
    kernel_size: 3
    stride: 2
  }
}
layer {
  name: "norm2"
  type: "LRN"
  bottom: "pool2"
  top: "norm2"
  lrn_param {
    local_size: 5
    alpha: 0.0001
    beta: 0.75
  }
}
layer {
  name: "conv3"
  type: "Convolution"
  bottom: "norm2"
  top: "conv3"
  param {
    lr_mult: 1
    decay_mult: 1
  }
  param {
    lr_mult: 2
    decay_mult: 0
  }
  convolution_param {
    num_output: 384
    pad: 1
    kernel_size: 3
    weight_filler {
      type: "gaussian"
      std: 0.01
    }
    bias_filler {
      type: "constant"
      value: 0
    }
  }
}
layer {
  name: "relu3"
  type: "ReLU"
  bottom: "conv3"
  top: "conv3"
}
layer {
  name: "conv4"
  type: "Convolution"
  bottom: "conv3"
  top: "conv4"
  param {
    lr_mult: 1
    decay_mult: 1
  }
  param {
    lr_mult: 2
    decay_mult: 0
  }
  convolution_param {
    num_output: 384
    pad: 1
    kernel_size: 3
    group: 2
    weight_filler {
      type: "gaussian"
      std: 0.01
    }
    bias_filler {
      type: "constant"
      value: 0.1
    }
  }
}
layer {
  name: "relu4"
  type: "ReLU"
  bottom: "conv4"
  top: "conv4"
}
layer {
  name: "conv5"
  type: "Convolution"
  bottom: "conv4"
  top: "conv5"
  param {
    lr_mult: 1
    decay_mult: 1
  }
  param {
    lr_mult: 2
    decay_mult: 0
  }
  convolution_param {
    num_output: 256
    pad: 1
    kernel_size: 3
    group: 2
    weight_filler {
      type: "gaussian"
      std: 0.01
    }
    bias_filler {
      type: "constant"
      value: 0.1
    }
  }
}
layer {
  name: "relu5"
  type: "ReLU"
  bottom: "conv5"
  top: "conv5"
}
layer {
  name: "pool5"
  type: "Pooling"
  bottom: "conv5"
  top: "pool5"
  pooling_param {
    pool: MAX
    kernel_size: 3
    stride: 2
  }
}
layer {
  name: "fc6n"
  type: "InnerProduct"
  bottom: "pool5"
  top: "fc6"
  param {
    lr_mult: 1
    decay_mult: 1
  }
  param {
    lr_mult: 2
    decay_mult: 0
  }
  inner_product_param {
    num_output: 4096
    weight_filler {
      type: "gaussian"
      std: 0.005
    }
    bias_filler {
      type: "constant"
      value: 0.1
    }
  }
}
layer {
  name: "relu6"
  type: "ReLU"
  bottom: "fc6"
  top: "fc6"
}
layer {
  name: "drop6"
  type: "Dropout"
  bottom: "fc6"
  top: "fc6"
  dropout_param {
    dropout_ratio: 0.5
  }
}
layer {
  name: "fc7n"
  type: "InnerProduct"
  bottom: "fc6"
  top: "fc7"
  param {
    lr_mult: 1
    decay_mult: 1
  }
  param {
    lr_mult: 2
    decay_mult: 0
  }
  inner_product_param {
    num_output: 4096
    weight_filler {
      type: "gaussian"
      std: 0.005
    }
    bias_filler {
      type: "constant"
      value: 0.1
    }
  }
}
layer {
  name: "relu7"
  type: "ReLU"
  bottom: "fc7"
  top: "fc7"
}
layer {
  name: "drop7"
  type: "Dropout"
  bottom: "fc7"
  top: "fc7"
  dropout_param {
    dropout_ratio: 0.5
  }
}
layer {
  name: "fc8n"
  type: "InnerProduct"
  bottom: "fc7"
  top: "fc8"
  param {
    lr_mult: 1
    decay_mult: 1
  }
  param {
    lr_mult: 2
    decay_mult: 0
  }
  inner_product_param {
    num_output: 3
    weight_filler {
      type: "gaussian"
      std: 0.01
    }
    bias_filler {
      type: "constant"
      value: 0
    }
  }
}
layer {
  name: "loss"
  type: "SoftmaxWithLoss"
  bottom: "fc8"
  bottom: "label"
  top: "loss"
}
I0830 13:41:18.029592 11576 layer_factory.hpp:77] Creating layer data
I0830 13:41:18.030128 11576 net.cpp:100] Creating Layer data
I0830 13:41:18.030141 11576 net.cpp:408] data -> data
I0830 13:41:18.030158 11576 net.cpp:408] data -> label
I0830 13:41:18.030175 11576 data_transformer.cpp:25] Loading mean file from: data/person_only_lmdb/person_vs_background_vs_random_color_mean.binaryproto
I0830 13:41:18.031653 11589 db_lmdb.cpp:35] Opened lmdb data/person_only_lmdb/person_vs_background_vs_random_train_lmdb
I0830 13:41:18.064052 11576 data_layer.cpp:41] output data size: 128,3,128,128
I0830 13:41:18.137346 11576 net.cpp:150] Setting up data
I0830 13:41:18.137392 11576 net.cpp:157] Top shape: 128 3 128 128 (6291456)
I0830 13:41:18.137400 11576 net.cpp:157] Top shape: 128 (128)
I0830 13:41:18.137404 11576 net.cpp:165] Memory required for data: 25166336
I0830 13:41:18.137413 11576 layer_factory.hpp:77] Creating layer conv1
I0830 13:41:18.137441 11576 net.cpp:100] Creating Layer conv1
I0830 13:41:18.137447 11576 net.cpp:434] conv1 <- data
I0830 13:41:18.137460 11576 net.cpp:408] conv1 -> conv1
I0830 13:41:18.464927 11576 net.cpp:150] Setting up conv1
I0830 13:41:18.464963 11576 net.cpp:157] Top shape: 128 96 30 30 (11059200)
I0830 13:41:18.464968 11576 net.cpp:165] Memory required for data: 69403136
I0830 13:41:18.464987 11576 layer_factory.hpp:77] Creating layer relu1
I0830 13:41:18.465003 11576 net.cpp:100] Creating Layer relu1
I0830 13:41:18.465008 11576 net.cpp:434] relu1 <- conv1
I0830 13:41:18.465014 11576 net.cpp:395] relu1 -> conv1 (in-place)
I0830 13:41:18.465199 11576 net.cpp:150] Setting up relu1
I0830 13:41:18.465211 11576 net.cpp:157] Top shape: 128 96 30 30 (11059200)
I0830 13:41:18.465214 11576 net.cpp:165] Memory required for data: 113639936
I0830 13:41:18.465217 11576 layer_factory.hpp:77] Creating layer pool1
I0830 13:41:18.465225 11576 net.cpp:100] Creating Layer pool1
I0830 13:41:18.465229 11576 net.cpp:434] pool1 <- conv1
I0830 13:41:18.465241 11576 net.cpp:408] pool1 -> pool1
I0830 13:41:18.465287 11576 net.cpp:150] Setting up pool1
I0830 13:41:18.465296 11576 net.cpp:157] Top shape: 128 96 15 15 (2764800)
I0830 13:41:18.465301 11576 net.cpp:165] Memory required for data: 124699136
I0830 13:41:18.465303 11576 layer_factory.hpp:77] Creating layer norm1
I0830 13:41:18.465312 11576 net.cpp:100] Creating Layer norm1
I0830 13:41:18.465317 11576 net.cpp:434] norm1 <- pool1
I0830 13:41:18.465322 11576 net.cpp:408] norm1 -> norm1
I0830 13:41:18.465824 11576 net.cpp:150] Setting up norm1
I0830 13:41:18.465840 11576 net.cpp:157] Top shape: 128 96 15 15 (2764800)
I0830 13:41:18.465843 11576 net.cpp:165] Memory required for data: 135758336
I0830 13:41:18.465847 11576 layer_factory.hpp:77] Creating layer conv2
I0830 13:41:18.465860 11576 net.cpp:100] Creating Layer conv2
I0830 13:41:18.465864 11576 net.cpp:434] conv2 <- norm1
I0830 13:41:18.465873 11576 net.cpp:408] conv2 -> conv2
I0830 13:41:18.472103 11576 net.cpp:150] Setting up conv2
I0830 13:41:18.472122 11576 net.cpp:157] Top shape: 128 256 15 15 (7372800)
I0830 13:41:18.472126 11576 net.cpp:165] Memory required for data: 165249536
I0830 13:41:18.472136 11576 layer_factory.hpp:77] Creating layer relu2
I0830 13:41:18.472143 11576 net.cpp:100] Creating Layer relu2
I0830 13:41:18.472147 11576 net.cpp:434] relu2 <- conv2
I0830 13:41:18.472153 11576 net.cpp:395] relu2 -> conv2 (in-place)
I0830 13:41:18.472614 11576 net.cpp:150] Setting up relu2
I0830 13:41:18.472630 11576 net.cpp:157] Top shape: 128 256 15 15 (7372800)
I0830 13:41:18.472633 11576 net.cpp:165] Memory required for data: 194740736
I0830 13:41:18.472636 11576 layer_factory.hpp:77] Creating layer pool2
I0830 13:41:18.472645 11576 net.cpp:100] Creating Layer pool2
I0830 13:41:18.472647 11576 net.cpp:434] pool2 <- conv2
I0830 13:41:18.472653 11576 net.cpp:408] pool2 -> pool2
I0830 13:41:18.472702 11576 net.cpp:150] Setting up pool2
I0830 13:41:18.472710 11576 net.cpp:157] Top shape: 128 256 7 7 (1605632)
I0830 13:41:18.472713 11576 net.cpp:165] Memory required for data: 201163264
I0830 13:41:18.472717 11576 layer_factory.hpp:77] Creating layer norm2
I0830 13:41:18.472725 11576 net.cpp:100] Creating Layer norm2
I0830 13:41:18.472728 11576 net.cpp:434] norm2 <- pool2
I0830 13:41:18.472733 11576 net.cpp:408] norm2 -> norm2
I0830 13:41:18.472929 11576 net.cpp:150] Setting up norm2
I0830 13:41:18.472941 11576 net.cpp:157] Top shape: 128 256 7 7 (1605632)
I0830 13:41:18.472944 11576 net.cpp:165] Memory required for data: 207585792
I0830 13:41:18.472947 11576 layer_factory.hpp:77] Creating layer conv3
I0830 13:41:18.472957 11576 net.cpp:100] Creating Layer conv3
I0830 13:41:18.472961 11576 net.cpp:434] conv3 <- norm2
I0830 13:41:18.472967 11576 net.cpp:408] conv3 -> conv3
I0830 13:41:18.486243 11576 net.cpp:150] Setting up conv3
I0830 13:41:18.486260 11576 net.cpp:157] Top shape: 128 384 7 7 (2408448)
I0830 13:41:18.486263 11576 net.cpp:165] Memory required for data: 217219584
I0830 13:41:18.486274 11576 layer_factory.hpp:77] Creating layer relu3
I0830 13:41:18.486280 11576 net.cpp:100] Creating Layer relu3
I0830 13:41:18.486285 11576 net.cpp:434] relu3 <- conv3
I0830 13:41:18.486291 11576 net.cpp:395] relu3 -> conv3 (in-place)
I0830 13:41:18.486472 11576 net.cpp:150] Setting up relu3
I0830 13:41:18.486485 11576 net.cpp:157] Top shape: 128 384 7 7 (2408448)
I0830 13:41:18.486487 11576 net.cpp:165] Memory required for data: 226853376
I0830 13:41:18.486490 11576 layer_factory.hpp:77] Creating layer conv4
I0830 13:41:18.486501 11576 net.cpp:100] Creating Layer conv4
I0830 13:41:18.486505 11576 net.cpp:434] conv4 <- conv3
I0830 13:41:18.486511 11576 net.cpp:408] conv4 -> conv4
I0830 13:41:18.497591 11576 net.cpp:150] Setting up conv4
I0830 13:41:18.497607 11576 net.cpp:157] Top shape: 128 384 7 7 (2408448)
I0830 13:41:18.497611 11576 net.cpp:165] Memory required for data: 236487168
I0830 13:41:18.497618 11576 layer_factory.hpp:77] Creating layer relu4
I0830 13:41:18.497624 11576 net.cpp:100] Creating Layer relu4
I0830 13:41:18.497627 11576 net.cpp:434] relu4 <- conv4
I0830 13:41:18.497633 11576 net.cpp:395] relu4 -> conv4 (in-place)
I0830 13:41:18.497817 11576 net.cpp:150] Setting up relu4
I0830 13:41:18.497829 11576 net.cpp:157] Top shape: 128 384 7 7 (2408448)
I0830 13:41:18.497833 11576 net.cpp:165] Memory required for data: 246120960
I0830 13:41:18.497836 11576 layer_factory.hpp:77] Creating layer conv5
I0830 13:41:18.497846 11576 net.cpp:100] Creating Layer conv5
I0830 13:41:18.497849 11576 net.cpp:434] conv5 <- conv4
I0830 13:41:18.497855 11576 net.cpp:408] conv5 -> conv5
I0830 13:41:18.506172 11576 net.cpp:150] Setting up conv5
I0830 13:41:18.506189 11576 net.cpp:157] Top shape: 128 256 7 7 (1605632)
I0830 13:41:18.506193 11576 net.cpp:165] Memory required for data: 252543488
I0830 13:41:18.506203 11576 layer_factory.hpp:77] Creating layer relu5
I0830 13:41:18.506211 11576 net.cpp:100] Creating Layer relu5
I0830 13:41:18.506217 11576 net.cpp:434] relu5 <- conv5
I0830 13:41:18.506222 11576 net.cpp:395] relu5 -> conv5 (in-place)
I0830 13:41:18.506407 11576 net.cpp:150] Setting up relu5
I0830 13:41:18.506419 11576 net.cpp:157] Top shape: 128 256 7 7 (1605632)
I0830 13:41:18.506422 11576 net.cpp:165] Memory required for data: 258966016
I0830 13:41:18.506425 11576 layer_factory.hpp:77] Creating layer pool5
I0830 13:41:18.506433 11576 net.cpp:100] Creating Layer pool5
I0830 13:41:18.506436 11576 net.cpp:434] pool5 <- conv5
I0830 13:41:18.506443 11576 net.cpp:408] pool5 -> pool5
I0830 13:41:18.506489 11576 net.cpp:150] Setting up pool5
I0830 13:41:18.506499 11576 net.cpp:157] Top shape: 128 256 3 3 (294912)
I0830 13:41:18.506501 11576 net.cpp:165] Memory required for data: 260145664
I0830 13:41:18.506505 11576 layer_factory.hpp:77] Creating layer fc6n
I0830 13:41:18.506515 11576 net.cpp:100] Creating Layer fc6n
I0830 13:41:18.506517 11576 net.cpp:434] fc6n <- pool5
I0830 13:41:18.506525 11576 net.cpp:408] fc6n -> fc6
I0830 13:41:18.641154 11576 net.cpp:150] Setting up fc6n
I0830 13:41:18.641190 11576 net.cpp:157] Top shape: 128 4096 (524288)
I0830 13:41:18.641193 11576 net.cpp:165] Memory required for data: 262242816
I0830 13:41:18.641206 11576 layer_factory.hpp:77] Creating layer relu6
I0830 13:41:18.641218 11576 net.cpp:100] Creating Layer relu6
I0830 13:41:18.641224 11576 net.cpp:434] relu6 <- fc6
I0830 13:41:18.641233 11576 net.cpp:395] relu6 -> fc6 (in-place)
I0830 13:41:18.641819 11576 net.cpp:150] Setting up relu6
I0830 13:41:18.641834 11576 net.cpp:157] Top shape: 128 4096 (524288)
I0830 13:41:18.641837 11576 net.cpp:165] Memory required for data: 264339968
I0830 13:41:18.641840 11576 layer_factory.hpp:77] Creating layer drop6
I0830 13:41:18.641849 11576 net.cpp:100] Creating Layer drop6
I0830 13:41:18.641854 11576 net.cpp:434] drop6 <- fc6
I0830 13:41:18.641860 11576 net.cpp:395] drop6 -> fc6 (in-place)
I0830 13:41:18.641886 11576 net.cpp:150] Setting up drop6
I0830 13:41:18.641893 11576 net.cpp:157] Top shape: 128 4096 (524288)
I0830 13:41:18.641896 11576 net.cpp:165] Memory required for data: 266437120
I0830 13:41:18.641898 11576 layer_factory.hpp:77] Creating layer fc7n
I0830 13:41:18.641907 11576 net.cpp:100] Creating Layer fc7n
I0830 13:41:18.641911 11576 net.cpp:434] fc7n <- fc6
I0830 13:41:18.641917 11576 net.cpp:408] fc7n -> fc7
I0830 13:41:18.878523 11576 net.cpp:150] Setting up fc7n
I0830 13:41:18.878566 11576 net.cpp:157] Top shape: 128 4096 (524288)
I0830 13:41:18.878571 11576 net.cpp:165] Memory required for data: 268534272
I0830 13:41:18.878583 11576 layer_factory.hpp:77] Creating layer relu7
I0830 13:41:18.878595 11576 net.cpp:100] Creating Layer relu7
I0830 13:41:18.878600 11576 net.cpp:434] relu7 <- fc7
I0830 13:41:18.878610 11576 net.cpp:395] relu7 -> fc7 (in-place)
I0830 13:41:18.878880 11576 net.cpp:150] Setting up relu7
I0830 13:41:18.878891 11576 net.cpp:157] Top shape: 128 4096 (524288)
I0830 13:41:18.878895 11576 net.cpp:165] Memory required for data: 270631424
I0830 13:41:18.878897 11576 layer_factory.hpp:77] Creating layer drop7
I0830 13:41:18.878906 11576 net.cpp:100] Creating Layer drop7
I0830 13:41:18.878908 11576 net.cpp:434] drop7 <- fc7
I0830 13:41:18.878914 11576 net.cpp:395] drop7 -> fc7 (in-place)
I0830 13:41:18.878938 11576 net.cpp:150] Setting up drop7
I0830 13:41:18.878944 11576 net.cpp:157] Top shape: 128 4096 (524288)
I0830 13:41:18.878947 11576 net.cpp:165] Memory required for data: 272728576
I0830 13:41:18.878950 11576 layer_factory.hpp:77] Creating layer fc8n
I0830 13:41:18.878959 11576 net.cpp:100] Creating Layer fc8n
I0830 13:41:18.878962 11576 net.cpp:434] fc8n <- fc7
I0830 13:41:18.878968 11576 net.cpp:408] fc8n -> fc8
I0830 13:41:18.880585 11576 net.cpp:150] Setting up fc8n
I0830 13:41:18.880600 11576 net.cpp:157] Top shape: 128 3 (384)
I0830 13:41:18.880604 11576 net.cpp:165] Memory required for data: 272730112
I0830 13:41:18.880610 11576 layer_factory.hpp:77] Creating layer loss
I0830 13:41:18.880617 11576 net.cpp:100] Creating Layer loss
I0830 13:41:18.880620 11576 net.cpp:434] loss <- fc8
I0830 13:41:18.880625 11576 net.cpp:434] loss <- label
I0830 13:41:18.880631 11576 net.cpp:408] loss -> loss
I0830 13:41:18.880641 11576 layer_factory.hpp:77] Creating layer loss
…
I0830 13:41:18.881451 11576 net.cpp:322] The NetState phase (1) differed from the phase (0) specified by a rule in layer data
I0830 13:41:18.881640 11576 net.cpp:58] Initializing net from parameters: 
name: "CaffeNet"
state {
  phase: TEST
}
layer {
  name: "data"
  type: "Data"
  top: "data"
  top: "label"
  include {
    phase: TEST
  }
  transform_param {
    scale: 0.00390625
    mean_file: "data/person_only_lmdb/person_vs_background_vs_random_color_mean.binaryproto"
  }
  data_param {
    source: "data/person_only_lmdb/person_vs_background_vs_random_test_lmdb"
    batch_size: 100
    backend: LMDB
  }
}
layer {
  name: "conv1"
  type: "Convolution"
  bottom: "data"
  top: "conv1"
  param {
    lr_mult: 1
    decay_mult: 1
  }
  param {
    lr_mult: 2
    decay_mult: 0
  }
  convolution_param {
    num_output: 96
    kernel_size: 11
    stride: 4
    weight_filler {
      type: "gaussian"
      std: 0.01
    }
    bias_filler {
      type: "constant"
      value: 0
    }
  }
}
layer {
  name: "relu1"
  type: "ReLU"
  bottom: "conv1"
  top: "conv1"
}
layer {
  name: "pool1"
  type: "Pooling"
  bottom: "conv1"
  top: "pool1"
  pooling_param {
    pool: MAX
    kernel_size: 3
    stride: 2
  }
}
layer {
  name: "norm1"
  type: "LRN"
  bottom: "pool1"
  top: "norm1"
  lrn_param {
    local_size: 5
    alpha: 0.0001
    beta: 0.75
  }
}
layer {
  name: "conv2"
  type: "Convolution"
  bottom: "norm1"
  top: "conv2"
  param {
    lr_mult: 1
    decay_mult: 1
  }
  param {
    lr_mult: 2
    decay_mult: 0
  }
  convolution_param {
    num_output: 256
    pad: 2
    kernel_size: 5
    group: 2
    weight_filler {
      type: "gaussian"
      std: 0.01
    }
    bias_filler {
      type: "constant"
      value: 0.1
    }
  }
}
layer {
  name: "relu2"
  type: "ReLU"
  bottom: "conv2"
  top: "conv2"
}
layer {
  name: "pool2"
  type: "Pooling"
  bottom: "conv2"
  top: "pool2"
  pooling_param {
    pool: MAX
    kernel_size: 3
    stride: 2
  }
}
layer {
  name: "norm2"
  type: "LRN"
  bottom: "pool2"
  top: "norm2"
  lrn_param {
    local_size: 5
    alpha: 0.0001
    beta: 0.75
  }
}
layer {
  name: "conv3"
  type: "Convolution"
  bottom: "norm2"
  top: "conv3"
  param {
    lr_mult: 1
    decay_mult: 1
  }
  param {
    lr_mult: 2
    decay_mult: 0
  }
  convolution_param {
    num_output: 384
    pad: 1
    kernel_size: 3
    weight_filler {
      type: "gaussian"
      std: 0.01
    }
    bias_filler {
      type: "constant"
      value: 0
    }
  }
}
layer {
  name: "relu3"
  type: "ReLU"
  bottom: "conv3"
  top: "conv3"
}
layer {
  name: "conv4"
  type: "Convolution"
  bottom: "conv3"
  top: "conv4"
  param {
    lr_mult: 1
    decay_mult: 1
  }
  param {
    lr_mult: 2
    decay_mult: 0
  }
  convolution_param {
    num_output: 384
    pad: 1
    kernel_size: 3
    group: 2
    weight_filler {
      type: "gaussian"
      std: 0.01
    }
    bias_filler {
      type: "constant"
      value: 0.1
    }
  }
}
layer {
  name: "relu4"
  type: "ReLU"
  bottom: "conv4"
  top: "conv4"
}
layer {
  name: "conv5"
  type: "Convolution"
  bottom: "conv4"
  top: "conv5"
  param {
    lr_mult: 1
    decay_mult: 1
  }
  param {
    lr_mult: 2
    decay_mult: 0
  }
  convolution_param {
    num_output: 256
    pad: 1
    kernel_size: 3
    group: 2
    weight_filler {
      type: "gaussian"
      std: 0.01
    }
    bias_filler {
      type: "constant"
      value: 0.1
    }
  }
}
layer {
  name: "relu5"
  type: "ReLU"
  bottom: "conv5"
  top: "conv5"
}
layer {
  name: "pool5"
  type: "Pooling"
  bottom: "conv5"
  top: "pool5"
  pooling_param {
    pool: MAX
    kernel_size: 3
    stride: 2
  }
}
layer {
  name: "fc6n"
  type: "InnerProduct"
  bottom: "pool5"
  top: "fc6"
  param {
    lr_mult: 1
    decay_mult: 1
  }
  param {
    lr_mult: 2
    decay_mult: 0
  }
  inner_product_param {
    num_output: 4096
    weight_filler {
      type: "gaussian"
      std: 0.005
    }
    bias_filler {
      type: "constant"
      value: 0.1
    }
  }
}
layer {
  name: "relu6"
  type: "ReLU"
  bottom: "fc6"
  top: "fc6"
}
layer {
  name: "drop6"
  type: "Dropout"
  bottom: "fc6"
  top: "fc6"
  dropout_param {
    dropout_ratio: 0.5
  }
}
layer {
  name: "fc7n"
  type: "InnerProduct"
  bottom: "fc6"
  top: "fc7"
  param {
    lr_mult: 1
    decay_mult: 1
  }
  param {
    lr_mult: 2
    decay_mult: 0
  }
  inner_product_param {
    num_output: 4096
    weight_filler {
      type: "gaussian"
      std: 0.005
    }
    bias_filler {
      type: "constant"
      value: 0.1
    }
  }
}
layer {
  name: "relu7"
  type: "ReLU"
  bottom: "fc7"
  top: "fc7"
}
layer {
  name: "drop7"
  type: "Dropout"
  bottom: "fc7"
  top: "fc7"
  dropout_param {
    dropout_ratio: 0.5
  }
}
layer {
  name: "fc8n"
  type: "InnerProduct"
  bottom: "fc7"
  top: "fc8"
  param {
    lr_mult: 1
    decay_mult: 1
  }
  param {
    lr_mult: 2
    decay_mult: 0
  }
  inner_product_param {
    num_output: 3
    weight_filler {
      type: "gaussian"
      std: 0.01
    }
    bias_filler {
      type: "constant"
      value: 0
    }
  }
}
layer {
  name: "accuracy"
  type: "Accuracy"
  bottom: "fc8"
  bottom: "label"
  top: "accuracy"
  include {
    phase: TEST
  }
}
layer {
  name: "loss"
  type: "SoftmaxWithLoss"
  bottom: "fc8"
  bottom: "label"
  top: "loss"
}
I0830 13:41:18.881742 11576 layer_factory.hpp:77] Creating layer data
I0830 13:41:18.881880 11576 net.cpp:100] Creating Layer data
I0830 13:41:18.881889 11576 net.cpp:408] data -> data
I0830 13:41:18.881899 11576 net.cpp:408] data -> label
I0830 13:41:18.881908 11576 data_transformer.cpp:25] Loading mean file from: data/person_only_lmdb/person_vs_background_vs_random_color_mean.binaryproto
I0830 13:41:18.883452 11591 db_lmdb.cpp:35] Opened lmdb data/person_only_lmdb/person_vs_background_vs_random_test_lmdb
I0830 13:41:18.883803 11576 data_layer.cpp:41] output data size: 100,3,128,128
I0830 13:41:18.943735 11576 net.cpp:150] Setting up data
I0830 13:41:18.943780 11576 net.cpp:157] Top shape: 100 3 128 128 (4915200)
I0830 13:41:18.943789 11576 net.cpp:157] Top shape: 100 (100)
I0830 13:41:18.943794 11576 net.cpp:165] Memory required for data: 19661200
I0830 13:41:18.943804 11576 layer_factory.hpp:77] Creating layer label_data_1_split
I0830 13:41:18.943825 11576 net.cpp:100] Creating Layer label_data_1_split
I0830 13:41:18.943830 11576 net.cpp:434] label_data_1_split <- label
I0830 13:41:18.943842 11576 net.cpp:408] label_data_1_split -> label_data_1_split_0
I0830 13:41:18.943858 11576 net.cpp:408] label_data_1_split -> label_data_1_split_1
I0830 13:41:18.944056 11576 net.cpp:150] Setting up label_data_1_split
I0830 13:41:18.944087 11576 net.cpp:157] Top shape: 100 (100)
I0830 13:41:18.944098 11576 net.cpp:157] Top shape: 100 (100)
I0830 13:41:18.944104 11576 net.cpp:165] Memory required for data: 19662000
I0830 13:41:18.944110 11576 layer_factory.hpp:77] Creating layer conv1
I0830 13:41:18.944135 11576 net.cpp:100] Creating Layer conv1
I0830 13:41:18.944144 11576 net.cpp:434] conv1 <- data
I0830 13:41:18.944157 11576 net.cpp:408] conv1 -> conv1
I0830 13:41:18.951226 11576 net.cpp:150] Setting up conv1
I0830 13:41:18.951259 11576 net.cpp:157] Top shape: 100 96 30 30 (8640000)
I0830 13:41:18.951267 11576 net.cpp:165] Memory required for data: 54222000
I0830 13:41:18.951287 11576 layer_factory.hpp:77] Creating layer relu1
I0830 13:41:18.951302 11576 net.cpp:100] Creating Layer relu1
I0830 13:41:18.951308 11576 net.cpp:434] relu1 <- conv1
I0830 13:41:18.951318 11576 net.cpp:395] relu1 -> conv1 (in-place)
I0830 13:41:18.951653 11576 net.cpp:150] Setting up relu1
I0830 13:41:18.951673 11576 net.cpp:157] Top shape: 100 96 30 30 (8640000)
I0830 13:41:18.951679 11576 net.cpp:165] Memory required for data: 88782000
I0830 13:41:18.951685 11576 layer_factory.hpp:77] Creating layer pool1
I0830 13:41:18.951699 11576 net.cpp:100] Creating Layer pool1
I0830 13:41:18.951706 11576 net.cpp:434] pool1 <- conv1
I0830 13:41:18.951716 11576 net.cpp:408] pool1 -> pool1
I0830 13:41:18.951802 11576 net.cpp:150] Setting up pool1
I0830 13:41:18.951817 11576 net.cpp:157] Top shape: 100 96 15 15 (2160000)
I0830 13:41:18.951822 11576 net.cpp:165] Memory required for data: 97422000
I0830 13:41:18.951828 11576 layer_factory.hpp:77] Creating layer norm1
I0830 13:41:18.951840 11576 net.cpp:100] Creating Layer norm1
I0830 13:41:18.951848 11576 net.cpp:434] norm1 <- pool1
I0830 13:41:18.951856 11576 net.cpp:408] norm1 -> norm1
I0830 13:41:18.952761 11576 net.cpp:150] Setting up norm1
I0830 13:41:18.952787 11576 net.cpp:157] Top shape: 100 96 15 15 (2160000)
I0830 13:41:18.952795 11576 net.cpp:165] Memory required for data: 106062000
I0830 13:41:18.952800 11576 layer_factory.hpp:77] Creating layer conv2
I0830 13:41:18.952819 11576 net.cpp:100] Creating Layer conv2
I0830 13:41:18.952826 11576 net.cpp:434] conv2 <- norm1
I0830 13:41:18.952838 11576 net.cpp:408] conv2 -> conv2
I0830 13:41:18.964699 11576 net.cpp:150] Setting up conv2
I0830 13:41:18.964736 11576 net.cpp:157] Top shape: 100 256 15 15 (5760000)
I0830 13:41:18.964743 11576 net.cpp:165] Memory required for data: 129102000
I0830 13:41:18.964764 11576 layer_factory.hpp:77] Creating layer relu2
I0830 13:41:18.964779 11576 net.cpp:100] Creating Layer relu2
I0830 13:41:18.964785 11576 net.cpp:434] relu2 <- conv2
I0830 13:41:18.964797 11576 net.cpp:395] relu2 -> conv2 (in-place)
I0830 13:41:18.965637 11576 net.cpp:150] Setting up relu2
I0830 13:41:18.965664 11576 net.cpp:157] Top shape: 100 256 15 15 (5760000)
I0830 13:41:18.965670 11576 net.cpp:165] Memory required for data: 152142000
I0830 13:41:18.965677 11576 layer_factory.hpp:77] Creating layer pool2
I0830 13:41:18.965693 11576 net.cpp:100] Creating Layer pool2
I0830 13:41:18.965701 11576 net.cpp:434] pool2 <- conv2
I0830 13:41:18.965713 11576 net.cpp:408] pool2 -> pool2
I0830 13:41:18.965809 11576 net.cpp:150] Setting up pool2
I0830 13:41:18.965828 11576 net.cpp:157] Top shape: 100 256 7 7 (1254400)
I0830 13:41:18.965836 11576 net.cpp:165] Memory required for data: 157159600
I0830 13:41:18.965840 11576 layer_factory.hpp:77] Creating layer norm2
I0830 13:41:18.965853 11576 net.cpp:100] Creating Layer norm2
I0830 13:41:18.965860 11576 net.cpp:434] norm2 <- pool2
I0830 13:41:18.965870 11576 net.cpp:408] norm2 -> norm2
I0830 13:41:18.966239 11576 net.cpp:150] Setting up norm2
I0830 13:41:18.966259 11576 net.cpp:157] Top shape: 100 256 7 7 (1254400)
I0830 13:41:18.966266 11576 net.cpp:165] Memory required for data: 162177200
I0830 13:41:18.966271 11576 layer_factory.hpp:77] Creating layer conv3
I0830 13:41:18.966290 11576 net.cpp:100] Creating Layer conv3
I0830 13:41:18.966298 11576 net.cpp:434] conv3 <- norm2
I0830 13:41:18.966310 11576 net.cpp:408] conv3 -> conv3
I0830 13:41:18.989380 11576 net.cpp:150] Setting up conv3
I0830 13:41:18.989418 11576 net.cpp:157] Top shape: 100 384 7 7 (1881600)
I0830 13:41:18.989424 11576 net.cpp:165] Memory required for data: 169703600
I0830 13:41:18.989446 11576 layer_factory.hpp:77] Creating layer relu3
I0830 13:41:18.989464 11576 net.cpp:100] Creating Layer relu3
I0830 13:41:18.989472 11576 net.cpp:434] relu3 <- conv3
I0830 13:41:18.989486 11576 net.cpp:395] relu3 -> conv3 (in-place)
I0830 13:41:18.989809 11576 net.cpp:150] Setting up relu3
I0830 13:41:18.989827 11576 net.cpp:157] Top shape: 100 384 7 7 (1881600)
I0830 13:41:18.989831 11576 net.cpp:165] Memory required for data: 177230000
I0830 13:41:18.989836 11576 layer_factory.hpp:77] Creating layer conv4
I0830 13:41:18.989856 11576 net.cpp:100] Creating Layer conv4
I0830 13:41:18.989861 11576 net.cpp:434] conv4 <- conv3
I0830 13:41:18.989872 11576 net.cpp:408] conv4 -> conv4
I0830 13:41:19.007256 11576 net.cpp:150] Setting up conv4
I0830 13:41:19.007289 11576 net.cpp:157] Top shape: 100 384 7 7 (1881600)
I0830 13:41:19.007295 11576 net.cpp:165] Memory required for data: 184756400
I0830 13:41:19.007308 11576 layer_factory.hpp:77] Creating layer relu4
I0830 13:41:19.007323 11576 net.cpp:100] Creating Layer relu4
I0830 13:41:19.007329 11576 net.cpp:434] relu4 <- conv4
I0830 13:41:19.007339 11576 net.cpp:395] relu4 -> conv4 (in-place)
I0830 13:41:19.008102 11576 net.cpp:150] Setting up relu4
I0830 13:41:19.008124 11576 net.cpp:157] Top shape: 100 384 7 7 (1881600)
I0830 13:41:19.008128 11576 net.cpp:165] Memory required for data: 192282800
I0830 13:41:19.008133 11576 layer_factory.hpp:77] Creating layer conv5
I0830 13:41:19.008153 11576 net.cpp:100] Creating Layer conv5
I0830 13:41:19.008158 11576 net.cpp:434] conv5 <- conv4
I0830 13:41:19.008172 11576 net.cpp:408] conv5 -> conv5
I0830 13:41:19.021478 11576 net.cpp:150] Setting up conv5
I0830 13:41:19.021509 11576 net.cpp:157] Top shape: 100 256 7 7 (1254400)
I0830 13:41:19.021515 11576 net.cpp:165] Memory required for data: 197300400
I0830 13:41:19.021549 11576 layer_factory.hpp:77] Creating layer relu5
I0830 13:41:19.021579 11576 net.cpp:100] Creating Layer relu5
I0830 13:41:19.021584 11576 net.cpp:434] relu5 <- conv5
I0830 13:41:19.021591 11576 net.cpp:395] relu5 -> conv5 (in-place)
I0830 13:41:19.021867 11576 net.cpp:150] Setting up relu5
I0830 13:41:19.021883 11576 net.cpp:157] Top shape: 100 256 7 7 (1254400)
I0830 13:41:19.021886 11576 net.cpp:165] Memory required for data: 202318000
I0830 13:41:19.021890 11576 layer_factory.hpp:77] Creating layer pool5
I0830 13:41:19.021906 11576 net.cpp:100] Creating Layer pool5
I0830 13:41:19.021910 11576 net.cpp:434] pool5 <- conv5
I0830 13:41:19.021919 11576 net.cpp:408] pool5 -> pool5
I0830 13:41:19.021993 11576 net.cpp:150] Setting up pool5
I0830 13:41:19.022006 11576 net.cpp:157] Top shape: 100 256 3 3 (230400)
I0830 13:41:19.022009 11576 net.cpp:165] Memory required for data: 203239600
I0830 13:41:19.022013 11576 layer_factory.hpp:77] Creating layer fc6n
I0830 13:41:19.022025 11576 net.cpp:100] Creating Layer fc6n
I0830 13:41:19.022032 11576 net.cpp:434] fc6n <- pool5
I0830 13:41:19.022038 11576 net.cpp:408] fc6n -> fc6
I0830 13:41:19.161365 11576 net.cpp:150] Setting up fc6n
I0830 13:41:19.161404 11576 net.cpp:157] Top shape: 100 4096 (409600)
I0830 13:41:19.161407 11576 net.cpp:165] Memory required for data: 204878000
I0830 13:41:19.161420 11576 layer_factory.hpp:77] Creating layer relu6
I0830 13:41:19.161433 11576 net.cpp:100] Creating Layer relu6
I0830 13:41:19.161438 11576 net.cpp:434] relu6 <- fc6
I0830 13:41:19.161448 11576 net.cpp:395] relu6 -> fc6 (in-place)
I0830 13:41:19.161734 11576 net.cpp:150] Setting up relu6
I0830 13:41:19.161746 11576 net.cpp:157] Top shape: 100 4096 (409600)
I0830 13:41:19.161749 11576 net.cpp:165] Memory required for data: 206516400
I0830 13:41:19.161752 11576 layer_factory.hpp:77] Creating layer drop6
I0830 13:41:19.161761 11576 net.cpp:100] Creating Layer drop6
I0830 13:41:19.161764 11576 net.cpp:434] drop6 <- fc6
I0830 13:41:19.161772 11576 net.cpp:395] drop6 -> fc6 (in-place)
I0830 13:41:19.161809 11576 net.cpp:150] Setting up drop6
I0830 13:41:19.161818 11576 net.cpp:157] Top shape: 100 4096 (409600)
I0830 13:41:19.161819 11576 net.cpp:165] Memory required for data: 208154800
I0830 13:41:19.161823 11576 layer_factory.hpp:77] Creating layer fc7n
I0830 13:41:19.161831 11576 net.cpp:100] Creating Layer fc7n
I0830 13:41:19.161834 11576 net.cpp:434] fc7n <- fc6
I0830 13:41:19.161841 11576 net.cpp:408] fc7n -> fc7
I0830 13:41:19.428683 11576 net.cpp:150] Setting up fc7n
I0830 13:41:19.428737 11576 net.cpp:157] Top shape: 100 4096 (409600)
I0830 13:41:19.428741 11576 net.cpp:165] Memory required for data: 209793200
I0830 13:41:19.428755 11576 layer_factory.hpp:77] Creating layer relu7
I0830 13:41:19.428769 11576 net.cpp:100] Creating Layer relu7
I0830 13:41:19.428777 11576 net.cpp:434] relu7 <- fc7
I0830 13:41:19.428786 11576 net.cpp:395] relu7 -> fc7 (in-place)
I0830 13:41:19.429626 11576 net.cpp:150] Setting up relu7
I0830 13:41:19.429643 11576 net.cpp:157] Top shape: 100 4096 (409600)
I0830 13:41:19.429647 11576 net.cpp:165] Memory required for data: 211431600
I0830 13:41:19.429651 11576 layer_factory.hpp:77] Creating layer drop7
I0830 13:41:19.429661 11576 net.cpp:100] Creating Layer drop7
I0830 13:41:19.429666 11576 net.cpp:434] drop7 <- fc7
I0830 13:41:19.429672 11576 net.cpp:395] drop7 -> fc7 (in-place)
I0830 13:41:19.429714 11576 net.cpp:150] Setting up drop7
I0830 13:41:19.429723 11576 net.cpp:157] Top shape: 100 4096 (409600)
I0830 13:41:19.429726 11576 net.cpp:165] Memory required for data: 213070000
I0830 13:41:19.429730 11576 layer_factory.hpp:77] Creating layer fc8n
I0830 13:41:19.429740 11576 net.cpp:100] Creating Layer fc8n
I0830 13:41:19.429747 11576 net.cpp:434] fc8n <- fc7
I0830 13:41:19.429754 11576 net.cpp:408] fc8n -> fc8
I0830 13:41:19.430052 11576 net.cpp:150] Setting up fc8n
I0830 13:41:19.430063 11576 net.cpp:157] Top shape: 100 3 (300)
I0830 13:41:19.430066 11576 net.cpp:165] Memory required for data: 213071200
I0830 13:41:19.430073 11576 layer_factory.hpp:77] Creating layer fc8_fc8n_0_split
I0830 13:41:19.430081 11576 net.cpp:100] Creating Layer fc8_fc8n_0_split
I0830 13:41:19.430084 11576 net.cpp:434] fc8_fc8n_0_split <- fc8
I0830 13:41:19.430099 11576 net.cpp:408] fc8_fc8n_0_split -> fc8_fc8n_0_split_0
I0830 13:41:19.430107 11576 net.cpp:408] fc8_fc8n_0_split -> fc8_fc8n_0_split_1
I0830 13:41:19.430155 11576 net.cpp:150] Setting up fc8_fc8n_0_split
I0830 13:41:19.430162 11576 net.cpp:157] Top shape: 100 3 (300)
I0830 13:41:19.430166 11576 net.cpp:157] Top shape: 100 3 (300)
I0830 13:41:19.430168 11576 net.cpp:165] Memory required for data: 213073600
I0830 13:41:19.430171 11576 layer_factory.hpp:77] Creating layer accuracy
I0830 13:41:19.430181 11576 net.cpp:100] Creating Layer accuracy
I0830 13:41:19.430186 11576 net.cpp:434] accuracy <- fc8_fc8n_0_split_0
I0830 13:41:19.430191 11576 net.cpp:434] accuracy <- label_data_1_split_0
I0830 13:41:19.430197 11576 net.cpp:408] accuracy -> accuracy
…
