…
I0830 12:56:09.810945 11353 net.cpp:322] The NetState phase (0) differed from the phase (1) specified by a rule in layer accuracy
I0830 12:56:09.811085 11353 net.cpp:58] Initializing net from parameters: 
name: "CaffeNet"
state {
  phase: TRAIN
}
layer {
  name: "data"
  type: "Data"
  top: "data"
  top: "label"
  include {
    phase: TRAIN
  }
  transform_param {
    scale: 0.00390625
    mean_file: "data/person_only_lmdb/person_vs_background_vs_random_color_mean.binaryproto"
  }
  data_param {
    source: "data/person_only_lmdb/person_vs_background_vs_random_train_lmdb"
    batch_size: 128
    backend: LMDB
  }
}
layer {
  name: "conv1"
  type: "Convolution"
  bottom: "data"
  top: "conv1"
  param {
    lr_mult: 1
    decay_mult: 1
  }
  param {
    lr_mult: 2
    decay_mult: 0
  }
  convolution_param {
    num_output: 96
    kernel_size: 11
    stride: 4
    weight_filler {
      type: "gaussian"
      std: 0.01
    }
    bias_filler {
      type: "constant"
      value: 0
    }
  }
}
layer {
  name: "relu1"
  type: "ReLU"
  bottom: "conv1"
  top: "conv1"
}
layer {
  name: "pool1"
  type: "Pooling"
  bottom: "conv1"
  top: "pool1"
  pooling_param {
    pool: MAX
    kernel_size: 3
    stride: 2
  }
}
layer {
  name: "norm1"
  type: "LRN"
  bottom: "pool1"
  top: "norm1"
  lrn_param {
    local_size: 5
    alpha: 0.0001
    beta: 0.75
  }
}
layer {
  name: "conv2"
  type: "Convolution"
  bottom: "norm1"
  top: "conv2"
  param {
    lr_mult: 1
    decay_mult: 1
  }
  param {
    lr_mult: 2
    decay_mult: 0
  }
  convolution_param {
    num_output: 256
    pad: 2
    kernel_size: 5
    group: 2
    weight_filler {
      type: "gaussian"
      std: 0.01
    }
    bias_filler {
      type: "constant"
      value: 0.1
    }
  }
}
layer {
  name: "relu2"
  type: "ReLU"
  bottom: "conv2"
  top: "conv2"
}
layer {
  name: "pool2"
  type: "Pooling"
  bottom: "conv2"
  top: "pool2"
  pooling_param {
    pool: MAX
    kernel_size: 3
    stride: 2
  }
}
layer {
  name: "norm2"
  type: "LRN"
  bottom: "pool2"
  top: "norm2"
  lrn_param {
    local_size: 5
    alpha: 0.0001
    beta: 0.75
  }
}
layer {
  name: "conv3"
  type: "Convolution"
  bottom: "norm2"
  top: "conv3"
  param {
    lr_mult: 1
    decay_mult: 1
  }
  param {
    lr_mult: 2
    decay_mult: 0
  }
  convolution_param {
    num_output: 384
    pad: 1
    kernel_size: 3
    weight_filler {
      type: "gaussian"
      std: 0.01
    }
    bias_filler {
      type: "constant"
      value: 0
    }
  }
}
layer {
  name: "relu3"
  type: "ReLU"
  bottom: "conv3"
  top: "conv3"
}
layer {
  name: "conv4"
  type: "Convolution"
  bottom: "conv3"
  top: "conv4"
  param {
    lr_mult: 1
    decay_mult: 1
  }
  param {
    lr_mult: 2
    decay_mult: 0
  }
  convolution_param {
    num_output: 384
    pad: 1
    kernel_size: 3
    group: 2
    weight_filler {
      type: "gaussian"
      std: 0.01
    }
    bias_filler {
      type: "constant"
      value: 0.1
    }
  }
}
layer {
  name: "relu4"
  type: "ReLU"
  bottom: "conv4"
  top: "conv4"
}
layer {
  name: "conv5"
  type: "Convolution"
  bottom: "conv4"
  top: "conv5"
  param {
    lr_mult: 1
    decay_mult: 1
  }
  param {
    lr_mult: 2
    decay_mult: 0
  }
  convolution_param {
    num_output: 256
    pad: 1
    kernel_size: 3
    group: 2
    weight_filler {
      type: "gaussian"
      std: 0.01
    }
    bias_filler {
      type: "constant"
      value: 0.1
    }
  }
}
layer {
  name: "relu5"
  type: "ReLU"
  bottom: "conv5"
  top: "conv5"
}
layer {
  name: "pool5"
  type: "Pooling"
  bottom: "conv5"
  top: "pool5"
  pooling_param {
    pool: MAX
    kernel_size: 3
    stride: 2
  }
}
layer {
  name: "fc6n"
  type: "InnerProduct"
  bottom: "pool5"
  top: "fc6"
  param {
    lr_mult: 1
    decay_mult: 1
  }
  param {
    lr_mult: 2
    decay_mult: 0
  }
  inner_product_param {
    num_output: 4096
    weight_filler {
      type: "gaussian"
      std: 0.005
    }
    bias_filler {
      type: "constant"
      value: 0.1
    }
  }
}
layer {
  name: "relu6"
  type: "ReLU"
  bottom: "fc6"
  top: "fc6"
}
layer {
  name: "drop6"
  type: "Dropout"
  bottom: "fc6"
  top: "fc6"
  dropout_param {
    dropout_ratio: 0.5
  }
}
layer {
  name: "fc7n"
  type: "InnerProduct"
  bottom: "fc6"
  top: "fc7"
  param {
    lr_mult: 1
    decay_mult: 1
  }
  param {
    lr_mult: 2
    decay_mult: 0
  }
  inner_product_param {
    num_output: 4096
    weight_filler {
      type: "gaussian"
      std: 0.005
    }
    bias_filler {
      type: "constant"
      value: 0.1
    }
  }
}
layer {
  name: "relu7"
  type: "ReLU"
  bottom: "fc7"
  top: "fc7"
}
layer {
  name: "drop7"
  type: "Dropout"
  bottom: "fc7"
  top: "fc7"
  dropout_param {
    dropout_ratio: 0.5
  }
}
layer {
  name: "fc8n"
  type: "InnerProduct"
  bottom: "fc7"
  top: "fc8"
  param {
    lr_mult: 1
    decay_mult: 1
  }
  param {
    lr_mult: 2
    decay_mult: 0
  }
  inner_product_param {
    num_output: 3
    weight_filler {
      type: "gaussian"
      std: 0.01
    }
    bias_filler {
      type: "constant"
      value: 0
    }
  }
}
layer {
  name: "loss"
  type: "SoftmaxWithLoss"
  bottom: "fc8"
  bottom: "label"
  top: "loss"
}
I0830 12:56:09.811164 11353 layer_factory.hpp:77] Creating layer data
I0830 12:56:09.811681 11353 net.cpp:100] Creating Layer data
I0830 12:56:09.811694 11353 net.cpp:408] data -> data
I0830 12:56:09.811708 11353 net.cpp:408] data -> label
I0830 12:56:09.811719 11353 data_transformer.cpp:25] Loading mean file from: data/person_only_lmdb/person_vs_background_vs_random_color_mean.binaryproto
I0830 12:56:09.813311 11366 db_lmdb.cpp:35] Opened lmdb data/person_only_lmdb/person_vs_background_vs_random_train_lmdb
I0830 12:56:09.847193 11353 data_layer.cpp:41] output data size: 128,3,128,128
I0830 12:56:09.918349 11353 net.cpp:150] Setting up data
I0830 12:56:09.918392 11353 net.cpp:157] Top shape: 128 3 128 128 (6291456)
I0830 12:56:09.918398 11353 net.cpp:157] Top shape: 128 (128)
I0830 12:56:09.918402 11353 net.cpp:165] Memory required for data: 25166336
I0830 12:56:09.918409 11353 layer_factory.hpp:77] Creating layer conv1
I0830 12:56:09.918438 11353 net.cpp:100] Creating Layer conv1
I0830 12:56:09.918444 11353 net.cpp:434] conv1 <- data
I0830 12:56:09.918454 11353 net.cpp:408] conv1 -> conv1
I0830 12:56:10.229236 11353 net.cpp:150] Setting up conv1
I0830 12:56:10.229276 11353 net.cpp:157] Top shape: 128 96 30 30 (11059200)
I0830 12:56:10.229280 11353 net.cpp:165] Memory required for data: 69403136
I0830 12:56:10.229297 11353 layer_factory.hpp:77] Creating layer relu1
I0830 12:56:10.229315 11353 net.cpp:100] Creating Layer relu1
I0830 12:56:10.229320 11353 net.cpp:434] relu1 <- conv1
I0830 12:56:10.229326 11353 net.cpp:395] relu1 -> conv1 (in-place)
I0830 12:56:10.229531 11353 net.cpp:150] Setting up relu1
I0830 12:56:10.229550 11353 net.cpp:157] Top shape: 128 96 30 30 (11059200)
I0830 12:56:10.229554 11353 net.cpp:165] Memory required for data: 113639936
I0830 12:56:10.229558 11353 layer_factory.hpp:77] Creating layer pool1
I0830 12:56:10.229565 11353 net.cpp:100] Creating Layer pool1
I0830 12:56:10.229568 11353 net.cpp:434] pool1 <- conv1
I0830 12:56:10.229575 11353 net.cpp:408] pool1 -> pool1
I0830 12:56:10.229625 11353 net.cpp:150] Setting up pool1
I0830 12:56:10.229635 11353 net.cpp:157] Top shape: 128 96 15 15 (2764800)
I0830 12:56:10.229637 11353 net.cpp:165] Memory required for data: 124699136
I0830 12:56:10.229640 11353 layer_factory.hpp:77] Creating layer norm1
I0830 12:56:10.229651 11353 net.cpp:100] Creating Layer norm1
I0830 12:56:10.229655 11353 net.cpp:434] norm1 <- pool1
I0830 12:56:10.229661 11353 net.cpp:408] norm1 -> norm1
I0830 12:56:10.230175 11353 net.cpp:150] Setting up norm1
I0830 12:56:10.230188 11353 net.cpp:157] Top shape: 128 96 15 15 (2764800)
I0830 12:56:10.230191 11353 net.cpp:165] Memory required for data: 135758336
I0830 12:56:10.230195 11353 layer_factory.hpp:77] Creating layer conv2
I0830 12:56:10.230211 11353 net.cpp:100] Creating Layer conv2
I0830 12:56:10.230214 11353 net.cpp:434] conv2 <- norm1
I0830 12:56:10.230222 11353 net.cpp:408] conv2 -> conv2
I0830 12:56:10.236603 11353 net.cpp:150] Setting up conv2
I0830 12:56:10.236621 11353 net.cpp:157] Top shape: 128 256 15 15 (7372800)
I0830 12:56:10.236624 11353 net.cpp:165] Memory required for data: 165249536
I0830 12:56:10.236634 11353 layer_factory.hpp:77] Creating layer relu2
I0830 12:56:10.236639 11353 net.cpp:100] Creating Layer relu2
I0830 12:56:10.236642 11353 net.cpp:434] relu2 <- conv2
I0830 12:56:10.236649 11353 net.cpp:395] relu2 -> conv2 (in-place)
I0830 12:56:10.237130 11353 net.cpp:150] Setting up relu2
I0830 12:56:10.237145 11353 net.cpp:157] Top shape: 128 256 15 15 (7372800)
I0830 12:56:10.237149 11353 net.cpp:165] Memory required for data: 194740736
I0830 12:56:10.237151 11353 layer_factory.hpp:77] Creating layer pool2
I0830 12:56:10.237160 11353 net.cpp:100] Creating Layer pool2
I0830 12:56:10.237164 11353 net.cpp:434] pool2 <- conv2
I0830 12:56:10.237169 11353 net.cpp:408] pool2 -> pool2
I0830 12:56:10.237221 11353 net.cpp:150] Setting up pool2
I0830 12:56:10.237231 11353 net.cpp:157] Top shape: 128 256 7 7 (1605632)
I0830 12:56:10.237233 11353 net.cpp:165] Memory required for data: 201163264
I0830 12:56:10.237236 11353 layer_factory.hpp:77] Creating layer norm2
I0830 12:56:10.237244 11353 net.cpp:100] Creating Layer norm2
I0830 12:56:10.237248 11353 net.cpp:434] norm2 <- pool2
I0830 12:56:10.237253 11353 net.cpp:408] norm2 -> norm2
I0830 12:56:10.237465 11353 net.cpp:150] Setting up norm2
I0830 12:56:10.237476 11353 net.cpp:157] Top shape: 128 256 7 7 (1605632)
I0830 12:56:10.237478 11353 net.cpp:165] Memory required for data: 207585792
I0830 12:56:10.237481 11353 layer_factory.hpp:77] Creating layer conv3
I0830 12:56:10.237493 11353 net.cpp:100] Creating Layer conv3
I0830 12:56:10.237495 11353 net.cpp:434] conv3 <- norm2
I0830 12:56:10.237504 11353 net.cpp:408] conv3 -> conv3
I0830 12:56:10.250871 11353 net.cpp:150] Setting up conv3
I0830 12:56:10.250890 11353 net.cpp:157] Top shape: 128 384 7 7 (2408448)
I0830 12:56:10.250893 11353 net.cpp:165] Memory required for data: 217219584
I0830 12:56:10.250903 11353 layer_factory.hpp:77] Creating layer relu3
I0830 12:56:10.250910 11353 net.cpp:100] Creating Layer relu3
I0830 12:56:10.250913 11353 net.cpp:434] relu3 <- conv3
I0830 12:56:10.250918 11353 net.cpp:395] relu3 -> conv3 (in-place)
I0830 12:56:10.251117 11353 net.cpp:150] Setting up relu3
I0830 12:56:10.251129 11353 net.cpp:157] Top shape: 128 384 7 7 (2408448)
I0830 12:56:10.251132 11353 net.cpp:165] Memory required for data: 226853376
I0830 12:56:10.251135 11353 layer_factory.hpp:77] Creating layer conv4
I0830 12:56:10.251147 11353 net.cpp:100] Creating Layer conv4
I0830 12:56:10.251150 11353 net.cpp:434] conv4 <- conv3
I0830 12:56:10.251158 11353 net.cpp:408] conv4 -> conv4
I0830 12:56:10.262411 11353 net.cpp:150] Setting up conv4
I0830 12:56:10.262428 11353 net.cpp:157] Top shape: 128 384 7 7 (2408448)
I0830 12:56:10.262431 11353 net.cpp:165] Memory required for data: 236487168
I0830 12:56:10.262439 11353 layer_factory.hpp:77] Creating layer relu4
I0830 12:56:10.262445 11353 net.cpp:100] Creating Layer relu4
I0830 12:56:10.262449 11353 net.cpp:434] relu4 <- conv4
I0830 12:56:10.262455 11353 net.cpp:395] relu4 -> conv4 (in-place)
I0830 12:56:10.262658 11353 net.cpp:150] Setting up relu4
I0830 12:56:10.262671 11353 net.cpp:157] Top shape: 128 384 7 7 (2408448)
I0830 12:56:10.262673 11353 net.cpp:165] Memory required for data: 246120960
I0830 12:56:10.262677 11353 layer_factory.hpp:77] Creating layer conv5
I0830 12:56:10.262691 11353 net.cpp:100] Creating Layer conv5
I0830 12:56:10.262693 11353 net.cpp:434] conv5 <- conv4
I0830 12:56:10.262701 11353 net.cpp:408] conv5 -> conv5
I0830 12:56:10.271208 11353 net.cpp:150] Setting up conv5
I0830 12:56:10.271225 11353 net.cpp:157] Top shape: 128 256 7 7 (1605632)
I0830 12:56:10.271229 11353 net.cpp:165] Memory required for data: 252543488
I0830 12:56:10.271239 11353 layer_factory.hpp:77] Creating layer relu5
I0830 12:56:10.271245 11353 net.cpp:100] Creating Layer relu5
I0830 12:56:10.271248 11353 net.cpp:434] relu5 <- conv5
I0830 12:56:10.271255 11353 net.cpp:395] relu5 -> conv5 (in-place)
I0830 12:56:10.271457 11353 net.cpp:150] Setting up relu5
I0830 12:56:10.271469 11353 net.cpp:157] Top shape: 128 256 7 7 (1605632)
I0830 12:56:10.271472 11353 net.cpp:165] Memory required for data: 258966016
I0830 12:56:10.271476 11353 layer_factory.hpp:77] Creating layer pool5
I0830 12:56:10.271486 11353 net.cpp:100] Creating Layer pool5
I0830 12:56:10.271489 11353 net.cpp:434] pool5 <- conv5
I0830 12:56:10.271494 11353 net.cpp:408] pool5 -> pool5
I0830 12:56:10.271545 11353 net.cpp:150] Setting up pool5
I0830 12:56:10.271554 11353 net.cpp:157] Top shape: 128 256 3 3 (294912)
I0830 12:56:10.271556 11353 net.cpp:165] Memory required for data: 260145664
I0830 12:56:10.271560 11353 layer_factory.hpp:77] Creating layer fc6n
I0830 12:56:10.271572 11353 net.cpp:100] Creating Layer fc6n
I0830 12:56:10.271575 11353 net.cpp:434] fc6n <- pool5
I0830 12:56:10.271584 11353 net.cpp:408] fc6n -> fc6
I0830 12:56:10.402845 11353 net.cpp:150] Setting up fc6n
I0830 12:56:10.402885 11353 net.cpp:157] Top shape: 128 4096 (524288)
I0830 12:56:10.402889 11353 net.cpp:165] Memory required for data: 262242816
I0830 12:56:10.402901 11353 layer_factory.hpp:77] Creating layer relu6
I0830 12:56:10.402915 11353 net.cpp:100] Creating Layer relu6
I0830 12:56:10.402918 11353 net.cpp:434] relu6 <- fc6
I0830 12:56:10.402928 11353 net.cpp:395] relu6 -> fc6 (in-place)
I0830 12:56:10.403517 11353 net.cpp:150] Setting up relu6
I0830 12:56:10.403532 11353 net.cpp:157] Top shape: 128 4096 (524288)
I0830 12:56:10.403534 11353 net.cpp:165] Memory required for data: 264339968
I0830 12:56:10.403538 11353 layer_factory.hpp:77] Creating layer drop6
I0830 12:56:10.403548 11353 net.cpp:100] Creating Layer drop6
I0830 12:56:10.403551 11353 net.cpp:434] drop6 <- fc6
I0830 12:56:10.403556 11353 net.cpp:395] drop6 -> fc6 (in-place)
I0830 12:56:10.403584 11353 net.cpp:150] Setting up drop6
I0830 12:56:10.403590 11353 net.cpp:157] Top shape: 128 4096 (524288)
I0830 12:56:10.403594 11353 net.cpp:165] Memory required for data: 266437120
I0830 12:56:10.403596 11353 layer_factory.hpp:77] Creating layer fc7n
I0830 12:56:10.403605 11353 net.cpp:100] Creating Layer fc7n
I0830 12:56:10.403609 11353 net.cpp:434] fc7n <- fc6
I0830 12:56:10.403615 11353 net.cpp:408] fc7n -> fc7
I0830 12:56:10.634145 11353 net.cpp:150] Setting up fc7n
I0830 12:56:10.634196 11353 net.cpp:157] Top shape: 128 4096 (524288)
I0830 12:56:10.634199 11353 net.cpp:165] Memory required for data: 268534272
I0830 12:56:10.634212 11353 layer_factory.hpp:77] Creating layer relu7
I0830 12:56:10.634224 11353 net.cpp:100] Creating Layer relu7
I0830 12:56:10.634228 11353 net.cpp:434] relu7 <- fc7
I0830 12:56:10.634237 11353 net.cpp:395] relu7 -> fc7 (in-place)
I0830 12:56:10.634521 11353 net.cpp:150] Setting up relu7
I0830 12:56:10.634532 11353 net.cpp:157] Top shape: 128 4096 (524288)
I0830 12:56:10.634536 11353 net.cpp:165] Memory required for data: 270631424
I0830 12:56:10.634538 11353 layer_factory.hpp:77] Creating layer drop7
I0830 12:56:10.634546 11353 net.cpp:100] Creating Layer drop7
I0830 12:56:10.634549 11353 net.cpp:434] drop7 <- fc7
I0830 12:56:10.634558 11353 net.cpp:395] drop7 -> fc7 (in-place)
I0830 12:56:10.634583 11353 net.cpp:150] Setting up drop7
I0830 12:56:10.634589 11353 net.cpp:157] Top shape: 128 4096 (524288)
I0830 12:56:10.634593 11353 net.cpp:165] Memory required for data: 272728576
I0830 12:56:10.634595 11353 layer_factory.hpp:77] Creating layer fc8n
I0830 12:56:10.634605 11353 net.cpp:100] Creating Layer fc8n
I0830 12:56:10.634608 11353 net.cpp:434] fc8n <- fc7
I0830 12:56:10.634613 11353 net.cpp:408] fc8n -> fc8
I0830 12:56:10.636258 11353 net.cpp:150] Setting up fc8n
I0830 12:56:10.636271 11353 net.cpp:157] Top shape: 128 3 (384)
I0830 12:56:10.636274 11353 net.cpp:165] Memory required for data: 272730112
I0830 12:56:10.636281 11353 layer_factory.hpp:77] Creating layer loss
I0830 12:56:10.636287 11353 net.cpp:100] Creating Layer loss
I0830 12:56:10.636291 11353 net.cpp:434] loss <- fc8
I0830 12:56:10.636296 11353 net.cpp:434] loss <- label
I0830 12:56:10.636303 11353 net.cpp:408] loss -> loss
I0830 12:56:10.636312 11353 layer_factory.hpp:77] Creating layer loss
…
I0830 12:56:10.637159 11353 net.cpp:322] The NetState phase (1) differed from the phase (0) specified by a rule in layer data
I0830 12:56:10.637337 11353 net.cpp:58] Initializing net from parameters: 
name: "CaffeNet"
state {
  phase: TEST
}
layer {
  name: "data"
  type: "Data"
  top: "data"
  top: "label"
  include {
    phase: TEST
  }
  transform_param {
    scale: 0.00390625
    mean_file: "data/person_only_lmdb/person_vs_background_vs_random_color_mean.binaryproto"
  }
  data_param {
    source: "data/person_only_lmdb/person_vs_background_vs_random_test_lmdb"
    batch_size: 100
    backend: LMDB
  }
}
layer {
  name: "conv1"
  type: "Convolution"
  bottom: "data"
  top: "conv1"
  param {
    lr_mult: 1
    decay_mult: 1
  }
  param {
    lr_mult: 2
    decay_mult: 0
  }
  convolution_param {
    num_output: 96
    kernel_size: 11
    stride: 4
    weight_filler {
      type: "gaussian"
      std: 0.01
    }
    bias_filler {
      type: "constant"
      value: 0
    }
  }
}
layer {
  name: "relu1"
  type: "ReLU"
  bottom: "conv1"
  top: "conv1"
}
layer {
  name: "pool1"
  type: "Pooling"
  bottom: "conv1"
  top: "pool1"
  pooling_param {
    pool: MAX
    kernel_size: 3
    stride: 2
  }
}
layer {
  name: "norm1"
  type: "LRN"
  bottom: "pool1"
  top: "norm1"
  lrn_param {
    local_size: 5
    alpha: 0.0001
    beta: 0.75
  }
}
layer {
  name: "conv2"
  type: "Convolution"
  bottom: "norm1"
  top: "conv2"
  param {
    lr_mult: 1
    decay_mult: 1
  }
  param {
    lr_mult: 2
    decay_mult: 0
  }
  convolution_param {
    num_output: 256
    pad: 2
    kernel_size: 5
    group: 2
    weight_filler {
      type: "gaussian"
      std: 0.01
    }
    bias_filler {
      type: "constant"
      value: 0.1
    }
  }
}
layer {
  name: "relu2"
  type: "ReLU"
  bottom: "conv2"
  top: "conv2"
}
layer {
  name: "pool2"
  type: "Pooling"
  bottom: "conv2"
  top: "pool2"
  pooling_param {
    pool: MAX
    kernel_size: 3
    stride: 2
  }
}
layer {
  name: "norm2"
  type: "LRN"
  bottom: "pool2"
  top: "norm2"
  lrn_param {
    local_size: 5
    alpha: 0.0001
    beta: 0.75
  }
}
layer {
  name: "conv3"
  type: "Convolution"
  bottom: "norm2"
  top: "conv3"
  param {
    lr_mult: 1
    decay_mult: 1
  }
  param {
    lr_mult: 2
    decay_mult: 0
  }
  convolution_param {
    num_output: 384
    pad: 1
    kernel_size: 3
    weight_filler {
      type: "gaussian"
      std: 0.01
    }
    bias_filler {
      type: "constant"
      value: 0
    }
  }
}
layer {
  name: "relu3"
  type: "ReLU"
  bottom: "conv3"
  top: "conv3"
}
layer {
  name: "conv4"
  type: "Convolution"
  bottom: "conv3"
  top: "conv4"
  param {
    lr_mult: 1
    decay_mult: 1
  }
  param {
    lr_mult: 2
    decay_mult: 0
  }
  convolution_param {
    num_output: 384
    pad: 1
    kernel_size: 3
    group: 2
    weight_filler {
      type: "gaussian"
      std: 0.01
    }
    bias_filler {
      type: "constant"
      value: 0.1
    }
  }
}
layer {
  name: "relu4"
  type: "ReLU"
  bottom: "conv4"
  top: "conv4"
}
layer {
  name: "conv5"
  type: "Convolution"
  bottom: "conv4"
  top: "conv5"
  param {
    lr_mult: 1
    decay_mult: 1
  }
  param {
    lr_mult: 2
    decay_mult: 0
  }
  convolution_param {
    num_output: 256
    pad: 1
    kernel_size: 3
    group: 2
    weight_filler {
      type: "gaussian"
      std: 0.01
    }
    bias_filler {
      type: "constant"
      value: 0.1
    }
  }
}
layer {
  name: "relu5"
  type: "ReLU"
  bottom: "conv5"
  top: "conv5"
}
layer {
  name: "pool5"
  type: "Pooling"
  bottom: "conv5"
  top: "pool5"
  pooling_param {
    pool: MAX
    kernel_size: 3
    stride: 2
  }
}
layer {
  name: "fc6n"
  type: "InnerProduct"
  bottom: "pool5"
  top: "fc6"
  param {
    lr_mult: 1
    decay_mult: 1
  }
  param {
    lr_mult: 2
    decay_mult: 0
  }
  inner_product_param {
    num_output: 4096
    weight_filler {
      type: "gaussian"
      std: 0.005
    }
    bias_filler {
      type: "constant"
      value: 0.1
    }
  }
}
layer {
  name: "relu6"
  type: "ReLU"
  bottom: "fc6"
  top: "fc6"
}
layer {
  name: "drop6"
  type: "Dropout"
  bottom: "fc6"
  top: "fc6"
  dropout_param {
    dropout_ratio: 0.5
  }
}
layer {
  name: "fc7n"
  type: "InnerProduct"
  bottom: "fc6"
  top: "fc7"
  param {
    lr_mult: 1
    decay_mult: 1
  }
  param {
    lr_mult: 2
    decay_mult: 0
  }
  inner_product_param {
    num_output: 4096
    weight_filler {
      type: "gaussian"
      std: 0.005
    }
    bias_filler {
      type: "constant"
      value: 0.1
    }
  }
}
layer {
  name: "relu7"
  type: "ReLU"
  bottom: "fc7"
  top: "fc7"
}
layer {
  name: "drop7"
  type: "Dropout"
  bottom: "fc7"
  top: "fc7"
  dropout_param {
    dropout_ratio: 0.5
  }
}
layer {
  name: "fc8n"
  type: "InnerProduct"
  bottom: "fc7"
  top: "fc8"
  param {
    lr_mult: 1
    decay_mult: 1
  }
  param {
    lr_mult: 2
    decay_mult: 0
  }
  inner_product_param {
    num_output: 3
    weight_filler {
      type: "gaussian"
      std: 0.01
    }
    bias_filler {
      type: "constant"
      value: 0
    }
  }
}
layer {
  name: "accuracy"
  type: "Accuracy"
  bottom: "fc8"
  bottom: "label"
  top: "accuracy"
  include {
    phase: TEST
  }
}
layer {
  name: "loss"
  type: "SoftmaxWithLoss"
  bottom: "fc8"
  bottom: "label"
  top: "loss"
}
I0830 12:56:10.637450 11353 layer_factory.hpp:77] Creating layer data
I0830 12:56:10.637599 11353 net.cpp:100] Creating Layer data
I0830 12:56:10.637611 11353 net.cpp:408] data -> data
I0830 12:56:10.637620 11353 net.cpp:408] data -> label
I0830 12:56:10.637629 11353 data_transformer.cpp:25] Loading mean file from: data/person_only_lmdb/person_vs_background_vs_random_color_mean.binaryproto
I0830 12:56:10.639135 11370 db_lmdb.cpp:35] Opened lmdb data/person_only_lmdb/person_vs_background_vs_random_test_lmdb
I0830 12:56:10.639525 11353 data_layer.cpp:41] output data size: 100,3,128,128
I0830 12:56:10.695804 11353 net.cpp:150] Setting up data
I0830 12:56:10.695844 11353 net.cpp:157] Top shape: 100 3 128 128 (4915200)
I0830 12:56:10.695852 11353 net.cpp:157] Top shape: 100 (100)
I0830 12:56:10.695855 11353 net.cpp:165] Memory required for data: 19661200
I0830 12:56:10.695863 11353 layer_factory.hpp:77] Creating layer label_data_1_split
I0830 12:56:10.695883 11353 net.cpp:100] Creating Layer label_data_1_split
I0830 12:56:10.695889 11353 net.cpp:434] label_data_1_split <- label
I0830 12:56:10.695900 11353 net.cpp:408] label_data_1_split -> label_data_1_split_0
I0830 12:56:10.695916 11353 net.cpp:408] label_data_1_split -> label_data_1_split_1
I0830 12:56:10.696152 11353 net.cpp:150] Setting up label_data_1_split
I0830 12:56:10.696184 11353 net.cpp:157] Top shape: 100 (100)
I0830 12:56:10.696192 11353 net.cpp:157] Top shape: 100 (100)
I0830 12:56:10.696197 11353 net.cpp:165] Memory required for data: 19662000
I0830 12:56:10.696202 11353 layer_factory.hpp:77] Creating layer conv1
I0830 12:56:10.696225 11353 net.cpp:100] Creating Layer conv1
I0830 12:56:10.696233 11353 net.cpp:434] conv1 <- data
I0830 12:56:10.696244 11353 net.cpp:408] conv1 -> conv1
I0830 12:56:10.700935 11353 net.cpp:150] Setting up conv1
I0830 12:56:10.700966 11353 net.cpp:157] Top shape: 100 96 30 30 (8640000)
I0830 12:56:10.700973 11353 net.cpp:165] Memory required for data: 54222000
I0830 12:56:10.700992 11353 layer_factory.hpp:77] Creating layer relu1
I0830 12:56:10.701006 11353 net.cpp:100] Creating Layer relu1
I0830 12:56:10.701014 11353 net.cpp:434] relu1 <- conv1
I0830 12:56:10.701025 11353 net.cpp:395] relu1 -> conv1 (in-place)
I0830 12:56:10.701371 11353 net.cpp:150] Setting up relu1
I0830 12:56:10.701390 11353 net.cpp:157] Top shape: 100 96 30 30 (8640000)
I0830 12:56:10.701395 11353 net.cpp:165] Memory required for data: 88782000
I0830 12:56:10.701400 11353 layer_factory.hpp:77] Creating layer pool1
I0830 12:56:10.701417 11353 net.cpp:100] Creating Layer pool1
I0830 12:56:10.701426 11353 net.cpp:434] pool1 <- conv1
I0830 12:56:10.701436 11353 net.cpp:408] pool1 -> pool1
I0830 12:56:10.701524 11353 net.cpp:150] Setting up pool1
I0830 12:56:10.701555 11353 net.cpp:157] Top shape: 100 96 15 15 (2160000)
I0830 12:56:10.701563 11353 net.cpp:165] Memory required for data: 97422000
I0830 12:56:10.701570 11353 layer_factory.hpp:77] Creating layer norm1
I0830 12:56:10.701581 11353 net.cpp:100] Creating Layer norm1
I0830 12:56:10.701587 11353 net.cpp:434] norm1 <- pool1
I0830 12:56:10.701596 11353 net.cpp:408] norm1 -> norm1
I0830 12:56:10.702522 11353 net.cpp:150] Setting up norm1
I0830 12:56:10.702548 11353 net.cpp:157] Top shape: 100 96 15 15 (2160000)
I0830 12:56:10.702553 11353 net.cpp:165] Memory required for data: 106062000
I0830 12:56:10.702558 11353 layer_factory.hpp:77] Creating layer conv2
I0830 12:56:10.702576 11353 net.cpp:100] Creating Layer conv2
I0830 12:56:10.702582 11353 net.cpp:434] conv2 <- norm1
I0830 12:56:10.702594 11353 net.cpp:408] conv2 -> conv2
I0830 12:56:10.714642 11353 net.cpp:150] Setting up conv2
I0830 12:56:10.714673 11353 net.cpp:157] Top shape: 100 256 15 15 (5760000)
I0830 12:56:10.714681 11353 net.cpp:165] Memory required for data: 129102000
I0830 12:56:10.714699 11353 layer_factory.hpp:77] Creating layer relu2
I0830 12:56:10.714714 11353 net.cpp:100] Creating Layer relu2
I0830 12:56:10.714720 11353 net.cpp:434] relu2 <- conv2
I0830 12:56:10.714730 11353 net.cpp:395] relu2 -> conv2 (in-place)
I0830 12:56:10.715641 11353 net.cpp:150] Setting up relu2
I0830 12:56:10.715667 11353 net.cpp:157] Top shape: 100 256 15 15 (5760000)
I0830 12:56:10.715672 11353 net.cpp:165] Memory required for data: 152142000
I0830 12:56:10.715678 11353 layer_factory.hpp:77] Creating layer pool2
I0830 12:56:10.715694 11353 net.cpp:100] Creating Layer pool2
I0830 12:56:10.715700 11353 net.cpp:434] pool2 <- conv2
I0830 12:56:10.715714 11353 net.cpp:408] pool2 -> pool2
I0830 12:56:10.715821 11353 net.cpp:150] Setting up pool2
I0830 12:56:10.715837 11353 net.cpp:157] Top shape: 100 256 7 7 (1254400)
I0830 12:56:10.715845 11353 net.cpp:165] Memory required for data: 157159600
I0830 12:56:10.715850 11353 layer_factory.hpp:77] Creating layer norm2
I0830 12:56:10.715865 11353 net.cpp:100] Creating Layer norm2
I0830 12:56:10.715873 11353 net.cpp:434] norm2 <- pool2
I0830 12:56:10.715883 11353 net.cpp:408] norm2 -> norm2
I0830 12:56:10.716310 11353 net.cpp:150] Setting up norm2
I0830 12:56:10.716328 11353 net.cpp:157] Top shape: 100 256 7 7 (1254400)
I0830 12:56:10.716334 11353 net.cpp:165] Memory required for data: 162177200
I0830 12:56:10.716339 11353 layer_factory.hpp:77] Creating layer conv3
I0830 12:56:10.716361 11353 net.cpp:100] Creating Layer conv3
I0830 12:56:10.716367 11353 net.cpp:434] conv3 <- norm2
I0830 12:56:10.716378 11353 net.cpp:408] conv3 -> conv3
I0830 12:56:10.740393 11353 net.cpp:150] Setting up conv3
I0830 12:56:10.740437 11353 net.cpp:157] Top shape: 100 384 7 7 (1881600)
I0830 12:56:10.740442 11353 net.cpp:165] Memory required for data: 169703600
I0830 12:56:10.740463 11353 layer_factory.hpp:77] Creating layer relu3
I0830 12:56:10.740478 11353 net.cpp:100] Creating Layer relu3
I0830 12:56:10.740484 11353 net.cpp:434] relu3 <- conv3
I0830 12:56:10.740499 11353 net.cpp:395] relu3 -> conv3 (in-place)
I0830 12:56:10.740854 11353 net.cpp:150] Setting up relu3
I0830 12:56:10.740871 11353 net.cpp:157] Top shape: 100 384 7 7 (1881600)
I0830 12:56:10.740876 11353 net.cpp:165] Memory required for data: 177230000
I0830 12:56:10.740881 11353 layer_factory.hpp:77] Creating layer conv4
I0830 12:56:10.740900 11353 net.cpp:100] Creating Layer conv4
I0830 12:56:10.740906 11353 net.cpp:434] conv4 <- conv3
I0830 12:56:10.740918 11353 net.cpp:408] conv4 -> conv4
I0830 12:56:10.759793 11353 net.cpp:150] Setting up conv4
I0830 12:56:10.759831 11353 net.cpp:157] Top shape: 100 384 7 7 (1881600)
I0830 12:56:10.759837 11353 net.cpp:165] Memory required for data: 184756400
I0830 12:56:10.759851 11353 layer_factory.hpp:77] Creating layer relu4
I0830 12:56:10.759866 11353 net.cpp:100] Creating Layer relu4
I0830 12:56:10.759872 11353 net.cpp:434] relu4 <- conv4
I0830 12:56:10.759883 11353 net.cpp:395] relu4 -> conv4 (in-place)
I0830 12:56:10.760691 11353 net.cpp:150] Setting up relu4
I0830 12:56:10.760713 11353 net.cpp:157] Top shape: 100 384 7 7 (1881600)
I0830 12:56:10.760718 11353 net.cpp:165] Memory required for data: 192282800
I0830 12:56:10.760723 11353 layer_factory.hpp:77] Creating layer conv5
I0830 12:56:10.760746 11353 net.cpp:100] Creating Layer conv5
I0830 12:56:10.760751 11353 net.cpp:434] conv5 <- conv4
I0830 12:56:10.760761 11353 net.cpp:408] conv5 -> conv5
I0830 12:56:10.775315 11353 net.cpp:150] Setting up conv5
I0830 12:56:10.775348 11353 net.cpp:157] Top shape: 100 256 7 7 (1254400)
I0830 12:56:10.775354 11353 net.cpp:165] Memory required for data: 197300400
I0830 12:56:10.775373 11353 layer_factory.hpp:77] Creating layer relu5
I0830 12:56:10.775387 11353 net.cpp:100] Creating Layer relu5
I0830 12:56:10.775391 11353 net.cpp:434] relu5 <- conv5
I0830 12:56:10.775401 11353 net.cpp:395] relu5 -> conv5 (in-place)
I0830 12:56:10.775717 11353 net.cpp:150] Setting up relu5
I0830 12:56:10.775733 11353 net.cpp:157] Top shape: 100 256 7 7 (1254400)
I0830 12:56:10.775738 11353 net.cpp:165] Memory required for data: 202318000
I0830 12:56:10.775741 11353 layer_factory.hpp:77] Creating layer pool5
I0830 12:56:10.775760 11353 net.cpp:100] Creating Layer pool5
I0830 12:56:10.775765 11353 net.cpp:434] pool5 <- conv5
I0830 12:56:10.775774 11353 net.cpp:408] pool5 -> pool5
I0830 12:56:10.775853 11353 net.cpp:150] Setting up pool5
I0830 12:56:10.775867 11353 net.cpp:157] Top shape: 100 256 3 3 (230400)
I0830 12:56:10.775871 11353 net.cpp:165] Memory required for data: 203239600
I0830 12:56:10.775876 11353 layer_factory.hpp:77] Creating layer fc6n
I0830 12:56:10.775887 11353 net.cpp:100] Creating Layer fc6n
I0830 12:56:10.775893 11353 net.cpp:434] fc6n <- pool5
I0830 12:56:10.775903 11353 net.cpp:408] fc6n -> fc6
I0830 12:56:10.918645 11353 net.cpp:150] Setting up fc6n
I0830 12:56:10.918689 11353 net.cpp:157] Top shape: 100 4096 (409600)
I0830 12:56:10.918691 11353 net.cpp:165] Memory required for data: 204878000
I0830 12:56:10.918704 11353 layer_factory.hpp:77] Creating layer relu6
I0830 12:56:10.918717 11353 net.cpp:100] Creating Layer relu6
I0830 12:56:10.918722 11353 net.cpp:434] relu6 <- fc6
I0830 12:56:10.918730 11353 net.cpp:395] relu6 -> fc6 (in-place)
I0830 12:56:10.919010 11353 net.cpp:150] Setting up relu6
I0830 12:56:10.919023 11353 net.cpp:157] Top shape: 100 4096 (409600)
I0830 12:56:10.919025 11353 net.cpp:165] Memory required for data: 206516400
I0830 12:56:10.919028 11353 layer_factory.hpp:77] Creating layer drop6
I0830 12:56:10.919037 11353 net.cpp:100] Creating Layer drop6
I0830 12:56:10.919040 11353 net.cpp:434] drop6 <- fc6
I0830 12:56:10.919045 11353 net.cpp:395] drop6 -> fc6 (in-place)
I0830 12:56:10.919082 11353 net.cpp:150] Setting up drop6
I0830 12:56:10.919091 11353 net.cpp:157] Top shape: 100 4096 (409600)
I0830 12:56:10.919095 11353 net.cpp:165] Memory required for data: 208154800
I0830 12:56:10.919097 11353 layer_factory.hpp:77] Creating layer fc7n
I0830 12:56:10.919113 11353 net.cpp:100] Creating Layer fc7n
I0830 12:56:10.919117 11353 net.cpp:434] fc7n <- fc6
I0830 12:56:10.919122 11353 net.cpp:408] fc7n -> fc7
I0830 12:56:11.149547 11353 net.cpp:150] Setting up fc7n
I0830 12:56:11.149596 11353 net.cpp:157] Top shape: 100 4096 (409600)
I0830 12:56:11.149600 11353 net.cpp:165] Memory required for data: 209793200
I0830 12:56:11.149611 11353 layer_factory.hpp:77] Creating layer relu7
I0830 12:56:11.149626 11353 net.cpp:100] Creating Layer relu7
I0830 12:56:11.149629 11353 net.cpp:434] relu7 <- fc7
I0830 12:56:11.149636 11353 net.cpp:395] relu7 -> fc7 (in-place)
I0830 12:56:11.150396 11353 net.cpp:150] Setting up relu7
I0830 12:56:11.150411 11353 net.cpp:157] Top shape: 100 4096 (409600)
I0830 12:56:11.150414 11353 net.cpp:165] Memory required for data: 211431600
I0830 12:56:11.150418 11353 layer_factory.hpp:77] Creating layer drop7
I0830 12:56:11.150426 11353 net.cpp:100] Creating Layer drop7
I0830 12:56:11.150429 11353 net.cpp:434] drop7 <- fc7
I0830 12:56:11.150439 11353 net.cpp:395] drop7 -> fc7 (in-place)
I0830 12:56:11.150476 11353 net.cpp:150] Setting up drop7
I0830 12:56:11.150485 11353 net.cpp:157] Top shape: 100 4096 (409600)
I0830 12:56:11.150486 11353 net.cpp:165] Memory required for data: 213070000
I0830 12:56:11.150490 11353 layer_factory.hpp:77] Creating layer fc8n
I0830 12:56:11.150501 11353 net.cpp:100] Creating Layer fc8n
I0830 12:56:11.150504 11353 net.cpp:434] fc8n <- fc7
I0830 12:56:11.150511 11353 net.cpp:408] fc8n -> fc8
I0830 12:56:11.150805 11353 net.cpp:150] Setting up fc8n
I0830 12:56:11.150815 11353 net.cpp:157] Top shape: 100 3 (300)
I0830 12:56:11.150816 11353 net.cpp:165] Memory required for data: 213071200
I0830 12:56:11.150823 11353 layer_factory.hpp:77] Creating layer fc8_fc8n_0_split
I0830 12:56:11.150833 11353 net.cpp:100] Creating Layer fc8_fc8n_0_split
I0830 12:56:11.150835 11353 net.cpp:434] fc8_fc8n_0_split <- fc8
I0830 12:56:11.150842 11353 net.cpp:408] fc8_fc8n_0_split -> fc8_fc8n_0_split_0
I0830 12:56:11.150849 11353 net.cpp:408] fc8_fc8n_0_split -> fc8_fc8n_0_split_1
I0830 12:56:11.150892 11353 net.cpp:150] Setting up fc8_fc8n_0_split
I0830 12:56:11.150900 11353 net.cpp:157] Top shape: 100 3 (300)
I0830 12:56:11.150903 11353 net.cpp:157] Top shape: 100 3 (300)
I0830 12:56:11.150905 11353 net.cpp:165] Memory required for data: 213073600
I0830 12:56:11.150908 11353 layer_factory.hpp:77] Creating layer accuracy
I0830 12:56:11.150915 11353 net.cpp:100] Creating Layer accuracy
I0830 12:56:11.150918 11353 net.cpp:434] accuracy <- fc8_fc8n_0_split_0
I0830 12:56:11.150923 11353 net.cpp:434] accuracy <- label_data_1_split_0
I0830 12:56:11.150928 11353 net.cpp:408] accuracy -> accuracy
…
