…
I0904 22:30:29.197746 24016 net.cpp:322] The NetState phase (0) differed from the phase (1) specified by a rule in layer accuracy
I0904 22:30:29.197927 24016 net.cpp:58] Initializing net from parameters: 
name: "AlexNet"
state {
  phase: TRAIN
  level: 0
  stage: ""
}
layer {
  name: "mnist"
  type: "Data"
  top: "data"
  top: "label"
  include {
    phase: TRAIN
  }
  transform_param {
    scale: 0.00390625
    mean_file: "data/person_only_lmdb/person_vs_background_vs_random_color_mean.binaryproto"
  }
  data_param {
    source: "data/person_only_lmdb/person_vs_background_vs_random_train_lmdb"
    batch_size: 128
    backend: LMDB
  }
}
layer {
  name: "conv1"
  type: "Convolution"
  bottom: "data"
  top: "conv1"
  param {
    lr_mult: 1
    decay_mult: 1
  }
  param {
    lr_mult: 2
    decay_mult: 0
  }
  convolution_param {
    num_output: 96
    kernel_size: 11
    stride: 4
    weight_filler {
      type: "gaussian"
      std: 0.01
    }
    bias_filler {
      type: "constant"
      value: 0
    }
  }
}
layer {
  name: "relu1"
  type: "ReLU"
  bottom: "conv1"
  top: "conv1"
}
layer {
  name: "norm1"
  type: "LRN"
  bottom: "conv1"
  top: "norm1"
  lrn_param {
    local_size: 5
    alpha: 0.0001
    beta: 0.75
  }
}
layer {
  name: "pool1"
  type: "Pooling"
  bottom: "norm1"
  top: "pool1"
  pooling_param {
    pool: MAX
    kernel_size: 3
    stride: 2
  }
}
layer {
  name: "conv2"
  type: "Convolution"
  bottom: "pool1"
  top: "conv2"
  param {
    lr_mult: 1
    decay_mult: 1
  }
  param {
    lr_mult: 2
    decay_mult: 0
  }
  convolution_param {
    num_output: 256
    pad: 2
    kernel_size: 5
    group: 2
    weight_filler {
      type: "gaussian"
      std: 0.01
    }
    bias_filler {
      type: "constant"
      value: 0.1
    }
  }
}
layer {
  name: "relu2"
  type: "ReLU"
  bottom: "conv2"
  top: "conv2"
}
layer {
  name: "norm2"
  type: "LRN"
  bottom: "conv2"
  top: "norm2"
  lrn_param {
    local_size: 5
    alpha: 0.0001
    beta: 0.75
  }
}
layer {
  name: "pool2"
  type: "Pooling"
  bottom: "norm2"
  top: "pool2"
  pooling_param {
    pool: MAX
    kernel_size: 3
    stride: 2
  }
}
layer {
  name: "conv3"
  type: "Convolution"
  bottom: "pool2"
  top: "conv3"
  param {
    lr_mult: 1
    decay_mult: 1
  }
  param {
    lr_mult: 2
    decay_mult: 0
  }
  convolution_param {
    num_output: 384
    pad: 1
    kernel_size: 3
    weight_filler {
      type: "gaussian"
      std: 0.01
    }
    bias_filler {
      type: "constant"
      value: 0
    }
  }
}
layer {
  name: "relu3"
  type: "ReLU"
  bottom: "conv3"
  top: "conv3"
}
layer {
  name: "conv4"
  type: "Convolution"
  bottom: "conv3"
  top: "conv4"
  param {
    lr_mult: 1
    decay_mult: 1
  }
  param {
    lr_mult: 2
    decay_mult: 0
  }
  convolution_param {
    num_output: 384
    pad: 1
    kernel_size: 3
    group: 2
    weight_filler {
      type: "gaussian"
      std: 0.01
    }
    bias_filler {
      type: "constant"
      value: 0.1
    }
  }
}
layer {
  name: "relu4"
  type: "ReLU"
  bottom: "conv4"
  top: "conv4"
}
layer {
  name: "conv5"
  type: "Convolution"
  bottom: "conv4"
  top: "conv5"
  param {
    lr_mult: 1
    decay_mult: 1
  }
  param {
    lr_mult: 2
    decay_mult: 0
  }
  convolution_param {
    num_output: 256
    pad: 1
    kernel_size: 3
    group: 2
    weight_filler {
      type: "gaussian"
      std: 0.01
    }
    bias_filler {
      type: "constant"
      value: 0.1
    }
  }
}
layer {
  name: "relu5"
  type: "ReLU"
  bottom: "conv5"
  top: "conv5"
}
layer {
  name: "pool5"
  type: "Pooling"
  bottom: "conv5"
  top: "pool5"
  pooling_param {
    pool: MAX
    kernel_size: 3
    stride: 2
  }
}
layer {
  name: "fc6new"
  type: "InnerProduct"
  bottom: "pool5"
  top: "fc6"
  param {
    lr_mult: 1
    decay_mult: 1
  }
  param {
    lr_mult: 2
    decay_mult: 0
  }
  inner_product_param {
    num_output: 4096
    weight_filler {
      type: "gaussian"
      std: 0.005
    }
    bias_filler {
      type: "constant"
      value: 0.1
    }
  }
}
layer {
  name: "relu6"
  type: "ReLU"
  bottom: "fc6"
  top: "fc6"
}
layer {
  name: "drop6"
  type: "Dropout"
  bottom: "fc6"
  top: "fc6"
  dropout_param {
    dropout_ratio: 0.5
  }
}
layer {
  name: "fc7new"
  type: "InnerProduct"
  bottom: "fc6"
  top: "fc7"
  param {
    lr_mult: 1
    decay_mult: 1
  }
  param {
    lr_mult: 2
    decay_mult: 0
  }
  inner_product_param {
    num_output: 4096
    weight_filler {
      type: "gaussian"
      std: 0.005
    }
    bias_filler {
      type: "constant"
      value: 0.1
    }
  }
}
layer {
  name: "relu7"
  type: "ReLU"
  bottom: "fc7"
  top: "fc7"
}
layer {
  name: "drop7"
  type: "Dropout"
  bottom: "fc7"
  top: "fc7"
  dropout_param {
    dropout_ratio: 0.5
  }
}
layer {
  name: "fc8new"
  type: "InnerProduct"
  bottom: "fc7"
  top: "fc8"
  param {
    lr_mult: 1
    decay_mult: 1
  }
  param {
    lr_mult: 2
    decay_mult: 0
  }
  inner_product_param {
    num_output: 3
    weight_filler {
      type: "gaussian"
      std: 0.01
    }
    bias_filler {
      type: "constant"
      value: 0
    }
  }
}
layer {
  name: "loss"
  type: "SoftmaxWithLoss"
  bottom: "fc8"
  bottom: "label"
  top: "loss"
}
I0904 22:30:29.198078 24016 layer_factory.hpp:77] Creating layer mnist
I0904 22:30:29.198756 24016 net.cpp:100] Creating Layer mnist
I0904 22:30:29.198777 24016 net.cpp:408] mnist -> data
I0904 22:30:29.198925 24016 net.cpp:408] mnist -> label
I0904 22:30:29.199009 24016 data_transformer.cpp:25] Loading mean file from: data/person_only_lmdb/person_vs_background_vs_random_color_mean.binaryproto
I0904 22:30:29.200484 24025 db_lmdb.cpp:35] Opened lmdb data/person_only_lmdb/person_vs_background_vs_random_train_lmdb
I0904 22:30:29.227031 24016 data_layer.cpp:41] output data size: 128,3,128,128
I0904 22:30:29.277477 24016 net.cpp:150] Setting up mnist
I0904 22:30:29.277613 24016 net.cpp:157] Top shape: 128 3 128 128 (6291456)
I0904 22:30:29.277649 24016 net.cpp:157] Top shape: 128 (128)
I0904 22:30:29.277659 24016 net.cpp:165] Memory required for data: 25166336
I0904 22:30:29.277678 24016 layer_factory.hpp:77] Creating layer conv1
I0904 22:30:29.277715 24016 net.cpp:100] Creating Layer conv1
I0904 22:30:29.277730 24016 net.cpp:434] conv1 <- data
I0904 22:30:29.277763 24016 net.cpp:408] conv1 -> conv1
I0904 22:30:29.582855 24016 net.cpp:150] Setting up conv1
I0904 22:30:29.582918 24016 net.cpp:157] Top shape: 128 96 30 30 (11059200)
I0904 22:30:29.582926 24016 net.cpp:165] Memory required for data: 69403136
I0904 22:30:29.582955 24016 layer_factory.hpp:77] Creating layer relu1
I0904 22:30:29.582998 24016 net.cpp:100] Creating Layer relu1
I0904 22:30:29.583004 24016 net.cpp:434] relu1 <- conv1
I0904 22:30:29.583012 24016 net.cpp:395] relu1 -> conv1 (in-place)
I0904 22:30:29.583220 24016 net.cpp:150] Setting up relu1
I0904 22:30:29.583235 24016 net.cpp:157] Top shape: 128 96 30 30 (11059200)
I0904 22:30:29.583242 24016 net.cpp:165] Memory required for data: 113639936
I0904 22:30:29.583247 24016 layer_factory.hpp:77] Creating layer norm1
I0904 22:30:29.583271 24016 net.cpp:100] Creating Layer norm1
I0904 22:30:29.583277 24016 net.cpp:434] norm1 <- conv1
I0904 22:30:29.583283 24016 net.cpp:408] norm1 -> norm1
I0904 22:30:29.583787 24016 net.cpp:150] Setting up norm1
I0904 22:30:29.583822 24016 net.cpp:157] Top shape: 128 96 30 30 (11059200)
I0904 22:30:29.583828 24016 net.cpp:165] Memory required for data: 157876736
I0904 22:30:29.583833 24016 layer_factory.hpp:77] Creating layer pool1
I0904 22:30:29.583853 24016 net.cpp:100] Creating Layer pool1
I0904 22:30:29.583858 24016 net.cpp:434] pool1 <- norm1
I0904 22:30:29.583886 24016 net.cpp:408] pool1 -> pool1
I0904 22:30:29.583945 24016 net.cpp:150] Setting up pool1
I0904 22:30:29.583956 24016 net.cpp:157] Top shape: 128 96 15 15 (2764800)
I0904 22:30:29.583961 24016 net.cpp:165] Memory required for data: 168935936
I0904 22:30:29.583966 24016 layer_factory.hpp:77] Creating layer conv2
I0904 22:30:29.583986 24016 net.cpp:100] Creating Layer conv2
I0904 22:30:29.583992 24016 net.cpp:434] conv2 <- pool1
I0904 22:30:29.583998 24016 net.cpp:408] conv2 -> conv2
I0904 22:30:29.597652 24016 net.cpp:150] Setting up conv2
I0904 22:30:29.597671 24016 net.cpp:157] Top shape: 128 256 15 15 (7372800)
I0904 22:30:29.597676 24016 net.cpp:165] Memory required for data: 198427136
I0904 22:30:29.597687 24016 layer_factory.hpp:77] Creating layer relu2
I0904 22:30:29.597694 24016 net.cpp:100] Creating Layer relu2
I0904 22:30:29.597699 24016 net.cpp:434] relu2 <- conv2
I0904 22:30:29.597707 24016 net.cpp:395] relu2 -> conv2 (in-place)
I0904 22:30:29.598186 24016 net.cpp:150] Setting up relu2
I0904 22:30:29.598203 24016 net.cpp:157] Top shape: 128 256 15 15 (7372800)
I0904 22:30:29.598208 24016 net.cpp:165] Memory required for data: 227918336
I0904 22:30:29.598212 24016 layer_factory.hpp:77] Creating layer norm2
I0904 22:30:29.598222 24016 net.cpp:100] Creating Layer norm2
I0904 22:30:29.598227 24016 net.cpp:434] norm2 <- conv2
I0904 22:30:29.598235 24016 net.cpp:408] norm2 -> norm2
I0904 22:30:29.598455 24016 net.cpp:150] Setting up norm2
I0904 22:30:29.598470 24016 net.cpp:157] Top shape: 128 256 15 15 (7372800)
I0904 22:30:29.598474 24016 net.cpp:165] Memory required for data: 257409536
I0904 22:30:29.598479 24016 layer_factory.hpp:77] Creating layer pool2
I0904 22:30:29.598489 24016 net.cpp:100] Creating Layer pool2
I0904 22:30:29.598493 24016 net.cpp:434] pool2 <- norm2
I0904 22:30:29.598500 24016 net.cpp:408] pool2 -> pool2
I0904 22:30:29.598541 24016 net.cpp:150] Setting up pool2
I0904 22:30:29.598551 24016 net.cpp:157] Top shape: 128 256 7 7 (1605632)
I0904 22:30:29.598554 24016 net.cpp:165] Memory required for data: 263832064
I0904 22:30:29.598559 24016 layer_factory.hpp:77] Creating layer conv3
I0904 22:30:29.598572 24016 net.cpp:100] Creating Layer conv3
I0904 22:30:29.598577 24016 net.cpp:434] conv3 <- pool2
I0904 22:30:29.598582 24016 net.cpp:408] conv3 -> conv3
I0904 22:30:29.632889 24016 net.cpp:150] Setting up conv3
I0904 22:30:29.632908 24016 net.cpp:157] Top shape: 128 384 7 7 (2408448)
I0904 22:30:29.632913 24016 net.cpp:165] Memory required for data: 273465856
I0904 22:30:29.632925 24016 layer_factory.hpp:77] Creating layer relu3
I0904 22:30:29.632931 24016 net.cpp:100] Creating Layer relu3
I0904 22:30:29.632936 24016 net.cpp:434] relu3 <- conv3
I0904 22:30:29.632943 24016 net.cpp:395] relu3 -> conv3 (in-place)
I0904 22:30:29.633147 24016 net.cpp:150] Setting up relu3
I0904 22:30:29.633162 24016 net.cpp:157] Top shape: 128 384 7 7 (2408448)
I0904 22:30:29.633165 24016 net.cpp:165] Memory required for data: 283099648
I0904 22:30:29.633169 24016 layer_factory.hpp:77] Creating layer conv4
I0904 22:30:29.633183 24016 net.cpp:100] Creating Layer conv4
I0904 22:30:29.633186 24016 net.cpp:434] conv4 <- conv3
I0904 22:30:29.633194 24016 net.cpp:408] conv4 -> conv4
I0904 22:30:29.660159 24016 net.cpp:150] Setting up conv4
I0904 22:30:29.660178 24016 net.cpp:157] Top shape: 128 384 7 7 (2408448)
I0904 22:30:29.660183 24016 net.cpp:165] Memory required for data: 292733440
I0904 22:30:29.660192 24016 layer_factory.hpp:77] Creating layer relu4
I0904 22:30:29.660200 24016 net.cpp:100] Creating Layer relu4
I0904 22:30:29.660204 24016 net.cpp:434] relu4 <- conv4
I0904 22:30:29.660213 24016 net.cpp:395] relu4 -> conv4 (in-place)
I0904 22:30:29.660419 24016 net.cpp:150] Setting up relu4
I0904 22:30:29.660449 24016 net.cpp:157] Top shape: 128 384 7 7 (2408448)
I0904 22:30:29.660454 24016 net.cpp:165] Memory required for data: 302367232
I0904 22:30:29.660459 24016 layer_factory.hpp:77] Creating layer conv5
I0904 22:30:29.660471 24016 net.cpp:100] Creating Layer conv5
I0904 22:30:29.660476 24016 net.cpp:434] conv5 <- conv4
I0904 22:30:29.660485 24016 net.cpp:408] conv5 -> conv5
I0904 22:30:29.679523 24016 net.cpp:150] Setting up conv5
I0904 22:30:29.679543 24016 net.cpp:157] Top shape: 128 256 7 7 (1605632)
I0904 22:30:29.679548 24016 net.cpp:165] Memory required for data: 308789760
I0904 22:30:29.679560 24016 layer_factory.hpp:77] Creating layer relu5
I0904 22:30:29.679570 24016 net.cpp:100] Creating Layer relu5
I0904 22:30:29.679574 24016 net.cpp:434] relu5 <- conv5
I0904 22:30:29.679580 24016 net.cpp:395] relu5 -> conv5 (in-place)
I0904 22:30:29.679785 24016 net.cpp:150] Setting up relu5
I0904 22:30:29.679800 24016 net.cpp:157] Top shape: 128 256 7 7 (1605632)
I0904 22:30:29.679803 24016 net.cpp:165] Memory required for data: 315212288
I0904 22:30:29.679807 24016 layer_factory.hpp:77] Creating layer pool5
I0904 22:30:29.679816 24016 net.cpp:100] Creating Layer pool5
I0904 22:30:29.679821 24016 net.cpp:434] pool5 <- conv5
I0904 22:30:29.679828 24016 net.cpp:408] pool5 -> pool5
I0904 22:30:29.679889 24016 net.cpp:150] Setting up pool5
I0904 22:30:29.679900 24016 net.cpp:157] Top shape: 128 256 3 3 (294912)
I0904 22:30:29.679904 24016 net.cpp:165] Memory required for data: 316391936
I0904 22:30:29.679908 24016 layer_factory.hpp:77] Creating layer fc6new
I0904 22:30:29.679924 24016 net.cpp:100] Creating Layer fc6new
I0904 22:30:29.679927 24016 net.cpp:434] fc6new <- pool5
I0904 22:30:29.679939 24016 net.cpp:408] fc6new -> fc6
I0904 22:30:29.969189 24016 net.cpp:150] Setting up fc6new
I0904 22:30:29.969233 24016 net.cpp:157] Top shape: 128 4096 (524288)
I0904 22:30:29.969238 24016 net.cpp:165] Memory required for data: 318489088
I0904 22:30:29.969251 24016 layer_factory.hpp:77] Creating layer relu6
I0904 22:30:29.969269 24016 net.cpp:100] Creating Layer relu6
I0904 22:30:29.969274 24016 net.cpp:434] relu6 <- fc6
I0904 22:30:29.969280 24016 net.cpp:395] relu6 -> fc6 (in-place)
I0904 22:30:29.969846 24016 net.cpp:150] Setting up relu6
I0904 22:30:29.969861 24016 net.cpp:157] Top shape: 128 4096 (524288)
I0904 22:30:29.969877 24016 net.cpp:165] Memory required for data: 320586240
I0904 22:30:29.969882 24016 layer_factory.hpp:77] Creating layer drop6
I0904 22:30:29.969892 24016 net.cpp:100] Creating Layer drop6
I0904 22:30:29.969895 24016 net.cpp:434] drop6 <- fc6
I0904 22:30:29.969900 24016 net.cpp:395] drop6 -> fc6 (in-place)
I0904 22:30:29.969946 24016 net.cpp:150] Setting up drop6
I0904 22:30:29.969954 24016 net.cpp:157] Top shape: 128 4096 (524288)
I0904 22:30:29.969956 24016 net.cpp:165] Memory required for data: 322683392
I0904 22:30:29.969959 24016 layer_factory.hpp:77] Creating layer fc7new
I0904 22:30:29.969969 24016 net.cpp:100] Creating Layer fc7new
I0904 22:30:29.969972 24016 net.cpp:434] fc7new <- fc6
I0904 22:30:29.969979 24016 net.cpp:408] fc7new -> fc7
I0904 22:30:30.440002 24016 net.cpp:150] Setting up fc7new
I0904 22:30:30.440043 24016 net.cpp:157] Top shape: 128 4096 (524288)
I0904 22:30:30.440047 24016 net.cpp:165] Memory required for data: 324780544
I0904 22:30:30.440062 24016 layer_factory.hpp:77] Creating layer relu7
I0904 22:30:30.440078 24016 net.cpp:100] Creating Layer relu7
I0904 22:30:30.440083 24016 net.cpp:434] relu7 <- fc7
I0904 22:30:30.440089 24016 net.cpp:395] relu7 -> fc7 (in-place)
I0904 22:30:30.440379 24016 net.cpp:150] Setting up relu7
I0904 22:30:30.440392 24016 net.cpp:157] Top shape: 128 4096 (524288)
I0904 22:30:30.440394 24016 net.cpp:165] Memory required for data: 326877696
I0904 22:30:30.440397 24016 layer_factory.hpp:77] Creating layer drop7
I0904 22:30:30.440407 24016 net.cpp:100] Creating Layer drop7
I0904 22:30:30.440410 24016 net.cpp:434] drop7 <- fc7
I0904 22:30:30.440415 24016 net.cpp:395] drop7 -> fc7 (in-place)
I0904 22:30:30.440450 24016 net.cpp:150] Setting up drop7
I0904 22:30:30.440476 24016 net.cpp:157] Top shape: 128 4096 (524288)
I0904 22:30:30.440480 24016 net.cpp:165] Memory required for data: 328974848
I0904 22:30:30.440484 24016 layer_factory.hpp:77] Creating layer fc8new
I0904 22:30:30.440492 24016 net.cpp:100] Creating Layer fc8new
I0904 22:30:30.440496 24016 net.cpp:434] fc8new <- fc7
I0904 22:30:30.440502 24016 net.cpp:408] fc8new -> fc8
I0904 22:30:30.442167 24016 net.cpp:150] Setting up fc8new
I0904 22:30:30.442180 24016 net.cpp:157] Top shape: 128 3 (384)
I0904 22:30:30.442184 24016 net.cpp:165] Memory required for data: 328976384
I0904 22:30:30.442190 24016 layer_factory.hpp:77] Creating layer loss
I0904 22:30:30.442199 24016 net.cpp:100] Creating Layer loss
I0904 22:30:30.442203 24016 net.cpp:434] loss <- fc8
I0904 22:30:30.442206 24016 net.cpp:434] loss <- label
I0904 22:30:30.442214 24016 net.cpp:408] loss -> loss
I0904 22:30:30.442256 24016 layer_factory.hpp:77] Creating layer loss
…
I0904 22:30:30.443454 24016 net.cpp:322] The NetState phase (1) differed from the phase (0) specified by a rule in layer mnist
I0904 22:30:30.443603 24016 net.cpp:58] Initializing net from parameters: 
name: "AlexNet"
state {
  phase: TEST
}
layer {
  name: "mnist"
  type: "Data"
  top: "data"
  top: "label"
  include {
    phase: TEST
  }
  transform_param {
    scale: 0.00390625
    mean_file: "data/person_only_lmdb/person_vs_background_vs_random_color_mean.binaryproto"
  }
  data_param {
    source: "data/person_only_lmdb/person_vs_background_vs_random_test_lmdb"
    batch_size: 100
    backend: LMDB
  }
}
layer {
  name: "conv1"
  type: "Convolution"
  bottom: "data"
  top: "conv1"
  param {
    lr_mult: 1
    decay_mult: 1
  }
  param {
    lr_mult: 2
    decay_mult: 0
  }
  convolution_param {
    num_output: 96
    kernel_size: 11
    stride: 4
    weight_filler {
      type: "gaussian"
      std: 0.01
    }
    bias_filler {
      type: "constant"
      value: 0
    }
  }
}
layer {
  name: "relu1"
  type: "ReLU"
  bottom: "conv1"
  top: "conv1"
}
layer {
  name: "norm1"
  type: "LRN"
  bottom: "conv1"
  top: "norm1"
  lrn_param {
    local_size: 5
    alpha: 0.0001
    beta: 0.75
  }
}
layer {
  name: "pool1"
  type: "Pooling"
  bottom: "norm1"
  top: "pool1"
  pooling_param {
    pool: MAX
    kernel_size: 3
    stride: 2
  }
}
layer {
  name: "conv2"
  type: "Convolution"
  bottom: "pool1"
  top: "conv2"
  param {
    lr_mult: 1
    decay_mult: 1
  }
  param {
    lr_mult: 2
    decay_mult: 0
  }
  convolution_param {
    num_output: 256
    pad: 2
    kernel_size: 5
    group: 2
    weight_filler {
      type: "gaussian"
      std: 0.01
    }
    bias_filler {
      type: "constant"
      value: 0.1
    }
  }
}
layer {
  name: "relu2"
  type: "ReLU"
  bottom: "conv2"
  top: "conv2"
}
layer {
  name: "norm2"
  type: "LRN"
  bottom: "conv2"
  top: "norm2"
  lrn_param {
    local_size: 5
    alpha: 0.0001
    beta: 0.75
  }
}
layer {
  name: "pool2"
  type: "Pooling"
  bottom: "norm2"
  top: "pool2"
  pooling_param {
    pool: MAX
    kernel_size: 3
    stride: 2
  }
}
layer {
  name: "conv3"
  type: "Convolution"
  bottom: "pool2"
  top: "conv3"
  param {
    lr_mult: 1
    decay_mult: 1
  }
  param {
    lr_mult: 2
    decay_mult: 0
  }
  convolution_param {
    num_output: 384
    pad: 1
    kernel_size: 3
    weight_filler {
      type: "gaussian"
      std: 0.01
    }
    bias_filler {
      type: "constant"
      value: 0
    }
  }
}
layer {
  name: "relu3"
  type: "ReLU"
  bottom: "conv3"
  top: "conv3"
}
layer {
  name: "conv4"
  type: "Convolution"
  bottom: "conv3"
  top: "conv4"
  param {
    lr_mult: 1
    decay_mult: 1
  }
  param {
    lr_mult: 2
    decay_mult: 0
  }
  convolution_param {
    num_output: 384
    pad: 1
    kernel_size: 3
    group: 2
    weight_filler {
      type: "gaussian"
      std: 0.01
    }
    bias_filler {
      type: "constant"
      value: 0.1
    }
  }
}
layer {
  name: "relu4"
  type: "ReLU"
  bottom: "conv4"
  top: "conv4"
}
layer {
  name: "conv5"
  type: "Convolution"
  bottom: "conv4"
  top: "conv5"
  param {
    lr_mult: 1
    decay_mult: 1
  }
  param {
    lr_mult: 2
    decay_mult: 0
  }
  convolution_param {
    num_output: 256
    pad: 1
    kernel_size: 3
    group: 2
    weight_filler {
      type: "gaussian"
      std: 0.01
    }
    bias_filler {
      type: "constant"
      value: 0.1
    }
  }
}
layer {
  name: "relu5"
  type: "ReLU"
  bottom: "conv5"
  top: "conv5"
}
layer {
  name: "pool5"
  type: "Pooling"
  bottom: "conv5"
  top: "pool5"
  pooling_param {
    pool: MAX
    kernel_size: 3
    stride: 2
  }
}
layer {
  name: "fc6new"
  type: "InnerProduct"
  bottom: "pool5"
  top: "fc6"
  param {
    lr_mult: 1
    decay_mult: 1
  }
  param {
    lr_mult: 2
    decay_mult: 0
  }
  inner_product_param {
    num_output: 4096
    weight_filler {
      type: "gaussian"
      std: 0.005
    }
    bias_filler {
      type: "constant"
      value: 0.1
    }
  }
}
layer {
  name: "relu6"
  type: "ReLU"
  bottom: "fc6"
  top: "fc6"
}
layer {
  name: "drop6"
  type: "Dropout"
  bottom: "fc6"
  top: "fc6"
  dropout_param {
    dropout_ratio: 0.5
  }
}
layer {
  name: "fc7new"
  type: "InnerProduct"
  bottom: "fc6"
  top: "fc7"
  param {
    lr_mult: 1
    decay_mult: 1
  }
  param {
    lr_mult: 2
    decay_mult: 0
  }
  inner_product_param {
    num_output: 4096
    weight_filler {
      type: "gaussian"
      std: 0.005
    }
    bias_filler {
      type: "constant"
      value: 0.1
    }
  }
}
layer {
  name: "relu7"
  type: "ReLU"
  bottom: "fc7"
  top: "fc7"
}
layer {
  name: "drop7"
  type: "Dropout"
  bottom: "fc7"
  top: "fc7"
  dropout_param {
    dropout_ratio: 0.5
  }
}
layer {
  name: "fc8new"
  type: "InnerProduct"
  bottom: "fc7"
  top: "fc8"
  param {
    lr_mult: 1
    decay_mult: 1
  }
  param {
    lr_mult: 2
    decay_mult: 0
  }
  inner_product_param {
    num_output: 3
    weight_filler {
      type: "gaussian"
      std: 0.01
    }
    bias_filler {
      type: "constant"
      value: 0
    }
  }
}
layer {
  name: "accuracy"
  type: "Accuracy"
  bottom: "fc8"
  bottom: "label"
  top: "accuracy"
  include {
    phase: TEST
  }
}
layer {
  name: "loss"
  type: "SoftmaxWithLoss"
  bottom: "fc8"
  bottom: "label"
  top: "loss"
}
I0904 22:30:30.443728 24016 layer_factory.hpp:77] Creating layer mnist
I0904 22:30:30.443895 24016 net.cpp:100] Creating Layer mnist
I0904 22:30:30.443905 24016 net.cpp:408] mnist -> data
I0904 22:30:30.443914 24016 net.cpp:408] mnist -> label
I0904 22:30:30.443922 24016 data_transformer.cpp:25] Loading mean file from: data/person_only_lmdb/person_vs_background_vs_random_color_mean.binaryproto
I0904 22:30:30.445464 24027 db_lmdb.cpp:35] Opened lmdb data/person_only_lmdb/person_vs_background_vs_random_test_lmdb
I0904 22:30:30.445699 24016 data_layer.cpp:41] output data size: 100,3,128,128
I0904 22:30:30.481957 24016 net.cpp:150] Setting up mnist
I0904 22:30:30.481990 24016 net.cpp:157] Top shape: 100 3 128 128 (4915200)
I0904 22:30:30.481997 24016 net.cpp:157] Top shape: 100 (100)
I0904 22:30:30.481999 24016 net.cpp:165] Memory required for data: 19661200
I0904 22:30:30.482007 24016 layer_factory.hpp:77] Creating layer label_mnist_1_split
I0904 22:30:30.482023 24016 net.cpp:100] Creating Layer label_mnist_1_split
I0904 22:30:30.482028 24016 net.cpp:434] label_mnist_1_split <- label
I0904 22:30:30.482035 24016 net.cpp:408] label_mnist_1_split -> label_mnist_1_split_0
I0904 22:30:30.482059 24016 net.cpp:408] label_mnist_1_split -> label_mnist_1_split_1
I0904 22:30:30.482122 24016 net.cpp:150] Setting up label_mnist_1_split
I0904 22:30:30.482130 24016 net.cpp:157] Top shape: 100 (100)
I0904 22:30:30.482133 24016 net.cpp:157] Top shape: 100 (100)
I0904 22:30:30.482136 24016 net.cpp:165] Memory required for data: 19662000
I0904 22:30:30.482139 24016 layer_factory.hpp:77] Creating layer conv1
I0904 22:30:30.482153 24016 net.cpp:100] Creating Layer conv1
I0904 22:30:30.482156 24016 net.cpp:434] conv1 <- data
I0904 22:30:30.482162 24016 net.cpp:408] conv1 -> conv1
I0904 22:30:30.489006 24016 net.cpp:150] Setting up conv1
I0904 22:30:30.489053 24016 net.cpp:157] Top shape: 100 96 30 30 (8640000)
I0904 22:30:30.489063 24016 net.cpp:165] Memory required for data: 54222000
I0904 22:30:30.489089 24016 layer_factory.hpp:77] Creating layer relu1
I0904 22:30:30.489109 24016 net.cpp:100] Creating Layer relu1
I0904 22:30:30.489117 24016 net.cpp:434] relu1 <- conv1
I0904 22:30:30.489130 24016 net.cpp:395] relu1 -> conv1 (in-place)
I0904 22:30:30.489487 24016 net.cpp:150] Setting up relu1
I0904 22:30:30.489509 24016 net.cpp:157] Top shape: 100 96 30 30 (8640000)
I0904 22:30:30.489517 24016 net.cpp:165] Memory required for data: 88782000
I0904 22:30:30.489526 24016 layer_factory.hpp:77] Creating layer norm1
I0904 22:30:30.489545 24016 net.cpp:100] Creating Layer norm1
I0904 22:30:30.489553 24016 net.cpp:434] norm1 <- conv1
I0904 22:30:30.489564 24016 net.cpp:408] norm1 -> norm1
I0904 22:30:30.490502 24016 net.cpp:150] Setting up norm1
I0904 22:30:30.490535 24016 net.cpp:157] Top shape: 100 96 30 30 (8640000)
I0904 22:30:30.490550 24016 net.cpp:165] Memory required for data: 123342000
I0904 22:30:30.490561 24016 layer_factory.hpp:77] Creating layer pool1
I0904 22:30:30.490579 24016 net.cpp:100] Creating Layer pool1
I0904 22:30:30.490587 24016 net.cpp:434] pool1 <- norm1
I0904 22:30:30.490599 24016 net.cpp:408] pool1 -> pool1
I0904 22:30:30.490677 24016 net.cpp:150] Setting up pool1
I0904 22:30:30.490692 24016 net.cpp:157] Top shape: 100 96 15 15 (2160000)
I0904 22:30:30.490700 24016 net.cpp:165] Memory required for data: 131982000
I0904 22:30:30.490707 24016 layer_factory.hpp:77] Creating layer conv2
I0904 22:30:30.490727 24016 net.cpp:100] Creating Layer conv2
I0904 22:30:30.490742 24016 net.cpp:434] conv2 <- pool1
I0904 22:30:30.490756 24016 net.cpp:408] conv2 -> conv2
I0904 22:30:30.507987 24016 net.cpp:150] Setting up conv2
I0904 22:30:30.508014 24016 net.cpp:157] Top shape: 100 256 15 15 (5760000)
I0904 22:30:30.508019 24016 net.cpp:165] Memory required for data: 155022000
I0904 22:30:30.508033 24016 layer_factory.hpp:77] Creating layer relu2
I0904 22:30:30.508044 24016 net.cpp:100] Creating Layer relu2
I0904 22:30:30.508049 24016 net.cpp:434] relu2 <- conv2
I0904 22:30:30.508059 24016 net.cpp:395] relu2 -> conv2 (in-place)
I0904 22:30:30.508571 24016 net.cpp:150] Setting up relu2
I0904 22:30:30.508589 24016 net.cpp:157] Top shape: 100 256 15 15 (5760000)
I0904 22:30:30.508599 24016 net.cpp:165] Memory required for data: 178062000
I0904 22:30:30.508605 24016 layer_factory.hpp:77] Creating layer norm2
I0904 22:30:30.508618 24016 net.cpp:100] Creating Layer norm2
I0904 22:30:30.508622 24016 net.cpp:434] norm2 <- conv2
I0904 22:30:30.508630 24016 net.cpp:408] norm2 -> norm2
I0904 22:30:30.508877 24016 net.cpp:150] Setting up norm2
I0904 22:30:30.508891 24016 net.cpp:157] Top shape: 100 256 15 15 (5760000)
I0904 22:30:30.508895 24016 net.cpp:165] Memory required for data: 201102000
I0904 22:30:30.508899 24016 layer_factory.hpp:77] Creating layer pool2
I0904 22:30:30.508908 24016 net.cpp:100] Creating Layer pool2
I0904 22:30:30.508913 24016 net.cpp:434] pool2 <- norm2
I0904 22:30:30.508919 24016 net.cpp:408] pool2 -> pool2
I0904 22:30:30.508965 24016 net.cpp:150] Setting up pool2
I0904 22:30:30.508972 24016 net.cpp:157] Top shape: 100 256 7 7 (1254400)
I0904 22:30:30.508976 24016 net.cpp:165] Memory required for data: 206119600
I0904 22:30:30.508980 24016 layer_factory.hpp:77] Creating layer conv3
I0904 22:30:30.508994 24016 net.cpp:100] Creating Layer conv3
I0904 22:30:30.508998 24016 net.cpp:434] conv3 <- pool2
I0904 22:30:30.509004 24016 net.cpp:408] conv3 -> conv3
I0904 22:30:30.543782 24016 net.cpp:150] Setting up conv3
I0904 22:30:30.543819 24016 net.cpp:157] Top shape: 100 384 7 7 (1881600)
I0904 22:30:30.543824 24016 net.cpp:165] Memory required for data: 213646000
I0904 22:30:30.543844 24016 layer_factory.hpp:77] Creating layer relu3
I0904 22:30:30.543859 24016 net.cpp:100] Creating Layer relu3
I0904 22:30:30.543871 24016 net.cpp:434] relu3 <- conv3
I0904 22:30:30.543879 24016 net.cpp:395] relu3 -> conv3 (in-place)
I0904 22:30:30.544127 24016 net.cpp:150] Setting up relu3
I0904 22:30:30.544144 24016 net.cpp:157] Top shape: 100 384 7 7 (1881600)
I0904 22:30:30.544148 24016 net.cpp:165] Memory required for data: 221172400
I0904 22:30:30.544153 24016 layer_factory.hpp:77] Creating layer conv4
I0904 22:30:30.544172 24016 net.cpp:100] Creating Layer conv4
I0904 22:30:30.544178 24016 net.cpp:434] conv4 <- conv3
I0904 22:30:30.544185 24016 net.cpp:408] conv4 -> conv4
I0904 22:30:30.572175 24016 net.cpp:150] Setting up conv4
I0904 22:30:30.572212 24016 net.cpp:157] Top shape: 100 384 7 7 (1881600)
I0904 22:30:30.572218 24016 net.cpp:165] Memory required for data: 228698800
I0904 22:30:30.572229 24016 layer_factory.hpp:77] Creating layer relu4
I0904 22:30:30.572248 24016 net.cpp:100] Creating Layer relu4
I0904 22:30:30.572255 24016 net.cpp:434] relu4 <- conv4
I0904 22:30:30.572263 24016 net.cpp:395] relu4 -> conv4 (in-place)
I0904 22:30:30.572809 24016 net.cpp:150] Setting up relu4
I0904 22:30:30.572827 24016 net.cpp:157] Top shape: 100 384 7 7 (1881600)
I0904 22:30:30.572832 24016 net.cpp:165] Memory required for data: 236225200
I0904 22:30:30.572837 24016 layer_factory.hpp:77] Creating layer conv5
I0904 22:30:30.572854 24016 net.cpp:100] Creating Layer conv5
I0904 22:30:30.572860 24016 net.cpp:434] conv5 <- conv4
I0904 22:30:30.572870 24016 net.cpp:408] conv5 -> conv5
I0904 22:30:30.592058 24016 net.cpp:150] Setting up conv5
I0904 22:30:30.592078 24016 net.cpp:157] Top shape: 100 256 7 7 (1254400)
I0904 22:30:30.592083 24016 net.cpp:165] Memory required for data: 241242800
I0904 22:30:30.592097 24016 layer_factory.hpp:77] Creating layer relu5
I0904 22:30:30.592108 24016 net.cpp:100] Creating Layer relu5
I0904 22:30:30.592113 24016 net.cpp:434] relu5 <- conv5
I0904 22:30:30.592118 24016 net.cpp:395] relu5 -> conv5 (in-place)
I0904 22:30:30.592353 24016 net.cpp:150] Setting up relu5
I0904 22:30:30.592368 24016 net.cpp:157] Top shape: 100 256 7 7 (1254400)
I0904 22:30:30.592375 24016 net.cpp:165] Memory required for data: 246260400
I0904 22:30:30.592378 24016 layer_factory.hpp:77] Creating layer pool5
I0904 22:30:30.592391 24016 net.cpp:100] Creating Layer pool5
I0904 22:30:30.592396 24016 net.cpp:434] pool5 <- conv5
I0904 22:30:30.592401 24016 net.cpp:408] pool5 -> pool5
I0904 22:30:30.592458 24016 net.cpp:150] Setting up pool5
I0904 22:30:30.592468 24016 net.cpp:157] Top shape: 100 256 3 3 (230400)
I0904 22:30:30.592471 24016 net.cpp:165] Memory required for data: 247182000
I0904 22:30:30.592475 24016 layer_factory.hpp:77] Creating layer fc6new
I0904 22:30:30.592488 24016 net.cpp:100] Creating Layer fc6new
I0904 22:30:30.592491 24016 net.cpp:434] fc6new <- pool5
I0904 22:30:30.592499 24016 net.cpp:408] fc6new -> fc6
I0904 22:30:30.880197 24016 net.cpp:150] Setting up fc6new
I0904 22:30:30.880241 24016 net.cpp:157] Top shape: 100 4096 (409600)
I0904 22:30:30.880246 24016 net.cpp:165] Memory required for data: 248820400
I0904 22:30:30.880271 24016 layer_factory.hpp:77] Creating layer relu6
I0904 22:30:30.880283 24016 net.cpp:100] Creating Layer relu6
I0904 22:30:30.880290 24016 net.cpp:434] relu6 <- fc6
I0904 22:30:30.880312 24016 net.cpp:395] relu6 -> fc6 (in-place)
I0904 22:30:30.880751 24016 net.cpp:150] Setting up relu6
I0904 22:30:30.880764 24016 net.cpp:157] Top shape: 100 4096 (409600)
I0904 22:30:30.880766 24016 net.cpp:165] Memory required for data: 250458800
I0904 22:30:30.880770 24016 layer_factory.hpp:77] Creating layer drop6
I0904 22:30:30.880779 24016 net.cpp:100] Creating Layer drop6
I0904 22:30:30.880784 24016 net.cpp:434] drop6 <- fc6
I0904 22:30:30.880789 24016 net.cpp:395] drop6 -> fc6 (in-place)
I0904 22:30:30.880831 24016 net.cpp:150] Setting up drop6
I0904 22:30:30.880837 24016 net.cpp:157] Top shape: 100 4096 (409600)
I0904 22:30:30.880841 24016 net.cpp:165] Memory required for data: 252097200
I0904 22:30:30.880848 24016 layer_factory.hpp:77] Creating layer fc7new
I0904 22:30:30.880856 24016 net.cpp:100] Creating Layer fc7new
I0904 22:30:30.880859 24016 net.cpp:434] fc7new <- fc6
I0904 22:30:30.880866 24016 net.cpp:408] fc7new -> fc7
I0904 22:30:31.349649 24016 net.cpp:150] Setting up fc7new
I0904 22:30:31.349692 24016 net.cpp:157] Top shape: 100 4096 (409600)
I0904 22:30:31.349696 24016 net.cpp:165] Memory required for data: 253735600
I0904 22:30:31.349709 24016 layer_factory.hpp:77] Creating layer relu7
I0904 22:30:31.349720 24016 net.cpp:100] Creating Layer relu7
I0904 22:30:31.349725 24016 net.cpp:434] relu7 <- fc7
I0904 22:30:31.349733 24016 net.cpp:395] relu7 -> fc7 (in-place)
I0904 22:30:31.350471 24016 net.cpp:150] Setting up relu7
I0904 22:30:31.350486 24016 net.cpp:157] Top shape: 100 4096 (409600)
I0904 22:30:31.350491 24016 net.cpp:165] Memory required for data: 255374000
I0904 22:30:31.350494 24016 layer_factory.hpp:77] Creating layer drop7
I0904 22:30:31.350502 24016 net.cpp:100] Creating Layer drop7
I0904 22:30:31.350507 24016 net.cpp:434] drop7 <- fc7
I0904 22:30:31.350512 24016 net.cpp:395] drop7 -> fc7 (in-place)
I0904 22:30:31.350579 24016 net.cpp:150] Setting up drop7
I0904 22:30:31.350587 24016 net.cpp:157] Top shape: 100 4096 (409600)
I0904 22:30:31.350590 24016 net.cpp:165] Memory required for data: 257012400
I0904 22:30:31.350594 24016 layer_factory.hpp:77] Creating layer fc8new
I0904 22:30:31.350602 24016 net.cpp:100] Creating Layer fc8new
I0904 22:30:31.350605 24016 net.cpp:434] fc8new <- fc7
I0904 22:30:31.350612 24016 net.cpp:408] fc8new -> fc8
I0904 22:30:31.351204 24016 net.cpp:150] Setting up fc8new
I0904 22:30:31.351214 24016 net.cpp:157] Top shape: 100 3 (300)
I0904 22:30:31.351229 24016 net.cpp:165] Memory required for data: 257013600
I0904 22:30:31.351235 24016 layer_factory.hpp:77] Creating layer fc8_fc8new_0_split
I0904 22:30:31.351248 24016 net.cpp:100] Creating Layer fc8_fc8new_0_split
I0904 22:30:31.351253 24016 net.cpp:434] fc8_fc8new_0_split <- fc8
I0904 22:30:31.351287 24016 net.cpp:408] fc8_fc8new_0_split -> fc8_fc8new_0_split_0
I0904 22:30:31.351294 24016 net.cpp:408] fc8_fc8new_0_split -> fc8_fc8new_0_split_1
I0904 22:30:31.351336 24016 net.cpp:150] Setting up fc8_fc8new_0_split
I0904 22:30:31.351343 24016 net.cpp:157] Top shape: 100 3 (300)
I0904 22:30:31.351347 24016 net.cpp:157] Top shape: 100 3 (300)
I0904 22:30:31.351349 24016 net.cpp:165] Memory required for data: 257016000
I0904 22:30:31.351353 24016 layer_factory.hpp:77] Creating layer accuracy
I0904 22:30:31.351366 24016 net.cpp:100] Creating Layer accuracy
I0904 22:30:31.351371 24016 net.cpp:434] accuracy <- fc8_fc8new_0_split_0
I0904 22:30:31.351387 24016 net.cpp:434] accuracy <- label_mnist_1_split_0
I0904 22:30:31.351390 24016 net.cpp:408] accuracy -> accuracy
…
