…
I0823 20:44:31.572624  7333 net.cpp:322] The NetState phase (0) differed from the phase (1) specified by a rule in layer accuracy
I0823 20:44:31.572787  7333 net.cpp:58] Initializing net from parameters: 
name: "CaffeNet"
state {
  phase: TRAIN
  level: 0
  stage: ""
}
layer {
  name: "data"
  type: "Data"
  top: "data"
  top: "label"
  include {
    phase: TRAIN
  }
  transform_param {
    scale: 0.00390625
    mean_file: "data/person_only_lmdb/person_vs_background_vs_random_color_mean.binaryproto"
  }
  data_param {
    source: "data/person_only_lmdb/person_vs_background_vs_random_train_lmdb"
    batch_size: 128
    backend: LMDB
  }
}
layer {
  name: "conv1"
  type: "Convolution"
  bottom: "data"
  top: "conv1"
  param {
    lr_mult: 1
    decay_mult: 1
  }
  param {
    lr_mult: 2
    decay_mult: 0
  }
  convolution_param {
    num_output: 96
    kernel_size: 11
    stride: 4
    weight_filler {
      type: "gaussian"
      std: 0.01
    }
    bias_filler {
      type: "constant"
      value: 0
    }
  }
}
layer {
  name: "relu1"
  type: "ReLU"
  bottom: "conv1"
  top: "conv1"
}
layer {
  name: "pool1"
  type: "Pooling"
  bottom: "conv1"
  top: "pool1"
  pooling_param {
    pool: MAX
    kernel_size: 3
    stride: 2
  }
}
layer {
  name: "norm1"
  type: "LRN"
  bottom: "pool1"
  top: "norm1"
  lrn_param {
    local_size: 5
    alpha: 0.0001
    beta: 0.75
  }
}
layer {
  name: "conv2"
  type: "Convolution"
  bottom: "norm1"
  top: "conv2"
  param {
    lr_mult: 1
    decay_mult: 1
  }
  param {
    lr_mult: 2
    decay_mult: 0
  }
  convolution_param {
    num_output: 256
    pad: 2
    kernel_size: 5
    group: 2
    weight_filler {
      type: "gaussian"
      std: 0.01
    }
    bias_filler {
      type: "constant"
      value: 1
    }
  }
}
layer {
  name: "relu2"
  type: "ReLU"
  bottom: "conv2"
  top: "conv2"
}
layer {
  name: "pool2"
  type: "Pooling"
  bottom: "conv2"
  top: "pool2"
  pooling_param {
    pool: MAX
    kernel_size: 3
    stride: 2
  }
}
layer {
  name: "norm2"
  type: "LRN"
  bottom: "pool2"
  top: "norm2"
  lrn_param {
    local_size: 5
    alpha: 0.0001
    beta: 0.75
  }
}
layer {
  name: "conv3"
  type: "Convolution"
  bottom: "norm2"
  top: "conv3"
  param {
    lr_mult: 1
    decay_mult: 1
  }
  param {
    lr_mult: 2
    decay_mult: 0
  }
  convolution_param {
    num_output: 384
    pad: 1
    kernel_size: 3
    weight_filler {
      type: "gaussian"
      std: 0.01
    }
    bias_filler {
      type: "constant"
      value: 0
    }
  }
}
layer {
  name: "relu3"
  type: "ReLU"
  bottom: "conv3"
  top: "conv3"
}
layer {
  name: "conv4"
  type: "Convolution"
  bottom: "conv3"
  top: "conv4"
  param {
    lr_mult: 1
    decay_mult: 1
  }
  param {
    lr_mult: 2
    decay_mult: 0
  }
  convolution_param {
    num_output: 384
    pad: 1
    kernel_size: 3
    group: 2
    weight_filler {
      type: "gaussian"
      std: 0.01
    }
    bias_filler {
      type: "constant"
      value: 1
    }
  }
}
layer {
  name: "relu4"
  type: "ReLU"
  bottom: "conv4"
  top: "conv4"
}
layer {
  name: "conv5"
  type: "Convolution"
  bottom: "conv4"
  top: "conv5"
  param {
    lr_mult: 1
    decay_mult: 1
  }
  param {
    lr_mult: 2
    decay_mult: 0
  }
  convolution_param {
    num_output: 256
    pad: 1
    kernel_size: 3
    group: 2
    weight_filler {
      type: "gaussian"
      std: 0.01
    }
    bias_filler {
      type: "constant"
      value: 1
    }
  }
}
layer {
  name: "relu5"
  type: "ReLU"
  bottom: "conv5"
  top: "conv5"
}
layer {
  name: "pool5"
  type: "Pooling"
  bottom: "conv5"
  top: "pool5"
  pooling_param {
    pool: MAX
    kernel_size: 3
    stride: 2
  }
}
layer {
  name: "fc6n"
  type: "InnerProduct"
  bottom: "pool5"
  top: "fc6"
  param {
    lr_mult: 1
    decay_mult: 1
  }
  param {
    lr_mult: 2
    decay_mult: 0
  }
  inner_product_param {
    num_output: 4096
    weight_filler {
      type: "gaussian"
      std: 0.005
    }
    bias_filler {
      type: "constant"
      value: 1
    }
  }
}
layer {
  name: "relu6"
  type: "ReLU"
  bottom: "fc6"
  top: "fc6"
}
layer {
  name: "drop6"
  type: "Dropout"
  bottom: "fc6"
  top: "fc6"
  dropout_param {
    dropout_ratio: 0.5
  }
}
layer {
  name: "fc7n"
  type: "InnerProduct"
  bottom: "fc6"
  top: "fc7"
  param {
    lr_mult: 1
    decay_mult: 1
  }
  param {
    lr_mult: 2
    decay_mult: 0
  }
  inner_product_param {
    num_output: 4096
    weight_filler {
      type: "gaussian"
      std: 0.005
    }
    bias_filler {
      type: "constant"
      value: 1
    }
  }
}
layer {
  name: "relu7"
  type: "ReLU"
  bottom: "fc7"
  top: "fc7"
}
layer {
  name: "drop7"
  type: "Dropout"
  bottom: "fc7"
  top: "fc7"
  dropout_param {
    dropout_ratio: 0.5
  }
}
layer {
  name: "fc8n"
  type: "InnerProduct"
  bottom: "fc7"
  top: "fc8"
  param {
    lr_mult: 1
    decay_mult: 1
  }
  param {
    lr_mult: 2
    decay_mult: 0
  }
  inner_product_param {
    num_output: 3
    weight_filler {
      type: "gaussian"
      std: 0.01
    }
    bias_filler {
      type: "constant"
      value: 0
    }
  }
}
layer {
  name: "loss"
  type: "SoftmaxWithLoss"
  bottom: "fc8"
  bottom: "label"
  top: "loss"
}
I0823 20:44:31.572906  7333 layer_factory.hpp:77] Creating layer data
I0823 20:44:31.573467  7333 net.cpp:100] Creating Layer data
I0823 20:44:31.573482  7333 net.cpp:408] data -> data
I0823 20:44:31.573508  7333 net.cpp:408] data -> label
I0823 20:44:31.573592  7333 data_transformer.cpp:25] Loading mean file from: data/person_only_lmdb/person_vs_background_vs_random_color_mean.binaryproto
I0823 20:44:31.575171  7343 db_lmdb.cpp:35] Opened lmdb data/person_only_lmdb/person_vs_background_vs_random_train_lmdb
I0823 20:44:31.609315  7333 data_layer.cpp:41] output data size: 128,3,128,128
I0823 20:44:31.676197  7333 net.cpp:150] Setting up data
I0823 20:44:31.676245  7333 net.cpp:157] Top shape: 128 3 128 128 (6291456)
I0823 20:44:31.676252  7333 net.cpp:157] Top shape: 128 (128)
I0823 20:44:31.676255  7333 net.cpp:165] Memory required for data: 25166336
I0823 20:44:31.676270  7333 layer_factory.hpp:77] Creating layer conv1
I0823 20:44:31.676306  7333 net.cpp:100] Creating Layer conv1
I0823 20:44:31.676318  7333 net.cpp:434] conv1 <- data
I0823 20:44:31.676337  7333 net.cpp:408] conv1 -> conv1
I0823 20:44:31.985615  7333 net.cpp:150] Setting up conv1
I0823 20:44:31.985651  7333 net.cpp:157] Top shape: 128 96 30 30 (11059200)
I0823 20:44:31.985654  7333 net.cpp:165] Memory required for data: 69403136
I0823 20:44:31.985682  7333 layer_factory.hpp:77] Creating layer relu1
I0823 20:44:31.985695  7333 net.cpp:100] Creating Layer relu1
I0823 20:44:31.985699  7333 net.cpp:434] relu1 <- conv1
I0823 20:44:31.985705  7333 net.cpp:395] relu1 -> conv1 (in-place)
I0823 20:44:31.985899  7333 net.cpp:150] Setting up relu1
I0823 20:44:31.985913  7333 net.cpp:157] Top shape: 128 96 30 30 (11059200)
I0823 20:44:31.985916  7333 net.cpp:165] Memory required for data: 113639936
I0823 20:44:31.985920  7333 layer_factory.hpp:77] Creating layer pool1
I0823 20:44:31.985927  7333 net.cpp:100] Creating Layer pool1
I0823 20:44:31.985931  7333 net.cpp:434] pool1 <- conv1
I0823 20:44:31.985936  7333 net.cpp:408] pool1 -> pool1
I0823 20:44:31.985991  7333 net.cpp:150] Setting up pool1
I0823 20:44:31.985999  7333 net.cpp:157] Top shape: 128 96 15 15 (2764800)
I0823 20:44:31.986021  7333 net.cpp:165] Memory required for data: 124699136
I0823 20:44:31.986024  7333 layer_factory.hpp:77] Creating layer norm1
I0823 20:44:31.986037  7333 net.cpp:100] Creating Layer norm1
I0823 20:44:31.986042  7333 net.cpp:434] norm1 <- pool1
I0823 20:44:31.986047  7333 net.cpp:408] norm1 -> norm1
I0823 20:44:31.986555  7333 net.cpp:150] Setting up norm1
I0823 20:44:31.986572  7333 net.cpp:157] Top shape: 128 96 15 15 (2764800)
I0823 20:44:31.986575  7333 net.cpp:165] Memory required for data: 135758336
I0823 20:44:31.986578  7333 layer_factory.hpp:77] Creating layer conv2
I0823 20:44:31.986593  7333 net.cpp:100] Creating Layer conv2
I0823 20:44:31.986596  7333 net.cpp:434] conv2 <- norm1
I0823 20:44:31.986603  7333 net.cpp:408] conv2 -> conv2
I0823 20:44:31.992862  7333 net.cpp:150] Setting up conv2
I0823 20:44:31.992880  7333 net.cpp:157] Top shape: 128 256 15 15 (7372800)
I0823 20:44:31.992884  7333 net.cpp:165] Memory required for data: 165249536
I0823 20:44:31.992893  7333 layer_factory.hpp:77] Creating layer relu2
I0823 20:44:31.992900  7333 net.cpp:100] Creating Layer relu2
I0823 20:44:31.992904  7333 net.cpp:434] relu2 <- conv2
I0823 20:44:31.992909  7333 net.cpp:395] relu2 -> conv2 (in-place)
I0823 20:44:31.993376  7333 net.cpp:150] Setting up relu2
I0823 20:44:31.993391  7333 net.cpp:157] Top shape: 128 256 15 15 (7372800)
I0823 20:44:31.993394  7333 net.cpp:165] Memory required for data: 194740736
I0823 20:44:31.993398  7333 layer_factory.hpp:77] Creating layer pool2
I0823 20:44:31.993404  7333 net.cpp:100] Creating Layer pool2
I0823 20:44:31.993408  7333 net.cpp:434] pool2 <- conv2
I0823 20:44:31.993413  7333 net.cpp:408] pool2 -> pool2
I0823 20:44:31.993458  7333 net.cpp:150] Setting up pool2
I0823 20:44:31.993466  7333 net.cpp:157] Top shape: 128 256 7 7 (1605632)
I0823 20:44:31.993469  7333 net.cpp:165] Memory required for data: 201163264
I0823 20:44:31.993472  7333 layer_factory.hpp:77] Creating layer norm2
I0823 20:44:31.993479  7333 net.cpp:100] Creating Layer norm2
I0823 20:44:31.993484  7333 net.cpp:434] norm2 <- pool2
I0823 20:44:31.993489  7333 net.cpp:408] norm2 -> norm2
I0823 20:44:31.993681  7333 net.cpp:150] Setting up norm2
I0823 20:44:31.993693  7333 net.cpp:157] Top shape: 128 256 7 7 (1605632)
I0823 20:44:31.993696  7333 net.cpp:165] Memory required for data: 207585792
I0823 20:44:31.993700  7333 layer_factory.hpp:77] Creating layer conv3
I0823 20:44:31.993710  7333 net.cpp:100] Creating Layer conv3
I0823 20:44:31.993712  7333 net.cpp:434] conv3 <- norm2
I0823 20:44:31.993718  7333 net.cpp:408] conv3 -> conv3
I0823 20:44:32.006990  7333 net.cpp:150] Setting up conv3
I0823 20:44:32.007009  7333 net.cpp:157] Top shape: 128 384 7 7 (2408448)
I0823 20:44:32.007012  7333 net.cpp:165] Memory required for data: 217219584
I0823 20:44:32.007022  7333 layer_factory.hpp:77] Creating layer relu3
I0823 20:44:32.007030  7333 net.cpp:100] Creating Layer relu3
I0823 20:44:32.007035  7333 net.cpp:434] relu3 <- conv3
I0823 20:44:32.007040  7333 net.cpp:395] relu3 -> conv3 (in-place)
I0823 20:44:32.007236  7333 net.cpp:150] Setting up relu3
I0823 20:44:32.007248  7333 net.cpp:157] Top shape: 128 384 7 7 (2408448)
I0823 20:44:32.007251  7333 net.cpp:165] Memory required for data: 226853376
I0823 20:44:32.007254  7333 layer_factory.hpp:77] Creating layer conv4
I0823 20:44:32.007266  7333 net.cpp:100] Creating Layer conv4
I0823 20:44:32.007273  7333 net.cpp:434] conv4 <- conv3
I0823 20:44:32.007280  7333 net.cpp:408] conv4 -> conv4
I0823 20:44:32.018519  7333 net.cpp:150] Setting up conv4
I0823 20:44:32.018539  7333 net.cpp:157] Top shape: 128 384 7 7 (2408448)
I0823 20:44:32.018543  7333 net.cpp:165] Memory required for data: 236487168
I0823 20:44:32.018549  7333 layer_factory.hpp:77] Creating layer relu4
I0823 20:44:32.018556  7333 net.cpp:100] Creating Layer relu4
I0823 20:44:32.018559  7333 net.cpp:434] relu4 <- conv4
I0823 20:44:32.018565  7333 net.cpp:395] relu4 -> conv4 (in-place)
I0823 20:44:32.018777  7333 net.cpp:150] Setting up relu4
I0823 20:44:32.018803  7333 net.cpp:157] Top shape: 128 384 7 7 (2408448)
I0823 20:44:32.018807  7333 net.cpp:165] Memory required for data: 246120960
I0823 20:44:32.018810  7333 layer_factory.hpp:77] Creating layer conv5
I0823 20:44:32.018821  7333 net.cpp:100] Creating Layer conv5
I0823 20:44:32.018826  7333 net.cpp:434] conv5 <- conv4
I0823 20:44:32.018833  7333 net.cpp:408] conv5 -> conv5
I0823 20:44:32.027389  7333 net.cpp:150] Setting up conv5
I0823 20:44:32.027406  7333 net.cpp:157] Top shape: 128 256 7 7 (1605632)
I0823 20:44:32.027410  7333 net.cpp:165] Memory required for data: 252543488
I0823 20:44:32.027421  7333 layer_factory.hpp:77] Creating layer relu5
I0823 20:44:32.027428  7333 net.cpp:100] Creating Layer relu5
I0823 20:44:32.027432  7333 net.cpp:434] relu5 <- conv5
I0823 20:44:32.027437  7333 net.cpp:395] relu5 -> conv5 (in-place)
I0823 20:44:32.027642  7333 net.cpp:150] Setting up relu5
I0823 20:44:32.027654  7333 net.cpp:157] Top shape: 128 256 7 7 (1605632)
I0823 20:44:32.027657  7333 net.cpp:165] Memory required for data: 258966016
I0823 20:44:32.027660  7333 layer_factory.hpp:77] Creating layer pool5
I0823 20:44:32.027669  7333 net.cpp:100] Creating Layer pool5
I0823 20:44:32.027673  7333 net.cpp:434] pool5 <- conv5
I0823 20:44:32.027678  7333 net.cpp:408] pool5 -> pool5
I0823 20:44:32.027727  7333 net.cpp:150] Setting up pool5
I0823 20:44:32.027735  7333 net.cpp:157] Top shape: 128 256 3 3 (294912)
I0823 20:44:32.027739  7333 net.cpp:165] Memory required for data: 260145664
I0823 20:44:32.027741  7333 layer_factory.hpp:77] Creating layer fc6n
I0823 20:44:32.027752  7333 net.cpp:100] Creating Layer fc6n
I0823 20:44:32.027755  7333 net.cpp:434] fc6n <- pool5
I0823 20:44:32.027761  7333 net.cpp:408] fc6n -> fc6
I0823 20:44:32.158718  7333 net.cpp:150] Setting up fc6n
I0823 20:44:32.158753  7333 net.cpp:157] Top shape: 128 4096 (524288)
I0823 20:44:32.158757  7333 net.cpp:165] Memory required for data: 262242816
I0823 20:44:32.158769  7333 layer_factory.hpp:77] Creating layer relu6
I0823 20:44:32.158782  7333 net.cpp:100] Creating Layer relu6
I0823 20:44:32.158787  7333 net.cpp:434] relu6 <- fc6
I0823 20:44:32.158795  7333 net.cpp:395] relu6 -> fc6 (in-place)
I0823 20:44:32.159378  7333 net.cpp:150] Setting up relu6
I0823 20:44:32.159392  7333 net.cpp:157] Top shape: 128 4096 (524288)
I0823 20:44:32.159396  7333 net.cpp:165] Memory required for data: 264339968
I0823 20:44:32.159399  7333 layer_factory.hpp:77] Creating layer drop6
I0823 20:44:32.159409  7333 net.cpp:100] Creating Layer drop6
I0823 20:44:32.159413  7333 net.cpp:434] drop6 <- fc6
I0823 20:44:32.159418  7333 net.cpp:395] drop6 -> fc6 (in-place)
I0823 20:44:32.159448  7333 net.cpp:150] Setting up drop6
I0823 20:44:32.159454  7333 net.cpp:157] Top shape: 128 4096 (524288)
I0823 20:44:32.159458  7333 net.cpp:165] Memory required for data: 266437120
I0823 20:44:32.159461  7333 layer_factory.hpp:77] Creating layer fc7n
I0823 20:44:32.159476  7333 net.cpp:100] Creating Layer fc7n
I0823 20:44:32.159481  7333 net.cpp:434] fc7n <- fc6
I0823 20:44:32.159487  7333 net.cpp:408] fc7n -> fc7
I0823 20:44:32.389354  7333 net.cpp:150] Setting up fc7n
I0823 20:44:32.389397  7333 net.cpp:157] Top shape: 128 4096 (524288)
I0823 20:44:32.389401  7333 net.cpp:165] Memory required for data: 268534272
I0823 20:44:32.389413  7333 layer_factory.hpp:77] Creating layer relu7
I0823 20:44:32.389434  7333 net.cpp:100] Creating Layer relu7
I0823 20:44:32.389439  7333 net.cpp:434] relu7 <- fc7
I0823 20:44:32.389448  7333 net.cpp:395] relu7 -> fc7 (in-place)
I0823 20:44:32.389714  7333 net.cpp:150] Setting up relu7
I0823 20:44:32.389727  7333 net.cpp:157] Top shape: 128 4096 (524288)
I0823 20:44:32.389730  7333 net.cpp:165] Memory required for data: 270631424
I0823 20:44:32.389734  7333 layer_factory.hpp:77] Creating layer drop7
I0823 20:44:32.389741  7333 net.cpp:100] Creating Layer drop7
I0823 20:44:32.389744  7333 net.cpp:434] drop7 <- fc7
I0823 20:44:32.389750  7333 net.cpp:395] drop7 -> fc7 (in-place)
I0823 20:44:32.389777  7333 net.cpp:150] Setting up drop7
I0823 20:44:32.389804  7333 net.cpp:157] Top shape: 128 4096 (524288)
I0823 20:44:32.389807  7333 net.cpp:165] Memory required for data: 272728576
I0823 20:44:32.389811  7333 layer_factory.hpp:77] Creating layer fc8n
I0823 20:44:32.389819  7333 net.cpp:100] Creating Layer fc8n
I0823 20:44:32.389830  7333 net.cpp:434] fc8n <- fc7
I0823 20:44:32.389835  7333 net.cpp:408] fc8n -> fc8
I0823 20:44:32.391463  7333 net.cpp:150] Setting up fc8n
I0823 20:44:32.391479  7333 net.cpp:157] Top shape: 128 3 (384)
I0823 20:44:32.391481  7333 net.cpp:165] Memory required for data: 272730112
I0823 20:44:32.391489  7333 layer_factory.hpp:77] Creating layer loss
I0823 20:44:32.391497  7333 net.cpp:100] Creating Layer loss
I0823 20:44:32.391501  7333 net.cpp:434] loss <- fc8
I0823 20:44:32.391506  7333 net.cpp:434] loss <- label
I0823 20:44:32.391515  7333 net.cpp:408] loss -> loss
I0823 20:44:32.391525  7333 layer_factory.hpp:77] Creating layer loss
…
I0823 20:44:32.392360  7333 net.cpp:322] The NetState phase (1) differed from the phase (0) specified by a rule in layer data
I0823 20:44:32.392529  7333 net.cpp:58] Initializing net from parameters: 
name: "CaffeNet"
state {
  phase: TEST
}
layer {
  name: "data"
  type: "Data"
  top: "data"
  top: "label"
  include {
    phase: TEST
  }
  transform_param {
    scale: 0.00390625
    mean_file: "data/person_only_lmdb/person_vs_background_vs_random_color_mean.binaryproto"
  }
  data_param {
    source: "data/person_only_lmdb/person_vs_background_vs_random_test_lmdb"
    batch_size: 100
    backend: LMDB
  }
}
layer {
  name: "conv1"
  type: "Convolution"
  bottom: "data"
  top: "conv1"
  param {
    lr_mult: 1
    decay_mult: 1
  }
  param {
    lr_mult: 2
    decay_mult: 0
  }
  convolution_param {
    num_output: 96
    kernel_size: 11
    stride: 4
    weight_filler {
      type: "gaussian"
      std: 0.01
    }
    bias_filler {
      type: "constant"
      value: 0
    }
  }
}
layer {
  name: "relu1"
  type: "ReLU"
  bottom: "conv1"
  top: "conv1"
}
layer {
  name: "pool1"
  type: "Pooling"
  bottom: "conv1"
  top: "pool1"
  pooling_param {
    pool: MAX
    kernel_size: 3
    stride: 2
  }
}
layer {
  name: "norm1"
  type: "LRN"
  bottom: "pool1"
  top: "norm1"
  lrn_param {
    local_size: 5
    alpha: 0.0001
    beta: 0.75
  }
}
layer {
  name: "conv2"
  type: "Convolution"
  bottom: "norm1"
  top: "conv2"
  param {
    lr_mult: 1
    decay_mult: 1
  }
  param {
    lr_mult: 2
    decay_mult: 0
  }
  convolution_param {
    num_output: 256
    pad: 2
    kernel_size: 5
    group: 2
    weight_filler {
      type: "gaussian"
      std: 0.01
    }
    bias_filler {
      type: "constant"
      value: 1
    }
  }
}
layer {
  name: "relu2"
  type: "ReLU"
  bottom: "conv2"
  top: "conv2"
}
layer {
  name: "pool2"
  type: "Pooling"
  bottom: "conv2"
  top: "pool2"
  pooling_param {
    pool: MAX
    kernel_size: 3
    stride: 2
  }
}
layer {
  name: "norm2"
  type: "LRN"
  bottom: "pool2"
  top: "norm2"
  lrn_param {
    local_size: 5
    alpha: 0.0001
    beta: 0.75
  }
}
layer {
  name: "conv3"
  type: "Convolution"
  bottom: "norm2"
  top: "conv3"
  param {
    lr_mult: 1
    decay_mult: 1
  }
  param {
    lr_mult: 2
    decay_mult: 0
  }
  convolution_param {
    num_output: 384
    pad: 1
    kernel_size: 3
    weight_filler {
      type: "gaussian"
      std: 0.01
    }
    bias_filler {
      type: "constant"
      value: 0
    }
  }
}
layer {
  name: "relu3"
  type: "ReLU"
  bottom: "conv3"
  top: "conv3"
}
layer {
  name: "conv4"
  type: "Convolution"
  bottom: "conv3"
  top: "conv4"
  param {
    lr_mult: 1
    decay_mult: 1
  }
  param {
    lr_mult: 2
    decay_mult: 0
  }
  convolution_param {
    num_output: 384
    pad: 1
    kernel_size: 3
    group: 2
    weight_filler {
      type: "gaussian"
      std: 0.01
    }
    bias_filler {
      type: "constant"
      value: 1
    }
  }
}
layer {
  name: "relu4"
  type: "ReLU"
  bottom: "conv4"
  top: "conv4"
}
layer {
  name: "conv5"
  type: "Convolution"
  bottom: "conv4"
  top: "conv5"
  param {
    lr_mult: 1
    decay_mult: 1
  }
  param {
    lr_mult: 2
    decay_mult: 0
  }
  convolution_param {
    num_output: 256
    pad: 1
    kernel_size: 3
    group: 2
    weight_filler {
      type: "gaussian"
      std: 0.01
    }
    bias_filler {
      type: "constant"
      value: 1
    }
  }
}
layer {
  name: "relu5"
  type: "ReLU"
  bottom: "conv5"
  top: "conv5"
}
layer {
  name: "pool5"
  type: "Pooling"
  bottom: "conv5"
  top: "pool5"
  pooling_param {
    pool: MAX
    kernel_size: 3
    stride: 2
  }
}
layer {
  name: "fc6n"
  type: "InnerProduct"
  bottom: "pool5"
  top: "fc6"
  param {
    lr_mult: 1
    decay_mult: 1
  }
  param {
    lr_mult: 2
    decay_mult: 0
  }
  inner_product_param {
    num_output: 4096
    weight_filler {
      type: "gaussian"
      std: 0.005
    }
    bias_filler {
      type: "constant"
      value: 1
    }
  }
}
layer {
  name: "relu6"
  type: "ReLU"
  bottom: "fc6"
  top: "fc6"
}
layer {
  name: "drop6"
  type: "Dropout"
  bottom: "fc6"
  top: "fc6"
  dropout_param {
    dropout_ratio: 0.5
  }
}
layer {
  name: "fc7n"
  type: "InnerProduct"
  bottom: "fc6"
  top: "fc7"
  param {
    lr_mult: 1
    decay_mult: 1
  }
  param {
    lr_mult: 2
    decay_mult: 0
  }
  inner_product_param {
    num_output: 4096
    weight_filler {
      type: "gaussian"
      std: 0.005
    }
    bias_filler {
      type: "constant"
      value: 1
    }
  }
}
layer {
  name: "relu7"
  type: "ReLU"
  bottom: "fc7"
  top: "fc7"
}
layer {
  name: "drop7"
  type: "Dropout"
  bottom: "fc7"
  top: "fc7"
  dropout_param {
    dropout_ratio: 0.5
  }
}
layer {
  name: "fc8n"
  type: "InnerProduct"
  bottom: "fc7"
  top: "fc8"
  param {
    lr_mult: 1
    decay_mult: 1
  }
  param {
    lr_mult: 2
    decay_mult: 0
  }
  inner_product_param {
    num_output: 3
    weight_filler {
      type: "gaussian"
      std: 0.01
    }
    bias_filler {
      type: "constant"
      value: 0
    }
  }
}
layer {
  name: "accuracy"
  type: "Accuracy"
  bottom: "fc8"
  bottom: "label"
  top: "accuracy"
  include {
    phase: TEST
  }
}
layer {
  name: "loss"
  type: "SoftmaxWithLoss"
  bottom: "fc8"
  bottom: "label"
  top: "loss"
}
I0823 20:44:32.392670  7333 layer_factory.hpp:77] Creating layer data
I0823 20:44:32.392809  7333 net.cpp:100] Creating Layer data
I0823 20:44:32.392819  7333 net.cpp:408] data -> data
I0823 20:44:32.392830  7333 net.cpp:408] data -> label
I0823 20:44:32.392838  7333 data_transformer.cpp:25] Loading mean file from: data/person_only_lmdb/person_vs_background_vs_random_color_mean.binaryproto
I0823 20:44:32.394399  7345 db_lmdb.cpp:35] Opened lmdb data/person_only_lmdb/person_vs_background_vs_random_test_lmdb
I0823 20:44:32.394737  7333 data_layer.cpp:41] output data size: 100,3,128,128
I0823 20:44:32.450300  7333 net.cpp:150] Setting up data
I0823 20:44:32.450343  7333 net.cpp:157] Top shape: 100 3 128 128 (4915200)
I0823 20:44:32.450352  7333 net.cpp:157] Top shape: 100 (100)
I0823 20:44:32.450356  7333 net.cpp:165] Memory required for data: 19661200
I0823 20:44:32.450364  7333 layer_factory.hpp:77] Creating layer label_data_1_split
I0823 20:44:32.450386  7333 net.cpp:100] Creating Layer label_data_1_split
I0823 20:44:32.450392  7333 net.cpp:434] label_data_1_split <- label
I0823 20:44:32.450403  7333 net.cpp:408] label_data_1_split -> label_data_1_split_0
I0823 20:44:32.450418  7333 net.cpp:408] label_data_1_split -> label_data_1_split_1
I0823 20:44:32.450673  7333 net.cpp:150] Setting up label_data_1_split
I0823 20:44:32.450723  7333 net.cpp:157] Top shape: 100 (100)
I0823 20:44:32.450734  7333 net.cpp:157] Top shape: 100 (100)
I0823 20:44:32.450739  7333 net.cpp:165] Memory required for data: 19662000
I0823 20:44:32.450747  7333 layer_factory.hpp:77] Creating layer conv1
I0823 20:44:32.450772  7333 net.cpp:100] Creating Layer conv1
I0823 20:44:32.450781  7333 net.cpp:434] conv1 <- data
I0823 20:44:32.450796  7333 net.cpp:408] conv1 -> conv1
I0823 20:44:32.455693  7333 net.cpp:150] Setting up conv1
I0823 20:44:32.455726  7333 net.cpp:157] Top shape: 100 96 30 30 (8640000)
I0823 20:44:32.455734  7333 net.cpp:165] Memory required for data: 54222000
I0823 20:44:32.455754  7333 layer_factory.hpp:77] Creating layer relu1
I0823 20:44:32.455768  7333 net.cpp:100] Creating Layer relu1
I0823 20:44:32.455777  7333 net.cpp:434] relu1 <- conv1
I0823 20:44:32.455788  7333 net.cpp:395] relu1 -> conv1 (in-place)
I0823 20:44:32.456145  7333 net.cpp:150] Setting up relu1
I0823 20:44:32.456163  7333 net.cpp:157] Top shape: 100 96 30 30 (8640000)
I0823 20:44:32.456168  7333 net.cpp:165] Memory required for data: 88782000
I0823 20:44:32.456174  7333 layer_factory.hpp:77] Creating layer pool1
I0823 20:44:32.456189  7333 net.cpp:100] Creating Layer pool1
I0823 20:44:32.456195  7333 net.cpp:434] pool1 <- conv1
I0823 20:44:32.456207  7333 net.cpp:408] pool1 -> pool1
I0823 20:44:32.456291  7333 net.cpp:150] Setting up pool1
I0823 20:44:32.456305  7333 net.cpp:157] Top shape: 100 96 15 15 (2160000)
I0823 20:44:32.456310  7333 net.cpp:165] Memory required for data: 97422000
I0823 20:44:32.456315  7333 layer_factory.hpp:77] Creating layer norm1
I0823 20:44:32.456328  7333 net.cpp:100] Creating Layer norm1
I0823 20:44:32.456334  7333 net.cpp:434] norm1 <- pool1
I0823 20:44:32.456344  7333 net.cpp:408] norm1 -> norm1
I0823 20:44:32.457300  7333 net.cpp:150] Setting up norm1
I0823 20:44:32.457327  7333 net.cpp:157] Top shape: 100 96 15 15 (2160000)
I0823 20:44:32.457334  7333 net.cpp:165] Memory required for data: 106062000
I0823 20:44:32.457340  7333 layer_factory.hpp:77] Creating layer conv2
I0823 20:44:32.457360  7333 net.cpp:100] Creating Layer conv2
I0823 20:44:32.457367  7333 net.cpp:434] conv2 <- norm1
I0823 20:44:32.457381  7333 net.cpp:408] conv2 -> conv2
I0823 20:44:32.469363  7333 net.cpp:150] Setting up conv2
I0823 20:44:32.469398  7333 net.cpp:157] Top shape: 100 256 15 15 (5760000)
I0823 20:44:32.469435  7333 net.cpp:165] Memory required for data: 129102000
I0823 20:44:32.469455  7333 layer_factory.hpp:77] Creating layer relu2
I0823 20:44:32.469470  7333 net.cpp:100] Creating Layer relu2
I0823 20:44:32.469478  7333 net.cpp:434] relu2 <- conv2
I0823 20:44:32.469494  7333 net.cpp:395] relu2 -> conv2 (in-place)
I0823 20:44:32.470360  7333 net.cpp:150] Setting up relu2
I0823 20:44:32.470386  7333 net.cpp:157] Top shape: 100 256 15 15 (5760000)
I0823 20:44:32.470391  7333 net.cpp:165] Memory required for data: 152142000
I0823 20:44:32.470398  7333 layer_factory.hpp:77] Creating layer pool2
I0823 20:44:32.470417  7333 net.cpp:100] Creating Layer pool2
I0823 20:44:32.470422  7333 net.cpp:434] pool2 <- conv2
I0823 20:44:32.470433  7333 net.cpp:408] pool2 -> pool2
I0823 20:44:32.470531  7333 net.cpp:150] Setting up pool2
I0823 20:44:32.470547  7333 net.cpp:157] Top shape: 100 256 7 7 (1254400)
I0823 20:44:32.470552  7333 net.cpp:165] Memory required for data: 157159600
I0823 20:44:32.470557  7333 layer_factory.hpp:77] Creating layer norm2
I0823 20:44:32.470574  7333 net.cpp:100] Creating Layer norm2
I0823 20:44:32.470582  7333 net.cpp:434] norm2 <- pool2
I0823 20:44:32.470593  7333 net.cpp:408] norm2 -> norm2
I0823 20:44:32.470998  7333 net.cpp:150] Setting up norm2
I0823 20:44:32.471019  7333 net.cpp:157] Top shape: 100 256 7 7 (1254400)
I0823 20:44:32.471024  7333 net.cpp:165] Memory required for data: 162177200
I0823 20:44:32.471030  7333 layer_factory.hpp:77] Creating layer conv3
I0823 20:44:32.471050  7333 net.cpp:100] Creating Layer conv3
I0823 20:44:32.471058  7333 net.cpp:434] conv3 <- norm2
I0823 20:44:32.471077  7333 net.cpp:408] conv3 -> conv3
I0823 20:44:32.493495  7333 net.cpp:150] Setting up conv3
I0823 20:44:32.493535  7333 net.cpp:157] Top shape: 100 384 7 7 (1881600)
I0823 20:44:32.493541  7333 net.cpp:165] Memory required for data: 169703600
I0823 20:44:32.493564  7333 layer_factory.hpp:77] Creating layer relu3
I0823 20:44:32.493579  7333 net.cpp:100] Creating Layer relu3
I0823 20:44:32.493587  7333 net.cpp:434] relu3 <- conv3
I0823 20:44:32.493597  7333 net.cpp:395] relu3 -> conv3 (in-place)
I0823 20:44:32.493930  7333 net.cpp:150] Setting up relu3
I0823 20:44:32.493947  7333 net.cpp:157] Top shape: 100 384 7 7 (1881600)
I0823 20:44:32.493952  7333 net.cpp:165] Memory required for data: 177230000
I0823 20:44:32.493957  7333 layer_factory.hpp:77] Creating layer conv4
I0823 20:44:32.493978  7333 net.cpp:100] Creating Layer conv4
I0823 20:44:32.493985  7333 net.cpp:434] conv4 <- conv3
I0823 20:44:32.493995  7333 net.cpp:408] conv4 -> conv4
I0823 20:44:32.511137  7333 net.cpp:150] Setting up conv4
I0823 20:44:32.511174  7333 net.cpp:157] Top shape: 100 384 7 7 (1881600)
I0823 20:44:32.511181  7333 net.cpp:165] Memory required for data: 184756400
I0823 20:44:32.511194  7333 layer_factory.hpp:77] Creating layer relu4
I0823 20:44:32.511209  7333 net.cpp:100] Creating Layer relu4
I0823 20:44:32.511215  7333 net.cpp:434] relu4 <- conv4
I0823 20:44:32.511224  7333 net.cpp:395] relu4 -> conv4 (in-place)
I0823 20:44:32.511945  7333 net.cpp:150] Setting up relu4
I0823 20:44:32.511965  7333 net.cpp:157] Top shape: 100 384 7 7 (1881600)
I0823 20:44:32.511970  7333 net.cpp:165] Memory required for data: 192282800
I0823 20:44:32.511975  7333 layer_factory.hpp:77] Creating layer conv5
I0823 20:44:32.511992  7333 net.cpp:100] Creating Layer conv5
I0823 20:44:32.511997  7333 net.cpp:434] conv5 <- conv4
I0823 20:44:32.512008  7333 net.cpp:408] conv5 -> conv5
I0823 20:44:32.525059  7333 net.cpp:150] Setting up conv5
I0823 20:44:32.525089  7333 net.cpp:157] Top shape: 100 256 7 7 (1254400)
I0823 20:44:32.525094  7333 net.cpp:165] Memory required for data: 197300400
I0823 20:44:32.525112  7333 layer_factory.hpp:77] Creating layer relu5
I0823 20:44:32.525123  7333 net.cpp:100] Creating Layer relu5
I0823 20:44:32.525128  7333 net.cpp:434] relu5 <- conv5
I0823 20:44:32.525136  7333 net.cpp:395] relu5 -> conv5 (in-place)
I0823 20:44:32.525405  7333 net.cpp:150] Setting up relu5
I0823 20:44:32.525439  7333 net.cpp:157] Top shape: 100 256 7 7 (1254400)
I0823 20:44:32.525442  7333 net.cpp:165] Memory required for data: 202318000
I0823 20:44:32.525446  7333 layer_factory.hpp:77] Creating layer pool5
I0823 20:44:32.525462  7333 net.cpp:100] Creating Layer pool5
I0823 20:44:32.525467  7333 net.cpp:434] pool5 <- conv5
I0823 20:44:32.525475  7333 net.cpp:408] pool5 -> pool5
I0823 20:44:32.525550  7333 net.cpp:150] Setting up pool5
I0823 20:44:32.525562  7333 net.cpp:157] Top shape: 100 256 3 3 (230400)
I0823 20:44:32.525565  7333 net.cpp:165] Memory required for data: 203239600
I0823 20:44:32.525569  7333 layer_factory.hpp:77] Creating layer fc6n
I0823 20:44:32.525581  7333 net.cpp:100] Creating Layer fc6n
I0823 20:44:32.525605  7333 net.cpp:434] fc6n <- pool5
I0823 20:44:32.525612  7333 net.cpp:408] fc6n -> fc6
I0823 20:44:32.662794  7333 net.cpp:150] Setting up fc6n
I0823 20:44:32.662838  7333 net.cpp:157] Top shape: 100 4096 (409600)
I0823 20:44:32.662842  7333 net.cpp:165] Memory required for data: 204878000
I0823 20:44:32.662853  7333 layer_factory.hpp:77] Creating layer relu6
I0823 20:44:32.662868  7333 net.cpp:100] Creating Layer relu6
I0823 20:44:32.662873  7333 net.cpp:434] relu6 <- fc6
I0823 20:44:32.662879  7333 net.cpp:395] relu6 -> fc6 (in-place)
I0823 20:44:32.663156  7333 net.cpp:150] Setting up relu6
I0823 20:44:32.663167  7333 net.cpp:157] Top shape: 100 4096 (409600)
I0823 20:44:32.663170  7333 net.cpp:165] Memory required for data: 206516400
I0823 20:44:32.663174  7333 layer_factory.hpp:77] Creating layer drop6
I0823 20:44:32.663183  7333 net.cpp:100] Creating Layer drop6
I0823 20:44:32.663187  7333 net.cpp:434] drop6 <- fc6
I0823 20:44:32.663192  7333 net.cpp:395] drop6 -> fc6 (in-place)
I0823 20:44:32.663230  7333 net.cpp:150] Setting up drop6
I0823 20:44:32.663239  7333 net.cpp:157] Top shape: 100 4096 (409600)
I0823 20:44:32.663241  7333 net.cpp:165] Memory required for data: 208154800
I0823 20:44:32.663244  7333 layer_factory.hpp:77] Creating layer fc7n
I0823 20:44:32.663252  7333 net.cpp:100] Creating Layer fc7n
I0823 20:44:32.663255  7333 net.cpp:434] fc7n <- fc6
I0823 20:44:32.663264  7333 net.cpp:408] fc7n -> fc7
I0823 20:44:32.893182  7333 net.cpp:150] Setting up fc7n
I0823 20:44:32.893224  7333 net.cpp:157] Top shape: 100 4096 (409600)
I0823 20:44:32.893227  7333 net.cpp:165] Memory required for data: 209793200
I0823 20:44:32.893239  7333 layer_factory.hpp:77] Creating layer relu7
I0823 20:44:32.893249  7333 net.cpp:100] Creating Layer relu7
I0823 20:44:32.893254  7333 net.cpp:434] relu7 <- fc7
I0823 20:44:32.893263  7333 net.cpp:395] relu7 -> fc7 (in-place)
I0823 20:44:32.893990  7333 net.cpp:150] Setting up relu7
I0823 20:44:32.894006  7333 net.cpp:157] Top shape: 100 4096 (409600)
I0823 20:44:32.894008  7333 net.cpp:165] Memory required for data: 211431600
I0823 20:44:32.894012  7333 layer_factory.hpp:77] Creating layer drop7
I0823 20:44:32.894023  7333 net.cpp:100] Creating Layer drop7
I0823 20:44:32.894027  7333 net.cpp:434] drop7 <- fc7
I0823 20:44:32.894033  7333 net.cpp:395] drop7 -> fc7 (in-place)
I0823 20:44:32.894071  7333 net.cpp:150] Setting up drop7
I0823 20:44:32.894081  7333 net.cpp:157] Top shape: 100 4096 (409600)
I0823 20:44:32.894084  7333 net.cpp:165] Memory required for data: 213070000
I0823 20:44:32.894088  7333 layer_factory.hpp:77] Creating layer fc8n
I0823 20:44:32.894095  7333 net.cpp:100] Creating Layer fc8n
I0823 20:44:32.894099  7333 net.cpp:434] fc8n <- fc7
I0823 20:44:32.894106  7333 net.cpp:408] fc8n -> fc8
I0823 20:44:32.894395  7333 net.cpp:150] Setting up fc8n
I0823 20:44:32.894404  7333 net.cpp:157] Top shape: 100 3 (300)
I0823 20:44:32.894407  7333 net.cpp:165] Memory required for data: 213071200
I0823 20:44:32.894414  7333 layer_factory.hpp:77] Creating layer fc8_fc8n_0_split
I0823 20:44:32.894423  7333 net.cpp:100] Creating Layer fc8_fc8n_0_split
I0823 20:44:32.894426  7333 net.cpp:434] fc8_fc8n_0_split <- fc8
I0823 20:44:32.894431  7333 net.cpp:408] fc8_fc8n_0_split -> fc8_fc8n_0_split_0
I0823 20:44:32.894438  7333 net.cpp:408] fc8_fc8n_0_split -> fc8_fc8n_0_split_1
I0823 20:44:32.894505  7333 net.cpp:150] Setting up fc8_fc8n_0_split
I0823 20:44:32.894513  7333 net.cpp:157] Top shape: 100 3 (300)
I0823 20:44:32.894516  7333 net.cpp:157] Top shape: 100 3 (300)
I0823 20:44:32.894520  7333 net.cpp:165] Memory required for data: 213073600
I0823 20:44:32.894522  7333 layer_factory.hpp:77] Creating layer accuracy
I0823 20:44:32.894531  7333 net.cpp:100] Creating Layer accuracy
I0823 20:44:32.894533  7333 net.cpp:434] accuracy <- fc8_fc8n_0_split_0
I0823 20:44:32.894544  7333 net.cpp:434] accuracy <- label_data_1_split_0
I0823 20:44:32.894556  7333 net.cpp:408] accuracy -> accuracy
…
