…
I0711 01:17:21.654201 116316 net.cpp:313] The NetState phase (0) differed from the phase (1) specified by a rule in layer accuracy
I0711 01:17:21.654325 116316 net.cpp:49] Initializing net from parameters: 
name: "LeNet"
state {
  phase: TRAIN
}
layer {
  name: "mnist"
  type: "Data"
  top: "data"
  top: "label"
  include {
    phase: TRAIN
  }
  transform_param {
    mean_file: "data/lmdb/color_augs/person_color_mean.binaryproto"
  }
  data_param {
    source: "data/lmdb/color_augs/people_color_train_lmdb"
    batch_size: 64
    backend: LMDB
  }
}
layer {
  name: "conv1"
  type: "Convolution"
  bottom: "data"
  top: "conv1"
  param {
    lr_mult: 1
  }
  param {
    lr_mult: 2
  }
  convolution_param {
    num_output: 20
    kernel_size: 5
    stride: 1
    weight_filler {
      type: "xavier"
    }
    bias_filler {
      type: "constant"
    }
  }
}
layer {
  name: "pool1"
  type: "Pooling"
  bottom: "conv1"
  top: "pool1"
  pooling_param {
    pool: MAX
    kernel_size: 2
    stride: 2
  }
}
layer {
  name: "conv2"
  type: "Convolution"
  bottom: "pool1"
  top: "conv2"
  param {
    lr_mult: 1
  }
  param {
    lr_mult: 2
  }
  convolution_param {
    num_output: 50
    kernel_size: 5
    stride: 1
    weight_filler {
      type: "xavier"
    }
    bias_filler {
      type: "constant"
    }
  }
}
layer {
  name: "pool2"
  type: "Pooling"
  bottom: "conv2"
  top: "pool2"
  pooling_param {
    pool: MAX
    kernel_size: 2
    stride: 2
  }
}
layer {
  name: "ip1"
  type: "InnerProduct"
  bottom: "pool2"
  top: "ip1"
  param {
    lr_mult: 1
  }
  param {
    lr_mult: 2
  }
  inner_product_param {
    num_output: 500
    weight_filler {
      type: "xavier"
    }
    bias_filler {
      type: "constant"
    }
  }
}
layer {
  name: "relu1"
  type: "ReLU"
  bottom: "ip1"
  top: "ip1"
}
layer {
  name: "ip2"
  type: "InnerProduct"
  bottom: "ip1"
  top: "ip2"
  param {
    lr_mult: 1
  }
  param {
    lr_mult: 2
  }
  inner_product_param {
    num_output: 2
    weight_filler {
      type: "xavier"
    }
    bias_filler {
      type: "constant"
    }
  }
}
layer {
  name: "loss"
  type: "SoftmaxWithLoss"
  bottom: "ip2"
  bottom: "label"
  top: "loss"
}
I0711 01:17:21.654402 116316 layer_factory.hpp:77] Creating layer mnist
I0711 01:17:21.655774 116316 net.cpp:91] Creating Layer mnist
I0711 01:17:21.655800 116316 net.cpp:399] mnist -> data
I0711 01:17:21.655820 116316 net.cpp:399] mnist -> label
I0711 01:17:21.655872 116316 data_transformer.cpp:25] Loading mean file from: data/lmdb/color_augs/person_color_mean.binaryproto
I0711 01:17:21.656878 116322 db_lmdb.cpp:35] Opened lmdb data/lmdb/color_augs/people_color_train_lmdb
I0711 01:20:34.447635 116316 data_layer.cpp:41] output data size: 64,3,256,256
I0711 01:20:34.552988 116316 net.cpp:141] Setting up mnist
I0711 01:20:34.553056 116316 net.cpp:148] Top shape: 64 3 256 256 (12582912)
I0711 01:20:34.553064 116316 net.cpp:148] Top shape: 64 (64)
I0711 01:20:34.553079 116316 net.cpp:156] Memory required for data: 50331904
I0711 01:20:34.553088 116316 layer_factory.hpp:77] Creating layer conv1
I0711 01:20:34.553125 116316 net.cpp:91] Creating Layer conv1
I0711 01:20:34.553135 116316 net.cpp:425] conv1 <- data
I0711 01:20:34.553144 116316 net.cpp:399] conv1 -> conv1
I0711 01:20:37.335016 116316 net.cpp:141] Setting up conv1
I0711 01:20:37.335074 116316 net.cpp:148] Top shape: 64 20 252 252 (81285120)
I0711 01:20:37.335084 116316 net.cpp:156] Memory required for data: 375472384
I0711 01:20:37.335111 116316 layer_factory.hpp:77] Creating layer pool1
I0711 01:20:37.335139 116316 net.cpp:91] Creating Layer pool1
I0711 01:20:37.335150 116316 net.cpp:425] pool1 <- conv1
I0711 01:20:37.335166 116316 net.cpp:399] pool1 -> pool1
I0711 01:20:37.335258 116316 net.cpp:141] Setting up pool1
I0711 01:20:37.335275 116316 net.cpp:148] Top shape: 64 20 126 126 (20321280)
I0711 01:20:37.335283 116316 net.cpp:156] Memory required for data: 456757504
I0711 01:20:37.335289 116316 layer_factory.hpp:77] Creating layer conv2
I0711 01:20:37.335309 116316 net.cpp:91] Creating Layer conv2
I0711 01:20:37.335327 116316 net.cpp:425] conv2 <- pool1
I0711 01:20:37.335338 116316 net.cpp:399] conv2 -> conv2
I0711 01:20:37.338205 116316 net.cpp:141] Setting up conv2
I0711 01:20:37.338234 116316 net.cpp:148] Top shape: 64 50 122 122 (47628800)
I0711 01:20:37.338243 116316 net.cpp:156] Memory required for data: 647272704
I0711 01:20:37.338259 116316 layer_factory.hpp:77] Creating layer pool2
I0711 01:20:37.338279 116316 net.cpp:91] Creating Layer pool2
I0711 01:20:37.338290 116316 net.cpp:425] pool2 <- conv2
I0711 01:20:37.338301 116316 net.cpp:399] pool2 -> pool2
I0711 01:20:37.338376 116316 net.cpp:141] Setting up pool2
I0711 01:20:37.338392 116316 net.cpp:148] Top shape: 64 50 61 61 (11907200)
I0711 01:20:37.338398 116316 net.cpp:156] Memory required for data: 694901504
I0711 01:20:37.338405 116316 layer_factory.hpp:77] Creating layer ip1
I0711 01:20:37.338423 116316 net.cpp:91] Creating Layer ip1
I0711 01:20:37.338431 116316 net.cpp:425] ip1 <- pool2
I0711 01:20:37.338443 116316 net.cpp:399] ip1 -> ip1
I0711 01:20:38.025537 116316 net.cpp:141] Setting up ip1
I0711 01:20:38.025590 116316 net.cpp:148] Top shape: 64 500 (32000)
I0711 01:20:38.025594 116316 net.cpp:156] Memory required for data: 695029504
I0711 01:20:38.025612 116316 layer_factory.hpp:77] Creating layer relu1
I0711 01:20:38.025630 116316 net.cpp:91] Creating Layer relu1
I0711 01:20:38.025635 116316 net.cpp:425] relu1 <- ip1
I0711 01:20:38.025641 116316 net.cpp:386] relu1 -> ip1 (in-place)
I0711 01:20:38.026018 116316 net.cpp:141] Setting up relu1
I0711 01:20:38.026044 116316 net.cpp:148] Top shape: 64 500 (32000)
I0711 01:20:38.026049 116316 net.cpp:156] Memory required for data: 695157504
I0711 01:20:38.026052 116316 layer_factory.hpp:77] Creating layer ip2
I0711 01:20:38.026062 116316 net.cpp:91] Creating Layer ip2
I0711 01:20:38.026065 116316 net.cpp:425] ip2 <- ip1
I0711 01:20:38.026072 116316 net.cpp:399] ip2 -> ip2
I0711 01:20:38.026269 116316 net.cpp:141] Setting up ip2
I0711 01:20:38.026294 116316 net.cpp:148] Top shape: 64 2 (128)
I0711 01:20:38.026298 116316 net.cpp:156] Memory required for data: 695158016
I0711 01:20:38.026305 116316 layer_factory.hpp:77] Creating layer loss
I0711 01:20:38.026324 116316 net.cpp:91] Creating Layer loss
I0711 01:20:38.026329 116316 net.cpp:425] loss <- ip2
I0711 01:20:38.026334 116316 net.cpp:425] loss <- label
I0711 01:20:38.026341 116316 net.cpp:399] loss -> loss
I0711 01:20:38.026351 116316 layer_factory.hpp:77] Creating layer loss
…
I0711 01:20:38.026996 116316 solver.cpp:181] Creating test net (#0) specified by net file: nets/color_augs/trainval.prototxt
I0711 01:20:38.027046 116316 net.cpp:313] The NetState phase (1) differed from the phase (0) specified by a rule in layer mnist
I0711 01:20:38.027158 116316 net.cpp:49] Initializing net from parameters: 
name: "LeNet"
state {
  phase: TEST
}
layer {
  name: "mnist"
  type: "Data"
  top: "data"
  top: "label"
  include {
    phase: TEST
  }
  transform_param {
    mean_file: "data/lmdb/color_augs/person_color_mean.binaryproto"
  }
  data_param {
    source: "data/lmdb/people_test_lmdb"
    batch_size: 100
    backend: LMDB
  }
}
layer {
  name: "conv1"
  type: "Convolution"
  bottom: "data"
  top: "conv1"
  param {
    lr_mult: 1
  }
  param {
    lr_mult: 2
  }
  convolution_param {
    num_output: 20
    kernel_size: 5
    stride: 1
    weight_filler {
      type: "xavier"
    }
    bias_filler {
      type: "constant"
    }
  }
}
layer {
  name: "pool1"
  type: "Pooling"
  bottom: "conv1"
  top: "pool1"
  pooling_param {
    pool: MAX
    kernel_size: 2
    stride: 2
  }
}
layer {
  name: "conv2"
  type: "Convolution"
  bottom: "pool1"
  top: "conv2"
  param {
    lr_mult: 1
  }
  param {
    lr_mult: 2
  }
  convolution_param {
    num_output: 50
    kernel_size: 5
    stride: 1
    weight_filler {
      type: "xavier"
    }
    bias_filler {
      type: "constant"
    }
  }
}
layer {
  name: "pool2"
  type: "Pooling"
  bottom: "conv2"
  top: "pool2"
  pooling_param {
    pool: MAX
    kernel_size: 2
    stride: 2
  }
}
layer {
  name: "ip1"
  type: "InnerProduct"
  bottom: "pool2"
  top: "ip1"
  param {
    lr_mult: 1
  }
  param {
    lr_mult: 2
  }
  inner_product_param {
    num_output: 500
    weight_filler {
      type: "xavier"
    }
    bias_filler {
      type: "constant"
    }
  }
}
layer {
  name: "relu1"
  type: "ReLU"
  bottom: "ip1"
  top: "ip1"
}
layer {
  name: "ip2"
  type: "InnerProduct"
  bottom: "ip1"
  top: "ip2"
  param {
    lr_mult: 1
  }
  param {
    lr_mult: 2
  }
  inner_product_param {
    num_output: 2
    weight_filler {
      type: "xavier"
    }
    bias_filler {
      type: "constant"
    }
  }
}
layer {
  name: "accuracy"
  type: "Accuracy"
  bottom: "ip2"
  bottom: "label"
  top: "accuracy"
  include {
    phase: TEST
  }
}
layer {
  name: "loss"
  type: "SoftmaxWithLoss"
  bottom: "ip2"
  bottom: "label"
  top: "loss"
}
I0711 01:20:38.027225 116316 layer_factory.hpp:77] Creating layer mnist
I0711 01:20:38.027328 116316 net.cpp:91] Creating Layer mnist
I0711 01:20:38.027338 116316 net.cpp:399] mnist -> data
I0711 01:20:38.027345 116316 net.cpp:399] mnist -> label
I0711 01:20:38.027353 116316 data_transformer.cpp:25] Loading mean file from: data/lmdb/color_augs/person_color_mean.binaryproto
I0711 01:20:38.029069 116327 db_lmdb.cpp:35] Opened lmdb data/lmdb/people_test_lmdb
I0711 01:20:38.029688 116316 data_layer.cpp:41] output data size: 100,3,256,256
I0711 01:20:38.253908 116316 net.cpp:141] Setting up mnist
I0711 01:20:38.253967 116316 net.cpp:148] Top shape: 100 3 256 256 (19660800)
I0711 01:20:38.253973 116316 net.cpp:148] Top shape: 100 (100)
I0711 01:20:38.253975 116316 net.cpp:156] Memory required for data: 78643600
I0711 01:20:38.253983 116316 layer_factory.hpp:77] Creating layer label_mnist_1_split
I0711 01:20:38.253996 116316 net.cpp:91] Creating Layer label_mnist_1_split
I0711 01:20:38.254000 116316 net.cpp:425] label_mnist_1_split <- label
I0711 01:20:38.254007 116316 net.cpp:399] label_mnist_1_split -> label_mnist_1_split_0
I0711 01:20:38.254017 116316 net.cpp:399] label_mnist_1_split -> label_mnist_1_split_1
I0711 01:20:38.254075 116316 net.cpp:141] Setting up label_mnist_1_split
I0711 01:20:38.254082 116316 net.cpp:148] Top shape: 100 (100)
I0711 01:20:38.254086 116316 net.cpp:148] Top shape: 100 (100)
I0711 01:20:38.254089 116316 net.cpp:156] Memory required for data: 78644400
I0711 01:20:38.254092 116316 layer_factory.hpp:77] Creating layer conv1
I0711 01:20:38.254106 116316 net.cpp:91] Creating Layer conv1
I0711 01:20:38.254108 116316 net.cpp:425] conv1 <- data
I0711 01:20:38.254115 116316 net.cpp:399] conv1 -> conv1
I0711 01:20:38.255585 116316 net.cpp:141] Setting up conv1
I0711 01:20:38.255612 116316 net.cpp:148] Top shape: 100 20 252 252 (127008000)
I0711 01:20:38.255616 116316 net.cpp:156] Memory required for data: 586676400
I0711 01:20:38.255628 116316 layer_factory.hpp:77] Creating layer pool1
I0711 01:20:38.255638 116316 net.cpp:91] Creating Layer pool1
I0711 01:20:38.255641 116316 net.cpp:425] pool1 <- conv1
I0711 01:20:38.255646 116316 net.cpp:399] pool1 -> pool1
I0711 01:20:38.255688 116316 net.cpp:141] Setting up pool1
I0711 01:20:38.255697 116316 net.cpp:148] Top shape: 100 20 126 126 (31752000)
I0711 01:20:38.255699 116316 net.cpp:156] Memory required for data: 713684400
I0711 01:20:38.255702 116316 layer_factory.hpp:77] Creating layer conv2
I0711 01:20:38.255712 116316 net.cpp:91] Creating Layer conv2
I0711 01:20:38.255717 116316 net.cpp:425] conv2 <- pool1
I0711 01:20:38.255722 116316 net.cpp:399] conv2 -> conv2
I0711 01:20:38.270596 116316 net.cpp:141] Setting up conv2
I0711 01:20:38.270609 116316 net.cpp:148] Top shape: 100 50 122 122 (74420000)
I0711 01:20:38.270624 116316 net.cpp:156] Memory required for data: 1011364400
I0711 01:20:38.270634 116316 layer_factory.hpp:77] Creating layer pool2
I0711 01:20:38.270642 116316 net.cpp:91] Creating Layer pool2
I0711 01:20:38.270645 116316 net.cpp:425] pool2 <- conv2
I0711 01:20:38.270650 116316 net.cpp:399] pool2 -> pool2
I0711 01:20:38.270687 116316 net.cpp:141] Setting up pool2
I0711 01:20:38.270696 116316 net.cpp:148] Top shape: 100 50 61 61 (18605000)
I0711 01:20:38.270711 116316 net.cpp:156] Memory required for data: 1085784400
I0711 01:20:38.270714 116316 layer_factory.hpp:77] Creating layer ip1
I0711 01:20:38.270723 116316 net.cpp:91] Creating Layer ip1
I0711 01:20:38.270726 116316 net.cpp:425] ip1 <- pool2
I0711 01:20:38.270731 116316 net.cpp:399] ip1 -> ip1
I0711 01:20:38.949913 116316 net.cpp:141] Setting up ip1
I0711 01:20:38.949954 116316 net.cpp:148] Top shape: 100 500 (50000)
I0711 01:20:38.949959 116316 net.cpp:156] Memory required for data: 1085984400
I0711 01:20:38.949972 116316 layer_factory.hpp:77] Creating layer relu1
I0711 01:20:38.949983 116316 net.cpp:91] Creating Layer relu1
I0711 01:20:38.949987 116316 net.cpp:425] relu1 <- ip1
I0711 01:20:38.949993 116316 net.cpp:386] relu1 -> ip1 (in-place)
I0711 01:20:38.950467 116316 net.cpp:141] Setting up relu1
I0711 01:20:38.950480 116316 net.cpp:148] Top shape: 100 500 (50000)
I0711 01:20:38.950496 116316 net.cpp:156] Memory required for data: 1086184400
I0711 01:20:38.950500 116316 layer_factory.hpp:77] Creating layer ip2
I0711 01:20:38.950510 116316 net.cpp:91] Creating Layer ip2
I0711 01:20:38.950515 116316 net.cpp:425] ip2 <- ip1
I0711 01:20:38.950520 116316 net.cpp:399] ip2 -> ip2
I0711 01:20:38.950642 116316 net.cpp:141] Setting up ip2
I0711 01:20:38.950650 116316 net.cpp:148] Top shape: 100 2 (200)
I0711 01:20:38.950664 116316 net.cpp:156] Memory required for data: 1086185200
I0711 01:20:38.950671 116316 layer_factory.hpp:77] Creating layer ip2_ip2_0_split
I0711 01:20:38.950677 116316 net.cpp:91] Creating Layer ip2_ip2_0_split
I0711 01:20:38.950681 116316 net.cpp:425] ip2_ip2_0_split <- ip2
I0711 01:20:38.950685 116316 net.cpp:399] ip2_ip2_0_split -> ip2_ip2_0_split_0
I0711 01:20:38.950691 116316 net.cpp:399] ip2_ip2_0_split -> ip2_ip2_0_split_1
I0711 01:20:38.950724 116316 net.cpp:141] Setting up ip2_ip2_0_split
I0711 01:20:38.950731 116316 net.cpp:148] Top shape: 100 2 (200)
I0711 01:20:38.950736 116316 net.cpp:148] Top shape: 100 2 (200)
I0711 01:20:38.950737 116316 net.cpp:156] Memory required for data: 1086186800
I0711 01:20:38.950742 116316 layer_factory.hpp:77] Creating layer accuracy
I0711 01:20:38.950748 116316 net.cpp:91] Creating Layer accuracy
I0711 01:20:38.950752 116316 net.cpp:425] accuracy <- ip2_ip2_0_split_0
I0711 01:20:38.950755 116316 net.cpp:425] accuracy <- label_mnist_1_split_0
I0711 01:20:38.950762 116316 net.cpp:399] accuracy -> accuracy
…
