…
I1013 18:31:27.614240 18058 net.cpp:322] The NetState phase (0) differed from the phase (1) specified by a rule in layer accuracy
I1013 18:31:27.614421 18058 net.cpp:58] Initializing net from parameters: 
name: "AlexNet"
state {
  phase: TRAIN
}
layer {
  name: "mnist"
  type: "Data"
  top: "data"
  top: "label"
  include {
    phase: TRAIN
  }
  transform_param {
    scale: 0.00390625
    mean_file: "data/person_only_lmdb/21class_mean.binaryproto"
  }
  data_param {
    source: "data/person_only_lmdb/pascal_plus_21cls_train_lmdb"
    batch_size: 128
    backend: LMDB
  }
}
layer {
  name: "conv1"
  type: "Convolution"
  bottom: "data"
  top: "conv1"
  param {
    lr_mult: 1
    decay_mult: 1
  }
  param {
    lr_mult: 2
    decay_mult: 0
  }
  convolution_param {
    num_output: 96
    kernel_size: 11
    stride: 4
    weight_filler {
      type: "gaussian"
      std: 0.01
    }
    bias_filler {
      type: "constant"
      value: 0
    }
  }
}
layer {
  name: "relu1"
  type: "ReLU"
  bottom: "conv1"
  top: "conv1"
}
layer {
  name: "norm1"
  type: "LRN"
  bottom: "conv1"
  top: "norm1"
  lrn_param {
    local_size: 5
    alpha: 0.0001
    beta: 0.75
  }
}
layer {
  name: "pool1"
  type: "Pooling"
  bottom: "norm1"
  top: "pool1"
  pooling_param {
    pool: MAX
    kernel_size: 3
    stride: 2
  }
}
layer {
  name: "conv2"
  type: "Convolution"
  bottom: "pool1"
  top: "conv2"
  param {
    lr_mult: 1
    decay_mult: 1
  }
  param {
    lr_mult: 2
    decay_mult: 0
  }
  convolution_param {
    num_output: 256
    pad: 2
    kernel_size: 5
    group: 2
    weight_filler {
      type: "gaussian"
      std: 0.01
    }
    bias_filler {
      type: "constant"
      value: 0.1
    }
  }
}
layer {
  name: "relu2"
  type: "ReLU"
  bottom: "conv2"
  top: "conv2"
}
layer {
  name: "norm2"
  type: "LRN"
  bottom: "conv2"
  top: "norm2"
  lrn_param {
    local_size: 5
    alpha: 0.0001
    beta: 0.75
  }
}
layer {
  name: "pool2"
  type: "Pooling"
  bottom: "norm2"
  top: "pool2"
  pooling_param {
    pool: MAX
    kernel_size: 3
    stride: 2
  }
}
layer {
  name: "conv3"
  type: "Convolution"
  bottom: "pool2"
  top: "conv3"
  param {
    lr_mult: 1
    decay_mult: 1
  }
  param {
    lr_mult: 2
    decay_mult: 0
  }
  convolution_param {
    num_output: 384
    pad: 1
    kernel_size: 3
    weight_filler {
      type: "gaussian"
      std: 0.01
    }
    bias_filler {
      type: "constant"
      value: 0
    }
  }
}
layer {
  name: "relu3"
  type: "ReLU"
  bottom: "conv3"
  top: "conv3"
}
layer {
  name: "conv4"
  type: "Convolution"
  bottom: "conv3"
  top: "conv4"
  param {
    lr_mult: 1
    decay_mult: 1
  }
  param {
    lr_mult: 2
    decay_mult: 0
  }
  convolution_param {
    num_output: 384
    pad: 1
    kernel_size: 3
    group: 2
    weight_filler {
      type: "gaussian"
      std: 0.01
    }
    bias_filler {
      type: "constant"
      value: 0.1
    }
  }
}
layer {
  name: "relu4"
  type: "ReLU"
  bottom: "conv4"
  top: "conv4"
}
layer {
  name: "conv5"
  type: "Convolution"
  bottom: "conv4"
  top: "conv5"
  param {
    lr_mult: 1
    decay_mult: 1
  }
  param {
    lr_mult: 2
    decay_mult: 0
  }
  convolution_param {
    num_output: 256
    pad: 1
    kernel_size: 3
    group: 2
    weight_filler {
      type: "gaussian"
      std: 0.01
    }
    bias_filler {
      type: "constant"
      value: 0.1
    }
  }
}
layer {
  name: "relu5"
  type: "ReLU"
  bottom: "conv5"
  top: "conv5"
}
layer {
  name: "pool5"
  type: "Pooling"
  bottom: "conv5"
  top: "pool5"
  pooling_param {
    pool: MAX
    kernel_size: 3
    stride: 2
  }
}
layer {
  name: "fc6new"
  type: "InnerProduct"
  bottom: "pool5"
  top: "fc6"
  param {
    lr_mult: 1
    decay_mult: 1
  }
  param {
    lr_mult: 2
    decay_mult: 0
  }
  inner_product_param {
    num_output: 4096
    weight_filler {
      type: "gaussian"
      std: 0.005
    }
    bias_filler {
      type: "constant"
      value: 0.1
    }
  }
}
layer {
  name: "relu6"
  type: "ReLU"
  bottom: "fc6"
  top: "fc6"
}
layer {
  name: "drop6"
  type: "Dropout"
  bottom: "fc6"
  top: "fc6"
  dropout_param {
    dropout_ratio: 0.5
  }
}
layer {
  name: "fc7new"
  type: "InnerProduct"
  bottom: "fc6"
  top: "fc7"
  param {
    lr_mult: 1
    decay_mult: 1
  }
  param {
    lr_mult: 2
    decay_mult: 0
  }
  inner_product_param {
    num_output: 4096
    weight_filler {
      type: "gaussian"
      std: 0.005
    }
    bias_filler {
      type: "constant"
      value: 0.1
    }
  }
}
layer {
  name: "relu7"
  type: "ReLU"
  bottom: "fc7"
  top: "fc7"
}
layer {
  name: "drop7"
  type: "Dropout"
  bottom: "fc7"
  top: "fc7"
  dropout_param {
    dropout_ratio: 0.5
  }
}
layer {
  name: "fc8new"
  type: "InnerProduct"
  bottom: "fc7"
  top: "fc8"
  param {
    lr_mult: 1
    decay_mult: 1
  }
  param {
    lr_mult: 2
    decay_mult: 0
  }
  inner_product_param {
    num_output: 21
    weight_filler {
      type: "gaussian"
      std: 0.01
    }
    bias_filler {
      type: "constant"
      value: 0
    }
  }
}
layer {
  name: "loss"
  type: "SoftmaxWithLoss"
  bottom: "fc8"
  bottom: "label"
  top: "loss"
}
I1013 18:31:27.614503 18058 layer_factory.hpp:77] Creating layer mnist
I1013 18:31:27.615038 18058 net.cpp:100] Creating Layer mnist
I1013 18:31:27.615134 18058 net.cpp:408] mnist -> data
I1013 18:31:27.615208 18058 net.cpp:408] mnist -> label
I1013 18:31:27.615252 18058 data_transformer.cpp:25] Loading mean file from: data/person_only_lmdb/21class_mean.binaryproto
I1013 18:31:27.616883 18099 db_lmdb.cpp:35] Opened lmdb data/person_only_lmdb/pascal_plus_21cls_train_lmdb
I1013 18:31:27.642166 18058 data_layer.cpp:41] output data size: 128,3,128,128
I1013 18:31:27.697996 18058 net.cpp:150] Setting up mnist
I1013 18:31:27.698087 18058 net.cpp:157] Top shape: 128 3 128 128 (6291456)
I1013 18:31:27.698093 18058 net.cpp:157] Top shape: 128 (128)
I1013 18:31:27.698096 18058 net.cpp:165] Memory required for data: 25166336
I1013 18:31:27.698106 18058 layer_factory.hpp:77] Creating layer conv1
I1013 18:31:27.698148 18058 net.cpp:100] Creating Layer conv1
I1013 18:31:27.698153 18058 net.cpp:434] conv1 <- data
I1013 18:31:27.698164 18058 net.cpp:408] conv1 -> conv1
I1013 18:31:27.994442 18058 net.cpp:150] Setting up conv1
I1013 18:31:27.994493 18058 net.cpp:157] Top shape: 128 96 30 30 (11059200)
I1013 18:31:27.994498 18058 net.cpp:165] Memory required for data: 69403136
I1013 18:31:27.994521 18058 layer_factory.hpp:77] Creating layer relu1
I1013 18:31:27.994546 18058 net.cpp:100] Creating Layer relu1
I1013 18:31:27.994551 18058 net.cpp:434] relu1 <- conv1
I1013 18:31:27.994559 18058 net.cpp:395] relu1 -> conv1 (in-place)
I1013 18:31:27.994750 18058 net.cpp:150] Setting up relu1
I1013 18:31:27.994763 18058 net.cpp:157] Top shape: 128 96 30 30 (11059200)
I1013 18:31:27.994767 18058 net.cpp:165] Memory required for data: 113639936
I1013 18:31:27.994771 18058 layer_factory.hpp:77] Creating layer norm1
I1013 18:31:27.994784 18058 net.cpp:100] Creating Layer norm1
I1013 18:31:27.994789 18058 net.cpp:434] norm1 <- conv1
I1013 18:31:27.994796 18058 net.cpp:408] norm1 -> norm1
I1013 18:31:27.995530 18058 net.cpp:150] Setting up norm1
I1013 18:31:27.995546 18058 net.cpp:157] Top shape: 128 96 30 30 (11059200)
I1013 18:31:27.995558 18058 net.cpp:165] Memory required for data: 157876736
I1013 18:31:27.995561 18058 layer_factory.hpp:77] Creating layer pool1
I1013 18:31:27.995584 18058 net.cpp:100] Creating Layer pool1
I1013 18:31:27.995589 18058 net.cpp:434] pool1 <- norm1
I1013 18:31:27.995594 18058 net.cpp:408] pool1 -> pool1
I1013 18:31:27.995656 18058 net.cpp:150] Setting up pool1
I1013 18:31:27.995663 18058 net.cpp:157] Top shape: 128 96 15 15 (2764800)
I1013 18:31:27.995667 18058 net.cpp:165] Memory required for data: 168935936
I1013 18:31:27.995671 18058 layer_factory.hpp:77] Creating layer conv2
I1013 18:31:27.995682 18058 net.cpp:100] Creating Layer conv2
I1013 18:31:27.995687 18058 net.cpp:434] conv2 <- pool1
I1013 18:31:27.995692 18058 net.cpp:408] conv2 -> conv2
I1013 18:31:28.010792 18058 net.cpp:150] Setting up conv2
I1013 18:31:28.010818 18058 net.cpp:157] Top shape: 128 256 15 15 (7372800)
I1013 18:31:28.010825 18058 net.cpp:165] Memory required for data: 198427136
I1013 18:31:28.010839 18058 layer_factory.hpp:77] Creating layer relu2
I1013 18:31:28.010850 18058 net.cpp:100] Creating Layer relu2
I1013 18:31:28.010855 18058 net.cpp:434] relu2 <- conv2
I1013 18:31:28.010865 18058 net.cpp:395] relu2 -> conv2 (in-place)
I1013 18:31:28.011684 18058 net.cpp:150] Setting up relu2
I1013 18:31:28.011701 18058 net.cpp:157] Top shape: 128 256 15 15 (7372800)
I1013 18:31:28.011711 18058 net.cpp:165] Memory required for data: 227918336
I1013 18:31:28.011715 18058 layer_factory.hpp:77] Creating layer norm2
I1013 18:31:28.011725 18058 net.cpp:100] Creating Layer norm2
I1013 18:31:28.011731 18058 net.cpp:434] norm2 <- conv2
I1013 18:31:28.011739 18058 net.cpp:408] norm2 -> norm2
I1013 18:31:28.011983 18058 net.cpp:150] Setting up norm2
I1013 18:31:28.011996 18058 net.cpp:157] Top shape: 128 256 15 15 (7372800)
I1013 18:31:28.012001 18058 net.cpp:165] Memory required for data: 257409536
I1013 18:31:28.012004 18058 layer_factory.hpp:77] Creating layer pool2
I1013 18:31:28.012015 18058 net.cpp:100] Creating Layer pool2
I1013 18:31:28.012019 18058 net.cpp:434] pool2 <- norm2
I1013 18:31:28.012027 18058 net.cpp:408] pool2 -> pool2
I1013 18:31:28.012095 18058 net.cpp:150] Setting up pool2
I1013 18:31:28.012105 18058 net.cpp:157] Top shape: 128 256 7 7 (1605632)
I1013 18:31:28.012109 18058 net.cpp:165] Memory required for data: 263832064
I1013 18:31:28.012114 18058 layer_factory.hpp:77] Creating layer conv3
I1013 18:31:28.012126 18058 net.cpp:100] Creating Layer conv3
I1013 18:31:28.012131 18058 net.cpp:434] conv3 <- pool2
I1013 18:31:28.012140 18058 net.cpp:408] conv3 -> conv3
I1013 18:31:28.060964 18058 net.cpp:150] Setting up conv3
I1013 18:31:28.060997 18058 net.cpp:157] Top shape: 128 384 7 7 (2408448)
I1013 18:31:28.061002 18058 net.cpp:165] Memory required for data: 273465856
I1013 18:31:28.061018 18058 layer_factory.hpp:77] Creating layer relu3
I1013 18:31:28.061030 18058 net.cpp:100] Creating Layer relu3
I1013 18:31:28.061035 18058 net.cpp:434] relu3 <- conv3
I1013 18:31:28.061043 18058 net.cpp:395] relu3 -> conv3 (in-place)
I1013 18:31:28.061244 18058 net.cpp:150] Setting up relu3
I1013 18:31:28.061256 18058 net.cpp:157] Top shape: 128 384 7 7 (2408448)
I1013 18:31:28.061260 18058 net.cpp:165] Memory required for data: 283099648
I1013 18:31:28.061264 18058 layer_factory.hpp:77] Creating layer conv4
I1013 18:31:28.061277 18058 net.cpp:100] Creating Layer conv4
I1013 18:31:28.061282 18058 net.cpp:434] conv4 <- conv3
I1013 18:31:28.061290 18058 net.cpp:408] conv4 -> conv4
I1013 18:31:28.096825 18058 net.cpp:150] Setting up conv4
I1013 18:31:28.096844 18058 net.cpp:157] Top shape: 128 384 7 7 (2408448)
I1013 18:31:28.096849 18058 net.cpp:165] Memory required for data: 292733440
I1013 18:31:28.096858 18058 layer_factory.hpp:77] Creating layer relu4
I1013 18:31:28.096866 18058 net.cpp:100] Creating Layer relu4
I1013 18:31:28.096871 18058 net.cpp:434] relu4 <- conv4
I1013 18:31:28.096879 18058 net.cpp:395] relu4 -> conv4 (in-place)
I1013 18:31:28.097079 18058 net.cpp:150] Setting up relu4
I1013 18:31:28.097091 18058 net.cpp:157] Top shape: 128 384 7 7 (2408448)
I1013 18:31:28.097100 18058 net.cpp:165] Memory required for data: 302367232
I1013 18:31:28.097105 18058 layer_factory.hpp:77] Creating layer conv5
I1013 18:31:28.097117 18058 net.cpp:100] Creating Layer conv5
I1013 18:31:28.097122 18058 net.cpp:434] conv5 <- conv4
I1013 18:31:28.097131 18058 net.cpp:408] conv5 -> conv5
I1013 18:31:28.118149 18058 net.cpp:150] Setting up conv5
I1013 18:31:28.118168 18058 net.cpp:157] Top shape: 128 256 7 7 (1605632)
I1013 18:31:28.118173 18058 net.cpp:165] Memory required for data: 308789760
I1013 18:31:28.118186 18058 layer_factory.hpp:77] Creating layer relu5
I1013 18:31:28.118196 18058 net.cpp:100] Creating Layer relu5
I1013 18:31:28.118199 18058 net.cpp:434] relu5 <- conv5
I1013 18:31:28.118206 18058 net.cpp:395] relu5 -> conv5 (in-place)
I1013 18:31:28.118403 18058 net.cpp:150] Setting up relu5
I1013 18:31:28.118417 18058 net.cpp:157] Top shape: 128 256 7 7 (1605632)
I1013 18:31:28.118419 18058 net.cpp:165] Memory required for data: 315212288
I1013 18:31:28.118423 18058 layer_factory.hpp:77] Creating layer pool5
I1013 18:31:28.118432 18058 net.cpp:100] Creating Layer pool5
I1013 18:31:28.118440 18058 net.cpp:434] pool5 <- conv5
I1013 18:31:28.118448 18058 net.cpp:408] pool5 -> pool5
I1013 18:31:28.118521 18058 net.cpp:150] Setting up pool5
I1013 18:31:28.118531 18058 net.cpp:157] Top shape: 128 256 3 3 (294912)
I1013 18:31:28.118535 18058 net.cpp:165] Memory required for data: 316391936
I1013 18:31:28.118538 18058 layer_factory.hpp:77] Creating layer fc6new
I1013 18:31:28.118557 18058 net.cpp:100] Creating Layer fc6new
I1013 18:31:28.118561 18058 net.cpp:434] fc6new <- pool5
I1013 18:31:28.118568 18058 net.cpp:408] fc6new -> fc6
I1013 18:31:28.475426 18058 net.cpp:150] Setting up fc6new
I1013 18:31:28.475461 18058 net.cpp:157] Top shape: 128 4096 (524288)
I1013 18:31:28.475467 18058 net.cpp:165] Memory required for data: 318489088
I1013 18:31:28.475479 18058 layer_factory.hpp:77] Creating layer relu6
I1013 18:31:28.475491 18058 net.cpp:100] Creating Layer relu6
I1013 18:31:28.475497 18058 net.cpp:434] relu6 <- fc6
I1013 18:31:28.475505 18058 net.cpp:395] relu6 -> fc6 (in-place)
I1013 18:31:28.476336 18058 net.cpp:150] Setting up relu6
I1013 18:31:28.476351 18058 net.cpp:157] Top shape: 128 4096 (524288)
I1013 18:31:28.476356 18058 net.cpp:165] Memory required for data: 320586240
I1013 18:31:28.476361 18058 layer_factory.hpp:77] Creating layer drop6
I1013 18:31:28.476382 18058 net.cpp:100] Creating Layer drop6
I1013 18:31:28.476385 18058 net.cpp:434] drop6 <- fc6
I1013 18:31:28.476395 18058 net.cpp:395] drop6 -> fc6 (in-place)
I1013 18:31:28.476444 18058 net.cpp:150] Setting up drop6
I1013 18:31:28.476451 18058 net.cpp:157] Top shape: 128 4096 (524288)
I1013 18:31:28.476455 18058 net.cpp:165] Memory required for data: 322683392
I1013 18:31:28.476459 18058 layer_factory.hpp:77] Creating layer fc7new
I1013 18:31:28.476469 18058 net.cpp:100] Creating Layer fc7new
I1013 18:31:28.476475 18058 net.cpp:434] fc7new <- fc6
I1013 18:31:28.476482 18058 net.cpp:408] fc7new -> fc7
I1013 18:31:28.998072 18058 net.cpp:150] Setting up fc7new
I1013 18:31:28.998121 18058 net.cpp:157] Top shape: 128 4096 (524288)
I1013 18:31:28.998124 18058 net.cpp:165] Memory required for data: 324780544
I1013 18:31:28.998137 18058 layer_factory.hpp:77] Creating layer relu7
I1013 18:31:28.998149 18058 net.cpp:100] Creating Layer relu7
I1013 18:31:28.998155 18058 net.cpp:434] relu7 <- fc7
I1013 18:31:28.998163 18058 net.cpp:395] relu7 -> fc7 (in-place)
I1013 18:31:28.998647 18058 net.cpp:150] Setting up relu7
I1013 18:31:28.998658 18058 net.cpp:157] Top shape: 128 4096 (524288)
I1013 18:31:28.998673 18058 net.cpp:165] Memory required for data: 326877696
I1013 18:31:28.998677 18058 layer_factory.hpp:77] Creating layer drop7
I1013 18:31:28.998684 18058 net.cpp:100] Creating Layer drop7
I1013 18:31:28.998688 18058 net.cpp:434] drop7 <- fc7
I1013 18:31:28.998694 18058 net.cpp:395] drop7 -> fc7 (in-place)
I1013 18:31:28.998728 18058 net.cpp:150] Setting up drop7
I1013 18:31:28.998745 18058 net.cpp:157] Top shape: 128 4096 (524288)
I1013 18:31:28.998749 18058 net.cpp:165] Memory required for data: 328974848
I1013 18:31:28.998751 18058 layer_factory.hpp:77] Creating layer fc8new
I1013 18:31:28.998760 18058 net.cpp:100] Creating Layer fc8new
I1013 18:31:28.998764 18058 net.cpp:434] fc8new <- fc7
I1013 18:31:28.998769 18058 net.cpp:408] fc8new -> fc8
I1013 18:31:29.001644 18058 net.cpp:150] Setting up fc8new
I1013 18:31:29.001654 18058 net.cpp:157] Top shape: 128 21 (2688)
I1013 18:31:29.001668 18058 net.cpp:165] Memory required for data: 328985600
I1013 18:31:29.001675 18058 layer_factory.hpp:77] Creating layer loss
I1013 18:31:29.001688 18058 net.cpp:100] Creating Layer loss
I1013 18:31:29.001691 18058 net.cpp:434] loss <- fc8
I1013 18:31:29.001698 18058 net.cpp:434] loss <- label
I1013 18:31:29.001713 18058 net.cpp:408] loss -> loss
I1013 18:31:29.001725 18058 layer_factory.hpp:77] Creating layer loss
…
I1013 18:31:29.003003 18058 net.cpp:322] The NetState phase (1) differed from the phase (0) specified by a rule in layer mnist
I1013 18:31:29.003180 18058 net.cpp:58] Initializing net from parameters: 
name: "AlexNet"
state {
  phase: TEST
}
layer {
  name: "mnist"
  type: "Data"
  top: "data"
  top: "label"
  include {
    phase: TEST
  }
  transform_param {
    scale: 0.00390625
    mean_file: "data/person_only_lmdb/21class_mean.binaryproto"
  }
  data_param {
    source: "data/person_only_lmdb/pascal_plus_21cls_test_lmdb"
    batch_size: 100
    backend: LMDB
  }
}
layer {
  name: "conv1"
  type: "Convolution"
  bottom: "data"
  top: "conv1"
  param {
    lr_mult: 1
    decay_mult: 1
  }
  param {
    lr_mult: 2
    decay_mult: 0
  }
  convolution_param {
    num_output: 96
    kernel_size: 11
    stride: 4
    weight_filler {
      type: "gaussian"
      std: 0.01
    }
    bias_filler {
      type: "constant"
      value: 0
    }
  }
}
layer {
  name: "relu1"
  type: "ReLU"
  bottom: "conv1"
  top: "conv1"
}
layer {
  name: "norm1"
  type: "LRN"
  bottom: "conv1"
  top: "norm1"
  lrn_param {
    local_size: 5
    alpha: 0.0001
    beta: 0.75
  }
}
layer {
  name: "pool1"
  type: "Pooling"
  bottom: "norm1"
  top: "pool1"
  pooling_param {
    pool: MAX
    kernel_size: 3
    stride: 2
  }
}
layer {
  name: "conv2"
  type: "Convolution"
  bottom: "pool1"
  top: "conv2"
  param {
    lr_mult: 1
    decay_mult: 1
  }
  param {
    lr_mult: 2
    decay_mult: 0
  }
  convolution_param {
    num_output: 256
    pad: 2
    kernel_size: 5
    group: 2
    weight_filler {
      type: "gaussian"
      std: 0.01
    }
    bias_filler {
      type: "constant"
      value: 0.1
    }
  }
}
layer {
  name: "relu2"
  type: "ReLU"
  bottom: "conv2"
  top: "conv2"
}
layer {
  name: "norm2"
  type: "LRN"
  bottom: "conv2"
  top: "norm2"
  lrn_param {
    local_size: 5
    alpha: 0.0001
    beta: 0.75
  }
}
layer {
  name: "pool2"
  type: "Pooling"
  bottom: "norm2"
  top: "pool2"
  pooling_param {
    pool: MAX
    kernel_size: 3
    stride: 2
  }
}
layer {
  name: "conv3"
  type: "Convolution"
  bottom: "pool2"
  top: "conv3"
  param {
    lr_mult: 1
    decay_mult: 1
  }
  param {
    lr_mult: 2
    decay_mult: 0
  }
  convolution_param {
    num_output: 384
    pad: 1
    kernel_size: 3
    weight_filler {
      type: "gaussian"
      std: 0.01
    }
    bias_filler {
      type: "constant"
      value: 0
    }
  }
}
layer {
  name: "relu3"
  type: "ReLU"
  bottom: "conv3"
  top: "conv3"
}
layer {
  name: "conv4"
  type: "Convolution"
  bottom: "conv3"
  top: "conv4"
  param {
    lr_mult: 1
    decay_mult: 1
  }
  param {
    lr_mult: 2
    decay_mult: 0
  }
  convolution_param {
    num_output: 384
    pad: 1
    kernel_size: 3
    group: 2
    weight_filler {
      type: "gaussian"
      std: 0.01
    }
    bias_filler {
      type: "constant"
      value: 0.1
    }
  }
}
layer {
  name: "relu4"
  type: "ReLU"
  bottom: "conv4"
  top: "conv4"
}
layer {
  name: "conv5"
  type: "Convolution"
  bottom: "conv4"
  top: "conv5"
  param {
    lr_mult: 1
    decay_mult: 1
  }
  param {
    lr_mult: 2
    decay_mult: 0
  }
  convolution_param {
    num_output: 256
    pad: 1
    kernel_size: 3
    group: 2
    weight_filler {
      type: "gaussian"
      std: 0.01
    }
    bias_filler {
      type: "constant"
      value: 0.1
    }
  }
}
layer {
  name: "relu5"
  type: "ReLU"
  bottom: "conv5"
  top: "conv5"
}
layer {
  name: "pool5"
  type: "Pooling"
  bottom: "conv5"
  top: "pool5"
  pooling_param {
    pool: MAX
    kernel_size: 3
    stride: 2
  }
}
layer {
  name: "fc6new"
  type: "InnerProduct"
  bottom: "pool5"
  top: "fc6"
  param {
    lr_mult: 1
    decay_mult: 1
  }
  param {
    lr_mult: 2
    decay_mult: 0
  }
  inner_product_param {
    num_output: 4096
    weight_filler {
      type: "gaussian"
      std: 0.005
    }
    bias_filler {
      type: "constant"
      value: 0.1
    }
  }
}
layer {
  name: "relu6"
  type: "ReLU"
  bottom: "fc6"
  top: "fc6"
}
layer {
  name: "drop6"
  type: "Dropout"
  bottom: "fc6"
  top: "fc6"
  dropout_param {
    dropout_ratio: 0.5
  }
}
layer {
  name: "fc7new"
  type: "InnerProduct"
  bottom: "fc6"
  top: "fc7"
  param {
    lr_mult: 1
    decay_mult: 1
  }
  param {
    lr_mult: 2
    decay_mult: 0
  }
  inner_product_param {
    num_output: 4096
    weight_filler {
      type: "gaussian"
      std: 0.005
    }
    bias_filler {
      type: "constant"
      value: 0.1
    }
  }
}
layer {
  name: "relu7"
  type: "ReLU"
  bottom: "fc7"
  top: "fc7"
}
layer {
  name: "drop7"
  type: "Dropout"
  bottom: "fc7"
  top: "fc7"
  dropout_param {
    dropout_ratio: 0.5
  }
}
layer {
  name: "fc8new"
  type: "InnerProduct"
  bottom: "fc7"
  top: "fc8"
  param {
    lr_mult: 1
    decay_mult: 1
  }
  param {
    lr_mult: 2
    decay_mult: 0
  }
  inner_product_param {
    num_output: 21
    weight_filler {
      type: "gaussian"
      std: 0.01
    }
    bias_filler {
      type: "constant"
      value: 0
    }
  }
}
layer {
  name: "accuracy"
  type: "Accuracy"
  bottom: "fc8"
  bottom: "label"
  top: "accuracy"
  include {
    phase: TEST
  }
}
layer {
  name: "loss"
  type: "SoftmaxWithLoss"
  bottom: "fc8"
  bottom: "label"
  top: "loss"
}
I1013 18:31:29.003286 18058 layer_factory.hpp:77] Creating layer mnist
I1013 18:31:29.003415 18058 net.cpp:100] Creating Layer mnist
I1013 18:31:29.003425 18058 net.cpp:408] mnist -> data
I1013 18:31:29.003448 18058 net.cpp:408] mnist -> label
I1013 18:31:29.003456 18058 data_transformer.cpp:25] Loading mean file from: data/person_only_lmdb/21class_mean.binaryproto
I1013 18:31:29.005802 18102 db_lmdb.cpp:35] Opened lmdb data/person_only_lmdb/pascal_plus_21cls_test_lmdb
I1013 18:31:29.006336 18058 data_layer.cpp:41] output data size: 100,3,128,128
I1013 18:31:29.053918 18058 net.cpp:150] Setting up mnist
I1013 18:31:29.053962 18058 net.cpp:157] Top shape: 100 3 128 128 (4915200)
I1013 18:31:29.053969 18058 net.cpp:157] Top shape: 100 (100)
I1013 18:31:29.053974 18058 net.cpp:165] Memory required for data: 19661200
I1013 18:31:29.053982 18058 layer_factory.hpp:77] Creating layer label_mnist_1_split
I1013 18:31:29.054004 18058 net.cpp:100] Creating Layer label_mnist_1_split
I1013 18:31:29.054011 18058 net.cpp:434] label_mnist_1_split <- label
I1013 18:31:29.054039 18058 net.cpp:408] label_mnist_1_split -> label_mnist_1_split_0
I1013 18:31:29.054054 18058 net.cpp:408] label_mnist_1_split -> label_mnist_1_split_1
I1013 18:31:29.054332 18058 net.cpp:150] Setting up label_mnist_1_split
I1013 18:31:29.054383 18058 net.cpp:157] Top shape: 100 (100)
I1013 18:31:29.054394 18058 net.cpp:157] Top shape: 100 (100)
I1013 18:31:29.054401 18058 net.cpp:165] Memory required for data: 19662000
I1013 18:31:29.054410 18058 layer_factory.hpp:77] Creating layer conv1
I1013 18:31:29.054435 18058 net.cpp:100] Creating Layer conv1
I1013 18:31:29.054447 18058 net.cpp:434] conv1 <- data
I1013 18:31:29.054461 18058 net.cpp:408] conv1 -> conv1
I1013 18:31:29.064239 18058 net.cpp:150] Setting up conv1
I1013 18:31:29.064281 18058 net.cpp:157] Top shape: 100 96 30 30 (8640000)
I1013 18:31:29.064291 18058 net.cpp:165] Memory required for data: 54222000
I1013 18:31:29.064316 18058 layer_factory.hpp:77] Creating layer relu1
I1013 18:31:29.064332 18058 net.cpp:100] Creating Layer relu1
I1013 18:31:29.064342 18058 net.cpp:434] relu1 <- conv1
I1013 18:31:29.064354 18058 net.cpp:395] relu1 -> conv1 (in-place)
I1013 18:31:29.064712 18058 net.cpp:150] Setting up relu1
I1013 18:31:29.064733 18058 net.cpp:157] Top shape: 100 96 30 30 (8640000)
I1013 18:31:29.064743 18058 net.cpp:165] Memory required for data: 88782000
I1013 18:31:29.064751 18058 layer_factory.hpp:77] Creating layer norm1
I1013 18:31:29.064769 18058 net.cpp:100] Creating Layer norm1
I1013 18:31:29.064777 18058 net.cpp:434] norm1 <- conv1
I1013 18:31:29.064788 18058 net.cpp:408] norm1 -> norm1
I1013 18:31:29.066259 18058 net.cpp:150] Setting up norm1
I1013 18:31:29.066298 18058 net.cpp:157] Top shape: 100 96 30 30 (8640000)
I1013 18:31:29.066306 18058 net.cpp:165] Memory required for data: 123342000
I1013 18:31:29.066315 18058 layer_factory.hpp:77] Creating layer pool1
I1013 18:31:29.066330 18058 net.cpp:100] Creating Layer pool1
I1013 18:31:29.066339 18058 net.cpp:434] pool1 <- norm1
I1013 18:31:29.066355 18058 net.cpp:408] pool1 -> pool1
I1013 18:31:29.066471 18058 net.cpp:150] Setting up pool1
I1013 18:31:29.066488 18058 net.cpp:157] Top shape: 100 96 15 15 (2160000)
I1013 18:31:29.066495 18058 net.cpp:165] Memory required for data: 131982000
I1013 18:31:29.066503 18058 layer_factory.hpp:77] Creating layer conv2
I1013 18:31:29.066524 18058 net.cpp:100] Creating Layer conv2
I1013 18:31:29.066537 18058 net.cpp:434] conv2 <- pool1
I1013 18:31:29.066550 18058 net.cpp:408] conv2 -> conv2
I1013 18:31:29.088371 18058 net.cpp:150] Setting up conv2
I1013 18:31:29.088404 18058 net.cpp:157] Top shape: 100 256 15 15 (5760000)
I1013 18:31:29.088408 18058 net.cpp:165] Memory required for data: 155022000
I1013 18:31:29.088423 18058 layer_factory.hpp:77] Creating layer relu2
I1013 18:31:29.088434 18058 net.cpp:100] Creating Layer relu2
I1013 18:31:29.088440 18058 net.cpp:434] relu2 <- conv2
I1013 18:31:29.088448 18058 net.cpp:395] relu2 -> conv2 (in-place)
I1013 18:31:29.089299 18058 net.cpp:150] Setting up relu2
I1013 18:31:29.089316 18058 net.cpp:157] Top shape: 100 256 15 15 (5760000)
I1013 18:31:29.089320 18058 net.cpp:165] Memory required for data: 178062000
I1013 18:31:29.089324 18058 layer_factory.hpp:77] Creating layer norm2
I1013 18:31:29.089337 18058 net.cpp:100] Creating Layer norm2
I1013 18:31:29.089342 18058 net.cpp:434] norm2 <- conv2
I1013 18:31:29.089349 18058 net.cpp:408] norm2 -> norm2
I1013 18:31:29.089648 18058 net.cpp:150] Setting up norm2
I1013 18:31:29.089663 18058 net.cpp:157] Top shape: 100 256 15 15 (5760000)
I1013 18:31:29.089666 18058 net.cpp:165] Memory required for data: 201102000
I1013 18:31:29.089670 18058 layer_factory.hpp:77] Creating layer pool2
I1013 18:31:29.089679 18058 net.cpp:100] Creating Layer pool2
I1013 18:31:29.089682 18058 net.cpp:434] pool2 <- norm2
I1013 18:31:29.089689 18058 net.cpp:408] pool2 -> pool2
I1013 18:31:29.089756 18058 net.cpp:150] Setting up pool2
I1013 18:31:29.089764 18058 net.cpp:157] Top shape: 100 256 7 7 (1254400)
I1013 18:31:29.089768 18058 net.cpp:165] Memory required for data: 206119600
I1013 18:31:29.089771 18058 layer_factory.hpp:77] Creating layer conv3
I1013 18:31:29.089788 18058 net.cpp:100] Creating Layer conv3
I1013 18:31:29.089793 18058 net.cpp:434] conv3 <- pool2
I1013 18:31:29.089799 18058 net.cpp:408] conv3 -> conv3
I1013 18:31:29.127658 18058 net.cpp:150] Setting up conv3
I1013 18:31:29.127701 18058 net.cpp:157] Top shape: 100 384 7 7 (1881600)
I1013 18:31:29.127707 18058 net.cpp:165] Memory required for data: 213646000
I1013 18:31:29.127723 18058 layer_factory.hpp:77] Creating layer relu3
I1013 18:31:29.127735 18058 net.cpp:100] Creating Layer relu3
I1013 18:31:29.127742 18058 net.cpp:434] relu3 <- conv3
I1013 18:31:29.127748 18058 net.cpp:395] relu3 -> conv3 (in-place)
I1013 18:31:29.127967 18058 net.cpp:150] Setting up relu3
I1013 18:31:29.127980 18058 net.cpp:157] Top shape: 100 384 7 7 (1881600)
I1013 18:31:29.127985 18058 net.cpp:165] Memory required for data: 221172400
I1013 18:31:29.127988 18058 layer_factory.hpp:77] Creating layer conv4
I1013 18:31:29.128001 18058 net.cpp:100] Creating Layer conv4
I1013 18:31:29.128005 18058 net.cpp:434] conv4 <- conv3
I1013 18:31:29.128012 18058 net.cpp:408] conv4 -> conv4
I1013 18:31:29.160961 18058 net.cpp:150] Setting up conv4
I1013 18:31:29.161000 18058 net.cpp:157] Top shape: 100 384 7 7 (1881600)
I1013 18:31:29.161003 18058 net.cpp:165] Memory required for data: 228698800
I1013 18:31:29.161015 18058 layer_factory.hpp:77] Creating layer relu4
I1013 18:31:29.161026 18058 net.cpp:100] Creating Layer relu4
I1013 18:31:29.161032 18058 net.cpp:434] relu4 <- conv4
I1013 18:31:29.161041 18058 net.cpp:395] relu4 -> conv4 (in-place)
I1013 18:31:29.161823 18058 net.cpp:150] Setting up relu4
I1013 18:31:29.161839 18058 net.cpp:157] Top shape: 100 384 7 7 (1881600)
I1013 18:31:29.161845 18058 net.cpp:165] Memory required for data: 236225200
I1013 18:31:29.161850 18058 layer_factory.hpp:77] Creating layer conv5
I1013 18:31:29.161864 18058 net.cpp:100] Creating Layer conv5
I1013 18:31:29.161869 18058 net.cpp:434] conv5 <- conv4
I1013 18:31:29.161882 18058 net.cpp:408] conv5 -> conv5
I1013 18:31:29.185932 18058 net.cpp:150] Setting up conv5
I1013 18:31:29.185958 18058 net.cpp:157] Top shape: 100 256 7 7 (1254400)
I1013 18:31:29.185963 18058 net.cpp:165] Memory required for data: 241242800
I1013 18:31:29.185981 18058 layer_factory.hpp:77] Creating layer relu5
I1013 18:31:29.185991 18058 net.cpp:100] Creating Layer relu5
I1013 18:31:29.185995 18058 net.cpp:434] relu5 <- conv5
I1013 18:31:29.186002 18058 net.cpp:395] relu5 -> conv5 (in-place)
I1013 18:31:29.186228 18058 net.cpp:150] Setting up relu5
I1013 18:31:29.186244 18058 net.cpp:157] Top shape: 100 256 7 7 (1254400)
I1013 18:31:29.186249 18058 net.cpp:165] Memory required for data: 246260400
I1013 18:31:29.186252 18058 layer_factory.hpp:77] Creating layer pool5
I1013 18:31:29.186264 18058 net.cpp:100] Creating Layer pool5
I1013 18:31:29.186269 18058 net.cpp:434] pool5 <- conv5
I1013 18:31:29.186275 18058 net.cpp:408] pool5 -> pool5
I1013 18:31:29.186359 18058 net.cpp:150] Setting up pool5
I1013 18:31:29.186368 18058 net.cpp:157] Top shape: 100 256 3 3 (230400)
I1013 18:31:29.186372 18058 net.cpp:165] Memory required for data: 247182000
I1013 18:31:29.186375 18058 layer_factory.hpp:77] Creating layer fc6new
I1013 18:31:29.186386 18058 net.cpp:100] Creating Layer fc6new
I1013 18:31:29.186390 18058 net.cpp:434] fc6new <- pool5
I1013 18:31:29.186395 18058 net.cpp:408] fc6new -> fc6
I1013 18:31:29.519976 18058 net.cpp:150] Setting up fc6new
I1013 18:31:29.520015 18058 net.cpp:157] Top shape: 100 4096 (409600)
I1013 18:31:29.520020 18058 net.cpp:165] Memory required for data: 248820400
I1013 18:31:29.520033 18058 layer_factory.hpp:77] Creating layer relu6
I1013 18:31:29.520046 18058 net.cpp:100] Creating Layer relu6
I1013 18:31:29.520051 18058 net.cpp:434] relu6 <- fc6
I1013 18:31:29.520058 18058 net.cpp:395] relu6 -> fc6 (in-place)
I1013 18:31:29.520371 18058 net.cpp:150] Setting up relu6
I1013 18:31:29.520382 18058 net.cpp:157] Top shape: 100 4096 (409600)
I1013 18:31:29.520386 18058 net.cpp:165] Memory required for data: 250458800
I1013 18:31:29.520390 18058 layer_factory.hpp:77] Creating layer drop6
I1013 18:31:29.520396 18058 net.cpp:100] Creating Layer drop6
I1013 18:31:29.520400 18058 net.cpp:434] drop6 <- fc6
I1013 18:31:29.520406 18058 net.cpp:395] drop6 -> fc6 (in-place)
I1013 18:31:29.520449 18058 net.cpp:150] Setting up drop6
I1013 18:31:29.520457 18058 net.cpp:157] Top shape: 100 4096 (409600)
I1013 18:31:29.520459 18058 net.cpp:165] Memory required for data: 252097200
I1013 18:31:29.520463 18058 layer_factory.hpp:77] Creating layer fc7new
I1013 18:31:29.520470 18058 net.cpp:100] Creating Layer fc7new
I1013 18:31:29.520473 18058 net.cpp:434] fc7new <- fc6
I1013 18:31:29.520479 18058 net.cpp:408] fc7new -> fc7
I1013 18:31:30.046203 18058 net.cpp:150] Setting up fc7new
I1013 18:31:30.046247 18058 net.cpp:157] Top shape: 100 4096 (409600)
I1013 18:31:30.046252 18058 net.cpp:165] Memory required for data: 253735600
I1013 18:31:30.046263 18058 layer_factory.hpp:77] Creating layer relu7
I1013 18:31:30.046278 18058 net.cpp:100] Creating Layer relu7
I1013 18:31:30.046285 18058 net.cpp:434] relu7 <- fc7
I1013 18:31:30.046295 18058 net.cpp:395] relu7 -> fc7 (in-place)
I1013 18:31:30.047399 18058 net.cpp:150] Setting up relu7
I1013 18:31:30.047423 18058 net.cpp:157] Top shape: 100 4096 (409600)
I1013 18:31:30.047427 18058 net.cpp:165] Memory required for data: 255374000
I1013 18:31:30.047431 18058 layer_factory.hpp:77] Creating layer drop7
I1013 18:31:30.047443 18058 net.cpp:100] Creating Layer drop7
I1013 18:31:30.047447 18058 net.cpp:434] drop7 <- fc7
I1013 18:31:30.047454 18058 net.cpp:395] drop7 -> fc7 (in-place)
I1013 18:31:30.047509 18058 net.cpp:150] Setting up drop7
I1013 18:31:30.047518 18058 net.cpp:157] Top shape: 100 4096 (409600)
I1013 18:31:30.047523 18058 net.cpp:165] Memory required for data: 257012400
I1013 18:31:30.047526 18058 layer_factory.hpp:77] Creating layer fc8new
I1013 18:31:30.047538 18058 net.cpp:100] Creating Layer fc8new
I1013 18:31:30.047544 18058 net.cpp:434] fc8new <- fc7
I1013 18:31:30.047550 18058 net.cpp:408] fc8new -> fc8
I1013 18:31:30.050947 18058 net.cpp:150] Setting up fc8new
I1013 18:31:30.050961 18058 net.cpp:157] Top shape: 100 21 (2100)
I1013 18:31:30.050964 18058 net.cpp:165] Memory required for data: 257020800
I1013 18:31:30.050971 18058 layer_factory.hpp:77] Creating layer fc8_fc8new_0_split
I1013 18:31:30.050987 18058 net.cpp:100] Creating Layer fc8_fc8new_0_split
I1013 18:31:30.050993 18058 net.cpp:434] fc8_fc8new_0_split <- fc8
I1013 18:31:30.050999 18058 net.cpp:408] fc8_fc8new_0_split -> fc8_fc8new_0_split_0
I1013 18:31:30.051007 18058 net.cpp:408] fc8_fc8new_0_split -> fc8_fc8new_0_split_1
I1013 18:31:30.051072 18058 net.cpp:150] Setting up fc8_fc8new_0_split
I1013 18:31:30.051081 18058 net.cpp:157] Top shape: 100 21 (2100)
I1013 18:31:30.051086 18058 net.cpp:157] Top shape: 100 21 (2100)
I1013 18:31:30.051090 18058 net.cpp:165] Memory required for data: 257037600
I1013 18:31:30.051093 18058 layer_factory.hpp:77] Creating layer accuracy
I1013 18:31:30.051108 18058 net.cpp:100] Creating Layer accuracy
I1013 18:31:30.051112 18058 net.cpp:434] accuracy <- fc8_fc8new_0_split_0
I1013 18:31:30.051117 18058 net.cpp:434] accuracy <- label_mnist_1_split_0
I1013 18:31:30.051123 18058 net.cpp:408] accuracy -> accuracy
…
