…
I1013 17:43:31.466651 15780 net.cpp:322] The NetState phase (0) differed from the phase (1) specified by a rule in layer accuracy
I1013 17:43:31.466811 15780 net.cpp:58] Initializing net from parameters: 
name: "AlexNet"
state {
  phase: TRAIN
}
layer {
  name: "mnist"
  type: "Data"
  top: "data"
  top: "label"
  include {
    phase: TRAIN
  }
  transform_param {
    scale: 0.00390625
    mean_file: "data/person_only_lmdb/21class_mean.binaryproto"
  }
  data_param {
    source: "data/person_only_lmdb/pascal_plus_21cls_train_lmdb"
    batch_size: 128
    backend: LMDB
  }
}
layer {
  name: "conv1"
  type: "Convolution"
  bottom: "data"
  top: "conv1"
  param {
    lr_mult: 1
    decay_mult: 1
  }
  param {
    lr_mult: 2
    decay_mult: 0
  }
  convolution_param {
    num_output: 96
    kernel_size: 11
    stride: 4
    weight_filler {
      type: "gaussian"
      std: 0.01
    }
    bias_filler {
      type: "constant"
      value: 0
    }
  }
}
layer {
  name: "relu1"
  type: "ReLU"
  bottom: "conv1"
  top: "conv1"
}
layer {
  name: "norm1"
  type: "LRN"
  bottom: "conv1"
  top: "norm1"
  lrn_param {
    local_size: 5
    alpha: 0.0001
    beta: 0.75
  }
}
layer {
  name: "pool1"
  type: "Pooling"
  bottom: "norm1"
  top: "pool1"
  pooling_param {
    pool: MAX
    kernel_size: 3
    stride: 2
  }
}
layer {
  name: "conv2"
  type: "Convolution"
  bottom: "pool1"
  top: "conv2"
  param {
    lr_mult: 1
    decay_mult: 1
  }
  param {
    lr_mult: 2
    decay_mult: 0
  }
  convolution_param {
    num_output: 256
    pad: 2
    kernel_size: 5
    group: 2
    weight_filler {
      type: "gaussian"
      std: 0.01
    }
    bias_filler {
      type: "constant"
      value: 0.1
    }
  }
}
layer {
  name: "relu2"
  type: "ReLU"
  bottom: "conv2"
  top: "conv2"
}
layer {
  name: "norm2"
  type: "LRN"
  bottom: "conv2"
  top: "norm2"
  lrn_param {
    local_size: 5
    alpha: 0.0001
    beta: 0.75
  }
}
layer {
  name: "pool2"
  type: "Pooling"
  bottom: "norm2"
  top: "pool2"
  pooling_param {
    pool: MAX
    kernel_size: 3
    stride: 2
  }
}
layer {
  name: "conv3"
  type: "Convolution"
  bottom: "pool2"
  top: "conv3"
  param {
    lr_mult: 1
    decay_mult: 1
  }
  param {
    lr_mult: 2
    decay_mult: 0
  }
  convolution_param {
    num_output: 384
    pad: 1
    kernel_size: 3
    weight_filler {
      type: "gaussian"
      std: 0.01
    }
    bias_filler {
      type: "constant"
      value: 0
    }
  }
}
layer {
  name: "relu3"
  type: "ReLU"
  bottom: "conv3"
  top: "conv3"
}
layer {
  name: "conv4"
  type: "Convolution"
  bottom: "conv3"
  top: "conv4"
  param {
    lr_mult: 1
    decay_mult: 1
  }
  param {
    lr_mult: 2
    decay_mult: 0
  }
  convolution_param {
    num_output: 384
    pad: 1
    kernel_size: 3
    group: 2
    weight_filler {
      type: "gaussian"
      std: 0.01
    }
    bias_filler {
      type: "constant"
      value: 0.1
    }
  }
}
layer {
  name: "relu4"
  type: "ReLU"
  bottom: "conv4"
  top: "conv4"
}
layer {
  name: "conv5"
  type: "Convolution"
  bottom: "conv4"
  top: "conv5"
  param {
    lr_mult: 1
    decay_mult: 1
  }
  param {
    lr_mult: 2
    decay_mult: 0
  }
  convolution_param {
    num_output: 256
    pad: 1
    kernel_size: 3
    group: 2
    weight_filler {
      type: "gaussian"
      std: 0.01
    }
    bias_filler {
      type: "constant"
      value: 0.1
    }
  }
}
layer {
  name: "relu5"
  type: "ReLU"
  bottom: "conv5"
  top: "conv5"
}
layer {
  name: "pool5"
  type: "Pooling"
  bottom: "conv5"
  top: "pool5"
  pooling_param {
    pool: MAX
    kernel_size: 3
    stride: 2
  }
}
layer {
  name: "fc6new"
  type: "InnerProduct"
  bottom: "pool5"
  top: "fc6"
  param {
    lr_mult: 1
    decay_mult: 1
  }
  param {
    lr_mult: 2
    decay_mult: 0
  }
  inner_product_param {
    num_output: 4096
    weight_filler {
      type: "gaussian"
      std: 0.005
    }
    bias_filler {
      type: "constant"
      value: 0.1
    }
  }
}
layer {
  name: "relu6"
  type: "ReLU"
  bottom: "fc6"
  top: "fc6"
}
layer {
  name: "drop6"
  type: "Dropout"
  bottom: "fc6"
  top: "fc6"
  dropout_param {
    dropout_ratio: 0.5
  }
}
layer {
  name: "fc7new"
  type: "InnerProduct"
  bottom: "fc6"
  top: "fc7"
  param {
    lr_mult: 1
    decay_mult: 1
  }
  param {
    lr_mult: 2
    decay_mult: 0
  }
  inner_product_param {
    num_output: 4096
    weight_filler {
      type: "gaussian"
      std: 0.005
    }
    bias_filler {
      type: "constant"
      value: 0.1
    }
  }
}
layer {
  name: "relu7"
  type: "ReLU"
  bottom: "fc7"
  top: "fc7"
}
layer {
  name: "drop7"
  type: "Dropout"
  bottom: "fc7"
  top: "fc7"
  dropout_param {
    dropout_ratio: 0.5
  }
}
layer {
  name: "fc8new"
  type: "InnerProduct"
  bottom: "fc7"
  top: "fc8"
  param {
    lr_mult: 1
    decay_mult: 1
  }
  param {
    lr_mult: 2
    decay_mult: 0
  }
  inner_product_param {
    num_output: 21
    weight_filler {
      type: "gaussian"
      std: 0.01
    }
    bias_filler {
      type: "constant"
      value: 0
    }
  }
}
layer {
  name: "loss"
  type: "SoftmaxWithLoss"
  bottom: "fc8"
  bottom: "label"
  top: "loss"
}
I1013 17:43:31.466913 15780 layer_factory.hpp:77] Creating layer mnist
I1013 17:43:31.467540 15780 net.cpp:100] Creating Layer mnist
I1013 17:43:31.467556 15780 net.cpp:408] mnist -> data
I1013 17:43:31.467577 15780 net.cpp:408] mnist -> label
I1013 17:43:31.467720 15780 data_transformer.cpp:25] Loading mean file from: data/person_only_lmdb/21class_mean.binaryproto
I1013 17:43:31.469553 15826 db_lmdb.cpp:35] Opened lmdb data/person_only_lmdb/pascal_plus_21cls_train_lmdb
I1013 17:43:31.489712 15780 data_layer.cpp:41] output data size: 128,3,128,128
I1013 17:43:31.537066 15780 net.cpp:150] Setting up mnist
I1013 17:43:31.537112 15780 net.cpp:157] Top shape: 128 3 128 128 (6291456)
I1013 17:43:31.537118 15780 net.cpp:157] Top shape: 128 (128)
I1013 17:43:31.537122 15780 net.cpp:165] Memory required for data: 25166336
I1013 17:43:31.537128 15780 layer_factory.hpp:77] Creating layer conv1
I1013 17:43:31.537152 15780 net.cpp:100] Creating Layer conv1
I1013 17:43:31.537170 15780 net.cpp:434] conv1 <- data
I1013 17:43:31.537194 15780 net.cpp:408] conv1 -> conv1
I1013 17:43:31.845433 15780 net.cpp:150] Setting up conv1
I1013 17:43:31.845473 15780 net.cpp:157] Top shape: 128 96 30 30 (11059200)
I1013 17:43:31.845477 15780 net.cpp:165] Memory required for data: 69403136
I1013 17:43:31.845504 15780 layer_factory.hpp:77] Creating layer relu1
I1013 17:43:31.845520 15780 net.cpp:100] Creating Layer relu1
I1013 17:43:31.845525 15780 net.cpp:434] relu1 <- conv1
I1013 17:43:31.845532 15780 net.cpp:395] relu1 -> conv1 (in-place)
I1013 17:43:31.845727 15780 net.cpp:150] Setting up relu1
I1013 17:43:31.845739 15780 net.cpp:157] Top shape: 128 96 30 30 (11059200)
I1013 17:43:31.845742 15780 net.cpp:165] Memory required for data: 113639936
I1013 17:43:31.845747 15780 layer_factory.hpp:77] Creating layer norm1
I1013 17:43:31.845758 15780 net.cpp:100] Creating Layer norm1
I1013 17:43:31.845762 15780 net.cpp:434] norm1 <- conv1
I1013 17:43:31.845767 15780 net.cpp:408] norm1 -> norm1
I1013 17:43:31.846493 15780 net.cpp:150] Setting up norm1
I1013 17:43:31.846509 15780 net.cpp:157] Top shape: 128 96 30 30 (11059200)
I1013 17:43:31.846513 15780 net.cpp:165] Memory required for data: 157876736
I1013 17:43:31.846518 15780 layer_factory.hpp:77] Creating layer pool1
I1013 17:43:31.846530 15780 net.cpp:100] Creating Layer pool1
I1013 17:43:31.846535 15780 net.cpp:434] pool1 <- norm1
I1013 17:43:31.846541 15780 net.cpp:408] pool1 -> pool1
I1013 17:43:31.846606 15780 net.cpp:150] Setting up pool1
I1013 17:43:31.846616 15780 net.cpp:157] Top shape: 128 96 15 15 (2764800)
I1013 17:43:31.846621 15780 net.cpp:165] Memory required for data: 168935936
I1013 17:43:31.846624 15780 layer_factory.hpp:77] Creating layer conv2
I1013 17:43:31.846637 15780 net.cpp:100] Creating Layer conv2
I1013 17:43:31.846645 15780 net.cpp:434] conv2 <- pool1
I1013 17:43:31.846652 15780 net.cpp:408] conv2 -> conv2
I1013 17:43:31.861186 15780 net.cpp:150] Setting up conv2
I1013 17:43:31.861204 15780 net.cpp:157] Top shape: 128 256 15 15 (7372800)
I1013 17:43:31.861209 15780 net.cpp:165] Memory required for data: 198427136
I1013 17:43:31.861219 15780 layer_factory.hpp:77] Creating layer relu2
I1013 17:43:31.861227 15780 net.cpp:100] Creating Layer relu2
I1013 17:43:31.861232 15780 net.cpp:434] relu2 <- conv2
I1013 17:43:31.861238 15780 net.cpp:395] relu2 -> conv2 (in-place)
I1013 17:43:31.861897 15780 net.cpp:150] Setting up relu2
I1013 17:43:31.861914 15780 net.cpp:157] Top shape: 128 256 15 15 (7372800)
I1013 17:43:31.861918 15780 net.cpp:165] Memory required for data: 227918336
I1013 17:43:31.861923 15780 layer_factory.hpp:77] Creating layer norm2
I1013 17:43:31.861930 15780 net.cpp:100] Creating Layer norm2
I1013 17:43:31.861934 15780 net.cpp:434] norm2 <- conv2
I1013 17:43:31.861941 15780 net.cpp:408] norm2 -> norm2
I1013 17:43:31.862182 15780 net.cpp:150] Setting up norm2
I1013 17:43:31.862197 15780 net.cpp:157] Top shape: 128 256 15 15 (7372800)
I1013 17:43:31.862201 15780 net.cpp:165] Memory required for data: 257409536
I1013 17:43:31.862205 15780 layer_factory.hpp:77] Creating layer pool2
I1013 17:43:31.862215 15780 net.cpp:100] Creating Layer pool2
I1013 17:43:31.862218 15780 net.cpp:434] pool2 <- norm2
I1013 17:43:31.862224 15780 net.cpp:408] pool2 -> pool2
I1013 17:43:31.862282 15780 net.cpp:150] Setting up pool2
I1013 17:43:31.862290 15780 net.cpp:157] Top shape: 128 256 7 7 (1605632)
I1013 17:43:31.862294 15780 net.cpp:165] Memory required for data: 263832064
I1013 17:43:31.862298 15780 layer_factory.hpp:77] Creating layer conv3
I1013 17:43:31.862308 15780 net.cpp:100] Creating Layer conv3
I1013 17:43:31.862311 15780 net.cpp:434] conv3 <- pool2
I1013 17:43:31.862318 15780 net.cpp:408] conv3 -> conv3
I1013 17:43:31.898473 15780 net.cpp:150] Setting up conv3
I1013 17:43:31.898491 15780 net.cpp:157] Top shape: 128 384 7 7 (2408448)
I1013 17:43:31.898495 15780 net.cpp:165] Memory required for data: 273465856
I1013 17:43:31.898509 15780 layer_factory.hpp:77] Creating layer relu3
I1013 17:43:31.898516 15780 net.cpp:100] Creating Layer relu3
I1013 17:43:31.898521 15780 net.cpp:434] relu3 <- conv3
I1013 17:43:31.898527 15780 net.cpp:395] relu3 -> conv3 (in-place)
I1013 17:43:31.898736 15780 net.cpp:150] Setting up relu3
I1013 17:43:31.898749 15780 net.cpp:157] Top shape: 128 384 7 7 (2408448)
I1013 17:43:31.898753 15780 net.cpp:165] Memory required for data: 283099648
I1013 17:43:31.898757 15780 layer_factory.hpp:77] Creating layer conv4
I1013 17:43:31.898769 15780 net.cpp:100] Creating Layer conv4
I1013 17:43:31.898773 15780 net.cpp:434] conv4 <- conv3
I1013 17:43:31.898779 15780 net.cpp:408] conv4 -> conv4
I1013 17:43:31.927633 15780 net.cpp:150] Setting up conv4
I1013 17:43:31.927650 15780 net.cpp:157] Top shape: 128 384 7 7 (2408448)
I1013 17:43:31.927655 15780 net.cpp:165] Memory required for data: 292733440
I1013 17:43:31.927664 15780 layer_factory.hpp:77] Creating layer relu4
I1013 17:43:31.927670 15780 net.cpp:100] Creating Layer relu4
I1013 17:43:31.927675 15780 net.cpp:434] relu4 <- conv4
I1013 17:43:31.927683 15780 net.cpp:395] relu4 -> conv4 (in-place)
I1013 17:43:31.927891 15780 net.cpp:150] Setting up relu4
I1013 17:43:31.927902 15780 net.cpp:157] Top shape: 128 384 7 7 (2408448)
I1013 17:43:31.927906 15780 net.cpp:165] Memory required for data: 302367232
I1013 17:43:31.927911 15780 layer_factory.hpp:77] Creating layer conv5
I1013 17:43:31.927924 15780 net.cpp:100] Creating Layer conv5
I1013 17:43:31.927928 15780 net.cpp:434] conv5 <- conv4
I1013 17:43:31.927935 15780 net.cpp:408] conv5 -> conv5
I1013 17:43:31.948562 15780 net.cpp:150] Setting up conv5
I1013 17:43:31.948585 15780 net.cpp:157] Top shape: 128 256 7 7 (1605632)
I1013 17:43:31.948588 15780 net.cpp:165] Memory required for data: 308789760
I1013 17:43:31.948601 15780 layer_factory.hpp:77] Creating layer relu5
I1013 17:43:31.948607 15780 net.cpp:100] Creating Layer relu5
I1013 17:43:31.948612 15780 net.cpp:434] relu5 <- conv5
I1013 17:43:31.948617 15780 net.cpp:395] relu5 -> conv5 (in-place)
I1013 17:43:31.948827 15780 net.cpp:150] Setting up relu5
I1013 17:43:31.948840 15780 net.cpp:157] Top shape: 128 256 7 7 (1605632)
I1013 17:43:31.948843 15780 net.cpp:165] Memory required for data: 315212288
I1013 17:43:31.948848 15780 layer_factory.hpp:77] Creating layer pool5
I1013 17:43:31.948854 15780 net.cpp:100] Creating Layer pool5
I1013 17:43:31.948858 15780 net.cpp:434] pool5 <- conv5
I1013 17:43:31.948866 15780 net.cpp:408] pool5 -> pool5
I1013 17:43:31.948950 15780 net.cpp:150] Setting up pool5
I1013 17:43:31.948958 15780 net.cpp:157] Top shape: 128 256 3 3 (294912)
I1013 17:43:31.948962 15780 net.cpp:165] Memory required for data: 316391936
I1013 17:43:31.948966 15780 layer_factory.hpp:77] Creating layer fc6new
I1013 17:43:31.948982 15780 net.cpp:100] Creating Layer fc6new
I1013 17:43:31.948985 15780 net.cpp:434] fc6new <- pool5
I1013 17:43:31.948992 15780 net.cpp:408] fc6new -> fc6
I1013 17:43:32.264453 15780 net.cpp:150] Setting up fc6new
I1013 17:43:32.264488 15780 net.cpp:157] Top shape: 128 4096 (524288)
I1013 17:43:32.264492 15780 net.cpp:165] Memory required for data: 318489088
I1013 17:43:32.264503 15780 layer_factory.hpp:77] Creating layer relu6
I1013 17:43:32.264520 15780 net.cpp:100] Creating Layer relu6
I1013 17:43:32.264525 15780 net.cpp:434] relu6 <- fc6
I1013 17:43:32.264533 15780 net.cpp:395] relu6 -> fc6 (in-place)
I1013 17:43:32.265269 15780 net.cpp:150] Setting up relu6
I1013 17:43:32.265283 15780 net.cpp:157] Top shape: 128 4096 (524288)
I1013 17:43:32.265286 15780 net.cpp:165] Memory required for data: 320586240
I1013 17:43:32.265290 15780 layer_factory.hpp:77] Creating layer drop6
I1013 17:43:32.265302 15780 net.cpp:100] Creating Layer drop6
I1013 17:43:32.265305 15780 net.cpp:434] drop6 <- fc6
I1013 17:43:32.265311 15780 net.cpp:395] drop6 -> fc6 (in-place)
I1013 17:43:32.265354 15780 net.cpp:150] Setting up drop6
I1013 17:43:32.265360 15780 net.cpp:157] Top shape: 128 4096 (524288)
I1013 17:43:32.265363 15780 net.cpp:165] Memory required for data: 322683392
I1013 17:43:32.265365 15780 layer_factory.hpp:77] Creating layer fc7new
I1013 17:43:32.265377 15780 net.cpp:100] Creating Layer fc7new
I1013 17:43:32.265379 15780 net.cpp:434] fc7new <- fc6
I1013 17:43:32.265384 15780 net.cpp:408] fc7new -> fc7
I1013 17:43:32.738272 15780 net.cpp:150] Setting up fc7new
I1013 17:43:32.738312 15780 net.cpp:157] Top shape: 128 4096 (524288)
I1013 17:43:32.738317 15780 net.cpp:165] Memory required for data: 324780544
I1013 17:43:32.738328 15780 layer_factory.hpp:77] Creating layer relu7
I1013 17:43:32.738340 15780 net.cpp:100] Creating Layer relu7
I1013 17:43:32.738345 15780 net.cpp:434] relu7 <- fc7
I1013 17:43:32.738353 15780 net.cpp:395] relu7 -> fc7 (in-place)
I1013 17:43:32.738622 15780 net.cpp:150] Setting up relu7
I1013 17:43:32.738632 15780 net.cpp:157] Top shape: 128 4096 (524288)
I1013 17:43:32.738636 15780 net.cpp:165] Memory required for data: 326877696
I1013 17:43:32.738638 15780 layer_factory.hpp:77] Creating layer drop7
I1013 17:43:32.738646 15780 net.cpp:100] Creating Layer drop7
I1013 17:43:32.738648 15780 net.cpp:434] drop7 <- fc7
I1013 17:43:32.738654 15780 net.cpp:395] drop7 -> fc7 (in-place)
I1013 17:43:32.738685 15780 net.cpp:150] Setting up drop7
I1013 17:43:32.738690 15780 net.cpp:157] Top shape: 128 4096 (524288)
I1013 17:43:32.738693 15780 net.cpp:165] Memory required for data: 328974848
I1013 17:43:32.738695 15780 layer_factory.hpp:77] Creating layer fc8new
I1013 17:43:32.738704 15780 net.cpp:100] Creating Layer fc8new
I1013 17:43:32.738706 15780 net.cpp:434] fc8new <- fc7
I1013 17:43:32.738713 15780 net.cpp:408] fc8new -> fc8
I1013 17:43:32.741291 15780 net.cpp:150] Setting up fc8new
I1013 17:43:32.741299 15780 net.cpp:157] Top shape: 128 21 (2688)
I1013 17:43:32.741313 15780 net.cpp:165] Memory required for data: 328985600
I1013 17:43:32.741318 15780 layer_factory.hpp:77] Creating layer loss
I1013 17:43:32.741346 15780 net.cpp:100] Creating Layer loss
I1013 17:43:32.741349 15780 net.cpp:434] loss <- fc8
I1013 17:43:32.741353 15780 net.cpp:434] loss <- label
I1013 17:43:32.741358 15780 net.cpp:408] loss -> loss
I1013 17:43:32.741381 15780 layer_factory.hpp:77] Creating layer loss
…
I1013 17:43:32.742483 15780 net.cpp:322] The NetState phase (1) differed from the phase (0) specified by a rule in layer mnist
I1013 17:43:32.742653 15780 net.cpp:58] Initializing net from parameters: 
name: "AlexNet"
state {
  phase: TEST
}
layer {
  name: "mnist"
  type: "Data"
  top: "data"
  top: "label"
  include {
    phase: TEST
  }
  transform_param {
    scale: 0.00390625
    mean_file: "data/person_only_lmdb/21class_mean.binaryproto"
  }
  data_param {
    source: "data/person_only_lmdb/pascal_plus_21cls_test_lmdb"
    batch_size: 100
    backend: LMDB
  }
}
layer {
  name: "conv1"
  type: "Convolution"
  bottom: "data"
  top: "conv1"
  param {
    lr_mult: 1
    decay_mult: 1
  }
  param {
    lr_mult: 2
    decay_mult: 0
  }
  convolution_param {
    num_output: 96
    kernel_size: 11
    stride: 4
    weight_filler {
      type: "gaussian"
      std: 0.01
    }
    bias_filler {
      type: "constant"
      value: 0
    }
  }
}
layer {
  name: "relu1"
  type: "ReLU"
  bottom: "conv1"
  top: "conv1"
}
layer {
  name: "norm1"
  type: "LRN"
  bottom: "conv1"
  top: "norm1"
  lrn_param {
    local_size: 5
    alpha: 0.0001
    beta: 0.75
  }
}
layer {
  name: "pool1"
  type: "Pooling"
  bottom: "norm1"
  top: "pool1"
  pooling_param {
    pool: MAX
    kernel_size: 3
    stride: 2
  }
}
layer {
  name: "conv2"
  type: "Convolution"
  bottom: "pool1"
  top: "conv2"
  param {
    lr_mult: 1
    decay_mult: 1
  }
  param {
    lr_mult: 2
    decay_mult: 0
  }
  convolution_param {
    num_output: 256
    pad: 2
    kernel_size: 5
    group: 2
    weight_filler {
      type: "gaussian"
      std: 0.01
    }
    bias_filler {
      type: "constant"
      value: 0.1
    }
  }
}
layer {
  name: "relu2"
  type: "ReLU"
  bottom: "conv2"
  top: "conv2"
}
layer {
  name: "norm2"
  type: "LRN"
  bottom: "conv2"
  top: "norm2"
  lrn_param {
    local_size: 5
    alpha: 0.0001
    beta: 0.75
  }
}
layer {
  name: "pool2"
  type: "Pooling"
  bottom: "norm2"
  top: "pool2"
  pooling_param {
    pool: MAX
    kernel_size: 3
    stride: 2
  }
}
layer {
  name: "conv3"
  type: "Convolution"
  bottom: "pool2"
  top: "conv3"
  param {
    lr_mult: 1
    decay_mult: 1
  }
  param {
    lr_mult: 2
    decay_mult: 0
  }
  convolution_param {
    num_output: 384
    pad: 1
    kernel_size: 3
    weight_filler {
      type: "gaussian"
      std: 0.01
    }
    bias_filler {
      type: "constant"
      value: 0
    }
  }
}
layer {
  name: "relu3"
  type: "ReLU"
  bottom: "conv3"
  top: "conv3"
}
layer {
  name: "conv4"
  type: "Convolution"
  bottom: "conv3"
  top: "conv4"
  param {
    lr_mult: 1
    decay_mult: 1
  }
  param {
    lr_mult: 2
    decay_mult: 0
  }
  convolution_param {
    num_output: 384
    pad: 1
    kernel_size: 3
    group: 2
    weight_filler {
      type: "gaussian"
      std: 0.01
    }
    bias_filler {
      type: "constant"
      value: 0.1
    }
  }
}
layer {
  name: "relu4"
  type: "ReLU"
  bottom: "conv4"
  top: "conv4"
}
layer {
  name: "conv5"
  type: "Convolution"
  bottom: "conv4"
  top: "conv5"
  param {
    lr_mult: 1
    decay_mult: 1
  }
  param {
    lr_mult: 2
    decay_mult: 0
  }
  convolution_param {
    num_output: 256
    pad: 1
    kernel_size: 3
    group: 2
    weight_filler {
      type: "gaussian"
      std: 0.01
    }
    bias_filler {
      type: "constant"
      value: 0.1
    }
  }
}
layer {
  name: "relu5"
  type: "ReLU"
  bottom: "conv5"
  top: "conv5"
}
layer {
  name: "pool5"
  type: "Pooling"
  bottom: "conv5"
  top: "pool5"
  pooling_param {
    pool: MAX
    kernel_size: 3
    stride: 2
  }
}
layer {
  name: "fc6new"
  type: "InnerProduct"
  bottom: "pool5"
  top: "fc6"
  param {
    lr_mult: 1
    decay_mult: 1
  }
  param {
    lr_mult: 2
    decay_mult: 0
  }
  inner_product_param {
    num_output: 4096
    weight_filler {
      type: "gaussian"
      std: 0.005
    }
    bias_filler {
      type: "constant"
      value: 0.1
    }
  }
}
layer {
  name: "relu6"
  type: "ReLU"
  bottom: "fc6"
  top: "fc6"
}
layer {
  name: "drop6"
  type: "Dropout"
  bottom: "fc6"
  top: "fc6"
  dropout_param {
    dropout_ratio: 0.5
  }
}
layer {
  name: "fc7new"
  type: "InnerProduct"
  bottom: "fc6"
  top: "fc7"
  param {
    lr_mult: 1
    decay_mult: 1
  }
  param {
    lr_mult: 2
    decay_mult: 0
  }
  inner_product_param {
    num_output: 4096
    weight_filler {
      type: "gaussian"
      std: 0.005
    }
    bias_filler {
      type: "constant"
      value: 0.1
    }
  }
}
layer {
  name: "relu7"
  type: "ReLU"
  bottom: "fc7"
  top: "fc7"
}
layer {
  name: "drop7"
  type: "Dropout"
  bottom: "fc7"
  top: "fc7"
  dropout_param {
    dropout_ratio: 0.5
  }
}
layer {
  name: "fc8new"
  type: "InnerProduct"
  bottom: "fc7"
  top: "fc8"
  param {
    lr_mult: 1
    decay_mult: 1
  }
  param {
    lr_mult: 2
    decay_mult: 0
  }
  inner_product_param {
    num_output: 21
    weight_filler {
      type: "gaussian"
      std: 0.01
    }
    bias_filler {
      type: "constant"
      value: 0
    }
  }
}
layer {
  name: "accuracy"
  type: "Accuracy"
  bottom: "fc8"
  bottom: "label"
  top: "accuracy"
  include {
    phase: TEST
  }
}
layer {
  name: "loss"
  type: "SoftmaxWithLoss"
  bottom: "fc8"
  bottom: "label"
  top: "loss"
}
I1013 17:43:32.742768 15780 layer_factory.hpp:77] Creating layer mnist
I1013 17:43:32.742887 15780 net.cpp:100] Creating Layer mnist
I1013 17:43:32.742897 15780 net.cpp:408] mnist -> data
I1013 17:43:32.742903 15780 net.cpp:408] mnist -> label
I1013 17:43:32.742910 15780 data_transformer.cpp:25] Loading mean file from: data/person_only_lmdb/21class_mean.binaryproto
I1013 17:43:32.744875 15828 db_lmdb.cpp:35] Opened lmdb data/person_only_lmdb/pascal_plus_21cls_test_lmdb
I1013 17:43:32.745188 15780 data_layer.cpp:41] output data size: 100,3,128,128
I1013 17:43:32.789824 15780 net.cpp:150] Setting up mnist
I1013 17:43:32.789860 15780 net.cpp:157] Top shape: 100 3 128 128 (4915200)
I1013 17:43:32.789867 15780 net.cpp:157] Top shape: 100 (100)
I1013 17:43:32.789871 15780 net.cpp:165] Memory required for data: 19661200
I1013 17:43:32.789880 15780 layer_factory.hpp:77] Creating layer label_mnist_1_split
I1013 17:43:32.789903 15780 net.cpp:100] Creating Layer label_mnist_1_split
I1013 17:43:32.789908 15780 net.cpp:434] label_mnist_1_split <- label
I1013 17:43:32.789916 15780 net.cpp:408] label_mnist_1_split -> label_mnist_1_split_0
I1013 17:43:32.789929 15780 net.cpp:408] label_mnist_1_split -> label_mnist_1_split_1
I1013 17:43:32.790125 15780 net.cpp:150] Setting up label_mnist_1_split
I1013 17:43:32.790138 15780 net.cpp:157] Top shape: 100 (100)
I1013 17:43:32.790143 15780 net.cpp:157] Top shape: 100 (100)
I1013 17:43:32.790146 15780 net.cpp:165] Memory required for data: 19662000
I1013 17:43:32.790150 15780 layer_factory.hpp:77] Creating layer conv1
I1013 17:43:32.790168 15780 net.cpp:100] Creating Layer conv1
I1013 17:43:32.790171 15780 net.cpp:434] conv1 <- data
I1013 17:43:32.790179 15780 net.cpp:408] conv1 -> conv1
I1013 17:43:32.796293 15780 net.cpp:150] Setting up conv1
I1013 17:43:32.796310 15780 net.cpp:157] Top shape: 100 96 30 30 (8640000)
I1013 17:43:32.796315 15780 net.cpp:165] Memory required for data: 54222000
I1013 17:43:32.796329 15780 layer_factory.hpp:77] Creating layer relu1
I1013 17:43:32.796337 15780 net.cpp:100] Creating Layer relu1
I1013 17:43:32.796341 15780 net.cpp:434] relu1 <- conv1
I1013 17:43:32.796347 15780 net.cpp:395] relu1 -> conv1 (in-place)
I1013 17:43:32.796535 15780 net.cpp:150] Setting up relu1
I1013 17:43:32.796547 15780 net.cpp:157] Top shape: 100 96 30 30 (8640000)
I1013 17:43:32.796550 15780 net.cpp:165] Memory required for data: 88782000
I1013 17:43:32.796555 15780 layer_factory.hpp:77] Creating layer norm1
I1013 17:43:32.796564 15780 net.cpp:100] Creating Layer norm1
I1013 17:43:32.796568 15780 net.cpp:434] norm1 <- conv1
I1013 17:43:32.796574 15780 net.cpp:408] norm1 -> norm1
I1013 17:43:32.797323 15780 net.cpp:150] Setting up norm1
I1013 17:43:32.797340 15780 net.cpp:157] Top shape: 100 96 30 30 (8640000)
I1013 17:43:32.797344 15780 net.cpp:165] Memory required for data: 123342000
I1013 17:43:32.797348 15780 layer_factory.hpp:77] Creating layer pool1
I1013 17:43:32.797360 15780 net.cpp:100] Creating Layer pool1
I1013 17:43:32.797365 15780 net.cpp:434] pool1 <- norm1
I1013 17:43:32.797371 15780 net.cpp:408] pool1 -> pool1
I1013 17:43:32.797436 15780 net.cpp:150] Setting up pool1
I1013 17:43:32.797443 15780 net.cpp:157] Top shape: 100 96 15 15 (2160000)
I1013 17:43:32.797446 15780 net.cpp:165] Memory required for data: 131982000
I1013 17:43:32.797449 15780 layer_factory.hpp:77] Creating layer conv2
I1013 17:43:32.797461 15780 net.cpp:100] Creating Layer conv2
I1013 17:43:32.797464 15780 net.cpp:434] conv2 <- pool1
I1013 17:43:32.797471 15780 net.cpp:408] conv2 -> conv2
I1013 17:43:32.815119 15780 net.cpp:150] Setting up conv2
I1013 17:43:32.815138 15780 net.cpp:157] Top shape: 100 256 15 15 (5760000)
I1013 17:43:32.815143 15780 net.cpp:165] Memory required for data: 155022000
I1013 17:43:32.815153 15780 layer_factory.hpp:77] Creating layer relu2
I1013 17:43:32.815161 15780 net.cpp:100] Creating Layer relu2
I1013 17:43:32.815165 15780 net.cpp:434] relu2 <- conv2
I1013 17:43:32.815171 15780 net.cpp:395] relu2 -> conv2 (in-place)
I1013 17:43:32.815883 15780 net.cpp:150] Setting up relu2
I1013 17:43:32.815899 15780 net.cpp:157] Top shape: 100 256 15 15 (5760000)
I1013 17:43:32.815903 15780 net.cpp:165] Memory required for data: 178062000
I1013 17:43:32.815907 15780 layer_factory.hpp:77] Creating layer norm2
I1013 17:43:32.815918 15780 net.cpp:100] Creating Layer norm2
I1013 17:43:32.815922 15780 net.cpp:434] norm2 <- conv2
I1013 17:43:32.815928 15780 net.cpp:408] norm2 -> norm2
I1013 17:43:32.816190 15780 net.cpp:150] Setting up norm2
I1013 17:43:32.816202 15780 net.cpp:157] Top shape: 100 256 15 15 (5760000)
I1013 17:43:32.816206 15780 net.cpp:165] Memory required for data: 201102000
I1013 17:43:32.816210 15780 layer_factory.hpp:77] Creating layer pool2
I1013 17:43:32.816217 15780 net.cpp:100] Creating Layer pool2
I1013 17:43:32.816226 15780 net.cpp:434] pool2 <- norm2
I1013 17:43:32.816242 15780 net.cpp:408] pool2 -> pool2
I1013 17:43:32.816308 15780 net.cpp:150] Setting up pool2
I1013 17:43:32.816316 15780 net.cpp:157] Top shape: 100 256 7 7 (1254400)
I1013 17:43:32.816319 15780 net.cpp:165] Memory required for data: 206119600
I1013 17:43:32.816323 15780 layer_factory.hpp:77] Creating layer conv3
I1013 17:43:32.816335 15780 net.cpp:100] Creating Layer conv3
I1013 17:43:32.816339 15780 net.cpp:434] conv3 <- pool2
I1013 17:43:32.816345 15780 net.cpp:408] conv3 -> conv3
I1013 17:43:32.852234 15780 net.cpp:150] Setting up conv3
I1013 17:43:32.852252 15780 net.cpp:157] Top shape: 100 384 7 7 (1881600)
I1013 17:43:32.852257 15780 net.cpp:165] Memory required for data: 213646000
I1013 17:43:32.852270 15780 layer_factory.hpp:77] Creating layer relu3
I1013 17:43:32.852278 15780 net.cpp:100] Creating Layer relu3
I1013 17:43:32.852283 15780 net.cpp:434] relu3 <- conv3
I1013 17:43:32.852288 15780 net.cpp:395] relu3 -> conv3 (in-place)
I1013 17:43:32.852510 15780 net.cpp:150] Setting up relu3
I1013 17:43:32.852524 15780 net.cpp:157] Top shape: 100 384 7 7 (1881600)
I1013 17:43:32.852529 15780 net.cpp:165] Memory required for data: 221172400
I1013 17:43:32.852532 15780 layer_factory.hpp:77] Creating layer conv4
I1013 17:43:32.852543 15780 net.cpp:100] Creating Layer conv4
I1013 17:43:32.852548 15780 net.cpp:434] conv4 <- conv3
I1013 17:43:32.852555 15780 net.cpp:408] conv4 -> conv4
I1013 17:43:32.881518 15780 net.cpp:150] Setting up conv4
I1013 17:43:32.881536 15780 net.cpp:157] Top shape: 100 384 7 7 (1881600)
I1013 17:43:32.881541 15780 net.cpp:165] Memory required for data: 228698800
I1013 17:43:32.881548 15780 layer_factory.hpp:77] Creating layer relu4
I1013 17:43:32.881556 15780 net.cpp:100] Creating Layer relu4
I1013 17:43:32.881561 15780 net.cpp:434] relu4 <- conv4
I1013 17:43:32.881568 15780 net.cpp:395] relu4 -> conv4 (in-place)
I1013 17:43:32.883718 15780 net.cpp:150] Setting up relu4
I1013 17:43:32.883733 15780 net.cpp:157] Top shape: 100 384 7 7 (1881600)
I1013 17:43:32.883739 15780 net.cpp:165] Memory required for data: 236225200
I1013 17:43:32.883744 15780 layer_factory.hpp:77] Creating layer conv5
I1013 17:43:32.883754 15780 net.cpp:100] Creating Layer conv5
I1013 17:43:32.883760 15780 net.cpp:434] conv5 <- conv4
I1013 17:43:32.883769 15780 net.cpp:408] conv5 -> conv5
I1013 17:43:32.904357 15780 net.cpp:150] Setting up conv5
I1013 17:43:32.904376 15780 net.cpp:157] Top shape: 100 256 7 7 (1254400)
I1013 17:43:32.904379 15780 net.cpp:165] Memory required for data: 241242800
I1013 17:43:32.904392 15780 layer_factory.hpp:77] Creating layer relu5
I1013 17:43:32.904400 15780 net.cpp:100] Creating Layer relu5
I1013 17:43:32.904404 15780 net.cpp:434] relu5 <- conv5
I1013 17:43:32.904412 15780 net.cpp:395] relu5 -> conv5 (in-place)
I1013 17:43:32.904623 15780 net.cpp:150] Setting up relu5
I1013 17:43:32.904635 15780 net.cpp:157] Top shape: 100 256 7 7 (1254400)
I1013 17:43:32.904639 15780 net.cpp:165] Memory required for data: 246260400
I1013 17:43:32.904644 15780 layer_factory.hpp:77] Creating layer pool5
I1013 17:43:32.904654 15780 net.cpp:100] Creating Layer pool5
I1013 17:43:32.904657 15780 net.cpp:434] pool5 <- conv5
I1013 17:43:32.904664 15780 net.cpp:408] pool5 -> pool5
I1013 17:43:32.904742 15780 net.cpp:150] Setting up pool5
I1013 17:43:32.904752 15780 net.cpp:157] Top shape: 100 256 3 3 (230400)
I1013 17:43:32.904754 15780 net.cpp:165] Memory required for data: 247182000
I1013 17:43:32.904757 15780 layer_factory.hpp:77] Creating layer fc6new
I1013 17:43:32.904769 15780 net.cpp:100] Creating Layer fc6new
I1013 17:43:32.904773 15780 net.cpp:434] fc6new <- pool5
I1013 17:43:32.904778 15780 net.cpp:408] fc6new -> fc6
I1013 17:43:33.200467 15780 net.cpp:150] Setting up fc6new
I1013 17:43:33.200506 15780 net.cpp:157] Top shape: 100 4096 (409600)
I1013 17:43:33.200510 15780 net.cpp:165] Memory required for data: 248820400
I1013 17:43:33.200520 15780 layer_factory.hpp:77] Creating layer relu6
I1013 17:43:33.200532 15780 net.cpp:100] Creating Layer relu6
I1013 17:43:33.200537 15780 net.cpp:434] relu6 <- fc6
I1013 17:43:33.200543 15780 net.cpp:395] relu6 -> fc6 (in-place)
I1013 17:43:33.200817 15780 net.cpp:150] Setting up relu6
I1013 17:43:33.200827 15780 net.cpp:157] Top shape: 100 4096 (409600)
I1013 17:43:33.200830 15780 net.cpp:165] Memory required for data: 250458800
I1013 17:43:33.200834 15780 layer_factory.hpp:77] Creating layer drop6
I1013 17:43:33.200841 15780 net.cpp:100] Creating Layer drop6
I1013 17:43:33.200845 15780 net.cpp:434] drop6 <- fc6
I1013 17:43:33.200850 15780 net.cpp:395] drop6 -> fc6 (in-place)
I1013 17:43:33.200896 15780 net.cpp:150] Setting up drop6
I1013 17:43:33.200902 15780 net.cpp:157] Top shape: 100 4096 (409600)
I1013 17:43:33.200906 15780 net.cpp:165] Memory required for data: 252097200
I1013 17:43:33.200908 15780 layer_factory.hpp:77] Creating layer fc7new
I1013 17:43:33.200917 15780 net.cpp:100] Creating Layer fc7new
I1013 17:43:33.200918 15780 net.cpp:434] fc7new <- fc6
I1013 17:43:33.200925 15780 net.cpp:408] fc7new -> fc7
I1013 17:43:33.674336 15780 net.cpp:150] Setting up fc7new
I1013 17:43:33.674372 15780 net.cpp:157] Top shape: 100 4096 (409600)
I1013 17:43:33.674376 15780 net.cpp:165] Memory required for data: 253735600
I1013 17:43:33.674386 15780 layer_factory.hpp:77] Creating layer relu7
I1013 17:43:33.674396 15780 net.cpp:100] Creating Layer relu7
I1013 17:43:33.674401 15780 net.cpp:434] relu7 <- fc7
I1013 17:43:33.674409 15780 net.cpp:395] relu7 -> fc7 (in-place)
I1013 17:43:33.675253 15780 net.cpp:150] Setting up relu7
I1013 17:43:33.675266 15780 net.cpp:157] Top shape: 100 4096 (409600)
I1013 17:43:33.675269 15780 net.cpp:165] Memory required for data: 255374000
I1013 17:43:33.675272 15780 layer_factory.hpp:77] Creating layer drop7
I1013 17:43:33.675279 15780 net.cpp:100] Creating Layer drop7
I1013 17:43:33.675284 15780 net.cpp:434] drop7 <- fc7
I1013 17:43:33.675288 15780 net.cpp:395] drop7 -> fc7 (in-place)
I1013 17:43:33.675343 15780 net.cpp:150] Setting up drop7
I1013 17:43:33.675349 15780 net.cpp:157] Top shape: 100 4096 (409600)
I1013 17:43:33.675353 15780 net.cpp:165] Memory required for data: 257012400
I1013 17:43:33.675354 15780 layer_factory.hpp:77] Creating layer fc8new
I1013 17:43:33.675364 15780 net.cpp:100] Creating Layer fc8new
I1013 17:43:33.675367 15780 net.cpp:434] fc8new <- fc7
I1013 17:43:33.675371 15780 net.cpp:408] fc8new -> fc8
I1013 17:43:33.677981 15780 net.cpp:150] Setting up fc8new
I1013 17:43:33.677990 15780 net.cpp:157] Top shape: 100 21 (2100)
I1013 17:43:33.677994 15780 net.cpp:165] Memory required for data: 257020800
I1013 17:43:33.677999 15780 layer_factory.hpp:77] Creating layer fc8_fc8new_0_split
I1013 17:43:33.678030 15780 net.cpp:100] Creating Layer fc8_fc8new_0_split
I1013 17:43:33.678035 15780 net.cpp:434] fc8_fc8new_0_split <- fc8
I1013 17:43:33.678050 15780 net.cpp:408] fc8_fc8new_0_split -> fc8_fc8new_0_split_0
I1013 17:43:33.678056 15780 net.cpp:408] fc8_fc8new_0_split -> fc8_fc8new_0_split_1
I1013 17:43:33.678123 15780 net.cpp:150] Setting up fc8_fc8new_0_split
I1013 17:43:33.678129 15780 net.cpp:157] Top shape: 100 21 (2100)
I1013 17:43:33.678133 15780 net.cpp:157] Top shape: 100 21 (2100)
I1013 17:43:33.678135 15780 net.cpp:165] Memory required for data: 257037600
I1013 17:43:33.678138 15780 layer_factory.hpp:77] Creating layer accuracy
I1013 17:43:33.678158 15780 net.cpp:100] Creating Layer accuracy
I1013 17:43:33.678172 15780 net.cpp:434] accuracy <- fc8_fc8new_0_split_0
I1013 17:43:33.678177 15780 net.cpp:434] accuracy <- label_mnist_1_split_0
I1013 17:43:33.678181 15780 net.cpp:408] accuracy -> accuracy
…
