…
I0712 16:18:39.156545 31503 net.cpp:313] The NetState phase (0) differed from the phase (1) specified by a rule in layer accuracy
I0712 16:18:39.156632 31503 net.cpp:49] Initializing net from parameters: 
name: "LeNet"
state {
  phase: TRAIN
}
layer {
  name: "mnist"
  type: "Data"
  top: "data"
  top: "label"
  include {
    phase: TRAIN
  }
  transform_param {
    mean_file: "data/person_only_lmdb/person_patch_color_mean.binaryproto"
  }
  data_param {
    source: "data/person_only_lmdb/people_patch_train_lmdb"
    batch_size: 64
    backend: LMDB
  }
}
layer {
  name: "conv1"
  type: "Convolution"
  bottom: "data"
  top: "conv1"
  param {
    lr_mult: 1
  }
  param {
    lr_mult: 2
  }
  convolution_param {
    num_output: 20
    kernel_size: 5
    stride: 1
    weight_filler {
      type: "xavier"
    }
    bias_filler {
      type: "constant"
    }
  }
}
layer {
  name: "pool1"
  type: "Pooling"
  bottom: "conv1"
  top: "pool1"
  pooling_param {
    pool: MAX
    kernel_size: 2
    stride: 2
  }
}
layer {
  name: "conv2"
  type: "Convolution"
  bottom: "pool1"
  top: "conv2"
  param {
    lr_mult: 1
  }
  param {
    lr_mult: 2
  }
  convolution_param {
    num_output: 50
    kernel_size: 5
    stride: 1
    weight_filler {
      type: "xavier"
    }
    bias_filler {
      type: "constant"
    }
  }
}
layer {
  name: "pool2"
  type: "Pooling"
  bottom: "conv2"
  top: "pool2"
  pooling_param {
    pool: MAX
    kernel_size: 2
    stride: 2
  }
}
layer {
  name: "ip1"
  type: "InnerProduct"
  bottom: "pool2"
  top: "ip1"
  param {
    lr_mult: 1
  }
  param {
    lr_mult: 2
  }
  inner_product_param {
    num_output: 500
    weight_filler {
      type: "xavier"
    }
    bias_filler {
      type: "constant"
    }
  }
}
layer {
  name: "relu1"
  type: "ReLU"
  bottom: "ip1"
  top: "ip1"
}
layer {
  name: "ip2"
  type: "InnerProduct"
  bottom: "ip1"
  top: "ip2"
  param {
    lr_mult: 1
  }
  param {
    lr_mult: 2
  }
  inner_product_param {
    num_output: 4
    weight_filler {
      type: "xavier"
    }
    bias_filler {
      type: "constant"
    }
  }
}
layer {
  name: "loss"
  type: "SoftmaxWithLoss"
  bottom: "ip2"
  bottom: "label"
  top: "loss"
}
I0712 16:18:39.156687 31503 layer_factory.hpp:77] Creating layer mnist
I0712 16:18:39.157745 31503 net.cpp:91] Creating Layer mnist
I0712 16:18:39.157764 31503 net.cpp:399] mnist -> data
I0712 16:18:39.157779 31503 net.cpp:399] mnist -> label
I0712 16:18:39.157790 31503 data_transformer.cpp:25] Loading mean file from: data/person_only_lmdb/person_patch_color_mean.binaryproto
I0712 16:18:39.159126 31510 db_lmdb.cpp:35] Opened lmdb data/person_only_lmdb/people_patch_train_lmdb
I0712 16:21:44.150612 31503 data_layer.cpp:41] output data size: 64,3,128,128
I0712 16:21:44.182647 31503 net.cpp:141] Setting up mnist
I0712 16:21:44.182706 31503 net.cpp:148] Top shape: 64 3 128 128 (3145728)
I0712 16:21:44.182718 31503 net.cpp:148] Top shape: 64 (64)
I0712 16:21:44.182724 31503 net.cpp:156] Memory required for data: 12583168
I0712 16:21:44.182735 31503 layer_factory.hpp:77] Creating layer conv1
I0712 16:21:44.182782 31503 net.cpp:91] Creating Layer conv1
I0712 16:21:44.182796 31503 net.cpp:425] conv1 <- data
I0712 16:21:44.182809 31503 net.cpp:399] conv1 -> conv1
I0712 16:21:46.926971 31503 net.cpp:141] Setting up conv1
I0712 16:21:46.927027 31503 net.cpp:148] Top shape: 64 20 124 124 (19681280)
I0712 16:21:46.927037 31503 net.cpp:156] Memory required for data: 91308288
I0712 16:21:46.927064 31503 layer_factory.hpp:77] Creating layer pool1
I0712 16:21:46.927093 31503 net.cpp:91] Creating Layer pool1
I0712 16:21:46.927103 31503 net.cpp:425] pool1 <- conv1
I0712 16:21:46.927120 31503 net.cpp:399] pool1 -> pool1
I0712 16:21:46.927212 31503 net.cpp:141] Setting up pool1
I0712 16:21:46.927229 31503 net.cpp:148] Top shape: 64 20 62 62 (4920320)
I0712 16:21:46.927235 31503 net.cpp:156] Memory required for data: 110989568
I0712 16:21:46.927242 31503 layer_factory.hpp:77] Creating layer conv2
I0712 16:21:46.927265 31503 net.cpp:91] Creating Layer conv2
I0712 16:21:46.927273 31503 net.cpp:425] conv2 <- pool1
I0712 16:21:46.927284 31503 net.cpp:399] conv2 -> conv2
I0712 16:21:46.929503 31503 net.cpp:141] Setting up conv2
I0712 16:21:46.929534 31503 net.cpp:148] Top shape: 64 50 58 58 (10764800)
I0712 16:21:46.929543 31503 net.cpp:156] Memory required for data: 154048768
I0712 16:21:46.929561 31503 layer_factory.hpp:77] Creating layer pool2
I0712 16:21:46.929575 31503 net.cpp:91] Creating Layer pool2
I0712 16:21:46.929587 31503 net.cpp:425] pool2 <- conv2
I0712 16:21:46.929597 31503 net.cpp:399] pool2 -> pool2
I0712 16:21:46.929677 31503 net.cpp:141] Setting up pool2
I0712 16:21:46.929692 31503 net.cpp:148] Top shape: 64 50 29 29 (2691200)
I0712 16:21:46.929698 31503 net.cpp:156] Memory required for data: 164813568
I0712 16:21:46.929704 31503 layer_factory.hpp:77] Creating layer ip1
I0712 16:21:46.929728 31503 net.cpp:91] Creating Layer ip1
I0712 16:21:46.929736 31503 net.cpp:425] ip1 <- pool2
I0712 16:21:46.929746 31503 net.cpp:399] ip1 -> ip1
I0712 16:21:47.131260 31503 net.cpp:141] Setting up ip1
I0712 16:21:47.131304 31503 net.cpp:148] Top shape: 64 500 (32000)
I0712 16:21:47.131309 31503 net.cpp:156] Memory required for data: 164941568
I0712 16:21:47.131327 31503 layer_factory.hpp:77] Creating layer relu1
I0712 16:21:47.131340 31503 net.cpp:91] Creating Layer relu1
I0712 16:21:47.131343 31503 net.cpp:425] relu1 <- ip1
I0712 16:21:47.131348 31503 net.cpp:386] relu1 -> ip1 (in-place)
I0712 16:21:47.131706 31503 net.cpp:141] Setting up relu1
I0712 16:21:47.131718 31503 net.cpp:148] Top shape: 64 500 (32000)
I0712 16:21:47.131721 31503 net.cpp:156] Memory required for data: 165069568
I0712 16:21:47.131723 31503 layer_factory.hpp:77] Creating layer ip2
I0712 16:21:47.131734 31503 net.cpp:91] Creating Layer ip2
I0712 16:21:47.131737 31503 net.cpp:425] ip2 <- ip1
I0712 16:21:47.131742 31503 net.cpp:399] ip2 -> ip2
I0712 16:21:47.131845 31503 net.cpp:141] Setting up ip2
I0712 16:21:47.131852 31503 net.cpp:148] Top shape: 64 4 (256)
I0712 16:21:47.131855 31503 net.cpp:156] Memory required for data: 165070592
I0712 16:21:47.131860 31503 layer_factory.hpp:77] Creating layer loss
I0712 16:21:47.131875 31503 net.cpp:91] Creating Layer loss
I0712 16:21:47.131880 31503 net.cpp:425] loss <- ip2
I0712 16:21:47.131882 31503 net.cpp:425] loss <- label
I0712 16:21:47.131886 31503 net.cpp:399] loss -> loss
I0712 16:21:47.131894 31503 layer_factory.hpp:77] Creating layer loss
…
I0712 16:21:47.132469 31503 net.cpp:313] The NetState phase (1) differed from the phase (0) specified by a rule in layer mnist
I0712 16:21:47.132539 31503 net.cpp:49] Initializing net from parameters: 
name: "LeNet"
state {
  phase: TEST
}
layer {
  name: "mnist"
  type: "Data"
  top: "data"
  top: "label"
  include {
    phase: TEST
  }
  transform_param {
    mean_file: "data/person_only_lmdb/person_patch_color_mean.binaryproto"
  }
  data_param {
    source: "data/person_only_lmdb/people_patch_test_lmdb"
    batch_size: 100
    backend: LMDB
  }
}
layer {
  name: "conv1"
  type: "Convolution"
  bottom: "data"
  top: "conv1"
  param {
    lr_mult: 1
  }
  param {
    lr_mult: 2
  }
  convolution_param {
    num_output: 20
    kernel_size: 5
    stride: 1
    weight_filler {
      type: "xavier"
    }
    bias_filler {
      type: "constant"
    }
  }
}
layer {
  name: "pool1"
  type: "Pooling"
  bottom: "conv1"
  top: "pool1"
  pooling_param {
    pool: MAX
    kernel_size: 2
    stride: 2
  }
}
layer {
  name: "conv2"
  type: "Convolution"
  bottom: "pool1"
  top: "conv2"
  param {
    lr_mult: 1
  }
  param {
    lr_mult: 2
  }
  convolution_param {
    num_output: 50
    kernel_size: 5
    stride: 1
    weight_filler {
      type: "xavier"
    }
    bias_filler {
      type: "constant"
    }
  }
}
layer {
  name: "pool2"
  type: "Pooling"
  bottom: "conv2"
  top: "pool2"
  pooling_param {
    pool: MAX
    kernel_size: 2
    stride: 2
  }
}
layer {
  name: "ip1"
  type: "InnerProduct"
  bottom: "pool2"
  top: "ip1"
  param {
    lr_mult: 1
  }
  param {
    lr_mult: 2
  }
  inner_product_param {
    num_output: 500
    weight_filler {
      type: "xavier"
    }
    bias_filler {
      type: "constant"
    }
  }
}
layer {
  name: "relu1"
  type: "ReLU"
  bottom: "ip1"
  top: "ip1"
}
layer {
  name: "ip2"
  type: "InnerProduct"
  bottom: "ip1"
  top: "ip2"
  param {
    lr_mult: 1
  }
  param {
    lr_mult: 2
  }
  inner_product_param {
    num_output: 4
    weight_filler {
      type: "xavier"
    }
    bias_filler {
      type: "constant"
    }
  }
}
layer {
  name: "accuracy"
  type: "Accuracy"
  bottom: "ip2"
  bottom: "label"
  top: "accuracy"
  include {
    phase: TEST
  }
}
layer {
  name: "loss"
  type: "SoftmaxWithLoss"
  bottom: "ip2"
  bottom: "label"
  top: "loss"
}
I0712 16:21:47.132592 31503 layer_factory.hpp:77] Creating layer mnist
I0712 16:21:47.132694 31503 net.cpp:91] Creating Layer mnist
I0712 16:21:47.132702 31503 net.cpp:399] mnist -> data
I0712 16:21:47.132709 31503 net.cpp:399] mnist -> label
I0712 16:21:47.132715 31503 data_transformer.cpp:25] Loading mean file from: data/person_only_lmdb/person_patch_color_mean.binaryproto
I0712 16:21:47.134685 31518 db_lmdb.cpp:35] Opened lmdb data/person_only_lmdb/people_patch_test_lmdb
I0712 16:21:47.134959 31503 data_layer.cpp:41] output data size: 100,3,128,128
I0712 16:21:47.168786 31503 net.cpp:141] Setting up mnist
I0712 16:21:47.168825 31503 net.cpp:148] Top shape: 100 3 128 128 (4915200)
I0712 16:21:47.168830 31503 net.cpp:148] Top shape: 100 (100)
I0712 16:21:47.168833 31503 net.cpp:156] Memory required for data: 19661200
I0712 16:21:47.168839 31503 layer_factory.hpp:77] Creating layer label_mnist_1_split
I0712 16:21:47.168853 31503 net.cpp:91] Creating Layer label_mnist_1_split
I0712 16:21:47.168858 31503 net.cpp:425] label_mnist_1_split <- label
I0712 16:21:47.168864 31503 net.cpp:399] label_mnist_1_split -> label_mnist_1_split_0
I0712 16:21:47.168874 31503 net.cpp:399] label_mnist_1_split -> label_mnist_1_split_1
I0712 16:21:47.169200 31503 net.cpp:141] Setting up label_mnist_1_split
I0712 16:21:47.169215 31503 net.cpp:148] Top shape: 100 (100)
I0712 16:21:47.169219 31503 net.cpp:148] Top shape: 100 (100)
I0712 16:21:47.169221 31503 net.cpp:156] Memory required for data: 19662000
I0712 16:21:47.169225 31503 layer_factory.hpp:77] Creating layer conv1
I0712 16:21:47.169237 31503 net.cpp:91] Creating Layer conv1
I0712 16:21:47.169240 31503 net.cpp:425] conv1 <- data
I0712 16:21:47.169246 31503 net.cpp:399] conv1 -> conv1
I0712 16:21:47.170295 31503 net.cpp:141] Setting up conv1
I0712 16:21:47.170312 31503 net.cpp:148] Top shape: 100 20 124 124 (30752000)
I0712 16:21:47.170315 31503 net.cpp:156] Memory required for data: 142670000
I0712 16:21:47.170325 31503 layer_factory.hpp:77] Creating layer pool1
I0712 16:21:47.170333 31503 net.cpp:91] Creating Layer pool1
I0712 16:21:47.170337 31503 net.cpp:425] pool1 <- conv1
I0712 16:21:47.170342 31503 net.cpp:399] pool1 -> pool1
I0712 16:21:47.170378 31503 net.cpp:141] Setting up pool1
I0712 16:21:47.170387 31503 net.cpp:148] Top shape: 100 20 62 62 (7688000)
I0712 16:21:47.170399 31503 net.cpp:156] Memory required for data: 173422000
I0712 16:21:47.170403 31503 layer_factory.hpp:77] Creating layer conv2
I0712 16:21:47.170413 31503 net.cpp:91] Creating Layer conv2
I0712 16:21:47.170416 31503 net.cpp:425] conv2 <- pool1
I0712 16:21:47.170423 31503 net.cpp:399] conv2 -> conv2
I0712 16:21:47.174523 31503 net.cpp:141] Setting up conv2
I0712 16:21:47.174538 31503 net.cpp:148] Top shape: 100 50 58 58 (16820000)
I0712 16:21:47.174542 31503 net.cpp:156] Memory required for data: 240702000
I0712 16:21:47.174551 31503 layer_factory.hpp:77] Creating layer pool2
I0712 16:21:47.174556 31503 net.cpp:91] Creating Layer pool2
I0712 16:21:47.174561 31503 net.cpp:425] pool2 <- conv2
I0712 16:21:47.174566 31503 net.cpp:399] pool2 -> pool2
I0712 16:21:47.174600 31503 net.cpp:141] Setting up pool2
I0712 16:21:47.174620 31503 net.cpp:148] Top shape: 100 50 29 29 (4205000)
I0712 16:21:47.174623 31503 net.cpp:156] Memory required for data: 257522000
I0712 16:21:47.174625 31503 layer_factory.hpp:77] Creating layer ip1
I0712 16:21:47.174644 31503 net.cpp:91] Creating Layer ip1
I0712 16:21:47.174648 31503 net.cpp:425] ip1 <- pool2
I0712 16:21:47.174652 31503 net.cpp:399] ip1 -> ip1
I0712 16:21:47.329804 31503 net.cpp:141] Setting up ip1
I0712 16:21:47.329845 31503 net.cpp:148] Top shape: 100 500 (50000)
I0712 16:21:47.329849 31503 net.cpp:156] Memory required for data: 257722000
I0712 16:21:47.329861 31503 layer_factory.hpp:77] Creating layer relu1
I0712 16:21:47.329871 31503 net.cpp:91] Creating Layer relu1
I0712 16:21:47.329875 31503 net.cpp:425] relu1 <- ip1
I0712 16:21:47.329880 31503 net.cpp:386] relu1 -> ip1 (in-place)
I0712 16:21:47.330448 31503 net.cpp:141] Setting up relu1
I0712 16:21:47.330459 31503 net.cpp:148] Top shape: 100 500 (50000)
I0712 16:21:47.330473 31503 net.cpp:156] Memory required for data: 257922000
I0712 16:21:47.330477 31503 layer_factory.hpp:77] Creating layer ip2
I0712 16:21:47.330487 31503 net.cpp:91] Creating Layer ip2
I0712 16:21:47.330489 31503 net.cpp:425] ip2 <- ip1
I0712 16:21:47.330495 31503 net.cpp:399] ip2 -> ip2
I0712 16:21:47.330621 31503 net.cpp:141] Setting up ip2
I0712 16:21:47.330627 31503 net.cpp:148] Top shape: 100 4 (400)
I0712 16:21:47.330641 31503 net.cpp:156] Memory required for data: 257923600
I0712 16:21:47.330647 31503 layer_factory.hpp:77] Creating layer ip2_ip2_0_split
I0712 16:21:47.330652 31503 net.cpp:91] Creating Layer ip2_ip2_0_split
I0712 16:21:47.330656 31503 net.cpp:425] ip2_ip2_0_split <- ip2
I0712 16:21:47.330659 31503 net.cpp:399] ip2_ip2_0_split -> ip2_ip2_0_split_0
I0712 16:21:47.330665 31503 net.cpp:399] ip2_ip2_0_split -> ip2_ip2_0_split_1
I0712 16:21:47.330693 31503 net.cpp:141] Setting up ip2_ip2_0_split
I0712 16:21:47.330700 31503 net.cpp:148] Top shape: 100 4 (400)
I0712 16:21:47.330715 31503 net.cpp:148] Top shape: 100 4 (400)
I0712 16:21:47.330718 31503 net.cpp:156] Memory required for data: 257926800
I0712 16:21:47.330720 31503 layer_factory.hpp:77] Creating layer accuracy
I0712 16:21:47.330726 31503 net.cpp:91] Creating Layer accuracy
I0712 16:21:47.330729 31503 net.cpp:425] accuracy <- ip2_ip2_0_split_0
I0712 16:21:47.330734 31503 net.cpp:425] accuracy <- label_mnist_1_split_0
I0712 16:21:47.330737 31503 net.cpp:399] accuracy -> accuracy
…
