…
I0712 16:37:12.394148 31740 net.cpp:313] The NetState phase (0) differed from the phase (1) specified by a rule in layer accuracy
I0712 16:37:12.394292 31740 net.cpp:49] Initializing net from parameters: 
name: "LeNet"
state {
  phase: TRAIN
}
layer {
  name: "mnist"
  type: "Data"
  top: "data"
  top: "label"
  include {
    phase: TRAIN
  }
  transform_param {
    mean_file: "data/person_only_lmdb/person_patch_color_mean.binaryproto"
  }
  data_param {
    source: "data/person_only_lmdb/people_patch_train_lmdb"
    batch_size: 128
    backend: LMDB
  }
}
layer {
  name: "conv1"
  type: "Convolution"
  bottom: "data"
  top: "conv1"
  param {
    lr_mult: 1
  }
  param {
    lr_mult: 2
  }
  convolution_param {
    num_output: 20
    kernel_size: 5
    stride: 1
    weight_filler {
      type: "xavier"
    }
    bias_filler {
      type: "constant"
    }
  }
}
layer {
  name: "pool1"
  type: "Pooling"
  bottom: "conv1"
  top: "pool1"
  pooling_param {
    pool: MAX
    kernel_size: 2
    stride: 2
  }
}
layer {
  name: "conv2"
  type: "Convolution"
  bottom: "pool1"
  top: "conv2"
  param {
    lr_mult: 1
  }
  param {
    lr_mult: 2
  }
  convolution_param {
    num_output: 50
    kernel_size: 5
    stride: 1
    weight_filler {
      type: "xavier"
    }
    bias_filler {
      type: "constant"
    }
  }
}
layer {
  name: "pool2"
  type: "Pooling"
  bottom: "conv2"
  top: "pool2"
  pooling_param {
    pool: MAX
    kernel_size: 2
    stride: 2
  }
}
layer {
  name: "ip1"
  type: "InnerProduct"
  bottom: "pool2"
  top: "ip1"
  param {
    lr_mult: 1
  }
  param {
    lr_mult: 2
  }
  inner_product_param {
    num_output: 500
    weight_filler {
      type: "xavier"
    }
    bias_filler {
      type: "constant"
    }
  }
}
layer {
  name: "relu1"
  type: "ReLU"
  bottom: "ip1"
  top: "ip1"
}
layer {
  name: "ip2"
  type: "InnerProduct"
  bottom: "ip1"
  top: "ip2"
  param {
    lr_mult: 1
  }
  param {
    lr_mult: 2
  }
  inner_product_param {
    num_output: 4
    weight_filler {
      type: "xavier"
    }
    bias_filler {
      type: "constant"
    }
  }
}
layer {
  name: "loss"
  type: "SoftmaxWithLoss"
  bottom: "ip2"
  bottom: "label"
  top: "loss"
}
I0712 16:37:12.394382 31740 layer_factory.hpp:77] Creating layer mnist
I0712 16:37:12.395777 31740 net.cpp:91] Creating Layer mnist
I0712 16:37:12.395805 31740 net.cpp:399] mnist -> data
I0712 16:37:12.395828 31740 net.cpp:399] mnist -> label
I0712 16:37:12.395854 31740 data_transformer.cpp:25] Loading mean file from: data/person_only_lmdb/person_patch_color_mean.binaryproto
I0712 16:37:12.396684 31746 db_lmdb.cpp:35] Opened lmdb data/person_only_lmdb/people_patch_train_lmdb
I0712 16:40:14.697705 31740 data_layer.cpp:41] output data size: 128,3,128,128
I0712 16:40:14.751307 31740 net.cpp:141] Setting up mnist
I0712 16:40:14.751371 31740 net.cpp:148] Top shape: 128 3 128 128 (6291456)
I0712 16:40:14.751380 31740 net.cpp:148] Top shape: 128 (128)
I0712 16:40:14.751384 31740 net.cpp:156] Memory required for data: 25166336
I0712 16:40:14.751394 31740 layer_factory.hpp:77] Creating layer conv1
I0712 16:40:14.751428 31740 net.cpp:91] Creating Layer conv1
I0712 16:40:14.751438 31740 net.cpp:425] conv1 <- data
I0712 16:40:14.751448 31740 net.cpp:399] conv1 -> conv1
I0712 16:40:17.477967 31740 net.cpp:141] Setting up conv1
I0712 16:40:17.478021 31740 net.cpp:148] Top shape: 128 20 124 124 (39362560)
I0712 16:40:17.478030 31740 net.cpp:156] Memory required for data: 182616576
I0712 16:40:17.478057 31740 layer_factory.hpp:77] Creating layer pool1
I0712 16:40:17.478082 31740 net.cpp:91] Creating Layer pool1
I0712 16:40:17.478091 31740 net.cpp:425] pool1 <- conv1
I0712 16:40:17.478102 31740 net.cpp:399] pool1 -> pool1
I0712 16:40:17.478206 31740 net.cpp:141] Setting up pool1
I0712 16:40:17.478222 31740 net.cpp:148] Top shape: 128 20 62 62 (9840640)
I0712 16:40:17.478229 31740 net.cpp:156] Memory required for data: 221979136
I0712 16:40:17.478240 31740 layer_factory.hpp:77] Creating layer conv2
I0712 16:40:17.478260 31740 net.cpp:91] Creating Layer conv2
I0712 16:40:17.478266 31740 net.cpp:425] conv2 <- pool1
I0712 16:40:17.478276 31740 net.cpp:399] conv2 -> conv2
I0712 16:40:17.480396 31740 net.cpp:141] Setting up conv2
I0712 16:40:17.480427 31740 net.cpp:148] Top shape: 128 50 58 58 (21529600)
I0712 16:40:17.480434 31740 net.cpp:156] Memory required for data: 308097536
I0712 16:40:17.480453 31740 layer_factory.hpp:77] Creating layer pool2
I0712 16:40:17.480466 31740 net.cpp:91] Creating Layer pool2
I0712 16:40:17.480474 31740 net.cpp:425] pool2 <- conv2
I0712 16:40:17.480489 31740 net.cpp:399] pool2 -> pool2
I0712 16:40:17.480568 31740 net.cpp:141] Setting up pool2
I0712 16:40:17.480583 31740 net.cpp:148] Top shape: 128 50 29 29 (5382400)
I0712 16:40:17.480590 31740 net.cpp:156] Memory required for data: 329627136
I0712 16:40:17.480599 31740 layer_factory.hpp:77] Creating layer ip1
I0712 16:40:17.480618 31740 net.cpp:91] Creating Layer ip1
I0712 16:40:17.480624 31740 net.cpp:425] ip1 <- pool2
I0712 16:40:17.480634 31740 net.cpp:399] ip1 -> ip1
I0712 16:40:17.676043 31740 net.cpp:141] Setting up ip1
I0712 16:40:17.676080 31740 net.cpp:148] Top shape: 128 500 (64000)
I0712 16:40:17.676084 31740 net.cpp:156] Memory required for data: 329883136
I0712 16:40:17.676098 31740 layer_factory.hpp:77] Creating layer relu1
I0712 16:40:17.676115 31740 net.cpp:91] Creating Layer relu1
I0712 16:40:17.676118 31740 net.cpp:425] relu1 <- ip1
I0712 16:40:17.676125 31740 net.cpp:386] relu1 -> ip1 (in-place)
I0712 16:40:17.676496 31740 net.cpp:141] Setting up relu1
I0712 16:40:17.676508 31740 net.cpp:148] Top shape: 128 500 (64000)
I0712 16:40:17.676524 31740 net.cpp:156] Memory required for data: 330139136
I0712 16:40:17.676527 31740 layer_factory.hpp:77] Creating layer ip2
I0712 16:40:17.676539 31740 net.cpp:91] Creating Layer ip2
I0712 16:40:17.676542 31740 net.cpp:425] ip2 <- ip1
I0712 16:40:17.676548 31740 net.cpp:399] ip2 -> ip2
I0712 16:40:17.676692 31740 net.cpp:141] Setting up ip2
I0712 16:40:17.676699 31740 net.cpp:148] Top shape: 128 4 (512)
I0712 16:40:17.676713 31740 net.cpp:156] Memory required for data: 330141184
I0712 16:40:17.676719 31740 layer_factory.hpp:77] Creating layer loss
I0712 16:40:17.676736 31740 net.cpp:91] Creating Layer loss
I0712 16:40:17.676739 31740 net.cpp:425] loss <- ip2
I0712 16:40:17.676743 31740 net.cpp:425] loss <- label
I0712 16:40:17.676748 31740 net.cpp:399] loss -> loss
I0712 16:40:17.676758 31740 layer_factory.hpp:77] Creating layer loss
…
I0712 16:40:17.677436 31740 net.cpp:313] The NetState phase (1) differed from the phase (0) specified by a rule in layer mnist
I0712 16:40:17.677511 31740 net.cpp:49] Initializing net from parameters: 
name: "LeNet"
state {
  phase: TEST
}
layer {
  name: "mnist"
  type: "Data"
  top: "data"
  top: "label"
  include {
    phase: TEST
  }
  transform_param {
    mean_file: "data/person_only_lmdb/person_patch_color_mean.binaryproto"
  }
  data_param {
    source: "data/person_only_lmdb/people_patch_test_lmdb"
    batch_size: 100
    backend: LMDB
  }
}
layer {
  name: "conv1"
  type: "Convolution"
  bottom: "data"
  top: "conv1"
  param {
    lr_mult: 1
  }
  param {
    lr_mult: 2
  }
  convolution_param {
    num_output: 20
    kernel_size: 5
    stride: 1
    weight_filler {
      type: "xavier"
    }
    bias_filler {
      type: "constant"
    }
  }
}
layer {
  name: "pool1"
  type: "Pooling"
  bottom: "conv1"
  top: "pool1"
  pooling_param {
    pool: MAX
    kernel_size: 2
    stride: 2
  }
}
layer {
  name: "conv2"
  type: "Convolution"
  bottom: "pool1"
  top: "conv2"
  param {
    lr_mult: 1
  }
  param {
    lr_mult: 2
  }
  convolution_param {
    num_output: 50
    kernel_size: 5
    stride: 1
    weight_filler {
      type: "xavier"
    }
    bias_filler {
      type: "constant"
    }
  }
}
layer {
  name: "pool2"
  type: "Pooling"
  bottom: "conv2"
  top: "pool2"
  pooling_param {
    pool: MAX
    kernel_size: 2
    stride: 2
  }
}
layer {
  name: "ip1"
  type: "InnerProduct"
  bottom: "pool2"
  top: "ip1"
  param {
    lr_mult: 1
  }
  param {
    lr_mult: 2
  }
  inner_product_param {
    num_output: 500
    weight_filler {
      type: "xavier"
    }
    bias_filler {
      type: "constant"
    }
  }
}
layer {
  name: "relu1"
  type: "ReLU"
  bottom: "ip1"
  top: "ip1"
}
layer {
  name: "ip2"
  type: "InnerProduct"
  bottom: "ip1"
  top: "ip2"
  param {
    lr_mult: 1
  }
  param {
    lr_mult: 2
  }
  inner_product_param {
    num_output: 4
    weight_filler {
      type: "xavier"
    }
    bias_filler {
      type: "constant"
    }
  }
}
layer {
  name: "accuracy"
  type: "Accuracy"
  bottom: "ip2"
  bottom: "label"
  top: "accuracy"
  include {
    phase: TEST
  }
}
layer {
  name: "loss"
  type: "SoftmaxWithLoss"
  bottom: "ip2"
  bottom: "label"
  top: "loss"
}
I0712 16:40:17.677574 31740 layer_factory.hpp:77] Creating layer mnist
I0712 16:40:17.677680 31740 net.cpp:91] Creating Layer mnist
I0712 16:40:17.677690 31740 net.cpp:399] mnist -> data
I0712 16:40:17.677709 31740 net.cpp:399] mnist -> label
I0712 16:40:17.677728 31740 data_transformer.cpp:25] Loading mean file from: data/person_only_lmdb/person_patch_color_mean.binaryproto
I0712 16:40:17.679041 31858 db_lmdb.cpp:35] Opened lmdb data/person_only_lmdb/people_patch_test_lmdb
I0712 16:40:17.679400 31740 data_layer.cpp:41] output data size: 100,3,128,128
I0712 16:40:17.712815 31740 net.cpp:141] Setting up mnist
I0712 16:40:17.712854 31740 net.cpp:148] Top shape: 100 3 128 128 (4915200)
I0712 16:40:17.712859 31740 net.cpp:148] Top shape: 100 (100)
I0712 16:40:17.712862 31740 net.cpp:156] Memory required for data: 19661200
I0712 16:40:17.712869 31740 layer_factory.hpp:77] Creating layer label_mnist_1_split
I0712 16:40:17.712883 31740 net.cpp:91] Creating Layer label_mnist_1_split
I0712 16:40:17.712888 31740 net.cpp:425] label_mnist_1_split <- label
I0712 16:40:17.712894 31740 net.cpp:399] label_mnist_1_split -> label_mnist_1_split_0
I0712 16:40:17.712903 31740 net.cpp:399] label_mnist_1_split -> label_mnist_1_split_1
I0712 16:40:17.713076 31740 net.cpp:141] Setting up label_mnist_1_split
I0712 16:40:17.713088 31740 net.cpp:148] Top shape: 100 (100)
I0712 16:40:17.713104 31740 net.cpp:148] Top shape: 100 (100)
I0712 16:40:17.713106 31740 net.cpp:156] Memory required for data: 19662000
I0712 16:40:17.713109 31740 layer_factory.hpp:77] Creating layer conv1
I0712 16:40:17.713124 31740 net.cpp:91] Creating Layer conv1
I0712 16:40:17.713126 31740 net.cpp:425] conv1 <- data
I0712 16:40:17.713135 31740 net.cpp:399] conv1 -> conv1
I0712 16:40:17.717433 31740 net.cpp:141] Setting up conv1
I0712 16:40:17.717449 31740 net.cpp:148] Top shape: 100 20 124 124 (30752000)
I0712 16:40:17.717453 31740 net.cpp:156] Memory required for data: 142670000
I0712 16:40:17.717465 31740 layer_factory.hpp:77] Creating layer pool1
I0712 16:40:17.717473 31740 net.cpp:91] Creating Layer pool1
I0712 16:40:17.717478 31740 net.cpp:425] pool1 <- conv1
I0712 16:40:17.717483 31740 net.cpp:399] pool1 -> pool1
I0712 16:40:17.717533 31740 net.cpp:141] Setting up pool1
I0712 16:40:17.717542 31740 net.cpp:148] Top shape: 100 20 62 62 (7688000)
I0712 16:40:17.717545 31740 net.cpp:156] Memory required for data: 173422000
I0712 16:40:17.717548 31740 layer_factory.hpp:77] Creating layer conv2
I0712 16:40:17.717558 31740 net.cpp:91] Creating Layer conv2
I0712 16:40:17.717564 31740 net.cpp:425] conv2 <- pool1
I0712 16:40:17.717571 31740 net.cpp:399] conv2 -> conv2
I0712 16:40:17.718629 31740 net.cpp:141] Setting up conv2
I0712 16:40:17.718643 31740 net.cpp:148] Top shape: 100 50 58 58 (16820000)
I0712 16:40:17.718647 31740 net.cpp:156] Memory required for data: 240702000
I0712 16:40:17.718654 31740 layer_factory.hpp:77] Creating layer pool2
I0712 16:40:17.718662 31740 net.cpp:91] Creating Layer pool2
I0712 16:40:17.718664 31740 net.cpp:425] pool2 <- conv2
I0712 16:40:17.718669 31740 net.cpp:399] pool2 -> pool2
I0712 16:40:17.718705 31740 net.cpp:141] Setting up pool2
I0712 16:40:17.718726 31740 net.cpp:148] Top shape: 100 50 29 29 (4205000)
I0712 16:40:17.718729 31740 net.cpp:156] Memory required for data: 257522000
I0712 16:40:17.718744 31740 layer_factory.hpp:77] Creating layer ip1
I0712 16:40:17.718752 31740 net.cpp:91] Creating Layer ip1
I0712 16:40:17.718755 31740 net.cpp:425] ip1 <- pool2
I0712 16:40:17.718761 31740 net.cpp:399] ip1 -> ip1
I0712 16:40:17.867040 31740 net.cpp:141] Setting up ip1
I0712 16:40:17.867079 31740 net.cpp:148] Top shape: 100 500 (50000)
I0712 16:40:17.867084 31740 net.cpp:156] Memory required for data: 257722000
I0712 16:40:17.867099 31740 layer_factory.hpp:77] Creating layer relu1
I0712 16:40:17.867108 31740 net.cpp:91] Creating Layer relu1
I0712 16:40:17.867113 31740 net.cpp:425] relu1 <- ip1
I0712 16:40:17.867120 31740 net.cpp:386] relu1 -> ip1 (in-place)
I0712 16:40:17.867583 31740 net.cpp:141] Setting up relu1
I0712 16:40:17.867595 31740 net.cpp:148] Top shape: 100 500 (50000)
I0712 16:40:17.867599 31740 net.cpp:156] Memory required for data: 257922000
I0712 16:40:17.867601 31740 layer_factory.hpp:77] Creating layer ip2
I0712 16:40:17.867612 31740 net.cpp:91] Creating Layer ip2
I0712 16:40:17.867615 31740 net.cpp:425] ip2 <- ip1
I0712 16:40:17.867621 31740 net.cpp:399] ip2 -> ip2
I0712 16:40:17.867764 31740 net.cpp:141] Setting up ip2
I0712 16:40:17.867772 31740 net.cpp:148] Top shape: 100 4 (400)
I0712 16:40:17.867775 31740 net.cpp:156] Memory required for data: 257923600
I0712 16:40:17.867792 31740 layer_factory.hpp:77] Creating layer ip2_ip2_0_split
I0712 16:40:17.867799 31740 net.cpp:91] Creating Layer ip2_ip2_0_split
I0712 16:40:17.867802 31740 net.cpp:425] ip2_ip2_0_split <- ip2
I0712 16:40:17.867807 31740 net.cpp:399] ip2_ip2_0_split -> ip2_ip2_0_split_0
I0712 16:40:17.867815 31740 net.cpp:399] ip2_ip2_0_split -> ip2_ip2_0_split_1
I0712 16:40:17.867846 31740 net.cpp:141] Setting up ip2_ip2_0_split
I0712 16:40:17.867854 31740 net.cpp:148] Top shape: 100 4 (400)
I0712 16:40:17.867869 31740 net.cpp:148] Top shape: 100 4 (400)
I0712 16:40:17.867872 31740 net.cpp:156] Memory required for data: 257926800
I0712 16:40:17.867875 31740 layer_factory.hpp:77] Creating layer accuracy
I0712 16:40:17.867882 31740 net.cpp:91] Creating Layer accuracy
I0712 16:40:17.867887 31740 net.cpp:425] accuracy <- ip2_ip2_0_split_0
I0712 16:40:17.867889 31740 net.cpp:425] accuracy <- label_mnist_1_split_0
I0712 16:40:17.867894 31740 net.cpp:399] accuracy -> accuracy
…
