…
I0712 15:04:27.772598 31051 net.cpp:313] The NetState phase (0) differed from the phase (1) specified by a rule in layer accuracy
I0712 15:04:27.772742 31051 net.cpp:49] Initializing net from parameters: 
name: "LeNet"
state {
  phase: TRAIN
}
layer {
  name: "mnist"
  type: "Data"
  top: "data"
  top: "label"
  include {
    phase: TRAIN
  }
  transform_param {
    mean_file: "data/person_only_lmdb/person_patch_color_mean.binaryproto"
  }
  data_param {
    source: "data/person_only_lmdb/people_patch_train_lmdb"
    batch_size: 64
    backend: LMDB
  }
}
layer {
  name: "conv1"
  type: "Convolution"
  bottom: "data"
  top: "conv1"
  param {
    lr_mult: 1
  }
  param {
    lr_mult: 2
  }
  convolution_param {
    num_output: 20
    kernel_size: 5
    stride: 1
    weight_filler {
      type: "xavier"
    }
    bias_filler {
      type: "constant"
    }
  }
}
layer {
  name: "pool1"
  type: "Pooling"
  bottom: "conv1"
  top: "pool1"
  pooling_param {
    pool: MAX
    kernel_size: 2
    stride: 2
  }
}
layer {
  name: "conv2"
  type: "Convolution"
  bottom: "pool1"
  top: "conv2"
  param {
    lr_mult: 1
  }
  param {
    lr_mult: 2
  }
  convolution_param {
    num_output: 50
    kernel_size: 5
    stride: 1
    weight_filler {
      type: "xavier"
    }
    bias_filler {
      type: "constant"
    }
  }
}
layer {
  name: "pool2"
  type: "Pooling"
  bottom: "conv2"
  top: "pool2"
  pooling_param {
    pool: MAX
    kernel_size: 2
    stride: 2
  }
}
layer {
  name: "ip1"
  type: "InnerProduct"
  bottom: "pool2"
  top: "ip1"
  param {
    lr_mult: 1
  }
  param {
    lr_mult: 2
  }
  inner_product_param {
    num_output: 500
    weight_filler {
      type: "xavier"
    }
    bias_filler {
      type: "constant"
    }
  }
}
layer {
  name: "relu1"
  type: "ReLU"
  bottom: "ip1"
  top: "ip1"
}
layer {
  name: "ip2"
  type: "InnerProduct"
  bottom: "ip1"
  top: "ip2"
  param {
    lr_mult: 1
  }
  param {
    lr_mult: 2
  }
  inner_product_param {
    num_output: 4
    weight_filler {
      type: "xavier"
    }
    bias_filler {
      type: "constant"
    }
  }
}
layer {
  name: "loss"
  type: "SoftmaxWithLoss"
  bottom: "ip2"
  bottom: "label"
  top: "loss"
}
I0712 15:04:27.772825 31051 layer_factory.hpp:77] Creating layer mnist
I0712 15:04:27.774197 31051 net.cpp:91] Creating Layer mnist
I0712 15:04:27.774226 31051 net.cpp:399] mnist -> data
I0712 15:04:27.774248 31051 net.cpp:399] mnist -> label
I0712 15:04:27.774268 31051 data_transformer.cpp:25] Loading mean file from: data/person_only_lmdb/person_patch_color_mean.binaryproto
I0712 15:04:27.775526 31057 db_lmdb.cpp:35] Opened lmdb data/person_only_lmdb/people_patch_train_lmdb
I0712 15:07:30.647459 31051 data_layer.cpp:41] output data size: 64,3,128,128
I0712 15:07:30.675717 31051 net.cpp:141] Setting up mnist
I0712 15:07:30.675789 31051 net.cpp:148] Top shape: 64 3 128 128 (3145728)
I0712 15:07:30.675799 31051 net.cpp:148] Top shape: 64 (64)
I0712 15:07:30.675806 31051 net.cpp:156] Memory required for data: 12583168
I0712 15:07:30.675815 31051 layer_factory.hpp:77] Creating layer conv1
I0712 15:07:30.675861 31051 net.cpp:91] Creating Layer conv1
I0712 15:07:30.675873 31051 net.cpp:425] conv1 <- data
I0712 15:07:30.675885 31051 net.cpp:399] conv1 -> conv1
I0712 15:07:33.360910 31051 net.cpp:141] Setting up conv1
I0712 15:07:33.360958 31051 net.cpp:148] Top shape: 64 20 124 124 (19681280)
I0712 15:07:33.360966 31051 net.cpp:156] Memory required for data: 91308288
I0712 15:07:33.360992 31051 layer_factory.hpp:77] Creating layer pool1
I0712 15:07:33.361017 31051 net.cpp:91] Creating Layer pool1
I0712 15:07:33.361026 31051 net.cpp:425] pool1 <- conv1
I0712 15:07:33.361037 31051 net.cpp:399] pool1 -> pool1
I0712 15:07:33.361129 31051 net.cpp:141] Setting up pool1
I0712 15:07:33.361143 31051 net.cpp:148] Top shape: 64 20 62 62 (4920320)
I0712 15:07:33.361150 31051 net.cpp:156] Memory required for data: 110989568
I0712 15:07:33.361160 31051 layer_factory.hpp:77] Creating layer conv2
I0712 15:07:33.361179 31051 net.cpp:91] Creating Layer conv2
I0712 15:07:33.361186 31051 net.cpp:425] conv2 <- pool1
I0712 15:07:33.361196 31051 net.cpp:399] conv2 -> conv2
I0712 15:07:33.363704 31051 net.cpp:141] Setting up conv2
I0712 15:07:33.363734 31051 net.cpp:148] Top shape: 64 50 58 58 (10764800)
I0712 15:07:33.363741 31051 net.cpp:156] Memory required for data: 154048768
I0712 15:07:33.363759 31051 layer_factory.hpp:77] Creating layer pool2
I0712 15:07:33.363775 31051 net.cpp:91] Creating Layer pool2
I0712 15:07:33.363788 31051 net.cpp:425] pool2 <- conv2
I0712 15:07:33.363798 31051 net.cpp:399] pool2 -> pool2
I0712 15:07:33.363873 31051 net.cpp:141] Setting up pool2
I0712 15:07:33.363886 31051 net.cpp:148] Top shape: 64 50 29 29 (2691200)
I0712 15:07:33.363893 31051 net.cpp:156] Memory required for data: 164813568
I0712 15:07:33.363900 31051 layer_factory.hpp:77] Creating layer ip1
I0712 15:07:33.363917 31051 net.cpp:91] Creating Layer ip1
I0712 15:07:33.363924 31051 net.cpp:425] ip1 <- pool2
I0712 15:07:33.363934 31051 net.cpp:399] ip1 -> ip1
I0712 15:07:33.559888 31051 net.cpp:141] Setting up ip1
I0712 15:07:33.559931 31051 net.cpp:148] Top shape: 64 500 (32000)
I0712 15:07:33.559936 31051 net.cpp:156] Memory required for data: 164941568
I0712 15:07:33.559948 31051 layer_factory.hpp:77] Creating layer relu1
I0712 15:07:33.559963 31051 net.cpp:91] Creating Layer relu1
I0712 15:07:33.559968 31051 net.cpp:425] relu1 <- ip1
I0712 15:07:33.559973 31051 net.cpp:386] relu1 -> ip1 (in-place)
I0712 15:07:33.560328 31051 net.cpp:141] Setting up relu1
I0712 15:07:33.560340 31051 net.cpp:148] Top shape: 64 500 (32000)
I0712 15:07:33.560354 31051 net.cpp:156] Memory required for data: 165069568
I0712 15:07:33.560358 31051 layer_factory.hpp:77] Creating layer ip2
I0712 15:07:33.560369 31051 net.cpp:91] Creating Layer ip2
I0712 15:07:33.560371 31051 net.cpp:425] ip2 <- ip1
I0712 15:07:33.560377 31051 net.cpp:399] ip2 -> ip2
I0712 15:07:33.560497 31051 net.cpp:141] Setting up ip2
I0712 15:07:33.560503 31051 net.cpp:148] Top shape: 64 4 (256)
I0712 15:07:33.560505 31051 net.cpp:156] Memory required for data: 165070592
I0712 15:07:33.560510 31051 layer_factory.hpp:77] Creating layer loss
I0712 15:07:33.560525 31051 net.cpp:91] Creating Layer loss
I0712 15:07:33.560528 31051 net.cpp:425] loss <- ip2
I0712 15:07:33.560533 31051 net.cpp:425] loss <- label
I0712 15:07:33.560536 31051 net.cpp:399] loss -> loss
I0712 15:07:33.560544 31051 layer_factory.hpp:77] Creating layer loss
…
I0712 15:07:33.561130 31051 net.cpp:313] The NetState phase (1) differed from the phase (0) specified by a rule in layer mnist
I0712 15:07:33.561223 31051 net.cpp:49] Initializing net from parameters: 
name: "LeNet"
state {
  phase: TEST
}
layer {
  name: "mnist"
  type: "Data"
  top: "data"
  top: "label"
  include {
    phase: TEST
  }
  transform_param {
    mean_file: "data/person_only_lmdb/person_patch_color_mean.binaryproto"
  }
  data_param {
    source: "data/person_only_lmdb/people_patch_test_lmdb"
    batch_size: 100
    backend: LMDB
  }
}
layer {
  name: "conv1"
  type: "Convolution"
  bottom: "data"
  top: "conv1"
  param {
    lr_mult: 1
  }
  param {
    lr_mult: 2
  }
  convolution_param {
    num_output: 20
    kernel_size: 5
    stride: 1
    weight_filler {
      type: "xavier"
    }
    bias_filler {
      type: "constant"
    }
  }
}
layer {
  name: "pool1"
  type: "Pooling"
  bottom: "conv1"
  top: "pool1"
  pooling_param {
    pool: MAX
    kernel_size: 2
    stride: 2
  }
}
layer {
  name: "conv2"
  type: "Convolution"
  bottom: "pool1"
  top: "conv2"
  param {
    lr_mult: 1
  }
  param {
    lr_mult: 2
  }
  convolution_param {
    num_output: 50
    kernel_size: 5
    stride: 1
    weight_filler {
      type: "xavier"
    }
    bias_filler {
      type: "constant"
    }
  }
}
layer {
  name: "pool2"
  type: "Pooling"
  bottom: "conv2"
  top: "pool2"
  pooling_param {
    pool: MAX
    kernel_size: 2
    stride: 2
  }
}
layer {
  name: "ip1"
  type: "InnerProduct"
  bottom: "pool2"
  top: "ip1"
  param {
    lr_mult: 1
  }
  param {
    lr_mult: 2
  }
  inner_product_param {
    num_output: 500
    weight_filler {
      type: "xavier"
    }
    bias_filler {
      type: "constant"
    }
  }
}
layer {
  name: "relu1"
  type: "ReLU"
  bottom: "ip1"
  top: "ip1"
}
layer {
  name: "ip2"
  type: "InnerProduct"
  bottom: "ip1"
  top: "ip2"
  param {
    lr_mult: 1
  }
  param {
    lr_mult: 2
  }
  inner_product_param {
    num_output: 4
    weight_filler {
      type: "xavier"
    }
    bias_filler {
      type: "constant"
    }
  }
}
layer {
  name: "accuracy"
  type: "Accuracy"
  bottom: "ip2"
  bottom: "label"
  top: "accuracy"
  include {
    phase: TEST
  }
}
layer {
  name: "loss"
  type: "SoftmaxWithLoss"
  bottom: "ip2"
  bottom: "label"
  top: "loss"
}
I0712 15:07:33.561275 31051 layer_factory.hpp:77] Creating layer mnist
I0712 15:07:33.561374 31051 net.cpp:91] Creating Layer mnist
I0712 15:07:33.561396 31051 net.cpp:399] mnist -> data
I0712 15:07:33.561404 31051 net.cpp:399] mnist -> label
I0712 15:07:33.561411 31051 data_transformer.cpp:25] Loading mean file from: data/person_only_lmdb/person_patch_color_mean.binaryproto
I0712 15:07:33.562819 31061 db_lmdb.cpp:35] Opened lmdb data/person_only_lmdb/people_patch_test_lmdb
I0712 15:07:33.563169 31051 data_layer.cpp:41] output data size: 100,3,128,128
I0712 15:07:33.596539 31051 net.cpp:141] Setting up mnist
I0712 15:07:33.596580 31051 net.cpp:148] Top shape: 100 3 128 128 (4915200)
I0712 15:07:33.596585 31051 net.cpp:148] Top shape: 100 (100)
I0712 15:07:33.596587 31051 net.cpp:156] Memory required for data: 19661200
I0712 15:07:33.596593 31051 layer_factory.hpp:77] Creating layer label_mnist_1_split
I0712 15:07:33.596606 31051 net.cpp:91] Creating Layer label_mnist_1_split
I0712 15:07:33.596611 31051 net.cpp:425] label_mnist_1_split <- label
I0712 15:07:33.596616 31051 net.cpp:399] label_mnist_1_split -> label_mnist_1_split_0
I0712 15:07:33.596626 31051 net.cpp:399] label_mnist_1_split -> label_mnist_1_split_1
I0712 15:07:33.596901 31051 net.cpp:141] Setting up label_mnist_1_split
I0712 15:07:33.596926 31051 net.cpp:148] Top shape: 100 (100)
I0712 15:07:33.596930 31051 net.cpp:148] Top shape: 100 (100)
I0712 15:07:33.596933 31051 net.cpp:156] Memory required for data: 19662000
I0712 15:07:33.596936 31051 layer_factory.hpp:77] Creating layer conv1
I0712 15:07:33.596951 31051 net.cpp:91] Creating Layer conv1
I0712 15:07:33.596954 31051 net.cpp:425] conv1 <- data
I0712 15:07:33.596961 31051 net.cpp:399] conv1 -> conv1
I0712 15:07:33.598166 31051 net.cpp:141] Setting up conv1
I0712 15:07:33.598181 31051 net.cpp:148] Top shape: 100 20 124 124 (30752000)
I0712 15:07:33.598184 31051 net.cpp:156] Memory required for data: 142670000
I0712 15:07:33.598194 31051 layer_factory.hpp:77] Creating layer pool1
I0712 15:07:33.598202 31051 net.cpp:91] Creating Layer pool1
I0712 15:07:33.598206 31051 net.cpp:425] pool1 <- conv1
I0712 15:07:33.598211 31051 net.cpp:399] pool1 -> pool1
I0712 15:07:33.601269 31051 net.cpp:141] Setting up pool1
I0712 15:07:33.601282 31051 net.cpp:148] Top shape: 100 20 62 62 (7688000)
I0712 15:07:33.601285 31051 net.cpp:156] Memory required for data: 173422000
I0712 15:07:33.601289 31051 layer_factory.hpp:77] Creating layer conv2
I0712 15:07:33.601299 31051 net.cpp:91] Creating Layer conv2
I0712 15:07:33.601301 31051 net.cpp:425] conv2 <- pool1
I0712 15:07:33.601308 31051 net.cpp:399] conv2 -> conv2
I0712 15:07:33.602373 31051 net.cpp:141] Setting up conv2
I0712 15:07:33.602387 31051 net.cpp:148] Top shape: 100 50 58 58 (16820000)
I0712 15:07:33.602391 31051 net.cpp:156] Memory required for data: 240702000
I0712 15:07:33.602398 31051 layer_factory.hpp:77] Creating layer pool2
I0712 15:07:33.602404 31051 net.cpp:91] Creating Layer pool2
I0712 15:07:33.602407 31051 net.cpp:425] pool2 <- conv2
I0712 15:07:33.602411 31051 net.cpp:399] pool2 -> pool2
I0712 15:07:33.602445 31051 net.cpp:141] Setting up pool2
I0712 15:07:33.602465 31051 net.cpp:148] Top shape: 100 50 29 29 (4205000)
I0712 15:07:33.602468 31051 net.cpp:156] Memory required for data: 257522000
I0712 15:07:33.602470 31051 layer_factory.hpp:77] Creating layer ip1
I0712 15:07:33.602489 31051 net.cpp:91] Creating Layer ip1
I0712 15:07:33.602493 31051 net.cpp:425] ip1 <- pool2
I0712 15:07:33.602497 31051 net.cpp:399] ip1 -> ip1
I0712 15:07:33.750123 31051 net.cpp:141] Setting up ip1
I0712 15:07:33.750164 31051 net.cpp:148] Top shape: 100 500 (50000)
I0712 15:07:33.750169 31051 net.cpp:156] Memory required for data: 257722000
I0712 15:07:33.750181 31051 layer_factory.hpp:77] Creating layer relu1
I0712 15:07:33.750191 31051 net.cpp:91] Creating Layer relu1
I0712 15:07:33.750195 31051 net.cpp:425] relu1 <- ip1
I0712 15:07:33.750201 31051 net.cpp:386] relu1 -> ip1 (in-place)
I0712 15:07:33.750646 31051 net.cpp:141] Setting up relu1
I0712 15:07:33.750669 31051 net.cpp:148] Top shape: 100 500 (50000)
I0712 15:07:33.750672 31051 net.cpp:156] Memory required for data: 257922000
I0712 15:07:33.750675 31051 layer_factory.hpp:77] Creating layer ip2
I0712 15:07:33.750685 31051 net.cpp:91] Creating Layer ip2
I0712 15:07:33.750689 31051 net.cpp:425] ip2 <- ip1
I0712 15:07:33.750694 31051 net.cpp:399] ip2 -> ip2
I0712 15:07:33.750821 31051 net.cpp:141] Setting up ip2
I0712 15:07:33.750828 31051 net.cpp:148] Top shape: 100 4 (400)
I0712 15:07:33.750841 31051 net.cpp:156] Memory required for data: 257923600
I0712 15:07:33.750847 31051 layer_factory.hpp:77] Creating layer ip2_ip2_0_split
I0712 15:07:33.750852 31051 net.cpp:91] Creating Layer ip2_ip2_0_split
I0712 15:07:33.750855 31051 net.cpp:425] ip2_ip2_0_split <- ip2
I0712 15:07:33.750859 31051 net.cpp:399] ip2_ip2_0_split -> ip2_ip2_0_split_0
I0712 15:07:33.750865 31051 net.cpp:399] ip2_ip2_0_split -> ip2_ip2_0_split_1
I0712 15:07:33.750893 31051 net.cpp:141] Setting up ip2_ip2_0_split
I0712 15:07:33.750901 31051 net.cpp:148] Top shape: 100 4 (400)
I0712 15:07:33.750916 31051 net.cpp:148] Top shape: 100 4 (400)
I0712 15:07:33.750917 31051 net.cpp:156] Memory required for data: 257926800
I0712 15:07:33.750921 31051 layer_factory.hpp:77] Creating layer accuracy
I0712 15:07:33.750927 31051 net.cpp:91] Creating Layer accuracy
I0712 15:07:33.750931 31051 net.cpp:425] accuracy <- ip2_ip2_0_split_0
I0712 15:07:33.750933 31051 net.cpp:425] accuracy <- label_mnist_1_split_0
I0712 15:07:33.750938 31051 net.cpp:399] accuracy -> accuracy
…
