…
I0822 15:59:31.249531 12979 net.cpp:322] The NetState phase (0) differed from the phase (1) specified by a rule in layer accuracy
I0822 15:59:31.249670 12979 net.cpp:58] Initializing net from parameters: 
name: "AlexNet"
state {
  phase: TRAIN
}
layer {
  name: "mnist"
  type: "Data"
  top: "data"
  top: "label"
  include {
    phase: TRAIN
  }
  transform_param {
    scale: 0.00390625
    mean_file: "data/person_only_lmdb/person_background_and_random_color_mean.binaryproto"
  }
  data_param {
    source: "data/person_only_lmdb/person_background_and_random_train_lmdb"
    batch_size: 64
    backend: LMDB
  }
}
layer {
  name: "conv1"
  type: "Convolution"
  bottom: "data"
  top: "conv1"
  param {
    lr_mult: 1
    decay_mult: 1
  }
  param {
    lr_mult: 2
    decay_mult: 0
  }
  convolution_param {
    num_output: 96
    kernel_size: 11
    stride: 4
    weight_filler {
      type: "gaussian"
      std: 0.01
    }
    bias_filler {
      type: "constant"
      value: 0
    }
  }
}
layer {
  name: "relu1"
  type: "ReLU"
  bottom: "conv1"
  top: "conv1"
}
layer {
  name: "norm1"
  type: "LRN"
  bottom: "conv1"
  top: "norm1"
  lrn_param {
    local_size: 5
    alpha: 0.0001
    beta: 0.75
  }
}
layer {
  name: "pool1"
  type: "Pooling"
  bottom: "norm1"
  top: "pool1"
  pooling_param {
    pool: MAX
    kernel_size: 3
    stride: 2
  }
}
layer {
  name: "conv2"
  type: "Convolution"
  bottom: "pool1"
  top: "conv2"
  param {
    lr_mult: 1
    decay_mult: 1
  }
  param {
    lr_mult: 2
    decay_mult: 0
  }
  convolution_param {
    num_output: 256
    pad: 2
    kernel_size: 5
    group: 2
    weight_filler {
      type: "gaussian"
      std: 0.01
    }
    bias_filler {
      type: "constant"
      value: 0.1
    }
  }
}
layer {
  name: "relu2"
  type: "ReLU"
  bottom: "conv2"
  top: "conv2"
}
layer {
  name: "norm2"
  type: "LRN"
  bottom: "conv2"
  top: "norm2"
  lrn_param {
    local_size: 5
    alpha: 0.0001
    beta: 0.75
  }
}
layer {
  name: "pool2"
  type: "Pooling"
  bottom: "norm2"
  top: "pool2"
  pooling_param {
    pool: MAX
    kernel_size: 3
    stride: 2
  }
}
layer {
  name: "conv3"
  type: "Convolution"
  bottom: "pool2"
  top: "conv3"
  param {
    lr_mult: 1
    decay_mult: 1
  }
  param {
    lr_mult: 2
    decay_mult: 0
  }
  convolution_param {
    num_output: 384
    pad: 1
    kernel_size: 3
    weight_filler {
      type: "gaussian"
      std: 0.01
    }
    bias_filler {
      type: "constant"
      value: 0
    }
  }
}
layer {
  name: "relu3"
  type: "ReLU"
  bottom: "conv3"
  top: "conv3"
}
layer {
  name: "conv4"
  type: "Convolution"
  bottom: "conv3"
  top: "conv4"
  param {
    lr_mult: 1
    decay_mult: 1
  }
  param {
    lr_mult: 2
    decay_mult: 0
  }
  convolution_param {
    num_output: 384
    pad: 1
    kernel_size: 3
    group: 2
    weight_filler {
      type: "gaussian"
      std: 0.01
    }
    bias_filler {
      type: "constant"
      value: 0.1
    }
  }
}
layer {
  name: "relu4"
  type: "ReLU"
  bottom: "conv4"
  top: "conv4"
}
layer {
  name: "conv5"
  type: "Convolution"
  bottom: "conv4"
  top: "conv5"
  param {
    lr_mult: 1
    decay_mult: 1
  }
  param {
    lr_mult: 2
    decay_mult: 0
  }
  convolution_param {
    num_output: 256
    pad: 1
    kernel_size: 3
    group: 2
    weight_filler {
      type: "gaussian"
      std: 0.01
    }
    bias_filler {
      type: "constant"
      value: 0.1
    }
  }
}
layer {
  name: "relu5"
  type: "ReLU"
  bottom: "conv5"
  top: "conv5"
}
layer {
  name: "pool5"
  type: "Pooling"
  bottom: "conv5"
  top: "pool5"
  pooling_param {
    pool: MAX
    kernel_size: 3
    stride: 2
  }
}
layer {
  name: "fc6"
  type: "InnerProduct"
  bottom: "pool5"
  top: "fc6"
  param {
    lr_mult: 1
    decay_mult: 1
  }
  param {
    lr_mult: 2
    decay_mult: 0
  }
  inner_product_param {
    num_output: 4096
    weight_filler {
      type: "gaussian"
      std: 0.005
    }
    bias_filler {
      type: "constant"
      value: 0.1
    }
  }
}
layer {
  name: "relu6"
  type: "ReLU"
  bottom: "fc6"
  top: "fc6"
}
layer {
  name: "drop6"
  type: "Dropout"
  bottom: "fc6"
  top: "fc6"
  dropout_param {
    dropout_ratio: 0.5
  }
}
layer {
  name: "fc7"
  type: "InnerProduct"
  bottom: "fc6"
  top: "fc7"
  param {
    lr_mult: 1
    decay_mult: 1
  }
  param {
    lr_mult: 2
    decay_mult: 0
  }
  inner_product_param {
    num_output: 4096
    weight_filler {
      type: "gaussian"
      std: 0.005
    }
    bias_filler {
      type: "constant"
      value: 0.1
    }
  }
}
layer {
  name: "relu7"
  type: "ReLU"
  bottom: "fc7"
  top: "fc7"
}
layer {
  name: "drop7"
  type: "Dropout"
  bottom: "fc7"
  top: "fc7"
  dropout_param {
    dropout_ratio: 0.5
  }
}
layer {
  name: "fc8"
  type: "InnerProduct"
  bottom: "fc7"
  top: "fc8"
  param {
    lr_mult: 1
    decay_mult: 1
  }
  param {
    lr_mult: 2
    decay_mult: 0
  }
  inner_product_param {
    num_output: 2
    weight_filler {
      type: "gaussian"
      std: 0.01
    }
    bias_filler {
      type: "constant"
      value: 0
    }
  }
}
layer {
  name: "loss"
  type: "SoftmaxWithLoss"
  bottom: "fc8"
  bottom: "label"
  top: "loss"
}
I0822 15:59:31.249744 12979 layer_factory.hpp:77] Creating layer mnist
I0822 15:59:31.250233 12979 net.cpp:100] Creating Layer mnist
I0822 15:59:31.250246 12979 net.cpp:408] mnist -> data
I0822 15:59:31.250258 12979 net.cpp:408] mnist -> label
I0822 15:59:31.250267 12979 data_transformer.cpp:25] Loading mean file from: data/person_only_lmdb/person_background_and_random_color_mean.binaryproto
I0822 15:59:31.251705 12992 db_lmdb.cpp:35] Opened lmdb data/person_only_lmdb/person_background_and_random_train_lmdb
I0822 15:59:31.286702 12979 data_layer.cpp:41] output data size: 64,3,128,128
I0822 15:59:31.319993 12979 net.cpp:150] Setting up mnist
I0822 15:59:31.320035 12979 net.cpp:157] Top shape: 64 3 128 128 (3145728)
I0822 15:59:31.320044 12979 net.cpp:157] Top shape: 64 (64)
I0822 15:59:31.320046 12979 net.cpp:165] Memory required for data: 12583168
I0822 15:59:31.320055 12979 layer_factory.hpp:77] Creating layer conv1
I0822 15:59:31.320083 12979 net.cpp:100] Creating Layer conv1
I0822 15:59:31.320089 12979 net.cpp:434] conv1 <- data
I0822 15:59:31.320101 12979 net.cpp:408] conv1 -> conv1
I0822 15:59:31.619578 12979 net.cpp:150] Setting up conv1
I0822 15:59:31.619616 12979 net.cpp:157] Top shape: 64 96 30 30 (5529600)
I0822 15:59:31.619619 12979 net.cpp:165] Memory required for data: 34701568
I0822 15:59:31.619637 12979 layer_factory.hpp:77] Creating layer relu1
I0822 15:59:31.619650 12979 net.cpp:100] Creating Layer relu1
I0822 15:59:31.619654 12979 net.cpp:434] relu1 <- conv1
I0822 15:59:31.619659 12979 net.cpp:395] relu1 -> conv1 (in-place)
I0822 15:59:31.619848 12979 net.cpp:150] Setting up relu1
I0822 15:59:31.619859 12979 net.cpp:157] Top shape: 64 96 30 30 (5529600)
I0822 15:59:31.619863 12979 net.cpp:165] Memory required for data: 56819968
I0822 15:59:31.619865 12979 layer_factory.hpp:77] Creating layer norm1
I0822 15:59:31.619874 12979 net.cpp:100] Creating Layer norm1
I0822 15:59:31.619877 12979 net.cpp:434] norm1 <- conv1
I0822 15:59:31.619882 12979 net.cpp:408] norm1 -> norm1
I0822 15:59:31.620470 12979 net.cpp:150] Setting up norm1
I0822 15:59:31.620486 12979 net.cpp:157] Top shape: 64 96 30 30 (5529600)
I0822 15:59:31.620488 12979 net.cpp:165] Memory required for data: 78938368
I0822 15:59:31.620491 12979 layer_factory.hpp:77] Creating layer pool1
I0822 15:59:31.620501 12979 net.cpp:100] Creating Layer pool1
I0822 15:59:31.620504 12979 net.cpp:434] pool1 <- norm1
I0822 15:59:31.620509 12979 net.cpp:408] pool1 -> pool1
I0822 15:59:31.620569 12979 net.cpp:150] Setting up pool1
I0822 15:59:31.620578 12979 net.cpp:157] Top shape: 64 96 15 15 (1382400)
I0822 15:59:31.620579 12979 net.cpp:165] Memory required for data: 84467968
I0822 15:59:31.620582 12979 layer_factory.hpp:77] Creating layer conv2
I0822 15:59:31.620594 12979 net.cpp:100] Creating Layer conv2
I0822 15:59:31.620599 12979 net.cpp:434] conv2 <- pool1
I0822 15:59:31.620604 12979 net.cpp:408] conv2 -> conv2
I0822 15:59:31.627310 12979 net.cpp:150] Setting up conv2
I0822 15:59:31.627327 12979 net.cpp:157] Top shape: 64 256 15 15 (3686400)
I0822 15:59:31.627331 12979 net.cpp:165] Memory required for data: 99213568
I0822 15:59:31.627341 12979 layer_factory.hpp:77] Creating layer relu2
I0822 15:59:31.627346 12979 net.cpp:100] Creating Layer relu2
I0822 15:59:31.627349 12979 net.cpp:434] relu2 <- conv2
I0822 15:59:31.627354 12979 net.cpp:395] relu2 -> conv2 (in-place)
I0822 15:59:31.627889 12979 net.cpp:150] Setting up relu2
I0822 15:59:31.627904 12979 net.cpp:157] Top shape: 64 256 15 15 (3686400)
I0822 15:59:31.627907 12979 net.cpp:165] Memory required for data: 113959168
I0822 15:59:31.627910 12979 layer_factory.hpp:77] Creating layer norm2
I0822 15:59:31.627918 12979 net.cpp:100] Creating Layer norm2
I0822 15:59:31.627920 12979 net.cpp:434] norm2 <- conv2
I0822 15:59:31.627925 12979 net.cpp:408] norm2 -> norm2
I0822 15:59:31.628157 12979 net.cpp:150] Setting up norm2
I0822 15:59:31.628170 12979 net.cpp:157] Top shape: 64 256 15 15 (3686400)
I0822 15:59:31.628173 12979 net.cpp:165] Memory required for data: 128704768
I0822 15:59:31.628176 12979 layer_factory.hpp:77] Creating layer pool2
I0822 15:59:31.628185 12979 net.cpp:100] Creating Layer pool2
I0822 15:59:31.628190 12979 net.cpp:434] pool2 <- norm2
I0822 15:59:31.628195 12979 net.cpp:408] pool2 -> pool2
I0822 15:59:31.628247 12979 net.cpp:150] Setting up pool2
I0822 15:59:31.628255 12979 net.cpp:157] Top shape: 64 256 7 7 (802816)
I0822 15:59:31.628258 12979 net.cpp:165] Memory required for data: 131916032
I0822 15:59:31.628260 12979 layer_factory.hpp:77] Creating layer conv3
I0822 15:59:31.628270 12979 net.cpp:100] Creating Layer conv3
I0822 15:59:31.628273 12979 net.cpp:434] conv3 <- pool2
I0822 15:59:31.628278 12979 net.cpp:408] conv3 -> conv3
I0822 15:59:31.642244 12979 net.cpp:150] Setting up conv3
I0822 15:59:31.642261 12979 net.cpp:157] Top shape: 64 384 7 7 (1204224)
I0822 15:59:31.642266 12979 net.cpp:165] Memory required for data: 136732928
I0822 15:59:31.642274 12979 layer_factory.hpp:77] Creating layer relu3
I0822 15:59:31.642282 12979 net.cpp:100] Creating Layer relu3
I0822 15:59:31.642284 12979 net.cpp:434] relu3 <- conv3
I0822 15:59:31.642290 12979 net.cpp:395] relu3 -> conv3 (in-place)
I0822 15:59:31.642483 12979 net.cpp:150] Setting up relu3
I0822 15:59:31.642495 12979 net.cpp:157] Top shape: 64 384 7 7 (1204224)
I0822 15:59:31.642498 12979 net.cpp:165] Memory required for data: 141549824
I0822 15:59:31.642500 12979 layer_factory.hpp:77] Creating layer conv4
I0822 15:59:31.642511 12979 net.cpp:100] Creating Layer conv4
I0822 15:59:31.642514 12979 net.cpp:434] conv4 <- conv3
I0822 15:59:31.642520 12979 net.cpp:408] conv4 -> conv4
I0822 15:59:31.654423 12979 net.cpp:150] Setting up conv4
I0822 15:59:31.654439 12979 net.cpp:157] Top shape: 64 384 7 7 (1204224)
I0822 15:59:31.654443 12979 net.cpp:165] Memory required for data: 146366720
I0822 15:59:31.654449 12979 layer_factory.hpp:77] Creating layer relu4
I0822 15:59:31.654455 12979 net.cpp:100] Creating Layer relu4
I0822 15:59:31.654458 12979 net.cpp:434] relu4 <- conv4
I0822 15:59:31.654465 12979 net.cpp:395] relu4 -> conv4 (in-place)
I0822 15:59:31.654670 12979 net.cpp:150] Setting up relu4
I0822 15:59:31.654680 12979 net.cpp:157] Top shape: 64 384 7 7 (1204224)
I0822 15:59:31.654682 12979 net.cpp:165] Memory required for data: 151183616
I0822 15:59:31.654685 12979 layer_factory.hpp:77] Creating layer conv5
I0822 15:59:31.654698 12979 net.cpp:100] Creating Layer conv5
I0822 15:59:31.654702 12979 net.cpp:434] conv5 <- conv4
I0822 15:59:31.654707 12979 net.cpp:408] conv5 -> conv5
I0822 15:59:31.663897 12979 net.cpp:150] Setting up conv5
I0822 15:59:31.663915 12979 net.cpp:157] Top shape: 64 256 7 7 (802816)
I0822 15:59:31.663919 12979 net.cpp:165] Memory required for data: 154394880
I0822 15:59:31.663928 12979 layer_factory.hpp:77] Creating layer relu5
I0822 15:59:31.663934 12979 net.cpp:100] Creating Layer relu5
I0822 15:59:31.663938 12979 net.cpp:434] relu5 <- conv5
I0822 15:59:31.663944 12979 net.cpp:395] relu5 -> conv5 (in-place)
I0822 15:59:31.664155 12979 net.cpp:150] Setting up relu5
I0822 15:59:31.664167 12979 net.cpp:157] Top shape: 64 256 7 7 (802816)
I0822 15:59:31.664170 12979 net.cpp:165] Memory required for data: 157606144
I0822 15:59:31.664173 12979 layer_factory.hpp:77] Creating layer pool5
I0822 15:59:31.664180 12979 net.cpp:100] Creating Layer pool5
I0822 15:59:31.664185 12979 net.cpp:434] pool5 <- conv5
I0822 15:59:31.664189 12979 net.cpp:408] pool5 -> pool5
I0822 15:59:31.664264 12979 net.cpp:150] Setting up pool5
I0822 15:59:31.664273 12979 net.cpp:157] Top shape: 64 256 3 3 (147456)
I0822 15:59:31.664275 12979 net.cpp:165] Memory required for data: 158195968
I0822 15:59:31.664278 12979 layer_factory.hpp:77] Creating layer fc6
I0822 15:59:31.664291 12979 net.cpp:100] Creating Layer fc6
I0822 15:59:31.664297 12979 net.cpp:434] fc6 <- pool5
I0822 15:59:31.664304 12979 net.cpp:408] fc6 -> fc6
I0822 15:59:31.798019 12979 net.cpp:150] Setting up fc6
I0822 15:59:31.798060 12979 net.cpp:157] Top shape: 64 4096 (262144)
I0822 15:59:31.798064 12979 net.cpp:165] Memory required for data: 159244544
I0822 15:59:31.798077 12979 layer_factory.hpp:77] Creating layer relu6
I0822 15:59:31.798089 12979 net.cpp:100] Creating Layer relu6
I0822 15:59:31.798094 12979 net.cpp:434] relu6 <- fc6
I0822 15:59:31.798104 12979 net.cpp:395] relu6 -> fc6 (in-place)
I0822 15:59:31.798774 12979 net.cpp:150] Setting up relu6
I0822 15:59:31.798791 12979 net.cpp:157] Top shape: 64 4096 (262144)
I0822 15:59:31.798794 12979 net.cpp:165] Memory required for data: 160293120
I0822 15:59:31.798797 12979 layer_factory.hpp:77] Creating layer drop6
I0822 15:59:31.798805 12979 net.cpp:100] Creating Layer drop6
I0822 15:59:31.798810 12979 net.cpp:434] drop6 <- fc6
I0822 15:59:31.798815 12979 net.cpp:395] drop6 -> fc6 (in-place)
I0822 15:59:31.798863 12979 net.cpp:150] Setting up drop6
I0822 15:59:31.798871 12979 net.cpp:157] Top shape: 64 4096 (262144)
I0822 15:59:31.798874 12979 net.cpp:165] Memory required for data: 161341696
I0822 15:59:31.798877 12979 layer_factory.hpp:77] Creating layer fc7
I0822 15:59:31.798885 12979 net.cpp:100] Creating Layer fc7
I0822 15:59:31.798888 12979 net.cpp:434] fc7 <- fc6
I0822 15:59:31.798895 12979 net.cpp:408] fc7 -> fc7
I0822 15:59:32.032999 12979 net.cpp:150] Setting up fc7
I0822 15:59:32.033047 12979 net.cpp:157] Top shape: 64 4096 (262144)
I0822 15:59:32.033051 12979 net.cpp:165] Memory required for data: 162390272
I0822 15:59:32.033064 12979 layer_factory.hpp:77] Creating layer relu7
I0822 15:59:32.033083 12979 net.cpp:100] Creating Layer relu7
I0822 15:59:32.033087 12979 net.cpp:434] relu7 <- fc7
I0822 15:59:32.033097 12979 net.cpp:395] relu7 -> fc7 (in-place)
I0822 15:59:32.033388 12979 net.cpp:150] Setting up relu7
I0822 15:59:32.033398 12979 net.cpp:157] Top shape: 64 4096 (262144)
I0822 15:59:32.033401 12979 net.cpp:165] Memory required for data: 163438848
I0822 15:59:32.033404 12979 layer_factory.hpp:77] Creating layer drop7
I0822 15:59:32.033412 12979 net.cpp:100] Creating Layer drop7
I0822 15:59:32.033414 12979 net.cpp:434] drop7 <- fc7
I0822 15:59:32.033419 12979 net.cpp:395] drop7 -> fc7 (in-place)
I0822 15:59:32.033464 12979 net.cpp:150] Setting up drop7
I0822 15:59:32.033473 12979 net.cpp:157] Top shape: 64 4096 (262144)
I0822 15:59:32.033475 12979 net.cpp:165] Memory required for data: 164487424
I0822 15:59:32.033478 12979 layer_factory.hpp:77] Creating layer fc8
I0822 15:59:32.033486 12979 net.cpp:100] Creating Layer fc8
I0822 15:59:32.033489 12979 net.cpp:434] fc8 <- fc7
I0822 15:59:32.033496 12979 net.cpp:408] fc8 -> fc8
I0822 15:59:32.035413 12979 net.cpp:150] Setting up fc8
I0822 15:59:32.035429 12979 net.cpp:157] Top shape: 64 2 (128)
I0822 15:59:32.035431 12979 net.cpp:165] Memory required for data: 164487936
I0822 15:59:32.035437 12979 layer_factory.hpp:77] Creating layer loss
I0822 15:59:32.035451 12979 net.cpp:100] Creating Layer loss
I0822 15:59:32.035454 12979 net.cpp:434] loss <- fc8
I0822 15:59:32.035459 12979 net.cpp:434] loss <- label
I0822 15:59:32.035464 12979 net.cpp:408] loss -> loss
I0822 15:59:32.035473 12979 layer_factory.hpp:77] Creating layer loss
…
I0822 15:59:32.036372 12979 net.cpp:322] The NetState phase (1) differed from the phase (0) specified by a rule in layer mnist
I0822 15:59:32.036543 12979 net.cpp:58] Initializing net from parameters: 
name: "AlexNet"
state {
  phase: TEST
}
layer {
  name: "mnist"
  type: "Data"
  top: "data"
  top: "label"
  include {
    phase: TEST
  }
  transform_param {
    scale: 0.00390625
    mean_file: "data/person_only_lmdb/person_background_and_random_color_mean.binaryproto"
  }
  data_param {
    source: "data/person_only_lmdb/person_background_and_random_test_lmdb"
    batch_size: 100
    backend: LMDB
  }
}
layer {
  name: "conv1"
  type: "Convolution"
  bottom: "data"
  top: "conv1"
  param {
    lr_mult: 1
    decay_mult: 1
  }
  param {
    lr_mult: 2
    decay_mult: 0
  }
  convolution_param {
    num_output: 96
    kernel_size: 11
    stride: 4
    weight_filler {
      type: "gaussian"
      std: 0.01
    }
    bias_filler {
      type: "constant"
      value: 0
    }
  }
}
layer {
  name: "relu1"
  type: "ReLU"
  bottom: "conv1"
  top: "conv1"
}
layer {
  name: "norm1"
  type: "LRN"
  bottom: "conv1"
  top: "norm1"
  lrn_param {
    local_size: 5
    alpha: 0.0001
    beta: 0.75
  }
}
layer {
  name: "pool1"
  type: "Pooling"
  bottom: "norm1"
  top: "pool1"
  pooling_param {
    pool: MAX
    kernel_size: 3
    stride: 2
  }
}
layer {
  name: "conv2"
  type: "Convolution"
  bottom: "pool1"
  top: "conv2"
  param {
    lr_mult: 1
    decay_mult: 1
  }
  param {
    lr_mult: 2
    decay_mult: 0
  }
  convolution_param {
    num_output: 256
    pad: 2
    kernel_size: 5
    group: 2
    weight_filler {
      type: "gaussian"
      std: 0.01
    }
    bias_filler {
      type: "constant"
      value: 0.1
    }
  }
}
layer {
  name: "relu2"
  type: "ReLU"
  bottom: "conv2"
  top: "conv2"
}
layer {
  name: "norm2"
  type: "LRN"
  bottom: "conv2"
  top: "norm2"
  lrn_param {
    local_size: 5
    alpha: 0.0001
    beta: 0.75
  }
}
layer {
  name: "pool2"
  type: "Pooling"
  bottom: "norm2"
  top: "pool2"
  pooling_param {
    pool: MAX
    kernel_size: 3
    stride: 2
  }
}
layer {
  name: "conv3"
  type: "Convolution"
  bottom: "pool2"
  top: "conv3"
  param {
    lr_mult: 1
    decay_mult: 1
  }
  param {
    lr_mult: 2
    decay_mult: 0
  }
  convolution_param {
    num_output: 384
    pad: 1
    kernel_size: 3
    weight_filler {
      type: "gaussian"
      std: 0.01
    }
    bias_filler {
      type: "constant"
      value: 0
    }
  }
}
layer {
  name: "relu3"
  type: "ReLU"
  bottom: "conv3"
  top: "conv3"
}
layer {
  name: "conv4"
  type: "Convolution"
  bottom: "conv3"
  top: "conv4"
  param {
    lr_mult: 1
    decay_mult: 1
  }
  param {
    lr_mult: 2
    decay_mult: 0
  }
  convolution_param {
    num_output: 384
    pad: 1
    kernel_size: 3
    group: 2
    weight_filler {
      type: "gaussian"
      std: 0.01
    }
    bias_filler {
      type: "constant"
      value: 0.1
    }
  }
}
layer {
  name: "relu4"
  type: "ReLU"
  bottom: "conv4"
  top: "conv4"
}
layer {
  name: "conv5"
  type: "Convolution"
  bottom: "conv4"
  top: "conv5"
  param {
    lr_mult: 1
    decay_mult: 1
  }
  param {
    lr_mult: 2
    decay_mult: 0
  }
  convolution_param {
    num_output: 256
    pad: 1
    kernel_size: 3
    group: 2
    weight_filler {
      type: "gaussian"
      std: 0.01
    }
    bias_filler {
      type: "constant"
      value: 0.1
    }
  }
}
layer {
  name: "relu5"
  type: "ReLU"
  bottom: "conv5"
  top: "conv5"
}
layer {
  name: "pool5"
  type: "Pooling"
  bottom: "conv5"
  top: "pool5"
  pooling_param {
    pool: MAX
    kernel_size: 3
    stride: 2
  }
}
layer {
  name: "fc6"
  type: "InnerProduct"
  bottom: "pool5"
  top: "fc6"
  param {
    lr_mult: 1
    decay_mult: 1
  }
  param {
    lr_mult: 2
    decay_mult: 0
  }
  inner_product_param {
    num_output: 4096
    weight_filler {
      type: "gaussian"
      std: 0.005
    }
    bias_filler {
      type: "constant"
      value: 0.1
    }
  }
}
layer {
  name: "relu6"
  type: "ReLU"
  bottom: "fc6"
  top: "fc6"
}
layer {
  name: "drop6"
  type: "Dropout"
  bottom: "fc6"
  top: "fc6"
  dropout_param {
    dropout_ratio: 0.5
  }
}
layer {
  name: "fc7"
  type: "InnerProduct"
  bottom: "fc6"
  top: "fc7"
  param {
    lr_mult: 1
    decay_mult: 1
  }
  param {
    lr_mult: 2
    decay_mult: 0
  }
  inner_product_param {
    num_output: 4096
    weight_filler {
      type: "gaussian"
      std: 0.005
    }
    bias_filler {
      type: "constant"
      value: 0.1
    }
  }
}
layer {
  name: "relu7"
  type: "ReLU"
  bottom: "fc7"
  top: "fc7"
}
layer {
  name: "drop7"
  type: "Dropout"
  bottom: "fc7"
  top: "fc7"
  dropout_param {
    dropout_ratio: 0.5
  }
}
layer {
  name: "fc8"
  type: "InnerProduct"
  bottom: "fc7"
  top: "fc8"
  param {
    lr_mult: 1
    decay_mult: 1
  }
  param {
    lr_mult: 2
    decay_mult: 0
  }
  inner_product_param {
    num_output: 2
    weight_filler {
      type: "gaussian"
      std: 0.01
    }
    bias_filler {
      type: "constant"
      value: 0
    }
  }
}
layer {
  name: "accuracy"
  type: "Accuracy"
  bottom: "fc8"
  bottom: "label"
  top: "accuracy"
  include {
    phase: TEST
  }
}
layer {
  name: "loss"
  type: "SoftmaxWithLoss"
  bottom: "fc8"
  bottom: "label"
  top: "loss"
}
I0822 15:59:32.036653 12979 layer_factory.hpp:77] Creating layer mnist
I0822 15:59:32.036783 12979 net.cpp:100] Creating Layer mnist
I0822 15:59:32.036792 12979 net.cpp:408] mnist -> data
I0822 15:59:32.036803 12979 net.cpp:408] mnist -> label
I0822 15:59:32.036809 12979 data_transformer.cpp:25] Loading mean file from: data/person_only_lmdb/person_background_and_random_color_mean.binaryproto
I0822 15:59:32.038354 12994 db_lmdb.cpp:35] Opened lmdb data/person_only_lmdb/person_background_and_random_test_lmdb
I0822 15:59:32.038794 12979 data_layer.cpp:41] output data size: 100,3,128,128
I0822 15:59:32.099225 12979 net.cpp:150] Setting up mnist
I0822 15:59:32.099261 12979 net.cpp:157] Top shape: 100 3 128 128 (4915200)
I0822 15:59:32.099269 12979 net.cpp:157] Top shape: 100 (100)
I0822 15:59:32.099272 12979 net.cpp:165] Memory required for data: 19661200
I0822 15:59:32.099280 12979 layer_factory.hpp:77] Creating layer label_mnist_1_split
I0822 15:59:32.099298 12979 net.cpp:100] Creating Layer label_mnist_1_split
I0822 15:59:32.099303 12979 net.cpp:434] label_mnist_1_split <- label
I0822 15:59:32.099314 12979 net.cpp:408] label_mnist_1_split -> label_mnist_1_split_0
I0822 15:59:32.099331 12979 net.cpp:408] label_mnist_1_split -> label_mnist_1_split_1
I0822 15:59:32.099653 12979 net.cpp:150] Setting up label_mnist_1_split
I0822 15:59:32.099685 12979 net.cpp:157] Top shape: 100 (100)
I0822 15:59:32.099692 12979 net.cpp:157] Top shape: 100 (100)
I0822 15:59:32.099697 12979 net.cpp:165] Memory required for data: 19662000
I0822 15:59:32.099704 12979 layer_factory.hpp:77] Creating layer conv1
I0822 15:59:32.099726 12979 net.cpp:100] Creating Layer conv1
I0822 15:59:32.099733 12979 net.cpp:434] conv1 <- data
I0822 15:59:32.099747 12979 net.cpp:408] conv1 -> conv1
I0822 15:59:32.104904 12979 net.cpp:150] Setting up conv1
I0822 15:59:32.104935 12979 net.cpp:157] Top shape: 100 96 30 30 (8640000)
I0822 15:59:32.104941 12979 net.cpp:165] Memory required for data: 54222000
I0822 15:59:32.104960 12979 layer_factory.hpp:77] Creating layer relu1
I0822 15:59:32.104974 12979 net.cpp:100] Creating Layer relu1
I0822 15:59:32.104979 12979 net.cpp:434] relu1 <- conv1
I0822 15:59:32.104989 12979 net.cpp:395] relu1 -> conv1 (in-place)
I0822 15:59:32.105360 12979 net.cpp:150] Setting up relu1
I0822 15:59:32.105377 12979 net.cpp:157] Top shape: 100 96 30 30 (8640000)
I0822 15:59:32.105382 12979 net.cpp:165] Memory required for data: 88782000
I0822 15:59:32.105388 12979 layer_factory.hpp:77] Creating layer norm1
I0822 15:59:32.105403 12979 net.cpp:100] Creating Layer norm1
I0822 15:59:32.105409 12979 net.cpp:434] norm1 <- conv1
I0822 15:59:32.105419 12979 net.cpp:408] norm1 -> norm1
I0822 15:59:32.106561 12979 net.cpp:150] Setting up norm1
I0822 15:59:32.106588 12979 net.cpp:157] Top shape: 100 96 30 30 (8640000)
I0822 15:59:32.106595 12979 net.cpp:165] Memory required for data: 123342000
I0822 15:59:32.106600 12979 layer_factory.hpp:77] Creating layer pool1
I0822 15:59:32.106613 12979 net.cpp:100] Creating Layer pool1
I0822 15:59:32.106621 12979 net.cpp:434] pool1 <- norm1
I0822 15:59:32.106631 12979 net.cpp:408] pool1 -> pool1
I0822 15:59:32.106750 12979 net.cpp:150] Setting up pool1
I0822 15:59:32.106763 12979 net.cpp:157] Top shape: 100 96 15 15 (2160000)
I0822 15:59:32.106768 12979 net.cpp:165] Memory required for data: 131982000
I0822 15:59:32.106773 12979 layer_factory.hpp:77] Creating layer conv2
I0822 15:59:32.106791 12979 net.cpp:100] Creating Layer conv2
I0822 15:59:32.106798 12979 net.cpp:434] conv2 <- pool1
I0822 15:59:32.106809 12979 net.cpp:408] conv2 -> conv2
I0822 15:59:32.119112 12979 net.cpp:150] Setting up conv2
I0822 15:59:32.119140 12979 net.cpp:157] Top shape: 100 256 15 15 (5760000)
I0822 15:59:32.119146 12979 net.cpp:165] Memory required for data: 155022000
I0822 15:59:32.119168 12979 layer_factory.hpp:77] Creating layer relu2
I0822 15:59:32.119184 12979 net.cpp:100] Creating Layer relu2
I0822 15:59:32.119189 12979 net.cpp:434] relu2 <- conv2
I0822 15:59:32.119199 12979 net.cpp:395] relu2 -> conv2 (in-place)
I0822 15:59:32.120203 12979 net.cpp:150] Setting up relu2
I0822 15:59:32.120231 12979 net.cpp:157] Top shape: 100 256 15 15 (5760000)
I0822 15:59:32.120237 12979 net.cpp:165] Memory required for data: 178062000
I0822 15:59:32.120242 12979 layer_factory.hpp:77] Creating layer norm2
I0822 15:59:32.120262 12979 net.cpp:100] Creating Layer norm2
I0822 15:59:32.120268 12979 net.cpp:434] norm2 <- conv2
I0822 15:59:32.120277 12979 net.cpp:408] norm2 -> norm2
I0822 15:59:32.120745 12979 net.cpp:150] Setting up norm2
I0822 15:59:32.120764 12979 net.cpp:157] Top shape: 100 256 15 15 (5760000)
I0822 15:59:32.120769 12979 net.cpp:165] Memory required for data: 201102000
I0822 15:59:32.120774 12979 layer_factory.hpp:77] Creating layer pool2
I0822 15:59:32.120782 12979 net.cpp:100] Creating Layer pool2
I0822 15:59:32.120787 12979 net.cpp:434] pool2 <- norm2
I0822 15:59:32.120798 12979 net.cpp:408] pool2 -> pool2
I0822 15:59:32.120908 12979 net.cpp:150] Setting up pool2
I0822 15:59:32.120919 12979 net.cpp:157] Top shape: 100 256 7 7 (1254400)
I0822 15:59:32.120923 12979 net.cpp:165] Memory required for data: 206119600
I0822 15:59:32.120928 12979 layer_factory.hpp:77] Creating layer conv3
I0822 15:59:32.120944 12979 net.cpp:100] Creating Layer conv3
I0822 15:59:32.120951 12979 net.cpp:434] conv3 <- pool2
I0822 15:59:32.120962 12979 net.cpp:408] conv3 -> conv3
I0822 15:59:32.143841 12979 net.cpp:150] Setting up conv3
I0822 15:59:32.143877 12979 net.cpp:157] Top shape: 100 384 7 7 (1881600)
I0822 15:59:32.143882 12979 net.cpp:165] Memory required for data: 213646000
I0822 15:59:32.143901 12979 layer_factory.hpp:77] Creating layer relu3
I0822 15:59:32.143918 12979 net.cpp:100] Creating Layer relu3
I0822 15:59:32.143924 12979 net.cpp:434] relu3 <- conv3
I0822 15:59:32.143932 12979 net.cpp:395] relu3 -> conv3 (in-place)
I0822 15:59:32.144284 12979 net.cpp:150] Setting up relu3
I0822 15:59:32.144301 12979 net.cpp:157] Top shape: 100 384 7 7 (1881600)
I0822 15:59:32.144305 12979 net.cpp:165] Memory required for data: 221172400
I0822 15:59:32.144309 12979 layer_factory.hpp:77] Creating layer conv4
I0822 15:59:32.144333 12979 net.cpp:100] Creating Layer conv4
I0822 15:59:32.144338 12979 net.cpp:434] conv4 <- conv3
I0822 15:59:32.144347 12979 net.cpp:408] conv4 -> conv4
I0822 15:59:32.161952 12979 net.cpp:150] Setting up conv4
I0822 15:59:32.161983 12979 net.cpp:157] Top shape: 100 384 7 7 (1881600)
I0822 15:59:32.161988 12979 net.cpp:165] Memory required for data: 228698800
I0822 15:59:32.161998 12979 layer_factory.hpp:77] Creating layer relu4
I0822 15:59:32.162009 12979 net.cpp:100] Creating Layer relu4
I0822 15:59:32.162014 12979 net.cpp:434] relu4 <- conv4
I0822 15:59:32.162024 12979 net.cpp:395] relu4 -> conv4 (in-place)
I0822 15:59:32.162842 12979 net.cpp:150] Setting up relu4
I0822 15:59:32.162863 12979 net.cpp:157] Top shape: 100 384 7 7 (1881600)
I0822 15:59:32.162868 12979 net.cpp:165] Memory required for data: 236225200
I0822 15:59:32.162873 12979 layer_factory.hpp:77] Creating layer conv5
I0822 15:59:32.162890 12979 net.cpp:100] Creating Layer conv5
I0822 15:59:32.162895 12979 net.cpp:434] conv5 <- conv4
I0822 15:59:32.162904 12979 net.cpp:408] conv5 -> conv5
I0822 15:59:32.175457 12979 net.cpp:150] Setting up conv5
I0822 15:59:32.175482 12979 net.cpp:157] Top shape: 100 256 7 7 (1254400)
I0822 15:59:32.175487 12979 net.cpp:165] Memory required for data: 241242800
I0822 15:59:32.175503 12979 layer_factory.hpp:77] Creating layer relu5
I0822 15:59:32.175511 12979 net.cpp:100] Creating Layer relu5
I0822 15:59:32.175518 12979 net.cpp:434] relu5 <- conv5
I0822 15:59:32.175524 12979 net.cpp:395] relu5 -> conv5 (in-place)
I0822 15:59:32.175798 12979 net.cpp:150] Setting up relu5
I0822 15:59:32.175812 12979 net.cpp:157] Top shape: 100 256 7 7 (1254400)
I0822 15:59:32.175815 12979 net.cpp:165] Memory required for data: 246260400
I0822 15:59:32.175819 12979 layer_factory.hpp:77] Creating layer pool5
I0822 15:59:32.175837 12979 net.cpp:100] Creating Layer pool5
I0822 15:59:32.175842 12979 net.cpp:434] pool5 <- conv5
I0822 15:59:32.175848 12979 net.cpp:408] pool5 -> pool5
I0822 15:59:32.175958 12979 net.cpp:150] Setting up pool5
I0822 15:59:32.175969 12979 net.cpp:157] Top shape: 100 256 3 3 (230400)
I0822 15:59:32.175972 12979 net.cpp:165] Memory required for data: 247182000
I0822 15:59:32.175976 12979 layer_factory.hpp:77] Creating layer fc6
I0822 15:59:32.175987 12979 net.cpp:100] Creating Layer fc6
I0822 15:59:32.175990 12979 net.cpp:434] fc6 <- pool5
I0822 15:59:32.175999 12979 net.cpp:408] fc6 -> fc6
I0822 15:59:32.315109 12979 net.cpp:150] Setting up fc6
I0822 15:59:32.315151 12979 net.cpp:157] Top shape: 100 4096 (409600)
I0822 15:59:32.315155 12979 net.cpp:165] Memory required for data: 248820400
I0822 15:59:32.315167 12979 layer_factory.hpp:77] Creating layer relu6
I0822 15:59:32.315181 12979 net.cpp:100] Creating Layer relu6
I0822 15:59:32.315184 12979 net.cpp:434] relu6 <- fc6
I0822 15:59:32.315192 12979 net.cpp:395] relu6 -> fc6 (in-place)
I0822 15:59:32.315495 12979 net.cpp:150] Setting up relu6
I0822 15:59:32.315505 12979 net.cpp:157] Top shape: 100 4096 (409600)
I0822 15:59:32.315508 12979 net.cpp:165] Memory required for data: 250458800
I0822 15:59:32.315511 12979 layer_factory.hpp:77] Creating layer drop6
I0822 15:59:32.315520 12979 net.cpp:100] Creating Layer drop6
I0822 15:59:32.315522 12979 net.cpp:434] drop6 <- fc6
I0822 15:59:32.315528 12979 net.cpp:395] drop6 -> fc6 (in-place)
I0822 15:59:32.315589 12979 net.cpp:150] Setting up drop6
I0822 15:59:32.315598 12979 net.cpp:157] Top shape: 100 4096 (409600)
I0822 15:59:32.315600 12979 net.cpp:165] Memory required for data: 252097200
I0822 15:59:32.315603 12979 layer_factory.hpp:77] Creating layer fc7
I0822 15:59:32.315613 12979 net.cpp:100] Creating Layer fc7
I0822 15:59:32.315618 12979 net.cpp:434] fc7 <- fc6
I0822 15:59:32.315623 12979 net.cpp:408] fc7 -> fc7
I0822 15:59:32.549399 12979 net.cpp:150] Setting up fc7
I0822 15:59:32.549449 12979 net.cpp:157] Top shape: 100 4096 (409600)
I0822 15:59:32.549453 12979 net.cpp:165] Memory required for data: 253735600
I0822 15:59:32.549466 12979 layer_factory.hpp:77] Creating layer relu7
I0822 15:59:32.549479 12979 net.cpp:100] Creating Layer relu7
I0822 15:59:32.549484 12979 net.cpp:434] relu7 <- fc7
I0822 15:59:32.549491 12979 net.cpp:395] relu7 -> fc7 (in-place)
I0822 15:59:32.550345 12979 net.cpp:150] Setting up relu7
I0822 15:59:32.550361 12979 net.cpp:157] Top shape: 100 4096 (409600)
I0822 15:59:32.550364 12979 net.cpp:165] Memory required for data: 255374000
I0822 15:59:32.550367 12979 layer_factory.hpp:77] Creating layer drop7
I0822 15:59:32.550377 12979 net.cpp:100] Creating Layer drop7
I0822 15:59:32.550381 12979 net.cpp:434] drop7 <- fc7
I0822 15:59:32.550386 12979 net.cpp:395] drop7 -> fc7 (in-place)
I0822 15:59:32.550446 12979 net.cpp:150] Setting up drop7
I0822 15:59:32.550457 12979 net.cpp:157] Top shape: 100 4096 (409600)
I0822 15:59:32.550458 12979 net.cpp:165] Memory required for data: 257012400
I0822 15:59:32.550462 12979 layer_factory.hpp:77] Creating layer fc8
I0822 15:59:32.550470 12979 net.cpp:100] Creating Layer fc8
I0822 15:59:32.550473 12979 net.cpp:434] fc8 <- fc7
I0822 15:59:32.550480 12979 net.cpp:408] fc8 -> fc8
I0822 15:59:32.550788 12979 net.cpp:150] Setting up fc8
I0822 15:59:32.550797 12979 net.cpp:157] Top shape: 100 2 (200)
I0822 15:59:32.550799 12979 net.cpp:165] Memory required for data: 257013200
I0822 15:59:32.550806 12979 layer_factory.hpp:77] Creating layer fc8_fc8_0_split
I0822 15:59:32.550812 12979 net.cpp:100] Creating Layer fc8_fc8_0_split
I0822 15:59:32.550815 12979 net.cpp:434] fc8_fc8_0_split <- fc8
I0822 15:59:32.550819 12979 net.cpp:408] fc8_fc8_0_split -> fc8_fc8_0_split_0
I0822 15:59:32.550827 12979 net.cpp:408] fc8_fc8_0_split -> fc8_fc8_0_split_1
I0822 15:59:32.550899 12979 net.cpp:150] Setting up fc8_fc8_0_split
I0822 15:59:32.550905 12979 net.cpp:157] Top shape: 100 2 (200)
I0822 15:59:32.550909 12979 net.cpp:157] Top shape: 100 2 (200)
I0822 15:59:32.550911 12979 net.cpp:165] Memory required for data: 257014800
I0822 15:59:32.550914 12979 layer_factory.hpp:77] Creating layer accuracy
I0822 15:59:32.550921 12979 net.cpp:100] Creating Layer accuracy
I0822 15:59:32.550925 12979 net.cpp:434] accuracy <- fc8_fc8_0_split_0
I0822 15:59:32.550928 12979 net.cpp:434] accuracy <- label_mnist_1_split_0
I0822 15:59:32.550933 12979 net.cpp:408] accuracy -> accuracy
…
