…
I0811 14:25:46.251873  8383 net.cpp:313] The NetState phase (0) differed from the phase (1) specified by a rule in layer accuracy
I0811 14:25:46.252012  8383 net.cpp:49] Initializing net from parameters: 
name: "AlexNet"
state {
  phase: TRAIN
}
layer {
  name: "mnist"
  type: "Data"
  top: "data"
  top: "label"
  include {
    phase: TRAIN
  }
  transform_param {
    scale: 0.00390625
    mean_file: "data/person_only_lmdb/person_background_and_random_color_mean.binaryproto"
  }
  data_param {
    source: "data/person_only_lmdb/person_background_and_random_train_lmdb"
    batch_size: 64
    backend: LMDB
  }
}
layer {
  name: "conv1"
  type: "Convolution"
  bottom: "data"
  top: "conv1"
  param {
    lr_mult: 1
    decay_mult: 1
  }
  param {
    lr_mult: 2
    decay_mult: 0
  }
  convolution_param {
    num_output: 96
    kernel_size: 11
    stride: 4
    weight_filler {
      type: "gaussian"
      std: 0.01
    }
    bias_filler {
      type: "constant"
      value: 0
    }
  }
}
layer {
  name: "relu1"
  type: "ReLU"
  bottom: "conv1"
  top: "conv1"
}
layer {
  name: "norm1"
  type: "LRN"
  bottom: "conv1"
  top: "norm1"
  lrn_param {
    local_size: 5
    alpha: 0.0001
    beta: 0.75
  }
}
layer {
  name: "pool1"
  type: "Pooling"
  bottom: "norm1"
  top: "pool1"
  pooling_param {
    pool: MAX
    kernel_size: 3
    stride: 2
  }
}
layer {
  name: "conv2"
  type: "Convolution"
  bottom: "pool1"
  top: "conv2"
  param {
    lr_mult: 1
    decay_mult: 1
  }
  param {
    lr_mult: 2
    decay_mult: 0
  }
  convolution_param {
    num_output: 256
    pad: 2
    kernel_size: 5
    group: 2
    weight_filler {
      type: "gaussian"
      std: 0.01
    }
    bias_filler {
      type: "constant"
      value: 0.1
    }
  }
}
layer {
  name: "relu2"
  type: "ReLU"
  bottom: "conv2"
  top: "conv2"
}
layer {
  name: "norm2"
  type: "LRN"
  bottom: "conv2"
  top: "norm2"
  lrn_param {
    local_size: 5
    alpha: 0.0001
    beta: 0.75
  }
}
layer {
  name: "pool2"
  type: "Pooling"
  bottom: "norm2"
  top: "pool2"
  pooling_param {
    pool: MAX
    kernel_size: 3
    stride: 2
  }
}
layer {
  name: "conv3"
  type: "Convolution"
  bottom: "pool2"
  top: "conv3"
  param {
    lr_mult: 1
    decay_mult: 1
  }
  param {
    lr_mult: 2
    decay_mult: 0
  }
  convolution_param {
    num_output: 384
    pad: 1
    kernel_size: 3
    weight_filler {
      type: "gaussian"
      std: 0.01
    }
    bias_filler {
      type: "constant"
      value: 0
    }
  }
}
layer {
  name: "relu3"
  type: "ReLU"
  bottom: "conv3"
  top: "conv3"
}
layer {
  name: "conv4"
  type: "Convolution"
  bottom: "conv3"
  top: "conv4"
  param {
    lr_mult: 1
    decay_mult: 1
  }
  param {
    lr_mult: 2
    decay_mult: 0
  }
  convolution_param {
    num_output: 384
    pad: 1
    kernel_size: 3
    group: 2
    weight_filler {
      type: "gaussian"
      std: 0.01
    }
    bias_filler {
      type: "constant"
      value: 0.1
    }
  }
}
layer {
  name: "relu4"
  type: "ReLU"
  bottom: "conv4"
  top: "conv4"
}
layer {
  name: "conv5"
  type: "Convolution"
  bottom: "conv4"
  top: "conv5"
  param {
    lr_mult: 1
    decay_mult: 1
  }
  param {
    lr_mult: 2
    decay_mult: 0
  }
  convolution_param {
    num_output: 256
    pad: 1
    kernel_size: 3
    group: 2
    weight_filler {
      type: "gaussian"
      std: 0.01
    }
    bias_filler {
      type: "constant"
      value: 0.1
    }
  }
}
layer {
  name: "relu5"
  type: "ReLU"
  bottom: "conv5"
  top: "conv5"
}
layer {
  name: "pool5"
  type: "Pooling"
  bottom: "conv5"
  top: "pool5"
  pooling_param {
    pool: MAX
    kernel_size: 3
    stride: 2
  }
}
layer {
  name: "fc6"
  type: "InnerProduct"
  bottom: "pool5"
  top: "fc6"
  param {
    lr_mult: 1
    decay_mult: 1
  }
  param {
    lr_mult: 2
    decay_mult: 0
  }
  inner_product_param {
    num_output: 4096
    weight_filler {
      type: "gaussian"
      std: 0.005
    }
    bias_filler {
      type: "constant"
      value: 0.1
    }
  }
}
layer {
  name: "relu6"
  type: "ReLU"
  bottom: "fc6"
  top: "fc6"
}
layer {
  name: "drop6"
  type: "Dropout"
  bottom: "fc6"
  top: "fc6"
  dropout_param {
    dropout_ratio: 0.5
  }
}
layer {
  name: "fc7"
  type: "InnerProduct"
  bottom: "fc6"
  top: "fc7"
  param {
    lr_mult: 1
    decay_mult: 1
  }
  param {
    lr_mult: 2
    decay_mult: 0
  }
  inner_product_param {
    num_output: 4096
    weight_filler {
      type: "gaussian"
      std: 0.005
    }
    bias_filler {
      type: "constant"
      value: 0.1
    }
  }
}
layer {
  name: "relu7"
  type: "ReLU"
  bottom: "fc7"
  top: "fc7"
}
layer {
  name: "drop7"
  type: "Dropout"
  bottom: "fc7"
  top: "fc7"
  dropout_param {
    dropout_ratio: 0.5
  }
}
layer {
  name: "fc8"
  type: "InnerProduct"
  bottom: "fc7"
  top: "fc8"
  param {
    lr_mult: 1
    decay_mult: 1
  }
  param {
    lr_mult: 2
    decay_mult: 0
  }
  inner_product_param {
    num_output: 2
    weight_filler {
      type: "gaussian"
      std: 0.01
    }
    bias_filler {
      type: "constant"
      value: 0
    }
  }
}
layer {
  name: "loss"
  type: "SoftmaxWithLoss"
  bottom: "fc8"
  bottom: "label"
  top: "loss"
}
I0811 14:25:46.252110  8383 layer_factory.hpp:77] Creating layer mnist
I0811 14:25:46.252877  8383 net.cpp:91] Creating Layer mnist
I0811 14:25:46.252892  8383 net.cpp:399] mnist -> data
I0811 14:25:46.252907  8383 net.cpp:399] mnist -> label
I0811 14:25:46.252957  8383 data_transformer.cpp:25] Loading mean file from: data/person_only_lmdb/person_background_and_random_color_mean.binaryproto
I0811 14:25:46.255049  8390 db_lmdb.cpp:35] Opened lmdb data/person_only_lmdb/person_background_and_random_train_lmdb
I0811 14:25:53.044878  8383 data_layer.cpp:41] output data size: 64,3,128,128
I0811 14:25:53.065721  8383 net.cpp:141] Setting up mnist
I0811 14:25:53.065795  8383 net.cpp:148] Top shape: 64 3 128 128 (3145728)
I0811 14:25:53.065803  8383 net.cpp:148] Top shape: 64 (64)
I0811 14:25:53.065805  8383 net.cpp:156] Memory required for data: 12583168
I0811 14:25:53.065814  8383 layer_factory.hpp:77] Creating layer conv1
I0811 14:25:53.065871  8383 net.cpp:91] Creating Layer conv1
I0811 14:25:53.065877  8383 net.cpp:425] conv1 <- data
I0811 14:25:53.065886  8383 net.cpp:399] conv1 -> conv1
I0811 14:25:53.207324  8383 net.cpp:141] Setting up conv1
I0811 14:25:53.207370  8383 net.cpp:148] Top shape: 64 96 30 30 (5529600)
I0811 14:25:53.207373  8383 net.cpp:156] Memory required for data: 34701568
I0811 14:25:53.207392  8383 layer_factory.hpp:77] Creating layer relu1
I0811 14:25:53.207411  8383 net.cpp:91] Creating Layer relu1
I0811 14:25:53.207415  8383 net.cpp:425] relu1 <- conv1
I0811 14:25:53.207420  8383 net.cpp:386] relu1 -> conv1 (in-place)
I0811 14:25:53.207600  8383 net.cpp:141] Setting up relu1
I0811 14:25:53.207620  8383 net.cpp:148] Top shape: 64 96 30 30 (5529600)
I0811 14:25:53.207634  8383 net.cpp:156] Memory required for data: 56819968
I0811 14:25:53.207638  8383 layer_factory.hpp:77] Creating layer norm1
I0811 14:25:53.207658  8383 net.cpp:91] Creating Layer norm1
I0811 14:25:53.207660  8383 net.cpp:425] norm1 <- conv1
I0811 14:25:53.207665  8383 net.cpp:399] norm1 -> norm1
I0811 14:25:53.207978  8383 net.cpp:141] Setting up norm1
I0811 14:25:53.208000  8383 net.cpp:148] Top shape: 64 96 30 30 (5529600)
I0811 14:25:53.208003  8383 net.cpp:156] Memory required for data: 78938368
I0811 14:25:53.208009  8383 layer_factory.hpp:77] Creating layer pool1
I0811 14:25:53.208015  8383 net.cpp:91] Creating Layer pool1
I0811 14:25:53.208019  8383 net.cpp:425] pool1 <- norm1
I0811 14:25:53.208024  8383 net.cpp:399] pool1 -> pool1
I0811 14:25:53.208070  8383 net.cpp:141] Setting up pool1
I0811 14:25:53.208075  8383 net.cpp:148] Top shape: 64 96 15 15 (1382400)
I0811 14:25:53.208077  8383 net.cpp:156] Memory required for data: 84467968
I0811 14:25:53.208079  8383 layer_factory.hpp:77] Creating layer conv2
I0811 14:25:53.208093  8383 net.cpp:91] Creating Layer conv2
I0811 14:25:53.208096  8383 net.cpp:425] conv2 <- pool1
I0811 14:25:53.208101  8383 net.cpp:399] conv2 -> conv2
I0811 14:25:53.217533  8383 net.cpp:141] Setting up conv2
I0811 14:25:53.217547  8383 net.cpp:148] Top shape: 64 256 15 15 (3686400)
I0811 14:25:53.217562  8383 net.cpp:156] Memory required for data: 99213568
I0811 14:25:53.217571  8383 layer_factory.hpp:77] Creating layer relu2
I0811 14:25:53.217576  8383 net.cpp:91] Creating Layer relu2
I0811 14:25:53.217579  8383 net.cpp:425] relu2 <- conv2
I0811 14:25:53.217586  8383 net.cpp:386] relu2 -> conv2 (in-place)
I0811 14:25:53.217911  8383 net.cpp:141] Setting up relu2
I0811 14:25:53.217922  8383 net.cpp:148] Top shape: 64 256 15 15 (3686400)
I0811 14:25:53.217936  8383 net.cpp:156] Memory required for data: 113959168
I0811 14:25:53.217939  8383 layer_factory.hpp:77] Creating layer norm2
I0811 14:25:53.217958  8383 net.cpp:91] Creating Layer norm2
I0811 14:25:53.217962  8383 net.cpp:425] norm2 <- conv2
I0811 14:25:53.217965  8383 net.cpp:399] norm2 -> norm2
I0811 14:25:53.218188  8383 net.cpp:141] Setting up norm2
I0811 14:25:53.218197  8383 net.cpp:148] Top shape: 64 256 15 15 (3686400)
I0811 14:25:53.218210  8383 net.cpp:156] Memory required for data: 128704768
I0811 14:25:53.218214  8383 layer_factory.hpp:77] Creating layer pool2
I0811 14:25:53.218233  8383 net.cpp:91] Creating Layer pool2
I0811 14:25:53.218236  8383 net.cpp:425] pool2 <- norm2
I0811 14:25:53.218242  8383 net.cpp:399] pool2 -> pool2
I0811 14:25:53.218283  8383 net.cpp:141] Setting up pool2
I0811 14:25:53.218288  8383 net.cpp:148] Top shape: 64 256 7 7 (802816)
I0811 14:25:53.218291  8383 net.cpp:156] Memory required for data: 131916032
I0811 14:25:53.218293  8383 layer_factory.hpp:77] Creating layer conv3
I0811 14:25:53.218302  8383 net.cpp:91] Creating Layer conv3
I0811 14:25:53.218305  8383 net.cpp:425] conv3 <- pool2
I0811 14:25:53.218312  8383 net.cpp:399] conv3 -> conv3
I0811 14:25:53.242517  8383 net.cpp:141] Setting up conv3
I0811 14:25:53.242532  8383 net.cpp:148] Top shape: 64 384 7 7 (1204224)
I0811 14:25:53.242547  8383 net.cpp:156] Memory required for data: 136732928
I0811 14:25:53.242555  8383 layer_factory.hpp:77] Creating layer relu3
I0811 14:25:53.242561  8383 net.cpp:91] Creating Layer relu3
I0811 14:25:53.242564  8383 net.cpp:425] relu3 <- conv3
I0811 14:25:53.242571  8383 net.cpp:386] relu3 -> conv3 (in-place)
I0811 14:25:53.242877  8383 net.cpp:141] Setting up relu3
I0811 14:25:53.242899  8383 net.cpp:148] Top shape: 64 384 7 7 (1204224)
I0811 14:25:53.242902  8383 net.cpp:156] Memory required for data: 141549824
I0811 14:25:53.242905  8383 layer_factory.hpp:77] Creating layer conv4
I0811 14:25:53.242915  8383 net.cpp:91] Creating Layer conv4
I0811 14:25:53.242918  8383 net.cpp:425] conv4 <- conv3
I0811 14:25:53.242925  8383 net.cpp:399] conv4 -> conv4
I0811 14:25:53.261770  8383 net.cpp:141] Setting up conv4
I0811 14:25:53.261795  8383 net.cpp:148] Top shape: 64 384 7 7 (1204224)
I0811 14:25:53.261798  8383 net.cpp:156] Memory required for data: 146366720
I0811 14:25:53.261804  8383 layer_factory.hpp:77] Creating layer relu4
I0811 14:25:53.261809  8383 net.cpp:91] Creating Layer relu4
I0811 14:25:53.261814  8383 net.cpp:425] relu4 <- conv4
I0811 14:25:53.261818  8383 net.cpp:386] relu4 -> conv4 (in-place)
I0811 14:25:53.262147  8383 net.cpp:141] Setting up relu4
I0811 14:25:53.262171  8383 net.cpp:148] Top shape: 64 384 7 7 (1204224)
I0811 14:25:53.262173  8383 net.cpp:156] Memory required for data: 151183616
I0811 14:25:53.262176  8383 layer_factory.hpp:77] Creating layer conv5
I0811 14:25:53.262188  8383 net.cpp:91] Creating Layer conv5
I0811 14:25:53.262193  8383 net.cpp:425] conv5 <- conv4
I0811 14:25:53.262210  8383 net.cpp:399] conv5 -> conv5
I0811 14:25:53.275404  8383 net.cpp:141] Setting up conv5
I0811 14:25:53.275429  8383 net.cpp:148] Top shape: 64 256 7 7 (802816)
I0811 14:25:53.275431  8383 net.cpp:156] Memory required for data: 154394880
I0811 14:25:53.275441  8383 layer_factory.hpp:77] Creating layer relu5
I0811 14:25:53.275447  8383 net.cpp:91] Creating Layer relu5
I0811 14:25:53.275450  8383 net.cpp:425] relu5 <- conv5
I0811 14:25:53.275454  8383 net.cpp:386] relu5 -> conv5 (in-place)
I0811 14:25:53.275779  8383 net.cpp:141] Setting up relu5
I0811 14:25:53.275790  8383 net.cpp:148] Top shape: 64 256 7 7 (802816)
I0811 14:25:53.275804  8383 net.cpp:156] Memory required for data: 157606144
I0811 14:25:53.275807  8383 layer_factory.hpp:77] Creating layer pool5
I0811 14:25:53.275815  8383 net.cpp:91] Creating Layer pool5
I0811 14:25:53.275818  8383 net.cpp:425] pool5 <- conv5
I0811 14:25:53.275823  8383 net.cpp:399] pool5 -> pool5
I0811 14:25:53.275863  8383 net.cpp:141] Setting up pool5
I0811 14:25:53.275869  8383 net.cpp:148] Top shape: 64 256 3 3 (147456)
I0811 14:25:53.275871  8383 net.cpp:156] Memory required for data: 158195968
I0811 14:25:53.275874  8383 layer_factory.hpp:77] Creating layer fc6
I0811 14:25:53.275885  8383 net.cpp:91] Creating Layer fc6
I0811 14:25:53.275888  8383 net.cpp:425] fc6 <- pool5
I0811 14:25:53.275892  8383 net.cpp:399] fc6 -> fc6
I0811 14:25:53.525298  8383 net.cpp:141] Setting up fc6
I0811 14:25:53.525346  8383 net.cpp:148] Top shape: 64 4096 (262144)
I0811 14:25:53.525349  8383 net.cpp:156] Memory required for data: 159244544
I0811 14:25:53.525359  8383 layer_factory.hpp:77] Creating layer relu6
I0811 14:25:53.525372  8383 net.cpp:91] Creating Layer relu6
I0811 14:25:53.525377  8383 net.cpp:425] relu6 <- fc6
I0811 14:25:53.525383  8383 net.cpp:386] relu6 -> fc6 (in-place)
I0811 14:25:53.525645  8383 net.cpp:141] Setting up relu6
I0811 14:25:53.525666  8383 net.cpp:148] Top shape: 64 4096 (262144)
I0811 14:25:53.525670  8383 net.cpp:156] Memory required for data: 160293120
I0811 14:25:53.525672  8383 layer_factory.hpp:77] Creating layer drop6
I0811 14:25:53.525691  8383 net.cpp:91] Creating Layer drop6
I0811 14:25:53.525693  8383 net.cpp:425] drop6 <- fc6
I0811 14:25:53.525708  8383 net.cpp:386] drop6 -> fc6 (in-place)
I0811 14:25:53.525734  8383 net.cpp:141] Setting up drop6
I0811 14:25:53.525739  8383 net.cpp:148] Top shape: 64 4096 (262144)
I0811 14:25:53.525741  8383 net.cpp:156] Memory required for data: 161341696
I0811 14:25:53.525744  8383 layer_factory.hpp:77] Creating layer fc7
I0811 14:25:53.525753  8383 net.cpp:91] Creating Layer fc7
I0811 14:25:53.525756  8383 net.cpp:425] fc7 <- fc6
I0811 14:25:53.525761  8383 net.cpp:399] fc7 -> fc7
I0811 14:25:54.040619  8383 net.cpp:141] Setting up fc7
I0811 14:25:54.040663  8383 net.cpp:148] Top shape: 64 4096 (262144)
I0811 14:25:54.040668  8383 net.cpp:156] Memory required for data: 162390272
I0811 14:25:54.040680  8383 layer_factory.hpp:77] Creating layer relu7
I0811 14:25:54.040695  8383 net.cpp:91] Creating Layer relu7
I0811 14:25:54.040700  8383 net.cpp:425] relu7 <- fc7
I0811 14:25:54.040709  8383 net.cpp:386] relu7 -> fc7 (in-place)
I0811 14:25:54.041223  8383 net.cpp:141] Setting up relu7
I0811 14:25:54.041239  8383 net.cpp:148] Top shape: 64 4096 (262144)
I0811 14:25:54.041244  8383 net.cpp:156] Memory required for data: 163438848
I0811 14:25:54.041247  8383 layer_factory.hpp:77] Creating layer drop7
I0811 14:25:54.041261  8383 net.cpp:91] Creating Layer drop7
I0811 14:25:54.041265  8383 net.cpp:425] drop7 <- fc7
I0811 14:25:54.041271  8383 net.cpp:386] drop7 -> fc7 (in-place)
I0811 14:25:54.041308  8383 net.cpp:141] Setting up drop7
I0811 14:25:54.041316  8383 net.cpp:148] Top shape: 64 4096 (262144)
I0811 14:25:54.041319  8383 net.cpp:156] Memory required for data: 164487424
I0811 14:25:54.041322  8383 layer_factory.hpp:77] Creating layer fc8
I0811 14:25:54.041333  8383 net.cpp:91] Creating Layer fc8
I0811 14:25:54.041337  8383 net.cpp:425] fc8 <- fc7
I0811 14:25:54.041343  8383 net.cpp:399] fc8 -> fc8
I0811 14:25:54.042351  8383 net.cpp:141] Setting up fc8
I0811 14:25:54.042367  8383 net.cpp:148] Top shape: 64 2 (128)
I0811 14:25:54.042371  8383 net.cpp:156] Memory required for data: 164487936
I0811 14:25:54.042379  8383 layer_factory.hpp:77] Creating layer loss
I0811 14:25:54.042387  8383 net.cpp:91] Creating Layer loss
I0811 14:25:54.042390  8383 net.cpp:425] loss <- fc8
I0811 14:25:54.042397  8383 net.cpp:425] loss <- label
I0811 14:25:54.042402  8383 net.cpp:399] loss -> loss
I0811 14:25:54.042419  8383 layer_factory.hpp:77] Creating layer loss
…
I0811 14:25:54.043694  8383 net.cpp:313] The NetState phase (1) differed from the phase (0) specified by a rule in layer mnist
I0811 14:25:54.043901  8383 net.cpp:49] Initializing net from parameters: 
name: "AlexNet"
state {
  phase: TEST
}
layer {
  name: "mnist"
  type: "Data"
  top: "data"
  top: "label"
  include {
    phase: TEST
  }
  transform_param {
    scale: 0.00390625
    mean_file: "data/person_only_lmdb/person_background_and_random_color_mean.binaryproto"
  }
  data_param {
    source: "data/person_only_lmdb/person_background_and_random_test_lmdb"
    batch_size: 100
    backend: LMDB
  }
}
layer {
  name: "conv1"
  type: "Convolution"
  bottom: "data"
  top: "conv1"
  param {
    lr_mult: 1
    decay_mult: 1
  }
  param {
    lr_mult: 2
    decay_mult: 0
  }
  convolution_param {
    num_output: 96
    kernel_size: 11
    stride: 4
    weight_filler {
      type: "gaussian"
      std: 0.01
    }
    bias_filler {
      type: "constant"
      value: 0
    }
  }
}
layer {
  name: "relu1"
  type: "ReLU"
  bottom: "conv1"
  top: "conv1"
}
layer {
  name: "norm1"
  type: "LRN"
  bottom: "conv1"
  top: "norm1"
  lrn_param {
    local_size: 5
    alpha: 0.0001
    beta: 0.75
  }
}
layer {
  name: "pool1"
  type: "Pooling"
  bottom: "norm1"
  top: "pool1"
  pooling_param {
    pool: MAX
    kernel_size: 3
    stride: 2
  }
}
layer {
  name: "conv2"
  type: "Convolution"
  bottom: "pool1"
  top: "conv2"
  param {
    lr_mult: 1
    decay_mult: 1
  }
  param {
    lr_mult: 2
    decay_mult: 0
  }
  convolution_param {
    num_output: 256
    pad: 2
    kernel_size: 5
    group: 2
    weight_filler {
      type: "gaussian"
      std: 0.01
    }
    bias_filler {
      type: "constant"
      value: 0.1
    }
  }
}
layer {
  name: "relu2"
  type: "ReLU"
  bottom: "conv2"
  top: "conv2"
}
layer {
  name: "norm2"
  type: "LRN"
  bottom: "conv2"
  top: "norm2"
  lrn_param {
    local_size: 5
    alpha: 0.0001
    beta: 0.75
  }
}
layer {
  name: "pool2"
  type: "Pooling"
  bottom: "norm2"
  top: "pool2"
  pooling_param {
    pool: MAX
    kernel_size: 3
    stride: 2
  }
}
layer {
  name: "conv3"
  type: "Convolution"
  bottom: "pool2"
  top: "conv3"
  param {
    lr_mult: 1
    decay_mult: 1
  }
  param {
    lr_mult: 2
    decay_mult: 0
  }
  convolution_param {
    num_output: 384
    pad: 1
    kernel_size: 3
    weight_filler {
      type: "gaussian"
      std: 0.01
    }
    bias_filler {
      type: "constant"
      value: 0
    }
  }
}
layer {
  name: "relu3"
  type: "ReLU"
  bottom: "conv3"
  top: "conv3"
}
layer {
  name: "conv4"
  type: "Convolution"
  bottom: "conv3"
  top: "conv4"
  param {
    lr_mult: 1
    decay_mult: 1
  }
  param {
    lr_mult: 2
    decay_mult: 0
  }
  convolution_param {
    num_output: 384
    pad: 1
    kernel_size: 3
    group: 2
    weight_filler {
      type: "gaussian"
      std: 0.01
    }
    bias_filler {
      type: "constant"
      value: 0.1
    }
  }
}
layer {
  name: "relu4"
  type: "ReLU"
  bottom: "conv4"
  top: "conv4"
}
layer {
  name: "conv5"
  type: "Convolution"
  bottom: "conv4"
  top: "conv5"
  param {
    lr_mult: 1
    decay_mult: 1
  }
  param {
    lr_mult: 2
    decay_mult: 0
  }
  convolution_param {
    num_output: 256
    pad: 1
    kernel_size: 3
    group: 2
    weight_filler {
      type: "gaussian"
      std: 0.01
    }
    bias_filler {
      type: "constant"
      value: 0.1
    }
  }
}
layer {
  name: "relu5"
  type: "ReLU"
  bottom: "conv5"
  top: "conv5"
}
layer {
  name: "pool5"
  type: "Pooling"
  bottom: "conv5"
  top: "pool5"
  pooling_param {
    pool: MAX
    kernel_size: 3
    stride: 2
  }
}
layer {
  name: "fc6"
  type: "InnerProduct"
  bottom: "pool5"
  top: "fc6"
  param {
    lr_mult: 1
    decay_mult: 1
  }
  param {
    lr_mult: 2
    decay_mult: 0
  }
  inner_product_param {
    num_output: 4096
    weight_filler {
      type: "gaussian"
      std: 0.005
    }
    bias_filler {
      type: "constant"
      value: 0.1
    }
  }
}
layer {
  name: "relu6"
  type: "ReLU"
  bottom: "fc6"
  top: "fc6"
}
layer {
  name: "drop6"
  type: "Dropout"
  bottom: "fc6"
  top: "fc6"
  dropout_param {
    dropout_ratio: 0.5
  }
}
layer {
  name: "fc7"
  type: "InnerProduct"
  bottom: "fc6"
  top: "fc7"
  param {
    lr_mult: 1
    decay_mult: 1
  }
  param {
    lr_mult: 2
    decay_mult: 0
  }
  inner_product_param {
    num_output: 4096
    weight_filler {
      type: "gaussian"
      std: 0.005
    }
    bias_filler {
      type: "constant"
      value: 0.1
    }
  }
}
layer {
  name: "relu7"
  type: "ReLU"
  bottom: "fc7"
  top: "fc7"
}
layer {
  name: "drop7"
  type: "Dropout"
  bottom: "fc7"
  top: "fc7"
  dropout_param {
    dropout_ratio: 0.5
  }
}
layer {
  name: "fc8"
  type: "InnerProduct"
  bottom: "fc7"
  top: "fc8"
  param {
    lr_mult: 1
    decay_mult: 1
  }
  param {
    lr_mult: 2
    decay_mult: 0
  }
  inner_product_param {
    num_output: 2
    weight_filler {
      type: "gaussian"
      std: 0.01
    }
    bias_filler {
      type: "constant"
      value: 0
    }
  }
}
layer {
  name: "accuracy"
  type: "Accuracy"
  bottom: "fc8"
  bottom: "label"
  top: "accuracy"
  include {
    phase: TEST
  }
}
layer {
  name: "loss"
  type: "SoftmaxWithLoss"
  bottom: "fc8"
  bottom: "label"
  top: "loss"
}
I0811 14:25:54.044025  8383 layer_factory.hpp:77] Creating layer mnist
I0811 14:25:54.044158  8383 net.cpp:91] Creating Layer mnist
I0811 14:25:54.044168  8383 net.cpp:399] mnist -> data
I0811 14:25:54.044178  8383 net.cpp:399] mnist -> label
I0811 14:25:54.044188  8383 data_transformer.cpp:25] Loading mean file from: data/person_only_lmdb/person_background_and_random_color_mean.binaryproto
I0811 14:25:54.047793  8392 db_lmdb.cpp:35] Opened lmdb data/person_only_lmdb/person_background_and_random_test_lmdb
I0811 14:25:54.049439  8383 data_layer.cpp:41] output data size: 100,3,128,128
I0811 14:25:54.087852  8383 net.cpp:141] Setting up mnist
I0811 14:25:54.087895  8383 net.cpp:148] Top shape: 100 3 128 128 (4915200)
I0811 14:25:54.087903  8383 net.cpp:148] Top shape: 100 (100)
I0811 14:25:54.087905  8383 net.cpp:156] Memory required for data: 19661200
I0811 14:25:54.087913  8383 layer_factory.hpp:77] Creating layer label_mnist_1_split
I0811 14:25:54.087929  8383 net.cpp:91] Creating Layer label_mnist_1_split
I0811 14:25:54.087934  8383 net.cpp:425] label_mnist_1_split <- label
I0811 14:25:54.087941  8383 net.cpp:399] label_mnist_1_split -> label_mnist_1_split_0
I0811 14:25:54.087954  8383 net.cpp:399] label_mnist_1_split -> label_mnist_1_split_1
I0811 14:25:54.088080  8383 net.cpp:141] Setting up label_mnist_1_split
I0811 14:25:54.088091  8383 net.cpp:148] Top shape: 100 (100)
I0811 14:25:54.088095  8383 net.cpp:148] Top shape: 100 (100)
I0811 14:25:54.088099  8383 net.cpp:156] Memory required for data: 19662000
I0811 14:25:54.088102  8383 layer_factory.hpp:77] Creating layer conv1
I0811 14:25:54.088116  8383 net.cpp:91] Creating Layer conv1
I0811 14:25:54.088120  8383 net.cpp:425] conv1 <- data
I0811 14:25:54.088126  8383 net.cpp:399] conv1 -> conv1
I0811 14:25:54.093731  8383 net.cpp:141] Setting up conv1
I0811 14:25:54.093767  8383 net.cpp:148] Top shape: 100 96 30 30 (8640000)
I0811 14:25:54.093772  8383 net.cpp:156] Memory required for data: 54222000
I0811 14:25:54.093787  8383 layer_factory.hpp:77] Creating layer relu1
I0811 14:25:54.093798  8383 net.cpp:91] Creating Layer relu1
I0811 14:25:54.093802  8383 net.cpp:425] relu1 <- conv1
I0811 14:25:54.093809  8383 net.cpp:386] relu1 -> conv1 (in-place)
I0811 14:25:54.094116  8383 net.cpp:141] Setting up relu1
I0811 14:25:54.094130  8383 net.cpp:148] Top shape: 100 96 30 30 (8640000)
I0811 14:25:54.094135  8383 net.cpp:156] Memory required for data: 88782000
I0811 14:25:54.094138  8383 layer_factory.hpp:77] Creating layer norm1
I0811 14:25:54.094148  8383 net.cpp:91] Creating Layer norm1
I0811 14:25:54.094152  8383 net.cpp:425] norm1 <- conv1
I0811 14:25:54.094159  8383 net.cpp:399] norm1 -> norm1
I0811 14:25:54.094377  8383 net.cpp:141] Setting up norm1
I0811 14:25:54.094388  8383 net.cpp:148] Top shape: 100 96 30 30 (8640000)
I0811 14:25:54.094393  8383 net.cpp:156] Memory required for data: 123342000
I0811 14:25:54.094395  8383 layer_factory.hpp:77] Creating layer pool1
I0811 14:25:54.094403  8383 net.cpp:91] Creating Layer pool1
I0811 14:25:54.094408  8383 net.cpp:425] pool1 <- norm1
I0811 14:25:54.094413  8383 net.cpp:399] pool1 -> pool1
I0811 14:25:54.094451  8383 net.cpp:141] Setting up pool1
I0811 14:25:54.094457  8383 net.cpp:148] Top shape: 100 96 15 15 (2160000)
I0811 14:25:54.094460  8383 net.cpp:156] Memory required for data: 131982000
I0811 14:25:54.094463  8383 layer_factory.hpp:77] Creating layer conv2
I0811 14:25:54.094475  8383 net.cpp:91] Creating Layer conv2
I0811 14:25:54.094477  8383 net.cpp:425] conv2 <- pool1
I0811 14:25:54.094485  8383 net.cpp:399] conv2 -> conv2
I0811 14:25:54.104632  8383 net.cpp:141] Setting up conv2
I0811 14:25:54.104660  8383 net.cpp:148] Top shape: 100 256 15 15 (5760000)
I0811 14:25:54.104665  8383 net.cpp:156] Memory required for data: 155022000
I0811 14:25:54.104676  8383 layer_factory.hpp:77] Creating layer relu2
I0811 14:25:54.104682  8383 net.cpp:91] Creating Layer relu2
I0811 14:25:54.104686  8383 net.cpp:425] relu2 <- conv2
I0811 14:25:54.104689  8383 net.cpp:386] relu2 -> conv2 (in-place)
I0811 14:25:54.104985  8383 net.cpp:141] Setting up relu2
I0811 14:25:54.104996  8383 net.cpp:148] Top shape: 100 256 15 15 (5760000)
I0811 14:25:54.105010  8383 net.cpp:156] Memory required for data: 178062000
I0811 14:25:54.105015  8383 layer_factory.hpp:77] Creating layer norm2
I0811 14:25:54.105022  8383 net.cpp:91] Creating Layer norm2
I0811 14:25:54.105026  8383 net.cpp:425] norm2 <- conv2
I0811 14:25:54.105031  8383 net.cpp:399] norm2 -> norm2
I0811 14:25:54.105248  8383 net.cpp:141] Setting up norm2
I0811 14:25:54.105258  8383 net.cpp:148] Top shape: 100 256 15 15 (5760000)
I0811 14:25:54.105271  8383 net.cpp:156] Memory required for data: 201102000
I0811 14:25:54.105274  8383 layer_factory.hpp:77] Creating layer pool2
I0811 14:25:54.105281  8383 net.cpp:91] Creating Layer pool2
I0811 14:25:54.105284  8383 net.cpp:425] pool2 <- norm2
I0811 14:25:54.105289  8383 net.cpp:399] pool2 -> pool2
I0811 14:25:54.105335  8383 net.cpp:141] Setting up pool2
I0811 14:25:54.105340  8383 net.cpp:148] Top shape: 100 256 7 7 (1254400)
I0811 14:25:54.105343  8383 net.cpp:156] Memory required for data: 206119600
I0811 14:25:54.105345  8383 layer_factory.hpp:77] Creating layer conv3
I0811 14:25:54.105356  8383 net.cpp:91] Creating Layer conv3
I0811 14:25:54.105361  8383 net.cpp:425] conv3 <- pool2
I0811 14:25:54.105368  8383 net.cpp:399] conv3 -> conv3
I0811 14:25:54.129660  8383 net.cpp:141] Setting up conv3
I0811 14:25:54.129689  8383 net.cpp:148] Top shape: 100 384 7 7 (1881600)
I0811 14:25:54.129698  8383 net.cpp:156] Memory required for data: 213646000
I0811 14:25:54.129708  8383 layer_factory.hpp:77] Creating layer relu3
I0811 14:25:54.129714  8383 net.cpp:91] Creating Layer relu3
I0811 14:25:54.129717  8383 net.cpp:425] relu3 <- conv3
I0811 14:25:54.129721  8383 net.cpp:386] relu3 -> conv3 (in-place)
I0811 14:25:54.129915  8383 net.cpp:141] Setting up relu3
I0811 14:25:54.129925  8383 net.cpp:148] Top shape: 100 384 7 7 (1881600)
I0811 14:25:54.129938  8383 net.cpp:156] Memory required for data: 221172400
I0811 14:25:54.129941  8383 layer_factory.hpp:77] Creating layer conv4
I0811 14:25:54.129951  8383 net.cpp:91] Creating Layer conv4
I0811 14:25:54.129953  8383 net.cpp:425] conv4 <- conv3
I0811 14:25:54.129961  8383 net.cpp:399] conv4 -> conv4
I0811 14:25:54.149127  8383 net.cpp:141] Setting up conv4
I0811 14:25:54.149157  8383 net.cpp:148] Top shape: 100 384 7 7 (1881600)
I0811 14:25:54.149159  8383 net.cpp:156] Memory required for data: 228698800
I0811 14:25:54.149168  8383 layer_factory.hpp:77] Creating layer relu4
I0811 14:25:54.149174  8383 net.cpp:91] Creating Layer relu4
I0811 14:25:54.149178  8383 net.cpp:425] relu4 <- conv4
I0811 14:25:54.149183  8383 net.cpp:386] relu4 -> conv4 (in-place)
I0811 14:25:54.149490  8383 net.cpp:141] Setting up relu4
I0811 14:25:54.149502  8383 net.cpp:148] Top shape: 100 384 7 7 (1881600)
I0811 14:25:54.149516  8383 net.cpp:156] Memory required for data: 236225200
I0811 14:25:54.149519  8383 layer_factory.hpp:77] Creating layer conv5
I0811 14:25:54.149529  8383 net.cpp:91] Creating Layer conv5
I0811 14:25:54.149534  8383 net.cpp:425] conv5 <- conv4
I0811 14:25:54.149539  8383 net.cpp:399] conv5 -> conv5
I0811 14:25:54.162675  8383 net.cpp:141] Setting up conv5
I0811 14:25:54.162701  8383 net.cpp:148] Top shape: 100 256 7 7 (1254400)
I0811 14:25:54.162705  8383 net.cpp:156] Memory required for data: 241242800
I0811 14:25:54.162714  8383 layer_factory.hpp:77] Creating layer relu5
I0811 14:25:54.162720  8383 net.cpp:91] Creating Layer relu5
I0811 14:25:54.162724  8383 net.cpp:425] relu5 <- conv5
I0811 14:25:54.162729  8383 net.cpp:386] relu5 -> conv5 (in-place)
I0811 14:25:54.163019  8383 net.cpp:141] Setting up relu5
I0811 14:25:54.163031  8383 net.cpp:148] Top shape: 100 256 7 7 (1254400)
I0811 14:25:54.163045  8383 net.cpp:156] Memory required for data: 246260400
I0811 14:25:54.163048  8383 layer_factory.hpp:77] Creating layer pool5
I0811 14:25:54.163058  8383 net.cpp:91] Creating Layer pool5
I0811 14:25:54.163061  8383 net.cpp:425] pool5 <- conv5
I0811 14:25:54.163065  8383 net.cpp:399] pool5 -> pool5
I0811 14:25:54.163120  8383 net.cpp:141] Setting up pool5
I0811 14:25:54.163127  8383 net.cpp:148] Top shape: 100 256 3 3 (230400)
I0811 14:25:54.163130  8383 net.cpp:156] Memory required for data: 247182000
I0811 14:25:54.163133  8383 layer_factory.hpp:77] Creating layer fc6
I0811 14:25:54.163139  8383 net.cpp:91] Creating Layer fc6
I0811 14:25:54.163142  8383 net.cpp:425] fc6 <- pool5
I0811 14:25:54.163148  8383 net.cpp:399] fc6 -> fc6
I0811 14:25:54.412401  8383 net.cpp:141] Setting up fc6
I0811 14:25:54.412442  8383 net.cpp:148] Top shape: 100 4096 (409600)
I0811 14:25:54.412446  8383 net.cpp:156] Memory required for data: 248820400
I0811 14:25:54.412456  8383 layer_factory.hpp:77] Creating layer relu6
I0811 14:25:54.412467  8383 net.cpp:91] Creating Layer relu6
I0811 14:25:54.412472  8383 net.cpp:425] relu6 <- fc6
I0811 14:25:54.412485  8383 net.cpp:386] relu6 -> fc6 (in-place)
I0811 14:25:54.412766  8383 net.cpp:141] Setting up relu6
I0811 14:25:54.412791  8383 net.cpp:148] Top shape: 100 4096 (409600)
I0811 14:25:54.412804  8383 net.cpp:156] Memory required for data: 250458800
I0811 14:25:54.412807  8383 layer_factory.hpp:77] Creating layer drop6
I0811 14:25:54.412814  8383 net.cpp:91] Creating Layer drop6
I0811 14:25:54.412817  8383 net.cpp:425] drop6 <- fc6
I0811 14:25:54.412820  8383 net.cpp:386] drop6 -> fc6 (in-place)
I0811 14:25:54.412861  8383 net.cpp:141] Setting up drop6
I0811 14:25:54.412866  8383 net.cpp:148] Top shape: 100 4096 (409600)
I0811 14:25:54.412868  8383 net.cpp:156] Memory required for data: 252097200
I0811 14:25:54.412871  8383 layer_factory.hpp:77] Creating layer fc7
I0811 14:25:54.412879  8383 net.cpp:91] Creating Layer fc7
I0811 14:25:54.412883  8383 net.cpp:425] fc7 <- fc6
I0811 14:25:54.412886  8383 net.cpp:399] fc7 -> fc7
I0811 14:25:54.918041  8383 net.cpp:141] Setting up fc7
I0811 14:25:54.918088  8383 net.cpp:148] Top shape: 100 4096 (409600)
I0811 14:25:54.918092  8383 net.cpp:156] Memory required for data: 253735600
I0811 14:25:54.918103  8383 layer_factory.hpp:77] Creating layer relu7
I0811 14:25:54.918113  8383 net.cpp:91] Creating Layer relu7
I0811 14:25:54.918118  8383 net.cpp:425] relu7 <- fc7
I0811 14:25:54.918124  8383 net.cpp:386] relu7 -> fc7 (in-place)
I0811 14:25:54.918613  8383 net.cpp:141] Setting up relu7
I0811 14:25:54.918624  8383 net.cpp:148] Top shape: 100 4096 (409600)
I0811 14:25:54.918639  8383 net.cpp:156] Memory required for data: 255374000
I0811 14:25:54.918642  8383 layer_factory.hpp:77] Creating layer drop7
I0811 14:25:54.918649  8383 net.cpp:91] Creating Layer drop7
I0811 14:25:54.918653  8383 net.cpp:425] drop7 <- fc7
I0811 14:25:54.918658  8383 net.cpp:386] drop7 -> fc7 (in-place)
I0811 14:25:54.918699  8383 net.cpp:141] Setting up drop7
I0811 14:25:54.918702  8383 net.cpp:148] Top shape: 100 4096 (409600)
I0811 14:25:54.918705  8383 net.cpp:156] Memory required for data: 257012400
I0811 14:25:54.918709  8383 layer_factory.hpp:77] Creating layer fc8
I0811 14:25:54.918715  8383 net.cpp:91] Creating Layer fc8
I0811 14:25:54.918718  8383 net.cpp:425] fc8 <- fc7
I0811 14:25:54.918725  8383 net.cpp:399] fc8 -> fc8
I0811 14:25:54.919086  8383 net.cpp:141] Setting up fc8
I0811 14:25:54.919095  8383 net.cpp:148] Top shape: 100 2 (200)
I0811 14:25:54.919108  8383 net.cpp:156] Memory required for data: 257013200
I0811 14:25:54.919113  8383 layer_factory.hpp:77] Creating layer fc8_fc8_0_split
I0811 14:25:54.919119  8383 net.cpp:91] Creating Layer fc8_fc8_0_split
I0811 14:25:54.919121  8383 net.cpp:425] fc8_fc8_0_split <- fc8
I0811 14:25:54.919127  8383 net.cpp:399] fc8_fc8_0_split -> fc8_fc8_0_split_0
I0811 14:25:54.919132  8383 net.cpp:399] fc8_fc8_0_split -> fc8_fc8_0_split_1
I0811 14:25:54.919176  8383 net.cpp:141] Setting up fc8_fc8_0_split
I0811 14:25:54.919181  8383 net.cpp:148] Top shape: 100 2 (200)
I0811 14:25:54.919184  8383 net.cpp:148] Top shape: 100 2 (200)
I0811 14:25:54.919188  8383 net.cpp:156] Memory required for data: 257014800
I0811 14:25:54.919190  8383 layer_factory.hpp:77] Creating layer accuracy
I0811 14:25:54.919198  8383 net.cpp:91] Creating Layer accuracy
I0811 14:25:54.919199  8383 net.cpp:425] accuracy <- fc8_fc8_0_split_0
I0811 14:25:54.919203  8383 net.cpp:425] accuracy <- label_mnist_1_split_0
I0811 14:25:54.919208  8383 net.cpp:399] accuracy -> accuracy
…
