…
I0713 17:51:14.511602 41206 net.cpp:313] The NetState phase (0) differed from the phase (1) specified by a rule in layer accuracy
I0713 17:51:14.511734 41206 net.cpp:49] Initializing net from parameters: 
name: "LeNet"
state {
  phase: TRAIN
}
layer {
  name: "mnist"
  type: "Data"
  top: "data"
  top: "label"
  include {
    phase: TRAIN
  }
  transform_param {
    scale: 0.00390625
    mean_file: "data/person_only_lmdb/person_color_patch_color_mean.binaryproto"
  }
  data_param {
    source: "data/person_only_lmdb/people_color_patch_train_lmdb"
    batch_size: 64
    backend: LMDB
  }
}
layer {
  name: "conv1"
  type: "Convolution"
  bottom: "data"
  top: "conv1"
  param {
    lr_mult: 1
  }
  param {
    lr_mult: 2
  }
  convolution_param {
    num_output: 20
    kernel_size: 5
    stride: 1
    weight_filler {
      type: "xavier"
    }
    bias_filler {
      type: "constant"
    }
  }
}
layer {
  name: "pool1"
  type: "Pooling"
  bottom: "conv1"
  top: "pool1"
  pooling_param {
    pool: MAX
    kernel_size: 2
    stride: 2
  }
}
layer {
  name: "conv2"
  type: "Convolution"
  bottom: "pool1"
  top: "conv2"
  param {
    lr_mult: 1
  }
  param {
    lr_mult: 2
  }
  convolution_param {
    num_output: 50
    kernel_size: 5
    stride: 1
    weight_filler {
      type: "xavier"
    }
    bias_filler {
      type: "constant"
    }
  }
}
layer {
  name: "pool2"
  type: "Pooling"
  bottom: "conv2"
  top: "pool2"
  pooling_param {
    pool: MAX
    kernel_size: 2
    stride: 2
  }
}
layer {
  name: "ip1"
  type: "InnerProduct"
  bottom: "pool2"
  top: "ip1"
  param {
    lr_mult: 1
  }
  param {
    lr_mult: 2
  }
  inner_product_param {
    num_output: 500
    weight_filler {
      type: "xavier"
    }
    bias_filler {
      type: "constant"
    }
  }
}
layer {
  name: "relu1"
  type: "ReLU"
  bottom: "ip1"
  top: "ip1"
}
layer {
  name: "ip2"
  type: "InnerProduct"
  bottom: "ip1"
  top: "ip2"
  param {
    lr_mult: 1
  }
  param {
    lr_mult: 2
  }
  inner_product_param {
    num_output: 2
    weight_filler {
      type: "xavier"
    }
    bias_filler {
      type: "constant"
    }
  }
}
layer {
  name: "loss"
  type: "SoftmaxWithLoss"
  bottom: "ip2"
  bottom: "label"
  top: "loss"
}
I0713 17:51:14.511816 41206 layer_factory.hpp:77] Creating layer mnist
I0713 17:51:14.513165 41206 net.cpp:91] Creating Layer mnist
I0713 17:51:14.513191 41206 net.cpp:399] mnist -> data
I0713 17:51:14.513214 41206 net.cpp:399] mnist -> label
I0713 17:51:14.513237 41206 data_transformer.cpp:25] Loading mean file from: data/person_only_lmdb/person_color_patch_color_mean.binaryproto
I0713 17:51:14.514549 41212 db_lmdb.cpp:35] Opened lmdb data/person_only_lmdb/people_color_patch_train_lmdb
I0713 17:54:23.466217 41206 data_layer.cpp:41] output data size: 64,3,128,128
I0713 17:54:23.494061 41206 net.cpp:141] Setting up mnist
I0713 17:54:23.494119 41206 net.cpp:148] Top shape: 64 3 128 128 (3145728)
I0713 17:54:23.494130 41206 net.cpp:148] Top shape: 64 (64)
I0713 17:54:23.494135 41206 net.cpp:156] Memory required for data: 12583168
I0713 17:54:23.494144 41206 layer_factory.hpp:77] Creating layer conv1
I0713 17:54:23.494180 41206 net.cpp:91] Creating Layer conv1
I0713 17:54:23.494191 41206 net.cpp:425] conv1 <- data
I0713 17:54:23.494202 41206 net.cpp:399] conv1 -> conv1
I0713 17:54:26.271299 41206 net.cpp:141] Setting up conv1
I0713 17:54:26.271356 41206 net.cpp:148] Top shape: 64 20 124 124 (19681280)
I0713 17:54:26.271366 41206 net.cpp:156] Memory required for data: 91308288
I0713 17:54:26.271396 41206 layer_factory.hpp:77] Creating layer pool1
I0713 17:54:26.271427 41206 net.cpp:91] Creating Layer pool1
I0713 17:54:26.271443 41206 net.cpp:425] pool1 <- conv1
I0713 17:54:26.271456 41206 net.cpp:399] pool1 -> pool1
I0713 17:54:26.271565 41206 net.cpp:141] Setting up pool1
I0713 17:54:26.271581 41206 net.cpp:148] Top shape: 64 20 62 62 (4920320)
I0713 17:54:26.271589 41206 net.cpp:156] Memory required for data: 110989568
I0713 17:54:26.271595 41206 layer_factory.hpp:77] Creating layer conv2
I0713 17:54:26.271615 41206 net.cpp:91] Creating Layer conv2
I0713 17:54:26.271623 41206 net.cpp:425] conv2 <- pool1
I0713 17:54:26.271634 41206 net.cpp:399] conv2 -> conv2
I0713 17:54:26.274070 41206 net.cpp:141] Setting up conv2
I0713 17:54:26.274103 41206 net.cpp:148] Top shape: 64 50 58 58 (10764800)
I0713 17:54:26.274116 41206 net.cpp:156] Memory required for data: 154048768
I0713 17:54:26.274134 41206 layer_factory.hpp:77] Creating layer pool2
I0713 17:54:26.274150 41206 net.cpp:91] Creating Layer pool2
I0713 17:54:26.274158 41206 net.cpp:425] pool2 <- conv2
I0713 17:54:26.274170 41206 net.cpp:399] pool2 -> pool2
I0713 17:54:26.274266 41206 net.cpp:141] Setting up pool2
I0713 17:54:26.274281 41206 net.cpp:148] Top shape: 64 50 29 29 (2691200)
I0713 17:54:26.274287 41206 net.cpp:156] Memory required for data: 164813568
I0713 17:54:26.274294 41206 layer_factory.hpp:77] Creating layer ip1
I0713 17:54:26.274314 41206 net.cpp:91] Creating Layer ip1
I0713 17:54:26.274323 41206 net.cpp:425] ip1 <- pool2
I0713 17:54:26.274334 41206 net.cpp:399] ip1 -> ip1
I0713 17:54:26.491685 41206 net.cpp:141] Setting up ip1
I0713 17:54:26.491720 41206 net.cpp:148] Top shape: 64 500 (32000)
I0713 17:54:26.491724 41206 net.cpp:156] Memory required for data: 164941568
I0713 17:54:26.491739 41206 layer_factory.hpp:77] Creating layer relu1
I0713 17:54:26.491755 41206 net.cpp:91] Creating Layer relu1
I0713 17:54:26.491758 41206 net.cpp:425] relu1 <- ip1
I0713 17:54:26.491765 41206 net.cpp:386] relu1 -> ip1 (in-place)
I0713 17:54:26.492137 41206 net.cpp:141] Setting up relu1
I0713 17:54:26.492149 41206 net.cpp:148] Top shape: 64 500 (32000)
I0713 17:54:26.492162 41206 net.cpp:156] Memory required for data: 165069568
I0713 17:54:26.492166 41206 layer_factory.hpp:77] Creating layer ip2
I0713 17:54:26.492177 41206 net.cpp:91] Creating Layer ip2
I0713 17:54:26.492180 41206 net.cpp:425] ip2 <- ip1
I0713 17:54:26.492187 41206 net.cpp:399] ip2 -> ip2
I0713 17:54:26.492301 41206 net.cpp:141] Setting up ip2
I0713 17:54:26.492308 41206 net.cpp:148] Top shape: 64 2 (128)
I0713 17:54:26.492322 41206 net.cpp:156] Memory required for data: 165070080
I0713 17:54:26.492328 41206 layer_factory.hpp:77] Creating layer loss
I0713 17:54:26.492344 41206 net.cpp:91] Creating Layer loss
I0713 17:54:26.492347 41206 net.cpp:425] loss <- ip2
I0713 17:54:26.492350 41206 net.cpp:425] loss <- label
I0713 17:54:26.492354 41206 net.cpp:399] loss -> loss
I0713 17:54:26.492363 41206 layer_factory.hpp:77] Creating layer loss
…
I0713 17:54:26.493244 41206 net.cpp:313] The NetState phase (1) differed from the phase (0) specified by a rule in layer mnist
I0713 17:54:26.493393 41206 net.cpp:49] Initializing net from parameters: 
name: "LeNet"
state {
  phase: TEST
}
layer {
  name: "mnist"
  type: "Data"
  top: "data"
  top: "label"
  include {
    phase: TEST
  }
  transform_param {
    scale: 0.00390625
    mean_file: "data/person_only_lmdb/person_color_patch_color_mean.binaryproto"
  }
  data_param {
    source: "data/person_only_lmdb/people_patch_test_lmdb"
    batch_size: 100
    backend: LMDB
  }
}
layer {
  name: "conv1"
  type: "Convolution"
  bottom: "data"
  top: "conv1"
  param {
    lr_mult: 1
  }
  param {
    lr_mult: 2
  }
  convolution_param {
    num_output: 20
    kernel_size: 5
    stride: 1
    weight_filler {
      type: "xavier"
    }
    bias_filler {
      type: "constant"
    }
  }
}
layer {
  name: "pool1"
  type: "Pooling"
  bottom: "conv1"
  top: "pool1"
  pooling_param {
    pool: MAX
    kernel_size: 2
    stride: 2
  }
}
layer {
  name: "conv2"
  type: "Convolution"
  bottom: "pool1"
  top: "conv2"
  param {
    lr_mult: 1
  }
  param {
    lr_mult: 2
  }
  convolution_param {
    num_output: 50
    kernel_size: 5
    stride: 1
    weight_filler {
      type: "xavier"
    }
    bias_filler {
      type: "constant"
    }
  }
}
layer {
  name: "pool2"
  type: "Pooling"
  bottom: "conv2"
  top: "pool2"
  pooling_param {
    pool: MAX
    kernel_size: 2
    stride: 2
  }
}
layer {
  name: "ip1"
  type: "InnerProduct"
  bottom: "pool2"
  top: "ip1"
  param {
    lr_mult: 1
  }
  param {
    lr_mult: 2
  }
  inner_product_param {
    num_output: 500
    weight_filler {
      type: "xavier"
    }
    bias_filler {
      type: "constant"
    }
  }
}
layer {
  name: "relu1"
  type: "ReLU"
  bottom: "ip1"
  top: "ip1"
}
layer {
  name: "ip2"
  type: "InnerProduct"
  bottom: "ip1"
  top: "ip2"
  param {
    lr_mult: 1
  }
  param {
    lr_mult: 2
  }
  inner_product_param {
    num_output: 2
    weight_filler {
      type: "xavier"
    }
    bias_filler {
      type: "constant"
    }
  }
}
layer {
  name: "accuracy"
  type: "Accuracy"
  bottom: "ip2"
  bottom: "label"
  top: "accuracy"
  include {
    phase: TEST
  }
}
layer {
  name: "loss"
  type: "SoftmaxWithLoss"
  bottom: "ip2"
  bottom: "label"
  top: "loss"
}
I0713 17:54:26.493502 41206 layer_factory.hpp:77] Creating layer mnist
I0713 17:54:26.493659 41206 net.cpp:91] Creating Layer mnist
I0713 17:54:26.493671 41206 net.cpp:399] mnist -> data
I0713 17:54:26.493683 41206 net.cpp:399] mnist -> label
I0713 17:54:26.493693 41206 data_transformer.cpp:25] Loading mean file from: data/person_only_lmdb/person_color_patch_color_mean.binaryproto
I0713 17:54:26.494969 41216 db_lmdb.cpp:35] Opened lmdb data/person_only_lmdb/people_patch_test_lmdb
I0713 17:54:26.495204 41206 data_layer.cpp:41] output data size: 100,3,128,128
I0713 17:54:26.538296 41206 net.cpp:141] Setting up mnist
I0713 17:54:26.538336 41206 net.cpp:148] Top shape: 100 3 128 128 (4915200)
I0713 17:54:26.538341 41206 net.cpp:148] Top shape: 100 (100)
I0713 17:54:26.538344 41206 net.cpp:156] Memory required for data: 19661200
I0713 17:54:26.538350 41206 layer_factory.hpp:77] Creating layer label_mnist_1_split
I0713 17:54:26.538365 41206 net.cpp:91] Creating Layer label_mnist_1_split
I0713 17:54:26.538369 41206 net.cpp:425] label_mnist_1_split <- label
I0713 17:54:26.538377 41206 net.cpp:399] label_mnist_1_split -> label_mnist_1_split_0
I0713 17:54:26.538389 41206 net.cpp:399] label_mnist_1_split -> label_mnist_1_split_1
I0713 17:54:26.538581 41206 net.cpp:141] Setting up label_mnist_1_split
I0713 17:54:26.538595 41206 net.cpp:148] Top shape: 100 (100)
I0713 17:54:26.538600 41206 net.cpp:148] Top shape: 100 (100)
I0713 17:54:26.538602 41206 net.cpp:156] Memory required for data: 19662000
I0713 17:54:26.538606 41206 layer_factory.hpp:77] Creating layer conv1
I0713 17:54:26.538621 41206 net.cpp:91] Creating Layer conv1
I0713 17:54:26.538625 41206 net.cpp:425] conv1 <- data
I0713 17:54:26.538631 41206 net.cpp:399] conv1 -> conv1
I0713 17:54:26.539885 41206 net.cpp:141] Setting up conv1
I0713 17:54:26.539901 41206 net.cpp:148] Top shape: 100 20 124 124 (30752000)
I0713 17:54:26.539904 41206 net.cpp:156] Memory required for data: 142670000
I0713 17:54:26.539916 41206 layer_factory.hpp:77] Creating layer pool1
I0713 17:54:26.539923 41206 net.cpp:91] Creating Layer pool1
I0713 17:54:26.539927 41206 net.cpp:425] pool1 <- conv1
I0713 17:54:26.539932 41206 net.cpp:399] pool1 -> pool1
I0713 17:54:26.539969 41206 net.cpp:141] Setting up pool1
I0713 17:54:26.539976 41206 net.cpp:148] Top shape: 100 20 62 62 (7688000)
I0713 17:54:26.539979 41206 net.cpp:156] Memory required for data: 173422000
I0713 17:54:26.539983 41206 layer_factory.hpp:77] Creating layer conv2
I0713 17:54:26.539991 41206 net.cpp:91] Creating Layer conv2
I0713 17:54:26.539995 41206 net.cpp:425] conv2 <- pool1
I0713 17:54:26.540000 41206 net.cpp:399] conv2 -> conv2
I0713 17:54:26.544342 41206 net.cpp:141] Setting up conv2
I0713 17:54:26.544369 41206 net.cpp:148] Top shape: 100 50 58 58 (16820000)
I0713 17:54:26.544373 41206 net.cpp:156] Memory required for data: 240702000
I0713 17:54:26.544381 41206 layer_factory.hpp:77] Creating layer pool2
I0713 17:54:26.544389 41206 net.cpp:91] Creating Layer pool2
I0713 17:54:26.544391 41206 net.cpp:425] pool2 <- conv2
I0713 17:54:26.544396 41206 net.cpp:399] pool2 -> pool2
I0713 17:54:26.544432 41206 net.cpp:141] Setting up pool2
I0713 17:54:26.544440 41206 net.cpp:148] Top shape: 100 50 29 29 (4205000)
I0713 17:54:26.544442 41206 net.cpp:156] Memory required for data: 257522000
I0713 17:54:26.544445 41206 layer_factory.hpp:77] Creating layer ip1
I0713 17:54:26.544452 41206 net.cpp:91] Creating Layer ip1
I0713 17:54:26.544459 41206 net.cpp:425] ip1 <- pool2
I0713 17:54:26.544474 41206 net.cpp:399] ip1 -> ip1
I0713 17:54:26.721245 41206 net.cpp:141] Setting up ip1
I0713 17:54:26.721294 41206 net.cpp:148] Top shape: 100 500 (50000)
I0713 17:54:26.721297 41206 net.cpp:156] Memory required for data: 257722000
I0713 17:54:26.721312 41206 layer_factory.hpp:77] Creating layer relu1
I0713 17:54:26.721324 41206 net.cpp:91] Creating Layer relu1
I0713 17:54:26.721333 41206 net.cpp:425] relu1 <- ip1
I0713 17:54:26.721350 41206 net.cpp:386] relu1 -> ip1 (in-place)
I0713 17:54:26.721833 41206 net.cpp:141] Setting up relu1
I0713 17:54:26.721848 41206 net.cpp:148] Top shape: 100 500 (50000)
I0713 17:54:26.721863 41206 net.cpp:156] Memory required for data: 257922000
I0713 17:54:26.721865 41206 layer_factory.hpp:77] Creating layer ip2
I0713 17:54:26.721876 41206 net.cpp:91] Creating Layer ip2
I0713 17:54:26.721880 41206 net.cpp:425] ip2 <- ip1
I0713 17:54:26.721886 41206 net.cpp:399] ip2 -> ip2
I0713 17:54:26.722036 41206 net.cpp:141] Setting up ip2
I0713 17:54:26.722044 41206 net.cpp:148] Top shape: 100 2 (200)
I0713 17:54:26.722057 41206 net.cpp:156] Memory required for data: 257922800
I0713 17:54:26.722064 41206 layer_factory.hpp:77] Creating layer ip2_ip2_0_split
I0713 17:54:26.722069 41206 net.cpp:91] Creating Layer ip2_ip2_0_split
I0713 17:54:26.722071 41206 net.cpp:425] ip2_ip2_0_split <- ip2
I0713 17:54:26.722075 41206 net.cpp:399] ip2_ip2_0_split -> ip2_ip2_0_split_0
I0713 17:54:26.722081 41206 net.cpp:399] ip2_ip2_0_split -> ip2_ip2_0_split_1
I0713 17:54:26.722112 41206 net.cpp:141] Setting up ip2_ip2_0_split
I0713 17:54:26.722121 41206 net.cpp:148] Top shape: 100 2 (200)
I0713 17:54:26.722134 41206 net.cpp:148] Top shape: 100 2 (200)
I0713 17:54:26.722137 41206 net.cpp:156] Memory required for data: 257924400
I0713 17:54:26.722139 41206 layer_factory.hpp:77] Creating layer accuracy
I0713 17:54:26.722146 41206 net.cpp:91] Creating Layer accuracy
I0713 17:54:26.722149 41206 net.cpp:425] accuracy <- ip2_ip2_0_split_0
I0713 17:54:26.722153 41206 net.cpp:425] accuracy <- label_mnist_1_split_0
I0713 17:54:26.722158 41206 net.cpp:399] accuracy -> accuracy
…
