…
I0725 21:00:46.655071 22245 net.cpp:313] The NetState phase (0) differed from the phase (1) specified by a rule in layer accuracy
I0725 21:00:46.655123 22245 net.cpp:49] Initializing net from parameters: 
name: "LeNet"
state {
  phase: TRAIN
}
layer {
  name: "mnist"
  type: "Data"
  top: "data"
  top: "label"
  include {
    phase: TRAIN
  }
  transform_param {
    scale: 0.00390625
    mean_file: "data/person_only_lmdb/person_vs_background_vs_random_color_mean.binaryproto"
  }
  data_param {
    source: "data/person_only_lmdb/person_vs_background_vs_random_train_lmdb"
    batch_size: 64
    backend: LMDB
  }
}
layer {
  name: "conv1"
  type: "Convolution"
  bottom: "data"
  top: "conv1"
  param {
    lr_mult: 1
  }
  param {
    lr_mult: 2
  }
  convolution_param {
    num_output: 96
    kernel_size: 5
    stride: 1
    weight_filler {
      type: "xavier"
    }
    bias_filler {
      type: "constant"
    }
  }
}
layer {
  name: "pool1"
  type: "Pooling"
  bottom: "conv1"
  top: "pool1"
  pooling_param {
    pool: MAX
    kernel_size: 2
    stride: 2
  }
}
layer {
  name: "conv2"
  type: "Convolution"
  bottom: "pool1"
  top: "conv2"
  param {
    lr_mult: 1
  }
  param {
    lr_mult: 2
  }
  convolution_param {
    num_output: 50
    kernel_size: 5
    stride: 1
    weight_filler {
      type: "xavier"
    }
    bias_filler {
      type: "constant"
    }
  }
}
layer {
  name: "pool2"
  type: "Pooling"
  bottom: "conv2"
  top: "pool2"
  pooling_param {
    pool: MAX
    kernel_size: 2
    stride: 2
  }
}
layer {
  name: "ip1"
  type: "InnerProduct"
  bottom: "pool2"
  top: "ip1"
  param {
    lr_mult: 1
  }
  param {
    lr_mult: 2
  }
  inner_product_param {
    num_output: 500
    weight_filler {
      type: "xavier"
    }
    bias_filler {
      type: "constant"
    }
  }
}
layer {
  name: "relu1"
  type: "ReLU"
  bottom: "ip1"
  top: "ip1"
}
layer {
  name: "ip2"
  type: "InnerProduct"
  bottom: "ip1"
  top: "ip2"
  param {
    lr_mult: 1
  }
  param {
    lr_mult: 2
  }
  inner_product_param {
    num_output: 2
    weight_filler {
      type: "xavier"
    }
    bias_filler {
      type: "constant"
    }
  }
}
layer {
  name: "loss"
  type: "SoftmaxWithLoss"
  bottom: "ip2"
  bottom: "label"
  top: "loss"
}
I0725 21:00:46.655164 22245 layer_factory.hpp:77] Creating layer mnist
I0725 21:00:46.655864 22245 net.cpp:91] Creating Layer mnist
I0725 21:00:46.655879 22245 net.cpp:399] mnist -> data
I0725 21:00:46.655894 22245 net.cpp:399] mnist -> label
I0725 21:00:46.655925 22245 data_transformer.cpp:25] Loading mean file from: data/person_only_lmdb/person_vs_background_vs_random_color_mean.binaryproto
I0725 21:00:46.657574 22252 db_lmdb.cpp:35] Opened lmdb data/person_only_lmdb/person_vs_background_vs_random_train_lmdb
I0725 21:01:02.485246 22245 data_layer.cpp:41] output data size: 64,3,128,128
I0725 21:01:02.505878 22245 net.cpp:141] Setting up mnist
I0725 21:01:02.505942 22245 net.cpp:148] Top shape: 64 3 128 128 (3145728)
I0725 21:01:02.505949 22245 net.cpp:148] Top shape: 64 (64)
I0725 21:01:02.505952 22245 net.cpp:156] Memory required for data: 12583168
I0725 21:01:02.505967 22245 layer_factory.hpp:77] Creating layer conv1
I0725 21:01:02.506012 22245 net.cpp:91] Creating Layer conv1
I0725 21:01:02.506021 22245 net.cpp:425] conv1 <- data
I0725 21:01:02.506041 22245 net.cpp:399] conv1 -> conv1
I0725 21:01:02.635622 22245 net.cpp:141] Setting up conv1
I0725 21:01:02.635670 22245 net.cpp:148] Top shape: 64 96 124 124 (94470144)
I0725 21:01:02.635675 22245 net.cpp:156] Memory required for data: 390463744
I0725 21:01:02.635692 22245 layer_factory.hpp:77] Creating layer pool1
I0725 21:01:02.635709 22245 net.cpp:91] Creating Layer pool1
I0725 21:01:02.635713 22245 net.cpp:425] pool1 <- conv1
I0725 21:01:02.635720 22245 net.cpp:399] pool1 -> pool1
I0725 21:01:02.635766 22245 net.cpp:141] Setting up pool1
I0725 21:01:02.635774 22245 net.cpp:148] Top shape: 64 96 62 62 (23617536)
I0725 21:01:02.635777 22245 net.cpp:156] Memory required for data: 484933888
I0725 21:01:02.635781 22245 layer_factory.hpp:77] Creating layer conv2
I0725 21:01:02.635792 22245 net.cpp:91] Creating Layer conv2
I0725 21:01:02.635797 22245 net.cpp:425] conv2 <- pool1
I0725 21:01:02.635813 22245 net.cpp:399] conv2 -> conv2
I0725 21:01:02.638254 22245 net.cpp:141] Setting up conv2
I0725 21:01:02.638281 22245 net.cpp:148] Top shape: 64 50 58 58 (10764800)
I0725 21:01:02.638284 22245 net.cpp:156] Memory required for data: 527993088
I0725 21:01:02.638293 22245 layer_factory.hpp:77] Creating layer pool2
I0725 21:01:02.638300 22245 net.cpp:91] Creating Layer pool2
I0725 21:01:02.638303 22245 net.cpp:425] pool2 <- conv2
I0725 21:01:02.638309 22245 net.cpp:399] pool2 -> pool2
I0725 21:01:02.638346 22245 net.cpp:141] Setting up pool2
I0725 21:01:02.638353 22245 net.cpp:148] Top shape: 64 50 29 29 (2691200)
I0725 21:01:02.638356 22245 net.cpp:156] Memory required for data: 538757888
I0725 21:01:02.638360 22245 layer_factory.hpp:77] Creating layer ip1
I0725 21:01:02.638367 22245 net.cpp:91] Creating Layer ip1
I0725 21:01:02.638370 22245 net.cpp:425] ip1 <- pool2
I0725 21:01:02.638375 22245 net.cpp:399] ip1 -> ip1
I0725 21:01:02.786628 22245 net.cpp:141] Setting up ip1
I0725 21:01:02.786677 22245 net.cpp:148] Top shape: 64 500 (32000)
I0725 21:01:02.786682 22245 net.cpp:156] Memory required for data: 538885888
I0725 21:01:02.786697 22245 layer_factory.hpp:77] Creating layer relu1
I0725 21:01:02.786720 22245 net.cpp:91] Creating Layer relu1
I0725 21:01:02.786725 22245 net.cpp:425] relu1 <- ip1
I0725 21:01:02.786731 22245 net.cpp:386] relu1 -> ip1 (in-place)
I0725 21:01:02.787093 22245 net.cpp:141] Setting up relu1
I0725 21:01:02.787118 22245 net.cpp:148] Top shape: 64 500 (32000)
I0725 21:01:02.787122 22245 net.cpp:156] Memory required for data: 539013888
I0725 21:01:02.787137 22245 layer_factory.hpp:77] Creating layer ip2
I0725 21:01:02.787147 22245 net.cpp:91] Creating Layer ip2
I0725 21:01:02.787150 22245 net.cpp:425] ip2 <- ip1
I0725 21:01:02.787158 22245 net.cpp:399] ip2 -> ip2
I0725 21:01:02.787324 22245 net.cpp:141] Setting up ip2
I0725 21:01:02.787333 22245 net.cpp:148] Top shape: 64 2 (128)
I0725 21:01:02.787346 22245 net.cpp:156] Memory required for data: 539014400
I0725 21:01:02.787353 22245 layer_factory.hpp:77] Creating layer loss
I0725 21:01:02.787365 22245 net.cpp:91] Creating Layer loss
I0725 21:01:02.787369 22245 net.cpp:425] loss <- ip2
I0725 21:01:02.787374 22245 net.cpp:425] loss <- label
I0725 21:01:02.787381 22245 net.cpp:399] loss -> loss
I0725 21:01:02.787410 22245 layer_factory.hpp:77] Creating layer loss
…
I0725 21:01:02.788094 22245 net.cpp:313] The NetState phase (1) differed from the phase (0) specified by a rule in layer mnist
I0725 21:01:02.788173 22245 net.cpp:49] Initializing net from parameters: 
name: "LeNet"
state {
  phase: TEST
}
layer {
  name: "mnist"
  type: "Data"
  top: "data"
  top: "label"
  include {
    phase: TEST
  }
  transform_param {
    scale: 0.00390625
    mean_file: "data/person_only_lmdb/person_vs_background_vs_random_color_mean.binaryproto"
  }
  data_param {
    source: "data/person_only_lmdb/person_vs_background_vs_random_test_lmdb"
    batch_size: 100
    backend: LMDB
  }
}
layer {
  name: "conv1"
  type: "Convolution"
  bottom: "data"
  top: "conv1"
  param {
    lr_mult: 1
  }
  param {
    lr_mult: 2
  }
  convolution_param {
    num_output: 96
    kernel_size: 5
    stride: 1
    weight_filler {
      type: "xavier"
    }
    bias_filler {
      type: "constant"
    }
  }
}
layer {
  name: "pool1"
  type: "Pooling"
  bottom: "conv1"
  top: "pool1"
  pooling_param {
    pool: MAX
    kernel_size: 2
    stride: 2
  }
}
layer {
  name: "conv2"
  type: "Convolution"
  bottom: "pool1"
  top: "conv2"
  param {
    lr_mult: 1
  }
  param {
    lr_mult: 2
  }
  convolution_param {
    num_output: 50
    kernel_size: 5
    stride: 1
    weight_filler {
      type: "xavier"
    }
    bias_filler {
      type: "constant"
    }
  }
}
layer {
  name: "pool2"
  type: "Pooling"
  bottom: "conv2"
  top: "pool2"
  pooling_param {
    pool: MAX
    kernel_size: 2
    stride: 2
  }
}
layer {
  name: "ip1"
  type: "InnerProduct"
  bottom: "pool2"
  top: "ip1"
  param {
    lr_mult: 1
  }
  param {
    lr_mult: 2
  }
  inner_product_param {
    num_output: 500
    weight_filler {
      type: "xavier"
    }
    bias_filler {
      type: "constant"
    }
  }
}
layer {
  name: "relu1"
  type: "ReLU"
  bottom: "ip1"
  top: "ip1"
}
layer {
  name: "ip2"
  type: "InnerProduct"
  bottom: "ip1"
  top: "ip2"
  param {
    lr_mult: 1
  }
  param {
    lr_mult: 2
  }
  inner_product_param {
    num_output: 2
    weight_filler {
      type: "xavier"
    }
    bias_filler {
      type: "constant"
    }
  }
}
layer {
  name: "accuracy"
  type: "Accuracy"
  bottom: "ip2"
  bottom: "label"
  top: "accuracy"
  include {
    phase: TEST
  }
}
layer {
  name: "loss"
  type: "SoftmaxWithLoss"
  bottom: "ip2"
  bottom: "label"
  top: "loss"
}
I0725 21:01:02.788233 22245 layer_factory.hpp:77] Creating layer mnist
I0725 21:01:02.788334 22245 net.cpp:91] Creating Layer mnist
I0725 21:01:02.788342 22245 net.cpp:399] mnist -> data
I0725 21:01:02.788350 22245 net.cpp:399] mnist -> label
I0725 21:01:02.788357 22245 data_transformer.cpp:25] Loading mean file from: data/person_only_lmdb/person_vs_background_vs_random_color_mean.binaryproto
I0725 21:01:02.789520 22254 db_lmdb.cpp:35] Opened lmdb data/person_only_lmdb/person_vs_background_vs_random_test_lmdb
I0725 21:01:02.789726 22245 data_layer.cpp:41] output data size: 100,3,128,128
I0725 21:01:02.822692 22245 net.cpp:141] Setting up mnist
I0725 21:01:02.822743 22245 net.cpp:148] Top shape: 100 3 128 128 (4915200)
I0725 21:01:02.822749 22245 net.cpp:148] Top shape: 100 (100)
I0725 21:01:02.822752 22245 net.cpp:156] Memory required for data: 19661200
I0725 21:01:02.822760 22245 layer_factory.hpp:77] Creating layer label_mnist_1_split
I0725 21:01:02.822774 22245 net.cpp:91] Creating Layer label_mnist_1_split
I0725 21:01:02.822778 22245 net.cpp:425] label_mnist_1_split <- label
I0725 21:01:02.822785 22245 net.cpp:399] label_mnist_1_split -> label_mnist_1_split_0
I0725 21:01:02.822795 22245 net.cpp:399] label_mnist_1_split -> label_mnist_1_split_1
I0725 21:01:02.822859 22245 net.cpp:141] Setting up label_mnist_1_split
I0725 21:01:02.822866 22245 net.cpp:148] Top shape: 100 (100)
I0725 21:01:02.822870 22245 net.cpp:148] Top shape: 100 (100)
I0725 21:01:02.822872 22245 net.cpp:156] Memory required for data: 19662000
I0725 21:01:02.822875 22245 layer_factory.hpp:77] Creating layer conv1
I0725 21:01:02.822890 22245 net.cpp:91] Creating Layer conv1
I0725 21:01:02.822893 22245 net.cpp:425] conv1 <- data
I0725 21:01:02.822898 22245 net.cpp:399] conv1 -> conv1
I0725 21:01:02.824373 22245 net.cpp:141] Setting up conv1
I0725 21:01:02.824398 22245 net.cpp:148] Top shape: 100 96 124 124 (147609600)
I0725 21:01:02.824403 22245 net.cpp:156] Memory required for data: 610100400
I0725 21:01:02.824414 22245 layer_factory.hpp:77] Creating layer pool1
I0725 21:01:02.824422 22245 net.cpp:91] Creating Layer pool1
I0725 21:01:02.824425 22245 net.cpp:425] pool1 <- conv1
I0725 21:01:02.824430 22245 net.cpp:399] pool1 -> pool1
I0725 21:01:02.824481 22245 net.cpp:141] Setting up pool1
I0725 21:01:02.824487 22245 net.cpp:148] Top shape: 100 96 62 62 (36902400)
I0725 21:01:02.824491 22245 net.cpp:156] Memory required for data: 757710000
I0725 21:01:02.824493 22245 layer_factory.hpp:77] Creating layer conv2
I0725 21:01:02.824502 22245 net.cpp:91] Creating Layer conv2
I0725 21:01:02.824508 22245 net.cpp:425] conv2 <- pool1
I0725 21:01:02.824527 22245 net.cpp:399] conv2 -> conv2
I0725 21:01:02.828678 22245 net.cpp:141] Setting up conv2
I0725 21:01:02.828708 22245 net.cpp:148] Top shape: 100 50 58 58 (16820000)
I0725 21:01:02.828711 22245 net.cpp:156] Memory required for data: 824990000
I0725 21:01:02.828721 22245 layer_factory.hpp:77] Creating layer pool2
I0725 21:01:02.828728 22245 net.cpp:91] Creating Layer pool2
I0725 21:01:02.828732 22245 net.cpp:425] pool2 <- conv2
I0725 21:01:02.828737 22245 net.cpp:399] pool2 -> pool2
I0725 21:01:02.828784 22245 net.cpp:141] Setting up pool2
I0725 21:01:02.828793 22245 net.cpp:148] Top shape: 100 50 29 29 (4205000)
I0725 21:01:02.828795 22245 net.cpp:156] Memory required for data: 841810000
I0725 21:01:02.828799 22245 layer_factory.hpp:77] Creating layer ip1
I0725 21:01:02.828805 22245 net.cpp:91] Creating Layer ip1
I0725 21:01:02.828809 22245 net.cpp:425] ip1 <- pool2
I0725 21:01:02.828814 22245 net.cpp:399] ip1 -> ip1
I0725 21:01:02.976709 22245 net.cpp:141] Setting up ip1
I0725 21:01:02.976761 22245 net.cpp:148] Top shape: 100 500 (50000)
I0725 21:01:02.976765 22245 net.cpp:156] Memory required for data: 842010000
I0725 21:01:02.976779 22245 layer_factory.hpp:77] Creating layer relu1
I0725 21:01:02.976791 22245 net.cpp:91] Creating Layer relu1
I0725 21:01:02.976795 22245 net.cpp:425] relu1 <- ip1
I0725 21:01:02.976801 22245 net.cpp:386] relu1 -> ip1 (in-place)
I0725 21:01:02.977227 22245 net.cpp:141] Setting up relu1
I0725 21:01:02.977250 22245 net.cpp:148] Top shape: 100 500 (50000)
I0725 21:01:02.977254 22245 net.cpp:156] Memory required for data: 842210000
I0725 21:01:02.977257 22245 layer_factory.hpp:77] Creating layer ip2
I0725 21:01:02.977267 22245 net.cpp:91] Creating Layer ip2
I0725 21:01:02.977270 22245 net.cpp:425] ip2 <- ip1
I0725 21:01:02.977277 22245 net.cpp:399] ip2 -> ip2
I0725 21:01:02.977386 22245 net.cpp:141] Setting up ip2
I0725 21:01:02.977396 22245 net.cpp:148] Top shape: 100 2 (200)
I0725 21:01:02.977398 22245 net.cpp:156] Memory required for data: 842210800
I0725 21:01:02.977404 22245 layer_factory.hpp:77] Creating layer ip2_ip2_0_split
I0725 21:01:02.977409 22245 net.cpp:91] Creating Layer ip2_ip2_0_split
I0725 21:01:02.977412 22245 net.cpp:425] ip2_ip2_0_split <- ip2
I0725 21:01:02.977417 22245 net.cpp:399] ip2_ip2_0_split -> ip2_ip2_0_split_0
I0725 21:01:02.977422 22245 net.cpp:399] ip2_ip2_0_split -> ip2_ip2_0_split_1
I0725 21:01:02.977454 22245 net.cpp:141] Setting up ip2_ip2_0_split
I0725 21:01:02.977458 22245 net.cpp:148] Top shape: 100 2 (200)
I0725 21:01:02.977473 22245 net.cpp:148] Top shape: 100 2 (200)
I0725 21:01:02.977475 22245 net.cpp:156] Memory required for data: 842212400
I0725 21:01:02.977478 22245 layer_factory.hpp:77] Creating layer accuracy
I0725 21:01:02.977495 22245 net.cpp:91] Creating Layer accuracy
I0725 21:01:02.977499 22245 net.cpp:425] accuracy <- ip2_ip2_0_split_0
I0725 21:01:02.977502 22245 net.cpp:425] accuracy <- label_mnist_1_split_0
I0725 21:01:02.977506 22245 net.cpp:399] accuracy -> accuracy
…
