…
I0825 13:11:58.374830 26644 net.cpp:322] The NetState phase (0) differed from the phase (1) specified by a rule in layer accuracy
I0825 13:11:58.374897 26644 net.cpp:58] Initializing net from parameters: 
name: "LeNet"
state {
  phase: TRAIN
}
layer {
  name: "mnist"
  type: "Data"
  top: "data"
  top: "label"
  include {
    phase: TRAIN
  }
  transform_param {
    scale: 0.00390625
    mean_file: "data/person_only_lmdb/person_vs_background_vs_random_color_mean.binaryproto"
  }
  data_param {
    source: "data/person_only_lmdb/person_vs_background_vs_random_train_lmdb"
    batch_size: 128
    backend: LMDB
  }
}
layer {
  name: "conv1"
  type: "Convolution"
  bottom: "data"
  top: "conv1"
  param {
    lr_mult: 1
  }
  param {
    lr_mult: 2
  }
  convolution_param {
    num_output: 96
    kernel_size: 5
    stride: 1
    weight_filler {
      type: "xavier"
    }
    bias_filler {
      type: "constant"
    }
  }
}
layer {
  name: "pool1"
  type: "Pooling"
  bottom: "conv1"
  top: "pool1"
  pooling_param {
    pool: MAX
    kernel_size: 2
    stride: 2
  }
}
layer {
  name: "conv2"
  type: "Convolution"
  bottom: "pool1"
  top: "conv2"
  param {
    lr_mult: 1
  }
  param {
    lr_mult: 2
  }
  convolution_param {
    num_output: 50
    kernel_size: 5
    stride: 1
    weight_filler {
      type: "xavier"
    }
    bias_filler {
      type: "constant"
    }
  }
}
layer {
  name: "pool2"
  type: "Pooling"
  bottom: "conv2"
  top: "pool2"
  pooling_param {
    pool: MAX
    kernel_size: 2
    stride: 2
  }
}
layer {
  name: "ip1"
  type: "InnerProduct"
  bottom: "pool2"
  top: "ip1"
  param {
    lr_mult: 1
  }
  param {
    lr_mult: 2
  }
  inner_product_param {
    num_output: 500
    weight_filler {
      type: "xavier"
    }
    bias_filler {
      type: "constant"
    }
  }
}
layer {
  name: "relu1"
  type: "ReLU"
  bottom: "ip1"
  top: "ip1"
}
layer {
  name: "ip2"
  type: "InnerProduct"
  bottom: "ip1"
  top: "ip2"
  param {
    lr_mult: 1
  }
  param {
    lr_mult: 2
  }
  inner_product_param {
    num_output: 3
    weight_filler {
      type: "xavier"
    }
    bias_filler {
      type: "constant"
    }
  }
}
layer {
  name: "loss"
  type: "SoftmaxWithLoss"
  bottom: "ip2"
  bottom: "label"
  top: "loss"
}
I0825 13:11:58.374939 26644 layer_factory.hpp:77] Creating layer mnist
I0825 13:11:58.375443 26644 net.cpp:100] Creating Layer mnist
I0825 13:11:58.375454 26644 net.cpp:408] mnist -> data
I0825 13:11:58.375474 26644 net.cpp:408] mnist -> label
I0825 13:11:58.375490 26644 data_transformer.cpp:25] Loading mean file from: data/person_only_lmdb/person_vs_background_vs_random_color_mean.binaryproto
I0825 13:11:58.376911 26651 db_lmdb.cpp:35] Opened lmdb data/person_only_lmdb/person_vs_background_vs_random_train_lmdb
I0825 13:11:58.416088 26644 data_layer.cpp:41] output data size: 128,3,128,128
I0825 13:11:58.486902 26644 net.cpp:150] Setting up mnist
I0825 13:11:58.486938 26644 net.cpp:157] Top shape: 128 3 128 128 (6291456)
I0825 13:11:58.486944 26644 net.cpp:157] Top shape: 128 (128)
I0825 13:11:58.486946 26644 net.cpp:165] Memory required for data: 25166336
I0825 13:11:58.486953 26644 layer_factory.hpp:77] Creating layer conv1
I0825 13:11:58.486977 26644 net.cpp:100] Creating Layer conv1
I0825 13:11:58.486984 26644 net.cpp:434] conv1 <- data
I0825 13:11:58.486994 26644 net.cpp:408] conv1 -> conv1
I0825 13:11:58.720654 26644 net.cpp:150] Setting up conv1
I0825 13:11:58.720682 26644 net.cpp:157] Top shape: 128 96 124 124 (188940288)
I0825 13:11:58.720685 26644 net.cpp:165] Memory required for data: 780927488
I0825 13:11:58.720700 26644 layer_factory.hpp:77] Creating layer pool1
I0825 13:11:58.720724 26644 net.cpp:100] Creating Layer pool1
I0825 13:11:58.720728 26644 net.cpp:434] pool1 <- conv1
I0825 13:11:58.720746 26644 net.cpp:408] pool1 -> pool1
I0825 13:11:58.720819 26644 net.cpp:150] Setting up pool1
I0825 13:11:58.720827 26644 net.cpp:157] Top shape: 128 96 62 62 (47235072)
I0825 13:11:58.720830 26644 net.cpp:165] Memory required for data: 969867776
I0825 13:11:58.720832 26644 layer_factory.hpp:77] Creating layer conv2
I0825 13:11:58.720844 26644 net.cpp:100] Creating Layer conv2
I0825 13:11:58.720846 26644 net.cpp:434] conv2 <- pool1
I0825 13:11:58.720851 26644 net.cpp:408] conv2 -> conv2
I0825 13:11:58.725019 26644 net.cpp:150] Setting up conv2
I0825 13:11:58.725033 26644 net.cpp:157] Top shape: 128 50 58 58 (21529600)
I0825 13:11:58.725035 26644 net.cpp:165] Memory required for data: 1055986176
I0825 13:11:58.725042 26644 layer_factory.hpp:77] Creating layer pool2
I0825 13:11:58.725050 26644 net.cpp:100] Creating Layer pool2
I0825 13:11:58.725052 26644 net.cpp:434] pool2 <- conv2
I0825 13:11:58.725056 26644 net.cpp:408] pool2 -> pool2
I0825 13:11:58.725124 26644 net.cpp:150] Setting up pool2
I0825 13:11:58.725132 26644 net.cpp:157] Top shape: 128 50 29 29 (5382400)
I0825 13:11:58.725145 26644 net.cpp:165] Memory required for data: 1077515776
I0825 13:11:58.725147 26644 layer_factory.hpp:77] Creating layer ip1
I0825 13:11:58.725157 26644 net.cpp:100] Creating Layer ip1
I0825 13:11:58.725158 26644 net.cpp:434] ip1 <- pool2
I0825 13:11:58.725162 26644 net.cpp:408] ip1 -> ip1
I0825 13:11:58.871340 26644 net.cpp:150] Setting up ip1
I0825 13:11:58.871366 26644 net.cpp:157] Top shape: 128 500 (64000)
I0825 13:11:58.871368 26644 net.cpp:165] Memory required for data: 1077771776
I0825 13:11:58.871383 26644 layer_factory.hpp:77] Creating layer relu1
I0825 13:11:58.871394 26644 net.cpp:100] Creating Layer relu1
I0825 13:11:58.871397 26644 net.cpp:434] relu1 <- ip1
I0825 13:11:58.871404 26644 net.cpp:395] relu1 -> ip1 (in-place)
I0825 13:11:58.871670 26644 net.cpp:150] Setting up relu1
I0825 13:11:58.871680 26644 net.cpp:157] Top shape: 128 500 (64000)
I0825 13:11:58.871681 26644 net.cpp:165] Memory required for data: 1078027776
I0825 13:11:58.871685 26644 layer_factory.hpp:77] Creating layer ip2
I0825 13:11:58.871695 26644 net.cpp:100] Creating Layer ip2
I0825 13:11:58.871697 26644 net.cpp:434] ip2 <- ip1
I0825 13:11:58.871702 26644 net.cpp:408] ip2 -> ip2
I0825 13:11:58.871886 26644 net.cpp:150] Setting up ip2
I0825 13:11:58.871894 26644 net.cpp:157] Top shape: 128 3 (384)
I0825 13:11:58.871896 26644 net.cpp:165] Memory required for data: 1078029312
I0825 13:11:58.871901 26644 layer_factory.hpp:77] Creating layer loss
I0825 13:11:58.871909 26644 net.cpp:100] Creating Layer loss
I0825 13:11:58.871912 26644 net.cpp:434] loss <- ip2
I0825 13:11:58.871915 26644 net.cpp:434] loss <- label
I0825 13:11:58.871919 26644 net.cpp:408] loss -> loss
I0825 13:11:58.871932 26644 layer_factory.hpp:77] Creating layer loss
…
I0825 13:11:58.872900 26644 net.cpp:322] The NetState phase (1) differed from the phase (0) specified by a rule in layer mnist
I0825 13:11:58.872983 26644 net.cpp:58] Initializing net from parameters: 
name: "LeNet"
state {
  phase: TEST
}
layer {
  name: "mnist"
  type: "Data"
  top: "data"
  top: "label"
  include {
    phase: TEST
  }
  transform_param {
    scale: 0.00390625
    mean_file: "data/person_only_lmdb/person_vs_background_vs_random_color_mean.binaryproto"
  }
  data_param {
    source: "data/person_only_lmdb/person_vs_background_vs_random_test_lmdb"
    batch_size: 100
    backend: LMDB
  }
}
layer {
  name: "conv1"
  type: "Convolution"
  bottom: "data"
  top: "conv1"
  param {
    lr_mult: 1
  }
  param {
    lr_mult: 2
  }
  convolution_param {
    num_output: 96
    kernel_size: 5
    stride: 1
    weight_filler {
      type: "xavier"
    }
    bias_filler {
      type: "constant"
    }
  }
}
layer {
  name: "pool1"
  type: "Pooling"
  bottom: "conv1"
  top: "pool1"
  pooling_param {
    pool: MAX
    kernel_size: 2
    stride: 2
  }
}
layer {
  name: "conv2"
  type: "Convolution"
  bottom: "pool1"
  top: "conv2"
  param {
    lr_mult: 1
  }
  param {
    lr_mult: 2
  }
  convolution_param {
    num_output: 50
    kernel_size: 5
    stride: 1
    weight_filler {
      type: "xavier"
    }
    bias_filler {
      type: "constant"
    }
  }
}
layer {
  name: "pool2"
  type: "Pooling"
  bottom: "conv2"
  top: "pool2"
  pooling_param {
    pool: MAX
    kernel_size: 2
    stride: 2
  }
}
layer {
  name: "ip1"
  type: "InnerProduct"
  bottom: "pool2"
  top: "ip1"
  param {
    lr_mult: 1
  }
  param {
    lr_mult: 2
  }
  inner_product_param {
    num_output: 500
    weight_filler {
      type: "xavier"
    }
    bias_filler {
      type: "constant"
    }
  }
}
layer {
  name: "relu1"
  type: "ReLU"
  bottom: "ip1"
  top: "ip1"
}
layer {
  name: "ip2"
  type: "InnerProduct"
  bottom: "ip1"
  top: "ip2"
  param {
    lr_mult: 1
  }
  param {
    lr_mult: 2
  }
  inner_product_param {
    num_output: 3
    weight_filler {
      type: "xavier"
    }
    bias_filler {
      type: "constant"
    }
  }
}
layer {
  name: "accuracy"
  type: "Accuracy"
  bottom: "ip2"
  bottom: "label"
  top: "accuracy"
  include {
    phase: TEST
  }
}
layer {
  name: "loss"
  type: "SoftmaxWithLoss"
  bottom: "ip2"
  bottom: "label"
  top: "loss"
}
I0825 13:11:58.873049 26644 layer_factory.hpp:77] Creating layer mnist
I0825 13:11:58.873175 26644 net.cpp:100] Creating Layer mnist
I0825 13:11:58.873185 26644 net.cpp:408] mnist -> data
I0825 13:11:58.873193 26644 net.cpp:408] mnist -> label
I0825 13:11:58.873200 26644 data_transformer.cpp:25] Loading mean file from: data/person_only_lmdb/person_vs_background_vs_random_color_mean.binaryproto
I0825 13:11:58.874819 26653 db_lmdb.cpp:35] Opened lmdb data/person_only_lmdb/person_vs_background_vs_random_test_lmdb
I0825 13:11:58.875219 26644 data_layer.cpp:41] output data size: 100,3,128,128
I0825 13:11:58.936477 26644 net.cpp:150] Setting up mnist
I0825 13:11:58.936511 26644 net.cpp:157] Top shape: 100 3 128 128 (4915200)
I0825 13:11:58.936520 26644 net.cpp:157] Top shape: 100 (100)
I0825 13:11:58.936524 26644 net.cpp:165] Memory required for data: 19661200
I0825 13:11:58.936532 26644 layer_factory.hpp:77] Creating layer label_mnist_1_split
I0825 13:11:58.936552 26644 net.cpp:100] Creating Layer label_mnist_1_split
I0825 13:11:58.936558 26644 net.cpp:434] label_mnist_1_split <- label
I0825 13:11:58.936570 26644 net.cpp:408] label_mnist_1_split -> label_mnist_1_split_0
I0825 13:11:58.936586 26644 net.cpp:408] label_mnist_1_split -> label_mnist_1_split_1
I0825 13:11:58.936792 26644 net.cpp:150] Setting up label_mnist_1_split
I0825 13:11:58.936807 26644 net.cpp:157] Top shape: 100 (100)
I0825 13:11:58.936813 26644 net.cpp:157] Top shape: 100 (100)
I0825 13:11:58.936817 26644 net.cpp:165] Memory required for data: 19662000
I0825 13:11:58.936822 26644 layer_factory.hpp:77] Creating layer conv1
I0825 13:11:58.936843 26644 net.cpp:100] Creating Layer conv1
I0825 13:11:58.936851 26644 net.cpp:434] conv1 <- data
I0825 13:11:58.936861 26644 net.cpp:408] conv1 -> conv1
I0825 13:11:58.940579 26644 net.cpp:150] Setting up conv1
I0825 13:11:58.940608 26644 net.cpp:157] Top shape: 100 96 124 124 (147609600)
I0825 13:11:58.940613 26644 net.cpp:165] Memory required for data: 610100400
I0825 13:11:58.940631 26644 layer_factory.hpp:77] Creating layer pool1
I0825 13:11:58.940644 26644 net.cpp:100] Creating Layer pool1
I0825 13:11:58.940650 26644 net.cpp:434] pool1 <- conv1
I0825 13:11:58.940660 26644 net.cpp:408] pool1 -> pool1
I0825 13:11:58.940769 26644 net.cpp:150] Setting up pool1
I0825 13:11:58.940783 26644 net.cpp:157] Top shape: 100 96 62 62 (36902400)
I0825 13:11:58.940788 26644 net.cpp:165] Memory required for data: 757710000
I0825 13:11:58.940794 26644 layer_factory.hpp:77] Creating layer conv2
I0825 13:11:58.940812 26644 net.cpp:100] Creating Layer conv2
I0825 13:11:58.940820 26644 net.cpp:434] conv2 <- pool1
I0825 13:11:58.940831 26644 net.cpp:408] conv2 -> conv2
I0825 13:11:58.944450 26644 net.cpp:150] Setting up conv2
I0825 13:11:58.944474 26644 net.cpp:157] Top shape: 100 50 58 58 (16820000)
I0825 13:11:58.944480 26644 net.cpp:165] Memory required for data: 824990000
I0825 13:11:58.944495 26644 layer_factory.hpp:77] Creating layer pool2
I0825 13:11:58.944507 26644 net.cpp:100] Creating Layer pool2
I0825 13:11:58.944514 26644 net.cpp:434] pool2 <- conv2
I0825 13:11:58.944525 26644 net.cpp:408] pool2 -> pool2
I0825 13:11:58.944648 26644 net.cpp:150] Setting up pool2
I0825 13:11:58.944660 26644 net.cpp:157] Top shape: 100 50 29 29 (4205000)
I0825 13:11:58.944665 26644 net.cpp:165] Memory required for data: 841810000
I0825 13:11:58.944670 26644 layer_factory.hpp:77] Creating layer ip1
I0825 13:11:58.944684 26644 net.cpp:100] Creating Layer ip1
I0825 13:11:58.944690 26644 net.cpp:434] ip1 <- pool2
I0825 13:11:58.944703 26644 net.cpp:408] ip1 -> ip1
I0825 13:11:59.159600 26644 net.cpp:150] Setting up ip1
I0825 13:11:59.159641 26644 net.cpp:157] Top shape: 100 500 (50000)
I0825 13:11:59.159644 26644 net.cpp:165] Memory required for data: 842010000
I0825 13:11:59.159662 26644 layer_factory.hpp:77] Creating layer relu1
I0825 13:11:59.159673 26644 net.cpp:100] Creating Layer relu1
I0825 13:11:59.159678 26644 net.cpp:434] relu1 <- ip1
I0825 13:11:59.159687 26644 net.cpp:395] relu1 -> ip1 (in-place)
I0825 13:11:59.163566 26644 net.cpp:150] Setting up relu1
I0825 13:11:59.163583 26644 net.cpp:157] Top shape: 100 500 (50000)
I0825 13:11:59.163586 26644 net.cpp:165] Memory required for data: 842210000
I0825 13:11:59.163589 26644 layer_factory.hpp:77] Creating layer ip2
I0825 13:11:59.163604 26644 net.cpp:100] Creating Layer ip2
I0825 13:11:59.163606 26644 net.cpp:434] ip2 <- ip1
I0825 13:11:59.163614 26644 net.cpp:408] ip2 -> ip2
I0825 13:11:59.163858 26644 net.cpp:150] Setting up ip2
I0825 13:11:59.163867 26644 net.cpp:157] Top shape: 100 3 (300)
I0825 13:11:59.163871 26644 net.cpp:165] Memory required for data: 842211200
I0825 13:11:59.163877 26644 layer_factory.hpp:77] Creating layer ip2_ip2_0_split
I0825 13:11:59.163887 26644 net.cpp:100] Creating Layer ip2_ip2_0_split
I0825 13:11:59.163889 26644 net.cpp:434] ip2_ip2_0_split <- ip2
I0825 13:11:59.163897 26644 net.cpp:408] ip2_ip2_0_split -> ip2_ip2_0_split_0
I0825 13:11:59.163904 26644 net.cpp:408] ip2_ip2_0_split -> ip2_ip2_0_split_1
I0825 13:11:59.163964 26644 net.cpp:150] Setting up ip2_ip2_0_split
I0825 13:11:59.163971 26644 net.cpp:157] Top shape: 100 3 (300)
I0825 13:11:59.163975 26644 net.cpp:157] Top shape: 100 3 (300)
I0825 13:11:59.163977 26644 net.cpp:165] Memory required for data: 842213600
I0825 13:11:59.163980 26644 layer_factory.hpp:77] Creating layer accuracy
I0825 13:11:59.163995 26644 net.cpp:100] Creating Layer accuracy
I0825 13:11:59.164000 26644 net.cpp:434] accuracy <- ip2_ip2_0_split_0
I0825 13:11:59.164003 26644 net.cpp:434] accuracy <- label_mnist_1_split_0
I0825 13:11:59.164010 26644 net.cpp:408] accuracy -> accuracy
…
