…
I0725 21:38:40.217298 22939 net.cpp:313] The NetState phase (0) differed from the phase (1) specified by a rule in layer accuracy
I0725 21:38:40.217353 22939 net.cpp:49] Initializing net from parameters: 
name: "LeNet"
state {
  phase: TRAIN
}
layer {
  name: "mnist"
  type: "Data"
  top: "data"
  top: "label"
  include {
    phase: TRAIN
  }
  transform_param {
    scale: 0.00390625
    mean_file: "data/person_only_lmdb/person_vs_background_vs_random_color_mean.binaryproto"
  }
  data_param {
    source: "data/person_only_lmdb/person_vs_background_vs_random_train_lmdb"
    batch_size: 64
    backend: LMDB
  }
}
layer {
  name: "conv1"
  type: "Convolution"
  bottom: "data"
  top: "conv1"
  param {
    lr_mult: 1
  }
  param {
    lr_mult: 2
  }
  convolution_param {
    num_output: 96
    kernel_size: 5
    stride: 1
    weight_filler {
      type: "xavier"
    }
    bias_filler {
      type: "constant"
    }
  }
}
layer {
  name: "pool1"
  type: "Pooling"
  bottom: "conv1"
  top: "pool1"
  pooling_param {
    pool: MAX
    kernel_size: 2
    stride: 2
  }
}
layer {
  name: "conv2"
  type: "Convolution"
  bottom: "pool1"
  top: "conv2"
  param {
    lr_mult: 1
  }
  param {
    lr_mult: 2
  }
  convolution_param {
    num_output: 50
    kernel_size: 5
    stride: 1
    weight_filler {
      type: "xavier"
    }
    bias_filler {
      type: "constant"
    }
  }
}
layer {
  name: "pool2"
  type: "Pooling"
  bottom: "conv2"
  top: "pool2"
  pooling_param {
    pool: MAX
    kernel_size: 2
    stride: 2
  }
}
layer {
  name: "ip1"
  type: "InnerProduct"
  bottom: "pool2"
  top: "ip1"
  param {
    lr_mult: 1
  }
  param {
    lr_mult: 2
  }
  inner_product_param {
    num_output: 500
    weight_filler {
      type: "xavier"
    }
    bias_filler {
      type: "constant"
    }
  }
}
layer {
  name: "relu1"
  type: "ReLU"
  bottom: "ip1"
  top: "ip1"
}
layer {
  name: "ip2"
  type: "InnerProduct"
  bottom: "ip1"
  top: "ip2"
  param {
    lr_mult: 1
  }
  param {
    lr_mult: 2
  }
  inner_product_param {
    num_output: 3
    weight_filler {
      type: "xavier"
    }
    bias_filler {
      type: "constant"
    }
  }
}
layer {
  name: "loss"
  type: "SoftmaxWithLoss"
  bottom: "ip2"
  bottom: "label"
  top: "loss"
}
I0725 21:38:40.217391 22939 layer_factory.hpp:77] Creating layer mnist
I0725 21:38:40.218103 22939 net.cpp:91] Creating Layer mnist
I0725 21:38:40.218116 22939 net.cpp:399] mnist -> data
I0725 21:38:40.218137 22939 net.cpp:399] mnist -> label
I0725 21:38:40.218150 22939 data_transformer.cpp:25] Loading mean file from: data/person_only_lmdb/person_vs_background_vs_random_color_mean.binaryproto
I0725 21:38:40.219588 22946 db_lmdb.cpp:35] Opened lmdb data/person_only_lmdb/person_vs_background_vs_random_train_lmdb
I0725 21:38:54.950357 22939 data_layer.cpp:41] output data size: 64,3,128,128
I0725 21:38:54.970520 22939 net.cpp:141] Setting up mnist
I0725 21:38:54.970572 22939 net.cpp:148] Top shape: 64 3 128 128 (3145728)
I0725 21:38:54.970578 22939 net.cpp:148] Top shape: 64 (64)
I0725 21:38:54.970582 22939 net.cpp:156] Memory required for data: 12583168
I0725 21:38:54.970590 22939 layer_factory.hpp:77] Creating layer conv1
I0725 21:38:54.970644 22939 net.cpp:91] Creating Layer conv1
I0725 21:38:54.970654 22939 net.cpp:425] conv1 <- data
I0725 21:38:54.970665 22939 net.cpp:399] conv1 -> conv1
I0725 21:38:55.085327 22939 net.cpp:141] Setting up conv1
I0725 21:38:55.085361 22939 net.cpp:148] Top shape: 64 96 124 124 (94470144)
I0725 21:38:55.085366 22939 net.cpp:156] Memory required for data: 390463744
I0725 21:38:55.085382 22939 layer_factory.hpp:77] Creating layer pool1
I0725 21:38:55.085394 22939 net.cpp:91] Creating Layer pool1
I0725 21:38:55.085398 22939 net.cpp:425] pool1 <- conv1
I0725 21:38:55.085403 22939 net.cpp:399] pool1 -> pool1
I0725 21:38:55.085448 22939 net.cpp:141] Setting up pool1
I0725 21:38:55.085459 22939 net.cpp:148] Top shape: 64 96 62 62 (23617536)
I0725 21:38:55.085464 22939 net.cpp:156] Memory required for data: 484933888
I0725 21:38:55.085467 22939 layer_factory.hpp:77] Creating layer conv2
I0725 21:38:55.085482 22939 net.cpp:91] Creating Layer conv2
I0725 21:38:55.085489 22939 net.cpp:425] conv2 <- pool1
I0725 21:38:55.085508 22939 net.cpp:399] conv2 -> conv2
I0725 21:38:55.087967 22939 net.cpp:141] Setting up conv2
I0725 21:38:55.087981 22939 net.cpp:148] Top shape: 64 50 58 58 (10764800)
I0725 21:38:55.087985 22939 net.cpp:156] Memory required for data: 527993088
I0725 21:38:55.087992 22939 layer_factory.hpp:77] Creating layer pool2
I0725 21:38:55.087999 22939 net.cpp:91] Creating Layer pool2
I0725 21:38:55.088002 22939 net.cpp:425] pool2 <- conv2
I0725 21:38:55.088006 22939 net.cpp:399] pool2 -> pool2
I0725 21:38:55.088040 22939 net.cpp:141] Setting up pool2
I0725 21:38:55.088049 22939 net.cpp:148] Top shape: 64 50 29 29 (2691200)
I0725 21:38:55.088064 22939 net.cpp:156] Memory required for data: 538757888
I0725 21:38:55.088069 22939 layer_factory.hpp:77] Creating layer ip1
I0725 21:38:55.088079 22939 net.cpp:91] Creating Layer ip1
I0725 21:38:55.088084 22939 net.cpp:425] ip1 <- pool2
I0725 21:38:55.088093 22939 net.cpp:399] ip1 -> ip1
I0725 21:38:55.235783 22939 net.cpp:141] Setting up ip1
I0725 21:38:55.235822 22939 net.cpp:148] Top shape: 64 500 (32000)
I0725 21:38:55.235826 22939 net.cpp:156] Memory required for data: 538885888
I0725 21:38:55.235841 22939 layer_factory.hpp:77] Creating layer relu1
I0725 21:38:55.235864 22939 net.cpp:91] Creating Layer relu1
I0725 21:38:55.235868 22939 net.cpp:425] relu1 <- ip1
I0725 21:38:55.235874 22939 net.cpp:386] relu1 -> ip1 (in-place)
I0725 21:38:55.236284 22939 net.cpp:141] Setting up relu1
I0725 21:38:55.236307 22939 net.cpp:148] Top shape: 64 500 (32000)
I0725 21:38:55.236310 22939 net.cpp:156] Memory required for data: 539013888
I0725 21:38:55.236315 22939 layer_factory.hpp:77] Creating layer ip2
I0725 21:38:55.236325 22939 net.cpp:91] Creating Layer ip2
I0725 21:38:55.236327 22939 net.cpp:425] ip2 <- ip1
I0725 21:38:55.236335 22939 net.cpp:399] ip2 -> ip2
I0725 21:38:55.236515 22939 net.cpp:141] Setting up ip2
I0725 21:38:55.236529 22939 net.cpp:148] Top shape: 64 3 (192)
I0725 21:38:55.236534 22939 net.cpp:156] Memory required for data: 539014656
I0725 21:38:55.236542 22939 layer_factory.hpp:77] Creating layer loss
I0725 21:38:55.236558 22939 net.cpp:91] Creating Layer loss
I0725 21:38:55.236564 22939 net.cpp:425] loss <- ip2
I0725 21:38:55.236569 22939 net.cpp:425] loss <- label
I0725 21:38:55.236577 22939 net.cpp:399] loss -> loss
I0725 21:38:55.236588 22939 layer_factory.hpp:77] Creating layer loss
…
I0725 21:38:55.237540 22939 net.cpp:313] The NetState phase (1) differed from the phase (0) specified by a rule in layer mnist
I0725 21:38:55.237705 22939 net.cpp:49] Initializing net from parameters: 
name: "LeNet"
state {
  phase: TEST
}
layer {
  name: "mnist"
  type: "Data"
  top: "data"
  top: "label"
  include {
    phase: TEST
  }
  transform_param {
    scale: 0.00390625
    mean_file: "data/person_only_lmdb/person_vs_background_vs_random_color_mean.binaryproto"
  }
  data_param {
    source: "data/person_only_lmdb/person_vs_background_vs_random_test_lmdb"
    batch_size: 100
    backend: LMDB
  }
}
layer {
  name: "conv1"
  type: "Convolution"
  bottom: "data"
  top: "conv1"
  param {
    lr_mult: 1
  }
  param {
    lr_mult: 2
  }
  convolution_param {
    num_output: 96
    kernel_size: 5
    stride: 1
    weight_filler {
      type: "xavier"
    }
    bias_filler {
      type: "constant"
    }
  }
}
layer {
  name: "pool1"
  type: "Pooling"
  bottom: "conv1"
  top: "pool1"
  pooling_param {
    pool: MAX
    kernel_size: 2
    stride: 2
  }
}
layer {
  name: "conv2"
  type: "Convolution"
  bottom: "pool1"
  top: "conv2"
  param {
    lr_mult: 1
  }
  param {
    lr_mult: 2
  }
  convolution_param {
    num_output: 50
    kernel_size: 5
    stride: 1
    weight_filler {
      type: "xavier"
    }
    bias_filler {
      type: "constant"
    }
  }
}
layer {
  name: "pool2"
  type: "Pooling"
  bottom: "conv2"
  top: "pool2"
  pooling_param {
    pool: MAX
    kernel_size: 2
    stride: 2
  }
}
layer {
  name: "ip1"
  type: "InnerProduct"
  bottom: "pool2"
  top: "ip1"
  param {
    lr_mult: 1
  }
  param {
    lr_mult: 2
  }
  inner_product_param {
    num_output: 500
    weight_filler {
      type: "xavier"
    }
    bias_filler {
      type: "constant"
    }
  }
}
layer {
  name: "relu1"
  type: "ReLU"
  bottom: "ip1"
  top: "ip1"
}
layer {
  name: "ip2"
  type: "InnerProduct"
  bottom: "ip1"
  top: "ip2"
  param {
    lr_mult: 1
  }
  param {
    lr_mult: 2
  }
  inner_product_param {
    num_output: 3
    weight_filler {
      type: "xavier"
    }
    bias_filler {
      type: "constant"
    }
  }
}
layer {
  name: "accuracy"
  type: "Accuracy"
  bottom: "ip2"
  bottom: "label"
  top: "accuracy"
  include {
    phase: TEST
  }
}
layer {
  name: "loss"
  type: "SoftmaxWithLoss"
  bottom: "ip2"
  bottom: "label"
  top: "loss"
}
I0725 21:38:55.237789 22939 layer_factory.hpp:77] Creating layer mnist
I0725 21:38:55.237926 22939 net.cpp:91] Creating Layer mnist
I0725 21:38:55.237941 22939 net.cpp:399] mnist -> data
I0725 21:38:55.237951 22939 net.cpp:399] mnist -> label
I0725 21:38:55.237960 22939 data_transformer.cpp:25] Loading mean file from: data/person_only_lmdb/person_vs_background_vs_random_color_mean.binaryproto
I0725 21:38:55.239334 22949 db_lmdb.cpp:35] Opened lmdb data/person_only_lmdb/person_vs_background_vs_random_test_lmdb
I0725 21:38:55.239578 22939 data_layer.cpp:41] output data size: 100,3,128,128
I0725 21:38:55.272630 22939 net.cpp:141] Setting up mnist
I0725 21:38:55.272668 22939 net.cpp:148] Top shape: 100 3 128 128 (4915200)
I0725 21:38:55.272675 22939 net.cpp:148] Top shape: 100 (100)
I0725 21:38:55.272676 22939 net.cpp:156] Memory required for data: 19661200
I0725 21:38:55.272683 22939 layer_factory.hpp:77] Creating layer label_mnist_1_split
I0725 21:38:55.272697 22939 net.cpp:91] Creating Layer label_mnist_1_split
I0725 21:38:55.272702 22939 net.cpp:425] label_mnist_1_split <- label
I0725 21:38:55.272708 22939 net.cpp:399] label_mnist_1_split -> label_mnist_1_split_0
I0725 21:38:55.272718 22939 net.cpp:399] label_mnist_1_split -> label_mnist_1_split_1
I0725 21:38:55.273026 22939 net.cpp:141] Setting up label_mnist_1_split
I0725 21:38:55.273041 22939 net.cpp:148] Top shape: 100 (100)
I0725 21:38:55.273047 22939 net.cpp:148] Top shape: 100 (100)
I0725 21:38:55.273051 22939 net.cpp:156] Memory required for data: 19662000
I0725 21:38:55.273056 22939 layer_factory.hpp:77] Creating layer conv1
I0725 21:38:55.273074 22939 net.cpp:91] Creating Layer conv1
I0725 21:38:55.273080 22939 net.cpp:425] conv1 <- data
I0725 21:38:55.273088 22939 net.cpp:399] conv1 -> conv1
I0725 21:38:55.277356 22939 net.cpp:141] Setting up conv1
I0725 21:38:55.277391 22939 net.cpp:148] Top shape: 100 96 124 124 (147609600)
I0725 21:38:55.277400 22939 net.cpp:156] Memory required for data: 610100400
I0725 21:38:55.277425 22939 layer_factory.hpp:77] Creating layer pool1
I0725 21:38:55.277441 22939 net.cpp:91] Creating Layer pool1
I0725 21:38:55.277456 22939 net.cpp:425] pool1 <- conv1
I0725 21:38:55.277475 22939 net.cpp:399] pool1 -> pool1
I0725 21:38:55.277612 22939 net.cpp:141] Setting up pool1
I0725 21:38:55.277624 22939 net.cpp:148] Top shape: 100 96 62 62 (36902400)
I0725 21:38:55.277629 22939 net.cpp:156] Memory required for data: 757710000
I0725 21:38:55.277634 22939 layer_factory.hpp:77] Creating layer conv2
I0725 21:38:55.277647 22939 net.cpp:91] Creating Layer conv2
I0725 21:38:55.277653 22939 net.cpp:425] conv2 <- pool1
I0725 21:38:55.277662 22939 net.cpp:399] conv2 -> conv2
I0725 21:38:55.279374 22939 net.cpp:141] Setting up conv2
I0725 21:38:55.279389 22939 net.cpp:148] Top shape: 100 50 58 58 (16820000)
I0725 21:38:55.279392 22939 net.cpp:156] Memory required for data: 824990000
I0725 21:38:55.279400 22939 layer_factory.hpp:77] Creating layer pool2
I0725 21:38:55.279424 22939 net.cpp:91] Creating Layer pool2
I0725 21:38:55.279429 22939 net.cpp:425] pool2 <- conv2
I0725 21:38:55.279433 22939 net.cpp:399] pool2 -> pool2
I0725 21:38:55.279485 22939 net.cpp:141] Setting up pool2
I0725 21:38:55.279498 22939 net.cpp:148] Top shape: 100 50 29 29 (4205000)
I0725 21:38:55.279505 22939 net.cpp:156] Memory required for data: 841810000
I0725 21:38:55.279510 22939 layer_factory.hpp:77] Creating layer ip1
I0725 21:38:55.279521 22939 net.cpp:91] Creating Layer ip1
I0725 21:38:55.279530 22939 net.cpp:425] ip1 <- pool2
I0725 21:38:55.279549 22939 net.cpp:399] ip1 -> ip1
I0725 21:38:55.427047 22939 net.cpp:141] Setting up ip1
I0725 21:38:55.427084 22939 net.cpp:148] Top shape: 100 500 (50000)
I0725 21:38:55.427088 22939 net.cpp:156] Memory required for data: 842010000
I0725 21:38:55.427103 22939 layer_factory.hpp:77] Creating layer relu1
I0725 21:38:55.427114 22939 net.cpp:91] Creating Layer relu1
I0725 21:38:55.427119 22939 net.cpp:425] relu1 <- ip1
I0725 21:38:55.427124 22939 net.cpp:386] relu1 -> ip1 (in-place)
I0725 21:38:55.427610 22939 net.cpp:141] Setting up relu1
I0725 21:38:55.427634 22939 net.cpp:148] Top shape: 100 500 (50000)
I0725 21:38:55.427637 22939 net.cpp:156] Memory required for data: 842210000
I0725 21:38:55.427641 22939 layer_factory.hpp:77] Creating layer ip2
I0725 21:38:55.427661 22939 net.cpp:91] Creating Layer ip2
I0725 21:38:55.427676 22939 net.cpp:425] ip2 <- ip1
I0725 21:38:55.427682 22939 net.cpp:399] ip2 -> ip2
I0725 21:38:55.427845 22939 net.cpp:141] Setting up ip2
I0725 21:38:55.427858 22939 net.cpp:148] Top shape: 100 3 (300)
I0725 21:38:55.427862 22939 net.cpp:156] Memory required for data: 842211200
I0725 21:38:55.427870 22939 layer_factory.hpp:77] Creating layer ip2_ip2_0_split
I0725 21:38:55.427880 22939 net.cpp:91] Creating Layer ip2_ip2_0_split
I0725 21:38:55.427884 22939 net.cpp:425] ip2_ip2_0_split <- ip2
I0725 21:38:55.427891 22939 net.cpp:399] ip2_ip2_0_split -> ip2_ip2_0_split_0
I0725 21:38:55.427899 22939 net.cpp:399] ip2_ip2_0_split -> ip2_ip2_0_split_1
I0725 21:38:55.427942 22939 net.cpp:141] Setting up ip2_ip2_0_split
I0725 21:38:55.427953 22939 net.cpp:148] Top shape: 100 3 (300)
I0725 21:38:55.427958 22939 net.cpp:148] Top shape: 100 3 (300)
I0725 21:38:55.427963 22939 net.cpp:156] Memory required for data: 842213600
I0725 21:38:55.427966 22939 layer_factory.hpp:77] Creating layer accuracy
I0725 21:38:55.427975 22939 net.cpp:91] Creating Layer accuracy
I0725 21:38:55.427996 22939 net.cpp:425] accuracy <- ip2_ip2_0_split_0
I0725 21:38:55.428014 22939 net.cpp:425] accuracy <- label_mnist_1_split_0
I0725 21:38:55.428022 22939 net.cpp:399] accuracy -> accuracy
…
