…
I0817 12:25:32.425205  9747 net.cpp:322] The NetState phase (0) differed from the phase (1) specified by a rule in layer accuracy
I0817 12:25:32.425456  9747 net.cpp:58] Initializing net from parameters: 
name: "AlexNet"
state {
  phase: TRAIN
}
layer {
  name: "mnist"
  type: "Data"
  top: "data"
  top: "label"
  include {
    phase: TRAIN
  }
  transform_param {
    mean_file: "data/person_only_lmdb/person_background_only_color_mean.binaryproto"
  }
  data_param {
    source: "data/person_only_lmdb/person_background_only_train_lmdb"
    batch_size: 128
    backend: LMDB
  }
}
layer {
  name: "conv1"
  type: "Convolution"
  bottom: "data"
  top: "conv1"
  param {
    lr_mult: 1
    decay_mult: 1
  }
  param {
    lr_mult: 2
    decay_mult: 0
  }
  convolution_param {
    num_output: 96
    kernel_size: 11
    stride: 4
    weight_filler {
      type: "gaussian"
      std: 0.01
    }
    bias_filler {
      type: "constant"
      value: 0
    }
  }
}
layer {
  name: "relu1"
  type: "ReLU"
  bottom: "conv1"
  top: "conv1"
}
layer {
  name: "norm1"
  type: "LRN"
  bottom: "conv1"
  top: "norm1"
  lrn_param {
    local_size: 5
    alpha: 0.0001
    beta: 0.75
  }
}
layer {
  name: "pool1"
  type: "Pooling"
  bottom: "norm1"
  top: "pool1"
  pooling_param {
    pool: MAX
    kernel_size: 3
    stride: 2
  }
}
layer {
  name: "conv2"
  type: "Convolution"
  bottom: "pool1"
  top: "conv2"
  param {
    lr_mult: 1
    decay_mult: 1
  }
  param {
    lr_mult: 2
    decay_mult: 0
  }
  convolution_param {
    num_output: 256
    pad: 2
    kernel_size: 5
    group: 2
    weight_filler {
      type: "gaussian"
      std: 0.01
    }
    bias_filler {
      type: "constant"
      value: 0.1
    }
  }
}
layer {
  name: "relu2"
  type: "ReLU"
  bottom: "conv2"
  top: "conv2"
}
layer {
  name: "norm2"
  type: "LRN"
  bottom: "conv2"
  top: "norm2"
  lrn_param {
    local_size: 5
    alpha: 0.0001
    beta: 0.75
  }
}
layer {
  name: "pool2"
  type: "Pooling"
  bottom: "norm2"
  top: "pool2"
  pooling_param {
    pool: MAX
    kernel_size: 3
    stride: 2
  }
}
layer {
  name: "conv3"
  type: "Convolution"
  bottom: "pool2"
  top: "conv3"
  param {
    lr_mult: 1
    decay_mult: 1
  }
  param {
    lr_mult: 2
    decay_mult: 0
  }
  convolution_param {
    num_output: 384
    pad: 1
    kernel_size: 3
    weight_filler {
      type: "gaussian"
      std: 0.01
    }
    bias_filler {
      type: "constant"
      value: 0
    }
  }
}
layer {
  name: "relu3"
  type: "ReLU"
  bottom: "conv3"
  top: "conv3"
}
layer {
  name: "conv4"
  type: "Convolution"
  bottom: "conv3"
  top: "conv4"
  param {
    lr_mult: 1
    decay_mult: 1
  }
  param {
    lr_mult: 2
    decay_mult: 0
  }
  convolution_param {
    num_output: 384
    pad: 1
    kernel_size: 3
    group: 2
    weight_filler {
      type: "gaussian"
      std: 0.01
    }
    bias_filler {
      type: "constant"
      value: 0.1
    }
  }
}
layer {
  name: "relu4"
  type: "ReLU"
  bottom: "conv4"
  top: "conv4"
}
layer {
  name: "conv5"
  type: "Convolution"
  bottom: "conv4"
  top: "conv5"
  param {
    lr_mult: 1
    decay_mult: 1
  }
  param {
    lr_mult: 2
    decay_mult: 0
  }
  convolution_param {
    num_output: 256
    pad: 1
    kernel_size: 3
    group: 2
    weight_filler {
      type: "gaussian"
      std: 0.01
    }
    bias_filler {
      type: "constant"
      value: 0.1
    }
  }
}
layer {
  name: "relu5"
  type: "ReLU"
  bottom: "conv5"
  top: "conv5"
}
layer {
  name: "pool5"
  type: "Pooling"
  bottom: "conv5"
  top: "pool5"
  pooling_param {
    pool: MAX
    kernel_size: 3
    stride: 2
  }
}
layer {
  name: "fc6"
  type: "InnerProduct"
  bottom: "pool5"
  top: "fc6"
  param {
    lr_mult: 1
    decay_mult: 1
  }
  param {
    lr_mult: 2
    decay_mult: 0
  }
  inner_product_param {
    num_output: 4096
    weight_filler {
      type: "gaussian"
      std: 0.005
    }
    bias_filler {
      type: "constant"
      value: 0.1
    }
  }
}
layer {
  name: "relu6"
  type: "ReLU"
  bottom: "fc6"
  top: "fc6"
}
layer {
  name: "drop6"
  type: "Dropout"
  bottom: "fc6"
  top: "fc6"
  dropout_param {
    dropout_ratio: 0.5
  }
}
layer {
  name: "fc7"
  type: "InnerProduct"
  bottom: "fc6"
  top: "fc7"
  param {
    lr_mult: 1
    decay_mult: 1
  }
  param {
    lr_mult: 2
    decay_mult: 0
  }
  inner_product_param {
    num_output: 4096
    weight_filler {
      type: "gaussian"
      std: 0.005
    }
    bias_filler {
      type: "constant"
      value: 0.1
    }
  }
}
layer {
  name: "relu7"
  type: "ReLU"
  bottom: "fc7"
  top: "fc7"
}
layer {
  name: "drop7"
  type: "Dropout"
  bottom: "fc7"
  top: "fc7"
  dropout_param {
    dropout_ratio: 0.5
  }
}
layer {
  name: "fc8"
  type: "InnerProduct"
  bottom: "fc7"
  top: "fc8"
  param {
    lr_mult: 1
    decay_mult: 1
  }
  param {
    lr_mult: 2
    decay_mult: 0
  }
  inner_product_param {
    num_output: 2
    weight_filler {
      type: "gaussian"
      std: 0.01
    }
    bias_filler {
      type: "constant"
      value: 0
    }
  }
}
layer {
  name: "loss"
  type: "SoftmaxWithLoss"
  bottom: "fc8"
  bottom: "label"
  top: "loss"
}
I0817 12:25:32.425578  9747 layer_factory.hpp:77] Creating layer mnist
I0817 12:25:32.426630  9747 net.cpp:100] Creating Layer mnist
I0817 12:25:32.426652  9747 net.cpp:408] mnist -> data
I0817 12:25:32.426681  9747 net.cpp:408] mnist -> label
I0817 12:25:32.426702  9747 data_transformer.cpp:25] Loading mean file from: data/person_only_lmdb/person_background_only_color_mean.binaryproto
I0817 12:25:32.428508  9755 db_lmdb.cpp:35] Opened lmdb data/person_only_lmdb/person_background_only_train_lmdb
I0817 12:25:32.507918  9747 data_layer.cpp:41] output data size: 128,3,128,128
I0817 12:25:32.579429  9747 net.cpp:150] Setting up mnist
I0817 12:25:32.579474  9747 net.cpp:157] Top shape: 128 3 128 128 (6291456)
I0817 12:25:32.579483  9747 net.cpp:157] Top shape: 128 (128)
I0817 12:25:32.579488  9747 net.cpp:165] Memory required for data: 25166336
I0817 12:25:32.579496  9747 layer_factory.hpp:77] Creating layer conv1
I0817 12:25:32.579527  9747 net.cpp:100] Creating Layer conv1
I0817 12:25:32.579536  9747 net.cpp:434] conv1 <- data
I0817 12:25:32.579548  9747 net.cpp:408] conv1 -> conv1
I0817 12:25:32.950747  9747 net.cpp:150] Setting up conv1
I0817 12:25:32.950783  9747 net.cpp:157] Top shape: 128 96 30 30 (11059200)
I0817 12:25:32.950788  9747 net.cpp:165] Memory required for data: 69403136
I0817 12:25:32.950804  9747 layer_factory.hpp:77] Creating layer relu1
I0817 12:25:32.950819  9747 net.cpp:100] Creating Layer relu1
I0817 12:25:32.950824  9747 net.cpp:434] relu1 <- conv1
I0817 12:25:32.950834  9747 net.cpp:395] relu1 -> conv1 (in-place)
I0817 12:25:32.951022  9747 net.cpp:150] Setting up relu1
I0817 12:25:32.951032  9747 net.cpp:157] Top shape: 128 96 30 30 (11059200)
I0817 12:25:32.951035  9747 net.cpp:165] Memory required for data: 113639936
I0817 12:25:32.951040  9747 layer_factory.hpp:77] Creating layer norm1
I0817 12:25:32.951050  9747 net.cpp:100] Creating Layer norm1
I0817 12:25:32.951053  9747 net.cpp:434] norm1 <- conv1
I0817 12:25:32.951058  9747 net.cpp:408] norm1 -> norm1
I0817 12:25:32.951627  9747 net.cpp:150] Setting up norm1
I0817 12:25:32.951640  9747 net.cpp:157] Top shape: 128 96 30 30 (11059200)
I0817 12:25:32.951644  9747 net.cpp:165] Memory required for data: 157876736
I0817 12:25:32.951647  9747 layer_factory.hpp:77] Creating layer pool1
I0817 12:25:32.951656  9747 net.cpp:100] Creating Layer pool1
I0817 12:25:32.951659  9747 net.cpp:434] pool1 <- norm1
I0817 12:25:32.951664  9747 net.cpp:408] pool1 -> pool1
I0817 12:25:32.951722  9747 net.cpp:150] Setting up pool1
I0817 12:25:32.951730  9747 net.cpp:157] Top shape: 128 96 15 15 (2764800)
I0817 12:25:32.951732  9747 net.cpp:165] Memory required for data: 168935936
I0817 12:25:32.951735  9747 layer_factory.hpp:77] Creating layer conv2
I0817 12:25:32.951747  9747 net.cpp:100] Creating Layer conv2
I0817 12:25:32.951751  9747 net.cpp:434] conv2 <- pool1
I0817 12:25:32.951757  9747 net.cpp:408] conv2 -> conv2
I0817 12:25:32.958421  9747 net.cpp:150] Setting up conv2
I0817 12:25:32.958437  9747 net.cpp:157] Top shape: 128 256 15 15 (7372800)
I0817 12:25:32.958441  9747 net.cpp:165] Memory required for data: 198427136
I0817 12:25:32.958449  9747 layer_factory.hpp:77] Creating layer relu2
I0817 12:25:32.958457  9747 net.cpp:100] Creating Layer relu2
I0817 12:25:32.958461  9747 net.cpp:434] relu2 <- conv2
I0817 12:25:32.958467  9747 net.cpp:395] relu2 -> conv2 (in-place)
I0817 12:25:32.958997  9747 net.cpp:150] Setting up relu2
I0817 12:25:32.959010  9747 net.cpp:157] Top shape: 128 256 15 15 (7372800)
I0817 12:25:32.959013  9747 net.cpp:165] Memory required for data: 227918336
I0817 12:25:32.959017  9747 layer_factory.hpp:77] Creating layer norm2
I0817 12:25:32.959023  9747 net.cpp:100] Creating Layer norm2
I0817 12:25:32.959027  9747 net.cpp:434] norm2 <- conv2
I0817 12:25:32.959031  9747 net.cpp:408] norm2 -> norm2
I0817 12:25:32.959250  9747 net.cpp:150] Setting up norm2
I0817 12:25:32.959261  9747 net.cpp:157] Top shape: 128 256 15 15 (7372800)
I0817 12:25:32.959267  9747 net.cpp:165] Memory required for data: 257409536
I0817 12:25:32.959270  9747 layer_factory.hpp:77] Creating layer pool2
I0817 12:25:32.959278  9747 net.cpp:100] Creating Layer pool2
I0817 12:25:32.959283  9747 net.cpp:434] pool2 <- norm2
I0817 12:25:32.959287  9747 net.cpp:408] pool2 -> pool2
I0817 12:25:32.959341  9747 net.cpp:150] Setting up pool2
I0817 12:25:32.959347  9747 net.cpp:157] Top shape: 128 256 7 7 (1605632)
I0817 12:25:32.959350  9747 net.cpp:165] Memory required for data: 263832064
I0817 12:25:32.959353  9747 layer_factory.hpp:77] Creating layer conv3
I0817 12:25:32.959362  9747 net.cpp:100] Creating Layer conv3
I0817 12:25:32.959367  9747 net.cpp:434] conv3 <- pool2
I0817 12:25:32.959372  9747 net.cpp:408] conv3 -> conv3
I0817 12:25:32.973213  9747 net.cpp:150] Setting up conv3
I0817 12:25:32.973229  9747 net.cpp:157] Top shape: 128 384 7 7 (2408448)
I0817 12:25:32.973232  9747 net.cpp:165] Memory required for data: 273465856
I0817 12:25:32.973242  9747 layer_factory.hpp:77] Creating layer relu3
I0817 12:25:32.973253  9747 net.cpp:100] Creating Layer relu3
I0817 12:25:32.973255  9747 net.cpp:434] relu3 <- conv3
I0817 12:25:32.973260  9747 net.cpp:395] relu3 -> conv3 (in-place)
I0817 12:25:32.973461  9747 net.cpp:150] Setting up relu3
I0817 12:25:32.973474  9747 net.cpp:157] Top shape: 128 384 7 7 (2408448)
I0817 12:25:32.973477  9747 net.cpp:165] Memory required for data: 283099648
I0817 12:25:32.973480  9747 layer_factory.hpp:77] Creating layer conv4
I0817 12:25:32.973491  9747 net.cpp:100] Creating Layer conv4
I0817 12:25:32.973496  9747 net.cpp:434] conv4 <- conv3
I0817 12:25:32.973502  9747 net.cpp:408] conv4 -> conv4
I0817 12:25:32.985357  9747 net.cpp:150] Setting up conv4
I0817 12:25:32.985373  9747 net.cpp:157] Top shape: 128 384 7 7 (2408448)
I0817 12:25:32.985376  9747 net.cpp:165] Memory required for data: 292733440
I0817 12:25:32.985383  9747 layer_factory.hpp:77] Creating layer relu4
I0817 12:25:32.985389  9747 net.cpp:100] Creating Layer relu4
I0817 12:25:32.985393  9747 net.cpp:434] relu4 <- conv4
I0817 12:25:32.985399  9747 net.cpp:395] relu4 -> conv4 (in-place)
I0817 12:25:32.985602  9747 net.cpp:150] Setting up relu4
I0817 12:25:32.985613  9747 net.cpp:157] Top shape: 128 384 7 7 (2408448)
I0817 12:25:32.985616  9747 net.cpp:165] Memory required for data: 302367232
I0817 12:25:32.985620  9747 layer_factory.hpp:77] Creating layer conv5
I0817 12:25:32.985631  9747 net.cpp:100] Creating Layer conv5
I0817 12:25:32.985636  9747 net.cpp:434] conv5 <- conv4
I0817 12:25:32.985642  9747 net.cpp:408] conv5 -> conv5
I0817 12:25:32.995354  9747 net.cpp:150] Setting up conv5
I0817 12:25:32.995389  9747 net.cpp:157] Top shape: 128 256 7 7 (1605632)
I0817 12:25:32.995398  9747 net.cpp:165] Memory required for data: 308789760
I0817 12:25:32.995417  9747 layer_factory.hpp:77] Creating layer relu5
I0817 12:25:32.995435  9747 net.cpp:100] Creating Layer relu5
I0817 12:25:32.995443  9747 net.cpp:434] relu5 <- conv5
I0817 12:25:32.995455  9747 net.cpp:395] relu5 -> conv5 (in-place)
I0817 12:25:32.995856  9747 net.cpp:150] Setting up relu5
I0817 12:25:32.995875  9747 net.cpp:157] Top shape: 128 256 7 7 (1605632)
I0817 12:25:32.995880  9747 net.cpp:165] Memory required for data: 315212288
I0817 12:25:32.995887  9747 layer_factory.hpp:77] Creating layer pool5
I0817 12:25:32.995900  9747 net.cpp:100] Creating Layer pool5
I0817 12:25:32.995908  9747 net.cpp:434] pool5 <- conv5
I0817 12:25:32.995918  9747 net.cpp:408] pool5 -> pool5
I0817 12:25:32.996058  9747 net.cpp:150] Setting up pool5
I0817 12:25:32.996073  9747 net.cpp:157] Top shape: 128 256 3 3 (294912)
I0817 12:25:32.996080  9747 net.cpp:165] Memory required for data: 316391936
I0817 12:25:32.996085  9747 layer_factory.hpp:77] Creating layer fc6
I0817 12:25:32.996109  9747 net.cpp:100] Creating Layer fc6
I0817 12:25:32.996116  9747 net.cpp:434] fc6 <- pool5
I0817 12:25:32.996127  9747 net.cpp:408] fc6 -> fc6
I0817 12:25:33.168696  9747 net.cpp:150] Setting up fc6
I0817 12:25:33.168730  9747 net.cpp:157] Top shape: 128 4096 (524288)
I0817 12:25:33.168733  9747 net.cpp:165] Memory required for data: 318489088
I0817 12:25:33.168745  9747 layer_factory.hpp:77] Creating layer relu6
I0817 12:25:33.168757  9747 net.cpp:100] Creating Layer relu6
I0817 12:25:33.168763  9747 net.cpp:434] relu6 <- fc6
I0817 12:25:33.168771  9747 net.cpp:395] relu6 -> fc6 (in-place)
I0817 12:25:33.169417  9747 net.cpp:150] Setting up relu6
I0817 12:25:33.169433  9747 net.cpp:157] Top shape: 128 4096 (524288)
I0817 12:25:33.169436  9747 net.cpp:165] Memory required for data: 320586240
I0817 12:25:33.169440  9747 layer_factory.hpp:77] Creating layer drop6
I0817 12:25:33.169450  9747 net.cpp:100] Creating Layer drop6
I0817 12:25:33.169452  9747 net.cpp:434] drop6 <- fc6
I0817 12:25:33.169457  9747 net.cpp:395] drop6 -> fc6 (in-place)
I0817 12:25:33.169493  9747 net.cpp:150] Setting up drop6
I0817 12:25:33.169502  9747 net.cpp:157] Top shape: 128 4096 (524288)
I0817 12:25:33.169504  9747 net.cpp:165] Memory required for data: 322683392
I0817 12:25:33.169507  9747 layer_factory.hpp:77] Creating layer fc7
I0817 12:25:33.169517  9747 net.cpp:100] Creating Layer fc7
I0817 12:25:33.169522  9747 net.cpp:434] fc7 <- fc6
I0817 12:25:33.169526  9747 net.cpp:408] fc7 -> fc7
I0817 12:25:33.412266  9747 net.cpp:150] Setting up fc7
I0817 12:25:33.412305  9747 net.cpp:157] Top shape: 128 4096 (524288)
I0817 12:25:33.412308  9747 net.cpp:165] Memory required for data: 324780544
I0817 12:25:33.412322  9747 layer_factory.hpp:77] Creating layer relu7
I0817 12:25:33.412334  9747 net.cpp:100] Creating Layer relu7
I0817 12:25:33.412338  9747 net.cpp:434] relu7 <- fc7
I0817 12:25:33.412348  9747 net.cpp:395] relu7 -> fc7 (in-place)
I0817 12:25:33.412624  9747 net.cpp:150] Setting up relu7
I0817 12:25:33.412636  9747 net.cpp:157] Top shape: 128 4096 (524288)
I0817 12:25:33.412638  9747 net.cpp:165] Memory required for data: 326877696
I0817 12:25:33.412642  9747 layer_factory.hpp:77] Creating layer drop7
I0817 12:25:33.412650  9747 net.cpp:100] Creating Layer drop7
I0817 12:25:33.412653  9747 net.cpp:434] drop7 <- fc7
I0817 12:25:33.412657  9747 net.cpp:395] drop7 -> fc7 (in-place)
I0817 12:25:33.412693  9747 net.cpp:150] Setting up drop7
I0817 12:25:33.412700  9747 net.cpp:157] Top shape: 128 4096 (524288)
I0817 12:25:33.412703  9747 net.cpp:165] Memory required for data: 328974848
I0817 12:25:33.412705  9747 layer_factory.hpp:77] Creating layer fc8
I0817 12:25:33.412715  9747 net.cpp:100] Creating Layer fc8
I0817 12:25:33.412719  9747 net.cpp:434] fc8 <- fc7
I0817 12:25:33.412724  9747 net.cpp:408] fc8 -> fc8
I0817 12:25:33.414535  9747 net.cpp:150] Setting up fc8
I0817 12:25:33.414552  9747 net.cpp:157] Top shape: 128 2 (256)
I0817 12:25:33.414556  9747 net.cpp:165] Memory required for data: 328975872
I0817 12:25:33.414567  9747 layer_factory.hpp:77] Creating layer loss
I0817 12:25:33.414577  9747 net.cpp:100] Creating Layer loss
I0817 12:25:33.414582  9747 net.cpp:434] loss <- fc8
I0817 12:25:33.414589  9747 net.cpp:434] loss <- label
I0817 12:25:33.414599  9747 net.cpp:408] loss -> loss
I0817 12:25:33.414613  9747 layer_factory.hpp:77] Creating layer loss
…
I0817 12:25:33.415837  9747 net.cpp:322] The NetState phase (1) differed from the phase (0) specified by a rule in layer mnist
I0817 12:25:33.416023  9747 net.cpp:58] Initializing net from parameters: 
name: "AlexNet"
state {
  phase: TEST
}
layer {
  name: "mnist"
  type: "Data"
  top: "data"
  top: "label"
  include {
    phase: TEST
  }
  transform_param {
    mean_file: "data/person_only_lmdb/person_background_only_color_mean.binaryproto"
  }
  data_param {
    source: "data/person_only_lmdb/person_background_only_test_lmdb"
    batch_size: 100
    backend: LMDB
  }
}
layer {
  name: "conv1"
  type: "Convolution"
  bottom: "data"
  top: "conv1"
  param {
    lr_mult: 1
    decay_mult: 1
  }
  param {
    lr_mult: 2
    decay_mult: 0
  }
  convolution_param {
    num_output: 96
    kernel_size: 11
    stride: 4
    weight_filler {
      type: "gaussian"
      std: 0.01
    }
    bias_filler {
      type: "constant"
      value: 0
    }
  }
}
layer {
  name: "relu1"
  type: "ReLU"
  bottom: "conv1"
  top: "conv1"
}
layer {
  name: "norm1"
  type: "LRN"
  bottom: "conv1"
  top: "norm1"
  lrn_param {
    local_size: 5
    alpha: 0.0001
    beta: 0.75
  }
}
layer {
  name: "pool1"
  type: "Pooling"
  bottom: "norm1"
  top: "pool1"
  pooling_param {
    pool: MAX
    kernel_size: 3
    stride: 2
  }
}
layer {
  name: "conv2"
  type: "Convolution"
  bottom: "pool1"
  top: "conv2"
  param {
    lr_mult: 1
    decay_mult: 1
  }
  param {
    lr_mult: 2
    decay_mult: 0
  }
  convolution_param {
    num_output: 256
    pad: 2
    kernel_size: 5
    group: 2
    weight_filler {
      type: "gaussian"
      std: 0.01
    }
    bias_filler {
      type: "constant"
      value: 0.1
    }
  }
}
layer {
  name: "relu2"
  type: "ReLU"
  bottom: "conv2"
  top: "conv2"
}
layer {
  name: "norm2"
  type: "LRN"
  bottom: "conv2"
  top: "norm2"
  lrn_param {
    local_size: 5
    alpha: 0.0001
    beta: 0.75
  }
}
layer {
  name: "pool2"
  type: "Pooling"
  bottom: "norm2"
  top: "pool2"
  pooling_param {
    pool: MAX
    kernel_size: 3
    stride: 2
  }
}
layer {
  name: "conv3"
  type: "Convolution"
  bottom: "pool2"
  top: "conv3"
  param {
    lr_mult: 1
    decay_mult: 1
  }
  param {
    lr_mult: 2
    decay_mult: 0
  }
  convolution_param {
    num_output: 384
    pad: 1
    kernel_size: 3
    weight_filler {
      type: "gaussian"
      std: 0.01
    }
    bias_filler {
      type: "constant"
      value: 0
    }
  }
}
layer {
  name: "relu3"
  type: "ReLU"
  bottom: "conv3"
  top: "conv3"
}
layer {
  name: "conv4"
  type: "Convolution"
  bottom: "conv3"
  top: "conv4"
  param {
    lr_mult: 1
    decay_mult: 1
  }
  param {
    lr_mult: 2
    decay_mult: 0
  }
  convolution_param {
    num_output: 384
    pad: 1
    kernel_size: 3
    group: 2
    weight_filler {
      type: "gaussian"
      std: 0.01
    }
    bias_filler {
      type: "constant"
      value: 0.1
    }
  }
}
layer {
  name: "relu4"
  type: "ReLU"
  bottom: "conv4"
  top: "conv4"
}
layer {
  name: "conv5"
  type: "Convolution"
  bottom: "conv4"
  top: "conv5"
  param {
    lr_mult: 1
    decay_mult: 1
  }
  param {
    lr_mult: 2
    decay_mult: 0
  }
  convolution_param {
    num_output: 256
    pad: 1
    kernel_size: 3
    group: 2
    weight_filler {
      type: "gaussian"
      std: 0.01
    }
    bias_filler {
      type: "constant"
      value: 0.1
    }
  }
}
layer {
  name: "relu5"
  type: "ReLU"
  bottom: "conv5"
  top: "conv5"
}
layer {
  name: "pool5"
  type: "Pooling"
  bottom: "conv5"
  top: "pool5"
  pooling_param {
    pool: MAX
    kernel_size: 3
    stride: 2
  }
}
layer {
  name: "fc6"
  type: "InnerProduct"
  bottom: "pool5"
  top: "fc6"
  param {
    lr_mult: 1
    decay_mult: 1
  }
  param {
    lr_mult: 2
    decay_mult: 0
  }
  inner_product_param {
    num_output: 4096
    weight_filler {
      type: "gaussian"
      std: 0.005
    }
    bias_filler {
      type: "constant"
      value: 0.1
    }
  }
}
layer {
  name: "relu6"
  type: "ReLU"
  bottom: "fc6"
  top: "fc6"
}
layer {
  name: "drop6"
  type: "Dropout"
  bottom: "fc6"
  top: "fc6"
  dropout_param {
    dropout_ratio: 0.5
  }
}
layer {
  name: "fc7"
  type: "InnerProduct"
  bottom: "fc6"
  top: "fc7"
  param {
    lr_mult: 1
    decay_mult: 1
  }
  param {
    lr_mult: 2
    decay_mult: 0
  }
  inner_product_param {
    num_output: 4096
    weight_filler {
      type: "gaussian"
      std: 0.005
    }
    bias_filler {
      type: "constant"
      value: 0.1
    }
  }
}
layer {
  name: "relu7"
  type: "ReLU"
  bottom: "fc7"
  top: "fc7"
}
layer {
  name: "drop7"
  type: "Dropout"
  bottom: "fc7"
  top: "fc7"
  dropout_param {
    dropout_ratio: 0.5
  }
}
layer {
  name: "fc8"
  type: "InnerProduct"
  bottom: "fc7"
  top: "fc8"
  param {
    lr_mult: 1
    decay_mult: 1
  }
  param {
    lr_mult: 2
    decay_mult: 0
  }
  inner_product_param {
    num_output: 2
    weight_filler {
      type: "gaussian"
      std: 0.01
    }
    bias_filler {
      type: "constant"
      value: 0
    }
  }
}
layer {
  name: "accuracy"
  type: "Accuracy"
  bottom: "fc8"
  bottom: "label"
  top: "accuracy"
  include {
    phase: TEST
  }
}
layer {
  name: "loss"
  type: "SoftmaxWithLoss"
  bottom: "fc8"
  bottom: "label"
  top: "loss"
}
I0817 12:25:33.416134  9747 layer_factory.hpp:77] Creating layer mnist
I0817 12:25:33.416282  9747 net.cpp:100] Creating Layer mnist
I0817 12:25:33.416293  9747 net.cpp:408] mnist -> data
I0817 12:25:33.416302  9747 net.cpp:408] mnist -> label
I0817 12:25:33.416311  9747 data_transformer.cpp:25] Loading mean file from: data/person_only_lmdb/person_background_only_color_mean.binaryproto
I0817 12:25:33.420483  9757 db_lmdb.cpp:35] Opened lmdb data/person_only_lmdb/person_background_only_test_lmdb
I0817 12:25:33.422176  9747 data_layer.cpp:41] output data size: 100,3,128,128
I0817 12:25:33.482473  9747 net.cpp:150] Setting up mnist
I0817 12:25:33.482517  9747 net.cpp:157] Top shape: 100 3 128 128 (4915200)
I0817 12:25:33.482523  9747 net.cpp:157] Top shape: 100 (100)
I0817 12:25:33.482527  9747 net.cpp:165] Memory required for data: 19661200
I0817 12:25:33.482537  9747 layer_factory.hpp:77] Creating layer label_mnist_1_split
I0817 12:25:33.482554  9747 net.cpp:100] Creating Layer label_mnist_1_split
I0817 12:25:33.482559  9747 net.cpp:434] label_mnist_1_split <- label
I0817 12:25:33.482571  9747 net.cpp:408] label_mnist_1_split -> label_mnist_1_split_0
I0817 12:25:33.482585  9747 net.cpp:408] label_mnist_1_split -> label_mnist_1_split_1
I0817 12:25:33.482918  9747 net.cpp:150] Setting up label_mnist_1_split
I0817 12:25:33.482949  9747 net.cpp:157] Top shape: 100 (100)
I0817 12:25:33.482957  9747 net.cpp:157] Top shape: 100 (100)
I0817 12:25:33.482962  9747 net.cpp:165] Memory required for data: 19662000
I0817 12:25:33.482969  9747 layer_factory.hpp:77] Creating layer conv1
I0817 12:25:33.482993  9747 net.cpp:100] Creating Layer conv1
I0817 12:25:33.483001  9747 net.cpp:434] conv1 <- data
I0817 12:25:33.483019  9747 net.cpp:408] conv1 -> conv1
I0817 12:25:33.488080  9747 net.cpp:150] Setting up conv1
I0817 12:25:33.488111  9747 net.cpp:157] Top shape: 100 96 30 30 (8640000)
I0817 12:25:33.488118  9747 net.cpp:165] Memory required for data: 54222000
I0817 12:25:33.488162  9747 layer_factory.hpp:77] Creating layer relu1
I0817 12:25:33.488184  9747 net.cpp:100] Creating Layer relu1
I0817 12:25:33.488193  9747 net.cpp:434] relu1 <- conv1
I0817 12:25:33.488204  9747 net.cpp:395] relu1 -> conv1 (in-place)
I0817 12:25:33.488569  9747 net.cpp:150] Setting up relu1
I0817 12:25:33.488586  9747 net.cpp:157] Top shape: 100 96 30 30 (8640000)
I0817 12:25:33.488592  9747 net.cpp:165] Memory required for data: 88782000
I0817 12:25:33.488598  9747 layer_factory.hpp:77] Creating layer norm1
I0817 12:25:33.488615  9747 net.cpp:100] Creating Layer norm1
I0817 12:25:33.488620  9747 net.cpp:434] norm1 <- conv1
I0817 12:25:33.488631  9747 net.cpp:408] norm1 -> norm1
I0817 12:25:33.489774  9747 net.cpp:150] Setting up norm1
I0817 12:25:33.489799  9747 net.cpp:157] Top shape: 100 96 30 30 (8640000)
I0817 12:25:33.489806  9747 net.cpp:165] Memory required for data: 123342000
I0817 12:25:33.489812  9747 layer_factory.hpp:77] Creating layer pool1
I0817 12:25:33.489825  9747 net.cpp:100] Creating Layer pool1
I0817 12:25:33.489832  9747 net.cpp:434] pool1 <- norm1
I0817 12:25:33.489843  9747 net.cpp:408] pool1 -> pool1
I0817 12:25:33.489961  9747 net.cpp:150] Setting up pool1
I0817 12:25:33.489975  9747 net.cpp:157] Top shape: 100 96 15 15 (2160000)
I0817 12:25:33.489980  9747 net.cpp:165] Memory required for data: 131982000
I0817 12:25:33.489986  9747 layer_factory.hpp:77] Creating layer conv2
I0817 12:25:33.490005  9747 net.cpp:100] Creating Layer conv2
I0817 12:25:33.490012  9747 net.cpp:434] conv2 <- pool1
I0817 12:25:33.490025  9747 net.cpp:408] conv2 -> conv2
I0817 12:25:33.502713  9747 net.cpp:150] Setting up conv2
I0817 12:25:33.502750  9747 net.cpp:157] Top shape: 100 256 15 15 (5760000)
I0817 12:25:33.502758  9747 net.cpp:165] Memory required for data: 155022000
I0817 12:25:33.502779  9747 layer_factory.hpp:77] Creating layer relu2
I0817 12:25:33.502792  9747 net.cpp:100] Creating Layer relu2
I0817 12:25:33.502799  9747 net.cpp:434] relu2 <- conv2
I0817 12:25:33.502807  9747 net.cpp:395] relu2 -> conv2 (in-place)
I0817 12:25:33.503808  9747 net.cpp:150] Setting up relu2
I0817 12:25:33.503832  9747 net.cpp:157] Top shape: 100 256 15 15 (5760000)
I0817 12:25:33.503837  9747 net.cpp:165] Memory required for data: 178062000
I0817 12:25:33.503844  9747 layer_factory.hpp:77] Creating layer norm2
I0817 12:25:33.503865  9747 net.cpp:100] Creating Layer norm2
I0817 12:25:33.503872  9747 net.cpp:434] norm2 <- conv2
I0817 12:25:33.503885  9747 net.cpp:408] norm2 -> norm2
I0817 12:25:33.504359  9747 net.cpp:150] Setting up norm2
I0817 12:25:33.504385  9747 net.cpp:157] Top shape: 100 256 15 15 (5760000)
I0817 12:25:33.504393  9747 net.cpp:165] Memory required for data: 201102000
I0817 12:25:33.504398  9747 layer_factory.hpp:77] Creating layer pool2
I0817 12:25:33.504410  9747 net.cpp:100] Creating Layer pool2
I0817 12:25:33.504416  9747 net.cpp:434] pool2 <- norm2
I0817 12:25:33.504426  9747 net.cpp:408] pool2 -> pool2
I0817 12:25:33.504534  9747 net.cpp:150] Setting up pool2
I0817 12:25:33.504549  9747 net.cpp:157] Top shape: 100 256 7 7 (1254400)
I0817 12:25:33.504565  9747 net.cpp:165] Memory required for data: 206119600
I0817 12:25:33.504575  9747 layer_factory.hpp:77] Creating layer conv3
I0817 12:25:33.504597  9747 net.cpp:100] Creating Layer conv3
I0817 12:25:33.504604  9747 net.cpp:434] conv3 <- pool2
I0817 12:25:33.504616  9747 net.cpp:408] conv3 -> conv3
I0817 12:25:33.527899  9747 net.cpp:150] Setting up conv3
I0817 12:25:33.527938  9747 net.cpp:157] Top shape: 100 384 7 7 (1881600)
I0817 12:25:33.527945  9747 net.cpp:165] Memory required for data: 213646000
I0817 12:25:33.527967  9747 layer_factory.hpp:77] Creating layer relu3
I0817 12:25:33.527983  9747 net.cpp:100] Creating Layer relu3
I0817 12:25:33.527990  9747 net.cpp:434] relu3 <- conv3
I0817 12:25:33.528000  9747 net.cpp:395] relu3 -> conv3 (in-place)
I0817 12:25:33.528352  9747 net.cpp:150] Setting up relu3
I0817 12:25:33.528369  9747 net.cpp:157] Top shape: 100 384 7 7 (1881600)
I0817 12:25:33.528374  9747 net.cpp:165] Memory required for data: 221172400
I0817 12:25:33.528379  9747 layer_factory.hpp:77] Creating layer conv4
I0817 12:25:33.528398  9747 net.cpp:100] Creating Layer conv4
I0817 12:25:33.528404  9747 net.cpp:434] conv4 <- conv3
I0817 12:25:33.528416  9747 net.cpp:408] conv4 -> conv4
I0817 12:25:33.546339  9747 net.cpp:150] Setting up conv4
I0817 12:25:33.546371  9747 net.cpp:157] Top shape: 100 384 7 7 (1881600)
I0817 12:25:33.546375  9747 net.cpp:165] Memory required for data: 228698800
I0817 12:25:33.546387  9747 layer_factory.hpp:77] Creating layer relu4
I0817 12:25:33.546398  9747 net.cpp:100] Creating Layer relu4
I0817 12:25:33.546404  9747 net.cpp:434] relu4 <- conv4
I0817 12:25:33.546413  9747 net.cpp:395] relu4 -> conv4 (in-place)
I0817 12:25:33.547214  9747 net.cpp:150] Setting up relu4
I0817 12:25:33.547232  9747 net.cpp:157] Top shape: 100 384 7 7 (1881600)
I0817 12:25:33.547237  9747 net.cpp:165] Memory required for data: 236225200
I0817 12:25:33.547241  9747 layer_factory.hpp:77] Creating layer conv5
I0817 12:25:33.547260  9747 net.cpp:100] Creating Layer conv5
I0817 12:25:33.547264  9747 net.cpp:434] conv5 <- conv4
I0817 12:25:33.547274  9747 net.cpp:408] conv5 -> conv5
I0817 12:25:33.559854  9747 net.cpp:150] Setting up conv5
I0817 12:25:33.559875  9747 net.cpp:157] Top shape: 100 256 7 7 (1254400)
I0817 12:25:33.559880  9747 net.cpp:165] Memory required for data: 241242800
I0817 12:25:33.559898  9747 layer_factory.hpp:77] Creating layer relu5
I0817 12:25:33.559907  9747 net.cpp:100] Creating Layer relu5
I0817 12:25:33.559912  9747 net.cpp:434] relu5 <- conv5
I0817 12:25:33.559918  9747 net.cpp:395] relu5 -> conv5 (in-place)
I0817 12:25:33.560202  9747 net.cpp:150] Setting up relu5
I0817 12:25:33.560217  9747 net.cpp:157] Top shape: 100 256 7 7 (1254400)
I0817 12:25:33.560220  9747 net.cpp:165] Memory required for data: 246260400
I0817 12:25:33.560225  9747 layer_factory.hpp:77] Creating layer pool5
I0817 12:25:33.560240  9747 net.cpp:100] Creating Layer pool5
I0817 12:25:33.560243  9747 net.cpp:434] pool5 <- conv5
I0817 12:25:33.560251  9747 net.cpp:408] pool5 -> pool5
I0817 12:25:33.560350  9747 net.cpp:150] Setting up pool5
I0817 12:25:33.560361  9747 net.cpp:157] Top shape: 100 256 3 3 (230400)
I0817 12:25:33.560365  9747 net.cpp:165] Memory required for data: 247182000
I0817 12:25:33.560369  9747 layer_factory.hpp:77] Creating layer fc6
I0817 12:25:33.560380  9747 net.cpp:100] Creating Layer fc6
I0817 12:25:33.560385  9747 net.cpp:434] fc6 <- pool5
I0817 12:25:33.560394  9747 net.cpp:408] fc6 -> fc6
I0817 12:25:33.733098  9747 net.cpp:150] Setting up fc6
I0817 12:25:33.733137  9747 net.cpp:157] Top shape: 100 4096 (409600)
I0817 12:25:33.733141  9747 net.cpp:165] Memory required for data: 248820400
I0817 12:25:33.733153  9747 layer_factory.hpp:77] Creating layer relu6
I0817 12:25:33.733165  9747 net.cpp:100] Creating Layer relu6
I0817 12:25:33.733170  9747 net.cpp:434] relu6 <- fc6
I0817 12:25:33.733177  9747 net.cpp:395] relu6 -> fc6 (in-place)
I0817 12:25:33.733461  9747 net.cpp:150] Setting up relu6
I0817 12:25:33.733474  9747 net.cpp:157] Top shape: 100 4096 (409600)
I0817 12:25:33.733476  9747 net.cpp:165] Memory required for data: 250458800
I0817 12:25:33.733479  9747 layer_factory.hpp:77] Creating layer drop6
I0817 12:25:33.733487  9747 net.cpp:100] Creating Layer drop6
I0817 12:25:33.733489  9747 net.cpp:434] drop6 <- fc6
I0817 12:25:33.733494  9747 net.cpp:395] drop6 -> fc6 (in-place)
I0817 12:25:33.733552  9747 net.cpp:150] Setting up drop6
I0817 12:25:33.733561  9747 net.cpp:157] Top shape: 100 4096 (409600)
I0817 12:25:33.733562  9747 net.cpp:165] Memory required for data: 252097200
I0817 12:25:33.733566  9747 layer_factory.hpp:77] Creating layer fc7
I0817 12:25:33.733574  9747 net.cpp:100] Creating Layer fc7
I0817 12:25:33.733579  9747 net.cpp:434] fc7 <- fc6
I0817 12:25:33.733587  9747 net.cpp:408] fc7 -> fc7
I0817 12:25:34.004796  9747 net.cpp:150] Setting up fc7
I0817 12:25:34.004838  9747 net.cpp:157] Top shape: 100 4096 (409600)
I0817 12:25:34.004842  9747 net.cpp:165] Memory required for data: 253735600
I0817 12:25:34.004855  9747 layer_factory.hpp:77] Creating layer relu7
I0817 12:25:34.004868  9747 net.cpp:100] Creating Layer relu7
I0817 12:25:34.004873  9747 net.cpp:434] relu7 <- fc7
I0817 12:25:34.004880  9747 net.cpp:395] relu7 -> fc7 (in-place)
I0817 12:25:34.005687  9747 net.cpp:150] Setting up relu7
I0817 12:25:34.005702  9747 net.cpp:157] Top shape: 100 4096 (409600)
I0817 12:25:34.005704  9747 net.cpp:165] Memory required for data: 255374000
I0817 12:25:34.005708  9747 layer_factory.hpp:77] Creating layer drop7
I0817 12:25:34.005717  9747 net.cpp:100] Creating Layer drop7
I0817 12:25:34.005719  9747 net.cpp:434] drop7 <- fc7
I0817 12:25:34.005728  9747 net.cpp:395] drop7 -> fc7 (in-place)
I0817 12:25:34.005784  9747 net.cpp:150] Setting up drop7
I0817 12:25:34.005791  9747 net.cpp:157] Top shape: 100 4096 (409600)
I0817 12:25:34.005795  9747 net.cpp:165] Memory required for data: 257012400
I0817 12:25:34.005797  9747 layer_factory.hpp:77] Creating layer fc8
I0817 12:25:34.005808  9747 net.cpp:100] Creating Layer fc8
I0817 12:25:34.005812  9747 net.cpp:434] fc8 <- fc7
I0817 12:25:34.005817  9747 net.cpp:408] fc8 -> fc8
I0817 12:25:34.006114  9747 net.cpp:150] Setting up fc8
I0817 12:25:34.006124  9747 net.cpp:157] Top shape: 100 2 (200)
I0817 12:25:34.006125  9747 net.cpp:165] Memory required for data: 257013200
I0817 12:25:34.006132  9747 layer_factory.hpp:77] Creating layer fc8_fc8_0_split
I0817 12:25:34.006139  9747 net.cpp:100] Creating Layer fc8_fc8_0_split
I0817 12:25:34.006142  9747 net.cpp:434] fc8_fc8_0_split <- fc8
I0817 12:25:34.006146  9747 net.cpp:408] fc8_fc8_0_split -> fc8_fc8_0_split_0
I0817 12:25:34.006160  9747 net.cpp:408] fc8_fc8_0_split -> fc8_fc8_0_split_1
I0817 12:25:34.006232  9747 net.cpp:150] Setting up fc8_fc8_0_split
I0817 12:25:34.006239  9747 net.cpp:157] Top shape: 100 2 (200)
I0817 12:25:34.006243  9747 net.cpp:157] Top shape: 100 2 (200)
I0817 12:25:34.006245  9747 net.cpp:165] Memory required for data: 257014800
I0817 12:25:34.006249  9747 layer_factory.hpp:77] Creating layer accuracy
I0817 12:25:34.006256  9747 net.cpp:100] Creating Layer accuracy
I0817 12:25:34.006259  9747 net.cpp:434] accuracy <- fc8_fc8_0_split_0
I0817 12:25:34.006263  9747 net.cpp:434] accuracy <- label_mnist_1_split_0
I0817 12:25:34.006270  9747 net.cpp:408] accuracy -> accuracy
…
