…
I0817 11:28:57.488945  7314 net.cpp:322] The NetState phase (0) differed from the phase (1) specified by a rule in layer coco
I0817 11:28:57.488963  7314 net.cpp:322] The NetState phase (0) differed from the phase (1) specified by a rule in layer accuracy
I0817 11:28:57.489102  7314 net.cpp:58] Initializing net from parameters: 
name: "AlexNet"
state {
  phase: TRAIN
}
layer {
  name: "coco"
  type: "Data"
  top: "data"
  top: "label"
  include {
    phase: TRAIN
  }
  transform_param {
    scale: 0.00390625
    mean_file: "data/lmdb/coco_color_mean.binaryproto"
  }
  data_param {
    source: "data/lmdb/coco_train_lmdb"
    batch_size: 256
    backend: LMDB
  }
}
layer {
  name: "conv1"
  type: "Convolution"
  bottom: "data"
  top: "conv1"
  param {
    lr_mult: 1
    decay_mult: 1
  }
  param {
    lr_mult: 2
    decay_mult: 0
  }
  convolution_param {
    num_output: 96
    kernel_size: 11
    stride: 4
    weight_filler {
      type: "gaussian"
      std: 0.01
    }
    bias_filler {
      type: "constant"
      value: 0
    }
  }
}
layer {
  name: "relu1"
  type: "ReLU"
  bottom: "conv1"
  top: "conv1"
}
layer {
  name: "norm1"
  type: "LRN"
  bottom: "conv1"
  top: "norm1"
  lrn_param {
    local_size: 5
    alpha: 0.0001
    beta: 0.75
  }
}
layer {
  name: "pool1"
  type: "Pooling"
  bottom: "norm1"
  top: "pool1"
  pooling_param {
    pool: MAX
    kernel_size: 3
    stride: 2
  }
}
layer {
  name: "conv2"
  type: "Convolution"
  bottom: "pool1"
  top: "conv2"
  param {
    lr_mult: 1
    decay_mult: 1
  }
  param {
    lr_mult: 2
    decay_mult: 0
  }
  convolution_param {
    num_output: 256
    pad: 2
    kernel_size: 5
    group: 2
    weight_filler {
      type: "gaussian"
      std: 0.01
    }
    bias_filler {
      type: "constant"
      value: 0.1
    }
  }
}
layer {
  name: "relu2"
  type: "ReLU"
  bottom: "conv2"
  top: "conv2"
}
layer {
  name: "norm2"
  type: "LRN"
  bottom: "conv2"
  top: "norm2"
  lrn_param {
    local_size: 5
    alpha: 0.0001
    beta: 0.75
  }
}
layer {
  name: "pool2"
  type: "Pooling"
  bottom: "norm2"
  top: "pool2"
  pooling_param {
    pool: MAX
    kernel_size: 3
    stride: 2
  }
}
layer {
  name: "conv3"
  type: "Convolution"
  bottom: "pool2"
  top: "conv3"
  param {
    lr_mult: 1
    decay_mult: 1
  }
  param {
    lr_mult: 2
    decay_mult: 0
  }
  convolution_param {
    num_output: 384
    pad: 1
    kernel_size: 3
    weight_filler {
      type: "gaussian"
      std: 0.01
    }
    bias_filler {
      type: "constant"
      value: 0
    }
  }
}
layer {
  name: "relu3"
  type: "ReLU"
  bottom: "conv3"
  top: "conv3"
}
layer {
  name: "conv4"
  type: "Convolution"
  bottom: "conv3"
  top: "conv4"
  param {
    lr_mult: 1
    decay_mult: 1
  }
  param {
    lr_mult: 2
    decay_mult: 0
  }
  convolution_param {
    num_output: 384
    pad: 1
    kernel_size: 3
    group: 2
    weight_filler {
      type: "gaussian"
      std: 0.01
    }
    bias_filler {
      type: "constant"
      value: 0.1
    }
  }
}
layer {
  name: "relu4"
  type: "ReLU"
  bottom: "conv4"
  top: "conv4"
}
layer {
  name: "conv5"
  type: "Convolution"
  bottom: "conv4"
  top: "conv5"
  param {
    lr_mult: 1
    decay_mult: 1
  }
  param {
    lr_mult: 2
    decay_mult: 0
  }
  convolution_param {
    num_output: 256
    pad: 1
    kernel_size: 3
    group: 2
    weight_filler {
      type: "gaussian"
      std: 0.01
    }
    bias_filler {
      type: "constant"
      value: 0.1
    }
  }
}
layer {
  name: "relu5"
  type: "ReLU"
  bottom: "conv5"
  top: "conv5"
}
layer {
  name: "pool5"
  type: "Pooling"
  bottom: "conv5"
  top: "pool5"
  pooling_param {
    pool: MAX
    kernel_size: 3
    stride: 2
  }
}
layer {
  name: "fc6"
  type: "InnerProduct"
  bottom: "pool5"
  top: "fc6"
  param {
    lr_mult: 1
    decay_mult: 1
  }
  param {
    lr_mult: 2
    decay_mult: 0
  }
  inner_product_param {
    num_output: 4096
    weight_filler {
      type: "gaussian"
      std: 0.005
    }
    bias_filler {
      type: "constant"
      value: 0.1
    }
  }
}
layer {
  name: "relu6"
  type: "ReLU"
  bottom: "fc6"
  top: "fc6"
}
layer {
  name: "drop6"
  type: "Dropout"
  bottom: "fc6"
  top: "fc6"
  dropout_param {
    dropout_ratio: 0.5
  }
}
layer {
  name: "fc7"
  type: "InnerProduct"
  bottom: "fc6"
  top: "fc7"
  param {
    lr_mult: 1
    decay_mult: 1
  }
  param {
    lr_mult: 2
    decay_mult: 0
  }
  inner_product_param {
    num_output: 4096
    weight_filler {
      type: "gaussian"
      std: 0.005
    }
    bias_filler {
      type: "constant"
      value: 0.1
    }
  }
}
layer {
  name: "relu7"
  type: "ReLU"
  bottom: "fc7"
  top: "fc7"
}
layer {
  name: "drop7"
  type: "Dropout"
  bottom: "fc7"
  top: "fc7"
  dropout_param {
    dropout_ratio: 0.5
  }
}
layer {
  name: "fc8"
  type: "InnerProduct"
  bottom: "fc7"
  top: "fc8"
  param {
    lr_mult: 1
    decay_mult: 1
  }
  param {
    lr_mult: 2
    decay_mult: 0
  }
  inner_product_param {
    num_output: 80
    weight_filler {
      type: "gaussian"
      std: 0.01
    }
    bias_filler {
      type: "constant"
      value: 0
    }
  }
}
layer {
  name: "loss"
  type: "SoftmaxWithLoss"
  bottom: "fc8"
  bottom: "label"
  top: "loss"
}
I0817 11:28:57.489176  7314 layer_factory.hpp:77] Creating layer coco
I0817 11:28:57.490226  7314 net.cpp:100] Creating Layer coco
I0817 11:28:57.490238  7314 net.cpp:408] coco -> data
I0817 11:28:57.490252  7314 net.cpp:408] coco -> label
I0817 11:28:57.490262  7314 data_transformer.cpp:25] Loading mean file from: data/lmdb/coco_color_mean.binaryproto
I0817 11:28:57.491742  7325 db_lmdb.cpp:35] Opened lmdb data/lmdb/coco_train_lmdb
I0817 11:28:57.525270  7314 data_layer.cpp:41] output data size: 256,3,128,128
I0817 11:28:57.648507  7314 net.cpp:150] Setting up coco
I0817 11:28:57.648546  7314 net.cpp:157] Top shape: 256 3 128 128 (12582912)
I0817 11:28:57.648553  7314 net.cpp:157] Top shape: 256 (256)
I0817 11:28:57.648557  7314 net.cpp:165] Memory required for data: 50332672
I0817 11:28:57.648564  7314 layer_factory.hpp:77] Creating layer conv1
I0817 11:28:57.648591  7314 net.cpp:100] Creating Layer conv1
I0817 11:28:57.648597  7314 net.cpp:434] conv1 <- data
I0817 11:28:57.648605  7314 net.cpp:408] conv1 -> conv1
I0817 11:28:57.937214  7314 net.cpp:150] Setting up conv1
I0817 11:28:57.937253  7314 net.cpp:157] Top shape: 256 96 30 30 (22118400)
I0817 11:28:57.937258  7314 net.cpp:165] Memory required for data: 138806272
I0817 11:28:57.937278  7314 layer_factory.hpp:77] Creating layer relu1
I0817 11:28:57.937294  7314 net.cpp:100] Creating Layer relu1
I0817 11:28:57.937299  7314 net.cpp:434] relu1 <- conv1
I0817 11:28:57.937305  7314 net.cpp:395] relu1 -> conv1 (in-place)
I0817 11:28:57.937491  7314 net.cpp:150] Setting up relu1
I0817 11:28:57.937502  7314 net.cpp:157] Top shape: 256 96 30 30 (22118400)
I0817 11:28:57.937507  7314 net.cpp:165] Memory required for data: 227279872
I0817 11:28:57.937510  7314 layer_factory.hpp:77] Creating layer norm1
I0817 11:28:57.937520  7314 net.cpp:100] Creating Layer norm1
I0817 11:28:57.937526  7314 net.cpp:434] norm1 <- conv1
I0817 11:28:57.937531  7314 net.cpp:408] norm1 -> norm1
I0817 11:28:57.938006  7314 net.cpp:150] Setting up norm1
I0817 11:28:57.938021  7314 net.cpp:157] Top shape: 256 96 30 30 (22118400)
I0817 11:28:57.938024  7314 net.cpp:165] Memory required for data: 315753472
I0817 11:28:57.938027  7314 layer_factory.hpp:77] Creating layer pool1
I0817 11:28:57.938037  7314 net.cpp:100] Creating Layer pool1
I0817 11:28:57.938040  7314 net.cpp:434] pool1 <- norm1
I0817 11:28:57.938046  7314 net.cpp:408] pool1 -> pool1
I0817 11:28:57.938086  7314 net.cpp:150] Setting up pool1
I0817 11:28:57.938092  7314 net.cpp:157] Top shape: 256 96 15 15 (5529600)
I0817 11:28:57.938096  7314 net.cpp:165] Memory required for data: 337871872
I0817 11:28:57.938098  7314 layer_factory.hpp:77] Creating layer conv2
I0817 11:28:57.938112  7314 net.cpp:100] Creating Layer conv2
I0817 11:28:57.938117  7314 net.cpp:434] conv2 <- pool1
I0817 11:28:57.938122  7314 net.cpp:408] conv2 -> conv2
I0817 11:28:57.944346  7314 net.cpp:150] Setting up conv2
I0817 11:28:57.944362  7314 net.cpp:157] Top shape: 256 256 15 15 (14745600)
I0817 11:28:57.944366  7314 net.cpp:165] Memory required for data: 396854272
I0817 11:28:57.944375  7314 layer_factory.hpp:77] Creating layer relu2
I0817 11:28:57.944381  7314 net.cpp:100] Creating Layer relu2
I0817 11:28:57.944386  7314 net.cpp:434] relu2 <- conv2
I0817 11:28:57.944389  7314 net.cpp:395] relu2 -> conv2 (in-place)
I0817 11:28:57.944846  7314 net.cpp:150] Setting up relu2
I0817 11:28:57.944860  7314 net.cpp:157] Top shape: 256 256 15 15 (14745600)
I0817 11:28:57.944864  7314 net.cpp:165] Memory required for data: 455836672
I0817 11:28:57.944867  7314 layer_factory.hpp:77] Creating layer norm2
I0817 11:28:57.944875  7314 net.cpp:100] Creating Layer norm2
I0817 11:28:57.944877  7314 net.cpp:434] norm2 <- conv2
I0817 11:28:57.944882  7314 net.cpp:408] norm2 -> norm2
I0817 11:28:57.945081  7314 net.cpp:150] Setting up norm2
I0817 11:28:57.945091  7314 net.cpp:157] Top shape: 256 256 15 15 (14745600)
I0817 11:28:57.945094  7314 net.cpp:165] Memory required for data: 514819072
I0817 11:28:57.945097  7314 layer_factory.hpp:77] Creating layer pool2
I0817 11:28:57.945106  7314 net.cpp:100] Creating Layer pool2
I0817 11:28:57.945108  7314 net.cpp:434] pool2 <- norm2
I0817 11:28:57.945113  7314 net.cpp:408] pool2 -> pool2
I0817 11:28:57.945150  7314 net.cpp:150] Setting up pool2
I0817 11:28:57.945158  7314 net.cpp:157] Top shape: 256 256 7 7 (3211264)
I0817 11:28:57.945163  7314 net.cpp:165] Memory required for data: 527664128
I0817 11:28:57.945165  7314 layer_factory.hpp:77] Creating layer conv3
I0817 11:28:57.945174  7314 net.cpp:100] Creating Layer conv3
I0817 11:28:57.945183  7314 net.cpp:434] conv3 <- pool2
I0817 11:28:57.945188  7314 net.cpp:408] conv3 -> conv3
I0817 11:28:57.958452  7314 net.cpp:150] Setting up conv3
I0817 11:28:57.958469  7314 net.cpp:157] Top shape: 256 384 7 7 (4816896)
I0817 11:28:57.958472  7314 net.cpp:165] Memory required for data: 546931712
I0817 11:28:57.958482  7314 layer_factory.hpp:77] Creating layer relu3
I0817 11:28:57.958489  7314 net.cpp:100] Creating Layer relu3
I0817 11:28:57.958492  7314 net.cpp:434] relu3 <- conv3
I0817 11:28:57.958498  7314 net.cpp:395] relu3 -> conv3 (in-place)
I0817 11:28:57.958678  7314 net.cpp:150] Setting up relu3
I0817 11:28:57.958689  7314 net.cpp:157] Top shape: 256 384 7 7 (4816896)
I0817 11:28:57.958693  7314 net.cpp:165] Memory required for data: 566199296
I0817 11:28:57.958695  7314 layer_factory.hpp:77] Creating layer conv4
I0817 11:28:57.958706  7314 net.cpp:100] Creating Layer conv4
I0817 11:28:57.958709  7314 net.cpp:434] conv4 <- conv3
I0817 11:28:57.958715  7314 net.cpp:408] conv4 -> conv4
I0817 11:28:57.969806  7314 net.cpp:150] Setting up conv4
I0817 11:28:57.969822  7314 net.cpp:157] Top shape: 256 384 7 7 (4816896)
I0817 11:28:57.969826  7314 net.cpp:165] Memory required for data: 585466880
I0817 11:28:57.969833  7314 layer_factory.hpp:77] Creating layer relu4
I0817 11:28:57.969840  7314 net.cpp:100] Creating Layer relu4
I0817 11:28:57.969842  7314 net.cpp:434] relu4 <- conv4
I0817 11:28:57.969847  7314 net.cpp:395] relu4 -> conv4 (in-place)
I0817 11:28:57.970046  7314 net.cpp:150] Setting up relu4
I0817 11:28:57.970058  7314 net.cpp:157] Top shape: 256 384 7 7 (4816896)
I0817 11:28:57.970062  7314 net.cpp:165] Memory required for data: 604734464
I0817 11:28:57.970064  7314 layer_factory.hpp:77] Creating layer conv5
I0817 11:28:57.970077  7314 net.cpp:100] Creating Layer conv5
I0817 11:28:57.970082  7314 net.cpp:434] conv5 <- conv4
I0817 11:28:57.970088  7314 net.cpp:408] conv5 -> conv5
I0817 11:28:57.978523  7314 net.cpp:150] Setting up conv5
I0817 11:28:57.978539  7314 net.cpp:157] Top shape: 256 256 7 7 (3211264)
I0817 11:28:57.978543  7314 net.cpp:165] Memory required for data: 617579520
I0817 11:28:57.978552  7314 layer_factory.hpp:77] Creating layer relu5
I0817 11:28:57.978560  7314 net.cpp:100] Creating Layer relu5
I0817 11:28:57.978564  7314 net.cpp:434] relu5 <- conv5
I0817 11:28:57.978570  7314 net.cpp:395] relu5 -> conv5 (in-place)
I0817 11:28:57.978777  7314 net.cpp:150] Setting up relu5
I0817 11:28:57.978788  7314 net.cpp:157] Top shape: 256 256 7 7 (3211264)
I0817 11:28:57.978791  7314 net.cpp:165] Memory required for data: 630424576
I0817 11:28:57.978796  7314 layer_factory.hpp:77] Creating layer pool5
I0817 11:28:57.978802  7314 net.cpp:100] Creating Layer pool5
I0817 11:28:57.978806  7314 net.cpp:434] pool5 <- conv5
I0817 11:28:57.978811  7314 net.cpp:408] pool5 -> pool5
I0817 11:28:57.978858  7314 net.cpp:150] Setting up pool5
I0817 11:28:57.978868  7314 net.cpp:157] Top shape: 256 256 3 3 (589824)
I0817 11:28:57.978869  7314 net.cpp:165] Memory required for data: 632783872
I0817 11:28:57.978873  7314 layer_factory.hpp:77] Creating layer fc6
I0817 11:28:57.978886  7314 net.cpp:100] Creating Layer fc6
I0817 11:28:57.978893  7314 net.cpp:434] fc6 <- pool5
I0817 11:28:57.978898  7314 net.cpp:408] fc6 -> fc6
I0817 11:28:58.109974  7314 net.cpp:150] Setting up fc6
I0817 11:28:58.110014  7314 net.cpp:157] Top shape: 256 4096 (1048576)
I0817 11:28:58.110018  7314 net.cpp:165] Memory required for data: 636978176
I0817 11:28:58.110033  7314 layer_factory.hpp:77] Creating layer relu6
I0817 11:28:58.110045  7314 net.cpp:100] Creating Layer relu6
I0817 11:28:58.110050  7314 net.cpp:434] relu6 <- fc6
I0817 11:28:58.110057  7314 net.cpp:395] relu6 -> fc6 (in-place)
I0817 11:28:58.110649  7314 net.cpp:150] Setting up relu6
I0817 11:28:58.110666  7314 net.cpp:157] Top shape: 256 4096 (1048576)
I0817 11:28:58.110668  7314 net.cpp:165] Memory required for data: 641172480
I0817 11:28:58.110671  7314 layer_factory.hpp:77] Creating layer drop6
I0817 11:28:58.110682  7314 net.cpp:100] Creating Layer drop6
I0817 11:28:58.110684  7314 net.cpp:434] drop6 <- fc6
I0817 11:28:58.110692  7314 net.cpp:395] drop6 -> fc6 (in-place)
I0817 11:28:58.110718  7314 net.cpp:150] Setting up drop6
I0817 11:28:58.110728  7314 net.cpp:157] Top shape: 256 4096 (1048576)
I0817 11:28:58.110730  7314 net.cpp:165] Memory required for data: 645366784
I0817 11:28:58.110733  7314 layer_factory.hpp:77] Creating layer fc7
I0817 11:28:58.110743  7314 net.cpp:100] Creating Layer fc7
I0817 11:28:58.110745  7314 net.cpp:434] fc7 <- fc6
I0817 11:28:58.110752  7314 net.cpp:408] fc7 -> fc7
I0817 11:28:58.341246  7314 net.cpp:150] Setting up fc7
I0817 11:28:58.341294  7314 net.cpp:157] Top shape: 256 4096 (1048576)
I0817 11:28:58.341297  7314 net.cpp:165] Memory required for data: 649561088
I0817 11:28:58.341310  7314 layer_factory.hpp:77] Creating layer relu7
I0817 11:28:58.341323  7314 net.cpp:100] Creating Layer relu7
I0817 11:28:58.341328  7314 net.cpp:434] relu7 <- fc7
I0817 11:28:58.341337  7314 net.cpp:395] relu7 -> fc7 (in-place)
I0817 11:28:58.341629  7314 net.cpp:150] Setting up relu7
I0817 11:28:58.341640  7314 net.cpp:157] Top shape: 256 4096 (1048576)
I0817 11:28:58.341642  7314 net.cpp:165] Memory required for data: 653755392
I0817 11:28:58.341645  7314 layer_factory.hpp:77] Creating layer drop7
I0817 11:28:58.341656  7314 net.cpp:100] Creating Layer drop7
I0817 11:28:58.341660  7314 net.cpp:434] drop7 <- fc7
I0817 11:28:58.341663  7314 net.cpp:395] drop7 -> fc7 (in-place)
I0817 11:28:58.341692  7314 net.cpp:150] Setting up drop7
I0817 11:28:58.341698  7314 net.cpp:157] Top shape: 256 4096 (1048576)
I0817 11:28:58.341701  7314 net.cpp:165] Memory required for data: 657949696
I0817 11:28:58.341703  7314 layer_factory.hpp:77] Creating layer fc8
I0817 11:28:58.341713  7314 net.cpp:100] Creating Layer fc8
I0817 11:28:58.341717  7314 net.cpp:434] fc8 <- fc7
I0817 11:28:58.341724  7314 net.cpp:408] fc8 -> fc8
I0817 11:28:58.346966  7314 net.cpp:150] Setting up fc8
I0817 11:28:58.346983  7314 net.cpp:157] Top shape: 256 80 (20480)
I0817 11:28:58.346987  7314 net.cpp:165] Memory required for data: 658031616
I0817 11:28:58.346993  7314 layer_factory.hpp:77] Creating layer loss
I0817 11:28:58.347000  7314 net.cpp:100] Creating Layer loss
I0817 11:28:58.347003  7314 net.cpp:434] loss <- fc8
I0817 11:28:58.347007  7314 net.cpp:434] loss <- label
I0817 11:28:58.347012  7314 net.cpp:408] loss -> loss
I0817 11:28:58.347021  7314 layer_factory.hpp:77] Creating layer loss
…
I0817 11:28:58.347856  7314 solver.cpp:181] Creating test net (#0) specified by net file: nets/coco_all_classes_alex_net/trainval.prototxt
I0817 11:28:58.347898  7314 net.cpp:322] The NetState phase (1) differed from the phase (0) specified by a rule in layer coco
I0817 11:28:58.348067  7314 net.cpp:58] Initializing net from parameters: 
name: "AlexNet"
state {
  phase: TEST
}
layer {
  name: "coco"
  type: "Data"
  top: "data"
  top: "label"
  include {
    phase: TEST
  }
  transform_param {
    scale: 0.00390625
    mean_file: "data/lmdb/coco_color_mean.binaryproto"
  }
  data_param {
    source: "data/lmdb/coco_val_lmdb"
    batch_size: 256
    backend: LMDB
  }
}
layer {
  name: "conv1"
  type: "Convolution"
  bottom: "data"
  top: "conv1"
  param {
    lr_mult: 1
    decay_mult: 1
  }
  param {
    lr_mult: 2
    decay_mult: 0
  }
  convolution_param {
    num_output: 96
    kernel_size: 11
    stride: 4
    weight_filler {
      type: "gaussian"
      std: 0.01
    }
    bias_filler {
      type: "constant"
      value: 0
    }
  }
}
layer {
  name: "relu1"
  type: "ReLU"
  bottom: "conv1"
  top: "conv1"
}
layer {
  name: "norm1"
  type: "LRN"
  bottom: "conv1"
  top: "norm1"
  lrn_param {
    local_size: 5
    alpha: 0.0001
    beta: 0.75
  }
}
layer {
  name: "pool1"
  type: "Pooling"
  bottom: "norm1"
  top: "pool1"
  pooling_param {
    pool: MAX
    kernel_size: 3
    stride: 2
  }
}
layer {
  name: "conv2"
  type: "Convolution"
  bottom: "pool1"
  top: "conv2"
  param {
    lr_mult: 1
    decay_mult: 1
  }
  param {
    lr_mult: 2
    decay_mult: 0
  }
  convolution_param {
    num_output: 256
    pad: 2
    kernel_size: 5
    group: 2
    weight_filler {
      type: "gaussian"
      std: 0.01
    }
    bias_filler {
      type: "constant"
      value: 0.1
    }
  }
}
layer {
  name: "relu2"
  type: "ReLU"
  bottom: "conv2"
  top: "conv2"
}
layer {
  name: "norm2"
  type: "LRN"
  bottom: "conv2"
  top: "norm2"
  lrn_param {
    local_size: 5
    alpha: 0.0001
    beta: 0.75
  }
}
layer {
  name: "pool2"
  type: "Pooling"
  bottom: "norm2"
  top: "pool2"
  pooling_param {
    pool: MAX
    kernel_size: 3
    stride: 2
  }
}
layer {
  name: "conv3"
  type: "Convolution"
  bottom: "pool2"
  top: "conv3"
  param {
    lr_mult: 1
    decay_mult: 1
  }
  param {
    lr_mult: 2
    decay_mult: 0
  }
  convolution_param {
    num_output: 384
    pad: 1
    kernel_size: 3
    weight_filler {
      type: "gaussian"
      std: 0.01
    }
    bias_filler {
      type: "constant"
      value: 0
    }
  }
}
layer {
  name: "relu3"
  type: "ReLU"
  bottom: "conv3"
  top: "conv3"
}
layer {
  name: "conv4"
  type: "Convolution"
  bottom: "conv3"
  top: "conv4"
  param {
    lr_mult: 1
    decay_mult: 1
  }
  param {
    lr_mult: 2
    decay_mult: 0
  }
  convolution_param {
    num_output: 384
    pad: 1
    kernel_size: 3
    group: 2
    weight_filler {
      type: "gaussian"
      std: 0.01
    }
    bias_filler {
      type: "constant"
      value: 0.1
    }
  }
}
layer {
  name: "relu4"
  type: "ReLU"
  bottom: "conv4"
  top: "conv4"
}
layer {
  name: "conv5"
  type: "Convolution"
  bottom: "conv4"
  top: "conv5"
  param {
    lr_mult: 1
    decay_mult: 1
  }
  param {
    lr_mult: 2
    decay_mult: 0
  }
  convolution_param {
    num_output: 256
    pad: 1
    kernel_size: 3
    group: 2
    weight_filler {
      type: "gaussian"
      std: 0.01
    }
    bias_filler {
      type: "constant"
      value: 0.1
    }
  }
}
layer {
  name: "relu5"
  type: "ReLU"
  bottom: "conv5"
  top: "conv5"
}
layer {
  name: "pool5"
  type: "Pooling"
  bottom: "conv5"
  top: "pool5"
  pooling_param {
    pool: MAX
    kernel_size: 3
    stride: 2
  }
}
layer {
  name: "fc6"
  type: "InnerProduct"
  bottom: "pool5"
  top: "fc6"
  param {
    lr_mult: 1
    decay_mult: 1
  }
  param {
    lr_mult: 2
    decay_mult: 0
  }
  inner_product_param {
    num_output: 4096
    weight_filler {
      type: "gaussian"
      std: 0.005
    }
    bias_filler {
      type: "constant"
      value: 0.1
    }
  }
}
layer {
  name: "relu6"
  type: "ReLU"
  bottom: "fc6"
  top: "fc6"
}
layer {
  name: "drop6"
  type: "Dropout"
  bottom: "fc6"
  top: "fc6"
  dropout_param {
    dropout_ratio: 0.5
  }
}
layer {
  name: "fc7"
  type: "InnerProduct"
  bottom: "fc6"
  top: "fc7"
  param {
    lr_mult: 1
    decay_mult: 1
  }
  param {
    lr_mult: 2
    decay_mult: 0
  }
  inner_product_param {
    num_output: 4096
    weight_filler {
      type: "gaussian"
      std: 0.005
    }
    bias_filler {
      type: "constant"
      value: 0.1
    }
  }
}
layer {
  name: "relu7"
  type: "ReLU"
  bottom: "fc7"
  top: "fc7"
}
layer {
  name: "drop7"
  type: "Dropout"
  bottom: "fc7"
  top: "fc7"
  dropout_param {
    dropout_ratio: 0.5
  }
}
layer {
  name: "fc8"
  type: "InnerProduct"
  bottom: "fc7"
  top: "fc8"
  param {
    lr_mult: 1
    decay_mult: 1
  }
  param {
    lr_mult: 2
    decay_mult: 0
  }
  inner_product_param {
    num_output: 80
    weight_filler {
      type: "gaussian"
      std: 0.01
    }
    bias_filler {
      type: "constant"
      value: 0
    }
  }
}
layer {
  name: "accuracy"
  type: "Accuracy"
  bottom: "fc8"
  bottom: "label"
  top: "accuracy"
  include {
    phase: TEST
  }
}
layer {
  name: "loss"
  type: "SoftmaxWithLoss"
  bottom: "fc8"
  bottom: "label"
  top: "loss"
}
I0817 11:28:58.348188  7314 layer_factory.hpp:77] Creating layer coco
I0817 11:28:58.348423  7314 net.cpp:100] Creating Layer coco
I0817 11:28:58.348433  7314 net.cpp:408] coco -> data
I0817 11:28:58.348441  7314 net.cpp:408] coco -> label
I0817 11:28:58.348449  7314 data_transformer.cpp:25] Loading mean file from: data/lmdb/coco_color_mean.binaryproto
I0817 11:28:58.350035  7327 db_lmdb.cpp:35] Opened lmdb data/lmdb/coco_val_lmdb
I0817 11:28:58.350383  7314 data_layer.cpp:41] output data size: 256,3,128,128
I0817 11:28:58.496971  7314 net.cpp:150] Setting up coco
I0817 11:28:58.497009  7314 net.cpp:157] Top shape: 256 3 128 128 (12582912)
I0817 11:28:58.497015  7314 net.cpp:157] Top shape: 256 (256)
I0817 11:28:58.497019  7314 net.cpp:165] Memory required for data: 50332672
I0817 11:28:58.497025  7314 layer_factory.hpp:77] Creating layer label_coco_1_split
I0817 11:28:58.497042  7314 net.cpp:100] Creating Layer label_coco_1_split
I0817 11:28:58.497048  7314 net.cpp:434] label_coco_1_split <- label
I0817 11:28:58.497056  7314 net.cpp:408] label_coco_1_split -> label_coco_1_split_0
I0817 11:28:58.497069  7314 net.cpp:408] label_coco_1_split -> label_coco_1_split_1
I0817 11:28:58.497329  7314 net.cpp:150] Setting up label_coco_1_split
I0817 11:28:58.497360  7314 net.cpp:157] Top shape: 256 (256)
I0817 11:28:58.497369  7314 net.cpp:157] Top shape: 256 (256)
I0817 11:28:58.497372  7314 net.cpp:165] Memory required for data: 50334720
I0817 11:28:58.497378  7314 layer_factory.hpp:77] Creating layer conv1
I0817 11:28:58.497403  7314 net.cpp:100] Creating Layer conv1
I0817 11:28:58.497411  7314 net.cpp:434] conv1 <- data
I0817 11:28:58.497424  7314 net.cpp:408] conv1 -> conv1
I0817 11:28:58.510926  7314 net.cpp:150] Setting up conv1
I0817 11:28:58.510960  7314 net.cpp:157] Top shape: 256 96 30 30 (22118400)
I0817 11:28:58.510967  7314 net.cpp:165] Memory required for data: 138808320
I0817 11:28:58.510988  7314 layer_factory.hpp:77] Creating layer relu1
I0817 11:28:58.511003  7314 net.cpp:100] Creating Layer relu1
I0817 11:28:58.511009  7314 net.cpp:434] relu1 <- conv1
I0817 11:28:58.511019  7314 net.cpp:395] relu1 -> conv1 (in-place)
I0817 11:28:58.511385  7314 net.cpp:150] Setting up relu1
I0817 11:28:58.511402  7314 net.cpp:157] Top shape: 256 96 30 30 (22118400)
I0817 11:28:58.511407  7314 net.cpp:165] Memory required for data: 227281920
I0817 11:28:58.511412  7314 layer_factory.hpp:77] Creating layer norm1
I0817 11:28:58.511428  7314 net.cpp:100] Creating Layer norm1
I0817 11:28:58.511435  7314 net.cpp:434] norm1 <- conv1
I0817 11:28:58.511445  7314 net.cpp:408] norm1 -> norm1
I0817 11:28:58.512406  7314 net.cpp:150] Setting up norm1
I0817 11:28:58.512433  7314 net.cpp:157] Top shape: 256 96 30 30 (22118400)
I0817 11:28:58.512439  7314 net.cpp:165] Memory required for data: 315755520
I0817 11:28:58.512445  7314 layer_factory.hpp:77] Creating layer pool1
I0817 11:28:58.512459  7314 net.cpp:100] Creating Layer pool1
I0817 11:28:58.512465  7314 net.cpp:434] pool1 <- norm1
I0817 11:28:58.512476  7314 net.cpp:408] pool1 -> pool1
I0817 11:28:58.512554  7314 net.cpp:150] Setting up pool1
I0817 11:28:58.512568  7314 net.cpp:157] Top shape: 256 96 15 15 (5529600)
I0817 11:28:58.512573  7314 net.cpp:165] Memory required for data: 337873920
I0817 11:28:58.512578  7314 layer_factory.hpp:77] Creating layer conv2
I0817 11:28:58.512598  7314 net.cpp:100] Creating Layer conv2
I0817 11:28:58.512605  7314 net.cpp:434] conv2 <- pool1
I0817 11:28:58.512619  7314 net.cpp:408] conv2 -> conv2
I0817 11:28:58.524503  7314 net.cpp:150] Setting up conv2
I0817 11:28:58.524533  7314 net.cpp:157] Top shape: 256 256 15 15 (14745600)
I0817 11:28:58.524540  7314 net.cpp:165] Memory required for data: 396856320
I0817 11:28:58.524556  7314 layer_factory.hpp:77] Creating layer relu2
I0817 11:28:58.524571  7314 net.cpp:100] Creating Layer relu2
I0817 11:28:58.524577  7314 net.cpp:434] relu2 <- conv2
I0817 11:28:58.524585  7314 net.cpp:395] relu2 -> conv2 (in-place)
I0817 11:28:58.525439  7314 net.cpp:150] Setting up relu2
I0817 11:28:58.525466  7314 net.cpp:157] Top shape: 256 256 15 15 (14745600)
I0817 11:28:58.525472  7314 net.cpp:165] Memory required for data: 455838720
I0817 11:28:58.525477  7314 layer_factory.hpp:77] Creating layer norm2
I0817 11:28:58.525496  7314 net.cpp:100] Creating Layer norm2
I0817 11:28:58.525501  7314 net.cpp:434] norm2 <- conv2
I0817 11:28:58.525511  7314 net.cpp:408] norm2 -> norm2
I0817 11:28:58.525918  7314 net.cpp:150] Setting up norm2
I0817 11:28:58.525938  7314 net.cpp:157] Top shape: 256 256 15 15 (14745600)
I0817 11:28:58.525943  7314 net.cpp:165] Memory required for data: 514821120
I0817 11:28:58.525949  7314 layer_factory.hpp:77] Creating layer pool2
I0817 11:28:58.525959  7314 net.cpp:100] Creating Layer pool2
I0817 11:28:58.525964  7314 net.cpp:434] pool2 <- norm2
I0817 11:28:58.525975  7314 net.cpp:408] pool2 -> pool2
I0817 11:28:58.526047  7314 net.cpp:150] Setting up pool2
I0817 11:28:58.526062  7314 net.cpp:157] Top shape: 256 256 7 7 (3211264)
I0817 11:28:58.526068  7314 net.cpp:165] Memory required for data: 527666176
I0817 11:28:58.526073  7314 layer_factory.hpp:77] Creating layer conv3
I0817 11:28:58.526092  7314 net.cpp:100] Creating Layer conv3
I0817 11:28:58.526099  7314 net.cpp:434] conv3 <- pool2
I0817 11:28:58.526109  7314 net.cpp:408] conv3 -> conv3
I0817 11:28:58.549125  7314 net.cpp:150] Setting up conv3
I0817 11:28:58.549173  7314 net.cpp:157] Top shape: 256 384 7 7 (4816896)
I0817 11:28:58.549180  7314 net.cpp:165] Memory required for data: 546933760
I0817 11:28:58.549204  7314 layer_factory.hpp:77] Creating layer relu3
I0817 11:28:58.549224  7314 net.cpp:100] Creating Layer relu3
I0817 11:28:58.549235  7314 net.cpp:434] relu3 <- conv3
I0817 11:28:58.549247  7314 net.cpp:395] relu3 -> conv3 (in-place)
I0817 11:28:58.549584  7314 net.cpp:150] Setting up relu3
I0817 11:28:58.549602  7314 net.cpp:157] Top shape: 256 384 7 7 (4816896)
I0817 11:28:58.549607  7314 net.cpp:165] Memory required for data: 566201344
I0817 11:28:58.549612  7314 layer_factory.hpp:77] Creating layer conv4
I0817 11:28:58.549635  7314 net.cpp:100] Creating Layer conv4
I0817 11:28:58.549641  7314 net.cpp:434] conv4 <- conv3
I0817 11:28:58.549654  7314 net.cpp:408] conv4 -> conv4
I0817 11:28:58.581332  7314 net.cpp:150] Setting up conv4
I0817 11:28:58.581367  7314 net.cpp:157] Top shape: 256 384 7 7 (4816896)
I0817 11:28:58.581375  7314 net.cpp:165] Memory required for data: 585468928
I0817 11:28:58.581388  7314 layer_factory.hpp:77] Creating layer relu4
I0817 11:28:58.581400  7314 net.cpp:100] Creating Layer relu4
I0817 11:28:58.581406  7314 net.cpp:434] relu4 <- conv4
I0817 11:28:58.581415  7314 net.cpp:395] relu4 -> conv4 (in-place)
I0817 11:28:58.582137  7314 net.cpp:150] Setting up relu4
I0817 11:28:58.582160  7314 net.cpp:157] Top shape: 256 384 7 7 (4816896)
I0817 11:28:58.582165  7314 net.cpp:165] Memory required for data: 604736512
I0817 11:28:58.582171  7314 layer_factory.hpp:77] Creating layer conv5
I0817 11:28:58.582191  7314 net.cpp:100] Creating Layer conv5
I0817 11:28:58.582196  7314 net.cpp:434] conv5 <- conv4
I0817 11:28:58.582207  7314 net.cpp:408] conv5 -> conv5
I0817 11:28:58.594295  7314 net.cpp:150] Setting up conv5
I0817 11:28:58.594326  7314 net.cpp:157] Top shape: 256 256 7 7 (3211264)
I0817 11:28:58.594331  7314 net.cpp:165] Memory required for data: 617581568
I0817 11:28:58.594350  7314 layer_factory.hpp:77] Creating layer relu5
I0817 11:28:58.594362  7314 net.cpp:100] Creating Layer relu5
I0817 11:28:58.594367  7314 net.cpp:434] relu5 <- conv5
I0817 11:28:58.594377  7314 net.cpp:395] relu5 -> conv5 (in-place)
I0817 11:28:58.594669  7314 net.cpp:150] Setting up relu5
I0817 11:28:58.594688  7314 net.cpp:157] Top shape: 256 256 7 7 (3211264)
I0817 11:28:58.594692  7314 net.cpp:165] Memory required for data: 630426624
I0817 11:28:58.594696  7314 layer_factory.hpp:77] Creating layer pool5
I0817 11:28:58.594713  7314 net.cpp:100] Creating Layer pool5
I0817 11:28:58.594718  7314 net.cpp:434] pool5 <- conv5
I0817 11:28:58.594725  7314 net.cpp:408] pool5 -> pool5
I0817 11:28:58.594804  7314 net.cpp:150] Setting up pool5
I0817 11:28:58.594815  7314 net.cpp:157] Top shape: 256 256 3 3 (589824)
I0817 11:28:58.594818  7314 net.cpp:165] Memory required for data: 632785920
I0817 11:28:58.594822  7314 layer_factory.hpp:77] Creating layer fc6
I0817 11:28:58.594843  7314 net.cpp:100] Creating Layer fc6
I0817 11:28:58.594847  7314 net.cpp:434] fc6 <- pool5
I0817 11:28:58.594856  7314 net.cpp:408] fc6 -> fc6
I0817 11:28:58.777094  7314 net.cpp:150] Setting up fc6
I0817 11:28:58.777142  7314 net.cpp:157] Top shape: 256 4096 (1048576)
I0817 11:28:58.777145  7314 net.cpp:165] Memory required for data: 636980224
I0817 11:28:58.777159  7314 layer_factory.hpp:77] Creating layer relu6
I0817 11:28:58.777173  7314 net.cpp:100] Creating Layer relu6
I0817 11:28:58.777179  7314 net.cpp:434] relu6 <- fc6
I0817 11:28:58.777189  7314 net.cpp:395] relu6 -> fc6 (in-place)
I0817 11:28:58.777520  7314 net.cpp:150] Setting up relu6
I0817 11:28:58.777536  7314 net.cpp:157] Top shape: 256 4096 (1048576)
I0817 11:28:58.777539  7314 net.cpp:165] Memory required for data: 641174528
I0817 11:28:58.777542  7314 layer_factory.hpp:77] Creating layer drop6
I0817 11:28:58.777551  7314 net.cpp:100] Creating Layer drop6
I0817 11:28:58.777555  7314 net.cpp:434] drop6 <- fc6
I0817 11:28:58.777561  7314 net.cpp:395] drop6 -> fc6 (in-place)
I0817 11:28:58.777595  7314 net.cpp:150] Setting up drop6
I0817 11:28:58.777603  7314 net.cpp:157] Top shape: 256 4096 (1048576)
I0817 11:28:58.777607  7314 net.cpp:165] Memory required for data: 645368832
I0817 11:28:58.777611  7314 layer_factory.hpp:77] Creating layer fc7
I0817 11:28:58.777622  7314 net.cpp:100] Creating Layer fc7
I0817 11:28:58.777628  7314 net.cpp:434] fc7 <- fc6
I0817 11:28:58.777634  7314 net.cpp:408] fc7 -> fc7
I0817 11:28:59.009662  7314 net.cpp:150] Setting up fc7
I0817 11:28:59.009703  7314 net.cpp:157] Top shape: 256 4096 (1048576)
I0817 11:28:59.009707  7314 net.cpp:165] Memory required for data: 649563136
I0817 11:28:59.009721  7314 layer_factory.hpp:77] Creating layer relu7
I0817 11:28:59.009735  7314 net.cpp:100] Creating Layer relu7
I0817 11:28:59.009740  7314 net.cpp:434] relu7 <- fc7
I0817 11:28:59.009748  7314 net.cpp:395] relu7 -> fc7 (in-place)
I0817 11:28:59.010546  7314 net.cpp:150] Setting up relu7
I0817 11:28:59.010562  7314 net.cpp:157] Top shape: 256 4096 (1048576)
I0817 11:28:59.010565  7314 net.cpp:165] Memory required for data: 653757440
I0817 11:28:59.010568  7314 layer_factory.hpp:77] Creating layer drop7
I0817 11:28:59.010584  7314 net.cpp:100] Creating Layer drop7
I0817 11:28:59.010588  7314 net.cpp:434] drop7 <- fc7
I0817 11:28:59.010594  7314 net.cpp:395] drop7 -> fc7 (in-place)
I0817 11:28:59.010625  7314 net.cpp:150] Setting up drop7
I0817 11:28:59.010634  7314 net.cpp:157] Top shape: 256 4096 (1048576)
I0817 11:28:59.010637  7314 net.cpp:165] Memory required for data: 657951744
I0817 11:28:59.010640  7314 layer_factory.hpp:77] Creating layer fc8
I0817 11:28:59.010649  7314 net.cpp:100] Creating Layer fc8
I0817 11:28:59.010653  7314 net.cpp:434] fc8 <- fc7
I0817 11:28:59.010661  7314 net.cpp:408] fc8 -> fc8
I0817 11:28:59.015831  7314 net.cpp:150] Setting up fc8
I0817 11:28:59.015847  7314 net.cpp:157] Top shape: 256 80 (20480)
I0817 11:28:59.015851  7314 net.cpp:165] Memory required for data: 658033664
I0817 11:28:59.015858  7314 layer_factory.hpp:77] Creating layer fc8_fc8_0_split
I0817 11:28:59.015868  7314 net.cpp:100] Creating Layer fc8_fc8_0_split
I0817 11:28:59.015872  7314 net.cpp:434] fc8_fc8_0_split <- fc8
I0817 11:28:59.015880  7314 net.cpp:408] fc8_fc8_0_split -> fc8_fc8_0_split_0
I0817 11:28:59.015888  7314 net.cpp:408] fc8_fc8_0_split -> fc8_fc8_0_split_1
I0817 11:28:59.015930  7314 net.cpp:150] Setting up fc8_fc8_0_split
I0817 11:28:59.015938  7314 net.cpp:157] Top shape: 256 80 (20480)
I0817 11:28:59.015943  7314 net.cpp:157] Top shape: 256 80 (20480)
I0817 11:28:59.015945  7314 net.cpp:165] Memory required for data: 658197504
I0817 11:28:59.015949  7314 layer_factory.hpp:77] Creating layer accuracy
I0817 11:28:59.015957  7314 net.cpp:100] Creating Layer accuracy
I0817 11:28:59.015964  7314 net.cpp:434] accuracy <- fc8_fc8_0_split_0
I0817 11:28:59.015967  7314 net.cpp:434] accuracy <- label_coco_1_split_0
I0817 11:28:59.015974  7314 net.cpp:408] accuracy -> accuracy
…
