…
I0825 12:04:13.747217 24137 net.cpp:322] The NetState phase (0) differed from the phase (1) specified by a rule in layer coco
I0825 12:04:13.747236 24137 net.cpp:322] The NetState phase (0) differed from the phase (1) specified by a rule in layer accuracy
I0825 12:04:13.747373 24137 net.cpp:58] Initializing net from parameters: 
name: "AlexNet"
state {
  phase: TRAIN
}
layer {
  name: "coco"
  type: "Data"
  top: "data"
  top: "label"
  include {
    phase: TRAIN
  }
  transform_param {
    scale: 0.00390625
    mean_file: "data/lmdb/coco_color_mean.binaryproto"
  }
  data_param {
    source: "data/lmdb/coco_train_lmdb"
    batch_size: 256
    backend: LMDB
  }
}
layer {
  name: "conv1"
  type: "Convolution"
  bottom: "data"
  top: "conv1"
  param {
    lr_mult: 1
    decay_mult: 1
  }
  param {
    lr_mult: 2
    decay_mult: 0
  }
  convolution_param {
    num_output: 96
    kernel_size: 11
    stride: 4
    weight_filler {
      type: "gaussian"
      std: 0.01
    }
    bias_filler {
      type: "constant"
      value: 0
    }
  }
}
layer {
  name: "relu1"
  type: "ReLU"
  bottom: "conv1"
  top: "conv1"
}
layer {
  name: "norm1"
  type: "LRN"
  bottom: "conv1"
  top: "norm1"
  lrn_param {
    local_size: 5
    alpha: 0.0001
    beta: 0.75
  }
}
layer {
  name: "pool1"
  type: "Pooling"
  bottom: "norm1"
  top: "pool1"
  pooling_param {
    pool: MAX
    kernel_size: 3
    stride: 2
  }
}
layer {
  name: "conv2"
  type: "Convolution"
  bottom: "pool1"
  top: "conv2"
  param {
    lr_mult: 1
    decay_mult: 1
  }
  param {
    lr_mult: 2
    decay_mult: 0
  }
  convolution_param {
    num_output: 256
    pad: 2
    kernel_size: 5
    group: 2
    weight_filler {
      type: "gaussian"
      std: 0.01
    }
    bias_filler {
      type: "constant"
      value: 0.1
    }
  }
}
layer {
  name: "relu2"
  type: "ReLU"
  bottom: "conv2"
  top: "conv2"
}
layer {
  name: "norm2"
  type: "LRN"
  bottom: "conv2"
  top: "norm2"
  lrn_param {
    local_size: 5
    alpha: 0.0001
    beta: 0.75
  }
}
layer {
  name: "pool2"
  type: "Pooling"
  bottom: "norm2"
  top: "pool2"
  pooling_param {
    pool: MAX
    kernel_size: 3
    stride: 2
  }
}
layer {
  name: "conv3"
  type: "Convolution"
  bottom: "pool2"
  top: "conv3"
  param {
    lr_mult: 1
    decay_mult: 1
  }
  param {
    lr_mult: 2
    decay_mult: 0
  }
  convolution_param {
    num_output: 384
    pad: 1
    kernel_size: 3
    weight_filler {
      type: "gaussian"
      std: 0.01
    }
    bias_filler {
      type: "constant"
      value: 0
    }
  }
}
layer {
  name: "relu3"
  type: "ReLU"
  bottom: "conv3"
  top: "conv3"
}
layer {
  name: "conv4"
  type: "Convolution"
  bottom: "conv3"
  top: "conv4"
  param {
    lr_mult: 1
    decay_mult: 1
  }
  param {
    lr_mult: 2
    decay_mult: 0
  }
  convolution_param {
    num_output: 384
    pad: 1
    kernel_size: 3
    group: 2
    weight_filler {
      type: "gaussian"
      std: 0.01
    }
    bias_filler {
      type: "constant"
      value: 0.1
    }
  }
}
layer {
  name: "relu4"
  type: "ReLU"
  bottom: "conv4"
  top: "conv4"
}
layer {
  name: "conv5"
  type: "Convolution"
  bottom: "conv4"
  top: "conv5"
  param {
    lr_mult: 1
    decay_mult: 1
  }
  param {
    lr_mult: 2
    decay_mult: 0
  }
  convolution_param {
    num_output: 256
    pad: 1
    kernel_size: 3
    group: 2
    weight_filler {
      type: "gaussian"
      std: 0.01
    }
    bias_filler {
      type: "constant"
      value: 0.1
    }
  }
}
layer {
  name: "relu5"
  type: "ReLU"
  bottom: "conv5"
  top: "conv5"
}
layer {
  name: "pool5"
  type: "Pooling"
  bottom: "conv5"
  top: "pool5"
  pooling_param {
    pool: MAX
    kernel_size: 3
    stride: 2
  }
}
layer {
  name: "fc6"
  type: "InnerProduct"
  bottom: "pool5"
  top: "fc6"
  param {
    lr_mult: 1
    decay_mult: 1
  }
  param {
    lr_mult: 2
    decay_mult: 0
  }
  inner_product_param {
    num_output: 4096
    weight_filler {
      type: "gaussian"
      std: 0.005
    }
    bias_filler {
      type: "constant"
      value: 0.1
    }
  }
}
layer {
  name: "relu6"
  type: "ReLU"
  bottom: "fc6"
  top: "fc6"
}
layer {
  name: "drop6"
  type: "Dropout"
  bottom: "fc6"
  top: "fc6"
  dropout_param {
    dropout_ratio: 0.5
  }
}
layer {
  name: "fc7"
  type: "InnerProduct"
  bottom: "fc6"
  top: "fc7"
  param {
    lr_mult: 1
    decay_mult: 1
  }
  param {
    lr_mult: 2
    decay_mult: 0
  }
  inner_product_param {
    num_output: 4096
    weight_filler {
      type: "gaussian"
      std: 0.005
    }
    bias_filler {
      type: "constant"
      value: 0.1
    }
  }
}
layer {
  name: "relu7"
  type: "ReLU"
  bottom: "fc7"
  top: "fc7"
}
layer {
  name: "drop7"
  type: "Dropout"
  bottom: "fc7"
  top: "fc7"
  dropout_param {
    dropout_ratio: 0.5
  }
}
layer {
  name: "fc8"
  type: "InnerProduct"
  bottom: "fc7"
  top: "fc8"
  param {
    lr_mult: 1
    decay_mult: 1
  }
  param {
    lr_mult: 2
    decay_mult: 0
  }
  inner_product_param {
    num_output: 80
    weight_filler {
      type: "gaussian"
      std: 0.01
    }
    bias_filler {
      type: "constant"
      value: 0
    }
  }
}
layer {
  name: "loss"
  type: "SoftmaxWithLoss"
  bottom: "fc8"
  bottom: "label"
  top: "loss"
}
I0825 12:04:13.747444 24137 layer_factory.hpp:77] Creating layer coco
I0825 12:04:13.748028 24137 net.cpp:100] Creating Layer coco
I0825 12:04:13.748039 24137 net.cpp:408] coco -> data
I0825 12:04:13.748055 24137 net.cpp:408] coco -> label
I0825 12:04:13.748064 24137 data_transformer.cpp:25] Loading mean file from: data/lmdb/coco_color_mean.binaryproto
I0825 12:04:13.752704 24142 db_lmdb.cpp:35] Opened lmdb data/lmdb/coco_train_lmdb
I0825 12:04:13.782451 24137 data_layer.cpp:41] output data size: 256,3,128,128
I0825 12:04:13.903256 24137 net.cpp:150] Setting up coco
I0825 12:04:13.903300 24137 net.cpp:157] Top shape: 256 3 128 128 (12582912)
I0825 12:04:13.903308 24137 net.cpp:157] Top shape: 256 (256)
I0825 12:04:13.903314 24137 net.cpp:165] Memory required for data: 50332672
I0825 12:04:13.903324 24137 layer_factory.hpp:77] Creating layer conv1
I0825 12:04:13.903357 24137 net.cpp:100] Creating Layer conv1
I0825 12:04:13.903370 24137 net.cpp:434] conv1 <- data
I0825 12:04:13.903386 24137 net.cpp:408] conv1 -> conv1
I0825 12:04:14.286278 24137 net.cpp:150] Setting up conv1
I0825 12:04:14.286312 24137 net.cpp:157] Top shape: 256 96 30 30 (22118400)
I0825 12:04:14.286316 24137 net.cpp:165] Memory required for data: 138806272
I0825 12:04:14.286334 24137 layer_factory.hpp:77] Creating layer relu1
I0825 12:04:14.286348 24137 net.cpp:100] Creating Layer relu1
I0825 12:04:14.286352 24137 net.cpp:434] relu1 <- conv1
I0825 12:04:14.286358 24137 net.cpp:395] relu1 -> conv1 (in-place)
I0825 12:04:14.286545 24137 net.cpp:150] Setting up relu1
I0825 12:04:14.286557 24137 net.cpp:157] Top shape: 256 96 30 30 (22118400)
I0825 12:04:14.286561 24137 net.cpp:165] Memory required for data: 227279872
I0825 12:04:14.286564 24137 layer_factory.hpp:77] Creating layer norm1
I0825 12:04:14.286572 24137 net.cpp:100] Creating Layer norm1
I0825 12:04:14.286576 24137 net.cpp:434] norm1 <- conv1
I0825 12:04:14.286581 24137 net.cpp:408] norm1 -> norm1
I0825 12:04:14.287083 24137 net.cpp:150] Setting up norm1
I0825 12:04:14.287099 24137 net.cpp:157] Top shape: 256 96 30 30 (22118400)
I0825 12:04:14.287102 24137 net.cpp:165] Memory required for data: 315753472
I0825 12:04:14.287106 24137 layer_factory.hpp:77] Creating layer pool1
I0825 12:04:14.287116 24137 net.cpp:100] Creating Layer pool1
I0825 12:04:14.287118 24137 net.cpp:434] pool1 <- norm1
I0825 12:04:14.287124 24137 net.cpp:408] pool1 -> pool1
I0825 12:04:14.287164 24137 net.cpp:150] Setting up pool1
I0825 12:04:14.287173 24137 net.cpp:157] Top shape: 256 96 15 15 (5529600)
I0825 12:04:14.287176 24137 net.cpp:165] Memory required for data: 337871872
I0825 12:04:14.287179 24137 layer_factory.hpp:77] Creating layer conv2
I0825 12:04:14.287191 24137 net.cpp:100] Creating Layer conv2
I0825 12:04:14.287196 24137 net.cpp:434] conv2 <- pool1
I0825 12:04:14.287204 24137 net.cpp:408] conv2 -> conv2
I0825 12:04:14.294559 24137 net.cpp:150] Setting up conv2
I0825 12:04:14.294585 24137 net.cpp:157] Top shape: 256 256 15 15 (14745600)
I0825 12:04:14.294589 24137 net.cpp:165] Memory required for data: 396854272
I0825 12:04:14.294605 24137 layer_factory.hpp:77] Creating layer relu2
I0825 12:04:14.294615 24137 net.cpp:100] Creating Layer relu2
I0825 12:04:14.294618 24137 net.cpp:434] relu2 <- conv2
I0825 12:04:14.294626 24137 net.cpp:395] relu2 -> conv2 (in-place)
I0825 12:04:14.295126 24137 net.cpp:150] Setting up relu2
I0825 12:04:14.295142 24137 net.cpp:157] Top shape: 256 256 15 15 (14745600)
I0825 12:04:14.295145 24137 net.cpp:165] Memory required for data: 455836672
I0825 12:04:14.295150 24137 layer_factory.hpp:77] Creating layer norm2
I0825 12:04:14.295159 24137 net.cpp:100] Creating Layer norm2
I0825 12:04:14.295163 24137 net.cpp:434] norm2 <- conv2
I0825 12:04:14.295168 24137 net.cpp:408] norm2 -> norm2
I0825 12:04:14.295403 24137 net.cpp:150] Setting up norm2
I0825 12:04:14.295416 24137 net.cpp:157] Top shape: 256 256 15 15 (14745600)
I0825 12:04:14.295418 24137 net.cpp:165] Memory required for data: 514819072
I0825 12:04:14.295423 24137 layer_factory.hpp:77] Creating layer pool2
I0825 12:04:14.295433 24137 net.cpp:100] Creating Layer pool2
I0825 12:04:14.295440 24137 net.cpp:434] pool2 <- norm2
I0825 12:04:14.295446 24137 net.cpp:408] pool2 -> pool2
I0825 12:04:14.295490 24137 net.cpp:150] Setting up pool2
I0825 12:04:14.295498 24137 net.cpp:157] Top shape: 256 256 7 7 (3211264)
I0825 12:04:14.295501 24137 net.cpp:165] Memory required for data: 527664128
I0825 12:04:14.295505 24137 layer_factory.hpp:77] Creating layer conv3
I0825 12:04:14.295517 24137 net.cpp:100] Creating Layer conv3
I0825 12:04:14.295522 24137 net.cpp:434] conv3 <- pool2
I0825 12:04:14.295531 24137 net.cpp:408] conv3 -> conv3
I0825 12:04:14.315546 24137 net.cpp:150] Setting up conv3
I0825 12:04:14.315579 24137 net.cpp:157] Top shape: 256 384 7 7 (4816896)
I0825 12:04:14.315585 24137 net.cpp:165] Memory required for data: 546931712
I0825 12:04:14.315603 24137 layer_factory.hpp:77] Creating layer relu3
I0825 12:04:14.315614 24137 net.cpp:100] Creating Layer relu3
I0825 12:04:14.315620 24137 net.cpp:434] relu3 <- conv3
I0825 12:04:14.315630 24137 net.cpp:395] relu3 -> conv3 (in-place)
I0825 12:04:14.315940 24137 net.cpp:150] Setting up relu3
I0825 12:04:14.315956 24137 net.cpp:157] Top shape: 256 384 7 7 (4816896)
I0825 12:04:14.315960 24137 net.cpp:165] Memory required for data: 566199296
I0825 12:04:14.315965 24137 layer_factory.hpp:77] Creating layer conv4
I0825 12:04:14.315984 24137 net.cpp:100] Creating Layer conv4
I0825 12:04:14.315989 24137 net.cpp:434] conv4 <- conv3
I0825 12:04:14.316000 24137 net.cpp:408] conv4 -> conv4
I0825 12:04:14.332710 24137 net.cpp:150] Setting up conv4
I0825 12:04:14.332733 24137 net.cpp:157] Top shape: 256 384 7 7 (4816896)
I0825 12:04:14.332738 24137 net.cpp:165] Memory required for data: 585466880
I0825 12:04:14.332748 24137 layer_factory.hpp:77] Creating layer relu4
I0825 12:04:14.332758 24137 net.cpp:100] Creating Layer relu4
I0825 12:04:14.332762 24137 net.cpp:434] relu4 <- conv4
I0825 12:04:14.332772 24137 net.cpp:395] relu4 -> conv4 (in-place)
I0825 12:04:14.333051 24137 net.cpp:150] Setting up relu4
I0825 12:04:14.333066 24137 net.cpp:157] Top shape: 256 384 7 7 (4816896)
I0825 12:04:14.333070 24137 net.cpp:165] Memory required for data: 604734464
I0825 12:04:14.333075 24137 layer_factory.hpp:77] Creating layer conv5
I0825 12:04:14.333092 24137 net.cpp:100] Creating Layer conv5
I0825 12:04:14.333097 24137 net.cpp:434] conv5 <- conv4
I0825 12:04:14.333106 24137 net.cpp:408] conv5 -> conv5
I0825 12:04:14.344746 24137 net.cpp:150] Setting up conv5
I0825 12:04:14.344770 24137 net.cpp:157] Top shape: 256 256 7 7 (3211264)
I0825 12:04:14.344775 24137 net.cpp:165] Memory required for data: 617579520
I0825 12:04:14.344791 24137 layer_factory.hpp:77] Creating layer relu5
I0825 12:04:14.344801 24137 net.cpp:100] Creating Layer relu5
I0825 12:04:14.344806 24137 net.cpp:434] relu5 <- conv5
I0825 12:04:14.344815 24137 net.cpp:395] relu5 -> conv5 (in-place)
I0825 12:04:14.345082 24137 net.cpp:150] Setting up relu5
I0825 12:04:14.345095 24137 net.cpp:157] Top shape: 256 256 7 7 (3211264)
I0825 12:04:14.345098 24137 net.cpp:165] Memory required for data: 630424576
I0825 12:04:14.345103 24137 layer_factory.hpp:77] Creating layer pool5
I0825 12:04:14.345113 24137 net.cpp:100] Creating Layer pool5
I0825 12:04:14.345118 24137 net.cpp:434] pool5 <- conv5
I0825 12:04:14.345125 24137 net.cpp:408] pool5 -> pool5
I0825 12:04:14.345191 24137 net.cpp:150] Setting up pool5
I0825 12:04:14.345201 24137 net.cpp:157] Top shape: 256 256 3 3 (589824)
I0825 12:04:14.345206 24137 net.cpp:165] Memory required for data: 632783872
I0825 12:04:14.345209 24137 layer_factory.hpp:77] Creating layer fc6
I0825 12:04:14.345224 24137 net.cpp:100] Creating Layer fc6
I0825 12:04:14.345232 24137 net.cpp:434] fc6 <- pool5
I0825 12:04:14.345240 24137 net.cpp:408] fc6 -> fc6
I0825 12:04:14.483678 24137 net.cpp:150] Setting up fc6
I0825 12:04:14.483707 24137 net.cpp:157] Top shape: 256 4096 (1048576)
I0825 12:04:14.483711 24137 net.cpp:165] Memory required for data: 636978176
I0825 12:04:14.483721 24137 layer_factory.hpp:77] Creating layer relu6
I0825 12:04:14.483731 24137 net.cpp:100] Creating Layer relu6
I0825 12:04:14.483734 24137 net.cpp:434] relu6 <- fc6
I0825 12:04:14.483743 24137 net.cpp:395] relu6 -> fc6 (in-place)
I0825 12:04:14.484311 24137 net.cpp:150] Setting up relu6
I0825 12:04:14.484324 24137 net.cpp:157] Top shape: 256 4096 (1048576)
I0825 12:04:14.484328 24137 net.cpp:165] Memory required for data: 641172480
I0825 12:04:14.484331 24137 layer_factory.hpp:77] Creating layer drop6
I0825 12:04:14.484340 24137 net.cpp:100] Creating Layer drop6
I0825 12:04:14.484344 24137 net.cpp:434] drop6 <- fc6
I0825 12:04:14.484349 24137 net.cpp:395] drop6 -> fc6 (in-place)
I0825 12:04:14.484375 24137 net.cpp:150] Setting up drop6
I0825 12:04:14.484380 24137 net.cpp:157] Top shape: 256 4096 (1048576)
I0825 12:04:14.484383 24137 net.cpp:165] Memory required for data: 645366784
I0825 12:04:14.484386 24137 layer_factory.hpp:77] Creating layer fc7
I0825 12:04:14.484393 24137 net.cpp:100] Creating Layer fc7
I0825 12:04:14.484396 24137 net.cpp:434] fc7 <- fc6
I0825 12:04:14.484403 24137 net.cpp:408] fc7 -> fc7
I0825 12:04:14.716302 24137 net.cpp:150] Setting up fc7
I0825 12:04:14.716344 24137 net.cpp:157] Top shape: 256 4096 (1048576)
I0825 12:04:14.716348 24137 net.cpp:165] Memory required for data: 649561088
I0825 12:04:14.716361 24137 layer_factory.hpp:77] Creating layer relu7
I0825 12:04:14.716377 24137 net.cpp:100] Creating Layer relu7
I0825 12:04:14.716385 24137 net.cpp:434] relu7 <- fc7
I0825 12:04:14.716393 24137 net.cpp:395] relu7 -> fc7 (in-place)
I0825 12:04:14.716877 24137 net.cpp:150] Setting up relu7
I0825 12:04:14.716888 24137 net.cpp:157] Top shape: 256 4096 (1048576)
I0825 12:04:14.716891 24137 net.cpp:165] Memory required for data: 653755392
I0825 12:04:14.716893 24137 layer_factory.hpp:77] Creating layer drop7
I0825 12:04:14.716903 24137 net.cpp:100] Creating Layer drop7
I0825 12:04:14.716907 24137 net.cpp:434] drop7 <- fc7
I0825 12:04:14.716914 24137 net.cpp:395] drop7 -> fc7 (in-place)
I0825 12:04:14.716938 24137 net.cpp:150] Setting up drop7
I0825 12:04:14.716943 24137 net.cpp:157] Top shape: 256 4096 (1048576)
I0825 12:04:14.716945 24137 net.cpp:165] Memory required for data: 657949696
I0825 12:04:14.716948 24137 layer_factory.hpp:77] Creating layer fc8
I0825 12:04:14.716959 24137 net.cpp:100] Creating Layer fc8
I0825 12:04:14.716962 24137 net.cpp:434] fc8 <- fc7
I0825 12:04:14.716967 24137 net.cpp:408] fc8 -> fc8
I0825 12:04:14.722383 24137 net.cpp:150] Setting up fc8
I0825 12:04:14.722396 24137 net.cpp:157] Top shape: 256 80 (20480)
I0825 12:04:14.722399 24137 net.cpp:165] Memory required for data: 658031616
I0825 12:04:14.722406 24137 layer_factory.hpp:77] Creating layer loss
I0825 12:04:14.722414 24137 net.cpp:100] Creating Layer loss
I0825 12:04:14.722417 24137 net.cpp:434] loss <- fc8
I0825 12:04:14.722421 24137 net.cpp:434] loss <- label
I0825 12:04:14.722429 24137 net.cpp:408] loss -> loss
I0825 12:04:14.722436 24137 layer_factory.hpp:77] Creating layer loss
…
I0825 12:04:14.723276 24137 solver.cpp:181] Creating test net (#0) specified by net file: nets/coco_all_classes_alex_net/trainval.prototxt
I0825 12:04:14.723315 24137 net.cpp:322] The NetState phase (1) differed from the phase (0) specified by a rule in layer coco
I0825 12:04:14.723479 24137 net.cpp:58] Initializing net from parameters: 
name: "AlexNet"
state {
  phase: TEST
}
layer {
  name: "coco"
  type: "Data"
  top: "data"
  top: "label"
  include {
    phase: TEST
  }
  transform_param {
    scale: 0.00390625
    mean_file: "data/lmdb/coco_color_mean.binaryproto"
  }
  data_param {
    source: "data/lmdb/coco_val_lmdb"
    batch_size: 256
    backend: LMDB
  }
}
layer {
  name: "conv1"
  type: "Convolution"
  bottom: "data"
  top: "conv1"
  param {
    lr_mult: 1
    decay_mult: 1
  }
  param {
    lr_mult: 2
    decay_mult: 0
  }
  convolution_param {
    num_output: 96
    kernel_size: 11
    stride: 4
    weight_filler {
      type: "gaussian"
      std: 0.01
    }
    bias_filler {
      type: "constant"
      value: 0
    }
  }
}
layer {
  name: "relu1"
  type: "ReLU"
  bottom: "conv1"
  top: "conv1"
}
layer {
  name: "norm1"
  type: "LRN"
  bottom: "conv1"
  top: "norm1"
  lrn_param {
    local_size: 5
    alpha: 0.0001
    beta: 0.75
  }
}
layer {
  name: "pool1"
  type: "Pooling"
  bottom: "norm1"
  top: "pool1"
  pooling_param {
    pool: MAX
    kernel_size: 3
    stride: 2
  }
}
layer {
  name: "conv2"
  type: "Convolution"
  bottom: "pool1"
  top: "conv2"
  param {
    lr_mult: 1
    decay_mult: 1
  }
  param {
    lr_mult: 2
    decay_mult: 0
  }
  convolution_param {
    num_output: 256
    pad: 2
    kernel_size: 5
    group: 2
    weight_filler {
      type: "gaussian"
      std: 0.01
    }
    bias_filler {
      type: "constant"
      value: 0.1
    }
  }
}
layer {
  name: "relu2"
  type: "ReLU"
  bottom: "conv2"
  top: "conv2"
}
layer {
  name: "norm2"
  type: "LRN"
  bottom: "conv2"
  top: "norm2"
  lrn_param {
    local_size: 5
    alpha: 0.0001
    beta: 0.75
  }
}
layer {
  name: "pool2"
  type: "Pooling"
  bottom: "norm2"
  top: "pool2"
  pooling_param {
    pool: MAX
    kernel_size: 3
    stride: 2
  }
}
layer {
  name: "conv3"
  type: "Convolution"
  bottom: "pool2"
  top: "conv3"
  param {
    lr_mult: 1
    decay_mult: 1
  }
  param {
    lr_mult: 2
    decay_mult: 0
  }
  convolution_param {
    num_output: 384
    pad: 1
    kernel_size: 3
    weight_filler {
      type: "gaussian"
      std: 0.01
    }
    bias_filler {
      type: "constant"
      value: 0
    }
  }
}
layer {
  name: "relu3"
  type: "ReLU"
  bottom: "conv3"
  top: "conv3"
}
layer {
  name: "conv4"
  type: "Convolution"
  bottom: "conv3"
  top: "conv4"
  param {
    lr_mult: 1
    decay_mult: 1
  }
  param {
    lr_mult: 2
    decay_mult: 0
  }
  convolution_param {
    num_output: 384
    pad: 1
    kernel_size: 3
    group: 2
    weight_filler {
      type: "gaussian"
      std: 0.01
    }
    bias_filler {
      type: "constant"
      value: 0.1
    }
  }
}
layer {
  name: "relu4"
  type: "ReLU"
  bottom: "conv4"
  top: "conv4"
}
layer {
  name: "conv5"
  type: "Convolution"
  bottom: "conv4"
  top: "conv5"
  param {
    lr_mult: 1
    decay_mult: 1
  }
  param {
    lr_mult: 2
    decay_mult: 0
  }
  convolution_param {
    num_output: 256
    pad: 1
    kernel_size: 3
    group: 2
    weight_filler {
      type: "gaussian"
      std: 0.01
    }
    bias_filler {
      type: "constant"
      value: 0.1
    }
  }
}
layer {
  name: "relu5"
  type: "ReLU"
  bottom: "conv5"
  top: "conv5"
}
layer {
  name: "pool5"
  type: "Pooling"
  bottom: "conv5"
  top: "pool5"
  pooling_param {
    pool: MAX
    kernel_size: 3
    stride: 2
  }
}
layer {
  name: "fc6"
  type: "InnerProduct"
  bottom: "pool5"
  top: "fc6"
  param {
    lr_mult: 1
    decay_mult: 1
  }
  param {
    lr_mult: 2
    decay_mult: 0
  }
  inner_product_param {
    num_output: 4096
    weight_filler {
      type: "gaussian"
      std: 0.005
    }
    bias_filler {
      type: "constant"
      value: 0.1
    }
  }
}
layer {
  name: "relu6"
  type: "ReLU"
  bottom: "fc6"
  top: "fc6"
}
layer {
  name: "drop6"
  type: "Dropout"
  bottom: "fc6"
  top: "fc6"
  dropout_param {
    dropout_ratio: 0.5
  }
}
layer {
  name: "fc7"
  type: "InnerProduct"
  bottom: "fc6"
  top: "fc7"
  param {
    lr_mult: 1
    decay_mult: 1
  }
  param {
    lr_mult: 2
    decay_mult: 0
  }
  inner_product_param {
    num_output: 4096
    weight_filler {
      type: "gaussian"
      std: 0.005
    }
    bias_filler {
      type: "constant"
      value: 0.1
    }
  }
}
layer {
  name: "relu7"
  type: "ReLU"
  bottom: "fc7"
  top: "fc7"
}
layer {
  name: "drop7"
  type: "Dropout"
  bottom: "fc7"
  top: "fc7"
  dropout_param {
    dropout_ratio: 0.5
  }
}
layer {
  name: "fc8"
  type: "InnerProduct"
  bottom: "fc7"
  top: "fc8"
  param {
    lr_mult: 1
    decay_mult: 1
  }
  param {
    lr_mult: 2
    decay_mult: 0
  }
  inner_product_param {
    num_output: 80
    weight_filler {
      type: "gaussian"
      std: 0.01
    }
    bias_filler {
      type: "constant"
      value: 0
    }
  }
}
layer {
  name: "accuracy"
  type: "Accuracy"
  bottom: "fc8"
  bottom: "label"
  top: "accuracy"
  include {
    phase: TEST
  }
}
layer {
  name: "loss"
  type: "SoftmaxWithLoss"
  bottom: "fc8"
  bottom: "label"
  top: "loss"
}
I0825 12:04:14.723585 24137 layer_factory.hpp:77] Creating layer coco
I0825 12:04:14.723817 24137 net.cpp:100] Creating Layer coco
I0825 12:04:14.723827 24137 net.cpp:408] coco -> data
I0825 12:04:14.723835 24137 net.cpp:408] coco -> label
I0825 12:04:14.723844 24137 data_transformer.cpp:25] Loading mean file from: data/lmdb/coco_color_mean.binaryproto
I0825 12:04:14.725495 24144 db_lmdb.cpp:35] Opened lmdb data/lmdb/coco_val_lmdb
I0825 12:04:14.725823 24137 data_layer.cpp:41] output data size: 256,3,128,128
I0825 12:04:14.864073 24137 net.cpp:150] Setting up coco
I0825 12:04:14.864115 24137 net.cpp:157] Top shape: 256 3 128 128 (12582912)
I0825 12:04:14.864123 24137 net.cpp:157] Top shape: 256 (256)
I0825 12:04:14.864128 24137 net.cpp:165] Memory required for data: 50332672
I0825 12:04:14.864136 24137 layer_factory.hpp:77] Creating layer label_coco_1_split
I0825 12:04:14.864156 24137 net.cpp:100] Creating Layer label_coco_1_split
I0825 12:04:14.864162 24137 net.cpp:434] label_coco_1_split <- label
I0825 12:04:14.864173 24137 net.cpp:408] label_coco_1_split -> label_coco_1_split_0
I0825 12:04:14.864190 24137 net.cpp:408] label_coco_1_split -> label_coco_1_split_1
I0825 12:04:14.864383 24137 net.cpp:150] Setting up label_coco_1_split
I0825 12:04:14.864399 24137 net.cpp:157] Top shape: 256 (256)
I0825 12:04:14.864405 24137 net.cpp:157] Top shape: 256 (256)
I0825 12:04:14.864409 24137 net.cpp:165] Memory required for data: 50334720
I0825 12:04:14.864414 24137 layer_factory.hpp:77] Creating layer conv1
I0825 12:04:14.864435 24137 net.cpp:100] Creating Layer conv1
I0825 12:04:14.864441 24137 net.cpp:434] conv1 <- data
I0825 12:04:14.864454 24137 net.cpp:408] conv1 -> conv1
I0825 12:04:14.874866 24137 net.cpp:150] Setting up conv1
I0825 12:04:14.874893 24137 net.cpp:157] Top shape: 256 96 30 30 (22118400)
I0825 12:04:14.874899 24137 net.cpp:165] Memory required for data: 138808320
I0825 12:04:14.874917 24137 layer_factory.hpp:77] Creating layer relu1
I0825 12:04:14.874928 24137 net.cpp:100] Creating Layer relu1
I0825 12:04:14.874933 24137 net.cpp:434] relu1 <- conv1
I0825 12:04:14.874941 24137 net.cpp:395] relu1 -> conv1 (in-place)
I0825 12:04:14.875229 24137 net.cpp:150] Setting up relu1
I0825 12:04:14.875246 24137 net.cpp:157] Top shape: 256 96 30 30 (22118400)
I0825 12:04:14.875249 24137 net.cpp:165] Memory required for data: 227281920
I0825 12:04:14.875254 24137 layer_factory.hpp:77] Creating layer norm1
I0825 12:04:14.875267 24137 net.cpp:100] Creating Layer norm1
I0825 12:04:14.875272 24137 net.cpp:434] norm1 <- conv1
I0825 12:04:14.875282 24137 net.cpp:408] norm1 -> norm1
I0825 12:04:14.876052 24137 net.cpp:150] Setting up norm1
I0825 12:04:14.876075 24137 net.cpp:157] Top shape: 256 96 30 30 (22118400)
I0825 12:04:14.876080 24137 net.cpp:165] Memory required for data: 315755520
I0825 12:04:14.876085 24137 layer_factory.hpp:77] Creating layer pool1
I0825 12:04:14.876096 24137 net.cpp:100] Creating Layer pool1
I0825 12:04:14.876101 24137 net.cpp:434] pool1 <- norm1
I0825 12:04:14.876111 24137 net.cpp:408] pool1 -> pool1
I0825 12:04:14.876170 24137 net.cpp:150] Setting up pool1
I0825 12:04:14.876181 24137 net.cpp:157] Top shape: 256 96 15 15 (5529600)
I0825 12:04:14.876186 24137 net.cpp:165] Memory required for data: 337873920
I0825 12:04:14.876190 24137 layer_factory.hpp:77] Creating layer conv2
I0825 12:04:14.876205 24137 net.cpp:100] Creating Layer conv2
I0825 12:04:14.876211 24137 net.cpp:434] conv2 <- pool1
I0825 12:04:14.876221 24137 net.cpp:408] conv2 -> conv2
I0825 12:04:14.886006 24137 net.cpp:150] Setting up conv2
I0825 12:04:14.886034 24137 net.cpp:157] Top shape: 256 256 15 15 (14745600)
I0825 12:04:14.886039 24137 net.cpp:165] Memory required for data: 396856320
I0825 12:04:14.886054 24137 layer_factory.hpp:77] Creating layer relu2
I0825 12:04:14.886065 24137 net.cpp:100] Creating Layer relu2
I0825 12:04:14.886070 24137 net.cpp:434] relu2 <- conv2
I0825 12:04:14.886078 24137 net.cpp:395] relu2 -> conv2 (in-place)
I0825 12:04:14.886849 24137 net.cpp:150] Setting up relu2
I0825 12:04:14.886871 24137 net.cpp:157] Top shape: 256 256 15 15 (14745600)
I0825 12:04:14.886875 24137 net.cpp:165] Memory required for data: 455838720
I0825 12:04:14.886880 24137 layer_factory.hpp:77] Creating layer norm2
I0825 12:04:14.886895 24137 net.cpp:100] Creating Layer norm2
I0825 12:04:14.886901 24137 net.cpp:434] norm2 <- conv2
I0825 12:04:14.886912 24137 net.cpp:408] norm2 -> norm2
I0825 12:04:14.887264 24137 net.cpp:150] Setting up norm2
I0825 12:04:14.887281 24137 net.cpp:157] Top shape: 256 256 15 15 (14745600)
I0825 12:04:14.887285 24137 net.cpp:165] Memory required for data: 514821120
I0825 12:04:14.887290 24137 layer_factory.hpp:77] Creating layer pool2
I0825 12:04:14.887301 24137 net.cpp:100] Creating Layer pool2
I0825 12:04:14.887306 24137 net.cpp:434] pool2 <- norm2
I0825 12:04:14.887315 24137 net.cpp:408] pool2 -> pool2
I0825 12:04:14.887379 24137 net.cpp:150] Setting up pool2
I0825 12:04:14.887390 24137 net.cpp:157] Top shape: 256 256 7 7 (3211264)
I0825 12:04:14.887394 24137 net.cpp:165] Memory required for data: 527666176
I0825 12:04:14.887399 24137 layer_factory.hpp:77] Creating layer conv3
I0825 12:04:14.887414 24137 net.cpp:100] Creating Layer conv3
I0825 12:04:14.887421 24137 net.cpp:434] conv3 <- pool2
I0825 12:04:14.887433 24137 net.cpp:408] conv3 -> conv3
I0825 12:04:14.901979 24137 net.cpp:150] Setting up conv3
I0825 12:04:14.902006 24137 net.cpp:157] Top shape: 256 384 7 7 (4816896)
I0825 12:04:14.902010 24137 net.cpp:165] Memory required for data: 546933760
I0825 12:04:14.902024 24137 layer_factory.hpp:77] Creating layer relu3
I0825 12:04:14.902039 24137 net.cpp:100] Creating Layer relu3
I0825 12:04:14.902042 24137 net.cpp:434] relu3 <- conv3
I0825 12:04:14.902050 24137 net.cpp:395] relu3 -> conv3 (in-place)
I0825 12:04:14.902263 24137 net.cpp:150] Setting up relu3
I0825 12:04:14.902276 24137 net.cpp:157] Top shape: 256 384 7 7 (4816896)
I0825 12:04:14.902279 24137 net.cpp:165] Memory required for data: 566201344
I0825 12:04:14.902282 24137 layer_factory.hpp:77] Creating layer conv4
I0825 12:04:14.902295 24137 net.cpp:100] Creating Layer conv4
I0825 12:04:14.902300 24137 net.cpp:434] conv4 <- conv3
I0825 12:04:14.902309 24137 net.cpp:408] conv4 -> conv4
I0825 12:04:14.914480 24137 net.cpp:150] Setting up conv4
I0825 12:04:14.914507 24137 net.cpp:157] Top shape: 256 384 7 7 (4816896)
I0825 12:04:14.914511 24137 net.cpp:165] Memory required for data: 585468928
I0825 12:04:14.914520 24137 layer_factory.hpp:77] Creating layer relu4
I0825 12:04:14.914530 24137 net.cpp:100] Creating Layer relu4
I0825 12:04:14.914533 24137 net.cpp:434] relu4 <- conv4
I0825 12:04:14.914540 24137 net.cpp:395] relu4 -> conv4 (in-place)
I0825 12:04:14.915089 24137 net.cpp:150] Setting up relu4
I0825 12:04:14.915105 24137 net.cpp:157] Top shape: 256 384 7 7 (4816896)
I0825 12:04:14.915108 24137 net.cpp:165] Memory required for data: 604736512
I0825 12:04:14.915112 24137 layer_factory.hpp:77] Creating layer conv5
I0825 12:04:14.915125 24137 net.cpp:100] Creating Layer conv5
I0825 12:04:14.915130 24137 net.cpp:434] conv5 <- conv4
I0825 12:04:14.915139 24137 net.cpp:408] conv5 -> conv5
I0825 12:04:14.923889 24137 net.cpp:150] Setting up conv5
I0825 12:04:14.923909 24137 net.cpp:157] Top shape: 256 256 7 7 (3211264)
I0825 12:04:14.923913 24137 net.cpp:165] Memory required for data: 617581568
I0825 12:04:14.923926 24137 layer_factory.hpp:77] Creating layer relu5
I0825 12:04:14.923934 24137 net.cpp:100] Creating Layer relu5
I0825 12:04:14.923938 24137 net.cpp:434] relu5 <- conv5
I0825 12:04:14.923945 24137 net.cpp:395] relu5 -> conv5 (in-place)
I0825 12:04:14.924154 24137 net.cpp:150] Setting up relu5
I0825 12:04:14.924165 24137 net.cpp:157] Top shape: 256 256 7 7 (3211264)
I0825 12:04:14.924167 24137 net.cpp:165] Memory required for data: 630426624
I0825 12:04:14.924170 24137 layer_factory.hpp:77] Creating layer pool5
I0825 12:04:14.924185 24137 net.cpp:100] Creating Layer pool5
I0825 12:04:14.924195 24137 net.cpp:434] pool5 <- conv5
I0825 12:04:14.924201 24137 net.cpp:408] pool5 -> pool5
I0825 12:04:14.924257 24137 net.cpp:150] Setting up pool5
I0825 12:04:14.924266 24137 net.cpp:157] Top shape: 256 256 3 3 (589824)
I0825 12:04:14.924271 24137 net.cpp:165] Memory required for data: 632785920
I0825 12:04:14.924273 24137 layer_factory.hpp:77] Creating layer fc6
I0825 12:04:14.924286 24137 net.cpp:100] Creating Layer fc6
I0825 12:04:14.924290 24137 net.cpp:434] fc6 <- pool5
I0825 12:04:14.924296 24137 net.cpp:408] fc6 -> fc6
I0825 12:04:15.064942 24137 net.cpp:150] Setting up fc6
I0825 12:04:15.064980 24137 net.cpp:157] Top shape: 256 4096 (1048576)
I0825 12:04:15.064983 24137 net.cpp:165] Memory required for data: 636980224
I0825 12:04:15.064996 24137 layer_factory.hpp:77] Creating layer relu6
I0825 12:04:15.065008 24137 net.cpp:100] Creating Layer relu6
I0825 12:04:15.065012 24137 net.cpp:434] relu6 <- fc6
I0825 12:04:15.065021 24137 net.cpp:395] relu6 -> fc6 (in-place)
I0825 12:04:15.065300 24137 net.cpp:150] Setting up relu6
I0825 12:04:15.065312 24137 net.cpp:157] Top shape: 256 4096 (1048576)
I0825 12:04:15.065315 24137 net.cpp:165] Memory required for data: 641174528
I0825 12:04:15.065318 24137 layer_factory.hpp:77] Creating layer drop6
I0825 12:04:15.065327 24137 net.cpp:100] Creating Layer drop6
I0825 12:04:15.065331 24137 net.cpp:434] drop6 <- fc6
I0825 12:04:15.065336 24137 net.cpp:395] drop6 -> fc6 (in-place)
I0825 12:04:15.065366 24137 net.cpp:150] Setting up drop6
I0825 12:04:15.065376 24137 net.cpp:157] Top shape: 256 4096 (1048576)
I0825 12:04:15.065378 24137 net.cpp:165] Memory required for data: 645368832
I0825 12:04:15.065382 24137 layer_factory.hpp:77] Creating layer fc7
I0825 12:04:15.065389 24137 net.cpp:100] Creating Layer fc7
I0825 12:04:15.065392 24137 net.cpp:434] fc7 <- fc6
I0825 12:04:15.065400 24137 net.cpp:408] fc7 -> fc7
I0825 12:04:15.314347 24137 net.cpp:150] Setting up fc7
I0825 12:04:15.314388 24137 net.cpp:157] Top shape: 256 4096 (1048576)
I0825 12:04:15.314391 24137 net.cpp:165] Memory required for data: 649563136
I0825 12:04:15.314402 24137 layer_factory.hpp:77] Creating layer relu7
I0825 12:04:15.314415 24137 net.cpp:100] Creating Layer relu7
I0825 12:04:15.314421 24137 net.cpp:434] relu7 <- fc7
I0825 12:04:15.314429 24137 net.cpp:395] relu7 -> fc7 (in-place)
I0825 12:04:15.315163 24137 net.cpp:150] Setting up relu7
I0825 12:04:15.315181 24137 net.cpp:157] Top shape: 256 4096 (1048576)
I0825 12:04:15.315183 24137 net.cpp:165] Memory required for data: 653757440
I0825 12:04:15.315187 24137 layer_factory.hpp:77] Creating layer drop7
I0825 12:04:15.315196 24137 net.cpp:100] Creating Layer drop7
I0825 12:04:15.315201 24137 net.cpp:434] drop7 <- fc7
I0825 12:04:15.315206 24137 net.cpp:395] drop7 -> fc7 (in-place)
I0825 12:04:15.315237 24137 net.cpp:150] Setting up drop7
I0825 12:04:15.315244 24137 net.cpp:157] Top shape: 256 4096 (1048576)
I0825 12:04:15.315248 24137 net.cpp:165] Memory required for data: 657951744
I0825 12:04:15.315250 24137 layer_factory.hpp:77] Creating layer fc8
I0825 12:04:15.315265 24137 net.cpp:100] Creating Layer fc8
I0825 12:04:15.315273 24137 net.cpp:434] fc8 <- fc7
I0825 12:04:15.315280 24137 net.cpp:408] fc8 -> fc8
I0825 12:04:15.320338 24137 net.cpp:150] Setting up fc8
I0825 12:04:15.320353 24137 net.cpp:157] Top shape: 256 80 (20480)
I0825 12:04:15.320356 24137 net.cpp:165] Memory required for data: 658033664
I0825 12:04:15.320363 24137 layer_factory.hpp:77] Creating layer fc8_fc8_0_split
I0825 12:04:15.320370 24137 net.cpp:100] Creating Layer fc8_fc8_0_split
I0825 12:04:15.320375 24137 net.cpp:434] fc8_fc8_0_split <- fc8
I0825 12:04:15.320381 24137 net.cpp:408] fc8_fc8_0_split -> fc8_fc8_0_split_0
I0825 12:04:15.320389 24137 net.cpp:408] fc8_fc8_0_split -> fc8_fc8_0_split_1
I0825 12:04:15.320427 24137 net.cpp:150] Setting up fc8_fc8_0_split
I0825 12:04:15.320437 24137 net.cpp:157] Top shape: 256 80 (20480)
I0825 12:04:15.320441 24137 net.cpp:157] Top shape: 256 80 (20480)
I0825 12:04:15.320442 24137 net.cpp:165] Memory required for data: 658197504
I0825 12:04:15.320446 24137 layer_factory.hpp:77] Creating layer accuracy
I0825 12:04:15.320453 24137 net.cpp:100] Creating Layer accuracy
I0825 12:04:15.320457 24137 net.cpp:434] accuracy <- fc8_fc8_0_split_0
I0825 12:04:15.320461 24137 net.cpp:434] accuracy <- label_coco_1_split_0
I0825 12:04:15.320469 24137 net.cpp:408] accuracy -> accuracy
…
