…
I0817 01:02:07.944118  9828 net.cpp:322] The NetState phase (0) differed from the phase (1) specified by a rule in layer coco
I0817 01:02:07.944139  9828 net.cpp:322] The NetState phase (0) differed from the phase (1) specified by a rule in layer accuracy
I0817 01:02:07.944278  9828 net.cpp:58] Initializing net from parameters: 
name: "AlexNet"
state {
  phase: TRAIN
}
layer {
  name: "coco"
  type: "Data"
  top: "data"
  top: "label"
  include {
    phase: TRAIN
  }
  transform_param {
    scale: 0.00390625
    mean_file: "data/lmdb/coco_color_mean.binaryproto"
  }
  data_param {
    source: "data/lmdb/coco_train_lmdb"
    batch_size: 256
    backend: LMDB
  }
}
layer {
  name: "conv1"
  type: "Convolution"
  bottom: "data"
  top: "conv1"
  param {
    lr_mult: 1
    decay_mult: 1
  }
  param {
    lr_mult: 2
    decay_mult: 0
  }
  convolution_param {
    num_output: 96
    kernel_size: 11
    stride: 4
    weight_filler {
      type: "gaussian"
      std: 0.01
    }
    bias_filler {
      type: "constant"
      value: 0
    }
  }
}
layer {
  name: "relu1"
  type: "ReLU"
  bottom: "conv1"
  top: "conv1"
}
layer {
  name: "norm1"
  type: "LRN"
  bottom: "conv1"
  top: "norm1"
  lrn_param {
    local_size: 5
    alpha: 0.0001
    beta: 0.75
  }
}
layer {
  name: "pool1"
  type: "Pooling"
  bottom: "norm1"
  top: "pool1"
  pooling_param {
    pool: MAX
    kernel_size: 3
    stride: 2
  }
}
layer {
  name: "conv2"
  type: "Convolution"
  bottom: "pool1"
  top: "conv2"
  param {
    lr_mult: 1
    decay_mult: 1
  }
  param {
    lr_mult: 2
    decay_mult: 0
  }
  convolution_param {
    num_output: 256
    pad: 2
    kernel_size: 5
    group: 2
    weight_filler {
      type: "gaussian"
      std: 0.01
    }
    bias_filler {
      type: "constant"
      value: 0.1
    }
  }
}
layer {
  name: "relu2"
  type: "ReLU"
  bottom: "conv2"
  top: "conv2"
}
layer {
  name: "norm2"
  type: "LRN"
  bottom: "conv2"
  top: "norm2"
  lrn_param {
    local_size: 5
    alpha: 0.0001
    beta: 0.75
  }
}
layer {
  name: "pool2"
  type: "Pooling"
  bottom: "norm2"
  top: "pool2"
  pooling_param {
    pool: MAX
    kernel_size: 3
    stride: 2
  }
}
layer {
  name: "conv3"
  type: "Convolution"
  bottom: "pool2"
  top: "conv3"
  param {
    lr_mult: 1
    decay_mult: 1
  }
  param {
    lr_mult: 2
    decay_mult: 0
  }
  convolution_param {
    num_output: 384
    pad: 1
    kernel_size: 3
    weight_filler {
      type: "gaussian"
      std: 0.01
    }
    bias_filler {
      type: "constant"
      value: 0
    }
  }
}
layer {
  name: "relu3"
  type: "ReLU"
  bottom: "conv3"
  top: "conv3"
}
layer {
  name: "conv4"
  type: "Convolution"
  bottom: "conv3"
  top: "conv4"
  param {
    lr_mult: 1
    decay_mult: 1
  }
  param {
    lr_mult: 2
    decay_mult: 0
  }
  convolution_param {
    num_output: 384
    pad: 1
    kernel_size: 3
    group: 2
    weight_filler {
      type: "gaussian"
      std: 0.01
    }
    bias_filler {
      type: "constant"
      value: 0.1
    }
  }
}
layer {
  name: "relu4"
  type: "ReLU"
  bottom: "conv4"
  top: "conv4"
}
layer {
  name: "conv5"
  type: "Convolution"
  bottom: "conv4"
  top: "conv5"
  param {
    lr_mult: 1
    decay_mult: 1
  }
  param {
    lr_mult: 2
    decay_mult: 0
  }
  convolution_param {
    num_output: 256
    pad: 1
    kernel_size: 3
    group: 2
    weight_filler {
      type: "gaussian"
      std: 0.01
    }
    bias_filler {
      type: "constant"
      value: 0.1
    }
  }
}
layer {
  name: "relu5"
  type: "ReLU"
  bottom: "conv5"
  top: "conv5"
}
layer {
  name: "pool5"
  type: "Pooling"
  bottom: "conv5"
  top: "pool5"
  pooling_param {
    pool: MAX
    kernel_size: 3
    stride: 2
  }
}
layer {
  name: "fc6"
  type: "InnerProduct"
  bottom: "pool5"
  top: "fc6"
  param {
    lr_mult: 1
    decay_mult: 1
  }
  param {
    lr_mult: 2
    decay_mult: 0
  }
  inner_product_param {
    num_output: 4096
    weight_filler {
      type: "gaussian"
      std: 0.005
    }
    bias_filler {
      type: "constant"
      value: 0.1
    }
  }
}
layer {
  name: "relu6"
  type: "ReLU"
  bottom: "fc6"
  top: "fc6"
}
layer {
  name: "drop6"
  type: "Dropout"
  bottom: "fc6"
  top: "fc6"
  dropout_param {
    dropout_ratio: 0.5
  }
}
layer {
  name: "fc7"
  type: "InnerProduct"
  bottom: "fc6"
  top: "fc7"
  param {
    lr_mult: 1
    decay_mult: 1
  }
  param {
    lr_mult: 2
    decay_mult: 0
  }
  inner_product_param {
    num_output: 4096
    weight_filler {
      type: "gaussian"
      std: 0.005
    }
    bias_filler {
      type: "constant"
      value: 0.1
    }
  }
}
layer {
  name: "relu7"
  type: "ReLU"
  bottom: "fc7"
  top: "fc7"
}
layer {
  name: "drop7"
  type: "Dropout"
  bottom: "fc7"
  top: "fc7"
  dropout_param {
    dropout_ratio: 0.5
  }
}
layer {
  name: "fc8"
  type: "InnerProduct"
  bottom: "fc7"
  top: "fc8"
  param {
    lr_mult: 1
    decay_mult: 1
  }
  param {
    lr_mult: 2
    decay_mult: 0
  }
  inner_product_param {
    num_output: 80
    weight_filler {
      type: "gaussian"
      std: 0.01
    }
    bias_filler {
      type: "constant"
      value: 0
    }
  }
}
layer {
  name: "loss"
  type: "SoftmaxWithLoss"
  bottom: "fc8"
  bottom: "label"
  top: "loss"
}
I0817 01:02:07.944352  9828 layer_factory.hpp:77] Creating layer coco
I0817 01:02:07.944967  9828 net.cpp:100] Creating Layer coco
I0817 01:02:07.944980  9828 net.cpp:408] coco -> data
I0817 01:02:07.944993  9828 net.cpp:408] coco -> label
I0817 01:02:07.945088  9828 data_transformer.cpp:25] Loading mean file from: data/lmdb/coco_color_mean.binaryproto
I0817 01:02:07.946323  9838 db_lmdb.cpp:35] Opened lmdb data/lmdb/coco_train_lmdb
I0817 01:02:07.980335  9828 data_layer.cpp:41] output data size: 256,3,128,128
I0817 01:02:08.108784  9828 net.cpp:150] Setting up coco
I0817 01:02:08.108820  9828 net.cpp:157] Top shape: 256 3 128 128 (12582912)
I0817 01:02:08.108826  9828 net.cpp:157] Top shape: 256 (256)
I0817 01:02:08.108829  9828 net.cpp:165] Memory required for data: 50332672
I0817 01:02:08.108836  9828 layer_factory.hpp:77] Creating layer conv1
I0817 01:02:08.108861  9828 net.cpp:100] Creating Layer conv1
I0817 01:02:08.108866  9828 net.cpp:434] conv1 <- data
I0817 01:02:08.108876  9828 net.cpp:408] conv1 -> conv1
I0817 01:02:08.395987  9828 net.cpp:150] Setting up conv1
I0817 01:02:08.396023  9828 net.cpp:157] Top shape: 256 96 30 30 (22118400)
I0817 01:02:08.396026  9828 net.cpp:165] Memory required for data: 138806272
I0817 01:02:08.396045  9828 layer_factory.hpp:77] Creating layer relu1
I0817 01:02:08.396059  9828 net.cpp:100] Creating Layer relu1
I0817 01:02:08.396064  9828 net.cpp:434] relu1 <- conv1
I0817 01:02:08.396070  9828 net.cpp:395] relu1 -> conv1 (in-place)
I0817 01:02:08.396257  9828 net.cpp:150] Setting up relu1
I0817 01:02:08.396270  9828 net.cpp:157] Top shape: 256 96 30 30 (22118400)
I0817 01:02:08.396272  9828 net.cpp:165] Memory required for data: 227279872
I0817 01:02:08.396275  9828 layer_factory.hpp:77] Creating layer norm1
I0817 01:02:08.396284  9828 net.cpp:100] Creating Layer norm1
I0817 01:02:08.396288  9828 net.cpp:434] norm1 <- conv1
I0817 01:02:08.396293  9828 net.cpp:408] norm1 -> norm1
I0817 01:02:08.396771  9828 net.cpp:150] Setting up norm1
I0817 01:02:08.396787  9828 net.cpp:157] Top shape: 256 96 30 30 (22118400)
I0817 01:02:08.396791  9828 net.cpp:165] Memory required for data: 315753472
I0817 01:02:08.396795  9828 layer_factory.hpp:77] Creating layer pool1
I0817 01:02:08.396805  9828 net.cpp:100] Creating Layer pool1
I0817 01:02:08.396807  9828 net.cpp:434] pool1 <- norm1
I0817 01:02:08.396813  9828 net.cpp:408] pool1 -> pool1
I0817 01:02:08.396853  9828 net.cpp:150] Setting up pool1
I0817 01:02:08.396862  9828 net.cpp:157] Top shape: 256 96 15 15 (5529600)
I0817 01:02:08.396864  9828 net.cpp:165] Memory required for data: 337871872
I0817 01:02:08.396868  9828 layer_factory.hpp:77] Creating layer conv2
I0817 01:02:08.396880  9828 net.cpp:100] Creating Layer conv2
I0817 01:02:08.396885  9828 net.cpp:434] conv2 <- pool1
I0817 01:02:08.396890  9828 net.cpp:408] conv2 -> conv2
I0817 01:02:08.403110  9828 net.cpp:150] Setting up conv2
I0817 01:02:08.403127  9828 net.cpp:157] Top shape: 256 256 15 15 (14745600)
I0817 01:02:08.403131  9828 net.cpp:165] Memory required for data: 396854272
I0817 01:02:08.403141  9828 layer_factory.hpp:77] Creating layer relu2
I0817 01:02:08.403147  9828 net.cpp:100] Creating Layer relu2
I0817 01:02:08.403151  9828 net.cpp:434] relu2 <- conv2
I0817 01:02:08.403156  9828 net.cpp:395] relu2 -> conv2 (in-place)
I0817 01:02:08.403605  9828 net.cpp:150] Setting up relu2
I0817 01:02:08.403620  9828 net.cpp:157] Top shape: 256 256 15 15 (14745600)
I0817 01:02:08.403623  9828 net.cpp:165] Memory required for data: 455836672
I0817 01:02:08.403627  9828 layer_factory.hpp:77] Creating layer norm2
I0817 01:02:08.403635  9828 net.cpp:100] Creating Layer norm2
I0817 01:02:08.403638  9828 net.cpp:434] norm2 <- conv2
I0817 01:02:08.403645  9828 net.cpp:408] norm2 -> norm2
I0817 01:02:08.403838  9828 net.cpp:150] Setting up norm2
I0817 01:02:08.403849  9828 net.cpp:157] Top shape: 256 256 15 15 (14745600)
I0817 01:02:08.403852  9828 net.cpp:165] Memory required for data: 514819072
I0817 01:02:08.403856  9828 layer_factory.hpp:77] Creating layer pool2
I0817 01:02:08.403864  9828 net.cpp:100] Creating Layer pool2
I0817 01:02:08.403870  9828 net.cpp:434] pool2 <- norm2
I0817 01:02:08.403875  9828 net.cpp:408] pool2 -> pool2
I0817 01:02:08.403919  9828 net.cpp:150] Setting up pool2
I0817 01:02:08.403929  9828 net.cpp:157] Top shape: 256 256 7 7 (3211264)
I0817 01:02:08.403933  9828 net.cpp:165] Memory required for data: 527664128
I0817 01:02:08.403935  9828 layer_factory.hpp:77] Creating layer conv3
I0817 01:02:08.403946  9828 net.cpp:100] Creating Layer conv3
I0817 01:02:08.403950  9828 net.cpp:434] conv3 <- pool2
I0817 01:02:08.403956  9828 net.cpp:408] conv3 -> conv3
I0817 01:02:08.417279  9828 net.cpp:150] Setting up conv3
I0817 01:02:08.417296  9828 net.cpp:157] Top shape: 256 384 7 7 (4816896)
I0817 01:02:08.417300  9828 net.cpp:165] Memory required for data: 546931712
I0817 01:02:08.417311  9828 layer_factory.hpp:77] Creating layer relu3
I0817 01:02:08.417317  9828 net.cpp:100] Creating Layer relu3
I0817 01:02:08.417321  9828 net.cpp:434] relu3 <- conv3
I0817 01:02:08.417326  9828 net.cpp:395] relu3 -> conv3 (in-place)
I0817 01:02:08.417505  9828 net.cpp:150] Setting up relu3
I0817 01:02:08.417515  9828 net.cpp:157] Top shape: 256 384 7 7 (4816896)
I0817 01:02:08.417520  9828 net.cpp:165] Memory required for data: 566199296
I0817 01:02:08.417522  9828 layer_factory.hpp:77] Creating layer conv4
I0817 01:02:08.417533  9828 net.cpp:100] Creating Layer conv4
I0817 01:02:08.417538  9828 net.cpp:434] conv4 <- conv3
I0817 01:02:08.417544  9828 net.cpp:408] conv4 -> conv4
I0817 01:02:08.428715  9828 net.cpp:150] Setting up conv4
I0817 01:02:08.428732  9828 net.cpp:157] Top shape: 256 384 7 7 (4816896)
I0817 01:02:08.428736  9828 net.cpp:165] Memory required for data: 585466880
I0817 01:02:08.428743  9828 layer_factory.hpp:77] Creating layer relu4
I0817 01:02:08.428752  9828 net.cpp:100] Creating Layer relu4
I0817 01:02:08.428755  9828 net.cpp:434] relu4 <- conv4
I0817 01:02:08.428761  9828 net.cpp:395] relu4 -> conv4 (in-place)
I0817 01:02:08.428962  9828 net.cpp:150] Setting up relu4
I0817 01:02:08.428973  9828 net.cpp:157] Top shape: 256 384 7 7 (4816896)
I0817 01:02:08.428980  9828 net.cpp:165] Memory required for data: 604734464
I0817 01:02:08.428983  9828 layer_factory.hpp:77] Creating layer conv5
I0817 01:02:08.428995  9828 net.cpp:100] Creating Layer conv5
I0817 01:02:08.428999  9828 net.cpp:434] conv5 <- conv4
I0817 01:02:08.429008  9828 net.cpp:408] conv5 -> conv5
I0817 01:02:08.437512  9828 net.cpp:150] Setting up conv5
I0817 01:02:08.437530  9828 net.cpp:157] Top shape: 256 256 7 7 (3211264)
I0817 01:02:08.437535  9828 net.cpp:165] Memory required for data: 617579520
I0817 01:02:08.437544  9828 layer_factory.hpp:77] Creating layer relu5
I0817 01:02:08.437556  9828 net.cpp:100] Creating Layer relu5
I0817 01:02:08.437561  9828 net.cpp:434] relu5 <- conv5
I0817 01:02:08.437566  9828 net.cpp:395] relu5 -> conv5 (in-place)
I0817 01:02:08.437773  9828 net.cpp:150] Setting up relu5
I0817 01:02:08.437785  9828 net.cpp:157] Top shape: 256 256 7 7 (3211264)
I0817 01:02:08.437788  9828 net.cpp:165] Memory required for data: 630424576
I0817 01:02:08.437793  9828 layer_factory.hpp:77] Creating layer pool5
I0817 01:02:08.437799  9828 net.cpp:100] Creating Layer pool5
I0817 01:02:08.437803  9828 net.cpp:434] pool5 <- conv5
I0817 01:02:08.437809  9828 net.cpp:408] pool5 -> pool5
I0817 01:02:08.437856  9828 net.cpp:150] Setting up pool5
I0817 01:02:08.437865  9828 net.cpp:157] Top shape: 256 256 3 3 (589824)
I0817 01:02:08.437867  9828 net.cpp:165] Memory required for data: 632783872
I0817 01:02:08.437870  9828 layer_factory.hpp:77] Creating layer fc6
I0817 01:02:08.437885  9828 net.cpp:100] Creating Layer fc6
I0817 01:02:08.437889  9828 net.cpp:434] fc6 <- pool5
I0817 01:02:08.437896  9828 net.cpp:408] fc6 -> fc6
I0817 01:02:08.569417  9828 net.cpp:150] Setting up fc6
I0817 01:02:08.569453  9828 net.cpp:157] Top shape: 256 4096 (1048576)
I0817 01:02:08.569456  9828 net.cpp:165] Memory required for data: 636978176
I0817 01:02:08.569469  9828 layer_factory.hpp:77] Creating layer relu6
I0817 01:02:08.569480  9828 net.cpp:100] Creating Layer relu6
I0817 01:02:08.569484  9828 net.cpp:434] relu6 <- fc6
I0817 01:02:08.569492  9828 net.cpp:395] relu6 -> fc6 (in-place)
I0817 01:02:08.570091  9828 net.cpp:150] Setting up relu6
I0817 01:02:08.570106  9828 net.cpp:157] Top shape: 256 4096 (1048576)
I0817 01:02:08.570108  9828 net.cpp:165] Memory required for data: 641172480
I0817 01:02:08.570112  9828 layer_factory.hpp:77] Creating layer drop6
I0817 01:02:08.570121  9828 net.cpp:100] Creating Layer drop6
I0817 01:02:08.570124  9828 net.cpp:434] drop6 <- fc6
I0817 01:02:08.570132  9828 net.cpp:395] drop6 -> fc6 (in-place)
I0817 01:02:08.570158  9828 net.cpp:150] Setting up drop6
I0817 01:02:08.570164  9828 net.cpp:157] Top shape: 256 4096 (1048576)
I0817 01:02:08.570168  9828 net.cpp:165] Memory required for data: 645366784
I0817 01:02:08.570170  9828 layer_factory.hpp:77] Creating layer fc7
I0817 01:02:08.570181  9828 net.cpp:100] Creating Layer fc7
I0817 01:02:08.570186  9828 net.cpp:434] fc7 <- fc6
I0817 01:02:08.570191  9828 net.cpp:408] fc7 -> fc7
I0817 01:02:08.803648  9828 net.cpp:150] Setting up fc7
I0817 01:02:08.803689  9828 net.cpp:157] Top shape: 256 4096 (1048576)
I0817 01:02:08.803694  9828 net.cpp:165] Memory required for data: 649561088
I0817 01:02:08.803706  9828 layer_factory.hpp:77] Creating layer relu7
I0817 01:02:08.803716  9828 net.cpp:100] Creating Layer relu7
I0817 01:02:08.803721  9828 net.cpp:434] relu7 <- fc7
I0817 01:02:08.803731  9828 net.cpp:395] relu7 -> fc7 (in-place)
I0817 01:02:08.804026  9828 net.cpp:150] Setting up relu7
I0817 01:02:08.804039  9828 net.cpp:157] Top shape: 256 4096 (1048576)
I0817 01:02:08.804041  9828 net.cpp:165] Memory required for data: 653755392
I0817 01:02:08.804044  9828 layer_factory.hpp:77] Creating layer drop7
I0817 01:02:08.804056  9828 net.cpp:100] Creating Layer drop7
I0817 01:02:08.804059  9828 net.cpp:434] drop7 <- fc7
I0817 01:02:08.804065  9828 net.cpp:395] drop7 -> fc7 (in-place)
I0817 01:02:08.804090  9828 net.cpp:150] Setting up drop7
I0817 01:02:08.804098  9828 net.cpp:157] Top shape: 256 4096 (1048576)
I0817 01:02:08.804101  9828 net.cpp:165] Memory required for data: 657949696
I0817 01:02:08.804105  9828 layer_factory.hpp:77] Creating layer fc8
I0817 01:02:08.804113  9828 net.cpp:100] Creating Layer fc8
I0817 01:02:08.804116  9828 net.cpp:434] fc8 <- fc7
I0817 01:02:08.804124  9828 net.cpp:408] fc8 -> fc8
I0817 01:02:08.809537  9828 net.cpp:150] Setting up fc8
I0817 01:02:08.809554  9828 net.cpp:157] Top shape: 256 80 (20480)
I0817 01:02:08.809557  9828 net.cpp:165] Memory required for data: 658031616
I0817 01:02:08.809564  9828 layer_factory.hpp:77] Creating layer loss
I0817 01:02:08.809571  9828 net.cpp:100] Creating Layer loss
I0817 01:02:08.809576  9828 net.cpp:434] loss <- fc8
I0817 01:02:08.809579  9828 net.cpp:434] loss <- label
I0817 01:02:08.809584  9828 net.cpp:408] loss -> loss
I0817 01:02:08.809593  9828 layer_factory.hpp:77] Creating layer loss
…
I0817 01:02:08.810434  9828 solver.cpp:181] Creating test net (#0) specified by net file: nets/coco_all_classes_alex_net/trainval.prototxt
I0817 01:02:08.810475  9828 net.cpp:322] The NetState phase (1) differed from the phase (0) specified by a rule in layer coco
I0817 01:02:08.810652  9828 net.cpp:58] Initializing net from parameters: 
name: "AlexNet"
state {
  phase: TEST
}
layer {
  name: "coco"
  type: "Data"
  top: "data"
  top: "label"
  include {
    phase: TEST
  }
  transform_param {
    scale: 0.00390625
    mean_file: "data/lmdb/coco_color_mean.binaryproto"
  }
  data_param {
    source: "data/lmdb/coco_val_lmdb"
    batch_size: 256
    backend: LMDB
  }
}
layer {
  name: "conv1"
  type: "Convolution"
  bottom: "data"
  top: "conv1"
  param {
    lr_mult: 1
    decay_mult: 1
  }
  param {
    lr_mult: 2
    decay_mult: 0
  }
  convolution_param {
    num_output: 96
    kernel_size: 11
    stride: 4
    weight_filler {
      type: "gaussian"
      std: 0.01
    }
    bias_filler {
      type: "constant"
      value: 0
    }
  }
}
layer {
  name: "relu1"
  type: "ReLU"
  bottom: "conv1"
  top: "conv1"
}
layer {
  name: "norm1"
  type: "LRN"
  bottom: "conv1"
  top: "norm1"
  lrn_param {
    local_size: 5
    alpha: 0.0001
    beta: 0.75
  }
}
layer {
  name: "pool1"
  type: "Pooling"
  bottom: "norm1"
  top: "pool1"
  pooling_param {
    pool: MAX
    kernel_size: 3
    stride: 2
  }
}
layer {
  name: "conv2"
  type: "Convolution"
  bottom: "pool1"
  top: "conv2"
  param {
    lr_mult: 1
    decay_mult: 1
  }
  param {
    lr_mult: 2
    decay_mult: 0
  }
  convolution_param {
    num_output: 256
    pad: 2
    kernel_size: 5
    group: 2
    weight_filler {
      type: "gaussian"
      std: 0.01
    }
    bias_filler {
      type: "constant"
      value: 0.1
    }
  }
}
layer {
  name: "relu2"
  type: "ReLU"
  bottom: "conv2"
  top: "conv2"
}
layer {
  name: "norm2"
  type: "LRN"
  bottom: "conv2"
  top: "norm2"
  lrn_param {
    local_size: 5
    alpha: 0.0001
    beta: 0.75
  }
}
layer {
  name: "pool2"
  type: "Pooling"
  bottom: "norm2"
  top: "pool2"
  pooling_param {
    pool: MAX
    kernel_size: 3
    stride: 2
  }
}
layer {
  name: "conv3"
  type: "Convolution"
  bottom: "pool2"
  top: "conv3"
  param {
    lr_mult: 1
    decay_mult: 1
  }
  param {
    lr_mult: 2
    decay_mult: 0
  }
  convolution_param {
    num_output: 384
    pad: 1
    kernel_size: 3
    weight_filler {
      type: "gaussian"
      std: 0.01
    }
    bias_filler {
      type: "constant"
      value: 0
    }
  }
}
layer {
  name: "relu3"
  type: "ReLU"
  bottom: "conv3"
  top: "conv3"
}
layer {
  name: "conv4"
  type: "Convolution"
  bottom: "conv3"
  top: "conv4"
  param {
    lr_mult: 1
    decay_mult: 1
  }
  param {
    lr_mult: 2
    decay_mult: 0
  }
  convolution_param {
    num_output: 384
    pad: 1
    kernel_size: 3
    group: 2
    weight_filler {
      type: "gaussian"
      std: 0.01
    }
    bias_filler {
      type: "constant"
      value: 0.1
    }
  }
}
layer {
  name: "relu4"
  type: "ReLU"
  bottom: "conv4"
  top: "conv4"
}
layer {
  name: "conv5"
  type: "Convolution"
  bottom: "conv4"
  top: "conv5"
  param {
    lr_mult: 1
    decay_mult: 1
  }
  param {
    lr_mult: 2
    decay_mult: 0
  }
  convolution_param {
    num_output: 256
    pad: 1
    kernel_size: 3
    group: 2
    weight_filler {
      type: "gaussian"
      std: 0.01
    }
    bias_filler {
      type: "constant"
      value: 0.1
    }
  }
}
layer {
  name: "relu5"
  type: "ReLU"
  bottom: "conv5"
  top: "conv5"
}
layer {
  name: "pool5"
  type: "Pooling"
  bottom: "conv5"
  top: "pool5"
  pooling_param {
    pool: MAX
    kernel_size: 3
    stride: 2
  }
}
layer {
  name: "fc6"
  type: "InnerProduct"
  bottom: "pool5"
  top: "fc6"
  param {
    lr_mult: 1
    decay_mult: 1
  }
  param {
    lr_mult: 2
    decay_mult: 0
  }
  inner_product_param {
    num_output: 4096
    weight_filler {
      type: "gaussian"
      std: 0.005
    }
    bias_filler {
      type: "constant"
      value: 0.1
    }
  }
}
layer {
  name: "relu6"
  type: "ReLU"
  bottom: "fc6"
  top: "fc6"
}
layer {
  name: "drop6"
  type: "Dropout"
  bottom: "fc6"
  top: "fc6"
  dropout_param {
    dropout_ratio: 0.5
  }
}
layer {
  name: "fc7"
  type: "InnerProduct"
  bottom: "fc6"
  top: "fc7"
  param {
    lr_mult: 1
    decay_mult: 1
  }
  param {
    lr_mult: 2
    decay_mult: 0
  }
  inner_product_param {
    num_output: 4096
    weight_filler {
      type: "gaussian"
      std: 0.005
    }
    bias_filler {
      type: "constant"
      value: 0.1
    }
  }
}
layer {
  name: "relu7"
  type: "ReLU"
  bottom: "fc7"
  top: "fc7"
}
layer {
  name: "drop7"
  type: "Dropout"
  bottom: "fc7"
  top: "fc7"
  dropout_param {
    dropout_ratio: 0.5
  }
}
layer {
  name: "fc8"
  type: "InnerProduct"
  bottom: "fc7"
  top: "fc8"
  param {
    lr_mult: 1
    decay_mult: 1
  }
  param {
    lr_mult: 2
    decay_mult: 0
  }
  inner_product_param {
    num_output: 80
    weight_filler {
      type: "gaussian"
      std: 0.01
    }
    bias_filler {
      type: "constant"
      value: 0
    }
  }
}
layer {
  name: "accuracy"
  type: "Accuracy"
  bottom: "fc8"
  bottom: "label"
  top: "accuracy"
  include {
    phase: TEST
  }
}
layer {
  name: "loss"
  type: "SoftmaxWithLoss"
  bottom: "fc8"
  bottom: "label"
  top: "loss"
}
I0817 01:02:08.810766  9828 layer_factory.hpp:77] Creating layer coco
I0817 01:02:08.811000  9828 net.cpp:100] Creating Layer coco
I0817 01:02:08.811009  9828 net.cpp:408] coco -> data
I0817 01:02:08.811020  9828 net.cpp:408] coco -> label
I0817 01:02:08.811028  9828 data_transformer.cpp:25] Loading mean file from: data/lmdb/coco_color_mean.binaryproto
I0817 01:02:08.812650  9841 db_lmdb.cpp:35] Opened lmdb data/lmdb/coco_val_lmdb
I0817 01:02:08.813012  9828 data_layer.cpp:41] output data size: 256,3,128,128
I0817 01:02:08.954769  9828 net.cpp:150] Setting up coco
I0817 01:02:08.954809  9828 net.cpp:157] Top shape: 256 3 128 128 (12582912)
I0817 01:02:08.954814  9828 net.cpp:157] Top shape: 256 (256)
I0817 01:02:08.954818  9828 net.cpp:165] Memory required for data: 50332672
I0817 01:02:08.954825  9828 layer_factory.hpp:77] Creating layer label_coco_1_split
I0817 01:02:08.954843  9828 net.cpp:100] Creating Layer label_coco_1_split
I0817 01:02:08.954849  9828 net.cpp:434] label_coco_1_split <- label
I0817 01:02:08.954859  9828 net.cpp:408] label_coco_1_split -> label_coco_1_split_0
I0817 01:02:08.954871  9828 net.cpp:408] label_coco_1_split -> label_coco_1_split_1
I0817 01:02:08.954980  9828 net.cpp:150] Setting up label_coco_1_split
I0817 01:02:08.954991  9828 net.cpp:157] Top shape: 256 (256)
I0817 01:02:08.954995  9828 net.cpp:157] Top shape: 256 (256)
I0817 01:02:08.954998  9828 net.cpp:165] Memory required for data: 50334720
I0817 01:02:08.955001  9828 layer_factory.hpp:77] Creating layer conv1
I0817 01:02:08.955019  9828 net.cpp:100] Creating Layer conv1
I0817 01:02:08.955024  9828 net.cpp:434] conv1 <- data
I0817 01:02:08.955032  9828 net.cpp:408] conv1 -> conv1
I0817 01:02:08.966976  9828 net.cpp:150] Setting up conv1
I0817 01:02:08.966996  9828 net.cpp:157] Top shape: 256 96 30 30 (22118400)
I0817 01:02:08.967000  9828 net.cpp:165] Memory required for data: 138808320
I0817 01:02:08.967013  9828 layer_factory.hpp:77] Creating layer relu1
I0817 01:02:08.967023  9828 net.cpp:100] Creating Layer relu1
I0817 01:02:08.967027  9828 net.cpp:434] relu1 <- conv1
I0817 01:02:08.967034  9828 net.cpp:395] relu1 -> conv1 (in-place)
I0817 01:02:08.967245  9828 net.cpp:150] Setting up relu1
I0817 01:02:08.967258  9828 net.cpp:157] Top shape: 256 96 30 30 (22118400)
I0817 01:02:08.967262  9828 net.cpp:165] Memory required for data: 227281920
I0817 01:02:08.967265  9828 layer_factory.hpp:77] Creating layer norm1
I0817 01:02:08.967278  9828 net.cpp:100] Creating Layer norm1
I0817 01:02:08.967283  9828 net.cpp:434] norm1 <- conv1
I0817 01:02:08.967289  9828 net.cpp:408] norm1 -> norm1
I0817 01:02:08.967850  9828 net.cpp:150] Setting up norm1
I0817 01:02:08.967867  9828 net.cpp:157] Top shape: 256 96 30 30 (22118400)
I0817 01:02:08.967871  9828 net.cpp:165] Memory required for data: 315755520
I0817 01:02:08.967875  9828 layer_factory.hpp:77] Creating layer pool1
I0817 01:02:08.967885  9828 net.cpp:100] Creating Layer pool1
I0817 01:02:08.967888  9828 net.cpp:434] pool1 <- norm1
I0817 01:02:08.967895  9828 net.cpp:408] pool1 -> pool1
I0817 01:02:08.967954  9828 net.cpp:150] Setting up pool1
I0817 01:02:08.967965  9828 net.cpp:157] Top shape: 256 96 15 15 (5529600)
I0817 01:02:08.967968  9828 net.cpp:165] Memory required for data: 337873920
I0817 01:02:08.967972  9828 layer_factory.hpp:77] Creating layer conv2
I0817 01:02:08.967984  9828 net.cpp:100] Creating Layer conv2
I0817 01:02:08.967988  9828 net.cpp:434] conv2 <- pool1
I0817 01:02:08.967995  9828 net.cpp:408] conv2 -> conv2
I0817 01:02:08.974496  9828 net.cpp:150] Setting up conv2
I0817 01:02:08.974515  9828 net.cpp:157] Top shape: 256 256 15 15 (14745600)
I0817 01:02:08.974519  9828 net.cpp:165] Memory required for data: 396856320
I0817 01:02:08.974529  9828 layer_factory.hpp:77] Creating layer relu2
I0817 01:02:08.974537  9828 net.cpp:100] Creating Layer relu2
I0817 01:02:08.974540  9828 net.cpp:434] relu2 <- conv2
I0817 01:02:08.974546  9828 net.cpp:395] relu2 -> conv2 (in-place)
I0817 01:02:08.975075  9828 net.cpp:150] Setting up relu2
I0817 01:02:08.975091  9828 net.cpp:157] Top shape: 256 256 15 15 (14745600)
I0817 01:02:08.975095  9828 net.cpp:165] Memory required for data: 455838720
I0817 01:02:08.975098  9828 layer_factory.hpp:77] Creating layer norm2
I0817 01:02:08.975109  9828 net.cpp:100] Creating Layer norm2
I0817 01:02:08.975113  9828 net.cpp:434] norm2 <- conv2
I0817 01:02:08.975121  9828 net.cpp:408] norm2 -> norm2
I0817 01:02:08.975366  9828 net.cpp:150] Setting up norm2
I0817 01:02:08.975379  9828 net.cpp:157] Top shape: 256 256 15 15 (14745600)
I0817 01:02:08.975383  9828 net.cpp:165] Memory required for data: 514821120
I0817 01:02:08.975386  9828 layer_factory.hpp:77] Creating layer pool2
I0817 01:02:08.975395  9828 net.cpp:100] Creating Layer pool2
I0817 01:02:08.975399  9828 net.cpp:434] pool2 <- norm2
I0817 01:02:08.975404  9828 net.cpp:408] pool2 -> pool2
I0817 01:02:08.975450  9828 net.cpp:150] Setting up pool2
I0817 01:02:08.975460  9828 net.cpp:157] Top shape: 256 256 7 7 (3211264)
I0817 01:02:08.975462  9828 net.cpp:165] Memory required for data: 527666176
I0817 01:02:08.975466  9828 layer_factory.hpp:77] Creating layer conv3
I0817 01:02:08.975477  9828 net.cpp:100] Creating Layer conv3
I0817 01:02:08.975483  9828 net.cpp:434] conv3 <- pool2
I0817 01:02:08.975492  9828 net.cpp:408] conv3 -> conv3
I0817 01:02:08.989076  9828 net.cpp:150] Setting up conv3
I0817 01:02:08.989099  9828 net.cpp:157] Top shape: 256 384 7 7 (4816896)
I0817 01:02:08.989102  9828 net.cpp:165] Memory required for data: 546933760
I0817 01:02:08.989114  9828 layer_factory.hpp:77] Creating layer relu3
I0817 01:02:08.989121  9828 net.cpp:100] Creating Layer relu3
I0817 01:02:08.989126  9828 net.cpp:434] relu3 <- conv3
I0817 01:02:08.989133  9828 net.cpp:395] relu3 -> conv3 (in-place)
I0817 01:02:08.989348  9828 net.cpp:150] Setting up relu3
I0817 01:02:08.989362  9828 net.cpp:157] Top shape: 256 384 7 7 (4816896)
I0817 01:02:08.989364  9828 net.cpp:165] Memory required for data: 566201344
I0817 01:02:08.989368  9828 layer_factory.hpp:77] Creating layer conv4
I0817 01:02:08.989380  9828 net.cpp:100] Creating Layer conv4
I0817 01:02:08.989387  9828 net.cpp:434] conv4 <- conv3
I0817 01:02:08.989395  9828 net.cpp:408] conv4 -> conv4
I0817 01:02:09.000929  9828 net.cpp:150] Setting up conv4
I0817 01:02:09.000948  9828 net.cpp:157] Top shape: 256 384 7 7 (4816896)
I0817 01:02:09.000952  9828 net.cpp:165] Memory required for data: 585468928
I0817 01:02:09.000960  9828 layer_factory.hpp:77] Creating layer relu4
I0817 01:02:09.000968  9828 net.cpp:100] Creating Layer relu4
I0817 01:02:09.000973  9828 net.cpp:434] relu4 <- conv4
I0817 01:02:09.000980  9828 net.cpp:395] relu4 -> conv4 (in-place)
I0817 01:02:09.001524  9828 net.cpp:150] Setting up relu4
I0817 01:02:09.001543  9828 net.cpp:157] Top shape: 256 384 7 7 (4816896)
I0817 01:02:09.001546  9828 net.cpp:165] Memory required for data: 604736512
I0817 01:02:09.001549  9828 layer_factory.hpp:77] Creating layer conv5
I0817 01:02:09.001561  9828 net.cpp:100] Creating Layer conv5
I0817 01:02:09.001565  9828 net.cpp:434] conv5 <- conv4
I0817 01:02:09.001574  9828 net.cpp:408] conv5 -> conv5
I0817 01:02:09.010308  9828 net.cpp:150] Setting up conv5
I0817 01:02:09.010329  9828 net.cpp:157] Top shape: 256 256 7 7 (3211264)
I0817 01:02:09.010332  9828 net.cpp:165] Memory required for data: 617581568
I0817 01:02:09.010344  9828 layer_factory.hpp:77] Creating layer relu5
I0817 01:02:09.010351  9828 net.cpp:100] Creating Layer relu5
I0817 01:02:09.010354  9828 net.cpp:434] relu5 <- conv5
I0817 01:02:09.010362  9828 net.cpp:395] relu5 -> conv5 (in-place)
I0817 01:02:09.010576  9828 net.cpp:150] Setting up relu5
I0817 01:02:09.010589  9828 net.cpp:157] Top shape: 256 256 7 7 (3211264)
I0817 01:02:09.010592  9828 net.cpp:165] Memory required for data: 630426624
I0817 01:02:09.010596  9828 layer_factory.hpp:77] Creating layer pool5
I0817 01:02:09.010609  9828 net.cpp:100] Creating Layer pool5
I0817 01:02:09.010614  9828 net.cpp:434] pool5 <- conv5
I0817 01:02:09.010623  9828 net.cpp:408] pool5 -> pool5
I0817 01:02:09.010679  9828 net.cpp:150] Setting up pool5
I0817 01:02:09.010689  9828 net.cpp:157] Top shape: 256 256 3 3 (589824)
I0817 01:02:09.010692  9828 net.cpp:165] Memory required for data: 632785920
I0817 01:02:09.010695  9828 layer_factory.hpp:77] Creating layer fc6
I0817 01:02:09.010707  9828 net.cpp:100] Creating Layer fc6
I0817 01:02:09.010710  9828 net.cpp:434] fc6 <- pool5
I0817 01:02:09.010718  9828 net.cpp:408] fc6 -> fc6
I0817 01:02:09.141146  9828 net.cpp:150] Setting up fc6
I0817 01:02:09.141192  9828 net.cpp:157] Top shape: 256 4096 (1048576)
I0817 01:02:09.141196  9828 net.cpp:165] Memory required for data: 636980224
I0817 01:02:09.141211  9828 layer_factory.hpp:77] Creating layer relu6
I0817 01:02:09.141227  9828 net.cpp:100] Creating Layer relu6
I0817 01:02:09.141232  9828 net.cpp:434] relu6 <- fc6
I0817 01:02:09.141242  9828 net.cpp:395] relu6 -> fc6 (in-place)
I0817 01:02:09.141530  9828 net.cpp:150] Setting up relu6
I0817 01:02:09.141543  9828 net.cpp:157] Top shape: 256 4096 (1048576)
I0817 01:02:09.141546  9828 net.cpp:165] Memory required for data: 641174528
I0817 01:02:09.141551  9828 layer_factory.hpp:77] Creating layer drop6
I0817 01:02:09.141559  9828 net.cpp:100] Creating Layer drop6
I0817 01:02:09.141563  9828 net.cpp:434] drop6 <- fc6
I0817 01:02:09.141568  9828 net.cpp:395] drop6 -> fc6 (in-place)
I0817 01:02:09.141600  9828 net.cpp:150] Setting up drop6
I0817 01:02:09.141611  9828 net.cpp:157] Top shape: 256 4096 (1048576)
I0817 01:02:09.141614  9828 net.cpp:165] Memory required for data: 645368832
I0817 01:02:09.141618  9828 layer_factory.hpp:77] Creating layer fc7
I0817 01:02:09.141628  9828 net.cpp:100] Creating Layer fc7
I0817 01:02:09.141633  9828 net.cpp:434] fc7 <- fc6
I0817 01:02:09.141640  9828 net.cpp:408] fc7 -> fc7
I0817 01:02:09.413154  9828 net.cpp:150] Setting up fc7
I0817 01:02:09.413194  9828 net.cpp:157] Top shape: 256 4096 (1048576)
I0817 01:02:09.413199  9828 net.cpp:165] Memory required for data: 649563136
I0817 01:02:09.413213  9828 layer_factory.hpp:77] Creating layer relu7
I0817 01:02:09.413223  9828 net.cpp:100] Creating Layer relu7
I0817 01:02:09.413229  9828 net.cpp:434] relu7 <- fc7
I0817 01:02:09.413239  9828 net.cpp:395] relu7 -> fc7 (in-place)
I0817 01:02:09.414026  9828 net.cpp:150] Setting up relu7
I0817 01:02:09.414042  9828 net.cpp:157] Top shape: 256 4096 (1048576)
I0817 01:02:09.414046  9828 net.cpp:165] Memory required for data: 653757440
I0817 01:02:09.414049  9828 layer_factory.hpp:77] Creating layer drop7
I0817 01:02:09.414060  9828 net.cpp:100] Creating Layer drop7
I0817 01:02:09.414063  9828 net.cpp:434] drop7 <- fc7
I0817 01:02:09.414069  9828 net.cpp:395] drop7 -> fc7 (in-place)
I0817 01:02:09.414099  9828 net.cpp:150] Setting up drop7
I0817 01:02:09.414106  9828 net.cpp:157] Top shape: 256 4096 (1048576)
I0817 01:02:09.414109  9828 net.cpp:165] Memory required for data: 657951744
I0817 01:02:09.414113  9828 layer_factory.hpp:77] Creating layer fc8
I0817 01:02:09.414121  9828 net.cpp:100] Creating Layer fc8
I0817 01:02:09.414125  9828 net.cpp:434] fc8 <- fc7
I0817 01:02:09.414132  9828 net.cpp:408] fc8 -> fc8
I0817 01:02:09.419302  9828 net.cpp:150] Setting up fc8
I0817 01:02:09.419318  9828 net.cpp:157] Top shape: 256 80 (20480)
I0817 01:02:09.419322  9828 net.cpp:165] Memory required for data: 658033664
I0817 01:02:09.419328  9828 layer_factory.hpp:77] Creating layer fc8_fc8_0_split
I0817 01:02:09.419337  9828 net.cpp:100] Creating Layer fc8_fc8_0_split
I0817 01:02:09.419340  9828 net.cpp:434] fc8_fc8_0_split <- fc8
I0817 01:02:09.419348  9828 net.cpp:408] fc8_fc8_0_split -> fc8_fc8_0_split_0
I0817 01:02:09.419355  9828 net.cpp:408] fc8_fc8_0_split -> fc8_fc8_0_split_1
I0817 01:02:09.419394  9828 net.cpp:150] Setting up fc8_fc8_0_split
I0817 01:02:09.419404  9828 net.cpp:157] Top shape: 256 80 (20480)
I0817 01:02:09.419407  9828 net.cpp:157] Top shape: 256 80 (20480)
I0817 01:02:09.419410  9828 net.cpp:165] Memory required for data: 658197504
I0817 01:02:09.419414  9828 layer_factory.hpp:77] Creating layer accuracy
I0817 01:02:09.419425  9828 net.cpp:100] Creating Layer accuracy
I0817 01:02:09.419428  9828 net.cpp:434] accuracy <- fc8_fc8_0_split_0
I0817 01:02:09.419433  9828 net.cpp:434] accuracy <- label_coco_1_split_0
I0817 01:02:09.419438  9828 net.cpp:408] accuracy -> accuracy
…
