…
I0825 01:13:49.876832 19864 net.cpp:322] The NetState phase (0) differed from the phase (1) specified by a rule in layer coco
I0825 01:13:49.876852 19864 net.cpp:322] The NetState phase (0) differed from the phase (1) specified by a rule in layer accuracy
I0825 01:13:49.876994 19864 net.cpp:58] Initializing net from parameters: 
name: "AlexNet"
state {
  phase: TRAIN
}
layer {
  name: "coco"
  type: "Data"
  top: "data"
  top: "label"
  include {
    phase: TRAIN
  }
  transform_param {
    scale: 0.00390625
    mean_file: "data/lmdb/coco_color_mean.binaryproto"
  }
  data_param {
    source: "data/lmdb/coco_train_lmdb"
    batch_size: 256
    backend: LMDB
  }
}
layer {
  name: "conv1"
  type: "Convolution"
  bottom: "data"
  top: "conv1"
  param {
    lr_mult: 1
    decay_mult: 1
  }
  param {
    lr_mult: 2
    decay_mult: 0
  }
  convolution_param {
    num_output: 96
    kernel_size: 11
    stride: 4
    weight_filler {
      type: "gaussian"
      std: 0.01
    }
    bias_filler {
      type: "constant"
      value: 0
    }
  }
}
layer {
  name: "relu1"
  type: "ReLU"
  bottom: "conv1"
  top: "conv1"
}
layer {
  name: "norm1"
  type: "LRN"
  bottom: "conv1"
  top: "norm1"
  lrn_param {
    local_size: 5
    alpha: 0.0001
    beta: 0.75
  }
}
layer {
  name: "pool1"
  type: "Pooling"
  bottom: "norm1"
  top: "pool1"
  pooling_param {
    pool: MAX
    kernel_size: 3
    stride: 2
  }
}
layer {
  name: "conv2"
  type: "Convolution"
  bottom: "pool1"
  top: "conv2"
  param {
    lr_mult: 1
    decay_mult: 1
  }
  param {
    lr_mult: 2
    decay_mult: 0
  }
  convolution_param {
    num_output: 256
    pad: 2
    kernel_size: 5
    group: 2
    weight_filler {
      type: "gaussian"
      std: 0.01
    }
    bias_filler {
      type: "constant"
      value: 0.1
    }
  }
}
layer {
  name: "relu2"
  type: "ReLU"
  bottom: "conv2"
  top: "conv2"
}
layer {
  name: "norm2"
  type: "LRN"
  bottom: "conv2"
  top: "norm2"
  lrn_param {
    local_size: 5
    alpha: 0.0001
    beta: 0.75
  }
}
layer {
  name: "pool2"
  type: "Pooling"
  bottom: "norm2"
  top: "pool2"
  pooling_param {
    pool: MAX
    kernel_size: 3
    stride: 2
  }
}
layer {
  name: "conv3"
  type: "Convolution"
  bottom: "pool2"
  top: "conv3"
  param {
    lr_mult: 1
    decay_mult: 1
  }
  param {
    lr_mult: 2
    decay_mult: 0
  }
  convolution_param {
    num_output: 384
    pad: 1
    kernel_size: 3
    weight_filler {
      type: "gaussian"
      std: 0.01
    }
    bias_filler {
      type: "constant"
      value: 0
    }
  }
}
layer {
  name: "relu3"
  type: "ReLU"
  bottom: "conv3"
  top: "conv3"
}
layer {
  name: "conv4"
  type: "Convolution"
  bottom: "conv3"
  top: "conv4"
  param {
    lr_mult: 1
    decay_mult: 1
  }
  param {
    lr_mult: 2
    decay_mult: 0
  }
  convolution_param {
    num_output: 384
    pad: 1
    kernel_size: 3
    group: 2
    weight_filler {
      type: "gaussian"
      std: 0.01
    }
    bias_filler {
      type: "constant"
      value: 0.1
    }
  }
}
layer {
  name: "relu4"
  type: "ReLU"
  bottom: "conv4"
  top: "conv4"
}
layer {
  name: "conv5"
  type: "Convolution"
  bottom: "conv4"
  top: "conv5"
  param {
    lr_mult: 1
    decay_mult: 1
  }
  param {
    lr_mult: 2
    decay_mult: 0
  }
  convolution_param {
    num_output: 256
    pad: 1
    kernel_size: 3
    group: 2
    weight_filler {
      type: "gaussian"
      std: 0.01
    }
    bias_filler {
      type: "constant"
      value: 0.1
    }
  }
}
layer {
  name: "relu5"
  type: "ReLU"
  bottom: "conv5"
  top: "conv5"
}
layer {
  name: "pool5"
  type: "Pooling"
  bottom: "conv5"
  top: "pool5"
  pooling_param {
    pool: MAX
    kernel_size: 3
    stride: 2
  }
}
layer {
  name: "fc6"
  type: "InnerProduct"
  bottom: "pool5"
  top: "fc6"
  param {
    lr_mult: 1
    decay_mult: 1
  }
  param {
    lr_mult: 2
    decay_mult: 0
  }
  inner_product_param {
    num_output: 4096
    weight_filler {
      type: "gaussian"
      std: 0.005
    }
    bias_filler {
      type: "constant"
      value: 0.1
    }
  }
}
layer {
  name: "relu6"
  type: "ReLU"
  bottom: "fc6"
  top: "fc6"
}
layer {
  name: "drop6"
  type: "Dropout"
  bottom: "fc6"
  top: "fc6"
  dropout_param {
    dropout_ratio: 0.5
  }
}
layer {
  name: "fc7"
  type: "InnerProduct"
  bottom: "fc6"
  top: "fc7"
  param {
    lr_mult: 1
    decay_mult: 1
  }
  param {
    lr_mult: 2
    decay_mult: 0
  }
  inner_product_param {
    num_output: 4096
    weight_filler {
      type: "gaussian"
      std: 0.005
    }
    bias_filler {
      type: "constant"
      value: 0.1
    }
  }
}
layer {
  name: "relu7"
  type: "ReLU"
  bottom: "fc7"
  top: "fc7"
}
layer {
  name: "drop7"
  type: "Dropout"
  bottom: "fc7"
  top: "fc7"
  dropout_param {
    dropout_ratio: 0.5
  }
}
layer {
  name: "fc8"
  type: "InnerProduct"
  bottom: "fc7"
  top: "fc8"
  param {
    lr_mult: 1
    decay_mult: 1
  }
  param {
    lr_mult: 2
    decay_mult: 0
  }
  inner_product_param {
    num_output: 80
    weight_filler {
      type: "gaussian"
      std: 0.01
    }
    bias_filler {
      type: "constant"
      value: 0
    }
  }
}
layer {
  name: "loss"
  type: "SoftmaxWithLoss"
  bottom: "fc8"
  bottom: "label"
  top: "loss"
}
I0825 01:13:49.877077 19864 layer_factory.hpp:77] Creating layer coco
I0825 01:13:49.877689 19864 net.cpp:100] Creating Layer coco
I0825 01:13:49.877702 19864 net.cpp:408] coco -> data
I0825 01:13:49.877714 19864 net.cpp:408] coco -> label
I0825 01:13:49.877725 19864 data_transformer.cpp:25] Loading mean file from: data/lmdb/coco_color_mean.binaryproto
I0825 01:13:49.879076 19873 db_lmdb.cpp:35] Opened lmdb data/lmdb/coco_train_lmdb
I0825 01:13:49.913545 19864 data_layer.cpp:41] output data size: 256,3,128,128
I0825 01:13:50.050789 19864 net.cpp:150] Setting up coco
I0825 01:13:50.050827 19864 net.cpp:157] Top shape: 256 3 128 128 (12582912)
I0825 01:13:50.050834 19864 net.cpp:157] Top shape: 256 (256)
I0825 01:13:50.050837 19864 net.cpp:165] Memory required for data: 50332672
I0825 01:13:50.050843 19864 layer_factory.hpp:77] Creating layer conv1
I0825 01:13:50.050870 19864 net.cpp:100] Creating Layer conv1
I0825 01:13:50.050874 19864 net.cpp:434] conv1 <- data
I0825 01:13:50.050884 19864 net.cpp:408] conv1 -> conv1
I0825 01:13:50.407438 19864 net.cpp:150] Setting up conv1
I0825 01:13:50.407476 19864 net.cpp:157] Top shape: 256 96 30 30 (22118400)
I0825 01:13:50.407480 19864 net.cpp:165] Memory required for data: 138806272
I0825 01:13:50.407500 19864 layer_factory.hpp:77] Creating layer relu1
I0825 01:13:50.407515 19864 net.cpp:100] Creating Layer relu1
I0825 01:13:50.407518 19864 net.cpp:434] relu1 <- conv1
I0825 01:13:50.407526 19864 net.cpp:395] relu1 -> conv1 (in-place)
I0825 01:13:50.407711 19864 net.cpp:150] Setting up relu1
I0825 01:13:50.407723 19864 net.cpp:157] Top shape: 256 96 30 30 (22118400)
I0825 01:13:50.407727 19864 net.cpp:165] Memory required for data: 227279872
I0825 01:13:50.407730 19864 layer_factory.hpp:77] Creating layer norm1
I0825 01:13:50.407738 19864 net.cpp:100] Creating Layer norm1
I0825 01:13:50.407742 19864 net.cpp:434] norm1 <- conv1
I0825 01:13:50.407747 19864 net.cpp:408] norm1 -> norm1
I0825 01:13:50.408238 19864 net.cpp:150] Setting up norm1
I0825 01:13:50.408254 19864 net.cpp:157] Top shape: 256 96 30 30 (22118400)
I0825 01:13:50.408258 19864 net.cpp:165] Memory required for data: 315753472
I0825 01:13:50.408262 19864 layer_factory.hpp:77] Creating layer pool1
I0825 01:13:50.408270 19864 net.cpp:100] Creating Layer pool1
I0825 01:13:50.408274 19864 net.cpp:434] pool1 <- norm1
I0825 01:13:50.408279 19864 net.cpp:408] pool1 -> pool1
I0825 01:13:50.408319 19864 net.cpp:150] Setting up pool1
I0825 01:13:50.408327 19864 net.cpp:157] Top shape: 256 96 15 15 (5529600)
I0825 01:13:50.408330 19864 net.cpp:165] Memory required for data: 337871872
I0825 01:13:50.408334 19864 layer_factory.hpp:77] Creating layer conv2
I0825 01:13:50.408347 19864 net.cpp:100] Creating Layer conv2
I0825 01:13:50.408351 19864 net.cpp:434] conv2 <- pool1
I0825 01:13:50.408357 19864 net.cpp:408] conv2 -> conv2
I0825 01:13:50.414619 19864 net.cpp:150] Setting up conv2
I0825 01:13:50.414639 19864 net.cpp:157] Top shape: 256 256 15 15 (14745600)
I0825 01:13:50.414646 19864 net.cpp:165] Memory required for data: 396854272
I0825 01:13:50.414655 19864 layer_factory.hpp:77] Creating layer relu2
I0825 01:13:50.414664 19864 net.cpp:100] Creating Layer relu2
I0825 01:13:50.414666 19864 net.cpp:434] relu2 <- conv2
I0825 01:13:50.414674 19864 net.cpp:395] relu2 -> conv2 (in-place)
I0825 01:13:50.415925 19864 net.cpp:150] Setting up relu2
I0825 01:13:50.415969 19864 net.cpp:157] Top shape: 256 256 15 15 (14745600)
I0825 01:13:50.415977 19864 net.cpp:165] Memory required for data: 455836672
I0825 01:13:50.415984 19864 layer_factory.hpp:77] Creating layer norm2
I0825 01:13:50.416007 19864 net.cpp:100] Creating Layer norm2
I0825 01:13:50.416014 19864 net.cpp:434] norm2 <- conv2
I0825 01:13:50.416033 19864 net.cpp:408] norm2 -> norm2
I0825 01:13:50.416491 19864 net.cpp:150] Setting up norm2
I0825 01:13:50.416512 19864 net.cpp:157] Top shape: 256 256 15 15 (14745600)
I0825 01:13:50.416517 19864 net.cpp:165] Memory required for data: 514819072
I0825 01:13:50.416522 19864 layer_factory.hpp:77] Creating layer pool2
I0825 01:13:50.416541 19864 net.cpp:100] Creating Layer pool2
I0825 01:13:50.416548 19864 net.cpp:434] pool2 <- norm2
I0825 01:13:50.416558 19864 net.cpp:408] pool2 -> pool2
I0825 01:13:50.416635 19864 net.cpp:150] Setting up pool2
I0825 01:13:50.416648 19864 net.cpp:157] Top shape: 256 256 7 7 (3211264)
I0825 01:13:50.416654 19864 net.cpp:165] Memory required for data: 527664128
I0825 01:13:50.416659 19864 layer_factory.hpp:77] Creating layer conv3
I0825 01:13:50.416682 19864 net.cpp:100] Creating Layer conv3
I0825 01:13:50.416689 19864 net.cpp:434] conv3 <- pool2
I0825 01:13:50.416703 19864 net.cpp:408] conv3 -> conv3
I0825 01:13:50.441552 19864 net.cpp:150] Setting up conv3
I0825 01:13:50.441579 19864 net.cpp:157] Top shape: 256 384 7 7 (4816896)
I0825 01:13:50.441586 19864 net.cpp:165] Memory required for data: 546931712
I0825 01:13:50.441603 19864 layer_factory.hpp:77] Creating layer relu3
I0825 01:13:50.441615 19864 net.cpp:100] Creating Layer relu3
I0825 01:13:50.441620 19864 net.cpp:434] relu3 <- conv3
I0825 01:13:50.441633 19864 net.cpp:395] relu3 -> conv3 (in-place)
I0825 01:13:50.441961 19864 net.cpp:150] Setting up relu3
I0825 01:13:50.441977 19864 net.cpp:157] Top shape: 256 384 7 7 (4816896)
I0825 01:13:50.441982 19864 net.cpp:165] Memory required for data: 566199296
I0825 01:13:50.441987 19864 layer_factory.hpp:77] Creating layer conv4
I0825 01:13:50.442004 19864 net.cpp:100] Creating Layer conv4
I0825 01:13:50.442010 19864 net.cpp:434] conv4 <- conv3
I0825 01:13:50.442023 19864 net.cpp:408] conv4 -> conv4
I0825 01:13:50.460047 19864 net.cpp:150] Setting up conv4
I0825 01:13:50.460070 19864 net.cpp:157] Top shape: 256 384 7 7 (4816896)
I0825 01:13:50.460077 19864 net.cpp:165] Memory required for data: 585466880
I0825 01:13:50.460088 19864 layer_factory.hpp:77] Creating layer relu4
I0825 01:13:50.460096 19864 net.cpp:100] Creating Layer relu4
I0825 01:13:50.460103 19864 net.cpp:434] relu4 <- conv4
I0825 01:13:50.460114 19864 net.cpp:395] relu4 -> conv4 (in-place)
I0825 01:13:50.460422 19864 net.cpp:150] Setting up relu4
I0825 01:13:50.460438 19864 net.cpp:157] Top shape: 256 384 7 7 (4816896)
I0825 01:13:50.460443 19864 net.cpp:165] Memory required for data: 604734464
I0825 01:13:50.460446 19864 layer_factory.hpp:77] Creating layer conv5
I0825 01:13:50.460464 19864 net.cpp:100] Creating Layer conv5
I0825 01:13:50.460471 19864 net.cpp:434] conv5 <- conv4
I0825 01:13:50.460480 19864 net.cpp:408] conv5 -> conv5
I0825 01:13:50.473023 19864 net.cpp:150] Setting up conv5
I0825 01:13:50.473049 19864 net.cpp:157] Top shape: 256 256 7 7 (3211264)
I0825 01:13:50.473055 19864 net.cpp:165] Memory required for data: 617579520
I0825 01:13:50.473069 19864 layer_factory.hpp:77] Creating layer relu5
I0825 01:13:50.473080 19864 net.cpp:100] Creating Layer relu5
I0825 01:13:50.473085 19864 net.cpp:434] relu5 <- conv5
I0825 01:13:50.473094 19864 net.cpp:395] relu5 -> conv5 (in-place)
I0825 01:13:50.473392 19864 net.cpp:150] Setting up relu5
I0825 01:13:50.473408 19864 net.cpp:157] Top shape: 256 256 7 7 (3211264)
I0825 01:13:50.473412 19864 net.cpp:165] Memory required for data: 630424576
I0825 01:13:50.473417 19864 layer_factory.hpp:77] Creating layer pool5
I0825 01:13:50.473429 19864 net.cpp:100] Creating Layer pool5
I0825 01:13:50.473433 19864 net.cpp:434] pool5 <- conv5
I0825 01:13:50.473441 19864 net.cpp:408] pool5 -> pool5
I0825 01:13:50.473511 19864 net.cpp:150] Setting up pool5
I0825 01:13:50.473522 19864 net.cpp:157] Top shape: 256 256 3 3 (589824)
I0825 01:13:50.473526 19864 net.cpp:165] Memory required for data: 632783872
I0825 01:13:50.473536 19864 layer_factory.hpp:77] Creating layer fc6
I0825 01:13:50.473552 19864 net.cpp:100] Creating Layer fc6
I0825 01:13:50.473559 19864 net.cpp:434] fc6 <- pool5
I0825 01:13:50.473572 19864 net.cpp:408] fc6 -> fc6
I0825 01:13:50.618676 19864 net.cpp:150] Setting up fc6
I0825 01:13:50.618722 19864 net.cpp:157] Top shape: 256 4096 (1048576)
I0825 01:13:50.618727 19864 net.cpp:165] Memory required for data: 636978176
I0825 01:13:50.618739 19864 layer_factory.hpp:77] Creating layer relu6
I0825 01:13:50.618752 19864 net.cpp:100] Creating Layer relu6
I0825 01:13:50.618757 19864 net.cpp:434] relu6 <- fc6
I0825 01:13:50.618767 19864 net.cpp:395] relu6 -> fc6 (in-place)
I0825 01:13:50.619372 19864 net.cpp:150] Setting up relu6
I0825 01:13:50.619387 19864 net.cpp:157] Top shape: 256 4096 (1048576)
I0825 01:13:50.619390 19864 net.cpp:165] Memory required for data: 641172480
I0825 01:13:50.619393 19864 layer_factory.hpp:77] Creating layer drop6
I0825 01:13:50.619403 19864 net.cpp:100] Creating Layer drop6
I0825 01:13:50.619406 19864 net.cpp:434] drop6 <- fc6
I0825 01:13:50.619411 19864 net.cpp:395] drop6 -> fc6 (in-place)
I0825 01:13:50.619441 19864 net.cpp:150] Setting up drop6
I0825 01:13:50.619451 19864 net.cpp:157] Top shape: 256 4096 (1048576)
I0825 01:13:50.619453 19864 net.cpp:165] Memory required for data: 645366784
I0825 01:13:50.619457 19864 layer_factory.hpp:77] Creating layer fc7
I0825 01:13:50.619467 19864 net.cpp:100] Creating Layer fc7
I0825 01:13:50.619469 19864 net.cpp:434] fc7 <- fc6
I0825 01:13:50.619477 19864 net.cpp:408] fc7 -> fc7
I0825 01:13:50.850560 19864 net.cpp:150] Setting up fc7
I0825 01:13:50.850602 19864 net.cpp:157] Top shape: 256 4096 (1048576)
I0825 01:13:50.850606 19864 net.cpp:165] Memory required for data: 649561088
I0825 01:13:50.850618 19864 layer_factory.hpp:77] Creating layer relu7
I0825 01:13:50.850632 19864 net.cpp:100] Creating Layer relu7
I0825 01:13:50.850636 19864 net.cpp:434] relu7 <- fc7
I0825 01:13:50.850644 19864 net.cpp:395] relu7 -> fc7 (in-place)
I0825 01:13:50.850939 19864 net.cpp:150] Setting up relu7
I0825 01:13:50.850950 19864 net.cpp:157] Top shape: 256 4096 (1048576)
I0825 01:13:50.850953 19864 net.cpp:165] Memory required for data: 653755392
I0825 01:13:50.850956 19864 layer_factory.hpp:77] Creating layer drop7
I0825 01:13:50.850965 19864 net.cpp:100] Creating Layer drop7
I0825 01:13:50.850967 19864 net.cpp:434] drop7 <- fc7
I0825 01:13:50.850975 19864 net.cpp:395] drop7 -> fc7 (in-place)
I0825 01:13:50.850999 19864 net.cpp:150] Setting up drop7
I0825 01:13:50.851006 19864 net.cpp:157] Top shape: 256 4096 (1048576)
I0825 01:13:50.851007 19864 net.cpp:165] Memory required for data: 657949696
I0825 01:13:50.851011 19864 layer_factory.hpp:77] Creating layer fc8
I0825 01:13:50.851022 19864 net.cpp:100] Creating Layer fc8
I0825 01:13:50.851028 19864 net.cpp:434] fc8 <- fc7
I0825 01:13:50.851034 19864 net.cpp:408] fc8 -> fc8
I0825 01:13:50.856304 19864 net.cpp:150] Setting up fc8
I0825 01:13:50.856318 19864 net.cpp:157] Top shape: 256 80 (20480)
I0825 01:13:50.856322 19864 net.cpp:165] Memory required for data: 658031616
I0825 01:13:50.856328 19864 layer_factory.hpp:77] Creating layer loss
I0825 01:13:50.856335 19864 net.cpp:100] Creating Layer loss
I0825 01:13:50.856338 19864 net.cpp:434] loss <- fc8
I0825 01:13:50.856343 19864 net.cpp:434] loss <- label
I0825 01:13:50.856349 19864 net.cpp:408] loss -> loss
I0825 01:13:50.856360 19864 layer_factory.hpp:77] Creating layer loss
…
I0825 01:13:50.857184 19864 solver.cpp:181] Creating test net (#0) specified by net file: nets/coco_all_classes_alex_net/trainval.prototxt
I0825 01:13:50.857225 19864 net.cpp:322] The NetState phase (1) differed from the phase (0) specified by a rule in layer coco
I0825 01:13:50.857403 19864 net.cpp:58] Initializing net from parameters: 
name: "AlexNet"
state {
  phase: TEST
}
layer {
  name: "coco"
  type: "Data"
  top: "data"
  top: "label"
  include {
    phase: TEST
  }
  transform_param {
    scale: 0.00390625
    mean_file: "data/lmdb/coco_color_mean.binaryproto"
  }
  data_param {
    source: "data/lmdb/coco_val_lmdb"
    batch_size: 256
    backend: LMDB
  }
}
layer {
  name: "conv1"
  type: "Convolution"
  bottom: "data"
  top: "conv1"
  param {
    lr_mult: 1
    decay_mult: 1
  }
  param {
    lr_mult: 2
    decay_mult: 0
  }
  convolution_param {
    num_output: 96
    kernel_size: 11
    stride: 4
    weight_filler {
      type: "gaussian"
      std: 0.01
    }
    bias_filler {
      type: "constant"
      value: 0
    }
  }
}
layer {
  name: "relu1"
  type: "ReLU"
  bottom: "conv1"
  top: "conv1"
}
layer {
  name: "norm1"
  type: "LRN"
  bottom: "conv1"
  top: "norm1"
  lrn_param {
    local_size: 5
    alpha: 0.0001
    beta: 0.75
  }
}
layer {
  name: "pool1"
  type: "Pooling"
  bottom: "norm1"
  top: "pool1"
  pooling_param {
    pool: MAX
    kernel_size: 3
    stride: 2
  }
}
layer {
  name: "conv2"
  type: "Convolution"
  bottom: "pool1"
  top: "conv2"
  param {
    lr_mult: 1
    decay_mult: 1
  }
  param {
    lr_mult: 2
    decay_mult: 0
  }
  convolution_param {
    num_output: 256
    pad: 2
    kernel_size: 5
    group: 2
    weight_filler {
      type: "gaussian"
      std: 0.01
    }
    bias_filler {
      type: "constant"
      value: 0.1
    }
  }
}
layer {
  name: "relu2"
  type: "ReLU"
  bottom: "conv2"
  top: "conv2"
}
layer {
  name: "norm2"
  type: "LRN"
  bottom: "conv2"
  top: "norm2"
  lrn_param {
    local_size: 5
    alpha: 0.0001
    beta: 0.75
  }
}
layer {
  name: "pool2"
  type: "Pooling"
  bottom: "norm2"
  top: "pool2"
  pooling_param {
    pool: MAX
    kernel_size: 3
    stride: 2
  }
}
layer {
  name: "conv3"
  type: "Convolution"
  bottom: "pool2"
  top: "conv3"
  param {
    lr_mult: 1
    decay_mult: 1
  }
  param {
    lr_mult: 2
    decay_mult: 0
  }
  convolution_param {
    num_output: 384
    pad: 1
    kernel_size: 3
    weight_filler {
      type: "gaussian"
      std: 0.01
    }
    bias_filler {
      type: "constant"
      value: 0
    }
  }
}
layer {
  name: "relu3"
  type: "ReLU"
  bottom: "conv3"
  top: "conv3"
}
layer {
  name: "conv4"
  type: "Convolution"
  bottom: "conv3"
  top: "conv4"
  param {
    lr_mult: 1
    decay_mult: 1
  }
  param {
    lr_mult: 2
    decay_mult: 0
  }
  convolution_param {
    num_output: 384
    pad: 1
    kernel_size: 3
    group: 2
    weight_filler {
      type: "gaussian"
      std: 0.01
    }
    bias_filler {
      type: "constant"
      value: 0.1
    }
  }
}
layer {
  name: "relu4"
  type: "ReLU"
  bottom: "conv4"
  top: "conv4"
}
layer {
  name: "conv5"
  type: "Convolution"
  bottom: "conv4"
  top: "conv5"
  param {
    lr_mult: 1
    decay_mult: 1
  }
  param {
    lr_mult: 2
    decay_mult: 0
  }
  convolution_param {
    num_output: 256
    pad: 1
    kernel_size: 3
    group: 2
    weight_filler {
      type: "gaussian"
      std: 0.01
    }
    bias_filler {
      type: "constant"
      value: 0.1
    }
  }
}
layer {
  name: "relu5"
  type: "ReLU"
  bottom: "conv5"
  top: "conv5"
}
layer {
  name: "pool5"
  type: "Pooling"
  bottom: "conv5"
  top: "pool5"
  pooling_param {
    pool: MAX
    kernel_size: 3
    stride: 2
  }
}
layer {
  name: "fc6"
  type: "InnerProduct"
  bottom: "pool5"
  top: "fc6"
  param {
    lr_mult: 1
    decay_mult: 1
  }
  param {
    lr_mult: 2
    decay_mult: 0
  }
  inner_product_param {
    num_output: 4096
    weight_filler {
      type: "gaussian"
      std: 0.005
    }
    bias_filler {
      type: "constant"
      value: 0.1
    }
  }
}
layer {
  name: "relu6"
  type: "ReLU"
  bottom: "fc6"
  top: "fc6"
}
layer {
  name: "drop6"
  type: "Dropout"
  bottom: "fc6"
  top: "fc6"
  dropout_param {
    dropout_ratio: 0.5
  }
}
layer {
  name: "fc7"
  type: "InnerProduct"
  bottom: "fc6"
  top: "fc7"
  param {
    lr_mult: 1
    decay_mult: 1
  }
  param {
    lr_mult: 2
    decay_mult: 0
  }
  inner_product_param {
    num_output: 4096
    weight_filler {
      type: "gaussian"
      std: 0.005
    }
    bias_filler {
      type: "constant"
      value: 0.1
    }
  }
}
layer {
  name: "relu7"
  type: "ReLU"
  bottom: "fc7"
  top: "fc7"
}
layer {
  name: "drop7"
  type: "Dropout"
  bottom: "fc7"
  top: "fc7"
  dropout_param {
    dropout_ratio: 0.5
  }
}
layer {
  name: "fc8"
  type: "InnerProduct"
  bottom: "fc7"
  top: "fc8"
  param {
    lr_mult: 1
    decay_mult: 1
  }
  param {
    lr_mult: 2
    decay_mult: 0
  }
  inner_product_param {
    num_output: 80
    weight_filler {
      type: "gaussian"
      std: 0.01
    }
    bias_filler {
      type: "constant"
      value: 0
    }
  }
}
layer {
  name: "accuracy"
  type: "Accuracy"
  bottom: "fc8"
  bottom: "label"
  top: "accuracy"
  include {
    phase: TEST
  }
}
layer {
  name: "loss"
  type: "SoftmaxWithLoss"
  bottom: "fc8"
  bottom: "label"
  top: "loss"
}
I0825 01:13:50.857514 19864 layer_factory.hpp:77] Creating layer coco
I0825 01:13:50.858203 19864 net.cpp:100] Creating Layer coco
I0825 01:13:50.858216 19864 net.cpp:408] coco -> data
I0825 01:13:50.858224 19864 net.cpp:408] coco -> label
I0825 01:13:50.858232 19864 data_transformer.cpp:25] Loading mean file from: data/lmdb/coco_color_mean.binaryproto
I0825 01:13:50.859771 19878 db_lmdb.cpp:35] Opened lmdb data/lmdb/coco_val_lmdb
I0825 01:13:50.860081 19864 data_layer.cpp:41] output data size: 256,3,128,128
I0825 01:13:51.000113 19864 net.cpp:150] Setting up coco
I0825 01:13:51.000149 19864 net.cpp:157] Top shape: 256 3 128 128 (12582912)
I0825 01:13:51.000154 19864 net.cpp:157] Top shape: 256 (256)
I0825 01:13:51.000156 19864 net.cpp:165] Memory required for data: 50332672
I0825 01:13:51.000164 19864 layer_factory.hpp:77] Creating layer label_coco_1_split
I0825 01:13:51.000180 19864 net.cpp:100] Creating Layer label_coco_1_split
I0825 01:13:51.000183 19864 net.cpp:434] label_coco_1_split <- label
I0825 01:13:51.000192 19864 net.cpp:408] label_coco_1_split -> label_coco_1_split_0
I0825 01:13:51.000203 19864 net.cpp:408] label_coco_1_split -> label_coco_1_split_1
I0825 01:13:51.000452 19864 net.cpp:150] Setting up label_coco_1_split
I0825 01:13:51.000481 19864 net.cpp:157] Top shape: 256 (256)
I0825 01:13:51.000490 19864 net.cpp:157] Top shape: 256 (256)
I0825 01:13:51.000495 19864 net.cpp:165] Memory required for data: 50334720
I0825 01:13:51.000501 19864 layer_factory.hpp:77] Creating layer conv1
I0825 01:13:51.000526 19864 net.cpp:100] Creating Layer conv1
I0825 01:13:51.000536 19864 net.cpp:434] conv1 <- data
I0825 01:13:51.000550 19864 net.cpp:408] conv1 -> conv1
I0825 01:13:51.013512 19864 net.cpp:150] Setting up conv1
I0825 01:13:51.013546 19864 net.cpp:157] Top shape: 256 96 30 30 (22118400)
I0825 01:13:51.013555 19864 net.cpp:165] Memory required for data: 138808320
I0825 01:13:51.013574 19864 layer_factory.hpp:77] Creating layer relu1
I0825 01:13:51.013588 19864 net.cpp:100] Creating Layer relu1
I0825 01:13:51.013594 19864 net.cpp:434] relu1 <- conv1
I0825 01:13:51.013604 19864 net.cpp:395] relu1 -> conv1 (in-place)
I0825 01:13:51.013965 19864 net.cpp:150] Setting up relu1
I0825 01:13:51.013984 19864 net.cpp:157] Top shape: 256 96 30 30 (22118400)
I0825 01:13:51.013990 19864 net.cpp:165] Memory required for data: 227281920
I0825 01:13:51.013998 19864 layer_factory.hpp:77] Creating layer norm1
I0825 01:13:51.014014 19864 net.cpp:100] Creating Layer norm1
I0825 01:13:51.014020 19864 net.cpp:434] norm1 <- conv1
I0825 01:13:51.014032 19864 net.cpp:408] norm1 -> norm1
I0825 01:13:51.015000 19864 net.cpp:150] Setting up norm1
I0825 01:13:51.015029 19864 net.cpp:157] Top shape: 256 96 30 30 (22118400)
I0825 01:13:51.015035 19864 net.cpp:165] Memory required for data: 315755520
I0825 01:13:51.015041 19864 layer_factory.hpp:77] Creating layer pool1
I0825 01:13:51.015058 19864 net.cpp:100] Creating Layer pool1
I0825 01:13:51.015065 19864 net.cpp:434] pool1 <- norm1
I0825 01:13:51.015077 19864 net.cpp:408] pool1 -> pool1
I0825 01:13:51.015157 19864 net.cpp:150] Setting up pool1
I0825 01:13:51.015171 19864 net.cpp:157] Top shape: 256 96 15 15 (5529600)
I0825 01:13:51.015177 19864 net.cpp:165] Memory required for data: 337873920
I0825 01:13:51.015182 19864 layer_factory.hpp:77] Creating layer conv2
I0825 01:13:51.015200 19864 net.cpp:100] Creating Layer conv2
I0825 01:13:51.015208 19864 net.cpp:434] conv2 <- pool1
I0825 01:13:51.015220 19864 net.cpp:408] conv2 -> conv2
I0825 01:13:51.027387 19864 net.cpp:150] Setting up conv2
I0825 01:13:51.027417 19864 net.cpp:157] Top shape: 256 256 15 15 (14745600)
I0825 01:13:51.027423 19864 net.cpp:165] Memory required for data: 396856320
I0825 01:13:51.027443 19864 layer_factory.hpp:77] Creating layer relu2
I0825 01:13:51.027456 19864 net.cpp:100] Creating Layer relu2
I0825 01:13:51.027462 19864 net.cpp:434] relu2 <- conv2
I0825 01:13:51.027474 19864 net.cpp:395] relu2 -> conv2 (in-place)
I0825 01:13:51.028326 19864 net.cpp:150] Setting up relu2
I0825 01:13:51.028352 19864 net.cpp:157] Top shape: 256 256 15 15 (14745600)
I0825 01:13:51.028357 19864 net.cpp:165] Memory required for data: 455838720
I0825 01:13:51.028363 19864 layer_factory.hpp:77] Creating layer norm2
I0825 01:13:51.028381 19864 net.cpp:100] Creating Layer norm2
I0825 01:13:51.028388 19864 net.cpp:434] norm2 <- conv2
I0825 01:13:51.028398 19864 net.cpp:408] norm2 -> norm2
I0825 01:13:51.028825 19864 net.cpp:150] Setting up norm2
I0825 01:13:51.028844 19864 net.cpp:157] Top shape: 256 256 15 15 (14745600)
I0825 01:13:51.028849 19864 net.cpp:165] Memory required for data: 514821120
I0825 01:13:51.028854 19864 layer_factory.hpp:77] Creating layer pool2
I0825 01:13:51.028868 19864 net.cpp:100] Creating Layer pool2
I0825 01:13:51.028873 19864 net.cpp:434] pool2 <- norm2
I0825 01:13:51.028882 19864 net.cpp:408] pool2 -> pool2
I0825 01:13:51.028956 19864 net.cpp:150] Setting up pool2
I0825 01:13:51.028970 19864 net.cpp:157] Top shape: 256 256 7 7 (3211264)
I0825 01:13:51.028975 19864 net.cpp:165] Memory required for data: 527666176
I0825 01:13:51.028980 19864 layer_factory.hpp:77] Creating layer conv3
I0825 01:13:51.028998 19864 net.cpp:100] Creating Layer conv3
I0825 01:13:51.029006 19864 net.cpp:434] conv3 <- pool2
I0825 01:13:51.029018 19864 net.cpp:408] conv3 -> conv3
I0825 01:13:51.052495 19864 net.cpp:150] Setting up conv3
I0825 01:13:51.052536 19864 net.cpp:157] Top shape: 256 384 7 7 (4816896)
I0825 01:13:51.052542 19864 net.cpp:165] Memory required for data: 546933760
I0825 01:13:51.052567 19864 layer_factory.hpp:77] Creating layer relu3
I0825 01:13:51.052585 19864 net.cpp:100] Creating Layer relu3
I0825 01:13:51.052592 19864 net.cpp:434] relu3 <- conv3
I0825 01:13:51.052606 19864 net.cpp:395] relu3 -> conv3 (in-place)
I0825 01:13:51.052960 19864 net.cpp:150] Setting up relu3
I0825 01:13:51.052978 19864 net.cpp:157] Top shape: 256 384 7 7 (4816896)
I0825 01:13:51.052983 19864 net.cpp:165] Memory required for data: 566201344
I0825 01:13:51.052989 19864 layer_factory.hpp:77] Creating layer conv4
I0825 01:13:51.053009 19864 net.cpp:100] Creating Layer conv4
I0825 01:13:51.053015 19864 net.cpp:434] conv4 <- conv3
I0825 01:13:51.053030 19864 net.cpp:408] conv4 -> conv4
I0825 01:13:51.075323 19864 net.cpp:150] Setting up conv4
I0825 01:13:51.075354 19864 net.cpp:157] Top shape: 256 384 7 7 (4816896)
I0825 01:13:51.075359 19864 net.cpp:165] Memory required for data: 585468928
I0825 01:13:51.075372 19864 layer_factory.hpp:77] Creating layer relu4
I0825 01:13:51.075386 19864 net.cpp:100] Creating Layer relu4
I0825 01:13:51.075392 19864 net.cpp:434] relu4 <- conv4
I0825 01:13:51.075403 19864 net.cpp:395] relu4 -> conv4 (in-place)
I0825 01:13:51.087012 19864 net.cpp:150] Setting up relu4
I0825 01:13:51.087040 19864 net.cpp:157] Top shape: 256 384 7 7 (4816896)
I0825 01:13:51.087045 19864 net.cpp:165] Memory required for data: 604736512
I0825 01:13:51.087051 19864 layer_factory.hpp:77] Creating layer conv5
I0825 01:13:51.087074 19864 net.cpp:100] Creating Layer conv5
I0825 01:13:51.087081 19864 net.cpp:434] conv5 <- conv4
I0825 01:13:51.087092 19864 net.cpp:408] conv5 -> conv5
I0825 01:13:51.100595 19864 net.cpp:150] Setting up conv5
I0825 01:13:51.100627 19864 net.cpp:157] Top shape: 256 256 7 7 (3211264)
I0825 01:13:51.100632 19864 net.cpp:165] Memory required for data: 617581568
I0825 01:13:51.100652 19864 layer_factory.hpp:77] Creating layer relu5
I0825 01:13:51.100668 19864 net.cpp:100] Creating Layer relu5
I0825 01:13:51.100674 19864 net.cpp:434] relu5 <- conv5
I0825 01:13:51.100682 19864 net.cpp:395] relu5 -> conv5 (in-place)
I0825 01:13:51.100994 19864 net.cpp:150] Setting up relu5
I0825 01:13:51.101011 19864 net.cpp:157] Top shape: 256 256 7 7 (3211264)
I0825 01:13:51.101014 19864 net.cpp:165] Memory required for data: 630426624
I0825 01:13:51.101019 19864 layer_factory.hpp:77] Creating layer pool5
I0825 01:13:51.101038 19864 net.cpp:100] Creating Layer pool5
I0825 01:13:51.101043 19864 net.cpp:434] pool5 <- conv5
I0825 01:13:51.101052 19864 net.cpp:408] pool5 -> pool5
I0825 01:13:51.101132 19864 net.cpp:150] Setting up pool5
I0825 01:13:51.101145 19864 net.cpp:157] Top shape: 256 256 3 3 (589824)
I0825 01:13:51.101148 19864 net.cpp:165] Memory required for data: 632785920
I0825 01:13:51.101153 19864 layer_factory.hpp:77] Creating layer fc6
I0825 01:13:51.101169 19864 net.cpp:100] Creating Layer fc6
I0825 01:13:51.101174 19864 net.cpp:434] fc6 <- pool5
I0825 01:13:51.101188 19864 net.cpp:408] fc6 -> fc6
I0825 01:13:51.282167 19864 net.cpp:150] Setting up fc6
I0825 01:13:51.282229 19864 net.cpp:157] Top shape: 256 4096 (1048576)
I0825 01:13:51.282234 19864 net.cpp:165] Memory required for data: 636980224
I0825 01:13:51.282253 19864 layer_factory.hpp:77] Creating layer relu6
I0825 01:13:51.282272 19864 net.cpp:100] Creating Layer relu6
I0825 01:13:51.282279 19864 net.cpp:434] relu6 <- fc6
I0825 01:13:51.282289 19864 net.cpp:395] relu6 -> fc6 (in-place)
I0825 01:13:51.282670 19864 net.cpp:150] Setting up relu6
I0825 01:13:51.282686 19864 net.cpp:157] Top shape: 256 4096 (1048576)
I0825 01:13:51.282691 19864 net.cpp:165] Memory required for data: 641174528
I0825 01:13:51.282693 19864 layer_factory.hpp:77] Creating layer drop6
I0825 01:13:51.282713 19864 net.cpp:100] Creating Layer drop6
I0825 01:13:51.282719 19864 net.cpp:434] drop6 <- fc6
I0825 01:13:51.282728 19864 net.cpp:395] drop6 -> fc6 (in-place)
I0825 01:13:51.282765 19864 net.cpp:150] Setting up drop6
I0825 01:13:51.282793 19864 net.cpp:157] Top shape: 256 4096 (1048576)
I0825 01:13:51.282798 19864 net.cpp:165] Memory required for data: 645368832
I0825 01:13:51.282800 19864 layer_factory.hpp:77] Creating layer fc7
I0825 01:13:51.282815 19864 net.cpp:100] Creating Layer fc7
I0825 01:13:51.282819 19864 net.cpp:434] fc7 <- fc6
I0825 01:13:51.282826 19864 net.cpp:408] fc7 -> fc7
I0825 01:13:51.518501 19864 net.cpp:150] Setting up fc7
I0825 01:13:51.518550 19864 net.cpp:157] Top shape: 256 4096 (1048576)
I0825 01:13:51.518554 19864 net.cpp:165] Memory required for data: 649563136
I0825 01:13:51.518568 19864 layer_factory.hpp:77] Creating layer relu7
I0825 01:13:51.518584 19864 net.cpp:100] Creating Layer relu7
I0825 01:13:51.518589 19864 net.cpp:434] relu7 <- fc7
I0825 01:13:51.518596 19864 net.cpp:395] relu7 -> fc7 (in-place)
I0825 01:13:51.519400 19864 net.cpp:150] Setting up relu7
I0825 01:13:51.519425 19864 net.cpp:157] Top shape: 256 4096 (1048576)
I0825 01:13:51.519429 19864 net.cpp:165] Memory required for data: 653757440
I0825 01:13:51.519433 19864 layer_factory.hpp:77] Creating layer drop7
I0825 01:13:51.519443 19864 net.cpp:100] Creating Layer drop7
I0825 01:13:51.519445 19864 net.cpp:434] drop7 <- fc7
I0825 01:13:51.519454 19864 net.cpp:395] drop7 -> fc7 (in-place)
I0825 01:13:51.519484 19864 net.cpp:150] Setting up drop7
I0825 01:13:51.519492 19864 net.cpp:157] Top shape: 256 4096 (1048576)
I0825 01:13:51.519495 19864 net.cpp:165] Memory required for data: 657951744
I0825 01:13:51.519498 19864 layer_factory.hpp:77] Creating layer fc8
I0825 01:13:51.519510 19864 net.cpp:100] Creating Layer fc8
I0825 01:13:51.519515 19864 net.cpp:434] fc8 <- fc7
I0825 01:13:51.519520 19864 net.cpp:408] fc8 -> fc8
I0825 01:13:51.524713 19864 net.cpp:150] Setting up fc8
I0825 01:13:51.524729 19864 net.cpp:157] Top shape: 256 80 (20480)
I0825 01:13:51.524731 19864 net.cpp:165] Memory required for data: 658033664
I0825 01:13:51.524739 19864 layer_factory.hpp:77] Creating layer fc8_fc8_0_split
I0825 01:13:51.524749 19864 net.cpp:100] Creating Layer fc8_fc8_0_split
I0825 01:13:51.524752 19864 net.cpp:434] fc8_fc8_0_split <- fc8
I0825 01:13:51.524758 19864 net.cpp:408] fc8_fc8_0_split -> fc8_fc8_0_split_0
I0825 01:13:51.524767 19864 net.cpp:408] fc8_fc8_0_split -> fc8_fc8_0_split_1
I0825 01:13:51.524807 19864 net.cpp:150] Setting up fc8_fc8_0_split
I0825 01:13:51.524816 19864 net.cpp:157] Top shape: 256 80 (20480)
I0825 01:13:51.524819 19864 net.cpp:157] Top shape: 256 80 (20480)
I0825 01:13:51.524821 19864 net.cpp:165] Memory required for data: 658197504
I0825 01:13:51.524824 19864 layer_factory.hpp:77] Creating layer accuracy
I0825 01:13:51.524833 19864 net.cpp:100] Creating Layer accuracy
I0825 01:13:51.524837 19864 net.cpp:434] accuracy <- fc8_fc8_0_split_0
I0825 01:13:51.524842 19864 net.cpp:434] accuracy <- label_coco_1_split_0
I0825 01:13:51.524847 19864 net.cpp:408] accuracy -> accuracy
…
