…
I0826 09:29:13.519275  1343 net.cpp:322] The NetState phase (0) differed from the phase (1) specified by a rule in layer coco
I0826 09:29:13.519294  1343 net.cpp:322] The NetState phase (0) differed from the phase (1) specified by a rule in layer accuracy
I0826 09:29:13.519435  1343 net.cpp:58] Initializing net from parameters: 
name: "AlexNet"
state {
  phase: TRAIN
}
layer {
  name: "coco"
  type: "Data"
  top: "data"
  top: "label"
  include {
    phase: TRAIN
  }
  transform_param {
    scale: 0.00390625
    mean_file: "data/lmdb/coco_color_mean.binaryproto"
  }
  data_param {
    source: "data/lmdb/coco_train_lmdb"
    batch_size: 256
    backend: LMDB
  }
}
layer {
  name: "conv1"
  type: "Convolution"
  bottom: "data"
  top: "conv1"
  param {
    lr_mult: 1
    decay_mult: 1
  }
  param {
    lr_mult: 2
    decay_mult: 0
  }
  convolution_param {
    num_output: 96
    kernel_size: 11
    stride: 4
    weight_filler {
      type: "gaussian"
      std: 0.01
    }
    bias_filler {
      type: "constant"
      value: 0
    }
  }
}
layer {
  name: "relu1"
  type: "ReLU"
  bottom: "conv1"
  top: "conv1"
}
layer {
  name: "norm1"
  type: "LRN"
  bottom: "conv1"
  top: "norm1"
  lrn_param {
    local_size: 5
    alpha: 0.0001
    beta: 0.75
  }
}
layer {
  name: "pool1"
  type: "Pooling"
  bottom: "norm1"
  top: "pool1"
  pooling_param {
    pool: MAX
    kernel_size: 3
    stride: 2
  }
}
layer {
  name: "conv2"
  type: "Convolution"
  bottom: "pool1"
  top: "conv2"
  param {
    lr_mult: 1
    decay_mult: 1
  }
  param {
    lr_mult: 2
    decay_mult: 0
  }
  convolution_param {
    num_output: 256
    pad: 2
    kernel_size: 5
    group: 2
    weight_filler {
      type: "gaussian"
      std: 0.01
    }
    bias_filler {
      type: "constant"
      value: 0.1
    }
  }
}
layer {
  name: "relu2"
  type: "ReLU"
  bottom: "conv2"
  top: "conv2"
}
layer {
  name: "norm2"
  type: "LRN"
  bottom: "conv2"
  top: "norm2"
  lrn_param {
    local_size: 5
    alpha: 0.0001
    beta: 0.75
  }
}
layer {
  name: "pool2"
  type: "Pooling"
  bottom: "norm2"
  top: "pool2"
  pooling_param {
    pool: MAX
    kernel_size: 3
    stride: 2
  }
}
layer {
  name: "conv3"
  type: "Convolution"
  bottom: "pool2"
  top: "conv3"
  param {
    lr_mult: 1
    decay_mult: 1
  }
  param {
    lr_mult: 2
    decay_mult: 0
  }
  convolution_param {
    num_output: 384
    pad: 1
    kernel_size: 3
    weight_filler {
      type: "gaussian"
      std: 0.01
    }
    bias_filler {
      type: "constant"
      value: 0
    }
  }
}
layer {
  name: "relu3"
  type: "ReLU"
  bottom: "conv3"
  top: "conv3"
}
layer {
  name: "conv4"
  type: "Convolution"
  bottom: "conv3"
  top: "conv4"
  param {
    lr_mult: 1
    decay_mult: 1
  }
  param {
    lr_mult: 2
    decay_mult: 0
  }
  convolution_param {
    num_output: 384
    pad: 1
    kernel_size: 3
    group: 2
    weight_filler {
      type: "gaussian"
      std: 0.01
    }
    bias_filler {
      type: "constant"
      value: 0.1
    }
  }
}
layer {
  name: "relu4"
  type: "ReLU"
  bottom: "conv4"
  top: "conv4"
}
layer {
  name: "conv5"
  type: "Convolution"
  bottom: "conv4"
  top: "conv5"
  param {
    lr_mult: 1
    decay_mult: 1
  }
  param {
    lr_mult: 2
    decay_mult: 0
  }
  convolution_param {
    num_output: 256
    pad: 1
    kernel_size: 3
    group: 2
    weight_filler {
      type: "gaussian"
      std: 0.01
    }
    bias_filler {
      type: "constant"
      value: 0.1
    }
  }
}
layer {
  name: "relu5"
  type: "ReLU"
  bottom: "conv5"
  top: "conv5"
}
layer {
  name: "pool5"
  type: "Pooling"
  bottom: "conv5"
  top: "pool5"
  pooling_param {
    pool: MAX
    kernel_size: 3
    stride: 2
  }
}
layer {
  name: "fc6"
  type: "InnerProduct"
  bottom: "pool5"
  top: "fc6"
  param {
    lr_mult: 1
    decay_mult: 1
  }
  param {
    lr_mult: 2
    decay_mult: 0
  }
  inner_product_param {
    num_output: 4096
    weight_filler {
      type: "gaussian"
      std: 0.005
    }
    bias_filler {
      type: "constant"
      value: 0.1
    }
  }
}
layer {
  name: "relu6"
  type: "ReLU"
  bottom: "fc6"
  top: "fc6"
}
layer {
  name: "drop6"
  type: "Dropout"
  bottom: "fc6"
  top: "fc6"
  dropout_param {
    dropout_ratio: 0.5
  }
}
layer {
  name: "fc7"
  type: "InnerProduct"
  bottom: "fc6"
  top: "fc7"
  param {
    lr_mult: 1
    decay_mult: 1
  }
  param {
    lr_mult: 2
    decay_mult: 0
  }
  inner_product_param {
    num_output: 4096
    weight_filler {
      type: "gaussian"
      std: 0.005
    }
    bias_filler {
      type: "constant"
      value: 0.1
    }
  }
}
layer {
  name: "relu7"
  type: "ReLU"
  bottom: "fc7"
  top: "fc7"
}
layer {
  name: "drop7"
  type: "Dropout"
  bottom: "fc7"
  top: "fc7"
  dropout_param {
    dropout_ratio: 0.5
  }
}
layer {
  name: "fc8"
  type: "InnerProduct"
  bottom: "fc7"
  top: "fc8"
  param {
    lr_mult: 1
    decay_mult: 1
  }
  param {
    lr_mult: 2
    decay_mult: 0
  }
  inner_product_param {
    num_output: 80
    weight_filler {
      type: "gaussian"
      std: 0.01
    }
    bias_filler {
      type: "constant"
      value: 0
    }
  }
}
layer {
  name: "loss"
  type: "SoftmaxWithLoss"
  bottom: "fc8"
  bottom: "label"
  top: "loss"
}
I0826 09:29:13.519511  1343 layer_factory.hpp:77] Creating layer coco
I0826 09:29:13.520120  1343 net.cpp:100] Creating Layer coco
I0826 09:29:13.520133  1343 net.cpp:408] coco -> data
I0826 09:29:13.520145  1343 net.cpp:408] coco -> label
I0826 09:29:13.520162  1343 data_transformer.cpp:25] Loading mean file from: data/lmdb/coco_color_mean.binaryproto
I0826 09:29:13.521700  1352 db_lmdb.cpp:35] Opened lmdb data/lmdb/coco_train_lmdb
I0826 09:29:13.567462  1343 data_layer.cpp:41] output data size: 256,3,128,128
I0826 09:29:13.688900  1343 net.cpp:150] Setting up coco
I0826 09:29:13.688942  1343 net.cpp:157] Top shape: 256 3 128 128 (12582912)
I0826 09:29:13.688949  1343 net.cpp:157] Top shape: 256 (256)
I0826 09:29:13.688952  1343 net.cpp:165] Memory required for data: 50332672
I0826 09:29:13.688959  1343 layer_factory.hpp:77] Creating layer conv1
I0826 09:29:13.688987  1343 net.cpp:100] Creating Layer conv1
I0826 09:29:13.688992  1343 net.cpp:434] conv1 <- data
I0826 09:29:13.689000  1343 net.cpp:408] conv1 -> conv1
I0826 09:29:14.000919  1343 net.cpp:150] Setting up conv1
I0826 09:29:14.000958  1343 net.cpp:157] Top shape: 256 96 30 30 (22118400)
I0826 09:29:14.000962  1343 net.cpp:165] Memory required for data: 138806272
I0826 09:29:14.000980  1343 layer_factory.hpp:77] Creating layer relu1
I0826 09:29:14.000994  1343 net.cpp:100] Creating Layer relu1
I0826 09:29:14.000999  1343 net.cpp:434] relu1 <- conv1
I0826 09:29:14.001005  1343 net.cpp:395] relu1 -> conv1 (in-place)
I0826 09:29:14.001195  1343 net.cpp:150] Setting up relu1
I0826 09:29:14.001207  1343 net.cpp:157] Top shape: 256 96 30 30 (22118400)
I0826 09:29:14.001209  1343 net.cpp:165] Memory required for data: 227279872
I0826 09:29:14.001214  1343 layer_factory.hpp:77] Creating layer norm1
I0826 09:29:14.001221  1343 net.cpp:100] Creating Layer norm1
I0826 09:29:14.001224  1343 net.cpp:434] norm1 <- conv1
I0826 09:29:14.001230  1343 net.cpp:408] norm1 -> norm1
I0826 09:29:14.001739  1343 net.cpp:150] Setting up norm1
I0826 09:29:14.001755  1343 net.cpp:157] Top shape: 256 96 30 30 (22118400)
I0826 09:29:14.001759  1343 net.cpp:165] Memory required for data: 315753472
I0826 09:29:14.001761  1343 layer_factory.hpp:77] Creating layer pool1
I0826 09:29:14.001773  1343 net.cpp:100] Creating Layer pool1
I0826 09:29:14.001777  1343 net.cpp:434] pool1 <- norm1
I0826 09:29:14.001783  1343 net.cpp:408] pool1 -> pool1
I0826 09:29:14.001827  1343 net.cpp:150] Setting up pool1
I0826 09:29:14.001834  1343 net.cpp:157] Top shape: 256 96 15 15 (5529600)
I0826 09:29:14.001837  1343 net.cpp:165] Memory required for data: 337871872
I0826 09:29:14.001840  1343 layer_factory.hpp:77] Creating layer conv2
I0826 09:29:14.001853  1343 net.cpp:100] Creating Layer conv2
I0826 09:29:14.001859  1343 net.cpp:434] conv2 <- pool1
I0826 09:29:14.001866  1343 net.cpp:408] conv2 -> conv2
I0826 09:29:14.008222  1343 net.cpp:150] Setting up conv2
I0826 09:29:14.008244  1343 net.cpp:157] Top shape: 256 256 15 15 (14745600)
I0826 09:29:14.008249  1343 net.cpp:165] Memory required for data: 396854272
I0826 09:29:14.008260  1343 layer_factory.hpp:77] Creating layer relu2
I0826 09:29:14.008266  1343 net.cpp:100] Creating Layer relu2
I0826 09:29:14.008270  1343 net.cpp:434] relu2 <- conv2
I0826 09:29:14.008275  1343 net.cpp:395] relu2 -> conv2 (in-place)
I0826 09:29:14.008764  1343 net.cpp:150] Setting up relu2
I0826 09:29:14.008780  1343 net.cpp:157] Top shape: 256 256 15 15 (14745600)
I0826 09:29:14.008783  1343 net.cpp:165] Memory required for data: 455836672
I0826 09:29:14.008786  1343 layer_factory.hpp:77] Creating layer norm2
I0826 09:29:14.008795  1343 net.cpp:100] Creating Layer norm2
I0826 09:29:14.008800  1343 net.cpp:434] norm2 <- conv2
I0826 09:29:14.008805  1343 net.cpp:408] norm2 -> norm2
I0826 09:29:14.009029  1343 net.cpp:150] Setting up norm2
I0826 09:29:14.009042  1343 net.cpp:157] Top shape: 256 256 15 15 (14745600)
I0826 09:29:14.009045  1343 net.cpp:165] Memory required for data: 514819072
I0826 09:29:14.009048  1343 layer_factory.hpp:77] Creating layer pool2
I0826 09:29:14.009057  1343 net.cpp:100] Creating Layer pool2
I0826 09:29:14.009059  1343 net.cpp:434] pool2 <- norm2
I0826 09:29:14.009068  1343 net.cpp:408] pool2 -> pool2
I0826 09:29:14.009106  1343 net.cpp:150] Setting up pool2
I0826 09:29:14.009114  1343 net.cpp:157] Top shape: 256 256 7 7 (3211264)
I0826 09:29:14.009117  1343 net.cpp:165] Memory required for data: 527664128
I0826 09:29:14.009120  1343 layer_factory.hpp:77] Creating layer conv3
I0826 09:29:14.009132  1343 net.cpp:100] Creating Layer conv3
I0826 09:29:14.009137  1343 net.cpp:434] conv3 <- pool2
I0826 09:29:14.009142  1343 net.cpp:408] conv3 -> conv3
I0826 09:29:14.022521  1343 net.cpp:150] Setting up conv3
I0826 09:29:14.022537  1343 net.cpp:157] Top shape: 256 384 7 7 (4816896)
I0826 09:29:14.022541  1343 net.cpp:165] Memory required for data: 546931712
I0826 09:29:14.022550  1343 layer_factory.hpp:77] Creating layer relu3
I0826 09:29:14.022559  1343 net.cpp:100] Creating Layer relu3
I0826 09:29:14.022563  1343 net.cpp:434] relu3 <- conv3
I0826 09:29:14.022568  1343 net.cpp:395] relu3 -> conv3 (in-place)
I0826 09:29:14.022778  1343 net.cpp:150] Setting up relu3
I0826 09:29:14.022790  1343 net.cpp:157] Top shape: 256 384 7 7 (4816896)
I0826 09:29:14.022794  1343 net.cpp:165] Memory required for data: 566199296
I0826 09:29:14.022796  1343 layer_factory.hpp:77] Creating layer conv4
I0826 09:29:14.022807  1343 net.cpp:100] Creating Layer conv4
I0826 09:29:14.022812  1343 net.cpp:434] conv4 <- conv3
I0826 09:29:14.022820  1343 net.cpp:408] conv4 -> conv4
I0826 09:29:14.034085  1343 net.cpp:150] Setting up conv4
I0826 09:29:14.034103  1343 net.cpp:157] Top shape: 256 384 7 7 (4816896)
I0826 09:29:14.034107  1343 net.cpp:165] Memory required for data: 585466880
I0826 09:29:14.034114  1343 layer_factory.hpp:77] Creating layer relu4
I0826 09:29:14.034121  1343 net.cpp:100] Creating Layer relu4
I0826 09:29:14.034124  1343 net.cpp:434] relu4 <- conv4
I0826 09:29:14.034131  1343 net.cpp:395] relu4 -> conv4 (in-place)
I0826 09:29:14.034329  1343 net.cpp:150] Setting up relu4
I0826 09:29:14.034340  1343 net.cpp:157] Top shape: 256 384 7 7 (4816896)
I0826 09:29:14.034343  1343 net.cpp:165] Memory required for data: 604734464
I0826 09:29:14.034348  1343 layer_factory.hpp:77] Creating layer conv5
I0826 09:29:14.034359  1343 net.cpp:100] Creating Layer conv5
I0826 09:29:14.034365  1343 net.cpp:434] conv5 <- conv4
I0826 09:29:14.034373  1343 net.cpp:408] conv5 -> conv5
I0826 09:29:14.042882  1343 net.cpp:150] Setting up conv5
I0826 09:29:14.042899  1343 net.cpp:157] Top shape: 256 256 7 7 (3211264)
I0826 09:29:14.042902  1343 net.cpp:165] Memory required for data: 617579520
I0826 09:29:14.042914  1343 layer_factory.hpp:77] Creating layer relu5
I0826 09:29:14.042922  1343 net.cpp:100] Creating Layer relu5
I0826 09:29:14.042925  1343 net.cpp:434] relu5 <- conv5
I0826 09:29:14.042930  1343 net.cpp:395] relu5 -> conv5 (in-place)
I0826 09:29:14.043133  1343 net.cpp:150] Setting up relu5
I0826 09:29:14.043145  1343 net.cpp:157] Top shape: 256 256 7 7 (3211264)
I0826 09:29:14.043148  1343 net.cpp:165] Memory required for data: 630424576
I0826 09:29:14.043151  1343 layer_factory.hpp:77] Creating layer pool5
I0826 09:29:14.043159  1343 net.cpp:100] Creating Layer pool5
I0826 09:29:14.043161  1343 net.cpp:434] pool5 <- conv5
I0826 09:29:14.043169  1343 net.cpp:408] pool5 -> pool5
I0826 09:29:14.043216  1343 net.cpp:150] Setting up pool5
I0826 09:29:14.043228  1343 net.cpp:157] Top shape: 256 256 3 3 (589824)
I0826 09:29:14.043231  1343 net.cpp:165] Memory required for data: 632783872
I0826 09:29:14.043234  1343 layer_factory.hpp:77] Creating layer fc6
I0826 09:29:14.043244  1343 net.cpp:100] Creating Layer fc6
I0826 09:29:14.043248  1343 net.cpp:434] fc6 <- pool5
I0826 09:29:14.043253  1343 net.cpp:408] fc6 -> fc6
I0826 09:29:14.174247  1343 net.cpp:150] Setting up fc6
I0826 09:29:14.174283  1343 net.cpp:157] Top shape: 256 4096 (1048576)
I0826 09:29:14.174285  1343 net.cpp:165] Memory required for data: 636978176
I0826 09:29:14.174298  1343 layer_factory.hpp:77] Creating layer relu6
I0826 09:29:14.174310  1343 net.cpp:100] Creating Layer relu6
I0826 09:29:14.174314  1343 net.cpp:434] relu6 <- fc6
I0826 09:29:14.174321  1343 net.cpp:395] relu6 -> fc6 (in-place)
I0826 09:29:14.174917  1343 net.cpp:150] Setting up relu6
I0826 09:29:14.174933  1343 net.cpp:157] Top shape: 256 4096 (1048576)
I0826 09:29:14.174937  1343 net.cpp:165] Memory required for data: 641172480
I0826 09:29:14.174940  1343 layer_factory.hpp:77] Creating layer drop6
I0826 09:29:14.174947  1343 net.cpp:100] Creating Layer drop6
I0826 09:29:14.174952  1343 net.cpp:434] drop6 <- fc6
I0826 09:29:14.174958  1343 net.cpp:395] drop6 -> fc6 (in-place)
I0826 09:29:14.174983  1343 net.cpp:150] Setting up drop6
I0826 09:29:14.174990  1343 net.cpp:157] Top shape: 256 4096 (1048576)
I0826 09:29:14.174993  1343 net.cpp:165] Memory required for data: 645366784
I0826 09:29:14.174995  1343 layer_factory.hpp:77] Creating layer fc7
I0826 09:29:14.175005  1343 net.cpp:100] Creating Layer fc7
I0826 09:29:14.175012  1343 net.cpp:434] fc7 <- fc6
I0826 09:29:14.175019  1343 net.cpp:408] fc7 -> fc7
I0826 09:29:14.405279  1343 net.cpp:150] Setting up fc7
I0826 09:29:14.405328  1343 net.cpp:157] Top shape: 256 4096 (1048576)
I0826 09:29:14.405333  1343 net.cpp:165] Memory required for data: 649561088
I0826 09:29:14.405344  1343 layer_factory.hpp:77] Creating layer relu7
I0826 09:29:14.405355  1343 net.cpp:100] Creating Layer relu7
I0826 09:29:14.405359  1343 net.cpp:434] relu7 <- fc7
I0826 09:29:14.405369  1343 net.cpp:395] relu7 -> fc7 (in-place)
I0826 09:29:14.405637  1343 net.cpp:150] Setting up relu7
I0826 09:29:14.405650  1343 net.cpp:157] Top shape: 256 4096 (1048576)
I0826 09:29:14.405653  1343 net.cpp:165] Memory required for data: 653755392
I0826 09:29:14.405656  1343 layer_factory.hpp:77] Creating layer drop7
I0826 09:29:14.405663  1343 net.cpp:100] Creating Layer drop7
I0826 09:29:14.405666  1343 net.cpp:434] drop7 <- fc7
I0826 09:29:14.405671  1343 net.cpp:395] drop7 -> fc7 (in-place)
I0826 09:29:14.405699  1343 net.cpp:150] Setting up drop7
I0826 09:29:14.405706  1343 net.cpp:157] Top shape: 256 4096 (1048576)
I0826 09:29:14.405709  1343 net.cpp:165] Memory required for data: 657949696
I0826 09:29:14.405712  1343 layer_factory.hpp:77] Creating layer fc8
I0826 09:29:14.405720  1343 net.cpp:100] Creating Layer fc8
I0826 09:29:14.405724  1343 net.cpp:434] fc8 <- fc7
I0826 09:29:14.405730  1343 net.cpp:408] fc8 -> fc8
I0826 09:29:14.411005  1343 net.cpp:150] Setting up fc8
I0826 09:29:14.411020  1343 net.cpp:157] Top shape: 256 80 (20480)
I0826 09:29:14.411023  1343 net.cpp:165] Memory required for data: 658031616
I0826 09:29:14.411029  1343 layer_factory.hpp:77] Creating layer loss
I0826 09:29:14.411043  1343 net.cpp:100] Creating Layer loss
I0826 09:29:14.411047  1343 net.cpp:434] loss <- fc8
I0826 09:29:14.411052  1343 net.cpp:434] loss <- label
I0826 09:29:14.411056  1343 net.cpp:408] loss -> loss
I0826 09:29:14.411067  1343 layer_factory.hpp:77] Creating layer loss
…
I0826 09:29:14.411859  1343 solver.cpp:181] Creating test net (#0) specified by net file: nets/coco_all_classes_alex_net/trainval.prototxt
I0826 09:29:14.411900  1343 net.cpp:322] The NetState phase (1) differed from the phase (0) specified by a rule in layer coco
I0826 09:29:14.412068  1343 net.cpp:58] Initializing net from parameters: 
name: "AlexNet"
state {
  phase: TEST
}
layer {
  name: "coco"
  type: "Data"
  top: "data"
  top: "label"
  include {
    phase: TEST
  }
  transform_param {
    scale: 0.00390625
    mean_file: "data/lmdb/coco_color_mean.binaryproto"
  }
  data_param {
    source: "data/lmdb/coco_val_lmdb"
    batch_size: 256
    backend: LMDB
  }
}
layer {
  name: "conv1"
  type: "Convolution"
  bottom: "data"
  top: "conv1"
  param {
    lr_mult: 1
    decay_mult: 1
  }
  param {
    lr_mult: 2
    decay_mult: 0
  }
  convolution_param {
    num_output: 96
    kernel_size: 11
    stride: 4
    weight_filler {
      type: "gaussian"
      std: 0.01
    }
    bias_filler {
      type: "constant"
      value: 0
    }
  }
}
layer {
  name: "relu1"
  type: "ReLU"
  bottom: "conv1"
  top: "conv1"
}
layer {
  name: "norm1"
  type: "LRN"
  bottom: "conv1"
  top: "norm1"
  lrn_param {
    local_size: 5
    alpha: 0.0001
    beta: 0.75
  }
}
layer {
  name: "pool1"
  type: "Pooling"
  bottom: "norm1"
  top: "pool1"
  pooling_param {
    pool: MAX
    kernel_size: 3
    stride: 2
  }
}
layer {
  name: "conv2"
  type: "Convolution"
  bottom: "pool1"
  top: "conv2"
  param {
    lr_mult: 1
    decay_mult: 1
  }
  param {
    lr_mult: 2
    decay_mult: 0
  }
  convolution_param {
    num_output: 256
    pad: 2
    kernel_size: 5
    group: 2
    weight_filler {
      type: "gaussian"
      std: 0.01
    }
    bias_filler {
      type: "constant"
      value: 0.1
    }
  }
}
layer {
  name: "relu2"
  type: "ReLU"
  bottom: "conv2"
  top: "conv2"
}
layer {
  name: "norm2"
  type: "LRN"
  bottom: "conv2"
  top: "norm2"
  lrn_param {
    local_size: 5
    alpha: 0.0001
    beta: 0.75
  }
}
layer {
  name: "pool2"
  type: "Pooling"
  bottom: "norm2"
  top: "pool2"
  pooling_param {
    pool: MAX
    kernel_size: 3
    stride: 2
  }
}
layer {
  name: "conv3"
  type: "Convolution"
  bottom: "pool2"
  top: "conv3"
  param {
    lr_mult: 1
    decay_mult: 1
  }
  param {
    lr_mult: 2
    decay_mult: 0
  }
  convolution_param {
    num_output: 384
    pad: 1
    kernel_size: 3
    weight_filler {
      type: "gaussian"
      std: 0.01
    }
    bias_filler {
      type: "constant"
      value: 0
    }
  }
}
layer {
  name: "relu3"
  type: "ReLU"
  bottom: "conv3"
  top: "conv3"
}
layer {
  name: "conv4"
  type: "Convolution"
  bottom: "conv3"
  top: "conv4"
  param {
    lr_mult: 1
    decay_mult: 1
  }
  param {
    lr_mult: 2
    decay_mult: 0
  }
  convolution_param {
    num_output: 384
    pad: 1
    kernel_size: 3
    group: 2
    weight_filler {
      type: "gaussian"
      std: 0.01
    }
    bias_filler {
      type: "constant"
      value: 0.1
    }
  }
}
layer {
  name: "relu4"
  type: "ReLU"
  bottom: "conv4"
  top: "conv4"
}
layer {
  name: "conv5"
  type: "Convolution"
  bottom: "conv4"
  top: "conv5"
  param {
    lr_mult: 1
    decay_mult: 1
  }
  param {
    lr_mult: 2
    decay_mult: 0
  }
  convolution_param {
    num_output: 256
    pad: 1
    kernel_size: 3
    group: 2
    weight_filler {
      type: "gaussian"
      std: 0.01
    }
    bias_filler {
      type: "constant"
      value: 0.1
    }
  }
}
layer {
  name: "relu5"
  type: "ReLU"
  bottom: "conv5"
  top: "conv5"
}
layer {
  name: "pool5"
  type: "Pooling"
  bottom: "conv5"
  top: "pool5"
  pooling_param {
    pool: MAX
    kernel_size: 3
    stride: 2
  }
}
layer {
  name: "fc6"
  type: "InnerProduct"
  bottom: "pool5"
  top: "fc6"
  param {
    lr_mult: 1
    decay_mult: 1
  }
  param {
    lr_mult: 2
    decay_mult: 0
  }
  inner_product_param {
    num_output: 4096
    weight_filler {
      type: "gaussian"
      std: 0.005
    }
    bias_filler {
      type: "constant"
      value: 0.1
    }
  }
}
layer {
  name: "relu6"
  type: "ReLU"
  bottom: "fc6"
  top: "fc6"
}
layer {
  name: "drop6"
  type: "Dropout"
  bottom: "fc6"
  top: "fc6"
  dropout_param {
    dropout_ratio: 0.5
  }
}
layer {
  name: "fc7"
  type: "InnerProduct"
  bottom: "fc6"
  top: "fc7"
  param {
    lr_mult: 1
    decay_mult: 1
  }
  param {
    lr_mult: 2
    decay_mult: 0
  }
  inner_product_param {
    num_output: 4096
    weight_filler {
      type: "gaussian"
      std: 0.005
    }
    bias_filler {
      type: "constant"
      value: 0.1
    }
  }
}
layer {
  name: "relu7"
  type: "ReLU"
  bottom: "fc7"
  top: "fc7"
}
layer {
  name: "drop7"
  type: "Dropout"
  bottom: "fc7"
  top: "fc7"
  dropout_param {
    dropout_ratio: 0.5
  }
}
layer {
  name: "fc8"
  type: "InnerProduct"
  bottom: "fc7"
  top: "fc8"
  param {
    lr_mult: 1
    decay_mult: 1
  }
  param {
    lr_mult: 2
    decay_mult: 0
  }
  inner_product_param {
    num_output: 80
    weight_filler {
      type: "gaussian"
      std: 0.01
    }
    bias_filler {
      type: "constant"
      value: 0
    }
  }
}
layer {
  name: "accuracy"
  type: "Accuracy"
  bottom: "fc8"
  bottom: "label"
  top: "accuracy"
  include {
    phase: TEST
  }
}
layer {
  name: "loss"
  type: "SoftmaxWithLoss"
  bottom: "fc8"
  bottom: "label"
  top: "loss"
}
I0826 09:29:14.412178  1343 layer_factory.hpp:77] Creating layer coco
I0826 09:29:14.412408  1343 net.cpp:100] Creating Layer coco
I0826 09:29:14.412420  1343 net.cpp:408] coco -> data
I0826 09:29:14.412428  1343 net.cpp:408] coco -> label
I0826 09:29:14.412436  1343 data_transformer.cpp:25] Loading mean file from: data/lmdb/coco_color_mean.binaryproto
I0826 09:29:14.414034  1354 db_lmdb.cpp:35] Opened lmdb data/lmdb/coco_val_lmdb
I0826 09:29:14.414398  1343 data_layer.cpp:41] output data size: 256,3,128,128
I0826 09:29:14.545110  1343 net.cpp:150] Setting up coco
I0826 09:29:14.545147  1343 net.cpp:157] Top shape: 256 3 128 128 (12582912)
I0826 09:29:14.545153  1343 net.cpp:157] Top shape: 256 (256)
I0826 09:29:14.545156  1343 net.cpp:165] Memory required for data: 50332672
I0826 09:29:14.545163  1343 layer_factory.hpp:77] Creating layer label_coco_1_split
I0826 09:29:14.545181  1343 net.cpp:100] Creating Layer label_coco_1_split
I0826 09:29:14.545186  1343 net.cpp:434] label_coco_1_split <- label
I0826 09:29:14.545194  1343 net.cpp:408] label_coco_1_split -> label_coco_1_split_0
I0826 09:29:14.545207  1343 net.cpp:408] label_coco_1_split -> label_coco_1_split_1
I0826 09:29:14.545449  1343 net.cpp:150] Setting up label_coco_1_split
I0826 09:29:14.545481  1343 net.cpp:157] Top shape: 256 (256)
I0826 09:29:14.545490  1343 net.cpp:157] Top shape: 256 (256)
I0826 09:29:14.545495  1343 net.cpp:165] Memory required for data: 50334720
I0826 09:29:14.545501  1343 layer_factory.hpp:77] Creating layer conv1
I0826 09:29:14.545526  1343 net.cpp:100] Creating Layer conv1
I0826 09:29:14.545536  1343 net.cpp:434] conv1 <- data
I0826 09:29:14.545549  1343 net.cpp:408] conv1 -> conv1
I0826 09:29:14.553180  1343 net.cpp:150] Setting up conv1
I0826 09:29:14.553213  1343 net.cpp:157] Top shape: 256 96 30 30 (22118400)
I0826 09:29:14.553221  1343 net.cpp:165] Memory required for data: 138808320
I0826 09:29:14.553242  1343 layer_factory.hpp:77] Creating layer relu1
I0826 09:29:14.553256  1343 net.cpp:100] Creating Layer relu1
I0826 09:29:14.553263  1343 net.cpp:434] relu1 <- conv1
I0826 09:29:14.553274  1343 net.cpp:395] relu1 -> conv1 (in-place)
I0826 09:29:14.553634  1343 net.cpp:150] Setting up relu1
I0826 09:29:14.553653  1343 net.cpp:157] Top shape: 256 96 30 30 (22118400)
I0826 09:29:14.553658  1343 net.cpp:165] Memory required for data: 227281920
I0826 09:29:14.553663  1343 layer_factory.hpp:77] Creating layer norm1
I0826 09:29:14.553679  1343 net.cpp:100] Creating Layer norm1
I0826 09:29:14.553685  1343 net.cpp:434] norm1 <- conv1
I0826 09:29:14.553696  1343 net.cpp:408] norm1 -> norm1
I0826 09:29:14.554636  1343 net.cpp:150] Setting up norm1
I0826 09:29:14.554663  1343 net.cpp:157] Top shape: 256 96 30 30 (22118400)
I0826 09:29:14.554671  1343 net.cpp:165] Memory required for data: 315755520
I0826 09:29:14.554677  1343 layer_factory.hpp:77] Creating layer pool1
I0826 09:29:14.554689  1343 net.cpp:100] Creating Layer pool1
I0826 09:29:14.554697  1343 net.cpp:434] pool1 <- norm1
I0826 09:29:14.554735  1343 net.cpp:408] pool1 -> pool1
I0826 09:29:14.554821  1343 net.cpp:150] Setting up pool1
I0826 09:29:14.554836  1343 net.cpp:157] Top shape: 256 96 15 15 (5529600)
I0826 09:29:14.554842  1343 net.cpp:165] Memory required for data: 337873920
I0826 09:29:14.554847  1343 layer_factory.hpp:77] Creating layer conv2
I0826 09:29:14.554867  1343 net.cpp:100] Creating Layer conv2
I0826 09:29:14.554875  1343 net.cpp:434] conv2 <- pool1
I0826 09:29:14.554888  1343 net.cpp:408] conv2 -> conv2
I0826 09:29:14.567143  1343 net.cpp:150] Setting up conv2
I0826 09:29:14.567176  1343 net.cpp:157] Top shape: 256 256 15 15 (14745600)
I0826 09:29:14.567183  1343 net.cpp:165] Memory required for data: 396856320
I0826 09:29:14.567201  1343 layer_factory.hpp:77] Creating layer relu2
I0826 09:29:14.567214  1343 net.cpp:100] Creating Layer relu2
I0826 09:29:14.567220  1343 net.cpp:434] relu2 <- conv2
I0826 09:29:14.567229  1343 net.cpp:395] relu2 -> conv2 (in-place)
I0826 09:29:14.568094  1343 net.cpp:150] Setting up relu2
I0826 09:29:14.568119  1343 net.cpp:157] Top shape: 256 256 15 15 (14745600)
I0826 09:29:14.568125  1343 net.cpp:165] Memory required for data: 455838720
I0826 09:29:14.568130  1343 layer_factory.hpp:77] Creating layer norm2
I0826 09:29:14.568148  1343 net.cpp:100] Creating Layer norm2
I0826 09:29:14.568156  1343 net.cpp:434] norm2 <- conv2
I0826 09:29:14.568166  1343 net.cpp:408] norm2 -> norm2
I0826 09:29:14.568572  1343 net.cpp:150] Setting up norm2
I0826 09:29:14.568591  1343 net.cpp:157] Top shape: 256 256 15 15 (14745600)
I0826 09:29:14.568596  1343 net.cpp:165] Memory required for data: 514821120
I0826 09:29:14.568603  1343 layer_factory.hpp:77] Creating layer pool2
I0826 09:29:14.568614  1343 net.cpp:100] Creating Layer pool2
I0826 09:29:14.568619  1343 net.cpp:434] pool2 <- norm2
I0826 09:29:14.568631  1343 net.cpp:408] pool2 -> pool2
I0826 09:29:14.568703  1343 net.cpp:150] Setting up pool2
I0826 09:29:14.568717  1343 net.cpp:157] Top shape: 256 256 7 7 (3211264)
I0826 09:29:14.568722  1343 net.cpp:165] Memory required for data: 527666176
I0826 09:29:14.568727  1343 layer_factory.hpp:77] Creating layer conv3
I0826 09:29:14.568748  1343 net.cpp:100] Creating Layer conv3
I0826 09:29:14.568756  1343 net.cpp:434] conv3 <- pool2
I0826 09:29:14.568768  1343 net.cpp:408] conv3 -> conv3
I0826 09:29:14.592386  1343 net.cpp:150] Setting up conv3
I0826 09:29:14.592437  1343 net.cpp:157] Top shape: 256 384 7 7 (4816896)
I0826 09:29:14.592443  1343 net.cpp:165] Memory required for data: 546933760
I0826 09:29:14.592484  1343 layer_factory.hpp:77] Creating layer relu3
I0826 09:29:14.592499  1343 net.cpp:100] Creating Layer relu3
I0826 09:29:14.592506  1343 net.cpp:434] relu3 <- conv3
I0826 09:29:14.592519  1343 net.cpp:395] relu3 -> conv3 (in-place)
I0826 09:29:14.592854  1343 net.cpp:150] Setting up relu3
I0826 09:29:14.592874  1343 net.cpp:157] Top shape: 256 384 7 7 (4816896)
I0826 09:29:14.592877  1343 net.cpp:165] Memory required for data: 566201344
I0826 09:29:14.592882  1343 layer_factory.hpp:77] Creating layer conv4
I0826 09:29:14.592901  1343 net.cpp:100] Creating Layer conv4
I0826 09:29:14.592906  1343 net.cpp:434] conv4 <- conv3
I0826 09:29:14.592918  1343 net.cpp:408] conv4 -> conv4
I0826 09:29:14.612092  1343 net.cpp:150] Setting up conv4
I0826 09:29:14.612140  1343 net.cpp:157] Top shape: 256 384 7 7 (4816896)
I0826 09:29:14.612146  1343 net.cpp:165] Memory required for data: 585468928
I0826 09:29:14.612162  1343 layer_factory.hpp:77] Creating layer relu4
I0826 09:29:14.612176  1343 net.cpp:100] Creating Layer relu4
I0826 09:29:14.612181  1343 net.cpp:434] relu4 <- conv4
I0826 09:29:14.612193  1343 net.cpp:395] relu4 -> conv4 (in-place)
I0826 09:29:14.614187  1343 net.cpp:150] Setting up relu4
I0826 09:29:14.614208  1343 net.cpp:157] Top shape: 256 384 7 7 (4816896)
I0826 09:29:14.614213  1343 net.cpp:165] Memory required for data: 604736512
I0826 09:29:14.614218  1343 layer_factory.hpp:77] Creating layer conv5
I0826 09:29:14.614239  1343 net.cpp:100] Creating Layer conv5
I0826 09:29:14.614245  1343 net.cpp:434] conv5 <- conv4
I0826 09:29:14.614254  1343 net.cpp:408] conv5 -> conv5
I0826 09:29:14.626386  1343 net.cpp:150] Setting up conv5
I0826 09:29:14.626410  1343 net.cpp:157] Top shape: 256 256 7 7 (3211264)
I0826 09:29:14.626415  1343 net.cpp:165] Memory required for data: 617581568
I0826 09:29:14.626431  1343 layer_factory.hpp:77] Creating layer relu5
I0826 09:29:14.626441  1343 net.cpp:100] Creating Layer relu5
I0826 09:29:14.626446  1343 net.cpp:434] relu5 <- conv5
I0826 09:29:14.626454  1343 net.cpp:395] relu5 -> conv5 (in-place)
I0826 09:29:14.626749  1343 net.cpp:150] Setting up relu5
I0826 09:29:14.626765  1343 net.cpp:157] Top shape: 256 256 7 7 (3211264)
I0826 09:29:14.626770  1343 net.cpp:165] Memory required for data: 630426624
I0826 09:29:14.626773  1343 layer_factory.hpp:77] Creating layer pool5
I0826 09:29:14.626791  1343 net.cpp:100] Creating Layer pool5
I0826 09:29:14.626794  1343 net.cpp:434] pool5 <- conv5
I0826 09:29:14.626802  1343 net.cpp:408] pool5 -> pool5
I0826 09:29:14.626883  1343 net.cpp:150] Setting up pool5
I0826 09:29:14.626896  1343 net.cpp:157] Top shape: 256 256 3 3 (589824)
I0826 09:29:14.626900  1343 net.cpp:165] Memory required for data: 632785920
I0826 09:29:14.626904  1343 layer_factory.hpp:77] Creating layer fc6
I0826 09:29:14.626914  1343 net.cpp:100] Creating Layer fc6
I0826 09:29:14.626917  1343 net.cpp:434] fc6 <- pool5
I0826 09:29:14.626925  1343 net.cpp:408] fc6 -> fc6
I0826 09:29:14.765414  1343 net.cpp:150] Setting up fc6
I0826 09:29:14.765452  1343 net.cpp:157] Top shape: 256 4096 (1048576)
I0826 09:29:14.765456  1343 net.cpp:165] Memory required for data: 636980224
I0826 09:29:14.765468  1343 layer_factory.hpp:77] Creating layer relu6
I0826 09:29:14.765483  1343 net.cpp:100] Creating Layer relu6
I0826 09:29:14.765488  1343 net.cpp:434] relu6 <- fc6
I0826 09:29:14.765496  1343 net.cpp:395] relu6 -> fc6 (in-place)
I0826 09:29:14.765774  1343 net.cpp:150] Setting up relu6
I0826 09:29:14.765784  1343 net.cpp:157] Top shape: 256 4096 (1048576)
I0826 09:29:14.765787  1343 net.cpp:165] Memory required for data: 641174528
I0826 09:29:14.765790  1343 layer_factory.hpp:77] Creating layer drop6
I0826 09:29:14.765799  1343 net.cpp:100] Creating Layer drop6
I0826 09:29:14.765802  1343 net.cpp:434] drop6 <- fc6
I0826 09:29:14.765806  1343 net.cpp:395] drop6 -> fc6 (in-place)
I0826 09:29:14.765835  1343 net.cpp:150] Setting up drop6
I0826 09:29:14.765841  1343 net.cpp:157] Top shape: 256 4096 (1048576)
I0826 09:29:14.765843  1343 net.cpp:165] Memory required for data: 645368832
I0826 09:29:14.765846  1343 layer_factory.hpp:77] Creating layer fc7
I0826 09:29:14.765854  1343 net.cpp:100] Creating Layer fc7
I0826 09:29:14.765857  1343 net.cpp:434] fc7 <- fc6
I0826 09:29:14.765866  1343 net.cpp:408] fc7 -> fc7
I0826 09:29:14.996310  1343 net.cpp:150] Setting up fc7
I0826 09:29:14.996357  1343 net.cpp:157] Top shape: 256 4096 (1048576)
I0826 09:29:14.996361  1343 net.cpp:165] Memory required for data: 649563136
I0826 09:29:14.996372  1343 layer_factory.hpp:77] Creating layer relu7
I0826 09:29:14.996386  1343 net.cpp:100] Creating Layer relu7
I0826 09:29:14.996390  1343 net.cpp:434] relu7 <- fc7
I0826 09:29:14.996397  1343 net.cpp:395] relu7 -> fc7 (in-place)
I0826 09:29:14.997162  1343 net.cpp:150] Setting up relu7
I0826 09:29:14.997179  1343 net.cpp:157] Top shape: 256 4096 (1048576)
I0826 09:29:14.997184  1343 net.cpp:165] Memory required for data: 653757440
I0826 09:29:14.997186  1343 layer_factory.hpp:77] Creating layer drop7
I0826 09:29:14.997194  1343 net.cpp:100] Creating Layer drop7
I0826 09:29:14.997196  1343 net.cpp:434] drop7 <- fc7
I0826 09:29:14.997202  1343 net.cpp:395] drop7 -> fc7 (in-place)
I0826 09:29:14.997234  1343 net.cpp:150] Setting up drop7
I0826 09:29:14.997244  1343 net.cpp:157] Top shape: 256 4096 (1048576)
I0826 09:29:14.997247  1343 net.cpp:165] Memory required for data: 657951744
I0826 09:29:14.997251  1343 layer_factory.hpp:77] Creating layer fc8
I0826 09:29:14.997258  1343 net.cpp:100] Creating Layer fc8
I0826 09:29:14.997262  1343 net.cpp:434] fc8 <- fc7
I0826 09:29:14.997268  1343 net.cpp:408] fc8 -> fc8
I0826 09:29:15.002435  1343 net.cpp:150] Setting up fc8
I0826 09:29:15.002451  1343 net.cpp:157] Top shape: 256 80 (20480)
I0826 09:29:15.002454  1343 net.cpp:165] Memory required for data: 658033664
I0826 09:29:15.002461  1343 layer_factory.hpp:77] Creating layer fc8_fc8_0_split
I0826 09:29:15.002470  1343 net.cpp:100] Creating Layer fc8_fc8_0_split
I0826 09:29:15.002475  1343 net.cpp:434] fc8_fc8_0_split <- fc8
I0826 09:29:15.002480  1343 net.cpp:408] fc8_fc8_0_split -> fc8_fc8_0_split_0
I0826 09:29:15.002488  1343 net.cpp:408] fc8_fc8_0_split -> fc8_fc8_0_split_1
I0826 09:29:15.002528  1343 net.cpp:150] Setting up fc8_fc8_0_split
I0826 09:29:15.002537  1343 net.cpp:157] Top shape: 256 80 (20480)
I0826 09:29:15.002539  1343 net.cpp:157] Top shape: 256 80 (20480)
I0826 09:29:15.002542  1343 net.cpp:165] Memory required for data: 658197504
I0826 09:29:15.002545  1343 layer_factory.hpp:77] Creating layer accuracy
I0826 09:29:15.002552  1343 net.cpp:100] Creating Layer accuracy
I0826 09:29:15.002555  1343 net.cpp:434] accuracy <- fc8_fc8_0_split_0
I0826 09:29:15.002559  1343 net.cpp:434] accuracy <- label_coco_1_split_0
I0826 09:29:15.002570  1343 net.cpp:408] accuracy -> accuracy
…
