…
I0817 09:23:56.135746 12150 net.cpp:322] The NetState phase (0) differed from the phase (1) specified by a rule in layer coco
I0817 09:23:56.135767 12150 net.cpp:322] The NetState phase (0) differed from the phase (1) specified by a rule in layer accuracy
I0817 09:23:56.135905 12150 net.cpp:58] Initializing net from parameters: 
name: "AlexNet"
state {
  phase: TRAIN
}
layer {
  name: "coco"
  type: "Data"
  top: "data"
  top: "label"
  include {
    phase: TRAIN
  }
  transform_param {
    scale: 0.00390625
    mean_file: "data/lmdb/coco_color_mean.binaryproto"
  }
  data_param {
    source: "data/lmdb/coco_train_lmdb"
    batch_size: 256
    backend: LMDB
  }
}
layer {
  name: "conv1"
  type: "Convolution"
  bottom: "data"
  top: "conv1"
  param {
    lr_mult: 1
    decay_mult: 1
  }
  param {
    lr_mult: 2
    decay_mult: 0
  }
  convolution_param {
    num_output: 96
    kernel_size: 11
    stride: 4
    weight_filler {
      type: "gaussian"
      std: 0.01
    }
    bias_filler {
      type: "constant"
      value: 0
    }
  }
}
layer {
  name: "relu1"
  type: "ReLU"
  bottom: "conv1"
  top: "conv1"
}
layer {
  name: "norm1"
  type: "LRN"
  bottom: "conv1"
  top: "norm1"
  lrn_param {
    local_size: 5
    alpha: 0.0001
    beta: 0.75
  }
}
layer {
  name: "pool1"
  type: "Pooling"
  bottom: "norm1"
  top: "pool1"
  pooling_param {
    pool: MAX
    kernel_size: 3
    stride: 2
  }
}
layer {
  name: "conv2"
  type: "Convolution"
  bottom: "pool1"
  top: "conv2"
  param {
    lr_mult: 1
    decay_mult: 1
  }
  param {
    lr_mult: 2
    decay_mult: 0
  }
  convolution_param {
    num_output: 256
    pad: 2
    kernel_size: 5
    group: 2
    weight_filler {
      type: "gaussian"
      std: 0.01
    }
    bias_filler {
      type: "constant"
      value: 0.1
    }
  }
}
layer {
  name: "relu2"
  type: "ReLU"
  bottom: "conv2"
  top: "conv2"
}
layer {
  name: "norm2"
  type: "LRN"
  bottom: "conv2"
  top: "norm2"
  lrn_param {
    local_size: 5
    alpha: 0.0001
    beta: 0.75
  }
}
layer {
  name: "pool2"
  type: "Pooling"
  bottom: "norm2"
  top: "pool2"
  pooling_param {
    pool: MAX
    kernel_size: 3
    stride: 2
  }
}
layer {
  name: "conv3"
  type: "Convolution"
  bottom: "pool2"
  top: "conv3"
  param {
    lr_mult: 1
    decay_mult: 1
  }
  param {
    lr_mult: 2
    decay_mult: 0
  }
  convolution_param {
    num_output: 384
    pad: 1
    kernel_size: 3
    weight_filler {
      type: "gaussian"
      std: 0.01
    }
    bias_filler {
      type: "constant"
      value: 0
    }
  }
}
layer {
  name: "relu3"
  type: "ReLU"
  bottom: "conv3"
  top: "conv3"
}
layer {
  name: "conv4"
  type: "Convolution"
  bottom: "conv3"
  top: "conv4"
  param {
    lr_mult: 1
    decay_mult: 1
  }
  param {
    lr_mult: 2
    decay_mult: 0
  }
  convolution_param {
    num_output: 384
    pad: 1
    kernel_size: 3
    group: 2
    weight_filler {
      type: "gaussian"
      std: 0.01
    }
    bias_filler {
      type: "constant"
      value: 0.1
    }
  }
}
layer {
  name: "relu4"
  type: "ReLU"
  bottom: "conv4"
  top: "conv4"
}
layer {
  name: "conv5"
  type: "Convolution"
  bottom: "conv4"
  top: "conv5"
  param {
    lr_mult: 1
    decay_mult: 1
  }
  param {
    lr_mult: 2
    decay_mult: 0
  }
  convolution_param {
    num_output: 256
    pad: 1
    kernel_size: 3
    group: 2
    weight_filler {
      type: "gaussian"
      std: 0.01
    }
    bias_filler {
      type: "constant"
      value: 0.1
    }
  }
}
layer {
  name: "relu5"
  type: "ReLU"
  bottom: "conv5"
  top: "conv5"
}
layer {
  name: "pool5"
  type: "Pooling"
  bottom: "conv5"
  top: "pool5"
  pooling_param {
    pool: MAX
    kernel_size: 3
    stride: 2
  }
}
layer {
  name: "fc6"
  type: "InnerProduct"
  bottom: "pool5"
  top: "fc6"
  param {
    lr_mult: 1
    decay_mult: 1
  }
  param {
    lr_mult: 2
    decay_mult: 0
  }
  inner_product_param {
    num_output: 4096
    weight_filler {
      type: "gaussian"
      std: 0.005
    }
    bias_filler {
      type: "constant"
      value: 0.1
    }
  }
}
layer {
  name: "relu6"
  type: "ReLU"
  bottom: "fc6"
  top: "fc6"
}
layer {
  name: "drop6"
  type: "Dropout"
  bottom: "fc6"
  top: "fc6"
  dropout_param {
    dropout_ratio: 0.5
  }
}
layer {
  name: "fc7"
  type: "InnerProduct"
  bottom: "fc6"
  top: "fc7"
  param {
    lr_mult: 1
    decay_mult: 1
  }
  param {
    lr_mult: 2
    decay_mult: 0
  }
  inner_product_param {
    num_output: 4096
    weight_filler {
      type: "gaussian"
      std: 0.005
    }
    bias_filler {
      type: "constant"
      value: 0.1
    }
  }
}
layer {
  name: "relu7"
  type: "ReLU"
  bottom: "fc7"
  top: "fc7"
}
layer {
  name: "drop7"
  type: "Dropout"
  bottom: "fc7"
  top: "fc7"
  dropout_param {
    dropout_ratio: 0.5
  }
}
layer {
  name: "fc8"
  type: "InnerProduct"
  bottom: "fc7"
  top: "fc8"
  param {
    lr_mult: 1
    decay_mult: 1
  }
  param {
    lr_mult: 2
    decay_mult: 0
  }
  inner_product_param {
    num_output: 80
    weight_filler {
      type: "gaussian"
      std: 0.01
    }
    bias_filler {
      type: "constant"
      value: 0
    }
  }
}
layer {
  name: "loss"
  type: "SoftmaxWithLoss"
  bottom: "fc8"
  bottom: "label"
  top: "loss"
}
I0817 09:23:56.136003 12150 layer_factory.hpp:77] Creating layer coco
I0817 09:23:56.136627 12150 net.cpp:100] Creating Layer coco
I0817 09:23:56.136641 12150 net.cpp:408] coco -> data
I0817 09:23:56.136654 12150 net.cpp:408] coco -> label
I0817 09:23:56.136665 12150 data_transformer.cpp:25] Loading mean file from: data/lmdb/coco_color_mean.binaryproto
I0817 09:23:56.138103 12159 db_lmdb.cpp:35] Opened lmdb data/lmdb/coco_train_lmdb
I0817 09:23:56.171814 12150 data_layer.cpp:41] output data size: 256,3,128,128
I0817 09:23:56.298836 12150 net.cpp:150] Setting up coco
I0817 09:23:56.298871 12150 net.cpp:157] Top shape: 256 3 128 128 (12582912)
I0817 09:23:56.298877 12150 net.cpp:157] Top shape: 256 (256)
I0817 09:23:56.298880 12150 net.cpp:165] Memory required for data: 50332672
I0817 09:23:56.298887 12150 layer_factory.hpp:77] Creating layer conv1
I0817 09:23:56.298913 12150 net.cpp:100] Creating Layer conv1
I0817 09:23:56.298918 12150 net.cpp:434] conv1 <- data
I0817 09:23:56.298926 12150 net.cpp:408] conv1 -> conv1
I0817 09:23:56.614784 12150 net.cpp:150] Setting up conv1
I0817 09:23:56.614830 12150 net.cpp:157] Top shape: 256 96 30 30 (22118400)
I0817 09:23:56.614835 12150 net.cpp:165] Memory required for data: 138806272
I0817 09:23:56.614856 12150 layer_factory.hpp:77] Creating layer relu1
I0817 09:23:56.614873 12150 net.cpp:100] Creating Layer relu1
I0817 09:23:56.614879 12150 net.cpp:434] relu1 <- conv1
I0817 09:23:56.614888 12150 net.cpp:395] relu1 -> conv1 (in-place)
I0817 09:23:56.615082 12150 net.cpp:150] Setting up relu1
I0817 09:23:56.615095 12150 net.cpp:157] Top shape: 256 96 30 30 (22118400)
I0817 09:23:56.615099 12150 net.cpp:165] Memory required for data: 227279872
I0817 09:23:56.615103 12150 layer_factory.hpp:77] Creating layer norm1
I0817 09:23:56.615113 12150 net.cpp:100] Creating Layer norm1
I0817 09:23:56.615116 12150 net.cpp:434] norm1 <- conv1
I0817 09:23:56.615123 12150 net.cpp:408] norm1 -> norm1
I0817 09:23:56.615618 12150 net.cpp:150] Setting up norm1
I0817 09:23:56.615635 12150 net.cpp:157] Top shape: 256 96 30 30 (22118400)
I0817 09:23:56.615639 12150 net.cpp:165] Memory required for data: 315753472
I0817 09:23:56.615643 12150 layer_factory.hpp:77] Creating layer pool1
I0817 09:23:56.615653 12150 net.cpp:100] Creating Layer pool1
I0817 09:23:56.615658 12150 net.cpp:434] pool1 <- norm1
I0817 09:23:56.615664 12150 net.cpp:408] pool1 -> pool1
I0817 09:23:56.615708 12150 net.cpp:150] Setting up pool1
I0817 09:23:56.615718 12150 net.cpp:157] Top shape: 256 96 15 15 (5529600)
I0817 09:23:56.615722 12150 net.cpp:165] Memory required for data: 337871872
I0817 09:23:56.615725 12150 layer_factory.hpp:77] Creating layer conv2
I0817 09:23:56.615741 12150 net.cpp:100] Creating Layer conv2
I0817 09:23:56.615747 12150 net.cpp:434] conv2 <- pool1
I0817 09:23:56.615754 12150 net.cpp:408] conv2 -> conv2
I0817 09:23:56.622047 12150 net.cpp:150] Setting up conv2
I0817 09:23:56.622064 12150 net.cpp:157] Top shape: 256 256 15 15 (14745600)
I0817 09:23:56.622068 12150 net.cpp:165] Memory required for data: 396854272
I0817 09:23:56.622081 12150 layer_factory.hpp:77] Creating layer relu2
I0817 09:23:56.622088 12150 net.cpp:100] Creating Layer relu2
I0817 09:23:56.622092 12150 net.cpp:434] relu2 <- conv2
I0817 09:23:56.622098 12150 net.cpp:395] relu2 -> conv2 (in-place)
I0817 09:23:56.622591 12150 net.cpp:150] Setting up relu2
I0817 09:23:56.622607 12150 net.cpp:157] Top shape: 256 256 15 15 (14745600)
I0817 09:23:56.622611 12150 net.cpp:165] Memory required for data: 455836672
I0817 09:23:56.622614 12150 layer_factory.hpp:77] Creating layer norm2
I0817 09:23:56.622625 12150 net.cpp:100] Creating Layer norm2
I0817 09:23:56.622628 12150 net.cpp:434] norm2 <- conv2
I0817 09:23:56.622635 12150 net.cpp:408] norm2 -> norm2
I0817 09:23:56.622858 12150 net.cpp:150] Setting up norm2
I0817 09:23:56.622871 12150 net.cpp:157] Top shape: 256 256 15 15 (14745600)
I0817 09:23:56.622875 12150 net.cpp:165] Memory required for data: 514819072
I0817 09:23:56.622879 12150 layer_factory.hpp:77] Creating layer pool2
I0817 09:23:56.622887 12150 net.cpp:100] Creating Layer pool2
I0817 09:23:56.622890 12150 net.cpp:434] pool2 <- norm2
I0817 09:23:56.622898 12150 net.cpp:408] pool2 -> pool2
I0817 09:23:56.622941 12150 net.cpp:150] Setting up pool2
I0817 09:23:56.622949 12150 net.cpp:157] Top shape: 256 256 7 7 (3211264)
I0817 09:23:56.622952 12150 net.cpp:165] Memory required for data: 527664128
I0817 09:23:56.622956 12150 layer_factory.hpp:77] Creating layer conv3
I0817 09:23:56.622969 12150 net.cpp:100] Creating Layer conv3
I0817 09:23:56.622975 12150 net.cpp:434] conv3 <- pool2
I0817 09:23:56.622982 12150 net.cpp:408] conv3 -> conv3
I0817 09:23:56.636422 12150 net.cpp:150] Setting up conv3
I0817 09:23:56.636440 12150 net.cpp:157] Top shape: 256 384 7 7 (4816896)
I0817 09:23:56.636445 12150 net.cpp:165] Memory required for data: 546931712
I0817 09:23:56.636456 12150 layer_factory.hpp:77] Creating layer relu3
I0817 09:23:56.636466 12150 net.cpp:100] Creating Layer relu3
I0817 09:23:56.636471 12150 net.cpp:434] relu3 <- conv3
I0817 09:23:56.636476 12150 net.cpp:395] relu3 -> conv3 (in-place)
I0817 09:23:56.636682 12150 net.cpp:150] Setting up relu3
I0817 09:23:56.636694 12150 net.cpp:157] Top shape: 256 384 7 7 (4816896)
I0817 09:23:56.636698 12150 net.cpp:165] Memory required for data: 566199296
I0817 09:23:56.636703 12150 layer_factory.hpp:77] Creating layer conv4
I0817 09:23:56.636714 12150 net.cpp:100] Creating Layer conv4
I0817 09:23:56.636720 12150 net.cpp:434] conv4 <- conv3
I0817 09:23:56.636729 12150 net.cpp:408] conv4 -> conv4
I0817 09:23:56.648049 12150 net.cpp:150] Setting up conv4
I0817 09:23:56.648069 12150 net.cpp:157] Top shape: 256 384 7 7 (4816896)
I0817 09:23:56.648073 12150 net.cpp:165] Memory required for data: 585466880
I0817 09:23:56.648082 12150 layer_factory.hpp:77] Creating layer relu4
I0817 09:23:56.648088 12150 net.cpp:100] Creating Layer relu4
I0817 09:23:56.648092 12150 net.cpp:434] relu4 <- conv4
I0817 09:23:56.648098 12150 net.cpp:395] relu4 -> conv4 (in-place)
I0817 09:23:56.648304 12150 net.cpp:150] Setting up relu4
I0817 09:23:56.648318 12150 net.cpp:157] Top shape: 256 384 7 7 (4816896)
I0817 09:23:56.648320 12150 net.cpp:165] Memory required for data: 604734464
I0817 09:23:56.648324 12150 layer_factory.hpp:77] Creating layer conv5
I0817 09:23:56.648336 12150 net.cpp:100] Creating Layer conv5
I0817 09:23:56.648342 12150 net.cpp:434] conv5 <- conv4
I0817 09:23:56.648352 12150 net.cpp:408] conv5 -> conv5
I0817 09:23:56.656886 12150 net.cpp:150] Setting up conv5
I0817 09:23:56.656903 12150 net.cpp:157] Top shape: 256 256 7 7 (3211264)
I0817 09:23:56.656908 12150 net.cpp:165] Memory required for data: 617579520
I0817 09:23:56.656920 12150 layer_factory.hpp:77] Creating layer relu5
I0817 09:23:56.656929 12150 net.cpp:100] Creating Layer relu5
I0817 09:23:56.656932 12150 net.cpp:434] relu5 <- conv5
I0817 09:23:56.656939 12150 net.cpp:395] relu5 -> conv5 (in-place)
I0817 09:23:56.657143 12150 net.cpp:150] Setting up relu5
I0817 09:23:56.657155 12150 net.cpp:157] Top shape: 256 256 7 7 (3211264)
I0817 09:23:56.657160 12150 net.cpp:165] Memory required for data: 630424576
I0817 09:23:56.657162 12150 layer_factory.hpp:77] Creating layer pool5
I0817 09:23:56.657169 12150 net.cpp:100] Creating Layer pool5
I0817 09:23:56.657173 12150 net.cpp:434] pool5 <- conv5
I0817 09:23:56.657181 12150 net.cpp:408] pool5 -> pool5
I0817 09:23:56.657232 12150 net.cpp:150] Setting up pool5
I0817 09:23:56.657243 12150 net.cpp:157] Top shape: 256 256 3 3 (589824)
I0817 09:23:56.657246 12150 net.cpp:165] Memory required for data: 632783872
I0817 09:23:56.657249 12150 layer_factory.hpp:77] Creating layer fc6
I0817 09:23:56.657263 12150 net.cpp:100] Creating Layer fc6
I0817 09:23:56.657269 12150 net.cpp:434] fc6 <- pool5
I0817 09:23:56.657275 12150 net.cpp:408] fc6 -> fc6
I0817 09:23:56.789003 12150 net.cpp:150] Setting up fc6
I0817 09:23:56.789046 12150 net.cpp:157] Top shape: 256 4096 (1048576)
I0817 09:23:56.789050 12150 net.cpp:165] Memory required for data: 636978176
I0817 09:23:56.789065 12150 layer_factory.hpp:77] Creating layer relu6
I0817 09:23:56.789083 12150 net.cpp:100] Creating Layer relu6
I0817 09:23:56.789088 12150 net.cpp:434] relu6 <- fc6
I0817 09:23:56.789098 12150 net.cpp:395] relu6 -> fc6 (in-place)
I0817 09:23:56.789701 12150 net.cpp:150] Setting up relu6
I0817 09:23:56.789717 12150 net.cpp:157] Top shape: 256 4096 (1048576)
I0817 09:23:56.789721 12150 net.cpp:165] Memory required for data: 641172480
I0817 09:23:56.789724 12150 layer_factory.hpp:77] Creating layer drop6
I0817 09:23:56.789734 12150 net.cpp:100] Creating Layer drop6
I0817 09:23:56.789738 12150 net.cpp:434] drop6 <- fc6
I0817 09:23:56.789746 12150 net.cpp:395] drop6 -> fc6 (in-place)
I0817 09:23:56.789775 12150 net.cpp:150] Setting up drop6
I0817 09:23:56.789783 12150 net.cpp:157] Top shape: 256 4096 (1048576)
I0817 09:23:56.789786 12150 net.cpp:165] Memory required for data: 645366784
I0817 09:23:56.789789 12150 layer_factory.hpp:77] Creating layer fc7
I0817 09:23:56.789806 12150 net.cpp:100] Creating Layer fc7
I0817 09:23:56.789813 12150 net.cpp:434] fc7 <- fc6
I0817 09:23:56.789822 12150 net.cpp:408] fc7 -> fc7
I0817 09:23:57.021102 12150 net.cpp:150] Setting up fc7
I0817 09:23:57.021154 12150 net.cpp:157] Top shape: 256 4096 (1048576)
I0817 09:23:57.021159 12150 net.cpp:165] Memory required for data: 649561088
I0817 09:23:57.021174 12150 layer_factory.hpp:77] Creating layer relu7
I0817 09:23:57.021190 12150 net.cpp:100] Creating Layer relu7
I0817 09:23:57.021194 12150 net.cpp:434] relu7 <- fc7
I0817 09:23:57.021206 12150 net.cpp:395] relu7 -> fc7 (in-place)
I0817 09:23:57.021479 12150 net.cpp:150] Setting up relu7
I0817 09:23:57.021493 12150 net.cpp:157] Top shape: 256 4096 (1048576)
I0817 09:23:57.021497 12150 net.cpp:165] Memory required for data: 653755392
I0817 09:23:57.021500 12150 layer_factory.hpp:77] Creating layer drop7
I0817 09:23:57.021509 12150 net.cpp:100] Creating Layer drop7
I0817 09:23:57.021512 12150 net.cpp:434] drop7 <- fc7
I0817 09:23:57.021518 12150 net.cpp:395] drop7 -> fc7 (in-place)
I0817 09:23:57.021550 12150 net.cpp:150] Setting up drop7
I0817 09:23:57.021560 12150 net.cpp:157] Top shape: 256 4096 (1048576)
I0817 09:23:57.021564 12150 net.cpp:165] Memory required for data: 657949696
I0817 09:23:57.021567 12150 layer_factory.hpp:77] Creating layer fc8
I0817 09:23:57.021577 12150 net.cpp:100] Creating Layer fc8
I0817 09:23:57.021581 12150 net.cpp:434] fc8 <- fc7
I0817 09:23:57.021589 12150 net.cpp:408] fc8 -> fc8
I0817 09:23:57.026875 12150 net.cpp:150] Setting up fc8
I0817 09:23:57.026890 12150 net.cpp:157] Top shape: 256 80 (20480)
I0817 09:23:57.026893 12150 net.cpp:165] Memory required for data: 658031616
I0817 09:23:57.026901 12150 layer_factory.hpp:77] Creating layer loss
I0817 09:23:57.026911 12150 net.cpp:100] Creating Layer loss
I0817 09:23:57.026916 12150 net.cpp:434] loss <- fc8
I0817 09:23:57.026921 12150 net.cpp:434] loss <- label
I0817 09:23:57.026926 12150 net.cpp:408] loss -> loss
I0817 09:23:57.026938 12150 layer_factory.hpp:77] Creating layer loss
…
I0817 09:23:57.027809 12150 solver.cpp:181] Creating test net (#0) specified by net file: nets/coco_all_classes_alex_net/trainval.prototxt
I0817 09:23:57.027854 12150 net.cpp:322] The NetState phase (1) differed from the phase (0) specified by a rule in layer coco
I0817 09:23:57.028053 12150 net.cpp:58] Initializing net from parameters: 
name: "AlexNet"
state {
  phase: TEST
}
layer {
  name: "coco"
  type: "Data"
  top: "data"
  top: "label"
  include {
    phase: TEST
  }
  transform_param {
    scale: 0.00390625
    mean_file: "data/lmdb/coco_color_mean.binaryproto"
  }
  data_param {
    source: "data/lmdb/coco_val_lmdb"
    batch_size: 256
    backend: LMDB
  }
}
layer {
  name: "conv1"
  type: "Convolution"
  bottom: "data"
  top: "conv1"
  param {
    lr_mult: 1
    decay_mult: 1
  }
  param {
    lr_mult: 2
    decay_mult: 0
  }
  convolution_param {
    num_output: 96
    kernel_size: 11
    stride: 4
    weight_filler {
      type: "gaussian"
      std: 0.01
    }
    bias_filler {
      type: "constant"
      value: 0
    }
  }
}
layer {
  name: "relu1"
  type: "ReLU"
  bottom: "conv1"
  top: "conv1"
}
layer {
  name: "norm1"
  type: "LRN"
  bottom: "conv1"
  top: "norm1"
  lrn_param {
    local_size: 5
    alpha: 0.0001
    beta: 0.75
  }
}
layer {
  name: "pool1"
  type: "Pooling"
  bottom: "norm1"
  top: "pool1"
  pooling_param {
    pool: MAX
    kernel_size: 3
    stride: 2
  }
}
layer {
  name: "conv2"
  type: "Convolution"
  bottom: "pool1"
  top: "conv2"
  param {
    lr_mult: 1
    decay_mult: 1
  }
  param {
    lr_mult: 2
    decay_mult: 0
  }
  convolution_param {
    num_output: 256
    pad: 2
    kernel_size: 5
    group: 2
    weight_filler {
      type: "gaussian"
      std: 0.01
    }
    bias_filler {
      type: "constant"
      value: 0.1
    }
  }
}
layer {
  name: "relu2"
  type: "ReLU"
  bottom: "conv2"
  top: "conv2"
}
layer {
  name: "norm2"
  type: "LRN"
  bottom: "conv2"
  top: "norm2"
  lrn_param {
    local_size: 5
    alpha: 0.0001
    beta: 0.75
  }
}
layer {
  name: "pool2"
  type: "Pooling"
  bottom: "norm2"
  top: "pool2"
  pooling_param {
    pool: MAX
    kernel_size: 3
    stride: 2
  }
}
layer {
  name: "conv3"
  type: "Convolution"
  bottom: "pool2"
  top: "conv3"
  param {
    lr_mult: 1
    decay_mult: 1
  }
  param {
    lr_mult: 2
    decay_mult: 0
  }
  convolution_param {
    num_output: 384
    pad: 1
    kernel_size: 3
    weight_filler {
      type: "gaussian"
      std: 0.01
    }
    bias_filler {
      type: "constant"
      value: 0
    }
  }
}
layer {
  name: "relu3"
  type: "ReLU"
  bottom: "conv3"
  top: "conv3"
}
layer {
  name: "conv4"
  type: "Convolution"
  bottom: "conv3"
  top: "conv4"
  param {
    lr_mult: 1
    decay_mult: 1
  }
  param {
    lr_mult: 2
    decay_mult: 0
  }
  convolution_param {
    num_output: 384
    pad: 1
    kernel_size: 3
    group: 2
    weight_filler {
      type: "gaussian"
      std: 0.01
    }
    bias_filler {
      type: "constant"
      value: 0.1
    }
  }
}
layer {
  name: "relu4"
  type: "ReLU"
  bottom: "conv4"
  top: "conv4"
}
layer {
  name: "conv5"
  type: "Convolution"
  bottom: "conv4"
  top: "conv5"
  param {
    lr_mult: 1
    decay_mult: 1
  }
  param {
    lr_mult: 2
    decay_mult: 0
  }
  convolution_param {
    num_output: 256
    pad: 1
    kernel_size: 3
    group: 2
    weight_filler {
      type: "gaussian"
      std: 0.01
    }
    bias_filler {
      type: "constant"
      value: 0.1
    }
  }
}
layer {
  name: "relu5"
  type: "ReLU"
  bottom: "conv5"
  top: "conv5"
}
layer {
  name: "pool5"
  type: "Pooling"
  bottom: "conv5"
  top: "pool5"
  pooling_param {
    pool: MAX
    kernel_size: 3
    stride: 2
  }
}
layer {
  name: "fc6"
  type: "InnerProduct"
  bottom: "pool5"
  top: "fc6"
  param {
    lr_mult: 1
    decay_mult: 1
  }
  param {
    lr_mult: 2
    decay_mult: 0
  }
  inner_product_param {
    num_output: 4096
    weight_filler {
      type: "gaussian"
      std: 0.005
    }
    bias_filler {
      type: "constant"
      value: 0.1
    }
  }
}
layer {
  name: "relu6"
  type: "ReLU"
  bottom: "fc6"
  top: "fc6"
}
layer {
  name: "drop6"
  type: "Dropout"
  bottom: "fc6"
  top: "fc6"
  dropout_param {
    dropout_ratio: 0.5
  }
}
layer {
  name: "fc7"
  type: "InnerProduct"
  bottom: "fc6"
  top: "fc7"
  param {
    lr_mult: 1
    decay_mult: 1
  }
  param {
    lr_mult: 2
    decay_mult: 0
  }
  inner_product_param {
    num_output: 4096
    weight_filler {
      type: "gaussian"
      std: 0.005
    }
    bias_filler {
      type: "constant"
      value: 0.1
    }
  }
}
layer {
  name: "relu7"
  type: "ReLU"
  bottom: "fc7"
  top: "fc7"
}
layer {
  name: "drop7"
  type: "Dropout"
  bottom: "fc7"
  top: "fc7"
  dropout_param {
    dropout_ratio: 0.5
  }
}
layer {
  name: "fc8"
  type: "InnerProduct"
  bottom: "fc7"
  top: "fc8"
  param {
    lr_mult: 1
    decay_mult: 1
  }
  param {
    lr_mult: 2
    decay_mult: 0
  }
  inner_product_param {
    num_output: 80
    weight_filler {
      type: "gaussian"
      std: 0.01
    }
    bias_filler {
      type: "constant"
      value: 0
    }
  }
}
layer {
  name: "accuracy"
  type: "Accuracy"
  bottom: "fc8"
  bottom: "label"
  top: "accuracy"
  include {
    phase: TEST
  }
}
layer {
  name: "loss"
  type: "SoftmaxWithLoss"
  bottom: "fc8"
  bottom: "label"
  top: "loss"
}
I0817 09:23:57.028179 12150 layer_factory.hpp:77] Creating layer coco
I0817 09:23:57.028421 12150 net.cpp:100] Creating Layer coco
I0817 09:23:57.028434 12150 net.cpp:408] coco -> data
I0817 09:23:57.028442 12150 net.cpp:408] coco -> label
I0817 09:23:57.028453 12150 data_transformer.cpp:25] Loading mean file from: data/lmdb/coco_color_mean.binaryproto
I0817 09:23:57.029464 12161 db_lmdb.cpp:35] Opened lmdb data/lmdb/coco_val_lmdb
I0817 09:23:57.029774 12150 data_layer.cpp:41] output data size: 256,3,128,128
I0817 09:23:57.163663 12150 net.cpp:150] Setting up coco
I0817 09:23:57.163699 12150 net.cpp:157] Top shape: 256 3 128 128 (12582912)
I0817 09:23:57.163707 12150 net.cpp:157] Top shape: 256 (256)
I0817 09:23:57.163709 12150 net.cpp:165] Memory required for data: 50332672
I0817 09:23:57.163717 12150 layer_factory.hpp:77] Creating layer label_coco_1_split
I0817 09:23:57.163733 12150 net.cpp:100] Creating Layer label_coco_1_split
I0817 09:23:57.163739 12150 net.cpp:434] label_coco_1_split <- label
I0817 09:23:57.163748 12150 net.cpp:408] label_coco_1_split -> label_coco_1_split_0
I0817 09:23:57.163761 12150 net.cpp:408] label_coco_1_split -> label_coco_1_split_1
I0817 09:23:57.163856 12150 net.cpp:150] Setting up label_coco_1_split
I0817 09:23:57.163867 12150 net.cpp:157] Top shape: 256 (256)
I0817 09:23:57.163872 12150 net.cpp:157] Top shape: 256 (256)
I0817 09:23:57.163874 12150 net.cpp:165] Memory required for data: 50334720
I0817 09:23:57.163879 12150 layer_factory.hpp:77] Creating layer conv1
I0817 09:23:57.163897 12150 net.cpp:100] Creating Layer conv1
I0817 09:23:57.163903 12150 net.cpp:434] conv1 <- data
I0817 09:23:57.163926 12150 net.cpp:408] conv1 -> conv1
I0817 09:23:57.171206 12150 net.cpp:150] Setting up conv1
I0817 09:23:57.171241 12150 net.cpp:157] Top shape: 256 96 30 30 (22118400)
I0817 09:23:57.171248 12150 net.cpp:165] Memory required for data: 138808320
I0817 09:23:57.171270 12150 layer_factory.hpp:77] Creating layer relu1
I0817 09:23:57.171285 12150 net.cpp:100] Creating Layer relu1
I0817 09:23:57.171293 12150 net.cpp:434] relu1 <- conv1
I0817 09:23:57.171309 12150 net.cpp:395] relu1 -> conv1 (in-place)
I0817 09:23:57.171653 12150 net.cpp:150] Setting up relu1
I0817 09:23:57.171680 12150 net.cpp:157] Top shape: 256 96 30 30 (22118400)
I0817 09:23:57.171687 12150 net.cpp:165] Memory required for data: 227281920
I0817 09:23:57.171694 12150 layer_factory.hpp:77] Creating layer norm1
I0817 09:23:57.171710 12150 net.cpp:100] Creating Layer norm1
I0817 09:23:57.171717 12150 net.cpp:434] norm1 <- conv1
I0817 09:23:57.171730 12150 net.cpp:408] norm1 -> norm1
I0817 09:23:57.172688 12150 net.cpp:150] Setting up norm1
I0817 09:23:57.172715 12150 net.cpp:157] Top shape: 256 96 30 30 (22118400)
I0817 09:23:57.172722 12150 net.cpp:165] Memory required for data: 315755520
I0817 09:23:57.172729 12150 layer_factory.hpp:77] Creating layer pool1
I0817 09:23:57.172744 12150 net.cpp:100] Creating Layer pool1
I0817 09:23:57.172751 12150 net.cpp:434] pool1 <- norm1
I0817 09:23:57.172763 12150 net.cpp:408] pool1 -> pool1
I0817 09:23:57.172843 12150 net.cpp:150] Setting up pool1
I0817 09:23:57.172860 12150 net.cpp:157] Top shape: 256 96 15 15 (5529600)
I0817 09:23:57.172866 12150 net.cpp:165] Memory required for data: 337873920
I0817 09:23:57.172873 12150 layer_factory.hpp:77] Creating layer conv2
I0817 09:23:57.172893 12150 net.cpp:100] Creating Layer conv2
I0817 09:23:57.172901 12150 net.cpp:434] conv2 <- pool1
I0817 09:23:57.172914 12150 net.cpp:408] conv2 -> conv2
I0817 09:23:57.184653 12150 net.cpp:150] Setting up conv2
I0817 09:23:57.184685 12150 net.cpp:157] Top shape: 256 256 15 15 (14745600)
I0817 09:23:57.184692 12150 net.cpp:165] Memory required for data: 396856320
I0817 09:23:57.184713 12150 layer_factory.hpp:77] Creating layer relu2
I0817 09:23:57.184728 12150 net.cpp:100] Creating Layer relu2
I0817 09:23:57.184736 12150 net.cpp:434] relu2 <- conv2
I0817 09:23:57.184748 12150 net.cpp:395] relu2 -> conv2 (in-place)
I0817 09:23:57.185606 12150 net.cpp:150] Setting up relu2
I0817 09:23:57.185631 12150 net.cpp:157] Top shape: 256 256 15 15 (14745600)
I0817 09:23:57.185636 12150 net.cpp:165] Memory required for data: 455838720
I0817 09:23:57.185643 12150 layer_factory.hpp:77] Creating layer norm2
I0817 09:23:57.185664 12150 net.cpp:100] Creating Layer norm2
I0817 09:23:57.185672 12150 net.cpp:434] norm2 <- conv2
I0817 09:23:57.185686 12150 net.cpp:408] norm2 -> norm2
I0817 09:23:57.186097 12150 net.cpp:150] Setting up norm2
I0817 09:23:57.186118 12150 net.cpp:157] Top shape: 256 256 15 15 (14745600)
I0817 09:23:57.186125 12150 net.cpp:165] Memory required for data: 514821120
I0817 09:23:57.186138 12150 layer_factory.hpp:77] Creating layer pool2
I0817 09:23:57.186156 12150 net.cpp:100] Creating Layer pool2
I0817 09:23:57.186163 12150 net.cpp:434] pool2 <- norm2
I0817 09:23:57.186173 12150 net.cpp:408] pool2 -> pool2
I0817 09:23:57.186257 12150 net.cpp:150] Setting up pool2
I0817 09:23:57.186272 12150 net.cpp:157] Top shape: 256 256 7 7 (3211264)
I0817 09:23:57.186278 12150 net.cpp:165] Memory required for data: 527666176
I0817 09:23:57.186285 12150 layer_factory.hpp:77] Creating layer conv3
I0817 09:23:57.186305 12150 net.cpp:100] Creating Layer conv3
I0817 09:23:57.186314 12150 net.cpp:434] conv3 <- pool2
I0817 09:23:57.186329 12150 net.cpp:408] conv3 -> conv3
I0817 09:23:57.209203 12150 net.cpp:150] Setting up conv3
I0817 09:23:57.209247 12150 net.cpp:157] Top shape: 256 384 7 7 (4816896)
I0817 09:23:57.209254 12150 net.cpp:165] Memory required for data: 546933760
I0817 09:23:57.209278 12150 layer_factory.hpp:77] Creating layer relu3
I0817 09:23:57.209298 12150 net.cpp:100] Creating Layer relu3
I0817 09:23:57.209308 12150 net.cpp:434] relu3 <- conv3
I0817 09:23:57.209321 12150 net.cpp:395] relu3 -> conv3 (in-place)
I0817 09:23:57.209659 12150 net.cpp:150] Setting up relu3
I0817 09:23:57.209679 12150 net.cpp:157] Top shape: 256 384 7 7 (4816896)
I0817 09:23:57.209684 12150 net.cpp:165] Memory required for data: 566201344
I0817 09:23:57.209691 12150 layer_factory.hpp:77] Creating layer conv4
I0817 09:23:57.209712 12150 net.cpp:100] Creating Layer conv4
I0817 09:23:57.209719 12150 net.cpp:434] conv4 <- conv3
I0817 09:23:57.209730 12150 net.cpp:408] conv4 -> conv4
I0817 09:23:57.231163 12150 net.cpp:150] Setting up conv4
I0817 09:23:57.231207 12150 net.cpp:157] Top shape: 256 384 7 7 (4816896)
I0817 09:23:57.231215 12150 net.cpp:165] Memory required for data: 585468928
I0817 09:23:57.231235 12150 layer_factory.hpp:77] Creating layer relu4
I0817 09:23:57.231252 12150 net.cpp:100] Creating Layer relu4
I0817 09:23:57.231261 12150 net.cpp:434] relu4 <- conv4
I0817 09:23:57.231271 12150 net.cpp:395] relu4 -> conv4 (in-place)
I0817 09:23:57.232019 12150 net.cpp:150] Setting up relu4
I0817 09:23:57.232041 12150 net.cpp:157] Top shape: 256 384 7 7 (4816896)
I0817 09:23:57.232048 12150 net.cpp:165] Memory required for data: 604736512
I0817 09:23:57.232053 12150 layer_factory.hpp:77] Creating layer conv5
I0817 09:23:57.232074 12150 net.cpp:100] Creating Layer conv5
I0817 09:23:57.232080 12150 net.cpp:434] conv5 <- conv4
I0817 09:23:57.232094 12150 net.cpp:408] conv5 -> conv5
I0817 09:23:57.243983 12150 net.cpp:150] Setting up conv5
I0817 09:23:57.244022 12150 net.cpp:157] Top shape: 256 256 7 7 (3211264)
I0817 09:23:57.244027 12150 net.cpp:165] Memory required for data: 617581568
I0817 09:23:57.244052 12150 layer_factory.hpp:77] Creating layer relu5
I0817 09:23:57.244068 12150 net.cpp:100] Creating Layer relu5
I0817 09:23:57.244074 12150 net.cpp:434] relu5 <- conv5
I0817 09:23:57.244084 12150 net.cpp:395] relu5 -> conv5 (in-place)
I0817 09:23:57.244366 12150 net.cpp:150] Setting up relu5
I0817 09:23:57.244381 12150 net.cpp:157] Top shape: 256 256 7 7 (3211264)
I0817 09:23:57.244386 12150 net.cpp:165] Memory required for data: 630426624
I0817 09:23:57.244390 12150 layer_factory.hpp:77] Creating layer pool5
I0817 09:23:57.244407 12150 net.cpp:100] Creating Layer pool5
I0817 09:23:57.244413 12150 net.cpp:434] pool5 <- conv5
I0817 09:23:57.244421 12150 net.cpp:408] pool5 -> pool5
I0817 09:23:57.244499 12150 net.cpp:150] Setting up pool5
I0817 09:23:57.244511 12150 net.cpp:157] Top shape: 256 256 3 3 (589824)
I0817 09:23:57.244515 12150 net.cpp:165] Memory required for data: 632785920
I0817 09:23:57.244520 12150 layer_factory.hpp:77] Creating layer fc6
I0817 09:23:57.244536 12150 net.cpp:100] Creating Layer fc6
I0817 09:23:57.244540 12150 net.cpp:434] fc6 <- pool5
I0817 09:23:57.244552 12150 net.cpp:408] fc6 -> fc6
I0817 09:23:57.381952 12150 net.cpp:150] Setting up fc6
I0817 09:23:57.381999 12150 net.cpp:157] Top shape: 256 4096 (1048576)
I0817 09:23:57.382004 12150 net.cpp:165] Memory required for data: 636980224
I0817 09:23:57.382019 12150 layer_factory.hpp:77] Creating layer relu6
I0817 09:23:57.382035 12150 net.cpp:100] Creating Layer relu6
I0817 09:23:57.382040 12150 net.cpp:434] relu6 <- fc6
I0817 09:23:57.382048 12150 net.cpp:395] relu6 -> fc6 (in-place)
I0817 09:23:57.382342 12150 net.cpp:150] Setting up relu6
I0817 09:23:57.382355 12150 net.cpp:157] Top shape: 256 4096 (1048576)
I0817 09:23:57.382359 12150 net.cpp:165] Memory required for data: 641174528
I0817 09:23:57.382362 12150 layer_factory.hpp:77] Creating layer drop6
I0817 09:23:57.382371 12150 net.cpp:100] Creating Layer drop6
I0817 09:23:57.382375 12150 net.cpp:434] drop6 <- fc6
I0817 09:23:57.382382 12150 net.cpp:395] drop6 -> fc6 (in-place)
I0817 09:23:57.382412 12150 net.cpp:150] Setting up drop6
I0817 09:23:57.382421 12150 net.cpp:157] Top shape: 256 4096 (1048576)
I0817 09:23:57.382424 12150 net.cpp:165] Memory required for data: 645368832
I0817 09:23:57.382428 12150 layer_factory.hpp:77] Creating layer fc7
I0817 09:23:57.382441 12150 net.cpp:100] Creating Layer fc7
I0817 09:23:57.382444 12150 net.cpp:434] fc7 <- fc6
I0817 09:23:57.382454 12150 net.cpp:408] fc7 -> fc7
I0817 09:23:57.614194 12150 net.cpp:150] Setting up fc7
I0817 09:23:57.614250 12150 net.cpp:157] Top shape: 256 4096 (1048576)
I0817 09:23:57.614254 12150 net.cpp:165] Memory required for data: 649563136
I0817 09:23:57.614269 12150 layer_factory.hpp:77] Creating layer relu7
I0817 09:23:57.614284 12150 net.cpp:100] Creating Layer relu7
I0817 09:23:57.614289 12150 net.cpp:434] relu7 <- fc7
I0817 09:23:57.614298 12150 net.cpp:395] relu7 -> fc7 (in-place)
I0817 09:23:57.615088 12150 net.cpp:150] Setting up relu7
I0817 09:23:57.615104 12150 net.cpp:157] Top shape: 256 4096 (1048576)
I0817 09:23:57.615108 12150 net.cpp:165] Memory required for data: 653757440
I0817 09:23:57.615113 12150 layer_factory.hpp:77] Creating layer drop7
I0817 09:23:57.615123 12150 net.cpp:100] Creating Layer drop7
I0817 09:23:57.615126 12150 net.cpp:434] drop7 <- fc7
I0817 09:23:57.615135 12150 net.cpp:395] drop7 -> fc7 (in-place)
I0817 09:23:57.615167 12150 net.cpp:150] Setting up drop7
I0817 09:23:57.615176 12150 net.cpp:157] Top shape: 256 4096 (1048576)
I0817 09:23:57.615180 12150 net.cpp:165] Memory required for data: 657951744
I0817 09:23:57.615183 12150 layer_factory.hpp:77] Creating layer fc8
I0817 09:23:57.615196 12150 net.cpp:100] Creating Layer fc8
I0817 09:23:57.615200 12150 net.cpp:434] fc8 <- fc7
I0817 09:23:57.615207 12150 net.cpp:408] fc8 -> fc8
I0817 09:23:57.620404 12150 net.cpp:150] Setting up fc8
I0817 09:23:57.620420 12150 net.cpp:157] Top shape: 256 80 (20480)
I0817 09:23:57.620424 12150 net.cpp:165] Memory required for data: 658033664
I0817 09:23:57.620431 12150 layer_factory.hpp:77] Creating layer fc8_fc8_0_split
I0817 09:23:57.620440 12150 net.cpp:100] Creating Layer fc8_fc8_0_split
I0817 09:23:57.620443 12150 net.cpp:434] fc8_fc8_0_split <- fc8
I0817 09:23:57.620452 12150 net.cpp:408] fc8_fc8_0_split -> fc8_fc8_0_split_0
I0817 09:23:57.620461 12150 net.cpp:408] fc8_fc8_0_split -> fc8_fc8_0_split_1
I0817 09:23:57.620503 12150 net.cpp:150] Setting up fc8_fc8_0_split
I0817 09:23:57.620512 12150 net.cpp:157] Top shape: 256 80 (20480)
I0817 09:23:57.620517 12150 net.cpp:157] Top shape: 256 80 (20480)
I0817 09:23:57.620518 12150 net.cpp:165] Memory required for data: 658197504
I0817 09:23:57.620522 12150 layer_factory.hpp:77] Creating layer accuracy
I0817 09:23:57.620534 12150 net.cpp:100] Creating Layer accuracy
I0817 09:23:57.620539 12150 net.cpp:434] accuracy <- fc8_fc8_0_split_0
I0817 09:23:57.620544 12150 net.cpp:434] accuracy <- label_coco_1_split_0
I0817 09:23:57.620550 12150 net.cpp:408] accuracy -> accuracy
…
