…
I0814 21:53:54.038799 13613 net.cpp:322] The NetState phase (0) differed from the phase (1) specified by a rule in layer accuracy
I0814 21:53:54.038866 13613 net.cpp:58] Initializing net from parameters: 
name: "LeNet"
state {
  phase: TRAIN
}
layer {
  name: "mnist"
  type: "Data"
  top: "data"
  top: "label"
  include {
    phase: TRAIN
  }
  transform_param {
    scale: 0.00390625
    mirror: true
    mean_file: "data/person_only_lmdb/person_background_only_color_mean.binaryproto"
  }
  data_param {
    source: "data/person_only_lmdb/person_background_only_train_lmdb"
    batch_size: 64
    backend: LMDB
  }
}
layer {
  name: "conv1"
  type: "Convolution"
  bottom: "data"
  top: "conv1"
  param {
    lr_mult: 1
  }
  param {
    lr_mult: 2
  }
  convolution_param {
    num_output: 96
    kernel_size: 5
    stride: 1
    weight_filler {
      type: "xavier"
    }
    bias_filler {
      type: "constant"
    }
  }
}
layer {
  name: "pool1"
  type: "Pooling"
  bottom: "conv1"
  top: "pool1"
  pooling_param {
    pool: MAX
    kernel_size: 2
    stride: 2
  }
}
layer {
  name: "conv2"
  type: "Convolution"
  bottom: "pool1"
  top: "conv2"
  param {
    lr_mult: 1
  }
  param {
    lr_mult: 2
  }
  convolution_param {
    num_output: 50
    kernel_size: 5
    stride: 1
    weight_filler {
      type: "xavier"
    }
    bias_filler {
      type: "constant"
    }
  }
}
layer {
  name: "pool2"
  type: "Pooling"
  bottom: "conv2"
  top: "pool2"
  pooling_param {
    pool: MAX
    kernel_size: 2
    stride: 2
  }
}
layer {
  name: "ip1"
  type: "InnerProduct"
  bottom: "pool2"
  top: "ip1"
  param {
    lr_mult: 1
  }
  param {
    lr_mult: 2
  }
  inner_product_param {
    num_output: 500
    weight_filler {
      type: "xavier"
    }
    bias_filler {
      type: "constant"
    }
  }
}
layer {
  name: "relu1"
  type: "ReLU"
  bottom: "ip1"
  top: "ip1"
}
layer {
  name: "ip2"
  type: "InnerProduct"
  bottom: "ip1"
  top: "ip2"
  param {
    lr_mult: 1
  }
  param {
    lr_mult: 2
  }
  inner_product_param {
    num_output: 2
    weight_filler {
      type: "xavier"
    }
    bias_filler {
      type: "constant"
    }
  }
}
layer {
  name: "loss"
  type: "SoftmaxWithLoss"
  bottom: "ip2"
  bottom: "label"
  top: "loss"
}
I0814 21:53:54.038911 13613 layer_factory.hpp:77] Creating layer mnist
I0814 21:53:54.040922 13613 net.cpp:100] Creating Layer mnist
I0814 21:53:54.040940 13613 net.cpp:408] mnist -> data
I0814 21:53:54.040961 13613 net.cpp:408] mnist -> label
I0814 21:53:54.040971 13613 data_transformer.cpp:25] Loading mean file from: data/person_only_lmdb/person_background_only_color_mean.binaryproto
I0814 21:53:54.042512 13622 db_lmdb.cpp:35] Opened lmdb data/person_only_lmdb/person_background_only_train_lmdb
I0814 21:53:54.075510 13613 data_layer.cpp:41] output data size: 64,3,128,128
I0814 21:53:54.109740 13613 net.cpp:150] Setting up mnist
I0814 21:53:54.109789 13613 net.cpp:157] Top shape: 64 3 128 128 (3145728)
I0814 21:53:54.109797 13613 net.cpp:157] Top shape: 64 (64)
I0814 21:53:54.109802 13613 net.cpp:165] Memory required for data: 12583168
I0814 21:53:54.109812 13613 layer_factory.hpp:77] Creating layer conv1
I0814 21:53:54.109844 13613 net.cpp:100] Creating Layer conv1
I0814 21:53:54.109851 13613 net.cpp:434] conv1 <- data
I0814 21:53:54.109865 13613 net.cpp:408] conv1 -> conv1
I0814 21:53:54.411772 13613 net.cpp:150] Setting up conv1
I0814 21:53:54.411808 13613 net.cpp:157] Top shape: 64 96 124 124 (94470144)
I0814 21:53:54.411813 13613 net.cpp:165] Memory required for data: 390463744
I0814 21:53:54.411829 13613 layer_factory.hpp:77] Creating layer pool1
I0814 21:53:54.411845 13613 net.cpp:100] Creating Layer pool1
I0814 21:53:54.411849 13613 net.cpp:434] pool1 <- conv1
I0814 21:53:54.411855 13613 net.cpp:408] pool1 -> pool1
I0814 21:53:54.411906 13613 net.cpp:150] Setting up pool1
I0814 21:53:54.411923 13613 net.cpp:157] Top shape: 64 96 62 62 (23617536)
I0814 21:53:54.411931 13613 net.cpp:165] Memory required for data: 484933888
I0814 21:53:54.411933 13613 layer_factory.hpp:77] Creating layer conv2
I0814 21:53:54.411947 13613 net.cpp:100] Creating Layer conv2
I0814 21:53:54.411952 13613 net.cpp:434] conv2 <- pool1
I0814 21:53:54.411958 13613 net.cpp:408] conv2 -> conv2
I0814 21:53:54.416154 13613 net.cpp:150] Setting up conv2
I0814 21:53:54.416172 13613 net.cpp:157] Top shape: 64 50 58 58 (10764800)
I0814 21:53:54.416175 13613 net.cpp:165] Memory required for data: 527993088
I0814 21:53:54.416184 13613 layer_factory.hpp:77] Creating layer pool2
I0814 21:53:54.416193 13613 net.cpp:100] Creating Layer pool2
I0814 21:53:54.416195 13613 net.cpp:434] pool2 <- conv2
I0814 21:53:54.416201 13613 net.cpp:408] pool2 -> pool2
I0814 21:53:54.416244 13613 net.cpp:150] Setting up pool2
I0814 21:53:54.416254 13613 net.cpp:157] Top shape: 64 50 29 29 (2691200)
I0814 21:53:54.416256 13613 net.cpp:165] Memory required for data: 538757888
I0814 21:53:54.416260 13613 layer_factory.hpp:77] Creating layer ip1
I0814 21:53:54.416268 13613 net.cpp:100] Creating Layer ip1
I0814 21:53:54.416272 13613 net.cpp:434] ip1 <- pool2
I0814 21:53:54.416277 13613 net.cpp:408] ip1 -> ip1
I0814 21:53:54.596446 13613 net.cpp:150] Setting up ip1
I0814 21:53:54.596478 13613 net.cpp:157] Top shape: 64 500 (32000)
I0814 21:53:54.596482 13613 net.cpp:165] Memory required for data: 538885888
I0814 21:53:54.596503 13613 layer_factory.hpp:77] Creating layer relu1
I0814 21:53:54.596516 13613 net.cpp:100] Creating Layer relu1
I0814 21:53:54.596521 13613 net.cpp:434] relu1 <- ip1
I0814 21:53:54.596529 13613 net.cpp:395] relu1 -> ip1 (in-place)
I0814 21:53:54.596801 13613 net.cpp:150] Setting up relu1
I0814 21:53:54.596810 13613 net.cpp:157] Top shape: 64 500 (32000)
I0814 21:53:54.596814 13613 net.cpp:165] Memory required for data: 539013888
I0814 21:53:54.596817 13613 layer_factory.hpp:77] Creating layer ip2
I0814 21:53:54.596827 13613 net.cpp:100] Creating Layer ip2
I0814 21:53:54.596830 13613 net.cpp:434] ip2 <- ip1
I0814 21:53:54.596837 13613 net.cpp:408] ip2 -> ip2
I0814 21:53:54.596969 13613 net.cpp:150] Setting up ip2
I0814 21:53:54.596978 13613 net.cpp:157] Top shape: 64 2 (128)
I0814 21:53:54.596982 13613 net.cpp:165] Memory required for data: 539014400
I0814 21:53:54.596987 13613 layer_factory.hpp:77] Creating layer loss
I0814 21:53:54.596997 13613 net.cpp:100] Creating Layer loss
I0814 21:53:54.597002 13613 net.cpp:434] loss <- ip2
I0814 21:53:54.597007 13613 net.cpp:434] loss <- label
I0814 21:53:54.597012 13613 net.cpp:408] loss -> loss
I0814 21:53:54.597023 13613 layer_factory.hpp:77] Creating layer loss
…
I0814 21:53:54.597935 13613 net.cpp:322] The NetState phase (1) differed from the phase (0) specified by a rule in layer mnist
I0814 21:53:54.598033 13613 net.cpp:58] Initializing net from parameters: 
name: "LeNet"
state {
  phase: TEST
}
layer {
  name: "mnist"
  type: "Data"
  top: "data"
  top: "label"
  include {
    phase: TEST
  }
  transform_param {
    scale: 0.00390625
    mean_file: "data/person_only_lmdb/person_background_only_color_mean.binaryproto"
  }
  data_param {
    source: "data/person_only_lmdb/person_background_only_test_lmdb"
    batch_size: 100
    backend: LMDB
  }
}
layer {
  name: "conv1"
  type: "Convolution"
  bottom: "data"
  top: "conv1"
  param {
    lr_mult: 1
  }
  param {
    lr_mult: 2
  }
  convolution_param {
    num_output: 96
    kernel_size: 5
    stride: 1
    weight_filler {
      type: "xavier"
    }
    bias_filler {
      type: "constant"
    }
  }
}
layer {
  name: "pool1"
  type: "Pooling"
  bottom: "conv1"
  top: "pool1"
  pooling_param {
    pool: MAX
    kernel_size: 2
    stride: 2
  }
}
layer {
  name: "conv2"
  type: "Convolution"
  bottom: "pool1"
  top: "conv2"
  param {
    lr_mult: 1
  }
  param {
    lr_mult: 2
  }
  convolution_param {
    num_output: 50
    kernel_size: 5
    stride: 1
    weight_filler {
      type: "xavier"
    }
    bias_filler {
      type: "constant"
    }
  }
}
layer {
  name: "pool2"
  type: "Pooling"
  bottom: "conv2"
  top: "pool2"
  pooling_param {
    pool: MAX
    kernel_size: 2
    stride: 2
  }
}
layer {
  name: "ip1"
  type: "InnerProduct"
  bottom: "pool2"
  top: "ip1"
  param {
    lr_mult: 1
  }
  param {
    lr_mult: 2
  }
  inner_product_param {
    num_output: 500
    weight_filler {
      type: "xavier"
    }
    bias_filler {
      type: "constant"
    }
  }
}
layer {
  name: "relu1"
  type: "ReLU"
  bottom: "ip1"
  top: "ip1"
}
layer {
  name: "ip2"
  type: "InnerProduct"
  bottom: "ip1"
  top: "ip2"
  param {
    lr_mult: 1
  }
  param {
    lr_mult: 2
  }
  inner_product_param {
    num_output: 2
    weight_filler {
      type: "xavier"
    }
    bias_filler {
      type: "constant"
    }
  }
}
layer {
  name: "accuracy"
  type: "Accuracy"
  bottom: "ip2"
  bottom: "label"
  top: "accuracy"
  include {
    phase: TEST
  }
}
layer {
  name: "loss"
  type: "SoftmaxWithLoss"
  bottom: "ip2"
  bottom: "label"
  top: "loss"
}
I0814 21:53:54.598105 13613 layer_factory.hpp:77] Creating layer mnist
I0814 21:53:54.598243 13613 net.cpp:100] Creating Layer mnist
I0814 21:53:54.598253 13613 net.cpp:408] mnist -> data
I0814 21:53:54.598263 13613 net.cpp:408] mnist -> label
I0814 21:53:54.598270 13613 data_transformer.cpp:25] Loading mean file from: data/person_only_lmdb/person_background_only_color_mean.binaryproto
I0814 21:53:54.599759 13624 db_lmdb.cpp:35] Opened lmdb data/person_only_lmdb/person_background_only_test_lmdb
I0814 21:53:54.600131 13613 data_layer.cpp:41] output data size: 100,3,128,128
I0814 21:53:54.661455 13613 net.cpp:150] Setting up mnist
I0814 21:53:54.661495 13613 net.cpp:157] Top shape: 100 3 128 128 (4915200)
I0814 21:53:54.661504 13613 net.cpp:157] Top shape: 100 (100)
I0814 21:53:54.661509 13613 net.cpp:165] Memory required for data: 19661200
I0814 21:53:54.661519 13613 layer_factory.hpp:77] Creating layer label_mnist_1_split
I0814 21:53:54.661538 13613 net.cpp:100] Creating Layer label_mnist_1_split
I0814 21:53:54.661545 13613 net.cpp:434] label_mnist_1_split <- label
I0814 21:53:54.661563 13613 net.cpp:408] label_mnist_1_split -> label_mnist_1_split_0
I0814 21:53:54.661582 13613 net.cpp:408] label_mnist_1_split -> label_mnist_1_split_1
I0814 21:53:54.661816 13613 net.cpp:150] Setting up label_mnist_1_split
I0814 21:53:54.661847 13613 net.cpp:157] Top shape: 100 (100)
I0814 21:53:54.661856 13613 net.cpp:157] Top shape: 100 (100)
I0814 21:53:54.661861 13613 net.cpp:165] Memory required for data: 19662000
I0814 21:53:54.661870 13613 layer_factory.hpp:77] Creating layer conv1
I0814 21:53:54.661891 13613 net.cpp:100] Creating Layer conv1
I0814 21:53:54.661900 13613 net.cpp:434] conv1 <- data
I0814 21:53:54.661922 13613 net.cpp:408] conv1 -> conv1
I0814 21:53:54.668088 13613 net.cpp:150] Setting up conv1
I0814 21:53:54.668124 13613 net.cpp:157] Top shape: 100 96 124 124 (147609600)
I0814 21:53:54.668133 13613 net.cpp:165] Memory required for data: 610100400
I0814 21:53:54.668154 13613 layer_factory.hpp:77] Creating layer pool1
I0814 21:53:54.668170 13613 net.cpp:100] Creating Layer pool1
I0814 21:53:54.668179 13613 net.cpp:434] pool1 <- conv1
I0814 21:53:54.668190 13613 net.cpp:408] pool1 -> pool1
I0814 21:53:54.668275 13613 net.cpp:150] Setting up pool1
I0814 21:53:54.668290 13613 net.cpp:157] Top shape: 100 96 62 62 (36902400)
I0814 21:53:54.668297 13613 net.cpp:165] Memory required for data: 757710000
I0814 21:53:54.668301 13613 layer_factory.hpp:77] Creating layer conv2
I0814 21:53:54.668323 13613 net.cpp:100] Creating Layer conv2
I0814 21:53:54.668331 13613 net.cpp:434] conv2 <- pool1
I0814 21:53:54.668344 13613 net.cpp:408] conv2 -> conv2
I0814 21:53:54.672018 13613 net.cpp:150] Setting up conv2
I0814 21:53:54.672047 13613 net.cpp:157] Top shape: 100 50 58 58 (16820000)
I0814 21:53:54.672055 13613 net.cpp:165] Memory required for data: 824990000
I0814 21:53:54.672071 13613 layer_factory.hpp:77] Creating layer pool2
I0814 21:53:54.672087 13613 net.cpp:100] Creating Layer pool2
I0814 21:53:54.672096 13613 net.cpp:434] pool2 <- conv2
I0814 21:53:54.672108 13613 net.cpp:408] pool2 -> pool2
I0814 21:53:54.672189 13613 net.cpp:150] Setting up pool2
I0814 21:53:54.672204 13613 net.cpp:157] Top shape: 100 50 29 29 (4205000)
I0814 21:53:54.672214 13613 net.cpp:165] Memory required for data: 841810000
I0814 21:53:54.672219 13613 layer_factory.hpp:77] Creating layer ip1
I0814 21:53:54.672231 13613 net.cpp:100] Creating Layer ip1
I0814 21:53:54.672240 13613 net.cpp:434] ip1 <- pool2
I0814 21:53:54.672250 13613 net.cpp:408] ip1 -> ip1
I0814 21:53:54.880298 13613 net.cpp:150] Setting up ip1
I0814 21:53:54.880337 13613 net.cpp:157] Top shape: 100 500 (50000)
I0814 21:53:54.880340 13613 net.cpp:165] Memory required for data: 842010000
I0814 21:53:54.880374 13613 layer_factory.hpp:77] Creating layer relu1
I0814 21:53:54.880416 13613 net.cpp:100] Creating Layer relu1
I0814 21:53:54.880424 13613 net.cpp:434] relu1 <- ip1
I0814 21:53:54.880431 13613 net.cpp:395] relu1 -> ip1 (in-place)
I0814 21:53:54.881300 13613 net.cpp:150] Setting up relu1
I0814 21:53:54.881315 13613 net.cpp:157] Top shape: 100 500 (50000)
I0814 21:53:54.881319 13613 net.cpp:165] Memory required for data: 842210000
I0814 21:53:54.881322 13613 layer_factory.hpp:77] Creating layer ip2
I0814 21:53:54.881350 13613 net.cpp:100] Creating Layer ip2
I0814 21:53:54.881353 13613 net.cpp:434] ip2 <- ip1
I0814 21:53:54.881361 13613 net.cpp:408] ip2 -> ip2
I0814 21:53:54.881508 13613 net.cpp:150] Setting up ip2
I0814 21:53:54.881517 13613 net.cpp:157] Top shape: 100 2 (200)
I0814 21:53:54.881520 13613 net.cpp:165] Memory required for data: 842210800
I0814 21:53:54.881526 13613 layer_factory.hpp:77] Creating layer ip2_ip2_0_split
I0814 21:53:54.881538 13613 net.cpp:100] Creating Layer ip2_ip2_0_split
I0814 21:53:54.881543 13613 net.cpp:434] ip2_ip2_0_split <- ip2
I0814 21:53:54.881551 13613 net.cpp:408] ip2_ip2_0_split -> ip2_ip2_0_split_0
I0814 21:53:54.881557 13613 net.cpp:408] ip2_ip2_0_split -> ip2_ip2_0_split_1
I0814 21:53:54.881597 13613 net.cpp:150] Setting up ip2_ip2_0_split
I0814 21:53:54.881603 13613 net.cpp:157] Top shape: 100 2 (200)
I0814 21:53:54.881608 13613 net.cpp:157] Top shape: 100 2 (200)
I0814 21:53:54.881609 13613 net.cpp:165] Memory required for data: 842212400
I0814 21:53:54.881613 13613 layer_factory.hpp:77] Creating layer accuracy
I0814 21:53:54.881625 13613 net.cpp:100] Creating Layer accuracy
I0814 21:53:54.881630 13613 net.cpp:434] accuracy <- ip2_ip2_0_split_0
I0814 21:53:54.881635 13613 net.cpp:434] accuracy <- label_mnist_1_split_0
I0814 21:53:54.881641 13613 net.cpp:408] accuracy -> accuracy
…
