…
I0709 00:58:26.745908 98801 net.cpp:313] The NetState phase (0) differed from the phase (1) specified by a rule in layer mnist
I0709 00:58:26.745939 98801 net.cpp:313] The NetState phase (0) differed from the phase (1) specified by a rule in layer accuracy
I0709 00:58:26.746062 98801 net.cpp:49] Initializing net from parameters: 
name: "LeNet"
state {
  phase: TRAIN
}
layer {
  name: "mnist"
  type: "Data"
  top: "data"
  top: "label"
  include {
    phase: TRAIN
  }
  transform_param {
    mean_file: "data/lmdb/person_mean.binaryproto"
  }
  data_param {
    source: "data/lmdb/people_train_lmdb"
    batch_size: 64
    backend: LMDB
  }
}
layer {
  name: "conv1"
  type: "Convolution"
  bottom: "data"
  top: "conv1"
  param {
    lr_mult: 1
  }
  param {
    lr_mult: 2
  }
  convolution_param {
    num_output: 20
    kernel_size: 5
    stride: 1
    weight_filler {
      type: "xavier"
    }
    bias_filler {
      type: "constant"
    }
  }
}
layer {
  name: "pool1"
  type: "Pooling"
  bottom: "conv1"
  top: "pool1"
  pooling_param {
    pool: MAX
    kernel_size: 2
    stride: 2
  }
}
layer {
  name: "conv2"
  type: "Convolution"
  bottom: "pool1"
  top: "conv2"
  param {
    lr_mult: 1
  }
  param {
    lr_mult: 2
  }
  convolution_param {
    num_output: 50
    kernel_size: 5
    stride: 1
    weight_filler {
      type: "xavier"
    }
    bias_filler {
      type: "constant"
    }
  }
}
layer {
  name: "pool2"
  type: "Pooling"
  bottom: "conv2"
  top: "pool2"
  pooling_param {
    pool: MAX
    kernel_size: 2
    stride: 2
  }
}
layer {
  name: "ip1"
  type: "InnerProduct"
  bottom: "pool2"
  top: "ip1"
  param {
    lr_mult: 1
  }
  param {
    lr_mult: 2
  }
  inner_product_param {
    num_output: 500
    weight_filler {
      type: "xavier"
    }
    bias_filler {
      type: "constant"
    }
  }
}
layer {
  name: "relu1"
  type: "ReLU"
  bottom: "ip1"
  top: "ip1"
}
layer {
  name: "ip2"
  type: "InnerProduct"
  bottom: "ip1"
  top: "ip2"
  param {
    lr_mult: 1
  }
  param {
    lr_mult: 2
  }
  inner_product_param {
    num_output: 2
    weight_filler {
      type: "xavier"
    }
    bias_filler {
      type: "constant"
    }
  }
}
layer {
  name: "loss"
  type: "SoftmaxWithLoss"
  bottom: "ip2"
  bottom: "label"
  top: "loss"
}
I0709 00:58:26.746141 98801 layer_factory.hpp:77] Creating layer mnist
I0709 00:58:26.747436 98801 net.cpp:91] Creating Layer mnist
I0709 00:58:26.747462 98801 net.cpp:399] mnist -> data
I0709 00:58:26.747483 98801 net.cpp:399] mnist -> label
I0709 00:58:26.747498 98801 data_transformer.cpp:25] Loading mean file from: data/lmdb/person_mean.binaryproto
I0709 00:58:26.748699 98807 db_lmdb.cpp:35] Opened lmdb data/lmdb/people_train_lmdb
I0709 01:01:34.644426 98801 data_layer.cpp:41] output data size: 64,3,256,256
I0709 01:01:34.767671 98801 net.cpp:141] Setting up mnist
I0709 01:01:34.767727 98801 net.cpp:148] Top shape: 64 3 256 256 (12582912)
I0709 01:01:34.767734 98801 net.cpp:148] Top shape: 64 (64)
I0709 01:01:34.767737 98801 net.cpp:156] Memory required for data: 50331904
I0709 01:01:34.767745 98801 layer_factory.hpp:77] Creating layer conv1
I0709 01:01:34.767794 98801 net.cpp:91] Creating Layer conv1
I0709 01:01:34.767799 98801 net.cpp:425] conv1 <- data
I0709 01:01:34.767818 98801 net.cpp:399] conv1 -> conv1
I0709 01:01:37.589967 98801 net.cpp:141] Setting up conv1
I0709 01:01:37.590006 98801 net.cpp:148] Top shape: 64 20 252 252 (81285120)
I0709 01:01:37.590015 98801 net.cpp:156] Memory required for data: 375472384
I0709 01:01:37.590044 98801 layer_factory.hpp:77] Creating layer pool1
I0709 01:01:37.590080 98801 net.cpp:91] Creating Layer pool1
I0709 01:01:37.590087 98801 net.cpp:425] pool1 <- conv1
I0709 01:01:37.590095 98801 net.cpp:399] pool1 -> pool1
I0709 01:01:37.590162 98801 net.cpp:141] Setting up pool1
I0709 01:01:37.590170 98801 net.cpp:148] Top shape: 64 20 126 126 (20321280)
I0709 01:01:37.590174 98801 net.cpp:156] Memory required for data: 456757504
I0709 01:01:37.590178 98801 layer_factory.hpp:77] Creating layer conv2
I0709 01:01:37.590193 98801 net.cpp:91] Creating Layer conv2
I0709 01:01:37.590196 98801 net.cpp:425] conv2 <- pool1
I0709 01:01:37.590203 98801 net.cpp:399] conv2 -> conv2
I0709 01:01:37.593443 98801 net.cpp:141] Setting up conv2
I0709 01:01:37.593464 98801 net.cpp:148] Top shape: 64 50 122 122 (47628800)
I0709 01:01:37.593469 98801 net.cpp:156] Memory required for data: 647272704
I0709 01:01:37.593482 98801 layer_factory.hpp:77] Creating layer pool2
I0709 01:01:37.593490 98801 net.cpp:91] Creating Layer pool2
I0709 01:01:37.593495 98801 net.cpp:425] pool2 <- conv2
I0709 01:01:37.593502 98801 net.cpp:399] pool2 -> pool2
I0709 01:01:37.593572 98801 net.cpp:141] Setting up pool2
I0709 01:01:37.593582 98801 net.cpp:148] Top shape: 64 50 61 61 (11907200)
I0709 01:01:37.593586 98801 net.cpp:156] Memory required for data: 694901504
I0709 01:01:37.593590 98801 layer_factory.hpp:77] Creating layer ip1
I0709 01:01:37.593605 98801 net.cpp:91] Creating Layer ip1
I0709 01:01:37.593611 98801 net.cpp:425] ip1 <- pool2
I0709 01:01:37.593617 98801 net.cpp:399] ip1 -> ip1
I0709 01:01:38.260354 98801 net.cpp:141] Setting up ip1
I0709 01:01:38.260390 98801 net.cpp:148] Top shape: 64 500 (32000)
I0709 01:01:38.260393 98801 net.cpp:156] Memory required for data: 695029504
I0709 01:01:38.260409 98801 layer_factory.hpp:77] Creating layer relu1
I0709 01:01:38.260424 98801 net.cpp:91] Creating Layer relu1
I0709 01:01:38.260429 98801 net.cpp:425] relu1 <- ip1
I0709 01:01:38.260434 98801 net.cpp:386] relu1 -> ip1 (in-place)
I0709 01:01:38.260782 98801 net.cpp:141] Setting up relu1
I0709 01:01:38.260794 98801 net.cpp:148] Top shape: 64 500 (32000)
I0709 01:01:38.260808 98801 net.cpp:156] Memory required for data: 695157504
I0709 01:01:38.260812 98801 layer_factory.hpp:77] Creating layer ip2
I0709 01:01:38.260823 98801 net.cpp:91] Creating Layer ip2
I0709 01:01:38.260826 98801 net.cpp:425] ip2 <- ip1
I0709 01:01:38.260833 98801 net.cpp:399] ip2 -> ip2
I0709 01:01:38.260946 98801 net.cpp:141] Setting up ip2
I0709 01:01:38.260953 98801 net.cpp:148] Top shape: 64 2 (128)
I0709 01:01:38.260967 98801 net.cpp:156] Memory required for data: 695158016
I0709 01:01:38.260972 98801 layer_factory.hpp:77] Creating layer loss
I0709 01:01:38.260990 98801 net.cpp:91] Creating Layer loss
I0709 01:01:38.260993 98801 net.cpp:425] loss <- ip2
I0709 01:01:38.260998 98801 net.cpp:425] loss <- label
I0709 01:01:38.261003 98801 net.cpp:399] loss -> loss
I0709 01:01:38.261010 98801 layer_factory.hpp:77] Creating layer loss
…
I0709 01:01:38.263144 98801 solver.cpp:181] Creating test net (#0) specified by net file: nets/no_augs/trainval.prototxt
I0709 01:01:38.263182 98801 net.cpp:313] The NetState phase (1) differed from the phase (0) specified by a rule in layer mnist
I0709 01:01:38.263272 98801 net.cpp:49] Initializing net from parameters: 
name: "LeNet"
state {
  phase: TEST
}
layer {
  name: "mnist"
  type: "Data"
  top: "data"
  top: "label"
  include {
    phase: TEST
  }
  transform_param {
    mean_file: "data/lmdb/person_mean.binaryproto"
  }
  data_param {
    source: "data/lmdb/people_test_lmdb"
    batch_size: 100
    backend: LMDB
  }
}
layer {
  name: "conv1"
  type: "Convolution"
  bottom: "data"
  top: "conv1"
  param {
    lr_mult: 1
  }
  param {
    lr_mult: 2
  }
  convolution_param {
    num_output: 20
    kernel_size: 5
    stride: 1
    weight_filler {
      type: "xavier"
    }
    bias_filler {
      type: "constant"
    }
  }
}
layer {
  name: "pool1"
  type: "Pooling"
  bottom: "conv1"
  top: "pool1"
  pooling_param {
    pool: MAX
    kernel_size: 2
    stride: 2
  }
}
layer {
  name: "conv2"
  type: "Convolution"
  bottom: "pool1"
  top: "conv2"
  param {
    lr_mult: 1
  }
  param {
    lr_mult: 2
  }
  convolution_param {
    num_output: 50
    kernel_size: 5
    stride: 1
    weight_filler {
      type: "xavier"
    }
    bias_filler {
      type: "constant"
    }
  }
}
layer {
  name: "pool2"
  type: "Pooling"
  bottom: "conv2"
  top: "pool2"
  pooling_param {
    pool: MAX
    kernel_size: 2
    stride: 2
  }
}
layer {
  name: "ip1"
  type: "InnerProduct"
  bottom: "pool2"
  top: "ip1"
  param {
    lr_mult: 1
  }
  param {
    lr_mult: 2
  }
  inner_product_param {
    num_output: 500
    weight_filler {
      type: "xavier"
    }
    bias_filler {
      type: "constant"
    }
  }
}
layer {
  name: "relu1"
  type: "ReLU"
  bottom: "ip1"
  top: "ip1"
}
layer {
  name: "ip2"
  type: "InnerProduct"
  bottom: "ip1"
  top: "ip2"
  param {
    lr_mult: 1
  }
  param {
    lr_mult: 2
  }
  inner_product_param {
    num_output: 2
    weight_filler {
      type: "xavier"
    }
    bias_filler {
      type: "constant"
    }
  }
}
layer {
  name: "accuracy"
  type: "Accuracy"
  bottom: "ip2"
  bottom: "label"
  top: "accuracy"
  include {
    phase: TEST
  }
}
layer {
  name: "loss"
  type: "SoftmaxWithLoss"
  bottom: "ip2"
  bottom: "label"
  top: "loss"
}
I0709 01:01:38.263329 98801 layer_factory.hpp:77] Creating layer mnist
I0709 01:01:38.263442 98801 net.cpp:91] Creating Layer mnist
I0709 01:01:38.263461 98801 net.cpp:399] mnist -> data
I0709 01:01:38.263469 98801 net.cpp:399] mnist -> label
I0709 01:01:38.263487 98801 data_transformer.cpp:25] Loading mean file from: data/lmdb/person_mean.binaryproto
I0709 01:01:38.265202 98815 db_lmdb.cpp:35] Opened lmdb data/lmdb/people_test_lmdb
I0709 01:01:38.266711 98801 data_layer.cpp:41] output data size: 100,3,256,256
I0709 01:01:38.423979 98801 net.cpp:141] Setting up mnist
I0709 01:01:38.424052 98801 net.cpp:148] Top shape: 100 3 256 256 (19660800)
I0709 01:01:38.424069 98801 net.cpp:148] Top shape: 100 (100)
I0709 01:01:38.424073 98801 net.cpp:156] Memory required for data: 78643600
I0709 01:01:38.424093 98801 layer_factory.hpp:77] Creating layer label_mnist_1_split
I0709 01:01:38.424130 98801 net.cpp:91] Creating Layer label_mnist_1_split
I0709 01:01:38.424137 98801 net.cpp:425] label_mnist_1_split <- label
I0709 01:01:38.424157 98801 net.cpp:399] label_mnist_1_split -> label_mnist_1_split_0
I0709 01:01:38.424168 98801 net.cpp:399] label_mnist_1_split -> label_mnist_1_split_1
I0709 01:01:38.424376 98801 net.cpp:141] Setting up label_mnist_1_split
I0709 01:01:38.424387 98801 net.cpp:148] Top shape: 100 (100)
I0709 01:01:38.424402 98801 net.cpp:148] Top shape: 100 (100)
I0709 01:01:38.424404 98801 net.cpp:156] Memory required for data: 78644400
I0709 01:01:38.424408 98801 layer_factory.hpp:77] Creating layer conv1
I0709 01:01:38.424424 98801 net.cpp:91] Creating Layer conv1
I0709 01:01:38.424428 98801 net.cpp:425] conv1 <- data
I0709 01:01:38.424435 98801 net.cpp:399] conv1 -> conv1
I0709 01:01:38.445096 98801 net.cpp:141] Setting up conv1
I0709 01:01:38.445132 98801 net.cpp:148] Top shape: 100 20 252 252 (127008000)
I0709 01:01:38.445137 98801 net.cpp:156] Memory required for data: 586676400
I0709 01:01:38.445153 98801 layer_factory.hpp:77] Creating layer pool1
I0709 01:01:38.445166 98801 net.cpp:91] Creating Layer pool1
I0709 01:01:38.445173 98801 net.cpp:425] pool1 <- conv1
I0709 01:01:38.445180 98801 net.cpp:399] pool1 -> pool1
I0709 01:01:38.445230 98801 net.cpp:141] Setting up pool1
I0709 01:01:38.445237 98801 net.cpp:148] Top shape: 100 20 126 126 (31752000)
I0709 01:01:38.445240 98801 net.cpp:156] Memory required for data: 713684400
I0709 01:01:38.445245 98801 layer_factory.hpp:77] Creating layer conv2
I0709 01:01:38.445257 98801 net.cpp:91] Creating Layer conv2
I0709 01:01:38.445286 98801 net.cpp:425] conv2 <- pool1
I0709 01:01:38.445300 98801 net.cpp:399] conv2 -> conv2
I0709 01:01:38.447935 98801 net.cpp:141] Setting up conv2
I0709 01:01:38.447952 98801 net.cpp:148] Top shape: 100 50 122 122 (74420000)
I0709 01:01:38.447955 98801 net.cpp:156] Memory required for data: 1011364400
I0709 01:01:38.447965 98801 layer_factory.hpp:77] Creating layer pool2
I0709 01:01:38.447975 98801 net.cpp:91] Creating Layer pool2
I0709 01:01:38.447979 98801 net.cpp:425] pool2 <- conv2
I0709 01:01:38.447984 98801 net.cpp:399] pool2 -> pool2
I0709 01:01:38.448024 98801 net.cpp:141] Setting up pool2
I0709 01:01:38.448032 98801 net.cpp:148] Top shape: 100 50 61 61 (18605000)
I0709 01:01:38.448035 98801 net.cpp:156] Memory required for data: 1085784400
I0709 01:01:38.448038 98801 layer_factory.hpp:77] Creating layer ip1
I0709 01:01:38.448046 98801 net.cpp:91] Creating Layer ip1
I0709 01:01:38.448051 98801 net.cpp:425] ip1 <- pool2
I0709 01:01:38.448057 98801 net.cpp:399] ip1 -> ip1
I0709 01:01:39.264854 98801 net.cpp:141] Setting up ip1
I0709 01:01:39.264891 98801 net.cpp:148] Top shape: 100 500 (50000)
I0709 01:01:39.264895 98801 net.cpp:156] Memory required for data: 1085984400
I0709 01:01:39.264912 98801 layer_factory.hpp:77] Creating layer relu1
I0709 01:01:39.264925 98801 net.cpp:91] Creating Layer relu1
I0709 01:01:39.264930 98801 net.cpp:425] relu1 <- ip1
I0709 01:01:39.264940 98801 net.cpp:386] relu1 -> ip1 (in-place)
I0709 01:01:39.265434 98801 net.cpp:141] Setting up relu1
I0709 01:01:39.265456 98801 net.cpp:148] Top shape: 100 500 (50000)
I0709 01:01:39.265470 98801 net.cpp:156] Memory required for data: 1086184400
I0709 01:01:39.265475 98801 layer_factory.hpp:77] Creating layer ip2
I0709 01:01:39.265486 98801 net.cpp:91] Creating Layer ip2
I0709 01:01:39.265488 98801 net.cpp:425] ip2 <- ip1
I0709 01:01:39.265494 98801 net.cpp:399] ip2 -> ip2
I0709 01:01:39.265683 98801 net.cpp:141] Setting up ip2
I0709 01:01:39.265691 98801 net.cpp:148] Top shape: 100 2 (200)
I0709 01:01:39.265704 98801 net.cpp:156] Memory required for data: 1086185200
I0709 01:01:39.265709 98801 layer_factory.hpp:77] Creating layer ip2_ip2_0_split
I0709 01:01:39.265717 98801 net.cpp:91] Creating Layer ip2_ip2_0_split
I0709 01:01:39.265719 98801 net.cpp:425] ip2_ip2_0_split <- ip2
I0709 01:01:39.265723 98801 net.cpp:399] ip2_ip2_0_split -> ip2_ip2_0_split_0
I0709 01:01:39.265729 98801 net.cpp:399] ip2_ip2_0_split -> ip2_ip2_0_split_1
I0709 01:01:39.265760 98801 net.cpp:141] Setting up ip2_ip2_0_split
I0709 01:01:39.265768 98801 net.cpp:148] Top shape: 100 2 (200)
I0709 01:01:39.265782 98801 net.cpp:148] Top shape: 100 2 (200)
I0709 01:01:39.265784 98801 net.cpp:156] Memory required for data: 1086186800
I0709 01:01:39.265787 98801 layer_factory.hpp:77] Creating layer accuracy
I0709 01:01:39.265794 98801 net.cpp:91] Creating Layer accuracy
I0709 01:01:39.265799 98801 net.cpp:425] accuracy <- ip2_ip2_0_split_0
I0709 01:01:39.265802 98801 net.cpp:425] accuracy <- label_mnist_1_split_0
I0709 01:01:39.265807 98801 net.cpp:399] accuracy -> accuracy
…
