…
I0709 11:22:39.232534 101364 net.cpp:313] The NetState phase (0) differed from the phase (1) specified by a rule in layer mnist
I0709 11:22:39.232560 101364 net.cpp:313] The NetState phase (0) differed from the phase (1) specified by a rule in layer accuracy
I0709 11:22:39.232668 101364 net.cpp:49] Initializing net from parameters: 
name: "LeNet"
state {
  phase: TRAIN
}
layer {
  name: "mnist"
  type: "Data"
  top: "data"
  top: "label"
  include {
    phase: TRAIN
  }
  transform_param {
    mean_file: "data/lmdb/person_mean.binaryproto"
  }
  data_param {
    source: "data/lmdb/people_train_lmdb"
    batch_size: 64
    backend: LMDB
  }
}
layer {
  name: "conv1"
  type: "Convolution"
  bottom: "data"
  top: "conv1"
  param {
    lr_mult: 1
  }
  param {
    lr_mult: 2
  }
  convolution_param {
    num_output: 20
    kernel_size: 5
    stride: 1
    weight_filler {
      type: "xavier"
    }
    bias_filler {
      type: "constant"
    }
  }
}
layer {
  name: "pool1"
  type: "Pooling"
  bottom: "conv1"
  top: "pool1"
  pooling_param {
    pool: MAX
    kernel_size: 2
    stride: 2
  }
}
layer {
  name: "conv2"
  type: "Convolution"
  bottom: "pool1"
  top: "conv2"
  param {
    lr_mult: 1
  }
  param {
    lr_mult: 2
  }
  convolution_param {
    num_output: 50
    kernel_size: 5
    stride: 1
    weight_filler {
      type: "xavier"
    }
    bias_filler {
      type: "constant"
    }
  }
}
layer {
  name: "pool2"
  type: "Pooling"
  bottom: "conv2"
  top: "pool2"
  pooling_param {
    pool: MAX
    kernel_size: 2
    stride: 2
  }
}
layer {
  name: "ip1"
  type: "InnerProduct"
  bottom: "pool2"
  top: "ip1"
  param {
    lr_mult: 1
  }
  param {
    lr_mult: 2
  }
  inner_product_param {
    num_output: 500
    weight_filler {
      type: "xavier"
    }
    bias_filler {
      type: "constant"
    }
  }
}
layer {
  name: "relu1"
  type: "ReLU"
  bottom: "ip1"
  top: "ip1"
}
layer {
  name: "ip2"
  type: "InnerProduct"
  bottom: "ip1"
  top: "ip2"
  param {
    lr_mult: 1
  }
  param {
    lr_mult: 2
  }
  inner_product_param {
    num_output: 2
    weight_filler {
      type: "xavier"
    }
    bias_filler {
      type: "constant"
    }
  }
}
layer {
  name: "loss"
  type: "SoftmaxWithLoss"
  bottom: "ip2"
  bottom: "label"
  top: "loss"
}
I0709 11:22:39.232738 101364 layer_factory.hpp:77] Creating layer mnist
I0709 11:22:39.233943 101364 net.cpp:91] Creating Layer mnist
I0709 11:22:39.233966 101364 net.cpp:399] mnist -> data
I0709 11:22:39.233985 101364 net.cpp:399] mnist -> label
I0709 11:22:39.234027 101364 data_transformer.cpp:25] Loading mean file from: data/lmdb/person_mean.binaryproto
I0709 11:22:39.235221 101370 db_lmdb.cpp:35] Opened lmdb data/lmdb/people_train_lmdb
I0709 11:25:48.292798 101364 data_layer.cpp:41] output data size: 64,3,256,256
I0709 11:25:48.428040 101364 net.cpp:141] Setting up mnist
I0709 11:25:48.428091 101364 net.cpp:148] Top shape: 64 3 256 256 (12582912)
I0709 11:25:48.428097 101364 net.cpp:148] Top shape: 64 (64)
I0709 11:25:48.428099 101364 net.cpp:156] Memory required for data: 50331904
I0709 11:25:48.428107 101364 layer_factory.hpp:77] Creating layer conv1
I0709 11:25:48.428141 101364 net.cpp:91] Creating Layer conv1
I0709 11:25:48.428150 101364 net.cpp:425] conv1 <- data
I0709 11:25:48.428169 101364 net.cpp:399] conv1 -> conv1
I0709 11:25:51.265614 101364 net.cpp:141] Setting up conv1
I0709 11:25:51.265661 101364 net.cpp:148] Top shape: 64 20 252 252 (81285120)
I0709 11:25:51.265669 101364 net.cpp:156] Memory required for data: 375472384
I0709 11:25:51.265697 101364 layer_factory.hpp:77] Creating layer pool1
I0709 11:25:51.265717 101364 net.cpp:91] Creating Layer pool1
I0709 11:25:51.265724 101364 net.cpp:425] pool1 <- conv1
I0709 11:25:51.265734 101364 net.cpp:399] pool1 -> pool1
I0709 11:25:51.265841 101364 net.cpp:141] Setting up pool1
I0709 11:25:51.265856 101364 net.cpp:148] Top shape: 64 20 126 126 (20321280)
I0709 11:25:51.265863 101364 net.cpp:156] Memory required for data: 456757504
I0709 11:25:51.265869 101364 layer_factory.hpp:77] Creating layer conv2
I0709 11:25:51.265892 101364 net.cpp:91] Creating Layer conv2
I0709 11:25:51.265898 101364 net.cpp:425] conv2 <- pool1
I0709 11:25:51.265908 101364 net.cpp:399] conv2 -> conv2
I0709 11:25:51.270257 101364 net.cpp:141] Setting up conv2
I0709 11:25:51.270285 101364 net.cpp:148] Top shape: 64 50 122 122 (47628800)
I0709 11:25:51.270293 101364 net.cpp:156] Memory required for data: 647272704
I0709 11:25:51.270311 101364 layer_factory.hpp:77] Creating layer pool2
I0709 11:25:51.270324 101364 net.cpp:91] Creating Layer pool2
I0709 11:25:51.270331 101364 net.cpp:425] pool2 <- conv2
I0709 11:25:51.270341 101364 net.cpp:399] pool2 -> pool2
I0709 11:25:51.270421 101364 net.cpp:141] Setting up pool2
I0709 11:25:51.270434 101364 net.cpp:148] Top shape: 64 50 61 61 (11907200)
I0709 11:25:51.270440 101364 net.cpp:156] Memory required for data: 694901504
I0709 11:25:51.270447 101364 layer_factory.hpp:77] Creating layer ip1
I0709 11:25:51.270464 101364 net.cpp:91] Creating Layer ip1
I0709 11:25:51.270472 101364 net.cpp:425] ip1 <- pool2
I0709 11:25:51.270480 101364 net.cpp:399] ip1 -> ip1
I0709 11:25:52.055150 101364 net.cpp:141] Setting up ip1
I0709 11:25:52.055197 101364 net.cpp:148] Top shape: 64 500 (32000)
I0709 11:25:52.055202 101364 net.cpp:156] Memory required for data: 695029504
I0709 11:25:52.055218 101364 layer_factory.hpp:77] Creating layer relu1
I0709 11:25:52.055233 101364 net.cpp:91] Creating Layer relu1
I0709 11:25:52.055236 101364 net.cpp:425] relu1 <- ip1
I0709 11:25:52.055244 101364 net.cpp:386] relu1 -> ip1 (in-place)
I0709 11:25:52.055614 101364 net.cpp:141] Setting up relu1
I0709 11:25:52.055637 101364 net.cpp:148] Top shape: 64 500 (32000)
I0709 11:25:52.055640 101364 net.cpp:156] Memory required for data: 695157504
I0709 11:25:52.055644 101364 layer_factory.hpp:77] Creating layer ip2
I0709 11:25:52.055656 101364 net.cpp:91] Creating Layer ip2
I0709 11:25:52.055660 101364 net.cpp:425] ip2 <- ip1
I0709 11:25:52.055666 101364 net.cpp:399] ip2 -> ip2
I0709 11:25:52.055789 101364 net.cpp:141] Setting up ip2
I0709 11:25:52.055797 101364 net.cpp:148] Top shape: 64 2 (128)
I0709 11:25:52.055811 101364 net.cpp:156] Memory required for data: 695158016
I0709 11:25:52.055817 101364 layer_factory.hpp:77] Creating layer loss
I0709 11:25:52.055830 101364 net.cpp:91] Creating Layer loss
I0709 11:25:52.055833 101364 net.cpp:425] loss <- ip2
I0709 11:25:52.055837 101364 net.cpp:425] loss <- label
I0709 11:25:52.055841 101364 net.cpp:399] loss -> loss
I0709 11:25:52.055855 101364 layer_factory.hpp:77] Creating layer loss
…
I0709 11:25:52.056490 101364 solver.cpp:181] Creating test net (#0) specified by net file: nets/no_augs/trainval.prototxt
I0709 11:25:52.056529 101364 net.cpp:313] The NetState phase (1) differed from the phase (0) specified by a rule in layer mnist
I0709 11:25:52.056618 101364 net.cpp:49] Initializing net from parameters: 
name: "LeNet"
state {
  phase: TEST
}
layer {
  name: "mnist"
  type: "Data"
  top: "data"
  top: "label"
  include {
    phase: TEST
  }
  transform_param {
    mean_file: "data/lmdb/person_mean.binaryproto"
  }
  data_param {
    source: "data/lmdb/people_test_lmdb"
    batch_size: 100
    backend: LMDB
  }
}
layer {
  name: "conv1"
  type: "Convolution"
  bottom: "data"
  top: "conv1"
  param {
    lr_mult: 1
  }
  param {
    lr_mult: 2
  }
  convolution_param {
    num_output: 20
    kernel_size: 5
    stride: 1
    weight_filler {
      type: "xavier"
    }
    bias_filler {
      type: "constant"
    }
  }
}
layer {
  name: "pool1"
  type: "Pooling"
  bottom: "conv1"
  top: "pool1"
  pooling_param {
    pool: MAX
    kernel_size: 2
    stride: 2
  }
}
layer {
  name: "conv2"
  type: "Convolution"
  bottom: "pool1"
  top: "conv2"
  param {
    lr_mult: 1
  }
  param {
    lr_mult: 2
  }
  convolution_param {
    num_output: 50
    kernel_size: 5
    stride: 1
    weight_filler {
      type: "xavier"
    }
    bias_filler {
      type: "constant"
    }
  }
}
layer {
  name: "pool2"
  type: "Pooling"
  bottom: "conv2"
  top: "pool2"
  pooling_param {
    pool: MAX
    kernel_size: 2
    stride: 2
  }
}
layer {
  name: "ip1"
  type: "InnerProduct"
  bottom: "pool2"
  top: "ip1"
  param {
    lr_mult: 1
  }
  param {
    lr_mult: 2
  }
  inner_product_param {
    num_output: 500
    weight_filler {
      type: "xavier"
    }
    bias_filler {
      type: "constant"
    }
  }
}
layer {
  name: "relu1"
  type: "ReLU"
  bottom: "ip1"
  top: "ip1"
}
layer {
  name: "ip2"
  type: "InnerProduct"
  bottom: "ip1"
  top: "ip2"
  param {
    lr_mult: 1
  }
  param {
    lr_mult: 2
  }
  inner_product_param {
    num_output: 2
    weight_filler {
      type: "xavier"
    }
    bias_filler {
      type: "constant"
    }
  }
}
layer {
  name: "accuracy"
  type: "Accuracy"
  bottom: "ip2"
  bottom: "label"
  top: "accuracy"
  include {
    phase: TEST
  }
}
layer {
  name: "loss"
  type: "SoftmaxWithLoss"
  bottom: "ip2"
  bottom: "label"
  top: "loss"
}
I0709 11:25:52.056676 101364 layer_factory.hpp:77] Creating layer mnist
I0709 11:25:52.056782 101364 net.cpp:91] Creating Layer mnist
I0709 11:25:52.056790 101364 net.cpp:399] mnist -> data
I0709 11:25:52.056798 101364 net.cpp:399] mnist -> label
I0709 11:25:52.056805 101364 data_transformer.cpp:25] Loading mean file from: data/lmdb/person_mean.binaryproto
I0709 11:25:52.058588 101373 db_lmdb.cpp:35] Opened lmdb data/lmdb/people_test_lmdb
I0709 11:25:52.059119 101364 data_layer.cpp:41] output data size: 100,3,256,256
I0709 11:25:52.275118 101364 net.cpp:141] Setting up mnist
I0709 11:25:52.275177 101364 net.cpp:148] Top shape: 100 3 256 256 (19660800)
I0709 11:25:52.275182 101364 net.cpp:148] Top shape: 100 (100)
I0709 11:25:52.275185 101364 net.cpp:156] Memory required for data: 78643600
I0709 11:25:52.275193 101364 layer_factory.hpp:77] Creating layer label_mnist_1_split
I0709 11:25:52.275207 101364 net.cpp:91] Creating Layer label_mnist_1_split
I0709 11:25:52.275212 101364 net.cpp:425] label_mnist_1_split <- label
I0709 11:25:52.275218 101364 net.cpp:399] label_mnist_1_split -> label_mnist_1_split_0
I0709 11:25:52.275228 101364 net.cpp:399] label_mnist_1_split -> label_mnist_1_split_1
I0709 11:25:52.275435 101364 net.cpp:141] Setting up label_mnist_1_split
I0709 11:25:52.275462 101364 net.cpp:148] Top shape: 100 (100)
I0709 11:25:52.275467 101364 net.cpp:148] Top shape: 100 (100)
I0709 11:25:52.275470 101364 net.cpp:156] Memory required for data: 78644400
I0709 11:25:52.275473 101364 layer_factory.hpp:77] Creating layer conv1
I0709 11:25:52.275487 101364 net.cpp:91] Creating Layer conv1
I0709 11:25:52.275491 101364 net.cpp:425] conv1 <- data
I0709 11:25:52.275498 101364 net.cpp:399] conv1 -> conv1
I0709 11:25:52.290443 101364 net.cpp:141] Setting up conv1
I0709 11:25:52.290473 101364 net.cpp:148] Top shape: 100 20 252 252 (127008000)
I0709 11:25:52.290478 101364 net.cpp:156] Memory required for data: 586676400
I0709 11:25:52.290489 101364 layer_factory.hpp:77] Creating layer pool1
I0709 11:25:52.290499 101364 net.cpp:91] Creating Layer pool1
I0709 11:25:52.290503 101364 net.cpp:425] pool1 <- conv1
I0709 11:25:52.290508 101364 net.cpp:399] pool1 -> pool1
I0709 11:25:52.290561 101364 net.cpp:141] Setting up pool1
I0709 11:25:52.290570 101364 net.cpp:148] Top shape: 100 20 126 126 (31752000)
I0709 11:25:52.290572 101364 net.cpp:156] Memory required for data: 713684400
I0709 11:25:52.290575 101364 layer_factory.hpp:77] Creating layer conv2
I0709 11:25:52.290587 101364 net.cpp:91] Creating Layer conv2
I0709 11:25:52.290593 101364 net.cpp:425] conv2 <- pool1
I0709 11:25:52.290599 101364 net.cpp:399] conv2 -> conv2
I0709 11:25:52.291725 101364 net.cpp:141] Setting up conv2
I0709 11:25:52.291739 101364 net.cpp:148] Top shape: 100 50 122 122 (74420000)
I0709 11:25:52.291743 101364 net.cpp:156] Memory required for data: 1011364400
I0709 11:25:52.291754 101364 layer_factory.hpp:77] Creating layer pool2
I0709 11:25:52.291774 101364 net.cpp:91] Creating Layer pool2
I0709 11:25:52.291787 101364 net.cpp:425] pool2 <- conv2
I0709 11:25:52.291793 101364 net.cpp:399] pool2 -> pool2
I0709 11:25:52.291831 101364 net.cpp:141] Setting up pool2
I0709 11:25:52.291839 101364 net.cpp:148] Top shape: 100 50 61 61 (18605000)
I0709 11:25:52.291842 101364 net.cpp:156] Memory required for data: 1085784400
I0709 11:25:52.291846 101364 layer_factory.hpp:77] Creating layer ip1
I0709 11:25:52.291853 101364 net.cpp:91] Creating Layer ip1
I0709 11:25:52.291857 101364 net.cpp:425] ip1 <- pool2
I0709 11:25:52.291864 101364 net.cpp:399] ip1 -> ip1
I0709 11:25:53.229876 101364 net.cpp:141] Setting up ip1
I0709 11:25:53.229915 101364 net.cpp:148] Top shape: 100 500 (50000)
I0709 11:25:53.229919 101364 net.cpp:156] Memory required for data: 1085984400
I0709 11:25:53.229934 101364 layer_factory.hpp:77] Creating layer relu1
I0709 11:25:53.229946 101364 net.cpp:91] Creating Layer relu1
I0709 11:25:53.229951 101364 net.cpp:425] relu1 <- ip1
I0709 11:25:53.229956 101364 net.cpp:386] relu1 -> ip1 (in-place)
I0709 11:25:53.230392 101364 net.cpp:141] Setting up relu1
I0709 11:25:53.230404 101364 net.cpp:148] Top shape: 100 500 (50000)
I0709 11:25:53.230418 101364 net.cpp:156] Memory required for data: 1086184400
I0709 11:25:53.230422 101364 layer_factory.hpp:77] Creating layer ip2
I0709 11:25:53.230433 101364 net.cpp:91] Creating Layer ip2
I0709 11:25:53.230437 101364 net.cpp:425] ip2 <- ip1
I0709 11:25:53.230443 101364 net.cpp:399] ip2 -> ip2
I0709 11:25:53.230564 101364 net.cpp:141] Setting up ip2
I0709 11:25:53.230571 101364 net.cpp:148] Top shape: 100 2 (200)
I0709 11:25:53.230586 101364 net.cpp:156] Memory required for data: 1086185200
I0709 11:25:53.230590 101364 layer_factory.hpp:77] Creating layer ip2_ip2_0_split
I0709 11:25:53.230597 101364 net.cpp:91] Creating Layer ip2_ip2_0_split
I0709 11:25:53.230599 101364 net.cpp:425] ip2_ip2_0_split <- ip2
I0709 11:25:53.230604 101364 net.cpp:399] ip2_ip2_0_split -> ip2_ip2_0_split_0
I0709 11:25:53.230610 101364 net.cpp:399] ip2_ip2_0_split -> ip2_ip2_0_split_1
I0709 11:25:53.230641 101364 net.cpp:141] Setting up ip2_ip2_0_split
I0709 11:25:53.230650 101364 net.cpp:148] Top shape: 100 2 (200)
I0709 11:25:53.230664 101364 net.cpp:148] Top shape: 100 2 (200)
I0709 11:25:53.230667 101364 net.cpp:156] Memory required for data: 1086186800
I0709 11:25:53.230670 101364 layer_factory.hpp:77] Creating layer accuracy
I0709 11:25:53.230676 101364 net.cpp:91] Creating Layer accuracy
I0709 11:25:53.230679 101364 net.cpp:425] accuracy <- ip2_ip2_0_split_0
I0709 11:25:53.230684 101364 net.cpp:425] accuracy <- label_mnist_1_split_0
I0709 11:25:53.230690 101364 net.cpp:399] accuracy -> accuracy
…
