…
I0709 11:34:18.384178 101408 net.cpp:313] The NetState phase (0) differed from the phase (1) specified by a rule in layer mnist
I0709 11:34:18.384207 101408 net.cpp:313] The NetState phase (0) differed from the phase (1) specified by a rule in layer accuracy
I0709 11:34:18.384335 101408 net.cpp:49] Initializing net from parameters: 
name: "LeNet"
state {
  phase: TRAIN
}
layer {
  name: "mnist"
  type: "Data"
  top: "data"
  top: "label"
  include {
    phase: TRAIN
  }
  transform_param {
    mean_file: "data/lmdb/person_mean.binaryproto"
  }
  data_param {
    source: "data/lmdb/people_train_lmdb"
    batch_size: 64
    backend: LMDB
  }
}
layer {
  name: "conv1"
  type: "Convolution"
  bottom: "data"
  top: "conv1"
  param {
    lr_mult: 1
  }
  param {
    lr_mult: 2
  }
  convolution_param {
    num_output: 20
    kernel_size: 5
    stride: 1
    weight_filler {
      type: "xavier"
    }
    bias_filler {
      type: "constant"
    }
  }
}
layer {
  name: "pool1"
  type: "Pooling"
  bottom: "conv1"
  top: "pool1"
  pooling_param {
    pool: MAX
    kernel_size: 2
    stride: 2
  }
}
layer {
  name: "conv2"
  type: "Convolution"
  bottom: "pool1"
  top: "conv2"
  param {
    lr_mult: 1
  }
  param {
    lr_mult: 2
  }
  convolution_param {
    num_output: 50
    kernel_size: 5
    stride: 1
    weight_filler {
      type: "xavier"
    }
    bias_filler {
      type: "constant"
    }
  }
}
layer {
  name: "pool2"
  type: "Pooling"
  bottom: "conv2"
  top: "pool2"
  pooling_param {
    pool: MAX
    kernel_size: 2
    stride: 2
  }
}
layer {
  name: "ip1"
  type: "InnerProduct"
  bottom: "pool2"
  top: "ip1"
  param {
    lr_mult: 1
  }
  param {
    lr_mult: 2
  }
  inner_product_param {
    num_output: 500
    weight_filler {
      type: "xavier"
    }
    bias_filler {
      type: "constant"
    }
  }
}
layer {
  name: "relu1"
  type: "ReLU"
  bottom: "ip1"
  top: "ip1"
}
layer {
  name: "ip2"
  type: "InnerProduct"
  bottom: "ip1"
  top: "ip2"
  param {
    lr_mult: 1
  }
  param {
    lr_mult: 2
  }
  inner_product_param {
    num_output: 2
    weight_filler {
      type: "xavier"
    }
    bias_filler {
      type: "constant"
    }
  }
}
layer {
  name: "loss"
  type: "SoftmaxWithLoss"
  bottom: "ip2"
  bottom: "label"
  top: "loss"
}
I0709 11:34:18.384410 101408 layer_factory.hpp:77] Creating layer mnist
I0709 11:34:18.385670 101408 net.cpp:91] Creating Layer mnist
I0709 11:34:18.385696 101408 net.cpp:399] mnist -> data
I0709 11:34:18.385718 101408 net.cpp:399] mnist -> label
I0709 11:34:18.385758 101408 data_transformer.cpp:25] Loading mean file from: data/lmdb/person_mean.binaryproto
I0709 11:34:18.386800 101414 db_lmdb.cpp:35] Opened lmdb data/lmdb/people_train_lmdb
I0709 11:37:27.783022 101408 data_layer.cpp:41] output data size: 64,3,256,256
I0709 11:37:27.919209 101408 net.cpp:141] Setting up mnist
I0709 11:37:27.919257 101408 net.cpp:148] Top shape: 64 3 256 256 (12582912)
I0709 11:37:27.919266 101408 net.cpp:148] Top shape: 64 (64)
I0709 11:37:27.919272 101408 net.cpp:156] Memory required for data: 50331904
I0709 11:37:27.919283 101408 layer_factory.hpp:77] Creating layer conv1
I0709 11:37:27.919368 101408 net.cpp:91] Creating Layer conv1
I0709 11:37:27.919396 101408 net.cpp:425] conv1 <- data
I0709 11:37:27.919426 101408 net.cpp:399] conv1 -> conv1
I0709 11:37:30.852979 101408 net.cpp:141] Setting up conv1
I0709 11:37:30.853019 101408 net.cpp:148] Top shape: 64 20 252 252 (81285120)
I0709 11:37:30.853025 101408 net.cpp:156] Memory required for data: 375472384
I0709 11:37:30.853046 101408 layer_factory.hpp:77] Creating layer pool1
I0709 11:37:30.853067 101408 net.cpp:91] Creating Layer pool1
I0709 11:37:30.853075 101408 net.cpp:425] pool1 <- conv1
I0709 11:37:30.853082 101408 net.cpp:399] pool1 -> pool1
I0709 11:37:30.853147 101408 net.cpp:141] Setting up pool1
I0709 11:37:30.853157 101408 net.cpp:148] Top shape: 64 20 126 126 (20321280)
I0709 11:37:30.853162 101408 net.cpp:156] Memory required for data: 456757504
I0709 11:37:30.853165 101408 layer_factory.hpp:77] Creating layer conv2
I0709 11:37:30.853181 101408 net.cpp:91] Creating Layer conv2
I0709 11:37:30.853189 101408 net.cpp:425] conv2 <- pool1
I0709 11:37:30.853196 101408 net.cpp:399] conv2 -> conv2
I0709 11:37:30.859956 101408 net.cpp:141] Setting up conv2
I0709 11:37:30.859977 101408 net.cpp:148] Top shape: 64 50 122 122 (47628800)
I0709 11:37:30.859982 101408 net.cpp:156] Memory required for data: 647272704
I0709 11:37:30.859993 101408 layer_factory.hpp:77] Creating layer pool2
I0709 11:37:30.860003 101408 net.cpp:91] Creating Layer pool2
I0709 11:37:30.860008 101408 net.cpp:425] pool2 <- conv2
I0709 11:37:30.860014 101408 net.cpp:399] pool2 -> pool2
I0709 11:37:30.860069 101408 net.cpp:141] Setting up pool2
I0709 11:37:30.860076 101408 net.cpp:148] Top shape: 64 50 61 61 (11907200)
I0709 11:37:30.860080 101408 net.cpp:156] Memory required for data: 694901504
I0709 11:37:30.860085 101408 layer_factory.hpp:77] Creating layer ip1
I0709 11:37:30.860096 101408 net.cpp:91] Creating Layer ip1
I0709 11:37:30.860101 101408 net.cpp:425] ip1 <- pool2
I0709 11:37:30.860107 101408 net.cpp:399] ip1 -> ip1
I0709 11:37:31.600198 101408 net.cpp:141] Setting up ip1
I0709 11:37:31.600246 101408 net.cpp:148] Top shape: 64 500 (32000)
I0709 11:37:31.600250 101408 net.cpp:156] Memory required for data: 695029504
I0709 11:37:31.600267 101408 layer_factory.hpp:77] Creating layer relu1
I0709 11:37:31.600280 101408 net.cpp:91] Creating Layer relu1
I0709 11:37:31.600283 101408 net.cpp:425] relu1 <- ip1
I0709 11:37:31.600289 101408 net.cpp:386] relu1 -> ip1 (in-place)
I0709 11:37:31.600656 101408 net.cpp:141] Setting up relu1
I0709 11:37:31.600669 101408 net.cpp:148] Top shape: 64 500 (32000)
I0709 11:37:31.600684 101408 net.cpp:156] Memory required for data: 695157504
I0709 11:37:31.600688 101408 layer_factory.hpp:77] Creating layer ip2
I0709 11:37:31.600699 101408 net.cpp:91] Creating Layer ip2
I0709 11:37:31.600703 101408 net.cpp:425] ip2 <- ip1
I0709 11:37:31.600708 101408 net.cpp:399] ip2 -> ip2
I0709 11:37:31.600824 101408 net.cpp:141] Setting up ip2
I0709 11:37:31.600831 101408 net.cpp:148] Top shape: 64 2 (128)
I0709 11:37:31.600847 101408 net.cpp:156] Memory required for data: 695158016
I0709 11:37:31.600852 101408 layer_factory.hpp:77] Creating layer loss
I0709 11:37:31.600860 101408 net.cpp:91] Creating Layer loss
I0709 11:37:31.600863 101408 net.cpp:425] loss <- ip2
I0709 11:37:31.600867 101408 net.cpp:425] loss <- label
I0709 11:37:31.600872 101408 net.cpp:399] loss -> loss
I0709 11:37:31.600881 101408 layer_factory.hpp:77] Creating layer loss
…
I0709 11:37:31.601527 101408 solver.cpp:181] Creating test net (#0) specified by net file: nets/no_augs/trainval.prototxt
I0709 11:37:31.601579 101408 net.cpp:313] The NetState phase (1) differed from the phase (0) specified by a rule in layer mnist
I0709 11:37:31.601668 101408 net.cpp:49] Initializing net from parameters: 
name: "LeNet"
state {
  phase: TEST
}
layer {
  name: "mnist"
  type: "Data"
  top: "data"
  top: "label"
  include {
    phase: TEST
  }
  transform_param {
    mean_file: "data/lmdb/person_mean.binaryproto"
  }
  data_param {
    source: "data/lmdb/people_test_lmdb"
    batch_size: 100
    backend: LMDB
  }
}
layer {
  name: "conv1"
  type: "Convolution"
  bottom: "data"
  top: "conv1"
  param {
    lr_mult: 1
  }
  param {
    lr_mult: 2
  }
  convolution_param {
    num_output: 20
    kernel_size: 5
    stride: 1
    weight_filler {
      type: "xavier"
    }
    bias_filler {
      type: "constant"
    }
  }
}
layer {
  name: "pool1"
  type: "Pooling"
  bottom: "conv1"
  top: "pool1"
  pooling_param {
    pool: MAX
    kernel_size: 2
    stride: 2
  }
}
layer {
  name: "conv2"
  type: "Convolution"
  bottom: "pool1"
  top: "conv2"
  param {
    lr_mult: 1
  }
  param {
    lr_mult: 2
  }
  convolution_param {
    num_output: 50
    kernel_size: 5
    stride: 1
    weight_filler {
      type: "xavier"
    }
    bias_filler {
      type: "constant"
    }
  }
}
layer {
  name: "pool2"
  type: "Pooling"
  bottom: "conv2"
  top: "pool2"
  pooling_param {
    pool: MAX
    kernel_size: 2
    stride: 2
  }
}
layer {
  name: "ip1"
  type: "InnerProduct"
  bottom: "pool2"
  top: "ip1"
  param {
    lr_mult: 1
  }
  param {
    lr_mult: 2
  }
  inner_product_param {
    num_output: 500
    weight_filler {
      type: "xavier"
    }
    bias_filler {
      type: "constant"
    }
  }
}
layer {
  name: "relu1"
  type: "ReLU"
  bottom: "ip1"
  top: "ip1"
}
layer {
  name: "ip2"
  type: "InnerProduct"
  bottom: "ip1"
  top: "ip2"
  param {
    lr_mult: 1
  }
  param {
    lr_mult: 2
  }
  inner_product_param {
    num_output: 2
    weight_filler {
      type: "xavier"
    }
    bias_filler {
      type: "constant"
    }
  }
}
layer {
  name: "accuracy"
  type: "Accuracy"
  bottom: "ip2"
  bottom: "label"
  top: "accuracy"
  include {
    phase: TEST
  }
}
layer {
  name: "loss"
  type: "SoftmaxWithLoss"
  bottom: "ip2"
  bottom: "label"
  top: "loss"
}
I0709 11:37:31.601724 101408 layer_factory.hpp:77] Creating layer mnist
I0709 11:37:31.601825 101408 net.cpp:91] Creating Layer mnist
I0709 11:37:31.601835 101408 net.cpp:399] mnist -> data
I0709 11:37:31.601852 101408 net.cpp:399] mnist -> label
I0709 11:37:31.601871 101408 data_transformer.cpp:25] Loading mean file from: data/lmdb/person_mean.binaryproto
I0709 11:37:31.603394 101423 db_lmdb.cpp:35] Opened lmdb data/lmdb/people_test_lmdb
I0709 11:37:31.603896 101408 data_layer.cpp:41] output data size: 100,3,256,256
I0709 11:37:31.791745 101408 net.cpp:141] Setting up mnist
I0709 11:37:31.791795 101408 net.cpp:148] Top shape: 100 3 256 256 (19660800)
I0709 11:37:31.791800 101408 net.cpp:148] Top shape: 100 (100)
I0709 11:37:31.791803 101408 net.cpp:156] Memory required for data: 78643600
I0709 11:37:31.791811 101408 layer_factory.hpp:77] Creating layer label_mnist_1_split
I0709 11:37:31.791827 101408 net.cpp:91] Creating Layer label_mnist_1_split
I0709 11:37:31.791832 101408 net.cpp:425] label_mnist_1_split <- label
I0709 11:37:31.791838 101408 net.cpp:399] label_mnist_1_split -> label_mnist_1_split_0
I0709 11:37:31.791848 101408 net.cpp:399] label_mnist_1_split -> label_mnist_1_split_1
I0709 11:37:31.792105 101408 net.cpp:141] Setting up label_mnist_1_split
I0709 11:37:31.792130 101408 net.cpp:148] Top shape: 100 (100)
I0709 11:37:31.792135 101408 net.cpp:148] Top shape: 100 (100)
I0709 11:37:31.792137 101408 net.cpp:156] Memory required for data: 78644400
I0709 11:37:31.792141 101408 layer_factory.hpp:77] Creating layer conv1
I0709 11:37:31.792155 101408 net.cpp:91] Creating Layer conv1
I0709 11:37:31.792160 101408 net.cpp:425] conv1 <- data
I0709 11:37:31.792165 101408 net.cpp:399] conv1 -> conv1
I0709 11:37:31.810912 101408 net.cpp:141] Setting up conv1
I0709 11:37:31.810940 101408 net.cpp:148] Top shape: 100 20 252 252 (127008000)
I0709 11:37:31.810945 101408 net.cpp:156] Memory required for data: 586676400
I0709 11:37:31.810957 101408 layer_factory.hpp:77] Creating layer pool1
I0709 11:37:31.810966 101408 net.cpp:91] Creating Layer pool1
I0709 11:37:31.810969 101408 net.cpp:425] pool1 <- conv1
I0709 11:37:31.810976 101408 net.cpp:399] pool1 -> pool1
I0709 11:37:31.811028 101408 net.cpp:141] Setting up pool1
I0709 11:37:31.811035 101408 net.cpp:148] Top shape: 100 20 126 126 (31752000)
I0709 11:37:31.811038 101408 net.cpp:156] Memory required for data: 713684400
I0709 11:37:31.811041 101408 layer_factory.hpp:77] Creating layer conv2
I0709 11:37:31.811051 101408 net.cpp:91] Creating Layer conv2
I0709 11:37:31.811055 101408 net.cpp:425] conv2 <- pool1
I0709 11:37:31.811061 101408 net.cpp:399] conv2 -> conv2
I0709 11:37:31.814334 101408 net.cpp:141] Setting up conv2
I0709 11:37:31.814358 101408 net.cpp:148] Top shape: 100 50 122 122 (74420000)
I0709 11:37:31.814363 101408 net.cpp:156] Memory required for data: 1011364400
I0709 11:37:31.814371 101408 layer_factory.hpp:77] Creating layer pool2
I0709 11:37:31.814378 101408 net.cpp:91] Creating Layer pool2
I0709 11:37:31.814381 101408 net.cpp:425] pool2 <- conv2
I0709 11:37:31.814386 101408 net.cpp:399] pool2 -> pool2
I0709 11:37:31.814434 101408 net.cpp:141] Setting up pool2
I0709 11:37:31.814441 101408 net.cpp:148] Top shape: 100 50 61 61 (18605000)
I0709 11:37:31.814445 101408 net.cpp:156] Memory required for data: 1085784400
I0709 11:37:31.814447 101408 layer_factory.hpp:77] Creating layer ip1
I0709 11:37:31.814455 101408 net.cpp:91] Creating Layer ip1
I0709 11:37:31.814457 101408 net.cpp:425] ip1 <- pool2
I0709 11:37:31.814463 101408 net.cpp:399] ip1 -> ip1
I0709 11:37:32.694010 101408 net.cpp:141] Setting up ip1
I0709 11:37:32.694046 101408 net.cpp:148] Top shape: 100 500 (50000)
I0709 11:37:32.694049 101408 net.cpp:156] Memory required for data: 1085984400
I0709 11:37:32.694064 101408 layer_factory.hpp:77] Creating layer relu1
I0709 11:37:32.694077 101408 net.cpp:91] Creating Layer relu1
I0709 11:37:32.694082 101408 net.cpp:425] relu1 <- ip1
I0709 11:37:32.694088 101408 net.cpp:386] relu1 -> ip1 (in-place)
I0709 11:37:32.694530 101408 net.cpp:141] Setting up relu1
I0709 11:37:32.694553 101408 net.cpp:148] Top shape: 100 500 (50000)
I0709 11:37:32.694557 101408 net.cpp:156] Memory required for data: 1086184400
I0709 11:37:32.694561 101408 layer_factory.hpp:77] Creating layer ip2
I0709 11:37:32.694572 101408 net.cpp:91] Creating Layer ip2
I0709 11:37:32.694576 101408 net.cpp:425] ip2 <- ip1
I0709 11:37:32.694581 101408 net.cpp:399] ip2 -> ip2
I0709 11:37:32.694700 101408 net.cpp:141] Setting up ip2
I0709 11:37:32.694708 101408 net.cpp:148] Top shape: 100 2 (200)
I0709 11:37:32.694721 101408 net.cpp:156] Memory required for data: 1086185200
I0709 11:37:32.694727 101408 layer_factory.hpp:77] Creating layer ip2_ip2_0_split
I0709 11:37:32.694732 101408 net.cpp:91] Creating Layer ip2_ip2_0_split
I0709 11:37:32.694736 101408 net.cpp:425] ip2_ip2_0_split <- ip2
I0709 11:37:32.694741 101408 net.cpp:399] ip2_ip2_0_split -> ip2_ip2_0_split_0
I0709 11:37:32.694746 101408 net.cpp:399] ip2_ip2_0_split -> ip2_ip2_0_split_1
I0709 11:37:32.694777 101408 net.cpp:141] Setting up ip2_ip2_0_split
I0709 11:37:32.694784 101408 net.cpp:148] Top shape: 100 2 (200)
I0709 11:37:32.694799 101408 net.cpp:148] Top shape: 100 2 (200)
I0709 11:37:32.694802 101408 net.cpp:156] Memory required for data: 1086186800
I0709 11:37:32.694804 101408 layer_factory.hpp:77] Creating layer accuracy
I0709 11:37:32.694811 101408 net.cpp:91] Creating Layer accuracy
I0709 11:37:32.694814 101408 net.cpp:425] accuracy <- ip2_ip2_0_split_0
I0709 11:37:32.694818 101408 net.cpp:425] accuracy <- label_mnist_1_split_0
I0709 11:37:32.694824 101408 net.cpp:399] accuracy -> accuracy
…
