…
I0822 10:46:31.053254 31175 net.cpp:322] The NetState phase (0) differed from the phase (1) specified by a rule in layer accuracy
I0822 10:46:31.053400 31175 net.cpp:58] Initializing net from parameters: 
name: "AlexNet"
state {
  phase: TRAIN
}
layer {
  name: "mnist"
  type: "Data"
  top: "data"
  top: "label"
  include {
    phase: TRAIN
  }
  transform_param {
    scale: 0.00390625
    mean_file: "data/person_only_lmdb/person_vs_background_vs_random_color_mean.binaryproto"
  }
  data_param {
    source: "data/person_only_lmdb/person_vs_background_vs_random_train_lmdb"
    batch_size: 128
    backend: LMDB
  }
}
layer {
  name: "conv1"
  type: "Convolution"
  bottom: "data"
  top: "conv1"
  param {
    lr_mult: 1
    decay_mult: 1
  }
  param {
    lr_mult: 2
    decay_mult: 0
  }
  convolution_param {
    num_output: 96
    kernel_size: 11
    stride: 4
    weight_filler {
      type: "gaussian"
      std: 0.01
    }
    bias_filler {
      type: "constant"
      value: 0
    }
  }
}
layer {
  name: "relu1"
  type: "ReLU"
  bottom: "conv1"
  top: "conv1"
}
layer {
  name: "norm1"
  type: "LRN"
  bottom: "conv1"
  top: "norm1"
  lrn_param {
    local_size: 5
    alpha: 0.0001
    beta: 0.75
  }
}
layer {
  name: "pool1"
  type: "Pooling"
  bottom: "norm1"
  top: "pool1"
  pooling_param {
    pool: MAX
    kernel_size: 3
    stride: 2
  }
}
layer {
  name: "conv2"
  type: "Convolution"
  bottom: "pool1"
  top: "conv2"
  param {
    lr_mult: 1
    decay_mult: 1
  }
  param {
    lr_mult: 2
    decay_mult: 0
  }
  convolution_param {
    num_output: 256
    pad: 2
    kernel_size: 5
    group: 2
    weight_filler {
      type: "gaussian"
      std: 0.01
    }
    bias_filler {
      type: "constant"
      value: 0.1
    }
  }
}
layer {
  name: "relu2"
  type: "ReLU"
  bottom: "conv2"
  top: "conv2"
}
layer {
  name: "norm2"
  type: "LRN"
  bottom: "conv2"
  top: "norm2"
  lrn_param {
    local_size: 5
    alpha: 0.0001
    beta: 0.75
  }
}
layer {
  name: "pool2"
  type: "Pooling"
  bottom: "norm2"
  top: "pool2"
  pooling_param {
    pool: MAX
    kernel_size: 3
    stride: 2
  }
}
layer {
  name: "conv3"
  type: "Convolution"
  bottom: "pool2"
  top: "conv3"
  param {
    lr_mult: 1
    decay_mult: 1
  }
  param {
    lr_mult: 2
    decay_mult: 0
  }
  convolution_param {
    num_output: 384
    pad: 1
    kernel_size: 3
    weight_filler {
      type: "gaussian"
      std: 0.01
    }
    bias_filler {
      type: "constant"
      value: 0
    }
  }
}
layer {
  name: "relu3"
  type: "ReLU"
  bottom: "conv3"
  top: "conv3"
}
layer {
  name: "conv4"
  type: "Convolution"
  bottom: "conv3"
  top: "conv4"
  param {
    lr_mult: 1
    decay_mult: 1
  }
  param {
    lr_mult: 2
    decay_mult: 0
  }
  convolution_param {
    num_output: 384
    pad: 1
    kernel_size: 3
    group: 2
    weight_filler {
      type: "gaussian"
      std: 0.01
    }
    bias_filler {
      type: "constant"
      value: 0.1
    }
  }
}
layer {
  name: "relu4"
  type: "ReLU"
  bottom: "conv4"
  top: "conv4"
}
layer {
  name: "conv5"
  type: "Convolution"
  bottom: "conv4"
  top: "conv5"
  param {
    lr_mult: 1
    decay_mult: 1
  }
  param {
    lr_mult: 2
    decay_mult: 0
  }
  convolution_param {
    num_output: 256
    pad: 1
    kernel_size: 3
    group: 2
    weight_filler {
      type: "gaussian"
      std: 0.01
    }
    bias_filler {
      type: "constant"
      value: 0.1
    }
  }
}
layer {
  name: "relu5"
  type: "ReLU"
  bottom: "conv5"
  top: "conv5"
}
layer {
  name: "pool5"
  type: "Pooling"
  bottom: "conv5"
  top: "pool5"
  pooling_param {
    pool: MAX
    kernel_size: 3
    stride: 2
  }
}
layer {
  name: "fc6"
  type: "InnerProduct"
  bottom: "pool5"
  top: "fc6"
  param {
    lr_mult: 1
    decay_mult: 1
  }
  param {
    lr_mult: 2
    decay_mult: 0
  }
  inner_product_param {
    num_output: 4096
    weight_filler {
      type: "gaussian"
      std: 0.005
    }
    bias_filler {
      type: "constant"
      value: 0.1
    }
  }
}
layer {
  name: "relu6"
  type: "ReLU"
  bottom: "fc6"
  top: "fc6"
}
layer {
  name: "drop6"
  type: "Dropout"
  bottom: "fc6"
  top: "fc6"
  dropout_param {
    dropout_ratio: 0.5
  }
}
layer {
  name: "fc7"
  type: "InnerProduct"
  bottom: "fc6"
  top: "fc7"
  param {
    lr_mult: 1
    decay_mult: 1
  }
  param {
    lr_mult: 2
    decay_mult: 0
  }
  inner_product_param {
    num_output: 4096
    weight_filler {
      type: "gaussian"
      std: 0.005
    }
    bias_filler {
      type: "constant"
      value: 0.1
    }
  }
}
layer {
  name: "relu7"
  type: "ReLU"
  bottom: "fc7"
  top: "fc7"
}
layer {
  name: "drop7"
  type: "Dropout"
  bottom: "fc7"
  top: "fc7"
  dropout_param {
    dropout_ratio: 0.5
  }
}
layer {
  name: "fc8"
  type: "InnerProduct"
  bottom: "fc7"
  top: "fc8"
  param {
    lr_mult: 1
    decay_mult: 1
  }
  param {
    lr_mult: 2
    decay_mult: 0
  }
  inner_product_param {
    num_output: 3
    weight_filler {
      type: "gaussian"
      std: 0.01
    }
    bias_filler {
      type: "constant"
      value: 0
    }
  }
}
layer {
  name: "loss"
  type: "SoftmaxWithLoss"
  bottom: "fc8"
  bottom: "label"
  top: "loss"
}
I0822 10:46:31.053498 31175 layer_factory.hpp:77] Creating layer mnist
I0822 10:46:31.053966 31175 net.cpp:100] Creating Layer mnist
I0822 10:46:31.053977 31175 net.cpp:408] mnist -> data
I0822 10:46:31.054005 31175 net.cpp:408] mnist -> label
I0822 10:46:31.054015 31175 data_transformer.cpp:25] Loading mean file from: data/person_only_lmdb/person_vs_background_vs_random_color_mean.binaryproto
I0822 10:46:31.056010 31184 db_lmdb.cpp:35] Opened lmdb data/person_only_lmdb/person_vs_background_vs_random_train_lmdb
I0822 10:46:31.093420 31175 data_layer.cpp:41] output data size: 128,3,128,128
I0822 10:46:31.161056 31175 net.cpp:150] Setting up mnist
I0822 10:46:31.161092 31175 net.cpp:157] Top shape: 128 3 128 128 (6291456)
I0822 10:46:31.161098 31175 net.cpp:157] Top shape: 128 (128)
I0822 10:46:31.161101 31175 net.cpp:165] Memory required for data: 25166336
I0822 10:46:31.161109 31175 layer_factory.hpp:77] Creating layer conv1
I0822 10:46:31.161142 31175 net.cpp:100] Creating Layer conv1
I0822 10:46:31.161149 31175 net.cpp:434] conv1 <- data
I0822 10:46:31.161160 31175 net.cpp:408] conv1 -> conv1
I0822 10:46:31.545169 31175 net.cpp:150] Setting up conv1
I0822 10:46:31.545215 31175 net.cpp:157] Top shape: 128 96 30 30 (11059200)
I0822 10:46:31.545222 31175 net.cpp:165] Memory required for data: 69403136
I0822 10:46:31.545244 31175 layer_factory.hpp:77] Creating layer relu1
I0822 10:46:31.545290 31175 net.cpp:100] Creating Layer relu1
I0822 10:46:31.545300 31175 net.cpp:434] relu1 <- conv1
I0822 10:46:31.545307 31175 net.cpp:395] relu1 -> conv1 (in-place)
I0822 10:46:31.545562 31175 net.cpp:150] Setting up relu1
I0822 10:46:31.545575 31175 net.cpp:157] Top shape: 128 96 30 30 (11059200)
I0822 10:46:31.545580 31175 net.cpp:165] Memory required for data: 113639936
I0822 10:46:31.545584 31175 layer_factory.hpp:77] Creating layer norm1
I0822 10:46:31.545595 31175 net.cpp:100] Creating Layer norm1
I0822 10:46:31.545603 31175 net.cpp:434] norm1 <- conv1
I0822 10:46:31.545610 31175 net.cpp:408] norm1 -> norm1
I0822 10:46:31.546344 31175 net.cpp:150] Setting up norm1
I0822 10:46:31.546363 31175 net.cpp:157] Top shape: 128 96 30 30 (11059200)
I0822 10:46:31.546367 31175 net.cpp:165] Memory required for data: 157876736
I0822 10:46:31.546372 31175 layer_factory.hpp:77] Creating layer pool1
I0822 10:46:31.546385 31175 net.cpp:100] Creating Layer pool1
I0822 10:46:31.546388 31175 net.cpp:434] pool1 <- norm1
I0822 10:46:31.546396 31175 net.cpp:408] pool1 -> pool1
I0822 10:46:31.546474 31175 net.cpp:150] Setting up pool1
I0822 10:46:31.546486 31175 net.cpp:157] Top shape: 128 96 15 15 (2764800)
I0822 10:46:31.546490 31175 net.cpp:165] Memory required for data: 168935936
I0822 10:46:31.546495 31175 layer_factory.hpp:77] Creating layer conv2
I0822 10:46:31.546511 31175 net.cpp:100] Creating Layer conv2
I0822 10:46:31.546517 31175 net.cpp:434] conv2 <- pool1
I0822 10:46:31.546525 31175 net.cpp:408] conv2 -> conv2
I0822 10:46:31.555193 31175 net.cpp:150] Setting up conv2
I0822 10:46:31.555217 31175 net.cpp:157] Top shape: 128 256 15 15 (7372800)
I0822 10:46:31.555222 31175 net.cpp:165] Memory required for data: 198427136
I0822 10:46:31.555234 31175 layer_factory.hpp:77] Creating layer relu2
I0822 10:46:31.555243 31175 net.cpp:100] Creating Layer relu2
I0822 10:46:31.555248 31175 net.cpp:434] relu2 <- conv2
I0822 10:46:31.555255 31175 net.cpp:395] relu2 -> conv2 (in-place)
I0822 10:46:31.555941 31175 net.cpp:150] Setting up relu2
I0822 10:46:31.555961 31175 net.cpp:157] Top shape: 128 256 15 15 (7372800)
I0822 10:46:31.555965 31175 net.cpp:165] Memory required for data: 227918336
I0822 10:46:31.555969 31175 layer_factory.hpp:77] Creating layer norm2
I0822 10:46:31.555979 31175 net.cpp:100] Creating Layer norm2
I0822 10:46:31.555985 31175 net.cpp:434] norm2 <- conv2
I0822 10:46:31.555994 31175 net.cpp:408] norm2 -> norm2
I0822 10:46:31.556308 31175 net.cpp:150] Setting up norm2
I0822 10:46:31.556325 31175 net.cpp:157] Top shape: 128 256 15 15 (7372800)
I0822 10:46:31.556329 31175 net.cpp:165] Memory required for data: 257409536
I0822 10:46:31.556334 31175 layer_factory.hpp:77] Creating layer pool2
I0822 10:46:31.556344 31175 net.cpp:100] Creating Layer pool2
I0822 10:46:31.556349 31175 net.cpp:434] pool2 <- norm2
I0822 10:46:31.556356 31175 net.cpp:408] pool2 -> pool2
I0822 10:46:31.556445 31175 net.cpp:150] Setting up pool2
I0822 10:46:31.556457 31175 net.cpp:157] Top shape: 128 256 7 7 (1605632)
I0822 10:46:31.556459 31175 net.cpp:165] Memory required for data: 263832064
I0822 10:46:31.556463 31175 layer_factory.hpp:77] Creating layer conv3
I0822 10:46:31.556476 31175 net.cpp:100] Creating Layer conv3
I0822 10:46:31.556483 31175 net.cpp:434] conv3 <- pool2
I0822 10:46:31.556490 31175 net.cpp:408] conv3 -> conv3
I0822 10:46:31.584098 31175 net.cpp:150] Setting up conv3
I0822 10:46:31.584156 31175 net.cpp:157] Top shape: 128 384 7 7 (2408448)
I0822 10:46:31.584163 31175 net.cpp:165] Memory required for data: 273465856
I0822 10:46:31.584189 31175 layer_factory.hpp:77] Creating layer relu3
I0822 10:46:31.584209 31175 net.cpp:100] Creating Layer relu3
I0822 10:46:31.584218 31175 net.cpp:434] relu3 <- conv3
I0822 10:46:31.584230 31175 net.cpp:395] relu3 -> conv3 (in-place)
I0822 10:46:31.584591 31175 net.cpp:150] Setting up relu3
I0822 10:46:31.584609 31175 net.cpp:157] Top shape: 128 384 7 7 (2408448)
I0822 10:46:31.584616 31175 net.cpp:165] Memory required for data: 283099648
I0822 10:46:31.584621 31175 layer_factory.hpp:77] Creating layer conv4
I0822 10:46:31.584642 31175 net.cpp:100] Creating Layer conv4
I0822 10:46:31.584650 31175 net.cpp:434] conv4 <- conv3
I0822 10:46:31.584661 31175 net.cpp:408] conv4 -> conv4
I0822 10:46:31.604149 31175 net.cpp:150] Setting up conv4
I0822 10:46:31.604189 31175 net.cpp:157] Top shape: 128 384 7 7 (2408448)
I0822 10:46:31.604195 31175 net.cpp:165] Memory required for data: 292733440
I0822 10:46:31.604212 31175 layer_factory.hpp:77] Creating layer relu4
I0822 10:46:31.604229 31175 net.cpp:100] Creating Layer relu4
I0822 10:46:31.604238 31175 net.cpp:434] relu4 <- conv4
I0822 10:46:31.604250 31175 net.cpp:395] relu4 -> conv4 (in-place)
I0822 10:46:31.604559 31175 net.cpp:150] Setting up relu4
I0822 10:46:31.604575 31175 net.cpp:157] Top shape: 128 384 7 7 (2408448)
I0822 10:46:31.604583 31175 net.cpp:165] Memory required for data: 302367232
I0822 10:46:31.604588 31175 layer_factory.hpp:77] Creating layer conv5
I0822 10:46:31.604609 31175 net.cpp:100] Creating Layer conv5
I0822 10:46:31.604614 31175 net.cpp:434] conv5 <- conv4
I0822 10:46:31.604624 31175 net.cpp:408] conv5 -> conv5
I0822 10:46:31.621505 31175 net.cpp:150] Setting up conv5
I0822 10:46:31.621544 31175 net.cpp:157] Top shape: 128 256 7 7 (1605632)
I0822 10:46:31.621551 31175 net.cpp:165] Memory required for data: 308789760
I0822 10:46:31.621575 31175 layer_factory.hpp:77] Creating layer relu5
I0822 10:46:31.621592 31175 net.cpp:100] Creating Layer relu5
I0822 10:46:31.621599 31175 net.cpp:434] relu5 <- conv5
I0822 10:46:31.621613 31175 net.cpp:395] relu5 -> conv5 (in-place)
I0822 10:46:31.621896 31175 net.cpp:150] Setting up relu5
I0822 10:46:31.621912 31175 net.cpp:157] Top shape: 128 256 7 7 (1605632)
I0822 10:46:31.621917 31175 net.cpp:165] Memory required for data: 315212288
I0822 10:46:31.621922 31175 layer_factory.hpp:77] Creating layer pool5
I0822 10:46:31.621932 31175 net.cpp:100] Creating Layer pool5
I0822 10:46:31.621938 31175 net.cpp:434] pool5 <- conv5
I0822 10:46:31.621948 31175 net.cpp:408] pool5 -> pool5
I0822 10:46:31.622051 31175 net.cpp:150] Setting up pool5
I0822 10:46:31.622062 31175 net.cpp:157] Top shape: 128 256 3 3 (294912)
I0822 10:46:31.622066 31175 net.cpp:165] Memory required for data: 316391936
I0822 10:46:31.622071 31175 layer_factory.hpp:77] Creating layer fc6
I0822 10:46:31.622094 31175 net.cpp:100] Creating Layer fc6
I0822 10:46:31.622100 31175 net.cpp:434] fc6 <- pool5
I0822 10:46:31.622110 31175 net.cpp:408] fc6 -> fc6
I0822 10:46:31.766139 31175 net.cpp:150] Setting up fc6
I0822 10:46:31.766173 31175 net.cpp:157] Top shape: 128 4096 (524288)
I0822 10:46:31.766177 31175 net.cpp:165] Memory required for data: 318489088
I0822 10:46:31.766191 31175 layer_factory.hpp:77] Creating layer relu6
I0822 10:46:31.766206 31175 net.cpp:100] Creating Layer relu6
I0822 10:46:31.766209 31175 net.cpp:434] relu6 <- fc6
I0822 10:46:31.766219 31175 net.cpp:395] relu6 -> fc6 (in-place)
I0822 10:46:31.766921 31175 net.cpp:150] Setting up relu6
I0822 10:46:31.766937 31175 net.cpp:157] Top shape: 128 4096 (524288)
I0822 10:46:31.766939 31175 net.cpp:165] Memory required for data: 320586240
I0822 10:46:31.766942 31175 layer_factory.hpp:77] Creating layer drop6
I0822 10:46:31.766952 31175 net.cpp:100] Creating Layer drop6
I0822 10:46:31.766955 31175 net.cpp:434] drop6 <- fc6
I0822 10:46:31.766963 31175 net.cpp:395] drop6 -> fc6 (in-place)
I0822 10:46:31.767000 31175 net.cpp:150] Setting up drop6
I0822 10:46:31.767009 31175 net.cpp:157] Top shape: 128 4096 (524288)
I0822 10:46:31.767011 31175 net.cpp:165] Memory required for data: 322683392
I0822 10:46:31.767015 31175 layer_factory.hpp:77] Creating layer fc7
I0822 10:46:31.767026 31175 net.cpp:100] Creating Layer fc7
I0822 10:46:31.767030 31175 net.cpp:434] fc7 <- fc6
I0822 10:46:31.767036 31175 net.cpp:408] fc7 -> fc7
I0822 10:46:32.046958 31175 net.cpp:150] Setting up fc7
I0822 10:46:32.047001 31175 net.cpp:157] Top shape: 128 4096 (524288)
I0822 10:46:32.047005 31175 net.cpp:165] Memory required for data: 324780544
I0822 10:46:32.047019 31175 layer_factory.hpp:77] Creating layer relu7
I0822 10:46:32.047034 31175 net.cpp:100] Creating Layer relu7
I0822 10:46:32.047039 31175 net.cpp:434] relu7 <- fc7
I0822 10:46:32.047049 31175 net.cpp:395] relu7 -> fc7 (in-place)
I0822 10:46:32.047433 31175 net.cpp:150] Setting up relu7
I0822 10:46:32.047452 31175 net.cpp:157] Top shape: 128 4096 (524288)
I0822 10:46:32.047458 31175 net.cpp:165] Memory required for data: 326877696
I0822 10:46:32.047464 31175 layer_factory.hpp:77] Creating layer drop7
I0822 10:46:32.047477 31175 net.cpp:100] Creating Layer drop7
I0822 10:46:32.047482 31175 net.cpp:434] drop7 <- fc7
I0822 10:46:32.047492 31175 net.cpp:395] drop7 -> fc7 (in-place)
I0822 10:46:32.047539 31175 net.cpp:150] Setting up drop7
I0822 10:46:32.047554 31175 net.cpp:157] Top shape: 128 4096 (524288)
I0822 10:46:32.047559 31175 net.cpp:165] Memory required for data: 328974848
I0822 10:46:32.047562 31175 layer_factory.hpp:77] Creating layer fc8
I0822 10:46:32.047577 31175 net.cpp:100] Creating Layer fc8
I0822 10:46:32.047582 31175 net.cpp:434] fc8 <- fc7
I0822 10:46:32.047593 31175 net.cpp:408] fc8 -> fc8
I0822 10:46:32.049891 31175 net.cpp:150] Setting up fc8
I0822 10:46:32.049908 31175 net.cpp:157] Top shape: 128 3 (384)
I0822 10:46:32.049911 31175 net.cpp:165] Memory required for data: 328976384
I0822 10:46:32.049919 31175 layer_factory.hpp:77] Creating layer loss
I0822 10:46:32.049933 31175 net.cpp:100] Creating Layer loss
I0822 10:46:32.049937 31175 net.cpp:434] loss <- fc8
I0822 10:46:32.049942 31175 net.cpp:434] loss <- label
I0822 10:46:32.049947 31175 net.cpp:408] loss -> loss
I0822 10:46:32.049960 31175 layer_factory.hpp:77] Creating layer loss
…
I0822 10:46:32.051367 31175 net.cpp:322] The NetState phase (1) differed from the phase (0) specified by a rule in layer mnist
I0822 10:46:32.051679 31175 net.cpp:58] Initializing net from parameters: 
name: "AlexNet"
state {
  phase: TEST
}
layer {
  name: "mnist"
  type: "Data"
  top: "data"
  top: "label"
  include {
    phase: TEST
  }
  transform_param {
    scale: 0.00390625
    mean_file: "data/person_only_lmdb/person_vs_background_vs_random_color_mean.binaryproto"
  }
  data_param {
    source: "data/person_only_lmdb/person_vs_background_vs_random_test_lmdb"
    batch_size: 100
    backend: LMDB
  }
}
layer {
  name: "conv1"
  type: "Convolution"
  bottom: "data"
  top: "conv1"
  param {
    lr_mult: 1
    decay_mult: 1
  }
  param {
    lr_mult: 2
    decay_mult: 0
  }
  convolution_param {
    num_output: 96
    kernel_size: 11
    stride: 4
    weight_filler {
      type: "gaussian"
      std: 0.01
    }
    bias_filler {
      type: "constant"
      value: 0
    }
  }
}
layer {
  name: "relu1"
  type: "ReLU"
  bottom: "conv1"
  top: "conv1"
}
layer {
  name: "norm1"
  type: "LRN"
  bottom: "conv1"
  top: "norm1"
  lrn_param {
    local_size: 5
    alpha: 0.0001
    beta: 0.75
  }
}
layer {
  name: "pool1"
  type: "Pooling"
  bottom: "norm1"
  top: "pool1"
  pooling_param {
    pool: MAX
    kernel_size: 3
    stride: 2
  }
}
layer {
  name: "conv2"
  type: "Convolution"
  bottom: "pool1"
  top: "conv2"
  param {
    lr_mult: 1
    decay_mult: 1
  }
  param {
    lr_mult: 2
    decay_mult: 0
  }
  convolution_param {
    num_output: 256
    pad: 2
    kernel_size: 5
    group: 2
    weight_filler {
      type: "gaussian"
      std: 0.01
    }
    bias_filler {
      type: "constant"
      value: 0.1
    }
  }
}
layer {
  name: "relu2"
  type: "ReLU"
  bottom: "conv2"
  top: "conv2"
}
layer {
  name: "norm2"
  type: "LRN"
  bottom: "conv2"
  top: "norm2"
  lrn_param {
    local_size: 5
    alpha: 0.0001
    beta: 0.75
  }
}
layer {
  name: "pool2"
  type: "Pooling"
  bottom: "norm2"
  top: "pool2"
  pooling_param {
    pool: MAX
    kernel_size: 3
    stride: 2
  }
}
layer {
  name: "conv3"
  type: "Convolution"
  bottom: "pool2"
  top: "conv3"
  param {
    lr_mult: 1
    decay_mult: 1
  }
  param {
    lr_mult: 2
    decay_mult: 0
  }
  convolution_param {
    num_output: 384
    pad: 1
    kernel_size: 3
    weight_filler {
      type: "gaussian"
      std: 0.01
    }
    bias_filler {
      type: "constant"
      value: 0
    }
  }
}
layer {
  name: "relu3"
  type: "ReLU"
  bottom: "conv3"
  top: "conv3"
}
layer {
  name: "conv4"
  type: "Convolution"
  bottom: "conv3"
  top: "conv4"
  param {
    lr_mult: 1
    decay_mult: 1
  }
  param {
    lr_mult: 2
    decay_mult: 0
  }
  convolution_param {
    num_output: 384
    pad: 1
    kernel_size: 3
    group: 2
    weight_filler {
      type: "gaussian"
      std: 0.01
    }
    bias_filler {
      type: "constant"
      value: 0.1
    }
  }
}
layer {
  name: "relu4"
  type: "ReLU"
  bottom: "conv4"
  top: "conv4"
}
layer {
  name: "conv5"
  type: "Convolution"
  bottom: "conv4"
  top: "conv5"
  param {
    lr_mult: 1
    decay_mult: 1
  }
  param {
    lr_mult: 2
    decay_mult: 0
  }
  convolution_param {
    num_output: 256
    pad: 1
    kernel_size: 3
    group: 2
    weight_filler {
      type: "gaussian"
      std: 0.01
    }
    bias_filler {
      type: "constant"
      value: 0.1
    }
  }
}
layer {
  name: "relu5"
  type: "ReLU"
  bottom: "conv5"
  top: "conv5"
}
layer {
  name: "pool5"
  type: "Pooling"
  bottom: "conv5"
  top: "pool5"
  pooling_param {
    pool: MAX
    kernel_size: 3
    stride: 2
  }
}
layer {
  name: "fc6"
  type: "InnerProduct"
  bottom: "pool5"
  top: "fc6"
  param {
    lr_mult: 1
    decay_mult: 1
  }
  param {
    lr_mult: 2
    decay_mult: 0
  }
  inner_product_param {
    num_output: 4096
    weight_filler {
      type: "gaussian"
      std: 0.005
    }
    bias_filler {
      type: "constant"
      value: 0.1
    }
  }
}
layer {
  name: "relu6"
  type: "ReLU"
  bottom: "fc6"
  top: "fc6"
}
layer {
  name: "drop6"
  type: "Dropout"
  bottom: "fc6"
  top: "fc6"
  dropout_param {
    dropout_ratio: 0.5
  }
}
layer {
  name: "fc7"
  type: "InnerProduct"
  bottom: "fc6"
  top: "fc7"
  param {
    lr_mult: 1
    decay_mult: 1
  }
  param {
    lr_mult: 2
    decay_mult: 0
  }
  inner_product_param {
    num_output: 4096
    weight_filler {
      type: "gaussian"
      std: 0.005
    }
    bias_filler {
      type: "constant"
      value: 0.1
    }
  }
}
layer {
  name: "relu7"
  type: "ReLU"
  bottom: "fc7"
  top: "fc7"
}
layer {
  name: "drop7"
  type: "Dropout"
  bottom: "fc7"
  top: "fc7"
  dropout_param {
    dropout_ratio: 0.5
  }
}
layer {
  name: "fc8"
  type: "InnerProduct"
  bottom: "fc7"
  top: "fc8"
  param {
    lr_mult: 1
    decay_mult: 1
  }
  param {
    lr_mult: 2
    decay_mult: 0
  }
  inner_product_param {
    num_output: 3
    weight_filler {
      type: "gaussian"
      std: 0.01
    }
    bias_filler {
      type: "constant"
      value: 0
    }
  }
}
layer {
  name: "accuracy"
  type: "Accuracy"
  bottom: "fc8"
  bottom: "label"
  top: "accuracy"
  include {
    phase: TEST
  }
}
layer {
  name: "loss"
  type: "SoftmaxWithLoss"
  bottom: "fc8"
  bottom: "label"
  top: "loss"
}
I0822 10:46:32.051844 31175 layer_factory.hpp:77] Creating layer mnist
I0822 10:46:32.052039 31175 net.cpp:100] Creating Layer mnist
I0822 10:46:32.052055 31175 net.cpp:408] mnist -> data
I0822 10:46:32.052072 31175 net.cpp:408] mnist -> label
I0822 10:46:32.052084 31175 data_transformer.cpp:25] Loading mean file from: data/person_only_lmdb/person_vs_background_vs_random_color_mean.binaryproto
I0822 10:46:32.055922 31186 db_lmdb.cpp:35] Opened lmdb data/person_only_lmdb/person_vs_background_vs_random_test_lmdb
I0822 10:46:32.057679 31175 data_layer.cpp:41] output data size: 100,3,128,128
I0822 10:46:32.113324 31175 net.cpp:150] Setting up mnist
I0822 10:46:32.113368 31175 net.cpp:157] Top shape: 100 3 128 128 (4915200)
I0822 10:46:32.113379 31175 net.cpp:157] Top shape: 100 (100)
I0822 10:46:32.113384 31175 net.cpp:165] Memory required for data: 19661200
I0822 10:46:32.113394 31175 layer_factory.hpp:77] Creating layer label_mnist_1_split
I0822 10:46:32.113417 31175 net.cpp:100] Creating Layer label_mnist_1_split
I0822 10:46:32.113426 31175 net.cpp:434] label_mnist_1_split <- label
I0822 10:46:32.113440 31175 net.cpp:408] label_mnist_1_split -> label_mnist_1_split_0
I0822 10:46:32.113459 31175 net.cpp:408] label_mnist_1_split -> label_mnist_1_split_1
I0822 10:46:32.113714 31175 net.cpp:150] Setting up label_mnist_1_split
I0822 10:46:32.113731 31175 net.cpp:157] Top shape: 100 (100)
I0822 10:46:32.113739 31175 net.cpp:157] Top shape: 100 (100)
I0822 10:46:32.113745 31175 net.cpp:165] Memory required for data: 19662000
I0822 10:46:32.113751 31175 layer_factory.hpp:77] Creating layer conv1
I0822 10:46:32.113780 31175 net.cpp:100] Creating Layer conv1
I0822 10:46:32.113787 31175 net.cpp:434] conv1 <- data
I0822 10:46:32.113800 31175 net.cpp:408] conv1 -> conv1
I0822 10:46:32.124636 31175 net.cpp:150] Setting up conv1
I0822 10:46:32.124676 31175 net.cpp:157] Top shape: 100 96 30 30 (8640000)
I0822 10:46:32.124685 31175 net.cpp:165] Memory required for data: 54222000
I0822 10:46:32.124711 31175 layer_factory.hpp:77] Creating layer relu1
I0822 10:46:32.124727 31175 net.cpp:100] Creating Layer relu1
I0822 10:46:32.124735 31175 net.cpp:434] relu1 <- conv1
I0822 10:46:32.124745 31175 net.cpp:395] relu1 -> conv1 (in-place)
I0822 10:46:32.125095 31175 net.cpp:150] Setting up relu1
I0822 10:46:32.125115 31175 net.cpp:157] Top shape: 100 96 30 30 (8640000)
I0822 10:46:32.125123 31175 net.cpp:165] Memory required for data: 88782000
I0822 10:46:32.125128 31175 layer_factory.hpp:77] Creating layer norm1
I0822 10:46:32.125144 31175 net.cpp:100] Creating Layer norm1
I0822 10:46:32.125152 31175 net.cpp:434] norm1 <- conv1
I0822 10:46:32.125169 31175 net.cpp:408] norm1 -> norm1
I0822 10:46:32.126317 31175 net.cpp:150] Setting up norm1
I0822 10:46:32.126341 31175 net.cpp:157] Top shape: 100 96 30 30 (8640000)
I0822 10:46:32.126349 31175 net.cpp:165] Memory required for data: 123342000
I0822 10:46:32.126359 31175 layer_factory.hpp:77] Creating layer pool1
I0822 10:46:32.126375 31175 net.cpp:100] Creating Layer pool1
I0822 10:46:32.126384 31175 net.cpp:434] pool1 <- norm1
I0822 10:46:32.126394 31175 net.cpp:408] pool1 -> pool1
I0822 10:46:32.126504 31175 net.cpp:150] Setting up pool1
I0822 10:46:32.126518 31175 net.cpp:157] Top shape: 100 96 15 15 (2160000)
I0822 10:46:32.126525 31175 net.cpp:165] Memory required for data: 131982000
I0822 10:46:32.126531 31175 layer_factory.hpp:77] Creating layer conv2
I0822 10:46:32.126551 31175 net.cpp:100] Creating Layer conv2
I0822 10:46:32.126559 31175 net.cpp:434] conv2 <- pool1
I0822 10:46:32.126569 31175 net.cpp:408] conv2 -> conv2
I0822 10:46:32.138118 31175 net.cpp:150] Setting up conv2
I0822 10:46:32.138149 31175 net.cpp:157] Top shape: 100 256 15 15 (5760000)
I0822 10:46:32.138154 31175 net.cpp:165] Memory required for data: 155022000
I0822 10:46:32.138173 31175 layer_factory.hpp:77] Creating layer relu2
I0822 10:46:32.138188 31175 net.cpp:100] Creating Layer relu2
I0822 10:46:32.138193 31175 net.cpp:434] relu2 <- conv2
I0822 10:46:32.138203 31175 net.cpp:395] relu2 -> conv2 (in-place)
I0822 10:46:32.139124 31175 net.cpp:150] Setting up relu2
I0822 10:46:32.139147 31175 net.cpp:157] Top shape: 100 256 15 15 (5760000)
I0822 10:46:32.139154 31175 net.cpp:165] Memory required for data: 178062000
I0822 10:46:32.139159 31175 layer_factory.hpp:77] Creating layer norm2
I0822 10:46:32.139183 31175 net.cpp:100] Creating Layer norm2
I0822 10:46:32.139190 31175 net.cpp:434] norm2 <- conv2
I0822 10:46:32.139200 31175 net.cpp:408] norm2 -> norm2
I0822 10:46:32.139700 31175 net.cpp:150] Setting up norm2
I0822 10:46:32.139719 31175 net.cpp:157] Top shape: 100 256 15 15 (5760000)
I0822 10:46:32.139725 31175 net.cpp:165] Memory required for data: 201102000
I0822 10:46:32.139731 31175 layer_factory.hpp:77] Creating layer pool2
I0822 10:46:32.139747 31175 net.cpp:100] Creating Layer pool2
I0822 10:46:32.139755 31175 net.cpp:434] pool2 <- norm2
I0822 10:46:32.139765 31175 net.cpp:408] pool2 -> pool2
I0822 10:46:32.139870 31175 net.cpp:150] Setting up pool2
I0822 10:46:32.139883 31175 net.cpp:157] Top shape: 100 256 7 7 (1254400)
I0822 10:46:32.139890 31175 net.cpp:165] Memory required for data: 206119600
I0822 10:46:32.139894 31175 layer_factory.hpp:77] Creating layer conv3
I0822 10:46:32.139919 31175 net.cpp:100] Creating Layer conv3
I0822 10:46:32.139926 31175 net.cpp:434] conv3 <- pool2
I0822 10:46:32.139938 31175 net.cpp:408] conv3 -> conv3
I0822 10:46:32.161736 31175 net.cpp:150] Setting up conv3
I0822 10:46:32.161773 31175 net.cpp:157] Top shape: 100 384 7 7 (1881600)
I0822 10:46:32.161779 31175 net.cpp:165] Memory required for data: 213646000
I0822 10:46:32.161800 31175 layer_factory.hpp:77] Creating layer relu3
I0822 10:46:32.161813 31175 net.cpp:100] Creating Layer relu3
I0822 10:46:32.161818 31175 net.cpp:434] relu3 <- conv3
I0822 10:46:32.161828 31175 net.cpp:395] relu3 -> conv3 (in-place)
I0822 10:46:32.162144 31175 net.cpp:150] Setting up relu3
I0822 10:46:32.162160 31175 net.cpp:157] Top shape: 100 384 7 7 (1881600)
I0822 10:46:32.162165 31175 net.cpp:165] Memory required for data: 221172400
I0822 10:46:32.162171 31175 layer_factory.hpp:77] Creating layer conv4
I0822 10:46:32.162194 31175 net.cpp:100] Creating Layer conv4
I0822 10:46:32.162199 31175 net.cpp:434] conv4 <- conv3
I0822 10:46:32.162207 31175 net.cpp:408] conv4 -> conv4
I0822 10:46:32.180361 31175 net.cpp:150] Setting up conv4
I0822 10:46:32.180405 31175 net.cpp:157] Top shape: 100 384 7 7 (1881600)
I0822 10:46:32.180413 31175 net.cpp:165] Memory required for data: 228698800
I0822 10:46:32.180430 31175 layer_factory.hpp:77] Creating layer relu4
I0822 10:46:32.180449 31175 net.cpp:100] Creating Layer relu4
I0822 10:46:32.180457 31175 net.cpp:434] relu4 <- conv4
I0822 10:46:32.180474 31175 net.cpp:395] relu4 -> conv4 (in-place)
I0822 10:46:32.181552 31175 net.cpp:150] Setting up relu4
I0822 10:46:32.181578 31175 net.cpp:157] Top shape: 100 384 7 7 (1881600)
I0822 10:46:32.181583 31175 net.cpp:165] Memory required for data: 236225200
I0822 10:46:32.181589 31175 layer_factory.hpp:77] Creating layer conv5
I0822 10:46:32.181613 31175 net.cpp:100] Creating Layer conv5
I0822 10:46:32.181620 31175 net.cpp:434] conv5 <- conv4
I0822 10:46:32.181632 31175 net.cpp:408] conv5 -> conv5
I0822 10:46:32.198160 31175 net.cpp:150] Setting up conv5
I0822 10:46:32.198199 31175 net.cpp:157] Top shape: 100 256 7 7 (1254400)
I0822 10:46:32.198204 31175 net.cpp:165] Memory required for data: 241242800
I0822 10:46:32.198252 31175 layer_factory.hpp:77] Creating layer relu5
I0822 10:46:32.198273 31175 net.cpp:100] Creating Layer relu5
I0822 10:46:32.198282 31175 net.cpp:434] relu5 <- conv5
I0822 10:46:32.198293 31175 net.cpp:395] relu5 -> conv5 (in-place)
I0822 10:46:32.198642 31175 net.cpp:150] Setting up relu5
I0822 10:46:32.198657 31175 net.cpp:157] Top shape: 100 256 7 7 (1254400)
I0822 10:46:32.198662 31175 net.cpp:165] Memory required for data: 246260400
I0822 10:46:32.198667 31175 layer_factory.hpp:77] Creating layer pool5
I0822 10:46:32.198686 31175 net.cpp:100] Creating Layer pool5
I0822 10:46:32.198693 31175 net.cpp:434] pool5 <- conv5
I0822 10:46:32.198700 31175 net.cpp:408] pool5 -> pool5
I0822 10:46:32.198835 31175 net.cpp:150] Setting up pool5
I0822 10:46:32.198848 31175 net.cpp:157] Top shape: 100 256 3 3 (230400)
I0822 10:46:32.198853 31175 net.cpp:165] Memory required for data: 247182000
I0822 10:46:32.198858 31175 layer_factory.hpp:77] Creating layer fc6
I0822 10:46:32.198873 31175 net.cpp:100] Creating Layer fc6
I0822 10:46:32.198879 31175 net.cpp:434] fc6 <- pool5
I0822 10:46:32.198886 31175 net.cpp:408] fc6 -> fc6
I0822 10:46:32.385483 31175 net.cpp:150] Setting up fc6
I0822 10:46:32.385524 31175 net.cpp:157] Top shape: 100 4096 (409600)
I0822 10:46:32.385529 31175 net.cpp:165] Memory required for data: 248820400
I0822 10:46:32.385542 31175 layer_factory.hpp:77] Creating layer relu6
I0822 10:46:32.385555 31175 net.cpp:100] Creating Layer relu6
I0822 10:46:32.385560 31175 net.cpp:434] relu6 <- fc6
I0822 10:46:32.385568 31175 net.cpp:395] relu6 -> fc6 (in-place)
I0822 10:46:32.385880 31175 net.cpp:150] Setting up relu6
I0822 10:46:32.385891 31175 net.cpp:157] Top shape: 100 4096 (409600)
I0822 10:46:32.385895 31175 net.cpp:165] Memory required for data: 250458800
I0822 10:46:32.385901 31175 layer_factory.hpp:77] Creating layer drop6
I0822 10:46:32.385910 31175 net.cpp:100] Creating Layer drop6
I0822 10:46:32.385912 31175 net.cpp:434] drop6 <- fc6
I0822 10:46:32.385920 31175 net.cpp:395] drop6 -> fc6 (in-place)
I0822 10:46:32.386013 31175 net.cpp:150] Setting up drop6
I0822 10:46:32.386023 31175 net.cpp:157] Top shape: 100 4096 (409600)
I0822 10:46:32.386026 31175 net.cpp:165] Memory required for data: 252097200
I0822 10:46:32.386029 31175 layer_factory.hpp:77] Creating layer fc7
I0822 10:46:32.386040 31175 net.cpp:100] Creating Layer fc7
I0822 10:46:32.386044 31175 net.cpp:434] fc7 <- fc6
I0822 10:46:32.386049 31175 net.cpp:408] fc7 -> fc7
I0822 10:46:32.615742 31175 net.cpp:150] Setting up fc7
I0822 10:46:32.615782 31175 net.cpp:157] Top shape: 100 4096 (409600)
I0822 10:46:32.615787 31175 net.cpp:165] Memory required for data: 253735600
I0822 10:46:32.615798 31175 layer_factory.hpp:77] Creating layer relu7
I0822 10:46:32.615810 31175 net.cpp:100] Creating Layer relu7
I0822 10:46:32.615814 31175 net.cpp:434] relu7 <- fc7
I0822 10:46:32.615823 31175 net.cpp:395] relu7 -> fc7 (in-place)
I0822 10:46:32.616665 31175 net.cpp:150] Setting up relu7
I0822 10:46:32.616683 31175 net.cpp:157] Top shape: 100 4096 (409600)
I0822 10:46:32.616685 31175 net.cpp:165] Memory required for data: 255374000
I0822 10:46:32.616688 31175 layer_factory.hpp:77] Creating layer drop7
I0822 10:46:32.616696 31175 net.cpp:100] Creating Layer drop7
I0822 10:46:32.616699 31175 net.cpp:434] drop7 <- fc7
I0822 10:46:32.616704 31175 net.cpp:395] drop7 -> fc7 (in-place)
I0822 10:46:32.616762 31175 net.cpp:150] Setting up drop7
I0822 10:46:32.616770 31175 net.cpp:157] Top shape: 100 4096 (409600)
I0822 10:46:32.616773 31175 net.cpp:165] Memory required for data: 257012400
I0822 10:46:32.616776 31175 layer_factory.hpp:77] Creating layer fc8
I0822 10:46:32.616783 31175 net.cpp:100] Creating Layer fc8
I0822 10:46:32.616786 31175 net.cpp:434] fc8 <- fc7
I0822 10:46:32.616793 31175 net.cpp:408] fc8 -> fc8
I0822 10:46:32.617151 31175 net.cpp:150] Setting up fc8
I0822 10:46:32.617159 31175 net.cpp:157] Top shape: 100 3 (300)
I0822 10:46:32.617162 31175 net.cpp:165] Memory required for data: 257013600
I0822 10:46:32.617168 31175 layer_factory.hpp:77] Creating layer fc8_fc8_0_split
I0822 10:46:32.617175 31175 net.cpp:100] Creating Layer fc8_fc8_0_split
I0822 10:46:32.617178 31175 net.cpp:434] fc8_fc8_0_split <- fc8
I0822 10:46:32.617182 31175 net.cpp:408] fc8_fc8_0_split -> fc8_fc8_0_split_0
I0822 10:46:32.617189 31175 net.cpp:408] fc8_fc8_0_split -> fc8_fc8_0_split_1
I0822 10:46:32.617254 31175 net.cpp:150] Setting up fc8_fc8_0_split
I0822 10:46:32.617261 31175 net.cpp:157] Top shape: 100 3 (300)
I0822 10:46:32.617265 31175 net.cpp:157] Top shape: 100 3 (300)
I0822 10:46:32.617267 31175 net.cpp:165] Memory required for data: 257016000
I0822 10:46:32.617270 31175 layer_factory.hpp:77] Creating layer accuracy
I0822 10:46:32.617278 31175 net.cpp:100] Creating Layer accuracy
I0822 10:46:32.617281 31175 net.cpp:434] accuracy <- fc8_fc8_0_split_0
I0822 10:46:32.617285 31175 net.cpp:434] accuracy <- label_mnist_1_split_0
I0822 10:46:32.617290 31175 net.cpp:408] accuracy -> accuracy
…
