…
I0822 11:15:10.113689 31636 net.cpp:322] The NetState phase (0) differed from the phase (1) specified by a rule in layer accuracy
I0822 11:15:10.113828 31636 net.cpp:58] Initializing net from parameters: 
name: "AlexNet"
state {
  phase: TRAIN
}
layer {
  name: "mnist"
  type: "Data"
  top: "data"
  top: "label"
  include {
    phase: TRAIN
  }
  transform_param {
    scale: 0.00390625
    mean_file: "data/person_only_lmdb/person_vs_background_vs_random_color_mean.binaryproto"
  }
  data_param {
    source: "data/person_only_lmdb/person_vs_background_vs_random_train_lmdb"
    batch_size: 128
    backend: LMDB
  }
}
layer {
  name: "conv1"
  type: "Convolution"
  bottom: "data"
  top: "conv1"
  param {
    lr_mult: 1
    decay_mult: 1
  }
  param {
    lr_mult: 2
    decay_mult: 0
  }
  convolution_param {
    num_output: 96
    kernel_size: 11
    stride: 4
    weight_filler {
      type: "gaussian"
      std: 0.01
    }
    bias_filler {
      type: "constant"
      value: 0
    }
  }
}
layer {
  name: "relu1"
  type: "ReLU"
  bottom: "conv1"
  top: "conv1"
}
layer {
  name: "norm1"
  type: "LRN"
  bottom: "conv1"
  top: "norm1"
  lrn_param {
    local_size: 5
    alpha: 0.0001
    beta: 0.75
  }
}
layer {
  name: "pool1"
  type: "Pooling"
  bottom: "norm1"
  top: "pool1"
  pooling_param {
    pool: MAX
    kernel_size: 3
    stride: 2
  }
}
layer {
  name: "conv2"
  type: "Convolution"
  bottom: "pool1"
  top: "conv2"
  param {
    lr_mult: 1
    decay_mult: 1
  }
  param {
    lr_mult: 2
    decay_mult: 0
  }
  convolution_param {
    num_output: 256
    pad: 2
    kernel_size: 5
    group: 2
    weight_filler {
      type: "gaussian"
      std: 0.01
    }
    bias_filler {
      type: "constant"
      value: 0.1
    }
  }
}
layer {
  name: "relu2"
  type: "ReLU"
  bottom: "conv2"
  top: "conv2"
}
layer {
  name: "norm2"
  type: "LRN"
  bottom: "conv2"
  top: "norm2"
  lrn_param {
    local_size: 5
    alpha: 0.0001
    beta: 0.75
  }
}
layer {
  name: "pool2"
  type: "Pooling"
  bottom: "norm2"
  top: "pool2"
  pooling_param {
    pool: MAX
    kernel_size: 3
    stride: 2
  }
}
layer {
  name: "conv3"
  type: "Convolution"
  bottom: "pool2"
  top: "conv3"
  param {
    lr_mult: 1
    decay_mult: 1
  }
  param {
    lr_mult: 2
    decay_mult: 0
  }
  convolution_param {
    num_output: 384
    pad: 1
    kernel_size: 3
    weight_filler {
      type: "gaussian"
      std: 0.01
    }
    bias_filler {
      type: "constant"
      value: 0
    }
  }
}
layer {
  name: "relu3"
  type: "ReLU"
  bottom: "conv3"
  top: "conv3"
}
layer {
  name: "conv4"
  type: "Convolution"
  bottom: "conv3"
  top: "conv4"
  param {
    lr_mult: 1
    decay_mult: 1
  }
  param {
    lr_mult: 2
    decay_mult: 0
  }
  convolution_param {
    num_output: 384
    pad: 1
    kernel_size: 3
    group: 2
    weight_filler {
      type: "gaussian"
      std: 0.01
    }
    bias_filler {
      type: "constant"
      value: 0.1
    }
  }
}
layer {
  name: "relu4"
  type: "ReLU"
  bottom: "conv4"
  top: "conv4"
}
layer {
  name: "conv5"
  type: "Convolution"
  bottom: "conv4"
  top: "conv5"
  param {
    lr_mult: 1
    decay_mult: 1
  }
  param {
    lr_mult: 2
    decay_mult: 0
  }
  convolution_param {
    num_output: 256
    pad: 1
    kernel_size: 3
    group: 2
    weight_filler {
      type: "gaussian"
      std: 0.01
    }
    bias_filler {
      type: "constant"
      value: 0.1
    }
  }
}
layer {
  name: "relu5"
  type: "ReLU"
  bottom: "conv5"
  top: "conv5"
}
layer {
  name: "pool5"
  type: "Pooling"
  bottom: "conv5"
  top: "pool5"
  pooling_param {
    pool: MAX
    kernel_size: 3
    stride: 2
  }
}
layer {
  name: "fc6"
  type: "InnerProduct"
  bottom: "pool5"
  top: "fc6"
  param {
    lr_mult: 1
    decay_mult: 1
  }
  param {
    lr_mult: 2
    decay_mult: 0
  }
  inner_product_param {
    num_output: 4096
    weight_filler {
      type: "gaussian"
      std: 0.005
    }
    bias_filler {
      type: "constant"
      value: 0.1
    }
  }
}
layer {
  name: "relu6"
  type: "ReLU"
  bottom: "fc6"
  top: "fc6"
}
layer {
  name: "drop6"
  type: "Dropout"
  bottom: "fc6"
  top: "fc6"
  dropout_param {
    dropout_ratio: 0.5
  }
}
layer {
  name: "fc7"
  type: "InnerProduct"
  bottom: "fc6"
  top: "fc7"
  param {
    lr_mult: 1
    decay_mult: 1
  }
  param {
    lr_mult: 2
    decay_mult: 0
  }
  inner_product_param {
    num_output: 4096
    weight_filler {
      type: "gaussian"
      std: 0.005
    }
    bias_filler {
      type: "constant"
      value: 0.1
    }
  }
}
layer {
  name: "relu7"
  type: "ReLU"
  bottom: "fc7"
  top: "fc7"
}
layer {
  name: "drop7"
  type: "Dropout"
  bottom: "fc7"
  top: "fc7"
  dropout_param {
    dropout_ratio: 0.5
  }
}
layer {
  name: "fc8"
  type: "InnerProduct"
  bottom: "fc7"
  top: "fc8"
  param {
    lr_mult: 1
    decay_mult: 1
  }
  param {
    lr_mult: 2
    decay_mult: 0
  }
  inner_product_param {
    num_output: 3
    weight_filler {
      type: "gaussian"
      std: 0.01
    }
    bias_filler {
      type: "constant"
      value: 0
    }
  }
}
layer {
  name: "loss"
  type: "SoftmaxWithLoss"
  bottom: "fc8"
  bottom: "label"
  top: "loss"
}
I0822 11:15:10.113903 31636 layer_factory.hpp:77] Creating layer mnist
I0822 11:15:10.114431 31636 net.cpp:100] Creating Layer mnist
I0822 11:15:10.114444 31636 net.cpp:408] mnist -> data
I0822 11:15:10.114469 31636 net.cpp:408] mnist -> label
I0822 11:15:10.114480 31636 data_transformer.cpp:25] Loading mean file from: data/person_only_lmdb/person_vs_background_vs_random_color_mean.binaryproto
I0822 11:15:10.115970 31648 db_lmdb.cpp:35] Opened lmdb data/person_only_lmdb/person_vs_background_vs_random_train_lmdb
I0822 11:15:10.150602 31636 data_layer.cpp:41] output data size: 128,3,128,128
I0822 11:15:10.221499 31636 net.cpp:150] Setting up mnist
I0822 11:15:10.221542 31636 net.cpp:157] Top shape: 128 3 128 128 (6291456)
I0822 11:15:10.221549 31636 net.cpp:157] Top shape: 128 (128)
I0822 11:15:10.221552 31636 net.cpp:165] Memory required for data: 25166336
I0822 11:15:10.221560 31636 layer_factory.hpp:77] Creating layer conv1
I0822 11:15:10.221590 31636 net.cpp:100] Creating Layer conv1
I0822 11:15:10.221596 31636 net.cpp:434] conv1 <- data
I0822 11:15:10.221606 31636 net.cpp:408] conv1 -> conv1
I0822 11:15:10.536105 31636 net.cpp:150] Setting up conv1
I0822 11:15:10.536146 31636 net.cpp:157] Top shape: 128 96 30 30 (11059200)
I0822 11:15:10.536152 31636 net.cpp:165] Memory required for data: 69403136
I0822 11:15:10.536170 31636 layer_factory.hpp:77] Creating layer relu1
I0822 11:15:10.536185 31636 net.cpp:100] Creating Layer relu1
I0822 11:15:10.536188 31636 net.cpp:434] relu1 <- conv1
I0822 11:15:10.536195 31636 net.cpp:395] relu1 -> conv1 (in-place)
I0822 11:15:10.536388 31636 net.cpp:150] Setting up relu1
I0822 11:15:10.536401 31636 net.cpp:157] Top shape: 128 96 30 30 (11059200)
I0822 11:15:10.536404 31636 net.cpp:165] Memory required for data: 113639936
I0822 11:15:10.536407 31636 layer_factory.hpp:77] Creating layer norm1
I0822 11:15:10.536417 31636 net.cpp:100] Creating Layer norm1
I0822 11:15:10.536420 31636 net.cpp:434] norm1 <- conv1
I0822 11:15:10.536425 31636 net.cpp:408] norm1 -> norm1
I0822 11:15:10.537004 31636 net.cpp:150] Setting up norm1
I0822 11:15:10.537019 31636 net.cpp:157] Top shape: 128 96 30 30 (11059200)
I0822 11:15:10.537022 31636 net.cpp:165] Memory required for data: 157876736
I0822 11:15:10.537026 31636 layer_factory.hpp:77] Creating layer pool1
I0822 11:15:10.537035 31636 net.cpp:100] Creating Layer pool1
I0822 11:15:10.537039 31636 net.cpp:434] pool1 <- norm1
I0822 11:15:10.537045 31636 net.cpp:408] pool1 -> pool1
I0822 11:15:10.537102 31636 net.cpp:150] Setting up pool1
I0822 11:15:10.537111 31636 net.cpp:157] Top shape: 128 96 15 15 (2764800)
I0822 11:15:10.537116 31636 net.cpp:165] Memory required for data: 168935936
I0822 11:15:10.537117 31636 layer_factory.hpp:77] Creating layer conv2
I0822 11:15:10.537132 31636 net.cpp:100] Creating Layer conv2
I0822 11:15:10.537134 31636 net.cpp:434] conv2 <- pool1
I0822 11:15:10.537140 31636 net.cpp:408] conv2 -> conv2
I0822 11:15:10.543841 31636 net.cpp:150] Setting up conv2
I0822 11:15:10.543859 31636 net.cpp:157] Top shape: 128 256 15 15 (7372800)
I0822 11:15:10.543862 31636 net.cpp:165] Memory required for data: 198427136
I0822 11:15:10.543872 31636 layer_factory.hpp:77] Creating layer relu2
I0822 11:15:10.543879 31636 net.cpp:100] Creating Layer relu2
I0822 11:15:10.543881 31636 net.cpp:434] relu2 <- conv2
I0822 11:15:10.543886 31636 net.cpp:395] relu2 -> conv2 (in-place)
I0822 11:15:10.544428 31636 net.cpp:150] Setting up relu2
I0822 11:15:10.544445 31636 net.cpp:157] Top shape: 128 256 15 15 (7372800)
I0822 11:15:10.544447 31636 net.cpp:165] Memory required for data: 227918336
I0822 11:15:10.544450 31636 layer_factory.hpp:77] Creating layer norm2
I0822 11:15:10.544458 31636 net.cpp:100] Creating Layer norm2
I0822 11:15:10.544461 31636 net.cpp:434] norm2 <- conv2
I0822 11:15:10.544467 31636 net.cpp:408] norm2 -> norm2
I0822 11:15:10.544692 31636 net.cpp:150] Setting up norm2
I0822 11:15:10.544704 31636 net.cpp:157] Top shape: 128 256 15 15 (7372800)
I0822 11:15:10.544708 31636 net.cpp:165] Memory required for data: 257409536
I0822 11:15:10.544710 31636 layer_factory.hpp:77] Creating layer pool2
I0822 11:15:10.544718 31636 net.cpp:100] Creating Layer pool2
I0822 11:15:10.544721 31636 net.cpp:434] pool2 <- norm2
I0822 11:15:10.544726 31636 net.cpp:408] pool2 -> pool2
I0822 11:15:10.544781 31636 net.cpp:150] Setting up pool2
I0822 11:15:10.544790 31636 net.cpp:157] Top shape: 128 256 7 7 (1605632)
I0822 11:15:10.544793 31636 net.cpp:165] Memory required for data: 263832064
I0822 11:15:10.544795 31636 layer_factory.hpp:77] Creating layer conv3
I0822 11:15:10.544806 31636 net.cpp:100] Creating Layer conv3
I0822 11:15:10.544808 31636 net.cpp:434] conv3 <- pool2
I0822 11:15:10.544814 31636 net.cpp:408] conv3 -> conv3
I0822 11:15:10.558671 31636 net.cpp:150] Setting up conv3
I0822 11:15:10.558688 31636 net.cpp:157] Top shape: 128 384 7 7 (2408448)
I0822 11:15:10.558692 31636 net.cpp:165] Memory required for data: 273465856
I0822 11:15:10.558701 31636 layer_factory.hpp:77] Creating layer relu3
I0822 11:15:10.558708 31636 net.cpp:100] Creating Layer relu3
I0822 11:15:10.558712 31636 net.cpp:434] relu3 <- conv3
I0822 11:15:10.558717 31636 net.cpp:395] relu3 -> conv3 (in-place)
I0822 11:15:10.558905 31636 net.cpp:150] Setting up relu3
I0822 11:15:10.558917 31636 net.cpp:157] Top shape: 128 384 7 7 (2408448)
I0822 11:15:10.558920 31636 net.cpp:165] Memory required for data: 283099648
I0822 11:15:10.558923 31636 layer_factory.hpp:77] Creating layer conv4
I0822 11:15:10.558933 31636 net.cpp:100] Creating Layer conv4
I0822 11:15:10.558936 31636 net.cpp:434] conv4 <- conv3
I0822 11:15:10.558943 31636 net.cpp:408] conv4 -> conv4
I0822 11:15:10.570770 31636 net.cpp:150] Setting up conv4
I0822 11:15:10.570786 31636 net.cpp:157] Top shape: 128 384 7 7 (2408448)
I0822 11:15:10.570790 31636 net.cpp:165] Memory required for data: 292733440
I0822 11:15:10.570797 31636 layer_factory.hpp:77] Creating layer relu4
I0822 11:15:10.570803 31636 net.cpp:100] Creating Layer relu4
I0822 11:15:10.570807 31636 net.cpp:434] relu4 <- conv4
I0822 11:15:10.570812 31636 net.cpp:395] relu4 -> conv4 (in-place)
I0822 11:15:10.571002 31636 net.cpp:150] Setting up relu4
I0822 11:15:10.571013 31636 net.cpp:157] Top shape: 128 384 7 7 (2408448)
I0822 11:15:10.571017 31636 net.cpp:165] Memory required for data: 302367232
I0822 11:15:10.571020 31636 layer_factory.hpp:77] Creating layer conv5
I0822 11:15:10.571030 31636 net.cpp:100] Creating Layer conv5
I0822 11:15:10.571033 31636 net.cpp:434] conv5 <- conv4
I0822 11:15:10.571039 31636 net.cpp:408] conv5 -> conv5
I0822 11:15:10.580103 31636 net.cpp:150] Setting up conv5
I0822 11:15:10.580121 31636 net.cpp:157] Top shape: 128 256 7 7 (1605632)
I0822 11:15:10.580123 31636 net.cpp:165] Memory required for data: 308789760
I0822 11:15:10.580134 31636 layer_factory.hpp:77] Creating layer relu5
I0822 11:15:10.580147 31636 net.cpp:100] Creating Layer relu5
I0822 11:15:10.580152 31636 net.cpp:434] relu5 <- conv5
I0822 11:15:10.580157 31636 net.cpp:395] relu5 -> conv5 (in-place)
I0822 11:15:10.580368 31636 net.cpp:150] Setting up relu5
I0822 11:15:10.580379 31636 net.cpp:157] Top shape: 128 256 7 7 (1605632)
I0822 11:15:10.580382 31636 net.cpp:165] Memory required for data: 315212288
I0822 11:15:10.580385 31636 layer_factory.hpp:77] Creating layer pool5
I0822 11:15:10.580394 31636 net.cpp:100] Creating Layer pool5
I0822 11:15:10.580396 31636 net.cpp:434] pool5 <- conv5
I0822 11:15:10.580404 31636 net.cpp:408] pool5 -> pool5
I0822 11:15:10.580479 31636 net.cpp:150] Setting up pool5
I0822 11:15:10.580487 31636 net.cpp:157] Top shape: 128 256 3 3 (294912)
I0822 11:15:10.580490 31636 net.cpp:165] Memory required for data: 316391936
I0822 11:15:10.580493 31636 layer_factory.hpp:77] Creating layer fc6
I0822 11:15:10.580505 31636 net.cpp:100] Creating Layer fc6
I0822 11:15:10.580510 31636 net.cpp:434] fc6 <- pool5
I0822 11:15:10.580518 31636 net.cpp:408] fc6 -> fc6
I0822 11:15:10.713687 31636 net.cpp:150] Setting up fc6
I0822 11:15:10.713724 31636 net.cpp:157] Top shape: 128 4096 (524288)
I0822 11:15:10.713728 31636 net.cpp:165] Memory required for data: 318489088
I0822 11:15:10.713740 31636 layer_factory.hpp:77] Creating layer relu6
I0822 11:15:10.713753 31636 net.cpp:100] Creating Layer relu6
I0822 11:15:10.713758 31636 net.cpp:434] relu6 <- fc6
I0822 11:15:10.713767 31636 net.cpp:395] relu6 -> fc6 (in-place)
I0822 11:15:10.714432 31636 net.cpp:150] Setting up relu6
I0822 11:15:10.714449 31636 net.cpp:157] Top shape: 128 4096 (524288)
I0822 11:15:10.714452 31636 net.cpp:165] Memory required for data: 320586240
I0822 11:15:10.714455 31636 layer_factory.hpp:77] Creating layer drop6
I0822 11:15:10.714467 31636 net.cpp:100] Creating Layer drop6
I0822 11:15:10.714470 31636 net.cpp:434] drop6 <- fc6
I0822 11:15:10.714475 31636 net.cpp:395] drop6 -> fc6 (in-place)
I0822 11:15:10.714515 31636 net.cpp:150] Setting up drop6
I0822 11:15:10.714524 31636 net.cpp:157] Top shape: 128 4096 (524288)
I0822 11:15:10.714527 31636 net.cpp:165] Memory required for data: 322683392
I0822 11:15:10.714530 31636 layer_factory.hpp:77] Creating layer fc7
I0822 11:15:10.714541 31636 net.cpp:100] Creating Layer fc7
I0822 11:15:10.714545 31636 net.cpp:434] fc7 <- fc6
I0822 11:15:10.714550 31636 net.cpp:408] fc7 -> fc7
I0822 11:15:10.948262 31636 net.cpp:150] Setting up fc7
I0822 11:15:10.948309 31636 net.cpp:157] Top shape: 128 4096 (524288)
I0822 11:15:10.948313 31636 net.cpp:165] Memory required for data: 324780544
I0822 11:15:10.948326 31636 layer_factory.hpp:77] Creating layer relu7
I0822 11:15:10.948339 31636 net.cpp:100] Creating Layer relu7
I0822 11:15:10.948343 31636 net.cpp:434] relu7 <- fc7
I0822 11:15:10.948351 31636 net.cpp:395] relu7 -> fc7 (in-place)
I0822 11:15:10.948644 31636 net.cpp:150] Setting up relu7
I0822 11:15:10.948655 31636 net.cpp:157] Top shape: 128 4096 (524288)
I0822 11:15:10.948658 31636 net.cpp:165] Memory required for data: 326877696
I0822 11:15:10.948662 31636 layer_factory.hpp:77] Creating layer drop7
I0822 11:15:10.948670 31636 net.cpp:100] Creating Layer drop7
I0822 11:15:10.948673 31636 net.cpp:434] drop7 <- fc7
I0822 11:15:10.948680 31636 net.cpp:395] drop7 -> fc7 (in-place)
I0822 11:15:10.948714 31636 net.cpp:150] Setting up drop7
I0822 11:15:10.948722 31636 net.cpp:157] Top shape: 128 4096 (524288)
I0822 11:15:10.948725 31636 net.cpp:165] Memory required for data: 328974848
I0822 11:15:10.948727 31636 layer_factory.hpp:77] Creating layer fc8
I0822 11:15:10.948739 31636 net.cpp:100] Creating Layer fc8
I0822 11:15:10.948741 31636 net.cpp:434] fc8 <- fc7
I0822 11:15:10.948748 31636 net.cpp:408] fc8 -> fc8
I0822 11:15:10.950718 31636 net.cpp:150] Setting up fc8
I0822 11:15:10.950733 31636 net.cpp:157] Top shape: 128 3 (384)
I0822 11:15:10.950736 31636 net.cpp:165] Memory required for data: 328976384
I0822 11:15:10.950744 31636 layer_factory.hpp:77] Creating layer loss
I0822 11:15:10.950752 31636 net.cpp:100] Creating Layer loss
I0822 11:15:10.950754 31636 net.cpp:434] loss <- fc8
I0822 11:15:10.950758 31636 net.cpp:434] loss <- label
I0822 11:15:10.950763 31636 net.cpp:408] loss -> loss
I0822 11:15:10.950773 31636 layer_factory.hpp:77] Creating layer loss
…
I0822 11:15:10.951673 31636 net.cpp:322] The NetState phase (1) differed from the phase (0) specified by a rule in layer mnist
I0822 11:15:10.951843 31636 net.cpp:58] Initializing net from parameters: 
name: "AlexNet"
state {
  phase: TEST
}
layer {
  name: "mnist"
  type: "Data"
  top: "data"
  top: "label"
  include {
    phase: TEST
  }
  transform_param {
    scale: 0.00390625
    mean_file: "data/person_only_lmdb/person_vs_background_vs_random_color_mean.binaryproto"
  }
  data_param {
    source: "data/person_only_lmdb/person_vs_background_vs_random_test_lmdb"
    batch_size: 100
    backend: LMDB
  }
}
layer {
  name: "conv1"
  type: "Convolution"
  bottom: "data"
  top: "conv1"
  param {
    lr_mult: 1
    decay_mult: 1
  }
  param {
    lr_mult: 2
    decay_mult: 0
  }
  convolution_param {
    num_output: 96
    kernel_size: 11
    stride: 4
    weight_filler {
      type: "gaussian"
      std: 0.01
    }
    bias_filler {
      type: "constant"
      value: 0
    }
  }
}
layer {
  name: "relu1"
  type: "ReLU"
  bottom: "conv1"
  top: "conv1"
}
layer {
  name: "norm1"
  type: "LRN"
  bottom: "conv1"
  top: "norm1"
  lrn_param {
    local_size: 5
    alpha: 0.0001
    beta: 0.75
  }
}
layer {
  name: "pool1"
  type: "Pooling"
  bottom: "norm1"
  top: "pool1"
  pooling_param {
    pool: MAX
    kernel_size: 3
    stride: 2
  }
}
layer {
  name: "conv2"
  type: "Convolution"
  bottom: "pool1"
  top: "conv2"
  param {
    lr_mult: 1
    decay_mult: 1
  }
  param {
    lr_mult: 2
    decay_mult: 0
  }
  convolution_param {
    num_output: 256
    pad: 2
    kernel_size: 5
    group: 2
    weight_filler {
      type: "gaussian"
      std: 0.01
    }
    bias_filler {
      type: "constant"
      value: 0.1
    }
  }
}
layer {
  name: "relu2"
  type: "ReLU"
  bottom: "conv2"
  top: "conv2"
}
layer {
  name: "norm2"
  type: "LRN"
  bottom: "conv2"
  top: "norm2"
  lrn_param {
    local_size: 5
    alpha: 0.0001
    beta: 0.75
  }
}
layer {
  name: "pool2"
  type: "Pooling"
  bottom: "norm2"
  top: "pool2"
  pooling_param {
    pool: MAX
    kernel_size: 3
    stride: 2
  }
}
layer {
  name: "conv3"
  type: "Convolution"
  bottom: "pool2"
  top: "conv3"
  param {
    lr_mult: 1
    decay_mult: 1
  }
  param {
    lr_mult: 2
    decay_mult: 0
  }
  convolution_param {
    num_output: 384
    pad: 1
    kernel_size: 3
    weight_filler {
      type: "gaussian"
      std: 0.01
    }
    bias_filler {
      type: "constant"
      value: 0
    }
  }
}
layer {
  name: "relu3"
  type: "ReLU"
  bottom: "conv3"
  top: "conv3"
}
layer {
  name: "conv4"
  type: "Convolution"
  bottom: "conv3"
  top: "conv4"
  param {
    lr_mult: 1
    decay_mult: 1
  }
  param {
    lr_mult: 2
    decay_mult: 0
  }
  convolution_param {
    num_output: 384
    pad: 1
    kernel_size: 3
    group: 2
    weight_filler {
      type: "gaussian"
      std: 0.01
    }
    bias_filler {
      type: "constant"
      value: 0.1
    }
  }
}
layer {
  name: "relu4"
  type: "ReLU"
  bottom: "conv4"
  top: "conv4"
}
layer {
  name: "conv5"
  type: "Convolution"
  bottom: "conv4"
  top: "conv5"
  param {
    lr_mult: 1
    decay_mult: 1
  }
  param {
    lr_mult: 2
    decay_mult: 0
  }
  convolution_param {
    num_output: 256
    pad: 1
    kernel_size: 3
    group: 2
    weight_filler {
      type: "gaussian"
      std: 0.01
    }
    bias_filler {
      type: "constant"
      value: 0.1
    }
  }
}
layer {
  name: "relu5"
  type: "ReLU"
  bottom: "conv5"
  top: "conv5"
}
layer {
  name: "pool5"
  type: "Pooling"
  bottom: "conv5"
  top: "pool5"
  pooling_param {
    pool: MAX
    kernel_size: 3
    stride: 2
  }
}
layer {
  name: "fc6"
  type: "InnerProduct"
  bottom: "pool5"
  top: "fc6"
  param {
    lr_mult: 1
    decay_mult: 1
  }
  param {
    lr_mult: 2
    decay_mult: 0
  }
  inner_product_param {
    num_output: 4096
    weight_filler {
      type: "gaussian"
      std: 0.005
    }
    bias_filler {
      type: "constant"
      value: 0.1
    }
  }
}
layer {
  name: "relu6"
  type: "ReLU"
  bottom: "fc6"
  top: "fc6"
}
layer {
  name: "drop6"
  type: "Dropout"
  bottom: "fc6"
  top: "fc6"
  dropout_param {
    dropout_ratio: 0.5
  }
}
layer {
  name: "fc7"
  type: "InnerProduct"
  bottom: "fc6"
  top: "fc7"
  param {
    lr_mult: 1
    decay_mult: 1
  }
  param {
    lr_mult: 2
    decay_mult: 0
  }
  inner_product_param {
    num_output: 4096
    weight_filler {
      type: "gaussian"
      std: 0.005
    }
    bias_filler {
      type: "constant"
      value: 0.1
    }
  }
}
layer {
  name: "relu7"
  type: "ReLU"
  bottom: "fc7"
  top: "fc7"
}
layer {
  name: "drop7"
  type: "Dropout"
  bottom: "fc7"
  top: "fc7"
  dropout_param {
    dropout_ratio: 0.5
  }
}
layer {
  name: "fc8"
  type: "InnerProduct"
  bottom: "fc7"
  top: "fc8"
  param {
    lr_mult: 1
    decay_mult: 1
  }
  param {
    lr_mult: 2
    decay_mult: 0
  }
  inner_product_param {
    num_output: 3
    weight_filler {
      type: "gaussian"
      std: 0.01
    }
    bias_filler {
      type: "constant"
      value: 0
    }
  }
}
layer {
  name: "accuracy"
  type: "Accuracy"
  bottom: "fc8"
  bottom: "label"
  top: "accuracy"
  include {
    phase: TEST
  }
}
layer {
  name: "loss"
  type: "SoftmaxWithLoss"
  bottom: "fc8"
  bottom: "label"
  top: "loss"
}
I0822 11:15:10.951958 31636 layer_factory.hpp:77] Creating layer mnist
I0822 11:15:10.952090 31636 net.cpp:100] Creating Layer mnist
I0822 11:15:10.952100 31636 net.cpp:408] mnist -> data
I0822 11:15:10.952110 31636 net.cpp:408] mnist -> label
I0822 11:15:10.952117 31636 data_transformer.cpp:25] Loading mean file from: data/person_only_lmdb/person_vs_background_vs_random_color_mean.binaryproto
I0822 11:15:10.953676 31650 db_lmdb.cpp:35] Opened lmdb data/person_only_lmdb/person_vs_background_vs_random_test_lmdb
I0822 11:15:10.954084 31636 data_layer.cpp:41] output data size: 100,3,128,128
I0822 11:15:11.015175 31636 net.cpp:150] Setting up mnist
I0822 11:15:11.015218 31636 net.cpp:157] Top shape: 100 3 128 128 (4915200)
I0822 11:15:11.015226 31636 net.cpp:157] Top shape: 100 (100)
I0822 11:15:11.015231 31636 net.cpp:165] Memory required for data: 19661200
I0822 11:15:11.015240 31636 layer_factory.hpp:77] Creating layer label_mnist_1_split
I0822 11:15:11.015259 31636 net.cpp:100] Creating Layer label_mnist_1_split
I0822 11:15:11.015266 31636 net.cpp:434] label_mnist_1_split <- label
I0822 11:15:11.015278 31636 net.cpp:408] label_mnist_1_split -> label_mnist_1_split_0
I0822 11:15:11.015295 31636 net.cpp:408] label_mnist_1_split -> label_mnist_1_split_1
I0822 11:15:11.015453 31636 net.cpp:150] Setting up label_mnist_1_split
I0822 11:15:11.015466 31636 net.cpp:157] Top shape: 100 (100)
I0822 11:15:11.015472 31636 net.cpp:157] Top shape: 100 (100)
I0822 11:15:11.015476 31636 net.cpp:165] Memory required for data: 19662000
I0822 11:15:11.015481 31636 layer_factory.hpp:77] Creating layer conv1
I0822 11:15:11.015503 31636 net.cpp:100] Creating Layer conv1
I0822 11:15:11.015511 31636 net.cpp:434] conv1 <- data
I0822 11:15:11.015522 31636 net.cpp:408] conv1 -> conv1
I0822 11:15:11.020231 31636 net.cpp:150] Setting up conv1
I0822 11:15:11.020256 31636 net.cpp:157] Top shape: 100 96 30 30 (8640000)
I0822 11:15:11.020261 31636 net.cpp:165] Memory required for data: 54222000
I0822 11:15:11.020277 31636 layer_factory.hpp:77] Creating layer relu1
I0822 11:15:11.020289 31636 net.cpp:100] Creating Layer relu1
I0822 11:15:11.020293 31636 net.cpp:434] relu1 <- conv1
I0822 11:15:11.020301 31636 net.cpp:395] relu1 -> conv1 (in-place)
I0822 11:15:11.020578 31636 net.cpp:150] Setting up relu1
I0822 11:15:11.020593 31636 net.cpp:157] Top shape: 100 96 30 30 (8640000)
I0822 11:15:11.020597 31636 net.cpp:165] Memory required for data: 88782000
I0822 11:15:11.020601 31636 layer_factory.hpp:77] Creating layer norm1
I0822 11:15:11.020615 31636 net.cpp:100] Creating Layer norm1
I0822 11:15:11.020620 31636 net.cpp:434] norm1 <- conv1
I0822 11:15:11.020629 31636 net.cpp:408] norm1 -> norm1
I0822 11:15:11.021503 31636 net.cpp:150] Setting up norm1
I0822 11:15:11.021524 31636 net.cpp:157] Top shape: 100 96 30 30 (8640000)
I0822 11:15:11.021529 31636 net.cpp:165] Memory required for data: 123342000
I0822 11:15:11.021534 31636 layer_factory.hpp:77] Creating layer pool1
I0822 11:15:11.021545 31636 net.cpp:100] Creating Layer pool1
I0822 11:15:11.021550 31636 net.cpp:434] pool1 <- norm1
I0822 11:15:11.021559 31636 net.cpp:408] pool1 -> pool1
I0822 11:15:11.021649 31636 net.cpp:150] Setting up pool1
I0822 11:15:11.021677 31636 net.cpp:157] Top shape: 100 96 15 15 (2160000)
I0822 11:15:11.021680 31636 net.cpp:165] Memory required for data: 131982000
I0822 11:15:11.021685 31636 layer_factory.hpp:77] Creating layer conv2
I0822 11:15:11.021699 31636 net.cpp:100] Creating Layer conv2
I0822 11:15:11.021705 31636 net.cpp:434] conv2 <- pool1
I0822 11:15:11.021715 31636 net.cpp:408] conv2 -> conv2
I0822 11:15:11.031535 31636 net.cpp:150] Setting up conv2
I0822 11:15:11.031558 31636 net.cpp:157] Top shape: 100 256 15 15 (5760000)
I0822 11:15:11.031563 31636 net.cpp:165] Memory required for data: 155022000
I0822 11:15:11.031575 31636 layer_factory.hpp:77] Creating layer relu2
I0822 11:15:11.031584 31636 net.cpp:100] Creating Layer relu2
I0822 11:15:11.031589 31636 net.cpp:434] relu2 <- conv2
I0822 11:15:11.031600 31636 net.cpp:395] relu2 -> conv2 (in-place)
I0822 11:15:11.032389 31636 net.cpp:150] Setting up relu2
I0822 11:15:11.032416 31636 net.cpp:157] Top shape: 100 256 15 15 (5760000)
I0822 11:15:11.032420 31636 net.cpp:165] Memory required for data: 178062000
I0822 11:15:11.032425 31636 layer_factory.hpp:77] Creating layer norm2
I0822 11:15:11.032440 31636 net.cpp:100] Creating Layer norm2
I0822 11:15:11.032445 31636 net.cpp:434] norm2 <- conv2
I0822 11:15:11.032454 31636 net.cpp:408] norm2 -> norm2
I0822 11:15:11.032809 31636 net.cpp:150] Setting up norm2
I0822 11:15:11.032825 31636 net.cpp:157] Top shape: 100 256 15 15 (5760000)
I0822 11:15:11.032829 31636 net.cpp:165] Memory required for data: 201102000
I0822 11:15:11.032833 31636 layer_factory.hpp:77] Creating layer pool2
I0822 11:15:11.032842 31636 net.cpp:100] Creating Layer pool2
I0822 11:15:11.032846 31636 net.cpp:434] pool2 <- norm2
I0822 11:15:11.032856 31636 net.cpp:408] pool2 -> pool2
I0822 11:15:11.032945 31636 net.cpp:150] Setting up pool2
I0822 11:15:11.032956 31636 net.cpp:157] Top shape: 100 256 7 7 (1254400)
I0822 11:15:11.032960 31636 net.cpp:165] Memory required for data: 206119600
I0822 11:15:11.032965 31636 layer_factory.hpp:77] Creating layer conv3
I0822 11:15:11.032981 31636 net.cpp:100] Creating Layer conv3
I0822 11:15:11.032987 31636 net.cpp:434] conv3 <- pool2
I0822 11:15:11.032997 31636 net.cpp:408] conv3 -> conv3
I0822 11:15:11.051805 31636 net.cpp:150] Setting up conv3
I0822 11:15:11.051826 31636 net.cpp:157] Top shape: 100 384 7 7 (1881600)
I0822 11:15:11.051831 31636 net.cpp:165] Memory required for data: 213646000
I0822 11:15:11.051844 31636 layer_factory.hpp:77] Creating layer relu3
I0822 11:15:11.051854 31636 net.cpp:100] Creating Layer relu3
I0822 11:15:11.051858 31636 net.cpp:434] relu3 <- conv3
I0822 11:15:11.051867 31636 net.cpp:395] relu3 -> conv3 (in-place)
I0822 11:15:11.052155 31636 net.cpp:150] Setting up relu3
I0822 11:15:11.052171 31636 net.cpp:157] Top shape: 100 384 7 7 (1881600)
I0822 11:15:11.052175 31636 net.cpp:165] Memory required for data: 221172400
I0822 11:15:11.052181 31636 layer_factory.hpp:77] Creating layer conv4
I0822 11:15:11.052198 31636 net.cpp:100] Creating Layer conv4
I0822 11:15:11.052203 31636 net.cpp:434] conv4 <- conv3
I0822 11:15:11.052217 31636 net.cpp:408] conv4 -> conv4
I0822 11:15:11.067104 31636 net.cpp:150] Setting up conv4
I0822 11:15:11.067126 31636 net.cpp:157] Top shape: 100 384 7 7 (1881600)
I0822 11:15:11.067131 31636 net.cpp:165] Memory required for data: 228698800
I0822 11:15:11.067139 31636 layer_factory.hpp:77] Creating layer relu4
I0822 11:15:11.067147 31636 net.cpp:100] Creating Layer relu4
I0822 11:15:11.067150 31636 net.cpp:434] relu4 <- conv4
I0822 11:15:11.067158 31636 net.cpp:395] relu4 -> conv4 (in-place)
I0822 11:15:11.067852 31636 net.cpp:150] Setting up relu4
I0822 11:15:11.067870 31636 net.cpp:157] Top shape: 100 384 7 7 (1881600)
I0822 11:15:11.067879 31636 net.cpp:165] Memory required for data: 236225200
I0822 11:15:11.067883 31636 layer_factory.hpp:77] Creating layer conv5
I0822 11:15:11.067899 31636 net.cpp:100] Creating Layer conv5
I0822 11:15:11.067903 31636 net.cpp:434] conv5 <- conv4
I0822 11:15:11.067914 31636 net.cpp:408] conv5 -> conv5
I0822 11:15:11.078979 31636 net.cpp:150] Setting up conv5
I0822 11:15:11.079000 31636 net.cpp:157] Top shape: 100 256 7 7 (1254400)
I0822 11:15:11.079005 31636 net.cpp:165] Memory required for data: 241242800
I0822 11:15:11.079016 31636 layer_factory.hpp:77] Creating layer relu5
I0822 11:15:11.079025 31636 net.cpp:100] Creating Layer relu5
I0822 11:15:11.079030 31636 net.cpp:434] relu5 <- conv5
I0822 11:15:11.079038 31636 net.cpp:395] relu5 -> conv5 (in-place)
I0822 11:15:11.079274 31636 net.cpp:150] Setting up relu5
I0822 11:15:11.079287 31636 net.cpp:157] Top shape: 100 256 7 7 (1254400)
I0822 11:15:11.079289 31636 net.cpp:165] Memory required for data: 246260400
I0822 11:15:11.079293 31636 layer_factory.hpp:77] Creating layer pool5
I0822 11:15:11.079306 31636 net.cpp:100] Creating Layer pool5
I0822 11:15:11.079310 31636 net.cpp:434] pool5 <- conv5
I0822 11:15:11.079316 31636 net.cpp:408] pool5 -> pool5
I0822 11:15:11.079403 31636 net.cpp:150] Setting up pool5
I0822 11:15:11.079419 31636 net.cpp:157] Top shape: 100 256 3 3 (230400)
I0822 11:15:11.079422 31636 net.cpp:165] Memory required for data: 247182000
I0822 11:15:11.079427 31636 layer_factory.hpp:77] Creating layer fc6
I0822 11:15:11.079435 31636 net.cpp:100] Creating Layer fc6
I0822 11:15:11.079440 31636 net.cpp:434] fc6 <- pool5
I0822 11:15:11.079448 31636 net.cpp:408] fc6 -> fc6
I0822 11:15:11.212440 31636 net.cpp:150] Setting up fc6
I0822 11:15:11.212483 31636 net.cpp:157] Top shape: 100 4096 (409600)
I0822 11:15:11.212487 31636 net.cpp:165] Memory required for data: 248820400
I0822 11:15:11.212501 31636 layer_factory.hpp:77] Creating layer relu6
I0822 11:15:11.212512 31636 net.cpp:100] Creating Layer relu6
I0822 11:15:11.212517 31636 net.cpp:434] relu6 <- fc6
I0822 11:15:11.212527 31636 net.cpp:395] relu6 -> fc6 (in-place)
I0822 11:15:11.212821 31636 net.cpp:150] Setting up relu6
I0822 11:15:11.212834 31636 net.cpp:157] Top shape: 100 4096 (409600)
I0822 11:15:11.212837 31636 net.cpp:165] Memory required for data: 250458800
I0822 11:15:11.212841 31636 layer_factory.hpp:77] Creating layer drop6
I0822 11:15:11.212849 31636 net.cpp:100] Creating Layer drop6
I0822 11:15:11.212852 31636 net.cpp:434] drop6 <- fc6
I0822 11:15:11.212857 31636 net.cpp:395] drop6 -> fc6 (in-place)
I0822 11:15:11.212916 31636 net.cpp:150] Setting up drop6
I0822 11:15:11.212925 31636 net.cpp:157] Top shape: 100 4096 (409600)
I0822 11:15:11.212929 31636 net.cpp:165] Memory required for data: 252097200
I0822 11:15:11.212931 31636 layer_factory.hpp:77] Creating layer fc7
I0822 11:15:11.212940 31636 net.cpp:100] Creating Layer fc7
I0822 11:15:11.212944 31636 net.cpp:434] fc7 <- fc6
I0822 11:15:11.212952 31636 net.cpp:408] fc7 -> fc7
I0822 11:15:11.446046 31636 net.cpp:150] Setting up fc7
I0822 11:15:11.446096 31636 net.cpp:157] Top shape: 100 4096 (409600)
I0822 11:15:11.446100 31636 net.cpp:165] Memory required for data: 253735600
I0822 11:15:11.446113 31636 layer_factory.hpp:77] Creating layer relu7
I0822 11:15:11.446125 31636 net.cpp:100] Creating Layer relu7
I0822 11:15:11.446130 31636 net.cpp:434] relu7 <- fc7
I0822 11:15:11.446141 31636 net.cpp:395] relu7 -> fc7 (in-place)
I0822 11:15:11.446998 31636 net.cpp:150] Setting up relu7
I0822 11:15:11.447013 31636 net.cpp:157] Top shape: 100 4096 (409600)
I0822 11:15:11.447016 31636 net.cpp:165] Memory required for data: 255374000
I0822 11:15:11.447019 31636 layer_factory.hpp:77] Creating layer drop7
I0822 11:15:11.447028 31636 net.cpp:100] Creating Layer drop7
I0822 11:15:11.447032 31636 net.cpp:434] drop7 <- fc7
I0822 11:15:11.447039 31636 net.cpp:395] drop7 -> fc7 (in-place)
I0822 11:15:11.447098 31636 net.cpp:150] Setting up drop7
I0822 11:15:11.447108 31636 net.cpp:157] Top shape: 100 4096 (409600)
I0822 11:15:11.447110 31636 net.cpp:165] Memory required for data: 257012400
I0822 11:15:11.447113 31636 layer_factory.hpp:77] Creating layer fc8
I0822 11:15:11.447124 31636 net.cpp:100] Creating Layer fc8
I0822 11:15:11.447129 31636 net.cpp:434] fc8 <- fc7
I0822 11:15:11.447135 31636 net.cpp:408] fc8 -> fc8
I0822 11:15:11.447501 31636 net.cpp:150] Setting up fc8
I0822 11:15:11.447511 31636 net.cpp:157] Top shape: 100 3 (300)
I0822 11:15:11.447515 31636 net.cpp:165] Memory required for data: 257013600
I0822 11:15:11.447521 31636 layer_factory.hpp:77] Creating layer fc8_fc8_0_split
I0822 11:15:11.447528 31636 net.cpp:100] Creating Layer fc8_fc8_0_split
I0822 11:15:11.447531 31636 net.cpp:434] fc8_fc8_0_split <- fc8
I0822 11:15:11.447543 31636 net.cpp:408] fc8_fc8_0_split -> fc8_fc8_0_split_0
I0822 11:15:11.447551 31636 net.cpp:408] fc8_fc8_0_split -> fc8_fc8_0_split_1
I0822 11:15:11.447616 31636 net.cpp:150] Setting up fc8_fc8_0_split
I0822 11:15:11.447625 31636 net.cpp:157] Top shape: 100 3 (300)
I0822 11:15:11.447628 31636 net.cpp:157] Top shape: 100 3 (300)
I0822 11:15:11.447631 31636 net.cpp:165] Memory required for data: 257016000
I0822 11:15:11.447634 31636 layer_factory.hpp:77] Creating layer accuracy
I0822 11:15:11.447643 31636 net.cpp:100] Creating Layer accuracy
I0822 11:15:11.447646 31636 net.cpp:434] accuracy <- fc8_fc8_0_split_0
I0822 11:15:11.447650 31636 net.cpp:434] accuracy <- label_mnist_1_split_0
I0822 11:15:11.447657 31636 net.cpp:408] accuracy -> accuracy
…
