…
I0811 15:52:23.913635  8854 net.cpp:313] The NetState phase (0) differed from the phase (1) specified by a rule in layer accuracy
I0811 15:52:23.913780  8854 net.cpp:49] Initializing net from parameters: 
name: "AlexNet"
state {
  phase: TRAIN
}
layer {
  name: "mnist"
  type: "Data"
  top: "data"
  top: "label"
  include {
    phase: TRAIN
  }
  transform_param {
    scale: 0.00390625
    mean_file: "data/person_only_lmdb/person_vs_background_vs_random_color_mean.binaryproto"
  }
  data_param {
    source: "data/person_only_lmdb/person_vs_background_vs_random_train_lmdb"
    batch_size: 128
    backend: LMDB
  }
}
layer {
  name: "conv1"
  type: "Convolution"
  bottom: "data"
  top: "conv1"
  param {
    lr_mult: 1
    decay_mult: 1
  }
  param {
    lr_mult: 2
    decay_mult: 0
  }
  convolution_param {
    num_output: 96
    kernel_size: 11
    stride: 4
    weight_filler {
      type: "gaussian"
      std: 0.01
    }
    bias_filler {
      type: "constant"
      value: 0
    }
  }
}
layer {
  name: "relu1"
  type: "ReLU"
  bottom: "conv1"
  top: "conv1"
}
layer {
  name: "norm1"
  type: "LRN"
  bottom: "conv1"
  top: "norm1"
  lrn_param {
    local_size: 5
    alpha: 0.0001
    beta: 0.75
  }
}
layer {
  name: "pool1"
  type: "Pooling"
  bottom: "norm1"
  top: "pool1"
  pooling_param {
    pool: MAX
    kernel_size: 3
    stride: 2
  }
}
layer {
  name: "conv2"
  type: "Convolution"
  bottom: "pool1"
  top: "conv2"
  param {
    lr_mult: 1
    decay_mult: 1
  }
  param {
    lr_mult: 2
    decay_mult: 0
  }
  convolution_param {
    num_output: 256
    pad: 2
    kernel_size: 5
    group: 2
    weight_filler {
      type: "gaussian"
      std: 0.01
    }
    bias_filler {
      type: "constant"
      value: 0.1
    }
  }
}
layer {
  name: "relu2"
  type: "ReLU"
  bottom: "conv2"
  top: "conv2"
}
layer {
  name: "norm2"
  type: "LRN"
  bottom: "conv2"
  top: "norm2"
  lrn_param {
    local_size: 5
    alpha: 0.0001
    beta: 0.75
  }
}
layer {
  name: "pool2"
  type: "Pooling"
  bottom: "norm2"
  top: "pool2"
  pooling_param {
    pool: MAX
    kernel_size: 3
    stride: 2
  }
}
layer {
  name: "conv3"
  type: "Convolution"
  bottom: "pool2"
  top: "conv3"
  param {
    lr_mult: 1
    decay_mult: 1
  }
  param {
    lr_mult: 2
    decay_mult: 0
  }
  convolution_param {
    num_output: 384
    pad: 1
    kernel_size: 3
    weight_filler {
      type: "gaussian"
      std: 0.01
    }
    bias_filler {
      type: "constant"
      value: 0
    }
  }
}
layer {
  name: "relu3"
  type: "ReLU"
  bottom: "conv3"
  top: "conv3"
}
layer {
  name: "conv4"
  type: "Convolution"
  bottom: "conv3"
  top: "conv4"
  param {
    lr_mult: 1
    decay_mult: 1
  }
  param {
    lr_mult: 2
    decay_mult: 0
  }
  convolution_param {
    num_output: 384
    pad: 1
    kernel_size: 3
    group: 2
    weight_filler {
      type: "gaussian"
      std: 0.01
    }
    bias_filler {
      type: "constant"
      value: 0.1
    }
  }
}
layer {
  name: "relu4"
  type: "ReLU"
  bottom: "conv4"
  top: "conv4"
}
layer {
  name: "conv5"
  type: "Convolution"
  bottom: "conv4"
  top: "conv5"
  param {
    lr_mult: 1
    decay_mult: 1
  }
  param {
    lr_mult: 2
    decay_mult: 0
  }
  convolution_param {
    num_output: 256
    pad: 1
    kernel_size: 3
    group: 2
    weight_filler {
      type: "gaussian"
      std: 0.01
    }
    bias_filler {
      type: "constant"
      value: 0.1
    }
  }
}
layer {
  name: "relu5"
  type: "ReLU"
  bottom: "conv5"
  top: "conv5"
}
layer {
  name: "pool5"
  type: "Pooling"
  bottom: "conv5"
  top: "pool5"
  pooling_param {
    pool: MAX
    kernel_size: 3
    stride: 2
  }
}
layer {
  name: "fc6"
  type: "InnerProduct"
  bottom: "pool5"
  top: "fc6"
  param {
    lr_mult: 1
    decay_mult: 1
  }
  param {
    lr_mult: 2
    decay_mult: 0
  }
  inner_product_param {
    num_output: 4096
    weight_filler {
      type: "gaussian"
      std: 0.005
    }
    bias_filler {
      type: "constant"
      value: 0.1
    }
  }
}
layer {
  name: "relu6"
  type: "ReLU"
  bottom: "fc6"
  top: "fc6"
}
layer {
  name: "drop6"
  type: "Dropout"
  bottom: "fc6"
  top: "fc6"
  dropout_param {
    dropout_ratio: 0.5
  }
}
layer {
  name: "fc7"
  type: "InnerProduct"
  bottom: "fc6"
  top: "fc7"
  param {
    lr_mult: 1
    decay_mult: 1
  }
  param {
    lr_mult: 2
    decay_mult: 0
  }
  inner_product_param {
    num_output: 4096
    weight_filler {
      type: "gaussian"
      std: 0.005
    }
    bias_filler {
      type: "constant"
      value: 0.1
    }
  }
}
layer {
  name: "relu7"
  type: "ReLU"
  bottom: "fc7"
  top: "fc7"
}
layer {
  name: "drop7"
  type: "Dropout"
  bottom: "fc7"
  top: "fc7"
  dropout_param {
    dropout_ratio: 0.5
  }
}
layer {
  name: "fc8"
  type: "InnerProduct"
  bottom: "fc7"
  top: "fc8"
  param {
    lr_mult: 1
    decay_mult: 1
  }
  param {
    lr_mult: 2
    decay_mult: 0
  }
  inner_product_param {
    num_output: 3
    weight_filler {
      type: "gaussian"
      std: 0.01
    }
    bias_filler {
      type: "constant"
      value: 0
    }
  }
}
layer {
  name: "loss"
  type: "SoftmaxWithLoss"
  bottom: "fc8"
  bottom: "label"
  top: "loss"
}
I0811 15:52:23.913883  8854 layer_factory.hpp:77] Creating layer mnist
I0811 15:52:23.914620  8854 net.cpp:91] Creating Layer mnist
I0811 15:52:23.914633  8854 net.cpp:399] mnist -> data
I0811 15:52:23.914650  8854 net.cpp:399] mnist -> label
I0811 15:52:23.914712  8854 data_transformer.cpp:25] Loading mean file from: data/person_only_lmdb/person_vs_background_vs_random_color_mean.binaryproto
I0811 15:52:23.915978  8861 db_lmdb.cpp:35] Opened lmdb data/person_only_lmdb/person_vs_background_vs_random_train_lmdb
I0811 15:52:38.030007  8854 data_layer.cpp:41] output data size: 128,3,128,128
I0811 15:52:38.073436  8854 net.cpp:141] Setting up mnist
I0811 15:52:38.073490  8854 net.cpp:148] Top shape: 128 3 128 128 (6291456)
I0811 15:52:38.073496  8854 net.cpp:148] Top shape: 128 (128)
I0811 15:52:38.073499  8854 net.cpp:156] Memory required for data: 25166336
I0811 15:52:38.073523  8854 layer_factory.hpp:77] Creating layer conv1
I0811 15:52:38.073554  8854 net.cpp:91] Creating Layer conv1
I0811 15:52:38.073572  8854 net.cpp:425] conv1 <- data
I0811 15:52:38.073581  8854 net.cpp:399] conv1 -> conv1
I0811 15:52:38.215122  8854 net.cpp:141] Setting up conv1
I0811 15:52:38.215155  8854 net.cpp:148] Top shape: 128 96 30 30 (11059200)
I0811 15:52:38.215158  8854 net.cpp:156] Memory required for data: 69403136
I0811 15:52:38.215173  8854 layer_factory.hpp:77] Creating layer relu1
I0811 15:52:38.215212  8854 net.cpp:91] Creating Layer relu1
I0811 15:52:38.215217  8854 net.cpp:425] relu1 <- conv1
I0811 15:52:38.215222  8854 net.cpp:386] relu1 -> conv1 (in-place)
I0811 15:52:38.215415  8854 net.cpp:141] Setting up relu1
I0811 15:52:38.215425  8854 net.cpp:148] Top shape: 128 96 30 30 (11059200)
I0811 15:52:38.215440  8854 net.cpp:156] Memory required for data: 113639936
I0811 15:52:38.215442  8854 layer_factory.hpp:77] Creating layer norm1
I0811 15:52:38.215451  8854 net.cpp:91] Creating Layer norm1
I0811 15:52:38.215454  8854 net.cpp:425] norm1 <- conv1
I0811 15:52:38.215458  8854 net.cpp:399] norm1 -> norm1
I0811 15:52:38.215762  8854 net.cpp:141] Setting up norm1
I0811 15:52:38.215775  8854 net.cpp:148] Top shape: 128 96 30 30 (11059200)
I0811 15:52:38.215788  8854 net.cpp:156] Memory required for data: 157876736
I0811 15:52:38.215791  8854 layer_factory.hpp:77] Creating layer pool1
I0811 15:52:38.215801  8854 net.cpp:91] Creating Layer pool1
I0811 15:52:38.215804  8854 net.cpp:425] pool1 <- norm1
I0811 15:52:38.215808  8854 net.cpp:399] pool1 -> pool1
I0811 15:52:38.215843  8854 net.cpp:141] Setting up pool1
I0811 15:52:38.215853  8854 net.cpp:148] Top shape: 128 96 15 15 (2764800)
I0811 15:52:38.215867  8854 net.cpp:156] Memory required for data: 168935936
I0811 15:52:38.215872  8854 layer_factory.hpp:77] Creating layer conv2
I0811 15:52:38.215883  8854 net.cpp:91] Creating Layer conv2
I0811 15:52:38.215886  8854 net.cpp:425] conv2 <- pool1
I0811 15:52:38.215891  8854 net.cpp:399] conv2 -> conv2
I0811 15:52:38.225316  8854 net.cpp:141] Setting up conv2
I0811 15:52:38.225329  8854 net.cpp:148] Top shape: 128 256 15 15 (7372800)
I0811 15:52:38.225332  8854 net.cpp:156] Memory required for data: 198427136
I0811 15:52:38.225340  8854 layer_factory.hpp:77] Creating layer relu2
I0811 15:52:38.225348  8854 net.cpp:91] Creating Layer relu2
I0811 15:52:38.225352  8854 net.cpp:425] relu2 <- conv2
I0811 15:52:38.225355  8854 net.cpp:386] relu2 -> conv2 (in-place)
I0811 15:52:38.225633  8854 net.cpp:141] Setting up relu2
I0811 15:52:38.225646  8854 net.cpp:148] Top shape: 128 256 15 15 (7372800)
I0811 15:52:38.225648  8854 net.cpp:156] Memory required for data: 227918336
I0811 15:52:38.225651  8854 layer_factory.hpp:77] Creating layer norm2
I0811 15:52:38.225658  8854 net.cpp:91] Creating Layer norm2
I0811 15:52:38.225661  8854 net.cpp:425] norm2 <- conv2
I0811 15:52:38.225666  8854 net.cpp:399] norm2 -> norm2
I0811 15:52:38.225858  8854 net.cpp:141] Setting up norm2
I0811 15:52:38.225870  8854 net.cpp:148] Top shape: 128 256 15 15 (7372800)
I0811 15:52:38.225873  8854 net.cpp:156] Memory required for data: 257409536
I0811 15:52:38.225875  8854 layer_factory.hpp:77] Creating layer pool2
I0811 15:52:38.225881  8854 net.cpp:91] Creating Layer pool2
I0811 15:52:38.225884  8854 net.cpp:425] pool2 <- norm2
I0811 15:52:38.225888  8854 net.cpp:399] pool2 -> pool2
I0811 15:52:38.225919  8854 net.cpp:141] Setting up pool2
I0811 15:52:38.225927  8854 net.cpp:148] Top shape: 128 256 7 7 (1605632)
I0811 15:52:38.225940  8854 net.cpp:156] Memory required for data: 263832064
I0811 15:52:38.225944  8854 layer_factory.hpp:77] Creating layer conv3
I0811 15:52:38.225963  8854 net.cpp:91] Creating Layer conv3
I0811 15:52:38.225966  8854 net.cpp:425] conv3 <- pool2
I0811 15:52:38.225971  8854 net.cpp:399] conv3 -> conv3
I0811 15:52:38.250171  8854 net.cpp:141] Setting up conv3
I0811 15:52:38.250185  8854 net.cpp:148] Top shape: 128 384 7 7 (2408448)
I0811 15:52:38.250188  8854 net.cpp:156] Memory required for data: 273465856
I0811 15:52:38.250196  8854 layer_factory.hpp:77] Creating layer relu3
I0811 15:52:38.250201  8854 net.cpp:91] Creating Layer relu3
I0811 15:52:38.250205  8854 net.cpp:425] relu3 <- conv3
I0811 15:52:38.250211  8854 net.cpp:386] relu3 -> conv3 (in-place)
I0811 15:52:38.250489  8854 net.cpp:141] Setting up relu3
I0811 15:52:38.250501  8854 net.cpp:148] Top shape: 128 384 7 7 (2408448)
I0811 15:52:38.250504  8854 net.cpp:156] Memory required for data: 283099648
I0811 15:52:38.250506  8854 layer_factory.hpp:77] Creating layer conv4
I0811 15:52:38.250515  8854 net.cpp:91] Creating Layer conv4
I0811 15:52:38.250519  8854 net.cpp:425] conv4 <- conv3
I0811 15:52:38.250524  8854 net.cpp:399] conv4 -> conv4
I0811 15:52:38.269299  8854 net.cpp:141] Setting up conv4
I0811 15:52:38.269312  8854 net.cpp:148] Top shape: 128 384 7 7 (2408448)
I0811 15:52:38.269315  8854 net.cpp:156] Memory required for data: 292733440
I0811 15:52:38.269320  8854 layer_factory.hpp:77] Creating layer relu4
I0811 15:52:38.269327  8854 net.cpp:91] Creating Layer relu4
I0811 15:52:38.269330  8854 net.cpp:425] relu4 <- conv4
I0811 15:52:38.269335  8854 net.cpp:386] relu4 -> conv4 (in-place)
I0811 15:52:38.269606  8854 net.cpp:141] Setting up relu4
I0811 15:52:38.269618  8854 net.cpp:148] Top shape: 128 384 7 7 (2408448)
I0811 15:52:38.269620  8854 net.cpp:156] Memory required for data: 302367232
I0811 15:52:38.269623  8854 layer_factory.hpp:77] Creating layer conv5
I0811 15:52:38.269634  8854 net.cpp:91] Creating Layer conv5
I0811 15:52:38.269639  8854 net.cpp:425] conv5 <- conv4
I0811 15:52:38.269642  8854 net.cpp:399] conv5 -> conv5
I0811 15:52:38.282802  8854 net.cpp:141] Setting up conv5
I0811 15:52:38.282816  8854 net.cpp:148] Top shape: 128 256 7 7 (1605632)
I0811 15:52:38.282819  8854 net.cpp:156] Memory required for data: 308789760
I0811 15:52:38.282826  8854 layer_factory.hpp:77] Creating layer relu5
I0811 15:52:38.282833  8854 net.cpp:91] Creating Layer relu5
I0811 15:52:38.282836  8854 net.cpp:425] relu5 <- conv5
I0811 15:52:38.282840  8854 net.cpp:386] relu5 -> conv5 (in-place)
I0811 15:52:38.283115  8854 net.cpp:141] Setting up relu5
I0811 15:52:38.283128  8854 net.cpp:148] Top shape: 128 256 7 7 (1605632)
I0811 15:52:38.283129  8854 net.cpp:156] Memory required for data: 315212288
I0811 15:52:38.283133  8854 layer_factory.hpp:77] Creating layer pool5
I0811 15:52:38.283140  8854 net.cpp:91] Creating Layer pool5
I0811 15:52:38.283143  8854 net.cpp:425] pool5 <- conv5
I0811 15:52:38.283148  8854 net.cpp:399] pool5 -> pool5
I0811 15:52:38.283185  8854 net.cpp:141] Setting up pool5
I0811 15:52:38.283205  8854 net.cpp:148] Top shape: 128 256 3 3 (294912)
I0811 15:52:38.283206  8854 net.cpp:156] Memory required for data: 316391936
I0811 15:52:38.283210  8854 layer_factory.hpp:77] Creating layer fc6
I0811 15:52:38.283231  8854 net.cpp:91] Creating Layer fc6
I0811 15:52:38.283233  8854 net.cpp:425] fc6 <- pool5
I0811 15:52:38.283238  8854 net.cpp:399] fc6 -> fc6
I0811 15:52:38.533215  8854 net.cpp:141] Setting up fc6
I0811 15:52:38.533251  8854 net.cpp:148] Top shape: 128 4096 (524288)
I0811 15:52:38.533253  8854 net.cpp:156] Memory required for data: 318489088
I0811 15:52:38.533264  8854 layer_factory.hpp:77] Creating layer relu6
I0811 15:52:38.533275  8854 net.cpp:91] Creating Layer relu6
I0811 15:52:38.533280  8854 net.cpp:425] relu6 <- fc6
I0811 15:52:38.533285  8854 net.cpp:386] relu6 -> fc6 (in-place)
I0811 15:52:38.533517  8854 net.cpp:141] Setting up relu6
I0811 15:52:38.533529  8854 net.cpp:148] Top shape: 128 4096 (524288)
I0811 15:52:38.533531  8854 net.cpp:156] Memory required for data: 320586240
I0811 15:52:38.533535  8854 layer_factory.hpp:77] Creating layer drop6
I0811 15:52:38.533545  8854 net.cpp:91] Creating Layer drop6
I0811 15:52:38.533548  8854 net.cpp:425] drop6 <- fc6
I0811 15:52:38.533552  8854 net.cpp:386] drop6 -> fc6 (in-place)
I0811 15:52:38.533573  8854 net.cpp:141] Setting up drop6
I0811 15:52:38.533578  8854 net.cpp:148] Top shape: 128 4096 (524288)
I0811 15:52:38.533581  8854 net.cpp:156] Memory required for data: 322683392
I0811 15:52:38.533583  8854 layer_factory.hpp:77] Creating layer fc7
I0811 15:52:38.533591  8854 net.cpp:91] Creating Layer fc7
I0811 15:52:38.533599  8854 net.cpp:425] fc7 <- fc6
I0811 15:52:38.533617  8854 net.cpp:399] fc7 -> fc7
I0811 15:52:39.020079  8854 net.cpp:141] Setting up fc7
I0811 15:52:39.020117  8854 net.cpp:148] Top shape: 128 4096 (524288)
I0811 15:52:39.020119  8854 net.cpp:156] Memory required for data: 324780544
I0811 15:52:39.020129  8854 layer_factory.hpp:77] Creating layer relu7
I0811 15:52:39.020140  8854 net.cpp:91] Creating Layer relu7
I0811 15:52:39.020145  8854 net.cpp:425] relu7 <- fc7
I0811 15:52:39.020150  8854 net.cpp:386] relu7 -> fc7 (in-place)
I0811 15:52:39.020570  8854 net.cpp:141] Setting up relu7
I0811 15:52:39.020582  8854 net.cpp:148] Top shape: 128 4096 (524288)
I0811 15:52:39.020586  8854 net.cpp:156] Memory required for data: 326877696
I0811 15:52:39.020588  8854 layer_factory.hpp:77] Creating layer drop7
I0811 15:52:39.020596  8854 net.cpp:91] Creating Layer drop7
I0811 15:52:39.020601  8854 net.cpp:425] drop7 <- fc7
I0811 15:52:39.020617  8854 net.cpp:386] drop7 -> fc7 (in-place)
I0811 15:52:39.020649  8854 net.cpp:141] Setting up drop7
I0811 15:52:39.020654  8854 net.cpp:148] Top shape: 128 4096 (524288)
I0811 15:52:39.020658  8854 net.cpp:156] Memory required for data: 328974848
I0811 15:52:39.020660  8854 layer_factory.hpp:77] Creating layer fc8
I0811 15:52:39.020670  8854 net.cpp:91] Creating Layer fc8
I0811 15:52:39.020673  8854 net.cpp:425] fc8 <- fc7
I0811 15:52:39.020679  8854 net.cpp:399] fc8 -> fc8
I0811 15:52:39.021559  8854 net.cpp:141] Setting up fc8
I0811 15:52:39.021570  8854 net.cpp:148] Top shape: 128 3 (384)
I0811 15:52:39.021585  8854 net.cpp:156] Memory required for data: 328976384
I0811 15:52:39.021590  8854 layer_factory.hpp:77] Creating layer loss
I0811 15:52:39.021596  8854 net.cpp:91] Creating Layer loss
I0811 15:52:39.021600  8854 net.cpp:425] loss <- fc8
I0811 15:52:39.021603  8854 net.cpp:425] loss <- label
I0811 15:52:39.021608  8854 net.cpp:399] loss -> loss
I0811 15:52:39.021620  8854 layer_factory.hpp:77] Creating layer loss
…
I0811 15:52:39.022653  8854 net.cpp:313] The NetState phase (1) differed from the phase (0) specified by a rule in layer mnist
I0811 15:52:39.022861  8854 net.cpp:49] Initializing net from parameters: 
name: "AlexNet"
state {
  phase: TEST
}
layer {
  name: "mnist"
  type: "Data"
  top: "data"
  top: "label"
  include {
    phase: TEST
  }
  transform_param {
    scale: 0.00390625
    mean_file: "data/person_only_lmdb/person_vs_background_vs_random_color_mean.binaryproto"
  }
  data_param {
    source: "data/person_only_lmdb/person_vs_background_vs_random_test_lmdb"
    batch_size: 100
    backend: LMDB
  }
}
layer {
  name: "conv1"
  type: "Convolution"
  bottom: "data"
  top: "conv1"
  param {
    lr_mult: 1
    decay_mult: 1
  }
  param {
    lr_mult: 2
    decay_mult: 0
  }
  convolution_param {
    num_output: 96
    kernel_size: 11
    stride: 4
    weight_filler {
      type: "gaussian"
      std: 0.01
    }
    bias_filler {
      type: "constant"
      value: 0
    }
  }
}
layer {
  name: "relu1"
  type: "ReLU"
  bottom: "conv1"
  top: "conv1"
}
layer {
  name: "norm1"
  type: "LRN"
  bottom: "conv1"
  top: "norm1"
  lrn_param {
    local_size: 5
    alpha: 0.0001
    beta: 0.75
  }
}
layer {
  name: "pool1"
  type: "Pooling"
  bottom: "norm1"
  top: "pool1"
  pooling_param {
    pool: MAX
    kernel_size: 3
    stride: 2
  }
}
layer {
  name: "conv2"
  type: "Convolution"
  bottom: "pool1"
  top: "conv2"
  param {
    lr_mult: 1
    decay_mult: 1
  }
  param {
    lr_mult: 2
    decay_mult: 0
  }
  convolution_param {
    num_output: 256
    pad: 2
    kernel_size: 5
    group: 2
    weight_filler {
      type: "gaussian"
      std: 0.01
    }
    bias_filler {
      type: "constant"
      value: 0.1
    }
  }
}
layer {
  name: "relu2"
  type: "ReLU"
  bottom: "conv2"
  top: "conv2"
}
layer {
  name: "norm2"
  type: "LRN"
  bottom: "conv2"
  top: "norm2"
  lrn_param {
    local_size: 5
    alpha: 0.0001
    beta: 0.75
  }
}
layer {
  name: "pool2"
  type: "Pooling"
  bottom: "norm2"
  top: "pool2"
  pooling_param {
    pool: MAX
    kernel_size: 3
    stride: 2
  }
}
layer {
  name: "conv3"
  type: "Convolution"
  bottom: "pool2"
  top: "conv3"
  param {
    lr_mult: 1
    decay_mult: 1
  }
  param {
    lr_mult: 2
    decay_mult: 0
  }
  convolution_param {
    num_output: 384
    pad: 1
    kernel_size: 3
    weight_filler {
      type: "gaussian"
      std: 0.01
    }
    bias_filler {
      type: "constant"
      value: 0
    }
  }
}
layer {
  name: "relu3"
  type: "ReLU"
  bottom: "conv3"
  top: "conv3"
}
layer {
  name: "conv4"
  type: "Convolution"
  bottom: "conv3"
  top: "conv4"
  param {
    lr_mult: 1
    decay_mult: 1
  }
  param {
    lr_mult: 2
    decay_mult: 0
  }
  convolution_param {
    num_output: 384
    pad: 1
    kernel_size: 3
    group: 2
    weight_filler {
      type: "gaussian"
      std: 0.01
    }
    bias_filler {
      type: "constant"
      value: 0.1
    }
  }
}
layer {
  name: "relu4"
  type: "ReLU"
  bottom: "conv4"
  top: "conv4"
}
layer {
  name: "conv5"
  type: "Convolution"
  bottom: "conv4"
  top: "conv5"
  param {
    lr_mult: 1
    decay_mult: 1
  }
  param {
    lr_mult: 2
    decay_mult: 0
  }
  convolution_param {
    num_output: 256
    pad: 1
    kernel_size: 3
    group: 2
    weight_filler {
      type: "gaussian"
      std: 0.01
    }
    bias_filler {
      type: "constant"
      value: 0.1
    }
  }
}
layer {
  name: "relu5"
  type: "ReLU"
  bottom: "conv5"
  top: "conv5"
}
layer {
  name: "pool5"
  type: "Pooling"
  bottom: "conv5"
  top: "pool5"
  pooling_param {
    pool: MAX
    kernel_size: 3
    stride: 2
  }
}
layer {
  name: "fc6"
  type: "InnerProduct"
  bottom: "pool5"
  top: "fc6"
  param {
    lr_mult: 1
    decay_mult: 1
  }
  param {
    lr_mult: 2
    decay_mult: 0
  }
  inner_product_param {
    num_output: 4096
    weight_filler {
      type: "gaussian"
      std: 0.005
    }
    bias_filler {
      type: "constant"
      value: 0.1
    }
  }
}
layer {
  name: "relu6"
  type: "ReLU"
  bottom: "fc6"
  top: "fc6"
}
layer {
  name: "drop6"
  type: "Dropout"
  bottom: "fc6"
  top: "fc6"
  dropout_param {
    dropout_ratio: 0.5
  }
}
layer {
  name: "fc7"
  type: "InnerProduct"
  bottom: "fc6"
  top: "fc7"
  param {
    lr_mult: 1
    decay_mult: 1
  }
  param {
    lr_mult: 2
    decay_mult: 0
  }
  inner_product_param {
    num_output: 4096
    weight_filler {
      type: "gaussian"
      std: 0.005
    }
    bias_filler {
      type: "constant"
      value: 0.1
    }
  }
}
layer {
  name: "relu7"
  type: "ReLU"
  bottom: "fc7"
  top: "fc7"
}
layer {
  name: "drop7"
  type: "Dropout"
  bottom: "fc7"
  top: "fc7"
  dropout_param {
    dropout_ratio: 0.5
  }
}
layer {
  name: "fc8"
  type: "InnerProduct"
  bottom: "fc7"
  top: "fc8"
  param {
    lr_mult: 1
    decay_mult: 1
  }
  param {
    lr_mult: 2
    decay_mult: 0
  }
  inner_product_param {
    num_output: 3
    weight_filler {
      type: "gaussian"
      std: 0.01
    }
    bias_filler {
      type: "constant"
      value: 0
    }
  }
}
layer {
  name: "accuracy"
  type: "Accuracy"
  bottom: "fc8"
  bottom: "label"
  top: "accuracy"
  include {
    phase: TEST
  }
}
layer {
  name: "loss"
  type: "SoftmaxWithLoss"
  bottom: "fc8"
  bottom: "label"
  top: "loss"
}
I0811 15:52:39.022964  8854 layer_factory.hpp:77] Creating layer mnist
I0811 15:52:39.023067  8854 net.cpp:91] Creating Layer mnist
I0811 15:52:39.023074  8854 net.cpp:399] mnist -> data
I0811 15:52:39.023082  8854 net.cpp:399] mnist -> label
I0811 15:52:39.023092  8854 data_transformer.cpp:25] Loading mean file from: data/person_only_lmdb/person_vs_background_vs_random_color_mean.binaryproto
I0811 15:52:39.024633  8863 db_lmdb.cpp:35] Opened lmdb data/person_only_lmdb/person_vs_background_vs_random_test_lmdb
I0811 15:52:39.024890  8854 data_layer.cpp:41] output data size: 100,3,128,128
I0811 15:52:39.058563  8854 net.cpp:141] Setting up mnist
I0811 15:52:39.058612  8854 net.cpp:148] Top shape: 100 3 128 128 (4915200)
I0811 15:52:39.058619  8854 net.cpp:148] Top shape: 100 (100)
I0811 15:52:39.058620  8854 net.cpp:156] Memory required for data: 19661200
I0811 15:52:39.058629  8854 layer_factory.hpp:77] Creating layer label_mnist_1_split
I0811 15:52:39.058642  8854 net.cpp:91] Creating Layer label_mnist_1_split
I0811 15:52:39.058646  8854 net.cpp:425] label_mnist_1_split <- label
I0811 15:52:39.058653  8854 net.cpp:399] label_mnist_1_split -> label_mnist_1_split_0
I0811 15:52:39.058663  8854 net.cpp:399] label_mnist_1_split -> label_mnist_1_split_1
I0811 15:52:39.058953  8854 net.cpp:141] Setting up label_mnist_1_split
I0811 15:52:39.058977  8854 net.cpp:148] Top shape: 100 (100)
I0811 15:52:39.058981  8854 net.cpp:148] Top shape: 100 (100)
I0811 15:52:39.058984  8854 net.cpp:156] Memory required for data: 19662000
I0811 15:52:39.058987  8854 layer_factory.hpp:77] Creating layer conv1
I0811 15:52:39.059001  8854 net.cpp:91] Creating Layer conv1
I0811 15:52:39.059005  8854 net.cpp:425] conv1 <- data
I0811 15:52:39.059011  8854 net.cpp:399] conv1 -> conv1
I0811 15:52:39.064241  8854 net.cpp:141] Setting up conv1
I0811 15:52:39.064270  8854 net.cpp:148] Top shape: 100 96 30 30 (8640000)
I0811 15:52:39.064273  8854 net.cpp:156] Memory required for data: 54222000
I0811 15:52:39.064285  8854 layer_factory.hpp:77] Creating layer relu1
I0811 15:52:39.064292  8854 net.cpp:91] Creating Layer relu1
I0811 15:52:39.064296  8854 net.cpp:425] relu1 <- conv1
I0811 15:52:39.064299  8854 net.cpp:386] relu1 -> conv1 (in-place)
I0811 15:52:39.064625  8854 net.cpp:141] Setting up relu1
I0811 15:52:39.064658  8854 net.cpp:148] Top shape: 100 96 30 30 (8640000)
I0811 15:52:39.064661  8854 net.cpp:156] Memory required for data: 88782000
I0811 15:52:39.064676  8854 layer_factory.hpp:77] Creating layer norm1
I0811 15:52:39.064684  8854 net.cpp:91] Creating Layer norm1
I0811 15:52:39.064687  8854 net.cpp:425] norm1 <- conv1
I0811 15:52:39.064692  8854 net.cpp:399] norm1 -> norm1
I0811 15:52:39.064905  8854 net.cpp:141] Setting up norm1
I0811 15:52:39.064915  8854 net.cpp:148] Top shape: 100 96 30 30 (8640000)
I0811 15:52:39.064929  8854 net.cpp:156] Memory required for data: 123342000
I0811 15:52:39.064931  8854 layer_factory.hpp:77] Creating layer pool1
I0811 15:52:39.064939  8854 net.cpp:91] Creating Layer pool1
I0811 15:52:39.064941  8854 net.cpp:425] pool1 <- norm1
I0811 15:52:39.064947  8854 net.cpp:399] pool1 -> pool1
I0811 15:52:39.064982  8854 net.cpp:141] Setting up pool1
I0811 15:52:39.065001  8854 net.cpp:148] Top shape: 100 96 15 15 (2160000)
I0811 15:52:39.065003  8854 net.cpp:156] Memory required for data: 131982000
I0811 15:52:39.065017  8854 layer_factory.hpp:77] Creating layer conv2
I0811 15:52:39.065032  8854 net.cpp:91] Creating Layer conv2
I0811 15:52:39.065035  8854 net.cpp:425] conv2 <- pool1
I0811 15:52:39.065042  8854 net.cpp:399] conv2 -> conv2
I0811 15:52:39.074797  8854 net.cpp:141] Setting up conv2
I0811 15:52:39.074826  8854 net.cpp:148] Top shape: 100 256 15 15 (5760000)
I0811 15:52:39.074829  8854 net.cpp:156] Memory required for data: 155022000
I0811 15:52:39.074837  8854 layer_factory.hpp:77] Creating layer relu2
I0811 15:52:39.074844  8854 net.cpp:91] Creating Layer relu2
I0811 15:52:39.074847  8854 net.cpp:425] relu2 <- conv2
I0811 15:52:39.074851  8854 net.cpp:386] relu2 -> conv2 (in-place)
I0811 15:52:39.075145  8854 net.cpp:141] Setting up relu2
I0811 15:52:39.075156  8854 net.cpp:148] Top shape: 100 256 15 15 (5760000)
I0811 15:52:39.075170  8854 net.cpp:156] Memory required for data: 178062000
I0811 15:52:39.075173  8854 layer_factory.hpp:77] Creating layer norm2
I0811 15:52:39.075181  8854 net.cpp:91] Creating Layer norm2
I0811 15:52:39.075186  8854 net.cpp:425] norm2 <- conv2
I0811 15:52:39.075191  8854 net.cpp:399] norm2 -> norm2
I0811 15:52:39.075409  8854 net.cpp:141] Setting up norm2
I0811 15:52:39.075419  8854 net.cpp:148] Top shape: 100 256 15 15 (5760000)
I0811 15:52:39.075433  8854 net.cpp:156] Memory required for data: 201102000
I0811 15:52:39.075436  8854 layer_factory.hpp:77] Creating layer pool2
I0811 15:52:39.075443  8854 net.cpp:91] Creating Layer pool2
I0811 15:52:39.075445  8854 net.cpp:425] pool2 <- norm2
I0811 15:52:39.075449  8854 net.cpp:399] pool2 -> pool2
I0811 15:52:39.075484  8854 net.cpp:141] Setting up pool2
I0811 15:52:39.075502  8854 net.cpp:148] Top shape: 100 256 7 7 (1254400)
I0811 15:52:39.075505  8854 net.cpp:156] Memory required for data: 206119600
I0811 15:52:39.075520  8854 layer_factory.hpp:77] Creating layer conv3
I0811 15:52:39.075528  8854 net.cpp:91] Creating Layer conv3
I0811 15:52:39.075531  8854 net.cpp:425] conv3 <- pool2
I0811 15:52:39.075537  8854 net.cpp:399] conv3 -> conv3
I0811 15:52:39.099699  8854 net.cpp:141] Setting up conv3
I0811 15:52:39.099719  8854 net.cpp:148] Top shape: 100 384 7 7 (1881600)
I0811 15:52:39.099732  8854 net.cpp:156] Memory required for data: 213646000
I0811 15:52:39.099740  8854 layer_factory.hpp:77] Creating layer relu3
I0811 15:52:39.099746  8854 net.cpp:91] Creating Layer relu3
I0811 15:52:39.099750  8854 net.cpp:425] relu3 <- conv3
I0811 15:52:39.099753  8854 net.cpp:386] relu3 -> conv3 (in-place)
I0811 15:52:39.099951  8854 net.cpp:141] Setting up relu3
I0811 15:52:39.099961  8854 net.cpp:148] Top shape: 100 384 7 7 (1881600)
I0811 15:52:39.099973  8854 net.cpp:156] Memory required for data: 221172400
I0811 15:52:39.099977  8854 layer_factory.hpp:77] Creating layer conv4
I0811 15:52:39.099985  8854 net.cpp:91] Creating Layer conv4
I0811 15:52:39.099988  8854 net.cpp:425] conv4 <- conv3
I0811 15:52:39.099995  8854 net.cpp:399] conv4 -> conv4
I0811 15:52:39.119030  8854 net.cpp:141] Setting up conv4
I0811 15:52:39.119045  8854 net.cpp:148] Top shape: 100 384 7 7 (1881600)
I0811 15:52:39.119060  8854 net.cpp:156] Memory required for data: 228698800
I0811 15:52:39.119065  8854 layer_factory.hpp:77] Creating layer relu4
I0811 15:52:39.119071  8854 net.cpp:91] Creating Layer relu4
I0811 15:52:39.119074  8854 net.cpp:425] relu4 <- conv4
I0811 15:52:39.119081  8854 net.cpp:386] relu4 -> conv4 (in-place)
I0811 15:52:39.119468  8854 net.cpp:141] Setting up relu4
I0811 15:52:39.119480  8854 net.cpp:148] Top shape: 100 384 7 7 (1881600)
I0811 15:52:39.119494  8854 net.cpp:156] Memory required for data: 236225200
I0811 15:52:39.119498  8854 layer_factory.hpp:77] Creating layer conv5
I0811 15:52:39.119506  8854 net.cpp:91] Creating Layer conv5
I0811 15:52:39.119510  8854 net.cpp:425] conv5 <- conv4
I0811 15:52:39.119516  8854 net.cpp:399] conv5 -> conv5
I0811 15:52:39.132648  8854 net.cpp:141] Setting up conv5
I0811 15:52:39.132673  8854 net.cpp:148] Top shape: 100 256 7 7 (1254400)
I0811 15:52:39.132676  8854 net.cpp:156] Memory required for data: 241242800
I0811 15:52:39.132685  8854 layer_factory.hpp:77] Creating layer relu5
I0811 15:52:39.132690  8854 net.cpp:91] Creating Layer relu5
I0811 15:52:39.132694  8854 net.cpp:425] relu5 <- conv5
I0811 15:52:39.132699  8854 net.cpp:386] relu5 -> conv5 (in-place)
I0811 15:52:39.132992  8854 net.cpp:141] Setting up relu5
I0811 15:52:39.133003  8854 net.cpp:148] Top shape: 100 256 7 7 (1254400)
I0811 15:52:39.133018  8854 net.cpp:156] Memory required for data: 246260400
I0811 15:52:39.133020  8854 layer_factory.hpp:77] Creating layer pool5
I0811 15:52:39.133029  8854 net.cpp:91] Creating Layer pool5
I0811 15:52:39.133033  8854 net.cpp:425] pool5 <- conv5
I0811 15:52:39.133038  8854 net.cpp:399] pool5 -> pool5
I0811 15:52:39.133081  8854 net.cpp:141] Setting up pool5
I0811 15:52:39.133100  8854 net.cpp:148] Top shape: 100 256 3 3 (230400)
I0811 15:52:39.133103  8854 net.cpp:156] Memory required for data: 247182000
I0811 15:52:39.133117  8854 layer_factory.hpp:77] Creating layer fc6
I0811 15:52:39.133126  8854 net.cpp:91] Creating Layer fc6
I0811 15:52:39.133128  8854 net.cpp:425] fc6 <- pool5
I0811 15:52:39.133132  8854 net.cpp:399] fc6 -> fc6
I0811 15:52:39.389780  8854 net.cpp:141] Setting up fc6
I0811 15:52:39.389827  8854 net.cpp:148] Top shape: 100 4096 (409600)
I0811 15:52:39.389830  8854 net.cpp:156] Memory required for data: 248820400
I0811 15:52:39.389842  8854 layer_factory.hpp:77] Creating layer relu6
I0811 15:52:39.389861  8854 net.cpp:91] Creating Layer relu6
I0811 15:52:39.389866  8854 net.cpp:425] relu6 <- fc6
I0811 15:52:39.389871  8854 net.cpp:386] relu6 -> fc6 (in-place)
I0811 15:52:39.390146  8854 net.cpp:141] Setting up relu6
I0811 15:52:39.390156  8854 net.cpp:148] Top shape: 100 4096 (409600)
I0811 15:52:39.390169  8854 net.cpp:156] Memory required for data: 250458800
I0811 15:52:39.390172  8854 layer_factory.hpp:77] Creating layer drop6
I0811 15:52:39.390179  8854 net.cpp:91] Creating Layer drop6
I0811 15:52:39.390182  8854 net.cpp:425] drop6 <- fc6
I0811 15:52:39.390185  8854 net.cpp:386] drop6 -> fc6 (in-place)
I0811 15:52:39.390216  8854 net.cpp:141] Setting up drop6
I0811 15:52:39.390223  8854 net.cpp:148] Top shape: 100 4096 (409600)
I0811 15:52:39.390226  8854 net.cpp:156] Memory required for data: 252097200
I0811 15:52:39.390240  8854 layer_factory.hpp:77] Creating layer fc7
I0811 15:52:39.390249  8854 net.cpp:91] Creating Layer fc7
I0811 15:52:39.390251  8854 net.cpp:425] fc7 <- fc6
I0811 15:52:39.390256  8854 net.cpp:399] fc7 -> fc7
I0811 15:52:39.912328  8854 net.cpp:141] Setting up fc7
I0811 15:52:39.912374  8854 net.cpp:148] Top shape: 100 4096 (409600)
I0811 15:52:39.912377  8854 net.cpp:156] Memory required for data: 253735600
I0811 15:52:39.912389  8854 layer_factory.hpp:77] Creating layer relu7
I0811 15:52:39.912400  8854 net.cpp:91] Creating Layer relu7
I0811 15:52:39.912403  8854 net.cpp:425] relu7 <- fc7
I0811 15:52:39.912410  8854 net.cpp:386] relu7 -> fc7 (in-place)
I0811 15:52:39.912830  8854 net.cpp:141] Setting up relu7
I0811 15:52:39.912853  8854 net.cpp:148] Top shape: 100 4096 (409600)
I0811 15:52:39.912856  8854 net.cpp:156] Memory required for data: 255374000
I0811 15:52:39.912859  8854 layer_factory.hpp:77] Creating layer drop7
I0811 15:52:39.912870  8854 net.cpp:91] Creating Layer drop7
I0811 15:52:39.912873  8854 net.cpp:425] drop7 <- fc7
I0811 15:52:39.912878  8854 net.cpp:386] drop7 -> fc7 (in-place)
I0811 15:52:39.912906  8854 net.cpp:141] Setting up drop7
I0811 15:52:39.912914  8854 net.cpp:148] Top shape: 100 4096 (409600)
I0811 15:52:39.912928  8854 net.cpp:156] Memory required for data: 257012400
I0811 15:52:39.912931  8854 layer_factory.hpp:77] Creating layer fc8
I0811 15:52:39.912938  8854 net.cpp:91] Creating Layer fc8
I0811 15:52:39.912941  8854 net.cpp:425] fc8 <- fc7
I0811 15:52:39.912947  8854 net.cpp:399] fc8 -> fc8
I0811 15:52:39.913409  8854 net.cpp:141] Setting up fc8
I0811 15:52:39.913419  8854 net.cpp:148] Top shape: 100 3 (300)
I0811 15:52:39.913432  8854 net.cpp:156] Memory required for data: 257013600
I0811 15:52:39.913437  8854 layer_factory.hpp:77] Creating layer fc8_fc8_0_split
I0811 15:52:39.913444  8854 net.cpp:91] Creating Layer fc8_fc8_0_split
I0811 15:52:39.913446  8854 net.cpp:425] fc8_fc8_0_split <- fc8
I0811 15:52:39.913451  8854 net.cpp:399] fc8_fc8_0_split -> fc8_fc8_0_split_0
I0811 15:52:39.913457  8854 net.cpp:399] fc8_fc8_0_split -> fc8_fc8_0_split_1
I0811 15:52:39.913491  8854 net.cpp:141] Setting up fc8_fc8_0_split
I0811 15:52:39.913498  8854 net.cpp:148] Top shape: 100 3 (300)
I0811 15:52:39.913512  8854 net.cpp:148] Top shape: 100 3 (300)
I0811 15:52:39.913516  8854 net.cpp:156] Memory required for data: 257016000
I0811 15:52:39.913518  8854 layer_factory.hpp:77] Creating layer accuracy
I0811 15:52:39.913523  8854 net.cpp:91] Creating Layer accuracy
I0811 15:52:39.913527  8854 net.cpp:425] accuracy <- fc8_fc8_0_split_0
I0811 15:52:39.913532  8854 net.cpp:425] accuracy <- label_mnist_1_split_0
I0811 15:52:39.913535  8854 net.cpp:399] accuracy -> accuracy
…
