…
I0822 11:25:43.089073 31776 net.cpp:322] The NetState phase (0) differed from the phase (1) specified by a rule in layer accuracy
I0822 11:25:43.089213 31776 net.cpp:58] Initializing net from parameters: 
name: "AlexNet"
state {
  phase: TRAIN
}
layer {
  name: "mnist"
  type: "Data"
  top: "data"
  top: "label"
  include {
    phase: TRAIN
  }
  transform_param {
    scale: 0.00390625
    mean_file: "data/person_only_lmdb/person_vs_background_vs_random_color_mean.binaryproto"
  }
  data_param {
    source: "data/person_only_lmdb/person_vs_background_vs_random_train_lmdb"
    batch_size: 128
    backend: LMDB
  }
}
layer {
  name: "conv1"
  type: "Convolution"
  bottom: "data"
  top: "conv1"
  param {
    lr_mult: 1
    decay_mult: 1
  }
  param {
    lr_mult: 2
    decay_mult: 0
  }
  convolution_param {
    num_output: 96
    kernel_size: 11
    stride: 4
    weight_filler {
      type: "gaussian"
      std: 0.01
    }
    bias_filler {
      type: "constant"
      value: 0
    }
  }
}
layer {
  name: "relu1"
  type: "ReLU"
  bottom: "conv1"
  top: "conv1"
}
layer {
  name: "norm1"
  type: "LRN"
  bottom: "conv1"
  top: "norm1"
  lrn_param {
    local_size: 5
    alpha: 0.0001
    beta: 0.75
  }
}
layer {
  name: "pool1"
  type: "Pooling"
  bottom: "norm1"
  top: "pool1"
  pooling_param {
    pool: MAX
    kernel_size: 3
    stride: 2
  }
}
layer {
  name: "conv2"
  type: "Convolution"
  bottom: "pool1"
  top: "conv2"
  param {
    lr_mult: 1
    decay_mult: 1
  }
  param {
    lr_mult: 2
    decay_mult: 0
  }
  convolution_param {
    num_output: 256
    pad: 2
    kernel_size: 5
    group: 2
    weight_filler {
      type: "gaussian"
      std: 0.01
    }
    bias_filler {
      type: "constant"
      value: 0.1
    }
  }
}
layer {
  name: "relu2"
  type: "ReLU"
  bottom: "conv2"
  top: "conv2"
}
layer {
  name: "norm2"
  type: "LRN"
  bottom: "conv2"
  top: "norm2"
  lrn_param {
    local_size: 5
    alpha: 0.0001
    beta: 0.75
  }
}
layer {
  name: "pool2"
  type: "Pooling"
  bottom: "norm2"
  top: "pool2"
  pooling_param {
    pool: MAX
    kernel_size: 3
    stride: 2
  }
}
layer {
  name: "conv3"
  type: "Convolution"
  bottom: "pool2"
  top: "conv3"
  param {
    lr_mult: 1
    decay_mult: 1
  }
  param {
    lr_mult: 2
    decay_mult: 0
  }
  convolution_param {
    num_output: 384
    pad: 1
    kernel_size: 3
    weight_filler {
      type: "gaussian"
      std: 0.01
    }
    bias_filler {
      type: "constant"
      value: 0
    }
  }
}
layer {
  name: "relu3"
  type: "ReLU"
  bottom: "conv3"
  top: "conv3"
}
layer {
  name: "conv4"
  type: "Convolution"
  bottom: "conv3"
  top: "conv4"
  param {
    lr_mult: 1
    decay_mult: 1
  }
  param {
    lr_mult: 2
    decay_mult: 0
  }
  convolution_param {
    num_output: 384
    pad: 1
    kernel_size: 3
    group: 2
    weight_filler {
      type: "gaussian"
      std: 0.01
    }
    bias_filler {
      type: "constant"
      value: 0.1
    }
  }
}
layer {
  name: "relu4"
  type: "ReLU"
  bottom: "conv4"
  top: "conv4"
}
layer {
  name: "conv5"
  type: "Convolution"
  bottom: "conv4"
  top: "conv5"
  param {
    lr_mult: 1
    decay_mult: 1
  }
  param {
    lr_mult: 2
    decay_mult: 0
  }
  convolution_param {
    num_output: 256
    pad: 1
    kernel_size: 3
    group: 2
    weight_filler {
      type: "gaussian"
      std: 0.01
    }
    bias_filler {
      type: "constant"
      value: 0.1
    }
  }
}
layer {
  name: "relu5"
  type: "ReLU"
  bottom: "conv5"
  top: "conv5"
}
layer {
  name: "pool5"
  type: "Pooling"
  bottom: "conv5"
  top: "pool5"
  pooling_param {
    pool: MAX
    kernel_size: 3
    stride: 2
  }
}
layer {
  name: "fc6"
  type: "InnerProduct"
  bottom: "pool5"
  top: "fc6"
  param {
    lr_mult: 1
    decay_mult: 1
  }
  param {
    lr_mult: 2
    decay_mult: 0
  }
  inner_product_param {
    num_output: 4096
    weight_filler {
      type: "gaussian"
      std: 0.005
    }
    bias_filler {
      type: "constant"
      value: 0.1
    }
  }
}
layer {
  name: "relu6"
  type: "ReLU"
  bottom: "fc6"
  top: "fc6"
}
layer {
  name: "drop6"
  type: "Dropout"
  bottom: "fc6"
  top: "fc6"
  dropout_param {
    dropout_ratio: 0.5
  }
}
layer {
  name: "fc7"
  type: "InnerProduct"
  bottom: "fc6"
  top: "fc7"
  param {
    lr_mult: 1
    decay_mult: 1
  }
  param {
    lr_mult: 2
    decay_mult: 0
  }
  inner_product_param {
    num_output: 4096
    weight_filler {
      type: "gaussian"
      std: 0.005
    }
    bias_filler {
      type: "constant"
      value: 0.1
    }
  }
}
layer {
  name: "relu7"
  type: "ReLU"
  bottom: "fc7"
  top: "fc7"
}
layer {
  name: "drop7"
  type: "Dropout"
  bottom: "fc7"
  top: "fc7"
  dropout_param {
    dropout_ratio: 0.5
  }
}
layer {
  name: "fc8"
  type: "InnerProduct"
  bottom: "fc7"
  top: "fc8"
  param {
    lr_mult: 1
    decay_mult: 1
  }
  param {
    lr_mult: 2
    decay_mult: 0
  }
  inner_product_param {
    num_output: 3
    weight_filler {
      type: "gaussian"
      std: 0.01
    }
    bias_filler {
      type: "constant"
      value: 0
    }
  }
}
layer {
  name: "loss"
  type: "SoftmaxWithLoss"
  bottom: "fc8"
  bottom: "label"
  top: "loss"
}
I0822 11:25:43.089289 31776 layer_factory.hpp:77] Creating layer mnist
I0822 11:25:43.089821 31776 net.cpp:100] Creating Layer mnist
I0822 11:25:43.089834 31776 net.cpp:408] mnist -> data
I0822 11:25:43.089913 31776 net.cpp:408] mnist -> label
I0822 11:25:43.089998 31776 data_transformer.cpp:25] Loading mean file from: data/person_only_lmdb/person_vs_background_vs_random_color_mean.binaryproto
I0822 11:25:43.091389 31788 db_lmdb.cpp:35] Opened lmdb data/person_only_lmdb/person_vs_background_vs_random_train_lmdb
I0822 11:25:43.125095 31776 data_layer.cpp:41] output data size: 128,3,128,128
I0822 11:25:43.195036 31776 net.cpp:150] Setting up mnist
I0822 11:25:43.195075 31776 net.cpp:157] Top shape: 128 3 128 128 (6291456)
I0822 11:25:43.195082 31776 net.cpp:157] Top shape: 128 (128)
I0822 11:25:43.195086 31776 net.cpp:165] Memory required for data: 25166336
I0822 11:25:43.195093 31776 layer_factory.hpp:77] Creating layer conv1
I0822 11:25:43.195122 31776 net.cpp:100] Creating Layer conv1
I0822 11:25:43.195127 31776 net.cpp:434] conv1 <- data
I0822 11:25:43.195138 31776 net.cpp:408] conv1 -> conv1
I0822 11:25:43.507895 31776 net.cpp:150] Setting up conv1
I0822 11:25:43.507928 31776 net.cpp:157] Top shape: 128 96 30 30 (11059200)
I0822 11:25:43.507932 31776 net.cpp:165] Memory required for data: 69403136
I0822 11:25:43.507949 31776 layer_factory.hpp:77] Creating layer relu1
I0822 11:25:43.507964 31776 net.cpp:100] Creating Layer relu1
I0822 11:25:43.507968 31776 net.cpp:434] relu1 <- conv1
I0822 11:25:43.507975 31776 net.cpp:395] relu1 -> conv1 (in-place)
I0822 11:25:43.508174 31776 net.cpp:150] Setting up relu1
I0822 11:25:43.508186 31776 net.cpp:157] Top shape: 128 96 30 30 (11059200)
I0822 11:25:43.508189 31776 net.cpp:165] Memory required for data: 113639936
I0822 11:25:43.508193 31776 layer_factory.hpp:77] Creating layer norm1
I0822 11:25:43.508201 31776 net.cpp:100] Creating Layer norm1
I0822 11:25:43.508204 31776 net.cpp:434] norm1 <- conv1
I0822 11:25:43.508209 31776 net.cpp:408] norm1 -> norm1
I0822 11:25:43.508783 31776 net.cpp:150] Setting up norm1
I0822 11:25:43.508798 31776 net.cpp:157] Top shape: 128 96 30 30 (11059200)
I0822 11:25:43.508801 31776 net.cpp:165] Memory required for data: 157876736
I0822 11:25:43.508805 31776 layer_factory.hpp:77] Creating layer pool1
I0822 11:25:43.508813 31776 net.cpp:100] Creating Layer pool1
I0822 11:25:43.508817 31776 net.cpp:434] pool1 <- norm1
I0822 11:25:43.508822 31776 net.cpp:408] pool1 -> pool1
I0822 11:25:43.508884 31776 net.cpp:150] Setting up pool1
I0822 11:25:43.508893 31776 net.cpp:157] Top shape: 128 96 15 15 (2764800)
I0822 11:25:43.508898 31776 net.cpp:165] Memory required for data: 168935936
I0822 11:25:43.508900 31776 layer_factory.hpp:77] Creating layer conv2
I0822 11:25:43.508913 31776 net.cpp:100] Creating Layer conv2
I0822 11:25:43.508919 31776 net.cpp:434] conv2 <- pool1
I0822 11:25:43.508924 31776 net.cpp:408] conv2 -> conv2
I0822 11:25:43.515630 31776 net.cpp:150] Setting up conv2
I0822 11:25:43.515650 31776 net.cpp:157] Top shape: 128 256 15 15 (7372800)
I0822 11:25:43.515653 31776 net.cpp:165] Memory required for data: 198427136
I0822 11:25:43.515663 31776 layer_factory.hpp:77] Creating layer relu2
I0822 11:25:43.515669 31776 net.cpp:100] Creating Layer relu2
I0822 11:25:43.515672 31776 net.cpp:434] relu2 <- conv2
I0822 11:25:43.515677 31776 net.cpp:395] relu2 -> conv2 (in-place)
I0822 11:25:43.516224 31776 net.cpp:150] Setting up relu2
I0822 11:25:43.516240 31776 net.cpp:157] Top shape: 128 256 15 15 (7372800)
I0822 11:25:43.516243 31776 net.cpp:165] Memory required for data: 227918336
I0822 11:25:43.516247 31776 layer_factory.hpp:77] Creating layer norm2
I0822 11:25:43.516253 31776 net.cpp:100] Creating Layer norm2
I0822 11:25:43.516257 31776 net.cpp:434] norm2 <- conv2
I0822 11:25:43.516263 31776 net.cpp:408] norm2 -> norm2
I0822 11:25:43.516492 31776 net.cpp:150] Setting up norm2
I0822 11:25:43.516505 31776 net.cpp:157] Top shape: 128 256 15 15 (7372800)
I0822 11:25:43.516507 31776 net.cpp:165] Memory required for data: 257409536
I0822 11:25:43.516510 31776 layer_factory.hpp:77] Creating layer pool2
I0822 11:25:43.516518 31776 net.cpp:100] Creating Layer pool2
I0822 11:25:43.516521 31776 net.cpp:434] pool2 <- norm2
I0822 11:25:43.516526 31776 net.cpp:408] pool2 -> pool2
I0822 11:25:43.516582 31776 net.cpp:150] Setting up pool2
I0822 11:25:43.516589 31776 net.cpp:157] Top shape: 128 256 7 7 (1605632)
I0822 11:25:43.516592 31776 net.cpp:165] Memory required for data: 263832064
I0822 11:25:43.516595 31776 layer_factory.hpp:77] Creating layer conv3
I0822 11:25:43.516604 31776 net.cpp:100] Creating Layer conv3
I0822 11:25:43.516607 31776 net.cpp:434] conv3 <- pool2
I0822 11:25:43.516613 31776 net.cpp:408] conv3 -> conv3
I0822 11:25:43.530642 31776 net.cpp:150] Setting up conv3
I0822 11:25:43.530658 31776 net.cpp:157] Top shape: 128 384 7 7 (2408448)
I0822 11:25:43.530661 31776 net.cpp:165] Memory required for data: 273465856
I0822 11:25:43.530670 31776 layer_factory.hpp:77] Creating layer relu3
I0822 11:25:43.530676 31776 net.cpp:100] Creating Layer relu3
I0822 11:25:43.530680 31776 net.cpp:434] relu3 <- conv3
I0822 11:25:43.530688 31776 net.cpp:395] relu3 -> conv3 (in-place)
I0822 11:25:43.530891 31776 net.cpp:150] Setting up relu3
I0822 11:25:43.530903 31776 net.cpp:157] Top shape: 128 384 7 7 (2408448)
I0822 11:25:43.530905 31776 net.cpp:165] Memory required for data: 283099648
I0822 11:25:43.530908 31776 layer_factory.hpp:77] Creating layer conv4
I0822 11:25:43.530922 31776 net.cpp:100] Creating Layer conv4
I0822 11:25:43.530927 31776 net.cpp:434] conv4 <- conv3
I0822 11:25:43.530935 31776 net.cpp:408] conv4 -> conv4
I0822 11:25:43.542940 31776 net.cpp:150] Setting up conv4
I0822 11:25:43.542956 31776 net.cpp:157] Top shape: 128 384 7 7 (2408448)
I0822 11:25:43.542959 31776 net.cpp:165] Memory required for data: 292733440
I0822 11:25:43.542966 31776 layer_factory.hpp:77] Creating layer relu4
I0822 11:25:43.542973 31776 net.cpp:100] Creating Layer relu4
I0822 11:25:43.542975 31776 net.cpp:434] relu4 <- conv4
I0822 11:25:43.542982 31776 net.cpp:395] relu4 -> conv4 (in-place)
I0822 11:25:43.543192 31776 net.cpp:150] Setting up relu4
I0822 11:25:43.543205 31776 net.cpp:157] Top shape: 128 384 7 7 (2408448)
I0822 11:25:43.543206 31776 net.cpp:165] Memory required for data: 302367232
I0822 11:25:43.543210 31776 layer_factory.hpp:77] Creating layer conv5
I0822 11:25:43.543221 31776 net.cpp:100] Creating Layer conv5
I0822 11:25:43.543225 31776 net.cpp:434] conv5 <- conv4
I0822 11:25:43.543233 31776 net.cpp:408] conv5 -> conv5
I0822 11:25:43.552472 31776 net.cpp:150] Setting up conv5
I0822 11:25:43.552490 31776 net.cpp:157] Top shape: 128 256 7 7 (1605632)
I0822 11:25:43.552495 31776 net.cpp:165] Memory required for data: 308789760
I0822 11:25:43.552503 31776 layer_factory.hpp:77] Creating layer relu5
I0822 11:25:43.552510 31776 net.cpp:100] Creating Layer relu5
I0822 11:25:43.552513 31776 net.cpp:434] relu5 <- conv5
I0822 11:25:43.552520 31776 net.cpp:395] relu5 -> conv5 (in-place)
I0822 11:25:43.552732 31776 net.cpp:150] Setting up relu5
I0822 11:25:43.552744 31776 net.cpp:157] Top shape: 128 256 7 7 (1605632)
I0822 11:25:43.552747 31776 net.cpp:165] Memory required for data: 315212288
I0822 11:25:43.552749 31776 layer_factory.hpp:77] Creating layer pool5
I0822 11:25:43.552757 31776 net.cpp:100] Creating Layer pool5
I0822 11:25:43.552762 31776 net.cpp:434] pool5 <- conv5
I0822 11:25:43.552767 31776 net.cpp:408] pool5 -> pool5
I0822 11:25:43.552839 31776 net.cpp:150] Setting up pool5
I0822 11:25:43.552847 31776 net.cpp:157] Top shape: 128 256 3 3 (294912)
I0822 11:25:43.552850 31776 net.cpp:165] Memory required for data: 316391936
I0822 11:25:43.552853 31776 layer_factory.hpp:77] Creating layer fc6
I0822 11:25:43.552865 31776 net.cpp:100] Creating Layer fc6
I0822 11:25:43.552870 31776 net.cpp:434] fc6 <- pool5
I0822 11:25:43.552876 31776 net.cpp:408] fc6 -> fc6
I0822 11:25:43.686503 31776 net.cpp:150] Setting up fc6
I0822 11:25:43.686543 31776 net.cpp:157] Top shape: 128 4096 (524288)
I0822 11:25:43.686547 31776 net.cpp:165] Memory required for data: 318489088
I0822 11:25:43.686561 31776 layer_factory.hpp:77] Creating layer relu6
I0822 11:25:43.686574 31776 net.cpp:100] Creating Layer relu6
I0822 11:25:43.686579 31776 net.cpp:434] relu6 <- fc6
I0822 11:25:43.686589 31776 net.cpp:395] relu6 -> fc6 (in-place)
I0822 11:25:43.687253 31776 net.cpp:150] Setting up relu6
I0822 11:25:43.687268 31776 net.cpp:157] Top shape: 128 4096 (524288)
I0822 11:25:43.687271 31776 net.cpp:165] Memory required for data: 320586240
I0822 11:25:43.687274 31776 layer_factory.hpp:77] Creating layer drop6
I0822 11:25:43.687285 31776 net.cpp:100] Creating Layer drop6
I0822 11:25:43.687288 31776 net.cpp:434] drop6 <- fc6
I0822 11:25:43.687294 31776 net.cpp:395] drop6 -> fc6 (in-place)
I0822 11:25:43.687332 31776 net.cpp:150] Setting up drop6
I0822 11:25:43.687341 31776 net.cpp:157] Top shape: 128 4096 (524288)
I0822 11:25:43.687343 31776 net.cpp:165] Memory required for data: 322683392
I0822 11:25:43.687346 31776 layer_factory.hpp:77] Creating layer fc7
I0822 11:25:43.687356 31776 net.cpp:100] Creating Layer fc7
I0822 11:25:43.687360 31776 net.cpp:434] fc7 <- fc6
I0822 11:25:43.687366 31776 net.cpp:408] fc7 -> fc7
I0822 11:25:43.921448 31776 net.cpp:150] Setting up fc7
I0822 11:25:43.921495 31776 net.cpp:157] Top shape: 128 4096 (524288)
I0822 11:25:43.921499 31776 net.cpp:165] Memory required for data: 324780544
I0822 11:25:43.921512 31776 layer_factory.hpp:77] Creating layer relu7
I0822 11:25:43.921527 31776 net.cpp:100] Creating Layer relu7
I0822 11:25:43.921531 31776 net.cpp:434] relu7 <- fc7
I0822 11:25:43.921540 31776 net.cpp:395] relu7 -> fc7 (in-place)
I0822 11:25:43.921833 31776 net.cpp:150] Setting up relu7
I0822 11:25:43.921844 31776 net.cpp:157] Top shape: 128 4096 (524288)
I0822 11:25:43.921846 31776 net.cpp:165] Memory required for data: 326877696
I0822 11:25:43.921849 31776 layer_factory.hpp:77] Creating layer drop7
I0822 11:25:43.921857 31776 net.cpp:100] Creating Layer drop7
I0822 11:25:43.921860 31776 net.cpp:434] drop7 <- fc7
I0822 11:25:43.921867 31776 net.cpp:395] drop7 -> fc7 (in-place)
I0822 11:25:43.921902 31776 net.cpp:150] Setting up drop7
I0822 11:25:43.921911 31776 net.cpp:157] Top shape: 128 4096 (524288)
I0822 11:25:43.921913 31776 net.cpp:165] Memory required for data: 328974848
I0822 11:25:43.921916 31776 layer_factory.hpp:77] Creating layer fc8
I0822 11:25:43.921926 31776 net.cpp:100] Creating Layer fc8
I0822 11:25:43.921928 31776 net.cpp:434] fc8 <- fc7
I0822 11:25:43.921934 31776 net.cpp:408] fc8 -> fc8
I0822 11:25:43.923923 31776 net.cpp:150] Setting up fc8
I0822 11:25:43.923938 31776 net.cpp:157] Top shape: 128 3 (384)
I0822 11:25:43.923941 31776 net.cpp:165] Memory required for data: 328976384
I0822 11:25:43.923949 31776 layer_factory.hpp:77] Creating layer loss
I0822 11:25:43.923956 31776 net.cpp:100] Creating Layer loss
I0822 11:25:43.923960 31776 net.cpp:434] loss <- fc8
I0822 11:25:43.923964 31776 net.cpp:434] loss <- label
I0822 11:25:43.923969 31776 net.cpp:408] loss -> loss
I0822 11:25:43.923979 31776 layer_factory.hpp:77] Creating layer loss
…
I0822 11:25:43.924890 31776 net.cpp:322] The NetState phase (1) differed from the phase (0) specified by a rule in layer mnist
I0822 11:25:43.925060 31776 net.cpp:58] Initializing net from parameters: 
name: "AlexNet"
state {
  phase: TEST
}
layer {
  name: "mnist"
  type: "Data"
  top: "data"
  top: "label"
  include {
    phase: TEST
  }
  transform_param {
    scale: 0.00390625
    mean_file: "data/person_only_lmdb/person_vs_background_vs_random_color_mean.binaryproto"
  }
  data_param {
    source: "data/person_only_lmdb/person_vs_background_vs_random_test_lmdb"
    batch_size: 100
    backend: LMDB
  }
}
layer {
  name: "conv1"
  type: "Convolution"
  bottom: "data"
  top: "conv1"
  param {
    lr_mult: 1
    decay_mult: 1
  }
  param {
    lr_mult: 2
    decay_mult: 0
  }
  convolution_param {
    num_output: 96
    kernel_size: 11
    stride: 4
    weight_filler {
      type: "gaussian"
      std: 0.01
    }
    bias_filler {
      type: "constant"
      value: 0
    }
  }
}
layer {
  name: "relu1"
  type: "ReLU"
  bottom: "conv1"
  top: "conv1"
}
layer {
  name: "norm1"
  type: "LRN"
  bottom: "conv1"
  top: "norm1"
  lrn_param {
    local_size: 5
    alpha: 0.0001
    beta: 0.75
  }
}
layer {
  name: "pool1"
  type: "Pooling"
  bottom: "norm1"
  top: "pool1"
  pooling_param {
    pool: MAX
    kernel_size: 3
    stride: 2
  }
}
layer {
  name: "conv2"
  type: "Convolution"
  bottom: "pool1"
  top: "conv2"
  param {
    lr_mult: 1
    decay_mult: 1
  }
  param {
    lr_mult: 2
    decay_mult: 0
  }
  convolution_param {
    num_output: 256
    pad: 2
    kernel_size: 5
    group: 2
    weight_filler {
      type: "gaussian"
      std: 0.01
    }
    bias_filler {
      type: "constant"
      value: 0.1
    }
  }
}
layer {
  name: "relu2"
  type: "ReLU"
  bottom: "conv2"
  top: "conv2"
}
layer {
  name: "norm2"
  type: "LRN"
  bottom: "conv2"
  top: "norm2"
  lrn_param {
    local_size: 5
    alpha: 0.0001
    beta: 0.75
  }
}
layer {
  name: "pool2"
  type: "Pooling"
  bottom: "norm2"
  top: "pool2"
  pooling_param {
    pool: MAX
    kernel_size: 3
    stride: 2
  }
}
layer {
  name: "conv3"
  type: "Convolution"
  bottom: "pool2"
  top: "conv3"
  param {
    lr_mult: 1
    decay_mult: 1
  }
  param {
    lr_mult: 2
    decay_mult: 0
  }
  convolution_param {
    num_output: 384
    pad: 1
    kernel_size: 3
    weight_filler {
      type: "gaussian"
      std: 0.01
    }
    bias_filler {
      type: "constant"
      value: 0
    }
  }
}
layer {
  name: "relu3"
  type: "ReLU"
  bottom: "conv3"
  top: "conv3"
}
layer {
  name: "conv4"
  type: "Convolution"
  bottom: "conv3"
  top: "conv4"
  param {
    lr_mult: 1
    decay_mult: 1
  }
  param {
    lr_mult: 2
    decay_mult: 0
  }
  convolution_param {
    num_output: 384
    pad: 1
    kernel_size: 3
    group: 2
    weight_filler {
      type: "gaussian"
      std: 0.01
    }
    bias_filler {
      type: "constant"
      value: 0.1
    }
  }
}
layer {
  name: "relu4"
  type: "ReLU"
  bottom: "conv4"
  top: "conv4"
}
layer {
  name: "conv5"
  type: "Convolution"
  bottom: "conv4"
  top: "conv5"
  param {
    lr_mult: 1
    decay_mult: 1
  }
  param {
    lr_mult: 2
    decay_mult: 0
  }
  convolution_param {
    num_output: 256
    pad: 1
    kernel_size: 3
    group: 2
    weight_filler {
      type: "gaussian"
      std: 0.01
    }
    bias_filler {
      type: "constant"
      value: 0.1
    }
  }
}
layer {
  name: "relu5"
  type: "ReLU"
  bottom: "conv5"
  top: "conv5"
}
layer {
  name: "pool5"
  type: "Pooling"
  bottom: "conv5"
  top: "pool5"
  pooling_param {
    pool: MAX
    kernel_size: 3
    stride: 2
  }
}
layer {
  name: "fc6"
  type: "InnerProduct"
  bottom: "pool5"
  top: "fc6"
  param {
    lr_mult: 1
    decay_mult: 1
  }
  param {
    lr_mult: 2
    decay_mult: 0
  }
  inner_product_param {
    num_output: 4096
    weight_filler {
      type: "gaussian"
      std: 0.005
    }
    bias_filler {
      type: "constant"
      value: 0.1
    }
  }
}
layer {
  name: "relu6"
  type: "ReLU"
  bottom: "fc6"
  top: "fc6"
}
layer {
  name: "drop6"
  type: "Dropout"
  bottom: "fc6"
  top: "fc6"
  dropout_param {
    dropout_ratio: 0.5
  }
}
layer {
  name: "fc7"
  type: "InnerProduct"
  bottom: "fc6"
  top: "fc7"
  param {
    lr_mult: 1
    decay_mult: 1
  }
  param {
    lr_mult: 2
    decay_mult: 0
  }
  inner_product_param {
    num_output: 4096
    weight_filler {
      type: "gaussian"
      std: 0.005
    }
    bias_filler {
      type: "constant"
      value: 0.1
    }
  }
}
layer {
  name: "relu7"
  type: "ReLU"
  bottom: "fc7"
  top: "fc7"
}
layer {
  name: "drop7"
  type: "Dropout"
  bottom: "fc7"
  top: "fc7"
  dropout_param {
    dropout_ratio: 0.5
  }
}
layer {
  name: "fc8"
  type: "InnerProduct"
  bottom: "fc7"
  top: "fc8"
  param {
    lr_mult: 1
    decay_mult: 1
  }
  param {
    lr_mult: 2
    decay_mult: 0
  }
  inner_product_param {
    num_output: 3
    weight_filler {
      type: "gaussian"
      std: 0.01
    }
    bias_filler {
      type: "constant"
      value: 0
    }
  }
}
layer {
  name: "accuracy"
  type: "Accuracy"
  bottom: "fc8"
  bottom: "label"
  top: "accuracy"
  include {
    phase: TEST
  }
}
layer {
  name: "loss"
  type: "SoftmaxWithLoss"
  bottom: "fc8"
  bottom: "label"
  top: "loss"
}
I0822 11:25:43.925178 31776 layer_factory.hpp:77] Creating layer mnist
I0822 11:25:43.925307 31776 net.cpp:100] Creating Layer mnist
I0822 11:25:43.925319 31776 net.cpp:408] mnist -> data
I0822 11:25:43.925328 31776 net.cpp:408] mnist -> label
I0822 11:25:43.925335 31776 data_transformer.cpp:25] Loading mean file from: data/person_only_lmdb/person_vs_background_vs_random_color_mean.binaryproto
I0822 11:25:43.926892 31790 db_lmdb.cpp:35] Opened lmdb data/person_only_lmdb/person_vs_background_vs_random_test_lmdb
I0822 11:25:43.927315 31776 data_layer.cpp:41] output data size: 100,3,128,128
I0822 11:25:43.988214 31776 net.cpp:150] Setting up mnist
I0822 11:25:43.988253 31776 net.cpp:157] Top shape: 100 3 128 128 (4915200)
I0822 11:25:43.988261 31776 net.cpp:157] Top shape: 100 (100)
I0822 11:25:43.988265 31776 net.cpp:165] Memory required for data: 19661200
I0822 11:25:43.988275 31776 layer_factory.hpp:77] Creating layer label_mnist_1_split
I0822 11:25:43.988293 31776 net.cpp:100] Creating Layer label_mnist_1_split
I0822 11:25:43.988299 31776 net.cpp:434] label_mnist_1_split <- label
I0822 11:25:43.988311 31776 net.cpp:408] label_mnist_1_split -> label_mnist_1_split_0
I0822 11:25:43.988327 31776 net.cpp:408] label_mnist_1_split -> label_mnist_1_split_1
I0822 11:25:43.988631 31776 net.cpp:150] Setting up label_mnist_1_split
I0822 11:25:43.988662 31776 net.cpp:157] Top shape: 100 (100)
I0822 11:25:43.988669 31776 net.cpp:157] Top shape: 100 (100)
I0822 11:25:43.988674 31776 net.cpp:165] Memory required for data: 19662000
I0822 11:25:43.988680 31776 layer_factory.hpp:77] Creating layer conv1
I0822 11:25:43.988706 31776 net.cpp:100] Creating Layer conv1
I0822 11:25:43.988714 31776 net.cpp:434] conv1 <- data
I0822 11:25:43.988734 31776 net.cpp:408] conv1 -> conv1
I0822 11:25:43.994019 31776 net.cpp:150] Setting up conv1
I0822 11:25:43.994053 31776 net.cpp:157] Top shape: 100 96 30 30 (8640000)
I0822 11:25:43.994060 31776 net.cpp:165] Memory required for data: 54222000
I0822 11:25:43.994081 31776 layer_factory.hpp:77] Creating layer relu1
I0822 11:25:43.994097 31776 net.cpp:100] Creating Layer relu1
I0822 11:25:43.994105 31776 net.cpp:434] relu1 <- conv1
I0822 11:25:43.994115 31776 net.cpp:395] relu1 -> conv1 (in-place)
I0822 11:25:43.994494 31776 net.cpp:150] Setting up relu1
I0822 11:25:43.994513 31776 net.cpp:157] Top shape: 100 96 30 30 (8640000)
I0822 11:25:43.994518 31776 net.cpp:165] Memory required for data: 88782000
I0822 11:25:43.994524 31776 layer_factory.hpp:77] Creating layer norm1
I0822 11:25:43.994541 31776 net.cpp:100] Creating Layer norm1
I0822 11:25:43.994547 31776 net.cpp:434] norm1 <- conv1
I0822 11:25:43.994559 31776 net.cpp:408] norm1 -> norm1
I0822 11:25:43.995723 31776 net.cpp:150] Setting up norm1
I0822 11:25:43.995751 31776 net.cpp:157] Top shape: 100 96 30 30 (8640000)
I0822 11:25:43.995759 31776 net.cpp:165] Memory required for data: 123342000
I0822 11:25:43.995764 31776 layer_factory.hpp:77] Creating layer pool1
I0822 11:25:43.995779 31776 net.cpp:100] Creating Layer pool1
I0822 11:25:43.995784 31776 net.cpp:434] pool1 <- norm1
I0822 11:25:43.995796 31776 net.cpp:408] pool1 -> pool1
I0822 11:25:43.995924 31776 net.cpp:150] Setting up pool1
I0822 11:25:43.995939 31776 net.cpp:157] Top shape: 100 96 15 15 (2160000)
I0822 11:25:43.995944 31776 net.cpp:165] Memory required for data: 131982000
I0822 11:25:43.995949 31776 layer_factory.hpp:77] Creating layer conv2
I0822 11:25:43.995970 31776 net.cpp:100] Creating Layer conv2
I0822 11:25:43.995978 31776 net.cpp:434] conv2 <- pool1
I0822 11:25:43.995991 31776 net.cpp:408] conv2 -> conv2
I0822 11:25:44.009045 31776 net.cpp:150] Setting up conv2
I0822 11:25:44.009080 31776 net.cpp:157] Top shape: 100 256 15 15 (5760000)
I0822 11:25:44.009088 31776 net.cpp:165] Memory required for data: 155022000
I0822 11:25:44.009106 31776 layer_factory.hpp:77] Creating layer relu2
I0822 11:25:44.009121 31776 net.cpp:100] Creating Layer relu2
I0822 11:25:44.009129 31776 net.cpp:434] relu2 <- conv2
I0822 11:25:44.009138 31776 net.cpp:395] relu2 -> conv2 (in-place)
I0822 11:25:44.010169 31776 net.cpp:150] Setting up relu2
I0822 11:25:44.010195 31776 net.cpp:157] Top shape: 100 256 15 15 (5760000)
I0822 11:25:44.010200 31776 net.cpp:165] Memory required for data: 178062000
I0822 11:25:44.010205 31776 layer_factory.hpp:77] Creating layer norm2
I0822 11:25:44.010226 31776 net.cpp:100] Creating Layer norm2
I0822 11:25:44.010231 31776 net.cpp:434] norm2 <- conv2
I0822 11:25:44.010242 31776 net.cpp:408] norm2 -> norm2
I0822 11:25:44.010730 31776 net.cpp:150] Setting up norm2
I0822 11:25:44.010751 31776 net.cpp:157] Top shape: 100 256 15 15 (5760000)
I0822 11:25:44.010761 31776 net.cpp:165] Memory required for data: 201102000
I0822 11:25:44.010766 31776 layer_factory.hpp:77] Creating layer pool2
I0822 11:25:44.010782 31776 net.cpp:100] Creating Layer pool2
I0822 11:25:44.010787 31776 net.cpp:434] pool2 <- norm2
I0822 11:25:44.010797 31776 net.cpp:408] pool2 -> pool2
I0822 11:25:44.010911 31776 net.cpp:150] Setting up pool2
I0822 11:25:44.010926 31776 net.cpp:157] Top shape: 100 256 7 7 (1254400)
I0822 11:25:44.010931 31776 net.cpp:165] Memory required for data: 206119600
I0822 11:25:44.010936 31776 layer_factory.hpp:77] Creating layer conv3
I0822 11:25:44.010959 31776 net.cpp:100] Creating Layer conv3
I0822 11:25:44.010967 31776 net.cpp:434] conv3 <- pool2
I0822 11:25:44.010978 31776 net.cpp:408] conv3 -> conv3
I0822 11:25:44.034536 31776 net.cpp:150] Setting up conv3
I0822 11:25:44.034580 31776 net.cpp:157] Top shape: 100 384 7 7 (1881600)
I0822 11:25:44.034585 31776 net.cpp:165] Memory required for data: 213646000
I0822 11:25:44.034610 31776 layer_factory.hpp:77] Creating layer relu3
I0822 11:25:44.034636 31776 net.cpp:100] Creating Layer relu3
I0822 11:25:44.034644 31776 net.cpp:434] relu3 <- conv3
I0822 11:25:44.034656 31776 net.cpp:395] relu3 -> conv3 (in-place)
I0822 11:25:44.035007 31776 net.cpp:150] Setting up relu3
I0822 11:25:44.035028 31776 net.cpp:157] Top shape: 100 384 7 7 (1881600)
I0822 11:25:44.035032 31776 net.cpp:165] Memory required for data: 221172400
I0822 11:25:44.035037 31776 layer_factory.hpp:77] Creating layer conv4
I0822 11:25:44.035059 31776 net.cpp:100] Creating Layer conv4
I0822 11:25:44.035065 31776 net.cpp:434] conv4 <- conv3
I0822 11:25:44.035079 31776 net.cpp:408] conv4 -> conv4
I0822 11:25:44.053159 31776 net.cpp:150] Setting up conv4
I0822 11:25:44.053200 31776 net.cpp:157] Top shape: 100 384 7 7 (1881600)
I0822 11:25:44.053205 31776 net.cpp:165] Memory required for data: 228698800
I0822 11:25:44.053225 31776 layer_factory.hpp:77] Creating layer relu4
I0822 11:25:44.053241 31776 net.cpp:100] Creating Layer relu4
I0822 11:25:44.053248 31776 net.cpp:434] relu4 <- conv4
I0822 11:25:44.053258 31776 net.cpp:395] relu4 -> conv4 (in-place)
I0822 11:25:44.054116 31776 net.cpp:150] Setting up relu4
I0822 11:25:44.054136 31776 net.cpp:157] Top shape: 100 384 7 7 (1881600)
I0822 11:25:44.054141 31776 net.cpp:165] Memory required for data: 236225200
I0822 11:25:44.054147 31776 layer_factory.hpp:77] Creating layer conv5
I0822 11:25:44.054167 31776 net.cpp:100] Creating Layer conv5
I0822 11:25:44.054173 31776 net.cpp:434] conv5 <- conv4
I0822 11:25:44.054186 31776 net.cpp:408] conv5 -> conv5
I0822 11:25:44.067008 31776 net.cpp:150] Setting up conv5
I0822 11:25:44.067031 31776 net.cpp:157] Top shape: 100 256 7 7 (1254400)
I0822 11:25:44.067035 31776 net.cpp:165] Memory required for data: 241242800
I0822 11:25:44.067052 31776 layer_factory.hpp:77] Creating layer relu5
I0822 11:25:44.067065 31776 net.cpp:100] Creating Layer relu5
I0822 11:25:44.067070 31776 net.cpp:434] relu5 <- conv5
I0822 11:25:44.067076 31776 net.cpp:395] relu5 -> conv5 (in-place)
I0822 11:25:44.067363 31776 net.cpp:150] Setting up relu5
I0822 11:25:44.067378 31776 net.cpp:157] Top shape: 100 256 7 7 (1254400)
I0822 11:25:44.067381 31776 net.cpp:165] Memory required for data: 246260400
I0822 11:25:44.067385 31776 layer_factory.hpp:77] Creating layer pool5
I0822 11:25:44.067401 31776 net.cpp:100] Creating Layer pool5
I0822 11:25:44.067406 31776 net.cpp:434] pool5 <- conv5
I0822 11:25:44.067414 31776 net.cpp:408] pool5 -> pool5
I0822 11:25:44.067530 31776 net.cpp:150] Setting up pool5
I0822 11:25:44.067541 31776 net.cpp:157] Top shape: 100 256 3 3 (230400)
I0822 11:25:44.067545 31776 net.cpp:165] Memory required for data: 247182000
I0822 11:25:44.067548 31776 layer_factory.hpp:77] Creating layer fc6
I0822 11:25:44.067564 31776 net.cpp:100] Creating Layer fc6
I0822 11:25:44.067569 31776 net.cpp:434] fc6 <- pool5
I0822 11:25:44.067576 31776 net.cpp:408] fc6 -> fc6
I0822 11:25:44.207679 31776 net.cpp:150] Setting up fc6
I0822 11:25:44.207722 31776 net.cpp:157] Top shape: 100 4096 (409600)
I0822 11:25:44.207726 31776 net.cpp:165] Memory required for data: 248820400
I0822 11:25:44.207738 31776 layer_factory.hpp:77] Creating layer relu6
I0822 11:25:44.207752 31776 net.cpp:100] Creating Layer relu6
I0822 11:25:44.207757 31776 net.cpp:434] relu6 <- fc6
I0822 11:25:44.207765 31776 net.cpp:395] relu6 -> fc6 (in-place)
I0822 11:25:44.208063 31776 net.cpp:150] Setting up relu6
I0822 11:25:44.208075 31776 net.cpp:157] Top shape: 100 4096 (409600)
I0822 11:25:44.208076 31776 net.cpp:165] Memory required for data: 250458800
I0822 11:25:44.208079 31776 layer_factory.hpp:77] Creating layer drop6
I0822 11:25:44.208087 31776 net.cpp:100] Creating Layer drop6
I0822 11:25:44.208091 31776 net.cpp:434] drop6 <- fc6
I0822 11:25:44.208099 31776 net.cpp:395] drop6 -> fc6 (in-place)
I0822 11:25:44.208159 31776 net.cpp:150] Setting up drop6
I0822 11:25:44.208168 31776 net.cpp:157] Top shape: 100 4096 (409600)
I0822 11:25:44.208170 31776 net.cpp:165] Memory required for data: 252097200
I0822 11:25:44.208173 31776 layer_factory.hpp:77] Creating layer fc7
I0822 11:25:44.208184 31776 net.cpp:100] Creating Layer fc7
I0822 11:25:44.208187 31776 net.cpp:434] fc7 <- fc6
I0822 11:25:44.208194 31776 net.cpp:408] fc7 -> fc7
I0822 11:25:44.442317 31776 net.cpp:150] Setting up fc7
I0822 11:25:44.442365 31776 net.cpp:157] Top shape: 100 4096 (409600)
I0822 11:25:44.442369 31776 net.cpp:165] Memory required for data: 253735600
I0822 11:25:44.442381 31776 layer_factory.hpp:77] Creating layer relu7
I0822 11:25:44.442396 31776 net.cpp:100] Creating Layer relu7
I0822 11:25:44.442402 31776 net.cpp:434] relu7 <- fc7
I0822 11:25:44.442410 31776 net.cpp:395] relu7 -> fc7 (in-place)
I0822 11:25:44.443271 31776 net.cpp:150] Setting up relu7
I0822 11:25:44.443289 31776 net.cpp:157] Top shape: 100 4096 (409600)
I0822 11:25:44.443292 31776 net.cpp:165] Memory required for data: 255374000
I0822 11:25:44.443295 31776 layer_factory.hpp:77] Creating layer drop7
I0822 11:25:44.443305 31776 net.cpp:100] Creating Layer drop7
I0822 11:25:44.443308 31776 net.cpp:434] drop7 <- fc7
I0822 11:25:44.443315 31776 net.cpp:395] drop7 -> fc7 (in-place)
I0822 11:25:44.443373 31776 net.cpp:150] Setting up drop7
I0822 11:25:44.443382 31776 net.cpp:157] Top shape: 100 4096 (409600)
I0822 11:25:44.443385 31776 net.cpp:165] Memory required for data: 257012400
I0822 11:25:44.443388 31776 layer_factory.hpp:77] Creating layer fc8
I0822 11:25:44.443400 31776 net.cpp:100] Creating Layer fc8
I0822 11:25:44.443403 31776 net.cpp:434] fc8 <- fc7
I0822 11:25:44.443408 31776 net.cpp:408] fc8 -> fc8
I0822 11:25:44.443779 31776 net.cpp:150] Setting up fc8
I0822 11:25:44.443789 31776 net.cpp:157] Top shape: 100 3 (300)
I0822 11:25:44.443792 31776 net.cpp:165] Memory required for data: 257013600
I0822 11:25:44.443799 31776 layer_factory.hpp:77] Creating layer fc8_fc8_0_split
I0822 11:25:44.443806 31776 net.cpp:100] Creating Layer fc8_fc8_0_split
I0822 11:25:44.443809 31776 net.cpp:434] fc8_fc8_0_split <- fc8
I0822 11:25:44.443814 31776 net.cpp:408] fc8_fc8_0_split -> fc8_fc8_0_split_0
I0822 11:25:44.443821 31776 net.cpp:408] fc8_fc8_0_split -> fc8_fc8_0_split_1
I0822 11:25:44.443891 31776 net.cpp:150] Setting up fc8_fc8_0_split
I0822 11:25:44.443898 31776 net.cpp:157] Top shape: 100 3 (300)
I0822 11:25:44.443902 31776 net.cpp:157] Top shape: 100 3 (300)
I0822 11:25:44.443904 31776 net.cpp:165] Memory required for data: 257016000
I0822 11:25:44.443907 31776 layer_factory.hpp:77] Creating layer accuracy
I0822 11:25:44.443917 31776 net.cpp:100] Creating Layer accuracy
I0822 11:25:44.443920 31776 net.cpp:434] accuracy <- fc8_fc8_0_split_0
I0822 11:25:44.443924 31776 net.cpp:434] accuracy <- label_mnist_1_split_0
I0822 11:25:44.443929 31776 net.cpp:408] accuracy -> accuracy
…
