…
I0823 10:42:08.447263 28265 net.cpp:322] The NetState phase (0) differed from the phase (1) specified by a rule in layer accuracy
I0823 10:42:08.447403 28265 net.cpp:58] Initializing net from parameters: 
name: "AlexNet"
state {
  phase: TRAIN
}
layer {
  name: "mnist"
  type: "Data"
  top: "data"
  top: "label"
  include {
    phase: TRAIN
  }
  transform_param {
    scale: 0.00390625
    mean_file: "data/person_only_lmdb/person_vs_background_vs_random_color_mean.binaryproto"
  }
  data_param {
    source: "data/person_only_lmdb/person_vs_background_vs_random_train_lmdb"
    batch_size: 128
    backend: LMDB
  }
}
layer {
  name: "conv1"
  type: "Convolution"
  bottom: "data"
  top: "conv1"
  param {
    lr_mult: 1
    decay_mult: 1
  }
  param {
    lr_mult: 2
    decay_mult: 0
  }
  convolution_param {
    num_output: 96
    kernel_size: 11
    stride: 4
    weight_filler {
      type: "gaussian"
      std: 0.01
    }
    bias_filler {
      type: "constant"
      value: 0
    }
  }
}
layer {
  name: "relu1"
  type: "ReLU"
  bottom: "conv1"
  top: "conv1"
}
layer {
  name: "norm1"
  type: "LRN"
  bottom: "conv1"
  top: "norm1"
  lrn_param {
    local_size: 5
    alpha: 0.0001
    beta: 0.75
  }
}
layer {
  name: "pool1"
  type: "Pooling"
  bottom: "norm1"
  top: "pool1"
  pooling_param {
    pool: MAX
    kernel_size: 3
    stride: 2
  }
}
layer {
  name: "conv2"
  type: "Convolution"
  bottom: "pool1"
  top: "conv2"
  param {
    lr_mult: 1
    decay_mult: 1
  }
  param {
    lr_mult: 2
    decay_mult: 0
  }
  convolution_param {
    num_output: 256
    pad: 2
    kernel_size: 5
    group: 2
    weight_filler {
      type: "gaussian"
      std: 0.01
    }
    bias_filler {
      type: "constant"
      value: 0.1
    }
  }
}
layer {
  name: "relu2"
  type: "ReLU"
  bottom: "conv2"
  top: "conv2"
}
layer {
  name: "norm2"
  type: "LRN"
  bottom: "conv2"
  top: "norm2"
  lrn_param {
    local_size: 5
    alpha: 0.0001
    beta: 0.75
  }
}
layer {
  name: "pool2"
  type: "Pooling"
  bottom: "norm2"
  top: "pool2"
  pooling_param {
    pool: MAX
    kernel_size: 3
    stride: 2
  }
}
layer {
  name: "conv3"
  type: "Convolution"
  bottom: "pool2"
  top: "conv3"
  param {
    lr_mult: 1
    decay_mult: 1
  }
  param {
    lr_mult: 2
    decay_mult: 0
  }
  convolution_param {
    num_output: 384
    pad: 1
    kernel_size: 3
    weight_filler {
      type: "gaussian"
      std: 0.01
    }
    bias_filler {
      type: "constant"
      value: 0
    }
  }
}
layer {
  name: "relu3"
  type: "ReLU"
  bottom: "conv3"
  top: "conv3"
}
layer {
  name: "conv4"
  type: "Convolution"
  bottom: "conv3"
  top: "conv4"
  param {
    lr_mult: 1
    decay_mult: 1
  }
  param {
    lr_mult: 2
    decay_mult: 0
  }
  convolution_param {
    num_output: 384
    pad: 1
    kernel_size: 3
    group: 2
    weight_filler {
      type: "gaussian"
      std: 0.01
    }
    bias_filler {
      type: "constant"
      value: 0.1
    }
  }
}
layer {
  name: "relu4"
  type: "ReLU"
  bottom: "conv4"
  top: "conv4"
}
layer {
  name: "conv5"
  type: "Convolution"
  bottom: "conv4"
  top: "conv5"
  param {
    lr_mult: 1
    decay_mult: 1
  }
  param {
    lr_mult: 2
    decay_mult: 0
  }
  convolution_param {
    num_output: 256
    pad: 1
    kernel_size: 3
    group: 2
    weight_filler {
      type: "gaussian"
      std: 0.01
    }
    bias_filler {
      type: "constant"
      value: 0.1
    }
  }
}
layer {
  name: "relu5"
  type: "ReLU"
  bottom: "conv5"
  top: "conv5"
}
layer {
  name: "pool5"
  type: "Pooling"
  bottom: "conv5"
  top: "pool5"
  pooling_param {
    pool: MAX
    kernel_size: 3
    stride: 2
  }
}
layer {
  name: "fc6"
  type: "InnerProduct"
  bottom: "pool5"
  top: "fc6"
  param {
    lr_mult: 1
    decay_mult: 1
  }
  param {
    lr_mult: 2
    decay_mult: 0
  }
  inner_product_param {
    num_output: 4096
    weight_filler {
      type: "gaussian"
      std: 0.005
    }
    bias_filler {
      type: "constant"
      value: 0.1
    }
  }
}
layer {
  name: "relu6"
  type: "ReLU"
  bottom: "fc6"
  top: "fc6"
}
layer {
  name: "drop6"
  type: "Dropout"
  bottom: "fc6"
  top: "fc6"
  dropout_param {
    dropout_ratio: 0.5
  }
}
layer {
  name: "fc7"
  type: "InnerProduct"
  bottom: "fc6"
  top: "fc7"
  param {
    lr_mult: 1
    decay_mult: 1
  }
  param {
    lr_mult: 2
    decay_mult: 0
  }
  inner_product_param {
    num_output: 4096
    weight_filler {
      type: "gaussian"
      std: 0.005
    }
    bias_filler {
      type: "constant"
      value: 0.1
    }
  }
}
layer {
  name: "relu7"
  type: "ReLU"
  bottom: "fc7"
  top: "fc7"
}
layer {
  name: "drop7"
  type: "Dropout"
  bottom: "fc7"
  top: "fc7"
  dropout_param {
    dropout_ratio: 0.5
  }
}
layer {
  name: "fc8"
  type: "InnerProduct"
  bottom: "fc7"
  top: "fc8"
  param {
    lr_mult: 1
    decay_mult: 1
  }
  param {
    lr_mult: 2
    decay_mult: 0
  }
  inner_product_param {
    num_output: 3
    weight_filler {
      type: "gaussian"
      std: 0.01
    }
    bias_filler {
      type: "constant"
      value: 0
    }
  }
}
layer {
  name: "loss"
  type: "SoftmaxWithLoss"
  bottom: "fc8"
  bottom: "label"
  top: "loss"
}
I0823 10:42:08.447481 28265 layer_factory.hpp:77] Creating layer mnist
I0823 10:42:08.447999 28265 net.cpp:100] Creating Layer mnist
I0823 10:42:08.448014 28265 net.cpp:408] mnist -> data
I0823 10:42:08.448025 28265 net.cpp:408] mnist -> label
I0823 10:42:08.448181 28265 data_transformer.cpp:25] Loading mean file from: data/person_only_lmdb/person_vs_background_vs_random_color_mean.binaryproto
I0823 10:42:08.449594 28278 db_lmdb.cpp:35] Opened lmdb data/person_only_lmdb/person_vs_background_vs_random_train_lmdb
I0823 10:42:08.485199 28265 data_layer.cpp:41] output data size: 128,3,128,128
I0823 10:42:08.562510 28265 net.cpp:150] Setting up mnist
I0823 10:42:08.562556 28265 net.cpp:157] Top shape: 128 3 128 128 (6291456)
I0823 10:42:08.562561 28265 net.cpp:157] Top shape: 128 (128)
I0823 10:42:08.562564 28265 net.cpp:165] Memory required for data: 25166336
I0823 10:42:08.562572 28265 layer_factory.hpp:77] Creating layer conv1
I0823 10:42:08.562602 28265 net.cpp:100] Creating Layer conv1
I0823 10:42:08.562608 28265 net.cpp:434] conv1 <- data
I0823 10:42:08.562618 28265 net.cpp:408] conv1 -> conv1
I0823 10:42:08.909482 28265 net.cpp:150] Setting up conv1
I0823 10:42:08.909523 28265 net.cpp:157] Top shape: 128 96 30 30 (11059200)
I0823 10:42:08.909526 28265 net.cpp:165] Memory required for data: 69403136
I0823 10:42:08.909546 28265 layer_factory.hpp:77] Creating layer relu1
I0823 10:42:08.909564 28265 net.cpp:100] Creating Layer relu1
I0823 10:42:08.909569 28265 net.cpp:434] relu1 <- conv1
I0823 10:42:08.909574 28265 net.cpp:395] relu1 -> conv1 (in-place)
I0823 10:42:08.909765 28265 net.cpp:150] Setting up relu1
I0823 10:42:08.909776 28265 net.cpp:157] Top shape: 128 96 30 30 (11059200)
I0823 10:42:08.909780 28265 net.cpp:165] Memory required for data: 113639936
I0823 10:42:08.909782 28265 layer_factory.hpp:77] Creating layer norm1
I0823 10:42:08.909792 28265 net.cpp:100] Creating Layer norm1
I0823 10:42:08.909795 28265 net.cpp:434] norm1 <- conv1
I0823 10:42:08.909801 28265 net.cpp:408] norm1 -> norm1
I0823 10:42:08.910375 28265 net.cpp:150] Setting up norm1
I0823 10:42:08.910390 28265 net.cpp:157] Top shape: 128 96 30 30 (11059200)
I0823 10:42:08.910394 28265 net.cpp:165] Memory required for data: 157876736
I0823 10:42:08.910398 28265 layer_factory.hpp:77] Creating layer pool1
I0823 10:42:08.910408 28265 net.cpp:100] Creating Layer pool1
I0823 10:42:08.910410 28265 net.cpp:434] pool1 <- norm1
I0823 10:42:08.910415 28265 net.cpp:408] pool1 -> pool1
I0823 10:42:08.910475 28265 net.cpp:150] Setting up pool1
I0823 10:42:08.910483 28265 net.cpp:157] Top shape: 128 96 15 15 (2764800)
I0823 10:42:08.910486 28265 net.cpp:165] Memory required for data: 168935936
I0823 10:42:08.910488 28265 layer_factory.hpp:77] Creating layer conv2
I0823 10:42:08.910504 28265 net.cpp:100] Creating Layer conv2
I0823 10:42:08.910508 28265 net.cpp:434] conv2 <- pool1
I0823 10:42:08.910514 28265 net.cpp:408] conv2 -> conv2
I0823 10:42:08.917242 28265 net.cpp:150] Setting up conv2
I0823 10:42:08.917258 28265 net.cpp:157] Top shape: 128 256 15 15 (7372800)
I0823 10:42:08.917261 28265 net.cpp:165] Memory required for data: 198427136
I0823 10:42:08.917270 28265 layer_factory.hpp:77] Creating layer relu2
I0823 10:42:08.917278 28265 net.cpp:100] Creating Layer relu2
I0823 10:42:08.917280 28265 net.cpp:434] relu2 <- conv2
I0823 10:42:08.917285 28265 net.cpp:395] relu2 -> conv2 (in-place)
I0823 10:42:08.917820 28265 net.cpp:150] Setting up relu2
I0823 10:42:08.917835 28265 net.cpp:157] Top shape: 128 256 15 15 (7372800)
I0823 10:42:08.917839 28265 net.cpp:165] Memory required for data: 227918336
I0823 10:42:08.917841 28265 layer_factory.hpp:77] Creating layer norm2
I0823 10:42:08.917848 28265 net.cpp:100] Creating Layer norm2
I0823 10:42:08.917851 28265 net.cpp:434] norm2 <- conv2
I0823 10:42:08.917857 28265 net.cpp:408] norm2 -> norm2
I0823 10:42:08.918081 28265 net.cpp:150] Setting up norm2
I0823 10:42:08.918092 28265 net.cpp:157] Top shape: 128 256 15 15 (7372800)
I0823 10:42:08.918095 28265 net.cpp:165] Memory required for data: 257409536
I0823 10:42:08.918097 28265 layer_factory.hpp:77] Creating layer pool2
I0823 10:42:08.918107 28265 net.cpp:100] Creating Layer pool2
I0823 10:42:08.918109 28265 net.cpp:434] pool2 <- norm2
I0823 10:42:08.918114 28265 net.cpp:408] pool2 -> pool2
I0823 10:42:08.918169 28265 net.cpp:150] Setting up pool2
I0823 10:42:08.918176 28265 net.cpp:157] Top shape: 128 256 7 7 (1605632)
I0823 10:42:08.918179 28265 net.cpp:165] Memory required for data: 263832064
I0823 10:42:08.918182 28265 layer_factory.hpp:77] Creating layer conv3
I0823 10:42:08.918192 28265 net.cpp:100] Creating Layer conv3
I0823 10:42:08.918195 28265 net.cpp:434] conv3 <- pool2
I0823 10:42:08.918200 28265 net.cpp:408] conv3 -> conv3
I0823 10:42:08.932272 28265 net.cpp:150] Setting up conv3
I0823 10:42:08.932288 28265 net.cpp:157] Top shape: 128 384 7 7 (2408448)
I0823 10:42:08.932292 28265 net.cpp:165] Memory required for data: 273465856
I0823 10:42:08.932301 28265 layer_factory.hpp:77] Creating layer relu3
I0823 10:42:08.932310 28265 net.cpp:100] Creating Layer relu3
I0823 10:42:08.932315 28265 net.cpp:434] relu3 <- conv3
I0823 10:42:08.932320 28265 net.cpp:395] relu3 -> conv3 (in-place)
I0823 10:42:08.932525 28265 net.cpp:150] Setting up relu3
I0823 10:42:08.932538 28265 net.cpp:157] Top shape: 128 384 7 7 (2408448)
I0823 10:42:08.932540 28265 net.cpp:165] Memory required for data: 283099648
I0823 10:42:08.932543 28265 layer_factory.hpp:77] Creating layer conv4
I0823 10:42:08.932557 28265 net.cpp:100] Creating Layer conv4
I0823 10:42:08.932562 28265 net.cpp:434] conv4 <- conv3
I0823 10:42:08.932569 28265 net.cpp:408] conv4 -> conv4
I0823 10:42:08.944635 28265 net.cpp:150] Setting up conv4
I0823 10:42:08.944651 28265 net.cpp:157] Top shape: 128 384 7 7 (2408448)
I0823 10:42:08.944654 28265 net.cpp:165] Memory required for data: 292733440
I0823 10:42:08.944661 28265 layer_factory.hpp:77] Creating layer relu4
I0823 10:42:08.944669 28265 net.cpp:100] Creating Layer relu4
I0823 10:42:08.944671 28265 net.cpp:434] relu4 <- conv4
I0823 10:42:08.944679 28265 net.cpp:395] relu4 -> conv4 (in-place)
I0823 10:42:08.944882 28265 net.cpp:150] Setting up relu4
I0823 10:42:08.944895 28265 net.cpp:157] Top shape: 128 384 7 7 (2408448)
I0823 10:42:08.944897 28265 net.cpp:165] Memory required for data: 302367232
I0823 10:42:08.944900 28265 layer_factory.hpp:77] Creating layer conv5
I0823 10:42:08.944913 28265 net.cpp:100] Creating Layer conv5
I0823 10:42:08.944916 28265 net.cpp:434] conv5 <- conv4
I0823 10:42:08.944924 28265 net.cpp:408] conv5 -> conv5
I0823 10:42:08.954157 28265 net.cpp:150] Setting up conv5
I0823 10:42:08.954175 28265 net.cpp:157] Top shape: 128 256 7 7 (1605632)
I0823 10:42:08.954179 28265 net.cpp:165] Memory required for data: 308789760
I0823 10:42:08.954190 28265 layer_factory.hpp:77] Creating layer relu5
I0823 10:42:08.954197 28265 net.cpp:100] Creating Layer relu5
I0823 10:42:08.954200 28265 net.cpp:434] relu5 <- conv5
I0823 10:42:08.954207 28265 net.cpp:395] relu5 -> conv5 (in-place)
I0823 10:42:08.954417 28265 net.cpp:150] Setting up relu5
I0823 10:42:08.954429 28265 net.cpp:157] Top shape: 128 256 7 7 (1605632)
I0823 10:42:08.954432 28265 net.cpp:165] Memory required for data: 315212288
I0823 10:42:08.954435 28265 layer_factory.hpp:77] Creating layer pool5
I0823 10:42:08.954443 28265 net.cpp:100] Creating Layer pool5
I0823 10:42:08.954447 28265 net.cpp:434] pool5 <- conv5
I0823 10:42:08.954452 28265 net.cpp:408] pool5 -> pool5
I0823 10:42:08.954524 28265 net.cpp:150] Setting up pool5
I0823 10:42:08.954532 28265 net.cpp:157] Top shape: 128 256 3 3 (294912)
I0823 10:42:08.954535 28265 net.cpp:165] Memory required for data: 316391936
I0823 10:42:08.954538 28265 layer_factory.hpp:77] Creating layer fc6
I0823 10:42:08.954552 28265 net.cpp:100] Creating Layer fc6
I0823 10:42:08.954556 28265 net.cpp:434] fc6 <- pool5
I0823 10:42:08.954565 28265 net.cpp:408] fc6 -> fc6
I0823 10:42:09.088577 28265 net.cpp:150] Setting up fc6
I0823 10:42:09.088616 28265 net.cpp:157] Top shape: 128 4096 (524288)
I0823 10:42:09.088620 28265 net.cpp:165] Memory required for data: 318489088
I0823 10:42:09.088634 28265 layer_factory.hpp:77] Creating layer relu6
I0823 10:42:09.088647 28265 net.cpp:100] Creating Layer relu6
I0823 10:42:09.088652 28265 net.cpp:434] relu6 <- fc6
I0823 10:42:09.088662 28265 net.cpp:395] relu6 -> fc6 (in-place)
I0823 10:42:09.089330 28265 net.cpp:150] Setting up relu6
I0823 10:42:09.089345 28265 net.cpp:157] Top shape: 128 4096 (524288)
I0823 10:42:09.089349 28265 net.cpp:165] Memory required for data: 320586240
I0823 10:42:09.089351 28265 layer_factory.hpp:77] Creating layer drop6
I0823 10:42:09.089362 28265 net.cpp:100] Creating Layer drop6
I0823 10:42:09.089365 28265 net.cpp:434] drop6 <- fc6
I0823 10:42:09.089370 28265 net.cpp:395] drop6 -> fc6 (in-place)
I0823 10:42:09.089409 28265 net.cpp:150] Setting up drop6
I0823 10:42:09.089417 28265 net.cpp:157] Top shape: 128 4096 (524288)
I0823 10:42:09.089421 28265 net.cpp:165] Memory required for data: 322683392
I0823 10:42:09.089423 28265 layer_factory.hpp:77] Creating layer fc7
I0823 10:42:09.089437 28265 net.cpp:100] Creating Layer fc7
I0823 10:42:09.089440 28265 net.cpp:434] fc7 <- fc6
I0823 10:42:09.089445 28265 net.cpp:408] fc7 -> fc7
I0823 10:42:09.324352 28265 net.cpp:150] Setting up fc7
I0823 10:42:09.324400 28265 net.cpp:157] Top shape: 128 4096 (524288)
I0823 10:42:09.324404 28265 net.cpp:165] Memory required for data: 324780544
I0823 10:42:09.324419 28265 layer_factory.hpp:77] Creating layer relu7
I0823 10:42:09.324431 28265 net.cpp:100] Creating Layer relu7
I0823 10:42:09.324435 28265 net.cpp:434] relu7 <- fc7
I0823 10:42:09.324445 28265 net.cpp:395] relu7 -> fc7 (in-place)
I0823 10:42:09.324741 28265 net.cpp:150] Setting up relu7
I0823 10:42:09.324753 28265 net.cpp:157] Top shape: 128 4096 (524288)
I0823 10:42:09.324755 28265 net.cpp:165] Memory required for data: 326877696
I0823 10:42:09.324759 28265 layer_factory.hpp:77] Creating layer drop7
I0823 10:42:09.324766 28265 net.cpp:100] Creating Layer drop7
I0823 10:42:09.324769 28265 net.cpp:434] drop7 <- fc7
I0823 10:42:09.324776 28265 net.cpp:395] drop7 -> fc7 (in-place)
I0823 10:42:09.324815 28265 net.cpp:150] Setting up drop7
I0823 10:42:09.324822 28265 net.cpp:157] Top shape: 128 4096 (524288)
I0823 10:42:09.324826 28265 net.cpp:165] Memory required for data: 328974848
I0823 10:42:09.324828 28265 layer_factory.hpp:77] Creating layer fc8
I0823 10:42:09.324837 28265 net.cpp:100] Creating Layer fc8
I0823 10:42:09.324839 28265 net.cpp:434] fc8 <- fc7
I0823 10:42:09.324846 28265 net.cpp:408] fc8 -> fc8
I0823 10:42:09.326828 28265 net.cpp:150] Setting up fc8
I0823 10:42:09.326843 28265 net.cpp:157] Top shape: 128 3 (384)
I0823 10:42:09.326846 28265 net.cpp:165] Memory required for data: 328976384
I0823 10:42:09.326853 28265 layer_factory.hpp:77] Creating layer loss
I0823 10:42:09.326866 28265 net.cpp:100] Creating Layer loss
I0823 10:42:09.326870 28265 net.cpp:434] loss <- fc8
I0823 10:42:09.326874 28265 net.cpp:434] loss <- label
I0823 10:42:09.326879 28265 net.cpp:408] loss -> loss
I0823 10:42:09.326889 28265 layer_factory.hpp:77] Creating layer loss
…
I0823 10:42:09.327826 28265 net.cpp:322] The NetState phase (1) differed from the phase (0) specified by a rule in layer mnist
I0823 10:42:09.328004 28265 net.cpp:58] Initializing net from parameters: 
name: "AlexNet"
state {
  phase: TEST
}
layer {
  name: "mnist"
  type: "Data"
  top: "data"
  top: "label"
  include {
    phase: TEST
  }
  transform_param {
    scale: 0.00390625
    mean_file: "data/person_only_lmdb/person_vs_background_vs_random_color_mean.binaryproto"
  }
  data_param {
    source: "data/person_only_lmdb/person_vs_background_vs_random_test_lmdb"
    batch_size: 100
    backend: LMDB
  }
}
layer {
  name: "conv1"
  type: "Convolution"
  bottom: "data"
  top: "conv1"
  param {
    lr_mult: 1
    decay_mult: 1
  }
  param {
    lr_mult: 2
    decay_mult: 0
  }
  convolution_param {
    num_output: 96
    kernel_size: 11
    stride: 4
    weight_filler {
      type: "gaussian"
      std: 0.01
    }
    bias_filler {
      type: "constant"
      value: 0
    }
  }
}
layer {
  name: "relu1"
  type: "ReLU"
  bottom: "conv1"
  top: "conv1"
}
layer {
  name: "norm1"
  type: "LRN"
  bottom: "conv1"
  top: "norm1"
  lrn_param {
    local_size: 5
    alpha: 0.0001
    beta: 0.75
  }
}
layer {
  name: "pool1"
  type: "Pooling"
  bottom: "norm1"
  top: "pool1"
  pooling_param {
    pool: MAX
    kernel_size: 3
    stride: 2
  }
}
layer {
  name: "conv2"
  type: "Convolution"
  bottom: "pool1"
  top: "conv2"
  param {
    lr_mult: 1
    decay_mult: 1
  }
  param {
    lr_mult: 2
    decay_mult: 0
  }
  convolution_param {
    num_output: 256
    pad: 2
    kernel_size: 5
    group: 2
    weight_filler {
      type: "gaussian"
      std: 0.01
    }
    bias_filler {
      type: "constant"
      value: 0.1
    }
  }
}
layer {
  name: "relu2"
  type: "ReLU"
  bottom: "conv2"
  top: "conv2"
}
layer {
  name: "norm2"
  type: "LRN"
  bottom: "conv2"
  top: "norm2"
  lrn_param {
    local_size: 5
    alpha: 0.0001
    beta: 0.75
  }
}
layer {
  name: "pool2"
  type: "Pooling"
  bottom: "norm2"
  top: "pool2"
  pooling_param {
    pool: MAX
    kernel_size: 3
    stride: 2
  }
}
layer {
  name: "conv3"
  type: "Convolution"
  bottom: "pool2"
  top: "conv3"
  param {
    lr_mult: 1
    decay_mult: 1
  }
  param {
    lr_mult: 2
    decay_mult: 0
  }
  convolution_param {
    num_output: 384
    pad: 1
    kernel_size: 3
    weight_filler {
      type: "gaussian"
      std: 0.01
    }
    bias_filler {
      type: "constant"
      value: 0
    }
  }
}
layer {
  name: "relu3"
  type: "ReLU"
  bottom: "conv3"
  top: "conv3"
}
layer {
  name: "conv4"
  type: "Convolution"
  bottom: "conv3"
  top: "conv4"
  param {
    lr_mult: 1
    decay_mult: 1
  }
  param {
    lr_mult: 2
    decay_mult: 0
  }
  convolution_param {
    num_output: 384
    pad: 1
    kernel_size: 3
    group: 2
    weight_filler {
      type: "gaussian"
      std: 0.01
    }
    bias_filler {
      type: "constant"
      value: 0.1
    }
  }
}
layer {
  name: "relu4"
  type: "ReLU"
  bottom: "conv4"
  top: "conv4"
}
layer {
  name: "conv5"
  type: "Convolution"
  bottom: "conv4"
  top: "conv5"
  param {
    lr_mult: 1
    decay_mult: 1
  }
  param {
    lr_mult: 2
    decay_mult: 0
  }
  convolution_param {
    num_output: 256
    pad: 1
    kernel_size: 3
    group: 2
    weight_filler {
      type: "gaussian"
      std: 0.01
    }
    bias_filler {
      type: "constant"
      value: 0.1
    }
  }
}
layer {
  name: "relu5"
  type: "ReLU"
  bottom: "conv5"
  top: "conv5"
}
layer {
  name: "pool5"
  type: "Pooling"
  bottom: "conv5"
  top: "pool5"
  pooling_param {
    pool: MAX
    kernel_size: 3
    stride: 2
  }
}
layer {
  name: "fc6"
  type: "InnerProduct"
  bottom: "pool5"
  top: "fc6"
  param {
    lr_mult: 1
    decay_mult: 1
  }
  param {
    lr_mult: 2
    decay_mult: 0
  }
  inner_product_param {
    num_output: 4096
    weight_filler {
      type: "gaussian"
      std: 0.005
    }
    bias_filler {
      type: "constant"
      value: 0.1
    }
  }
}
layer {
  name: "relu6"
  type: "ReLU"
  bottom: "fc6"
  top: "fc6"
}
layer {
  name: "drop6"
  type: "Dropout"
  bottom: "fc6"
  top: "fc6"
  dropout_param {
    dropout_ratio: 0.5
  }
}
layer {
  name: "fc7"
  type: "InnerProduct"
  bottom: "fc6"
  top: "fc7"
  param {
    lr_mult: 1
    decay_mult: 1
  }
  param {
    lr_mult: 2
    decay_mult: 0
  }
  inner_product_param {
    num_output: 4096
    weight_filler {
      type: "gaussian"
      std: 0.005
    }
    bias_filler {
      type: "constant"
      value: 0.1
    }
  }
}
layer {
  name: "relu7"
  type: "ReLU"
  bottom: "fc7"
  top: "fc7"
}
layer {
  name: "drop7"
  type: "Dropout"
  bottom: "fc7"
  top: "fc7"
  dropout_param {
    dropout_ratio: 0.5
  }
}
layer {
  name: "fc8"
  type: "InnerProduct"
  bottom: "fc7"
  top: "fc8"
  param {
    lr_mult: 1
    decay_mult: 1
  }
  param {
    lr_mult: 2
    decay_mult: 0
  }
  inner_product_param {
    num_output: 3
    weight_filler {
      type: "gaussian"
      std: 0.01
    }
    bias_filler {
      type: "constant"
      value: 0
    }
  }
}
layer {
  name: "accuracy"
  type: "Accuracy"
  bottom: "fc8"
  bottom: "label"
  top: "accuracy"
  include {
    phase: TEST
  }
}
layer {
  name: "loss"
  type: "SoftmaxWithLoss"
  bottom: "fc8"
  bottom: "label"
  top: "loss"
}
I0823 10:42:09.328121 28265 layer_factory.hpp:77] Creating layer mnist
I0823 10:42:09.328269 28265 net.cpp:100] Creating Layer mnist
I0823 10:42:09.328279 28265 net.cpp:408] mnist -> data
I0823 10:42:09.328289 28265 net.cpp:408] mnist -> label
I0823 10:42:09.328296 28265 data_transformer.cpp:25] Loading mean file from: data/person_only_lmdb/person_vs_background_vs_random_color_mean.binaryproto
I0823 10:42:09.329916 28280 db_lmdb.cpp:35] Opened lmdb data/person_only_lmdb/person_vs_background_vs_random_test_lmdb
I0823 10:42:09.330341 28265 data_layer.cpp:41] output data size: 100,3,128,128
I0823 10:42:09.391005 28265 net.cpp:150] Setting up mnist
I0823 10:42:09.391046 28265 net.cpp:157] Top shape: 100 3 128 128 (4915200)
I0823 10:42:09.391053 28265 net.cpp:157] Top shape: 100 (100)
I0823 10:42:09.391057 28265 net.cpp:165] Memory required for data: 19661200
I0823 10:42:09.391065 28265 layer_factory.hpp:77] Creating layer label_mnist_1_split
I0823 10:42:09.391084 28265 net.cpp:100] Creating Layer label_mnist_1_split
I0823 10:42:09.391090 28265 net.cpp:434] label_mnist_1_split <- label
I0823 10:42:09.391101 28265 net.cpp:408] label_mnist_1_split -> label_mnist_1_split_0
I0823 10:42:09.391116 28265 net.cpp:408] label_mnist_1_split -> label_mnist_1_split_1
I0823 10:42:09.391441 28265 net.cpp:150] Setting up label_mnist_1_split
I0823 10:42:09.391474 28265 net.cpp:157] Top shape: 100 (100)
I0823 10:42:09.391481 28265 net.cpp:157] Top shape: 100 (100)
I0823 10:42:09.391485 28265 net.cpp:165] Memory required for data: 19662000
I0823 10:42:09.391491 28265 layer_factory.hpp:77] Creating layer conv1
I0823 10:42:09.391515 28265 net.cpp:100] Creating Layer conv1
I0823 10:42:09.391522 28265 net.cpp:434] conv1 <- data
I0823 10:42:09.391536 28265 net.cpp:408] conv1 -> conv1
I0823 10:42:09.396708 28265 net.cpp:150] Setting up conv1
I0823 10:42:09.396740 28265 net.cpp:157] Top shape: 100 96 30 30 (8640000)
I0823 10:42:09.396747 28265 net.cpp:165] Memory required for data: 54222000
I0823 10:42:09.396766 28265 layer_factory.hpp:77] Creating layer relu1
I0823 10:42:09.396780 28265 net.cpp:100] Creating Layer relu1
I0823 10:42:09.396785 28265 net.cpp:434] relu1 <- conv1
I0823 10:42:09.396795 28265 net.cpp:395] relu1 -> conv1 (in-place)
I0823 10:42:09.397164 28265 net.cpp:150] Setting up relu1
I0823 10:42:09.397183 28265 net.cpp:157] Top shape: 100 96 30 30 (8640000)
I0823 10:42:09.397189 28265 net.cpp:165] Memory required for data: 88782000
I0823 10:42:09.397194 28265 layer_factory.hpp:77] Creating layer norm1
I0823 10:42:09.397209 28265 net.cpp:100] Creating Layer norm1
I0823 10:42:09.397215 28265 net.cpp:434] norm1 <- conv1
I0823 10:42:09.397225 28265 net.cpp:408] norm1 -> norm1
I0823 10:42:09.398363 28265 net.cpp:150] Setting up norm1
I0823 10:42:09.398391 28265 net.cpp:157] Top shape: 100 96 30 30 (8640000)
I0823 10:42:09.398396 28265 net.cpp:165] Memory required for data: 123342000
I0823 10:42:09.398402 28265 layer_factory.hpp:77] Creating layer pool1
I0823 10:42:09.398416 28265 net.cpp:100] Creating Layer pool1
I0823 10:42:09.398422 28265 net.cpp:434] pool1 <- norm1
I0823 10:42:09.398432 28265 net.cpp:408] pool1 -> pool1
I0823 10:42:09.398550 28265 net.cpp:150] Setting up pool1
I0823 10:42:09.398564 28265 net.cpp:157] Top shape: 100 96 15 15 (2160000)
I0823 10:42:09.398569 28265 net.cpp:165] Memory required for data: 131982000
I0823 10:42:09.398574 28265 layer_factory.hpp:77] Creating layer conv2
I0823 10:42:09.398592 28265 net.cpp:100] Creating Layer conv2
I0823 10:42:09.398598 28265 net.cpp:434] conv2 <- pool1
I0823 10:42:09.398610 28265 net.cpp:408] conv2 -> conv2
I0823 10:42:09.411509 28265 net.cpp:150] Setting up conv2
I0823 10:42:09.411545 28265 net.cpp:157] Top shape: 100 256 15 15 (5760000)
I0823 10:42:09.411552 28265 net.cpp:165] Memory required for data: 155022000
I0823 10:42:09.411569 28265 layer_factory.hpp:77] Creating layer relu2
I0823 10:42:09.411581 28265 net.cpp:100] Creating Layer relu2
I0823 10:42:09.411587 28265 net.cpp:434] relu2 <- conv2
I0823 10:42:09.411597 28265 net.cpp:395] relu2 -> conv2 (in-place)
I0823 10:42:09.412608 28265 net.cpp:150] Setting up relu2
I0823 10:42:09.412634 28265 net.cpp:157] Top shape: 100 256 15 15 (5760000)
I0823 10:42:09.412641 28265 net.cpp:165] Memory required for data: 178062000
I0823 10:42:09.412645 28265 layer_factory.hpp:77] Creating layer norm2
I0823 10:42:09.412664 28265 net.cpp:100] Creating Layer norm2
I0823 10:42:09.412672 28265 net.cpp:434] norm2 <- conv2
I0823 10:42:09.412683 28265 net.cpp:408] norm2 -> norm2
I0823 10:42:09.413153 28265 net.cpp:150] Setting up norm2
I0823 10:42:09.413172 28265 net.cpp:157] Top shape: 100 256 15 15 (5760000)
I0823 10:42:09.413177 28265 net.cpp:165] Memory required for data: 201102000
I0823 10:42:09.413183 28265 layer_factory.hpp:77] Creating layer pool2
I0823 10:42:09.413197 28265 net.cpp:100] Creating Layer pool2
I0823 10:42:09.413203 28265 net.cpp:434] pool2 <- norm2
I0823 10:42:09.413213 28265 net.cpp:408] pool2 -> pool2
I0823 10:42:09.413327 28265 net.cpp:150] Setting up pool2
I0823 10:42:09.413342 28265 net.cpp:157] Top shape: 100 256 7 7 (1254400)
I0823 10:42:09.413347 28265 net.cpp:165] Memory required for data: 206119600
I0823 10:42:09.413352 28265 layer_factory.hpp:77] Creating layer conv3
I0823 10:42:09.413374 28265 net.cpp:100] Creating Layer conv3
I0823 10:42:09.413381 28265 net.cpp:434] conv3 <- pool2
I0823 10:42:09.413391 28265 net.cpp:408] conv3 -> conv3
I0823 10:42:09.436880 28265 net.cpp:150] Setting up conv3
I0823 10:42:09.436919 28265 net.cpp:157] Top shape: 100 384 7 7 (1881600)
I0823 10:42:09.436925 28265 net.cpp:165] Memory required for data: 213646000
I0823 10:42:09.436950 28265 layer_factory.hpp:77] Creating layer relu3
I0823 10:42:09.436967 28265 net.cpp:100] Creating Layer relu3
I0823 10:42:09.436974 28265 net.cpp:434] relu3 <- conv3
I0823 10:42:09.436983 28265 net.cpp:395] relu3 -> conv3 (in-place)
I0823 10:42:09.437327 28265 net.cpp:150] Setting up relu3
I0823 10:42:09.437345 28265 net.cpp:157] Top shape: 100 384 7 7 (1881600)
I0823 10:42:09.437348 28265 net.cpp:165] Memory required for data: 221172400
I0823 10:42:09.437353 28265 layer_factory.hpp:77] Creating layer conv4
I0823 10:42:09.437372 28265 net.cpp:100] Creating Layer conv4
I0823 10:42:09.437378 28265 net.cpp:434] conv4 <- conv3
I0823 10:42:09.437391 28265 net.cpp:408] conv4 -> conv4
I0823 10:42:09.455512 28265 net.cpp:150] Setting up conv4
I0823 10:42:09.455551 28265 net.cpp:157] Top shape: 100 384 7 7 (1881600)
I0823 10:42:09.455556 28265 net.cpp:165] Memory required for data: 228698800
I0823 10:42:09.455571 28265 layer_factory.hpp:77] Creating layer relu4
I0823 10:42:09.455586 28265 net.cpp:100] Creating Layer relu4
I0823 10:42:09.455591 28265 net.cpp:434] relu4 <- conv4
I0823 10:42:09.455601 28265 net.cpp:395] relu4 -> conv4 (in-place)
I0823 10:42:09.456450 28265 net.cpp:150] Setting up relu4
I0823 10:42:09.456471 28265 net.cpp:157] Top shape: 100 384 7 7 (1881600)
I0823 10:42:09.456475 28265 net.cpp:165] Memory required for data: 236225200
I0823 10:42:09.456480 28265 layer_factory.hpp:77] Creating layer conv5
I0823 10:42:09.456498 28265 net.cpp:100] Creating Layer conv5
I0823 10:42:09.456504 28265 net.cpp:434] conv5 <- conv4
I0823 10:42:09.456516 28265 net.cpp:408] conv5 -> conv5
I0823 10:42:09.469435 28265 net.cpp:150] Setting up conv5
I0823 10:42:09.469461 28265 net.cpp:157] Top shape: 100 256 7 7 (1254400)
I0823 10:42:09.469466 28265 net.cpp:165] Memory required for data: 241242800
I0823 10:42:09.469483 28265 layer_factory.hpp:77] Creating layer relu5
I0823 10:42:09.469496 28265 net.cpp:100] Creating Layer relu5
I0823 10:42:09.469501 28265 net.cpp:434] relu5 <- conv5
I0823 10:42:09.469508 28265 net.cpp:395] relu5 -> conv5 (in-place)
I0823 10:42:09.469789 28265 net.cpp:150] Setting up relu5
I0823 10:42:09.469805 28265 net.cpp:157] Top shape: 100 256 7 7 (1254400)
I0823 10:42:09.469808 28265 net.cpp:165] Memory required for data: 246260400
I0823 10:42:09.469812 28265 layer_factory.hpp:77] Creating layer pool5
I0823 10:42:09.469828 28265 net.cpp:100] Creating Layer pool5
I0823 10:42:09.469832 28265 net.cpp:434] pool5 <- conv5
I0823 10:42:09.469840 28265 net.cpp:408] pool5 -> pool5
I0823 10:42:09.469949 28265 net.cpp:150] Setting up pool5
I0823 10:42:09.469960 28265 net.cpp:157] Top shape: 100 256 3 3 (230400)
I0823 10:42:09.469964 28265 net.cpp:165] Memory required for data: 247182000
I0823 10:42:09.469967 28265 layer_factory.hpp:77] Creating layer fc6
I0823 10:42:09.469982 28265 net.cpp:100] Creating Layer fc6
I0823 10:42:09.469990 28265 net.cpp:434] fc6 <- pool5
I0823 10:42:09.469998 28265 net.cpp:408] fc6 -> fc6
I0823 10:42:09.610654 28265 net.cpp:150] Setting up fc6
I0823 10:42:09.610699 28265 net.cpp:157] Top shape: 100 4096 (409600)
I0823 10:42:09.610702 28265 net.cpp:165] Memory required for data: 248820400
I0823 10:42:09.610715 28265 layer_factory.hpp:77] Creating layer relu6
I0823 10:42:09.610728 28265 net.cpp:100] Creating Layer relu6
I0823 10:42:09.610733 28265 net.cpp:434] relu6 <- fc6
I0823 10:42:09.610743 28265 net.cpp:395] relu6 -> fc6 (in-place)
I0823 10:42:09.611044 28265 net.cpp:150] Setting up relu6
I0823 10:42:09.611055 28265 net.cpp:157] Top shape: 100 4096 (409600)
I0823 10:42:09.611058 28265 net.cpp:165] Memory required for data: 250458800
I0823 10:42:09.611062 28265 layer_factory.hpp:77] Creating layer drop6
I0823 10:42:09.611073 28265 net.cpp:100] Creating Layer drop6
I0823 10:42:09.611076 28265 net.cpp:434] drop6 <- fc6
I0823 10:42:09.611081 28265 net.cpp:395] drop6 -> fc6 (in-place)
I0823 10:42:09.611137 28265 net.cpp:150] Setting up drop6
I0823 10:42:09.611146 28265 net.cpp:157] Top shape: 100 4096 (409600)
I0823 10:42:09.611150 28265 net.cpp:165] Memory required for data: 252097200
I0823 10:42:09.611151 28265 layer_factory.hpp:77] Creating layer fc7
I0823 10:42:09.611163 28265 net.cpp:100] Creating Layer fc7
I0823 10:42:09.611167 28265 net.cpp:434] fc7 <- fc6
I0823 10:42:09.611176 28265 net.cpp:408] fc7 -> fc7
I0823 10:42:09.846145 28265 net.cpp:150] Setting up fc7
I0823 10:42:09.846197 28265 net.cpp:157] Top shape: 100 4096 (409600)
I0823 10:42:09.846201 28265 net.cpp:165] Memory required for data: 253735600
I0823 10:42:09.846215 28265 layer_factory.hpp:77] Creating layer relu7
I0823 10:42:09.846230 28265 net.cpp:100] Creating Layer relu7
I0823 10:42:09.846235 28265 net.cpp:434] relu7 <- fc7
I0823 10:42:09.846243 28265 net.cpp:395] relu7 -> fc7 (in-place)
I0823 10:42:09.847105 28265 net.cpp:150] Setting up relu7
I0823 10:42:09.847123 28265 net.cpp:157] Top shape: 100 4096 (409600)
I0823 10:42:09.847126 28265 net.cpp:165] Memory required for data: 255374000
I0823 10:42:09.847129 28265 layer_factory.hpp:77] Creating layer drop7
I0823 10:42:09.847138 28265 net.cpp:100] Creating Layer drop7
I0823 10:42:09.847141 28265 net.cpp:434] drop7 <- fc7
I0823 10:42:09.847148 28265 net.cpp:395] drop7 -> fc7 (in-place)
I0823 10:42:09.847208 28265 net.cpp:150] Setting up drop7
I0823 10:42:09.847215 28265 net.cpp:157] Top shape: 100 4096 (409600)
I0823 10:42:09.847218 28265 net.cpp:165] Memory required for data: 257012400
I0823 10:42:09.847221 28265 layer_factory.hpp:77] Creating layer fc8
I0823 10:42:09.847232 28265 net.cpp:100] Creating Layer fc8
I0823 10:42:09.847236 28265 net.cpp:434] fc8 <- fc7
I0823 10:42:09.847242 28265 net.cpp:408] fc8 -> fc8
I0823 10:42:09.847609 28265 net.cpp:150] Setting up fc8
I0823 10:42:09.847620 28265 net.cpp:157] Top shape: 100 3 (300)
I0823 10:42:09.847621 28265 net.cpp:165] Memory required for data: 257013600
I0823 10:42:09.847627 28265 layer_factory.hpp:77] Creating layer fc8_fc8_0_split
I0823 10:42:09.847635 28265 net.cpp:100] Creating Layer fc8_fc8_0_split
I0823 10:42:09.847638 28265 net.cpp:434] fc8_fc8_0_split <- fc8
I0823 10:42:09.847643 28265 net.cpp:408] fc8_fc8_0_split -> fc8_fc8_0_split_0
I0823 10:42:09.847651 28265 net.cpp:408] fc8_fc8_0_split -> fc8_fc8_0_split_1
I0823 10:42:09.847718 28265 net.cpp:150] Setting up fc8_fc8_0_split
I0823 10:42:09.847726 28265 net.cpp:157] Top shape: 100 3 (300)
I0823 10:42:09.847729 28265 net.cpp:157] Top shape: 100 3 (300)
I0823 10:42:09.847733 28265 net.cpp:165] Memory required for data: 257016000
I0823 10:42:09.847734 28265 layer_factory.hpp:77] Creating layer accuracy
I0823 10:42:09.847744 28265 net.cpp:100] Creating Layer accuracy
I0823 10:42:09.847748 28265 net.cpp:434] accuracy <- fc8_fc8_0_split_0
I0823 10:42:09.847751 28265 net.cpp:434] accuracy <- label_mnist_1_split_0
I0823 10:42:09.847759 28265 net.cpp:408] accuracy -> accuracy
…
