…
I0814 22:11:08.927170 14021 net.cpp:322] The NetState phase (0) differed from the phase (1) specified by a rule in layer accuracy
I0814 22:11:08.927235 14021 net.cpp:58] Initializing net from parameters: 
name: "LeNet"
state {
  phase: TRAIN
}
layer {
  name: "mnist"
  type: "Data"
  top: "data"
  top: "label"
  include {
    phase: TRAIN
  }
  transform_param {
    scale: 0.00390625
    mirror: true
    mean_file: "data/person_only_lmdb/person_vs_background_vs_random_color_mean.binaryproto"
  }
  data_param {
    source: "data/person_only_lmdb/person_vs_background_vs_random_train_lmdb"
    batch_size: 64
    backend: LMDB
  }
}
layer {
  name: "conv1"
  type: "Convolution"
  bottom: "data"
  top: "conv1"
  param {
    lr_mult: 1
  }
  param {
    lr_mult: 2
  }
  convolution_param {
    num_output: 96
    kernel_size: 5
    stride: 1
    weight_filler {
      type: "xavier"
    }
    bias_filler {
      type: "constant"
    }
  }
}
layer {
  name: "pool1"
  type: "Pooling"
  bottom: "conv1"
  top: "pool1"
  pooling_param {
    pool: MAX
    kernel_size: 2
    stride: 2
  }
}
layer {
  name: "conv2"
  type: "Convolution"
  bottom: "pool1"
  top: "conv2"
  param {
    lr_mult: 1
  }
  param {
    lr_mult: 2
  }
  convolution_param {
    num_output: 50
    kernel_size: 5
    stride: 1
    weight_filler {
      type: "xavier"
    }
    bias_filler {
      type: "constant"
    }
  }
}
layer {
  name: "pool2"
  type: "Pooling"
  bottom: "conv2"
  top: "pool2"
  pooling_param {
    pool: MAX
    kernel_size: 2
    stride: 2
  }
}
layer {
  name: "ip1"
  type: "InnerProduct"
  bottom: "pool2"
  top: "ip1"
  param {
    lr_mult: 1
  }
  param {
    lr_mult: 2
  }
  inner_product_param {
    num_output: 500
    weight_filler {
      type: "xavier"
    }
    bias_filler {
      type: "constant"
    }
  }
}
layer {
  name: "relu1"
  type: "ReLU"
  bottom: "ip1"
  top: "ip1"
}
layer {
  name: "ip2"
  type: "InnerProduct"
  bottom: "ip1"
  top: "ip2"
  param {
    lr_mult: 1
  }
  param {
    lr_mult: 2
  }
  inner_product_param {
    num_output: 3
    weight_filler {
      type: "xavier"
    }
    bias_filler {
      type: "constant"
    }
  }
}
layer {
  name: "loss"
  type: "SoftmaxWithLoss"
  bottom: "ip2"
  bottom: "label"
  top: "loss"
}
I0814 22:11:08.927284 14021 layer_factory.hpp:77] Creating layer mnist
I0814 22:11:08.928139 14021 net.cpp:100] Creating Layer mnist
I0814 22:11:08.928150 14021 net.cpp:408] mnist -> data
I0814 22:11:08.928163 14021 net.cpp:408] mnist -> label
I0814 22:11:08.928170 14021 data_transformer.cpp:25] Loading mean file from: data/person_only_lmdb/person_vs_background_vs_random_color_mean.binaryproto
I0814 22:11:08.929951 14028 db_lmdb.cpp:35] Opened lmdb data/person_only_lmdb/person_vs_background_vs_random_train_lmdb
I0814 22:11:08.949730 14021 data_layer.cpp:41] output data size: 64,3,128,128
I0814 22:11:08.973788 14021 net.cpp:150] Setting up mnist
I0814 22:11:08.973820 14021 net.cpp:157] Top shape: 64 3 128 128 (3145728)
I0814 22:11:08.973825 14021 net.cpp:157] Top shape: 64 (64)
I0814 22:11:08.973829 14021 net.cpp:165] Memory required for data: 12583168
I0814 22:11:08.973834 14021 layer_factory.hpp:77] Creating layer conv1
I0814 22:11:08.973855 14021 net.cpp:100] Creating Layer conv1
I0814 22:11:08.973860 14021 net.cpp:434] conv1 <- data
I0814 22:11:08.973870 14021 net.cpp:408] conv1 -> conv1
I0814 22:11:09.227821 14021 net.cpp:150] Setting up conv1
I0814 22:11:09.227859 14021 net.cpp:157] Top shape: 64 96 124 124 (94470144)
I0814 22:11:09.227862 14021 net.cpp:165] Memory required for data: 390463744
I0814 22:11:09.227880 14021 layer_factory.hpp:77] Creating layer pool1
I0814 22:11:09.227897 14021 net.cpp:100] Creating Layer pool1
I0814 22:11:09.227901 14021 net.cpp:434] pool1 <- conv1
I0814 22:11:09.227907 14021 net.cpp:408] pool1 -> pool1
I0814 22:11:09.227983 14021 net.cpp:150] Setting up pool1
I0814 22:11:09.227993 14021 net.cpp:157] Top shape: 64 96 62 62 (23617536)
I0814 22:11:09.227995 14021 net.cpp:165] Memory required for data: 484933888
I0814 22:11:09.227998 14021 layer_factory.hpp:77] Creating layer conv2
I0814 22:11:09.228011 14021 net.cpp:100] Creating Layer conv2
I0814 22:11:09.228014 14021 net.cpp:434] conv2 <- pool1
I0814 22:11:09.228019 14021 net.cpp:408] conv2 -> conv2
I0814 22:11:09.232722 14021 net.cpp:150] Setting up conv2
I0814 22:11:09.232738 14021 net.cpp:157] Top shape: 64 50 58 58 (10764800)
I0814 22:11:09.232741 14021 net.cpp:165] Memory required for data: 527993088
I0814 22:11:09.232750 14021 layer_factory.hpp:77] Creating layer pool2
I0814 22:11:09.232758 14021 net.cpp:100] Creating Layer pool2
I0814 22:11:09.232763 14021 net.cpp:434] pool2 <- conv2
I0814 22:11:09.232767 14021 net.cpp:408] pool2 -> pool2
I0814 22:11:09.232830 14021 net.cpp:150] Setting up pool2
I0814 22:11:09.232838 14021 net.cpp:157] Top shape: 64 50 29 29 (2691200)
I0814 22:11:09.232841 14021 net.cpp:165] Memory required for data: 538757888
I0814 22:11:09.232843 14021 layer_factory.hpp:77] Creating layer ip1
I0814 22:11:09.232851 14021 net.cpp:100] Creating Layer ip1
I0814 22:11:09.232856 14021 net.cpp:434] ip1 <- pool2
I0814 22:11:09.232859 14021 net.cpp:408] ip1 -> ip1
I0814 22:11:09.398083 14021 net.cpp:150] Setting up ip1
I0814 22:11:09.398118 14021 net.cpp:157] Top shape: 64 500 (32000)
I0814 22:11:09.398121 14021 net.cpp:165] Memory required for data: 538885888
I0814 22:11:09.398138 14021 layer_factory.hpp:77] Creating layer relu1
I0814 22:11:09.398154 14021 net.cpp:100] Creating Layer relu1
I0814 22:11:09.398157 14021 net.cpp:434] relu1 <- ip1
I0814 22:11:09.398164 14021 net.cpp:395] relu1 -> ip1 (in-place)
I0814 22:11:09.398414 14021 net.cpp:150] Setting up relu1
I0814 22:11:09.398422 14021 net.cpp:157] Top shape: 64 500 (32000)
I0814 22:11:09.398424 14021 net.cpp:165] Memory required for data: 539013888
I0814 22:11:09.398427 14021 layer_factory.hpp:77] Creating layer ip2
I0814 22:11:09.398437 14021 net.cpp:100] Creating Layer ip2
I0814 22:11:09.398439 14021 net.cpp:434] ip2 <- ip1
I0814 22:11:09.398445 14021 net.cpp:408] ip2 -> ip2
I0814 22:11:09.398617 14021 net.cpp:150] Setting up ip2
I0814 22:11:09.398623 14021 net.cpp:157] Top shape: 64 3 (192)
I0814 22:11:09.398625 14021 net.cpp:165] Memory required for data: 539014656
I0814 22:11:09.398632 14021 layer_factory.hpp:77] Creating layer loss
I0814 22:11:09.398639 14021 net.cpp:100] Creating Layer loss
I0814 22:11:09.398641 14021 net.cpp:434] loss <- ip2
I0814 22:11:09.398645 14021 net.cpp:434] loss <- label
I0814 22:11:09.398650 14021 net.cpp:408] loss -> loss
I0814 22:11:09.398659 14021 layer_factory.hpp:77] Creating layer loss
…
I0814 22:11:09.399541 14021 net.cpp:322] The NetState phase (1) differed from the phase (0) specified by a rule in layer mnist
I0814 22:11:09.399623 14021 net.cpp:58] Initializing net from parameters: 
name: "LeNet"
state {
  phase: TEST
}
layer {
  name: "mnist"
  type: "Data"
  top: "data"
  top: "label"
  include {
    phase: TEST
  }
  transform_param {
    scale: 0.00390625
    mirror: false
    mean_file: "data/person_only_lmdb/person_vs_background_vs_random_color_mean.binaryproto"
  }
  data_param {
    source: "data/person_only_lmdb/person_vs_background_vs_random_test_lmdb"
    batch_size: 100
    backend: LMDB
  }
}
layer {
  name: "conv1"
  type: "Convolution"
  bottom: "data"
  top: "conv1"
  param {
    lr_mult: 1
  }
  param {
    lr_mult: 2
  }
  convolution_param {
    num_output: 96
    kernel_size: 5
    stride: 1
    weight_filler {
      type: "xavier"
    }
    bias_filler {
      type: "constant"
    }
  }
}
layer {
  name: "pool1"
  type: "Pooling"
  bottom: "conv1"
  top: "pool1"
  pooling_param {
    pool: MAX
    kernel_size: 2
    stride: 2
  }
}
layer {
  name: "conv2"
  type: "Convolution"
  bottom: "pool1"
  top: "conv2"
  param {
    lr_mult: 1
  }
  param {
    lr_mult: 2
  }
  convolution_param {
    num_output: 50
    kernel_size: 5
    stride: 1
    weight_filler {
      type: "xavier"
    }
    bias_filler {
      type: "constant"
    }
  }
}
layer {
  name: "pool2"
  type: "Pooling"
  bottom: "conv2"
  top: "pool2"
  pooling_param {
    pool: MAX
    kernel_size: 2
    stride: 2
  }
}
layer {
  name: "ip1"
  type: "InnerProduct"
  bottom: "pool2"
  top: "ip1"
  param {
    lr_mult: 1
  }
  param {
    lr_mult: 2
  }
  inner_product_param {
    num_output: 500
    weight_filler {
      type: "xavier"
    }
    bias_filler {
      type: "constant"
    }
  }
}
layer {
  name: "relu1"
  type: "ReLU"
  bottom: "ip1"
  top: "ip1"
}
layer {
  name: "ip2"
  type: "InnerProduct"
  bottom: "ip1"
  top: "ip2"
  param {
    lr_mult: 1
  }
  param {
    lr_mult: 2
  }
  inner_product_param {
    num_output: 3
    weight_filler {
      type: "xavier"
    }
    bias_filler {
      type: "constant"
    }
  }
}
layer {
  name: "accuracy"
  type: "Accuracy"
  bottom: "ip2"
  bottom: "label"
  top: "accuracy"
  include {
    phase: TEST
  }
}
layer {
  name: "loss"
  type: "SoftmaxWithLoss"
  bottom: "ip2"
  bottom: "label"
  top: "loss"
}
I0814 22:11:09.399678 14021 layer_factory.hpp:77] Creating layer mnist
I0814 22:11:09.399806 14021 net.cpp:100] Creating Layer mnist
I0814 22:11:09.399814 14021 net.cpp:408] mnist -> data
I0814 22:11:09.399821 14021 net.cpp:408] mnist -> label
I0814 22:11:09.399828 14021 data_transformer.cpp:25] Loading mean file from: data/person_only_lmdb/person_vs_background_vs_random_color_mean.binaryproto
I0814 22:11:09.403636 14030 db_lmdb.cpp:35] Opened lmdb data/person_only_lmdb/person_vs_background_vs_random_test_lmdb
I0814 22:11:09.405311 14021 data_layer.cpp:41] output data size: 100,3,128,128
I0814 22:11:09.462375 14021 net.cpp:150] Setting up mnist
I0814 22:11:09.462406 14021 net.cpp:157] Top shape: 100 3 128 128 (4915200)
I0814 22:11:09.462417 14021 net.cpp:157] Top shape: 100 (100)
I0814 22:11:09.462422 14021 net.cpp:165] Memory required for data: 19661200
I0814 22:11:09.462430 14021 layer_factory.hpp:77] Creating layer label_mnist_1_split
I0814 22:11:09.462447 14021 net.cpp:100] Creating Layer label_mnist_1_split
I0814 22:11:09.462453 14021 net.cpp:434] label_mnist_1_split <- label
I0814 22:11:09.462465 14021 net.cpp:408] label_mnist_1_split -> label_mnist_1_split_0
I0814 22:11:09.462482 14021 net.cpp:408] label_mnist_1_split -> label_mnist_1_split_1
I0814 22:11:09.462738 14021 net.cpp:150] Setting up label_mnist_1_split
I0814 22:11:09.462752 14021 net.cpp:157] Top shape: 100 (100)
I0814 22:11:09.462760 14021 net.cpp:157] Top shape: 100 (100)
I0814 22:11:09.462765 14021 net.cpp:165] Memory required for data: 19662000
I0814 22:11:09.462771 14021 layer_factory.hpp:77] Creating layer conv1
I0814 22:11:09.462793 14021 net.cpp:100] Creating Layer conv1
I0814 22:11:09.462800 14021 net.cpp:434] conv1 <- data
I0814 22:11:09.462810 14021 net.cpp:408] conv1 -> conv1
I0814 22:11:09.466670 14021 net.cpp:150] Setting up conv1
I0814 22:11:09.466706 14021 net.cpp:157] Top shape: 100 96 124 124 (147609600)
I0814 22:11:09.466714 14021 net.cpp:165] Memory required for data: 610100400
I0814 22:11:09.466737 14021 layer_factory.hpp:77] Creating layer pool1
I0814 22:11:09.466752 14021 net.cpp:100] Creating Layer pool1
I0814 22:11:09.466761 14021 net.cpp:434] pool1 <- conv1
I0814 22:11:09.466773 14021 net.cpp:408] pool1 -> pool1
I0814 22:11:09.466902 14021 net.cpp:150] Setting up pool1
I0814 22:11:09.466915 14021 net.cpp:157] Top shape: 100 96 62 62 (36902400)
I0814 22:11:09.466923 14021 net.cpp:165] Memory required for data: 757710000
I0814 22:11:09.466929 14021 layer_factory.hpp:77] Creating layer conv2
I0814 22:11:09.466951 14021 net.cpp:100] Creating Layer conv2
I0814 22:11:09.466959 14021 net.cpp:434] conv2 <- pool1
I0814 22:11:09.466970 14021 net.cpp:408] conv2 -> conv2
I0814 22:11:09.471264 14021 net.cpp:150] Setting up conv2
I0814 22:11:09.471294 14021 net.cpp:157] Top shape: 100 50 58 58 (16820000)
I0814 22:11:09.471302 14021 net.cpp:165] Memory required for data: 824990000
I0814 22:11:09.471319 14021 layer_factory.hpp:77] Creating layer pool2
I0814 22:11:09.471333 14021 net.cpp:100] Creating Layer pool2
I0814 22:11:09.471339 14021 net.cpp:434] pool2 <- conv2
I0814 22:11:09.471350 14021 net.cpp:408] pool2 -> pool2
I0814 22:11:09.471478 14021 net.cpp:150] Setting up pool2
I0814 22:11:09.471492 14021 net.cpp:157] Top shape: 100 50 29 29 (4205000)
I0814 22:11:09.471499 14021 net.cpp:165] Memory required for data: 841810000
I0814 22:11:09.471505 14021 layer_factory.hpp:77] Creating layer ip1
I0814 22:11:09.471518 14021 net.cpp:100] Creating Layer ip1
I0814 22:11:09.471526 14021 net.cpp:434] ip1 <- pool2
I0814 22:11:09.471535 14021 net.cpp:408] ip1 -> ip1
I0814 22:11:09.675981 14021 net.cpp:150] Setting up ip1
I0814 22:11:09.676018 14021 net.cpp:157] Top shape: 100 500 (50000)
I0814 22:11:09.676023 14021 net.cpp:165] Memory required for data: 842010000
I0814 22:11:09.676040 14021 layer_factory.hpp:77] Creating layer relu1
I0814 22:11:09.676055 14021 net.cpp:100] Creating Layer relu1
I0814 22:11:09.676060 14021 net.cpp:434] relu1 <- ip1
I0814 22:11:09.676069 14021 net.cpp:395] relu1 -> ip1 (in-place)
I0814 22:11:09.676887 14021 net.cpp:150] Setting up relu1
I0814 22:11:09.676900 14021 net.cpp:157] Top shape: 100 500 (50000)
I0814 22:11:09.676903 14021 net.cpp:165] Memory required for data: 842210000
I0814 22:11:09.676908 14021 layer_factory.hpp:77] Creating layer ip2
I0814 22:11:09.676923 14021 net.cpp:100] Creating Layer ip2
I0814 22:11:09.676926 14021 net.cpp:434] ip2 <- ip1
I0814 22:11:09.676934 14021 net.cpp:408] ip2 -> ip2
I0814 22:11:09.677170 14021 net.cpp:150] Setting up ip2
I0814 22:11:09.677178 14021 net.cpp:157] Top shape: 100 3 (300)
I0814 22:11:09.677181 14021 net.cpp:165] Memory required for data: 842211200
I0814 22:11:09.677187 14021 layer_factory.hpp:77] Creating layer ip2_ip2_0_split
I0814 22:11:09.677196 14021 net.cpp:100] Creating Layer ip2_ip2_0_split
I0814 22:11:09.677199 14021 net.cpp:434] ip2_ip2_0_split <- ip2
I0814 22:11:09.677206 14021 net.cpp:408] ip2_ip2_0_split -> ip2_ip2_0_split_0
I0814 22:11:09.677212 14021 net.cpp:408] ip2_ip2_0_split -> ip2_ip2_0_split_1
I0814 22:11:09.677271 14021 net.cpp:150] Setting up ip2_ip2_0_split
I0814 22:11:09.677279 14021 net.cpp:157] Top shape: 100 3 (300)
I0814 22:11:09.677283 14021 net.cpp:157] Top shape: 100 3 (300)
I0814 22:11:09.677285 14021 net.cpp:165] Memory required for data: 842213600
I0814 22:11:09.677289 14021 layer_factory.hpp:77] Creating layer accuracy
I0814 22:11:09.677297 14021 net.cpp:100] Creating Layer accuracy
I0814 22:11:09.677301 14021 net.cpp:434] accuracy <- ip2_ip2_0_split_0
I0814 22:11:09.677305 14021 net.cpp:434] accuracy <- label_mnist_1_split_0
I0814 22:11:09.677311 14021 net.cpp:408] accuracy -> accuracy
…
